experiments/exp028/checkpoint.pth (torch, 206286 bytes, 45 tensors)

conv1.depthwise.weight f4 [2, 1, 5, 5]
0	0xbdf76a86	-0.120808646
1	0xbde1001b	-0.10986348
2	0xbd9f2f7f	-0.07772731
3	0x3cf134ec	0.02944418
4	0x3d080876	0.033211194
5	0xbddc22ff	-0.107488625
6	0x3e596353	0.21229295
7	0x3eeb6156	0.459727
8	0xbec0d284	-0.3766061
9	0xbe9337fb	-0.28753647
10	0x3edc6046	0.430422
11	0x3f1c6410	0.61090183
12	0x3efb64f7	0.49100468
13	0xbd86fdc3	-0.0659137
14	0xbe8589b7	-0.2608163
15	0x3ee326ff	0.4436569
16	0x3f1bb5b3	0.60824126
17	0xbe31ce14	-0.17363769
18	0xbd9e2e36	-0.07723658
19	0xbe86e3db	-0.26345715
20	0x3ebc009b	0.36719212
21	0x3da4f767	0.08055001
22	0xbe18b658	-0.14913309
23	0x3e576758	0.21035516
24	0xbde2717b	-0.11056801
25	0xbe166deb	-0.14690368
26	0xbe4ae69e	-0.19814536
27	0xba8096a1	-0.0009810516
28	0x3e2ebb92	0.1706374
29	0x3e310f8f	0.17291091
30	0xbe962eb3	-0.29332504
31	0x3d1b6fb6	0.037948333
32	0x3a2fe486	0.0006709773
33	0xbe8005fb	-0.25004563
34	0xbe8d82bb	-0.27638802
35	0x3ebc9df9	0.36839274
36	0x3f1ed183	0.6203844
37	0x3f24381b	0.6414811
38	0xbe6c2b89	-0.23063482
39	0xbe0c002f	-0.13671945
40	0x3f0d54ef	0.55207723
41	0x3f10125d	0.5627802
42	0xbefe9101	-0.49720004
43	0xbede5b91	-0.43429235
44	0xbe506033	-0.20349197
45	0x3f17b4cd	0.59260255
46	0x3ea7ca06	0.3277132
47	0x3be1de27	0.0068929377
48	0xbe29351d	-0.16524167
49	0xbe3467ba	-0.17617694

conv1.depthwise.weight_fake_quant.scale f4 [2]
0	0x3b9d9699	0.0048092124
1	0x3ba59518	0.0050531738

conv1.depthwise.weight_fake_quant.activation_post_process.min_val f4 [2]
0	0xbec0a8e3	-0.3762885
1	0xbefe6b79	-0.4969137

conv1.depthwise.weight_fake_quant.activation_post_process.max_val f4 [2]
0	0x3f1c5b6c	0.61077
1	0x3f2449ee	0.6417531

conv1.pointwise.weight f4 [6, 2, 1, 1]
0	0xbf947147	-1.159707
1	0xbf022f10	-0.5085306
2	0x3effe07f	0.49975964
3	0xbe8f72e8	-0.28017354
4	0xbf13949e	-0.57648647
5	0x3f6a5842	0.9154092
6	0x3f3d209d	0.7387789
7	0x3eef89a2	0.46784693
8	0x3eb527c1	0.35381892
9	0x3f1000d8	0.5625129
10	0xbe80b44e	-0.25137562
11	0x3f7a55ca	0.97787154

conv1.pointwise.weight_fake_quant.scale f4 [6]
0	0x3b9507d5	0.004548053
1	0x3b80e4c9	0.0039335233
2	0x3bec2721	0.007206813
3	0x3b3ddc66	0.002897048
4	0x3b10919c	0.0022059446
5	0x3bfc3d0f	0.0076977084

conv1.pointwise.weight_fake_quant.activation_post_process.min_val f4 [6]
0	0xbf9472cd	-1.1597534
1	0xbe8f602b	-0.28003058
2	0xbf1384fb	-0.5762479
3	0x3eef8248	0.46779084
4	0x3eb522f8	0.35378242
5	0xbe809727	-0.2511532

conv1.pointwise.weight_fake_quant.activation_post_process.max_val f4 [6]
0	0xbf02332a	-0.5085932
1	0x3effc5fe	0.49955744
2	0x3f6a4ed3	0.91526526
3	0x3f3d1e8a	0.73874724
4	0x3f10010a	0.56251585
5	0x3f7a4495	0.977609

conv2.depthwise.weight f4 [6, 1, 5, 5]
0	0x3e90c61a	0.2827614
1	0x3e9e20ab	0.308843
2	0x3eb0acf0	0.3450694
3	0x3e2a8ca2	0.1665521
4	0xbdd7aa7b	-0.105305634
5	0xbe0c0dd4	-0.1367715
6	0x3eb9b667	0.36271974
7	0x3eb1e55f	0.3474531
8	0x3e851b5b	0.25997433
9	0x3d960426	0.0732501
10	0x3f10b627	0.5652794
11	0xbe1f5c87	-0.1556264
12	0x3bef3cbd	0.0073009417
13	0x3e6c407c	0.23071474
14	0xbdb42b0d	-0.08797274
15	0x3cadea85	0.021229992
16	0xbe4b2aa5	-0.19840486
17	0xbd8c7554	-0.06858316
18	0xbd75d11a	-0.060013868
19	0xbe254cbb	-0.16142552
20	0xbb8f42c8	-0.0043719746
21	0xbc4af9ae	-0.01238863
22	0xbe1244df	-0.14284085
23	0xbcbd23c4	-0.023088343
24	0xbeba2b29	-0.36361054
25	0x3eb6a997	0.35676262
26	0x3daf715a	0.08566542
27	0x3e11983e	0.14218232
28	0x3e56c137	0.20972143
29	0x3d425a68	0.0474495
30	0x3ea64626	0.32475394
31	0xbca4899c	-0.020085149
32	0x3e2da2c1	0.16956617
33	0x3ea41c7a	0.32052976
34	0x3e0d69eb	0.13809936
35	0x3eb97d3d	0.36228362
36	0x3e2e5de7	0.17028008
37	0xbedb7bdd	-0.42867938
38	0xbd687bde	-0.056758754
39	0x3f0aa704	0.54161096
40	0x3e562210	0.20911431
41	0xbdebfcba	-0.11522813
42	0xbebf53a4	-0.373685
43	0x3e9a2b46	0.3011114
44	0x3e5f154c	0.21785468
45	0x3ea73fb4	0.3266579
46	0x3e9103d9	0.28323248
47	0x3eb99836	0.3624894
48	0x3e839f00	0.25707245
49	0x3e43a6da	0.19106618
50	0xbe7cbfcf	-0.24682544
51	0xbed514c8	-0.41617417
52	0xbe113172	-0.14179018
53	0x3d6cf29e	0.057848565
54	0xbf07133e	-0.52763736
55	0xbec1c7c8	-0.37847733
56	0xbe49a619	-0.19692267
57	0x3e4ce4b5	0.2000912
58	0xbe22e1f5	-0.15906508
59	0xbf083c3c	-0.5321691
60	0xbc92c0c9	-0.017914193
61	0xbe3183e5	-0.1733547
62	0xbe2c8604	-0.16847998
63	0xbe0c3b1e	-0.13694426
64	0xbe132f7b	-0.14373581
65	0x3e2156ea	0.15755811
66	0xbcd5e298	-0.026109025
67	0xbd618e95	-0.055067617
68	0xbcdea7fb	-0.027179709
69	0xbe10f9db	-0.14157812
70	0xbe651903	-0.22372822
71	0x3db42df6	0.08797829
72	0xbe2aee13	-0.1669238
73	0xbd920cc2	-0.071313396
74	0xbe85e22d	-0.2614912
75	0xbe87fbf3	-0.2655941
76	0xbdb98961	-0.09059406
77	0xbc8e07e7	-0.017337753
78	0xbdda4650	-0.10657942
79	0xbd766ace	-0.06016045
80	0xbe2d0cc8	-0.16899407
81	0xbb33bfc1	-0.0027427527
82	0x3c934916	0.017979186
83	0xbe1917c1	-0.14950468
84	0xbd0a114f	-0.033707913
85	0x3ce238fb	0.027615061
86	0xbcc05368	-0.023477271
87	0xbe2def70	-0.1698587
88	0x3daadc79	0.08342833
89	0x3e9cf61d	0.3065652
90	0xbdce37fc	-0.10069272
91	0xbe197569	-0.14986195
92	0xbe32fb73	-0.17478733
93	0xbe154b8e	-0.14579603
94	0x3df387f4	0.118911654
95	0xbf262560	-0.6490078
96	0xbdd08074	-0.101807505
97	0xbe55d0ca	-0.20880428
98	0xbdc3e231	-0.09564627
99	0xbe5a5b17	-0.2132381
100	0xbd16e993	-0.036843847
101	0x3e220835	0.15823443
102	0xbdb1c560	-0.086802244
103	0xbef709e0	-0.48249722
104	0xbd8ae69d	-0.06782267
105	0x3da71ed3	0.08160176
106	0xbdfe3a04	-0.12413409
107	0xbccf024a	-0.025269646
108	0xbebcab51	-0.36849454
109	0xbf111bb4	-0.56682897
110	0x3dd2b45e	0.102883086
111	0x3d81ce15	0.06338135
112	0xbde6c4b5	-0.11267988
113	0xbd92830c	-0.071539015
114	0xbe7501be	-0.23926446
115	0x3e027540	0.1274004
116	0xbd435088	-0.047684222
117	0x3cf04052	0.029327545
118	0x3ba9a21c	0.0051767956
119	0xbe8c523e	-0.27406496
120	0x3eaff674	0.34367716
121	0xbd118d6c	-0.03553526
122	0x3e717789	0.23580755
123	0x3eff7a90	0.49898195
124	0x3e9373d3	0.28799304
125	0x3dc95227	0.098301224
126	0x3e122666	0.1427246
127	0xbe8a9fa3	-0.27074918
128	0xbde2bdc5	-0.11071352
129	0xbdb05ca9	-0.086114235
130	0x3e48de1e	0.19615981
131	0xbd90da91	-0.07072938
132	0xbdb0c79f	-0.08631825
133	0x3d0e17f1	0.0346908
134	0xbdc089a7	-0.09401255
135	0xbe787537	-0.24263464
136	0x3cfaac88	0.030599847
137	0x3e820ac6	0.25398844
138	0xbdf221c9	-0.1182285
139	0xbeee16f7	-0.46501896
140	0xbedf2515	-0.4358298
141	0xbe6f8be9	-0.23393215
142	0x3c289ffd	0.01029205
143	0xbd13a488	-0.03604558
144	0xbe4f9366	-0.20271072
145	0xbe8fac04	-0.28060925
146	0xbdaf9e16	-0.085750744
147	0x3db17956	0.08665721
148	0xbe5f904a	-0.21832386
149	0xbdf02505	-0.11725811

conv2.depthwise.weight_fake_quant.scale f4 [6]
0	0x3b91e161	0.004451916
1	0x3b8bb32e	0.0042633032
2	0x3b882b09	0.004155521
3	0x3ba61e66	0.0050695417
4	0x3b91198d	0.0044280947
5	0x3b6dfcd4	0.0036314027

conv2.depthwise.weight_fake_quant.activation_post_process.min_val f4 [6]
0	0xbeba2502	-0.3635636
1	0xbedb7387	-0.42861578
2	0xbf082b09	-0.53190666
3	0xbf261e66	-0.64890134
4	0xbf11198d	-0.5667961
5	0xbeedfcd4	-0.46481955

conv2.depthwise.weight_fake_quant.activation_post_process.max_val f4 [6]
0	0x3f10bd9e	0.5653933
1	0x3f0a9bc8	0.54143953
2	0x3e4cef24	0.200131
3	0x3e9cf9d9	0.3065937
4	0x3eff5d4a	0.4987586
5	0x3e820fee	0.25402778

conv2.pointwise.weight f4 [16, 6, 1, 1]
0	0xbdfc752d	-0.12327037
1	0x3f13902c	0.57641864
2	0xbe89750c	-0.26847112
3	0x3dfe0aa5	0.12404374
4	0x3eb53670	0.35393095
5	0x3e2e20b7	0.17004667
6	0xbe872c5a	-0.26401025
7	0x3d2520c2	0.040314443
8	0x3edc388b	0.4301189
9	0xbdba772f	-0.09104764
10	0x3eca9dc2	0.39573485
11	0xbf277c6e	-0.6542424
12	0xbf1fdda5	-0.6244758
13	0x3e56b8a0	0.20968866
14	0xbe9cc6b8	-0.3062036
15	0x3e380163	0.17969279
16	0xbe72be13	-0.2370532
17	0xbe8e05fd	-0.27738944
18	0xbcf5dd40	-0.030012727
19	0x3f1c6000	0.61083984
20	0xbeb16706	-0.34648913
21	0xbe4adeff	-0.19811629
22	0x3e6c73f3	0.23091106
23	0xbedcc80f	-0.43121383
24	0xbea2a3cf	-0.317656
25	0x3ea47b4e	0.32125324
26	0x3ef92a51	0.48665097
27	0xbeb7e5fd	-0.35917655
28	0xbea8462c	-0.32866037
29	0x3de238a4	0.110459596
30	0xbf1cf3a7	-0.61309284
31	0x3e70905a	0.23492566
32	0x3df646c3	0.120252155
33	0x3ea6e0f0	0.3259349
34	0xbd62555f	-0.055257197
35	0xbd758cba	-0.05994866
36	0x3f27bf7e	0.6552657
37	0x3c39a43c	0.01133066
38	0x3dae087a	0.084977105
39	0xbcbd029a	-0.02307253
40	0xbe27784d	-0.16354485
41	0xbe2aacfa	-0.16667548
42	0xb9dd0d02	-0.00042162096
43	0x3eccfcbc	0.4003657
44	0xbe54a7e3	-0.20767169
45	0x3e970dab	0.29502615
46	0x3eb95fd0	0.36205912
47	0xbf1d8358	-0.6152854
48	0x3ec246c8	0.37944627
49	0xbd6d7bae	-0.05797928
50	0x3ecb8fc5	0.39758125
51	0xbddeb51b	-0.10874387
52	0x3f1625d5	0.5865148
53	0x3e8b855e	0.2725019
54	0xbeb0b053	-0.34509525
55	0xbef09d6a	-0.46995097
56	0xbe25c3ff	-0.16188048
57	0xbdfd1049	-0.12356622
58	0xbee95156	-0.45569867
59	0xbe885f4d	-0.2663521
60	0x3d5681c9	0.052369867
61	0xbe93cfb1	-0.28869393
62	0x3e784901	0.24246599
63	0xbe29d0ff	-0.16583632
64	0xbf15625c	-0.5835321
65	0xbe8acfd7	-0.27111694
66	0x3e1fb98d	0.15598126
67	0x3d7d8c11	0.061901156
68	0x3d6e2632	0.058141895
69	0x3f179fe5	0.59228355
70	0xbef1fc34	-0.47262728
71	0xbce37e76	-0.027770262
72	0x3ed71998	0.42011714
73	0xbe058a18	-0.1304096
74	0x3d8a7f39	0.06762547
75	0xbf32df6b	-0.6987216
76	0x3e8670c3	0.26257905
77	0xbe861792	-0.26189858
78	0x3eb8d62f	0.3610091
79	0xbefa57d5	-0.48895136
80	0x3d8df39d	0.06931231
81	0xbe0742b0	-0.13209033
82	0x3e7fd371	0.24983002
83	0xbeeacbfa	-0.45858747
84	0x3d7411dd	0.05958735
85	0x3eddae2d	0.43296948
86	0xbe9e8169	-0.30958107
87	0x3e110ad8	0.14164293
88	0x3bb443e4	0.0055012573
89	0xbd1eebde	-0.03879916
90	0x3cf5e3c4	0.030015834
91	0xbcd1664a	-0.02556147
92	0xbdda6e67	-0.10665589
93	0x3e32da9d	0.17466207
94	0x3e9f9e2d	0.31175366
95	0xbf375b03	-0.7162325

conv2.pointwise.weight_fake_quant.scale f4 [16]
0	0x3b94ae5a	0.004537386
1	0x3ba77ca0	0.005111292
2	0x3b9fec23	0.0048804446
3	0x3b9d94c5	0.0048089945
4	0x3b7b05d9	0.0038303046
5	0x3b9cf473	0.004789883
6	0x3ba91804	0.0051603336
7	0x3b9d730e	0.0048049754
8	0x3b97615a	0.0046197595
9	0x3af177e4	0.0018422571
10	0x3b9556cc	0.004557466
11	0x3b98cca3	0.0046630665
12	0x3bb2cdbc	0.0054566544
13	0x3b7a83be	0.0038225497
14	0x3b5f7802	0.003409863
15	0x3bb75f87	0.0055961045

conv2.pointwise.weight_fake_quant.activation_post_process.min_val f4 [16]
0	0xbe89753e	-0.2684726
1	0xbf277ca0	-0.6542454
2	0xbf1fec23	-0.6246969
3	0xbedcb645	-0.4310781
4	0xbeb7fbad	-0.359342
5	0xbf1cf473	-0.613105
6	0xbe2ab482	-0.16670421
7	0xbf1d730e	-0.61503685
8	0xbddeee3b	-0.108852826
9	0xbef0866c	-0.46977556
10	0xbf1556cc	-0.58335567
11	0xbef1f932	-0.47260433
12	0xbf32cdbc	-0.69845176
13	0xbefa83be	-0.48928636
14	0xbe9e8dd5	-0.30967584
15	0xbf375f87	-0.7163014

conv2.pointwise.weight_fake_quant.activation_post_process.max_val f4 [16]
0	0x3f1384fd	0.576248
1	0x3edc3092	0.43005806
2	0x3e56ba1d	0.20969434
3	0x3f1c599b	0.6107423
4	0x3ef90fcd	0.48644868
5	0x3ea6ea87	0.32600805
6	0x3f27c5d4	0.65536237
7	0x3eccf4a3	0.40030393
8	0x3f163297	0.58670944
9	0xbdfd2423	-0.12360408
10	0x3e784cb9	0.24248017
11	0x3f179b0a	0.59220946
12	0x3ed6fa6a	0.41987926
13	0x3eb8a3cd	0.3606247
14	0x3eddb912	0.4330526
15	0x3e9f7f06	0.311516

conv3.depthwise.weight f4 [16, 1, 5, 5]
0	0xbe9f287f	-0.31085584
1	0xbe6941df	-0.22779034
2	0xbe2f02a6	-0.17090854
3	0xbe280b21	-0.16410495
4	0xbe3f3186	-0.18671235
5	0xbea7f93a	-0.32807332
6	0xbed65e82	-0.4186898
7	0xbe3f32ab	-0.18671672
8	0xbcc9f773	-0.024654126
9	0xbe3ee009	-0.1864015
10	0xbe451fa3	-0.1925035
11	0xbdc52ec7	-0.09628063
12	0xbde36bbe	-0.111045346
13	0xbe2cbd11	-0.16868998
14	0xbe2c51db	-0.168281
15	0xbe2e41e2	-0.1701732
16	0xbe042c98	-0.12907636
17	0xbe42c9e8	-0.19022334
18	0xbe5fa326	-0.2183958
19	0xbe793669	-0.24337162
20	0xbeb16e0b	-0.3465427
21	0xbd7ef598	-0.062245935
22	0x3d192eed	0.037398268
23	0xbd8db43f	-0.06919145
24	0xbdfcc933	-0.12343063
25	0x3e77a3c5	0.24183567
26	0x3d8b646f	0.068062656
27	0x3ceb8870	0.028751582
28	0xbdf14f76	-0.11782734
29	0xbded0804	-0.115737945
30	0x3e4cc67f	0.19997595
31	0x3dc99f5b	0.09844848
32	0xbcd3c528	-0.025850847
33	0x3df5c172	0.119997874
34	0x3d5a0ecc	0.053236768
35	0x3e9ebc43	0.31003007
36	0x3e882bc6	0.26595896
37	0x3e0df9bd	0.13864799
38	0x3e03c7bb	0.1286916
39	0xbbd47565	-0.006483721
40	0x3e88abb8	0.2669351
41	0x3e981779	0.29705408
42	0x3f012b27	0.5045647
43	0x3e885fda	0.2663563
44	0x3e6b0538	0.2295121
45	0x3efe7341	0.49697307
46	0x3ea28fcc	0.31750333
47	0x3e38266c	0.17983407
48	0x3ea2638b	0.3171657
49	0x3ea4de83	0.32201013
50	0x3e0c9625	0.1372915
51	0x3db7d0ab	0.08975347
52	0x3dc4ca26	0.09608869
53	0x3dd737bd	0.10508678
54	0x3e7d19d8	0.2471689
55	0xbd7ce63e	-0.061743014
56	0xbe4b7a29	-0.19870819
57	0xbe55ff60	-0.20898199
58	0x3d3074de	0.043080203
59	0x3c8cbe3d	0.017180556
60	0xbeb799da	-0.35859567
61	0xbea0a684	-0.3137704
62	0xbdc4eee2	-0.09615876
63	0xbde4abaa	-0.11165555
64	0xbe245550	-0.16048169
65	0xbe9ee43b	-0.310335
66	0x3d3f7b95	0.046748716
67	0xbd86f3d4	-0.06589475
68	0x3bd0a528	0.0063673444
69	0xbdc82497	-0.09772604
70	0x3d5bb651	0.053640667
71	0xbefcf4b5	-0.49405447
72	0xbe71f547	-0.23628722
73	0xbdfe6ce3	-0.12423112
74	0xbe371c2b	-0.17881839
75	0x3ea10881	0.314518
76	0x3e5f1484	0.2178517
77	0x3e1c2874	0.15249807
78	0x3e305398	0.17219388
79	0x3d7b0860	0.061287284
80	0x3be9b5cc	0.0071322676
81	0x3db28f85	0.087187804
82	0xbd0a0c05	-0.03370287
83	0xbe3c4ece	-0.18389437
84	0xbc0ecc81	-0.00871575
85	0x3cedb74a	0.029018063
86	0xbdb2beda	-0.08727808
87	0x3c74d045	0.014942233
88	0xbd7705bd	-0.060308207
89	0x3d922469	0.07135851
90	0x38b1c779	8.4771724e-05
91	0x3dc6cc3b	0.097069226
92	0x3db877a3	0.09007194
93	0xbd851882	-0.06498815
94	0x3daf8ee3	0.08572175
95	0xbf032385	-0.51226074
96	0xbe8414f0	-0.25797224
97	0xbe025a4c	-0.12729758
98	0xbede8d1f	-0.43467042
99	0xbebdffe9	-0.37109306
100	0x3ea2f1e6	0.3182518
101	0x3e9da90d	0.30793038
102	0x3ed17fea	0.40917903
103	0x3eabf218	0.3358314
104	0x3ee19f58	0.44066882
105	0x3e5ff106	0.21869287
106	0x3e89c616	0.2690894
107	0x3e98786b	0.29779372
108	0x3e9196c6	0.28435344
109	0x3ec3c3d2	0.38235337
110	0x3dbceecd	0.09225235
111	0xbd451e90	-0.04812485
112	0x3e3c170a	0.18368164
113	0x3deea95c	0.116533965
114	0x3e717231	0.23578717
115	0x3e148a36	0.14505848
116	0x3d6a00e0	0.05712974
117	0x3e13b04d	0.14422722
118	0xbd3620a2	-0.044464715
119	0x3ea7823b	0.32716545
120	0x3dee6130	0.11639631
121	0x3cdb77a2	0.026790444
122	0x3a46cb61	0.00075834064
123	0x3e537863	0.20651393
124	0x3dcf2354	0.1011416
125	0x3d785703	0.060629856
126	0x3ee16568	0.4402268
127	0x3ea16425	0.31521717
128	0x3ea325fa	0.3186491
129	0x3e385cdf	0.18004178
130	0xbd76c7cd	-0.06024914
131	0x3e3ab098	0.18231428
132	0xbeeb508c	-0.4595989
133	0xbe17b312	-0.14814404
134	0x3e1ab41e	0.15107772
135	0x3e01842b	0.12648074
136	0x3e3f4bda	0.18681279
137	0xbdf27e24	-0.11840466
138	0x3ed8dc56	0.42355603
139	0xbdd4d8bb	-0.103929006
140	0x3f000bdc	0.50018096
141	0x3f034b9a	0.51287234
142	0x3ea7d1d3	0.3277727
143	0x3e370c39	0.17875756
144	0x3ec0af4f	0.3763375
145	0x3e46f480	0.19429207
146	0x3e5c518a	0.2151548
147	0xbe5d849f	-0.21632622
148	0xbdbcf1e4	-0.092258245
149	0x3ef9849c	0.48733985
150	0xbe3bd34b	-0.1834232
151	0xbdcb292c	-0.09919962
152	0xbd06553a	-0.032796122
153	0x3cda676c	0.026660644
154	0x3ea3fde8	0.32029653
155	0x3e1d6a2f	0.15372537
156	0xbdd586b7	-0.104260854
157	0xbcb42719	-0.0219913
158	0x3df30e46	0.11867957
159	0xbca7e912	-0.020496879
160	0x3e8bb1e5	0.2728416
161	0xbcf76ea9	-0.030204134
162	0x3dd45cd3	0.10369267
163	0x3ebce230	0.36891317
164	0x3e1cbf92	0.15307453
165	0xbe0e6b45	-0.13908108
166	0x3e024077	0.12719904
167	0xbdfd9ecf	-0.12383806
168	0x3dd57a82	0.10423757
169	0x3e521ff8	0.20520008
170	0xbeb9bfb2	-0.36279064
171	0xbe897c4d	-0.26852646
172	0xbdeb5c0b	-0.11492165
173	0xbd53b8be	-0.051689856
174	0xbd4a5402	-0.049396522
175	0xbe5a731a	-0.2133297
176	0xbe46473f	-0.19363116
177	0x3d0a6b2d	0.033793617
178	0xbd211ccc	-0.039334103
179	0x3db22c7a	0.086998895
180	0xbeb06c60	-0.34457684
181	0x3dc30da6	0.095240876
182	0xbd0cd34b	-0.034381192
183	0xbdeae68a	-0.11469753
184	0xbca25910	-0.019817859
185	0x3e713d24	0.2355848
186	0x3e35d1e5	0.1775585
187	0x3d1b091b	0.03785048
188	0x3e2bf507	0.1679269
189	0x3e435e63	0.19078974
190	0x3e1b2700	0.15151596
191	0x3e19bb55	0.15012868
192	0x3dc997bb	0.098433934
193	0x3e4eef7a	0.2020854
194	0x3e42b9e8	0.1901623
195	0xbe9eee05	-0.3104097
196	0xbebd456a	-0.3696702
197	0xbebd182e	-0.3693251
198	0xbd568a36	-0.052377902
199	0xbe61d75b	-0.22054808
200	0x3eeafe2b	0.4589704
201	0x3ea01ec8	0.31273484
202	0x3e12c39a	0.14332429
203	0x3db34a8a	0.087544516
204	0x3e841fb2	0.25805432
205	0x3ea53f7e	0.32275003
206	0x3cdf2042	0.027237061
207	0x3ddc0586	0.10743241
208	0x3e5a8235	0.21338733
209	0x3d363a97	0.04448947
210	0x3e8722bd	0.2639369
211	0x3db07887	0.08616739
212	0x3e0c9c45	0.13731487
213	0x3cd5f5fa	0.026118267
214	0x3da7dcca	0.08196409
215	0x3e9f524e	0.3111748
216	0x3e5fb15f	0.21845005
217	0xbdebf586	-0.11521439
218	0x3e74d6fa	0.23910132
219	0x3e29def4	0.16588956
220	0x3eac39f1	0.33637956
221	0x3e05e6c7	0.13076316
222	0x3ec5b707	0.386162
223	0x3dcaee46	0.09908728
224	0x3e35491b	0.17703669
225	0xbe80ae58	-0.25133014
226	0x3db10ba1	0.08644796
227	0xbd82ecf7	-0.06392854
228	0xbe6aa792	-0.22915486
229	0xbe23e26b	-0.1600434
230	0xbea79e04	-0.32737744
231	0xbe5ee01d	-0.2176518
232	0x3d85efd9	0.06539888
233	0xbe9f4896	-0.31110066
234	0xbdf2f050	-0.11862242
235	0xbe45ec02	-0.19328311
236	0x3ba12164	0.0049173106
237	0xbe0192f7	-0.12653719
238	0xbddb7d04	-0.10717204
239	0xbe0b60c0	-0.13611126
240	0xbdb76955	-0.08955637
241	0x3dced258	0.10098714
242	0xbe3bfbf4	-0.18357831
243	0xbe949305	-0.29018417
244	0x3d9e1fd6	0.07720916
245	0x3dbdff87	0.092772536
246	0xbda8fd1a	-0.082514
247	0xbeec0fb5	-0.46105734
248	0xbe98af57	-0.29821274
249	0xbe25cb0b	-0.16190736
250	0xbebb5acd	-0.36592713
251	0xbe9ce869	-0.30646065
252	0xbdec25e4	-0.115306646
253	0xbcbe6912	-0.02324346
254	0xbe12aacf	-0.14322971
255	0xbeaa0707	-0.33208486

conv3.depthwise.weight_fake_quant.scale f4 [16]
0	0x3b565b95	0.0032708396
1	0x3b822b55	0.0039724507
2	0x3b7cd9f1	0.0038582052
3	0x3b83055e	0.0039984426
4	0x3b636dad	0.0034702823
5	0x3b845314	0.004038224
6	0x3b3e6dff	0.0029057262
7	0x3b3d47fe	0.0028882022
8	0x3b6cdb48	0.0036141444
9	0x3b6c1692	0.0036024195
10	0x3b3d09fa	0.0028845058
11	0x3b26e4e1	0.0025466012
12	0x3b7a89fb	0.0038229215
13	0x3b998142	0.004684598
14	0x3b7ffa86	0.0039059236
15	0x3b73f25a	0.003722331

conv3.depthwise.weight_fake_quant.activation_post_process.min_val f4 [16]
0	0xbed65b95	-0.41866747
1	0xbdf16a90	-0.11787903
2	0xbefcd9f1	-0.49385026
3	0xbf03055e	-0.51180065
4	0xbd44f45e	-0.04808461
5	0xbeeb562e	-0.45964187
6	0xbeb9c090	-0.36279726
7	0xbebd47fe	-0.36968988
8	0xbdebb5e8	-0.11509305
9	0xbeec1692	-0.4611097
10	0xbebd09fa	-0.36921674
11	0xbe1ca525	-0.15297373
12	0xbefa89fb	-0.48933396
13	0xbedbe8df	-0.42951104
14	0xbefffa86	-0.49995822
15	0xbef3f25a	-0.47645837

conv3.depthwise.weight_fake_quant.activation_post_process.max_val f4 [16]
0	0x3d185160	0.03718698
1	0x3f0126fe	0.5045012
2	0x3e7cedba	0.2470006
3	0x3ea11eda	0.3146885
4	0x3ee1a6d2	0.44072586
5	0x3f034a6e	0.51285446
6	0x3ebcf123	0.36902723
7	0x3e71510f	0.23566078
8	0x3eeb0191	0.45899633
9	0x3dcec15c	0.10095474
10	0x3e6b475a	0.22976437
11	0x3ea59717	0.32341835
12	0x3d4843a8	0.048892647
13	0x3f184e3f	0.59494394
14	0x3eece0c0	0.4626522
15	0x3ec6fb1c	0.38863456

conv3.pointwise.weight f4 [120, 16, 1, 1]
0	0xbe7a9179	-0.24469556
1	0x3e1930bd	0.14959998
2	0x3e492457	0.19642769
3	0x3e48be6d	0.19603892
4	0xbf30588d	-0.6888512
5	0x3e7f1d5f	0.24913548
6	0xbe8207d8	-0.2539661
7	0x3ed9bbc5	0.4252607
8	0xbe81e2fd	-0.2536849
9	0x3d2a21d8	0.041536182
10	0xbb5055ca	-0.0031789416
11	0xbd6cdb33	-0.057826232
12	0xbe0186a1	-0.12649013
13	0xbcc6eee9	-0.024283843
14	0xbe39f750	-0.18160748
15	0x3db8f331	0.0903076
16	0xbd63f05c	-0.055649146
17	0x3eb4ec09	0.3533633
18	0xbdeace4a	-0.11465128
19	0xbe93f805	-0.2890016
20	0xbe8bbfca	-0.2729476
21	0xbf103102	-0.5632478
22	0xbe92cd51	-0.2867227
23	0xbeb6dc6d	-0.35715047
24	0xbc0e0009	-0.008667001
25	0xbe1d5346	-0.15363798
26	0xbd8966b9	-0.06709046
27	0x3ea939b9	0.3305185
28	0xbd4bd35c	-0.049762115
29	0xbdf1e79b	-0.11811753
30	0x3ea1df49	0.31615666
31	0x3ed5e307	0.4177477
32	0xbe682fe9	-0.22674526
33	0xbde94684	-0.11390403
34	0x3e26f390	0.16303849
35	0x3e0cd27d	0.1375217
36	0xbebe1315	-0.37123933
37	0xbe1da7de	-0.15396068
38	0x3e963c91	0.29343084
39	0xbea22b23	-0.31673536
40	0x3db9f087	0.0907908
41	0xbdbad697	-0.09122961
42	0x3e8cdb68	0.27511144
43	0x3e8ca89e	0.27472395
44	0x3e63dc04	0.22251898
45	0xbe71444f	-0.23561214
46	0xbe9db5f2	-0.30802876
47	0xbd6430ba	-0.05571053
48	0x3dc79aee	0.09746347
49	0xbd15315a	-0.03642402
50	0xbe05984c	-0.13046378
51	0x3de862af	0.113469474
52	0xbed37318	-0.41298747
53	0x3ec6e822	0.38848978
54	0xbd1b869a	-0.037970163
55	0xbd108ab7	-0.03528854
56	0xbe9c57a1	-0.30535606
57	0x3c86c559	0.016451525
58	0x3e277535	0.16353305
59	0xbeba8452	-0.36429077
60	0xbe0218c8	-0.12704766
61	0xbe13d1c2	-0.14435485
62	0x3ec9e3f7	0.39431736
63	0xbe0f2623	-0.13979392
64	0x3e168794	0.14700156
65	0xbe33e951	-0.17569472
66	0xbe58ebbb	-0.21183674
67	0xbe3d349f	-0.18477105
68	0xbe4bb410	-0.19892907
69	0x3dfe3802	0.124130264
70	0xbcc46e08	-0.023978248
71	0xbde2145e	-0.11039041
72	0xbea67a82	-0.3251534
73	0xbe2c7780	-0.1684246
74	0x3e30e4e7	0.1727482
75	0xbec79e7c	-0.389881
76	0x3e2b4c14	0.1672824
77	0x3d06992c	0.03286092
78	0xbddd858b	-0.10816487
79	0xbe1b997c	-0.15195268
80	0x3e9cce00	0.30625916
81	0xbf271b54	-0.65276074
82	0x3d75f8d9	0.060051773
83	0xbe8ab9ac	-0.2709478
84	0x3e2e4652	0.17019013
85	0x3e198639	0.14992608
86	0x3e9b4084	0.3032266
87	0xbe229fd1	-0.15881278
88	0x3d17af7e	0.037032597
89	0x3d580072	0.0527348
90	0xbe7d7d22	-0.24754766
91	0x3dee37fb	0.11631771
92	0xbd7277fb	-0.059196454
93	0x3d3d97ac	0.046287224
94	0xbecdb0bb	-0.40173897
95	0xbe5f15ac	-0.21785611
96	0xbe069abb	-0.13144962
97	0x3cb8a8a6	0.022541355
98	0x3eb843d7	0.35989258
99	0x3e482f11	0.19549204
100	0xbdbc2f68	-0.091887295
101	0x3ece022b	0.4023603
102	0xbeacaa9e	-0.3372392
103	0x3ec94411	0.39309743
104	0xbe0e1505	-0.13875206
105	0x3e99209c	0.2990769
106	0xbe6d8e44	-0.23198801
107	0x3e48f74c	0.19625586
108	0x3de97acd	0.114003755
109	0x3e76738a	0.24067512
110	0xbd2ecbf7	-0.042674985
111	0x3d82c399	0.063849635
112	0xbe5b4cf7	-0.21416079
113	0x3e97caa3	0.29646787
114	0x3e505f33	0.20348816
115	0x3df91046	0.12161307
116	0xbe6515a1	-0.22371532
117	0xbe9d6a9b	-0.30745396
118	0xbe509eca	-0.20373073
119	0xbda69dfd	-0.081356026
120	0x3df60251	0.120121606
121	0x3c72b62b	0.01481394
122	0x3c645701	0.013936759
123	0x3edeeb40	0.43538857
124	0x3d5bc45a	0.053654052
125	0x3cdbf901	0.026852133
126	0x3e48cbc2	0.19608977
127	0x3ec2f212	0.3807531
128	0xbe003e58	-0.12523782
129	0x3e4a953c	0.19783491
130	0x3e26a5d2	0.16274193
131	0x3e4c7b86	0.19968995
132	0xbc97c2ac	-0.018525444
133	0xbd9a73f9	-0.07541651
134	0xbea29cd4	-0.31760275
135	0x3e31d277	0.17365442
136	0xbe7049d1	-0.23465659
137	0x3d8b2b84	0.06795409
138	0xbdcd2c92	-0.10018267
139	0x3ec4e4ca	0.38455802
140	0xbd93ba2e	-0.07213245
141	0x3b4f715c	0.003165326
142	0xbdbc0bef	-0.09181964
143	0x3e832424	0.2561351
144	0x3e49d32a	0.19709459
145	0xbf1450eb	-0.5793597
146	0xbe03eb36	-0.12882695
147	0xbaaa5578	-0.0012995442
148	0x3d49d7bf	0.049278017
149	0x3e4114f4	0.18855649
150	0xbdd59a46	-0.10429816
151	0xbf16e855	-0.5894826
152	0x3df01231	0.1172222
153	0xbdd4cf20	-0.103910685
154	0x3dfafe12	0.12255491
155	0xbe20ee54	-0.15715915
156	0xbb9470cf	-0.0045300494
157	0x3e16dac5	0.14731891
158	0x3b53c350	0.003231246
159	0xbd244f87	-0.040114906
160	0x3e8c203e	0.2736835
161	0xbde467d2	-0.11152615
162	0x3b265792	0.0025381786
163	0xbe70a723	-0.23501258
164	0x3d18a309	0.037264857
165	0x3d5308cc	0.05152206
166	0x3d9cb738	0.07652134
167	0x3c2fb90f	0.010725274
168	0x3e76030a	0.24024597
169	0x3ed12d3c	0.40854824
170	0x3ea49962	0.32148272
171	0xbe497652	-0.19674042
172	0xbe5e3496	-0.21699747
173	0x3dc0f8e2	0.09422471
174	0x3dd1fcd5	0.10253302
175	0x3e571ffe	0.21008298
176	0xbe33ef8b	-0.17571847
177	0x3ea23dd6	0.31687802
178	0xbef83831	-0.4848037
179	0xbda933d6	-0.0826184
180	0x3e282987	0.16422091
181	0x3e3a2a07	0.18180095
182	0xbe49419a	-0.19653931
183	0xbe17a39d	-0.14808507
184	0x3e1e5169	0.15460743
185	0xbc940a35	-0.018071273
186	0x3ea5d9bf	0.3239269
187	0x3d871e7b	0.065976106
188	0x3e72bde7	0.23705254
189	0x3cb6e3e5	0.022325465
190	0xbe8f47d7	-0.27984497
191	0xbdc8cc6a	-0.09804614
192	0x3e4594d5	0.19295056
193	0x3e526c28	0.20549071
194	0x3d8a6089	0.06756694
195	0x3e292c48	0.16520798
196	0x3adf41da	0.0017033175
197	0xbd85c1f5	-0.06531135
198	0xbc937980	-0.018002272
199	0xbdabc0b5	-0.08386365
200	0xbe5f23e0	-0.21791029
201	0x3d92936d	0.071570255
202	0x3c723625	0.014783417
203	0x3dc26148	0.09491211
204	0x3e8c06ea	0.27349025
205	0xbd9293e4	-0.07157114
206	0x3e2b75a9	0.16744103
207	0xbe95c069	-0.2924836
208	0x3e564bf5	0.20927413
209	0xbd8411e8	-0.06448728
210	0x3e0551b2	0.13019446
211	0x3e45011c	0.19238704
212	0xbeac962a	-0.33708316
213	0x3e802163	0.25025472
214	0xbcac3f08	-0.02102615
215	0x3e8c69db	0.2742451
216	0x3d7147c7	0.058906343
217	0x3cbcb9f8	0.023037896
218	0xbe8cfc09	-0.27536038
219	0x3dedbf1d	0.116087176
220	0xbd573360	-0.05253923
221	0x3e8eaae6	0.2786476
222	0xbbeda938	-0.0072528385
223	0x3ebf63ac	0.3738073
224	0xbe82ecc2	-0.25571257
225	0x3ea5dd00	0.32395172
226	0x3da37ddd	0.07982991
227	0x3e6badae	0.23015472
228	0x3e0215ff	0.12703703
229	0x3e25d7cd	0.16195603
230	0x3e1e91d8	0.15485322
231	0x3cf612bf	0.030038236
232	0xbdb2a66c	-0.08723149
233	0x3e51ec74	0.20500356
234	0xbb878db0	-0.0041367635
235	0x3e7cdf06	0.24694452
236	0x3d81ef61	0.06344486
237	0x3f07bbc9	0.5302091
238	0xbe31ba9a	-0.17356339
239	0x3e2ef661	0.17086174
240	0x3eadc63f	0.33940312
241	0x3d5acdc3	0.053418886
242	0xbdf9216b	-0.12164577
243	0xbe5ea5d2	-0.21742943
244	0xbd7345ed	-0.05939286
245	0x3e9eb9e5	0.310012
246	0x3e3befc8	0.18353188
247	0xbd84caf3	-0.06484022
248	0x3e335e0e	0.17516348
249	0x3aef72a9	0.0018268424
250	0xbde8342c	-0.11338076
251	0xbeb4a72a	-0.35283786
252	0x3c8e46e1	0.017367782
253	0x3ef961f8	0.48707557
254	0x3e927487	0.28604528
255	0xbe020f5e	-0.12701175

conv3.pointwise.weight_fake_quant.scale f4 [120]
0	0x3bb0563b	0.005381373
1	0x3b903c43	0.004401715
2	0x3b3dffd4	0.0028991597
3	0x3b5334a9	0.0032227433
4	0x3b47bef9	0.0030478819
5	0x3ba70fa2	0.005098299
6	0x3b4fa849	0.0031686
7	0x3b6068a5	0.003424206
8	0x3b465c05	0.003026725
9	0x3b96e5d2	0.0046050334
10	0x3b52e7ec	0.0032181693
11	0x3b785b68	0.003789628
12	0x3b15c038	0.0022850167
13	0x3b40e406	0.0029432788
14	0x3b88c324	0.004173653
15	0x3b7b52d7	0.0038348937
16	0x3b689b38	0.0035492908
17	0x3b5f7671	0.0034097696
18	0x3b856b51	0.004071631
19	0x3b287914	0.0025706934
20	0x3b23ee60	0.0025013909
21	0x3b797501	0.0038064125
22	0x3b8e513a	0.004343179
23	0x3b313c08	0.0027043838
24	0x3b863ff4	0.0040969793
25	0x3ba13328	0.0049194284
26	0x3b882eb7	0.0041559595
27	0x3b699166	0.0035639643
28	0x3b5a5448	0.0033314396
29	0x3b931ee0	0.0044897646
30	0x3b7cd3ac	0.0038578315
31	0x3b71476e	0.0036816257
32	0x3b8d2f5c	0.004308624
33	0x3b233892	0.0024905545
34	0x3b688a96	0.0035482994
35	0x3b63ef6f	0.0034780165
36	0x3b808bb9	0.0039229062
37	0x3ba29024	0.0049610306
38	0x3b6d20dc	0.0036182916
39	0x3b8da11d	0.0043221847
40	0x3b3e2937	0.0029016265
41	0x3b866916	0.0041018827
42	0x3b89eac3	0.004208894
43	0x3b3ca441	0.0028784426
44	0x3b6a70df	0.0035772843
45	0x3b8008f8	0.003907319
46	0x3b4db30f	0.0031387245
47	0x3b7a545a	0.003819725
48	0x3b46ea48	0.0030352045
49	0x3b58dacf	0.0033089404
50	0x3b898958	0.004197281
51	0x3b59c89b	0.0033231142
52	0x3b81c3ae	0.0039600944
53	0x3b3dcfb9	0.0028962924
54	0x3b8cbcb7	0.0042949575
55	0x3b00fdbd	0.001968249
56	0x3b06e234	0.0020581605
57	0x3b809915	0.003924499
58	0x3b6879bf	0.0035472957
59	0x3b856428	0.0040707774
60	0x3b5e9c3e	0.003396764
61	0x3b8c98b5	0.004290665
62	0x3b3d8157	0.0028916204
63	0x3b819a53	0.0039551645
64	0x3b7a77af	0.003821831
65	0x3b4b3550	0.0031007119
66	0x3b61a473	0.0034430295
67	0x3b8be0fe	0.0042687645
68	0x3b847796	0.004042576
69	0x3b8955fe	0.0041911593
70	0x3b660365	0.0035097238
71	0x3b8a1f24	0.004215138
72	0x3b74b042	0.0037336503
73	0x3b87ceb3	0.0041445135
74	0x3b97ada1	0.0046288525
75	0x3b7f928c	0.003899726
76	0x3b846c09	0.004041199
77	0x3b7cffd1	0.0038604627
78	0x3b8a895d	0.0042278008
79	0x3b6584a4	0.0035021687
80	0x3b7f6463	0.0038969747
81	0x3b5d7c0a	0.0033795857
82	0x3b498ada	0.0030752928
83	0x3b4470e2	0.002997451
84	0x3b8bea4d	0.004269874
85	0x3b990b03	0.004670502
86	0x3b7d8825	0.0038685885
87	0x3b840740	0.0040291846
88	0x3b7d1ef6	0.003862319
89	0x3b8c1cd4	0.0042758975
90	0x3b8f2ac4	0.0043691117
91	0x3b886f55	0.0041636624
92	0x3b8c92c3	0.0042899563
93	0x3afe9875	0.0019424098
94	0x3b895cbf	0.0041919644
95	0x3b549f38	0.0032443535
96	0x3b720187	0.003692718
97	0x3b81cc51	0.003961124
98	0x3b4ede3c	0.0031565567
99	0x3b7a66aa	0.0038208165
100	0x3b6e7f0e	0.0036391648
101	0x3b418682	0.0029529636
102	0x3b353758	0.0027651396
103	0x3b4ddef5	0.003141341
104	0x3b78e54d	0.003797847
105	0x3b393ee0	0.0028266236
106	0x3b86a62b	0.0041091642
107	0x3b9080e8	0.004409898
108	0x3b6eb542	0.0036423956
109	0x3b9eccad	0.0048461766
110	0x3ae4367c	0.0017411257
111	0x3b4cf716	0.0031275204
112	0x3b469faf	0.0030307581
113	0x3b8dd615	0.004328499
114	0x3b6dd561	0.0036290514
115	0x3b928fb6	0.004472698
116	0x3b822eed	0.003972879
117	0x3ba1d322	0.004938499
118	0x3b4754f5	0.0030415629
119	0x3b6fd1b3	0.0036593496

conv3.pointwise.weight_fake_quant.activation_post_process.min_val f4 [120]
0	0xbf30563b	-0.6888158
1	0xbf103c43	-0.5634195
2	0xbebdffd4	-0.37109244
3	0xbed334a9	-0.41251114
4	0xbec7bef9	-0.39012888
5	0xbf270fa2	-0.6525823
6	0xbeacb047	-0.3372824
7	0xbe9d9196	-0.30775136
8	0xbea28deb	-0.317489
9	0xbf16e5d2	-0.5894443
10	0xbe706683	-0.23476605
11	0xbef85b68	-0.48507237
12	0xbe95c038	-0.29248214
13	0xbeac965c	-0.33708465
14	0xbe82e505	-0.25565353
15	0xbeb49e56	-0.3527705
16	0xbee89b38	-0.45430923
17	0xbedf7671	-0.4364505
18	0xbe71f10f	-0.23627113
19	0xbe81018b	-0.2519649
20	0xbe81a622	-0.25322062
21	0xbef97501	-0.4872208
22	0xbe321308	-0.17390072
23	0xbeb13c08	-0.34616113
24	0xbf063ff4	-0.52441335
25	0xbeab99ca	-0.3351577
26	0xbea63e36	-0.32469338
27	0xbee25d76	-0.4421193
28	0xbe688d5c	-0.22710174
29	0xbedb5b4d	-0.42843094
30	0xbefcd3ac	-0.49380243
31	0xbeb0068d	-0.34379998
32	0xbec850a6	-0.3912403
33	0xbe8fcbc3	-0.28085145
34	0xbe87da6c	-0.2653383
35	0xbee3ef6f	-0.4451861
36	0xbe1cb2d4	-0.15302593
37	0xbf229024	-0.6350119
38	0xbeed20dc	-0.46314132
39	0xbe6e3bab	-0.23264949
40	0xbebe2937	-0.3714082
41	0xbf066916	-0.525041
42	0xbe901fc2	-0.2814923
43	0xbebca441	-0.36844066
44	0xbeea70df	-0.4578924
45	0xbee4bd11	-0.44675496
46	0xbeb6baa1	-0.35689262
47	0xbefa545a	-0.4889248
48	0xbe99ed9c	-0.30064094
49	0xbed8dacf	-0.42354438
50	0xbf098958	-0.53725195
51	0xbed0454e	-0.40677875
52	0xbef233e2	-0.47305208
53	0xbe536d18	-0.20647085
54	0xbe501f1a	-0.20324364
55	0xbe51503c	-0.20440763
56	0xbe71c8ba	-0.23611727
57	0xbf009915	-0.50233585
58	0xbee879bf	-0.45405385
59	0xbf056428	-0.5210595
60	0xbe32fa18	-0.17478216
61	0xbe7c75da	-0.24654332
62	0xbebd8157	-0.3701274
63	0xbea46b90	-0.32113314
64	0xbe9562d6	-0.29176968
65	0xbecb3550	-0.39689112
66	0xbee1a473	-0.44070777
67	0xbed03b56	-0.4067027
68	0xbe8702a6	-0.26369208
69	0xbe9f66ef	-0.3113322
70	0xbe99035f	-0.29885384
71	0xbe9be269	-0.30446175
72	0xbef4b042	-0.47790724
73	0xbe94690c	-0.28986394
74	0xbf17ada1	-0.5924931
75	0xbeff928c	-0.49916494
76	0xbee36140	-0.44410133
77	0xbefcffd1	-0.49413922
78	0xbf06f261	-0.5271359
79	0xbec1b19a	-0.37830812
80	0xbeff6463	-0.49881276
81	0xbeb38da7	-0.3506901
82	0xbec5d6df	-0.38640496
83	0xbec470e2	-0.38367373
84	0xbec07169	-0.37586525
85	0xbe9528c7	-0.29132673
86	0xbed1fca2	-0.41013056
87	0xbf040740	-0.5157356
88	0xbe90c25c	-0.28273284
89	0xbec01a0b	-0.3751987
90	0xbe96ab2c	-0.2942747
91	0xbea964a8	-0.33084607
92	0xbf0c92c3	-0.5491144
93	0xbe7dcadc	-0.24784416
94	0xbefb025d	-0.4902524
95	0xbeaeebad	-0.3416418
96	0xbe4cd12c	-0.20001668
97	0xbe23913e	-0.15973374
98	0xbecc7706	-0.39934558
99	0xbe76f75e	-0.241178
100	0xbeb42d07	-0.35190603
101	0xbe940118	-0.28907084
102	0xbea43e0a	-0.32078582
103	0xbecddef5	-0.40209165
104	0xbe5d3025	-0.21600397
105	0xbeb5f214	-0.35536253
106	0xbec1bd01	-0.3783951
107	0xbf1080e8	-0.56446695
108	0xbeeeb542	-0.46622664
109	0xbf1eccad	-0.6203106
110	0xbe64367c	-0.22286409
111	0xbe43f7e2	-0.19137529
112	0xbeb30e74	-0.34971964
113	0xbea4d2c6	-0.32192057
114	0xbe9de8f0	-0.3084178
115	0xbe8476be	-0.25871843
116	0xbf022eed	-0.50852853
117	0xbf09dff0	-0.53857327
118	0xbe88832b	-0.26662573
119	0xbe517581	-0.2045498

conv3.pointwise.weight_fake_quant.activation_post_process.max_val f4 [120]
0	0x3ed994d2	0.42496353
1	0x3ed5cdd2	0.4175859
2	0x3e963311	0.29335836
3	0x3eca06c9	0.39458302
4	0x3e312169	0.17297901
5	0x3e9cdc77	0.3063695
6	0x3ece08f8	0.40241218
7	0x3edea7d4	0.43487418
8	0x3ec4cf4d	0.38439408
9	0x3e49a1fc	0.19690698
10	0x3ed1421c	0.4087075
11	0x3ea5cbc0	0.3238201
12	0x3e8c071c	0.27349174
13	0x3ebf623e	0.3737964
14	0x3f07b19e	0.530054
15	0x3ef95c31	0.4870315
16	0x3ee4d397	0.4469268
17	0x3eb08300	0.34474945
18	0x3f04607a	0.5170971
19	0x3ea72822	0.32647806
20	0x3ea2a683	0.31767663
21	0x3eca512b	0.3951505
22	0x3f0d3498	0.55158377
23	0x3ead07a8	0.33794904
24	0x3ec91410	0.3927312
25	0x3f1ff0c2	0.6247674
26	0x3f071e5a	0.5278069
27	0x3ee7be43	0.45262346
28	0x3ed89f9f	0.4230928
29	0x3f11f8a2	0.5702001
30	0x3ee6bcad	0.45065823
31	0x3eef64df	0.46756646
32	0x3f0c14fd	0.54719526
33	0x3ea1f221	0.31630042
34	0x3ee6b981	0.45063403
35	0x3ec2682b	0.379701
36	0x3eff1543	0.4982091
37	0x3ec78ef2	0.38976246
38	0x3ea82574	0.32841074
39	0x3f0c85db	0.5489175
40	0x3ea898b4	0.32929003
41	0x3e9ab943	0.30219468
42	0x3f08d6ed	0.5345295
43	0x3ea9e4be	0.3318233
44	0x3ece7419	0.4032295
45	0x3efe11cd	0.49622956
46	0x3ecc17a9	0.398618
47	0x3ea7f5a7	0.32804605
48	0x3ec55c73	0.38547096
49	0x3ec9babe	0.39400285
50	0x3e19b69a	0.15011063
51	0x3ed8150a	0.42203552
52	0x3f00c027	0.502932
53	0x3ebc541a	0.36782914
54	0x3f0ba33e	0.5454596
55	0x3e7ff784	0.24996763
56	0x3e85d470	0.2613864
57	0x3e9b5f03	0.30345926
58	0x3e8c88c2	0.27448088
59	0x3ea997a8	0.33123517
60	0x3edcdf06	0.43138903
61	0x3f0b7f84	0.5449145
62	0x3ea2ebb3	0.3182045
63	0x3f00971e	0.50230587
64	0x3ef882c0	0.48537254
65	0x3e8ff826	0.2811901
66	0x3ecb1557	0.39664719
67	0x3f0ac93c	0.5421331
68	0x3f036ea7	0.5134072
69	0x3f084352	0.5322772
70	0x3ee4375e	0.44573492
71	0x3f090ae6	0.53532255
72	0x3e8ff9a6	0.28120154
73	0x3f06bf16	0.52635324
74	0x3f1501ce	0.5820588
75	0x3ee2ac58	0.44272113
76	0x3f036331	0.5132323
77	0x3e835d6c	0.25657213
78	0x3f09744a	0.5369307
79	0x3ee3b99b	0.44477543
80	0x3eb59237	0.35463116
81	0x3edbc112	0.42920738
82	0x3ec7f7c4	0.39056218
83	0x3e81c744	0.2534734
84	0x3f0ad278	0.542274
85	0x3f17d8ed	0.5931538
86	0x3efb8d15	0.49131075
87	0x3e90958a	0.2823909
88	0x3efb24b8	0.49051452
89	0x3f0b049a	0.54303896
90	0x3f0e0c6e	0.55487716
91	0x3f075e76	0.5287851
92	0x3ece5086	0.4029581
93	0x3e7c9b44	0.24668604
94	0x3f084a06	0.5323795
95	0x3ed2f5fa	0.4120329
96	0x3ef01d84	0.4689752
97	0x3f00c8b8	0.5030627
98	0x3ecd4080	0.40088272
99	0x3ef871dd	0.4852437
100	0x3eeca210	0.46217394
101	0x3ec00375	0.37502638
102	0x3eb3cce9	0.35117272
103	0x3eab9a4c	0.33516157
104	0x3ef6f382	0.48232657
105	0x3eb7cc62	0.3589812
106	0x3f0598df	0.5218639
107	0x3ea17de9	0.31541374
108	0x3e95ea5b	0.29280362
109	0x3ea042df	0.3130102
110	0x3e494258	0.19654214
111	0x3ecb5d28	0.3971951
112	0x3ec51270	0.3849063
113	0x3f0cba69	0.5497194
114	0x3eebf9b6	0.46088952
115	0x3f116a97	0.5680327
116	0x3eba97dc	0.36443985
117	0x3f208f7c	0.6271894
118	0x3ec5c64b	0.38627848
119	0x3eedf210	0.46473742

fc1.weight f4 [84, 120]
0	0xbc933576	-0.017969828
1	0xbd8d306a	-0.06894
2	0xbde28bff	-0.110618584
3	0xbd1a6835	-0.037697036
4	0x3d37b629	0.044851456
5	0x3ca1d4bc	0.01975476
6	0xbd120970	-0.03565353
7	0x3c33354b	0.010937999
8	0xbdf17130	-0.11789167
9	0xbd8af936	-0.067858145
10	0xbdce1540	-0.10062647
11	0xbd0c43fd	-0.034244526
12	0xbd9748eb	-0.07386955
13	0x3d05f772	0.032706685
14	0xbae0f97c	-0.0017164196
15	0xbd51ef0b	-0.05125336
16	0xbd0fc1a3	-0.035096776
17	0xbdbe94b2	-0.09305705
18	0xbdde3593	-0.10850062
19	0xbd909450	-0.07059538
20	0x3c993516	0.018702071
21	0x3a8064cc	0.0009795665
22	0xbdfbb7dc	-0.12290928
23	0x3d70db61	0.058802966
24	0x3c72c824	0.014818225
25	0xbd21a611	-0.039465014
26	0xbd0c45e8	-0.034246355
27	0xbd35584c	-0.04427366
28	0xbdb63af6	-0.08897965
29	0xbd12da66	-0.035852812
30	0x3ca0d8cf	0.019634632
31	0xbcea6810	-0.028614074
32	0x3d7a4c06	0.061107658
33	0xbda52c71	-0.08065117
34	0xbd8d2bf0	-0.06893146
35	0xbdb8c08e	-0.09021102
36	0xbc98096a	-0.018559176
37	0xbcad1228	-0.021126822
38	0xbdbdeaa8	-0.09273273
39	0xbdb665cd	-0.08906136
40	0xbd9bacc1	-0.076013096
41	0xbd058e22	-0.03260625
42	0x3dac047f	0.08399295
43	0x3cfff764	0.031245895
44	0x3ce2da29	0.027691917
45	0x3d819780	0.063277245
46	0xbd13459f	-0.035955068
47	0xbdce22ff	-0.10065269
48	0x3dd03482	0.10166265
49	0xbdc0d651	-0.094158776
50	0xbd45d13d	-0.04829525
51	0x3cfffaab	0.031247457
52	0xbda3b36b	-0.07993206
53	0xbdacca3d	-0.084370114
54	0xbd8a5224	-0.06753948
55	0xbd0e6948	-0.034768373
56	0xbc76951f	-0.015050202
57	0xbc9941b3	-0.018708086
58	0xbda90839	-0.082535215
59	0xbd9d4ca1	-0.076806314
60	0xbd22b7fd	-0.039726246
61	0xbcb3ee08	-0.021964088
62	0xbda6946f	-0.0813378
63	0xbbccd547	-0.0062510106
64	0xbc56e24a	-0.013115475
65	0x3ca9ccb9	0.020727502
66	0xbdd7acaf	-0.10530984
67	0x3d452085	0.048126716
68	0x3d28eb2d	0.041239906
69	0x3d43c271	0.047792856
70	0xbb5a96c8	-0.0033354033
71	0xbaf96b84	-0.0019029235
72	0x3ab3275b	0.0013668345
73	0xb9b6dd23	-0.00034878505
74	0x3d8d2a13	0.06892791
75	0x3a0209f2	0.00049605884
76	0x3db8ad4d	0.090174295
77	0xbda3651b	-0.07978269
78	0xbdce67bb	-0.10078379
79	0x3c02cdd3	0.007983643
80	0xbda6c489	-0.08142955
81	0xbdaefe83	-0.08544638
82	0xbb6d8ff8	-0.0036249142
83	0xbcf54e4e	-0.029944565
84	0xbdbc4c1a	-0.09194203
85	0xbda7f288	-0.08200556
86	0x3d7e7183	0.062119972
87	0xbd52a874	-0.05143018
88	0xbc9f8c11	-0.019475969
89	0xbc685d39	-0.014182382
90	0x3d1cde63	0.038298022
91	0x3cc1c37b	0.023652783
92	0xbd8c1898	-0.068406284
93	0xbcb8b57c	-0.022547476
94	0x3d050f83	0.032485496
95	0xbdb4312c	-0.08798441
96	0xbd03d0d3	-0.032181572
97	0xbd2bfcbc	-0.041989073
98	0x3c49dfb6	0.012321403
99	0xbda5b7dc	-0.08091709
100	0x3cd3ac92	0.025839124
101	0xbbbbd736	-0.0057324423
102	0x3ccb9324	0.024850436
103	0xbd2ef9eb	-0.04271881
104	0xbdc3ff87	-0.09570222
105	0xbdb33085	-0.08749489
106	0x3ccf31ab	0.025292238
107	0xbc4b31a5	-0.012401973
108	0x3d2d1b04	0.042262092
109	0xbd125763	-0.03572787
110	0x3d65abbd	0.056071986
111	0xbdb6a7f7	-0.089187555
112	0xbda647df	-0.08119177
113	0x3d838158	0.06421155
114	0xbd3189b7	-0.043344226
115	0xbdb0624e	-0.086125
116	0x3d74e5b4	0.059789374
117	0xbc43bfd5	-0.011947592
118	0x3d5ef521	0.054432992
119	0x3d0ad10f	0.03389078
120	0x3bfeaa42	0.007771761
121	0x3d656425	0.05600371
122	0xbd80bcdf	-0.06286024
123	0x3d8d8b95	0.06911389
124	0xbd3263e8	-0.04355231
125	0x3cd7277c	0.026263945
126	0xbd347bd3	-0.0440634
127	0xbd9b082e	-0.075699195
128	0xbd94c6e0	-0.07264495
129	0xbdd4d3c2	-0.10391952
130	0xbd542c21	-0.051799897
131	0xbd245059	-0.040115688
132	0xbda99bd1	-0.08281673
133	0xbbda7c2f	-0.006667636
134	0x3d0d875a	0.03455291
135	0x3d09459a	0.033513643
136	0x3d6cac69	0.05778161
137	0xbdac8206	-0.084232375
138	0xbbfb92e6	-0.007677424
139	0xbc3324be	-0.010934053
140	0x3d9eaaae	0.07747398
141	0x3c79102d	0.0152016105
142	0xbdb6f864	-0.089340955
143	0xbc5de718	-0.013543867
144	0x3d8783e2	0.066169515
145	0xbce36a1f	-0.027760563
146	0xbd47e1a9	-0.04879919
147	0xbbb4e390	-0.0055202916
148	0x3c5168e6	0.012781357
149	0xbdc1995b	-0.09453078
150	0x3c8644ec	0.016390286
151	0xbd886c21	-0.06661249
152	0xbd9bedb1	-0.076136954
153	0x3ae92c40	0.0017789677
154	0xbcf29da9	-0.029616194
155	0xbd6347d3	-0.05548842
156	0xbbad52a9	-0.005289395
157	0xbdb8546a	-0.09000476
158	0xbc36a560	-0.011147827
159	0xbc61fbfc	-0.013792988
160	0xbd8d28c6	-0.068925425
161	0x3cd38922	0.025822226
162	0x3d3b1c34	0.045681193
163	0xbd3eb8c8	-0.04656294
164	0xbdc420bc	-0.09576556
165	0x3c61a503	0.013772252
166	0xbc9044f9	-0.017611014
167	0xbde2eeee	-0.110807285
168	0xbd88776a	-0.066634014
169	0xbd5b610d	-0.05355935
170	0xbda5a6a2	-0.08088423
171	0xbdbb21b5	-0.091372885
172	0xbd65753b	-0.056020003
173	0x3da03cfa	0.0782413
174	0xbd8f5081	-0.06997777
175	0xbc6269c5	-0.013819163
176	0xbc9ba118	-0.018997714
177	0xbba1eaa0	-0.0049412996
178	0x3c04ccb8	0.008105449
179	0x3cb52a92	0.022115026
180	0xbd8acd3a	-0.06777425
181	0x3a12f0f3	0.0005605362
182	0xbdaae463	-0.083443426
183	0xbdc29e63	-0.09502866
184	0x3b50a68f	0.0031837558
185	0xbdaeaae8	-0.085286915
186	0x3c7fad33	0.015605259
187	0xbc7fba92	-0.015608447
188	0xbd5e7598	-0.054311365
189	0xbdacb9e5	-0.08433894
190	0x3b8a13a9	0.0042137695
191	0x3c5a3c80	0.013320088
192	0x3d597410	0.0530892
193	0x3d5615ef	0.05226701
194	0x3cfa399e	0.030545052
195	0xbd80db6b	-0.06291851
196	0x3c06b1d4	0.0082211085
197	0xbda76d71	-0.08175171
198	0xbc8309c7	-0.015995873
199	0x3c0d88c0	0.008638561
200	0xbd84ecd2	-0.064904824
201	0xbb91b6c0	-0.0044468343
202	0xba2b5ced	-0.00065369793
203	0xbd883c2c	-0.06652102
204	0xbdb26102	-0.08709909
205	0xbda096fb	-0.07841297
206	0xbc30e268	-0.010796167
207	0xbda77ad1	-0.08177722
208	0x3c70d49e	0.014699129
209	0x3cb07c7e	0.021543738
210	0xbda026c9	-0.07819898
211	0xbc480911	-0.012209193
212	0xbd418cb3	-0.04725332
213	0xbcba8ac0	-0.02277124
214	0x3d5b92a6	0.05360665
215	0xbd337666	-0.043814085
216	0x3b1de2a0	0.0024091378
217	0xbd5f7a17	-0.054559793
218	0xbb852ff7	-0.0040645557
219	0x3db0f526	0.08640508
220	0xbd283c2d	-0.041073013
221	0x3d0d3bc7	0.034480836
222	0x3c024638	0.007951312
223	0xbc850db4	-0.016241886
224	0xbd6189e0	-0.05506313
225	0x3d363e28	0.04449287
226	0xbcf31315	-0.029672185
227	0xbcd20e45	-0.02564157
228	0x3cd62fcc	0.026145838
229	0xbda27427	-0.079323106
230	0x3d8fa4f2	0.07013883
231	0x3d42e7c6	0.047584318
232	0xbd432f01	-0.04765225
233	0xbd3c04a2	-0.045902856
234	0x3d5f6277	0.054537263
235	0x3d862c59	0.065514274
236	0x3d24a980	0.04020071
237	0x3c17b93f	0.009260475
238	0x3d548b9f	0.051890966
239	0xbc1f8aba	-0.009737665
240	0xbeea92b5	-0.45815054
241	0x3d67197e	0.056420796
242	0xbe1fe5a9	-0.15614952
243	0xbe704c36	-0.23466572
244	0x3d8a64c8	0.06757504
245	0x3e3c9ae5	0.18418463
246	0x3b7a42d8	0.0038186815
247	0xbde6c4a8	-0.11267978
248	0xbe30bbdd	-0.17259164
249	0xbc836ae3	-0.016042178
250	0x3d9d95e4	0.07694605
251	0x3e1a0420	0.15040636
252	0xbcf7bc0a	-0.030241031
253	0xbd44a219	-0.04800615
254	0x3ed8e07c	0.42358768
255	0xbdce857b	-0.10084053

fc1.weight_fake_quant.scale f4 [84]
0	0x3a7bb7aa	0.0009602258
1	0x3a62eebc	0.000865679
2	0x3b8c0258	0.0042727403
3	0x3b8cfd6a	0.0043026702
4	0x3b8d5e63	0.0043142303
5	0x3b8da5e3	0.0043227538
6	0x3b8257b4	0.00397774
7	0x3b42542c	0.002965222
8	0x3b6660de	0.0035152952
9	0x3b4ed161	0.0031557905
10	0x3b5a349d	0.003329552
11	0x3b6aa414	0.0035803365
12	0x3b6a3c6a	0.0035741576
13	0x3b75d49e	0.0037510763
14	0x3b36cb75	0.0027892266
15	0x3b7f3257	0.0038939917
16	0x3b2f44fb	0.0026743996
17	0x3b828ba1	0.00398393
18	0x3b94d77e	0.0045422902
19	0x3b5cd674	0.003369716
20	0x3a4f5276	0.0007908711
21	0x3ad3743c	0.0016132663
22	0x3a7a3bf2	0.0009545676
23	0x3a848d42	0.0010112899
24	0x3a81f578	0.0009915074
25	0x3b8cca25	0.0042965584
26	0x3b60ccb9	0.0034301712
27	0x3b7964b2	0.0038054404
28	0x3b89b7b5	0.004202808
29	0x3b810f13	0.0039385646
30	0x3b30c384	0.0026972005
31	0x3b8af311	0.0042404016
32	0x3b815e9d	0.0039480464
33	0x3afd2757	0.0019314092
34	0x3b7bc19b	0.0038414958
35	0x3b221ff6	0.0024738288
36	0x3b750dde	0.0037392299
37	0x3b949ddc	0.00453542
38	0x3b963037	0.0045833844
39	0x3ba5ec6f	0.0050635855
40	0x3b82fadf	0.0039971913
41	0x3a940a14	0.0011294507
42	0x3bb5a833	0.0055437325
43	0x3a817e5a	0.0009879575
44	0x3b6bade3	0.00359618
45	0x3b7cf4cc	0.0038598059
46	0x3b4857c3	0.0030569888
47	0x3b5a0e50	0.003327269
48	0x3b74e2c2	0.0037366604
49	0x3b7b3866	0.0038333177
50	0x3b7a0f89	0.0038156232
51	0x3a9d3018	0.0011992482
52	0x3b8681f3	0.0041048466
53	0x3b764211	0.0037576
54	0x3b3790f5	0.0028009985
55	0x3b85c12f	0.004081867
56	0x3b9b088b	0.004731243
57	0x3b92ee35	0.004483963
58	0x3b6ac6a3	0.0035823963
59	0x3b8d75de	0.0043170294
60	0x3b7b057f	0.0038302836
61	0x3b825433	0.0039773225
62	0x3b86993c	0.0041076224
63	0x3b76ff88	0.003768893
64	0x3a8befea	0.0010676358
65	0x3a90566a	0.0011012082
66	0x3b79b880	0.0038104355
67	0x3b873bda	0.004127008
68	0x3b0f58d3	0.0021873012
69	0x3b6557ff	0.0034995077
70	0x3b6d6c8b	0.0036228027
71	0x3b59530d	0.0033161074
72	0x3b8a6352	0.0042232657
73	0x3b6e3b90	0.003635142
74	0x3b8cf05b	0.0043011135
75	0x3b6f0c0b	0.0036475684
76	0x3b42de2d	0.0029734478
77	0x3b8d783c	0.0043173116
78	0x3b96c6fc	0.0046013575
79	0x3b82cf30	0.003991984
80	0x3b8837fd	0.004157065
81	0x3b63f549	0.0034783653
82	0x3a6722d2	0.00088171393
83	0x3a71e672	0.00092277594

fc1.weight_fake_quant.activation_post_process.min_val f4 [84]
0	0xbdfbb7aa	-0.122908905
1	0xbde2eebc	-0.11080691
2	0xbf0c0258	-0.54691076
3	0xbea0dbdd	-0.31417742
4	0xbed2090b	-0.41022524
5	0xbecf6588	-0.4050715
6	0xbec34a36	-0.38142556
7	0xbeb0fde7	-0.34568712
8	0xbee2a895	-0.44269243
9	0xbeced161	-0.40394118
10	0xbed475d7	-0.41496155
11	0xbe9823dc	-0.2971486
12	0xbeb9cfcf	-0.36291358
13	0xbe9d712f	-0.30750415
14	0xbeab6188	-0.33472848
15	0xbedef961	-0.43549636
16	0xbeaf44fb	-0.34232315
17	0xbef7d0bb	-0.48401436
18	0xbeb12690	-0.34599733
19	0xbeb0ecf8	-0.34555793
20	0xbdcf5276	-0.1012315
21	0xbe1c5378	-0.15266216
22	0xbdfa3bf2	-0.12218465
23	0xbe048d42	-0.1294451
24	0xbe01f578	-0.12691295
25	0xbee88402	-0.45413214
26	0xbea7044f	-0.32620475
27	0xbeefaff5	-0.46813932
28	0xbec7e01f	-0.39038178
29	0xbebfaf7f	-0.3743858
30	0xbeb0c384	-0.34524167
31	0xbec29e42	-0.38011366
32	0xbeccf5b2	-0.400312
33	0xbe371847	-0.17880355
34	0xbeea6cbc	-0.45786083
35	0xbea11ab3	-0.31465682
36	0xbec51772	-0.3849445
37	0xbee8eb2d	-0.45491925
38	0xbef73677	-0.4828374
39	0xbf02e65a	-0.5113274
40	0xbf02fadf	-0.5116405
41	0xbe140a14	-0.1445697
42	0xbeaba7d0	-0.33526468
43	0xbe017e5a	-0.12645856
44	0xbeebade3	-0.46031103
45	0xbe9a0da9	-0.30088547
46	0xbec37636	-0.38176125
47	0xbed06f48	-0.407099
48	0xbef4e2c2	-0.47829252
49	0xbefb3866	-0.49066466
50	0xbefa0f89	-0.48839977
51	0xbe1d3018	-0.15350378
52	0xbf0681f3	-0.52542037
53	0xbe9ec628	-0.31010556
54	0xbea73ce7	-0.32663652
55	0xbea46a71	-0.32112458
56	0xbf1b088b	-0.6055991
57	0xbeedf9bb	-0.46479592
58	0xbe913420	-0.2836008
59	0xbf044166	-0.5166229
60	0xbebc3a8a	-0.36763412
61	0xbf025433	-0.5090973
62	0xbef957dd	-0.48699847
63	0xbef6ff88	-0.4824183
64	0xbe0befea	-0.13665739
65	0xbe10566a	-0.14095464
66	0xbec5bbdc	-0.38619888
67	0xbee08484	-0.438511
68	0xbe754fff	-0.23956297
69	0xbebea590	-0.3723569
70	0xbeb9c217	-0.3628089
71	0xbed05863	-0.40692434
72	0xbece8a98	-0.40340114
73	0xbeca38fc	-0.394966
74	0xbecbf065	-0.39831844
75	0xbedcf310	-0.43154192
76	0xbec2de2d	-0.38060132
77	0xbf0d1c24	-0.55121064
78	0xbf044a0d	-0.5167549
79	0xbeb878cb	-0.36029658
80	0xbf0837fd	-0.5321043
81	0xbee3f549	-0.44523075
82	0xbde722d2	-0.11285938
83	0xbdf1e672	-0.11811532

fc1.weight_fake_quant.activation_post_process.max_val f4 [84]
0	0x3dd03450	0.10166228
1	0x3db0f526	0.08640508
2	0x3ed8ba01	0.4232941
3	0x3f0be36f	0.5464391
4	0x3f0c43a6	0.54790723
5	0x3f0c8a97	0.5489897
6	0x3f015305	0.505173
7	0x3ec0cf84	0.37658322
8	0x3ee4941c	0.44644248
9	0x3ec1acf6	0.3782727
10	0x3ed88034	0.4228531
11	0x3ee8cecc	0.45470273
12	0x3ee867f1	0.453918
13	0x3ef3e8f5	0.4763867
14	0x3eb55dde	0.35423177
15	0x3efd33f2	0.49453694
16	0x3ea1b207	0.31581137
17	0x3f01868a	0.50595915
18	0x3f13adcf	0.57687086
19	0x3edb1cc7	0.42795393
20	0x3daa9eec	0.08331093
21	0x3e51cd54	0.20488483
22	0x3ddc09fc	0.10744092
23	0x3da1c984	0.07899764
24	0x3da4943e	0.080360875
25	0x3f0bb091	0.54566294
26	0x3edf0b20	0.43563175
27	0x3ef771e9	0.48329094
28	0x3f08a446	0.5337566
29	0x3f000cf5	0.5001977
30	0x3ea87ac6	0.3290617
31	0x3f09dd2b	0.538531
32	0x3f005be0	0.5014019
33	0x3e7b2d08	0.24528897
34	0x3ef9ca18	0.48786998
35	0x3ea0dbb6	0.31417626
36	0x3ef323c2	0.4748822
37	0x3f1374a0	0.5759983
38	0x3f1503d7	0.58208984
39	0x3f24a096	0.64307535
40	0x3ed1f575	0.4100758
41	0x3dcbf634	0.09959069
42	0x3f343ce3	0.70405406
43	0x3db5af3e	0.088713154
44	0x3eaaab6a	0.33333904
45	0x3efafae2	0.49019533
46	0x3ec6c713	0.38823757
47	0x3ed85a33	0.42256317
48	0x3ee580f9	0.4482496
49	0x3edeae76	0.43492478
50	0x3ebb8065	0.36621395
51	0x3de10b14	0.10988441
52	0x3f00532c	0.5012691
53	0x3ef4558d	0.4772152
54	0x3eb621d3	0.3557268
55	0x3f04b5ad	0.51839715
56	0x3eb7e254	0.35914862
57	0x3f11c859	0.5694633
58	0x3ee8f116	0.45496434
59	0x3f0c5af2	0.5482627
60	0x3ef90f74	0.48644602
61	0x3f009bfb	0.5023801
62	0x3f058c0a	0.5216681
63	0x3eea47a6	0.45757788
64	0x3d99d618	0.07511538
65	0x3d9cf7b6	0.076644346
66	0x3ef7c50f	0.4839253
67	0x3f062d62	0.52413
68	0x3e8e3a21	0.27778724
69	0x3ee38d4f	0.44443747
70	0x3eeb91b2	0.46009594
71	0x3ed7a067	0.42114565
72	0x3f094e8b	0.5363547
73	0x3eec5f19	0.46166304
74	0x3f0bd67a	0.5462414
75	0x3eed2df3	0.4632412
76	0x3ebc9b17	0.36837074
77	0x3f0c5d4c	0.5482986
78	0x3f15996e	0.5843724
79	0x3f01c992	0.50698197
80	0x3ee7d831	0.45282128
81	0x3ed41ce1	0.41428283
82	0x3d9b5966	0.07585411
83	0x3da16db8	0.07882255

fc2.weight f4 [1, 84]
0	0x3c4aee9f	0.012385993
1	0x3bda1dc3	0.00665638
2	0x3ec6e13a	0.3884371
3	0xbdc1ef35	-0.09469453
4	0x3e032657	0.12807594
5	0xbea79bae	-0.32735962
6	0xbe14f250	-0.1454556
7	0xbe6f8344	-0.23389918
8	0x3dd5fbbf	0.104484074
9	0xbe05ee28	-0.1307913
10	0xbdd28bbc	-0.102805585
11	0xbda93d64	-0.082636625
12	0x3e29b4dd	0.165729
13	0xbe4c3b18	-0.19944417
14	0xbe044c8c	-0.12919825
15	0x3da72295	0.08160893
16	0xbde88385	-0.1135321
17	0xbe6e8e00	-0.23296356
18	0xbe667736	-0.22506413
19	0x3d4f7998	0.05065307
20	0x3dab289e	0.083573565
21	0x3b3d9051	0.002892513
22	0xbc8e11d2	-0.017342482
23	0x3d812997	0.06306761
24	0xbccea42b	-0.025224766
25	0xbe3cb6e0	-0.18429136
26	0x3db58b71	0.08864487
27	0x3e4d8347	0.2006961
28	0xbe179167	-0.1480156
29	0x3e0e2cea	0.13884321
30	0xbeabf113	-0.33582363
31	0x3e030daf	0.12798189
32	0xbe399d7f	-0.18126486
33	0xbcc12c1d	-0.023580605
34	0x3e7616ed	0.24032183
35	0xbdeb7963	-0.11497762
36	0xbe0e5a7a	-0.13901702
37	0xbda55293	-0.080723904
38	0x3e54ebde	0.20793101
39	0x3eef8cad	0.46787015
40	0xbe191109	-0.14947905
41	0x3c8145de	0.015780386
42	0xbdcc7ced	-0.09984765
43	0x3c937096	0.017998021
44	0xbdd7ba97	-0.10533636
45	0xbe6e846c	-0.23292702
46	0xbdb62ce3	-0.0889528
47	0x3e2265f8	0.1585921
48	0xbf05860f	-0.5215768
49	0xbe6b0528	-0.22951186
50	0xbdeccf2f	-0.11562955
51	0xbc79a6c2	-0.015237512
52	0x3e53f666	0.20699462
53	0xbe58065c	-0.21096176
54	0xbe0ac936	-0.13553318
55	0x3e08a3c5	0.13343723
56	0x3f01d759	0.5071922
57	0x3e28bd99	0.16478576
58	0xbdaa5f91	-0.08319009
59	0x3e862c30	0.26205587
60	0x3e012ba8	0.1261431
61	0x3e3efc07	0.18650828
62	0xbe28d71d	-0.16488309
63	0x3d8de538	0.06928486
64	0x3cee938f	0.029123096
65	0x3cb84e4c	0.022498272
66	0x3e391ca7	0.18077336
67	0xbdf0b290	-0.11752808
68	0xbdac18ff	-0.08403205
69	0x3d8ad3a0	0.067786455
70	0x3da3cd97	0.079981975
71	0x3dceb4ae	0.10093056
72	0x3e606e06	0.2191697
73	0x3de55c3a	0.111992314
74	0x3deb82cf	0.11499559
75	0x3ddec923	0.108782075
76	0xbe29b60e	-0.16573355
77	0x3e0bb4f5	0.13643248
78	0x3e16baf2	0.14719751
79	0xbe813b0a	-0.25240356
80	0xbedc9289	-0.43080547
81	0x3d453d39	0.04815409
82	0x3d38786a	0.04503671
83	0xbd6bbe89	-0.057554755
