experiments/exp028/model.pth (torch, 95178 bytes, 29 tensors)

conv1.depthwise.weight f4 [2, 1, 5, 5]
-0.11918143 -0.1120626 -0.07876577 0.032200176 0.038768373 -0.106851295 0.217092 0.4634209
-0.37958682 -0.28862908 0.4380565 0.62683505 0.4987659 -0.067948714 -0.26451483 0.45387313
0.6219705 -0.1722483 -0.07819427 -0.26639116 0.37109348 0.08498087 -0.14773636 0.21369562
-0.11036157 -0.14533554 -0.20180824 -0.00301854 0.17051075 0.17662148 -0.2929038 0.035951104
-0.00036919233 -0.25350052 -0.2772291 0.37646395 0.62931913 0.6434803 -0.23595035 -0.1412122
0.56527007 0.5734778 -0.500385 -0.43912798 -0.20815465 0.6044508 0.33591282 0.0074810763
-0.16592135 -0.17605108
00000000: 6515 f4bd 1481 e5bd f34f a1bd 55e4 033d
00000010: 96cb 1e3d dad4 dabd 5e4d 5e3e 8145 ed3e
00000020: 3459 c2be 31c7 93be f148 e03e 4378 203f
00000030: 3e5e ff3e b228 8bbd 7d6e 87be 0f62 e83e
00000040: 7539 1f3f dc61 30be 5124 a0bd 6c64 88be
00000050: f7ff bd3e 730a ae3d 3348 17be 06d3 5a3e
00000060: 3f05 e2bd d7d2 14be d2a6 4ebe b3d2 45bb
00000070: 5f9a 2e3e 43dc 343e 7df7 95be 7741 133d
00000080: 2890 c1b9 d2ca 81be f9f0 8dbe e2bf c03e
00000090: 0f1b 213f 20bb 243f f89c 71be ee99 10be
000000a0: 8ab5 103f 71cf 123f 3b19 00bf 62d5 e0be
000000b0: 7e26 55be 4abd 1a3f c4fc ab3e d123 f53b
000000c0: 49e7 29be bc46 34be

conv1.depthwise.weight_fake_quant.scale f4 [2]
0.004935732 0.0050667976
00000000: ecbb a13b 6107 a63b

conv1.depthwise.weight_fake_quant.activation_post_process.min_val f4 [2]
-0.37958255 -0.50038207
00000000: a558 c2be 0a19 00bf

conv1.depthwise.weight_fake_quant.activation_post_process.max_val f4 [2]
0.62683797 0.6434833
00000000: 7478 203f 52bb 243f

conv1.pointwise.weight f4 [6, 2, 1, 1]
-1.1656399 -0.5101095 0.50400144 -0.2852174 -0.5771852 0.9221495 0.74128765 0.46969828
0.3591606 0.5656904 -0.2561245 0.9841052
00000000: b033 95bf 8996 02bf 3d06 013f 0408 92be
00000010: 69c2 13bf fd11 6c3f 07c5 3d3f 4b7c f03e
00000020: e6e3 b73e 16d1 103f c022 83be 52ee 7b3f

conv1.pointwise.weight_fake_quant.scale f4 [6]
0.0045711603 0.003968492 0.0072609964 0.002907022 0.002218382 0.0077488367
00000000: acc9 953b 200a 823b a7ed ed3b bc83 3e3b
00000010: 4662 113b f4e9 fd3b

conv1.pointwise.weight_fake_quant.activation_post_process.min_val f4 [6]
-1.1656458 -0.2852159 -0.5771823 0.46969974 0.3591591 -0.256123
00000000: e233 95bf d207 92be 38c2 13bf 7c7c f03e
00000010: b4e3 b73e 8e22 83be

conv1.pointwise.weight_fake_quant.activation_post_process.max_val f4 [6]
-0.5101124 0.5039985 0.92214656 0.74129057 0.5656874 0.98410225
00000000: ba96 02bf 0c06 013f cc11 6c3f 38c5 3d3f
00000010: e4d0 103f 20ee 7b3f

conv2.depthwise.weight f4 [6, 1, 5, 5]
0.2855415 0.3103095 0.34808323 0.16644211 -0.10760344 -0.13736197 0.3640931 0.35087597
0.26089624 0.072650984 0.5652128 -0.15632915 0.008604765 0.23199698 -0.08648569 0.020267744
-0.19903971 -0.06886002 -0.06232196 -0.16150256 -0.0048266286 -0.010995758 -0.14256479 -0.023897938
-0.36636138 0.36236218 0.09040046 0.1433321 0.2093695 0.04925622 0.32506225 -0.02244935
0.16881473 0.3196467 0.13968621 0.3625172 0.167707 -0.43231788 -0.055015236 0.5447323
0.20954357 -0.11728596 -0.37649286 0.3038816 0.22005649 0.32901856 0.2874931 0.36846215
0.261953 0.1919019 -0.24782087 -0.41995838 -0.14160989 0.056437552 -0.5327595 -0.38348508
-0.19820882 0.20466198 -0.15880714 -0.5362922 -0.019452818 -0.17142414 -0.16942368 -0.1392745
-0.14846002 0.16028023 -0.023318622 -0.055656467 -0.02694534 -0.14565182 -0.2245114 0.089406125
-0.16545562 -0.07153095 -0.26340777 -0.26857495 -0.091394946 -0.016102554 -0.1058568 -0.061510373
-0.17160125 -0.0041803983 0.017346986 -0.15083326 -0.032680053 0.02772381 -0.025396371 -0.17086501
0.08194891 0.3085241 -0.102454916 -0.15214747 -0.17401108 -0.14422265 0.124342695 -0.65269417
-0.10572683 -0.21222956 -0.09846581 -0.21202055 -0.035136666 0.1580236 -0.08917025 -0.48221055
-0.065738484 0.0801791 -0.12524882 -0.025747374 -0.3705054 -0.5703868 0.10303033 0.06201145
-0.11468507 -0.07262922 -0.24361901 0.1293207 -0.046030138 0.030395709 0.0050174193 -0.27788305
0.34269845 -0.03595911 0.23912473 0.5033796 0.29031774 0.09981752 0.14225332 -0.2738273
-0.11579878 -0.08866591 0.19692743 -0.07002147 -0.08612396 0.03570718 -0.09807716 -0.24411438
0.03203802 0.25541705 -0.11679873 -0.46929145 -0.44218594 -0.23681891 0.008438887 -0.038520984
-0.20614588 -0.28683713 -0.08884626 0.085798666 -0.22201194 -0.120495796
00000000: 7f32 923e e3e0 9e3e f737 b23e cd6f 2a3e
00000010: 315f dcbd 9ea8 0cbe 696a ba3e 04a6 b33e
00000020: 3194 853e 0aca 943d c9b1 103f c014 20be
00000030: 00fb 0c3c 9e90 6d3e 691f b1bd 8a08 a63c
00000040: 11d1 4bbe 7b06 8dbd 5045 7fbd ed60 25be
00000050: b228 9ebb 8d27 34bc 81fc 11be 9cc5 c3bc
00000060: b893 bbbe 8987 b93e e023 b93d a6c5 123e
00000070: f564 563e e4c0 493d 8f6e a63e b3e7 b7bc
00000080: c5dd 2c3e bba8 a33e e709 0f3e db9b b93e
00000090: 62bb 2b3e c558 ddbe a857 61bd 9373 0b3f
000000a0: 9792 563e 9f33 f0bd acc3 c0be 5e96 9b3e
000000b0: 7d56 613e 1f75 a83e 4c32 933e 12a7 bc3e
000000c0: b41e 863e ef81 443e c1c4 7dbe c904 d7be
000000d0: 2f02 11be 102b 673d ed62 08bf 2858 c4be
000000e0: 41f7 4abe e992 513e 579e 22be 724a 09bf
000000f0: 845b 9fbc cf89 2fbe 677d 2dbe f99d 0ebe
00000100: e705 18be 8020 243e b206 bfbc 09f8 63bd
00000110: 79bc dcbc c025 15be 51e6 65be 8f1a b73d
00000120: 336d 29be d27e 92bd 62dd 86be a882 89be
00000130: 462d bbbd 81e9 83bc 73cb d8bd 4df2 7bbd
00000140: 3db8 2fbe b9fb 88bb 441b 8e3c 0974 1abe
00000150: 85db 05bd 0b1d e33c 0d0c d0bc 3df7 2ebe
00000160: d5d4 a73d dff6 9d3e e2d3 d1bd 8ccc 1bbe
00000170: f62f 32be 1aaf 13be 62a7 fe3d f716 27bf
00000180: 4f87 d8bd b552 59be 71a8 c9bd ea1b 59be
00000190: 77eb 0fbd f0d0 213e e49e b6bd 4de4 f6be
000001a0: e6a1 86bd f134 a43d 3a41 00be 28ec d2bc
000001b0: e2b2 bdbe df04 12bf 9101 d33d b8ff 7d3d
000001c0: 02e0 eabd a1be 94bd 4377 79be a56c 043e
000001d0: 198a 3cbd 6c00 f93c 2a69 a43b b046 8ebe
000001e0: 2c76 af3e dc49 13bd 1ddd 743e 7cdd 003f
000001f0: 87a4 943e 216d cc3d dbaa 113e 1833 8cbe
00000200: e927 edbd 7996 b5bd 58a7 493e 6b67 8fbd
00000210: c261 b0bd b141 123d aedc c8bd 1ff9 79be
00000220: 4d3a 033d 06c6 823e 2c34 efbd f846 f0be
00000230: 3266 e2be a880 72be 4243 0a3c 2ec8 1dbd
00000240: e817 53be 51dc 92be 07f5 b5bd 36b7 af3d
00000250: 1957 63be 80c6 f6bd

conv2.depthwise.weight_fake_quant.scale f4 [6]
0.0044505172 0.0042892075 0.0041897595 0.005099196 0.0044561243 0.003666324
00000000: a5d5 913b 7b8c 8c3b 404a 893b 2817 a73b
00000010: ae04 923b b646 703b

conv2.depthwise.weight_fake_quant.activation_post_process.min_val f4 [6]
-0.3663599 -0.43231934 -0.5362892 -0.6526971 -0.5703839 -0.46928948
00000000: 8693 bbbe f658 ddbe 404a 09bf 2817 27bf
00000010: ae04 12bf b646 f0be

conv2.depthwise.weight_fake_quant.activation_post_process.max_val f4 [6]
0.5652157 0.54472935 0.20466271 0.30852264 0.5033766 0.25541556
00000000: fab1 103f 6273 0b3f 1a93 513e aef6 9d3e
00000010: 4add 003f d4c5 823e

conv2.pointwise.weight f4 [16, 6, 1, 1]
-0.12406573 0.5768662 -0.27046162 0.123014994 0.35420653 0.16678858 -0.2624777 0.03805005
0.43085834 -0.08999982 0.3996124 -0.6550521 -0.6269997 0.20967288 -0.30688533 0.17758815
-0.237352 -0.27897075 -0.030823309 0.60958 -0.3474403 -0.20334697 0.24058606 -0.43338987
-0.31511128 0.32430238 0.48643452 -0.36043903 -0.3292703 0.111521676 -0.61738425 0.24033293
0.11990736 0.3261901 -0.05291574 -0.060863458 0.6590186 0.009615915 0.08209458 -0.022760034
-0.16530675 -0.16246665 -0.00059730205 0.40573236 -0.21019201 0.2908852 0.3617033 -0.62025374
0.3806044 -0.05805619 0.39882582 -0.11043635 0.5814958 0.26670313 -0.34302458 -0.47016898
-0.16450338 -0.12640832 -0.45591047 -0.26825917 0.04820075 -0.29097283 0.24053615 -0.17044361
-0.584798 -0.273719 0.15718704 0.06339981 0.05760662 0.5962347 -0.47449815 -0.028945493
0.42134333 -0.12871803 0.06836447 -0.7002954 0.26496208 -0.26137525 0.3654474 -0.48330554
0.0700341 -0.13523999 0.24332622 -0.46300802 0.06067169 0.4412806 -0.31511584 0.14024329
0.005346873 -0.042301767 0.032201763 -0.0247701 -0.1099675 0.17425925 0.31361488 -0.7216964
00000000: 2c16 febd 81ad 133f f279 8abe 49ef fb3d
00000010: 8f5a b53e a0ca 2a3e 7a63 86be 5fda 1b3d
00000020: 7799 dc3e d351 b8bd ff99 cc3e 7fb1 27bf
00000030: 0d83 20bf 7db4 563e 1320 9dbe abd9 353e
00000040: 670c 73be 41d5 8ebe 2a81 fcbc 6f0d 1c3f
00000050: b2e3 b1be 303a 50be 315c 763e 47e5 ddbe
00000060: 4456 a1be f60a a63e f20d f93e 778b b8be
00000070: 1e96 a8be 7a65 e43d e50c 1ebf d619 763e
00000080: fd91 f53d 6402 a73e 2dbe 58bd f64b 79bd
00000090: 71b5 283f 128c 1d3c 3421 a83d 4073 babc
000000a0: 2c46 29be a85d 26be 4394 1cba 27bc cf3e
000000b0: 933c 57be e8ee 943e 2d31 b93e f3c8 1ebf
000000c0: 94de c23e 54cc 6dbd e632 cc3e 742c e2bd
000000d0: e9dc 143f 508d 883e eba0 afbe fdb9 f0be
000000e0: 9373 28be 2f71 01be 196d e9be 4459 89be
000000f0: 266e 453d 64fa 94be 1c4f 763e c588 2ebe
00000100: 52b5 15bf e624 8cbe a4f5 203e c2d7 813d
00000110: ebf4 6b3d d6a2 183f 6cf1 f2be 191f edbc
00000120: 50ba d73e a9ce 03be ac02 8c3d 8f46 33bf
00000130: 1ca9 873e fad2 85be ec1b bb3e d373 f7be
00000140: 0a6e 8f3d 5a7c 0abe 822a 793e 630f edbe
00000150: e182 783d 88ef e13e dd56 a1be f09b 0f3e
00000160: d234 af3b 9e44 2dbd ffe5 033d aaea cabc
00000170: a436 e1bd 0471 323e 2192 a03e 18c1 38bf

conv2.pointwise.weight_fake_quant.scale f4 [16]
0.0045422306 0.005117586 0.004898412 0.004799819 0.0038301738 0.0048232917 0.0051891 0.004845755
0.00457873 0.0018437898 0.004568711 0.0046947845 0.0054710796 0.003775836 0.0034746428 0.005638276
00000000: fed6 943b 6cb1 a73b dc82 a03b cd47 9d3b
00000010: a703 7b3b b40c 9e3b 5309 aa3b 24c9 9e3b
00000020: 2c09 963b 52ab f13a 20b5 953b b5d6 993b
00000030: be46 b33b 0474 773b d5b6 633b 4ac1 b83b

conv2.pointwise.weight_fake_quant.activation_post_process.min_val f4 [16]
-0.27046013 -0.655051 -0.62699676 -0.4333869 -0.36044085 -0.61738133 -0.16530536 -0.62025666
-0.11043672 -0.47016641 -0.584795 -0.47449636 -0.7002982 -0.483307 -0.3151173 -0.72169936
00000000: c079 8abe 6cb1 27bf dc82 20bf e3e4 ddbe
00000010: b48b b8be b40c 1ebf cf45 29be 24c9 1ebf
00000020: a62c e2bd a7b9 f0be 20b5 15bf 30f1 f2be
00000030: be46 33bf 0474 f7be 0e57 a1be 4ac1 38bf

conv2.pointwise.weight_fake_quant.activation_post_process.max_val f4 [16]
0.5768633 0.43085858 0.20967068 0.609577 0.48643208 0.3261916 0.65901566 0.40573382
0.58149874 -0.12641029 0.2405391 0.59623766 0.42134482 0.36544934 0.44127962 0.31361276
00000000: 50ad 133f 7f99 dc3e e9b3 563e 3d0d 1c3f
00000010: a00d f93e 9602 a73e 40b5 283f 58bc cf3e
00000020: 1add 143f b371 01be e24f 763e 08a3 183f
00000030: 82ba d73e 2d1c bb3e 67ef e13e da91 a03e

conv3.depthwise.weight f4 [16, 1, 5, 5]
-0.31409702 -0.23121235 -0.17308338 -0.16474487 -0.18443908 -0.32932186 -0.416543 -0.18783464
-0.026959179 -0.18963178 -0.19158816 -0.09572258 -0.11453597 -0.17306504 -0.17012477 -0.16926432
-0.12647143 -0.18551396 -0.22137386 -0.23848753 -0.3507929 -0.060814146 0.04223797 -0.06924485
-0.12697047 0.23867288 0.06403358 0.03478342 -0.11599553 -0.11389226 0.20170856 0.10068013
-0.025196895 0.11873224 0.05467629 0.31438696 0.2672291 0.14110887 0.13096 -0.0064574834
0.27209783 0.29692933 0.5004884 0.2678087 0.22589043 0.4988161 0.32382083 0.1830522
0.321663 0.3250476 0.13550448 0.090242 0.096627556 0.10627152 0.24466309 -0.06049638
-0.19910558 -0.205848 0.043473728 0.018318987 -0.36297166 -0.31904528 -0.09690844 -0.10895245
-0.16269867 -0.31599143 0.040228914 -0.07257988 0.005714476 -0.1015909 0.056918193 -0.4915179
-0.23529729 -0.12368907 -0.17632903 0.3168836 0.21721025 0.15210445 0.17386296 0.061762553
0.0061780363 0.08638644 -0.03339731 -0.18351589 -0.00921571 0.029888427 -0.08534753 0.015501237
-0.05873214 0.070342764 -0.00015692675 0.098517805 0.09045472 -0.06305119 0.084483385 -0.5130523
-0.25729454 -0.12568909 -0.43628216 -0.37454307 0.31930605 0.30982947 0.40681356 0.33418018
0.4462446 0.2218514 0.27189323 0.2972665 0.28706813 0.3877954 0.08999632 -0.04424769
0.1834347 0.11958517 0.24162154 0.14557944 0.059350967 0.14563844 -0.046227667 0.3362513
0.120382585 0.027140087 0.0055261105 0.20587628 0.099006325 0.058939178 0.4415329 0.31233296
0.32313162 0.17186815 -0.06965611 0.17999105 -0.45871437 -0.1484405 0.15316838 0.13401969
0.19329403 -0.11862938 0.42252788 -0.10537076 0.49900174 0.52514154 0.33735102 0.18710023
0.38230565 0.19505848 0.22225235 -0.21284516 -0.09273485 0.48889863 -0.18308157 -0.10198446
-0.032967675 0.025457047 0.31860286 0.15306886 -0.10679961 -0.023874428 0.120842226 -0.02251199
0.27462986 -0.035372514 0.10175986 0.36841884 0.15264955 -0.13705464 0.12746403 -0.12441318
0.1042357 0.20254071 -0.36480886 -0.2703564 -0.11485984 -0.048848737 -0.0480171 -0.21615463
-0.19384952 0.032630507 -0.03603709 0.08810884 -0.3460133 0.096708186 -0.033842947 -0.11408994
-0.019033452 0.23786844 0.17959425 0.04061362 0.1709124 0.19255786 0.15105316 0.15085433
0.09895114 0.20522705 0.19347662 -0.30957413 -0.36470652 -0.36755052 -0.047887504 -0.2182689
0.46083868 0.3131839 0.1404288 0.086294666 0.26168492 0.32786956 0.029083919 0.110608384
0.2195049 0.042043608 0.26829788 0.08416739 0.13399649 0.027026122 0.08270102 0.30962452
0.21921171 -0.11351585 0.23867781 0.1681691 0.3347539 0.13155395 0.38559085 0.09907924
0.17738552 -0.25323614 0.08661529 -0.06476168 -0.23361155 -0.16251631 -0.32359952 -0.21559484
0.06551783 -0.31253707 -0.11744198 -0.19484267 0.0060277656 -0.13090691 -0.1059545 -0.1374424
-0.09076405 0.10104989 -0.18832327 -0.2973489 0.07461808 0.09266541 -0.08398728 -0.46648917
-0.29871407 -0.15821593 -0.3691146 -0.30937696 -0.11070921 -0.023446705 -0.14257061 -0.33805308
00000000: 53d1 a0be eec2 6cbe c53c 31be e1b2 28be
00000010: 99dd 3cbe e09c a8be 2045 d5be b957 40be
00000020: 7fd9 dcbc d52e 42be b02f 44be 330a c4bd
00000030: d691 eabd f637 31be 3035 2ebe a053 2dbe
00000040: ba81 01be 5ff7 3dbe d4af 62be 1336 74be
00000050: 219b b3be 4118 79bd b901 2d3d 3ed0 8dbd
00000060: 8c04 02be aa66 743e 0a24 833d 0f79 0e3d
00000070: 108f edbd 5840 e9bd b08c 4e3e 6231 ce3d
00000080: b869 cebc e329 f33d 3ff4 5f3d 54f7 a03e
00000090: 41d2 883e d87e 103e 611a 063e 4c99 d3bb
000000a0: 6850 8b3e 1f07 983e 0220 003f 391e 893e
000000b0: d24f 673e d364 ff3e d8cb a53e 0972 3b3e
000000c0: 03b1 a43e a46c a63e b0c1 0a3e ccd0 b83d
000000d0: abe4 c53d e2a4 d93d f688 7a3e 0dcb 77bd
000000e0: 55e2 4bbe d1c9 52be 8211 323d b311 963c
000000f0: 6cd7 b9be e759 a3be ef77 c6bd 7622 dfbd
00000100: 7b9a 26be a1c9 a1be 13c7 243d c3a4 94bd
00000110: 8040 bb3b e40e d0bd 0d23 693d 3ca8 fbbe
00000120: c6f1 70be b250 fdbd 998f 34be 913e a23e
00000130: 5d6c 5e3e 45c1 1b3e 2209 323e bbfa 7c3d
00000140: 2071 ca3b 60eb b03d 9ecb 08bd 97eb 3bbe
00000150: 7dfd 16bc 93d8 f43c b0ca aebd e6f8 7d3c
00000160: 1d91 70bd de0f 903d b48c 24b9 b4c3 c93d
00000170: 5340 b93d fb20 81bd a005 ad3d 6557 03bf
00000180: 1cbc 83be a4b4 00be 6060 dfbe 1cc4 bfbe
00000190: 157c a33e f8a1 9e3e de49 d03e aa19 ab3e
000001a0: 2c7a e43e 032d 633e 9735 8b3e 5133 983e
000001b0: 98fa 923e 1e8d c63e fe4f b83d 113d 35bd
000001c0: 4ed6 3b3e 12e9 f43d a36b 773e c712 153e
000001d0: 001a 733d 3e22 153e 3959 3dbd 2129 ac3e
000001e0: 258b f63d e354 de3c 6014 b53b 3bd1 523e
000001f0: d4c3 ca3d 356a 713d 9a10 e23e 1bea 9f3e
00000200: 8271 a53e 34fe 2f3e dda7 8ebd 934f 383e
00000210: 9cdc eabe c900 18be 2cd8 1c3e 753c 093e
00000220: dfee 453e f6f3 f2bd 9355 d83e a0cc d7bd
00000230: 287d ff3e ad6f 063f 46b9 ac3e 3497 3f3e
00000240: 91bd c33e 69bd 473e 1f96 633e 15f4 59be
00000250: c5eb bdbd ec50 fa3e bc79 3bbe 3bdd d0bd
00000260: 1d09 07bd 4c8b d03c ea1f a33e 15be 1c3e
00000270: c1b9 dabd 4e94 c3bc 217c f73d 116b b8bc
00000280: 499c 8c3e c5e2 10bd 7967 d03d 65a1 bc3e
00000290: 2a50 1c3e 0d58 0cbe ee85 023e 56cc febd
000002a0: 8779 d53d d566 4f3e 3ac8 babe 276c 8abe
000002b0: a33b ebbd 9d15 48bd 94ad 44bd a457 5dbe
000002c0: 7d80 46be 91a7 053d a19b 13bd 6872 b43d
000002d0: a828 b1be f10e c63d e79e 0abd fda7 e9bd
000002e0: 0bec 9bbc c993 733e 8ee7 373e 785a 263d
000002f0: a903 2f3e e32d 453e aead 1a3e 8f79 1a3e
00000300: e5a6 ca3d 0a27 523e bc1e 463e 8080 9ebe
00000310: d0ba babe 952f bcbe b025 44bd e281 5fbe
00000320: 0cf3 eb3e a459 a03e 91cc 0f3e 42bb b03d
00000330: 91fb 853e 85de a73e 6641 ee3c a686 e23d
00000340: e4c5 603e eb35 2c3d 575e 893e f45f ac3d
00000350: 6036 093e e365 dd3c 275f a93d 1b87 9e3e
00000360: 0979 603e ff7a e8bd f567 743e 8534 2c3e
00000370: dd64 ab3e 14b6 063e 2a6c c53e 0eea ca3d
00000380: 8da4 353e 2ba8 81be 5b63 b13d c6a1 84bd
00000390: de37 6fbe ad6a 26be d6ae a5be e5c4 5cbe
000003a0: 362e 863d dc04 a0be 6c85 f0bd d684 47be
000003b0: 9084 c53b 760c 06be acfe d8bd b3bd 0cbe
000003c0: 81e2 b9bd 3ff3 ce3d d1d7 40be 1d3e 98be
000003d0: 5dd1 983d 5dc7 bd3d 8601 acbd abd7 eebe
000003e0: 0df1 98be 5b03 22be 97fc bcbe a866 9ebe
000003f0: 83bb e2bd 4e13 c0bc 08fe 11be 4b15 adbe

conv3.depthwise.weight_fake_quant.scale f4 [16]
0.0032542539 0.003940877 0.0038399952 0.004008198 0.0035137513 0.0041349498 0.0029009243 0.002871477
0.0036286628 0.003644458 0.0028836918 0.0025621806 0.003846209 0.0046603135 0.003916665 0.0037238272
00000000: 5245 553b 7922 813b 6ea8 7b3b 3457 833b
00000010: f746 663b 797e 873b 6f1d 3e3b 642f 3c3b
00000020: dcce 6d3b dcd7 6e3b 52fc 3c3b 42ea 273b
00000030: ae10 7c3b 8bb5 983b 5e57 803b 740b 743b

conv3.depthwise.weight_fake_quant.activation_post_process.min_val f4 [16]
-0.4165445 -0.11599661 -0.4915194 -0.51304936 -0.04622785 -0.4587128 -0.3648104 -0.36754906
-0.11351207 -0.46649063 -0.36911255 -0.14833367 -0.49231476 -0.43392324 -0.5013331 -0.47664988
00000000: 5245 d5be a18f edbd 6ea8 fbbe 3457 03bf
00000010: 6a59 3dbd 67dc eabe 6ec8 babe 642f bcbe
00000020: 0479 e8bd dcd7 eebe 52fc bcbe c8e4 17be
00000030: ae10 fcbe 302b debe 5e57 00bf 740b f4be

conv3.depthwise.weight_fake_quant.activation_post_process.max_val f4 [16]
0.04223759 0.5004914 0.24466105 0.31688118 0.44624642 0.5251386 0.36841738 0.23786652
0.46084017 0.101048194 0.22798562 0.32539693 0.052320603 0.5918598 0.4659049 0.39119297
00000000: 5301 2d3d 3420 003f 6d88 7a3e 403e a23e
00000010: 697a e43e 7c6f 063f 34a1 bc3e 4893 733e
00000020: 3ef3 eb3e 5bf2 ce3d 1075 693e 6d9a a63e
00000030: 214e 563d 2084 173f 168b ee3e 724a c83e

conv3.pointwise.weight f4 [120, 16, 1, 1]
-0.24490204 0.15169255 0.1938835 0.19273286 -0.6872692 0.250857 -0.25348547 0.42839283
-0.25467804 0.039995078 -0.0029296754 -0.0575697 -0.12739345 -0.02403314 -0.18233466 0.09130038
-0.05574957 0.3518359 -0.114282034 -0.28940997 -0.27119985 -0.56570894 -0.28535068 -0.35534984
-0.0121616665 -0.15339695 -0.06812104 0.32954073 -0.050580356 -0.12296985 0.3140935 0.41789725
-0.23193413 -0.11132647 0.15915723 0.13705064 -0.36971936 -0.15662628 0.29442397 -0.31927052
0.08934627 -0.095520735 0.27398786 0.2755956 0.22061536 -0.23365033 -0.31237826 -0.05684023
0.09865691 -0.038109206 -0.12758625 0.11237223 -0.41611648 0.39150423 -0.043590233 -0.041518208
-0.30795732 0.013205033 0.1618102 -0.36856344 -0.12646315 -0.14086607 0.3963931 -0.1407388
0.14361982 -0.1791398 -0.21727811 -0.18743095 -0.19646452 0.11658508 -0.019120377 -0.11343798
-0.3261261 -0.17283493 0.17115682 -0.39106724 0.16497977 0.029844686 -0.10338505 -0.1524819
0.30649015 -0.65993726 0.062019244 -0.27017057 0.1702043 0.14225736 0.30291107 -0.16007315
0.030772552 0.055783615 -0.24651785 0.114917934 -0.05579725 0.047457818 -0.40571144 -0.21738672
-0.12659395 0.01864432 0.35801142 0.1936025 -0.0908137 0.4016584 -0.33138144 0.39543632
-0.14055985 0.29956684 -0.23682897 0.19573747 0.11815717 0.23850775 -0.042671103 0.06966612
-0.21261396 0.30008435 0.21060856 0.117802516 -0.21867101 -0.3025232 -0.19718207 -0.082920305
0.12288826 0.02271633 0.020849477 0.43662933 0.053099938 0.027016995 0.19541174 0.3867337
-0.124490015 0.20000178 0.16521557 0.19722077 -0.016120242 -0.07411367 -0.31774613 0.1717477
-0.23281549 0.06893324 -0.09763907 0.38348168 -0.072347835 -0.00020981774 -0.088753425 0.25979
0.20099115 -0.57956064 -0.1235962 -0.003591738 0.05091092 0.18600851 -0.10709473 -0.59032166
0.11906829 -0.097639784 0.12385304 -0.15613897 -0.002319986 0.14898242 0.0059338184 -0.033311475
0.27216685 -0.10977564 0.0020784754 -0.24054584 0.038943656 0.050015878 0.08212007 0.013771161
0.2455166 0.40905696 0.32160485 -0.19005783 -0.21973452 0.087794505 0.09968707 0.20976344
-0.17483847 0.31332007 -0.48347878 -0.082731366 0.1620118 0.18611091 -0.19725928 -0.14521834
0.1526705 -0.016546484 0.32086447 0.06520112 0.23873706 0.024998989 -0.27905932 -0.09754937
0.19295056 0.20549071 0.06756694 0.16520798 0.0017033175 -0.06531135 -0.018002272 -0.08386365
-0.21791029 0.071570255 0.014783417 0.09491211 0.27349025 -0.07157114 0.16744103 -0.2924836
0.20534362 -0.06177034 0.1260454 0.19263391 -0.33675984 0.24500544 -0.011307243 0.27770585
0.057414494 0.015224 -0.28380522 0.120001696 -0.05690503 0.2865621 -0.0095695425 0.36979902
-0.2564272 0.32148513 0.08054831 0.2335281 0.12795165 0.16613887 0.15788135 0.028850766
-0.08326117 0.20590489 -0.0036336326 0.2479423 0.061953012 0.52849394 -0.17557018 0.16791809
0.33973688 0.054728027 -0.12128704 -0.2226138 -0.060307477 0.30851603 0.17915782 -0.063203454
0.17379534 0.004229433 -0.109980896 -0.35356557 0.0200533 0.4844942 0.28568688 -0.12708262
00000000: 9ac7 7abe 4b55 1b3e 6589 463e c35b 453e
00000010: e0f0 2fbf 5470 803e d9c8 81be 4e56 db3e
00000020: 2965 82be e1d1 233d ccff 3fbb 35ce 6bbd
00000030: 6e73 02be 26e1 c4bc f0b5 3abe b2fb ba3d
00000040: a959 64bd d623 b43e b30c eabd 8b2d 94be
00000050: b5da 8abe 4dd2 10bf 7c19 92be 6af0 b5be
00000060: ba41 47bc 1714 1dbe 0b83 8bbd 90b9 a83e
00000070: 592d 4fbd 9ed7 fbbd ddd0 a03e a1f6 d53e
00000080: 2480 6dbe 22ff e3bd 1dfa 223e 0157 0c3e
00000090: db4b bdbe a462 20be bdbe 963e 6d77 a3be
000000a0: 2dfb b63d 60a0 c3bd 2348 8c3e de1a 8d3e
000000b0: fee8 613e 0842 6fbe 0bf0 9fbe 4dd1 68bd
000000c0: a20c ca3d 6618 1cbd f8a5 02be 6923 e63d
000000d0: 380d d5be 3e73 c83e ac8b 32bd ff0e 2abd
000000e0: 95ac 9dbe ec59 583c 93b1 253e 59b4 bcbe
000000f0: 8e7f 01be 323f 10be 09f4 ca3e d51d 10be
00000100: 1311 133e 6c70 37be 277e 5ebe e6ed 3fbe
00000110: ff2d 49be 29c4 ee3d 56a2 9cbc 2c52 e8bd
00000120: 00fa a6be a4fb 30be bc43 2f3e f739 c8be
00000130: 75f0 283e d87c f43c 8bbb d3bd 3724 1cbe
00000140: 47ec 9c3e a6f1 28bf e407 7e3d cc53 8abe
00000150: 094a 2e3e eaab 113e 2917 9b3e 37ea 23be
00000160: b816 fc3c 5c7d 643d 2d6f 7cbe 185a eb3d
00000170: a88b 64bd 2163 423d 69b9 cfbe a09a 5ebe
00000180: d8a1 01be f9bb 983c 464d b73e bc3f 463e
00000190: 88fc b9bd 2ba6 cd3e d4aa a9be a176 ca3e
000001a0: ecee 0fbe d360 993e 4b83 72be 676f 483e
000001b0: 63fc f13d 603b 743e e5c7 2ebd 1cad 8e3d
000001c0: 79b7 59be a8a4 993e c5a9 573e 7242 f13d
000001d0: 4beb 5fbe 52e4 9abe 19ea 49be 1fd2 a9bd
000001e0: d7ac fb3d 9917 ba3c 86cc aa3c e18d df3e
000001f0: 527f 593d bf52 dd3c 041a 483e f601 c63e
00000200: 9ff4 febd 44cd 4c3e 452e 293e 3ef4 493e
00000210: 990e 84bc e8c8 97bd 9faf a2be a1de 2f3e
00000220: 2f67 6ebe df2c 8d3d fef6 c7bd b657 c43e
00000230: 1a2b 94bd 8502 5cb9 5bc4 b5bd 3203 853e
00000240: a0d0 4d3e 165e 14bf 0120 fdbd 5d63 6bbb
00000250: f887 503d 0479 3e3e 7b54 dbbd 521f 17bf
00000260: 13da f33d 5ef7 c7bd aaa6 fd3d e5e2 1fbe
00000270: e80a 18bb d98e 183e 7a70 c23b 9d71 08bd
00000280: 7459 8b3e 0dd2 e0bd 0837 083b a651 76be
00000290: 6283 1f3d 73dd 4c3d 912e a83d 70a0 613c
000002a0: b468 7b3e ea6f d13e 64a9 a43e 859e 42be
000002b0: 1602 61be 9bcd b33d bc28 cc3d 3acc 563e
000002c0: db08 33be 7d6b a03e 888a f7be 106f a9bd
000002d0: 6ce6 253e dc93 3e3e 56fe 49be 1eb4 14be
000002e0: a855 1c3e 7e8c 87bc 5948 a43e 2a88 853d
000002f0: 7d77 743e aeca cc3c dde0 8ebe f7c7 c7bd
00000300: d594 453e 286c 523e 8960 8a3d 482c 293e
00000310: da41 df3a f5c1 85bd 8079 93bc b5c0 abbd
00000320: e023 5fbe 6d93 923d 2536 723c 4861 c23d
00000330: ea06 8c3e e493 92bd a975 2b3e 69c0 95be
00000340: 9945 523e e502 7dbd 0c12 013e d341 453e
00000350: c96b acbe b5e2 7a3e 0442 39bc 762f 8e3e
00000360: 762b 6b3d 166e 793c eb4e 91be 73c3 f53d
00000370: 4015 69bd 44b8 923e 92c9 1cbc 4c56 bd3e
00000380: 6d4a 83be b399 a43e 83f6 a43d fe21 6f3e
00000390: c205 033e 4f20 2a3e a6ab 213e 7158 ec3c
000003a0: d584 aabd bbd8 523e 3d22 6ebb 96e4 7d3e
000003b0: 71c2 7d3d 614b 073f abc8 33be b8f2 2b3e
000003c0: fef1 ad3e 7f2a 603d 5765 f8bd dff4 63be
000003d0: f904 77bd d0f5 9d3e 2675 373e d070 81bd
000003e0: 68f7 313e 0e97 8a3b aa3d e1bd 8c06 b5be
000003f0: d146 a43c a00f f83e 8d45 923e f221 02be

conv3.pointwise.weight_fake_quant.scale f4 [120]
0.005369314 0.0044195782 0.002888421 0.0032508983 0.0030552242 0.0051557366 0.0031626849 0.0034380022
0.0030195257 0.0046119113 0.0032209328 0.0037771896 0.0022850167 0.0029117917 0.004161393 0.0038149268
0.003625047 0.0034507364 0.0040574 0.0026038298 0.0025173347 0.0037757028 0.00430675 0.0027525946
0.0040758476 0.0048995377 0.00425919 0.0035667669 0.003331848 0.0045228493 0.0038374253 0.0036855335
0.0043359413 0.0024578793 0.0035391646 0.0034400416 0.003927728 0.004984542 0.00365353 0.004424205
0.0029340503 0.004112155 0.004225607 0.0028959867 0.0036149886 0.003869479 0.0031365808 0.0037863026
0.003020587 0.0033350494 0.004183407 0.0033651183 0.003976503 0.0028962924 0.0043021063 0.001968249
0.002058092 0.00397709 0.0034791548 0.0040671984 0.0034448612 0.0042720092 0.0029041166 0.0039356234
0.0038232512 0.0031130207 0.0034681582 0.004310487 0.0041285106 0.0041661947 0.00348604 0.0041946922
0.0037791226 0.004189799 0.004623809 0.0038971445 0.0040936684 0.0038714795 0.004208916 0.0034656336
0.0039202394 0.0033883764 0.0030630766 0.00297534 0.0042680334 0.0046989466 0.0038375314 0.0040487796
0.0038216577 0.004279682 0.0044021606 0.0041616657 0.0042983163 0.0019424098 0.0042231055 0.003235829
0.0037391533 0.0039965864 0.00312937 0.003828923 0.0035979832 0.0029538204 0.002801071 0.00314731
0.0038406323 0.0028718866 0.004096585 0.004418429 0.0035558245 0.0048591048 0.0017411257 0.0030339248
0.0031151809 0.0043134377 0.003628413 0.0045062555 0.003965351 0.005005797 0.0030563069 0.0036531517
00000000: 12f1 af3b 1cd2 903b aa4b 3d3b 060d 553b
00000010: 283a 483b 74f1 a83b 0c45 4f3b 1b50 613b
00000020: 3ce3 453b 841f 973b 4916 533b ba8a 773b
00000030: 38c0 153b c2d3 3e3b 4b5c 883b da03 7a3b
00000040: 3292 6d3b c025 623b f0f3 843b 04a5 2a3b
00000050: def9 243b c871 773b a31f 8d3b e064 343b
00000060: b08e 853b 4d8c a03b ad90 8b3b 6bc0 693b
00000070: 225b 5a3b 6934 943b 507d 7b3b fe88 713b
00000080: 8314 8e3b 5f14 213b 54f1 673b 5272 613b
00000090: 2cb4 803b 5e55 a33b 1070 6f3b ecf8 903b
000000a0: 3249 403b 42bf 863b f676 8a3b 98ca 3d3b
000000b0: 72e9 6c3b 1697 7d3b 188f 4d3b 9e23 783b
000000c0: 0af5 453b d890 5a3b f614 893b 5189 5c3b
000000d0: 534d 823b b9cf 3d3b aff8 8c3b bdfd 003b
000000e0: 0ee1 063b 4052 823b 8802 643b 2246 853b
000000f0: 2ec3 613b 36fc 8b3b fe52 3e3b 67f6 803b
00000100: 838f 7a3b d203 4c3b 0a4a 633b fc3e 8d3b
00000110: 7548 873b 9384 883b 0c76 643b a173 893b
00000120: 28ab 773b 954a 893b 5283 973b 3c67 7f3b
00000130: 2e24 863b a6b8 7d3b f2ea 893b af1f 633b
00000140: 5a75 803b 860f 5e3b e6bd 483b ecfd 423b
00000150: dcda 8b3b 9ff9 993b 187f 7b3b a0ab 843b
00000160: c774 7a3b 933c 8c3b 0040 903b 955e 883b
00000170: e4d8 8c3b 7598 fe3a fa61 8a3b 3410 543b
00000180: 950c 753b ccf5 823b 1e16 4d3b abee 7a3b
00000190: 24cc 6b3b e294 413b 2c92 373b 1a43 4e3b
000001a0: 1eb3 7b3b 4336 3c3b a53c 863b 78c8 903b
000001b0: d608 693b 2039 9f3b 7c36 e43a d0d4 463b
000001c0: 1028 4c3b bd57 8d3b abca 6d3b 36a9 933b
000001d0: c6ef 813b ab07 a43b 524c 483b b769 6f3b

conv3.pointwise.weight_fake_quant.activation_post_process.min_val f4 [120]
-0.6872722 -0.565706 -0.3697179 -0.416115 -0.3910687 -0.6599343 -0.33137995 -0.3025247
-0.3177476 -0.59032464 -0.24054438 -0.48348027 -0.29248214 -0.3367613 -0.25642574 -0.35356706
-0.464006 -0.44169426 -0.23400983 -0.26229268 -0.25829947 -0.48328996 -0.17344798 -0.35233212
-0.5217085 -0.32951987 -0.32849473 -0.44179028 -0.22786868 -0.42424554 -0.49119043 -0.34344774
-0.3877389 -0.2854787 -0.26438954 -0.44032532 -0.15425247 -0.63802135 -0.46765184 -0.23061101
-0.37555844 -0.52635586 -0.28034687 -0.3706863 -0.46271855 -0.44578698 -0.3601701 -0.48464674
-0.30600873 -0.42688632 -0.5354761 -0.4135037 -0.47437248 -0.20647085 -0.21634929 -0.20440763
-0.23611736 -0.50906754 -0.4453318 -0.5206014 -0.17806685 -0.24566244 -0.37172693 -0.32231852
-0.29256052 -0.39846665 -0.44392425 -0.4059772 -0.26456398 -0.31238407 -0.3013029 -0.31235206
-0.4837277 -0.28825688 -0.5890584 -0.4988345 -0.44658375 -0.49554938 -0.5219779 -0.37757182
-0.50179064 -0.34895843 -0.3824854 -0.38084352 -0.3787452 -0.29221433 -0.41069716 -0.5182438
-0.28053522 -0.37551135 -0.29093647 -0.3314776 -0.5501845 -0.24784416 -0.48859233 -0.34363043
-0.19958344 -0.15986615 -0.38848728 -0.2417863 -0.35816634 -0.29168278 -0.31592178 -0.4028557
-0.2137041 -0.36055666 -0.37917674 -0.5655589 -0.45514554 -0.6219654 -0.22286409 -0.18687609
-0.3492052 -0.32327437 -0.30172235 -0.25805593 -0.5075649 -0.54355204 -0.26733282 -0.19772327
00000000: 12f1 2fbf 1cd2 10bf aa4b bdbe 060d d5be
00000010: 283a c8be 74f1 28bf a2aa a9be 84e4 9abe
00000020: d0af a2be 841f 17bf 4451 76be ba8a f7be
00000030: 38c0 95be fa6b acbe 3c4a 83be be06 b5be
00000040: 3292 edbe c025 e2be 46a0 6fbe 3a4b 86be
00000050: d43f 84be c871 f7be 599c 31be e064 b4be
00000060: b08e 05bf d4b6 a8be 7630 a8be 5632 e2be
00000070: 6856 69be b636 d9be 507d fbbe 62d8 afbe
00000080: b785 c6be 442a 92be 115e 87be 5272 e1be
00000090: 5cf4 1dbe 5e55 23bf 1070 efbe 4b25 6cbe
000000a0: 3249 c0be 42bf 06bf a089 8fbe 98ca bdbe
000000b0: 72e9 ecbe 313e e4be 3768 b8be 9e23 f8be
000000c0: 2dad 9cbe d890 dabe f614 09bf c2b6 d3be
000000d0: f3e0 f2be 186d 53be ab8a 5dbe 3c50 51be
000000e0: c0c8 71be 4052 02bf 8802 e4be 2246 05bf
000000f0: 2857 36be ef8e 7bbe fe52 bebe ef06 a5be
00000100: 7eca 95be d203 ccbe 0a4a e3be 3edc cfbe
00000110: ee74 87be cef0 9fbe 6044 9abe 9cec 9fbe
00000120: 28ab f7be 6896 93be 88cc 16bf 3c67 ffbe
00000130: a0a6 e4be a6b8 fdbe 58a0 05bf 1851 c1be
00000140: 5a75 00bf aeaa b2be 20d5 c3be ecfd c2be
00000150: e4ea c1be 1e9d 95be e646 d2be a0ab 04bf
00000160: 50a2 8fbe 0643 c0be a0f5 94be 6fb7 a9be
00000170: e4d8 0cbf dcca 7dbe c628 fabe 54f0 afbe
00000180: 9a5f 4cbe f4b3 23be cee7 c6be d496 77be
00000190: 9461 b7be 7257 95be 80c0 a1be 1a43 cebe
000001a0: 3fd5 5abe e29a b8be 7423 c2be 78c8 10bf
000001b0: d608 e9be 2039 1fbf 7c36 64be 725c 3fbe
000001c0: 06cb b2be 3884 a5be 5a7b 9abe e81f 84be
000001d0: c6ef 01bf 3a26 0bbf d9df 88be f877 4abe

conv3.pointwise.weight_fake_quant.activation_post_process.max_val f4 [120]
0.42839432 0.4178958 0.29442543 0.3963916 0.17115757 0.3064887 0.40166098 0.4366263
0.38347977 0.20099007 0.40905845 0.32086295 0.27349174 0.36979753 0.52849686 0.4844957
0.44998658 0.34494865 0.5152898 0.3306864 0.3197015 0.39135104 0.54695725 0.34523815
0.39408904 0.62224126 0.54091716 0.4529794 0.4231447 0.57440186 0.45642376 0.46806276
0.55066454 0.31215066 0.4494739 0.3800416 0.4988215 0.3891384 0.33079475 0.56187403
0.3280695 0.30063087 0.5366521 0.33727723 0.4027006 0.49142385 0.39834577 0.3302812
0.38361454 0.3928244 0.15064631 0.42737 0.50501585 0.36782914 0.5463675 0.24996763
0.2613777 0.30162293 0.2743641 0.3304761 0.43749738 0.5425452 0.32029068 0.49982417
0.4855529 0.27655768 0.39939052 0.5474318 0.52432084 0.52910674 0.4427271 0.53272593
0.27476358 0.5321045 0.5872237 0.44241828 0.5198959 0.25918078 0.5345323 0.44013548
0.35660565 0.4303238 0.38901073 0.25334552 0.5420402 0.59676623 0.4873665 0.2831598
0.48535052 0.5435196 0.5590744 0.52853155 0.39653063 0.24668604 0.5363344 0.4109503
0.47487247 0.50756645 0.39743 0.48627323 0.45694387 0.37513518 0.35573602 0.33902434
0.4877603 0.36472958 0.5202663 0.31322214 0.29606348 0.3082744 0.19654214 0.38530844
0.39562798 0.5478066 0.46080846 0.5722945 0.3605191 0.6357362 0.38815096 0.46395028
00000000: 8056 db3e 70f6 d53e eebe 963e d7f3 ca3e
00000010: ee43 2f3e 16ec 9c3e 82a6 cd3e 7b8d df3e
00000020: 7657 c43e 57d0 4d3e 1c70 d13e 2648 a43e
00000030: 1c07 8c3e 1a56 bd3e 924b 073f d20f f83e
00000040: a464 e63e 1c9d b03e 08ea 033f ba4f a93e
00000050: eaaf a33e 2a5f c83e 6405 0c3f 0ec3 b03e
00000060: 0ac6 c93e 344b 1f3f 8c79 0a3f eaec e73e
00000070: 6ca6 d83e 000c 133f 60b0 e93e eca5 ef3e
00000080: 5af8 0c3f 36d2 9f3e 7121 e63e d094 c23e
00000090: 8865 ff3e 263d c73e ee5d a93e fad6 0f3f
000000a0: baf8 a73e 4aec 993e 0862 093f 9aaf ac3e
000000b0: c62e ce3e e89b fb3e faf3 cb3e 9e1a a93e
000000c0: 2069 c43e 4820 c93e 0743 1a3e 3ed0 da3e
000000d0: b848 013f 1a54 bc3e bede 0b3f 84f7 7f3e
000000e0: 4cd3 853e 526e 9a3e 7479 8c3e 2a34 a93e
000000f0: a8ff df3e 3ee4 0a3f 24fd a33e f4e8 ff3e
00000100: 649a f83e f898 8d3e ea7c cc3e 7e24 0c3f
00000110: e439 063f 8a73 073f 20ad e23e ba60 083f
00000120: d0ad 8c3e 0038 083f 4b54 163f a684 e23e
00000130: e617 053f 58b3 843e 1cd7 083f 7059 e13e
00000140: 0495 b63e 6753 dc3e 6a2c c73e 81b6 813e
00000150: 26c3 0a3f acc5 183f 1a88 f93e 52fa 903e
00000160: dd7f f83e 1a24 0b3f 801f 0f3f d84d 073f
00000170: 1006 cb3e 449b 7c3e 364d 093f 1468 d23e
00000180: 7c22 f33e e0ef 013f f27b cb3e cef8 f83e
00000190: 8cf4 e93e b811 c03e 0823 b63e 9994 ad3e
000001a0: b8bb f93e d6bd ba3e 2c30 053f a75e a03e
000001b0: a295 973e 24d6 9d3e 5842 493e 2647 c53e
000001c0: c08f ca3e 0e3d 0c3f 16ef eb3e e481 123f
000001d0: f695 b83e 9cbf 223f b9bb c63e e48a ed3e

fc1.weight f4 [84, 120]
-0.017969828 -0.06894 -0.110618584 -0.037697036 0.044851456 0.01975476 -0.03565353 0.010937999
-0.11789167 -0.067858145 -0.10062647 -0.034244526 -0.07386955 0.032706685 -0.0017164196 -0.05125336
-0.035096776 -0.09305705 -0.10850062 -0.07059538 0.018702071 0.0009795665 -0.12290928 0.058802966
0.014818225 -0.039465014 -0.034246355 -0.04427366 -0.08897965 -0.035852812 0.019634632 -0.028614074
0.061107658 -0.08065117 -0.06893146 -0.09021102 -0.018559176 -0.021126822 -0.09273273 -0.08906136
-0.076013096 -0.03260625 0.08399295 0.031245895 0.027691917 0.063277245 -0.035955068 -0.10065269
0.10166265 -0.094158776 -0.04829525 0.031247457 -0.07993206 -0.084370114 -0.06753948 -0.034768373
-0.015050202 -0.018708086 -0.082535215 -0.076806314 -0.039726246 -0.021964088 -0.0813378 -0.0062510106
-0.013115475 0.020727502 -0.10530984 0.048126716 0.041239906 0.047792856 -0.0033354033 -0.0019029235
0.0013668345 -0.00034878505 0.06892791 0.00049605884 0.090174295 -0.07978269 -0.10078379 0.007983643
-0.08142955 -0.08544638 -0.0036249142 -0.029944565 -0.09194203 -0.08200556 0.062119972 -0.05143018
-0.019475969 -0.014182382 0.038298022 0.023652783 -0.068406284 -0.022547476 0.032485496 -0.08798441
-0.032181572 -0.041989073 0.012321403 -0.08091709 0.025839124 -0.0057324423 0.024850436 -0.04271881
-0.09570222 -0.08749489 0.025292238 -0.012401973 0.042262092 -0.03572787 0.056071986 -0.089187555
-0.08119177 0.06421155 -0.043344226 -0.086125 0.059789374 -0.011947592 0.054432992 0.03389078
0.007771761 0.05600371 -0.06286024 0.06911389 -0.04355231 0.026263945 -0.0440634 -0.075699195
-0.07264495 -0.10391952 -0.051799897 -0.040115688 -0.08281673 -0.006667636 0.03455291 0.033513643
0.05778161 -0.084232375 -0.007677424 -0.010934053 0.07747398 0.0152016105 -0.089340955 -0.013543867
0.066169515 -0.027760563 -0.04879919 -0.0055202916 0.012781357 -0.09453078 0.016390286 -0.06661249
-0.076136954 0.0017789677 -0.029616194 -0.05548842 -0.005289395 -0.09000476 -0.011147827 -0.013792988
-0.068925425 0.025822226 0.045681193 -0.04656294 -0.09576556 0.013772252 -0.017611014 -0.110807285
-0.066634014 -0.05355935 -0.08088423 -0.091372885 -0.056020003 0.0782413 -0.06997777 -0.013819163
-0.018997714 -0.0049412996 0.008105449 0.022115026 -0.06777425 0.0005605362 -0.083443426 -0.09502866
0.0031837558 -0.085286915 0.015605259 -0.015608447 -0.054311365 -0.08433894 0.0042137695 0.013320088
0.0530892 0.05226701 0.030545052 -0.06291851 0.0082211085 -0.08175171 -0.015995873 0.008638561
-0.064904824 -0.0044468343 -0.00065369793 -0.06652102 -0.08709909 -0.07841297 -0.010796167 -0.08177722
0.014699129 0.021543738 -0.07819898 -0.012209193 -0.04725332 -0.02277124 0.05360665 -0.043814085
0.0024091378 -0.054559793 -0.0040645557 0.08640508 -0.041073013 0.034480836 0.007951312 -0.016241886
-0.05506313 0.04449287 -0.029672185 -0.02564157 0.026145838 -0.079323106 0.07013883 0.047584318
-0.04765225 -0.045902856 0.054537263 0.065514274 0.04020071 0.009260475 0.051890966 -0.009737665
-0.4616386 0.05454793 -0.15789399 -0.23052946 0.073023476 0.18819478 0.0071550435 -0.11389131
-0.17337619 -0.017258605 0.07965858 0.15077458 -0.030241031 -0.050925586 0.42392534 -0.09972395
00000000: 7635 93bc 6a30 8dbd ff8b e2bd 3568 1abd
00000010: 29b6 373d bcd4 a13c 7009 12bd 4b35 333c
00000020: 3071 f1bd 36f9 8abd 4015 cebd fd43 0cbd
00000030: eb48 97bd 72f7 053d 7cf9 e0ba 0bef 51bd
00000040: a3c1 0fbd b294 bebd 9335 debd 5094 90bd
00000050: 1635 993c cc64 803a dcb7 fbbd 61db 703d
00000060: 24c8 723c 11a6 21bd e845 0cbd 4c58 35bd
00000070: f63a b6bd 66da 12bd cfd8 a03c 1068 eabc
00000080: 064c 7a3d 712c a5bd f02b 8dbd 8ec0 b8bd
00000090: 6a09 98bc 2812 adbc a8ea bdbd cd65 b6bd
000000a0: c1ac 9bbd 228e 05bd 7f04 ac3d 64f7 ff3c
000000b0: 29da e23c 8097 813d 9f45 13bd ff22 cebd
000000c0: 8234 d03d 51d6 c0bd 3dd1 45bd abfa ff3c
000000d0: 6bb3 a3bd 3dca acbd 2452 8abd 4869 0ebd
000000e0: 1f95 76bc b341 99bc 3908 a9bd a14c 9dbd
000000f0: fdb7 22bd 08ee b3bc 6f94 a6bd 47d5 ccbb
00000100: 4ae2 56bc b9cc a93c afac d7bd 8520 453d
00000110: 2deb 283d 71c2 433d c896 5abb 846b f9ba
00000120: 5b27 b33a 23dd b6b9 132a 8d3d f209 023a
00000130: 4dad b83d 1b65 a3bd bb67 cebd d3cd 023c
00000140: 89c4 a6bd 83fe aebd f88f 6dbb 4e4e f5bc
00000150: 1a4c bcbd 88f2 a7bd 8371 7e3d 74a8 52bd
00000160: 118c 9fbc 395d 68bc 63de 1c3d 7bc3 c13c
00000170: 9818 8cbd 7cb5 b8bc 830f 053d 2c31 b4bd
00000180: d3d0 03bd bcfc 2bbd b6df 493c dcb7 a5bd
00000190: 92ac d33c 36d7 bbbb 2493 cb3c ebf9 2ebd
000001a0: 87ff c3bd 8530 b3bd ab31 cf3c a531 4bbc
000001b0: 041b 2d3d 6357 12bd bdab 653d f7a7 b6bd
000001c0: df47 a6bd 5881 833d b789 31bd 4e62 b0bd
000001d0: b4e5 743d d5bf 43bc 21f5 5e3d 0fd1 0a3d
000001e0: 42aa fe3b 2564 653d dfbc 80bd 958b 8d3d
000001f0: e863 32bd 7c27 d73c d37b 34bd 2e08 9bbd
00000200: e0c6 94bd c2d3 d4bd 212c 54bd 5950 24bd
00000210: d19b a9bd 2f7c dabb 5a87 0d3d 9a45 093d
00000220: 69ac 6c3d 0682 acbd e692 fbbb be24 33bc
00000230: aeaa 9e3d 2d10 793c 64f8 b6bd 18e7 5dbc
00000240: e283 873d 1f6a e3bc a9e1 47bd 90e3 b4bb
00000250: e668 513c 5b99 c1bd ec44 863c 216c 88bd
00000260: b1ed 9bbd 402c e93a a99d f2bc d347 63bd
00000270: a952 adbb 6a54 b8bd 60a5 36bc fcfb 61bc
00000280: c628 8dbd 2289 d33c 341c 3b3d c8b8 3ebd
00000290: bc20 c4bd 03a5 613c f944 90bc eeee e2bd
000002a0: 6a77 88bd 0d61 5bbd a2a6 a5bd b521 bbbd
000002b0: 3b75 65bd fa3c a03d 8150 8fbd c569 62bc
000002c0: 18a1 9bbc a0ea a1bb b8cc 043c 922a b53c
000002d0: 3acd 8abd f3f0 123a 63e4 aabd 639e c2bd
000002e0: 8fa6 503b e8aa aebd 33ad 7f3c 92ba 7fbc
000002f0: 9875 5ebd e5b9 acbd a913 8a3b 803c 5a3c
00000300: 1074 593d ef15 563d 9e39 fa3c 6bdb 80bd
00000310: d4b1 063c 716d a7bd c709 83bc c088 0d3c
00000320: d2ec 84bd c0b6 91bb ed5c 2bba 2c3c 88bd
00000330: 0261 b2bd fb96 a0bd 68e2 30bc d17a a7bd
00000340: 9ed4 703c 7e7c b03c c926 a0bd 1109 48bc
00000350: b38c 41bd c08a babc a692 5b3d 6676 33bd
00000360: a0e2 1d3b 177a 5fbd f72f 85bb 26f5 b03d
00000370: 2d3c 28bd c73b 0d3d 3846 023c b40d 85bc
00000380: e089 61bd 283e 363d 1513 f3bc 450e d2bc
00000390: cc2f d63c 2774 a2bd f2a4 8f3d c6e7 423d
000003a0: 012f 43bd a204 3cbd 7762 5f3d 592c 863d
000003b0: 80a9 243d 3fb9 173c 9f8b 543d ba8a 1fbc
000003c0: e55b ecbe a66d 5f3d f6ae 21be ea0f 6cbe
000003d0: 558d 953d 22b6 403e db74 ea3b d93f e9bd
000003e0: 8789 31be eb61 8dbc 0a24 a33d a764 1a3e
000003f0: 0abc f7bc 5997 50bd be0c d93e 123c ccbd

fc1.weight_fake_quant.scale f4 [84]
0.0009602258 0.000865679 0.004343372 0.0043018567 0.0043338104 0.004318933 0.00394383 0.003116634
0.0036059113 0.0031457273 0.0034032867 0.0035999292 0.0035990172 0.003861609 0.0028085958 0.0039975755
0.0026880102 0.0039702663 0.004730368 0.0035004145 0.0007908711 0.0016132663 0.0009545676 0.0010112899
0.0009915074 0.0043247985 0.0034492414 0.003921224 0.004183797 0.0039592455 0.002674894 0.0043106894
0.003942378 0.0018789163 0.003960843 0.0025103823 0.0037849743 0.00460187 0.0046798764 0.005103881
0.004013081 0.0011294507 0.0055494597 0.0009879575 0.003603476 0.003952492 0.0030150807 0.003354207
0.0038317963 0.0038995715 0.003817652 0.0011992482 0.004075693 0.0038342883 0.0028617168 0.004151794
0.004837933 0.0045057177 0.0035764617 0.0043376065 0.0038493848 0.0039847735 0.004075254 0.0037779124
0.0010676358 0.0011012082 0.0038880107 0.0041202074 0.0022261022 0.0035239365 0.003642919 0.0034146279
0.004249033 0.0036623944 0.0044508497 0.0037504646 0.0029581683 0.004427036 0.0047363164 0.0040428056
0.0041770637 0.003470201 0.00088171393 0.00092277594
00000000: aab7 7b3a bcee 623a d852 8e3b 97f6 8c3b
00000010: a302 8e3b d685 8d3b 3e3b 813b 7140 4c3b
00000020: 2751 6c3b 8c28 4e3b ad09 5f3b caec 6b3b
00000030: 7ddd 6b3b 0c13 7d3b 6b10 383b 18fe 823b
00000040: 5429 303b 0219 823b 3401 9b3b 3667 653b
00000050: 7652 4f3a 3c74 d33a f23b 7a3a 428d 843a
00000060: 78f5 813a 0ab7 8d3b ab0c 623b 9c7d 803b
00000070: 3c18 893b 8fbc 813b 464d 2f3b af40 8d3b
00000080: 102f 813b f845 f63a f6c9 813b 3a85 243b
00000090: 550d 783b 49cb 963b a659 993b 753e a73b
000000a0: 2a80 833b 140a 943a 3ed8 b53b 5a7e 813a
000000b0: 4c28 6c3b e883 813b a998 453b 41d2 5b3b
000000c0: e01e 7b3b f48f 7f3b 9231 7a3b 1830 9d3a
000000d0: 648d 853b af48 7b3b a48b 3b3b c60b 883b
000000e0: 8687 9e3b b3a4 933b 1263 6a3b 7b22 8e3b
000000f0: f645 7c3b b492 823b b589 853b da96 773b
00000100: eaef 8b3a 6a56 903a ffcd 7e3b ce02 873b
00000110: cce3 113b d8f1 663b 0abe 6e3b f3c7 5f3b
00000120: 793b 8b3b c804 703b 6fd8 913b 5bca 753b
00000130: d4dd 413b ab10 913b 1a33 9b3b 8379 843b
00000140: c0df 883b 506c 633b d222 673a 72e6 713a

fc1.weight_fake_quant.activation_post_process.min_val f4 [84]
-0.122908905 -0.11080691 -0.5559516 -0.31890643 -0.40997487 -0.41081077 -0.39059204 -0.343072
-0.44814056 -0.4026531 -0.4301533 -0.30388647 -0.36574662 -0.2996257 -0.33507782 -0.43663627
-0.3440653 -0.4832905 -0.34372818 -0.34509557 -0.1012315 -0.15266216 -0.12218465 -0.1294451
-0.12691295 -0.45479828 -0.33022487 -0.4669516 -0.4025711 -0.37342423 -0.34238642 -0.38259044
-0.39956278 -0.18754171 -0.45352727 -0.31184107 -0.3899637 -0.4567132 -0.4856156 -0.5278559
-0.5136744 -0.1445697 -0.3350224 -0.12645856 -0.46124494 -0.30497193 -0.38345295 -0.41894746
-0.49046993 -0.49914515 -0.48865944 -0.15350378 -0.5216887 -0.31465167 -0.32237345 -0.3249903
-0.6192554 -0.47647184 -0.28800452 -0.52118874 -0.37092775 -0.510051 -0.48082995 -0.48357278
-0.13665739 -0.14095464 -0.38654363 -0.43730438 -0.24220532 -0.37099993 -0.36807388 -0.4074883
-0.40039676 -0.39778334 -0.4056481 -0.43034357 -0.37864554 -0.5582136 -0.51760745 -0.3631366
-0.53466415 -0.44418573 -0.11285938 -0.11811532
00000000: aab7 fbbd bcee e2bd d852 0ebf b447 a3be
00000010: 3ae8 d1be ca55 d2be aefb c7be 22a7 afbe
00000020: ae72 e5be 8c28 cebe 0e3d dcbe 0297 9bbe
00000030: 2443 bbbe 8a68 99be 528f abbe ca8e dfbe
00000040: 5429 b0be da71 f7be 24fd afbe 5eb0 b0be
00000050: 7652 cfbd 7853 1cbe f23b fabd 428d 04be
00000060: 78f5 01be 52db e8be 3c13 a9be 4814 efbe
00000070: cd1d cebe 7631 bfbe 464d afbe e5e2 c3be
00000080: 7e93 ccbe ef0a 40be ba34 e8be a2a9 9fbe
00000090: 52a9 c7be 50d6 e9be 9ca2 f8be 9021 07bf
000000a0: 2a80 03bf 140a 14be 0e88 abbe 5a7e 01be
000000b0: 4c28 ecbe 4825 9cbe f253 c4be 4880 d6be
000000c0: e01e fbbe f48f ffbe 9231 fabe 1830 1dbe
000000d0: 648d 05bf 061a a1be 220e a5be 2165 a6be
000000e0: 8687 1ebf 1ef4 f3be 5475 93be a06c 05bf
000000f0: 3eea bdbe b492 02bf 582f f6be da96 f7be
00000100: eaef 0bbe 6a56 10be 0ce9 c5be 5ce6 dfbe
00000110: ac04 78be b4f3 bdbe 2e74 bcbe 4ea2 d0be
00000120: ce00 cdbe 42aa cbbe 1cb1 cfbe fe55 dcbe
00000130: d4dd c1be 16e7 0ebf ec81 04bf 0aed b9be
00000140: c0df 08bf 506c e3be d222 e7bd 72e6 f1bd

fc1.weight_fake_quant.activation_post_process.max_val f4 [84]
0.10166228 0.08640508 0.42392683 0.5463358 0.55039394 0.5485045 0.5008664 0.3958125
0.45795074 0.38302642 0.43221742 0.457191 0.45707518 0.49042434 0.35669166 0.5076921
0.32111722 0.5042238 0.60075676 0.44455266 0.08331093 0.20488483 0.10744092 0.07899764
0.080360875 0.5492494 0.43805367 0.49799544 0.53134227 0.5028242 0.33778584 0.5474576
0.500682 0.23862237 0.5030271 0.31881857 0.48069173 0.5844375 0.5943443 0.6481929
0.4180777 0.09959069 0.7047814 0.088713154 0.34023184 0.5019665 0.38291526 0.42598426
0.45293432 0.43939513 0.3765214 0.10988441 0.50058365 0.48695463 0.36343804 0.5272778
0.36198425 0.57222617 0.45421064 0.550876 0.48887187 0.50598514 0.51755726 0.45977014
0.07511538 0.076644346 0.49377736 0.5232663 0.28271496 0.44753993 0.46265072 0.43365774
0.5396272 0.46512407 0.5652579 0.476309 0.371395 0.56223357 0.6015122 0.5134363
0.45507008 0.42270905 0.07585411 0.07882255
00000000: 5034 d03d 26f5 b03d f00c d93e aadc 0b3f
00000010: 9ee6 0c3f ca6a 0c3f c838 003f f0a7 ca3e
00000020: 8578 ea3e 0a1c c43e 9a4b dd3e f014 ea3e
00000030: c205 ea3e e618 fb3e 4aa0 b63e 1cf8 013f
00000040: 7a69 a43e d014 013f 32cb 193f 689c e33e
00000050: ec9e aa3d 54cd 513e fc09 dc3d 84c9 a13d
00000060: 3e94 a43d 9c9b 0c3f 9248 e03e 42f9 fe3e
00000070: 0c06 083f 16b9 003f 44f2 ac3e 2e26 0c3f
00000080: b22c 003f 6c59 743e 62c6 003f 303c a33e
00000090: 3a1d f63e b29d 153f f326 183f f8ef 253f
000000a0: 480e d63e 34f6 cb3d 8e6c 343f 3eaf b53d
000000b0: de32 ae3e e080 003f 780d c43e 9c1a da3e
000000c0: 02e7 e73e 66f8 e03e 6ac7 c03e 140b e13d
000000d0: 4026 003f 1e52 f93e 8d14 ba3e aefb 063f
000000e0: 0056 b93e 6a7d 123f 4c8e e83e 3606 0d3f
000000f0: 6a4d fa3e 3e88 013f a27e 043f fe66 eb3e
00000100: 18d6 993d b6f7 9c3d 63d0 fc3e c8f4 053f
00000110: 04c0 903e f423 e53e 8ee0 ec3e 6308 de3e
00000120: 0225 0a3f be24 ee3e beb4 103f c6de f33e
00000130: 7c27 be3e 8aee 0f3f b4fc 193f 9070 033f
00000140: f2fe e83e 526d d83e 6659 9b3d b86d a13d

fc2.weight f4 [1, 84]
0.012385993 0.00665638 0.39838636 -0.096550256 0.12857746 -0.33337077 -0.14598577 -0.24441122
0.10438737 -0.1314276 -0.10353204 -0.0868091 0.16734955 -0.21371382 -0.13148965 0.08519004
-0.11548455 -0.23220485 -0.23778176 0.058264796 0.083573565 0.002892513 -0.017342482 0.06306761
-0.025224766 -0.19263919 0.08694711 0.20905426 -0.15176739 0.13981423 -0.34636176 0.12479844
-0.1847868 -0.025556704 0.24326763 -0.12055158 -0.1491526 -0.08074475 0.21015042 0.47888714
-0.14937824 0.015779888 -0.10367092 0.017998021 -0.106943555 -0.23843646 -0.09194749 0.16803035
-0.5328756 -0.23019737 -0.11669592 -0.015237512 0.20928557 -0.21704268 -0.14076252 0.13188118
0.51798904 0.1698114 -0.08812224 0.26913598 0.12718783 0.19049658 -0.16651434 0.06749211
0.029123096 0.022498272 0.18265632 -0.12012585 -0.09015347 0.067920774 0.07761463 0.10124082
0.22126195 0.11235681 0.11539476 0.11227973 -0.17178157 0.13941316 0.15075788 -0.26710665
-0.4315582 0.047288805 0.04503671 -0.057554755
00000000: 9fee 4a3c c31d da3b 4cf9 cb3e 24bc c5bd
00000010: cfa9 033e 93af aabe 4b7d 15be ef46 7abe
00000020: 0cc9 d53d f594 06be 9b08 d4bd f8c8 b1bd
00000030: ae5d 2b3e ccd7 5abe 39a5 06be 1e78 ae3d
00000040: 2a83 ecbd 1cc7 6dbe 107d 73be 11a7 6e3d
00000050: 9e28 ab3d 5190 3d3b d211 8ebc 9729 813d
00000060: 2ba4 cebc 3543 45be 5411 b23d 5212 563e
00000070: e968 1bbe 762b 0f3e 5456 b1be 5396 ff3d
00000080: c038 3dbe 4b5c d1bc 261b 793e bfe3 f6bd
00000090: 76bb 18be 815d a5bd ac31 573e b230 f53e
000000a0: 9cf6 18be d344 813c 6b51 d4bd 9670 933c
000000b0: 3905 dbbd b028 74be f74e bcbd 2610 2c3e
000000c0: 896a 08bf dcb8 6bbe 45fe eebd c2a6 79bc
000000d0: f54e 563e 7040 5ebe 0d24 10be dc0b 073e
000000e0: ee9a 043f 0ae3 2d3e 6f79 b4bd 31cc 893e
000000f0: 873d 023e 8911 433e bc82 2abe 4e39 8a3d
00000100: 8f93 ee3c 4c4e b83c 420a 3b3e 8b04 f6bd
00000110: 62a2 b8bd 0c1a 8b3d 6bf4 9e3d 5957 cf3d
00000120: 7e92 623e 541b e63d 1754 ec3d eaf2 e53d
00000130: 82e7 2fbe 53c2 0e3e 4660 1a3e 34c2 88be
00000140: 32f5 dcbe e8b1 413d 6a78 383d 89be 6bbd
