experiments/exp004/checkpoint.pth (torch, 764066 bytes, 27 tensors)

conv1.weight f4 [6, 2, 5, 5]
0	0x3daa9ec4	0.083310634
1	0xbdcd6672	-0.100293055
2	0x3bf86e63	0.0075815185
3	0x3d308ac6	0.043101095
4	0xba4ca7b4	-0.0007806972
5	0x3d6e796d	0.05822127
6	0x3c378603	0.0112013845
7	0xbdecc1b5	-0.11560384
8	0xbd9adf03	-0.07562067
9	0x3dcb888d	0.09938154
10	0x3e1d54f2	0.15364435
11	0x3d829da3	0.06377723
12	0xbe062c9d	-0.13102956
13	0x3dcdf1bc	0.10055873
14	0xbda17790	-0.07884133
15	0x3d928aa3	0.07155349
16	0xbb8fa153	-0.004383245
17	0x3d392512	0.04520137
18	0xbdbf0bb9	-0.09328408
19	0xbbc58d0e	-0.006028778
20	0xbe191700	-0.1495018
21	0xbcabf350	-0.020990044
22	0x3e1d3ba8	0.15354788
23	0x3ddf546d	0.10904775
24	0xbe3948b2	-0.18094137
25	0x3d91fde9	0.07128508
26	0x3e093ef8	0.13402927
27	0xbc15de8d	-0.0091472985
28	0xbd64579a	-0.055747606
29	0xbd2bf205	-0.041978855
30	0xbe224efe	-0.15850446
31	0x3d428e6b	0.0474991
32	0x3dc5ea9b	0.09663888
33	0xbdab27cf	-0.08357202
34	0xbcf6bc9b	-0.030119231
35	0xbe3fadd1	-0.1871865
36	0x3bc3d92d	0.005976817
37	0x3e02d626	0.12777004
38	0x3d996847	0.074905924
39	0x3e2737a8	0.16329825
40	0x3c2ccd29	0.010546961
41	0xbd80b243	-0.06284001
42	0xbe031308	-0.12800229
43	0xbd90ea91	-0.0707599
44	0xbdb33c42	-0.08751728
45	0x3d9212c0	0.071324825
46	0x3db06895	0.086136974
47	0xbdb5cf5c	-0.08877441
48	0x3ddabcda	0.10680552
49	0x3d2a0e49	0.04151753
50	0xbbcaa4da	-0.0061842026
51	0x3dc8b9f2	0.09801091
52	0xbe1323da	-0.14369145
53	0x3dda7f9c	0.10668871
54	0x3db6aa02	0.08919145
55	0xbc256cc9	-0.010096737
56	0x3e214016	0.15747103
57	0xbc865620	-0.01639849
58	0xbde20b98	-0.110373676
59	0x3bacc959	0.005273026
60	0xbe5423aa	-0.2071673
61	0xbd1d982e	-0.038475208
62	0xbd188c95	-0.037243444
63	0x3c75744b	0.01498134
64	0xbdc9f702	-0.09861566
65	0x3da191a3	0.07889106
66	0x3d3b4330	0.045718372
67	0xbe1c3b35	-0.1525696
68	0x3ddd885b	0.10817023
69	0x3c85e49f	0.016344367
70	0x3d9d271b	0.076734744
71	0xbd843f78	-0.06457418
72	0x3d9a088a	0.0752116
73	0x3ded699a	0.115924075
74	0x3d56586b	0.052330416
75	0x3daa5894	0.08317676
76	0xbcc38da4	-0.02387125
77	0xbda319cf	-0.07963907
78	0x3c9d8683	0.01922918
79	0x3e096ade	0.13419673
80	0x3dfa713b	0.12228628
81	0x3e10cb2e	0.14140007
82	0xbe02539a	-0.12727204
83	0xbdb542a0	-0.08850598
84	0x3d7f9505	0.062397975
85	0xbc18f769	-0.009336331
86	0xbda7fc21	-0.08202387
87	0xbd93e724	-0.07221821
88	0xbe0c074e	-0.13674662
89	0xbd98e7ef	-0.07466113
90	0x3d30ddb2	0.043180175
91	0xbdb9cc15	-0.09072129
92	0x3d90ab7c	0.07063958
93	0x3de3bafb	0.11119648
94	0xbd9474a2	-0.072488084
95	0xbe4575a6	-0.1928316
96	0x3dbeafcc	0.09310874
97	0x3d80ac66	0.062828824
98	0xbd58cd90	-0.052930415
99	0x3e0ba8a5	0.13638552
100	0x3e3857c0	0.18002224
101	0x3dc1c056	0.09460513
102	0x3e2227ad	0.15835448
103	0xbcd09329	-0.025460796
104	0x3e2bc49f	0.16774224
105	0xb9da8af9	-0.00041683743
106	0x3d611ff0	0.0549621
107	0x3d1a521a	0.037675954
108	0x3da354a3	0.079751275
109	0x3d0fb81b	0.035087686
110	0xbb97f504	-0.0046373624
111	0x3d4a4016	0.049377523
112	0x3cd84817	0.026401563
113	0x3cd4b880	0.025966883
114	0x3e1184c1	0.14210798
115	0xbda2383b	-0.07920881
116	0xbe085a03	-0.13315587
117	0x3db7b5f2	0.0897025
118	0xbd7db6ad	-0.06194179
119	0x3d34979b	0.044089895
120	0xbe039d1a	-0.12852898
121	0x3da05ced	0.07830224
122	0xbcdd939f	-0.02704793
123	0x3c936f63	0.01799745
124	0x3d6ae453	0.057346653
125	0x3dd23846	0.102646396
126	0xb8f0b4e0	-0.000114777824
127	0x3d5ebf85	0.054381866
128	0xbd9e3208	-0.077243865
129	0xbd792474	-0.06082578
130	0x3dd53ed6	0.10412376
131	0x3da7a4e0	0.08185744
132	0x3da6c34d	0.081427194
133	0xbd271948	-0.040795594
134	0x3db81298	0.089879215
135	0xbc9f4157	-0.019440336
136	0x3bf13d2a	0.0073620277
137	0x3d6ecf1c	0.058302984
138	0x3db958e5	0.090501584
139	0xbdaf5875	-0.08561794
140	0xbe13704b	-0.14398305
141	0xbd3cc33e	-0.046084635
142	0xbd1ea588	-0.03873208
143	0x3d06ce03	0.03291131
144	0x3da9750b	0.08274277
145	0xbdf2aa6a	-0.1184891
146	0xbd9a8b99	-0.075461574
147	0xbe3f02dd	-0.18653436
148	0xbd7a56ef	-0.061118063
149	0xbdba0d2d	-0.09084544
150	0xbdba2343	-0.09088757
151	0xbdadf88a	-0.08494671
152	0xbdc55da7	-0.096370034
153	0x3d704373	0.058658075
154	0xbd8bbb56	-0.06822841
155	0x3dc23f78	0.09484762
156	0x3dc36cff	0.09542274
157	0x3e230191	0.15918566
158	0x3d84a045	0.064758815
159	0x3e4939d9	0.19650973
160	0xbe0b9380	-0.13630486
161	0xbcb56c34	-0.022146322
162	0x3c527c0b	0.012846957
163	0x3cfb09e3	0.030644363
164	0xbd737653	-0.059439015
165	0x3b4e790a	0.003150525
166	0xbdd0f1e0	-0.10202384
167	0x3d7da3bf	0.06192374
168	0x3dee14fb	0.116250955
169	0xbc1475e0	-0.009061307
170	0xbd069bde	-0.03286349
171	0xbddeaebd	-0.108731724
172	0xbdedcebe	-0.116116986
173	0xbdf99c16	-0.12187974
174	0xbe161c42	-0.14659217
175	0xbdb4661a	-0.08808537
176	0xbd8af6d7	-0.06785362
177	0xbb866b2f	-0.0041021327
178	0xbe5021bf	-0.20325373
179	0x3d34b045	0.044113416
180	0x3db4ee4d	0.08834515
181	0x3d2735f4	0.040822938
182	0x3de0ca80	0.10976124
183	0x3d7f8aa9	0.062388096
184	0x3d542c09	0.051799808
185	0xbb98e5bd	-0.004666059
186	0x3e324d52	0.17412308
187	0x3d7cf44e	0.061756425
188	0x3e232c6d	0.15934916
189	0x3c25a0ef	0.01010917
190	0x3d4cb2f7	0.04997536
191	0x3e04cffb	0.12969963
192	0x3e345147	0.1760913
193	0x3e460b8b	0.19340341
194	0x3e45b3e0	0.19306898
195	0x3c974662	0.018466178
196	0xbd5d782d	-0.054069687
197	0xbdb9e91f	-0.090776674
198	0xbb8b9aca	-0.0042603957
199	0x3d075769	0.033042345
200	0xbc87601a	-0.016525317
201	0xbd972574	-0.073801905
202	0xbd531eac	-0.051542923
203	0x3b25275c	0.0025200462
204	0x3e0503f3	0.12989788
205	0x3d299fa8	0.041412026
206	0x3d59dac8	0.05318716
207	0x3dd0a869	0.10188372
208	0xbdce0078	-0.10058683
209	0x3e1ce9d1	0.15323569
210	0x3d69968f	0.05702835
211	0xbd3d42b3	-0.046206187
212	0x3d6aeba3	0.057353627
213	0x3ddb0530	0.10694349
214	0x3e0c521d	0.13703199
215	0x3e0935bb	0.13399403
216	0x3ccf6580	0.025316954
217	0xbcf37325	-0.029717991
218	0xbe07d613	-0.13265257
219	0xbdd9fabb	-0.10643526
220	0xbc987af9	-0.018613325
221	0xbd16ea69	-0.036844645
222	0xbdad31b3	-0.08456745
223	0xbdd1fbed	-0.10253129
224	0xbd284f2f	-0.04109114
225	0xbca2065e	-0.019778427
226	0xbd47bbab	-0.04876296
227	0x3a189bb4	0.00058215414
228	0xbd47b771	-0.048758928
229	0xbd89a198	-0.06720275
230	0xbe514e8c	-0.2044012
231	0x3dcd1f98	0.10015792
232	0x3d514dff	0.051099773
233	0xbddc6949	-0.10762269
234	0x3e0f63fb	0.14002983
235	0x3d808b5a	0.06276579
236	0x3d9831a6	0.07431345
237	0xbda378ad	-0.079820015
238	0x3ddc6214	0.107608944
239	0x3dd8f051	0.10592712
240	0xbe53f0e7	-0.20697366
241	0xbd8ef40f	-0.06980144
242	0x3dc8ac14	0.09798446
243	0x3e28cc5f	0.16484211
244	0x3d1de707	0.038550403
245	0xbdc08d91	-0.09402002
246	0x3d764d6d	0.060132433
247	0xbabefcf4	-0.0014571236
248	0x3d8a9aaf	0.06767785
249	0xbd712a8b	-0.058878463
250	0xbca9eb1f	-0.020741997
251	0xbc9ba9d5	-0.01900188
252	0x3de02f30	0.109465
253	0xbc840b6c	-0.016118728
254	0xbc28c39f	-0.010300546
255	0xbe5531fb	-0.20819847

conv1.weight_fake_quant.scale f4 [6]
0	0x3abcfd5c	0.0014418769
1	0x3ad0621d	0.0015898381
2	0x3aba8cdc	0.0014232653
3	0x3acce89a	0.0015633286
4	0x3ad24ee5	0.0016045241
5	0x3ad2ebfd	0.0016092059

conv1.weight_fake_quant.activation_post_process.min_val f4 [6]
0	0xbe3cfd5c	-0.18456024
1	0xbe50621d	-0.20349927
2	0xbe3a8cdc	-0.18217796
3	0xbe4ce89a	-0.20010605
4	0xbe524ee5	-0.20537908
5	0xbe52ebfd	-0.20597835

conv1.weight_fake_quant.activation_post_process.max_val f4 [6]
0	0x3e2996df	0.16561459
1	0x3e208fb8	0.15679824
2	0x3e34e9dd	0.17667337
3	0x3e470414	0.1943515
4	0x3e27de74	0.16393453
5	0x3e1e9ea2	0.15490201

conv2.weight f4 [16, 6, 5, 5]
0	0x3e198aec	0.149944
1	0x3dcc9554	0.099894196
2	0x3c788b1d	0.015169886
3	0x3d7a4138	0.061097354
4	0x3df0e896	0.11763112
5	0x3e1e34af	0.15449785
6	0x3db565a4	0.08857277
7	0xbd56694a	-0.052346505
8	0xbd61dbd8	-0.0551413
9	0x3d9996e2	0.07499482
10	0x3d9c5c7e	0.07634829
11	0x3e107eec	0.14110917
12	0xbd709214	-0.05873306
13	0xbdb4f073	-0.088349245
14	0x3ce5b8a4	0.028042145
15	0x3e16b9e8	0.14719355
16	0xbd76a943	-0.060220014
17	0x3c75db22	0.015005859
18	0x3c331c1f	0.010931998
19	0xbddd8554	-0.10816446
20	0x3e1883cf	0.14894031
21	0xbd8413a6	-0.0644906
22	0x3b677669	0.003531838
23	0xbd3188b4	-0.04334326
24	0xbd3049fb	-0.043039303
25	0x3deb5077	0.11489957
26	0x3d5ab935	0.053399283
27	0xbd2d3b14	-0.04229267
28	0xbcdd23ab	-0.026994547
29	0x3d72093f	0.05909085
30	0x3b195d35	0.0023401503
31	0xbcdadeee	-0.02671763
32	0xbd9930c2	-0.07480003
33	0xbd3bae0e	-0.04582029
34	0xbd6e5fe5	-0.05819692
35	0x3c5b3347	0.013378925
36	0xbde7993e	-0.113085255
37	0xbd8e9599	-0.06962127
38	0xbd0cf5f9	-0.034414265
39	0xbd42581b	-0.047447305
40	0x3df0cf74	0.117583185
41	0x3d6f7df2	0.05846972
42	0x3d3780c2	0.044800527
43	0xbd9288ff	-0.07155036
44	0xbdce1297	-0.100621395
45	0xbc025ae1	-0.0079562375
46	0x3e1aab2b	0.15104358
47	0x3dc765f5	0.09736244
48	0x3dce6bb0	0.100791335
49	0x3cb22a75	0.02174876
50	0xbcc71bf9	-0.02430533
51	0xbd636fef	-0.05552667
52	0x3cbe9932	0.023266409
53	0x3d959e26	0.07305555
54	0x3da429ac	0.08015761
55	0xbc4001f8	-0.011719219
56	0xbcd6c37b	-0.02621626
57	0xbd6ba447	-0.057529714
58	0xbcb874d6	-0.02251665
59	0xbd533544	-0.05156447
60	0x3bf6d42a	0.007532616
61	0xbb9c9f35	-0.004779721
62	0x3d212258	0.039339393
63	0x3ad01df1	0.0015878064
64	0xbda9d00b	-0.08291634
65	0xbbbf7ed6	-0.0058439774
66	0xbd251bf7	-0.040309872
67	0x3becca03	0.00722623
68	0xbd9834f6	-0.074319765
69	0xbde638d5	-0.112413086
70	0xbd04ff84	-0.03247024
71	0x3d7791bd	0.06044172
72	0xbd535295	-0.05159243
73	0xbdc1d7e8	-0.09465009
74	0xbde36c63	-0.111046575
75	0x3ddd0a78	0.107930124
76	0xbd5f86aa	-0.054571785
77	0xbd6613b9	-0.056171153
78	0xbdb7f56c	-0.089823574
79	0xbd887b4f	-0.06664144
80	0x3cc6f3ca	0.02428617
81	0xbde892c6	-0.1135612
82	0xbdd5a4f4	-0.10431853
83	0xbdb866b4	-0.09003964
84	0xbc2f2cc3	-0.010691824
85	0xbd43626b	-0.04770128
86	0xbcfbe3e4	-0.030748315
87	0x3c9d327f	0.019189117
88	0xbd477a1d	-0.04870044
89	0xbd8170f2	-0.06320371
90	0x3d27c1fe	0.04095649
91	0xbdadff55	-0.08495966
92	0xbd4f44c6	-0.050602697
93	0xbd88152b	-0.066446625
94	0x3cdb3ff7	0.0267639
95	0xbd5d2385	-0.053988952
96	0x3c981801	0.018566133
97	0xbe199630	-0.14998698
98	0xbd8ed079	-0.06973357
99	0x3bd8be17	0.0066144574
100	0x3e1dfa68	0.15427554
101	0x3c619cc6	0.013770288
102	0xbd655a62	-0.0559944
103	0x3d8408da	0.06447001
104	0xbcbf80d4	-0.02337686
105	0x3c805fa8	0.015670612
106	0x3d3aa1e3	0.045564543
107	0xbd41c5ac	-0.047307655
108	0xbca1cde0	-0.01975149
109	0xbda86521	-0.08222414
110	0xbda9d849	-0.08293206
111	0x3d32b0b1	0.043625537
112	0x3cc50d8b	0.02405431
113	0xbbefba3b	-0.0073159016
114	0xbddb3047	-0.107025675
115	0x3dca64a3	0.09882476
116	0x3d35e68e	0.044409327
117	0xbc558c08	-0.013033874
118	0xbd4c29c8	-0.049844533
119	0xbd86e392	-0.06586374
120	0x3e1e3c75	0.1545275
121	0x3d96118b	0.07327565
122	0xbcb55e41	-0.02213967
123	0xbe1784f3	-0.1479681
124	0xbda060ae	-0.0783094
125	0x3e04c371	0.1296518
126	0xbcf5bb64	-0.029996581
127	0x3d1c8a2a	0.0382177
128	0x3dbadddd	0.09124348
129	0xbd51a994	-0.051187113
130	0x3ddd4d31	0.10805739
131	0xbcfdfe95	-0.031005183
132	0x3d9e16b2	0.077191725
133	0x3d8c72f4	0.06857863
134	0xbd86acfd	-0.06575964
135	0xbd6424d1	-0.055699173
136	0x3de5b76a	0.11216624
137	0x3c8a2723	0.016864365
138	0xbced3855	-0.028957525
139	0xbd9f0850	-0.07765257
140	0x3e07ed7f	0.13274191
141	0x3da41f0f	0.080137365
142	0xbca98792	-0.020694528
143	0xbdd30c67	-0.103051
144	0xbcec8a94	-0.028874673
145	0x3d541ce7	0.051785376
146	0x3e179a29	0.14804901
147	0x3c5f1515	0.013615866
148	0x3dd8ee0e	0.1059228
149	0xb973efb4	-0.00023263582
150	0xbd910cc3	-0.07082512
151	0xbd693206	-0.05693247
152	0x3df5b881	0.11998082
153	0xbdec5bb2	-0.11540927
154	0xbdfa54da	-0.122232154
155	0xbe08f459	-0.13374461
156	0xbc8a49c3	-0.016880875
157	0xbde2d5de	-0.11075948
158	0xbc9b4077	-0.018951638
159	0xbce277f3	-0.027645087
160	0xbdf0e18e	-0.11761771
161	0xbe03f247	-0.1288539
162	0xbdd62a6f	-0.10457312
163	0xbd06fe76	-0.032957517
164	0xbd19d3f1	-0.03755564
165	0xbd0b63b6	-0.03403064
166	0xbdd9a6f8	-0.1062755
167	0x3cb278c3	0.0217861
168	0xbda776b5	-0.081769384
169	0xbda852b2	-0.08218898
170	0x3d600d7f	0.05470037
171	0xbd44b39f	-0.048022863
172	0x3d30fa8e	0.043207698
173	0xbc246dd6	-0.010035953
174	0xbd58f9da	-0.052972652
175	0xbd68683a	-0.056740023
176	0xbde38b24	-0.11110523
177	0xbbd3be8c	-0.006461924
178	0xbc996436	-0.018724542
179	0xbd763949	-0.060113225
180	0xbd86a8ee	-0.065751895
181	0x3b4ab2d5	0.0030929346
182	0xbdfe65b0	-0.12421739
183	0xbc852190	-0.016251355
184	0xbd0d7785	-0.03453781
185	0x3d21cf5a	0.039504386
186	0xbd1493af	-0.036273655
187	0x3c7da89a	0.015482092
188	0xb9d2272f	-0.00040083515
189	0x3be26eda	0.006910187
190	0x3d77e2e0	0.0605191
191	0xbd1388db	-0.036019187
192	0xbd24997f	-0.040185448
193	0x3d1a5816	0.03768166
194	0x3c9339eb	0.017971953
195	0x3c2613d4	0.010136563
196	0x3e0d9bfc	0.13829035
197	0x3d0b9997	0.03408202
198	0x3d83b95d	0.064318396
199	0x3d72190a	0.05910591
200	0x3e214577	0.15749155
201	0x3d9f0127	0.07763892
202	0x3d64f695	0.05589922
203	0x3da6593c	0.08122489
204	0x3cc9037b	0.024537792
205	0x3dc1a0e4	0.094545156
206	0x3c8fb98d	0.017544532
207	0xbcb3daaa	-0.021954853
208	0x3cab5497	0.020914359
209	0x3d313fbf	0.043273684
210	0xbbf7beef	-0.007560603
211	0xbd160258	-0.03662333
212	0x3d5e4f1e	0.05427467
213	0xbd564f82	-0.05232192
214	0xbc436329	-0.011925497
215	0xba3eb61a	-0.000727506
216	0x3d61958f	0.05507427
217	0xbb9bfe75	-0.0047605583
218	0xbc758e58	-0.014987551
219	0x3da52662	0.080639616
220	0x3d525a2c	0.051355526
221	0x3e01788f	0.12643646
222	0x3d35f75f	0.044425365
223	0xbc79f519	-0.01525619
224	0x3d962cde	0.073327765
225	0x3e20a19f	0.15686654
226	0x3deb66d1	0.1149422
227	0xbcb4d391	-0.022073539
228	0x3d79deeb	0.061003607
229	0x3d3e23da	0.04642091
230	0x3e022b7a	0.12711897
231	0x3be6dd87	0.007045451
232	0x3db43ea6	0.08801012
233	0x3d1cbed8	0.03826794
234	0x3d85e483	0.06537726
235	0x3d1b209e	0.037872903
236	0x3cc04831	0.023471924
237	0x3db02e87	0.086026244
238	0x3da21132	0.07913436
239	0xbd1b18d0	-0.03786546
240	0x3e0334f9	0.12813176
241	0x3ceb5f36	0.028731924
242	0xbd859bbe	-0.06523846
243	0xbcb09c6b	-0.02155896
244	0x3d7aac79	0.06119964
245	0xbc7eb528	-0.015546121
246	0xbd29a655	-0.041418392
247	0x3d2d053f	0.04224133
248	0x3cf81c52	0.030286942
249	0xbd62e4d7	-0.05539402
250	0xbd2664a3	-0.04062332
251	0x3cfd747f	0.030939339
252	0x3c85f359	0.016351389
253	0x3c3961e2	0.011314841
254	0x3d50057f	0.05078649
255	0xbc526038	-0.012840323

conv2.weight_fake_quant.scale f4 [16]
0	0x3a9cea0a	0.0011971605
1	0x3aa126a0	0.0012294836
2	0x3a98c1f5	0.0011654483
3	0x3aa7606d	0.0012769826
4	0x3aa8298c	0.0012829765
5	0x3aaa7d3b	0.0013007292
6	0x3aa10da2	0.0012287388
7	0x3ab0a66e	0.0013477334
8	0x3aa3d3ee	0.0012499073
9	0x3aa73581	0.0012757034
10	0x3ab230ed	0.0013594903
11	0x3aa4ecc5	0.001258277
12	0x3aa4afd0	0.0012564603
13	0x3aa60d96	0.0012668844
14	0x3aa23fb6	0.0012378606
15	0x3aa999a6	0.0012939468

conv2.weight_fake_quant.activation_post_process.min_val f4 [16]
0	0xbe181edc	-0.14855522
1	0xbe05ac5c	-0.13054031
2	0xbe17af05	-0.14812858
3	0xbe27606d	-0.16345377
4	0xbe28298c	-0.16422099
5	0xbe2a7d3b	-0.16649334
6	0xbe2059ce	-0.15659258
7	0xbe2a071f	-0.16604279
8	0xbe0524bc	-0.13002294
9	0xbe1d0e70	-0.15337539
10	0xbe0ad93e	-0.13559434
11	0xbe24ecc5	-0.16105945
12	0xbe1d5375	-0.15363868
13	0xbe214714	-0.1574977
14	0xbe223fb6	-0.15844616
15	0xbe2999a6	-0.16562518

conv2.weight_fake_quant.activation_post_process.max_val f4 [16]
0	0x3e1bb036	0.15203938
1	0x3e1fe453	0.15614443
2	0x3e179071	0.14801194
3	0x3e257c27	0.16160642
4	0x3e26397b	0.16232865
5	0x3e27a5d0	0.16371846
6	0x3e1fcb87	0.15604983
7	0x3e2f4521	0.17116214
8	0x3e228c46	0.15873823
9	0x3e25e716	0.16201434
10	0x3e30cc8b	0.17265527
11	0x3e238adf	0.15970944
12	0x3e236670	0.15957046
13	0x3e24c17b	0.16089432
14	0x3e1cedda	0.15325108
15	0x3e23c83b	0.1599435

conv3.weight f4 [120, 16, 5, 5]
0	0x3df1ae53	0.11800828
1	0x3ddaecaa	0.10689671
2	0x3df08daa	0.1174577
3	0xbdb32417	-0.08747118
4	0xbe0088a2	-0.12552121
5	0x3d232974	0.039834455
6	0x3e00f083	0.12591748
7	0xbd053b46	-0.03252723
8	0xbd9e2677	-0.0772218
9	0xbe05b90c	-0.13058871
10	0x3aaaaf69	0.0013022247
11	0x3ca021ea	0.019547421
12	0xbc20bcd8	-0.009810649
13	0xbd7f5a28	-0.06234184
14	0xbdf64605	-0.12025074
15	0x3d45b3d7	0.04826721
16	0x3bf4d8de	0.0074721416
17	0xbc7aaabc	-0.015299495
18	0xbd8fafb8	-0.070159376
19	0xbda95108	-0.082674086
20	0x3b9de804	0.004818918
21	0xbbf7c9c4	-0.007561894
22	0xbd7fc786	-0.06244614
23	0xbd201ecf	-0.03909188
24	0xbd73ce0f	-0.059522685
25	0x3ded747e	0.11594485
26	0x3d90fe32	0.07079734
27	0x3c534d78	0.012896888
28	0xbd1902c7	-0.037356164
29	0xbdeb9067	-0.11502152
30	0x3dddf5d1	0.108379014
31	0x3d53c791	0.051703993
32	0x3bcad368	0.0061897524
33	0xbdce0e22	-0.10061289
34	0xbdba41e9	-0.090946026
35	0x3d9dd9d1	0.07707561
36	0xbad35621	-0.0016123691
37	0xbd0735da	-0.03301034
38	0xbd875283	-0.06607535
39	0xbd90c132	-0.07068099
40	0xbda819f0	-0.08208072
41	0xbd83a18f	-0.06427299
42	0xbcd02787	-0.025409473
43	0xbc939f82	-0.018020395
44	0xbd84987e	-0.06474398
45	0x3d3b5d00	0.04574299
46	0xbd943efb	-0.07238575
47	0xbda34885	-0.079728164
48	0x3c9df1af	0.019280283
49	0xbd173169	-0.036912356
50	0x3dec5357	0.11539333
51	0x3dfafab9	0.12254853
52	0x3d0cc14c	0.03436403
53	0xbd826142	-0.06366207
54	0xbd5b5979	-0.053552125
55	0x3c19187d	0.009344217
56	0x3c84f340	0.016229272
57	0xbd1eee3f	-0.038801428
58	0xbdcc3bff	-0.09972381
59	0xbd977b44	-0.07396558
60	0x3db2dc2c	0.08733401
61	0x3d296c84	0.041363254
62	0xbbaa1712	-0.0051907385
63	0xbdf7dd65	-0.121027745
64	0xbddaee65	-0.106900014
65	0x3c64ea22	0.013971837
66	0xbd81df4e	-0.0634142
67	0xbd6e1bb6	-0.058131896
68	0xbd6a69ac	-0.057229683
69	0xbd547338	-0.051867694
70	0xbc628eb8	-0.013827972
71	0x3bebd6ec	0.0071972515
72	0xbd053cfb	-0.03252886
73	0xbdb43563	-0.08799245
74	0xbc961c4f	-0.018324045
75	0x3d9fb8a0	0.07798886
76	0x3d924066	0.07141189
77	0x3d206e08	0.039167434
78	0xbd3317dd	-0.04372393
79	0xbd4ed67b	-0.050497513
80	0x3ccb0d74	0.024786688
81	0x3dc3250a	0.09528549
82	0x3d3ad7fd	0.04561614
83	0x3bfb10ec	0.0076619294
84	0x3c6e7f5a	0.01455673
85	0x3d031a69	0.03200761
86	0x3cf409f1	0.029789897
87	0x3c878894	0.016544618
88	0x3c1ec921	0.009691508
89	0xbd758010	-0.059936583
90	0xbd486055	-0.048919994
91	0xbdb6842b	-0.08911928
92	0xbdff3346	-0.124609515
93	0xbce3be8d	-0.027800823
94	0xbd7eacdf	-0.06217658
95	0xbd314ebb	-0.043287974
96	0xbdb07482	-0.08615972
97	0xbdf55a08	-0.11980063
98	0xbd1785f5	-0.036992986
99	0x3c972400	0.018449783
100	0x3d441c34	0.04787846
101	0xbd68aff2	-0.05680842
102	0xbd564205	-0.052309055
103	0xbd025098	-0.03181514
104	0xbde28ce8	-0.11062032
105	0x3c1fe565	0.009759282
106	0x3c5731d0	0.013134435
107	0xbcd3e5b6	-0.02586637
108	0xbcb1d85e	-0.021709617
109	0x3c099b6e	0.008398874
110	0x3c3a4168	0.011368133
111	0xbccc9c03	-0.024976736
112	0xbd151f93	-0.036407065
113	0xbd2711e7	-0.040788557
114	0xbcebc23a	-0.028779138
115	0xbcbb188a	-0.02283885
116	0xbd6ab7f8	-0.057304353
117	0xbdc32fed	-0.095306255
118	0x3c491cfa	0.012274975
119	0x3c4a4de1	0.012347669
120	0xbcacef3d	-0.021110171
121	0xbdafdf03	-0.08587458
122	0xbd6de524	-0.058079854
123	0xbdb5d358	-0.08878201
124	0x3d293f98	0.041320413
125	0xbae7f7fb	-0.0017697805
126	0x3cc322ef	0.023820369
127	0xbd9bbc11	-0.0760423
128	0xbdba874a	-0.091078356
129	0xbdaf8894	-0.08570972
130	0x3c004bd6	0.007830581
131	0x3bc92ba1	0.006139234
132	0xbdb59418	-0.08866137
133	0xbdb1e375	-0.08685962
134	0xbca427a6	-0.020038437
135	0x3c947a29	0.018124657
136	0xbc0e2cf4	-0.00867771
137	0xbd96503e	-0.07339524
138	0x3c11a558	0.008889519
139	0xbd643d04	-0.05572225
140	0xbd4bf182	-0.049790867
141	0xbd31e6d1	-0.043433014
142	0xbdc61d62	-0.09673573
143	0x3c53a2a4	0.0129171945
144	0x3cb77c67	0.022398187
145	0xbd90bc20	-0.07067132
146	0xbdd94c7c	-0.10610291
147	0xbc8909ec	-0.016728364
148	0x3d082aa2	0.033243783
149	0x3d0d5d4d	0.034512807
150	0x3c07b698	0.00828328
151	0x3b974d5b	0.004617376
152	0xbd88a122	-0.06671359
153	0xbda9b2f1	-0.082860835
154	0xbdf69e6f	-0.120419376
155	0x3d5ccf88	0.053908855
156	0xbcf9c786	-0.030490648
157	0xbd175c85	-0.036953468
158	0xbdf3931a	-0.11893292
159	0xbdf1d79a	-0.11808701
160	0xbbe282de	-0.0069125732
161	0xbd04c6d0	-0.032416165
162	0xbd9bcad7	-0.07607048
163	0xbd16d337	-0.036822524
164	0xbdab2c0a	-0.08358009
165	0x3d3253c6	0.043536924
166	0xbd4a513d	-0.04939388
167	0x3b9a51b5	0.0047094473
168	0xbda00bad	-0.07814727
169	0xbde1f241	-0.110325344
170	0xbd55b3db	-0.052173477
171	0xbda92f6b	-0.082609974
172	0xbd5a2898	-0.05326137
173	0xbc53c9b8	-0.0129265115
174	0x3d7bb0a3	0.06144775
175	0x3d792a27	0.060831215
176	0x3de05302	0.109533325
177	0x3d8f4ced	0.06997094
178	0xbd70b6df	-0.05876815
179	0xbdee82a2	-0.1164601
180	0x3bc8e258	0.006130498
181	0x3da521cf	0.08063089
182	0x3ba2cb72	0.0049681
183	0xbd9ef1c1	-0.07760955
184	0xbdbb6f8b	-0.091521345
185	0x3d15d791	0.036582533
186	0x3c53252e	0.012887282
187	0x3bbca30e	0.0057567423
188	0xbd6e631e	-0.058199994
189	0xbd4b5fbf	-0.049651857
190	0xbb9a24b3	-0.004704082
191	0x3d64525b	0.055742603
192	0xbcbdc138	-0.023163423
193	0x3c71ddd3	0.01476236
194	0xbd96c0e0	-0.07361007
195	0xbd0b4879	-0.034004662
196	0xbda451f2	-0.08023442
197	0xbba3eb72	-0.0050024325
198	0xbdd91606	-0.10599904
199	0x38449db4	4.6876914e-05
200	0x3d46dc22	0.04854978
201	0xbdab1cfc	-0.08355138
202	0xbdc6f732	-0.097151175
203	0xbdeab2ad	-0.11459861
204	0xbdce2f03	-0.100675605
205	0x3d889453	0.066689156
206	0xbcd7ec93	-0.026357925
207	0xbcd51964	-0.026013084
208	0xbde6d0ed	-0.11270318
209	0xbd76bd4d	-0.060239125
210	0x3c533b7e	0.012892602
211	0xbda10714	-0.07862678
212	0xbd82a90b	-0.06379899
213	0xbc3de46b	-0.011590104
214	0x3d5197d7	0.051170196
215	0x3cd94d63	0.026526159
216	0xbd348406	-0.04407122
217	0xbdd62fdb	-0.104583465
218	0x3e063e39	0.13109674
219	0x3bd33e00	0.0064466
220	0xbd2c20a3	-0.042023312
221	0xbd82cc68	-0.06386644
222	0xbbacf3e6	-0.0052780984
223	0x3cb53421	0.022119584
224	0x3dee64b2	0.116403
225	0x3e0670bf	0.13128947
226	0x3dcface2	0.10140397
227	0xbd4ee93d	-0.050515402
228	0xbde2cfc0	-0.110747814
229	0xbd9c5058	-0.07632512
230	0xbc345161	-0.01100573
231	0x3d49d596	0.049275957
232	0x3c8db5ce	0.017298605
233	0xbd8bb490	-0.06821549
234	0xbc0b7dc0	-0.008513868
235	0xbc928d51	-0.01788965
236	0xb80cff14	-3.361616e-05
237	0xbcc5d9ac	-0.024151646
238	0xbdecaaff	-0.115560524
239	0xbced5e7b	-0.028975716
240	0x3c2c3b67	0.0105122095
241	0x3b6c240e	0.0036032232
242	0xbda9647d	-0.0827112
243	0xbd8c8c1c	-0.06862661
244	0x3d24dc15	0.04024895
245	0x3d70aea9	0.05876032
246	0xbd6406f0	-0.05567068
247	0xbda4ae0c	-0.08041009
248	0xbc6d68cd	-0.0144903185
249	0x3d245c16	0.040126882
250	0x3c388106	0.01126123
251	0xbaf45c15	-0.0018643165
252	0x3cabc6e3	0.02096886
253	0xbddc25f5	-0.10749427
254	0xbdf21a37	-0.11821406
255	0x3dec3a5a	0.11534567

conv3.weight_fake_quant.scale f4 [120]
0	0x3a814b72	0.0009864403
1	0x3a9220a9	0.001114865
2	0x39f5db10	0.00046893256
3	0x3a88d95b	0.0010440754
4	0x3a799eef	0.0009522279
5	0x3a9813f0	0.0011602622
6	0x3a075a9e	0.00051633443
7	0x3a982985	0.0011609053
8	0x3a918411	0.0011101981
9	0x3a638a91	0.0008680011
10	0x3a7acb7e	0.0009567066
11	0x3a0c3a90	0.00053493027
12	0x3a75cf16	0.00093768665
13	0x3a9849e9	0.0011618707
14	0x3a20aec6	0.0006129559
15	0x3a9933ef	0.0011688451
16	0x3a8817df	0.0010383091
17	0x3a5115e5	0.000797598
18	0x3a8a5cbc	0.0010556201
19	0x3a0d2236	0.0005383821
20	0x3a04b2a2	0.0005062019
21	0x3a7e0225	0.00096896506
22	0x3a8849db	0.0010397987
23	0x3a20a650	0.0006128298
24	0x3a87d137	0.0010362033
25	0x3a8a6b51	0.0010560547
26	0x3a94d90f	0.0011356192
27	0x3a04cffa	0.00050663913
28	0x3a6e89ba	0.00090995023
29	0x3a8bebff	0.0010675191
30	0x3a960e33	0.0011448323
31	0x3a8ae42d	0.0010596566
32	0x3a18e804	0.0005832913
33	0x3a03d8c3	0.00050295534
34	0x3a922553	0.001115004
35	0x3a3b10e1	0.0007135999
36	0x39feda8e	0.0004860949
37	0x3a0432a7	0.0005042948
38	0x3a91d025	0.0011124654
39	0x3a8df47b	0.0010830307
40	0x3a926a2f	0.0011170561
41	0x3a73aeb4	0.0009295747
42	0x3a518716	0.00079928467
43	0x3a89ffbb	0.0010528484
44	0x3a93f44a	0.0011288014
45	0x3a921201	0.0011144282
46	0x39fec00c	0.0004858974
47	0x3a8d3f06	0.0010776229
48	0x39fdb3d8	0.00048389914
49	0x3a93a34f	0.001126388
50	0x3a8e9439	0.0010877914
51	0x3a0bc0e2	0.0005331171
52	0x39f8bc46	0.0004744252
53	0x3a61d432	0.00086146884
54	0x3a93b022	0.0011267702
55	0x3a149215	0.000566752
56	0x3a928a15	0.0011180068
57	0x3a8ab116	0.001058134
58	0x3a892760	0.0010464005
59	0x39f76458	0.00047186273
60	0x3a8a3314	0.0010543787
61	0x3a1a3878	0.0005883048
62	0x3a96537c	0.0011468972
63	0x3a90c3c2	0.0011044668
64	0x3a238754	0.0006238122
65	0x3a873bea	0.0010317538
66	0x3a81c7df	0.0009901485
67	0x3a18f3ed	0.00058346876
68	0x3a8cf0e2	0.0010752941
69	0x3a891a62	0.0010460133
70	0x3a850b70	0.0010150503
71	0x3a15b10d	0.00057102815
72	0x3a8e3622	0.0010849873
73	0x3a8b1bb9	0.001061312
74	0x3a810ff3	0.0009846672
75	0x3a55a2d7	0.000814957
76	0x3a902bef	0.0010999421
77	0x3a815c85	0.0009869492
78	0x3a81d713	0.0009906016
79	0x3a979380	0.0011564344
80	0x3a8d78d9	0.0010793462
81	0x3a26f0c1	0.00063682726
82	0x3a9a1502	0.0011755528
83	0x3a8cceae	0.0010742748
84	0x3a2d123c	0.00066021434
85	0x3a8b7470	0.001063956
86	0x3a9b4cd7	0.0011848462
87	0x3a8cbc3e	0.0010737253
88	0x3a7c30e7	0.0009620324
89	0x3a955bae	0.001139512
90	0x3a569dfe	0.0008186995
91	0x3a9faed3	0.0012182839
92	0x3a8bee4a	0.0010675874
93	0x3a02b442	0.0004985967
94	0x3a9bc85e	0.0011885276
95	0x3a8dca39	0.0010817713
96	0x3a0eb5a7	0.00054439384
97	0x3a0bc916	0.00053323933
98	0x3a979401	0.0011564494
99	0x3a0cc3c2	0.00053697464
100	0x3a8ee264	0.001090121
101	0x3a1447b2	0.00056564354
102	0x3a864cc9	0.0010246272
103	0x39e15c06	0.00042983907
104	0x3a9a77bc	0.0011784951
105	0x3a904ce1	0.001100924
106	0x3a896913	0.0010483585
107	0x3a97a1ba	0.0011568584
108	0x3a11c2d6	0.0005560344
109	0x3a89b6fa	0.0010506802
110	0x39fda706	0.00048380363
111	0x3a3b2167	0.0007138461
112	0x3a942d4f	0.0011305007
113	0x39fdf414	0.00048437773
114	0x3a8e566f	0.00108595
115	0x3a91e86f	0.0011131893
116	0x3a8d0d37	0.0010761385
117	0x3a918807	0.0011103161
118	0x3a8ca63c	0.0010730694
119	0x39feb1ea	0.00048579212

conv3.weight_fake_quant.activation_post_process.min_val f4 [120]
0	0xbe0130fa	-0.1261634
1	0xbe0aa123	-0.13538031
2	0xbd75db10	-0.060023367
3	0xbe072b75	-0.13200171
4	0xbdf275bd	-0.11838863
5	0xbe1813f0	-0.14851356
6	0xbd875a9e	-0.06609081
7	0xbe10e549	-0.14149965
8	0xbe092b93	-0.13395528
9	0xbde113da	-0.109901145
10	0xbdfacb7e	-0.12245844
11	0xbd8c3a90	-0.068471074
12	0xbdf0689e	-0.11738704
13	0xbe1849e9	-0.14871944
14	0xbda0aec6	-0.078458354
15	0xbe0b2dab	-0.1359164
16	0xbdf803cd	-0.121101
17	0xbdb13949	-0.086535044
18	0xbe039758	-0.12850702
19	0xbd8d2236	-0.06891291
20	0xbd84b2a2	-0.06479384
21	0xbdf8121c	-0.12112829
22	0xbe03fd88	-0.12889683
23	0xbda0a650	-0.078442216
24	0xbe02cbbc	-0.12773031
25	0xbe084cef	-0.13310598
26	0xbe114202	-0.14185336
27	0xbd84cffa	-0.06484981
28	0xbdd6c734	-0.10487214
29	0xbe0bebff	-0.13664244
30	0xbe0d7ef5	-0.13817962
31	0xbe04b5ab	-0.12959926
32	0xbd98e804	-0.074661285
33	0xbd83d8c3	-0.064378284
34	0xbe0ac5cd	-0.13552018
35	0xbdbb10e1	-0.09134079
36	0xbd7eda8e	-0.06222015
37	0xbd8432a7	-0.06454974
38	0xbe10de3c	-0.14147276
39	0xbe04f095	-0.129824
40	0xbdf0da5e	-0.117604
41	0xbdf3aeb4	-0.11898556
42	0xbdd18716	-0.10230844
43	0xbe09ffbb	-0.1347646
44	0xbe0d994e	-0.13828012
45	0xbe11d78c	-0.14242381
46	0xbd6e5e92	-0.058195658
47	0xbe0b6c79	-0.13615598
48	0xbd7db3d8	-0.06193909
49	0xbe10ad58	-0.14128625
50	0xbe0e9439	-0.1392373
51	0xbd8bc0e2	-0.06823899
52	0xbd78bc46	-0.060726427
53	0xbdd7fabf	-0.10545873
54	0xbe13b022	-0.14422658
55	0xbd949215	-0.072544254
56	0xbe0f8030	-0.14013743
57	0xbe0ab116	-0.13544115
58	0xbe092760	-0.13393927
59	0xbd776458	-0.06039843
60	0xbe0474ba	-0.12935153
61	0xbd9a3878	-0.07530302
62	0xbe0e8949	-0.13919558
63	0xbe0f8c33	-0.14018326
64	0xbda38754	-0.07984796
65	0xbe073bea	-0.13206449
66	0xbde4bd14	-0.11168876
67	0xbd98f3ed	-0.074684
68	0xbe0cf0e2	-0.13763765
69	0xbe03185e	-0.12802264
70	0xbe050b70	-0.12992644
71	0xbd95b10d	-0.073091604
72	0xbe07f8fc	-0.13278574
73	0xbe071618	-0.13192022
74	0xbe010ff3	-0.1260374
75	0xbdce1d08	-0.10064131
76	0xbe0df090	-0.13861299
77	0xbdff4080	-0.12463474
78	0xbe01d713	-0.126797
79	0xbe143ea1	-0.14477016
80	0xbe0d78d9	-0.13815631
81	0xbda6f0c1	-0.08151389
82	0xbe1a1502	-0.15047076
83	0xbe0cceae	-0.13750717
84	0xbda8886c	-0.082291454
85	0xbe071f48	-0.13195527
86	0xbe14cfed	-0.14532442
87	0xbe0bc5fd	-0.13649745
88	0xbded6836	-0.11592142
89	0xbe0f5463	-0.13997035
90	0xbdd0fab6	-0.10204069
91	0xbe1ebde8	-0.15502131
92	0xbdd3b54a	-0.103373125
93	0xbd82b442	-0.06382038
94	0xbe1bc85e	-0.15213153
95	0xbe097058	-0.13421762
96	0xbd8eb5a7	-0.06968241
97	0xbd8bc916	-0.068254635
98	0xbe0e5539	-0.13899697
99	0xbd8cc3c2	-0.06873275
100	0xbe0ce50d	-0.13759251
101	0xbd9447b2	-0.07240237
102	0xbe041ae5	-0.12900884
103	0xbd615c06	-0.0550194
104	0xbe145ccf	-0.14488529
105	0xbe0dc979	-0.13846387
106	0xbe096913	-0.13418989
107	0xbe10f8e6	-0.14157447
108	0xbd91c2d6	-0.0711724
109	0xbe03c481	-0.12867929
110	0xbd7da706	-0.061926864
111	0xbdb098a6	-0.086228654
112	0xbe0b7b77	-0.13621317
113	0xbd7df414	-0.06200035
114	0xbe0df7e5	-0.13864096
115	0xbe085b70	-0.1331613
116	0xbe097b44	-0.13425928
117	0xbe0cc352	-0.13746384
118	0xbe07f170	-0.13275695
119	0xbd7eb1ea	-0.06218139

conv3.weight_fake_quant.activation_post_process.max_val f4 [120]
0	0x3e0048db	0.12527792
1	0x3e10fc68	0.14158785
2	0x3d4c57bb	0.049888354
3	0x3e07c7a8	0.13259757
4	0x3df7abb1	0.120932944
5	0x3e0896fa	0.13338843
6	0x3d5e2cd2	0.054241963
7	0x3e16f932	0.14743498
8	0x3e106109	0.14099516
9	0x3de1c37c	0.11023614
10	0x3df772be	0.12082432
11	0x3d63972a	0.055564083
12	0x3df3e378	0.119086206
13	0x3e165454	0.14680606
14	0x3d9ecd4b	0.07754
15	0x3e180187	0.14844333
16	0x3e0707af	0.13186525
17	0x3dcf73b9	0.10129494
18	0x3e094803	0.13406377
19	0x3d63ba18	0.055597395
20	0x3d6144dc	0.05499731
21	0x3dfc0621	0.123058565
22	0x3e073947	0.13205443
23	0x3d8958bd	0.067063786
24	0x3e06c195	0.13159783
25	0x3e09567a	0.13411894
26	0x3e13af5d	0.14422365
27	0x3d4bd27b	0.049761277
28	0x3decaca7	0.11556368
29	0x3e080870	0.13284469
30	0x3e14e217	0.14539371
31	0x3e09ce65	0.1345764
32	0x3d7eae34	0.06217785
33	0x3d4a98f4	0.049462274
34	0x3e110108	0.1416055
35	0x3da9d1b4	0.08291951
36	0x3d479bf0	0.048732698
37	0x3d5eb66c	0.05437319
38	0x3e10ac85	0.14128311
39	0x3e0cd892	0.1375449
40	0x3e11455b	0.14186613
41	0x3dedb9a9	0.116076775
42	0x3dcd43f8	0.1002273
43	0x3e07da15	0.13266785
44	0x3e12cc61	0.14335777
45	0x3e10eddd	0.14153238
46	0x3d7cc28c	0.06170897
47	0x3e0c2488	0.1368581
48	0x3d330568	0.043706328
49	0x3e127c08	0.14305127
50	0x3e0990f3	0.134342
51	0x3d8979a6	0.06712656
52	0x3d593e24	0.053037778
53	0x3de0108a	0.109406546
54	0x3e100dc6	0.14067754
55	0x3d890a24	0.06691387
56	0x3e116501	0.14198686
57	0x3e08b6c1	0.13350965
58	0x3e06d341	0.13166524
59	0x3d4354a6	0.04768815
60	0x3e091eae	0.1339061
61	0x3d8791bc	0.066195935
62	0x3e1526d5	0.14565594
63	0x3e0fa23a	0.14026728
64	0x3d8ffc76	0.07030575
65	0x3e04f7d7	0.12985168
66	0x3e00c44f	0.12574886
67	0x3d5f14d3	0.05446322
68	0x3e0b84bc	0.13624853
69	0x3e08082d	0.13284369
70	0x3e034552	0.12819412
71	0x3d6e911c	0.058243856
72	0x3e0d19b6	0.13779339
73	0x3e0a0582	0.13478664
74	0x3dfaed36	0.12252276
75	0x3dd3f791	0.10349954
76	0x3e0f0b97	0.13969265
77	0x3e0059cc	0.12534255
78	0x3dfdd187	0.1239348
79	0x3e166459	0.14686717
80	0x3e0c4f11	0.13702036
81	0x3d96b6cc	0.073590845
82	0x3e1863ee	0.1488187
83	0x3e0910b0	0.13385272
84	0x3dabb818	0.083847225
85	0x3e0a5d87	0.1351224
86	0x3e1a163d	0.15047546
87	0x3e0ba2c6	0.13636312
88	0x3dfa3885	0.122178115
89	0x3e1430f7	0.14471804
90	0x3dd4f0c2	0.103974834
91	0x3e1e6f75	0.15472205
92	0x3e0ad66d	0.1355836
93	0x3d76361e	0.060110204
94	0x3e0f7468	0.14009249
95	0x3e0caea5	0.13738497
96	0x3d645ce0	0.055752635
97	0x3d5a4c26	0.053295277
98	0x3e1664d9	0.14686908
99	0x3d7a35d0	0.061086476
100	0x3e0dc49f	0.13844536
101	0x3d88a7f6	0.06672661
102	0x3e05402f	0.13012765
103	0x3d44959a	0.047994234
104	0x3e1942cd	0.14966889
105	0x3e0f2c47	0.13981734
106	0x3e05cc47	0.13066207
107	0x3e167277	0.14692102
108	0x3d85c2f4	0.06531325
109	0x3e08a38c	0.13343638
110	0x3d4a938a	0.04945711
111	0x3db9ab24	0.090658456
112	0x3e1304f4	0.14357358
113	0x3d419fb2	0.047271438
114	0x3e0d39c2	0.13791564
115	0x3e10c49e	0.14137504
116	0x3e0bf31d	0.13666959
117	0x3e1064f7	0.14101015
118	0x3e0b8cf0	0.13627982
119	0x3d744318	0.059634298

fc1.weight f4 [84, 120]
0	0xbdaafa9e	-0.08348583
1	0x3d9a30f3	0.075288676
2	0x3d95a696	0.07307164
3	0xbe1eba48	-0.15500748
4	0xbd411ef8	-0.047148675
5	0xbd8ea058	-0.06964177
6	0x3c1027db	0.008798565
7	0x3e1c045a	0.15236035
8	0x3cd0ecf8	0.02550362
9	0x3d1a9ee8	0.0377492
10	0xbe0f849b	-0.14015429
11	0x3d2fc39d	0.04291116
12	0xbd3bca9a	-0.045847513
13	0x3e074051	0.13208129
14	0x3d7c9c08	0.06167224
15	0x3dc09943	0.09404232
16	0x3d1bd4ac	0.038044617
17	0xbd2f5b0f	-0.04281145
18	0x3d52eb1f	0.05149376
19	0x3dc556ed	0.096357204
20	0xbd4c9f33	-0.04995651
21	0x3e240eb0	0.16021228
22	0xbcac39e7	-0.021023704
23	0xbcee1edc	-0.02906745
24	0xbd2de576	-0.04245516
25	0xbdc615ae	-0.09672104
26	0xbe2595bb	-0.16170399
27	0x3b24c928	0.0025144313
28	0x3d1a856a	0.03772489
29	0xbd2834a7	-0.04106584
30	0x3db153ca	0.086585596
31	0x3e1beafd	0.1522636
32	0x3d9e2ec5	0.07723764
33	0xbcd0daa4	-0.025494881
34	0x3d0371cd	0.03209095
35	0xbd426dca	-0.047467984
36	0x3d98c22c	0.0745891
37	0xbd6a2549	-0.057164464
38	0x3df119ad	0.117724754
39	0x3d351e89	0.044218574
40	0xbc39e949	-0.011347123
41	0x3c0124a1	0.007882268
42	0x3b0289e3	0.0019918613
43	0xbe22c29b	-0.15894549
44	0x3db736e0	0.089460135
45	0xbe1cf81e	-0.15329024
46	0x3d58ef08	0.052962333
47	0x394cc9f8	0.00019530195
48	0xbcd25ed9	-0.025679993
49	0xbe02a2da	-0.12757435
50	0xbd1444dc	-0.036198482
51	0xbcd112b1	-0.025521608
52	0xbd1e837c	-0.038699612
53	0xbba93f2d	-0.005165002
54	0x3c9a914d	0.018868113
55	0x3d49df80	0.04928541
56	0xbc41d9e4	-0.011831734
57	0x3cd06b28	0.025441721
58	0x3d6fb2a8	0.05851999
59	0xbd9a47de	-0.07533239
60	0xbde101de	-0.10986684
61	0x3d19e840	0.037575006
62	0x3e1e1a74	0.15439779
63	0xbc99a21c	-0.018754058
64	0xbd40264d	-0.046911526
65	0xbdd4d114	-0.10391441
66	0xbc126553	-0.00893529
67	0x3d786ed9	0.060652588
68	0xbca25fc4	-0.019821055
69	0x3dbd0f94	0.09231487
70	0xbcc48fd3	-0.023994362
71	0xbcf8a096	-0.03035001
72	0xbc2e8fe8	-0.010654427
73	0x3cfdbd97	0.030974193
74	0xbdd878b3	-0.105698965
75	0xbe0280b1	-0.12744404
76	0xbd25fff5	-0.040527303
77	0xbc67cb1e	-0.014147548
78	0xbd7a254b	-0.06107072
79	0x3dbfdc36	0.09368174
80	0xbe0223c6	-0.12708959
81	0x3cd8c659	0.026461767
82	0xbdef8c81	-0.11696721
83	0xbd59d228	-0.053178936
84	0xbd32997a	-0.043603398
85	0x3cf109c3	0.0294236
86	0xbe0d5f35	-0.1380585
87	0xbdcd525b	-0.10025474
88	0x3a968d0c	0.0011486127
89	0xbe14c2c9	-0.1452743
90	0xbd3b74f7	-0.045765843
91	0xbde35c43	-0.11101582
92	0x3d8f47f2	0.06996144
93	0x3c8dde1c	0.017317824
94	0xbdafb342	-0.085791126
95	0xbd6afac0	-0.05736804
96	0x3cb71fdc	0.022354059
97	0x3d8810c1	0.066438206
98	0x3da1267a	0.07868667
99	0xbdac1358	-0.08402127
100	0xbe026052	-0.12732056
101	0x3d7e5302	0.06209088
102	0xbd9ef87e	-0.0776224
103	0x3c894ace	0.016759302
104	0x3d0414e5	0.03224649
105	0xbd8d8447	-0.069099955
106	0xbcfd7bfc	-0.03094291
107	0x3b94af5c	0.004537506
108	0xbced5956	-0.028973263
109	0x3cc2009f	0.023681937
110	0x3d8685bf	0.06568479
111	0xbd778c0b	-0.06043629
112	0xbe14ba08	-0.1452409
113	0x3d4e71e8	0.0504016
114	0xbe1db4e7	-0.1540104
115	0xbc7e702e	-0.015529675
116	0xbd72ec21	-0.05930722
117	0xbc173bab	-0.009230535
118	0xbc863f86	-0.016387712
119	0xbdad95ad	-0.08475814
120	0xbd54465d	-0.051824916
121	0xbccb9392	-0.02485064
122	0xbdb6d34f	-0.08927023
123	0x3d45add3	0.048261475
124	0x3ca6a596	0.02034263
125	0x3d80b3cb	0.06284293
126	0xbc9feffd	-0.019523615
127	0x3da78270	0.08179176
128	0x3d330a0c	0.043710753
129	0xbdc8dc22	-0.09807612
130	0xbd7b783a	-0.061393954
131	0x3c854ea7	0.016272856
132	0xbc19978d	-0.009374511
133	0x3deb91d9	0.115024276
134	0xbd325460	-0.043537498
135	0x3a94a8ee	0.0011341849
136	0xbd076816	-0.03305825
137	0x3c2aca6b	0.010424237
138	0xbbc6d206	-0.006067517
139	0x3d3142a1	0.043276433
140	0xbce23473	-0.0276129
141	0x3d43b73b	0.047782164
142	0x3d9c9dce	0.07647286
143	0x3dafd923	0.085863374
144	0x3e16eff0	0.14739966
145	0xbd929d1f	-0.07158875
146	0xbcb17b69	-0.021665292
147	0xbd6a5f29	-0.057219658
148	0x3cec7d19	0.028868245
149	0xbd0d65ad	-0.034520794
150	0xbc34e688	-0.011041291
151	0x3d9062c7	0.0705009
152	0xbd85ac62	-0.0652702
153	0xbd0f01c0	-0.03491378
154	0x3cbc530a	0.022988815
155	0x3d15a0f2	0.036530443
156	0xbc2842d2	-0.010269837
157	0xbbbbf399	-0.005735826
158	0x3cb89632	0.022532556
159	0x3cdba6da	0.02681296
160	0x3d41db14	0.04732807
161	0x3dc8e476	0.098092005
162	0xbdfbf446	-0.12302451
163	0x3ca7b441	0.020471694
164	0x3d28633a	0.041110255
165	0xbceeb51a	-0.02913909
166	0x3cb1e733	0.02171669
167	0xbd2208d6	-0.039559208
168	0x3d59701c	0.05308543
169	0xbe18994c	-0.14902228
170	0xbc8aa7e0	-0.016925752
171	0x3d8cbe1f	0.068722
172	0xbd9cea78	-0.07661909
173	0x3db7e690	0.08979523
174	0x3d395bdc	0.04525362
175	0xbbd3fccc	-0.0064693447
176	0x3de33455	0.11093966
177	0x3d73e12a	0.059540905
178	0x3c7a2f8d	0.015270126
179	0xbd6ebfb0	-0.058288276
180	0xbdba5211	-0.09097684
181	0xbdb1875f	-0.08668398
182	0x3dba8f27	0.091093354
183	0xbc0cb6d4	-0.0085885115
184	0xbd030cef	-0.031994756
185	0xbd728dbb	-0.059217196
186	0x3c155cce	0.009116365
187	0xbd1e5f29	-0.03866497
188	0x3db53d06	0.0884953
189	0x3dac3ccf	0.08410036
190	0xbd960c68	-0.07326585
191	0xbd1dc352	-0.03851635
192	0x3dccd5bd	0.10001705
193	0x3df114dc	0.11771557
194	0x3d29849c	0.04138623
195	0xbda68b2c	-0.08132014
196	0xbe0e4ab9	-0.13895692
197	0x3d506a50	0.050882638
198	0x3cc621e5	0.024186084
199	0x3e034c57	0.1282209
200	0x3d4d16d7	0.05007061
201	0xba2d4e77	-0.00066111184
202	0x3d8fd135	0.07022325
203	0x3d97e834	0.07417336
204	0x3d28af3c	0.04118274
205	0x3a7e2288	0.00096944766
206	0xbddde45c	-0.10834572
207	0xbd13eda8	-0.03611532
208	0xbd1a00ea	-0.037598528
209	0xbd699779	-0.05702922
210	0x3d6902dc	0.056887493
211	0x3d82daa6	0.0638936
212	0xbc3cc984	-0.011522654
213	0x3d8989f0	0.067157626
214	0xbe185a34	-0.1487816
215	0xbd8011a1	-0.062533624
216	0x3ced9195	0.029000083
217	0x3d3aaef0	0.04557699
218	0x3d879872	0.066208735
219	0xbdb493f8	-0.08817285
220	0xbb212784	-0.0024590204
221	0x3b804656	0.0039146347
222	0x3df7bed3	0.12096944
223	0x3dc17502	0.094461456
224	0x3c078700	0.008271933
225	0x3cce1282	0.02515531
226	0x3e175b0a	0.14780822
227	0x3d30fadb	0.043207984
228	0xbc435213	-0.0119214235
229	0x3d4939b6	0.049127303
230	0xbdbaef7f	-0.091277115
231	0x3da1bb8d	0.078971006
232	0xbcf97c06	-0.030454647
233	0xbd972278	-0.07379621
234	0xbd33ff2c	-0.043944523
235	0x3d8c9aa9	0.068654366
236	0xbd0b1f62	-0.033965476
237	0x3b23c308	0.0024988074
238	0x3c90068e	0.01758125
239	0xbc8d0b4f	-0.017217306
240	0xbe2e3742	-0.17013267
241	0xbcb239c9	-0.02175607
242	0x3b350eb3	0.002762717
243	0x3bb6f715	0.0055836537
244	0x3e2b7f04	0.16747671
245	0x3c023326	0.007946765
246	0x3d566a69	0.052347574
247	0x3e2c6f99	0.16839446
248	0x3d897108	0.06711012
249	0xbd750a72	-0.059824415
250	0xbcece957	-0.028919859
251	0xbd841013	-0.064483784
252	0xbcc56273	-0.024094796
253	0x3e30edfe	0.17278287
254	0xbd44fe41	-0.048094038
255	0x3def0f5b	0.11672851

fc1.weight_fake_quant.scale f4 [84]
0	0x3aa25d81	0.0012387485
1	0x3a983ef1	0.0011615438
2	0x3ab19c34	0.001355058
3	0x3a9b08e6	0.0011828213
4	0x3aac442d	0.0013142877
5	0x3aa03715	0.0012223447
6	0x3aa9b4c6	0.0012947551
7	0x3aa82c20	0.0012830533
8	0x3aa3ed67	0.0012506664
9	0x3a9e307a	0.001206889
10	0x3a9ad514	0.001181277
11	0x3a4e9e8a	0.00078819005
12	0x3a94cccd	0.0011352539
13	0x3aaaaa3b	0.0013020703
14	0x3a50bb7a	0.00079625065
15	0x3aa8e28c	0.0012884899
16	0x3a9e8c97	0.0012096342
17	0x3a925d4f	0.0011166724
18	0x3a9ed23f	0.0012117102
19	0x3aa1c75b	0.0012342738
20	0x3aa11eb5	0.0012292477
21	0x3a74862b	0.0009327854
22	0x3a64817c	0.00087168044
23	0x3a43a02c	0.0007462527
24	0x3a997108	0.001170666
25	0x3a5c47ff	0.0008403062
26	0x3a5141f6	0.0007982546
27	0x3a5958a0	0.0008291099
28	0x3a97e8c8	0.001158976
29	0x3aa4a360	0.0012560897
30	0x3a9e772a	0.0012089957
31	0x3aad72b6	0.0013233039
32	0x3a8b18a2	0.00106122
33	0x3a977c3f	0.0011557414
34	0x3a981e82	0.0011605772
35	0x3a677699	0.0008829623
36	0x3a5e2caf	0.00084752863
37	0x3a49c091	0.0007696236
38	0x3a996111	0.0011701902
39	0x3a6146f3	0.0008593641
40	0x3aad801f	0.0013237036
41	0x3aa97eb8	0.0012931442
42	0x3a904722	0.0011007527
43	0x3aab0c64	0.0013049957
44	0x3aa2ebe7	0.0012429924
45	0x3a52b06e	0.00080371543
46	0x3ab6225d	0.0013895739
47	0x3a5545ce	0.0008135707
48	0x3a6a4f53	0.0008938212
49	0x3a9b6ced	0.0011858024
50	0x3a7d452b	0.0009661491
51	0x3aaa6664	0.0013000485
52	0x3aa57f8f	0.0012626516
53	0x3aadf2b5	0.0013271185
54	0x3a5b74c0	0.0008371584
55	0x3a57d9ff	0.0008234083
56	0x3a6552d8	0.00087480014
57	0x3a55df56	0.0008158585
58	0x3aa0f678	0.0012280485
59	0x3aa018a0	0.001221437
60	0x3a9ec2c4	0.0012112488
61	0x3a67ab4b	0.00088374753
62	0x3a50a860	0.000795966
63	0x3a9b5e5b	0.0011853682
64	0x3a5206e3	0.00080118905
65	0x3a7e24e1	0.00096948264
66	0x3aa3945e	0.001248013
67	0x3a7367e9	0.0009285198
68	0x3ab0dc3c	0.0013493369
69	0x3a9cfd73	0.0011977389
70	0x3a910d49	0.0011066581
71	0x3aa85cd8	0.0012845052
72	0x3a61c9a4	0.00086131156
73	0x3a982a04	0.0011609201
74	0x3aa4779b	0.0012547852
75	0x3a9ff868	0.0012204768
76	0x3aa99dfa	0.0012940757
77	0x3a892047	0.001046189
78	0x3aa1c733	0.0012342691
79	0x3a9a1164	0.001175445
80	0x3aa5b9aa	0.0012643833
81	0x3aaab469	0.0013023737
82	0x3ab3613f	0.0013685598
83	0x3aa7eaa2	0.0012811015

fc1.weight_fake_quant.activation_post_process.min_val f4 [84]
0	0xbe225d81	-0.15855981
1	0xbe183ef1	-0.1486776
2	0xbe2a3075	-0.16620047
3	0xbe1720a0	-0.14758539
4	0xbe227d02	-0.15867999
5	0xbe201baa	-0.15635553
6	0xbdc08522	-0.09400393
7	0xbe22fe7a	-0.15917388
8	0xbe204b93	-0.1565383
9	0xbe0603de	-0.13087413
10	0xbe1ad514	-0.15120345
11	0xbdce9e8a	-0.10088833
12	0xbe14cccd	-0.1453125
13	0xbe2769e2	-0.16348985
14	0xbdd0bb7a	-0.10192008
15	0xbe28e28c	-0.16492671
16	0xbe1e8c97	-0.15483318
17	0xbdd1782d	-0.10228
18	0xbe1c811d	-0.15283628
19	0xbe21c75b	-0.15798704
20	0xbe211eb5	-0.1573437
21	0xbde79b53	-0.113089226
22	0xbde4817c	-0.1115751
23	0xbdc3a02c	-0.09552035
24	0xbe13481c	-0.14382976
25	0xbddc47ff	-0.1075592
26	0xbdd141f6	-0.10217659
27	0xbdd958a0	-0.10612607
28	0xbe17e8c8	-0.14834893
29	0xbe1d2b2e	-0.15348503
30	0xbe1dada2	-0.15398267
31	0xbe26a993	-0.16275625
32	0xbe045653	-0.12923555
33	0xbe14460d	-0.14479847
34	0xbe181e82	-0.14855388
35	0xbde77699	-0.113019176
36	0xbdde2caf	-0.108483665
37	0xbdc9c091	-0.09851182
38	0xbe1919dc	-0.14951271
39	0xbdde87f2	-0.10865773
40	0xbe1e4461	-0.15455772
41	0xbe1321d2	-0.1436837
42	0xbe01de0f	-0.12682365
43	0xbe2b0c64	-0.16703945
44	0xbe22ebe7	-0.15910302
45	0xbdd2b06e	-0.102875575
46	0xbe36225d	-0.17786546
47	0xbdd545ce	-0.10413705
48	0xbdea4f53	-0.11440911
49	0xbe1b6ced	-0.1517827
50	0xbdfd452b	-0.12366708
51	0xbe2a6664	-0.16640621
52	0xbe105a1b	-0.14096873
53	0xbe26a658	-0.16274393
54	0xbddb74c0	-0.10715628
55	0xbdd7d9ff	-0.10539626
56	0xbde552d8	-0.11197442
57	0xbdd5df56	-0.104429886
58	0xbe20f678	-0.1571902
59	0xbe1f4904	-0.15555197
60	0xbe1a0599	-0.15041198
61	0xbde7ab4b	-0.113119684
62	0xbdd0a860	-0.10188365
63	0xbe1b5e5b	-0.15172713
64	0xbdd206e3	-0.1025522
65	0xbdf512b1	-0.11966456
66	0xbe10861c	-0.14113659
67	0xbdf367e9	-0.11885054
68	0xbe30dc3c	-0.17271513
69	0xbe1cfd73	-0.15331058
70	0xbdfffb46	-0.124990985
71	0xbe285cd8	-0.16441667
72	0xbde1c9a4	-0.11024788
73	0xbdfc49bd	-0.12318752
74	0xbe1edec7	-0.1551467
75	0xbe19b75c	-0.15011352
76	0xbe20cb7c	-0.15702623
77	0xbe092047	-0.13391219
78	0xbe1d991e	-0.15390441
79	0xbe0ede43	-0.13951974
80	0xbe25b9aa	-0.16184106
81	0xbe2ab469	-0.16670384
82	0xbdd59b20	-0.10429978
83	0xbe27eaa2	-0.16398099

fc1.weight_fake_quant.activation_post_process.max_val f4 [84]
0	0x3e1f2af3	0.15543728
1	0x3e16beaa	0.1472117
2	0x3e3038fc	0.17209238
3	0x3e19d2d4	0.15021831
4	0x3e2aeba5	0.16691454
5	0x3e1ef6a7	0.15523778
6	0x3e28615c	0.1644339
7	0x3e26dbc8	0.16294777
8	0x3e22a58c	0.15883464
9	0x3e1cf419	0.15327491
10	0x3e145c4a	0.1448833
11	0x3db1b81a	0.08677693
12	0x3e136ae4	0.14396244
13	0x3e2954e7	0.16536294
14	0x3dc51276	0.09622662
15	0x3e0ad2c4	0.13556963
16	0x3e1d0e87	0.15337573
17	0x3e113894	0.14181739
18	0x3e1d949b	0.1538872
19	0x3e19db50	0.15025067
20	0x3e1aa39e	0.15101478
21	0x3df29d1f	0.11846375
22	0x3dae819c	0.08520815
23	0x3daced4a	0.08443697
24	0x3e183e26	0.14867458
25	0x3dbecad2	0.09316029
26	0x3dc0cc9a	0.09414025
27	0x3dba0202	0.09082414
28	0x3e10cdf3	0.14141063
29	0x3e235a19	0.15952338
30	0x3e1d3a3c	0.15354246
31	0x3e2c17d1	0.1680596
32	0x3e0a0271	0.13477494
33	0x3e164d47	0.14677916
34	0x3e158cae	0.14604446
35	0x3dba9520	0.091104746
36	0x3dc24e72	0.094876185
37	0x3db57f26	0.08862142
38	0x3e182e4f	0.14861415
39	0x3ddf8465	0.10913924
40	0x3e2c251f	0.16811036
41	0x3e282bbb	0.16422932
42	0x3e0f2694	0.1397956
43	0x3e286f21	0.16448642
44	0x3e2117e8	0.15731776
45	0x3dae4638	0.08509487
46	0x3e2b8780	0.16750908
47	0x3da40362	0.08008458
48	0x3dd02dfa	0.10165019
49	0x3e194c0b	0.14970414
50	0x3de687f4	0.112564
51	0x3e23ef2d	0.16009207
52	0x3e243490	0.16035676
53	0x3e2c96d0	0.16854405
54	0x3dbf2cb6	0.093347
55	0x3dade4fa	0.084909394
56	0x3dc69cca	0.09697874
57	0x3db2e222	0.08734538
58	0x3e1ccdea	0.15312925
59	0x3e1ed86f	0.1551225
60	0x3e1d853e	0.15382859
61	0x3db283d0	0.087165475
62	0x3dac0bee	0.08400713
63	0x3e1588ef	0.14603017
64	0x3dc60d38	0.0967049
65	0x3dfc2897	0.123124294
66	0x3e224d35	0.15849765
67	0x3db4ed1a	0.08834286
68	0x3e21ba02	0.15793613
69	0x3e160ec4	0.1465407
70	0x3e0feb2e	0.14054558
71	0x3e215452	0.15754822
72	0x3db577be	0.0886073
73	0x3e16f9b0	0.14743686
74	0x3e232eac	0.15935773
75	0x3e1eb877	0.15500055
76	0x3e284abe	0.16434762
77	0x3dc4e14f	0.09613287
78	0x3e2083a5	0.15675218
79	0x3e18dd41	0.14928152
80	0x3e1eebc0	0.15519619
81	0x3e25c2a3	0.1618753
82	0x3e31fa7d	0.1738071
83	0x3e1ea278	0.15491664

fc2.weight f4 [1, 84]
0	0x3dd474ea	0.10373862
1	0x3e027e44	0.12743479
2	0x3d804bbd	0.06264446
3	0xbdb74567	-0.08948784
4	0xbdafa460	-0.08576274
5	0x3dca3afd	0.09874532
6	0xbdddb09e	-0.10824703
7	0x3de83dd0	0.11339915
8	0xbdc95aca	-0.0983177
9	0xbe192e22	-0.14959005
10	0x3e1877b7	0.14889418
11	0x3cb4d3fe	0.022073742
12	0x3da54676	0.0807008
13	0xbdaa957e	-0.083292946
14	0xbb929c02	-0.004474164
15	0x3e0571cf	0.13031696
16	0xbe0a306c	-0.13495034
17	0xbe0a6417	-0.13514744
18	0xbe19e671	-0.15029313
19	0xbda30f77	-0.07961934
20	0x3d70744a	0.058704652
21	0x3d68a8c4	0.056801572
22	0xbd94f2b8	-0.072728574
23	0xbd7cc5d9	-0.06171212
24	0xbe0d2fef	-0.13787816
25	0x3b5490df	0.0032434983
26	0x3d40d1e5	0.04707517
27	0x3ca76d7f	0.020437954
28	0x3dc85331	0.097814925
29	0x3dabc48f	0.083871
30	0xbdb915f5	-0.09037391
31	0xbdebadff	-0.115077965
32	0xbdc3f061	-0.09567333
33	0xbdba017b	-0.090823136
34	0xbded9138	-0.11599964
35	0xbab78085	-0.0014000094
36	0x3ccb09a8	0.024784878
37	0x3d86cbb1	0.0658182
38	0x3dc70f3d	0.09719703
39	0x3bd700c6	0.0065613715
40	0xbe15b92a	-0.14621416
41	0xbdc0f74e	-0.094221696
42	0xbe0c36cf	-0.13692783
43	0x3de1a59b	0.11017915
44	0xbdf1b4b7	-0.11802047
45	0x3cb8471f	0.02249485
46	0x3d928d20	0.07155824
47	0x3d719966	0.058984183
48	0xbc273464	-0.010205362
49	0xbddcbd66	-0.107783124
50	0x3dabccfc	0.08388707
51	0xbe2658b5	-0.16244777
52	0xbda97f47	-0.08276229
53	0x3df7d5bc	0.121013135
54	0x3d6e5898	0.05818996
55	0xbcb75b44	-0.022382386
56	0x3d12d7df	0.035850402
57	0x3cc887ee	0.024478879
58	0xbe26506b	-0.16241615
59	0xbe2714c8	-0.16316521
60	0xbe1e3a02	-0.15451816
61	0x3d8523e1	0.06500984
62	0x3d199e03	0.037504207
63	0x3e00a678	0.12563503
64	0xbd7d109e	-0.061783426
65	0xbc0e30be	-0.008678613
66	0xbe1ce4b9	-0.15321626
67	0x3d3fd6f6	0.046835862
68	0x3de1a7d0	0.11018336
69	0x3dd85884	0.10563758
70	0xbd0fb14b	-0.03508119
71	0x3e254505	0.1613961
72	0xbd039fe0	-0.03213489
73	0xbd3d0f1c	-0.046156988
74	0x3d713fe3	0.058898818
75	0xbe26c3fb	-0.16285698
76	0x3e162120	0.14661074
77	0xbacccea4	-0.0015625549
78	0xbe26eb53	-0.16300707
79	0xbe17a30b	-0.1480829
80	0x3e18a6d4	0.1490739
81	0x3e15dca0	0.14634943
82	0xbe1a06ff	-0.15041731
83	0x3e2992ab	0.16559856
