experiments/exp025/checkpoint.pth (torch, 249442 bytes, 33 tensors)

quant.activation_post_process.histogram f4 [2048]
00000000: 8afa 7948 04fc 2c41 b37b ee43 2d3c 1145
00000010: b9d8 7a45 1660 4345 0e41 5645 d733 1d46
00000020: ca55 1045 9bbe 4b43 bf1a 8745 eb5b 3c45
00000030: 14c9 7544 d9e2 1544 74b9 9e45 ab96 9c44
00000040: 1871 c945 70a8 5a42 8cb5 0b41 1c8d 0942
00000050: 220f d043 f84c 9445 1e5c d444 2ae6 9a41
00000060: d899 3643 7332 d741 f88c 0142 082c 3a43
00000070: 1e21 d943 e2bf 9e44 eba7 8342 1c5c b542
00000080: 1296 6445 bafa 9444 4661 0040 77bf 8942
00000090: eb38 4444 6f64 6543 16fe 8c42 e0aa c540
000000a0: 6449 1841 005e c641 80a1 5a3f 1ed9 a444
000000b0: 1997 dd42 1091 c641 a075 3640 00b9 343f
000000c0: 1b24 7d43 988d 9544 a183 6343 3d71 8143
000000d0: facc c641 e0eb aa41 2d83 9343 f8cb ff42
000000e0: ca50 813f f353 2042 cf56 3843 6840 b541
000000f0: 5e30 cf41 a02b 4641 b0d4 ba40 00c8 403f
00000100: dcd5 2a42 9eb3 b544 afd8 ab43 0080 1b3c
00000110: 980b 033f f026 fc40 aac2 f340 20d4 3841
00000120: 671d fa41 68c0 a642 235b d940 30ac 1140
00000130: fbf3 ec42 f315 9e41 18fe c040 8c9c 8141
00000140: 9c1c 7542 2401 8142 7345 a243 b863 8f41
00000150: 0080 ff3d 80d4 cd3f 7495 dc40 7cfb 2443
00000160: f096 6f41 80c2 a43f c0d6 3940 00c4 5f3e
00000170: e026 b440 cede 3b40 5e4c 2842 303e d441
00000180: c06c 493f 882d 9a40 5934 7643 2423 7342
00000190: 00bf 5e3e 3c39 f640 8c36 eb41 0075 4940
000001a0: f081 6840 c09d 8e3f a06b ad3f a05f 413f
000001b0: faa3 9740 2af7 5f42 e47a 6a41 001b 903f
000001c0: 80a7 bc3e a0cd b63f 3ee3 0842 2415 d042
000001d0: 8213 b241 382e 1a41 7fbf c93f 9008 4040
000001e0: fd4a 0742 802b 0f3f e0f4 813f 40cb fc40
000001f0: 87c8 5741 e47a e93f 40da d13f 0059 2440
00000200: c039 813f 0000 faba f3bd 0c42 81c9 8d43
00000210: 6ed5 c941 0000 acb9 00a0 933b 0064 353f
00000220: 8041 9f3e 407e ac3e 9897 b840 00fa 7640
00000230: 00ca de3d 1891 9d40 8a82 e441 4085 3b40
00000240: a0fc 0b3f 8665 9440 6851 fd40 00fb 8742
00000250: fee4 8641 8096 0e3f 0008 82bc 00c0 2dbc
00000260: 585e c040 dcdb a641 3025 0740 0080 04bc
00000270: 00c0 38bb 00e0 57bc c0f9 533f 8009 9e3f
00000280: 44f4 3941 6041 1240 009e b63c 2006 8740
00000290: e601 a942 409f a13f 00d8 da3c 801a f23f
000002a0: 3628 4940 2074 2c3f 0060 733e 00c0 b53b
000002b0: 0000 b2ba 801c 0d3d d04e ee40 4843 4e41
000002c0: 000e 1b3f 00e0 5abc 0080 f2bb 00d0 8bbc
000002d0: a02a 1042 13cd 4740 6279 a840 c008 c73f
000002e0: 0030 34bc 00fa d63e ac1a 0841 4044 893f
000002f0: 0042 943d c0db 3e40 c021 6d3f 0000 7e3a
00000300: 00c0 22bb 0080 c2bb 00d0 19bc 0020 143d
00000310: 2e00 3c41 2037 2d42 609a f43f 00c0 833b
00000320: 0040 5a3b 8056 803f 0080 ff3a 60f1 1e3e
00000330: 70a2 c03f 0014 ac3e 0070 1fbc 00f5 c13e
00000340: 580e 9440 0000 a8b9 00c0 1cbb 0040 92bb
00000350: 4077 943e 4657 4341 88ff ef40 0080 0bbb
00000360: 00a0 89bb 0020 d43c a0f8 e53f c02a 953f
00000370: 0090 0cbc 0000 a33b 0040 3e3b 0000 5a3a
00000380: 0080 a2ba 0040 5f3c 08b6 bd40 0038 463d
00000390: 0040 59bb 404a 8140 54f1 5341 8070 303f
000003a0: 0040 4cbb 808b e63f 205d 983f 0080 02bb
000003b0: 00a0 dfbb 0000 3fbc 0000 63ba 0018 523d
000003c0: 5722 4a40 8042 e43f 00c0 9fbb 0000 41bc
000003d0: 0080 48bb 003c 553e e82a 4b41 00aa 333f
000003e0: c032 af3f 00c0 57bc 00c0 91bb 008c da3f
000003f0: e0d4 5140 0040 1cbc 0000 56ba 0003 fb3f
255978.16 10.811527 476.9664 2323.761 4013.5452 3126.0054 3428.066 10060.96
2309.3618 203.74455 4323.3433 3013.7449 983.14185 599.5445 5079.1816 1252.7084
6446.1367 54.66449 8.731823 34.387802 416.11823 4745.621 1698.8787 19.362385
182.60095 26.899633 32.387665 186.172 434.25873 1269.9963 65.827965 90.6799
3657.3794 1191.8352 2.005937 68.873955 784.88934 229.39232 70.49626 6.177109
9.517918 24.795898 0.8540268 1318.7849 110.79511 24.820831 2.8509293 0.7059479
253.14104 1196.4248 227.51418 258.88467 24.850086 21.365173 295.0248 127.89838
1.010278 40.08198 184.3391 22.656448 25.898617 12.385651 5.838463 0.75305176
42.708847 1453.613 343.69284 0.009490967 0.51189566 7.879753 7.6175127 11.551788
31.264357 83.37579 6.792375 2.2761345 118.476524 19.760717 6.0310173 16.201439
61.27794 64.50223 324.54257 17.92369 0.12475586 1.6080475 6.893244 164.98236
14.97435 1.2871857 2.9037323 0.21852112 5.6297455 2.935474 42.074577 26.530365
0.78681564 4.818058 246.20448 60.784317 0.21752548 7.6944866 29.401634 3.147766
3.6329308 1.1141891 1.354847 0.7553654 4.7387667 55.99137 14.655003 1.125824
0.36846542 1.4281502 34.221916 104.04129 22.259525 9.636284 1.5761565 3.0005226
33.82323 0.5592575 1.0152855 7.899811 13.486457 1.8240628 1.639473 2.5679321
1.0095749 -0.0019073486 35.185497 283.57425 25.229214 -0.00032806396 0.0045051575 0.7085571
0.3110466 0.3369007 5.768505 3.8590088 0.10878372 4.9239616 28.56374 2.930008
0.5468235 4.637393 7.9161873 67.990234 16.861813 0.55698395 -0.015872955 -0.010604858
6.0115166 20.857353 2.1116447 -0.008087158 -0.0028190613 -0.013175964 0.82802963 1.2346649
11.622135 2.2852402 0.022292137 4.2194977 84.50371 1.2626724 0.026714325 1.8914337
3.1430793 0.6736469 0.2376709 0.00554657 -0.0013580322 0.034451008 7.4471207 12.891426
0.6056824 -0.01335907 -0.0074005127 -0.017066956 36.041626 3.1218917 5.264817 1.5549545
-0.010997772 0.4198761 8.506512 1.0723953 0.07239151 2.9821625 0.92629623 0.0009689331
-0.002483368 -0.005935669 -0.00938797 0.03616333 11.750044 43.303833 1.9109612 0.004020691
0.0033302307 1.0026398 0.0019493103 0.15521765 1.5049572 0.3360901 -0.009731293 0.37882233
4.626751 -0.00032043457 -0.0023918152 -0.004463196 0.2899723 12.208807 7.499943 -0.002128601
-0.0041999817 0.025894165 1.7966499 1.1653671 -0.008579254 0.0049743652 0.0029029846 0.000831604
-0.0012397766 0.013626099 5.9284706 0.04839325 -0.003314972 4.0403137 13.246418 0.6892166
-0.0031166077 1.8011322 1.190342 -0.001991272 -0.0068244934 -0.011657715 -0.0008659363 0.05129242
3.158346 1.7832794 -0.004875183 -0.011779785 -0.0030593872 0.2082367 12.697975 0.70181274
1.3687363 -0.013168335 -0.004447937 1.7073975 3.2786179 -0.009536743 -0.0008163452 1.961029

conv1.depthwise.weight f4 [2, 1, 5, 5]
00000000: 4096 a73e 0ae1 de3e 8d5b 223e a21e 843d
00000010: ca0e 83bc 5fbd 0c3e 3cd0 423e 24b7 9e3e
00000020: fd8b a53e c80b 3fbc 27ea 453e 72e0 9a3e
00000030: 122c 9d3d ee72 b23e 3af3 093f 3aca a23c
00000040: 3cff 59bc 4282 a33d 4c45 59bc 41ed a53e
00000050: 679c 343e 530e ee3d d800 943e f9d4 863c
00000060: 5ec1 553e 8aef 6ebe 0002 93bd 1814 d4bd
00000070: ddd6 843a 1340 d73d c731 bcbe 9bf2 32be
00000080: dea8 72bd b2fa c1be cff9 5dbc a760 55bc
00000090: 5287 5ebe b1d3 e9bd 0f76 88be 1ea8 f5be
000000a0: 0b16 103e 3f55 52be 3abe cf3d 0402 a9bc
000000b0: 34be e3be 542a 86be c991 c6bd 0e95 393d
000000c0: 29fd 91bd 4f53 16be
0.3273182 0.43531066 0.15855236 0.06451155 -0.015998263 0.13744114 0.19024748 0.309991
0.32333365 -0.011660524 0.19327603 0.30249363 0.07674421 0.3485331 0.5388676 0.01987182
-0.0133054815 0.07983829 -0.013261151 0.32407573 0.17637788 0.11623826 0.28906894 0.016458975
0.20874545 -0.23333564 -0.07178116 -0.10355395 0.0010134835 0.10510268 -0.36756727 -0.17475359
-0.059243076 -0.37886578 -0.013548329 -0.013023532 -0.21731308 -0.1141733 -0.26652572 -0.47979826
0.14070909 -0.20540331 0.10143705 -0.020630844 -0.4448105 -0.2620417 -0.09695775 0.045308165
-0.071283646 -0.14680217

conv1.depthwise.activation_post_process.histogram f4 [2048]
00000000: 383c b53f 0a10 f83f 0c37 8c3f aa71 813f
00000010: db08 623f a5e4 0c3f fdb5 a63e fe93 cc3e
00000020: 36c8 c63e 3766 b73e dd4a e13e 779a e23e
00000030: 4d1f c33e fdc6 833e b7fa c53d 6136 823c
00000040: 63be 563a 232a 8a33 2c26 50b3 38e1 ddb4
00000050: dd6e 4eb5 aec3 13b4 37ca 08b5 c4ed 28b4
00000060: 7c32 24b5 32c8 1635 3986 2e3a 7b4c 293c
00000070: f2f1 763d 17d8 353e 951b 953e 7bbe 8b3e
00000080: 3cb5 123e 2a28 2d3d 2dff 063d 5fa8 e63d
00000090: 6da9 753e 46b4 963e 90dd 583e 56cc b33d
000000a0: 8c0a a23c e7c8 0c3b ce8b b438 79dc 1235
000000b0: 9a5d 59b4 bdb8 8334 95a3 4435 0ea7 95b3
000000c0: 5de9 2f36 b6bc a539 13e8 bd3b c4e9 253d
000000d0: 46d0 0c3e c2bc 833e 4a87 903e 611c 3f3e
000000e0: 041e ab3d 3faa 943d 33b3 233e e8a3 853e
000000f0: 6968 873e 42a6 2a3e f754 843d 59b9 733c
00000100: 4907 f93a 293b 6039 89ef ec3a e618 7d3c
00000110: 8ee0 8d3d 06ec 343e e7dd 893e b569 813e
00000120: ee73 173e ea78 5b3d be1c 3f3c f248 bb3a
00000130: 5354 b438 f91f 0b36 64b6 7135 0a3a 4035
00000140: 6f02 8235 c3bb 1638 a7ae 2d3a 7b51 cc3b
00000150: f98a 073d 2e40 d93d f9f9 593e 44db 8a3e
00000160: 4e8f 603e 0c8e e83d 7bfb 523d b106 8e3d
00000170: e426 193e 4f12 703e 4af9 7d3e 216e 333e
00000180: e3d8 a73d 1ccb 043d 1a90 473d 08aa 143e
00000190: 47b2 a03e a4c1 ed3e fb50 f23e 7dc2 a93e
000001a0: 936b 203e a0c3 4a3d 0e93 243c 1646 a13a
000001b0: 2207 a838 53f3 f435 6ecb 64b5 3343 f8b5
000001c0: 52b2 dc35 54e2 be37 14f4 a939 d8bd 2e3b
000001d0: b844 663c 0ac4 4a3d ecd2 f43d 17f5 4d3e
000001e0: 5789 733e 4fc7 4a3e 907f ec3d 2c5c 3e3d
000001f0: aba8 4d3c a77d b53f 9683 1340 e5c3 cc3f
00000200: 26ad 923f 74af 603f 3583 283f b44b 203f
00000210: 235c 173f eb85 ea3e 2d17 813e 9014 853d
00000220: 4b7b b23b dfca ed33 5793 68b5 e62b 7738
00000230: 7202 cd3a b5e4 7a3c 942a 983d f0b6 4a3e
00000240: c2d7 993e 0266 843e cdc5 f73d 5271 e53c
00000250: 3af5 353b 80c1 c13a 0f93 613c b19e 953d
00000260: 019a 613e dd1f ce3e 603c f43e f9e3 d33e
00000270: 84da ad3e f8fe b03e 9ba3 d13e 4fde e43e
00000280: f069 c93e 1d90 873e 805b 083e f036 493d
00000290: 7933 553c d701 513b b2ee 3c3c 5c17 803d
000002a0: 98b8 333e 0093 f63f 59cd f13f abd5 d53f
000002b0: f06a 893f bb55 593f ece4 3c3f 996c 3b3f
000002c0: af46 383f 3b9a 203f b0f7 f23e af9f c73e
000002d0: b919 ba3e ad26 953e b34f 813e 1c6c 8e3e
000002e0: 5c04 813e 3222 1a3e d7f9 693d 348f 7c3c
000002f0: 82af 413c d4d4 063d 9162 a83d 3b29 303e
00000300: 35af a23e 211e f13e 8148 da3f 923e 0040
00000310: 8ad3 f33f f2dd b53f 9b46 8f3f fe70 4b3f
00000320: 4b44 303f 17fe 4b3f fab8 6f3f dcf6 5f3f
00000330: 38b8 0e3f c789 9d3e 7b61 863e 0eec 853e
00000340: 4724 653e a863 623e 05f7 8d3e 7599 993e
00000350: 2a5b 893e 4833 983e 4408 db3e a2ce 0d3f
00000360: e050 163f a127 0c3f 0cbd 033f 3341 003f
00000370: fc88 e13e ddd9 b73e 2c5e a03e 79a0 833e
00000380: 3c58 4c3e 25ec 6b3e 65a8 9a3e fb76 893e
00000390: eb88 0f3e 0383 273d 033a 3f3c ae30 113d
000003a0: 6f33 f13d 9922 753e be6c ad3e cc96 cf3e
000003b0: 0dfa f33e d575 053f 252a 023f c5df 013f
000003c0: ba2c 0f3f 57dc 213f 84cb 363f d700 403f
000003d0: 700c 2d3f b151 133f dbed 083f 9969 f43e
000003e0: c53f b83e e672 7c3e 4862 283e a9f4 da3d
000003f0: f866 bb3d 4e5f 0f3e e178 e83e c856 2e40
1.4159002 1.9379895 1.0954299 1.0112813 0.8829476 0.55036384 0.3256072 0.3995666
0.38824624 0.3582017 0.4400243 0.44258472 0.38109818 0.25737754 0.09666961 0.01589507
0.0008191822 6.4337904e-08 -4.846349e-08 -4.1328326e-07 -7.690231e-07 -1.376163e-07 -5.095821e-07 -1.5732718e-07
-6.1168225e-07 5.6170677e-07 0.0006657574 0.010333176 0.06028933 0.17758213 0.29122606 0.27293763
0.14326948 0.04227463 0.0329582 0.11262583 0.23990412 0.29434413 0.2117827 0.08779208
0.01978042 0.0021482052 8.6091095e-05 5.471007e-07 -2.0243752e-07 2.4535066e-07 7.3253733e-07 -6.96874e-08
2.6212867e-06 0.00031611853 0.0057954877 0.04050614 0.13751325 0.25729948 0.28228217 0.1866317
0.083553344 0.07259034 0.15986328 0.26101613 0.26446846 0.16664985 0.06461518 0.014875733
0.0018999364 0.00021384344 0.0018076758 0.015447831 0.06927596 0.17668161 0.2692711 0.2527596
0.14790317 0.05358211 0.0116645675 0.0014288707 8.5987755e-05 2.0731225e-06 9.004491e-07 7.161003e-07
9.686463e-07 3.5937654e-05 0.00066254515 0.006235299 0.03309152 0.106079444 0.21286763 0.2712041
0.21929666 0.11355218 0.05150936 0.0693487 0.14956242 0.23444484 0.24802127 0.1752248
0.08195665 0.032420263 0.04872141 0.14517987 0.31386015 0.464368 0.47327408 0.33156195
0.15666036 0.04950297 0.010044826 0.0012304212 8.012193e-05 1.8250233e-06 -8.523265e-07 -1.8496997e-06
1.6443175e-06 2.2755157e-05 0.00032416044 0.0026663449 0.01405447 0.049503364 0.11954293 0.20113026
0.2378286 0.19802593 0.11547768 0.04647462 0.012552421 1.4178971 2.3049064 1.5997282
1.1459091 0.8776772 0.65825206 0.62615514 0.59124964 0.45805296 0.25212994 0.064980626
0.0054468266 1.10730745e-07 -8.664114e-07 5.8930273e-05 0.0015640988 0.015313317 0.07429996 0.19796348
0.30047423 0.25859076 0.120982744 0.028008137 0.0027764575 0.0014782399 0.013767972 0.073056586
0.22031404 0.40258685 0.47702312 0.41384867 0.33955777 0.34569526 0.40945134 0.44700858
0.39338636 0.26477137 0.13316154 0.049124658 0.01301276 0.0031891966 0.011531519 0.062544554
0.17550886 1.9263611 1.8890792 1.6705831 1.073576 0.8489644 0.7378681 0.7321258
0.71982855 0.62735337 0.47454596 0.38989016 0.3634775 0.2913107 0.25256118 0.27816856
0.25198638 0.15052107 0.05712303 0.015415002 0.0118216295 0.032917812 0.08221925 0.17203228
0.31774297 0.470933 1.7053376 2.003819 1.9048932 1.4208357 1.1193422 0.7946929
0.68854207 0.79684585 0.93641627 0.8748605 0.55749846 0.30769178 0.26246247 0.26156658
0.2237712 0.22108328 0.27727523 0.2999989 0.26827365 0.29726624 0.42779744 0.5539342
0.58717155 0.5474797 0.5146034 0.50099486 0.44049823 0.35908404 0.31321847 0.25708368
0.19955534 0.230393 0.302066 0.26848587 0.14017074 0.040896427 0.011671546 0.035446815
0.11777388 0.23938979 0.33872026 0.40544736 0.4765171 0.5213292 0.5084556 0.5073207
0.5592762 0.63226837 0.7140429 0.7500128 0.67597103 0.57546526 0.5348794 0.47736815
0.35986152 0.24653205 0.16443741 0.106911965 0.09150499 0.140012 0.45404723 2.7240467

conv1.pointwise.weight f4 [6, 2, 1, 1]
00000000: 3703 dcbe 996a 0f3f 53f2 853e 0349 40bf
00000010: 93a8 153f 3118 4b3f ef76 9e3e 41a9 043f
00000020: 360d 10bf 9434 043f 7b5f 5b3f d4f9 ed3e
-0.42971203 0.5602203 0.2616144 -0.7511141 0.5846035 0.7933379 0.30950114 0.5182076
-0.5627016 0.5164273 0.85692567 0.46479666

conv1.pointwise.activation_post_process.histogram f4 [2048]
00000000: 9035 f13f 4216 d13f 3a5c 803f cf49 583f
00000010: e5e7 0e3f 9003 b83e 4f38 c73e 420a ab3e
00000020: 1f45 a13e 8f32 bd3e 502d 753e b783 933d
00000030: 9653 a83d 7173 703e 8bc2 ae3e db29 873e
00000040: 53f3 4a3e 54ef 953e 94b6 ab3e fd35 663e
00000050: 4322 4b3e 36d3 b23e f718 fb3e 912e ff3e
00000060: 0910 d73e d79f bd3e c0b5 b53e 22dc 993e
00000070: b64f a83e 8082 033f d7c7 193f 4390 e33e
00000080: 8dd1 8e3e 4d27 893e 0fe2 913e 0738 6a3e
00000090: 7500 0040 81db dd3f 0049 9d3f 08c2 893f
000000a0: 3c39 413f 2cab 7e3e 72b5 063e da7f 053f
000000b0: 26bd 5a3f 4bf9 243f 6cfc e43e 40d1 f23e
000000c0: ed25 eb3e b186 ac3e 4cfe 8e3e 44ed b83e
000000d0: 8d16 b03e f37f 4b3e 1364 503e dad5 ae3e
000000e0: d886 9b3e f4e7 003e 758d bc3c 0d25 c13a
000000f0: e67b 0537 4941 9a36 bfcd 5038 3761 cd39
00000100: 7f0a 183b 4a64 253c 6a2c 063d f0ac a33d
00000110: 1ce8 173e 9a0f 663e 7ce1 a73e cdf1 f53e
00000120: 9dfc 163f cac5 0a3f f075 b83e 864d 223e
00000130: dfc5 1c3d 6161 873b 8b78 2e39 1b23 4939
00000140: 700c 9b3a 3fbf b03b b411 983c 4db9 483d
00000150: 2f94 cd3d d711 253e 3d06 533e b976 5f3e
00000160: d5e7 5f3e 2fd6 893e 59f5 cb3e c430 003f
00000170: 98f8 e13e e8bb 883e 7418 063e 0ceb ba3d
00000180: 81bd ec3d 13a6 233e cb0b 413e fff0 403e
00000190: 90d5 443e 9750 7c3e a0a7 9e3e 4818 903e
000001a0: 2339 293e df6e 763d c0b0 533c eb13 c13a
000001b0: e662 8d38 1ee1 8ab5 ac4c 4d37 9e22 013a
000001c0: 673e c43b 3c96 d23f 6035 f83f 4ba0 cb3f
000001d0: 094a 903f f5da 1c3f b38c e93e 3736 de3e
000001e0: 2d6f ac3e 9ae0 e73e dc89 193f 5641 fe3e
000001f0: c7d0 dd3e 3082 183f 3324 2f3f 0a73 ea3e
00000200: 0be9 4e3e 973e 2d3e ea83 ad3e 4deb 1d3f
00000210: 6a5e 453f 3c52 1e3f e4e5 aa3e 9e13 543e
00000220: f961 a33e b36a 163f 994a 583f dae1 6d3f
00000230: d65b 553f bbe9 243f 92d2 d73e eb3e 723e
00000240: da72 313e 92f4 663e 1e89 8c3e 57d1 2840
00000250: 2400 c43f d1ab 393f dacd 443f 892d f73e
00000260: a3c5 b63e 9248 3e3f 9b9c 673f 362f 203f
00000270: 74b3 de3e 85d1 0540 706f e23f 848d d53f
00000280: 2c1d af3f 6ec5 8a3f 4498 8a3f 2f13 7140
00000290: 5a93 fd3f 5845 ca3f b872 a73f 0e71 403f
000002a0: 412c 543f 0c96 8d3f 631d 8a3f c0d1 6a3f
000002b0: be46 623f fa6d 723f daca 873f 047b 8d3f
000002c0: 185b 853f 2f24 8c3f cf72 953f 1e72 843f
000002d0: 3b7d 7e3f 3fff aa3f 3c43 be3f 769e b03f
000002e0: d7ef a73f 22c8 9c3f 9200 803f 517c 3a3f
000002f0: e614 1e3f a79c 2b3f 9380 3e3f 48af 4e3f
00000300: e9ac 6e3f 4dfc 0b40 d008 8e40 89eb a640
00000310: b346 3140 303b 0040 4b26 ba3f 9334 fc3f
00000320: 5153 1d40 15e8 e33f aa27 2f3f 901b 853e
00000330: 1e77 993e 1510 243f 7aa1 7f3f 4558 743f
00000340: 9f88 463f 51d6 783f 5728 9f3f 9684 903f
00000350: ebdb 513f d0e9 1b3f 4f5a 023f 95e0 293f
00000360: af8e 4140 1d39 e03f f94f c33f 0a34 763f
00000370: bd58 273f 0489 623f 187d a23f 831a b83f
00000380: dbd6 d73f 121d d03f b75c 883f f414 2d3f
00000390: 4654 3f3f fbae 623f 0570 5f3f 49e0 813f
000003a0: 390e 943f 59f4 943f e05e 873f e1b8 523f
000003b0: f40c 383f bbae 603f 0293 933f 7fb4 b33f
000003c0: 768d c33f 5aaf b63f 83b4 943f 50a8 7e3f
000003d0: 7651 8e3f dbe0 a23f 4ce0 c83f 4053 fa3f
000003e0: 3a2c c83f dbeb b63f dde6 b23f 75e3 4040
000003f0: a29f 3b40 74fe 0f40 3011 ac3f 960b 343f
1.8844471 1.6334918 1.0028145 0.8448762 0.5582259 0.35940218 0.38910148 0.33406264
0.31498048 0.36952636 0.23943067 0.07202857 0.08219068 0.23481537 0.341328 0.2639912
0.19819383 0.29284155 0.33537734 0.22481532 0.19837289 0.34926766 0.49042484 0.49840215
0.4200442 0.3703601 0.35490227 0.3005076 0.32873315 0.51371 0.60070556 0.44446
0.2789425 0.26787797 0.28492782 0.22872935 2.000028 1.7332612 1.2287903 1.0762339
0.7547796 0.24869984 0.13155153 0.5214821 0.8544487 0.6444289 0.44723833 0.4742527
0.45927373 0.3369651 0.27928388 0.3611852 0.34392205 0.19873028 0.20350675 0.3414753
0.30376315 0.12588483 0.02301667 0.0014735773 7.956265e-06 4.597158e-06 4.978268e-05 0.00039173078
0.0023199616 0.010094712 0.0327572 0.079919696 0.14834636 0.22466889 0.32789218 0.48036042
0.5897921 0.5420805 0.3602748 0.15849885 0.038274642 0.0041314815 0.00016638839 0.00019181932
0.0011829268 0.005393892 0.018563129 0.04900484 0.100380294 0.16120087 0.20607848 0.21822633
0.2186578 0.26921222 0.39835623 0.5007441 0.44134974 0.2670586 0.13095266 0.09126863
0.115595825 0.15981321 0.18852155 0.18841933 0.19222093 0.24640118 0.30987263 0.28143525
0.16525702 0.06016433 0.012920558 0.0014730667 6.741825e-05 -1.0347319e-06 1.2236804e-05 0.0004926118
0.0059888843 1.6452098 1.9391289 1.5908293 1.1272594 0.612716 0.45615157 0.43400738
0.3367857 0.45288545 0.5997598 0.49659222 0.43323347 0.5957365 0.6841461 0.45790893
0.20206086 0.16918407 0.33889705 0.61687165 0.7709719 0.6184423 0.33378518 0.20710608
0.31910685 0.5875656 0.84488827 0.9292275 0.83343256 0.64419144 0.4215284 0.23656814
0.17328969 0.22554234 0.27448362 2.637777 1.5312543 0.72527796 0.76876605 0.48276928
0.3569766 0.74329484 0.90473336 0.6257204 0.43496287 2.090913 1.7690258 1.6683812
1.3680778 1.0841501 1.0827718 3.7667959 1.9810593 1.5802412 1.3081884 0.7517251
0.82880026 1.1061416 1.0790218 0.91726303 0.88389194 0.9469906 1.060878 1.1053166
1.0418425 1.0948542 1.1675662 1.0347326 0.99409837 1.3359145 1.4864268 1.3798358
1.3120068 1.2248576 1.0000174 0.7284594 0.6175064 0.6703591 0.7441494 0.8073621
0.9323259 2.1872742 4.4385757 5.216252 2.7699401 2.0036125 1.4542936 1.9703544
2.4582102 1.7805201 0.684199 0.2599759 0.29973692 0.6408704 0.9985577 0.9544719
0.7755222 0.9720202 1.2434186 1.1290462 0.81976193 0.60903645 0.5091905 0.6635831
3.0243337 1.751743 1.5258781 0.96173155 0.6536978 0.8849032 1.2694426 1.4383091
1.6862444 1.6258872 1.0653294 0.67610097 0.74737966 0.8854825 0.87280303 1.0146571
1.156684 1.1637069 1.0575829 0.8231335 0.71894765 0.8776662 1.1529238 1.4039458
1.5277545 1.4272263 1.1617588 0.99475574 1.111861 1.272487 1.569345 1.9556656
1.5638497 1.4290727 1.3976704 3.0138829 2.9316182 2.2499056 1.3442745 0.7033018

conv2.depthwise.weight f4 [6, 1, 5, 5]
00000000: 1e2d 98be 610c 2cbe d71e 2f3d cdec b53d
00000010: 0d8a 093f b658 4dbd af28 eebd 759e 5b3e
00000020: 7987 363e a63e d43e c3d2 83bd 2e61 7e3e
00000030: fbc5 903d cea9 603d 0324 093d 3723 adbe
00000040: 11cd 50be e5f5 f2bd fdd0 f43d 55bc 473e
00000050: 312f a1be 9637 48be 2491 edbd 1785 e8bd
00000060: 40a1 87be 65d0 183e 78bf 5b3e 87a8 ea3e
00000070: 1489 f63e f230 c43e 18b2 373e 2ed7 f2bc
00000080: 321a 7fbc 8263 413d 490f e43d 419e 6d3d
00000090: e9e3 993e 7a5a ce3d 7339 56be 6950 0d3d
000000a0: c5e9 03bc 90ee 313e b362 253d 02c5 5d3d
000000b0: f370 8abc 8ba4 0d3e a7ce 013e 41ca f43d
000000c0: 2148 22be b1a9 5e3e cb17 aebd db9e bdbd
000000d0: 716e bcbd 1270 3cbe af16 033d 56cf b53e
000000e0: 2f2c 753e 3f0d 2f3e d12f 003e a6b1 a43e
000000f0: a5d8 a53e 0b37 d13d 69a2 8c3e 03d2 783d
00000100: c7d4 343e ddf9 553e d4d6 56be 23f9 0a3e
00000110: 4705 d13c 8c28 eebd dbd7 ce3e 8f24 a43e
00000120: c28a 5f3e 876c ef3e f089 f93e e4fe 9f3e
00000130: 1136 883e 2f83 063d db43 32bd 06c1 2a3e
00000140: eae7 143e 45d4 323d 0048 943e be4b 6e3d
00000150: 2d5f a33e 3f53 293e e084 b83d 9801 813e
00000160: 61f3 8e3e 4a6e 083e 2171 4d3e 966e 303e
00000170: d2f3 2bbd a746 193e 2f76 ce3e 997c c83e
00000180: b98d 8e3e e6a7 bc3e 37a0 6b3e 0ae6 933e
00000190: 84cb 57bd 303b 4abe 1307 d0bd b7d5 e2bd
000001a0: 7195 8dbe dc06 9ebd 6b85 50bd 387f 453e
000001b0: 3643 12be 46aa 39be 8154 f5bd faf1 77bd
000001c0: ca2f 8c3c 4d0c b63d af33 b3bd 950a 4a3e
000001d0: fb4d 9b3d 073f b43e 10bf 553d 9a2c 29bd
000001e0: c983 50be ebb3 01be 5c37 c0bd a31a 003d
000001f0: 0c4e 47be 7bb6 963d d90b bcbd 4776 a5be
00000200: 6070 54be 4228 babe 5cca a7bd b310 86bd
00000210: 3b34 c2bd a494 01bd 33b9 2a3c d018 2c3d
00000220: 1a2f 0b3a e599 353e 1ce9 cdbc f9cf a03d
00000230: 0f6d 7c3e 27b3 9f3e be4c be3d 4b7f 123e
00000240: 92b1 03be 3889 953e 01bf 7dbe f4da a7be
00000250: 8419 21be b50f 60be
-0.29721922 -0.16801597 0.04275402 0.08883057 0.53726274 -0.05013343 -0.116288535 0.21447165
0.17825116 0.41454047 -0.06436684 0.24841759 0.07069012 0.05484944 0.03348161 -0.3381593
-0.20390727 -0.11863307 0.11953924 0.19505437 -0.31481317 -0.19552454 -0.11599949 -0.1135351
-0.2649021 0.14923246 0.21459758 0.458317 0.48151457 0.38318592 0.17939031 -0.029643621
-0.01557021 0.04721404 0.11135728 0.05801225 0.30056694 0.10075851 -0.20920353 0.034500513
-0.0080513405 0.1737616 0.04037733 0.05414296 -0.016899562 0.138323 0.12676488 0.11952639
-0.15847827 0.2174442 -0.08500632 -0.09258815 -0.092007525 -0.18402126 0.032004055 0.35509747
0.23942636 0.17094897 0.1251824 0.32166785 0.3239185 0.10215577 0.2746766 0.060747158
0.17659293 0.20896097 -0.20980388 0.135716 0.025515212 -0.116288275 0.4039906 0.32059142
0.21830276 0.46762487 0.4873805 0.31249154 0.2660375 0.03283995 -0.043521743 0.16675195
0.14541593 0.043659467 0.28961182 0.058177702 0.3190855 0.16535662 0.09009719 0.25196528
0.27920058 0.13323322 0.20062687 0.17229685 -0.041980572 0.14968358 0.40324542 0.3915756
0.278425 0.36846846 0.23010336 0.28886443 -0.052684322 -0.1974914 -0.10157599 -0.11075919
-0.27653077 -0.07716152 -0.050908487 0.19286811 -0.14283451 -0.1813136 -0.119790085 -0.0605335
0.017112631 0.08889065 -0.08750092 0.19730599 0.07583233 0.35204336 0.052184165 -0.0413023
-0.20362772 -0.1266629 -0.09385559 0.031275403 -0.19463366 0.07359024 -0.09181947 -0.323168
-0.20745993 -0.3635884 -0.08192894 -0.06546154 -0.094826184 -0.031635895 0.0104201315 0.04201585
0.0005309448 0.17734487 -0.02513557 0.07852168 0.24650978 0.3119137 0.09291981 0.14306371
-0.12860706 0.29206252 -0.24779893 -0.32784235 -0.1573239 -0.21880992

conv2.depthwise.activation_post_process.histogram f4 [2048]
00000000: 0000 803f 0000 0000 0000 0000 0000 0000
00000010: 0000 0000 0000 e43e 0068 743f 006c 093f
00000020: 0060 813d 4005 853e 6069 fa3e a054 6f3e
00000030: 0071 8e3c 0000 0000 48dc b33c e6a9 ab3e
00000040: 161d f03e bdef 2b3e 00d6 c03b 0000 0000
00000050: 0000 0000 0000 0000 2e5c bc3b 224f c93d
00000060: b92c dd3e fcea c13e 1a8c ae3d 0000 5034
00000070: 0000 5034 0000 5034 0000 5034 0000 5034
00000080: c0da 9b3a bb71 d03c a0ee 263e 7143 c63e
00000090: d7fb a03e 4f05 ca3d e3a5 243c 0080 0db4
000000a0: 0060 7eb4 00a0 b7b4 0000 ff32 0000 a2b3
000000b0: 00e0 41b4 0060 99b4 00c0 b833 0000 a4b2
000000c0: 0060 05b4 0040 76b4 0090 b3b4 0000 2033
000000d0: 00c0 91b3 00c0 39b4 0050 95b4 0000 c933
000000e0: 0000 46b2 0080 fab3 16e5 603c 4c23 d73d
000000f0: e3e0 953e 8614 ba3e 308d 473e 6aad 9d3d
00000100: 0cc9 493e 50d9 b43e a314 953e 8ff3 ce3d
00000110: 0a59 2a3c 174a 9a39 6e61 e63b a003 d83d
00000120: 156c a83e 8b70 b03f 6d2c 273e b066 883c
00000130: 2893 5539 00fd 383c 0caa b83f 4946 0c3f
00000140: 2eb6 bd3d 10f1 033f dbc0 0e3f a779 8a3e
00000150: fd99 9e3e 1f24 8d3e 639f dc3e 4012 d73e
00000160: 4d90 003e 0b0c 7c39 d747 b73b fc29 573d
00000170: 4d76 833e 1b82 1c3f 662f 283f 65c3 a83e
00000180: e623 9e3d 8585 183c 8398 043c 18d5 593d
00000190: f493 3d3e 84e7 a43e 2cad 923e 76c1 423e
000001a0: 072b 8a3e 41db bf3e 4f77 753e a0e7 843d
000001b0: c560 c63b aae6 b8b4 46a9 053a 69db ea3b
000001c0: 3ea0 293d 1320 043e 3292 743e 28ec 8b3e
000001d0: 9b29 483e 9bcc b13d e104 c03c e9e0 ab3b
000001e0: facb 373d c73d 553e 1e5e bc3e 5376 8e3e
000001f0: 646b b23d 000e 403c e1e7 2b3a 9b62 5537
00000200: 9c65 4b33 7c3b 7f35 17ee d535 6464 71b4
00000210: 28c7 6333 64c7 a634 ae7a 1734 52a2 c5b4
00000220: 2185 33b5 7c5c 83b5 b29d 3034 4ecf 0138
00000230: d092 bf3a 9266 b93c 0823 0f3e 3515 c73e
00000240: cfcb 133f 6eb3 073f ad4b c13e ead4 9b3e
00000250: bcaa 933e 840a 623e 86ea e63d 2a78 8c3d
00000260: f9bb 563e 303d 083f 8845 203f 6c2a c93e
00000270: dab7 1f3e 5803 3d3d a730 173d 6fa1 063e
00000280: 46af a03e 7991 ee3e 079d f13e ffd1 ad3e
00000290: 77b5 2f3e da2f 703d 2d27 533c 3561 203b
000002a0: 6311 3c3c 9762 883d 6f76 453e 74d6 993e
000002b0: ce1e 853e 5d37 023e 77c3 0f3d b4fa ad3b
000002c0: dbfd d739 106f 6f37 9b81 7535 b9f1 b235
000002d0: 34df 4c35 138e e535 d9b4 5b35 cb25 9eb4
000002e0: f0cb 98b5 b4a4 0ab5 81b0 1cb5 e728 9c36
000002f0: 09c6 003a f398 dc3b bf16 243d 2f08 043e
00000300: 7756 9f3f 39d1 903e 035b 4a3e ccef ac3f
00000310: cf57 353f 5976 733d 9260 f13d 292a 193f
00000320: 672d 513f b0ab 943e b8bc cf3e 9489 063f
00000330: 071a 7e3e 58dd 593e 5722 fa3e 590f 023f
00000340: e178 b73e a719 763e 2c0d ff3d 2508 1a3d
00000350: d105 cb3b 1476 d63b 8479 633d 3a55 533e
00000360: 889e be3e b7bc e03e cd8b 023f dee2 183f
00000370: b105 ff3e 5e97 7c3e 0c89 cc3d d143 403e
00000380: aeb5 be3e 3f20 bb3e b628 a83e faf6 f23e
00000390: a143 113f d30f b73f f61b 813e a28f 0e3f
000003a0: 2a7b d73f e0b1 553f f8f3 243f beae 763e
000003b0: 755f ca3d 333a be3e 3705 153f aa93 dc3e
000003c0: 35bc e13e bae8 473f 3c8d 783f e61f 353f
000003d0: be99 cb3e cea9 3f3e b714 b63d a6c2 ee3d
000003e0: 42ef 703e 2a61 ca3e 4d66 143f 8ddb 463f
000003f0: d0da 643f 6b98 483f 2316 0f3f e8ac 023f
1.0 0.0 0.0 0.0 0.0 0.4453125 0.9547119 0.5368042
0.06317139 0.25980568 0.4890852 0.23372126 0.017387867 0.0 0.021955624 0.3352806
0.4689719 0.16790672 0.005884886 0.0 0.0 0.0 0.0057482934 0.098295465
0.43198183 0.3787459 0.08522816 1.937151e-07 1.937151e-07 1.937151e-07 1.937151e-07 1.937151e-07
0.0011890754 0.025444856 0.16301966 0.3872333 0.3144214 0.09864294 0.010049316 -1.3178214e-07
-2.3690518e-07 -3.4202822e-07 2.9685907e-08 -7.543713e-08 -1.8056016e-07 -2.856832e-07 8.603092e-08 -1.9092113e-08
-1.2421515e-07 -2.2933818e-07 -3.3446122e-07 3.7252903e-08 -6.787013e-08 -1.7299317e-07 -2.781162e-07 9.359792e-08
-1.1525117e-08 -1.1664815e-07 0.013726493 0.10504779 0.29273137 0.36343783 0.19487453 0.07699092
0.197056 0.35322046 0.29117307 0.10105049 0.010397205 0.0002942837 0.0070306575 0.105475664
0.3289496 1.3784345 0.16325541 0.016650528 0.00020368083 0.011290789 1.4426894 0.54794747
0.09263264 0.5153971 0.55763024 0.27045938 0.3097686 0.2756662 0.43090352 0.4200611
0.12555046 0.00024037079 0.005593281 0.052530274 0.25676194 0.61136025 0.65697324 0.32961574
0.07721691 0.009309177 0.008093002 0.053181738 0.18513471 0.32207882 0.28647745 0.19019112
0.26985952 0.37471965 0.23971294 0.064894915 0.0060540163 -3.44405e-07 0.0005098771 0.007167269
0.041412584 0.1290286 0.23883894 0.2732861 0.19547121 0.086816035 0.023439826 0.0052453172
0.04487226 0.20824347 0.36790556 0.2782465 0.087118894 0.011722088 0.0006557685 1.2718748e-05
4.7357034e-08 9.5081464e-07 1.593903e-06 -2.2481396e-07 5.3033688e-08 3.1064985e-07 1.4107601e-07 -3.6812213e-07
-6.6876424e-07 -9.787177e-07 1.6448647e-07 3.0949064e-05 0.0014615897 0.022631917 0.13978207 0.38883367
0.5773286 0.5300816 0.3775305 0.30435878 0.28841197 0.22074324 0.112752005 0.06858857
0.20970143 0.53218365 0.62606096 0.39290178 0.15597478 0.046145767 0.036911633 0.1314752
0.31383723 0.46595362 0.47190115 0.33949277 0.17159067 0.058639385 0.012887758 0.0024472002
0.011478755 0.066594295 0.1928346 0.30046427 0.26000065 0.12716432 0.03509852 0.005309427
0.00041197133 1.4271369e-05 9.1458213e-07 1.3332384e-06 7.6320725e-07 1.7103179e-06 8.1847026e-07 -2.945729e-07
-1.1384236e-06 -5.164868e-07 -5.8371376e-07 4.653924e-06 0.0004912322 0.0067321 0.040060755 0.12893747
1.2448262 0.28284624 0.1976128 1.351068 0.7083711 0.059439037 0.117859975 0.59829956
0.81709903 0.29037237 0.40573668 0.5255368 0.24814616 0.21275842 0.48854324 0.5080467
0.3583441 0.24033223 0.12453684 0.037605423 0.0061957617 0.0065448377 0.05553581 0.2063798
0.37230325 0.43893978 0.5099457 0.5972117 0.4980903 0.24667117 0.09987077 0.1877587
0.37247986 0.3654804 0.3284356 0.47454053 0.5674382 1.4301704 0.25216645 0.55687916
1.6834462 0.8347454 0.64434767 0.24090096 0.09881488 0.37153777 0.5821108 0.4308141
0.44088903 0.7808949 0.97090507 0.707518 0.39765733 0.18717119 0.0889067 0.1165822
0.2352877 0.39527255 0.579686 0.7767876 0.8939638 0.7835757 0.5589315 0.51045084

conv2.pointwise.weight f4 [16, 6, 1, 1]
00000000: f9b8 443f f006 703d b702 213e 84c0 433e
00000010: 03f2 ffbd 3f44 c2bc d824 29be 5227 d5bc
00000020: 064f c83e 7761 a7be 6ad4 6cbe 7f7e 073d
00000030: 7521 473e 12db 063e bb0b 25bf 4f21 ebbc
00000040: 0dc1 efbe 8a05 9dbd 8f83 ee3e bed8 4dbf
00000050: 1c1b f8be 2fe4 943d de1c 3abe 3cd7 803e
00000060: 462a 08bf 7bcc 223e cbd1 9dbe 2a36 133e
00000070: d7b1 f43d b669 d9bd 262e 06bf 0446 eabe
00000080: 2b48 3abf d1e6 793e 75d6 92be 0ec0 7abe
00000090: d220 7c3e dcc2 2bbd bee9 10be 47dd 2f3e
000000a0: 82ce 0ebf 87a3 913d dc46 79bb 9ece 19be
000000b0: cccc 083f be03 7c3e bc54 5a3e 71c5 d83e
000000c0: 91bf fd3e bef9 193e 92fa f13e b2e0 1fbd
000000d0: bd5d 19be 1f84 13bd 725f e8be fb75 49be
000000e0: 5b01 05bf 73b9 843e e9f4 913c 6c78 283d
000000f0: 286c 873d 0a56 94be cd70 b33c b209 513d
00000100: b520 9b3e 0e88 173f cb0b c5be ef88 05bd
00000110: 7651 bbbe 1b8f e73e 8677 b6be 7a88 6ebc
00000120: aa57 003f 1230 f8be 10aa 9bbd 560e c83e
00000130: ef5a 1ebe 102e 30bc e90c 1abf 6b09 a93e
00000140: e0c2 4abe 6ed8 463d c6de a2bb 4c7b eabc
00000150: 686e 913e 1ef0 a63e 5e1d 4d3c 7d08 213e
00000160: fda9 e43d 46e4 cbbe eacc e8bd c4c4 dd3e
00000170: 0158 a3bf 0f05 b9be 2a16 60bd 7171 04bf
0.76844746 0.058600366 0.15723692 0.19116408 -0.12497332 -0.023714183 -0.16517961 -0.026019726
0.3912279 -0.32691547 -0.23127905 0.03307962 0.19446357 0.13169506 -0.64471024 -0.028702406
-0.46826974 -0.07667072 0.46584746 -0.8040885 -0.48458183 0.07270085 -0.18175074 0.2516421
-0.53189504 0.15898316 -0.30824122 0.1437613 0.11947983 -0.10615866 -0.52414167 -0.45756543
-0.7276637 0.24404456 -0.28679243 -0.24487326 0.24621895 -0.04193388 -0.14151666 0.17174254
-0.55783856 0.071112685 -0.003803662 -0.15020224 0.53437495 0.24610803 0.21321386 0.42338136
0.49560216 0.15036675 0.47261482 -0.039032646 -0.14977165 -0.036014672 -0.4538532 -0.19673912
-0.51955193 0.25922737 0.017816978 0.04113047 0.06612426 -0.28971893 0.021904374 0.051034637
0.3029839 0.5919198 -0.3848556 -0.032601293 -0.36585587 0.45226368 -0.35638064 -0.014558906
0.50133765 -0.48474175 -0.07600796 0.39073437 -0.15464376 -0.01075317 -0.6017595 0.33014998
-0.19800901 0.048546247 -0.0049704043 -0.028623246 0.28404546 0.3260507 0.012519209 0.15725894
0.11165235 -0.39822596 -0.11367209 0.43314183 -1.2761232 -0.36136672 -0.054708637 -0.517356

conv2.pointwise.activation_post_process.histogram f4 [2048]
00000000: 0000 bd3f 0080 533f 782c 3e3f 8891 263f
00000010: 2095 853e 0077 2f3d 0000 0000 0000 0000
00000020: 0000 0000 0000 0000 0000 0000 307e 8d3e
00000030: 60d7 e33e ba91 6b3e bd0a c73d e67c b33e
00000040: 4f9b d03e 7011 2a3e 80fe d43c 801d ae3a
00000050: 0000 a0b3 0000 a0b3 7b71 c33c 1c00 413e
00000060: c51c de3e 7696 913e 22f1 833d 42b1 a23b
00000070: c4c1 e938 00d8 8cb4 4c8d 323c f101 d83d
00000080: 91e3 af3e 3945 f23e 6ba0 c93e 0f16 c43e
00000090: 5d62 6d3e f330 603d df36 6a3b 8005 0eb4
000000a0: 58c7 83b4 00d4 23b3 e070 acb3 0059 43b4
000000b0: 582b ecb4 0074 9632 e0d2 9bb3 403f abb4
000000c0: 500f 2d34 0080 b133 706c 23b4 0076 07b4
000000d0: b05c 4fb4 4090 dfb4 207d ea33 0002 6733
000000e0: b09a 29b4 c034 0db5 70e8 0bb4 806d b1b4
000000f0: b0aa 61b4 c02b 90b4 80f4 a832 40a4 aeb4
00000100: a0e6 f833 005c 83b3 38d6 d3b4 00f0 9433
00000110: 8016 d1b3 d0b5 ddb4 c0ad 8b33 8087 c1b3
00000120: c09d cdb4 40df e433 8009 1fb3 c0e8 a4b4
00000130: 4042 5034 c0f1 8433 5686 8e3f 1ae4 a83f
00000140: 856f 913f 1c98 dc3e b814 11b5 00ec 54b3
00000150: c0ff 3934 b0ae 8034 d193 0c3c 6823 c13d
00000160: 52ca a13e c49d d43e 7671 883e 4b06 943e
00000170: 265b c93f ba06 933f d70a 673f 1de6 a23f
00000180: 14fc ed3e 7f83 883e c4ab 053e 2883 a33e
00000190: 4670 cc3f e05a 893f 589a 563f 365b 8c3f
000001a0: 71e4 283f 079b 0b3f 3abb 1d3f 0003 503f
000001b0: 452e 473f c714 f13e 60a1 bb3e 9b72 d23e
000001c0: 41c3 a63e 9747 cc3e 6e78 393f a8fd 643f
000001d0: 7d73 243f f877 773e 76ff 1b3d d0c7 863a
000001e0: 13ae 193c bce9 403e 0194 343f 1f0d 883f
000001f0: 7030 403f dab1 7e3e 381d 093d 5538 e13f
00000200: b821 a43f 1870 4d3f c43a 4c3f 2d9d 4a3f
00000210: ecee e33e 8128 e63d 0f03 213c 6522 7b3e
00000220: 311e e23e 14d7 813e add9 cf3d e6f9 a43e
00000230: b49e d33e d65c 403e cd3f 063d a194 e23e
00000240: 3ac8 e93e 122b fb3d 17da 283e 3475 d03e
00000250: eadc 9f3e 98ea b13d 0d1b 0e3c 3db4 8839
00000260: 4857 4435 0f8b 1d3c d194 c03d a244 9e3e
00000270: 1056 cf3e 1a62 793e 82bd 8a3e 60a5 bb3e
00000280: 1854 713e b875 793d 21cb 993b 641b 9035
00000290: 7ace e3b4 5fe6 32b6 291e 4435 a85e 0935
000002a0: 9aa6 cb34 015d 8635 2dd5 4336 f12b f9b5
000002b0: 0569 6ab6 bb3a 93b5 df35 533a f4b3 7c3c
000002c0: 3bbf c83d 521c 873e 07bf ad3e b57c 733e
000002d0: 1333 3b3e 74b5 8e3e 9e38 a23e d251 483e
000002e0: 514c 7c3d 573f 0f3c b48c ca39 e0bf 3d36
000002f0: 9a04 60b4 86b8 72b4 c1f0 593a ec27 813c
00000300: 3fc8 d53d 6220 aa3e ec57 123f 95d1 0e3f
00000310: 7dd6 9d3e a164 c03d 8c87 683c 45e2 4f3a
00000320: 9707 3136 6aaf e3b3 c2c1 5233 ac34 12b4
00000330: 3d50 08b4 1ca0 5735 9d58 4436 6a50 feb4
00000340: 5bf6 9b35 0f7c 0a36 da42 29b5 69d2 9135
00000350: 2c04 8535 68a0 0939 99ab b03b 2772 5e3d
00000360: ceff 633e 5cc5 ee3e 3d69 103f 2023 f93e
00000370: 843d 1b3f 8ca5 153f a6c6 103c 0ee2 2b3a
00000380: b7bd 7137 04a0 6fb5 62e5 80b5 6a6f 8eb5
00000390: 9143 99b5 f01d 093a c2d0 073c 4910 4d3d
000003a0: b271 1d3e 4a0b ce3e ab78 453f 31bb 1c3f
000003b0: ba26 743e 0539 973e 6c56 e43f ff77 cb3f
000003c0: 71b0 a23f 6d55 873f 1662 163f 48bf 2d3e
000003d0: f43d 083c af05 b539 f483 5c34 9da8 f13d
000003e0: d161 b93e 57bb b83e b301 1a3e e4cb e13e
000003f0: f8f5 663f 8850 0c3f 17b1 ef3d 48f6 aa3d
1.4765625 0.8261719 0.74286604 0.65065813 0.26090336 0.042838097 0.0 0.0
0.0 0.0 0.0 0.27635336 0.44500256 0.23004809 0.09718845 0.35056227
0.4074349 0.16608214 0.026000261 0.0013283938 -7.4505806e-08 -7.4505806e-08 0.023857823 0.18847698
0.43381324 0.28435105 0.06442477 0.0049649784 0.000111463974 -2.6234193e-07 0.010897946 0.10547245
0.34353307 0.47318438 0.39380202 0.3829808 0.23182054 0.05473418 0.0035738272 -1.3226781e-07
-2.4545693e-07 -3.8144208e-08 -8.029906e-08 -1.8193168e-07 -4.3989962e-07 1.7515049e-08 -7.256108e-08 -3.1897252e-07
1.6117451e-07 8.265488e-08 -1.5220007e-07 -1.2615783e-07 -1.9312097e-07 -4.1641943e-07 1.0919234e-07 5.3785698e-08
-1.5795626e-07 -5.2603355e-07 -1.3029944e-07 -3.304849e-07 -2.1016854e-07 -2.6853922e-07 1.966896e-08 -3.2529533e-07
1.15903504e-07 -6.1168976e-08 -3.9457677e-07 6.935443e-08 -9.7364136e-08 -4.1296744e-07 6.504297e-08 -9.01191e-08
-3.8299004e-07 1.0657686e-07 -3.7028713e-08 -3.0716728e-07 1.9395611e-07 6.190703e-08 1.1134746 1.3194611
1.1362158 0.430848 -5.404686e-07 -4.9574737e-08 1.7322509e-07 2.396896e-07 0.008580164 0.09430581
0.3159967 0.41526616 0.26649064 0.2891105 1.5730941 1.1486428 0.90250915 1.2726475
0.46481383 0.26662824 0.13053805 0.31936002 1.5971763 1.0730858 0.8382926 1.0965335
0.65973574 0.5453343 0.6161381 0.8125458 0.77804977 0.47086164 0.36646557 0.41103062
0.32570842 0.3989837 0.72449386 0.8944955 0.6423872 0.24166858 0.038085423 0.0010282937
0.009379881 0.18839163 0.70538336 1.0629004 0.7507391 0.24872532 0.03347513 1.7595316
1.282279 0.80249166 0.7977717 0.7914608 0.4451822 0.11238194 0.009827389 0.24524839
0.4416366 0.25359404 0.1014894 0.32221907 0.41332018 0.18785414 0.03277569 0.4425402
0.45660573 0.122640744 0.16489445 0.4071442 0.31223232 0.08687323 0.008673442 0.0002607423
7.31427e-07 0.009615674 0.094033845 0.30911738 0.40495348 0.24353829 0.27097708 0.3664961
0.23567235 0.06090328 0.0046934043 1.0736808e-06 -4.2432276e-07 -2.665816e-06 7.305958e-07 5.117422e-07
3.7932915e-07 1.0010846e-06 2.918135e-06 -1.8564734e-06 -3.4929847e-06 -1.0969446e-06 0.00080570386 0.015423764
0.09802099 0.26388794 0.33934805 0.2377804 0.18281202 0.27872813 0.3168382 0.19562462
0.06159622 0.008743129 0.00038633274 2.827488e-06 -2.08633e-07 -2.2605136e-07 0.0008313768 0.015766107
0.104385845 0.3322783 0.5716541 0.55788547 0.30827704 0.093941934 0.014192473 0.000793014
2.6379473e-06 -1.0602419e-07 4.9070657e-08 -1.3616472e-07 -1.2695178e-07 8.032673e-07 2.9257856e-06 -4.7369696e-07
1.1620099e-06 2.0635814e-06 -6.305469e-07 1.0864579e-06 9.910486e-07 0.00013125094 0.00539155 0.054308083
0.2226555 0.46634948 0.5641058 0.4865961 0.6064074 0.5845573 0.008836424 0.0006556817
1.4408891e-05 -8.926729e-07 -9.603502e-07 -1.061225e-06 -1.1419053e-06 0.0005230596 0.008289518 0.05006436
0.15375403 0.40242988 0.7713725 0.6122313 0.23842898 0.2953569 1.7838874 1.5895995
1.2710096 1.0572945 0.5874342 0.169675 0.008315552 0.00034527245 2.0537101e-07 0.117997386
0.3620744 0.3608043 0.1503971 0.4410087 0.9021907 0.5481038 0.11703699 0.08347756

conv3.depthwise.weight f4 [16, 1, 5, 5]
00000000: 6ca0 16be 1218 f43d 94bd e23c ea1b ca3b
00000010: 009e e7bd d875 b13d 34bb fe3d ce25 6ebe
00000020: 21c6 3bbc 5ff1 34be af21 8dbe 62f0 4cbe
00000030: ff4e 3c3d 0847 373d be21 9abe 5476 b2bc
00000040: 28be c1be 71e0 8ebd 3377 6b3e b7fb 6f3d
00000050: 1298 193e 1d19 1dbe d4af ae3e 324c b13e
00000060: 44cc 6a3e 4159 1cbe 92bf 6cbd 2f43 dbbd
00000070: e500 b8bc 6363 15be 5476 9b3b 9ac6 14be
00000080: c983 8fbc e9fb 42bd dc1c fabc 6259 593d
00000090: b137 4dbe 9346 6bbd 3317 8dbd 762e 553d
000000a0: eef9 6cbe ee4c 46be 18f0 53be 9a26 b63b
000000b0: 5bd9 af3d c1b3 63be 901f 7bbe 185e fcbc
000000c0: 2fed ecbd d725 4ebd 81e5 b3be 72cf b7be
000000d0: 7b53 01be 2b00 5fbd 568c bcbd 2ec8 893c
000000e0: d121 dd3a e371 75bc 2bca c3bb 01be f8bd
000000f0: 8215 4b3d 441a 1c3d 22e0 103e 005d 4f3e
00000100: 347a 923e 907f 223c 132d 1dbd ae10 bdbd
00000110: 6644 fe3d 6198 a43d f2c4 84be fae2 dcbd
00000120: 2cfb 853e 0aa2 783d 838f 9a3e 1173 73be
00000130: c21f 48be 78ea e03d 6667 063e e837 abbe
00000140: 46ba 9cbd 0875 73bd 6dd1 e4bc c72d 2a3d
00000150: 9d9e 3cbe 4b57 a13e 74eb ebbd ee8d 9a3c
00000160: 791c 0fbb 727d 23be 13a4 273e b62c 253e
00000170: 09a7 57be 2f3f 58be f3fc a3bd 04cc bc3d
00000180: eea6 9b3e 21a5 5abd d798 293e c249 913d
00000190: 6597 9dbc 7d0d 1a3e 2c9d 753e f42c d1bb
000001a0: 2561 5abe 3305 943d 819c 703e ddb4 8c3e
000001b0: 53f6 c53e 704b d73e 400a b1bc 2801 2a3e
000001c0: db1b 8d3d aec5 3bbd 06b6 b2be 3168 47bd
000001d0: 2242 5abe 10ab ad3c 801e cdbd a631 4abd
000001e0: de7b 023e 0bbc acbd 1810 b33e b68d 87bd
000001f0: 2c82 31be 863d 80be b957 debd ee82 adbd
00000200: 7d65 3a3d 66c4 35bd ae18 74be 5471 8e3d
00000210: 2b25 29be 78f5 f83d d224 9f3d cd60 b53c
00000220: beab b73d 7e9a 073e 7c6a d43d a5fa 58bc
00000230: 7710 0c3e 18b9 babd 4b2b 5a3d cde6 74bd
00000240: 2763 41be b821 063d 1590 5f3e 44de 3f3e
00000250: 44ee 313d f29b 3ebe e05e 383d 4e75 083e
00000260: 0cfc 10be 60b3 8abd 8378 4abd 46fd b7bd
00000270: 939a 333e e65b b53d 8254 bebd 3794 a8be
00000280: d60d c03d 1de4 573e d85f 25be ebd1 51be
00000290: 6d28 33be 0dae 3fbe 9ba7 163e 9641 5dbd
000002a0: 4e52 693d 95cd 95bc 5430 3b3e 7d4f 85bc
000002b0: a74d fc3d 4110 083e 659a 0c3e da0c 433e
000002c0: 02ff 763e f854 f13d e0a4 07bc 7994 6d3d
000002d0: c563 8cbd b80d ffbc 7add 703d 1303 2fbd
000002e0: 9568 61bd aabf 8c3e f158 3c3e 27a4 2d3e
000002f0: d7b5 ab3d 841a aebc e723 76bd 9def 8abe
00000300: e15a 5d3d a4bb 28bc a4d6 6fbd 1e0a 273e
00000310: e1d5 6cbe e9fc 23be 5add d03b 6150 a73e
00000320: bc09 d33d 75fc 30bd 9cc7 183e 0ef6 253e
00000330: d9c5 04be 6453 6f3e 8464 3a3e 0c78 2c3d
00000340: d255 043e bff9 5d3e 0f8d 28bb 2b64 52bd
00000350: e465 1ebe dcfc 1f3d da5f 85be 2b38 043d
00000360: b19c 90bd a0bc 8bbd ed07 993c 5a19 61be
00000370: bf09 91bc 1f01 863e 04bb 1abd 6196 89be
00000380: 61e1 2abe d778 633e c558 713e 0033 0e3e
00000390: 74b9 073c 0c53 d0bd f633 1d3d ab21 bc3d
000003a0: befa 0f3d ee68 ff3c d810 0dbe aac7 793e
000003b0: a352 4e3e d584 b23e d8bd 423e 06e4 46bc
000003c0: c0bb da3d f0cf 9fbd 7edb 5c3b bc23 113e
000003d0: 2080 77be 55f4 16bd 63f0 babe a7db 45be
000003e0: 333f 37bd e242 93be a680 78be 3d25 62be
000003f0: 46d1 b1bd 686b 2abe e4b6 75be 0a13 3abe
-0.14709634 0.119186535 0.027678289 0.0061678784 -0.11309433 0.08665055 0.1243805 -0.23256609
-0.011460812 -0.17670201 -0.2756476 -0.20013574 0.045973774 0.044745475 -0.30103868 -0.021784939
-0.3784039 -0.069764026 0.2299469 0.058589663 0.14999416 -0.15341611 0.3411852 0.34628445
0.22929484 -0.15268423 -0.057799883 -0.10706174 -0.022461364 -0.14588694 0.0047443304 -0.14528885
-0.017518895 -0.04760352 -0.03053134 0.053063758 -0.20040776 -0.05744035 -0.068891905 0.05204626
-0.23142216 -0.19365284 -0.20697057 0.005558801 0.08586379 -0.2223654 -0.24523759 -0.030806586
-0.11568677 -0.050329056 -0.35136035 -0.35900456 -0.12629502 -0.05444352 -0.092064545 0.016819086
0.001687104 -0.014980766 -0.005975028 -0.12145615 0.04958106 0.038110986 0.14148 0.2025032
0.2860886 0.009918109 -0.038373064 -0.09231697 0.1241539 0.080368765 -0.25931507 -0.1078548
0.2616819 0.060701407 0.30187616 -0.23774363 -0.19543365 0.10982221 0.13125381 -0.3344109
-0.07652716 -0.05943778 -0.027931893 0.041547563 -0.18419881 0.31511912 -0.115195185 0.018866505
-0.002183704 -0.15965822 0.16371183 0.16130337 -0.21059813 -0.21117853 -0.080072306 0.092186004
0.30400795 -0.053380135 0.1656221 0.07094146 -0.01923723 0.15044208 0.23985738 -0.0063835327
-0.2132612 0.07227554 0.23497202 0.27481738 0.38664493 0.42049742 -0.021611333 0.16602004
0.06890079 -0.04584282 -0.34904498 -0.04868335 -0.2131429 0.021199733 -0.10015583 -0.049363755
0.12742564 -0.08434304 0.34973216 -0.06618826 -0.17334813 -0.2504694 -0.108565755 -0.084722385
0.045506943 -0.044376753 -0.2383754 0.069552094 -0.16518085 0.121561944 0.07770695 0.022140885
0.08968304 0.13242528 0.10371873 -0.013243352 0.13678156 -0.09117335 0.053263944 -0.05979042
-0.1888548 0.032747 0.21832307 0.18737131 0.04344012 -0.18614176 0.045012355 0.13325998
-0.14158648 -0.06772494 -0.049431335 -0.08983855 0.17539434 0.08855419 -0.09293462 -0.3292558
0.09377639 0.21083112 -0.16149843 -0.20490234 -0.1749589 -0.18718739 0.14712374 -0.054017626
0.056963257 -0.018286506 0.18280154 -0.016273255 0.123194985 0.1328745 0.13730772 0.19047871
0.24120715 0.11783785 -0.008279055 0.058002923 -0.06854967 -0.031134471 0.058804967 -0.04272754
-0.055031378 0.27489978 0.18393303 0.1695715 0.083842926 -0.021252878 -0.060092833 -0.27135935
0.054041747 -0.010298643 -0.058554307 0.16312453 -0.23128463 -0.16014446 0.0063740434 0.32678512
0.10304591 -0.04320951 0.14919895 0.16207144 -0.12966098 0.23371655 0.18202406 0.042106673
0.12923363 0.21677302 -0.0025718843 -0.05136506 -0.15468556 0.039059505 -0.2604969 0.03228013
-0.070611365 -0.06823087 0.018680537 -0.21982327 -0.017704843 0.2617273 -0.03777601 -0.26872543
-0.16687538 0.22214065 0.23569019 0.13886642 0.008283962 -0.1017209 0.038379632 0.09186109
0.035151236 0.031177964 -0.13775957 0.24392572 0.20148711 0.34866968 0.19017732 -0.012139326
0.10680342 -0.07803333 0.0033700163 0.14173788 -0.2416997 -0.036854107 -0.36511526 -0.19322072
-0.044738006 -0.28761965 -0.24267825 -0.22084518 -0.08682494 -0.16642535 -0.23995548 -0.18171325
