experiments/exp010/checkpoint.pth (torch, 249442 bytes, 33 tensors)

quant.activation_post_process.histogram f4 [2048]
309051.88 113.453094 929.9282 3922.018 4646.5967 4118.9453 3003.7908 11284.098
2075.6729 619.47235 5434.824 3002.1362 1183.0455 843.1567 4360.7007 2896.7974
6022.555 1487.0321 58.337597 75.162476 771.3925 4065.1838 2310.159 141.47728
167.32265 65.11974 42.73637 332.0307 533.4728 1142.1643 132.38133 115.90781
4308.1284 1791.3436 10.194713 194.81451 659.544 191.64197 125.62146 34.47301
24.082531 55.559555 129.47865 894.0071 521.01855 79.96182 4.6829653 17.312788
446.9618 1403.3251 312.8588 215.67175 30.106527 40.32976 417.71848 123.30718
11.310095 65.0953 180.91432 42.499527 22.279833 17.86949 3.360209 2.163381
93.89925 2065.615 282.66406 1.240273 0.767259 7.279174 7.3097963 12.053901
55.42539 51.55314 5.2072387 18.59872 116.58955 75.45222 2.2083416 10.577626
54.804592 144.60507 392.17038 27.952911 0.6216852 3.0391705 10.526209 151.41222
19.576336 1.5202405 2.2487137 2.5239377 6.2053113 5.54302 29.61276 18.201645
1.2489719 49.757294 327.7005 112.79812 5.2995353 9.675493 29.749289 4.4793167
2.8213997 1.662264 2.4264436 2.0135949 19.211119 65.364456 10.649214 3.8090522
0.65619665 0.024999976 88.6032 131.86386 13.290064 7.158531 0.86275554 7.5415072
46.313026 5.936706 1.9784588 8.198657 14.141905 2.8587997 0.9405143 3.7336087
0.5226897 0.8240011 48.40991 244.13443 33.32653 0.7080544 1.1834581 0.65120965
1.0146663 2.0810633 5.497669 2.9937873 0.28224283 1.8262291 20.775513 3.4040332
1.1720979 5.63369 4.8538017 59.074154 40.017868 1.2764713 -0.00456433 0.12753218
5.710936 27.945314 5.234418 -0.0026651025 0.0024640858 0.27332714 1.0522571 1.6505271
10.773071 1.2252518 1.5407858 25.720879 67.247894 7.496255 0.23828523 4.3816442
1.3940408 0.9223677 0.892322 0.1474523 -0.013687953 0.025529653 4.831014 16.325262
0.7979345 -0.015204757 -0.024387762 0.0003659129 58.621124 7.2048116 6.13867 0.98915136
0.5312783 4.3016615 6.7303715 0.44877845 0.12157436 1.5454898 1.3428364 0.040788174
1.0563622 0.83962953 0.078147665 0.98059726 19.115755 67.56518 4.2611504 0.44125575
0.5172002 0.12446365 0.6254885 0.8575509 1.3289986 0.20261228 0.010862723 1.1565495
7.6890235 0.16987064 0.032803297 1.9775666 5.6846676 29.465128 8.497802 0.34459764
-0.0015782863 0.432426 4.5190473 3.9063194 0.15001325 -0.0024115443 0.46830037 1.3902159
1.0105766 0.7965455 2.0894632 0.28831792 0.16928877 5.995109 18.606598 0.2569377
0.14196673 0.51226634 0.43203318 0.7610841 0.12267393 -0.008732259 -0.019731134 0.17599256
4.0627317 3.6004882 0.14430834 -0.01827076 0.05026901 1.5835481 13.359387 3.912083
1.034481 0.039745808 0.3563679 2.3234878 2.163972 0.1779384 0.22252324 1.5983303
00000000: 7ce7 9648 fce7 e242 687b 6844 4a20 7545
00000010: c634 9145 90b7 8045 a7bc 3b45 6450 3046
00000020: c4ba 0145 3bde 1a44 98d6 a945 2ea2 3b45
00000030: 75e1 9344 07ca 5244 9b45 8845 c20c 3545
00000040: 7134 bc45 07e1 b944 b359 6942 3053 9642
00000050: 1fd9 4044 f112 7e45 8b62 1045 2f7a 0d43
00000060: 9952 2743 4f3d 8242 0bf2 2a42 ee03 a643
00000070: 425e 0544 42c5 8e44 9f61 0443 ccd0 e742
00000080: 07a1 8645 ffea df44 8b1d 2341 84d0 4243
00000090: d1e2 2444 58a4 3f43 303e fb42 5de4 0942
000000a0: 06a9 c041 fc3c 5e42 897a 0143 7480 5f44
000000b0: 3041 0244 74ec 9f42 dada 9540 9780 8a41
000000c0: 1c7b df43 676a af44 ed6d 9c43 f8ab 5743
000000d0: 2bda f041 ad51 2142 f7db d043 479d f642
000000e0: 26f6 3441 cb30 8242 11ea 3443 84ff 2942
000000f0: 193d b241 b7f4 8e41 aa0d 5740 d674 0a40
00000100: 6acc bb42 d719 0145 0055 8d43 44c1 9e3f
00000110: 166b 443f feee e840 dae9 e940 c7dc 4041
00000120: 99b3 5d42 6a36 4e42 b3a1 a640 2eca 9441
00000130: d92d e942 89e7 9642 7855 0d40 f53d 2941
00000140: e737 5b42 e69a 1043 cf15 c443 909f df41
00000150: c326 1f3f c581 4240 5a6b 2841 8769 1743
00000160: 569c 9c41 3e97 c23f edea 0f40 3288 2140
00000170: e991 c640 6b60 b140 efe6 ec41 f89c 9141
00000180: 50de 9f3f 7807 4742 aad9 a343 a398 e142
00000190: cb95 a940 d2ce 1a41 8bfe ed41 9056 8f40
000001a0: d091 3440 11c5 d43f da4a 1b40 bdde 0040
000001b0: 5fb0 9941 9aba 8242 2e63 2a41 83c7 7340
000001c0: 81fc 273f c0cc cc3c d734 b142 26dd 0343
000001d0: 1aa4 5441 b012 e540 8cdd 5c3f 0754 f140
000001e0: 8a40 3942 7ff9 bd40 233e fd3f b32d 0341
000001f0: 3e45 6241 93f6 3640 8cc5 703f 72f3 6e40
00000200: fece 053f bcf1 523f bfa3 4142 6a22 7443
00000210: 5e4e 0542 0e43 353f 8e7b 973f adb5 263f
00000220: 96e0 813f 2430 0540 e8ec af40 369a 3f40
00000230: 2282 903e e0c1 e93f 4034 a641 aedb 5940
00000240: 4e07 963f 3047 b440 5852 9b40 ef4b 6c42
00000250: 4c12 2042 6963 a33f 6090 95bb cc97 023e
00000260: fdbf b640 0190 df41 5a80 a740 00a9 2ebb
00000270: 807c 213b 89f1 8b3e 5cb0 863f 7944 d33f
00000280: 805e 2c41 0dd5 9c3f 7838 c53f 5cc4 cd41
00000290: ec7e 8642 52e1 ef40 0b01 743e 6e36 8c40
000002a0: ee6f b23f 4a20 6c3f 376f 643f bcfd 163e
000002b0: 7043 60bc 9023 d13c ab97 9a40 239a 8241
000002c0: 6f45 4c3f 601d 79bc d8c8 c7bc 00d8 bf39
000002d0: 087c 6a42 d18d e640 fc6f c440 0639 7d3f
000002e0: db01 083f 36a7 8940 345f d740 4ac6 e53e
000002f0: fafb f83d 9cd2 c53f 10e2 ab3f 8011 273d
00000300: e036 873f f6f1 563f e20b a03d 6c08 7b3f
00000310: 11ed 9841 5f21 8742 585b 8840 46ec e13e
00000320: 3b67 043f cce6 fe3d 0420 203f 7588 5b3f
00000330: a01c aa3f 9879 4f3e 90f9 313c d009 943f
00000340: 7b0c f640 92f2 2d3e c05c 063d e720 fd3f
00000350: cce8 b540 95b8 eb41 fff6 0741 1a6f b03e
00000360: 80de ceba f166 dd3e 099c 9040 2301 7a40
00000370: 139d 193e 000b 1ebb 11c5 ef3e 98f2 b13f
00000380: 935a 813f 68ea 4b3f c4b9 0540 689e 933e
00000390: 095a 2d3e efd7 bf40 50da 9441 578d 833e
000003a0: ba5f 113e e323 033f 7433 dd3e 68d6 423f
000003b0: 783c fb3d c011 0fbc 30a3 a1bc 6537 343e
000003c0: e601 8240 666e 6640 91c5 133e 90ac 95bc
000003d0: e1e6 4d3d b4b1 ca3f 0dc0 5541 915f 7a40
000003e0: e069 843f 80cc 223d da75 b63e 06b4 1440
000003f0: 847e 0a40 7c35 363e 22dd 633e 1696 cc3f

conv1.depthwise.weight f4 [2, 1, 5, 5]
-0.042644665 -0.11063709 0.11971761 -0.14037007 -0.037696507 -0.001626455 -0.19033839 -0.12401301
-0.006379826 -0.15402487 0.023207262 0.021203892 -0.16089919 -0.24536961 -0.06340647 -0.14293109
-0.081769 -0.01609239 0.06098393 -0.02677162 -0.08312092 -0.26537767 -0.2663918 -0.19784075
0.03903316 0.19043396 0.27293143 0.20235835 0.24022904 0.03178239 0.24525231 0.23496264
0.26516318 -0.0740301 0.074635215 -0.035947755 0.16980368 0.25591245 -0.01952328 0.20371732
0.23518367 0.090544656 0.092392206 0.14218669 0.24909124 0.12401822 0.14581111 0.2133212
0.21196589 0.1394513
00000000: 2cac 2ebd b395 e2bd 822e f53d 2cbd 0fbe
00000010: a767 1abd c62e d5ba 11e8 42be 88fa fdbd
00000020: dc0d d1bb b2b8 1dbe 281d be3c c9b3 ad3c
00000030: c2c2 24be 2c42 7bbe 40db 81bd 875c 12be
00000040: 8176 a7bd 30d4 83bc 49ca 793d 2850 dbbc
00000050: 4d3b aabd 95df 87be 8264 88be c496 4abe
00000060: 3ce1 1f3d 1f01 433e abbd 8b3e 0737 4f3e
00000070: 9afe 753e 402e 023d 6c23 7b3e 0c9a 703e
00000080: 78c3 873e 189d 97bd 59da 983d f43d 13bd
00000090: 04e1 2d3e f506 833e 49ef 9fbc 469b 503e
000000a0: fdd3 703e 7a6f b93d 2038 bd3d 6399 113e
000000b0: c611 7f3e 44fd fd3d 824f 153e df70 5a3e
000000c0: 960d 593e 52cc 0e3e

conv1.depthwise.activation_post_process.histogram f4 [2048]
1.0 0.0 0.0 0.0 0.0 0.0 0.0 0.0
0.0 0.0 0.0 0.0 0.0 0.0 0.0 0.0
0.0 0.0 0.0 0.34375 0.65625 0.0 0.0 0.0
0.0 0.0 0.0 0.0 0.0 0.0 0.0 0.0
0.0 0.0 0.0 0.0 0.0 0.0 0.0 0.0
0.0 0.0 0.0 0.0 0.0 0.0 0.0 0.0
0.0 0.0 0.0 0.0 0.0 0.0 0.0 0.0
0.0 0.0 0.0 0.0 0.1484375 0.8515625 0.0 0.0
0.0 0.0 0.0 0.0 0.0 0.0 0.0 0.0
0.0 0.0 0.0 0.0 0.0 0.0 0.0 0.0
0.0 0.0 0.0 0.0 0.0 1.0 0.0 0.0
0.0 0.0 0.0 0.0 0.8984375 0.1015625 0.0 0.0
0.0 0.0 0.0 0.0 0.0 0.0 0.0 0.1875
0.8125 0.0 0.0 0.0 0.0 0.0 0.0 0.0
0.0 0.0 0.0 0.0 0.0 0.828125 0.171875 0.0
0.0 0.0 0.0 0.0 0.0 0.0 0.0 0.0
0.0 0.0 0.0 0.0 0.0 0.0 0.0 0.0
0.0 0.0 0.0 0.0 0.0 0.0 0.0 0.0
0.0 0.0 0.0 0.0 0.0 0.0 0.0 0.0
0.0 1.0 0.0 0.0 0.0 0.0 0.0 0.0
0.0 0.0 1.0 0.0 0.0 0.453125 0.546875 0.0
0.0 0.0 0.0 0.0 0.0 0.0 0.0 0.0
0.0 0.0 0.0 0.0 0.0 0.0 0.0 0.0
0.0 0.0 0.0 0.0 0.0 0.0 0.0 0.0
0.0 0.0 0.0 0.0 1.0 0.0 0.0 0.0
0.0 0.0 0.0 0.0 0.0 0.0 0.0 0.0
0.0 0.0 0.7265625 0.2734375 0.0 0.0 0.0 0.0
0.0 0.0 0.6640625 0.3359375 0.0 0.0 0.1328125 0.8671875
0.3671875 0.6328125 0.0 0.0 0.0 0.0 0.0 0.0
0.0 0.0 0.0 0.0 0.0 0.0 0.0 0.0
0.0 0.0 0.0 0.0 0.0 1.65625 0.34375 0.0
0.0 0.0 0.0 0.0 0.0 0.0 0.0 0.0
00000000: 0000 803f 0000 0000 0000 0000 0000 0000
00000010: 0000 0000 0000 0000 0000 0000 0000 0000
00000020: 0000 0000 0000 0000 0000 0000 0000 0000
00000030: 0000 0000 0000 0000 0000 0000 0000 0000
00000040: 0000 0000 0000 0000 0000 0000 0000 b03e
00000050: 0000 283f 0000 0000 0000 0000 0000 0000
00000060: 0000 0000 0000 0000 0000 0000 0000 0000
00000070: 0000 0000 0000 0000 0000 0000 0000 0000
00000080: 0000 0000 0000 0000 0000 0000 0000 0000
00000090: 0000 0000 0000 0000 0000 0000 0000 0000
000000a0: 0000 0000 0000 0000 0000 0000 0000 0000
000000b0: 0000 0000 0000 0000 0000 0000 0000 0000
000000c0: 0000 0000 0000 0000 0000 0000 0000 0000
000000d0: 0000 0000 0000 0000 0000 0000 0000 0000
000000e0: 0000 0000 0000 0000 0000 0000 0000 0000
000000f0: 0000 183e 0000 5a3f 0000 0000 0000 0000
00000100: 0000 0000 0000 0000 0000 0000 0000 0000
00000110: 0000 0000 0000 0000 0000 0000 0000 0000
00000120: 0000 0000 0000 0000 0000 0000 0000 0000
00000130: 0000 0000 0000 0000 0000 0000 0000 0000
00000140: 0000 0000 0000 0000 0000 0000 0000 0000
00000150: 0000 0000 0000 803f 0000 0000 0000 0000
00000160: 0000 0000 0000 0000 0000 0000 0000 0000
00000170: 0000 663f 0000 d03d 0000 0000 0000 0000
00000180: 0000 0000 0000 0000 0000 0000 0000 0000
00000190: 0000 0000 0000 0000 0000 0000 0000 403e
000001a0: 0000 503f 0000 0000 0000 0000 0000 0000
000001b0: 0000 0000 0000 0000 0000 0000 0000 0000
000001c0: 0000 0000 0000 0000 0000 0000 0000 0000
000001d0: 0000 0000 0000 543f 0000 303e 0000 0000
000001e0: 0000 0000 0000 0000 0000 0000 0000 0000
000001f0: 0000 0000 0000 0000 0000 0000 0000 0000
00000200: 0000 0000 0000 0000 0000 0000 0000 0000
00000210: 0000 0000 0000 0000 0000 0000 0000 0000
00000220: 0000 0000 0000 0000 0000 0000 0000 0000
00000230: 0000 0000 0000 0000 0000 0000 0000 0000
00000240: 0000 0000 0000 0000 0000 0000 0000 0000
00000250: 0000 0000 0000 0000 0000 0000 0000 0000
00000260: 0000 0000 0000 803f 0000 0000 0000 0000
00000270: 0000 0000 0000 0000 0000 0000 0000 0000
00000280: 0000 0000 0000 0000 0000 803f 0000 0000
00000290: 0000 0000 0000 e83e 0000 0c3f 0000 0000
000002a0: 0000 0000 0000 0000 0000 0000 0000 0000
000002b0: 0000 0000 0000 0000 0000 0000 0000 0000
000002c0: 0000 0000 0000 0000 0000 0000 0000 0000
000002d0: 0000 0000 0000 0000 0000 0000 0000 0000
000002e0: 0000 0000 0000 0000 0000 0000 0000 0000
000002f0: 0000 0000 0000 0000 0000 0000 0000 0000
00000300: 0000 0000 0000 0000 0000 0000 0000 0000
00000310: 0000 803f 0000 0000 0000 0000 0000 0000
00000320: 0000 0000 0000 0000 0000 0000 0000 0000
00000330: 0000 0000 0000 0000 0000 0000 0000 0000
00000340: 0000 0000 0000 0000 0000 3a3f 0000 8c3e
00000350: 0000 0000 0000 0000 0000 0000 0000 0000
00000360: 0000 0000 0000 0000 0000 2a3f 0000 ac3e
00000370: 0000 0000 0000 0000 0000 083e 0000 5e3f
00000380: 0000 bc3e 0000 223f 0000 0000 0000 0000
00000390: 0000 0000 0000 0000 0000 0000 0000 0000
000003a0: 0000 0000 0000 0000 0000 0000 0000 0000
000003b0: 0000 0000 0000 0000 0000 0000 0000 0000
000003c0: 0000 0000 0000 0000 0000 0000 0000 0000
000003d0: 0000 0000 0000 d43f 0000 b03e 0000 0000
000003e0: 0000 0000 0000 0000 0000 0000 0000 0000
000003f0: 0000 0000 0000 0000 0000 0000 0000 0000

conv1.pointwise.weight f4 [6, 2, 1, 1]
0.12759982 -0.27754557 0.0785281 0.71481293 -0.22247091 -0.26481616 0.0552992 0.67074955
0.21662672 -0.51310176 0.616362 -0.32323176
00000000: 87a9 023e 741a 8ebe 57d3 a03d fbfd 363f
00000010: 6acf 63be fc95 87be 6a81 623d 3eb6 2b3f
00000020: 65d3 5d3e a35a 03bf e6c9 1d3f a27e a5be

conv1.pointwise.activation_post_process.histogram f4 [2048]
1.0 0.0 0.0 0.0 0.0 0.0 0.0 0.0
0.0 0.0 0.0 0.0 0.0 0.0 0.0 0.0
0.0 0.0 0.0 0.0 0.0 0.0 0.0 0.0
0.0 0.0 0.0 0.0 0.0 0.0 0.0 0.0
0.0 0.0 0.0 0.0 0.0 0.0 0.0 0.0
0.0 0.0 0.0 0.0 0.0 0.0 0.0 0.0
0.0 0.0 0.0 0.0 0.0 0.0 0.0 0.0
0.0 0.0 0.0 0.0 0.0 0.0 0.0 0.0
0.0 0.0 0.0 0.0 0.0 0.0 0.0 1.0
0.0 0.0 0.0 0.0 0.0 0.0 0.0 0.0
0.0 0.0 0.0 0.0 0.0 0.0 0.0 0.0
0.0 0.0 0.0 0.0 1.0 0.0 0.0 0.0
0.0 0.0 0.0 0.0 0.0 0.0 0.0 0.0
0.0 1.0 0.0 0.0 0.0 0.0 0.0 0.0
0.0 0.0 0.0 0.0 0.0 0.0 0.0 0.0
0.0 0.0 0.0 0.0 0.0 0.0 0.0 0.0
0.0 0.0 0.0 0.0 0.0 0.0 0.0 0.0
0.0 0.0 0.0 0.0 0.0 1.0 0.0 0.0
0.0 0.0 0.0 0.0 0.0 0.0 0.0 0.0
0.0 0.0 0.36572266 0.5727539 0.061523438 0.0 0.0 0.0
0.0 0.0 0.0 0.0 0.0 0.0 0.0 0.0
0.0 0.0 0.0 0.0 0.0 0.0 0.0 0.0
0.0 0.0 0.0 0.0 0.0 0.0 0.0 0.0
0.0 0.25 0.75 1.0 0.0 0.0 0.58740234 0.41259766
0.0 0.0 0.0 0.0 0.1928711 0.61572266 1.1914062 0.0
0.0 0.0 0.0 0.1472801 0.5027989 0.32331514 0.026605606 0.0
1.0 0.0 0.1166478 1.0983522 0.706862 0.5764271 0.5017103 3.427267e-07
3.427267e-07 0.50023514 1.5147562 0.18046194 0.55580014 0.24174315 0.0070029763 1.0000001
0.9999998 -2.484303e-07 0.9374997 0.62765 1.4701897 0.27185687 0.54079485 0.15200596
4.0471377e-07 1.0001261 0.04448217 0.36595958 0.7350016 2.2122269 1.5702329 0.07197184
2.5995405e-08 3.476548e-07 8.650086e-07 1.0000014 0.4711906 1.2827138 0.24609417 -2.0354946e-08
0.59716743 0.40283188 1.7234242e-08 -9.8192004e-08 -5.3298254e-07 -1.0196345e-06 0.21188699 0.96566135
00000000: 0000 803f 0000 0000 0000 0000 0000 0000
00000010: 0000 0000 0000 0000 0000 0000 0000 0000
00000020: 0000 0000 0000 0000 0000 0000 0000 0000
00000030: 0000 0000 0000 0000 0000 0000 0000 0000
00000040: 0000 0000 0000 0000 0000 0000 0000 0000
00000050: 0000 0000 0000 0000 0000 0000 0000 0000
00000060: 0000 0000 0000 0000 0000 0000 0000 0000
00000070: 0000 0000 0000 0000 0000 0000 0000 0000
00000080: 0000 0000 0000 0000 0000 0000 0000 0000
00000090: 0000 0000 0000 0000 0000 0000 0000 0000
000000a0: 0000 0000 0000 0000 0000 0000 0000 0000
000000b0: 0000 0000 0000 0000 0000 0000 0000 0000
000000c0: 0000 0000 0000 0000 0000 0000 0000 0000
000000d0: 0000 0000 0000 0000 0000 0000 0000 0000
000000e0: 0000 0000 0000 0000 0000 0000 0000 0000
000000f0: 0000 0000 0000 0000 0000 0000 0000 0000
00000100: 0000 0000 0000 0000 0000 0000 0000 0000
00000110: 0000 0000 0000 0000 0000 0000 0000 803f
00000120: 0000 0000 0000 0000 0000 0000 0000 0000
00000130: 0000 0000 0000 0000 0000 0000 0000 0000
00000140: 0000 0000 0000 0000 0000 0000 0000 0000
00000150: 0000 0000 0000 0000 0000 0000 0000 0000
00000160: 0000 0000 0000 0000 0000 0000 0000 0000
00000170: 0000 803f 0000 0000 0000 0000 0000 0000
00000180: 0000 0000 0000 0000 0000 0000 0000 0000
00000190: 0000 0000 0000 0000 0000 0000 0000 0000
000001a0: 0000 0000 0000 803f 0000 0000 0000 0000
000001b0: 0000 0000 0000 0000 0000 0000 0000 0000
000001c0: 0000 0000 0000 0000 0000 0000 0000 0000
000001d0: 0000 0000 0000 0000 0000 0000 0000 0000
000001e0: 0000 0000 0000 0000 0000 0000 0000 0000
000001f0: 0000 0000 0000 0000 0000 0000 0000 0000
00000200: 0000 0000 0000 0000 0000 0000 0000 0000
00000210: 0000 0000 0000 0000 0000 0000 0000 0000
00000220: 0000 0000 0000 0000 0000 0000 0000 0000
00000230: 0000 0000 0000 803f 0000 0000 0000 0000
00000240: 0000 0000 0000 0000 0000 0000 0000 0000
00000250: 0000 0000 0000 0000 0000 0000 0000 0000
00000260: 0000 0000 0000 0000 0040 bb3e 00a0 123f
00000270: 0000 7c3d 0000 0000 0000 0000 0000 0000
00000280: 0000 0000 0000 0000 0000 0000 0000 0000
00000290: 0000 0000 0000 0000 0000 0000 0000 0000
000002a0: 0000 0000 0000 0000 0000 0000 0000 0000
000002b0: 0000 0000 0000 0000 0000 0000 0000 0000
000002c0: 0000 0000 0000 0000 0000 0000 0000 0000
000002d0: 0000 0000 0000 0000 0000 0000 0000 0000
000002e0: 0000 0000 0000 803e 0000 403f 0000 803f
000002f0: 0000 0000 0000 0000 0060 163f 0040 d33e
00000300: 0000 0000 0000 0000 0000 0000 0000 0000
00000310: 0080 453e 00a0 1d3f 0080 983f 0000 0000
00000320: 0000 0000 0000 0000 0000 0000 98d0 163e
00000330: 6eb7 003f 9089 a53e 00f4 d93c 0000 0000
00000340: 0000 803f 0000 0000 0be5 ee3d ce96 8c3f
00000350: e8f4 343f ba90 133f 1670 003f 0000 b834
00000360: 0000 b834 690f 003f 88e3 c13f 04cb 383e
00000370: eb48 0e3f 848b 773e 3979 e53b 0100 803f
00000380: fdff 7f3f 0060 85b4 fbff 6f3f acad 203f
00000390: 2d2f bc3f d330 8b3e 8871 0a3f 73a7 1b3e
000003a0: 7047 d934 2204 803f f032 363d 0e5f bb3e
000003b0: 1129 3c3f 2095 0d40 64fd c83f f965 933d
000003c0: 804c df32 50a5 ba34 f032 6835 0c00 803f
000003d0: e53f f13e f72f a43f 1c00 7c3e 00d9 aeb2
000003e0: f7df 183f fb3f ce3e 800a 9432 a0dd d2b3
000003f0: 4812 0fb5 60da 88b5 e7f8 583e 9535 773f

conv2.depthwise.weight f4 [6, 1, 5, 5]
0.16399032 -0.020857513 -0.02391131 -0.121080235 -0.085274614 0.15396057 -0.05085556 0.034658246
0.16842148 -0.17541233 -0.14424786 0.037379444 0.20450951 0.016844084 -0.12896742 0.10375913
0.2618672 0.032725792 0.13212931 0.24130435 0.06387355 0.26359844 0.21841319 0.29812673
0.21418542 0.20434743 0.16959304 0.25482953 0.10575722 0.19338088 0.0596107 -0.12805228
0.13707954 0.0911837 -0.04500038 -0.13504122 -0.058178365 0.11839571 0.050154317 0.13196664
0.15459216 0.09095631 -0.03169138 0.076542966 -0.09130845 0.058449917 -0.039440077 0.072894566
0.2516973 0.24901782 -0.055918474 0.08447413 -0.0035153443 0.005705827 0.1211702 0.08739982
-0.19832398 -0.251972 -0.17574894 -0.15079428 -0.10294107 -0.15692054 -0.18384211 -0.06310025
-0.11212336 -0.22319646 -0.21775334 0.06632078 -0.051131632 0.016159799 -0.22914769 -0.060274083
-0.08935233 0.044946227 -0.09911716 -0.083797894 0.14879252 0.14949217 -0.05103356 0.05003907
-0.18363406 0.15159506 -0.13344166 0.005576507 0.0071731554 -0.14192447 -0.12575874 -0.2287654
-0.2678819 -0.027218161 -0.16329812 -0.031446476 -0.12512772 -0.11577505 0.11510496 -0.19901574
0.026095163 -0.05345492 0.064732246 -0.007054925 -0.015639836 -0.1479966 0.14739116 -0.10047155
-0.020788832 -0.007349813 0.21743824 0.14011854 -0.24757431 -0.29994655 0.2780524 -0.061334886
0.22399136 0.02681167 -0.06572278 0.3004485 0.024698108 -0.13102661 -0.21021616 -0.12889935
-0.06122874 0.15751278 0.07608693 -0.23079824 -0.32915866 -0.26019984 -0.16037893 -0.2396309
0.041995503 0.07119573 -0.15088673 -0.09460072 -4.8098973e-05 -0.16095328 0.15352532 -0.019949391
-0.11680485 0.0074432637 -0.14246044 -0.09771746 -0.13440432 -0.15010247 0.073883556 0.10281314
-0.0029097605 0.067034654 -0.23170093 -0.14295985 -0.22038166 0.0063046347
00000000: 14ed 273e 60dd aabc a7e1 c3bc eaf8 f7bd
00000010: 75a4 aebd d7a7 1d3e eb4d 50bd cef5 0d3d
00000020: ae76 2c3e 4a9f 33be b6b5 13be 301b 193d
00000030: f16a 513e 9bfc 893c 0910 04be ab7f d43d
00000040: 7513 863e 7b0b 063d e84c 073e 7d18 773e
00000050: 23d0 823d 60f6 863e b5a7 5f3e 11a4 983e
00000060: 6c53 5b3e 7440 513e cca9 2d3e 0479 823e
00000070: 3e97 d83d a305 463e 592a 743d 2320 03be
00000080: 945e 0c3e 85be ba3d 5252 38bd 3f48 0abe
00000090: 704c 6ebd 7379 f23d 9d6e 4d3d 4322 073e
000000a0: 684d 1e3e 4d47 ba3d d2ce 01bd 8fc2 9c3d
000000b0: edff babd 2e69 6f3d eb8b 21bd bf49 953d
000000c0: 78de 803e 87fe 7e3e c50a 65bd c600 ad3d
000000d0: b161 66bb f2f7 ba3b 1528 f83d adfe b23d
000000e0: 7115 4bbe 7902 81be 88f7 33be d169 1abe
000000f0: c5d2 d2bd c7af 20be 1b41 3cbe b43a 81bd
00000100: efa0 e5bd 9d8d 64be bbfa 5ebe 30d3 873d
00000110: 676f 51bd 8e61 843c b1a5 6abe f5e1 76bd
00000120: 5bfe b6bd 8919 383d f0fd cabd 3b9e abbd
00000130: 115d 183e 7a14 193e 9108 51bd c5f5 4c3d
00000140: 910a 3cbe bc3b 1b3e eea4 08be 22bb b63b
00000150: ca0c eb3b a654 11be e6c6 00be 7a41 6abe
00000160: d127 89be 9ff8 debc 9f37 27be 05ce 00bd
00000170: 7b21 00be 781b edbd 26bc eb3d c8ca 4bbe
00000180: 86c5 d53c 8cf3 5abd 5792 843d 002d e7bb
00000190: 1d1f 80bc 6c8c 17be b5ed 163e 07c4 cdbd
000001a0: 574d aabc b3d6 f0bb 21a8 5e3e 3c7b 0f3e
000001b0: 1f84 7dbe 9892 99be e25c 8e3e 4a3a 7bbd
000001c0: fe5d 653e 26a4 db3c aa99 86bd 63d4 993e
000001d0: b053 ca3c d72b 06be e842 57be 31fe 03be
000001e0: fdca 7abd 084b 213e 77d3 9b3d 6056 6cbe
000001f0: 7c87 a8be ea38 85be 603a 24be cd61 75be
00000200: 7a03 2c3d 11cf 913d 0d82 1abe 06be c1bd
00000210: e1bd 49b8 f0d0 24be be35 1d3e e86c a3bc
00000220: 6237 efbd 9fe6 f33b 26e1 11be 1720 c8bd
00000230: 49a1 09be 76b4 19be 4350 973d b28f d23d
00000240: aeb1 3ebb 7749 893d 0243 6dbe 1164 12be
00000250: bbab 61be 1c97 ce3b

conv2.depthwise.activation_post_process.histogram f4 [2048]
1.0 0.0 0.0 0.0 0.0 0.0 0.0 0.0
0.0 0.0 0.0 0.0 0.0 0.0 0.0 0.0
0.0 0.0 0.0 0.0 0.0 0.0 0.0 0.0
0.0 0.0 0.0 0.0 0.0 0.0 0.0 0.0
0.0 0.0 0.0 0.0 0.0 0.0 0.0 0.0
0.0 0.0 0.0 0.0 0.0 0.0 0.0 0.0
0.0 0.0 0.0 0.0 0.0 0.0 0.0 0.6875
0.3125 0.0 0.0 0.0 1.0 0.0 0.0 0.0
0.0 0.0 0.0 0.03173828 0.5222168 0.44604492 0.0 0.0
0.0 0.0 0.0 0.0 0.0 0.0 0.0 0.0
0.0 0.0 0.0 0.0 0.0 0.0 0.0 0.0
0.47536469 0.4362259 0.087314606 0.0010948181 0.0 0.0 0.0 0.0
0.0 0.0 0.0 0.0 0.0 0.0 0.0 0.0
0.0 0.0 0.0 0.0 0.0 0.0 0.0 0.0
0.0 0.0 0.0 0.0 0.0 0.0 0.0 0.0
0.0 0.0 0.19923598 0.4605577 0.29429367 0.044823766 0.0010890961 0.0
0.0 0.0 0.0 0.0 0.0 0.0 0.0 0.0
0.0 0.0 0.0 0.0 0.0 0.0 0.0 0.0
0.0 0.0 0.0 0.0 0.0 0.0 0.0 0.0
0.0 0.0 0.0 0.0 0.0 0.0 0.0 0.0012218929
0.27220264 0.9643318 0.47615546 0.28608868 2.1606684e-07 2.1606684e-07 2.1606684e-07 2.1606684e-07
2.1606684e-07 2.1606684e-07 2.1606684e-07 2.1606684e-07 2.1606684e-07 2.1606684e-07 2.1606684e-07 0.4375002
0.56250024 2.1606684e-07 2.1606684e-07 2.1606684e-07 2.1606684e-07 2.1606684e-07 2.1606684e-07 2.1606684e-07
2.1606684e-07 2.1606684e-07 2.1606684e-07 2.1606684e-07 2.1606684e-07 2.1606684e-07 2.1606684e-07 2.1606684e-07
2.1606684e-07 2.1606684e-07 2.1606684e-07 2.1606684e-07 2.1606684e-07 0.053085543 0.4454691 0.418133
0.083313204 2.1606684e-07 2.1606684e-07 2.1606684e-07 2.1606684e-07 0.3750002 0.62499976 -2.6077032e-07
-2.6077032e-07 -2.6077032e-07 -2.6077032e-07 -2.6077032e-07 -2.6077032e-07 -2.6077032e-07 -2.6077032e-07 -2.6077032e-07
-2.6077032e-07 -2.6077032e-07 -2.6077032e-07 -2.6077032e-07 -2.6077032e-07 -2.6077032e-07 -2.6077032e-07 -2.6077032e-07
-2.6077032e-07 -2.6077032e-07 -2.6077032e-07 -2.6077032e-07 -2.6077032e-07 -2.6077032e-07 -2.6077032e-07 -2.6077032e-07
-2.6077032e-07 -2.6077032e-07 -2.6077032e-07 -2.6077032e-07 -2.6077032e-07 -2.6077032e-07 -2.6077032e-07 -2.6077032e-07
-2.6077032e-07 -2.6077032e-07 -2.6077032e-07 -2.6077032e-07 -2.6077032e-07 -2.6077032e-07 -2.6077032e-07 -2.6077032e-07
-2.6077032e-07 -2.6077032e-07 0.112256125 0.39127854 0.3704649 0.11690331 0.009096749 -3.501773e-07
00000000: 0000 803f 0000 0000 0000 0000 0000 0000
00000010: 0000 0000 0000 0000 0000 0000 0000 0000
00000020: 0000 0000 0000 0000 0000 0000 0000 0000
00000030: 0000 0000 0000 0000 0000 0000 0000 0000
00000040: 0000 0000 0000 0000 0000 0000 0000 0000
00000050: 0000 0000 0000 0000 0000 0000 0000 0000
00000060: 0000 0000 0000 0000 0000 0000 0000 0000
00000070: 0000 0000 0000 0000 0000 0000 0000 0000
00000080: 0000 0000 0000 0000 0000 0000 0000 0000
00000090: 0000 0000 0000 0000 0000 0000 0000 0000
000000a0: 0000 0000 0000 0000 0000 0000 0000 0000
000000b0: 0000 0000 0000 0000 0000 0000 0000 0000
000000c0: 0000 0000 0000 0000 0000 0000 0000 0000
000000d0: 0000 0000 0000 0000 0000 0000 0000 303f
000000e0: 0000 a03e 0000 0000 0000 0000 0000 0000
000000f0: 0000 803f 0000 0000 0000 0000 0000 0000
00000100: 0000 0000 0000 0000 0000 0000 0000 023d
00000110: 00b0 053f 0060 e43e 0000 0000 0000 0000
00000120: 0000 0000 0000 0000 0000 0000 0000 0000
00000130: 0000 0000 0000 0000 0000 0000 0000 0000
00000140: 0000 0000 0000 0000 0000 0000 0000 0000
00000150: 0000 0000 0000 0000 0000 0000 0000 0000
00000160: 0063 f33e 0059 df3e 00d2 b23d 0080 8f3a
00000170: 0000 0000 0000 0000 0000 0000 0000 0000
00000180: 0000 0000 0000 0000 0000 0000 0000 0000
00000190: 0000 0000 0000 0000 0000 0000 0000 0000
000001a0: 0000 0000 0000 0000 0000 0000 0000 0000
000001b0: 0000 0000 0000 0000 0000 0000 0000 0000
000001c0: 0000 0000 0000 0000 0000 0000 0000 0000
000001d0: 0000 0000 0000 0000 0000 0000 0000 0000
000001e0: 0000 0000 0000 0000 8404 4c3e 38ce eb3e
000001f0: a9ad 963e 2099 373d 00c0 8e3a 0000 0000
00000200: 0000 0000 0000 0000 0000 0000 0000 0000
00000210: 0000 0000 0000 0000 0000 0000 0000 0000
00000220: 0000 0000 0000 0000 0000 0000 0000 0000
00000230: 0000 0000 0000 0000 0000 0000 0000 0000
00000240: 0000 0000 0000 0000 0000 0000 0000 0000
00000250: 0000 0000 0000 0000 0000 0000 0000 0000
00000260: 0000 0000 0000 0000 0000 0000 0000 0000
00000270: 0000 0000 0000 0000 0000 0000 ec27 a03a
00000280: 255e 8b3e 73de 763f a6ca f33e 377a 923e
00000290: 0000 6834 0000 6834 0000 6834 0000 6834
000002a0: 0000 6834 0000 6834 0000 6834 0000 6834
000002b0: 0000 6834 0000 6834 0000 6834 0700 e03e
000002c0: 0400 103f 0000 6834 0000 6834 0000 6834
000002d0: 0000 6834 0000 6834 0000 6834 0000 6834
000002e0: 0000 6834 0000 6834 0000 6834 0000 6834
000002f0: 0000 6834 0000 6834 0000 6834 0000 6834
00000300: 0000 6834 0000 6834 0000 6834 0000 6834
00000310: 0000 6834 3a70 593d 8714 e43e 8715 d63e
00000320: 1da0 aa3d 0000 6834 0000 6834 0000 6834
00000330: 0000 6834 0700 c03e fcff 1f3f 0000 8cb4
00000340: 0000 8cb4 0000 8cb4 0000 8cb4 0000 8cb4
00000350: 0000 8cb4 0000 8cb4 0000 8cb4 0000 8cb4
00000360: 0000 8cb4 0000 8cb4 0000 8cb4 0000 8cb4
00000370: 0000 8cb4 0000 8cb4 0000 8cb4 0000 8cb4
00000380: 0000 8cb4 0000 8cb4 0000 8cb4 0000 8cb4
00000390: 0000 8cb4 0000 8cb4 0000 8cb4 0000 8cb4
000003a0: 0000 8cb4 0000 8cb4 0000 8cb4 0000 8cb4
000003b0: 0000 8cb4 0000 8cb4 0000 8cb4 0000 8cb4
000003c0: 0000 8cb4 0000 8cb4 0000 8cb4 0000 8cb4
000003d0: 0000 8cb4 0000 8cb4 0000 8cb4 0000 8cb4
000003e0: 0000 8cb4 0000 8cb4 8ae6 e53d a955 c83e
000003f0: 93ad bd3e 016b ef3d 880a 153c 0000 bcb4

conv2.pointwise.weight f4 [16, 6, 1, 1]
0.31714624 0.4544791 -0.36018175 -0.13909942 0.21619514 0.10732908 -0.21553737 -0.02715355
0.090810716 0.15121286 0.49544626 -0.14437537 -0.06388054 -0.25626543 -0.4059794 0.3146105
-0.21985361 -0.31130013 -0.021836184 0.059716146 -0.07065067 0.21869056 0.2123049 -0.21454896
-0.08035655 0.5136837 -0.3428578 0.18275982 0.09383966 0.045643933 -0.20609489 -0.27106854
-0.051806178 -0.014258015 0.014007511 0.15998417 0.18853904 0.26055127 -0.35212055 0.26701617
0.2908769 -0.44323438 -0.23337679 0.079235114 0.020248057 -0.27738503 -0.4159565 -0.000363388
0.3995513 0.2621737 -0.016696712 0.1883427 0.2678611 -0.38418436 -0.38716462 0.09891846
0.055543177 0.21166638 -0.15009166 -0.38052553 0.12463598 0.42654055 0.0779945 0.20636046
-0.31019843 0.093323514 -0.19745474 -0.09328833 0.15768874 0.2621346 -0.41853523 -0.011580098
0.31418154 0.39241034 0.20743385 -0.46450773 0.2349059 -0.06565752 0.567548 -0.21324964
0.030793397 -0.15589389 -0.07879209 -0.12531231 0.19152558 0.21790281 -0.13934658 0.13938335
-0.36524278 -0.06794356 -0.18221067 0.4325886 0.1417945 -0.31940156 0.2940809 -0.37280557
00000000: fe60 a23e 7cb1 e83e be69 b8be 1470 0ebe
00000010: 4262 5d3e 59cf db3d d4b5 5cbe 1f71 debc
00000020: f8fa b93d 8bd7 1a3e 22ab fd3e 23d7 13be
00000030: cdd3 82bd 3935 83be 88dc cfbe a114 a13e
00000040: 4e21 61be bb62 9fbe cce1 b2bc eb98 743d
00000050: 4cb1 90bd 6bf0 5f3e 7566 593e b9b2 5bbe
00000060: fa91 a4bd c680 033f 0f8b afbe 6425 3b3e
00000070: 022f c03d 22f5 3a3d 8a0a 53be 7fc9 8abe
00000080: b732 54bd 739a 69bc c27f 653c e4d2 233e
00000090: 6110 413e fa66 853e 2549 b4be 58b6 883e
000000a0: d1ed 943e 9eef e2be 53fa 6ebe 0546 a23d
000000b0: 41df a53c 6905 8ebe 40f8 d4be 1d85 beb9
000000c0: fd91 cc3e a23b 863e 8bc7 88bc e9dc 403e
000000d0: 1725 893e d0b3 c4be 713a c6be c395 ca3d
000000e0: 3e81 633d 12bf 583e a1b1 19be 3ed4 c2be
000000f0: 2641 ff3d 8663 da3e 95bb 9f3d 2850 533e
00000100: 54d2 9ebe 6620 bf3d 9331 4abe f40d bfbd
00000110: 2879 213e 8236 863e 404a d6be 74ba 3dbc
00000120: 67dc a03e 02ea c83e 8a69 543e f5d3 edbe
00000130: 2c8b 703e 7377 86bd d34a 113f 1d5e 5abe
00000140: 6f42 fc3c a6a2 1fbe bf5d a1bd df51 00be
00000150: 481f 443e ea21 5f3e dfb0 0ebe 82ba 0e3e
00000160: 1a01 bbbe fe25 8bbd 6f95 3abe 417c dd3e
00000170: 9432 113e 9a88 a3be c691 963e 5fe0 bebe

conv2.pointwise.activation_post_process.histogram f4 [2048]
1.0 0.0 0.0 0.0 0.0 0.0 0.0 0.0
0.0 0.0 0.0 0.0 0.0 0.0 0.0 0.0
0.0 0.0 0.0 0.0 0.0 0.0 0.0 0.0
0.0 0.0 0.703125 0.296875 0.0 0.0 0.0 0.0
0.0 0.0 0.0 0.0 0.0 0.0 0.0 0.0
0.0 0.0 0.0 0.0 0.0 0.0 0.0 0.0
0.0 0.0 0.0 0.0 0.0 0.0 0.0 0.0
0.0 0.0 0.22103119 0.5972384 0.63736975 0.43194586 0.10767366 0.004741192
0.0 0.0 0.0 0.0 0.0 0.0 0.0 0.0
0.0 0.0 0.0 0.0 0.0 0.0 0.0 0.0
0.0 0.0 0.0 0.0 0.0 0.0 0.0 0.0
0.0 0.0 0.0 0.0 0.0 0.0 0.0 0.0
0.0 0.0 0.0 0.0 0.0 1.0 0.0 0.3203125
0.6796875 0.0 0.0 0.0 0.0 0.0 0.052873194 0.40963608
0.45004082 0.08745003 0.0 0.0 0.0 0.0 0.0 0.0
0.0 0.0 0.0 0.0 0.0 0.0 0.0 0.0
0.0 0.0 0.0 0.505188 0.4376831 0.057128906 0.0 0.0
0.0 0.0 1.0 0.0 0.0 0.0 0.0 0.0
0.0 0.0002872646 0.021550432 0.30399486 0.67416763 0.0 0.0 0.0
0.0 0.0 0.0 0.0 0.0 0.0 0.0 0.0037617981
0.0737088 0.31968433 0.4359607 0.16688395 0.0 0.0 0.0 0.0
0.0 0.08902073 0.42738628 0.40578043 0.20656542 0.35126832 0.3656611 0.13942471
0.014892608 2.9802322e-08 2.9802322e-08 2.9802322e-08 2.9802322e-08 2.9802322e-08 2.9802322e-08 2.9802322e-08
0.0024100365 0.073265836 0.31669557 0.4130276 0.1762608 0.021098703 0.05255432 0.26827246
0.44209632 0.50230575 0.6842809 0.047731288 2.454035e-07 6.0140155e-07 0.0016574301 0.1381832
0.43955594 0.35764664 0.06295732 -9.383075e-08 2.621673e-07 6.1816536e-07 2.0489097e-08 3.7648715e-07
7.324852e-07 1.3480894e-07 4.90807e-07 -1.06869265e-07 0.13024928 0.55922 0.4181349 0.5336415
0.32557964 0.033176605 -4.163012e-07 -6.030314e-08 2.9569492e-07 6.51693e-07 0.013620976 0.23663081
0.48929 1.0416775 0.21878214 7.566996e-08 0.09321926 0.47566375 0.3725077 0.058259692
0.0003514071 0.56924284 0.8788045 0.4135182 0.1292229 0.009212881 7.431954e-07 0.28406528
0.5720036 0.70867014 0.43526304 7.05244e-07 1.0612421e-06 -4.901085e-07 0.9999999 2.218876e-07
5.7788566e-07 0.86718845 0.13281192 1.4163392 1.4387302 0.9473661 0.19138333 0.0061801374
00000000: 0000 803f 0000 0000 0000 0000 0000 0000
00000010: 0000 0000 0000 0000 0000 0000 0000 0000
00000020: 0000 0000 0000 0000 0000 0000 0000 0000
00000030: 0000 0000 0000 0000 0000 0000 0000 0000
00000040: 0000 0000 0000 0000 0000 0000 0000 0000
00000050: 0000 0000 0000 0000 0000 0000 0000 0000
00000060: 0000 0000 0000 0000 0000 343f 0000 983e
00000070: 0000 0000 0000 0000 0000 0000 0000 0000
00000080: 0000 0000 0000 0000 0000 0000 0000 0000
00000090: 0000 0000 0000 0000 0000 0000 0000 0000
000000a0: 0000 0000 0000 0000 0000 0000 0000 0000
000000b0: 0000 0000 0000 0000 0000 0000 0000 0000
000000c0: 0000 0000 0000 0000 0000 0000 0000 0000
000000d0: 0000 0000 0000 0000 0000 0000 0000 0000
000000e0: 0000 0000 0000 0000 0056 623e 9ee4 183f
000000f0: aa2a 233f 0228 dd3e 0284 dc3d 005c 9b3b
00000100: 0000 0000 0000 0000 0000 0000 0000 0000
00000110: 0000 0000 0000 0000 0000 0000 0000 0000
00000120: 0000 0000 0000 0000 0000 0000 0000 0000
00000130: 0000 0000 0000 0000 0000 0000 0000 0000
00000140: 0000 0000 0000 0000 0000 0000 0000 0000
00000150: 0000 0000 0000 0000 0000 0000 0000 0000
00000160: 0000 0000 0000 0000 0000 0000 0000 0000
00000170: 0000 0000 0000 0000 0000 0000 0000 0000
00000180: 0000 0000 0000 0000 0000 0000 0000 0000
00000190: 0000 0000 0000 803f 0000 0000 0000 a43e
000001a0: 0000 2e3f 0000 0000 0000 0000 0000 0000
000001b0: 0000 0000 0000 0000 9091 583d d2bb d13e
000001c0: c06b e63e 0019 b33d 0000 0000 0000 0000
000001d0: 0000 0000 0000 0000 0000 0000 0000 0000
000001e0: 0000 0000 0000 0000 0000 0000 0000 0000
000001f0: 0000 0000 0000 0000 0000 0000 0000 0000
00000200: 0000 0000 0000 0000 0000 0000 0054 013f
00000210: 0018 e03e 0000 6a3d 0000 0000 0000 0000
00000220: 0000 0000 0000 0000 0000 803f 0000 0000
00000230: 0000 0000 0000 0000 0000 0000 0000 0000
00000240: 0000 0000 009c 9639 888a b03c 37a5 9b3e
00000250: 4096 2c3f 0000 0000 0000 0000 0000 0000
00000260: 0000 0000 0000 0000 0000 0000 0000 0000
00000270: 0000 0000 0000 0000 0000 0000 8088 763b
00000280: a4f4 963d aaad a33e 3e36 df3e a0e3 2a3e
00000290: 0000 0000 0000 0000 0000 0000 0000 0000
000002a0: 0000 0000 8050 b63d 60d2 da3e 74c2 cf3e
000002b0: e385 533e 71d9 b33e ef37 bb3e 5ac5 0e3e
000002c0: 2000 743c 0000 0033 0000 0033 0000 0033
000002d0: 0000 0033 0000 0033 0000 0033 0000 0033
000002e0: b4f1 1d3b 660c 963d ec25 a23e 5b78 d33e
000002f0: b67d 343e 30d7 ac3c 3343 573d 025b 893e
00000300: 735a e23e 1c97 003f 082d 2f3f e281 433d
00000310: 00c0 8334 0070 2135 203e d93a e67f 0d3e
00000320: 7a0d e13e 761d b73e c4ef 803d 0080 c9b3
00000330: 00c0 8c34 00f0 2535 0000 b032 0020 ca34
00000340: 00a0 4435 00c0 1034 00c0 0335 0080 e5b3
00000350: 1160 053e 0b29 0f3f c715 d63e bb9c 083f
00000360: 60b2 a63e 31e4 073d 0080 dfb4 0080 81b3
00000370: 00c0 9e34 00f0 2e35 842a 5f3c 594f 723e
00000380: 3884 fa3e b055 853f 6d08 603e 0080 a233
00000390: bde9 be3d 338a f33e 54b9 be3e b7a1 6e3d
000003a0: 103d b839 e6b9 113f 55f9 603f a8b8 d33e
000003b0: 0253 043e a0f1 163c 0080 4735 0171 913e
000003c0: d46e 123f 686b 353f ccda de3e 0050 3d35
000003d0: 0070 8e35 0090 03b5 feff 7f3f 0040 6e34
000003e0: 0020 1b35 1000 5e3f d9ff 073e 9a4a b53f
000003f0: 5028 b83f 9686 723f fef9 433e c082 ca3b

conv3.depthwise.weight f4 [16, 1, 5, 5]
0.20383747 0.14579394 -0.11982219 0.15127772 0.18101911 0.18103372 -0.010275634 0.15129422
-0.02640555 -0.12605628 -0.009020875 -0.15011938 0.15824789 -0.16258924 -0.1979251 0.045040905
0.02218872 -0.11210679 0.19997284 -0.1483229 0.028000405 -0.122470096 0.151522 -0.11969746
-0.20004088 0.21189688 0.40511823 0.06242484 0.112716 -0.174886 -0.08476337 -0.037237804
0.041810267 -0.10262918 -0.2106435 -0.08727469 0.18332492 0.17621511 0.10504556 -0.06886387
0.121401116 -0.14589049 -0.027463954 0.14318268 0.092782505 0.12342968 0.0695923 -0.08667588
-0.04093227 0.037394542 -0.18986581 0.12959813 -0.17361808 -0.14848934 -0.23144534 -0.20880607
-0.068707354 -0.15211637 -0.15335296 -0.21151622 0.015688358 -0.085326664 -0.008053664 0.070448205
0.13005131 0.06511417 -0.11624892 0.15867639 -0.014196172 0.12203555 -0.04041002 0.20831634
-0.057091374 0.091012895 0.065062925 0.1928752 0.1064702 -0.04188629 -0.0680611 -0.04216996
0.015336499 -0.12406123 0.09487937 0.11135872 0.0069656614 -0.010580922 -0.031273797 0.15275617
0.13222976 0.070608705 0.051035136 -0.18616977 0.05592901 0.0061126538 -0.04769376 0.18705527
-0.074928336 -0.2138569 -0.0461222 -0.15762453 0.13023023 0.15458785 0.12307894 0.08748341
0.1116451 0.06408977 -0.036891524 0.26417598 0.25341693 0.06278479 0.09580226 -0.02437634
0.036726598 -0.007981613 0.11532324 -0.016295383 0.023225563 0.23037852 -0.06899875 0.0043912022
0.17975663 0.16347995 0.26085338 0.10987903 -0.03903726 0.18750744 -0.101190075 0.06094597
-0.18525705 -0.039130658 -0.0743396 0.12638722 -0.18487717 -0.076657474 0.14903441 -0.15348999
-0.14037655 0.097330496 0.06616857 -0.13834718 0.19484586 0.119153045 0.10247806 -0.11438191
-0.15040004 0.099451646 -0.16618307 0.05703015 0.064538166 0.18069279 0.032503314 -0.12313897
-0.14395426 0.00074406166 -0.19219702 -0.18785286 -0.1948294 -0.15189509 0.13134944 -0.0053833486
-0.051058568 0.20500949 -0.03741936 -0.07028659 -0.035906088 0.21478456 -0.072798714 0.17374575
0.18046029 -0.0100203715 0.16581172 -0.09692102 -0.08039477 0.09335753 0.007883921 0.30381143
0.13475096 0.16705568 0.021828756 -0.22956653 -0.010442175 0.13823366 0.004824193 -0.19804716
-0.08898835 0.009824276 0.11214028 -0.19866502 -0.23521781 -0.002613878 0.15448707 0.08632599
0.05812978 0.16997159 0.09361524 -0.1852199 0.05341825 -0.12452173 0.16933997 0.057059646
0.04587816 0.0810306 -0.095516264 0.035952624 -0.10934558 -0.03130387 0.17404376 0.15497343
-0.076552786 -0.041288048 -0.14585853 0.07364998 0.015111036 -0.15346703 -0.011893278 0.1350785
-0.17171937 -0.13076143 -0.11874939 0.1638921 -0.18129234 -0.16203286 -0.17780848 0.05255408
0.11303583 0.049168557 0.0017593993 -0.15335421 0.057958644 0.0056444104 0.14706428 -0.15042543
-0.046850704 -0.06705216 -0.003329927 -0.13523875 -0.16064194 0.16412854 0.16097586 0.04064902
-0.05772641 -0.016238917 -0.17498918 0.1675334 0.06087721 0.1882996 0.026930628 -0.16722758
0.014854229 0.10786772 -0.16590838 0.24140638 0.15606888 -0.0017650129 0.28236333 -0.15770838
00000000: c5ba 503e 024b 153e 5665 f5bd 8ce8 1a3e
00000010: 135d 393e e760 393e 225b 28bc dfec 1a3e
00000020: 7450 d8bc e614 01be 4bcc 13bc e5b8 19be
00000030: bc0b 223e cb7d 26be e1ac 4abe d07c 383d
00000040: 1ec5 b53c 3f98 e5bd aec5 4c3e f5e1 17be
00000050: 1b61 e53c 9ad1 fabd 9528 1b3e f123 f5bd
00000060: 84d7 4cbe 7ffb 583e a86b cf3e 30b1 7f3d
00000070: a5d7 e63d 5115 33be 6b98 adbd ab86 18bd
00000080: 3e41 2b3d 3f2f d2bd eeb2 57be 13bd b2bd
00000090: 87b9 3b3e bc71 343e 2022 d73d 8008 8dbd
000000a0: 26a1 f83d 5164 15be 16fc e0bc 7b9e 123e
000000b0: c104 be3d b3c8 fc3d 6886 8e3d 2083 b1bd
000000c0: 99a8 27bd 052b 193d 2f6c 42be 5fb5 043e
000000d0: f0c8 31be 970d 18be 0200 6dbe 42d1 55be
000000e0: 71b6 8cbd 65c4 1bbe 8f08 1dbe b597 58be
000000f0: df84 803c bfbf aebd 84f3 03bc 2647 903d
00000100: 2c2c 053e 945a 853d ea13 eebd 107c 223e
00000110: 1097 68bc c6ed f93d fa84 25bd e150 553e
00000120: a5d8 69bd f864 ba3d b63f 853d 1481 453e
00000130: 0c0d da3d f590 2bbd 9e63 8bbd 68ba 2cbd
00000140: f045 7b3c d013 febd 1d50 c23d 0a10 e43d
00000150: 3440 e43b 9a5b 2dbc f418 00bd 1d6c 1c3e
00000160: 3d67 073e 4c9b 903d 380a 513d 4aa3 3ebe
00000170: d115 653d a84c c83b 885a 43bd 6b8b 3f3e
00000180: 0774 99bd 4efd 5abe a2ea 3cbd 5368 21be
00000190: 135b 053e 474c 1e3e d010 fc3d 812a b33d
000001a0: 30a6 e43d 7f41 833d 911b 17bd 1342 873e
000001b0: ddbf 813e 5095 803d fa33 c43d e4b0 c7bc
000001c0: a16e 163d 50c5 02bc 972e ec3d e57d 85bc
000001d0: 8943 be3c 59e8 6b3e 374f 8dbd 13e4 8f3b
000001e0: 1f12 383e 4a67 273e 938e 853e 4208 e13d
000001f0: 89e5 1fbd f301 403e be3c cfbd 7ba2 793d
00000200: 06b4 3dbe 7847 20bd 5c3f 98bd a76b 013e
00000210: 7150 3dbe 98fe 9cbd 7a9c 183e 7b2c 1dbe
00000220: dfbe 0fbe 3655 c73d 6383 873d e2aa 0dbe
00000230: ac85 473e 8306 f43d 04e0 d13d 1041 eabd
00000240: 7802 1abe 4ead cb3d e52b 2abe 7298 693d
00000250: 962c 843d 8807 393e 3222 053d 4930 fcbd
00000260: bf68 13be 220d 433a 4ccf 44be 805c 40be
00000270: 5c81 47be 638a 1bbe 7880 063e cd66 b0bb
00000280: ca22 51bd 02ee 513e 0b45 19bd 6af2 8fbd
00000290: 4312 13bd 7cf0 5b3e 7e17 95bd 68ea 313e
000002a0: 95ca 383e 7c2c 24bc 8cca 293e 877e c6bd
000002b0: 03a6 a4bd 3c32 bf3d 902b 013c 2c8d 9b3e
000002c0: 28fc 093e a510 2b3e 38d2 b23c 7d13 6bbe
000002d0: a815 2bbc 208d 0d3e 4414 9e3b e0cc 4abe
000002e0: 863f b6bd 00f6 203c cea9 e53d d86e 4bbe
000002f0: f0dc 70be 994d 2bbb dc31 1e3e aecb b03d
00000300: 7e19 6e3d 080d 2e3e 59b9 bf3d 49aa 3dbe
00000310: 18cd 5a3d 4005 ffbd 7567 2d3e 60b7 693d
00000320: bdea 3b3d 5ff3 a53d 089e c3bd 0f43 133d
00000330: 93f0 dfbd 7d38 00bd 8738 323e 5bb1 1e3e
00000340: b5c7 9cbd a81d 29bd f05b 15be cdd5 963d
00000350: 4794 773c 7626 1dbe 06dc 42bc 0552 0a3e
00000360: 34d7 2fbe 53e6 05be e132 f3bd 55d3 273e
00000370: b3a4 39be f1eb 25be 6d13 36be f242 573d
00000380: 547f e73d f864 493d a59b e63a e308 1dbe
00000390: 0b66 6d3d bff4 b83b 0598 163e 2009 1abe
000003a0: 86e6 3fbd a552 89bd e83a 5abb 077c 0abe
000003b0: 527f 24be 5011 283e dbd6 243e 967f 263d
000003c0: 8772 6cbd 7a07 85bc 5d30 33be e08d 2b3e
000003d0: 625a 793d 9cd1 403e 9f9d dc3c b53d 2bbe
000003e0: 275f 733c c0e9 dc3d e3e3 29be 3c33 773e
000003f0: 85d0 1f3e 0158 e7ba ed91 903e 4e7e 21be

conv3.depthwise.activation_post_process.histogram f4 [2048]
1.0 0.0 0.0 0.0 0.0 0.0 0.0 0.0
0.0 0.0 0.0 0.0 0.0 0.0 0.0 0.0
0.0 0.0 0.0 0.0 0.0 0.0 0.0 0.0
0.0 0.0 0.0 0.0 0.0 0.0 0.0 0.0
0.0 0.0 0.0 0.0 0.0 0.0 0.0 0.0
0.0 0.0 0.0 0.0 0.0 0.0 0.0 0.0
0.0 0.0 0.0 0.0 0.0 0.0 0.0 0.0
0.0 0.0 0.0 0.0 0.0 0.0 0.0 0.0
0.0 0.0 0.0 0.0 0.0 0.0 0.0 0.0
0.0 0.0 0.0 0.0 0.0 0.0 0.0 0.0
0.0 0.0 0.0 0.0 0.0 0.0 0.0 0.0
0.0 0.0 0.0 0.0 0.0 0.0 0.0 0.0
0.0 0.0 0.0 0.0 0.0 0.0 0.0 0.0
0.0 0.0 0.0 0.0 0.0 0.0 0.0 0.0
0.0 0.0 0.0 0.0 0.0 0.0 0.0 0.0
0.0 0.0 0.0 0.0 0.0 0.0 0.0 0.0
0.0 0.0 0.0 0.0 0.578125 0.421875 0.0 0.0
0.0 0.0 0.0 0.0 0.0 0.0 0.0 0.0
0.0 0.0 0.0 0.0 0.0 0.0 0.0 0.0
0.0 0.0 0.0 0.03680587 0.2783122 0.4515673 0.21374524 0.019569397
0.0 0.0 0.0 0.0 0.0 0.0 0.0 0.0
0.0 0.0 0.0 0.06248333 0.3133217 0.41354072 0.18304437 0.026855785
0.00075414777 2.9802322e-08 2.9802322e-08 2.9802322e-08 2.9802322e-08 2.9802322e-08 2.9802322e-08 2.9802322e-08
2.9802322e-08 2.9802322e-08 2.9802322e-08 2.9802322e-08 2.9802322e-08 2.9802322e-08 2.9802322e-08 2.9802322e-08
0.796875 0.20312503 -2.0861626e-07 -2.0861626e-07 -2.0861626e-07 -2.0861626e-07 -2.0861626e-07 -2.0861626e-07
-2.0861626e-07 -2.0861626e-07 -2.0861626e-07 -2.0861626e-07 -2.0861626e-07 -2.0861626e-07 -2.0861626e-07 -2.0861626e-07
-2.0861626e-07 -2.0861626e-07 -2.0861626e-07 -2.0861626e-07 -2.0861626e-07 -2.0861626e-07 0.0069032083 0.07962105
0.27244893 0.3709458 0.21587622 0.050588515 0.0036159079 1.9790605e-08 -1.21071935e-08 -4.400499e-08
-7.590279e-08 -1.0780059e-07 -1.3969839e-07 -1.7159618e-07 -2.0349398e-07 -2.3539178e-07 -2.6728958e-07 1.7764978e-07
1.4575198e-07 1.13854185e-07 8.195639e-08 5.005859e-08 1.816079e-08 0.010906805 0.17487916 0.5344157
0.24759653 0.031546686 0.0006553162 4.820056e-07 3.7284153e-07 7.4423156e-08 2.2245973e-07 2.8361785e-07
-4.761111e-08 3.5179664e-07 -1.1529551e-07 -1.2539658e-07 1.2019115e-07 2.821882e-07 6.28404e-08 4.8383197e-07
00000000: 0000 803f 0000 0000 0000 0000 0000 0000
00000010: 0000 0000 0000 0000 0000 0000 0000 0000
00000020: 0000 0000 0000 0000 0000 0000 0000 0000
00000030: 0000 0000 0000 0000 0000 0000 0000 0000
00000040: 0000 0000 0000 0000 0000 0000 0000 0000
00000050: 0000 0000 0000 0000 0000 0000 0000 0000
00000060: 0000 0000 0000 0000 0000 0000 0000 0000
00000070: 0000 0000 0000 0000 0000 0000 0000 0000
00000080: 0000 0000 0000 0000 0000 0000 0000 0000
00000090: 0000 0000 0000 0000 0000 0000 0000 0000
000000a0: 0000 0000 0000 0000 0000 0000 0000 0000
000000b0: 0000 0000 0000 0000 0000 0000 0000 0000
000000c0: 0000 0000 0000 0000 0000 0000 0000 0000
000000d0: 0000 0000 0000 0000 0000 0000 0000 0000
000000e0: 0000 0000 0000 0000 0000 0000 0000 0000
000000f0: 0000 0000 0000 0000 0000 0000 0000 0000
00000100: 0000 0000 0000 0000 0000 0000 0000 0000
00000110: 0000 0000 0000 0000 0000 0000 0000 0000
00000120: 0000 0000 0000 0000 0000 0000 0000 0000
00000130: 0000 0000 0000 0000 0000 0000 0000 0000
00000140: 0000 0000 0000 0000 0000 0000 0000 0000
00000150: 0000 0000 0000 0000 0000 0000 0000 0000
00000160: 0000 0000 0000 0000 0000 0000 0000 0000
00000170: 0000 0000 0000 0000 0000 0000 0000 0000
00000180: 0000 0000 0000 0000 0000 0000 0000 0000
00000190: 0000 0000 0000 0000 0000 0000 0000 0000
000001a0: 0000 0000 0000 0000 0000 0000 0000 0000
000001b0: 0000 0000 0000 0000 0000 0000 0000 0000
000001c0: 0000 0000 0000 0000 0000 0000 0000 0000
000001d0: 0000 0000 0000 0000 0000 0000 0000 0000
000001e0: 0000 0000 0000 0000 0000 0000 0000 0000
000001f0: 0000 0000 0000 0000 0000 0000 0000 0000
00000200: 0000 0000 0000 0000 0000 0000 0000 0000
00000210: 0000 143f 0000 d83e 0000 0000 0000 0000
00000220: 0000 0000 0000 0000 0000 0000 0000 0000
00000230: 0000 0000 0000 0000 0000 0000 0000 0000
00000240: 0000 0000 0000 0000 0000 0000 0000 0000
00000250: 0000 0000 0000 0000 0000 0000 0000 0000
00000260: 0000 0000 0000 0000 0000 0000 c0c1 163d
00000270: f07e 8e3e d433 e73e 08e0 5a3e 0050 a03c
00000280: 0000 0000 0000 0000 0000 0000 0000 0000
00000290: 0000 0000 0000 0000 0000 0000 0000 0000
000002a0: 0000 0000 0000 0000 0000 0000 85ee 7f3d
000002b0: b46b a03e 9cbb d33e fc6f 3b3e aa00 dc3c
000002c0: 00b2 453a 0000 0033 0000 0033 0000 0033
000002d0: 0000 0033 0000 0033 0000 0033 0000 0033
000002e0: 0000 0033 0000 0033 0000 0033 0000 0033
000002f0: 0000 0033 0000 0033 0000 0033 0000 0033
00000300: 0000 4c3f 0200 503e 0000 60b4 0000 60b4
00000310: 0000 60b4 0000 60b4 0000 60b4 0000 60b4
00000320: 0000 60b4 0000 60b4 0000 60b4 0000 60b4
00000330: 0000 60b4 0000 60b4 0000 60b4 0000 60b4
00000340: 0000 60b4 0000 60b4 0000 60b4 0000 60b4
00000350: 0000 60b4 0000 60b4 4f34 e23b 5c10 a33d
00000360: 6d7e 8b3e 9cec bd3e a80e 5d3e e735 4f3d
00000370: def8 6c3b 0000 aa32 0000 50b2 0000 3db3
00000380: 0000 a3b3 0080 e7b3 0000 16b4 0040 38b4
00000390: 0080 5ab4 00c0 7cb4 0080 8fb4 00c0 3e34
000003a0: 0080 1c34 0080 f433 0000 b033 0000 5733
000003b0: 0000 9c32 75b2 323c 8613 333e 78cf 083f
000003c0: f289 7d3e 1937 013d 87c9 2b3a 2c63 0135
000003d0: f32a c834 90d2 9f33 44dd 6e34 2444 9834
000003e0: f87c 4cb3 90de bc34 6098 f7b3 c0a4 06b4
000003f0: e40d 0134 a77f 9734 e0f2 8633 aee0 0135
