experiments/exp018/checkpoint.pth (torch, 215310 bytes, 48 tensors)

conv1.depthwise.weight f4 [2, 1, 5, 5]
000000 58 9c 44 be b1 3e 4b be da bd 6f be ca 93 06 be
       -0.19200265 -0.19848134 -0.23412266 -0.13142315
000010 bf 3c 0a be 0b cd ca 3e 8c 10 33 3e 2f c1 08 bd
       -0.13499735 0.3960956 0.17486781 -0.03338736
000020 4b e0 e3 bd e1 e5 39 be b4 7b 08 3f 1b fb 25 3f
       -0.11126765 -0.18154098 0.53313756 0.6483628
000030 d8 5e 18 3f f1 02 a3 3e cb 7b ae bd 6f 20 e7 bd
       0.5951972 0.31838182 -0.085197054 -0.11285483
000040 1a a3 21 3f 90 a3 71 3f e2 54 21 3f 48 40 3c 3e
       0.631395 0.943902 0.63020146 0.18383896
000050 32 e3 95 be 2d 59 a0 3e 90 68 d0 3e ec 0b 9a 3e
       -0.292749 0.31318036 0.40704775 0.3008722
000060 b1 9e bc 3e 93 1c 4b be 7f 98 92 bd f1 0d 70 bd
       0.36839822 -0.19835119 -0.071579926 -0.058607046
000070 ba f5 aa bb 24 ce cb bd 12 32 0d be 72 54 a9 bd
       -0.005217281 -0.099514276 -0.13788632 -0.0826806
000080 86 06 af be fb 40 62 be d9 7b 9e be 7e 9b 25 3f
       -0.34184664 -0.220951 -0.30953863 0.6469039
000090 74 06 8f 3d a0 94 5f be 24 cf b7 be 5d f4 90 be
       0.06983653 -0.2183404 -0.35900223 -0.28311434
0000a0 9b 34 72 3e e7 32 f9 3e b8 c2 e8 3e f5 48 ab 3e
       0.2365288 0.48671648 0.4546106 0.334541
0000b0 0b 52 f3 3c 00 a7 98 3e f2 db d4 3e a2 31 fa 3e
       0.029702207 0.2981491 0.41574055 0.48865992
0000c0 1c dd c6 3e cf c8 8e 3e
       0.38840568 0.2788758

conv1.depthwise.weight_fake_quant.scale f4 [2]
000000 6d 87 f3 3b 9b ea a6 3b
       0.0074319155 0.005093885

conv1.depthwise.weight_fake_quant.activation_post_process.min_val f4 [2]
000000 1b e9 95 be e9 cb b7 be
       -0.29279408 -0.3589776

conv1.depthwise.weight_fake_quant.activation_post_process.max_val f4 [2]
000000 5e a0 71 3f c6 9c 25 3f
       0.94385326 0.6469234

conv1.pointwise.weight f4 [6, 2, 1, 1]
000000 01 92 07 3f e6 49 75 bf 07 d4 ac 3e 01 8f 39 bf
       0.5295716 -0.95815885 0.33755514 -0.7248383
000010 5f 41 7d bf 8c 3a 1e be ea 80 35 bf 60 31 17 3f
       -0.98927873 -0.15452021 -0.7089983 0.59059715
000020 10 43 3f 3e 80 59 6f bf ee 67 8a be 88 d3 40 3f
       0.18677926 -0.9349594 -0.27032417 0.7532277

conv1.pointwise.weight_fake_quant.scale f4 [6]
000000 18 4a f5 3b 6c 8e b9 3b 3f 41 7e 3b ac 7d b5 3b
       0.0074856393 0.00566273 0.0038796214 0.005538663
000010 f8 55 ef 3b 63 57 c2 3b
       0.0073039494 0.0059308275

conv1.pointwise.weight_fake_quant.activation_post_process.min_val f4 [6]
000000 18 4a 75 bf 6c 8e 39 bf fe 42 7d bf ac 7d 35 bf
       -0.95816183 -0.72482944 -0.98930347 -0.70894885
000010 f8 55 6f bf 6f 67 8a be
       -0.9349055 -0.2703204

conv1.pointwise.weight_fake_quant.activation_post_process.max_val f4 [6]
000000 72 91 07 3f 31 d0 ac 3e 2f 35 1e be 75 33 17 3f
       0.52956307 0.33752587 -0.15449975 0.5906289
000010 ec 37 3f 3e b4 d2 40 3f
       0.18673676 0.7532151

conv2.depthwise.weight f4 [6, 1, 5, 5]
000000 70 07 22 bc 23 ab 82 bd 17 13 ba 3e ba 14 24 3e
       -0.009889469 -0.06380298 0.3634269 0.16023532
000010 22 bd 69 3e f9 43 93 3e bd f2 07 3e da 21 00 bd
       0.22826055 0.28762797 0.13276191 -0.031282283
000020 36 32 59 be 3b ec 6a 3d eb 2a 35 3e 12 c6 6f be
       -0.2121056 0.057354193 0.17692153 -0.23415402
000030 a9 3a bc be 31 9e 80 be 70 ba a9 be 29 b1 71 be
       -0.36763504 -0.2512069 -0.33150053 -0.23602737
000040 2b 5f e0 be d1 fd c0 be c6 02 64 be 93 e9 06 bf
       -0.43822607 -0.37693647 -0.22266683 -0.52700156
000050 f7 97 91 be b1 54 d3 be 7c da 90 be f2 82 e0 bd
       -0.28436252 -0.41275552 -0.2829169 -0.10962476
000060 1a f3 54 3e 06 78 28 3e 1e 34 1d 3e 5d e2 ff 3d
       0.20795861 0.16452035 0.15351912 0.12494347
000070 ea 7c 3c 3e 7b 37 91 3e 64 16 13 3e 69 13 0d 3e
       0.18407026 0.2836264 0.1436401 0.13776936
000080 88 3d 2b 3e 8a e0 e9 3d 7d fe a5 3d 99 50 02 be
       0.16722691 0.114197806 0.081051804 -0.12726058
000090 ec b4 4e 3d 01 d8 3b 3e a4 3a 34 be 92 b4 c3 3c
       0.05046551 0.18344118 -0.17600495 0.023889814
0000a0 75 0f 00 3c 82 eb 8c 3e 88 be ea 3d 69 b9 00 be
       0.007816185 0.27523428 0.11462122 -0.12570728
0000b0 ff 18 33 be 07 0a 90 3e 0c 15 11 3f 9e 6a 06 3e
       -0.17490004 0.2813265 0.5667274 0.13126609
0000c0 fa 90 da 3b 46 ce 54 3e 78 cc 86 be 8a 98 88 3e
       0.0066701146 0.20781812 -0.26327872 0.26678878
0000d0 f5 16 ea 3e 15 20 b8 3e 49 40 1c bd 34 d8 a6 be
       0.4572064 0.35961977 -0.038147245 -0.32586825
0000e0 f9 09 38 3e dd 6f 5e 3e 09 53 16 be 14 3a 1a be
       0.17972554 0.2172236 -0.14680113 -0.15061218
0000f0 7e c1 d3 be 16 7b bb be c3 2d 8b be 0f c4 64 be
       -0.4135856 -0.36617345 -0.2718335 -0.22340415
000100 c8 21 e2 bd 3b 0e b7 be 78 18 8a be 77 63 84 be
       -0.110415995 -0.35753044 -0.26971793 -0.25857136
000110 82 3e b7 be f2 4e 37 be 69 1e 52 3f 1a 1a 68 3d
       -0.35789877 -0.17901209 0.8207765 0.056665517
000120 cc 99 47 be 7e 5a 81 3d a9 29 f2 bc 99 30 25 be
       -0.19492263 0.06316088 -0.02956088 -0.1613182
000130 e6 d3 ec be c4 b1 81 be 9d b1 be 3c 98 1d 83 3e
       -0.46255416 -0.25330937 0.023278052 0.25608516
000140 45 e6 a7 be 80 53 10 bf 2c 72 16 bf a4 3b ad bd
       -0.3279287 -0.5637741 -0.5876796 -0.08458641
000150 5f 27 5d 3e e1 9a ca be 32 e5 c3 bd d6 23 75 be
       0.2159705 -0.39571288 -0.095652 -0.23939452
000160 c3 45 ea 3c 10 bf 07 3e 3b 61 a8 3d b7 ca a6 3e
       0.028597718 0.13256478 0.0822167 0.32576534
000170 ca 33 9e 3d 40 6d 49 3b cd 89 32 3e b7 35 2d 3f
       0.07724722 0.0030735284 0.1743538 0.6766009
000180 35 a2 5e 3e 28 87 52 3e b1 4d ef 3d 56 c7 17 be
       0.21741565 0.2055937 0.1168474 -0.14822134
000190 a1 1a cc b9 88 0e 0c be 31 e2 ef 3d 21 0a 5c 3e
       -0.00038929752 -0.13677418 0.117130645 0.21488239
0001a0 1a ad 78 be 92 17 c1 be 4b 16 ab bd 48 47 9e 3d
       -0.24284783 -0.37713295 -0.083538614 0.077284396
0001b0 0f 69 75 3e f8 c5 bd 3c 1e 0c 3f bf d7 8b 86 be
       0.23965858 0.023165688 -0.74627864 -0.26278564
0001c0 9d 68 4b bd 48 c0 25 3e 46 3b 21 3e b0 ac dc be
       -0.049660314 0.1618663 0.15745267 -0.431005
0001d0 56 96 ab 3c a0 4a 20 be da 31 f3 3d b8 2e f9 bd
       0.02094571 -0.15653467 0.11874743 -0.12167114
0001e0 38 89 99 bd 67 d0 d6 bc 42 cb 10 be 0a ca 54 be
       -0.074968755 -0.02622242 -0.14140037 -0.20780197
0001f0 7d 76 f3 3c 98 a0 66 be bd e0 8d 3e 64 62 59 3e
       0.029719586 -0.22522199 0.27710524 0.2122894
000200 f1 42 2c 3e c9 71 af be c7 9c c7 3a 05 d9 6a 3e
       0.16822411 -0.342665 0.0015229218 0.22934349
000210 c0 cd 7b be 73 6a 17 bf fc 4e d0 be 86 fc 5d 3d
       -0.24590206 -0.59146804 -0.4068526 0.054195903
000220 f6 09 31 be 91 74 bc be 00 10 65 be 8c 37 51 be
       -0.17288956 -0.36807683 -0.22369385 -0.20431346
000230 1f 6c 83 3e 29 98 f8 3d cd f1 33 be db cc d7 3d
       0.25668427 0.12138397 -0.17572708 0.1053712
000240 a6 8e 06 be 18 f3 d3 3e 8f a0 6c 3e 1e a5 c8 bd
       -0.13140354 0.41396403 0.23108123 -0.097971186
000250 e3 87 42 be d2 a3 db 3d
       -0.18997149 0.107246056

conv2.depthwise.weight_fake_quant.scale f4 [6]
000000 0c eb 86 3b 7c 38 92 3b 1e c7 d3 3b 2c 93 ae 3b
       0.0041173752 0.0044623 0.0064629456 0.005327603
000010 4d 08 bf 3b b8 68 97 3b
       0.005829847 0.0046206377

conv2.depthwise.weight_fake_quant.activation_post_process.min_val f4 [6]
000000 0c eb 06 bf 71 31 34 be 2a c3 d3 be aa 70 16 bf
       -0.52702403 -0.17596985 -0.41359836 -0.5876566
000010 4d 08 3f bf b8 68 17 bf
       -0.7462204 -0.59144163

conv2.depthwise.weight_fake_quant.activation_post_process.max_val f4 [6]
000000 de 15 ba 3e 0b 14 11 3f 90 1f 52 3f 06 36 2d 3f
       0.36344808 0.5667121 0.8207941 0.6766056
000010 c9 6b 75 3e 19 f1 d3 3e
       0.23966898 0.4139488

conv2.pointwise.weight f4 [16, 6, 1, 1]
000000 94 a8 c4 bd 5b 3f 0d be e1 49 95 3e 9c fd 28 bf
       -0.09602466 -0.137937 0.29157928 -0.6601198
000010 08 4d 5f be f7 e8 21 bd 2a 6b cc be 2d 23 eb bd
       -0.21806729 -0.039528813 -0.3992551 -0.114813186
000020 2b c3 10 bf 01 25 64 3e 77 50 12 3f ae 35 2d 3f
       -0.565478 0.22279741 0.5715403 0.67660034
000030 1d 0b 63 be 0a 09 22 3f 1e 74 15 3c c5 38 0a bf
       -0.22172208 0.6329504 0.009121923 -0.53992873
000040 44 dc 8a 3e 47 16 ba bd 28 ea 81 bb e4 15 59 bd
       0.27121174 -0.0908628 -0.003964681 -0.052999392
000050 2a 21 08 bf aa df 32 3f 5b 79 0c bd 74 3e 83 bd
       -0.53175604 0.69872534 -0.03429542 -0.06408396
000060 1f 06 d2 be 87 aa ba 3e a4 cf 2e 3e 5b 02 36 3f
       -0.41020295 0.36458227 0.17071396 0.71097344
000070 e7 7e 13 3e b4 06 dd bd a2 6a cc be 08 da b8 3e
       0.14403878 -0.10792294 -0.39925104 0.36103845
000080 e6 7b 92 3e 70 b8 9e 3e c7 97 98 be 19 13 33 3f
       0.28610152 0.3100009 -0.29803297 0.69951016
000090 ce ff fe be 1e a4 b2 3c 40 7b 13 be bc cb 2e 3f
       -0.49804538 0.021806773 -0.14402485 0.68279624
0000a0 f9 6c 1e bf b7 90 bd 3d 0b 18 31 3f 88 8e 05 3e
       -0.6188503 0.09256118 0.6917731 0.13042653
0000b0 fa 49 c0 be 29 eb e5 3d 43 34 6c be 61 cf 20 be
       -0.3755644 0.11226494 -0.23066811 -0.15704109
0000c0 16 d7 4f be 08 02 fd 3e 49 16 2a be a7 44 9a 3d
       -0.20296893 0.49415612 -0.16610064 0.07532626
0000d0 86 5d f1 be 15 47 28 bf 87 d1 10 3f 91 b0 30 3e
       -0.47141665 -0.6573346 0.56569713 0.17254855
0000e0 39 c9 ca be e5 ec 5d bf ba b7 b9 3d fd c9 4a 3e
       -0.39606646 -0.866896 0.09068246 0.19803615
0000f0 6a ff 1b be 47 01 09 3f fe a5 25 be d4 4a 2d 3f
       -0.15234151 0.53517574 -0.16176602 0.67692304
000100 e7 40 74 bc 6b f8 84 be 38 5a 19 bf 7d c2 14 bc
       -0.014908052 -0.25970778 -0.5990329 -0.009079573
000110 97 03 33 3d 1f 15 c7 be 5d 27 4e 3e ca 50 b0 3e
       0.043704595 -0.38883302 0.20132203 0.34436637
000120 49 e6 43 3e b2 de 73 be db 49 e6 3d 63 84 5c bf
       0.19130816 -0.2381542 0.112445556 -0.86139506
000130 65 95 89 be 6f b2 0d bf a7 06 84 bd ea 94 a3 be
       -0.2687179 -0.55350393 -0.06446581 -0.3194955
000140 28 9f f2 3e 68 95 b3 be 9c 0f b3 bd 33 fb 26 bf
       0.47387052 -0.35074925 -0.087432116 -0.6522705
000150 54 68 fa be 76 7e 32 3f dd c4 15 be 99 d2 f2 3e
       -0.4890772 0.69724214 -0.14625879 0.47426298
000160 d2 84 38 3c e2 d5 8a 3e f9 72 65 be 14 26 df bc
       0.011262136 0.27116305 -0.2240714 -0.027239837
000170 ef b2 8d 3e ba 08 c6 bb dd 79 a1 be 2b 16 73 bf
       0.27675578 -0.0060435208 -0.31538287 -0.949557

conv2.pointwise.weight_fake_quant.scale f4 [16]
000000 d4 fa a8 3b 5d 93 ae 3b 2f 50 a3 3b 1f 4b b4 3b
       0.005156854 0.0053276257 0.004983924 0.005502119
000010 3b 70 b7 3b dc 7d b4 3b 06 2b b0 3b f0 7d b2 3b
       0.0055980957 0.0055081677 0.0053762225 0.005447142
000020 7e 44 a8 3b 22 eb dd 3b 8b ab ae 3b 48 59 99 3b
       0.005135118 0.006772415 0.005330508 0.0046798326
000030 64 85 dc 3b 64 fb a6 3b 24 e7 b3 3b 4e 13 f3 3b
       0.0067297686 0.005095886 0.0054902006 0.007418073

conv2.pointwise.weight_fake_quant.activation_post_process.min_val f4 [16]
000000 d4 fa 28 bf bd c3 10 bf c8 39 0a bf 5c 21 08 bf
       -0.66007733 -0.5654867 -0.5399442 -0.531759
000010 c1 05 d2 be 46 6a cc be d1 6a 1e bf 75 49 c0 be
       -0.41020015 -0.3992483 -0.6188174 -0.37556043
000020 7e 44 28 bf 22 eb 5d bf 59 fd 84 be 48 59 19 bf
       -0.6572951 -0.8668691 -0.2597454 -0.5990186
000030 64 85 5c bf 64 fb 26 bf 3a 69 fa be 4e 13 73 bf
       -0.8614104 -0.6522734 -0.48908406 -0.9495133

conv2.pointwise.weight_fake_quant.activation_post_process.max_val f4 [16]
000000 12 4e 95 3e 36 36 2d 3f 8f 09 22 3f 89 e2 32 3f
       0.29161125 0.67660844 0.63295835 0.69876915
000010 5b 01 36 3f e0 14 33 3f b0 ca 2e 3f f4 18 31 3f
       0.7109582 0.6995373 0.68278027 0.691787
000020 9e fe fc 3e 93 d0 10 3f 34 4e 2d 3f 5c 52 b0 3e
       0.49413007 0.5656826 0.67697453 0.34437835
000030 9f e4 43 3e 93 9e f2 3e 56 7f 32 3f d4 b0 8d 3e
       0.19130181 0.47386608 0.6972555 0.27673972

conv3.depthwise.weight f4 [16, 1, 5, 5]
000000 85 9c aa be 33 cb 13 be 73 84 16 3d 31 a4 ba 3d
       -0.3332254 -0.14432983 0.036747407 0.09113348
000010 1e f4 51 3e bb ac 6a bd 4c bd 15 bc 79 2d 5c 3e
       0.2050328 -0.057293635 -0.00913937 0.21501721
000020 83 63 e8 bd 93 75 0e bf 83 14 65 3e 92 df 01 3d
       -0.11347105 -0.55648154 0.22371106 0.031707354
000030 2d 90 14 3f 8d 09 f4 bd 88 ab eb be 0d 95 35 3e
       0.58032495 -0.11915884 -0.46029305 0.1773264
000040 cf 73 6d be 4a 87 3a 3d 6e 7a 3c 3a 2d d2 45 3e
       -0.23188709 0.045539178 0.00071898743 0.19318457
000050 c6 e8 b2 be 08 9c d4 be 1d 6c ce be 3b 86 4d bd
       -0.34943217 -0.41525292 -0.4031686 -0.05017684
000060 c8 72 ba 3e a2 15 5f be c7 57 28 3d dd c7 43 be
       0.36415696 -0.21785596 0.041099336 -0.1911921
000070 e3 1b 33 bf 14 06 3c be 8d 77 1a 3e ab 00 0e 3d
       -0.69964427 -0.18361694 0.15084668 0.034668606
000080 6c c0 90 be ea e1 01 be 11 79 3c 3e b6 31 af 3e
       -0.28271806 -0.12683836 0.18405558 0.34217614
000090 0c 8a 45 3e c5 c6 3a be fe 7b e6 3e 14 b2 28 3e
       0.19290942 -0.18239887 0.45016474 0.16474181
0000a0 b7 fb 91 3d f5 33 42 3e 03 bb 8a be 97 b5 6a 3d
       0.07128089 0.18965133 -0.27095804 0.057302084
0000b0 e0 1a 1f be 54 e5 7b bd 20 d9 39 be a6 64 da be
       -0.15537596 -0.061498 -0.18149233 -0.42654914
0000c0 0d 33 63 be 82 34 b4 bd 9c 40 2e 3e 79 64 df 3d
       -0.22187443 -0.087990776 0.17016834 0.109078355
0000d0 be 75 00 3e ac 36 26 3e 41 3d 10 3c d0 03 5f 3e
       0.12544915 0.16231793 0.008803667 0.21778798
0000e0 a3 ce 5a 3e eb 71 1c be 1d 57 18 be b0 43 2d be
       0.21367888 -0.15277831 -0.14876981 -0.16920352
0000f0 05 7d 48 be 0f ea a9 bd d5 bd 4f be 2e c5 37 3f
       -0.19578941 -0.08296596 -0.20287259 0.7178525
000100 f3 ab ec 3d c9 3a ab be 9e bc f0 be 6e 65 20 3e
       0.11556234 -0.33443287 -0.47018903 0.15663692
000110 9e 54 46 3d 7a 9a aa be 07 73 0d be 43 e9 99 3d
       0.04842054 -0.3332098 -0.1381341 0.07515194
000120 58 b1 21 bd c5 97 95 bd d1 0a 8b be ca 5a 94 bd
       -0.03947577 -0.07304338 -0.2715669 -0.07243879
000130 ab 92 cd 3c 2f cb 4b 3e b3 5a a4 be 76 4c 1f be
       0.02509435 0.19901727 -0.32100448 -0.15556511
000140 4a d1 5b 3d fe 36 99 3e 5b 3e 31 3e b5 e8 86 be
       0.05366639 0.29924768 0.17308943 -0.26349416
000150 c9 8e 27 be 08 80 80 3e 50 bb 40 bd 1d 19 ed be
       -0.16363062 0.2509768 -0.047053635 -0.46308222
000160 aa d3 1b 3e 0c 1b 74 bd 1f 66 92 be 91 10 ad be
       0.15217462 -0.059596106 -0.28593537 -0.33801702
000170 d6 54 9b 3d e9 cb f0 3e b1 b0 85 3e 3f 37 14 bf
       0.075845405 0.4703057 0.26111367 -0.578968
000180 b1 f4 1d be bb a9 7c 3e 7f 0f 8b 3e b0 69 cc 3d
       -0.15425374 0.24674122 0.2716026 0.09981096
000190 b7 08 05 3f 62 a6 c3 3e 2c cd ce 3e c9 ef 3f 3d
       0.5196642 0.38212878 0.4039091 0.046859536
0001a0 7d 93 91 bc 37 4f af be 18 8d 5e be 5c 5a 16 bd
       -0.017770523 -0.34240124 -0.2173351 -0.036707267
0001b0 76 4c f1 3e 04 ac 61 3e 6c 15 eb be 03 d6 09 be
       0.47128648 0.22038275 -0.4591478 -0.13460545
0001c0 80 1a 0b 3e 2f 0c 35 3e cd b2 18 3e 08 aa 1e be
       0.13584328 0.17680429 0.14911957 -0.1549455
0001d0 66 86 3c bd a6 da ba 3d 51 17 8f 3d 1a 19 4a bb
       -0.04602661 0.09123735 0.06986869 -0.0030837716
0001e0 b4 db f1 bd d8 7a 37 be 59 c8 11 be 2e 90 8e be
       -0.11809483 -0.17917955 -0.14236583 -0.27844375
0001f0 62 89 f7 be f0 81 a2 bd 39 40 b2 bb c5 7f 3e 3e
       -0.48347002 -0.0793494 -0.005439785 0.18603428
000200 0a 2d 29 3f 73 8d d5 3e 1e 44 07 be d9 a1 2f be
       0.6608435 0.4170948 -0.13209578 -0.17151584
000210 1c 98 5d be 13 db 7d be 00 b6 d5 3d 47 52 1a be
       -0.21640056 -0.24790601 0.10435104 -0.15070449
000220 2f b7 32 be a1 49 95 be cf 14 1c 3e 08 5e a0 3e
       -0.17452691 -0.29157737 0.15242313 0.3132174
000230 73 3b 6b bd 05 1e 1b be e1 ef 8f 3e 68 e7 97 3e
       -0.057429742 -0.1514817 0.281127 0.29668736
000240 12 a2 13 3e f3 87 81 be f7 15 08 bd a7 a8 54 3e
       0.14417294 -0.25299034 -0.033224072 0.20767461
000250 59 7c 0c 3e 0e 7d 02 3e eb a1 c4 3d 66 c9 28 3e
       0.1371931 0.12743017 0.09601196 0.16483077
000260 f3 d2 d2 3e 78 2e 9f 3e f2 d3 4e 3e d4 4e 23 bd
       0.41176566 0.3109014 0.20198038 -0.0398701
000270 e5 86 2e 3e 55 85 bc 3d 4e c7 4a 3e d3 d1 87 3e
       0.17043646 0.092051186 0.19802591 0.2652727
000280 51 91 44 3e 25 ed 0c 3e 03 40 84 3d 7e eb 1d ba
       0.19196059 0.13762338 0.06457522 -0.0006024166
000290 3c b0 c9 be ea 67 a3 bd 3c 1a dc bd dc a5 35 be
       -0.3939227 -0.079788044 -0.10747191 -0.17739052
0002a0 17 cd e9 be 62 c3 bb bd 2f 43 81 be c2 7d 54 be
       -0.45664284 -0.09168126 -0.2524657 -0.20751098
0002b0 d7 9c 5a be d2 b2 6e be 81 9e 8b be a7 7c d3 3e
       -0.21348892 -0.23310402 -0.27269366 0.4130604
0002c0 24 86 2f 3f 5a 05 61 3e ff 18 4a bc 37 ab 85 be
       0.6856406 0.21974698 -0.012335061 -0.2610719
0002d0 4b 93 c2 3e 9a 6e b0 3d de ca fa bb 49 ee f6 3b
       0.38003 0.086148456 -0.007653578 0.00753573
0002e0 30 d9 9a bb eb 3c 11 be bd d3 cc 3e 44 d0 a1 3e
       -0.004725598 -0.14183395 0.40005293 0.31604207
0002f0 eb 4a 2f be f8 66 30 be e7 2c 81 be f3 d0 29 3e
       -0.17118423 -0.1722678 -0.2522957 0.16583614
000300 8d ac 37 be c9 15 8d be f3 8d 92 be cc 0d e9 3c
       -0.17936917 -0.27555683 -0.28623924 0.028448962
000310 60 92 17 3e 39 49 c3 3e c9 90 94 3e 28 4a ac bc
       0.14801931 0.38141802 0.29016712 -0.021031454
000320 9d 23 aa bd 89 72 b1 3d 14 71 75 bd 8e 18 2a bd
       -0.08307574 0.08664424 -0.059922293 -0.041527323
000330 1b 0f 94 be 1b e0 7f bd 96 ac 52 be 3e 9e ff bd
       -0.28917775 -0.062469583 -0.20573649 -0.12481354
000340 9a a1 36 be c9 80 b2 3d f4 5d b4 be 1e 1c f7 bc
       -0.17835084 0.0871597 -0.3522793 -0.030164775
000350 98 e3 dc be 84 c3 38 bf ea 55 4c bd 82 02 b0 bc
       -0.4314239 -0.72173333 -0.04988662 -0.02148557
000360 12 fd 02 be 9c c8 7d bd a5 9e 65 bd a3 18 49 be
       -0.12791851 -0.061958894 -0.0560595 -0.19638304
000370 2e f5 18 bd a2 6d a1 bd 08 47 63 3e ce 5b ae 3d
       -0.037343197 -0.07882239 0.22195065 0.08513604
000380 89 e8 f8 bc 06 7e 1d 3e 47 24 12 3e e7 83 4e 3e
       -0.030384319 0.15380105 0.14271651 0.20167504
000390 52 d5 a7 bc 69 a5 61 bd 75 3a d2 3d 9a df a5 be
       -0.020487461 -0.055089388 0.10265056 -0.32397157
0003a0 99 29 88 bd 2e c0 9a be 98 3f 9b be 83 d2 9b 3e
       -0.06648559 -0.30224746 -0.30321956 0.30434045
0003b0 7d b8 13 bd 9a 1a 40 3e 4a 1e 74 be ca a2 49 3e
       -0.036064614 0.18760148 -0.2383968 0.19691005
0003c0 01 03 34 3e 52 2d 91 be 19 d4 51 be 71 ed 94 3e
       0.17579271 -0.2835489 -0.20491065 0.29087403
0003d0 19 48 a6 3e ac bc 9e be 17 d9 e5 be b6 98 3d be
       0.3247688 -0.3100332 -0.4489219 -0.18515286
0003e0 b2 15 2f 3f dd 0b 3f 3c d8 da 4d be d5 ef 7d be
       0.6839248 0.011660543 -0.20103014 -0.2479852
0003f0 53 08 2a be 3e 94 d8 3d 66 ab ac bd b0 42 bf be
       -0.16604738 0.1057515 -0.08431129 -0.37355566

conv3.depthwise.weight_fake_quant.scale f4 [16]
000000 ca ba 95 3b 7e 1d b3 3b 57 3a b9 3b 17 39 94 3b
       0.004569386 0.005466162 0.0056527066 0.004523407
000010 0e 17 86 3b ba 81 aa 3b 7a cb 69 3b c8 ea b0 3b
       0.004092104 0.005203453 0.003567426 0.005399082
000020 38 c1 b8 3b 4b 75 b0 3b 9a bd a9 3b 8e 6a 86 3b
       0.005638268 0.005385076 0.005180073 0.004102058
000030 ab 91 9b 3b d8 70 c8 3b ad 5a a2 3b a4 43 a3 3b
       0.0047475896 0.0061169676 0.004954657 0.0049824286

conv3.depthwise.weight_fake_quant.activation_post_process.min_val f4 [16]
000000 4b 74 0e bf 7e 1d 33 bf 37 b7 f0 be 17 39 14 bf
       -0.556462 -0.69966877 -0.47014782 -0.5789961
000010 e1 86 f7 be f0 4a 95 be 7a cb e9 be eb 88 92 be
       -0.48345092 -0.29158735 -0.45663053 -0.28620085
000020 38 c1 38 bf d9 d8 e5 be 80 9c 02 bf 8e 6a 06 bf
       -0.7216983 -0.44892004 -0.5102005 -0.5250634
000030 d6 36 ab be 23 01 67 be b0 ea e3 be a4 43 23 bf
       -0.33440274 -0.22559027 -0.4451499 -0.63775086

conv3.depthwise.weight_fake_quant.activation_post_process.max_val f4 [16]
000000 54 8f 14 3f 16 80 e6 3e e2 c7 37 3f 76 cd f0 3e
       0.580312 0.45019597 0.7178937 0.47031754
000010 e0 0a 05 3f b7 2c 29 3f ad d4 d2 3e f2 88 2f 3f
       0.5196972 0.66083854 0.41177884 0.68568337
000020 76 46 63 3e 60 14 2f 3f 1f 6a 28 3f 0c 9d e4 3e
       0.22194847 0.68390465 0.6578693 0.44651067
000030 88 5a 1a 3f f6 df 46 3f f8 15 21 3f 05 2f ac 3e
       0.6029439 0.7768549 0.62924147 0.33629623

conv3.pointwise.weight f4 [120, 16, 1, 1]
000000 15 d4 4a be 73 56 cd 3e 02 94 a5 be 90 a8 4c 3c
       -0.19807465 0.40105018 -0.32339483 0.01249136
000010 cc 0a 96 3e 0c 11 88 bd 81 af c4 3d 80 b1 95 be
       0.29305112 -0.066438764 0.09603787 -0.29236984
000020 92 c1 34 3d 87 de 2e 3e 3a 91 9a 3c 56 22 63 be
       0.044129916 0.17077075 0.018868078 -0.22181067
000030 64 52 ca 3e a0 57 2e bf 9e 29 5f 3e 81 04 00 3f
       0.39515984 -0.68102455 0.2179322 0.5000687
000040 ae 30 62 3e cb d5 de 3e 4c 4f 6c 3e e6 88 5e 3e
       0.22088882 0.43522486 0.23077124 0.2173191
000050 da 90 0f 3e 81 01 9b bd 37 2e d6 bc 64 88 29 be
       0.140201 -0.07568646 -0.026145084 -0.16555935
000060 93 a5 22 be 04 61 d5 bc 4d 90 e7 3e 5a 13 2b 3e
       -0.15883474 -0.026047237 0.4522728 0.16706601
000070 74 14 0d be 7f 90 2a bf 0f b1 3c 3e 9f f1 18 3e
       -0.13777333 -0.66626734 0.18426917 0.14935921
000080 df ec 0e be 4d 46 ec 3e b4 9a 0d 3e 1e 32 af 3e
       -0.13957547 0.46147385 0.13828546 0.34217924
000090 cf 66 0c 3e 52 a7 0d 3e c4 a9 45 be 61 0d 89 3d
       0.13711093 0.13833359 -0.19303042 0.06692005
0000a0 e4 31 6b 3e a9 ed 54 3e bd d9 81 3e 16 5b d3 3e
       0.2296825 0.20793785 0.25361434 0.4128043
0000b0 96 43 80 3c ba a8 3f be 5d 62 2d bf 37 63 f5 3d
       0.015657227 -0.18716708 -0.67728215 0.11981814
0000c0 ff 4f 46 3e 6b 17 a4 be d4 dc 0c bf e9 28 97 3e
       0.19366454 -0.32049116 -0.55024457 0.295234
0000d0 ed ab 3b be aa 43 b1 bd f9 c7 61 be 63 8c 07 be
       -0.18327303 -0.08655484 -0.2204894 -0.13237147
0000e0 f6 3f f3 3d 3f 39 09 3f dd 0f 3e be 5f c6 de 3d
       0.11877434 0.53602976 -0.18560739 0.1087768
0000f0 62 02 b2 3d d3 5a d1 3c 0d ad c4 3e b5 9e b6 3e
       0.08691861 0.025556004 0.38413277 0.3566796
000100 02 01 88 bd 94 31 8c be d2 ab b4 bd c9 cd b8 bd
       -0.06640817 -0.27381575 -0.088218346 -0.090236254
000110 46 2a 75 be 51 f7 80 3d 68 b5 90 3e 85 5b d8 3e
       -0.23941907 0.06297172 0.28263402 0.42257324
000120 65 9d d7 bc 89 48 05 3f fd 7e de bb d0 86 2d 3f
       -0.026320169 0.52063805 -0.0067900405 0.6778383
000130 0b c4 1a bd 1f 2d ae be fe 6c 4d 3e ee 11 ea 3d
       -0.037784617 -0.340188 0.20061108 0.11429201
000140 ee ce d5 3d 90 48 79 be 0a e7 1b be f0 6a 82 3d
       0.10439859 -0.24344087 -0.15224853 0.06368053
000150 e9 bc 56 3e 62 ed 11 3f cc 82 87 bc f4 31 4d be
       0.20970501 0.5700284 -0.016541861 -0.20038587
000160 6a d9 37 3e ea 3b ca bd 1b ef 5e 3d 17 66 b8 bd
       0.1795403 -0.09874709 0.054427247 -0.09003847
000170 ad a1 07 3e 61 9d 40 3f 61 e4 f3 be fe ad be be
       0.13245268 0.7524014 -0.47635177 -0.3724212
000180 e4 dd 99 3d d5 4b ee 3e 1a f5 1b be 15 bb 90 bd
       0.075130254 0.4654223 -0.15230218 -0.07066933
000190 7b 56 84 3c c8 b4 43 3e 18 95 1c 3e 7d e0 e1 bd
       0.016154518 0.19111931 0.1529125 -0.11029146
0001a0 c5 92 22 bc 2a ce 36 be 73 a9 91 3e 91 04 37 3e
       -0.009922688 -0.17852083 0.28449592 0.17872836
0001b0 fb aa 2e 3f d5 6d 8a bd d2 ce ce 3e 9b f0 64 3e
       0.68229645 -0.0675923 0.40392166 0.22357409
0001c0 c7 2b 28 be 88 0d 77 3e bb 16 47 be e8 35 39 3d
       -0.1642295 0.24126256 -0.19442265 0.045217425
0001d0 e4 88 31 bf f8 f2 4c be b9 68 56 be 5e 8b 25 be
       -0.69349504 -0.2001456 -0.20938386 -0.16166446
0001e0 92 f4 dc bd 4d 78 0c bf ed 55 08 3e df cd 44 3e
       -0.107888356 -0.54871064 0.13314028 0.19219159
0001f0 03 e1 c2 bd c7 dc 83 be ab 8b d9 bd 2b ab 74 be
       -0.09515574 -0.25754377 -0.10622343 -0.2389342
000200 e1 2f a1 3d ca 41 61 be 47 80 e5 3b fd 4d 84 3e
       0.0787046 -0.21997753 0.0070038172 0.2584075
000210 8f d7 2f 3e ad f8 44 3c f4 f2 1c bf 08 f0 75 3d
       0.17172073 0.01202218 -0.6130822 0.060043365
000220 1d b8 a7 3e 22 39 98 3e be 9c 76 be d0 62 ea bd
       0.32757655 0.2973109 -0.2408323 -0.11444628
000230 c2 25 b3 3e c8 1f c4 bc 21 1b 96 be 56 e1 6e 3e
       0.34989744 -0.023940936 -0.29317573 0.23328146
000240 7c 59 df 3e 9f fc 87 3d 6b d2 24 3f 7a d3 80 3e
       0.4362296 0.066399805 0.6438357 0.25161344
000250 c9 31 15 be 66 cd 0d bc cf 89 b8 be 23 4c 6a bd
       -0.14569773 -0.008654928 -0.3604264 -0.057201516
000260 91 37 b8 3c 51 ff d9 3e fb fb aa be be 86 8c 3e
       0.022487434 0.42577603 -0.3339537 0.2744655
000270 a4 c0 7c bd 0b c9 6d 3d 06 a0 07 be 97 3c a0 3e
       -0.061707154 0.058053058 -0.13244638 0.31296226
000280 b8 03 ac 3e ba 38 d5 be 1c ed a6 3e c7 90 82 bd
       0.33596587 -0.4164484 0.32602775 -0.0637527
000290 68 29 0f 3f f2 0e 86 bd fa 35 bb be 7c a5 bb 3d
       0.55922556 -0.06545819 -0.36564618 0.09162423
0002a0 86 ed 4f 3d 4e 64 73 bd 82 ce 2b bd fa 06 e4 3c
       0.05076363 -0.05942183 -0.041944988 0.027835358
0002b0 23 ad 91 3e b7 13 fd be a7 63 a7 3e dc 2e 40 be
       0.28452405 -0.49429104 0.32693216 -0.18767875
0002c0 10 49 c2 3d d0 dd 73 3e 23 57 a8 3e cd 44 1f 3f
       0.09486592 0.23815084 0.3287898 0.62214357
0002d0 db 2e 8f 3e 4b 5f 2c be 67 f8 82 3e c2 52 2a 3e
       0.27965435 -0.16833226 0.2558014 0.16633132
0002e0 e1 fb b5 bc ed 50 3b be 67 a1 3d be 4c 6b 4f be
       -0.022214832 -0.1829259 -0.18518601 -0.20255774
0002f0 92 26 0f 3e 0b e7 56 bc 58 d2 df 3c 43 2b 37 3e
       0.13979557 -0.013116608 0.02732198 0.17887597
000300 b6 9b 91 3c 06 cb bd be c2 f9 91 3d e0 02 66 3e
       0.017774444 -0.37068957 0.07127716 0.22462034
000310 1f fb 98 3e 4f a5 e5 3e 08 54 88 3e ee 6e 0f 3e
       0.2987909 0.44852683 0.2662661 0.1400716
000320 66 61 0a 3c a8 dc 69 be 31 c2 36 3f cb c4 2f be
       0.008446073 -0.2283808 0.7139006 -0.17164914
000330 45 2b 6e 3e be ea 94 3d 84 b2 6a be 80 8e 9f be
       0.23258694 0.07271336 -0.22919661 -0.31163406
000340 dd 81 f4 3d f8 b0 6a 3e 51 ff 15 3f 68 22 9c be
       0.11938832 0.2291907 0.58592707 -0.30495
000350 0b 46 88 3d 60 0c cb bd f2 f4 7a 3e ec ff 59 3e
       0.06653985 -0.0991447 0.24507502 0.21289033
000360 69 b4 df 3d e7 f4 03 be 17 dc 9e be f6 ed 5b 3d
       0.109230824 -0.12886392 -0.3102729 0.053693734
000370 73 f7 c2 be 50 4a b2 3e 2c 39 3b be a1 a6 06 be
       -0.38079414 0.3482232 -0.18283528 -0.13149501
000380 9a 33 a6 be d0 7b 2b 3e 42 8a 2a be f1 d7 4e 3e
       -0.32461244 0.1674645 -0.16654304 0.20199563
000390 af 1c 98 be c2 9e 23 3e aa ba e1 3d ce c4 c2 be
       -0.29709384 0.1597853 0.110219315 -0.38040775
0003a0 4e 24 9d 3d 5a a6 9e be 47 ef 3f bc 1a a7 c4 3e
       0.0767294 -0.3098629 -0.011714763 0.38408738
0003b0 fc 3d 6d be ed ef 08 3d 6c 9c b8 bd 92 33 fd 3d
       -0.23168176 0.033431936 -0.0901421 0.12363352
0003c0 ba 8e 06 be b0 b7 d0 3d b5 28 d6 bd 98 3d f1 bd
       -0.13140383 0.101912856 -0.10456983 -0.11779326
0003d0 a0 6e a6 be 46 ef 94 3e 0f ed 42 be 42 9f 03 bf
       -0.32506275 0.290888 -0.19035743 -0.51414883
0003e0 64 4a c8 bd a8 91 de 3e fe 96 04 bd a2 41 ce 3c
       -0.09779814 0.43470502 -0.03237056 0.02517778
0003f0 c9 92 30 bf d1 35 b5 be 70 ee a6 be 22 ed 2c be
       -0.68973976 -0.3539262 -0.32603788 -0.16887334

conv3.pointwise.weight_fake_quant.scale f4 [120]
000000 5b 56 ae 3b 0e 90 aa 3b 8b 61 ad 3b 20 dc 8c 3b
       0.005320353 0.005205161 0.005291169 0.004298702
000010 86 e2 ae 3b 73 22 c2 3b 43 0b b0 3b 7c 88 b1 3b
       0.0053370623 0.005924517 0.0053724363 0.0054178815
000020 3d ef 9c 3b ea 21 a6 3b d8 4b 90 3b 17 88 a0 3b
       0.0047892616 0.005069961 0.0044035725 0.0048990357
000030 1a 37 b8 3b 78 30 97 3b 51 30 46 3b d9 91 b0 3b
       0.005621803 0.004613932 0.0030241201 0.00538848
000040 ba 4c 8e 3b 45 0b 92 3b 92 79 75 3b 38 89 df 3b
       0.0043426426 0.00445691 0.0037456495 0.0068217777
000050 90 40 b0 3b ee ff c5 3b 4b 5d db 3b 10 ee d4 3b
       0.00537879 0.006042472 0.006694471 0.006498106
000060 ad e0 68 3b c2 e7 6f 3b b3 92 d6 3b 44 23 6e 3b
       0.0035534308 0.0036606644 0.0065482496 0.0036336938
000070 79 44 51 3b da d1 81 3b bd a0 7c 3b 3a dc a0 3b
       0.0031931682 0.003961784 0.0038547956 0.0049090656
000080 1a 53 9e 3b 28 46 52 3b fc 66 b0 3b 36 5f a1 3b
       0.004831684 0.0032085273 0.0053833704 0.00492468
000090 63 72 7b 3b 0c fa bb 3b d8 a1 87 3b 97 ec a1 3b
       0.003836774 0.005736595 0.0041391663 0.004941534
0000a0 d4 9c 84 3b b9 d9 96 3b d0 6b 95 3b 15 55 b1 3b
       0.0040470157 0.0046035913 0.0045599714 0.005411754
0000b0 b7 25 95 3b 94 ca c6 3b 31 3c 6b 3b 5b 24 7a 3b
       0.004551615 0.0060666297 0.0035894031 0.0038168642
0000c0 13 7c ae 3b fc 07 8a 3b d8 69 b5 3b 08 d4 bf 3b
       0.0053248494 0.0042123776 0.005536299 0.0058541335
0000d0 c7 9d b3 3b cd 25 93 3b b9 78 89 3b 6c b8 d0 3b
       0.005481455 0.00449059 0.0041952995 0.006369641
0000e0 b4 34 c2 3b a6 97 c1 3b fe c8 8c 3b ee 38 95 3b
       0.005926693 0.0059079705 0.004296421 0.0045539057
0000f0 a3 f5 a0 3b 00 55 8e 3b 26 90 82 3b a2 33 94 3b
       0.0049120947 0.004343629 0.003984469 0.0045227567
000100 08 74 8f 3b 41 4a 8f 3b a9 1c 7c 3b 3e aa 8e 3b
       0.0043778457 0.0043728654 0.0038469231 0.0043537905
000110 21 26 a8 3b ef b3 98 3b a3 b4 b2 3b 10 71 4b 3b
       0.0051314984 0.0046601216 0.0054536625 0.0031042732
000120 76 ba a4 3b 8d ab 8f 3b 2a 68 b6 3b 1e b2 96 3b
       0.0050271107 0.004384464 0.0055666165 0.00459887
000130 0a a8 87 3b a8 8f b1 3b f1 f4 ac 3b f8 42 70 3b
       0.004139905 0.0054187365 0.0052782227 0.003666101
000140 80 20 73 3b 5c d4 80 3b 30 32 d1 3b 53 85 9f 3b
       0.003709823 0.003931565 0.0063841566 0.0048681884
000150 6e 4f c6 3b 18 dd 87 3b 52 20 9b 3b a9 eb 9a 3b
       0.006051949 0.0041462295 0.0047340775 0.0047278
000160 08 07 71 3b 20 77 a4 3b c3 d4 d0 3b bf 9d b9 3b
       0.0036777873 0.0050190836 0.0063730194 0.0056645568
000170 d8 26 84 3b 97 55 93 3b 3e 97 53 3b 24 c1 94 3b
       0.004032951 0.004496287 0.0032286192 0.0045396257
000180 a3 82 be 3b 97 7c a3 3b 67 4c a6 3b 60 44 92 3b
       0.005813913 0.0049892175 0.005075026 0.0044637173
000190 09 4c c4 3b 22 d5 86 3b ac 9a cc 3b f3 de d7 3b
       0.0059905094 0.004114763 0.0062440243 0.006587857
0001a0 ed 65 ae 3b a2 a7 83 3b ec a5 c5 3b 87 b7 85 3b
       0.005322209 0.004017786 0.0060317423 0.004080716
0001b0 3c e8 ba 3b 57 fd 8d 3b ce 4e 80 3b 9a 9f 91 3b
       0.005703954 0.004333179 0.0039156443 0.004444075
0001c0 5c 45 8d 3b 40 61 af 3b 62 f3 a3 3b 24 6c 0d 3b
       0.004311247 0.0053521693 0.0050033787 0.002157935
0001d0 c7 21 a1 3b 9d 2c 8a 3b df 60 d3 3b 06 a8 b2 3b
       0.0049173567 0.004216744 0.006450757 0.005452159

conv3.pointwise.weight_fake_quant.activation_post_process.min_val f4 [120]
000000 5b 56 2e bf 0e 90 2a bf 8b 61 2d bf 20 dc 0c bf
       -0.6810052 -0.6662606 -0.67726964 -0.55023384
000010 b5 2f ae be 30 e4 f3 be fd d6 36 be 7c 88 31 bf
       -0.34020773 -0.4763503 -0.17855449 -0.69348884
000020 3d ef 1c bf 7a 87 b8 be ce 11 fd be 2e 6c 4f be
       -0.6130255 -0.3604086 -0.49427646 -0.20256111
000030 39 c7 bd be 19 f7 c2 be 7a c6 c2 be d9 91 30 bf
       -0.37066057 -0.38079146 -0.3804205 -0.68972546
000040 10 78 ca be 40 94 c2 be 9b 84 ec be c4 dd 82 be
       -0.39544725 -0.3800373 -0.4619492 -0.2555982
000050 90 40 30 bf e1 80 df be 23 51 09 bf 10 ee 54 bf
       -0.68848515 -0.43653014 -0.5363943 -0.83175755
000060 36 84 0c be 9c 6b d1 be b3 92 56 bf 44 23 ee be
       -0.1372231 -0.40902412 -0.83817595 -0.4651128
000070 5a 17 9b be da d1 01 bf 29 36 c5 be 3a dc 20 bf
       -0.30291253 -0.50710833 -0.38517883 -0.6283604
000080 c0 f3 cf be 1b c8 74 be fc 66 30 bf 36 5f 21 bf
       -0.40615654 -0.23904459 -0.6890714 -0.63035905
000090 e0 bb d9 be 5c c4 db be 69 3b b1 be 3f 89 ef be
       -0.4252615 -0.42923248 -0.3461564 -0.46784398
0000a0 d4 9c 04 bf cf 25 f3 be d0 6b 15 bf b7 c4 b3 be
       -0.518018 -0.47489783 -0.58367634 -0.3511102
0000b0 2b e0 df be 1f 88 c7 be 1a 71 87 be 5b 24 fa be
       -0.43725714 -0.3897104 -0.26453477 -0.48855862
0000c0 13 7c 2e bf 4e d2 d7 be d8 69 35 bf 08 d4 3f bf
       -0.6815807 -0.42152637 -0.7086463 -0.7493291
0000d0 c7 9d 33 bf b7 94 c2 be 0d dc cd be 6e 46 9f be
       -0.70162624 -0.38004085 -0.40206948 -0.3110842
0000e0 b4 34 42 bf a9 36 04 bf f6 2c 79 be ee 38 15 bf
       -0.7586167 -0.51645905 -0.24333557 -0.5828999
0000f0 3c d7 d4 be 00 55 0e bf b5 4d e6 be b4 8f f6 be
       -0.4157046 -0.5559845 -0.4498116 -0.48156512
000100 83 47 c0 be e3 34 87 be 72 2e ed be 3e aa 0e bf
       -0.3755456 -0.26407537 -0.46324497 -0.5572852
000110 21 26 28 bf ef b3 18 bf 52 ee d1 be 10 71 cb be
       -0.6568318 -0.59649557 -0.41002136 -0.39734697
000120 0a e3 f9 be 33 83 05 bf b4 9d b8 be 1e b2 16 bf
       -0.4880603 -0.5215332 -0.36057818 -0.58865535
000130 ea 7b b3 be a8 8f 31 bf f1 f4 2c bf f8 42 f0 be
       -0.35055476 -0.6935983 -0.6756125 -0.46926093
000140 9a 62 a0 be a2 03 e6 be 21 a5 e2 be 24 d4 86 be
       -0.31325227 -0.44924647 -0.44266608 -0.26333725
000150 c2 d8 b2 be 18 dd 07 bf 5e 68 e8 be 43 5f cd be
       -0.34930998 -0.5307174 -0.45392126 -0.4011174
000160 27 6e 70 be 0c 0d 79 be 8a a1 d6 be 51 fb 97 be
       -0.2347952 -0.24321383 -0.4192012 -0.29683927
000170 d6 b1 eb be 97 55 13 bf 3e 97 d3 be 24 c1 14 bf
       -0.46034116 -0.57552475 -0.41326326 -0.5810721
000180 6c 78 f4 be df 5d a7 be 67 4c 26 bf 60 44 12 bf
       -0.47748125 -0.32688805 -0.6496033 -0.5713558
000190 09 4c 44 bf 1e b2 f7 be ac 9a 4c bf f3 de 57 bf
       -0.7667852 -0.4837808 -0.7992351 -0.8432457
0001a0 ed 65 2e bf 08 07 c1 be 32 e2 be be d9 3b a1 be
       -0.68124276 -0.37700677 -0.37281948 -0.31490973
0001b0 d3 a7 c9 be be 34 81 be 3d e4 8f be b7 2a cb be
       -0.39385852 -0.25235552 -0.2810382 -0.39681026
0001c0 10 b0 ee be 40 61 2f bf 62 f3 23 bf 24 6c 8d be
       -0.466187 -0.68507767 -0.6404325 -0.27621567
0001d0 c7 21 21 bf e6 39 76 be df 60 53 bf 2c d6 c1 be
       -0.62942165 -0.24045524 -0.8256969 -0.37858713

conv3.pointwise.weight_fake_quant.activation_post_process.max_val f4 [120]
000000 ff 00 00 3f 1c 90 e7 3e 13 48 ec 3e 70 36 09 3f
       0.5000152 0.45227134 0.46148738 0.5359869
000010 c1 84 2d 3f 2e 9e 40 3f 2c ab 2e 3f c6 12 77 3e
       0.6778069 0.75241363 0.6822994 0.24128255
000020 9c 1d b3 3e a6 d5 24 3f 40 2b 0f 3f 07 47 1f 3f
       0.34983528 0.643885 0.5592537 0.62217754
000030 ac c6 36 3f 17 02 16 3f f0 a3 c4 3e 8e 90 de 3e
       0.713969 0.5859694 0.38406324 0.4346966
000040 21 30 0d 3f 2e e7 10 3f 9f 8e f3 3e 26 ca 5d 3f
       0.55151564 0.5660275 0.4756975 0.8663658
000050 e8 9d ea 3e ee 73 44 3f 90 a6 59 3f 6f c3 c3 3e
       0.45823598 0.76739395 0.8501978 0.38235041
000060 ec 0e e7 3e f2 07 ee 3e bd ef 86 3e 53 5b a8 3e
       0.45128572 0.46490437 0.2635478 0.32882175
000070 f0 a1 cf 3e 01 8c e4 3e 7c a7 fa 3e 3b e5 04 3f
       0.40553236 0.44638065 0.48955905 0.5191228
000080 74 16 1d 3f 9c a1 d0 3e 50 ce b2 3e 33 6c ba 3e
       0.61362386 0.40748298 0.3492303 0.36410674
000090 7e 7b f9 3e 18 82 3a 3f 94 92 06 3f be a8 20 3f
       0.4872703 0.7285476 0.5256741 0.6275748
0000a0 4b d1 8d 3e 06 ac 15 3f 2c 57 b8 3e 6b f2 2f 3f
       0.2769874 0.5846561 0.36004007 0.68729275
0000b0 6c fb 13 3f ff 3c 45 3f b9 65 e9 3e 7a eb e6 3e
       0.57805514 0.770462 0.4558542 0.4510153
0000c0 70 8a 89 3e ec f3 08 3f 78 c4 de 3e 48 a0 14 3f
       0.26863432 0.53497195 0.4350927 0.5805707
0000d0 76 0e 22 3e 81 ff 11 3f c8 65 08 3f fb 16 4f 3f
       0.15825829 0.57030493 0.53280306 0.8089444
0000e0 14 ba e8 3e 77 14 40 3f 6c af 0b 3f 4f ee d3 3e
       0.45454466 0.75031227 0.5456455 0.41392753
0000f0 b8 b3 1f 3f 3f e2 f4 3e 06 8b 01 3f 3b 0b 13 3f
       0.62383604 0.47828862 0.5060276 0.5743901
000100 20 55 0e 3f ac 2b 0e 3f 70 24 fa 3e 30 40 ce 3e
       0.5559864 0.5553539 0.48855925 0.40283346
000110 10 a6 ce 3e 10 32 ff 3e 3a 4f 31 3f 26 ab c6 3e
       0.4036107 0.49842882 0.69261515 0.3880245
000120 01 71 23 3f 36 8c 0e 3f 5a fb 34 3f 20 5c b0 3e
       0.63844305 0.55682695 0.7069603 0.34445286
000130 ba 98 06 3f b6 20 d5 3e ba c1 9d 3e 7a 38 69 3e
       0.5257679 0.4162652 0.30811864 0.2277545
000140 3f 3a f1 3e 67 a5 ff 3e cc 8f 4f 3f 48 46 1e 3f
       0.4711475 0.4993088 0.8107879 0.6182599
000150 cf c2 44 3f 7f 9e be 3e 11 ea 19 3f d2 b5 19 3f
       0.76859754 0.37230298 0.6012278 0.6004306
000160 fa 24 ef 3e 32 2e 23 3f 19 33 4f 3f 84 2a 38 3f
       0.46707898 0.63742363 0.80937344 0.71939874
000170 8a 1e 03 3f 6e 1b cd 3e 64 fa bd 3e a9 04 a6 3e
       0.51218474 0.4005999 0.37105095 0.3242543
000180 9e 05 3d 3f 9e 35 22 3f 8c 3c 9d 3e 74 7d a4 3e
       0.73836696 0.63363063 0.30710256 0.32126963
000190 e3 36 d2 3e 78 c7 05 3f b4 11 0b 3f 55 f0 b5 3e
       0.410575 0.5225749 0.5432389 0.3553492
0001a0 08 7f 06 3f 53 a0 02 3f a0 1a 44 3f 18 ac 04 3f
       0.52537584 0.51025885 0.76603127 0.51825094
0001b0 6c 72 39 3f 5c e1 0c 3f 60 9c fe 3e 5b 7c 10 3f
       0.7244022 0.5503137 0.4972868 0.5643975
0001c0 d1 2a 0c 3f 42 5a 2a 3f f3 ad ac 3e e8 b3 81 3e
       0.5475283 0.6654397 0.33726463 0.2533257
0001d0 c5 c5 e5 3e 44 18 09 3f 32 51 ca 3e b6 42 31 3f
       0.4487745 0.5355265 0.39515072 0.6924242

fc1.weight f4 [84, 120]
000000 3f 6a bc 3d bc 99 17 be 13 d9 22 bd 17 b0 0f bf
       0.09199952 -0.14804739 -0.0397578 -0.56128067
000010 6b 78 96 3d c7 fc b1 3b 01 60 b4 3d cb 2c 79 ba
       0.07347187 0.0054317447 0.08807374 -0.0009505271
000020 43 c1 e1 be b8 1d 05 bf 21 e7 9d be 52 97 5d be
       -0.4409276 -0.5199847 -0.308404 -0.21639755
000030 5b c1 5f be fd 59 88 be 80 6a 56 be bf d3 ee bc
       -0.21851103 -0.26631156 -0.20939064 -0.029153703
000040 25 48 35 be 52 da 1d bd e9 b6 35 be 00 97 29 3e
       -0.17703302 -0.038538285 -0.17745556 0.16561508
000050 8a 12 6e 3e 7f f3 54 3e fd 45 03 3e 34 71 a5 bc
       0.2324926 0.20796011 0.12819667 -0.020195581
000060 9e 9b d0 be a2 37 19 3e ae d1 33 bd 72 df ab 3c
       -0.40743726 0.14962628 -0.043901138 0.02098057
000070 0b ca 94 3c 84 d7 5d 3b 22 eb 98 3d 81 bd ac 3d
       0.018162748 0.003385038 0.07466723 0.084345825
000080 0e 49 22 bd b2 be 45 3e a4 52 e1 3d c2 69 d3 bd
       -0.03962045 0.19311026 0.110020906 -0.10322906
000090 e2 91 41 bd 8c 94 0f bd 7d dd 03 bd fd 37 05 be
       -0.047258265 -0.035053775 -0.03219365 -0.13009639
0000a0 49 a0 bc be 57 e6 12 bc 66 e3 20 be 33 fd a6 3d
       -0.36841038 -0.00896605 -0.15711746 0.08153763
0000b0 e2 0d ac bd 84 3c 98 bd 1a f2 27 3d 7d 23 78 be
       -0.084010854 -0.074334174 0.04100237 -0.24232288
0000c0 fa d3 a0 bc bd 04 62 be 8b 95 b2 3d 86 6a 88 be
       -0.019632328 -0.2207212 0.08719929 -0.2664377
0000d0 63 c3 87 be f4 ec 0a 3e 63 78 55 be be b3 6d 3d
       -0.26516256 0.13566953 -0.20846705 0.058032744
0000e0 6b e0 5e bd 1a f6 a5 3d 54 c8 cb 3d 84 ab 6d be
       -0.05441324 0.08103581 0.09950319 -0.2320996
0000f0 73 b2 72 be 56 a4 74 3e 4f b3 a0 bd 16 a4 5a 3d
       -0.23700885 0.23890814 -0.078467004 0.05337914
000100 8e 97 25 be 1c 8f c3 3c 0c 5b 67 be 01 c0 83 3c
       -0.16171095 0.02387195 -0.22593325 0.016082766
000110 ce 28 ca bd 0e 51 09 bc ac a5 ab be 14 2b 20 3e
       -0.09871064 -0.008381141 -0.33524835 0.15641433
000120 87 11 09 be e8 ac a5 3e 15 2b 3b be 42 f0 3e be
       -0.13385592 0.3235848 -0.18278153 -0.18646339
000130 d4 c3 2e bd e8 f6 cf 3b b9 03 72 bd 07 8b 94 be
       -0.042667225 0.006346572 -0.05908558 -0.2901232
000140 5c cf e6 3d 03 ef dd 3c dc 8f 1d 3e 4e dd a0 bc
       0.112700194 0.027091509 0.15386909 -0.019636776
000150 fb dc c7 bc ca 99 0c bd 48 6f 88 be e2 69 aa bc
       -0.024397364 -0.034326352 -0.266474 -0.020802442
000160 cd 8e 31 3e bd b4 b8 3d 84 23 93 3e 2e fd bb 3d
       0.1733963 0.09018848 0.28738034 0.091791496
000170 fc 94 b6 3e be a5 2a bd 4d 10 2d be e0 5c 6a be
       0.3566054 -0.04166197 -0.1690075 -0.22886992
000180 5a f9 5b 3e c9 10 30 3d 44 78 9b be 30 d9 b3 be
       0.21481839 0.042984758 -0.30365193 -0.35126638
000190 ea 34 ce be 7c bd 88 be bf 95 f3 bd e5 d5 8b be
       -0.40274745 -0.26707065 -0.11893796 -0.27311626
0001a0 e6 82 64 3d 7b df 86 bb 72 67 2d 3e aa ec 4d 3d
       0.055788897 -0.0041159964 0.16933993 0.05027453
0001b0 e7 e6 12 be ab a3 9d 3d dc 2c 71 bd 74 0c 84 3d
       -0.14345895 0.07697233 -0.05888067 0.06447688
0001c0 17 f8 8d bd 92 64 a3 be 1d e7 30 3c 0c bc aa bd
       -0.06932085 -0.31912667 0.010797289 -0.08336648
0001d0 81 e3 12 be d8 f3 82 bd db 44 20 3e 1e 14 80 bd
       -0.14344598 -0.06394166 0.15651266 -0.06253837
0001e0 7f e3 8a bd d1 32 0a bd a2 af ae 3c a0 a3 f5 bb
       -0.06781673 -0.03373987 0.021323983 -0.0074963123
0001f0 d5 94 bb bd ac fb a4 bd 57 fd b9 3d d0 6c d2 bd
       -0.09159247 -0.08055815 0.09081524 -0.102746606
000200 da 79 81 3c 86 ff a3 bd 46 a4 ca bc 12 2d b9 bd
       0.015805174 -0.080077216 -0.024736535 -0.090417996
000210 d3 67 98 bd bd ac c2 bd 21 b8 f4 bd 34 6d 26 3d
       -0.07441678 -0.095056035 -0.11949182 0.040631488
000220 8f 63 e4 bb 4b de 99 bd a5 ac fd bd 46 cc 82 3c
       -0.006969876 -0.07513102 -0.12386445 0.015966546
000230 3f 7d 08 be e3 ed 9f 3d 6a 52 46 3d bc 2c 87 bd
       -0.13329028 0.07809045 0.04841844 -0.06600329
000240 bf 57 23 3d 5c fe c6 bc 9a b5 99 bd 77 c3 39 bd
       0.039878603 -0.02429121 -0.07505341 -0.045352425
000250 62 fc 28 3c e7 93 69 bd 48 a5 29 3d fc 40 1d bd
       0.010314079 -0.057025816 0.04141739 -0.038392052
000260 62 1e 37 bd ee 1c 8f 3d 29 bc ec 3c 6d 8a df bd
       -0.04470671 0.0698794 0.028898316 -0.109150745
000270 3e 0b 92 bd 45 9b e6 3c 09 70 49 bd 31 53 0d bd
       -0.071310505 0.02815021 -0.04917911 -0.034503166
000280 3e cb b6 bd de 58 1b be e9 ce 1a 3c b3 a2 d6 3c
       -0.08925484 -0.15170619 0.009448745 0.026200628
000290 bc f8 18 3c 90 57 d0 36 48 e9 62 3d 18 8a 7d bd
       0.009336647 6.2090767e-06 0.055398256 -0.061899275
0002a0 3f 80 5d bd 44 c5 94 bc 33 1e c5 bc 71 b8 bb bb
       -0.054077383 -0.01816047 -0.024062252 -0.0057287742
0002b0 4d bc 83 bd 58 89 e0 3c 54 8c 45 bd fc 4a b4 bc
       -0.064324 0.02740924 -0.04822953 -0.022008412
0002c0 c0 4d 21 be c4 e1 65 bd 7e 8b b6 bd 74 fd ea bc
       -0.15752316 -0.05612351 -0.08913325 -0.028685309
0002d0 eb 8c 8c 3d 76 75 40 3d 55 0d 16 3d 2e 30 90 bd
       0.068628155 0.04698702 0.03663381 -0.070404395
0002e0 68 5f 3d 3b 83 fd ed bc f8 da 88 bd f4 f7 5d bd
       0.0028895978 -0.029051548 -0.0668239 -0.054191545
0002f0 1c a3 ac bd a8 e3 a7 3c e2 c7 c2 bd 93 da d6 3c
       -0.08429548 0.020494297 -0.09510781 0.026227271
000300 29 5b c8 bc f3 3f 30 bd 0e 97 2f bd 23 82 ff 3b
       -0.024457531 -0.043029737 -0.042868666 0.007797496
000310 f0 1c cf bc 83 20 a1 3c 15 41 b2 3c 85 5c e3 bd
       -0.025282353 0.019668823 0.02175955 -0.11101631
000320 de 34 fc bc f3 b8 0f bd f8 fb 50 3d 0b c6 af bc
       -0.030786928 -0.03508849 0.051021546 -0.021456739
000330 87 1e 56 bd 3f 06 cb bd db d4 56 bd 0d ae 9d bc
       -0.052275207 -0.09913301 -0.05244909 -0.019248033
000340 d7 db 0c 3c 1f 79 8b 3c 6d f9 63 bd 1e c4 b3 bc
       0.008597336 0.017025528 -0.055657793 -0.021944102
000350 30 4e dc bd f4 6b e6 bd 64 00 f5 3c b2 ce dc bd
       -0.107571006 -0.11251059 0.029907413 -0.107816115
000360 c9 bf bd bd bc 24 d7 bc ba 38 40 bd 0e a6 2e 3c
       -0.09265096 -0.026262634 -0.0469291 0.010659708
000370 b6 a0 35 bd fc bc 5a bc c9 8e a1 bd f6 47 82 bd
       -0.04434272 -0.013350721 -0.07888562 -0.06361382
000380 29 6d 3b bd 41 6b 70 3b 9c 3f 3f 3d 8c e3 45 bd
       -0.0457584 0.0036685022 0.046691522 -0.04831271
000390 7c b6 01 bd 3c ec 07 3d 58 55 94 bd 6a df 95 3c
       -0.03166817 0.033184275 -0.072428405 0.018295009
0003a0 92 a2 0e bd 8e 9f c2 bd be d5 fc bd f7 4c 88 3c
       -0.034823008 -0.09503089 -0.123454556 0.016638262
0003b0 eb 7b 2c bd 44 8d 6c bd f0 9d e6 bc eb b1 0f bd
       -0.042110365 -0.05775191 -0.028151482 -0.035081785
0003c0 07 9f 06 3d df d2 8e be d5 87 28 bd ee fc 0b 3f
       0.032866504 -0.27895257 -0.041145165 0.54682815
0003d0 77 df 6e be 1c bf ab be dd 73 0a be cf b6 36 bc
       -0.23327433 -0.33544242 -0.13520761 -0.011151983
0003e0 4f ae 09 3e 5f e2 54 3e 58 81 b4 bd 60 ca b0 3d
       0.134454 0.20789479 -0.08813733 0.0863235
0003f0 13 6e 18 be 30 ee f3 bd 41 74 2b be cd 70 e1 bb
       -0.1488574 -0.11910665 -0.16743566 -0.006879902

fc1.weight_fake_quant.scale f4 [84]
000000 54 b1 8f 3b 8e 4d a1 3a 64 18 8d 3b ec 33 ac 3b
       0.004385153 0.0012306438 0.004305886 0.005255213
000010 6a c4 95 3b 86 b7 84 3a de 22 b2 3b d3 fc 80 3b
       0.0045705335 0.0010125495 0.0054362854 0.003936389
000020 0f 8a 79 3b c4 0c 7a 3b b7 59 9d 3b 22 19 86 3a
       0.0038076674 0.0038154582 0.0048019546 0.0010230879
000030 d3 19 a1 3b b9 fa 72 3b f3 c1 73 3b 8b 23 84 3b
       0.0049164086 0.0037075712 0.003719446 0.0040325574
000040 e0 67 93 3b 06 fe 89 3b 97 86 ab 3b 1c b7 9d 3b
       0.004498467 0.00421119 0.00523455 0.004813088
000050 b9 43 82 3b 0d 66 91 3b 09 c8 82 3b 66 06 86 3b
       0.0039753583 0.004437214 0.003991131 0.004090118
000060 24 a7 77 3b 97 8a 9e 3b cb be 9e 3b 9f 82 9a 3b
       0.0037788833 0.0048382985 0.0048445216 0.0047152783
000070 4a e7 86 3b 87 d6 35 3b a3 1c 34 3b 3c 74 82 3b
       0.0041169273 0.0027746276 0.002748289 0.0039811414
000080 19 14 60 3b 9e 4e 76 3a 5a d7 6f 3b 28 9d 6f 3b
       0.0034191667 0.000939587 0.0036596865 0.0036562178
000090 3e 52 74 3b c5 0f 73 3b 0b 14 c3 3b 3c c9 97 3a
       0.0037280465 0.0037088257 0.005953317 0.0011580358
0000a0 fc 89 52 3a b3 80 7d 3b 48 ce a5 3b 45 77 88 3b
       0.00080314255 0.0038681447 0.005059991 0.0041646087
0000b0 f5 bd 82 3b 4a ef 6e 3b e3 38 8e 3b 68 02 94 3b
       0.00398993 0.0036458545 0.0043402775 0.0045168884
0000c0 ea 8c 82 3b 2d 7c b0 3b 3e 93 af 3b 3a b7 b3 3b
       0.0039840834 0.0053858967 0.005358129 0.005484489
0000d0 dd f8 7c 3b 98 6f 87 3b 0c 8b 9b 3b de 12 73 3b
       0.0038600483 0.004133176 0.0047468003 0.0037090103
0000e0 dc ea 9d 3b 16 5a 9d 3b 08 2c 7a 3b 1c 7b 87 3b
       0.004819257 0.004801999 0.0038173217 0.004134549
0000f0 34 00 84 3b a5 b4 8a 3b 07 69 5f 3b e8 d6 92 3b
       0.0040283445 0.0042329603 0.00340897 0.004481185
000100 c1 15 89 3b 12 f5 fe 3a b5 de 8a 3b fe d1 9b 3a
       0.0041835015 0.0019451699 0.0042379745 0.0011888144
000110 8e 3a 98 3b 9f ae 9c 3b 5a 57 93 3b 16 50 8b 3a
       0.004645652 0.0047815586 0.004496497 0.0010628726
000120 10 c0 84 3b 73 07 b6 3b 0a b7 87 3b af 5c 85 3b
       0.004051216 0.0055550872 0.004141693 0.0040698866
000130 bb 90 7b 3b 00 e7 53 3b e8 24 92 3a 5e d6 83 3b
       0.0038385827 0.0032333732 0.0011149915 0.0040233573
000140 97 c5 7f 3b a5 8c b0 3b a7 d6 87 3b 78 36 6d 3b
       0.0039027685 0.00538786 0.0041454616 0.0036195796

fc1.weight_fake_quant.activation_post_process.min_val f4 [84]
000000 54 b1 0f bf 8e 4d 21 be bd 68 cb be ec 33 2c bf
       -0.56129956 -0.15752241 -0.39728346 -0.67266726
000010 6a c4 15 bf 86 b7 04 be de 22 32 bf d3 fc 00 bf
       -0.5850283 -0.12960634 -0.69584453 -0.5038578
000020 0f 8a f9 be c4 0c fa be b7 59 1d bf 22 19 06 be
       -0.48738143 -0.48837864 -0.6146502 -0.13095525
000030 d3 19 21 bf b9 fa f2 be f3 c1 f3 be 8b 23 04 bf
       -0.6293003 -0.4745691 -0.4760891 -0.51616734
000040 e0 67 13 bf 06 fe 09 bf 97 86 2b bf 1c b7 1d bf
       -0.57580376 -0.53903234 -0.6700224 -0.6160753
000050 b9 43 02 bf 0d 66 11 bf 09 c8 02 bf 66 06 06 bf
       -0.50884587 -0.5679634 -0.5108648 -0.52353513
000060 b0 80 cc be bc 3e 06 bf cb be 1e bf 9f 82 1a bf
       -0.3994193 -0.52439475 -0.62009877 -0.6035556
000070 4a e7 06 bf 14 51 b2 be a3 1c b4 be 3c 74 02 bf
       -0.5269667 -0.34827483 -0.35178098 -0.5095861
000080 19 14 e0 be 9e 4e f6 bd 5a d7 ef be d5 58 c5 be
       -0.43765333 -0.12026714 -0.46843988 -0.38544336
000090 3e 52 f4 be 44 e7 eb be 0b 14 43 bf 3c c9 17 be
       -0.47718996 -0.4607488 -0.7620246 -0.14822859
0000a0 fc 89 d2 bd b3 80 fd be 48 ce 25 bf 45 77 08 bf
       -0.10280225 -0.49512252 -0.64767885 -0.5330699
0000b0 f5 bd 02 bf 4a ef ee be e3 38 0e bf 68 02 14 bf
       -0.510711 -0.46666938 -0.5555555 -0.5781617
0000c0 ea 8c 02 bf 2d 7c 30 bf 3e 93 2f bf d9 4d d1 be
       -0.5099627 -0.6893948 -0.6858405 -0.40879706
0000d0 dd f8 fc be 47 e3 bb be 0c 8b 1b bf de 12 f3 be
       -0.49408618 -0.36696836 -0.60759044 -0.47475332
0000e0 dc ea 1d bf 16 5a 1d bf 08 2c fa be 1c 7b 07 bf
       -0.6168649 -0.61465585 -0.48861718 -0.52922225
0000f0 34 00 04 bf 81 31 fa be 07 69 df be e8 d6 12 bf
       -0.5156281 -0.48865893 -0.43634817 -0.5735917
000100 c1 15 09 bf 6c f3 71 be 81 41 f2 be fe d1 1b be
       -0.5354882 -0.23628014 -0.473156 -0.15216824
000110 8e 3a 18 bf 9f ae 1c bf 5a 57 13 bf 16 50 0b be
       -0.5946435 -0.6120395 -0.5755516 -0.13604769
000120 10 c0 04 bf 73 07 36 bf 0a b7 07 bf af 5c 05 bf
       -0.51855564 -0.71105117 -0.5301367 -0.5209455
000130 bb 90 fb be 00 e7 d3 be e8 24 12 be 81 3d d4 be
       -0.49133858 -0.41387177 -0.14271891 -0.41453174
000140 97 c5 ff be a5 8c 30 bf a7 d6 07 bf 85 b8 c9 be
       -0.49955437 -0.68964607 -0.5306191 -0.3939859

fc1.weight_fake_quant.activation_post_process.max_val f4 [84]
000000 16 94 b6 3e 88 fd b9 3d 33 fe 0b 3f 22 97 ba 3e
       0.35659856 0.090815604 0.5468475 0.3644343
000010 14 56 a8 3e ec 85 99 3d e8 fe 78 3e 04 cf cc 3e
       0.32878172 0.07496247 0.24315989 0.4000169
000020 c2 22 f7 3e c2 75 d6 3e a3 6c ac 3e 30 7c b7 3d
       0.48268706 0.41886717 0.33676633 0.08959234
000030 f0 56 be 3e 8d 10 95 3e fd e2 e8 3e 33 0d 9c 3e
       0.37175703 0.2911419 0.45485678 0.3047882
000040 2f b7 ce 3e f4 b7 01 3f 4a ed f2 3e aa 98 d6 3e
       0.40374133 0.50671315 0.47446662 0.41913348
000050 cb 3e ba 3e 3a 20 75 3e f4 5d ea 3e 8c 9a fa 3e
       0.36376032 0.23938075 0.45774806 0.48946035
000060 d6 b7 f5 3e 82 4d 1d 3f 95 8b c4 3e 76 73 97 3e
       0.47991818 0.6144639 0.38387743 0.29580277
000070 9e 7d 00 3f da 6a b4 3e 6a 45 a1 3e 43 d8 96 3e
       0.50191677 0.3523777 0.3149827 0.2946187
000080 b6 21 aa 3e 96 d3 9b 3d 24 4f d9 3e ee bd ed 3e
       0.33228844 0.07608716 0.42443192 0.46433967
000090 0d ff be 3e a5 29 f1 3e 8e 87 15 3f 50 ba 03 3e
       0.37303963 0.47102085 0.58409965 0.12864041
0000a0 50 70 ba 3d fa 6e ca 3e 8d ad a6 3e 94 0b c9 3e
       0.09103453 0.39537793 0.32554284 0.39266646
0000b0 41 ac c0 3e 75 20 e9 3e 19 70 d1 3e 8f c6 ba 3e
       0.3763142 0.45532575 0.40905836 0.36479613
0000c0 3b 17 b0 3e 8a 86 25 3f ac fc a2 3e cc 4f 32 3f
       0.34392723 0.64658415 0.31833398 0.6965301
0000d0 41 9a ba 3e b9 60 06 3f 1a 2b c3 3e 10 8c b1 3e
       0.3644581 0.5249134 0.3811882 0.34677172
0000e0 04 51 1b 3f 40 ff 6e 3e 02 9d 97 3e 98 a1 ba 3e
       0.60670495 0.23339558 0.29611975 0.3645141
0000f0 ba 62 ec 3e 3c 9f 09 3f d0 36 be 3e 1a 97 85 3e
       0.46169072 0.537586 0.37151194 0.26091844
000100 e0 4f a4 3e 28 f7 7c 3e f8 c8 09 3f a6 24 a0 3d
       0.3209219 0.24703658 0.5382228 0.0781949
000110 d6 4d a9 3e c0 7e 97 3e bf a7 a5 3e b2 3f a4 3d
       0.33067197 0.2958889 0.32354543 0.080199614
000120 f4 94 c7 3e 26 b4 be 3e a7 54 cc 3e 4e 85 c9 3e
       0.3898083 0.37246817 0.39908335 0.39359516
000130 7d 71 c8 3e d0 97 cd 3e 68 a4 d5 3d b1 ce 02 3f
       0.39149085 0.40154886 0.10431749 0.51096636
000140 51 d9 da 3e 24 fa e1 3e 78 53 ae 3e 0b 5c eb 3e
       0.42743924 0.44136155 0.34048057 0.4596866
