experiments/exp019/checkpoint.pth (torch, 258466 bytes, 33 tensors)

quant.activation_post_process.histogram f4 [2048]
00000000: e014 a848 0000 0000 0000 0000 0000 0000
00000010: 0000 0000 0000 0000 0000 0000 0000 0000
00000020: 0000 0000 0000 0000 0000 0000 0000 0000
00000030: 0000 0000 0000 0000 0000 0000 0000 0000
00000040: 0000 0000 0000 0000 0000 0000 0000 0000
00000050: 0000 0000 0000 0000 0000 0000 0000 0000
00000060: 0000 0000 0000 0000 0000 0000 0000 0000
00000070: 0000 0000 0000 0000 0000 0000 0000 0000
00000080: 0000 0000 0000 0000 0000 0000 0000 0000
00000090: 0000 0000 0000 0000 0000 0000 0000 0000
000000a0: 0000 0000 0000 0000 0000 0000 0000 0000
000000b0: 0000 0000 0000 0000 0000 0000 0000 0000
000000c0: 0000 0000 0000 0000 0000 0000 0000 0000
000000d0: 0000 0000 0000 0000 0000 0000 0000 0000
000000e0: 0000 0000 0000 0000 0000 0000 0000 0000
000000f0: 0000 0000 0000 0000 0000 0000 0000 0000
00000100: 0000 0000 0000 0000 0000 0000 0000 0000
00000110: 0000 0000 0000 0000 0000 0000 0000 0000
00000120: 0000 0000 0000 0000 0000 0000 0000 0000
00000130: 0000 0000 0000 0000 0000 0000 0000 0000
00000140: 0000 0000 0000 0000 0000 0000 0000 0000
00000150: 0000 0000 0000 0000 0000 0000 0000 0000
00000160: 0000 0000 0000 0000 0000 0000 0000 0000
00000170: 0000 0000 0000 0000 0000 0000 0000 0000
00000180: 0000 0000 0000 0000 0000 0000 0000 0000
00000190: 0000 0000 0000 0000 0000 0000 0000 0000
000001a0: 0000 0000 0000 0000 0000 0000 0000 0000
000001b0: 0000 0000 0000 0000 0000 0000 0000 0000
000001c0: 0000 0000 0000 0000 0000 0000 0000 0000
000001d0: 0000 0000 0000 0000 0000 0000 0000 0000
000001e0: 0000 0000 0000 0000 0000 0000 0000 0000
000001f0: 0000 0000 0000 0000 0000 0000 0000 0000
00000200: 0000 0000 0000 0000 0000 0000 0000 0000
00000210: 0000 0000 0000 0000 0000 0000 0000 0000
00000220: 0000 0000 0000 0000 0000 0000 0000 0000
00000230: 0000 0000 0000 0000 0000 0000 0000 0000
00000240: 0000 0000 0000 0000 0000 0000 0000 0000
00000250: 0000 0000 0000 0000 0000 0000 0000 0000
00000260: 0000 0000 0000 0000 0000 0000 0000 0000
00000270: 3c5a a541 7181 3646 457d 6d44 0000 82bc
00000280: 0060 333c 0080 d53b 0080 083b 0000 1abb
00000290: 0040 debb 00c0 37bc 0030 80bc 0000 373c
000002a0: 00c0 dc3b 0000 173b 0080 0bbb 0000 d7bb
000002b0: 0020 34bc 00c0 7cbc 00b0 a2bc 0000 e43b
000002c0: 0080 253b 0000 faba 00c0 cfbb 0080 30bc
000002d0: 0020 79bc 00e0 a0bc 0040 eb3b 0000 343b
000002e0: 0000 ddba 0080 c8bb 00e0 2cbc 0080 75bc
000002f0: 0010 9fbc 0080 f23b 0080 423b 0000 c0ba
00000300: 0040 c1bb 0040 29bc 00e0 71bc 0040 9dbc
00000310: 00c0 f93b 0000 513b 0000 a3ba 0000 babb
00000320: 00a0 25bc 0040 6ebc 0070 9bbc 0080 003c
00000330: 0080 5f3b 0000 86ba 00c0 b2bb 0000 22bc
00000340: 00a0 6abc 00a0 99bc 0020 043c 0000 6e3b
00000350: 0000 52ba 0080 abbb 0060 1ebc 0000 67bc
00000360: 00d0 97bc 00c0 073c 0080 7c3b 0000 18ba
00000370: 0040 a4bb 00c0 1abc 0060 63bc 0000 96bc
00000380: 0060 0b3c 0080 853b 0000 bcb9 0000 9dbb
00000390: 0020 17bc 00c0 5fbc 0030 94bc 0000 0f3c
000003a0: 00c0 8c3b 0000 10b9 00c0 95bb 0080 13bc
000003b0: 0020 5cbc 0060 92bc 00a0 123c 0000 943b
000003c0: 0000 b038 0080 8ebb 00e0 0fbc 0080 58bc
000003d0: 0090 90bc 0040 163c 0040 9b3b 0000 a039
000003e0: 0040 87bb 0040 0cbc 00e0 54bc 00c0 8ebc
000003f0: 00e0 193c 0080 a23b 0000 0a3a 0000 80bb
344231.0 0.0 0.0 0.0 0.0 0.0 0.0 0.0
0.0 0.0 0.0 0.0 0.0 0.0 0.0 0.0
0.0 0.0 0.0 0.0 0.0 0.0 0.0 0.0
0.0 0.0 0.0 0.0 0.0 0.0 0.0 0.0
0.0 0.0 0.0 0.0 0.0 0.0 0.0 0.0
0.0 0.0 0.0 0.0 0.0 0.0 0.0 0.0
0.0 0.0 0.0 0.0 0.0 0.0 0.0 0.0
0.0 0.0 0.0 0.0 0.0 0.0 0.0 0.0
0.0 0.0 0.0 0.0 0.0 0.0 0.0 0.0
0.0 0.0 0.0 0.0 0.0 0.0 0.0 0.0
0.0 0.0 0.0 0.0 0.0 0.0 0.0 0.0
0.0 0.0 0.0 0.0 0.0 0.0 0.0 0.0
0.0 0.0 0.0 0.0 0.0 0.0 0.0 0.0
0.0 0.0 0.0 0.0 0.0 0.0 0.0 0.0
0.0 0.0 0.0 0.0 0.0 0.0 0.0 0.0
0.0 0.0 0.0 0.0 0.0 0.0 0.0 0.0
0.0 0.0 0.0 0.0 0.0 0.0 0.0 0.0
0.0 0.0 0.0 0.0 0.0 0.0 0.0 0.0
0.0 0.0 0.0 0.0 0.0 0.0 0.0 0.0
0.0 0.0 0.0 0.0 20.66906 11680.36 949.95734 -0.01586914
0.010948181 0.006515503 0.0020828247 -0.0023498535 -0.0067825317 -0.01121521 -0.015647888 0.011169434
0.0067367554 0.0023040771 -0.002128601 -0.0065612793 -0.0109939575 -0.015426636 -0.019859314 0.006958008
0.0025253296 -0.0019073486 -0.006340027 -0.010772705 -0.015205383 -0.019638062 0.0071792603 0.002746582
-0.0016860962 -0.0061187744 -0.010551453 -0.014984131 -0.01941681 0.0074005127 0.0029678345 -0.0014648438
-0.005897522 -0.0103302 -0.014762878 -0.019195557 0.007621765 0.003189087 -0.0012435913 -0.0056762695
-0.010108948 -0.014541626 -0.018974304 0.007843018 0.0034103394 -0.0010223389 -0.005455017 -0.009887695
-0.014320374 -0.018753052 0.00806427 0.0036315918 -0.0008010864 -0.0052337646 -0.009666443 -0.014099121
-0.0185318 0.008285522 0.0038528442 -0.000579834 -0.005012512 -0.00944519 -0.013877869 -0.018310547
0.008506775 0.0040740967 -0.00035858154 -0.0047912598 -0.009223938 -0.013656616 -0.018089294 0.008728027
0.004295349 -0.0001373291 -0.0045700073 -0.009002686 -0.013435364 -0.017868042 0.00894928 0.0045166016
8.392334e-05 -0.004348755 -0.008781433 -0.013214111 -0.01764679 0.009170532 0.004737854 0.00030517578
-0.0041275024 -0.008560181 -0.012992859 -0.017425537 0.009391785 0.0049591064 0.0005264282 -0.00390625

conv1.depthwise.weight f4 [2, 1, 5, 5]
00000000: fd3e 5fbe 19a7 c9bc cb0c 69be 0946 10be
00000010: 2334 b73c 27b8 c6be 39a8 35be 38ba 99be
00000020: d1cf d1be d2f4 84be ad02 98be 452e c1be
00000030: f82c a9be 6043 9ebe 5ff4 14be f5e0 fc3e
00000040: ac1a 843e 8444 743e e315 5dbd 85c7 b1be
00000050: d57a 123e 66a3 6d3e 93d9 2e3e f85f 98bc
00000060: 84d8 aebe 8b05 f63e 6ec0 2dbe 5161 dfbe
00000070: 4895 8ebe 635c 60bd 1e71 bfbe 4056 01bf
00000080: 5886 d4be 2a98 bcbe 54eb a33c 77d7 00be
00000090: a21c 32be 3329 73be d076 16bf 67bf 26be
000000a0: dba3 a43d dedb b3be cc2b 85be 86f7 3abe
000000b0: 365e 103d 567e ef3d dcf6 1f3e 1874 063b
000000c0: 61aa 53bd ab28 af3d
-0.21801372 -0.024615811 -0.22758786 -0.14089216 0.022363728 -0.38812372 -0.17739953 -0.30024886
-0.40978864 -0.25968033 -0.2968954 -0.37730613 -0.3304212 -0.30910778 -0.14546345 0.4939038
0.258016 0.23854262 -0.05397595 -0.34722534 0.14304669 0.23206863 0.17075185 -0.018600449
-0.34149563 0.48051104 -0.16967937 -0.43628934 -0.27848268 -0.054775607 -0.3739099 -0.5052223
-0.41508746 -0.36834842 0.020009674 -0.12582193 -0.17393735 -0.23746185 -0.58775043 -0.16283952
0.080390655 -0.35128683 -0.26009977 -0.18258485 0.035246097 0.116940185 0.15621513 0.0020515975
-0.051676158 0.08552679

conv1.depthwise.activation_post_process.histogram f4 [2048]
00000000: 0000 803f 0000 0000 0000 0000 0000 0000
00000010: 0000 0000 0000 0000 0000 0000 0040 7e3b
00000020: 40af ee3d f8ac 473f 00f7 cb3d 0000 0000
00000030: 0000 0000 0000 0000 0000 0000 0000 0000
00000040: 0000 0000 0000 0000 0000 0000 0000 0000
00000050: 0000 0000 0000 0000 0000 0000 0000 0000
00000060: 0000 0000 0000 0000 0000 0000 0000 0000
00000070: 0000 0000 0000 0000 0000 0000 0000 0000
00000080: 0000 0000 0000 0000 0000 0000 0000 0000
00000090: 0000 0000 0000 0000 0000 0000 0000 0000
000000a0: 0000 0000 0000 0000 0000 0000 0000 0000
000000b0: 0000 0000 ff74 2b38 a261 a13a dc25 543c
000000c0: f03c 883d 9ce3 403e c340 9c3e d4b6 8d3e
000000d0: 1422 023e e7e6 b23c 0031 7433 b0e4 1e34
000000e0: 409e f0b2 c85b b133 c054 7634 d8eb 0534
000000f0: 0072 26b1 b03b 2833 00c0 0fb1 000f 8333
00000100: f0ca e633 e8cb a833 0028 d133 a8fa 7234
00000110: f059 c233 fcf5 0434 007a efb2 4021 2e33
00000120: 70ff db33 0402 5d34 407a 0b34 e0cd 1133
00000130: b820 3b34 a097 f1b2 0064 bfb2 40fe ed33
00000140: f8d2 4734 602f dbb2 003f 9a33 486e 1c34
00000150: 8068 6ab2 3858 e533 40e1 1734 0008 feb0
00000160: 8073 4f32 803b d7b1 006f 7633 8c81 8e34
00000170: 38ef 1734 809a cab1 0092 3934 805d b533
00000180: f008 8f33 d078 1433 000e ce33 f424 a834
00000190: f8f9 3834 e011 e732 c03d 6b34 8043 9cb2
000001a0: 90da a0b3 feb2 083e 6075 aa3e cac2 aa3e
000001b0: a985 703e 8e93 963e 8756 f13e 7d23 083f
000001c0: 059b c93e 018c 463e d501 833d 39a5 663c
000001d0: a519 053b 4deb 4239 735f 2337 04e0 623f
000001e0: d9df e23d 2f0a 443b a165 8034 77ae a8b4
000001f0: b632 8633 3497 213f 18af a33e b333 513d
00000200: 1685 243e 4fa8 ba3e d3f0 ad3e e83c 9b3e
00000210: 249b bf3e b92b 993e 10bc 003e a09a e23c
00000220: 0d79 453b 831e 9f3a b7a7 603c bb9e b23d
00000230: 9225 8b3e 05f7 be3e cd49 4e3e a8e8 403d
00000240: 77cf 933b 5332 fc38 50ec 1835 54d3 ee36
00000250: 701b 8839 698f 753b c661 e13c 84e4 e33d
00000260: 275e 813e b0ee a13e 2c22 553e caa4 8c3d
00000270: 040a 383c ce7a 053c 0712 493d 0cda 313e
00000280: 7744 aa3e dc7c a33e 9b79 f03d 5d90 2635
00000290: b51c f0b3 4ced d7b4 5b19 86b5 44a7 68b4
000002a0: b0ed 05b5 25e4 2434 e64f b032 2f9a dfb4
000002b0: 74d7 25b5 af7c 1b33 b0c4 50b3 3ad3 0a35
000002c0: 143f e734 cd4e 583c 018d e43d b88c a53e
000002d0: a1e1 c73e 4748 453e 1f96 f83d f34f 873e
000002e0: 4a77 a13e 9996 4e3e 0d3e 783d 1cd0 b63b
000002f0: 0cc8 d93a 7c0e 3c3c 1e0c 533d cd3a 213e
00000300: 033e aa3e b0fd f73e 2dd4 f53e fc71 a13e
00000310: 84d5 053e c04f ff3c bf97 633b a0d0 b038
00000320: b4b6 8535 5cb2 0f34 2e5d 4036 83d8 a139
00000330: 3bbf 993b 0927 d23e b493 133f 1c65 b33e
00000340: 2a3a 893e 27ed 643e 1fbe 0c3f 6e6e fc3e
00000350: 120b fc3d f6bf ca3b 59d8 093d 2454 de3d
00000360: 046e 583e d589 863e 0d1d 5b3e 00a0 ea3d
00000370: 4b62 223d ffbf 0a3c 82ed 833a 9cb4 5038
00000380: c8c0 fb34 fd36 0d36 7a83 9f35 8ec5 9734
00000390: b88f 8735 e4b4 9634 b81b 4a35 fbfd b039
000003a0: df52 b33b 6fd3 083d e5a3 da3d 0cf4 513e
000003b0: 6415 823e 7211 623e 261a 3d3e 9ea1 673e
000003c0: 4b9d 913e 04cc 813e 2ae0 183e 2539 6e3d
000003d0: ae75 763c 89e8 5d3f eaae 1b3f 7c00 cb3e
000003e0: 8291 eb3d c316 1f3f 77e9 193f 7ed7 003f
000003f0: 3d16 c43f fa84 013f d44b 543e 2b52 313d
1.0 0.0 0.0 0.0 0.0 0.0 0.0 0.0038795471
0.1165452 0.77998304 0.09959221 0.0 0.0 0.0 0.0 0.0
0.0 0.0 0.0 0.0 0.0 0.0 0.0 0.0
0.0 0.0 0.0 0.0 0.0 0.0 0.0 0.0
0.0 0.0 0.0 0.0 0.0 0.0 0.0 0.0
0.0 0.0 0.0 0.0 0.0 4.0878538e-05 0.0012312422 0.0129484795
0.06652248 0.18836826 0.3051816 0.2767855 0.12708312 0.021838618 5.6855242e-08 1.4798093e-07
-2.8011641e-08 8.2589e-08 2.2941367e-07 1.247239e-07 -2.422098e-09 3.9169834e-08 -2.0918378e-09 6.102891e-08
1.0747124e-07 7.8602e-08 9.739597e-08 2.2629195e-07 9.0501885e-08 1.2382947e-07 -2.7878741e-08 4.0542773e-08
1.0244446e-07 2.0582962e-07 1.2989858e-07 3.3947686e-08 1.7427635e-07 -2.8125044e-08 -2.2280801e-08 1.108242e-07
1.8610069e-07 -2.55165e-08 7.1826435e-08 1.4568752e-07 -1.3644353e-08 1.06796904e-07 1.4144916e-07 -1.8483206e-09
1.20752475e-08 -6.264088e-09 5.7377292e-08 2.654382e-07 1.4149998e-07 -5.8965384e-09 1.7282582e-07 8.445477e-08
6.660582e-08 3.4568814e-08 9.595169e-08 3.1319325e-07 1.7227273e-07 2.6900068e-08 2.1908545e-07 -1.8191486e-08
-7.490337e-08 0.1334953 0.33292675 0.33351737 0.23488487 0.2940945 0.47136328 0.5317915
0.39376083 0.19389345 0.06396834 0.014077478 0.0020309475 0.00018588938 9.737781e-06 0.8862307
0.11077852 0.0029913296 2.3915803e-07 -3.1419378e-07 6.2490855e-08 0.6312134 0.31969523 0.051074695
0.16066393 0.36456534 0.33972797 0.30319905 0.3742305 0.2991617 0.1257174 0.027661622
0.0030131966 0.001213983 0.013711861 0.08721682 0.271771 0.37297836 0.2014534 0.04709688
0.0045108157 0.0001202567 5.696829e-07 7.1175546e-06 0.00025960384 0.0037469512 0.027512442 0.1112757
0.25267145 0.31627417 0.20813817 0.068673685 0.011232857 0.008146955 0.049089458 0.17368335
0.3325536 0.31931198 0.117419444 6.2049895e-07 -1.1181093e-07 -4.0219527e-07 -9.991157e-07 -2.1667535e-07
-4.989224e-07 1.5356689e-07 2.052543e-08 -4.164917e-07 -6.1780815e-07 3.620215e-08 -4.860766e-08 5.171638e-07
4.3072998e-07 0.013202381 0.11159707 0.32333922 0.3903933 0.19265853 0.12138008 0.26428184
0.31536323 0.20174636 0.06060605 0.005579008 0.0016615405 0.011478063 0.051525228 0.15745087
0.33250436 0.48435736 0.4801344 0.31532276 0.13069731 0.031165957 0.00347279 8.4311934e-05
9.962446e-07 1.33828e-07 2.8664467e-06 0.00030869627 0.004691986 0.41045406 0.5764725 0.35038078
0.26802188 0.22356091 0.549776 0.49303 0.12306799 0.0061874343 0.03365359 0.10855892
0.21135718 0.26277032 0.213978 0.11456299 0.03964452 0.008468627 0.001006529 4.975927e-05
4.689266e-07 2.1042645e-06 1.1884688e-06 2.8269682e-07 1.0100111e-06 2.8071292e-07 7.52912e-07 0.00033758566
0.0054725255 0.033404764 0.10675792 0.20503253 0.25406945 0.22076967 0.18467006 0.22620246
0.28440318 0.25350964 0.14929262 0.058159966 0.015042705 0.86682945 0.6081377 0.39648807
0.11502363 0.62144107 0.60121864 0.50328815 1.5319287 0.5059353 0.20732051 0.043291252

conv1.pointwise.weight f4 [6, 2, 1, 1]
00000000: 3775 4dbf 3fb2 163f c721 203f 5789 d43d
00000010: fc4f 22bf 14e0 92be 5e9f 00bc 4a98 443f
00000020: eb6a 083e 687c 353f 1035 223f 7efb 0fbf
-0.8025698 0.5886573 0.6255154 0.10377758 -0.63403296 -0.28686583 -0.007850496 0.76794875
0.13322036 0.70892954 0.63362217 -0.5624312

conv1.pointwise.activation_post_process.histogram f4 [2048]
00000000: 0000 803f 0000 0000 0000 0000 0000 0000
00000010: 0000 463f 0000 683e 0000 0000 0000 0000
00000020: 0000 0000 0000 0000 0000 0000 0000 0000
00000030: 0000 0000 0000 0000 0000 0000 0000 0000
00000040: 0000 0000 0000 0000 0000 0000 0000 0000
00000050: 0000 0000 0000 0000 0000 0000 0000 0000
00000060: 0040 d03e 00e0 0e3f 0000 103d 0000 0000
00000070: 0000 0000 0000 0000 0000 0000 0000 0000
00000080: 0000 0000 0000 0000 009c 803f 0058 1c3f
00000090: 00e0 c43e 0000 0000 0000 0000 0000 803f
000000a0: 0000 0000 0000 0000 0000 0000 0000 0000
000000b0: 0000 0000 0000 0000 0043 893d 6066 203f
000000c0: 8051 8e3e 0010 e93c 0000 0000 0000 0000
000000d0: 0000 0000 0000 0000 809d 133e 309f f63f
000000e0: c03c 6d3f 0080 1d3b 0000 0000 0000 0000
000000f0: 0000 0000 0000 0000 0000 0000 0000 0000
00000100: 0000 0000 0000 0000 0000 0000 0000 0000
00000110: 0000 0000 0000 0000 0000 0000 0000 0000
00000120: 0000 0000 00c0 943c 806d 253e c092 e23e
00000130: 806a c13e 0000 0000 c0fb f73c aef8 733e
00000140: 7b77 2e3f 448a f43f 55b5 293f 3d4f b43e
00000150: 30c7 fe3d 1800 293e 0c60 f93e 0388 983f
00000160: 0300 943f 0300 803f 0000 c034 1800 683e
00000170: 0600 013f 0c00 8a3e 0000 c034 0000 c034
00000180: 0000 c034 0000 c034 0000 c034 0000 c034
00000190: 0000 c034 0000 c034 0c70 b93e 0c70 fa3e
000001a0: f210 193e cc3b 0f3d 6f09 4e3e 7dbc c33e
000001b0: 38e5 923e 6e78 f03e 00cc ec3e f294 173e
000001c0: a53b 643c c6b5 b23b eecf 323d 2053 2a3e
000001d0: eb54 a13e 8413 993e feac 0e3e 608e ec3c
000001e0: 140b ff3a e5fd 2a3c b2e3 d63f 2a33 813f
000001f0: caef 0040 483c a13e 2218 023e e6eb cd3e
00000200: a109 e53f 7a63 af3f 8caa 8e3e 0d33 e53b
00000210: 561b c83c 0b2c e43d 7c19 863e 5f34 ae3f
00000220: f82d 003f 9301 b73f 5730 9e3e eed5 843c
00000230: 30ae b03d c03d 6c3e a8b1 d83e f046 5c3f
00000240: 3f35 ba3f 027a c63f cd21 aa3f 4330 dc3f
00000250: cfd4 a53e 82fd 0d3e 7aac 843e be48 a23e
00000260: be71 213f 0f7e 1d3f 4d71 763d 4e9e 093e
00000270: 8d7c f43e bb92 373f ca6d fd3e 3e00 533e
00000280: 9a77 453f eb79 393f 5e2a a33f dad0 0f3e
00000290: 0b67 193d 284c d03c c0be 2a3f b6e2 b73e
000002a0: a303 9a3f 1575 ff3e 5332 5f3f b38d f33f
000002b0: 60d2 3340 2420 a33f 68ef ef3f d69f ca3f
000002c0: 8ed4 143f c569 4d3f 4993 743f 7c5c b03f
000002d0: 621c 973f 85e6 333e b5a0 483f 9bd6 893f
000002e0: 2cbe 803f 0153 773d af35 d83e 563a 913f
000002f0: 47b3 133f 1cdf d23f 1519 4340 e023 8b3f
00000300: 666f cc3f 5a58 0240 67a1 833f c4d6 bb3f
00000310: 4448 0b3f 4267 903f 4c06 bb3f 14ea 993f
00000320: 5410 0b3f 10b1 fe3c 7275 f73d 5a3d ec3e
00000330: 5f05 923f 4911 bc3f 0223 553f dd0a 123f
00000340: ccf9 4c3f 2970 613f ca51 9a3f 4dea 773f
00000350: 9276 1a40 157a eb3f 93a3 793f 976e b83f
00000360: 1d1a df3f aa38 fe3f b523 f03f 57c9 cd3f
00000370: 70ea 953f a4e1 2f3f cd0e 6f3f 1017 4e3f
00000380: 3f22 953f 0711 5a3e 3ff1 8d3e 7c68 953e
00000390: 605d da3e 7beb 873f 4574 b13f 6606 f23f
000003a0: 6286 b53f 3356 5f3f 74f5 6440 a913 c63f
000003b0: f9ea 4f3f b412 0e3f 6af4 bb3f 3481 dd3f
000003c0: fa02 2140 829c 3140 8f0d 0240 6472 0a40
000003d0: 9839 a33f 7dba 9d3f 5e8e 813f fcfe 4d3f
000003e0: 935a 473f 1985 f63f 5322 9a3f 3817 6c3f
000003f0: 8405 cd3f 497f 713f 56b8 1a40 9140 323f
1.0 0.0 0.0 0.0 0.7734375 0.2265625 0.0 0.0
0.0 0.0 0.0 0.0 0.0 0.0 0.0 0.0
0.0 0.0 0.0 0.0 0.0 0.0 0.0 0.0
0.40673828 0.55810547 0.03515625 0.0 0.0 0.0 0.0 0.0
0.0 0.0 1.0047607 0.6107178 0.38452148 0.0 0.0 1.0
0.0 0.0 0.0 0.0 0.0 0.0 0.06702232 0.6265621
0.27796555 0.028450012 0.0 0.0 0.0 0.0 0.1441555 1.926733
0.9267082 0.0024032593 0.0 0.0 0.0 0.0 0.0 0.0
0.0 0.0 0.0 0.0 0.0 0.0 0.0 0.0
0.0 0.018157959 0.16155052 0.44252586 0.37776566 0.0 0.030271411 0.23825333
0.6815106 1.9104695 0.66292316 0.35216704 0.12440336 0.16503942 0.4870609 1.1916507
1.1562504 1.0000004 3.5762787e-07 0.22656286 0.5039066 0.2695316 3.5762787e-07 3.5762787e-07
3.5762787e-07 3.5762787e-07 3.5762787e-07 3.5762787e-07 3.5762787e-07 3.5762787e-07 0.36218297 0.4891361
0.1494787 0.034969136 0.20120786 0.38229743 0.28690505 0.4696688 0.4624939 0.14802912
0.013930236 0.005453798 0.04365533 0.16633272 0.315101 0.29897702 0.13933179 0.028876483
0.0019458258 0.01043651 1.6788237 1.0093739 2.0146356 0.31491303 0.12704518 0.4021904
1.7893564 1.3702233 0.27864492 0.006994611 0.024427097 0.11141213 0.26191318 1.3609732
0.5007014 1.4297355 0.30896255 0.01621529 0.08626974 0.23070431 0.4232304 0.8604574
1.45475 1.5505984 1.3291565 1.7202228 0.32388923 0.13866237 0.2591284 0.31696123
0.6306418 0.61520475 0.060166646 0.13439295 0.47751275 0.7170827 0.49497825 0.20605561
0.7713562 0.7245166 1.2747304 0.14044514 0.037451785 0.02542694 0.6669731 0.35915154
1.203236 0.49894014 0.87186164 1.9027618 2.8097153 1.2744184 1.8744936 1.5830028
0.5813683 0.80239516 0.9553724 1.3778224 1.1805537 0.17568405 0.7837022 1.0768617
1.0058036 0.060381893 0.42228457 1.1345928 0.5769543 1.6474338 3.048406 1.0870323
1.5971496 2.0366426 1.0283631 1.4674916 0.54407144 1.1281512 1.4611297 1.202456
0.5432179 0.03109029 0.12082948 0.46140558 1.1407889 1.4692775 0.8325654 0.57047826
0.8006866 0.8806177 1.205621 0.9684189 2.413487 1.8396631 0.9751522 1.4408749
1.7429844 1.9861042 1.8760897 1.6077069 1.171217 0.68703675 0.9338196 0.8050394
1.1651076 0.21295558 0.2772312 0.29181278 0.42649364 1.0618738 1.3863608 1.8908203
1.4181635 0.87240905 3.5774813 1.547475 0.81217915 0.5549729 1.4683964 1.7305055
2.5158067 2.7751775 2.0320776 2.1632318 1.2751951 1.2322537 1.0121572 0.804672
0.7787258 1.9259368 1.2041725 0.9222293 1.6017308 0.94334847 2.417501 0.6962977

conv2.depthwise.weight f4 [6, 1, 5, 5]
00000000: 7053 85be 2f0f e5bd ee2f 03be 6dda 43be
00000010: 1c90 99be ea7b f1bc 40c1 c3bd 40f0 56be
00000020: 820a 09be 87bc a13c a942 643e 14a6 6c3e
00000030: 818d 363e 0377 193f 7675 f43e be78 983d
00000040: 5a4d dc3e 0fba 353f c85d 183f 4552 233b
00000050: 341c 72bd 9d13 ca3e 75c9 1c3e dbe1 3c3d
00000060: 0027 7bbe 0249 a9bb 7379 8abd fdfd cebd
00000070: bca2 7cbe 9338 993d f075 34bd 3d6c b4be
00000080: c6a4 86bd 82a3 fbbd ed71 103d 93e1 f7bd
00000090: 1c7b dabd 08ea 6abe f5de 5e3d c406 ef3d
000000a0: da43 9cbe 9528 f8be b506 96be 9788 ecbd
000000b0: d0f3 9c3e 10ff cdbe ef39 f1be 3b7b 4ebe
000000c0: ea98 0e3e e950 643d 6508 713e 2bef 823d
000000d0: a77c 463e 03d1 653e 8c7c 24be 0e1b a7be
000000e0: 1409 d0be b6f9 d23d 0efb 0cbe 0d75 93bd
000000f0: 6f5e b8be f044 cbbe bfe7 65be 0900 98be
00000100: 723a bdbe 20ba 00bf e8e8 433d e993 f9bd
00000110: 5da5 66be 754a a3be a62d f8bd 5884 8a3e
00000120: 6f5f 3ebe 9217 b0be 95da 9f3d 1ab0 01be
00000130: 1b5b 18be cea5 0bbd f9ac bcbe e9bf 86be
00000140: bea3 483e af2a fc3d 5914 cabd 2aa6 bdbe
00000150: 01dc 0bbd f2f6 f23e 7e18 9a3e 48e7 9f3d
00000160: 776b 89bd 3221 25be 86b7 f23e 8acd b23e
00000170: 19f6 a43d b036 fb3d 2aa9 663e 33da 15b9
00000180: 761d 57be 5c5b 163e 6f1f 963e 35a9 433e
00000190: e751 313e 53bd 993e b500 143e 0997 603d
000001a0: f1dc bc3a 5865 a73e 34b2 b43e 667e ab3e
000001b0: b304 4f3d 69ce d53d 5713 eebd 0db1 f53c
000001c0: a6ea 7abd fe04 ecbd a64b c0bc ab50 b1be
000001d0: 57f6 fdbd 8099 cdbc 3809 fcbe 7eac a9bd
000001e0: 3eac 853d da5e 08bc 0bad b1be e099 d3be
000001f0: b32f 983d ec06 9c3d 89d4 73be 25e7 553d
00000200: 4c0b 013e 527a 863e d1c4 b93e 4e15 003e
00000210: 6d5b 003e 937b e73e 7089 ea3e 6822 253e
00000220: 2642 853e 8aaf 5e3e 5b92 f03e a82e 133e
00000230: 2860 2d3e e88a ccbd 01c7 b33d b674 633c
00000240: 3dc2 b7be 5ea9 ebbc a5b1 a4bd 8de7 7dbd
00000250: 3dff 83be 0c31 9dbd
-0.2604022 -0.11184537 -0.12811252 -0.19126292 -0.2999276 -0.029478032 -0.09558344 -0.20990086
-0.13382915 0.019743217 0.22291054 0.23110229 0.17827417 0.5994722 0.47745866 0.07444905
0.43027765 0.7098703 0.595181 0.0024920863 -0.059108928 0.3946809 0.15311225 0.04611383
-0.24526596 -0.005166174 -0.06761446 -0.10107038 -0.24671453 0.07481494 -0.044057786 -0.3523883
-0.06574397 -0.12287046 0.035264898 -0.12103572 -0.106680125 -0.22940838 0.054411847 0.11671212
-0.30520517 -0.48468462 -0.29301992 -0.1154949 0.30654764 -0.4023366 -0.47114512 -0.20164196
0.1392552 0.055741224 0.23538359 0.06393274 0.19383489 0.22443013 -0.16063136 -0.3263783
-0.40631926 0.10301535 -0.13767645 -0.0720006 -0.36009547 -0.39701033 -0.22451685 -0.29687527
-0.36958653 -0.50284004 0.04782954 -0.12186415 -0.22524019 -0.31892744 -0.12118082 0.27054095
-0.18591093 -0.34392983 0.07805363 -0.12664834 -0.14878504 -0.03409367 -0.36850718 -0.2631829
0.19593713 0.12312829 -0.09867162 -0.37040836 -0.03414536 0.4745403 0.3009681 0.07807785
-0.067099504 -0.16125944 0.47405642 0.3492244 0.08054752 0.1226629 0.22525468 -0.00014291033
-0.21007332 0.14683288 0.29320857 0.19107516 0.173164 0.30027255 0.14453395 0.05483154
0.0014409107 0.32694507 0.35292208 0.33494872 0.05054159 0.1043976 -0.116247825 0.029991651
-0.061258934 -0.1152439 -0.023473572 -0.34631857 -0.12400501 -0.025097609 -0.49225783 -0.082848534
0.06526993 -0.008323396 -0.34702334 -0.41328335 0.07430973 0.07618508 -0.23811544 0.05222239
0.12601966 0.26265198 0.36282972 0.12508127 0.12534876 0.45211467 0.45807981 0.16126406
0.2602703 0.2174665 0.4698666 0.14373267 0.16931212 -0.09987432 0.08778191 0.0138828065
-0.3589038 -0.028767284 -0.080416955 -0.061988402 -0.2578067 -0.076753706

conv2.depthwise.activation_post_process.histogram f4 [2048]
00000000: 0000 803f 0000 0000 0000 0000 0000 0000
00000010: 0000 0000 0000 0000 0000 0000 0000 0000
00000020: 0000 0000 0000 0000 0000 0000 0000 0000
00000030: 0000 0000 0000 0000 0000 0000 0000 0000
00000040: 0000 0000 0000 0000 0000 0000 0000 0000
00000050: 0000 0000 0000 0000 0000 803f 0000 0000
00000060: 0000 0000 0000 0000 0000 0000 0000 603f
00000070: 0000 003e 0000 0000 0000 0000 00c0 a83e
00000080: 00d8 233f 0000 f93c 0000 0000 0000 0000
00000090: 0000 0000 0000 0000 0000 0000 0000 0000
000000a0: 0000 0000 0000 0000 0000 0000 0000 0000
000000b0: 0000 103e 00c0 6e3f 0040 f93e 0040 e13e
000000c0: 0000 0000 0000 0000 0000 0000 0000 0000
000000d0: 0000 0000 0000 0000 0000 0000 0000 0000
000000e0: 0000 0000 0000 0000 0000 0000 0000 0000
000000f0: 0000 0000 0000 0000 0000 0000 0000 0000
00000100: 0000 0000 0000 0000 0000 0000 0000 0000
00000110: 0000 0000 003a 783e a016 e93e e0de 833e
00000120: 006c 373d 0000 0000 0000 0000 0000 0000
00000130: 0000 0000 0000 0000 0000 0000 0000 0000
00000140: 0000 0000 0000 0000 0000 0000 0000 0000
00000150: 0000 0000 0000 0000 0000 0000 0000 0000
00000160: 0000 0000 0000 0000 0000 0000 0000 0000
00000170: 0000 0000 0000 0000 0017 623e c0e4 613f
00000180: 10fb 443f 80ea fe3d 0020 3d3b 0000 0000
00000190: 0000 0000 0000 0000 0000 0000 fa15 6f3b
000001a0: 0e7e b43d df41 de3e 2a23 ca3e 8cdf ab3d
000001b0: 5a05 ce3d 465f b43e 5644 c53e 163d 123e
000001c0: 5bd5 813f f42d 8a3e ffad 8d3f 2fcd 013f
000001d0: 0530 ee3d 0080 bcb3 0060 68b4 0040 b9b4
000001e0: 0050 feb4 00b0 21b5 0020 6f34 0000 ca33
000001f0: 0080 14b3 0040 2fb4 00b0 9cb4 00c0 e1b4
00000200: 0068 13b5 0020 9434 0020 1e34 0000 a032
00000210: 0040 ecb3 0020 80b4 0030 c5b4 803a 1c31
00000220: 1fba b337 c982 c239 2552 5f3b 03d7 243f
00000230: f951 e23e dffd 1f3e 80cc 773e f1bb 7e3e
00000240: b13a 2d3e eefa aa3d c427 863d 335d 903f
00000250: 78e2 633e 2c21 923e c71c cc3e bc57 0a3f
00000260: ce5a 9e3e 0e50 6d3d c0bd 443b 8899 b937
00000270: 55f0 1035 f5ff 673f d0ff bf3d 6ecc 95b4
00000280: 0ab5 84b3 0500 803f c1af 8e36 f452 b338
00000290: 393a d53e e129 173f 3aad 943d c28c 833f
000002a0: d99c 1a3e 2d6e 723e 7ef2 ce3e 2152 233f
000002b0: b2c0 d43e c2f4 103d f9fc b43e 013c d43f
000002c0: 53d7 6939 8472 8137 6e34 5a35 0400 803f
000002d0: ffff 873e fbff 3b3f 33a4 8b3d ba75 223f
000002e0: 1fff 8f3f 8217 043f feff 273f f5ff bf3e
000002f0: 0500 823f c353 303f 027d 993e 979f c53e
00000300: 03c1 573e cf1d 943d f098 2c3e bc66 b83f
00000310: a744 133f 0566 743f 08c8 2d3f d982 b43d
00000320: 5e82 a33f 3f1f e63e cf51 953e d875 363e
00000330: b476 7c3e 34aa a23e 62c6 373f 2c2a 3d3f
00000340: 3c39 b73f cbd2 5b3f e897 943f d138 be3f
00000350: b825 1740 bed2 fc3f 1a2b 1f3f 9b02 213f
00000360: 5fb0 c83e 1fca a13f b44f 1840 02e4 f43f
00000370: 96d0 333f 21fb c63f 9bf5 5e3f fa37 4d3e
00000380: 201b 043d 0adc 2f3d edc5 f83d dd9f 9f3f
00000390: d879 b93e 9213 d93e 9f97 023f fdab c33f
000003a0: f0fa c03f bc01 443f 05a1 1740 f80d a53f
000003b0: 72d9 a63f 7382 403f e0b5 f83e 1caf ee3e
000003c0: c870 613f 5178 c43f 969a 8b3f 7ed6 dd3f
000003d0: f776 0a3f bb3e dd3d b4d9 fb3d 8a5d 753e
000003e0: 544c 0840 4ab7 0e40 1972 853f 52c1 e43f
000003f0: 3ffd 823f aa6a 7e3f fef0 423f ed3e 993f
1.0 0.0 0.0 0.0 0.0 0.0 0.0 0.0
0.0 0.0 0.0 0.0 0.0 0.0 0.0 0.0
0.0 0.0 0.0 0.0 0.0 0.0 1.0 0.0
0.0 0.0 0.0 0.875 0.125 0.0 0.0 0.32958984
0.64001465 0.030395508 0.0 0.0 0.0 0.0 0.0 0.0
0.0 0.0 0.0 0.0 0.140625 0.9326172 0.4868164 0.4399414
0.0 0.0 0.0 0.0 0.0 0.0 0.0 0.0
0.0 0.0 0.0 0.0 0.0 0.0 0.0 0.0
0.0 0.0 0.0 0.0 0.0 0.24240875 0.45525074 0.25755978
0.04478073 0.0 0.0 0.0 0.0 0.0 0.0 0.0
0.0 0.0 0.0 0.0 0.0 0.0 0.0 0.0
0.0 0.0 0.0 0.0 0.0 0.0 0.22079086 0.8823967
0.7694559 0.12447071 0.0028858185 0.0 0.0 0.0 0.0 0.0036481605
0.088131055 0.4340963 0.39479953 0.083922476 0.100596145 0.35228938 0.385287 0.14281115
1.0143236 0.26988184 1.1068724 0.5070371 0.11630253 -8.777715e-08 -2.1641608e-07 -3.45055e-07
-4.7369394e-07 -6.023329e-07 2.2270251e-07 9.406358e-08 -3.457535e-08 -1.6321428e-07 -2.918532e-07 -4.2049214e-07
-5.491311e-07 2.759043e-07 1.4726538e-07 1.8626451e-08 -1.1001248e-07 -2.386514e-07 -3.6729034e-07 2.2734241e-09
2.1425132e-05 0.00037100006 0.0034076062 0.6439058 0.44203165 0.15624188 0.24199104 0.24876381
0.1691692 0.08348642 0.065505534 1.1278442 0.2225436 0.28540933 0.39865705 0.5404012
0.30928653 0.057937674 0.0030020326 2.2125212e-05 5.399391e-07 0.90624934 0.09374964 -2.7902155e-07
-6.17966e-08 1.0000006 4.25239e-06 8.550836e-05 0.41645983 0.5904828 0.07259603 1.0277331
0.15098895 0.23674841 0.40419382 0.63797194 0.41553265 0.03538967 0.35349253 1.6580812
0.00022300826 1.5431324e-05 8.1287624e-07 1.0000005 0.26562497 0.7343747 0.06818428 0.63460886
1.1249732 0.5159837 0.6562499 0.37499967 1.0156256 0.6887781 0.29978186 0.3859832
0.21069722 0.07232248 0.16855216 1.4406352 0.5752663 0.9546817 0.6788335 0.0881402
1.277416 0.44945714 0.29163978 0.17818391 0.24654657 0.3177048 0.71787083 0.73892474
1.4314342 0.8586852 1.1608858 1.4861089 2.3616772 1.9751813 0.6217514 0.628946
0.3919706 1.2639807 2.3798647 1.9132082 0.7024015 1.5545388 0.87093514 0.20040885
0.03225243 0.042934455 0.12147126 1.2470661 0.36225772 0.42397743 0.51012605 1.5286862
1.507658 0.76565146 2.3692029 1.2894888 1.3035109 0.7519905 0.4857626 0.46617973
0.88062716 1.5349218 1.0906551 1.7331083 0.54087776 0.108029805 0.12297383 0.23961464
2.1296587 2.229937 1.0425445 1.7871497 1.0233535 0.99381506 0.76148975 1.1972328

conv2.pointwise.weight f4 [16, 6, 1, 1]
00000000: e6af 263e 4302 c3be 780f 283f 9388 0e3f
00000010: f9ca 11be 106e babe c784 c2be 5828 edbe
00000020: 80ef e83e 500a 5a3e b229 6cbd 4d0d 973e
00000030: 62a9 1fbf e3f8 eabe d8ae 22be e021 2dbe
00000040: 2ebd 26be cd07 9a3e cb42 a13d 63d8 5cbe
00000050: 87f7 9ebe 70ad eb3e 2f62 ae3d 0fa9 133e
00000060: f50a d7be 9d68 62be da50 dbbd 270d 9e3e
00000070: 64df d43d 05d8 323f 3326 16bf b839 0ebf
00000080: 3e33 3bbe f932 3dbe 8f01 8f3e 05ae 99bd
00000090: 07a0 3f3e 3b1d 9ebe 7206 483e 6efb f73e
000000a0: 6e42 e5be 8261 f4bc 65b8 a0be eeee 8fbe
000000b0: a87a 0ebf 4183 93be ec86 9bbe c8cb 983e
000000c0: 382f ab3e d026 6bbe 950b 08be de20 6bbe
000000d0: 5ddb 52be 9dd6 9c3d b0cd 04bf 942d 68be
000000e0: da60 913c 8472 3bbe 5791 223f 8c1f 143f
000000f0: a79b af3e 398e 3d3e 241e 3dbe 778b 9b3d
00000100: 6d0f d3be 49af d53d dd50 43bf 86f7 0cba
00000110: efe2 02bf 0adc 653e f9a7 0a3e 3085 3bbe
00000120: 0fed 30bf 75cd 39be a101 b9be 32db 233c
00000130: 88b0 223f 8582 a53e 5c42 c23b 9220 d9be
00000140: 7fee 843e 4c91 0d3f e2fb f33d 2144 9dbe
00000150: 7790 38bf b065 57be 66bb d1be 8141 fbbc
00000160: 2c5f bf3e d663 8cbe 83b5 1bbe 6aaa 92be
00000170: c554 f93d e57b 29bf ed75 ba3e 32f3 083f
0.16278037 -0.38087663 0.65648603 0.55677146 -0.14237584 -0.36412096 -0.37991926 -0.46319842
0.45495224 0.21292996 -0.05765695 0.29502335 -0.6236783 -0.4589301 -0.1588701 -0.16907454
-0.16283104 0.30084077 0.07874068 -0.2156692 -0.31048223 0.4603076 0.08514821 0.1441996
-0.42000547 -0.2211022 -0.107087806 0.3086941 0.10394171 0.6986087 -0.5865204 -0.5555682
-0.18281266 -0.18476476 0.27930877 -0.07503895 0.1871339 -0.30881676 0.19533709 0.48434013
-0.44777244 -0.029831652 -0.31390682 -0.28111976 -0.5565591 -0.28811076 -0.30376375 0.29842973
0.33434463 -0.22964025 -0.13285668 -0.22961757 -0.20591493 0.07658122 -0.51876354 -0.22673637
0.017746378 -0.18305403 0.6350302 0.57860637 0.3429844 0.18511285 -0.18468529 0.0759496
-0.41222706 0.104338236 -0.7629526 -0.000537746 -0.51127523 0.2244722 0.13540639 -0.18312526
-0.6911172 -0.18144782 -0.36134055 0.010000991 0.63550615 0.3232614 0.005928321 -0.42407662
0.25963208 0.5529983 0.11913277 -0.3071604 -0.72095436 -0.21034884 -0.40963286 -0.030670883
0.37377298 -0.2741992 -0.1520596 -0.2864564 0.12174372 -0.66204673 0.36418095 0.53496087

conv2.pointwise.activation_post_process.histogram f4 [2048]
00000000: 0000 803f 0000 0000 0000 0000 0000 0000
00000010: 0000 0000 0000 0000 0000 0000 0000 0000
00000020: 0000 0000 0000 0000 0000 0000 0000 0000
00000030: 0000 0000 0000 0000 0000 0000 0000 0000
00000040: 0000 0000 0000 0000 0000 0000 0000 0000
00000050: 0000 0000 0000 0000 0000 0000 0000 0000
00000060: 0000 0000 0000 0000 0000 0000 0000 0000
00000070: 0000 0000 0000 0000 0000 0000 0000 0000
00000080: 0000 0000 0000 0000 0000 0000 0000 0000
00000090: 0000 0000 0000 0000 0000 0000 0000 0000
000000a0: 0000 0000 0000 0000 0000 0000 0000 0000
000000b0: 0000 0000 0000 0000 0000 0000 0000 0000
000000c0: 0000 0000 0000 0000 0000 0000 0000 0000
000000d0: 0000 0000 0000 0000 0000 0000 0000 0000
000000e0: 0000 0000 0000 0000 0000 0000 0000 0000
000000f0: 0000 0000 0000 0000 0000 0000 0000 0000
00000100: 0000 0000 0000 383e 0000 523f 0000 0000
00000110: 0000 0000 0000 0000 0000 0000 00c0 c63e
00000120: 00e0 133f 0000 0c3d 0000 0000 40c9 da3e
00000130: 2069 f13e c063 cb3d 00b0 f43a 0000 0000
00000140: 0000 0000 0000 0000 0000 0000 0000 0000
00000150: 0000 0000 0000 0000 0000 0000 0000 0000
00000160: 0000 0000 0000 0000 0000 0000 0000 0000
00000170: 0000 0000 0000 0000 0000 0000 0000 0000
00000180: 403e 2e3d 8784 bb3e f4ab f83e 50e4 d13d
00000190: 0058 473b 0000 0000 0000 0000 0000 0000
000001a0: 0000 0000 0000 0000 0000 0000 0000 0000
000001b0: 0000 0000 0000 0000 0000 0000 0000 0000
000001c0: 0000 0000 0000 0000 0000 803f 0000 0000
000001d0: 0000 0000 0000 0000 0000 0000 0000 0000
000001e0: 0000 0000 0000 0000 0000 0000 7cc2 163c
000001f0: 2653 c23d 72ff 983e c062 c03e 84e7 423e
00000200: f8f2 fd3c 0000 80b2 0000 80b2 0000 80b2
00000210: 0000 80b2 0000 80b2 0000 80b2 0000 80b2
00000220: 0000 80b2 0000 80b2 0000 80b2 0000 803f
00000230: 0000 80b2 0000 80b2 0000 80b2 0000 80b2
00000240: 0000 80b2 0000 80b2 b9a5 1038 a51e 073b
00000250: c71d 033d 9096 353e 14ae c33e 464d a43e
00000260: 8d0b af3d 00a0 61b3 0080 5ab4 004c beb4
00000270: 0080 f5b2 00c8 40b4 0070 b1b4 0000 9fb1
00000280: 0010 27b4 0094 a4b4 016b a13e 0e57 053f
00000290: aecd 273e 00f0 8433 0040 bfb3 00dc 80b4
000002a0: 0060 b833 00d0 8bb3 0000 68b4 000c c5b4
000002b0: 00c0 30b3 0048 4eb4 0030 b8b4 00c0 93b2
000002c0: 0090 34b4 0054 abb4 0000 183f fcff cf3e
000002d0: 0078 90b4 00e0 7333 0040 cab3 009c 83b4
000002e0: 0060 ad33 00d0 96b3 0080 6db4 38f8 b53c
000002f0: 9488 183f 4a8c b33e 2918 003d 0000 002e
00000300: 0010 22b4 ec0f 2b3e f92b 473f 64ff 603d
00000310: 0090 6d34 00f0 9633 0040 adb3 00b8 78b4
00000320: 0068 cdb4 fbd1 603b 0b1c ea3d 52bd bb3e
00000330: a2a0 bd3e 6c21 073e b010 593c c09e f633
00000340: 80da 6b34 5863 0035 0030 87b3 981a 0735
00000350: e09a 23b5 60e6 7334 00b0 8d34 de58 013e
00000360: 1d3e 4f3f 295e 833d e0a8 5335 2088 c5b4
00000370: 20ce dfb4 4080 a7b4 00f4 64b3 21bc d237
00000380: 3212 9c3b 0771 623d dbdd 623e 6056 c13e
00000390: 8b13 8c3e fa97 893d 0300 803f 84ae b334
000003a0: 8802 60b2 86cd beb4 fa03 4bb5 85fd aeb4
000003b0: b6f8 67b4 36a5 46b4 684e fbb4 7a8f 97b5
000003c0: 1b84 033c 0759 c83d 5691 a03e a56e c33e
000003d0: a523 323e 8565 cd3c da61 a23b fb3d 2a3d
000003e0: cf85 223e 1132 a03e 9e5f bc3e 17b7 b43e
000003f0: 5f44 b13e dbae 863e c374 f33d 54fe ec3c
1.0 0.0 0.0 0.0 0.0 0.0 0.0 0.0
0.0 0.0 0.0 0.0 0.0 0.0 0.0 0.0
0.0 0.0 0.0 0.0 0.0 0.0 0.0 0.0
0.0 0.0 0.0 0.0 0.0 0.0 0.0 0.0
0.0 0.0 0.0 0.0 0.0 0.0 0.0 0.0
0.0 0.0 0.0 0.0 0.0 0.0 0.0 0.0
0.0 0.0 0.0 0.0 0.0 0.0 0.0 0.0
0.0 0.0 0.0 0.0 0.0 0.0 0.0 0.0
0.0 0.1796875 0.8203125 0.0 0.0 0.0 0.0 0.3881836
0.5776367 0.034179688 0.0 0.42731667 0.47150517 0.09931135 0.0018668175 0.0
0.0 0.0 0.0 0.0 0.0 0.0 0.0 0.0
0.0 0.0 0.0 0.0 0.0 0.0 0.0 0.0
0.042539835 0.36624548 0.4856869 0.10248625 0.0030417442 0.0 0.0 0.0
0.0 0.0 0.0 0.0 0.0 0.0 0.0 0.0
0.0 0.0 1.0 0.0 0.0 0.0 0.0 0.0
0.0 0.0 0.0 0.009201642 0.094885156 0.2988239 0.3757534 0.19033629
0.030999646 -1.4901161e-08 -1.4901161e-08 -1.4901161e-08 -1.4901161e-08 -1.4901161e-08 -1.4901161e-08 -1.4901161e-08
-1.4901161e-08 -1.4901161e-08 -1.4901161e-08 1.0 -1.4901161e-08 -1.4901161e-08 -1.4901161e-08 -1.4901161e-08
-1.4901161e-08 -1.4901161e-08 3.4486617e-05 0.002061763 0.03201082 0.17733216 0.3821875 0.32090205
0.08547125 -5.2532414e-08 -2.0349398e-07 -3.5445555e-07 -2.8579962e-08 -1.7954153e-07 -3.305031e-07 -4.627509e-09
-1.5558908e-07 -3.0655065e-07 0.3152695 0.5208596 0.16387054 6.190385e-08 -8.905772e-08 -2.400193e-07
8.58563e-08 -6.510527e-08 -2.1606684e-07 -3.670284e-07 -4.1152816e-08 -1.9211438e-07 -3.4307595e-07 -1.7200364e-08
-1.6816193e-07 -3.191235e-07 0.59375 0.40624988 -2.6909402e-07 5.6781573e-08 -9.4179995e-08 -2.4514156e-07
8.0734026e-08 -7.022754e-08 -2.2118911e-07 0.022213086 0.595834 0.3506797 0.03127304 2.910383e-11
-1.5093246e-07 0.16705292 0.7780147 0.05493106 2.2124732e-07 7.028575e-08 -8.067582e-08 -2.3163739e-07
-3.8259896e-07 0.0034304846 0.1143113 0.36667877 0.37036616 0.13196343 0.0132486075 1.1484144e-07
2.196557e-07 4.782828e-07 -6.2951585e-08 5.033012e-07 -6.0947605e-07 2.2714948e-07 2.6391353e-07 0.12631556
0.8095415 0.06414444 7.884937e-07 -3.6793153e-07 -4.1686963e-07 -3.1199488e-07 -5.3307303e-08 2.5121555e-05
0.0047629112 0.055283573 0.22154944 0.3776121 0.2735866 0.0671844 1.0000004 3.3468325e-07
-1.3039092e-08 -3.5539796e-07 -7.562918e-07 -3.2594485e-07 -2.1604032e-07 -1.850029e-07 -4.680944e-07 -1.1292134e-06
0.008027102 0.097826056 0.31360883 0.38170353 0.1739641 0.025072822 0.0049555125 0.041563015
0.15871356 0.31288198 0.367917 0.35295936 0.34622476 0.2630528 0.11887505 0.028929867

conv3.depthwise.weight f4 [16, 1, 5, 5]
00000000: ecf2 bcbe 8c4b ccbe 7d8c a03d 8f5e da3e
00000010: 3cc1 953e 6dd9 b7bb 5897 a1be 25ef 2ebd
00000020: 4f0e 0f3d 9e14 b5bd 8de5 503e d59a c43e
00000030: 5038 423e dbc4 d9bd 497e 45be f1b8 fcbd
00000040: f89a b3be 74bf 4fbc b30b 203e 799e 83bc
00000050: 7070 97be 4443 563e f2cf 193e 1d3b a73d
00000060: dc1c 073d dd54 c9bd 8c32 19bf 05e4 8cbe
00000070: f767 a4be 3229 373e e4e0 68bd 4847 18be
00000080: 2ea7 08be 6ab9 36bd 66bc 463e 07b6 a73d
00000090: b545 30be d784 d9bd f729 f63c c2b8 903e
000000a0: 4654 d5bd 21e7 8ebe 80d0 903d 5e2a d13d
000000b0: b92f 033f 3f31 3ebe 0127 1f3e 7bd6 13be
000000c0: f9ec 3a3d b87d cb3d 3676 2ebe d074 e3be
000000d0: 5d50 c1be e16a 5ab9 238b 0c3f 06a2 a1bd
000000e0: 56f4 e0be 56cf 61bd 05bd 2ebe 5132 983e
000000f0: 6662 a2bc 0c85 c3bd 1fff 28be 7920 063d
00000100: 08af 8fbc f437 e4be 0e63 813e bb26 293e
00000110: 7c2e 96be f055 cebd a9e2 c9be d638 e23e
00000120: f184 aa3e 4fb2 113e 9809 833d 7b7f 80be
00000130: bab1 99bc eb6c 183d 20f9 5b3d 4aa2 1f3e
00000140: 5a69 86be 8252 553e 61bc 793e d400 813d
00000150: 2c5e 583d 3b58 d5be df0b 2d3e b064 7b3e
00000160: a80c d73e 6c38 b6bd 9d7d 55bd 60dd b5bd
00000170: dff2 48be b6f9 3dbe e43c bebd 9c48 473e
00000180: 37bd 8a3e e301 1b3b b53e d8bd 77dd bdbd
00000190: 8f8a b9be 71e6 7ebd f742 8e3e f25a 7b3e
000001a0: c89a 173e f555 463d 11ed 1d3e f839 f4bd
000001b0: 9ecb 8cbe 70fb e2bd 1474 c33e e736 033e
000001c0: a32a 11bf 5478 48be 4069 ad3d 4d37 e73c
000001d0: ae7c debd 4f67 173d c51c b73d 6f6a f83d
000001e0: e93a 8bbe 0626 d9bd 1f80 2c3e 0a1b ce3d
000001f0: ec38 143e 1135 31bd eaca 01bf 2a76 463e
00000200: dc4d 003f 0140 fa3d 6361 5dbe 6839 1fbe
00000210: f4cb 063e c47d d9bb 0406 93bc 0aa6 d23c
00000220: b21b 65be a819 99bc 4840 123e f7b2 b83e
00000230: 5bbe 443e f859 4e3d fe80 443e 67ed b03e
00000240: a1aa f73d a3d2 d13c 999d d8bc a9a0 a03c
00000250: dd5b febe f65c 86be 7874 a7be c978 67be
00000260: a708 c5be 1f87 35be a16d a03e 968d 9cbe
00000270: c375 a93d 468c 313e 03b2 913c 6f1c 0fbe
00000280: 4c30 c93d 2767 afbe f1ab aebe 1e42 86be
00000290: cbc9 1a3e c66c 973e c45c d43c 255d 10be
000002a0: dd57 9a3c 1dd8 2fbd 9c6c 753e fa1a 7f3e
000002b0: a113 e63d 069e aa3d e831 1e3d e975 a5be
000002c0: afde 27bd b1bc 22be b7d8 93be 9b1f 30be
000002d0: 9fd8 5ebe 067c 87be a41f f2bc 9c6b 14be
000002e0: 06cf 8cbc ae73 73be d7ad ebbd fd23 043e
000002f0: 3e90 bc3e 96e6 963e 5154 2ebd 9d0d 47bc
00000300: 128e 953e a422 133f 66c5 d43e 3d21 973e
00000310: b969 56be fa90 5dbc 8076 a63d f182 87be
00000320: 9dfc a4bd 4eac 36be a69c 2abd ce1e 153e
00000330: a491 c5bd 955a 26be c24e 70be 3b8f 35be
00000340: b4bd 51bd 5fb7 b8bd 6790 24be a7bc 38be
00000350: 52e5 08be 5eaf 84be 74f6 2b3d 9ec3 0a3e
00000360: e592 76bd ee90 81bd b2ea 1a3e 0fce 853e
00000370: 49cc bd3e 9df2 203e 0371 ad3e 349b e33d
00000380: 0ed1 043e 470f 9a3e a01b 633d b300 27bd
00000390: cf48 923d 541a c93e 1ed5 8a3e 54f1 edbc
000003a0: 8cbd 2f3e ac0c 96bb a2a8 6e3c e88c 053e
000003b0: d0cd 8abe edf8 023e 5b17 bcbd a33b 57be
000003c0: 5c94 0bbf dd5d c3be b252 453e 77c7 17bd
000003d0: 2e38 89bd 6d98 36bf e674 c8be 1df4 863d
000003e0: c802 dbbd 7e0f 39bd 7a50 5f3e 0d42 8c3d
000003f0: 21c2 af3e 3428 393e 291c 86be ba28 823e
-0.36904085 -0.39901388 0.07839296 0.42650267 0.2924899 -0.005610636 -0.3156078 -0.042708535
0.034925755 -0.08841823 0.20400067 0.38399377 0.18966794 -0.1063325 -0.19286455 -0.12339962
-0.3507917 -0.012679923 0.15629463 -0.016066777 -0.2957797 0.20924097 0.15020731 0.08165572
0.032986507 -0.098306395 -0.59842753 -0.27517715 -0.3211057 0.17886809 -0.056855097 -0.14870942
-0.13345024 -0.04461042 0.19407806 0.08189016 -0.17214091 -0.1062104 0.030049307 0.2826596
-0.104164645 -0.27910712 0.07071018 0.10213159 0.51244694 -0.18573473 0.15542223 -0.14437287
0.04563615 0.09936088 -0.17037281 -0.44425058 -0.37756625 -0.00020829916 0.54899806 -0.07892232
-0.43936414 -0.05512937 -0.17064293 0.29725888 -0.01982231 -0.09546861 -0.16503571 0.032745812
-0.017539516 -0.4457394 0.25270885 0.16518681 -0.2933234 -0.10074985 -0.3943074 0.44183987
0.3330455 0.14228176 0.06398314 -0.2509726 -0.018761504 0.037213247 0.05370438 0.15589252
-0.26252252 0.20832255 0.24388267 0.06298986 0.052824184 -0.41668877 0.1689906 0.24550128
0.42001843 -0.0889748 -0.052121747 -0.088801146 -0.19623898 -0.18552288 -0.09288958 0.19461292
0.27097484 0.0023652248 -0.105588354 -0.09270757 -0.36238524 -0.062231485 0.27785465 0.24546412
0.14805138 0.04842182 0.15422465 -0.11925119 -0.27499098 -0.11083114 0.38174498 0.12813912
-0.56705683 -0.19577152 0.084673405 0.028224612 -0.108636245 0.036963757 0.08941034 0.121296756
-0.27193382 -0.106029555 0.1684575 0.10063751 0.14474839 -0.0432635 -0.5070025 0.19381014
0.50118804 0.12219239 -0.21619181 -0.15549242 0.1316374 -0.006637307 -0.017947204 0.02571394
-0.22373846 -0.018688992 0.14282334 0.3607404 0.1921324 0.05037877 0.19189832 0.34556124
0.12093092 0.025613135 -0.026442336 0.019607859 -0.4967946 -0.262428 -0.32706046 -0.2260467
-0.38483164 -0.17727326 0.3133364 -0.30576771 0.082744144 0.17338666 0.017785078 -0.1397569
0.09823665 -0.34258386 -0.34115556 -0.26222318 0.1511604 0.29575175 0.02592314 -0.14098032
0.018840725 -0.04293071 0.23967212 0.24912634 0.11234213 0.08330922 0.038621813 -0.3231652
-0.040983852 -0.15892293 -0.28876278 -0.17199557 -0.21762322 -0.2646181 -0.029556103 -0.14494175
-0.01718856 -0.23774597 -0.11507767 0.12904353 0.36828798 0.29472798 -0.04256088 -0.012149242
0.29209954 0.5747473 0.41556853 0.29517546 -0.20938767 -0.013523335 0.08128071 -0.26467088
-0.08055995 -0.17839167 -0.041653298 0.14562532 -0.09646919 -0.16245492 -0.23467544 -0.1773042
-0.051206306 -0.0901935 -0.1607071 -0.18040715 -0.13368729 -0.25915045 0.041983083 0.13551185
-0.060198683 -0.06326471 0.15128592 0.26133773 0.3706992 0.1571755 0.33875284 0.11113587
0.12970373 0.3008978 0.055446267 -0.04077215 0.071427934 0.392779 0.2711572 -0.029045738
0.1716215 -0.0045791473 0.014566572 0.13042033 -0.27110147 0.1279027 -0.09184142 -0.21018843
-0.54523253 -0.3815755 0.19269827 -0.03705546 -0.067001686 -0.71326333 -0.39151686 0.0658953
-0.1069389 -0.04518079 0.21808043 0.06848536 0.34327796 0.18081743 -0.2619336 0.25421697

conv3.depthwise.activation_post_process.histogram f4 [2048]
00000000: 0000 803f 0000 0000 0000 0000 0000 0000
00000010: 0000 0000 0000 0000 0000 0000 0000 0000
00000020: 0000 0000 0000 0000 0000 0000 0000 0000
00000030: 0000 0000 0000 0000 0000 0000 0000 0000
00000040: 0000 0000 0000 0000 0000 0000 0000 0000
00000050: 0000 0000 0000 0000 0000 0000 0000 0000
00000060: 0000 0000 0000 0000 0000 0000 0000 0000
00000070: 0000 0000 0000 0000 0000 0000 0000 0000
00000080: 0000 0000 0000 0000 0000 0000 0000 0000
00000090: 0000 0000 0000 0000 0000 0000 0000 0000
000000a0: 0000 0000 0000 0000 0000 0000 0000 0000
000000b0: 0000 0000 0000 0000 0000 0000 0000 0000
000000c0: 0000 0000 0000 0000 0000 0000 0000 0000
000000d0: 0000 0000 0000 0000 0000 0000 0000 0000
000000e0: 0000 0000 0000 0000 5bb6 e838 6332 3f3b
000000f0: 2315 dd3c 6572 df3d 510a 6f3e 2b73 943e
00000100: f468 5b3e dede c23d ca3c c93c f599 5a3b
00000110: c550 3d39 cbba cab3 3e56 dfb3 b8a4 1832
00000120: 6203 3034 ca78 98b3 ea8c b732 3c12 8e34
00000130: abfe 2a34 5435 22b4 feba 4233 da43 a733
00000140: 9d72 4832 f184 9ab3 edb1 9633 ab47 4c34
00000150: 44bf a833 c9f4 4334 c002 77b3 76f2 31b4
00000160: fd52 6b33 c212 5c34 7c8c 1233 5e51 0b33
00000170: d259 d0b3 a0b9 b6b3 e4d1 fa33 5a5c c534
00000180: 303b 04b2 283c b433 efab 4734 d434 ba33
00000190: 4c32 cb33 5482 a233 9d11 5134 40d3 1f31
000001a0: cc15 81b3 45b1 8eb4 b776 20b4 625f 0934
000001b0: 5b11 0134 9712 3134 6a4b 1133 43ef 0c38
000001c0: 2545 2e3b 00ef 503d cf99 833e 0458 c43e
000001d0: b1fd 6d3e 3e40 843d 7270 083c 96e0 ef39
000001e0: 42b6 0e37 3ce3 bf33 e57e 7934 ba90 9133
000001f0: 78e7 abb2 e40f 6b32 b262 6432 10c3 d633
00000200: 3454 a534 f5fc 0c34 a806 4c34 8c67 2b34
00000210: 3a51 5134 0585 2f34 f129 82b3 e64e c033
00000220: 63ac b934 42b3 c434 e2fc 2632 7d64 0d34
00000230: 93f7 2c33 6226 1833 cff1 7134 fa1e 8934
00000240: 1621 6134 ace6 fbb1 8592 70b3 ba5c 00b4
00000250: b17a db33 f979 7434 48d8 3b34 aa93 2333
00000260: 9aca 1a34 1554 9cb3 f07e 61b3 fb85 f633
00000270: 1b45 bd34 05ad 7d34 d45d 0434 0043 5231
00000280: 9902 7533 f317 1a34 9195 6933 dcc7 b033
00000290: e3ca 69b3 5187 32b3 70b6 4434 bec8 2634
000002a0: 4bf3 eab2 46f4 5433 09bb d6b2 5237 4d33
000002b0: 009f 9c34 e661 9334 06ce c533 8387 2834
000002c0: 4211 9833 8adb 2634 cacb af33 45de 8734
000002d0: 9324 9733 cc47 7834 52c9 c433 c0af a234
000002e0: 53cf 3f34 e930 2a34 3ed0 1db3 2493 1133
000002f0: 45b9 0436 bb85 0939 a948 263b 3ee1 aa3c
00000300: c0eb b63d 9075 533e 5406 903e bda0 6f3e
00000310: 2f1b f63d 1e5a 1a3d 55ef 153c fa94 c23c
00000320: 05c9 cf3d 3fd2 693e 6d92 943e 77f3 603e
00000330: bfa2 cf3d feda e83c 8c65 993b 013a db39
00000340: f45c 8e37 590c a834 add5 6034 7374 1f34
00000350: 5f04 62b3 2673 8bb4 99fd 2ab4 6870 bab4
00000360: a3d1 6934 0100 803f fbab 2eb4 5eb0 dcb4
00000370: 1982 6934 98c8 e734 712d 2034 d0ad 9834
00000380: 7e36 f5b3 3628 88b2 a9b5 2fb3 e8f3 02b2
00000390: 0eac ac33 aceb 7733 097f 5cb4 2f2e ecb4
000003a0: 39c3 b6b4 9233 d7b4 00d6 8db4 cee1 4433
000003b0: 9bfb 8733 e22a a733 1fc3 2c34 eb42 9034
000003c0: fbff 7f3f 5ce0 3933 5b81 90b4 23e8 1834
000003d0: 7e3c 0f37 d36d b339 afb3 aa3b b0c1 133d
000003e0: 6d70 063e f9da 873e fa78 9a3e 33c7 413e
000003f0: 2156 783d e96c 1c3c 0afa 1f3a 8162 0d37
1.0 0.0 0.0 0.0 0.0 0.0 0.0 0.0
0.0 0.0 0.0 0.0 0.0 0.0 0.0 0.0
0.0 0.0 0.0 0.0 0.0 0.0 0.0 0.0
0.0 0.0 0.0 0.0 0.0 0.0 0.0 0.0
0.0 0.0 0.0 0.0 0.0 0.0 0.0 0.0
0.0 0.0 0.0 0.0 0.0 0.0 0.0 0.0
0.0 0.0 0.0 0.0 0.0 0.0 0.0 0.0
0.0 0.0 0.000110965884 0.002917432 0.026987618 0.10910491 0.23343779 0.28994116
0.21426755 0.09515165 0.02456512 0.0033355926 0.00018054534 -9.4403354e-08 -1.0399934e-07 8.885017e-09
1.6392508e-07 -7.100023e-08 2.1368084e-08 2.6462828e-07 1.5925131e-07 -1.5106826e-07 4.5339213e-08 7.7888856e-08
1.1667592e-08 -7.195366e-08 7.017284e-08 1.9025053e-07 7.8579006e-08 1.8249843e-07 -5.751167e-08 -1.6572616e-07
5.479068e-08 2.049592e-07 3.4121044e-08 3.2437462e-08 -9.702093e-08 -8.5088004e-08 1.1679711e-07 3.6761304e-07
-7.696869e-09 8.3928455e-08 1.8595868e-07 8.670909e-08 9.462073e-08 7.5674194e-08 1.947105e-07 2.3257627e-09
-6.0109954e-08 -2.6578542e-07 -1.494435e-07 1.279382e-07 1.2020375e-07 1.6491173e-07 3.3829032e-08 3.360143e-05
0.0026591506 0.05100918 0.25703284 0.383484 0.23241307 0.06457566 0.00832759 0.00045752962
8.506295e-06 8.935464e-08 2.3236096e-07 6.778414e-08 -2.001228e-08 1.3682413e-08 1.3293787e-08 1.0000633e-07
3.079491e-07 1.3130541e-07 1.9001402e-07 1.5963286e-07 1.9494192e-07 1.6346537e-07 -6.061226e-08 8.955048e-08
3.4584363e-07 3.6638272e-07 9.719971e-09 1.3168206e-07 4.0272038e-08 3.5425167e-08 2.2532844e-07 2.5540777e-07
2.0966795e-07 -7.331286e-09 -5.6012613e-08 -1.1954663e-07 1.02202996e-07 2.2768644e-07 1.7494415e-07 3.8085695e-08
1.4416074e-07 -7.2796105e-08 -5.2502344e-08 1.14796386e-07 3.5254274e-07 2.3625405e-07 1.2327592e-07 3.0597107e-09
5.704587e-08 1.435108e-07 5.438557e-08 8.231993e-08 -5.4434064e-08 -4.1566924e-08 1.8320293e-07 1.5532984e-07
-2.7351822e-08 4.9582262e-08 -2.4997933e-08 4.7780595e-08 2.9172952e-07 2.7452114e-07 9.211003e-08 1.5695518e-07
7.081191e-08 1.5539823e-07 8.1861415e-08 2.5307432e-07 7.038138e-08 2.312292e-07 9.163581e-08 3.0302726e-07
1.7863685e-07 1.5850277e-07 -3.6743806e-08 3.3894267e-08 1.9777374e-06 0.00013115157 0.0025372899 0.020859357
0.089316845 0.20650315 0.28129828 0.2340116 0.120169036 0.0376836 0.0091512995 0.023752678
0.10145763 0.22834109 0.29017964 0.21967874 0.10138463 0.028424736 0.004681295 0.0004181415
1.6971004e-05 3.1301423e-07 2.093936e-07 1.4850393e-07 -5.26237e-08 -2.597455e-07 -1.5924742e-07 -3.4726986e-07
2.1776081e-07 1.0000001 -1.6267579e-07 -4.1106517e-07 2.1747145e-07 4.3173054e-07 1.4917693e-07 2.8438672e-07
-1.14186136e-07 -1.585077e-08 -4.091058e-08 -7.622454e-09 8.040671e-08 5.772351e-08 -2.0535312e-07 -4.3992029e-07
-3.4042185e-07 -4.0084393e-07 -2.6419002e-07 4.5840174e-08 6.332194e-08 7.784344e-08 1.6089733e-07 2.687078e-07
0.9999997 4.3277723e-08 -2.691621e-07 1.4240554e-07 8.537549e-06 0.00034223366 0.0052094082 0.036073387
0.13128825 0.2653425 0.30170423 0.18923645 0.060629014 0.009547451 0.00061026274 8.42719e-06
