experiments/exp021/checkpoint.pth (torch, 258466 bytes, 33 tensors)

quant.activation_post_process.histogram f4 [2048]
000000 00 ac 86 47 00 00 00 00 00 00 00 00 00 00 00 00
       68952.0 0.0 0.0 0.0
000010 00 00 00 00 00 00 00 00 00 00 00 00 00 00 00 00
       0.0 0.0 0.0 0.0
000020 00 00 00 00 00 00 00 00 00 00 00 00 00 00 00 00
       0.0 0.0 0.0 0.0
000030 00 00 00 00 00 00 00 00 00 00 00 00 00 00 00 00
       0.0 0.0 0.0 0.0
000040 00 00 00 00 00 00 00 00 00 00 00 00 00 00 00 00
       0.0 0.0 0.0 0.0
000050 00 00 00 00 00 00 00 00 00 00 00 00 00 00 00 00
       0.0 0.0 0.0 0.0
000060 00 00 00 00 00 00 00 00 00 00 00 00 00 00 00 00
       0.0 0.0 0.0 0.0
000070 00 00 00 00 00 00 00 00 00 00 00 00 00 00 00 00
       0.0 0.0 0.0 0.0
000080 00 00 00 00 00 00 00 00 00 00 00 00 00 00 00 00
       0.0 0.0 0.0 0.0
000090 00 00 00 00 00 00 00 00 00 00 00 00 00 00 00 00
       0.0 0.0 0.0 0.0
0000a0 00 00 00 00 00 00 00 00 00 00 00 00 00 00 00 00
       0.0 0.0 0.0 0.0
0000b0 00 00 00 00 00 00 00 00 00 00 00 00 00 00 00 00
       0.0 0.0 0.0 0.0
0000c0 00 00 00 00 00 00 00 00 00 00 00 00 00 00 00 00
       0.0 0.0 0.0 0.0
0000d0 00 00 00 00 00 00 00 00 00 00 00 00 00 00 00 00
       0.0 0.0 0.0 0.0
0000e0 00 00 00 00 00 00 00 00 00 00 00 00 00 00 00 00
       0.0 0.0 0.0 0.0
0000f0 00 00 00 00 00 00 00 00 00 00 00 00 00 00 00 00
       0.0 0.0 0.0 0.0
000100 00 00 00 00 00 00 00 00 00 00 00 00 00 00 00 00
       0.0 0.0 0.0 0.0
000110 00 00 00 00 00 00 00 00 00 00 00 00 00 00 00 00
       0.0 0.0 0.0 0.0
000120 00 00 00 00 00 00 00 00 00 00 00 00 00 00 00 00
       0.0 0.0 0.0 0.0
000130 00 00 00 00 00 00 00 00 00 00 00 00 00 00 00 00
       0.0 0.0 0.0 0.0
000140 00 00 00 00 00 00 00 00 00 00 00 00 00 00 00 00
       0.0 0.0 0.0 0.0
000150 00 00 00 00 00 00 00 00 00 00 00 00 00 00 00 00
       0.0 0.0 0.0 0.0
000160 00 00 00 00 00 00 00 00 00 00 00 00 00 00 00 00
       0.0 0.0 0.0 0.0
000170 00 00 00 00 00 00 00 00 00 00 00 00 00 00 00 00
       0.0 0.0 0.0 0.0
000180 00 00 00 00 00 00 00 00 00 00 00 00 00 00 00 00
       0.0 0.0 0.0 0.0
000190 00 00 00 00 00 00 00 00 00 00 00 00 00 00 00 00
       0.0 0.0 0.0 0.0
0001a0 00 00 00 00 00 00 00 00 00 00 00 00 00 00 00 00
       0.0 0.0 0.0 0.0
0001b0 00 00 00 00 00 00 00 00 00 00 00 00 00 00 00 00
       0.0 0.0 0.0 0.0
0001c0 00 00 00 00 00 00 00 00 00 00 00 00 00 00 00 00
       0.0 0.0 0.0 0.0
0001d0 00 00 00 00 00 00 00 00 00 00 00 00 00 00 00 00
       0.0 0.0 0.0 0.0
0001e0 00 00 00 00 00 00 00 00 00 00 00 00 00 00 00 00
       0.0 0.0 0.0 0.0
0001f0 00 00 00 00 00 00 00 00 00 00 00 00 00 00 00 00
       0.0 0.0 0.0 0.0
000200 00 00 00 00 00 00 00 00 00 00 00 00 00 00 00 00
       0.0 0.0 0.0 0.0
000210 00 00 00 00 00 00 00 00 00 00 00 00 00 00 00 00
       0.0 0.0 0.0 0.0
000220 00 00 00 00 00 00 00 00 00 00 00 00 00 00 00 00
       0.0 0.0 0.0 0.0
000230 00 00 00 00 00 00 00 00 00 00 00 00 00 00 00 00
       0.0 0.0 0.0 0.0
000240 00 00 00 00 00 00 00 00 00 00 00 00 00 00 00 00
       0.0 0.0 0.0 0.0
000250 00 00 00 00 00 00 00 00 00 00 00 00 00 00 00 00
       0.0 0.0 0.0 0.0
000260 00 00 00 00 00 00 00 00 00 00 00 00 00 00 00 00
       0.0 0.0 0.0 0.0
000270 00 00 00 00 00 00 00 00 00 00 00 00 00 00 00 00
       0.0 0.0 0.0 0.0
000280 00 00 00 00 00 00 00 00 00 00 00 00 00 00 00 00
       0.0 0.0 0.0 0.0
000290 00 00 00 00 00 00 00 00 00 00 00 00 00 00 00 00
       0.0 0.0 0.0 0.0
0002a0 00 00 00 00 00 00 00 00 00 00 00 00 00 00 00 00
       0.0 0.0 0.0 0.0
0002b0 00 00 00 00 00 00 00 00 00 00 00 00 00 00 00 00
       0.0 0.0 0.0 0.0
0002c0 00 00 00 00 00 00 00 00 00 00 00 00 00 00 00 00
       0.0 0.0 0.0 0.0
0002d0 00 00 00 00 00 00 00 00 00 00 00 00 00 00 00 00
       0.0 0.0 0.0 0.0
0002e0 00 00 00 00 00 00 00 00 00 00 00 00 00 00 00 00
       0.0 0.0 0.0 0.0
0002f0 00 00 00 00 00 00 00 00 00 00 00 00 00 00 00 00
       0.0 0.0 0.0 0.0
000300 00 00 00 00 00 00 00 00 00 00 00 00 00 00 00 00
       0.0 0.0 0.0 0.0
000310 00 00 00 00 00 00 00 00 00 00 00 00 00 00 00 00
       0.0 0.0 0.0 0.0
000320 00 00 00 00 00 00 00 00 00 00 00 00 00 00 00 00
       0.0 0.0 0.0 0.0
000330 00 00 00 00 00 00 00 00 00 00 00 00 00 00 00 00
       0.0 0.0 0.0 0.0
000340 00 00 00 00 00 00 00 00 00 00 00 00 00 00 00 00
       0.0 0.0 0.0 0.0
000350 00 00 00 00 00 00 00 00 00 00 00 00 00 00 00 00
       0.0 0.0 0.0 0.0
000360 00 00 00 00 00 00 00 00 00 00 00 00 00 00 00 00
       0.0 0.0 0.0 0.0
000370 00 00 00 00 00 00 00 00 00 00 00 00 00 00 00 00
       0.0 0.0 0.0 0.0
000380 00 00 00 00 00 00 00 00 00 00 00 00 00 00 00 00
       0.0 0.0 0.0 0.0
000390 00 00 00 00 00 00 00 00 00 00 00 00 00 00 00 00
       0.0 0.0 0.0 0.0
0003a0 00 00 00 00 00 00 00 00 00 00 00 00 00 00 00 00
       0.0 0.0 0.0 0.0
0003b0 00 00 00 00 00 00 00 00 00 00 00 00 00 00 00 00
       0.0 0.0 0.0 0.0
0003c0 00 00 00 00 00 00 00 00 00 00 00 00 00 00 00 00
       0.0 0.0 0.0 0.0
0003d0 00 00 00 00 00 00 00 00 00 00 00 00 00 00 00 00
       0.0 0.0 0.0 0.0
0003e0 00 00 00 00 00 00 00 00 00 00 00 00 00 00 00 00
       0.0 0.0 0.0 0.0
0003f0 00 00 00 00 00 00 00 00 00 00 00 00 00 00 00 00
       0.0 0.0 0.0 0.0

conv1.depthwise.weight f4 [2, 1, 5, 5]
000000 ac 45 54 be 33 80 45 3d 3e ae 5c 3e e3 d8 b9 3c
       -0.20729703 0.048217963 0.21550843 0.022686427
000010 68 5a cb be e2 62 9b bb ed d1 9f 3e 93 51 cd 3d
       -0.39717412 -0.0047420124 0.31214848 0.10025325
000020 50 9c 89 bd 16 fa 15 be 7c 9e 92 be aa f1 56 be
       -0.06719267 -0.14646181 -0.2863654 -0.20990625
000030 22 ad 08 bf bf e2 c5 be 17 e8 be 3e 08 dc 2a bf
       -0.5338918 -0.38649556 0.37286445 -0.6674199
000040 8e 06 36 bf 0c 85 36 bf 42 26 a1 3c ad ce a9 bd
       -0.7110375 -0.71296763 0.019671563 -0.082913734
000050 98 e6 81 be 7f 65 23 bf 27 07 ae be cf e2 6a be
       -0.25371242 -0.63826746 -0.33989832 -0.22938083
000060 39 ff f5 bd b4 36 18 be 24 bf 14 bf 84 14 dd be
       -0.120115705 -0.14864618 -0.5810416 -0.43179715
000070 0b 95 09 bd aa 6c 57 be fa a9 84 be f1 0c 50 bf
       -0.033589404 -0.21037546 -0.25910932 -0.81269747
000080 c1 85 79 be 76 f4 b6 bd 4c 85 42 be 7a b2 cd be
       -0.2436743 -0.08933346 -0.18996161 -0.4017523
000090 6b d8 b8 be 4c 01 02 be 25 f8 3f bd 76 76 27 be
       -0.36102614 -0.12695807 -0.04686751 -0.16353783
0000a0 94 42 90 bd 11 a1 61 3e 40 06 91 3e db 24 f3 bb
       -0.07043949 0.22034098 0.2832508 -0.007420165
0000b0 cb cd 61 3c 8b 63 28 3e f5 d1 2a 3f e9 8c 26 3e
       0.013781975 0.16444223 0.6672662 0.1626469
0000c0 dd e6 5d be b9 2a f0 3d
       -0.21670099 0.11726899

conv1.depthwise.activation_post_process.histogram f4 [2048]
000000 00 00 80 3f 00 00 00 00 00 00 00 00 00 00 00 00
       1.0 0.0 0.0 0.0
000010 00 00 00 00 00 00 00 00 00 00 70 3f 00 68 58 3f
       0.0 0.0 0.9375 0.8453369
000020 20 50 7e 3f c0 a2 5b 3e 40 32 63 3e 28 cc 2a 3f
       0.9934101 0.21448803 0.22187138 0.6671777
000030 c0 dc f2 3d 00 c0 d5 3a 00 00 00 00 00 ac bc 38
       0.11858511 0.0016307831 0.0 8.996576e-05
000040 fe 10 80 3c a2 c3 8e 3e 28 c8 13 3f bc 6d 04 3e
       0.015633103 0.2788363 0.5772729 0.12932485
000050 09 6f d0 3d 93 ad cb 3e 14 79 15 3f f7 8d ef 3e
       0.10177428 0.39780864 0.58387876 0.46787998
000060 74 0a ce 3e d0 de 34 3d 1a 72 71 3a da a1 3c 3c
       0.4024235 0.044157803 0.0009210423 0.011513198
000070 49 57 4a 3e fe ed 65 3f 00 28 01 40 0a a3 62 3f
       0.19759859 0.8981627 2.0180664 0.8853003
000080 30 d5 5d 3e a3 cd 8b 3f 42 2a 2e 3f 19 5b 76 3f
       0.21663356 1.092213 0.6803323 0.96232754
000090 b8 0e c1 3e 71 55 91 3f a4 4d 31 3f 42 13 f1 3f
       0.37706542 1.13542 0.69259095 1.8834002
0000a0 2a a4 5e 3f ee e0 4f 3f aa e2 8e 3f 30 8d d8 3f
       0.86969244 0.8120259 1.1162922 1.6918087
0000b0 aa 6c 6b 3f a6 a7 82 3f 5e ca b1 3f fd 6d 08 40
       0.91962683 1.0207412 1.3889883 2.1317132
0000c0 b6 1d 28 40 e3 92 f4 3f 33 cd bf 3f 39 09 d9 3f
       2.6268134 1.9107326 1.4984497 1.695594
0000d0 eb fc fa 3f 63 e2 db 3f 1a ab a1 3f 7d f4 8b 3f
       1.9608434 1.7178463 1.2630341 1.0933987
0000e0 af b7 8d 3f 0a fd bf 3f 73 9e 12 40 a5 cc 1b 40
       1.1071681 1.4999096 2.290921 2.4343655
0000f0 a5 21 e9 3f 3e 44 6f 40 4e 0b d1 40 c3 b2 06 41
       1.8213392 3.7385402 6.53263 8.418643
000100 80 fd 99 40 88 c1 c7 40 72 2e 0b 41 d4 a0 2f 41
       4.812195 6.2423744 8.698839 10.976765
000110 61 a0 e7 40 1b 4a 64 40 1c a5 93 40 39 cc 08 41
       7.2383275 3.567023 4.613905 8.549859
000120 83 1f 07 41 1b 40 dc 40 42 2a ae 40 0a ec b4 40
       8.445193 6.8828254 5.4426584 5.6538134
000130 5a f1 dd 40 1f 1b fe 40 c7 96 3a 41 9d 6b 52 41
       6.935712 7.9408107 11.661811 13.151273
000140 f7 a2 86 41 f8 f7 81 41 9f 08 16 41 cd 36 11 41
       16.829573 16.246078 9.377105 9.075879
000150 f7 79 dc 41 bb 3d 7c 41 5f 00 93 41 5b 8c 75 41
       27.559553 15.765071 18.375181 15.346766
000160 32 2b 93 41 14 4f c4 41 33 20 ab 41 5b a5 96 41
       18.396091 24.538612 21.390722 18.83074
000170 b6 3a b7 41 4f 01 c6 41 5d 54 e0 41 3c b4 00 42
       22.903667 24.750639 28.041193 32.17601
000180 2a 41 df 41 5a 59 a3 41 75 24 55 41 a9 83 44 41
       27.906818 20.418629 13.321401 12.282144
000190 3c a0 58 41 d3 91 76 41 01 b4 8a 41 24 dc 86 41
       13.53912 15.410602 17.337893 16.85749
0001a0 ed 04 75 41 a6 39 85 41 c9 d1 c4 41 aa 70 a2 41
       15.313703 16.653149 24.602434 20.305012
0001b0 78 55 b3 41 ef e7 91 41 cd a7 97 41 9a dc 8f 41
       22.416733 18.238249 18.956934 17.982716
0001c0 1f b0 a5 41 6f c1 9e 41 c5 f5 b5 41 54 13 b5 41
       20.710997 19.84445 22.745005 22.634438
0001d0 79 88 d5 41 cb 01 ca 41 70 8b a9 41 c7 49 bb 41
       26.691637 25.250875 21.193085 23.411024
0001e0 31 54 e2 41 a1 02 0a 42 73 4a e6 41 0a 28 c2 41
       28.29111 34.502567 28.786352 24.26955
0001f0 60 fa f3 41 01 86 f6 41 08 4f 11 42 49 59 27 42
       30.497253 30.815432 36.32718 41.837193
000200 d5 c8 1d 42 5a af 11 42 79 f0 07 42 ca 3c cb 41
       39.446125 36.42124 33.984837 25.404682
000210 3d 9a de 41 9a 53 1f 42 45 de 23 42 21 33 20 42
       27.825312 39.831642 40.96706 40.04993
000220 8d 44 37 42 a9 86 10 42 42 56 1a 42 6c 33 00 42
       45.816944 36.131504 38.584236 32.050217
000230 10 3b 06 42 14 87 06 42 f0 1a 1d 42 65 17 2d 42
       33.55768 33.631912 39.276306 43.272846
000240 67 43 2c 42 d0 81 19 42 be 64 05 42 96 02 1c 42
       43.065823 38.37677 33.34838 39.002525
000250 cd 08 15 42 be 0b 38 42 ae 09 1b 42 35 90 08 42
       37.258595 46.011467 38.759453 34.140827
000260 83 56 f4 41 1b 17 f9 41 19 8a 00 42 4e f3 28 42
       30.542242 31.136282 32.13486 42.237602
000270 f8 53 4d 42 df 1e 73 42 bb 1a 3e 42 5f 3f 55 42
       51.332 60.780148 47.526104 53.311886
000280 a0 60 4c 42 18 be 5d 42 22 f3 3e 42 fa 78 65 42
       51.09436 55.43564 47.737434 57.36814
000290 4b b7 58 42 13 16 56 42 6a 5b 7f 42 df 43 8e 42
       54.178997 53.521557 63.83927 71.13256
0002a0 44 48 8f 42 4d 51 7b 42 23 d8 89 42 8d be 85 42
       71.64114 62.829395 68.92214 66.87217
0002b0 24 5e 62 42 ba 42 50 42 cf 02 4a 42 00 97 51 42
       56.591934 52.065163 50.502743 52.39746
0002c0 43 7a 64 42 55 37 63 42 97 01 70 42 cd bc 65 42
       57.119396 56.804035 60.001553 57.434376
0002d0 2d d0 5c 42 a9 35 64 42 71 c6 72 42 d5 7c 89 42
       55.203297 57.052402 60.69379 68.74381
0002e0 00 c8 7a 42 98 83 69 42 ed 67 6c 42 18 fa 6e 42
       62.695312 58.37851 59.10149 59.744232
0002f0 ad b7 82 42 4a b5 8f 42 da 37 8f 42 c2 44 a5 42
       65.35874 71.85408 71.609085 82.63429
000300 73 ff bf 42 27 59 a1 42 5b 10 a2 42 6f 2b a1 42
       95.998924 80.674126 81.031944 80.58483
000310 e0 27 97 42 9c 71 9c 42 2a 34 98 42 e3 2f a7 42
       75.57788 78.22189 76.10188 83.59353
000320 9e 21 b2 42 7b 40 ce 42 3b d1 cf 42 9f 65 bb 42
       89.06566 103.12594 103.90865 93.69848
000330 46 46 bb 42 6a fe c4 42 22 d8 c2 42 47 f7 be 42
       93.63725 98.4969 97.422134 95.48296
000340 02 a9 bb 42 33 da be 42 f3 a7 ce 42 ec 91 c4 42
       93.83009 95.42617 103.328026 98.285
000350 2a 51 d4 42 6b e9 da 42 04 12 db 42 a8 3d df 42
       106.15852 109.455894 109.53519 111.62042
000360 f5 24 f4 42 12 df e9 42 5a c4 ef 42 54 ee e1 42
       122.07218 116.935684 119.8835 112.965485
000370 6e d0 dd 42 0e 11 f2 42 b9 b2 ec 42 fb 68 f8 42
       110.90709 121.03331 118.34907 124.20504
000380 d1 a9 f1 42 98 31 f8 42 cc 42 00 43 50 ff 01 43
       120.83167 124.09686 128.26093 129.99731
000390 ed d9 ff 42 90 91 03 43 8d bb ff 42 9a 5b 02 43
       127.92564 131.5686 127.86631 130.35782
0003a0 0b ae 4a 43 8d 9e 0a 43 f7 76 03 43 98 4e 04 43
       202.67986 138.61934 131.4647 132.307
0003b0 ab 71 06 43 7b ba 06 43 d0 52 00 43 cd b4 04 43
       134.44402 134.72844 128.32349 132.70625
0003c0 3e 8c 1c 43 ec f9 18 43 66 a9 41 43 24 f0 36 43
       156.54782 152.97626 193.66171 182.93805
0003d0 01 64 15 43 0f 7d 20 43 0b 32 13 43 57 35 0d 43
       149.39064 160.48851 147.19548 141.20836
0003e0 33 d9 10 43 bd b1 15 43 7e 28 20 43 54 54 27 43
       144.84843 149.69429 160.15817 167.3294
0003f0 71 85 2a 43 e9 38 22 43 86 d3 1c 43 10 2e 1a 43
       170.52126 162.2223 156.82626 154.17993

conv1.pointwise.weight f4 [6, 2, 1, 1]
000000 bc 84 0f bf c9 d9 fa be 51 67 89 bf 8a f2 10 bf
       -0.5606191 -0.48994282 -1.0734655 -0.56620085
000010 ee 2c b9 3d fc 4a 59 bf 30 25 59 bf 89 61 ff 3e
       0.09041773 -0.8488004 -0.8482237 0.498791
000020 a0 c5 09 bf cc 75 d4 3d 48 d8 5f be 2b bd 0a bf
       -0.53817177 0.103740305 -0.21859848 -0.541949

conv1.pointwise.activation_post_process.histogram f4 [2048]
000000 00 00 80 3f 00 00 00 00 00 00 00 00 00 00 00 00
       1.0 0.0 0.0 0.0
000010 00 00 00 00 00 00 00 00 00 00 00 00 00 00 00 00
       0.0 0.0 0.0 0.0
000020 00 00 00 00 00 00 00 00 00 00 00 00 00 00 00 00
       0.0 0.0 0.0 0.0
000030 00 00 00 00 00 00 00 00 00 00 00 00 00 00 a0 3d
       0.0 0.0 0.0 0.078125
000040 00 00 6c 3f 00 00 00 00 00 00 00 00 00 00 00 00
       0.921875 0.0 0.0 0.0
000050 00 00 00 00 00 00 00 00 00 00 00 00 c2 a6 4d 3e
       0.0 0.0 0.0 0.20083144
000060 45 34 79 3f fd 8a 33 3f 72 bb 0a 3e 5d a8 e2 3d
       0.9734538 0.70133954 0.13548067 0.11067269
000070 23 18 1a 3f 95 ff 86 3f 89 45 7f 3e aa 61 04 3e
       0.6019308 1.0546747 0.2492887 0.12927881
000080 ce 84 bb 3e 1b ce 18 3f 0d 57 16 3f a1 ef bd 3e
       0.3662476 0.5968949 0.5872658 0.37096885
000090 87 1d ac 3e 48 26 1a 3f d5 77 46 3f 6f fe 49 3f
       0.33616278 0.6021466 0.775266 0.7890386
0000a0 fb f1 64 3f bf 97 95 3f 41 f5 bb 3f 5a 74 d3 3f
       0.8943173 1.1686934 1.468422 1.6519883
0000b0 79 64 bf 3f 3d e7 7d 3f 34 17 0e 3f 6e 04 d1 3e
       1.4952537 0.99180967 0.55504155 0.40823692
0000c0 e9 ae 15 3f 6f 0b 81 3f a0 e8 bb 3f d6 9f 04 40
       0.58470017 1.0081614 1.4680367 2.0722556
0000d0 f9 4b 36 40 b6 63 54 40 41 3c 55 40 79 86 54 40
       2.848387 3.3185859 3.3318026 3.3207076
0000e0 15 88 5f 40 46 e5 6b 40 e9 43 66 40 3d c3 69 40
       3.4926808 3.6858687 3.597895 3.6525414
0000f0 e5 16 97 40 c2 3f c9 40 25 d5 f6 40 dc 3f e0 40
       4.7215447 6.289033 7.7135186 7.0077953
000100 a1 db f3 40 80 4d 10 41 bf 0a 18 41 ff 05 23 41
       7.62056 9.018921 9.502624 10.188964
000110 7c b6 2c 41 a8 e6 4f 41 bf 2e 76 41 36 d2 94 41
       10.794552 12.993813 15.386413 18.602642
000120 20 1d b0 41 17 93 bc 41 21 2a d1 41 1c d6 d3 41
       22.014221 23.571821 26.14557 26.479546
000130 c9 8b d6 41 be ae c9 41 fd 32 d6 41 07 ab ef 41
       26.818254 25.210323 26.774897 29.95851
000140 d4 b4 01 42 0c 31 01 42 bf cf 05 42 58 9f 0e 42
       32.42659 32.297897 33.452877 35.65561
000150 6a a6 1c 42 f0 cc 1a 42 57 6d 15 42 22 d5 23 42
       39.162514 38.700134 37.356777 40.958138
000160 f5 ba 51 42 d0 0d 8d 42 de 90 98 42 69 b6 a0 42
       52.432575 70.52698 76.28294 80.35627
000170 f0 9e 91 42 a3 6d 86 42 50 52 8c 42 b9 98 ab 42
       72.810425 67.214134 70.16077 85.79829
000180 81 98 ae 42 90 89 84 42 f9 f9 89 42 4e 6f 96 42
       87.29786 66.26868 68.98823 75.21739
000190 13 4e 9f 42 87 44 b0 42 85 12 c4 42 55 b6 c3 42
       79.65249 88.13384 98.03617 97.85612
0001a0 d3 ae b4 42 76 5e ac 42 70 30 b0 42 b3 bb ae 42
       90.34145 86.184494 88.094604 87.3666
0001b0 92 e1 b4 42 0b 7b c8 42 a1 6a d2 42 2f 75 c3 42
       90.44057 100.24032 105.20826 97.728874
0001c0 19 fb bd 42 b9 54 c5 42 59 4e c1 42 ab 12 b2 42
       94.990425 98.665474 96.65302 89.03646
0001d0 c4 e4 aa 42 86 04 ae 42 ac fa bb 42 ca 5d d4 42
       85.44681 87.008835 93.98959 106.18318
0001e0 2d 7e e5 42 01 b3 f1 42 31 51 f4 42 2e 07 fc 42
       114.74644 120.84962 122.15858 126.01402
0001f0 3f 1b 0a 43 e9 d9 1c 43 74 28 33 43 35 38 3c 43
       138.10643 156.85121 179.15802 188.21956
000200 cc 0f 35 43 bd 82 28 43 94 82 19 43 c8 04 12 43
       181.0617 168.5107 153.51007 146.01868
000210 7a c0 12 43 37 2e 1e 43 30 a0 1e 43 be 50 1d 43
       146.75186 158.18053 158.62573 157.3154
000220 c7 71 1c 43 93 b6 17 43 56 71 1b 43 f1 a0 2a 43
       156.44444 151.71318 155.44272 170.62868
000230 d2 ba 2d 43 7e ca 1d 43 9b 16 1c 43 aa 0f 17 43
       173.72977 157.79099 156.0883 151.06119
000240 9b 47 29 43 5a df 1b 43 f2 eb 15 43 c6 7a 29 43
       169.27971 155.87247 149.92166 169.47958
000250 aa 75 33 43 44 e8 2a 43 b7 5c 2a 43 2d 2b 27 43
       179.45963 170.90729 170.36217 167.16866
000260 39 01 2e 43 1d 2a 40 43 16 cc 40 43 80 4a 33 43
       174.00478 192.1645 192.79721 179.29102
000270 b8 cf 32 43 d9 dc 2b 43 65 b8 18 43 9f 01 11 43
       178.8114 171.86269 152.72029 145.00633
000280 06 4b 15 43 12 84 20 43 c8 73 29 43 5e 20 31 43
       149.29306 160.5159 169.45227 177.12643
000290 d4 ed 36 43 8e 55 35 43 e3 f6 3a 43 e2 31 45 43
       182.92902 181.3342 186.9644 197.19485
0002a0 9b d5 44 43 0a 3f 43 43 ec 9d 47 43 4e 2d 4f 43
       196.8344 195.24625 199.61688 207.17697
0002b0 30 a9 58 43 50 55 5d 43 cf ca 85 43 88 b0 85 43
       216.66089 221.33325 267.58444 267.37915
0002c0 33 38 6f 43 27 82 6b 43 ab 20 5b 43 cc 08 55 43
       239.21953 235.5084 219.12761 213.03436
0002d0 8d 67 61 43 45 a9 6a 43 04 b4 59 43 b1 ef 54 43
       225.4045 234.66121 217.70319 212.9363
0002e0 b0 d5 5a 43 f4 b2 5b 43 b7 8d 5c 43 e0 43 62 43
       218.83472 219.69904 220.55357 226.26514
0002f0 b9 84 64 43 b1 32 71 43 58 8a 76 43 7f 11 80 43
       228.51845 241.19801 246.5404 256.1367
000300 e3 b5 86 43 25 26 8e 43 d4 03 92 43 05 f3 8b 43
       269.421 284.298 292.0299 279.8986
000310 8c bc 80 43 35 74 7e 43 c2 38 71 43 86 9d 7a 43
       257.47302 254.45393 241.22171 250.61533
000320 b3 6f 8f 43 e4 0a 8b 43 66 35 8f 43 c7 d8 91 43
       286.87265 278.08508 286.41718 291.69357
000330 59 65 8d 43 7c 51 8b 43 cd 3f 95 43 74 f8 9b 43
       282.79178 278.6366 298.49844 311.94104
000340 6c 2b a3 43 8c 0a ab 43 58 07 b4 43 9c 49 c1 43
       326.33923 342.0824 360.05737 386.57507
000350 a4 af c6 43 a4 b4 cc 43 ab 68 ce 43 f1 22 c9 43
       397.3722 409.41125 412.81772 402.27298
000360 36 04 ca 43 81 f8 e0 43 e0 21 f0 43 0f 7d e7 43
       404.0329 449.94144 480.26465 462.97702
000370 87 ed ef 43 c9 4f 05 44 02 c7 09 44 2e 34 10 44
       479.85568 533.24664 551.1095 576.8153
000380 32 16 15 44 66 4e 1c 44 74 2a 1a 44 3f 4d 15 44
       596.3468 625.225 616.6633 597.207
000390 ac 2e 1f 44 df 5a 23 44 73 7e 25 44 f2 16 28 44
       636.72925 653.41986 661.97577 672.3585
0003a0 f0 65 2d 44 ac 19 2e 44 49 46 30 44 5f 9f 37 44
       693.5928 696.4011 705.0982 734.4902
0003b0 3d b6 40 44 3a 61 46 44 69 fd 4e 44 88 02 55 44
       770.8475 793.51917 827.95953 852.03955
0003c0 96 62 57 44 83 1d 5d 44 bd cf 5f 44 72 a8 66 44
       861.5404 884.4611 895.2459 922.63196
0003d0 a7 95 6a 44 71 16 6c 44 e8 33 62 44 d9 ea 5a 44
       938.3383 944.35065 904.81104 875.6695
0003e0 87 46 5a 44 16 67 60 44 cf 69 68 44 ba 2c 73 44
       873.102 897.6107 929.65326 972.69885
0003f0 46 8b 83 44 c1 39 8d 44 99 0e 91 44 86 df 90 44
       1052.3523 1129.8048 1160.4562 1158.9851

conv2.depthwise.weight f4 [6, 1, 5, 5]
000000 10 26 46 3e bd d9 3f 3d 74 ec 41 3e 4f 72 88 3e
       0.19350457 0.04683851 0.18937856 0.2664971
000010 c4 f9 b2 3c 42 10 09 3f 16 f2 48 3d 3a 32 9b be
       0.021847613 0.5354043 0.049058996 -0.30311757
000020 94 29 08 bf 77 45 38 bf ae b6 3f 3e a3 48 60 be
       -0.53188443 -0.71980995 0.1872203 -0.21902709
000030 a0 65 9f be 95 52 6b be 36 75 8e 3e 38 d4 43 3d
       -0.3113222 -0.22980721 0.278238 0.04780981
000040 da 55 8a 3b a4 1d d1 3d 62 c5 ac 3e 2d 96 03 3f
       0.00422166 0.102107316 0.3374434 0.51401025
000050 de 9f 79 be 3e e6 32 bc 0e f6 58 be 18 ab d9 bd
       -0.2437739 -0.010919152 -0.21187612 -0.10628337
000060 c6 d5 fb bd 5a 71 53 be 3d 2e ce bc 01 c5 1d be
       -0.122966334 -0.20648709 -0.025168533 -0.15407182
000070 2c db f8 bd a7 24 62 be d3 4b 32 bc 96 ef 2c 3e
       -0.12151179 -0.22084294 -0.010882336 0.1688827
000080 f4 28 d5 be 84 c3 a7 be bb d8 89 be 98 88 a7 3e
       -0.41632807 -0.32766354 -0.26923165 0.327214
000090 a0 98 0b 3f a1 35 f1 3e 82 18 21 3f 41 ab 07 3c
       0.5452976 0.47111228 0.6292802 0.008280576
0000a0 a6 35 a6 be c0 f8 7e 3e 00 6b 1f 3f 0e 79 b8 3e
       -0.32462806 0.24899578 0.62272644 0.36029857
0000b0 a5 92 0a 3e 0d b7 80 be 30 ad ae bb 5c de 55 3e
       0.13532503 -0.25139657 -0.005330704 0.20885605
0000c0 93 ce 85 3d aa aa af bd 2e 26 49 be 20 90 84 3e
       0.065335415 -0.085774735 -0.1964347 0.2589121
0000d0 56 58 36 3e 70 76 74 3d 86 43 01 bd 72 ab 26 3d
       0.17807135 0.059683263 -0.031558536 0.040690847
0000e0 35 7c 33 3f aa 59 01 3f f0 c8 4e 3e e0 52 57 be
       0.701114 0.5052744 0.20193839 -0.21027708
0000f0 6b 8c bd 3e 5d 6b 0a 3f 6a 11 e0 3e 96 fc 5e 3d
       0.37021193 0.54070073 0.43763286 0.054440103
000100 e8 7f b0 bd 98 3f 2b bd 1b c2 30 3e 56 1a 98 bb
       -0.08618146 -0.041808695 0.17261545 -0.0046418114
000110 dd a3 4b be c3 fb 5d 3e ba 0c 11 be fd 2a 22 bf
       -0.19886728 0.2167807 -0.14165011 -0.63346845
000120 4e dc c5 be 09 6f 12 be 4e 13 41 bd cc 8c fe 3e
       -0.38644642 -0.14300169 -0.04713755 0.49716794
000130 01 0b d7 3d 28 d3 13 be 2b be 1d 3d 78 c8 99 be
       0.10500146 -0.14436018 0.038511436 -0.30035758
000140 75 54 09 bd bc 0b d9 bd db fd d6 3d 74 28 92 bd
       -0.03352781 -0.10597941 0.10497638 -0.07136622
000150 ce b7 81 be ab 9c a9 be be 10 1c bf 82 a6 0f bf
       -0.25335544 -0.3312734 -0.60963047 -0.56113446
000160 e3 f0 a1 3d c3 2c 26 3e 62 06 b7 bd 67 10 8b be
       0.079072736 0.16228013 -0.08936764 -0.27160951
000170 6d 36 94 be 0f d8 87 3d c9 b9 48 be 86 1e 8d be
       -0.28947774 0.06633007 -0.19602121 -0.2756235
000180 df a6 18 be f4 12 aa be 5b 03 95 be d9 a8 a9 3d
       -0.14907406 -0.33217585 -0.29104123 0.08284158
000190 89 4a 30 bf 00 15 b9 bd 7a c0 da bc e0 24 19 3e
       -0.6886373 -0.090372086 -0.026703108 0.14955473
0001a0 05 0e d6 bd ca 53 84 be 35 4f 32 bd de 9e 63 3d
       -0.10451893 -0.25845176 -0.04353257 0.05557143
0001b0 f3 78 ab bd 87 7d 96 be 29 3f f1 b9 2f c7 d1 3c
       -0.083726786 -0.29392645 -0.0004601416 0.025607673
0001c0 a3 33 db 3e c9 a2 7e 3d 99 a5 a0 3e 45 05 60 3e
       0.42812833 0.062166963 0.3137634 0.2187701
0001d0 ae 37 8e 3e 2c dc 4f be ff 2d 94 3a 11 c6 5d bd
       0.27776855 -0.20298833 0.0011305212 -0.05414397
0001e0 57 43 90 3e f9 84 19 3d 71 a2 8b be 55 20 0e bf
       0.28176376 0.03748033 -0.2727237 -0.55518085
0001f0 4d 93 1b be 8d 58 12 3c 88 58 0a be 35 18 ec bd
       -0.1519291 0.008932245 -0.13510334 -0.115280546
000200 45 f9 4a bd 77 e1 42 be ed b4 76 3e 00 7d f7 3e
       -0.04955413 -0.1903132 0.24092455 0.48337555
000210 22 42 1d 3f 53 53 b4 3b a1 bb 15 bf 38 ea c1 be
       0.61429036 0.005503097 -0.58489424 -0.37874007
000220 13 f4 19 bf db 69 bf be 7a 38 6b 3d 3a 70 d0 bc
       -0.6013805 -0.3738545 0.057426907 -0.025444139
000230 55 74 09 be 05 4f 64 bc 8a 02 cc 3e 59 5a ff 3e
       -0.13423283 -0.013934855 0.39845687 0.49873617
000240 35 b5 e7 3e e7 c9 0c be 7b 95 53 3e 98 46 fd 3e
       0.45255437 -0.13748895 0.20662491 0.4946792
000250 6f 10 97 3d c3 4a db 3d
       0.07376181 0.10707619

conv2.depthwise.activation_post_process.histogram f4 [2048]
000000 24 c7 c5 3f 70 e3 e8 3e 00 00 00 00 00 00 00 00
       1.5451398 0.4548602 0.0 0.0
000010 00 00 00 00 00 96 cf 2d da 6b 23 35 90 ce 53 38
       0.0 2.3599789e-11 6.0879177e-07 5.0498697e-05
000020 71 7d c3 3a 30 2f a5 3c 78 33 08 3e 49 16 d2 3e
       0.0014914704 0.020164102 0.13300884 0.41032627
000030 82 f5 f8 3e 89 b0 fb 3d c1 03 74 3e 31 45 94 3e
       0.48624808 0.12289531 0.23829557 0.2895904
000040 6b cf 54 3e 95 8d a0 3d e4 e0 3f 3c c6 6b e0 b3
       0.20782249 0.07839505 0.011711333 -1.0450417e-07
000050 e2 f5 b3 b4 05 61 60 b4 be 2d 3b b4 6e 0d 13 b3
       -3.3520251e-07 -2.0896921e-07 -1.7432373e-07 -3.423832e-08
000060 df 66 73 b4 b0 30 c1 b3 7a 7f 95 b3 c5 87 30 b4
       -2.2668563e-07 -8.996119e-08 -6.961541e-08 -1.644067e-07
000070 1b da da b3 56 c7 4e b4 3e 3f 2f b4 66 bc da b3
       -1.0191089e-07 -1.9257763e-07 -1.6321152e-07 -1.01856855e-07
000080 5a c1 4c b4 d3 3a ab b3 a2 0d 7d b4 48 37 aa b3
       -1.9069321e-07 -7.973508e-08 -2.3567421e-07 -7.9262975e-08
000090 3d cc 92 b4 d3 70 5a b4 4a e1 4d b4 80 71 7a b4
       -2.7343222e-07 -2.0343877e-07 -1.9174072e-07 -2.3324355e-07
0000a0 64 16 b3 b4 79 09 ce b4 5c e3 a7 32 6c 22 f1 33
       -3.335764e-07 -3.8377382e-07 1.954475e-08 1.1228698e-07
0000b0 fd bf 07 34 ff cf 4e b4 52 2b a6 31 5b cf f0 3a
       1.26427e-07 -1.9260914e-07 4.836161e-09 0.0018372344
0000c0 2b 00 9c 3c 8a a5 a8 3d 95 ea 46 3e af 95 8c 3e
       0.019043049 0.08234699 0.19425423 0.2745795
0000d0 3a bc 76 3e 66 3d 15 3e 32 66 13 3e d6 78 9e 3e
       0.2409524 0.14574203 0.14394453 0.30951566
0000e0 6f dc 00 3f b0 16 07 3f 65 bf d2 3e 8d a0 b2 3e
       0.50336355 0.52768993 0.41161647 0.34888116
0000f0 b1 2b b9 3e 4b 56 93 3e f0 2d 00 3e b4 2e b1 3c
       0.36166146 0.28776774 0.12517524 0.021628715
000100 c2 b8 9f b4 5e 43 7e 35 27 15 94 3a 5d a9 c3 3c
       -2.9750487e-07 9.4720406e-07 0.0011297808 0.02388447
000110 5a 93 15 3e f4 2b aa 3e a1 91 ba 3e 28 ad 83 3e
       0.14606991 0.3323666 0.3643923 0.25718045
000120 e0 1e 7d 3e e5 a2 bd 3e 05 35 02 3f 1f de 12 3f
       0.24718809 0.3703834 0.5086215 0.5737018
000130 0a 32 05 3f 65 6f bb 3e fe 36 45 3e df e9 b8 3d
       0.5202948 0.36608425 0.19259259 0.09028982
000140 46 ba 0c 3e a7 70 96 3e 3f f1 a8 3e 67 e7 3f 3e
       0.13742933 0.29382822 0.32996556 0.18740617
000150 d6 bf 53 3d 30 b6 b3 3b 2f b5 33 b5 be ba c9 b4
       0.05169662 0.005484365 -6.6946353e-07 -3.757504e-07
000160 1c 8f 0c 36 fa 41 b5 38 9d 29 98 3a a3 ec 0c 3c
       2.0944926e-06 8.643042e-05 0.0011609081 0.00860134
000170 5a e4 21 3d 6e 04 fc 3d 8e cd 8f 3e ff 3a ff 3e
       0.039524414 0.123055324 0.28086513 0.49849698
000180 cc 07 34 3f 35 2b 6b 3f 24 6a 83 3f de 41 4c 3f
       0.703244 0.91862804 1.0266767 0.79788005
000190 25 60 d0 3e 26 dd 13 3e 32 33 22 3d b0 c8 12 3c
       0.40698352 0.1443983 0.039599605 0.00895898
0001a0 56 88 d3 3a 3b d3 43 3a 1f b9 0c 3c 55 66 66 3d
       0.0016138654 0.00074701355 0.008589058 0.056249935
0001b0 b7 72 91 3e 03 a4 3b 3f 4e 86 83 3f 86 09 6d 3f
       0.28407833 0.7329714 1.0275362 0.92592657
0001c0 fb 98 16 3f ae 42 89 3e 2c e0 af 3d aa 63 9a 3c
       0.5882718 0.26808685 0.08587679 0.018846352
0001d0 bb a6 35 3b 1a 2f 8b 39 49 05 67 37 fd 98 3c 3f
       0.0027717787 0.0002654724 1.37699035e-05 0.7367094
0001e0 9d b6 72 3e 10 49 0a 3d 59 c5 4c 3d 70 e3 24 3e
       0.23702474 0.033761084 0.049992893 0.16102386
0001f0 8e 7d 96 3e a4 53 a3 3f 37 9c 51 3e 52 74 00 3e
       0.29392666 1.27599 0.20469747 0.12544373
000200 1f 5e 49 3e f0 20 ac 3e dd 62 00 3f 3e 6f 26 3f
       0.1966481 0.3361888 0.50150853 0.6501349
000210 f6 ec 38 3f 08 6c 39 3f 71 e9 35 3f b6 91 27 3f
       0.72236574 0.7243047 0.7105933 0.6545671
000220 2c bb 07 3f 1a 11 d1 3e 8c d4 a8 3e 4d ee 94 3e
       0.53019977 0.4083336 0.3297466 0.2908806
000230 6b a1 a6 3e 81 5a ff 3e bd a6 5a 3f fa 2f 96 3f
       0.32545027 0.49873737 0.8541067 1.1733391
000240 cc 1f 87 3f c9 a7 3c 3f 95 c3 15 3f 5c 59 d8 3e
       1.0556579 0.7369352 0.5850156 0.42255676
000250 1b ed f0 3e 9b 89 5f 3f f4 99 89 3f 32 89 2d 3f
       0.47055897 0.87319344 1.0750108 0.6778747
000260 89 1b da 3e 3b 8f 05 3f c8 a8 1f 3f 83 55 2b 3f
       0.42599133 0.5217168 0.62366915 0.66927356
000270 29 87 21 3f e3 3d 0a 3f 61 40 f1 3e 68 bc 07 3f
       0.63096863 0.5400068 0.4711943 0.5302186
000280 27 09 57 3f 76 96 ae 3f ef fc cd 3f 2f c1 a0 3f
       0.8399834 1.3639667 1.6092814 1.2558955
000290 1e 9b 4f 3f b9 d1 f2 3e b5 29 5c 3e c8 a6 95 3d
       0.81096065 0.4742563 0.21500285 0.073072016
0002a0 ca 51 95 3c 75 0b 59 3b 21 fb fd 39 29 b8 41 3a
       0.018227477 0.0033118401 0.00048443026 0.0007389808
0002b0 36 e6 ba 3b 34 e4 36 3d 1c 32 51 3e 0a 29 fc 3e
       0.005703713 0.044651225 0.20429271 0.4925006
0002c0 f8 ba 29 3f b7 44 12 3f 35 74 e0 3e 5f 1b e7 3e
       0.66300917 0.571361 0.4383866 0.4513807
0002d0 09 4f 20 3f a6 f1 33 3f 1e 85 f7 3e fc d8 0d 3f
       0.626206 0.702906 0.48343748 0.55409217
0002e0 69 af b5 3f 62 6c 14 40 0f 7a 10 40 b1 13 d5 3f
       1.4194156 2.3191152 2.2574499 1.6646634
0002f0 81 90 af 3f 8b 16 b0 3f da 8d bd 3f fb 01 cb 3f
       1.3715974 1.375688 1.4808915 1.5859979
000300 fc 79 e0 3f 5a 53 04 40 0b c7 04 40 b8 39 c7 3f
       1.7537227 2.0675874 2.0746486 1.5564489
000310 47 e8 88 3f d1 0b 82 3f 7f 8e 9d 3f 22 ae a0 3f
       1.0695885 1.0159856 1.2309111 1.2553141
000320 9f 2d 6f 3f ab 66 27 3f 44 1c 69 3f 77 0f ad 3f
       0.9342899 0.65391034 0.91058755 1.3520344
000330 04 a8 ab 3f 8d 66 91 3f 33 f6 a0 3f 03 d7 c7 3f
       1.3410649 1.1359421 1.2575134 1.5612491
000340 2e e0 f7 3f 65 38 51 40 9b 0d 54 40 e5 b4 fb 3f
       1.9365289 3.269067 3.3133304 1.966458
000350 ac 6f c0 3f 94 61 cb 3f e3 66 c8 3f 3d 25 dc 3f
       1.503408 1.5889153 1.5656399 1.7198864
000360 9a bf fd 3f aa 8c fe 3f e0 24 de 3f 6f 76 b8 3f
       1.9824097 1.9886677 1.7355003 1.4411143
000370 53 bd b4 3f 1f 01 f4 3f 05 0f 3b 40 31 ab 65 40
       1.4120277 1.9062842 2.9227917 3.5885737
000380 3a 22 57 40 9e 1c 39 40 7c ce 23 40 df bf 1a 40
       3.361464 2.8923717 2.5594778 2.417961
000390 06 c9 67 40 4f f7 63 40 9c 78 36 40 fb ca 6f 40
       3.6216445 3.5619695 2.8511114 3.746764
0003a0 38 9a 56 40 3c bb 5d 40 67 53 38 40 cb fa 55 40
       3.3531628 3.4645529 2.8800905 3.3434322
0003b0 18 03 b0 40 3e f4 a2 40 c3 df 8a 40 cb fc 5d 40
       5.5003777 5.0923147 4.3398147 3.4685543
0003c0 72 35 89 40 ca bb 9d 40 1c 06 ed 40 db bb ea 40
       4.287774 4.9291735 7.406996 7.3354316
0003d0 c1 99 7f 40 a0 bb 6c 40 96 37 48 40 79 8e 80 40
       3.9937594 3.6989517 3.1283927 4.0173917
0003e0 f8 9e 83 40 c1 4f c0 40 0c 93 95 40 80 de b3 40
       4.1131554 6.0097356 4.6742 5.6209106
0003f0 1e 74 8f 40 30 41 73 40 92 53 8f 40 5e b5 72 40
       4.4829245 3.8008537 4.4789515 3.7923198

conv2.pointwise.weight f4 [16, 6, 1, 1]
000000 04 5a 9d be 9a d9 e4 3e bc 51 f8 3d f6 87 af 3e
       -0.3073274 0.44697267 0.121249646 0.34283417
000010 b8 e8 17 bf bf a6 3e be ae a5 d0 bc e9 28 e8 3e
       -0.59339476 -0.18618296 -0.025469627 0.45343712
000020 fe 99 6c 3e a8 b8 93 3e 0a b8 f6 3d 8c 56 8f 3e
       0.23105618 0.2885182 0.120468214 0.27995718
000030 71 0a 37 bf cd 4a 55 be 99 ed f3 3d 58 10 5e be
       -0.7150031 -0.20829315 0.119105525 -0.21685922
000040 a9 9c 91 3d e6 42 20 bf b1 76 94 3d 61 d2 52 bf
       0.07109959 -0.6260208 0.07249201 -0.8235226
000050 9d e0 15 bf c5 ec b6 3e a6 ba 3b be 64 34 5a 3d
       -0.5854586 0.35727516 -0.1833292 0.05327262
000060 86 99 f0 3d af ad 90 3e 18 5a 95 be 5f 66 b9 be
       0.11748032 0.2825751 -0.291703 -0.36210915
000070 5e ce 28 3d 51 b5 81 3e 9f c0 8b be 49 be b2 3e
       0.041212432 0.25333646 -0.27295396 0.349108
000080 34 be 05 3f 0a 81 81 bc f3 60 e7 be 6c 0e 8d 3e
       0.5224335 -0.015808601 -0.45191154 0.27550066
000090 69 3d 43 3f 8c 0b 27 bf 29 32 ef bd cf 2e 7b 3e
       0.7626558 -0.65251994 -0.11679489 0.24529575
0000a0 04 65 98 bd d8 23 2e 3f 07 08 05 3c d9 61 8d 3e
       -0.07441142 0.68023443 0.00811959 0.27613714
0000b0 36 2c b7 3d 54 ac 8b be a3 e8 52 3e f0 4b f3 3e
       0.089439794 -0.27279913 0.20596556 0.47518873
0000c0 af 89 bf be 4b ab 49 bf 71 15 ce be ac b0 c3 3e
       -0.37409732 -0.78777 -0.40250733 0.38220727
0000d0 88 24 b2 be a9 6c b2 3e 87 e8 4b bf d7 d8 f9 bd
       -0.34793496 0.34848526 -0.79651684 -0.12199562
0000e0 be e1 b9 3e 63 49 5a 3a ad 2e db 3e 64 e6 fb be
       0.3630504 0.00083269755 0.42809048 -0.49199212
0000f0 58 51 34 3e 64 03 d7 be 78 e6 a5 3e 53 3a 3d bf
       0.17609155 -0.41994774 0.32402396 -0.7391712
000100 75 7c d2 3d c3 28 54 be e2 50 ef be 1a 3d 83 3e
       0.102776445 -0.20718674 -0.46741396 0.25632554
000110 07 72 ee 3e 4e de e1 bd 60 f1 0d bf 78 0b e7 3e
       0.4657137 -0.110287294 -0.55446434 0.45125937
000120 26 bb 59 bd d1 34 20 bf 84 ec 0c bf 24 e2 18 be
       -0.053156994 -0.6258059 -0.55048394 -0.14930016
000130 1e 28 28 bf 28 1a ac bd 15 9d 0f be 84 f5 3a 3e
       -0.65686214 -0.084034264 -0.14024766 0.1825772
000140 f2 5c d2 be 9c 44 9c be f6 f6 0c bf a7 64 e5 3d
       -0.41086537 -0.30521095 -0.5506433 0.112008385
000150 a9 de d0 3d 4b 10 c8 3e 3b 46 a0 3e 18 50 9c bc
       0.10198719 0.3907493 0.31303582 -0.01908116
000160 e1 e7 03 3d bb 94 14 3f 30 f9 4c bf af 03 81 3e
       0.03220356 0.58039445 -0.8006773 0.25198123
000170 7a e3 45 3e eb 09 2c be 0e 9a bc be 66 c1 a4 3d
       0.19325057 -0.16800658 -0.36836284 0.080447

conv2.pointwise.activation_post_process.histogram f4 [2048]
000000 00 00 80 3f 00 00 00 00 00 00 00 00 00 00 00 00
       1.0 0.0 0.0 0.0
000010 00 00 00 00 00 00 00 00 00 00 00 00 00 00 00 00
       0.0 0.0 0.0 0.0
000020 00 00 00 00 00 00 00 00 00 00 00 00 00 00 00 00
       0.0 0.0 0.0 0.0
000030 00 00 00 00 00 00 00 00 00 00 00 00 00 00 00 00
       0.0 0.0 0.0 0.0
000040 00 00 00 00 00 00 00 00 00 00 00 00 00 00 00 00
       0.0 0.0 0.0 0.0
000050 00 00 00 00 00 00 00 00 00 00 00 00 00 00 00 00
       0.0 0.0 0.0 0.0
000060 00 00 00 00 00 00 00 00 00 00 30 3f 00 00 a0 3e
       0.0 0.0 0.6875 0.3125
000070 00 00 00 00 00 00 00 00 00 00 00 00 00 00 00 00
       0.0 0.0 0.0 0.0
000080 00 00 00 00 00 e0 6b 3e 00 e8 22 3f 00 80 08 3e
       0.0 0.23034668 0.63635254 0.13330078
000090 00 00 00 00 00 00 00 00 00 00 00 00 00 00 00 00
       0.0 0.0 0.0 0.0
0000a0 00 00 00 00 00 00 00 00 00 00 00 00 00 00 00 00
       0.0 0.0 0.0 0.0
0000b0 00 00 00 00 00 00 00 00 00 00 00 00 00 00 02 3b
       0.0 0.0 0.0 0.0019836426
0000c0 80 42 13 3e 50 08 20 3f 90 56 5c 3f 00 9d bc 3e
       0.14380836 0.62512684 0.86069584 0.36838531
0000d0 00 00 80 3f 00 00 00 00 00 00 00 00 00 00 00 00
       1.0 0.0 0.0 0.0
0000e0 00 00 00 00 00 00 00 00 00 00 00 00 00 00 00 00
       0.0 0.0 0.0 0.0
0000f0 00 00 00 00 80 b9 b6 3b e0 41 a8 3d 02 d0 a3 3e
       0.0 0.0055763125 0.0821569 0.31994635
000100 3c a6 d7 3e c0 3c 2f 3e 00 00 00 00 00 00 a8 3e
       0.42119014 0.17113018 0.0 0.328125
000110 00 00 2c 3f 00 00 80 3f 00 00 00 00 00 00 00 00
       0.671875 1.0 0.0 0.0
000120 00 00 00 00 00 00 00 00 00 00 00 00 00 00 00 00
       0.0 0.0 0.0 0.0
000130 00 00 00 00 00 00 00 00 00 00 00 00 00 00 00 00
       0.0 0.0 0.0 0.0
000140 00 00 00 00 00 00 00 00 00 f0 b0 3f 00 10 f7 3e
       0.0 0.0 1.3823242 0.48254395
000150 00 4c 91 3f 38 bf 9e 3d 1c bc a7 3e 62 df b2 3f
       1.1351318 0.07751316 0.32760704 1.3974421
000160 c2 da 92 3e ea a1 61 3f bc e1 49 3f ff 4f 64 3e
       0.28682524 0.88137686 0.7886007 0.22296141
000170 08 c7 90 3c 00 00 f8 b4 00 00 f8 b4 f0 8b d2 3e
       0.01767303 -4.61936e-07 -4.61936e-07 0.4112239
000180 f0 3d df 3e e5 13 13 3e bd 7e 3e 3f 64 e9 24 3f
       0.43601942 0.14363058 0.7441214 0.64418626
000190 c2 2f 33 3f 70 93 b1 3f 87 b3 ac 3f e4 86 fa 3f
       0.6999475 1.3873119 1.3492287 1.9572415
0001a0 97 51 26 3f d6 f1 b5 3f 90 3e 0e 3e 12 0b 2b 3f
       0.64968246 1.4214427 0.13891053 0.66813767
0001b0 56 37 a8 3f 60 94 0c 3d 62 c7 d1 39 d6 5f 60 3d
       1.3141887 0.03432119 0.00040012138 0.054778896
0001c0 0a 85 2f 3f e8 13 82 3f ea 5f cd 3f a8 5b bd 3f
       0.68562376 1.0162325 1.6044896 1.4793596
0001d0 66 a0 0a 3f 39 72 0a 3f 11 2b 08 3f c4 f9 bf 3e
       0.54151 0.5408054 0.53190714 0.37495244
0001e0 8e 56 49 3e 84 d1 51 3e a2 7e 20 3f af 29 e6 3f
       0.19661924 0.2049008 0.62693226 1.7981471
0001f0 f4 47 97 3f a9 71 a2 3f 60 91 56 3f d3 89 93 3f
       1.1818833 1.2690936 0.83815575 1.1526436
000200 d7 3b 24 3f 31 52 7e 3f 24 ac 58 3e f8 a4 93 3d
       0.6415381 0.99344164 0.21159416 0.072092
000210 6e b5 c9 3e cd 3b 82 3f 1b 8a 7f 3f a4 a2 ce 3f
       0.39396232 1.01745 0.9982011 1.6143384
000220 38 73 9e 3f 29 15 3a 3f 92 06 4a 3f ff 54 52 3e
       1.2378912 0.7268854 0.78916276 0.20540236
000230 0e 28 4c 35 dd fd 30 37 2b b3 43 3a 8f 7e 6b 3c
       7.605421e-07 1.0549525e-05 0.0007465358 0.014373436
000240 e8 96 d8 3d f9 85 b5 3e 27 a9 1a 3f f2 41 92 3f
       0.10575658 0.35453776 0.60414356 1.1426375
000250 38 a1 4a 3f cb 0e ab 3e 6e 8d b2 3e 4c b9 63 3e
       0.7915225 0.33409724 0.34873527 0.22238654
000260 4b 37 91 3d 3a 5c 86 3f 22 81 89 3f d6 79 11 40
       0.070906244 1.0496895 1.0742533 2.2730613
000270 f2 83 09 3f ca 0b 46 3e 80 48 85 3e 91 3b 16 3f
       0.5371696 0.19340435 0.26031876 0.5868464
000280 47 c4 89 3f 5d 9c 4e 3f ef b6 6f 3f ae 43 82 3f
       1.0763024 0.8070734 0.9363851 1.0176904
000290 f1 49 a2 3f d0 1c 7a 3f cf 19 9b 3f bf da 22 3f
       1.2678815 0.97700214 1.2117251 0.6361503
0002a0 6a 36 98 3f e6 b3 d8 3e 85 c4 fa 3e 01 96 21 3f
       1.1891606 0.42324752 0.48978058 0.6311951
0002b0 7d b2 c1 3f 03 9e 5a 40 67 31 00 40 df ab 08 3f
       1.5132595 3.4158943 2.0030153 0.53387254
0002c0 2a 12 13 3f 85 a2 b1 3e 33 7e 81 3e 8e 21 4c 3f
       0.5744959 0.34694305 0.25291595 0.797387
0002d0 e0 82 17 40 83 58 cb 3f 58 85 0d 40 bc 31 73 3f
       2.367363 1.5886387 2.2112637 0.94997764
0002e0 e1 22 a4 3f 54 82 ed 3f 06 ae f3 3f 2a fe a6 3f
       1.2823144 1.8555398 1.9037483 1.3046315
0002f0 0a a1 c1 3f 9d fd 5f 3e bd 91 82 3f b2 1d 0f 40
       1.512727 0.2187409 1.0200726 2.2361875
000300 aa e1 d8 3f 28 f7 23 3f 21 f9 80 3f c5 8f fd 3f
       1.6943867 0.64049006 1.0076028 1.98095
000310 f0 d1 07 40 66 d4 5e 3f 1f 57 e4 3e 76 41 12 40
       2.1221886 0.87042844 0.44597718 2.2852454
000320 64 0c 74 3e fa e3 92 3f fa a8 0f 3e 32 99 04 3f
       0.23832852 1.1475823 0.14029303 0.5179626
000330 20 ed 0d 40 4d f5 f1 3f 2f 5e c1 3f 80 8a 3d 3f
       2.217598 1.8902985 1.5106868 0.7403946
000340 9e fe 7c 3f 95 fe ae 3f ce 1b d0 3f 58 e3 70 3f
       0.98826015 1.3671442 1.6258485 0.940969
000350 e7 9a 9c 3e 3f 61 15 3f 85 6b 5c 3f 45 98 3b 3f
       0.3058693 0.5835151 0.8610156 0.7327922
000360 b5 b8 db 3e cc c5 7b 3e 6f d9 c3 3f f7 52 a3 3f
       0.42914358 0.24587172 1.530073 1.2759694
000370 85 b0 5a 3f ef c6 49 40 04 e6 55 40 cf e6 4c 3f
       0.854256 3.152767 3.342164 0.80039686
000380 c2 f0 fb 3f 7d 7d 14 40 de da 48 40 27 2a c2 3f
       1.9682848 2.3201592 3.1383586 1.5169114
000390 72 79 41 3f be 58 a6 3f 4c 3b 33 40 4c f7 31 40
       0.75575936 1.2995832 2.8004942 2.7807188
0003a0 b4 c9 09 40 07 07 23 40 05 15 2f 40 47 63 22 3f
       2.152936 2.547304 2.735658 0.63432735
0003b0 ff 88 9f 3e 24 12 a6 3f 03 0d dd 3f a2 dc 0f 40
       0.31159207 1.2974286 1.7269596 2.2478414
0003c0 82 14 be 3f 30 68 7d 40 2e 82 39 40 94 13 21 40
       1.4850008 3.959484 2.8985705 2.51682
0003d0 53 05 df 3f 94 2c e7 3f d0 1f 98 3f b8 22 5d 40
       1.74235 1.8060479 1.1884708 3.455244
0003e0 e6 19 74 40 cd ae 86 40 26 5d 36 40 ec f7 fa 3f
       3.8140807 4.208838 2.8494353 1.960691
0003f0 58 a8 05 40 15 46 7f 3f d4 e8 4d 40 5c 40 6e 40
       2.0884 0.9971631 3.2173357 3.7226782

conv3.depthwise.weight f4 [16, 1, 5, 5]
000000 bc 7f 5e be 6f bc 8f 3d c3 0e f5 bd 5a a3 c5 bd
       -0.21728414 0.07018363 -0.11965706 -0.096502975
000010 c8 cd 94 3e 9a 36 0a be d1 94 1d 3e 06 36 ca be
       0.2906325 -0.13497391 0.153888 -0.39494342
000020 95 88 14 3f c6 fd 3d 3f 72 e0 a2 3e be 92 ec be
       0.5802091 0.7421535 0.31811863 -0.46205705
000030 db 89 67 bd 8b 61 1a 3f d1 46 97 3e e1 57 63 bd
       -0.056527954 0.6030509 0.29546216 -0.05550373
000040 69 e9 f2 bd 77 6b 8b bb 9d 66 b9 be 74 33 b6 be
       -0.11860926 -0.004254754 -0.362111 -0.3558613
000050 cb 0a 1f be 7d 79 95 3e 9c 3e 88 bd 5d 4b 83 3d
       -0.15531461 0.2919425 -0.06652567 0.06410859
000060 24 b5 f7 3a ff 8a 57 be 9a e1 37 bd a8 d7 d5 3e
       0.0018898589 -0.21049117 -0.044892885 0.41766095
000070 d1 cd c3 3e 14 98 3a 3e 45 06 e7 bc fd c2 24 bd
       0.38242963 0.18222076 -0.028201232 -0.040225018
000080 e5 ec 24 3e a2 80 8a 3e c9 71 0d be 6b ae 2d 3e
       0.16105993 0.27051264 -0.13812937 0.16961066
000090 18 1e d3 3b 99 7e 90 be f5 ce c5 be ad bc 1f bf
       0.0064427964 -0.28221586 -0.38634458 -0.6239727
0000a0 5f 7e 4f 3e 51 69 62 3e b8 ce fd bd d0 e8 0a bf
       0.2026305 0.22110488 -0.12392944 -0.54261494
0000b0 67 4e 01 bf f1 eb 2a bd 3f 51 4d bd 99 5c 14 be
       -0.5051026 -0.041728918 -0.05012631 -0.14488448
0000c0 d1 1f 10 3c 73 6f ba 3d f5 25 1c 3f 20 c7 fd 3d
       0.008796648 0.091032885 0.6099542 0.12391496
0000d0 58 0f ac 3e a9 33 2a bd a1 9c 3c bf 1f f6 79 3e
       0.33605456 -0.041553173 -0.73676497 0.24410294
0000e0 9d 08 3d 3e a3 94 df 3e e3 c4 94 be bb bd 3c bf
       0.18460317 0.43668088 -0.29056463 -0.73727006
0000f0 cf 15 90 be f5 d2 c2 3d a4 66 1b 3e e9 6e 8a be
       -0.2814164 0.09512893 0.15175873 -0.27037743
000100 0f 77 8a bc b9 e4 19 be 9f cc fa bc 35 54 4d be
       -0.016902475 -0.15028657 -0.030615149 -0.20051654
000110 aa 44 39 be a4 c1 63 bd 8f 12 dd 3c ac 5c 11 3e
       -0.180926 -0.055604592 0.026986388 0.14195508
000120 98 bc e4 3d 8a 8d 6b 3e 49 4f 13 be 28 96 8a be
       0.11168784 0.23003212 -0.14385714 -0.27067685
000130 ff c8 61 3e b7 e4 28 3e 04 c2 aa be 74 dd ae be
       0.2204933 0.16493498 -0.33351147 -0.3415333
000140 f2 aa f9 3e 67 36 83 3d 92 4d 5f 3e 0b e2 31 bf
       0.48763233 0.06406861 0.21806934 -0.6948554
000150 d6 eb d9 be 85 54 5f 3f b8 50 b9 bb 36 59 b0 bd
       -0.4256274 0.8723834 -0.0056553744 -0.08610766
000160 57 86 7a be f3 5c 06 3f f0 fd 85 3e 9a d0 91 be
       -0.24465309 0.5248558 0.261703 -0.28479463
000170 c4 18 78 bd eb 60 fc 3e 00 4e bd 3e e1 14 a0 be
       -0.060570493 0.49292693 0.36973572 -0.3126593
000180 b3 9a 8e be e6 32 a0 be 71 f4 15 be 84 a2 c0 be
       -0.278524 -0.31288832 -0.14644028 -0.3762399
000190 f2 89 7f 3d 83 57 8f bd 0f 86 29 3c e5 6b b6 3c
       0.062387414 -0.069991134 0.0103469035 0.022268245
0001a0 8c 05 8f 3e 85 48 2c 3d 08 57 14 be e0 3c 9b 3e
       0.2793392 0.042061348 -0.14486325 0.3031988
0001b0 58 59 92 3e 48 65 cf 3e 2c 4f eb be a9 7d 3b be
       0.2858379 0.4050696 -0.4595884 -0.18309654
0001c0 6c 2f 34 be 07 10 84 3e 16 0f f6 bd bf 62 fb bd
       -0.17596215 0.25793478 -0.12014596 -0.12274694
0001d0 95 54 1b 3d 89 66 31 3e a2 19 86 be b4 17 43 be
       0.03792246 0.1732427 -0.2619143 -0.19052011
0001e0 0f 3a c3 be b4 9b 14 3f 65 37 10 3f 64 d5 79 be
       -0.38130233 0.58050084 0.56334525 -0.24397808
0001f0 77 3e 77 3e a9 b1 38 3e 9f a0 24 bd 24 49 62 bd
       0.24144922 0.18036522 -0.040192243 -0.055245534
000200 e8 a2 78 3d 70 94 25 bd 70 7c 72 3d 6b 24 1a bd
       0.060702235 -0.040424764 0.059200704 -0.037632387
000210 8a 89 9c be 8f e6 26 3e a0 05 a9 3d 31 80 9a 3d
       -0.30573684 0.16298889 0.08253026 0.07543982
000220 dd 23 6f bd c9 67 76 be 13 df 40 3e ce b0 7e 3d
       -0.05838381 -0.24063028 0.18835096 0.062180333
000230 ec ca 40 3e d5 54 df 3e 9e a8 9b 3c 8d 77 10 3f
       0.18827409 0.4361941 0.019001301 0.5643242
000240 ae 13 35 3c 26 9d a0 be 5e 98 d7 bd 0f d1 78 bd
       0.011052055 -0.31369895 -0.105271086 -0.06074625
000250 af b4 37 3e 77 86 0b be 7a b6 40 3e 97 a7 e1 bd
       0.17940019 -0.13625513 0.1881961 -0.11018293
000260 62 1d 11 bf f4 f9 d2 be fd 17 5f bf 85 b7 65 3f
       -0.5668546 -0.41206324 -0.8714598 0.89733154
000270 5d b1 a5 3e 98 83 eb bd 79 ef 14 bf 80 5a 29 bf
       0.3236188 -0.11499709 -0.58177906 -0.6615372
000280 70 7d 26 3f 65 a3 f1 3e c3 01 18 bd e0 00 75 be
       0.6503515 0.47194973 -0.037111055 -0.23926115
000290 d5 90 78 be 7e 48 a5 3d 2c 10 97 3e 3a a1 b3 bc
       -0.24273999 0.080704674 0.29504526 -0.021927465
0002a0 c9 c9 d3 3d 73 0e b5 3e 79 c4 02 3e 57 ab 9a 3e
       0.10341222 0.35362586 0.12770261 0.30208847
0002b0 fe 4e b5 bd 32 09 6a 3c 13 fa a0 3e d0 73 cc 3e
       -0.08852957 0.014284419 0.3144079 0.39932108
0002c0 40 50 85 3e a4 78 9f 3e e0 c0 9f 3e 95 12 47 bd
       0.26037788 0.3114673 0.3120184 -0.048601706
0002d0 9a 2b e8 bb 11 48 45 3e f0 12 d9 3c c6 db 18 3e
       -0.007085276 0.19265772 0.026498288 0.14927587
0002e0 62 e1 1e bd 04 0d 97 3e bc d6 b5 bd 30 e2 b8 3d
       -0.03878916 0.29502118 -0.08878848 0.09027517
0002f0 83 3b 88 3e dd f6 8e bc bb 2d a1 bd 42 a4 8d be
       0.26607904 -0.017451698 -0.078700505 -0.2766438
000300 99 dd 83 be 99 e9 7b be e2 97 3f 3e 6e 8b 91 3e
       -0.25755003 -0.24600829 0.18710282 0.2842669
000310 3b 2f cb 3d f4 0e f3 be 4a bf df be 73 69 af bd
       0.09921118 -0.47472346 -0.4370063 -0.08565035
000320 33 97 14 bd 1a c9 3f bc 7b f9 e9 bc 56 dd 30 bd
       -0.036277007 -0.011705661 -0.028561344 -0.043179832
000330 c7 24 ec 3e dd 57 b3 bd fa 1e 20 be 8c 45 23 3d
       0.4612181 -0.08756993 -0.15636817 0.039861247
000340 67 4d a4 bc 26 c4 c2 be c9 39 cb be 02 7a f1 be
       -0.02005644 -0.38040274 -0.39692524 -0.47163397
000350 10 a8 34 be ca 4a 9c be a9 87 e6 be d3 b7 61 bf
       -0.17642236 -0.3052581 -0.45025375 -0.8817112
000360 6d 84 bd be d3 b0 de bd dd 1a 91 3d 5d 70 8f 3e
       -0.37015095 -0.1087357 0.07085202 0.28015414
000370 4d 08 a1 be 58 dc 8a bd 18 fd 73 3d 73 b5 ac 3e
       -0.31451645 -0.067803085 0.05956754 0.33732185
000380 ad 8a 08 3f f2 e8 95 3d 1b 08 4f 3f 4f fa 92 bc
       0.533366 0.073198214 0.8087174 -0.017941622
000390 cd 1e a9 be 9c 73 70 be 11 42 5c be aa 45 0d 3e
       -0.33031312 -0.23481601 -0.21509577 0.13796106
0003a0 bc d1 9a be b4 41 8d be e7 2e 7f be 51 44 47 bd
       -0.3023814 -0.2758919 -0.24920236 -0.048649136
0003b0 43 0e a5 be 28 fa 57 3e a7 c3 dd 3e a7 f6 1f 3d
       -0.32237443 0.21091521 0.43313333 0.039053585
0003c0 ee 9f 7d be 65 2c a4 3e 61 4e 44 bd 24 c4 ba be
       -0.2476804 0.3206512 -0.04792631 -0.36477768
0003d0 89 06 94 3d 80 6f 86 3d 69 ef 26 3d 79 16 ef 3d
       0.07227809 0.06564236 0.040755663 0.11674208
0003e0 f2 92 a4 3d 6a 6c ce 3d f3 46 6c 3f 6f 30 54 3e
       0.0803584 0.10079272 0.9229576 0.20721601
0003f0 8b 1a b0 be 68 26 9c 3e f8 c5 83 3e 2e 49 e6 3d
       -0.3439525 0.30498052 0.25736976 0.11244427
