experiments/exp020/model.pth (torch, 98186 bytes, 32 tensors)

conv1.depthwise.weight f4 [2, 1, 5, 5]
000000 12 93 3a be ab f5 83 3d 2c 68 8d 3e 11 e0 9a 3e
       -0.18220165 0.06443342 0.2761854 0.30249074
000010 0b b8 2a 3e b5 34 12 3f 89 cb c2 3e 3c 4d 6f 3e
       0.1667177 0.57111675 0.3804591 0.23369306
000020 99 b0 c1 bc fc ed a9 be 35 a8 8d 3d 20 49 57 be
       -0.023643779 -0.3318938 0.069168486 -0.21023989
000030 79 7b f6 be 2a 82 a0 be b6 81 b0 be e6 8c 2f bf
       -0.48141077 -0.31349307 -0.34473962 -0.6857437
000040 39 c9 8c bf 05 33 26 bf d6 e6 c0 be 08 7d 77 be
       -1.0998908 -0.649216 -0.37676114 -0.2416879
000050 d6 fd 41 be 4b 74 ca be 74 77 ec be f1 80 6b be
       -0.18944487 -0.3954185 -0.46184886 -0.22998406
000060 1b 2c c9 bd cd 51 9c be 5d 12 56 be 98 5e 15 be
       -0.098228656 -0.3053116 -0.20905443 -0.14586866
000070 a8 3f 7e bd 51 c4 67 be 09 86 13 bd 10 91 80 bf
       -0.062072426 -0.22633483 -0.036016498 -1.004427
000080 74 e9 d3 be 0d cf 38 be 7e 7e 62 be d4 42 8f be
       -0.41389048 -0.18047734 -0.22118565 -0.27980673
000090 eb c3 2e bf 21 6c bf be bb 16 da bd 87 7b 45 3e
       -0.682677 -0.37387183 -0.10648867 0.19285403
0000a0 39 bc 44 be 03 fc d8 be d4 04 29 be 68 08 c9 bc
       -0.19212426 -0.4237977 -0.16505748 -0.024540141
0000b0 d6 4a 92 3e a0 17 96 3c eb e7 18 3e 7b 4b 03 3e
       0.2857272 0.018321812 0.1493222 0.12821762
0000c0 e4 dc e4 bc d1 40 d9 3c
       -0.02793736 0.026520165

conv1.depthwise.weight_fake_quant.scale f4 [2]
000000 08 c9 0c 3c de 90 00 3c
       0.008592851 0.007847039

conv1.depthwise.weight_fake_quant.activation_post_process.min_val f4 [2]
000000 08 c9 8c bf de 90 80 bf
       -1.099885 -1.004421

conv1.depthwise.weight_fake_quant.activation_post_process.max_val f4 [2]
000000 e6 34 12 3f a4 4a 92 3e
       0.57111967 0.2857257

conv1.pointwise.weight f4 [6, 2, 1, 1]
000000 90 42 f9 be 34 02 3e 3f 66 5f a1 be 1b 10 a8 bf
       -0.48683596 0.7422211 -0.31518096 -1.3129915
000010 da 77 a7 bf 2c 5b 36 bf a2 82 89 bf 1a 50 61 be
       -1.3083451 -0.7123287 -1.0742991 -0.22003213
000020 93 0d 9a 3f f0 9a 08 3f 20 35 78 bf f2 ea 0e 3f
       1.2035393 0.53361416 -0.9695606 0.5582725

conv1.pointwise.weight_fake_quant.scale f4 [6]
000000 69 81 bf 3b a3 b8 a8 3b c8 1f a8 3b 7c 0c 8a 3b
       0.0058442843 0.0051489635 0.0051307417 0.004212914
000010 6c a8 9a 3b 52 35 f8 3b
       0.0047197845 0.0075747157

conv1.pointwise.weight_fake_quant.activation_post_process.min_val f4 [6]
000000 5e 42 f9 be ea 0f a8 bf a8 77 a7 bf 70 82 89 bf
       -0.48683447 -1.3129857 -1.3083391 -1.0742931
000010 22 9b 08 3f 52 35 78 bf
       0.53361714 -0.9695636

conv1.pointwise.weight_fake_quant.activation_post_process.max_val f4 [6]
000000 66 02 3e 3f 0c 5f a1 be fa 5a 36 bf e8 4f 61 be
       0.7422241 -0.31517828 -0.7123257 -0.22003138
000010 c4 0d 9a 3f c0 ea 0e 3f
       1.2035451 0.5582695

conv2.depthwise.weight f4 [6, 1, 5, 5]
000000 fa df d7 3e db 31 5a 3e 2f 3d aa 3d ea 8c c1 bd
       0.42163068 0.21308081 0.08312451 -0.09450705
000010 11 53 07 be d3 13 5b 3e 9c 08 14 3e d0 55 84 3d
       -0.13215281 0.21394281 0.14456409 0.0646168
000020 09 88 12 3d d3 da bb 3d 18 db c0 be eb 2f e6 be
       0.035774264 0.09172597 -0.37667155 -0.44958434
000030 05 ca d9 3c 8f 31 b0 3d 08 01 b9 3d f4 94 82 bf
       0.026585588 0.086032026 0.090334 -1.0201707
000040 6b b3 9a bf b6 0e 83 bf 61 d5 0e bf f8 16 f9 bd
       -1.2086004 -1.0238864 -0.5579434 -0.12162584
000050 bb 15 34 bf cd b1 3d bf 29 97 b6 be 88 0f 93 be
       -0.7034566 -0.7409943 -0.356622 -0.28722787
000060 2e 48 87 be de 14 77 3c dc c6 7f be b2 f1 d3 be
       -0.26422256 0.015080659 -0.24978203 -0.41395336
000070 1e 2b 0a be fb 51 bf 3d 8e b0 93 3e a6 01 67 3e
       -0.1349301 0.093418084 0.28845638 0.22559223
000080 37 b7 4e be 37 c9 07 bc c2 f9 9e bd 17 e8 04 3e
       -0.20187078 -0.008287719 -0.07762481 0.1297916
000090 bf 71 b2 bd 63 d0 3a 3e d7 33 84 3f 02 6c cc 3d
       -0.087131016 0.18243556 1.032832 0.09981538
0000a0 38 9c f0 be 3c 0f c1 3d 58 e2 d5 3e da 83 7e 3e
       -0.46994185 0.09426734 0.4177425 0.24854985
0000b0 39 9a c4 bd 11 bb 65 be 5b 52 39 3e 0c 7e 8e 3d
       -0.09599728 -0.22434641 0.18097822 0.06957635
0000c0 8c 9c b1 be c0 64 f6 bc f4 e6 d1 3d c7 d4 fe 3d
       -0.34689748 -0.030077338 0.10249129 0.12442928
0000d0 a3 c7 34 bd be 85 04 3d 7a b4 0f 3e a9 67 19 be
       -0.0441357 0.03235411 0.1403369 -0.1498095
0000e0 98 a3 a5 be b1 9f 06 bf b7 72 02 be 81 2a 89 3e
       -0.32351375 -0.5258742 -0.12739073 0.2679024
0000f0 8e 09 35 bf eb 0c 21 bf 4e 1e 30 bf d6 ea eb bd
       -0.70717704 -0.62910336 -0.6879624 -0.11519401
000100 05 24 37 be bd 55 a6 3e 02 88 a5 bd 5f 87 34 3e
       -0.17884834 0.32487288 -0.08082582 0.17629765
000110 6e dc 81 3e 22 bd 21 be c3 f1 c5 3d aa 20 b5 3e
       0.25363487 -0.15794805 0.09665253 0.35376483
000120 48 7a 8e 3e 00 e5 5b 3e 33 83 6c 3d b8 1e 12 bf
       0.27827668 0.21474075 0.05774231 -0.57078123
000130 9a ec 39 3f 9b bd 79 3e 9c 57 88 3e bb a0 08 be
       0.7262665 0.24388735 0.2662934 -0.13342564
000140 dc 42 c9 bd 42 d2 00 3c e0 c6 25 3d 90 01 14 3c
       -0.098272055 0.007862629 0.040472865 0.009033576
000150 7b 79 05 3d 7c 80 ea bc 06 a4 35 bd 16 f4 44 3d
       0.032586556 -0.02862572 -0.044345878 0.04808434
000160 1c ae f0 3e 2e 09 a3 3e 91 cc c4 be 35 37 d8 be
       0.47007835 0.3184294 -0.38437322 -0.4222962
000170 35 03 b3 be b3 be 2b bd 68 87 6e 3e b4 b7 3f be
       -0.34963384 -0.04192991 0.23293841 -0.18722421
000180 4c fe 81 be 82 b1 28 be ac cc a5 3d 9b 56 1d 3e
       -0.25389326 -0.16473964 0.08095679 0.15365069
000190 12 47 41 be 9e 98 00 3e c6 5e 96 be ff 84 11 bf
       -0.18874767 0.12558219 -0.2936918 -0.5684356
0001a0 58 2d 80 bf a7 4e 07 bf 3f eb fa be fc d1 b2 be
       -1.0013838 -0.5285439 -0.49007604 -0.3492583
0001b0 54 94 2c bf 73 78 50 bf 13 bf b8 3c b8 eb 63 3d
       -0.6741383 -0.8143379 0.022552049 0.05564472
0001c0 bc 85 80 3e 02 a7 4a 3c 6b 79 6c 3e c8 a9 60 3f
       0.2510203 0.012368919 0.23093192 0.87759066
0001d0 ca ab 93 3f 49 59 44 3f e9 b2 84 3e 5a d3 47 3e
       1.1536801 0.7669874 0.25917748 0.19514218
0001e0 6f f8 69 3e 84 95 e7 3e 8a 1f b4 3e ba a3 23 be
       0.22848676 0.4523126 0.35180312 -0.15980425
0001f0 62 ee 90 be b5 8d 15 3f f7 74 fc 3d c5 7d 52 3e
       -0.28306872 0.5841935 0.12326997 0.2055579
000200 69 39 6a 3d ed 36 75 bd 3a 58 a0 bd af a5 20 3e
       0.057183657 -0.059866834 -0.07829328 0.15688203
000210 24 8d ae 3e 58 c1 97 3e 73 56 43 3e 84 72 73 be
       0.34092057 0.29639697 0.19075947 -0.23774153
000220 83 9e 4c be 68 b6 ef bc 89 33 44 3e dd ba f5 3e
       -0.19982342 -0.029261783 0.19160284 0.47994128
000230 97 90 62 bd 04 38 e5 bd 6e 61 6b 3d 78 38 af 3e
       -0.055313673 -0.11192325 0.057465963 0.3422277
000240 88 09 81 3e d3 dd ab be ba ac 15 be 23 d8 10 be
       0.25202584 -0.33567676 -0.14616671 -0.1414495
000250 52 e4 6c 3e b1 07 15 3e
       0.23133972 0.14553715

conv2.depthwise.weight_fake_quant.scale f4 [6]
000000 3a b3 1a 3c 22 3e 05 3c c0 09 b5 3b 93 63 bb 3b
       0.009442145 0.008132489 0.005524844 0.0057186573
000010 43 d5 14 3c 5d bb 96 3b
       0.009084049 0.004599972

conv2.depthwise.weight_fake_quant.activation_post_process.min_val f4 [6]
000000 3a b3 9a bf 06 9c f0 be c0 09 35 bf 86 1e 12 bf
       -1.2085946 -0.46994036 -0.70718 -0.57077825
000010 8a 2d 80 bf a2 dd ab be
       -1.0013897 -0.3356753

conv2.depthwise.weight_fake_quant.activation_post_process.max_val f4 [6]
000000 c8 df d7 3e a6 33 84 3f 78 20 b5 3e cc ec 39 3f
       0.4216292 1.0328262 0.35376334 0.7262695
000010 98 ab 93 3f e6 8d 15 3f
       1.1536741 0.58419645

conv2.pointwise.weight f4 [16, 6, 1, 1]
000000 71 ab 79 3f 1c 80 0b 3f 0e 70 b9 3e e9 b7 47 3e
       0.97527224 0.54492354 0.36218303 0.1950375
000010 08 54 17 3e 0a e0 84 be 24 d7 5b 3f 86 f4 9a 3b
       0.14778149 -0.25952178 0.85875154 0.0047288565
000020 03 d5 fa 3e 96 a0 f4 be 01 7a f0 be 0a bb cd 3e
       0.4899064 -0.47778767 -0.46968082 0.40181762
000030 fe 60 8a 3f 2a a5 99 3d 86 0b 3d be 51 d4 67 3e
       1.081085 0.07502206 -0.18461427 0.22639586
000040 a9 ae 52 3f 08 d0 a8 3e b8 60 bf 3e c2 ba be be
       0.8229776 0.32971215 0.37378478 -0.3725186
000050 b4 b2 67 3f 1b 03 66 be 01 01 0d 3b 39 c4 d6 be
       0.90507054 -0.22462122 0.002151549 -0.4194658
000060 5b 5e 4f be dc 23 22 3e f9 8f 1a bf 1a c8 a6 3e
       -0.20250838 0.15833992 -0.60375935 0.3257454
000070 f6 99 11 be 7b 72 41 bd d5 39 ab be 64 df 6a 3f
       -0.14218888 -0.047228318 -0.3344256 0.9174712
000080 8c 46 8e be 39 c0 2d 3d c3 3f 21 bf 21 b6 6a be
       -0.27788198 0.042419646 -0.6298792 -0.22921039
000090 0b 55 e9 be d3 03 93 be d4 39 bb be 39 52 c6 3e
       -0.45572695 -0.28713855 -0.36567557 0.38734606
0000a0 c0 69 3b 3f be d1 f7 3e 01 87 9a 3e 53 45 7a 3e
       0.73208237 0.48402208 0.30181125 0.24440508
0000b0 f0 9c 03 3f cd 15 1e 3f 9c a6 30 3f 33 88 d0 3e
       0.5141134 0.61752015 0.69004226 0.40728912
0000c0 52 51 05 3f 2b 75 35 bf 07 9c b6 be 6b 2a 32 3e
       0.5207721 -0.7088191 -0.35665914 0.17398994
0000d0 a4 c7 1d 3f 41 60 51 be 82 c5 f4 3e 78 02 8d be
       0.6163275 -0.20446874 0.47806937 -0.27540946
0000e0 73 62 ae 3e 76 6c 33 3f 97 22 6f 3f 3a 90 a9 3e
       0.34059486 0.70087373 0.93412155 0.3311785
0000f0 89 28 32 3f 50 69 20 3e d2 02 0c 3f 39 09 d4 be
       0.695931 0.15665174 0.54691803 -0.41413286
000100 b1 27 6b bf 8b a6 b0 3e 51 21 22 3e 1e f2 e8 3e
       -0.9185744 0.34502062 0.15833022 0.4549722
000110 76 68 4a be 08 dd ab be 1d 4c 3c 3f e4 d0 2a bd
       -0.19766411 -0.3356707 0.7355364 -0.04170312
000120 f3 d0 65 3d 14 da 8e 3e e6 0f 28 3f 2f c4 8b 3e
       0.056107473 0.27900755 0.6564926 0.27298114
000130 b0 bd ee 3e 2e 28 96 3f 3d a5 98 3e 9e 51 2e be
       0.46629095 1.1731012 0.29813567 -0.17023322
000140 0a 2c 86 3f f8 4c 47 be c6 cd 9e be 15 d7 de be
       1.048219 -0.19462955 -0.31016368 -0.4352347
000150 af 41 9d 3e 55 4f 08 3f f3 f6 ff 3e 6c 6b 0a 3e
       0.30714175 0.5324605 0.49993095 0.1351754
000160 17 61 2a bf 53 07 bf 3d 29 0f 36 3e 9a 91 e1 3d
       -0.665544 0.09327569 0.1777922 0.110140994
000170 9f 6c 92 be 38 49 20 bf 4d 84 17 3f ad 24 c2 3e
       -0.28598496 -0.6261172 0.5918625 0.37918606

conv2.pointwise.weight_fake_quant.scale f4 [16]
000000 85 a2 fb 3b 16 92 dd 3b 20 78 0b 3c f2 85 e9 3b
       0.007679286 0.0067617996 0.008512527 0.007126563
000010 2a 90 9a 3b a3 b8 ec 3b 55 e3 bc 3b 26 58 31 3b
       0.0047168927 0.007224159 0.005764405 0.0027060597
000020 5c 75 b5 3b 6f 04 f1 3b f2 27 eb 3b 7b c7 bd 3b
       0.005537672 0.007355265 0.0071763927 0.005791602
000030 bb be 96 3b 4d 3a 07 3c 48 61 aa 3b 6a 49 a0 3b
       0.0046003736 0.008253646 0.005199585 0.004891564

conv2.pointwise.weight_fake_quant.activation_post_process.min_val f4 [16]
000000 3c e0 84 be 64 a0 f4 be b8 0b 3d be 6a c4 d6 be
       -0.25952327 -0.47778618 -0.18461502 -0.41946727
000010 2a 90 1a bf f4 3f 21 bf 3c 55 e9 be 84 45 7a 3e
       -0.60376227 -0.6298821 -0.4557284 0.2444058
000020 5c 75 35 bf 46 02 8d be f2 27 6b bf 3a dd ab be
       -0.708822 -0.27540797 -0.91857827 -0.3356722
000030 24 d1 65 3d 62 d7 de be 48 61 2a bf 6a 49 20 bf
       0.056107655 -0.435237 -0.6655469 -0.6261202

conv2.pointwise.weight_fake_quant.activation_post_process.max_val f4 [16]
000000 40 ab 79 3f f2 d6 5b 3f 30 61 8a 3f e6 b2 67 3f
       0.9752693 0.85874856 1.0810909 0.9050735
000010 4c c8 a6 3e 32 df 6a 3f 8e 69 3b 3f ce a6 30 3f
       0.3257469 0.9174682 0.7320794 0.69004524
000020 72 c7 1d 3f 66 22 6f 3f 58 28 32 3f ec 4b 3c 3f
       0.61632454 0.9341186 0.6959281 0.7355335
000030 fc 27 96 3f d8 2b 86 3f 24 4f 08 3f 1c 84 17 3f
       1.1730952 1.048213 0.5324576 0.5918596

conv3.depthwise.weight f4 [16, 1, 5, 5]
000000 ad 9f cc 3d b1 6f 33 3e 48 e3 5e 3d 48 e9 04 3f
       0.09991393 0.17523076 0.05441597 0.5191846
000010 a5 ab a1 3e e9 d6 76 3e ac 7d 7d 3e 08 5e 86 3c
       0.31576267 0.24105419 0.24754971 0.01640226
000020 5b a1 41 3e 69 ae 9f 3e a7 39 0c 3f bd 5d 45 3f
       0.18909208 0.31187752 0.5477547 0.7709616
000030 5e ce e3 3e 32 fd 49 3e c5 f9 88 3e 39 ee bf 3e
       0.44493383 0.19725493 0.2675306 0.37486437
000040 90 4c bc 3e a9 05 40 3e b5 c6 fa bc 9a 10 51 3d
       0.36777163 0.18752159 -0.030612329 0.051041223
000050 60 69 8f be 2a 1f 69 be 97 b4 06 bf 5b d1 84 be
       -0.28010082 -0.22765794 -0.5261931 -0.25940976
000060 94 c7 d1 be 10 32 12 3e 08 00 1b 3d 19 2b d8 3b
       -0.4097258 0.1427691 0.037841827 0.0065969345
000070 d7 90 73 be 8d e6 a9 be 68 4c 24 3e 75 62 3f 3e
       -0.23785721 -0.3318371 0.16044772 0.18689902
000080 67 ec 27 3e 8f 5d d0 be a8 bb f7 be e7 a6 16 bf
       0.16398774 -0.4069638 -0.48385358 -0.5884842
000090 19 9d d2 3d 40 20 af bc 0c d0 ef bd ad e5 98 3e
       0.1028387 -0.021377683 -0.11709604 0.2986273
0000a0 4a 36 15 bf 30 51 97 be 56 19 34 be 70 f6 27 3c
       -0.58285964 -0.2955413 -0.1758779 0.010251626
0000b0 3e 74 4d 3f 6c 89 e2 be 21 8d 81 be 0c b6 a4 bd
       0.80255497 -0.4424547 -0.25302985 -0.08042535
0000c0 ef 82 86 bd a9 4f 5f be 98 2e c4 3c 18 81 da 3d
       -0.06567942 -0.21807732 0.023947999 0.10669154
0000d0 9e 9b 2e be 74 a9 76 bd ce f3 49 be f6 56 68 3e
       -0.17051551 -0.060220197 -0.1972191 0.22689423
0000e0 a3 24 a3 bd d5 de a1 be 4c a8 13 be 37 98 c8 be
       -0.07965972 -0.3161532 -0.14419669 -0.3917863
0000f0 97 be 8e bd e5 a4 27 be c5 10 86 be ea 7a bb 3e
       -0.06969946 -0.16371496 -0.2618467 0.36617213
000100 23 17 74 3d c9 f6 92 be 0d 63 70 be 76 6b f5 bd
       0.059592377 -0.28703907 -0.23475285 -0.11983387
000110 f1 4d f2 3e 6c fb a1 3e fd 34 92 3e 96 0a 15 3e
       0.4732509 0.31637132 0.28556052 0.1455482
000120 cc 65 65 3e 63 27 b9 3e 7d 2e 2d 3e f0 f1 b2 3e
       0.22402114 0.36162862 0.16912265 0.3495021
000130 67 e3 d8 3e 64 9f a8 3e a1 53 9a 3e 8f 44 08 be
       0.42360994 0.32934105 0.3014193 -0.13307403
000140 e8 51 44 3f 29 9b 84 3e a6 a7 02 3d d7 09 18 3c
       0.7668748 0.25899628 0.031898163 0.00927969
000150 16 d6 19 be 93 01 b6 3e b8 dc b8 bd f2 9e 90 be
       -0.15023074 0.35548076 -0.09026474 -0.28246266
000160 21 28 63 bd 8a 76 b1 bd ad 5c 64 be 70 19 97 bd
       -0.05545819 -0.08665188 -0.22300978 -0.07377899
000170 56 13 a5 be 16 87 c3 be 64 21 ad bd f2 b6 26 3f
       -0.32241315 -0.38189 -0.084536344 0.651229
000180 4c 06 98 3e f5 c9 a6 3d be 1c e2 be 82 72 9f be
       0.29692304 0.08143989 -0.44162554 -0.3114205
000190 e3 53 d8 be 7b bd de bd 49 e7 80 be 14 9e dc 3d
       -0.422515 -0.10875984 -0.25176457 0.107723385
0001a0 c1 e9 82 3e 31 e0 a7 be 57 24 42 be 56 13 33 bd
       0.25568965 -0.32788232 -0.18959175 -0.043719612
0001b0 8b e8 c8 bc 51 61 88 3e 9d 65 56 be c8 0f 48 3d
       -0.024524948 0.26636747 -0.209372 0.048843175
0001c0 ca 15 3e be d3 69 3c bf f6 53 53 3d 9d 8d ab 3e
       -0.18563 -0.73598975 0.051593743 0.3350648
0001d0 96 ae 00 3e 94 b9 ba be 31 01 bb bd fb 2f ee 3d
       0.12566599 -0.3646971 -0.091310866 0.11630245
0001e0 eb dd 0c be f1 1c e9 3d 5c 88 81 3d 07 df 47 3e
       -0.1375653 0.11382473 0.063248366 0.19518672
0001f0 a3 c6 49 3e 77 1e 3d be 45 39 14 be 08 2d 96 be
       0.1970468 -0.18468653 -0.14474972 -0.2933123
000200 f8 a4 ac be 78 de 85 be 24 f3 ec bd f3 7f 99 3c
       -0.3371961 -0.26146293 -0.11569813 0.018737769
000210 01 89 ae bd 20 a4 84 be 80 1b ff be 26 38 ee 3d
       -0.08522225 -0.25906467 -0.49825668 0.11631803
000220 fb e9 2d 3e 4a 80 d0 3e a6 92 8d 3e 0f c7 36 bd
       0.16983788 0.40722877 0.27650946 -0.04462343
000230 aa 22 18 3e b6 10 08 3e c5 ab 20 3e 80 d2 92 3e
       0.14856973 0.13287625 0.15690525 0.28676224
000240 76 44 81 3d ce 81 1b 3d 46 0f 91 bd 8d 3e 0a be
       0.06311886 0.03796559 -0.07082991 -0.13500424
000250 54 0a 14 3e 76 c9 cc bc f4 3c ed 3d 6d 77 55 3f
       0.14457065 -0.024998408 0.115838915 0.83385354
000260 c1 d8 34 3e 58 12 c8 3e b3 98 11 3d 5d 42 b1 3e
       0.1766081 0.39076495 0.035546016 0.34620944
000270 c2 2d 3e 3e c3 ca 48 3e ce 98 21 3e ff e3 25 3e
       0.18572143 0.19608597 0.15780947 0.16200255
000280 8d a8 44 be 7f 1c 91 bd 5b 64 ff 3c 30 49 ab be
       -0.19204922 -0.07085513 0.031175783 -0.33454275
000290 03 20 0c be db e0 f9 be 56 28 4d be 2a fa d9 be
       -0.13684087 -0.48804364 -0.20034918 -0.42573673
0002a0 03 b8 b5 be 6b 62 4f bd 54 6e 7d bd 5e b7 bd 3b
       -0.35491952 -0.050630968 -0.061872795 0.0057896813
0002b0 c6 12 1d be 8e 50 2f 3d 0c 50 24 3d b6 4d 92 be
       -0.15339193 0.042801432 0.0401154 -0.28574914
0002c0 2d 1d 13 bf 67 49 f6 be 70 74 df 3e fc 2b 4b 3f
       -0.57466394 -0.48102877 0.43643522 0.7936399
0002d0 df 02 83 3e ad ab aa be eb 4a 9d be 69 db 47 bd
       0.25588128 -0.33334103 -0.3072122 -0.04879323
0002e0 13 19 81 be a7 54 a6 3e cb a9 aa 3d ed e6 98 3e
       -0.25214443 0.3248646 0.08333167 0.29863682
0002f0 57 9c d3 be 30 c9 b5 be 6a 30 29 3c 56 ea 51 3d
       -0.41330215 -0.35505056 0.010326484 0.05124887
000300 83 bd 55 3e c7 14 98 3e c8 83 59 3e a4 e3 0a bd
       0.20873074 0.29703352 0.21241677 -0.0339085
000310 b8 7e 32 be 24 31 0e 3d f1 0e 9d bd 2f 40 6f 3d
       -0.17431152 0.034714833 -0.076688655 0.05841082
000320 e1 b1 bc 3e d1 ab dc 3e da 7e 96 bc 6a b4 f4 be
       0.3685446 0.43099836 -0.018371034 -0.47793895
000330 92 df 04 bf 57 53 8d 3e 20 da 62 3e a1 1f da bd
       -0.5190364 0.27602646 0.2215352 -0.10650564
000340 d3 5f 62 be 65 1b 22 bf 93 14 8a be e0 94 4f 3e
       -0.22106867 -0.6332305 -0.26968822 0.20271635
000350 42 55 d2 3c 23 95 86 3e 5e 3e 77 be 16 95 2d be
       0.02567542 0.26285657 -0.24144885 -0.16951403
000360 f8 2e 29 3e 54 07 50 3e 6e db dc 3e 02 1f 18 3e
       0.16521823 0.20315295 0.43136162 0.14855579
000370 fd 32 40 3e 51 b2 79 3e c1 aa 3d 3e c5 98 b6 bd
       0.1876945 0.24384429 0.18522169 -0.08915857
000380 ed e4 99 be 47 58 7d 3e 4d 35 b8 3e e0 a3 a0 3e
       -0.3005747 0.24740706 0.35978165 0.31375027
000390 a7 ea 0f 3f 04 df 19 bf b8 de 11 3e 6a 48 5f 3d
       0.56217426 -0.6010592 0.14245117 0.05451242
0003a0 cb 82 ae 3e 9e df 3a 3f 70 33 2a bf 3c cc ff be
       0.34084162 0.7299746 -0.6648474 -0.49960506
0003b0 fc c0 ef be 7d 15 2f 3d 97 26 37 3d c7 fe 87 be
       -0.46826923 0.042745102 0.044714537 -0.26561567
0003c0 94 ca c0 be 5c 59 d7 bd c5 84 54 3e 8e 07 7c 3e
       -0.37654555 -0.10515091 0.20753773 0.24612257
0003d0 2f 4c 56 be 2b df dc bd 71 a1 9a bd 58 91 89 3e
       -0.20927499 -0.107847534 -0.07550324 0.268687
0003e0 26 4a 01 3f 68 1b 84 3e b9 b0 e7 b7 ea 2c d5 3c
       0.50503767 0.2580216 -2.7619639e-05 0.026022393
0003f0 3d f3 ff 3a e6 09 a2 be a1 a9 11 bf 4c 77 16 3e
       0.0019527447 -0.31648177 -0.5689946 0.14693946

conv3.depthwise.weight_fake_quant.scale f4 [16]
000000 63 eb c6 3b 30 12 cf 3b 8f 36 74 3b d6 dd c5 3b
       0.0060705408 0.006319307 0.0037263965 0.006038408
000010 04 6a bc 3b b2 1b 7f 3b 87 25 d7 3b 55 c5 cc 3b
       0.0057499427 0.003892642 0.006565753 0.0062491097
000020 34 1b a2 3b 81 58 bc 3b 36 28 d7 3b 98 00 6f 3b
       0.0049470905 0.005747855 0.006566073 0.003646886
000030 28 4c d7 3b 60 3e a4 3b 26 98 ab 3b 2e fd 9c 3b
       0.006570358 0.0050123185 0.0052366434 0.0047909236

conv3.depthwise.weight_fake_quant.activation_post_process.min_val f4 [16]
000000 66 b4 06 bf 18 a7 16 bf 06 98 c8 be 8c 1c e2 be
       -0.52619016 -0.58848715 -0.39178485 -0.44162405
000010 04 6a 3c bf b2 1b ff be aa e0 f9 be 5e 1d 13 bf
       -0.73599267 -0.49825817 -0.48804218 -0.57466686
000020 34 1b 22 bf 3e 33 2a bf 70 a9 11 bf 98 00 ef be
       -0.6332276 -0.6648444 -0.56899166 -0.4668014
000030 28 4c 57 bf 60 3e 24 bf 26 98 2b bf 2e fd 1c bf
       -0.8410058 -0.64157677 -0.67029035 -0.6132382

conv3.depthwise.weight_fake_quant.activation_post_process.max_val f4 [16]
000000 8c 5d 45 3f 0c 74 4d 3f 22 4e f2 3e 1a 52 44 3f
       0.77095866 0.802552 0.47325236 0.7668778
000010 ce 8d ab 3e 18 80 d0 3e 3c 77 55 3f ca 2b 4b 3f
       0.33506626 0.40722728 0.8338506 0.7936369
000020 a0 db dc 3e d0 df 3a 3f e6 79 55 3f 04 d7 ca 3e
       0.4313631 0.7299776 0.8338913 0.3961717
000030 6a 3f 12 3f 42 ff bf 3e 72 61 e0 3e c4 e0 cc 3e
       0.5712801 0.37499434 0.43824345 0.40015233

conv3.pointwise.weight f4 [120, 16, 1, 1]
000000 c5 e8 ab 3e f7 db 99 3e de 95 bf bb ec a7 3a 3e
       0.33576027 0.30050632 -0.005846723 0.1822812
000010 f4 57 ee bd 19 87 b7 bd 6e 3a 17 3e 59 61 5c 3d
       -0.116378695 -0.08961315 0.14768383 0.053803775
000020 65 ab 4e bd fe e8 e9 3e 4e 9c 86 bd 53 b2 bf 3e
       -0.050456423 0.4568557 -0.065727815 0.37440738
000030 b1 c4 1d bf e6 f1 ba 3c cf fb 58 3e 32 14 08 3f
       -0.6162825 0.022820424 0.21189807 0.53155816
000040 e0 37 d6 be 46 f0 8b 3d be d6 cf be a2 bc a9 3e
       -0.41839504 0.06832938 -0.40593523 0.33151728
000050 02 1b 80 3e 96 c5 2d be bf a9 06 bc 37 6a 1b 3c
       0.25020605 -0.16969904 -0.008219182 0.009485773
000060 17 3c cf bd 4f ef 52 3e 8e d5 15 bf 15 32 4a 3f
       -0.10118883 0.20599101 -0.58528984 0.7898267
000070 32 0f 38 3e 19 60 4a 3e 51 c6 5e bd af 9f 81 3e
       0.17974547 0.19763221 -0.054388348 0.2531714
000080 08 e9 61 bf 0c 87 59 be 91 9b 7d be d4 9d ea be
       -0.882462 -0.21242923 -0.24766375 -0.45823538
000090 0b 9e 9b be e5 2f 90 3e e6 e0 46 3e 64 24 1b 3e
       -0.30394015 0.2816154 0.1942173 0.151506
0000a0 d6 4e a7 3c 0a 4a 17 be 34 a7 fc 3e 72 91 62 be
       0.020423334 -0.14774337 0.49346316 -0.22125795
0000b0 ac 5c be 3e 67 7d 72 3d 5e f7 b2 3d b4 8e 3d 3d
       0.37180078 0.059201624 0.08738588 0.04627867
0000c0 db 21 7d bc b7 9b 80 bd ca 22 ad be 02 51 6b 3f
       -0.015449966 -0.062797 -0.33815604 0.91920483
0000d0 04 9c b5 bc ce ae 7f bd bd 06 b4 bc bb eb 39 3e
       -0.02216912 -0.062422566 -0.02197587 0.1815633
0000e0 0a e3 38 3d 55 a0 15 3c 09 99 d1 3e 58 70 a9 3e
       0.045138396 0.009132464 0.4093707 0.33093524
0000f0 f3 39 67 be 4f d6 97 bd 87 5c 70 3d f9 4b 0c 3f
       -0.225807 -0.07413923 0.05868199 0.54803425
000100 d0 f3 8f 3d fd 53 9d 3e 99 15 e2 3d 5e b1 0a 3f
       0.070289254 0.3072814 0.11039276 0.5417689
000110 6c 91 13 3c c2 5b 0d bd ec 31 4a 3d 4a 27 95 be
       0.009006839 -0.034511335 0.049364015 -0.29131538
000120 22 0c 42 be ec 29 ce 3d 2c 14 1e 3f ad bb e9 be
       -0.18949941 0.1006659 0.6174953 -0.45650998
000130 59 25 67 be 57 b0 e4 3d ff 8c 2e be 88 2a 4e bc
       -0.22572841 0.11166447 -0.17045973 -0.012583382
000140 37 00 c2 bc 0e 18 4b bf 83 00 16 bf f9 de 16 be
       -0.023681743 -0.7933358 -0.5859453 -0.14733495
000150 7e e1 d1 3c e9 1b a7 3c 28 8e 81 be 74 df 06 be
       0.025620218 0.02039905 -0.2530377 -0.13171178
000160 d6 53 56 3b 3c 67 7d 3e 04 ca a6 be 06 48 00 bd
       0.0032703779 0.24746412 -0.32576 -0.031318687
000170 21 08 03 be a4 7e ed 3c 05 c5 29 bd da 0e be 3e
       -0.1279607 0.028991051 -0.041447658 0.37120706
000180 d8 30 32 3e df 0d 57 3e de 48 d0 3d d5 53 21 3d
       0.17401445 0.21001385 0.10170148 0.03938659
000190 bd c7 71 be 09 c7 f8 3e e6 31 d5 bc 65 ad 4b 3d
       -0.2361135 0.48589352 -0.02602477 0.04972591
0001a0 75 80 7b bd d0 a5 4d 3e 50 35 22 3f 31 42 b1 bd
       -0.061401803 0.20082784 0.633626 -0.08655203
0001b0 63 f8 22 be ef 65 a6 3e 8a ba d3 be ca 27 9f be
       -0.15915065 0.32499644 -0.41353256 -0.31085044
0001c0 d4 ec 5a be ab 09 22 bf 4c 08 6b bd 9b 52 a6 be
       -0.21379405 -0.63296 -0.05738096 -0.32484898
0001d0 9d 63 d2 3e 71 a9 56 3e 1f 4c 7d 3e 06 62 9c be
       0.41091624 0.20963074 0.24736069 -0.30543536
0001e0 06 18 88 bd 24 44 4e 3e e1 05 e6 3d f7 e1 05 3d
       -0.06645207 0.20143181 0.1123159 0.0326862
0001f0 84 b7 ab be 71 5b 48 be 0d 3a e5 3e 8e 41 c2 3d
       -0.3353845 -0.19566132 0.44770852 0.0948516
000200 22 53 eb be e2 06 42 bf 7d 9d f3 be 5c 55 8e 3e
       -0.45961863 -0.7579175 -0.47581092 0.277995
000210 e1 bf de 3d c2 ae 8e 3d 0e ab 87 3e 53 4f 4a 3d
       0.10876442 0.06966926 0.26497692 0.049392056
000220 92 27 e9 bc b2 21 73 3c 73 a4 c7 3e c9 7d 10 be
       -0.028461251 0.014839577 0.38992652 -0.14110483
000230 e5 21 85 bd 1a 46 2a be 03 94 06 be 16 ea 27 be
       -0.065006055 -0.16628304 -0.131424 -0.1639789
000240 29 f1 91 be 14 aa 85 be 33 56 83 3e d7 56 96 3e
       -0.28504303 -0.26106322 0.25651702 0.2936313
000250 77 44 a1 3d d1 19 be 3e be 05 65 3e 4f 62 c8 3d
       0.07874387 0.3712907 0.22365472 0.09784376
000260 2c 6e 78 3e 9e 2d e3 be d1 d1 bd be 80 0f d3 be
       0.24260777 -0.4437074 -0.3707414 -0.41222763
000270 27 7a d0 ba 21 b1 4c 3b 9b bd 28 bf 6e 0a 97 bd
       -0.0015905545 0.0031233507 -0.65914315 -0.07375036
000280 1f b3 78 3c 80 98 e5 3e 65 e5 5e 3e b9 36 08 3e
       0.015179425 0.4484291 0.21767195 0.13302125
000290 56 dd a3 3e 5e 1c f1 3e 3a 16 e7 3d 85 4a 75 3e
       0.32004803 0.47091955 0.11283536 0.23954208
0002a0 45 85 c6 3e c2 08 9c be 05 91 3a 3f 55 e7 0d 3f
       0.38773552 -0.30475432 0.7287753 0.5543111
0002b0 60 e4 d0 bc b4 4c 59 be bd 97 71 be 28 2e bc bd
       -0.025499523 -0.21220666 -0.2359304 -0.09188491
0002c0 f2 22 96 3e 8b f2 23 be 84 9b a3 3e 01 d8 e1 bd
       0.29323536 -0.16010492 0.31954587 -0.110275276
0002d0 0b b1 82 bc ee 25 13 3f 82 e9 5d be 1a bb f9 3e
       -0.015953561 0.5747975 -0.21671107 0.4877556
0002e0 32 aa 0d be 20 0a f6 bc 73 ed 86 be dc 69 6f be
       -0.13834456 -0.030034125 -0.26353034 -0.23380226
0002f0 3b 26 a6 be 06 d0 9d bd 19 7e dc 3d 73 f2 5a be
       -0.32451043 -0.07705693 0.10766239 -0.2138155
000300 8c 52 3e be 07 b2 37 3e df fd 3c be 0e a9 0c 3f
       -0.18586177 0.17939006 -0.18456219 0.54945457
000310 8d 48 b5 bc fb e2 59 bd 1c fd 96 3e f3 dc 7a 3e
       -0.022129321 -0.05319498 0.29489982 0.24498348
000320 ce fe 7b 3e b5 68 8d be 1c ee 4a 3e ee 12 50 be
       0.24608919 -0.27618948 0.19817394 -0.20319721
000330 89 14 4c 3e f1 d9 36 bc bd bd a9 be 07 03 4a be
       0.19929709 -0.01116036 -0.3315257 -0.19727717
000340 38 7e c6 be 55 28 23 3f c8 91 77 be b4 a6 a2 3e
       -0.38768172 0.63733417 -0.24176705 0.3176781
000350 16 1e 29 bf 47 27 69 3d fa a8 28 3e a2 45 fe be
       -0.6606153 0.056922223 0.1647071 -0.496625
000360 12 ce 4c be 8e 5d ef be 78 e2 b4 be 72 8c 7d bc
       -0.20000485 -0.46751064 -0.35329032 -0.015475379
000370 13 26 16 be 77 55 02 3f 8c de 26 3d d3 00 88 3e
       -0.14662962 0.5091166 0.04073958 0.2656313
000380 92 90 88 be 7a 47 29 be 68 75 3c be cd 9d 00 3e
       -0.26672798 -0.16531172 -0.18404162 0.12560196
000390 3b 29 08 3e b8 44 23 bc 5d 21 c8 3e dc 9e 34 be
       0.13296978 -0.009965114 0.39087954 -0.17638725
0003a0 10 1c 5e bf 0e d6 f2 3b 7f 2a ab 3d 5a 0e 10 be
       -0.8676157 0.007410771 0.08357715 -0.14067975
0003b0 35 b6 27 bf bc 3b 74 be b5 f0 01 bf 71 a6 2f be
       -0.655124 -0.23850912 -0.50757915 -0.17153336
0003c0 39 9b 64 3e 10 d2 ad 3e 89 07 b3 bd cc 67 45 3e
       0.22324838 0.33949327 -0.087416716 0.19277877
0003d0 09 13 8b 3e f0 22 87 3d 1f 05 11 be 6d 16 9e 3e
       0.2716296 0.06598461 -0.1416211 0.30876485
0003e0 20 74 cb 3d 19 4d 11 3f be 5d 63 3e fd 4a a1 3e
       0.099342585 0.56758267 0.22203729 0.31502524
0003f0 d9 5c bd 3d 84 73 47 bf a3 04 04 bf 5d f0 51 bc
       0.09246225 -0.7791064 -0.51569575 -0.012813655

conv3.pointwise.weight_fake_quant.scale f4 [120]
000000 e2 c4 9d 3b da c9 cb 3b 3a e9 e1 3b 26 2b ed 3b
       0.00481473 0.006219131 0.006894258 0.0072378097
000010 04 53 9f 3b dc 17 cb 3b 16 7c a3 3b 7a 09 a2 3b
       0.004862191 0.0061979126 0.0049891574 0.0049449774
000020 b0 06 c2 3b cc bd a8 3b 49 09 bc 3b bd 4e 94 3b
       0.0059212074 0.0051495787 0.0057384116 0.004525988
000030 ca c4 8d 3b 48 1e a9 3b de 1b de 3b 52 73 c7 3b
       0.0043264376 0.0051610805 0.0067782244 0.0060867453
000040 1c d4 de 3b 1a bd cb 3b 14 95 b3 3b b3 14 d1 3b
       0.0068001878 0.006217611 0.005480418 0.0063806414
000050 ca 30 be 3b 52 3b 93 3b ca 7a 0d 3c b8 44 f7 3b
       0.005804156 0.0044931555 0.008635232 0.0075460337
000060 24 2e d6 3b a4 9a b2 3b 99 9c dc 3b 52 75 d1 3b
       0.006536262 0.0054505635 0.006732535 0.0063921595
000070 a8 bc d3 3b f4 8c c8 3b 74 00 e5 3b dc 56 dd 3b
       0.0064616986 0.0061203185 0.0069885794 0.006754739
000080 fe 05 b2 3b 16 eb ad 3b fc 09 9c 3b 83 12 aa 3b
       0.005432843 0.0053075654 0.0047619324 0.005190195
000090 be 93 cb 3b ca 73 cb 3b 6c ab 9f 3b 38 2d a4 3b
       0.0062126806 0.0062088715 0.00487273 0.0050102733
0000a0 ad df a8 3b a2 8d e6 3b 9c c1 b5 3b 36 6c bf 3b
       0.0051536174 0.007035927 0.0055467617 0.005841757
0000b0 79 1c be 3b 5f 97 c4 3b 9f 60 f3 3b fe 1a a1 3b
       0.005801734 0.00599949 0.0074272896 0.004916548
0000c0 be ba a5 3b 12 7b bb 3b c0 da 9c 3b c2 80 87 3b
       0.005057662 0.0057214582 0.004786819 0.004135222
0000d0 f4 50 ab 3b 4f 05 b7 3b e0 d7 a4 3b 53 2b df 3b
       0.005228156 0.0055853496 0.005030617 0.0068105846
0000e0 e8 3b e6 3b 93 5c ad 3b d2 91 c6 3b 30 a9 e2 3b
       0.0070261844 0.0052905767 0.0060598636 0.0069171414
0000f0 b4 76 e3 3b 4c 6c e7 3b 75 d1 b6 3b 70 41 fd 3b
       0.0069416407 0.0070624705 0.0055791684 0.007728748
000100 52 d4 de 3b 9a 4d e5 3b 16 70 af 3b 08 4e aa 3b
       0.006800213 0.006997776 0.005353938 0.0051972903
000110 73 3d 94 3b 85 e3 d8 3b ea 6d c1 3b d2 de c2 3b
       0.004523927 0.0066189193 0.0059029954 0.0059469724
000120 00 e6 a6 3b 1f 94 44 3b fc 90 8e 3b d6 76 da 3b
       0.005093336 0.0029995514 0.0043507796 0.0066669984
000130 7a 83 a1 3b 14 78 0a 3c 4d ec ca 3b c8 54 9e 3b
       0.0049290033 0.00845148 0.00619272 0.004831884
000140 97 db 99 3b 8b 88 a9 3b c2 01 bc 3b 45 61 c3 3b
       0.0046953666 0.005173748 0.0057375142 0.005962523
000150 cc cf df 3b d4 49 a9 3b ee a2 9b 3b a4 d1 ae 3b
       0.0068301912 0.0051662717 0.0047496473 0.0053350497
000160 ec 4b df 3b 54 54 ae 3b 24 4f f5 3b 5d 9a dc 3b
       0.0068144705 0.0053201113 0.007486241 0.0067322687
000170 62 f3 05 3c 5d 4b e7 3b d4 e1 f3 3b 9d ef ee 3b
       0.008175703 0.0070585446 0.0074426923 0.0072917477
000180 65 62 dc 3b c2 37 c0 3b 1c 55 89 3b a0 47 c2 3b
       0.0067255967 0.005866022 0.004191054 0.0059289485
000190 02 8f e6 3b 5e 26 a8 3b a7 47 d9 3b 86 34 ce 3b
       0.007036091 0.005131527 0.006630856 0.0062928824
0001a0 14 fb 72 3b 3a 00 ca 3b ec c8 80 3b 82 23 e5 3b
       0.0037075924 0.006164578 0.0039302018 0.0069927583
0001b0 87 05 c3 3b 90 0c ba 3b 22 f8 e6 3b 90 6e c2 3b
       0.0059515866 0.005677767 0.0070486227 0.0059335902
0001c0 1a f4 c7 3b 42 0b af 3b b3 ec d6 3b ae f0 bb 3b
       0.006102097 0.005341918 0.0065589785 0.0057354784
0001d0 59 ff c6 3b 08 55 df 3b 3c b3 a1 3b 20 4e 90 3b
       0.0060729203 0.0068155564 0.0049346965 0.0044038445

conv3.pointwise.weight_fake_quant.activation_post_process.min_val f4 [120]
000000 e2 c4 1d bf 5c d5 15 bf 3a e9 61 bf fc 22 ad be
       -0.61628544 -0.58528686 -0.882465 -0.33815753
000010 de bb e9 be dc 17 4b bf 58 ba d3 be 7a 09 22 bf
       -0.45651144 -0.7933328 -0.41353106 -0.6329571
000020 b0 06 42 bf cc bd 28 bf 1e 09 9c be 0a 26 a6 be
       -0.75791454 -0.6591461 -0.30475706 -0.32450897
000030 ee bd a9 be 48 1e 29 bf de 1b 5e bf 52 73 47 bf
       -0.33152717 -0.6606183 -0.8676127 -0.7791034
000040 b4 2f d0 be 42 b7 95 be 8e 71 de be fc de 1a be
       -0.40661395 -0.29241377 -0.4344601 -0.15124124
000050 12 2b ae be 52 3b 13 bf ca 7a 8d bf b8 44 77 bf
       -0.34017235 -0.5751239 -1.1053097 -0.9658923
000060 24 2e 56 bf a4 9a 32 bf 20 8a fa be 52 75 51 bf
       -0.83664155 -0.6976721 -0.48933506 -0.8181964
000070 a8 bc 53 bf 0a e7 22 bf 74 00 65 bf 26 02 e8 be
       -0.8270974 -0.6363379 -0.89453816 -0.4531414
000080 fe 05 32 bf 98 5f e5 be fc 09 1c bf 96 fe d8 be
       -0.69540393 -0.44799495 -0.60952735 -0.42381734
000090 be 93 4b bf ca 73 4b bf 6c ab 1f bf b4 43 96 be
       -0.7952231 -0.79473555 -0.62370944 -0.29348528
0000a0 a0 f3 a5 be a2 8d 66 bf 9c c1 35 bf 60 31 00 bf
       -0.32412434 -0.90059865 -0.7099855 -0.5007534
0000b0 26 05 de be 5d b4 bc be 0e 06 f6 be bc fb 00 bf
       -0.43363303 -0.36856356 -0.48051494 -0.50384116
0000c0 be ba 25 bf b4 aa bb be c0 da 1c bf fa f3 e4 be
       -0.6473807 -0.36653674 -0.61271286 -0.4471739
0000d0 fc 3c e4 be d7 30 d9 be e0 d7 24 bf ae b9 03 bf
       -0.44577777 -0.42420074 -0.643919 -0.514552
0000e0 62 56 f4 be 7e e3 02 bf a4 77 01 bf 30 a9 62 bf
       -0.47722155 -0.51128376 -0.5057318 -0.8853941
0000f0 b4 76 63 bf 4c 6c 67 bf d8 ce ff be 70 41 7d bf
       -0.88853 -0.9039962 -0.49962497 -0.98927975
000100 52 d4 5e bf 9a 4d 65 bf 16 70 2f bf 08 4e 2a bf
       -0.87042725 -0.89571536 -0.68530405 -0.66525316
000110 5c 41 01 bf ce 33 86 be 0a 7e d2 be d2 de 42 bf
       -0.50490355 -0.262114 -0.41111785 -0.76121247
000120 d0 05 53 be d6 b4 ba be 18 6b e5 be d6 76 5a bf
       -0.20607686 -0.36466092 -0.4480827 -0.8533758
000130 7a 83 21 bf ac ce 06 bf 30 ae 27 be c8 54 1e bf
       -0.6309124 -0.52659106 -0.16375041 -0.61848116
000140 d4 53 c1 be 06 59 16 bf 8e 58 b1 be 14 73 ce be
       -0.37759268 -0.5872959 -0.34637874 -0.40322173
000150 cc cf 5f bf 30 90 ba be ba 42 cf be a4 d1 2e bf
       -0.8742645 -0.3643813 -0.40480596 -0.68288636
000160 ec 4b 5f bf 54 54 2e bf 1e b9 f7 be a2 4a c6 be
       -0.8722522 -0.68097425 -0.4838342 -0.38728815
000170 62 f3 85 bf 0e 6d fc be d4 e1 73 bf 9e b1 0d bf
       -1.04649 -0.49301952 -0.9526646 -0.5534915
000180 56 60 aa be c2 37 40 bf 26 43 b4 be a0 47 42 bf
       -0.33276623 -0.7508508 -0.3520748 -0.7589054
000190 02 8f 66 bf 5e 26 28 bf 40 78 bc be 86 34 4e bf
       -0.9006196 -0.65683544 -0.36810493 -0.80548894
0001a0 16 23 d1 be 0c b5 cd be ec c8 00 bf 82 23 65 bf
       -0.4084708 -0.4017719 -0.5030658 -0.89507306
0001b0 32 4d ae be 90 0c 3a bf 48 c6 0d bf 90 6e 42 bf
       -0.3404327 -0.7267542 -0.5538068 -0.75949955
0001c0 86 a4 07 bf 42 0b 2f bf ee ce 02 bf ae f0 3b bf
       -0.5298542 -0.68376553 -0.51097 -0.73414123
0001d0 06 b8 a8 be 08 55 5f bf 3c b3 21 bf 20 4e 10 bf
       -0.329529 -0.8723912 -0.63164115 -0.5636921

conv3.pointwise.weight_fake_quant.activation_post_process.max_val f4 [120]
000000 64 14 08 3f 46 32 4a 3f 66 a7 fc 3e d0 50 6b 3f
       0.53156114 0.7898296 0.49346465 0.91920185
000010 5e 14 1e 3f 23 0f be 3e 1e 35 22 3f cc 39 e5 3e
       0.6174983 0.37120923 0.633623 0.44770658
000020 dd a4 c7 3e a0 19 be 3e 36 91 3a 3f 20 26 13 3f
       0.38992968 0.37128925 0.72877824 0.5748005
000030 40 a9 0c 3f 86 28 23 3f 8e 21 c8 3e e8 4c 11 3f
       0.54945755 0.6373371 0.390881 0.56757975
000040 74 16 5d 3f a0 25 4a 3f ea 2d 32 3f 8a 72 4f 3f
       0.86362386 0.7896366 0.6960131 0.8103415
000050 68 b4 3c 3f 80 24 cc 3e a2 7e 8f 3e 94 49 1c 3f
       0.7371278 0.39871597 0.280263 0.6104977
000060 50 09 ad 3e ce c2 f9 3e 60 e3 5a 3f d8 3b 1d 3f
       0.33796167 0.48781437 0.85503197 0.6141944
000070 42 2b 20 3f da fb 46 3f a2 80 30 3f 2e 9c 5b 3f
       0.62566006 0.77728045 0.6894628 0.85785186
000080 98 0a f4 3e 40 8f 2c 3f 8e e0 d1 3e 5e be 28 3f
       0.47664332 0.6740608 0.40991634 0.6591548
000090 ea 3d 2a 3f a0 ec cb 3e 98 61 f6 3e de e4 22 3f
       0.66500723 0.39828968 0.48121333 0.63630474
0000a0 ee 8d 27 3f 26 70 aa 3e 2a f4 d3 3e 5e ed 3d 3f
       0.6545094 0.33288687 0.4139722 0.7419032
0000b0 40 a0 3c 3f 30 0e 43 3f de 79 71 3f c8 d8 1f 3f
       0.7368202 0.76193523 0.9432658 0.62440157
0000c0 b0 35 cd 3e 1c 04 3a 3f 62 1b 06 3f c0 71 06 3f
       0.40080023 0.7266252 0.5238553 0.5251732
0000d0 52 fa 29 3f 44 97 35 3f da dc e7 3e fc 6c 5d 3f
       0.66397583 0.7093394 0.45285684 0.8649442
0000e0 70 6f 64 3f da 01 2c 3f ae 04 45 3f 2a b9 e4 3e
       0.8923254 0.67190325 0.76960266 0.4467252
0000f0 a4 c5 8f 3e ba 4e fb 3e d2 63 35 3f c9 0e e3 3e
       0.28080475 0.490835 0.7085544 0.44347218
000100 66 17 34 3f da a6 1b 3f dc 58 09 3f ee 7b e0 3e
       0.70348203 0.6080147 0.53651214 0.4384455
000110 f8 14 13 3f be 31 57 3f 0e eb 3f 3f b2 06 fa 3e
       0.5745387 0.84060276 0.7496804 0.48833233
000120 34 98 25 3f f7 0a c3 3e da 73 0d 3f a0 ee 1e 3f
       0.6468537 0.38094303 0.552549 0.6208286
000130 72 0e 20 3f 24 63 89 3f 74 56 49 3f a2 c5 03 3f
       0.6252204 1.073338 0.7864754 0.5147344
000140 e0 a7 18 3f 7a 35 28 3f be 89 3a 3f 82 da 41 3f
       0.59631157 0.657066 0.7286643 0.7572404
000150 76 57 d5 3e 40 f7 27 3f a8 6b 1a 3f a6 75 a5 3e
       0.4166829 0.6561165 0.6032052 0.3231632
000160 ce 02 b5 3e 60 01 ae 3e 86 64 73 3f 28 e1 5a 3f
       0.35353702 0.33985424 0.9507526 0.8549981
000170 d8 1b e0 3e c6 7c 65 3f 5c 6d 01 3f be 11 6d 3f
       0.43771243 0.89643514 0.50557494 0.926052
000180 a0 a9 5a 3f d4 05 ae 3e 72 42 08 3f a0 27 0d 3f
       0.8541508 0.33988822 0.5322639 0.5513859
000190 66 03 2e 3f 82 8e f8 3e 18 95 57 3f 7c e1 1f 3f
       0.67973936 0.48546225 0.84211874 0.62453437
0001a0 1e 15 f1 3e 3a 6c 48 3f e0 c7 c7 3e 10 5c e4 3e
       0.47086424 0.7829014 0.3901968 0.44601488
0001b0 7c 7f 41 3f a2 3f bf 3e 32 2a 65 3f be d8 9e 3e
       0.7558515 0.37353235 0.8951751 0.31024736
0001c0 32 64 46 3f 56 c1 a6 3e da 3e 55 3f 36 80 a5 3e
       0.77496636 0.3256938 0.8329903 0.3232438
0001d0 5a 71 45 3f 36 10 27 3f 9e 42 ec 3e 74 b7 e9 3e
       0.77126086 0.6525911 0.46144575 0.45647776

fc1.weight f4 [84, 120]
000000 b1 8c 89 be 20 ea ad be 70 d3 7f be 3f b1 dd be
       -0.26865152 -0.33967686 -0.24983001 -0.4329929
000010 ad 05 b1 bc bb e3 2c bf 32 e2 26 3e 52 f9 d6 3d
       -0.021609152 -0.6753499 0.16297224 0.10496773
000020 90 e5 89 be eb 2b ab bd fe 54 bb 3c 70 d3 39 3e
       -0.26932955 -0.08357986 0.022867676 0.18147063
000030 63 8e 9b bd cf b7 53 3e a8 6a 4e 3d e4 ce 52 3e
       -0.075955175 0.20675586 0.050394684 0.20586735
000040 83 ee 78 be 09 82 6f be ca 1c 18 be 8c 79 0f be
       -0.24309735 -0.23389448 -0.14854732 -0.1401121
000050 5a ac d2 bc df 43 b1 bd 8c c0 b5 3c 41 bf d0 be
       -0.02571695 -0.086555235 0.02218654 -0.40770915
000060 b3 09 21 3d 46 d8 34 3e 8d c9 69 3e a4 19 b5 be
       0.03931589 0.17660627 0.22830792 -0.35371125
000070 30 ff c6 be 85 df b2 3d d4 43 04 3f 1b 0c cc be
       -0.38866568 0.08734039 0.51666 -0.39852986
000080 be 2f ac 3d 35 cb 0c be bd 1a 59 3d 6d 36 c4 bc
       0.084075436 -0.13749392 0.053004015 -0.023951733
000090 51 88 21 3e db e0 8a be 66 63 e3 bc ef 1a 96 be
       0.15774657 -0.27124676 -0.027757358 -0.29317424
0000a0 9e 5e c2 bd d1 9c 0f be 48 a4 53 3d ad b2 8a be
       -0.09490703 -0.14024664 0.051670343 -0.27089444
0000b0 66 4b 01 be 28 f6 48 3d 76 48 b9 3d 72 60 26 3e
       -0.12626418 0.049062878 0.09047024 0.16247728
0000c0 34 c7 c8 3d e4 87 82 bd 96 60 a8 3e 06 47 9f be
       0.0980362 -0.06373575 0.3288619 -0.31108874
0000d0 3b 59 42 be f7 fd 2c 3e 54 85 45 be dd 98 01 bf
       -0.18979351 0.16893755 -0.19289142 -0.50623876
0000e0 d9 1b 2f 3e b3 f6 5b be 6e e5 11 3d b5 f4 24 3e
       0.17100467 -0.21480827 0.03561919 0.16108973
0000f0 91 2b d6 bc 16 a8 08 bc 52 c4 24 bf 7c a3 f8 3d
       -0.026143821 -0.008340856 -0.6436206 0.12140557
000100 de fc 47 3e 54 16 df bd 32 ec 88 3e 92 ff 6b 3e
       0.19530055 -0.108929306 0.26742703 0.23046711
000110 96 09 97 3c 85 3a 35 3d e3 ed 10 3d 26 e8 9f 3d
       0.018437188 0.04424526 0.035383116 0.07807951
000120 f2 72 1c 3e e1 aa 09 3a 8b 64 4b 3e ad 69 73 be
       0.15278223 0.0005251598 0.19862573 -0.23770781
000130 4d 08 61 3e 0d d0 c2 3d 43 59 6a be 2d 11 67 3c
       0.21975823 0.09512339 -0.22885613 0.014103216
000140 8a 78 94 3e ee c9 00 be 15 72 fc be 38 13 c0 3e
       0.28998214 -0.1257703 -0.49305788 0.37514663
000150 ad 4d 52 3e af a6 dd 3d 03 ac d8 bd 9a 64 d2 3d
       0.20537443 0.10822808 -0.10579684 0.102730945
000160 66 eb 57 3e 76 ba 47 3e 4f 2a 07 bd 9a 28 6f 3e
       0.21085891 0.19504723 -0.032999333 0.23355332
000170 19 17 0f 3e 35 b0 07 3d 21 aa 47 3d 41 31 6c 3c
       0.13973655 0.03312703 0.048746232 0.01441604
000180 14 fd 6c ba fe 52 56 3e 5e 7e 81 be 69 55 6d bd
       -0.0009040397 0.20930097 -0.25291723 -0.05794278
000190 02 be 1a be ed 52 21 be 96 51 f3 bd 05 61 a9 3c
       -0.15111545 -0.1575429 -0.11880796 0.020676145
0001a0 e5 6e e6 3c ed d0 1b 3e bb ea 7c bd ae 33 05 bd
       0.02812905 0.15216418 -0.061747294 -0.03251999
0001b0 a6 44 c3 3c 14 93 ec 3d 85 8d 77 be 67 36 5d 3d
       0.023836445 0.115514904 -0.24175079 0.05400696
0001c0 cd 34 dc bb b2 9f 88 be 3d c2 8a bd 11 ad de bd
       -0.0067201615 -0.26684338 -0.06775329 -0.108728535
0001d0 f8 01 e0 bd 55 1b 3d 3e 2c 8f d1 3d dc a7 c9 3c
       -0.109378755 0.18467458 0.10232386 0.024616174
0001e0 1c e3 9c bd 49 68 b1 3e da 8c 2c 3e 5d 11 32 3d
       -0.07660505 0.34649876 0.16850606 0.04347359
0001f0 a8 93 ae 3d dc b2 02 3e e5 91 20 3e a6 7c 3a bd
       0.08524257 0.12763542 0.15680654 -0.04552903
000200 9d 3a 06 3e 92 fd 1e 3d 27 40 43 be b5 b3 79 bd
       0.13108297 0.038816042 -0.19067441 -0.060962398
000210 75 ac 34 3b 1e 83 26 3e b4 f4 d9 3d 88 3d 53 3e
       0.0027568613 0.16260955 0.106423765 0.20628941
000220 5e a8 18 be ad 74 d0 be ab 62 32 3d d1 7d 76 be
       -0.14907977 -0.40714017 0.04355113 -0.24071433
000230 b9 52 6c 3a 48 ab 99 3d 8c 01 1f 3e c7 38 44 3d
       0.0009015012 0.075033724 0.15527934 0.04790571
000240 a2 e1 98 3d 95 b9 6a 3e 80 bd 12 3e bc 1d 8b be
       0.07464911 0.22922356 0.14330101 -0.27171123
000250 75 d0 8a be dc 02 cb 3d f3 7f 49 be 25 7e a8 bd
       -0.27112165 0.09912655 -0.19677715 -0.08227185
000260 6f 22 cb 3e 19 97 4c 3d 37 c7 2b 3d 14 cc 18 be
       0.39674708 0.049948785 0.041938033 -0.149216
000270 b2 cc 28 3c 7a 16 a7 3c ad 07 91 3c 91 97 bb bd
       0.010302709 0.02039646 0.017703855 -0.091597684
000280 17 84 62 bc 2e 55 07 be f7 2f 8b 3e 3e 97 e7 3d
       -0.013825438 -0.13216087 0.27185032 0.11308144
000290 e5 d9 ea bc a3 f8 cb 3d 19 3d 1d 3e 33 c0 6c bd
       -0.028668353 0.09959533 0.15355338 -0.057800483
0002a0 f6 c7 be 3d 92 8d b5 bc 63 15 74 3e 5a bb 80 3d
       0.09315483 -0.022162233 0.23836283 0.062857345
0002b0 87 70 05 3e 62 db c2 bd c4 1e 98 be c7 78 a8 3d
       0.13031207 -0.095145 -0.29710972 0.082261615
0002c0 7a 25 c5 3d a8 d7 b9 be 22 38 98 3e 38 0e 28 3e
       0.09626289 -0.36297345 0.29730326 0.16411674
0002d0 de d2 1f 3e 71 41 a3 3e db fe 71 3e 84 30 5d bd
       0.15607783 0.31885865 0.23632376 -0.054001346
0002e0 9c 89 8e 3e 74 08 88 be 1e 38 6c 3d 03 82 0b 3d
       0.27839363 -0.2656895 0.057670705 0.034059536
0002f0 b3 57 4a 3e 81 bc df 3d 17 9a ea 3d 11 a2 89 3c
       0.19760017 0.10924626 0.114551716 0.016800912
000300 0b ee 57 3e a5 9d 96 be 77 7d 19 3e 7a dc 34 3e
       0.210869 -0.29417148 0.14989267 0.1766223
000310 0b df 7c bc 02 d6 11 be ed a6 90 be 23 cf 1b 3e
       -0.015434037 -0.14241794 -0.28252354 0.15215735
000320 5c 3d 5b 3d 1f ab 6f bd b3 cf b4 be 3f ee 41 bc
       0.053525314 -0.058512803 -0.35314712 -0.011836587
000330 47 68 49 3e ab c6 c5 3e 5f 19 41 3d 51 c9 0e 3e
       0.19668685 0.38628134 0.047143336 0.13943984
000340 33 42 c3 be 22 04 a5 3e 5e ba b9 bc 92 27 da be
       -0.38136443 0.32229716 -0.022671875 -0.42608315
000350 e1 b5 2a 3e 3e 26 14 be 44 9b 5c be b8 6d ca be
       0.16670944 -0.14467713 -0.21543604 -0.39536834
000360 3e 0d 20 3e ef b9 34 3f 50 e4 91 3d e9 aa dc 3e
       0.15630051 0.7059621 0.07123625 0.43099144
000370 51 2c 45 3e cb b5 2a 3d fa 1d 25 bd d9 3e 14 be
       0.19255187 0.041677278 -0.04031179 -0.144771
000380 d6 e7 ec 3c ff 87 6f 3e d6 b5 9a be 64 e7 4e 3e
       0.028919142 0.23391722 -0.30216855 0.20205456
000390 83 02 79 3e 99 64 f5 3d f6 45 9b bd f0 6b 8f 3d
       0.24317364 0.11982078 -0.07581703 0.07003009
0003a0 f6 aa 1c 3e a0 d9 bc bd 3c 89 37 3d 6d f3 89 3d
       0.15299591 -0.09221196 0.04480861 0.06735883
0003b0 8a 85 a2 be 79 e7 6d 3b 98 45 b2 3d d9 23 a5 bd
       -0.31742507 0.0036301299 0.0870468 -0.08063478
0003c0 4a 4b 6f 3e d4 50 4c 3e 63 67 e1 bd f0 4b 66 bd
       0.23368564 0.19952708 -0.110060476 -0.056224763
0003d0 c2 c0 10 be 0b d5 e5 bd 9c 26 00 3e 24 a1 6b be
       -0.14136031 -0.11222275 0.12514728 -0.23010689
0003e0 40 6c 28 3e 2d 5f b8 3d 6b 70 90 be ff f4 e3 bd
       0.16447544 0.09002528 -0.28210768 -0.11130714
0003f0 93 08 e1 3d 8c cf 82 bd ce ab 1e be b7 c4 66 be
       0.109879635 -0.06387243 -0.15495226 -0.22535978

fc1.weight_fake_quant.scale f4 [84]
000000 8a e3 ac 3b 0a 26 b6 3b e0 59 fe 3b 7f e0 c4 3b
       0.005276148 0.005558734 0.007762179 0.0060082073
000010 f6 13 c9 3b 16 24 c0 3b 57 10 c5 3b b8 60 bf 3b
       0.0061364127 0.005863677 0.0060139108 0.005840387
000020 3e 8f ad 3b e4 9f d2 3b ce d2 87 3a ee 53 d5 3b
       0.005296617 0.006427752 0.0010362507 0.0065102493
000030 2c 46 ed 3b 32 2a c8 3b 3e d5 66 3a 2e c2 b7 3b
       0.007241031 0.0061085457 0.0008805579 0.005607865
000040 2e c5 ea 3b e2 2b d6 3b 2c e2 e8 3b 3a 71 c1 3b
       0.007164619 0.006535993 0.00710704 0.0059033902
000050 88 c6 c7 3b fe a1 e7 3b 74 1c 72 3b 82 6b bd 3b
       0.006096665 0.0070688715 0.003694323 0.005780638
000060 14 da 7d 3a 0c e4 c5 3b 76 15 94 3b 5c a8 cf 3b
       0.000968368 0.006039148 0.00451916 0.0063372087
000070 ee c2 e4 3b 5f 3d e8 3b 44 ea 7b 3b 91 f0 dd 3b
       0.0069812452 0.007087394 0.0038439194 0.0067730625
000080 3a 90 d8 3b 06 81 ea 3b 57 45 c0 3b 52 19 d3 3b
       0.00660899 0.007156494 0.005867641 0.0064422274
000090 8f ef ea 3b bb 25 bb 3b 46 51 ca 3b b8 39 d1 3b
       0.007169671 0.005711285 0.0061742393 0.0063850544
0000a0 76 43 82 3a 46 c7 ec 3b 04 f6 ba 3b 30 64 cf 3b
       0.0009938318 0.0072259037 0.005705597 0.006329082
0000b0 3c 43 de 3b dc 9b d4 3b 52 13 d8 3b 4d 73 c2 3b
       0.0067829173 0.0064883064 0.0065941 0.005934155
0000c0 68 fe bd 3b 43 1d bc 3b 2a 87 ca 3b dc 7a c5 3b
       0.00579815 0.005740793 0.0061806636 0.006026609
0000d0 10 55 de 3b 5d 2e cd 3b 4c b7 8f 3b de 3b f8 3b
       0.0067850426 0.0062616304 0.0043858644 0.007575496
0000e0 2c bc de 3b 02 c1 bc 3b d4 1e aa 3b 85 58 9c 3b
       0.006797334 0.005760313 0.0051916633 0.0047712945
0000f0 bc a8 b7 3b 7a 3c af 3b 50 e0 b3 3b f4 1e cb 3b
       0.0056048315 0.0053477855 0.0054893866 0.0061987583
000100 d6 a0 b9 3b de a3 bd 3b 3a 02 93 3b f2 5c d8 3b
       0.005664925 0.0057873568 0.0044863494 0.006602877
000110 30 67 83 3a 5a aa b1 3b 72 06 8f 3b 70 f3 09 3c
       0.0010025259 0.005421919 0.004364782 0.008419856
000120 c6 1c bb 3b 49 b2 d2 3b f4 47 ec 3b a1 a5 d1 3b
       0.005710217 0.0064299447 0.007210726 0.0063979183
000130 a6 dd c7 3b 82 6b a0 3b d6 cb f0 3b b1 56 db 3b
       0.0060994206 0.0048956284 0.007348518 0.006693684
000140 06 ed c8 3b 68 32 a5 3b 2c ea be 3b e2 5f ca 3b
       0.006131771 0.0050414093 0.0058262553 0.006175981

fc1.weight_fake_quant.activation_post_process.min_val f4 [84]
000000 8a e3 2c bf c4 27 da be e0 59 7e bf 1c 3d 14 bf
       -0.675347 -0.42608464 -0.9935589 -0.57905746
000010 f6 13 49 bf 16 24 40 bf 57 10 45 bf b8 60 3f bf
       -0.7854608 -0.7505506 -0.7697806 -0.74756956
000020 fc f8 27 bf e4 9f 52 bf 0c 36 03 be ee 53 55 bf
       -0.65614295 -0.82275224 -0.12813586 -0.8333119
000030 2c 46 6d bf 32 2a 48 bf 3e d5 e6 bd 2e c2 37 bf
       -0.926852 -0.78189385 -0.112711415 -0.7178067
000040 2e c5 6a bf e2 2b 56 bf 2c e2 68 bf 62 e2 1d bf
       -0.9170712 -0.8366071 -0.9097011 -0.6167356
000050 88 c6 47 bf fe a1 67 bf 74 1c f2 be 82 6b 3d bf
       -0.7803731 -0.90481555 -0.47287333 -0.7399217
000060 14 da fd bd 60 1e 01 bf 76 15 14 bf 5c a8 4f bf
       -0.12395111 -0.50436974 -0.57845247 -0.8111627
000070 ee c2 64 bf 46 d6 17 bf 2e 66 d8 be e2 d3 36 bf
       -0.8935994 -0.5931133 -0.42265457 -0.7141706
000080 3a 90 58 bf 06 81 6a bf a6 eb 21 bf 52 19 53 bf
       -0.8459507 -0.91603124 -0.63250196 -0.8246051
000090 60 64 3d bf 2c a7 2d bf 46 51 4a bf b8 39 51 bf
       -0.73981285 -0.6783321 -0.79030263 -0.81728697
0000a0 76 43 02 be 46 c7 6c bf 04 f6 3a bf 26 59 3d bf
       -0.12721047 -0.9249157 -0.7303164 -0.73964155
0000b0 3c 43 5e bf dc 9b 54 bf 52 13 58 bf f4 cc 1c bf
       -0.8682134 -0.8305032 -0.8440448 -0.61250234
0000c0 68 fe 3d bf c3 79 35 bf ba 42 39 bf dc 7a 45 bf
       -0.7421632 -0.7088892 -0.7236744 -0.77140594
0000d0 10 55 5e bf 24 72 0c bf 4c b7 0f bf de 3b 78 bf
       -0.86848545 -0.54861665 -0.56139064 -0.9696635
0000e0 2c bc 5e bf 02 c1 3c bf d4 1e 2a bf 64 c3 10 bf
       -0.8700588 -0.73732007 -0.6645329 -0.5654814
0000f0 bc a8 37 bf 7a 3c 2f bf 50 e0 33 bf f4 1e 4b bf
       -0.71741843 -0.68451655 -0.7026415 -0.79344106
000100 3a a3 de be de a3 3d bf 3a 02 13 bf f2 5c 58 bf
       -0.43483907 -0.74078166 -0.5742527 -0.84516823
000110 30 67 03 be 5a aa 31 bf 72 06 0f bf 70 f3 89 bf
       -0.12832332 -0.6940056 -0.5586921 -1.0777416
000120 c6 1c 3b bf 0c 7e 00 bf f4 47 6c bf 37 6a 15 bf
       -0.7309078 -0.5019233 -0.9229729 -0.58365196
000130 a6 dd 47 bf 82 6b 20 bf d6 cb 70 bf b1 56 5b bf
       -0.78072584 -0.62664044 -0.9406103 -0.85679156
000140 06 ed 48 bf 68 32 25 bf 2c ea 3e bf e2 5f 4a bf
       -0.7848667 -0.6453004 -0.7457607 -0.79052556

fc1.weight_fake_quant.activation_post_process.max_val f4 [84]
000000 06 44 04 3f be b9 34 3f 4a e6 fa 3e be 56 43 3f
       0.51666296 0.7059592 0.49003822 0.76304233
000010 b8 12 01 3f 36 62 01 3f 74 89 df 3e a0 5e 2b 3f
       0.5041919 0.50540483 0.43659556 0.6694126
000020 20 34 2c 3f c1 27 f8 3e 28 c3 06 3e e0 b0 eb 3e
       0.67267036 0.4846783 0.13160384 0.46033382
000030 ee 0d 12 3f de f7 05 3f 66 5e b1 3d 42 b7 00 3f
       0.57052505 0.5233134 0.08660583 0.5027963
000040 56 ff f9 3e 78 d9 26 3f 14 0d 31 3f 58 ee 3f 3f
       0.48827618 0.6517558 0.6916058 0.7497306
000050 f4 8c ee 3e 40 fb fe 3e ee 0b bb 3e 38 40 f7 3e
       0.46591914 0.49801064 0.3653254 0.48291183
000060 d2 5b b7 3d 44 58 44 3f ba a2 03 3f a8 6c ef 3e
       0.0895306 0.7669718 0.51420176 0.46762586
000070 ce c0 19 3f e4 6c 66 3f 6f f2 f9 3e b0 34 5c 3f
       0.6005982 0.90009904 0.48817775 0.86017895
000080 00 d3 02 3f 98 a2 4b 3f cc c4 3e 3f 56 8a 26 3f
       0.5110321 0.79544973 0.7451904 0.65054834
000090 b0 19 69 3f 70 af 39 3f 4a fb 3a 3f 66 b3 e2 3e
       0.9105482 0.7253332 0.73039687 0.44277495
0000a0 7c 43 a9 3d d4 b4 b4 3e 6a ac 2d 3f 68 c5 4d 3f
       0.08264825 0.3529421 0.6784121 0.80379343
0000b0 c4 62 21 3f 4c 11 de 3e bc f9 e9 3e 66 ee 40 3f
       0.6304133 0.4337257 0.45698345 0.7536377
0000c0 8c 68 aa 3e 08 a5 3a 3f 1c f2 48 3f 80 02 c8 3e
       0.33282888 0.7290807 0.7849443 0.39064407
0000d0 0c 51 03 3f 00 94 4b 3f e2 ba e0 3e 0a c0 2d 3f
       0.5129554 0.79522705 0.4389258 0.67871153
0000e0 78 5b d6 3e 20 02 1f 3f 78 9a d1 3e d4 1f 1b 3f
       0.4186666 0.6211262 0.40938163 0.6059544
0000f0 44 2f 24 3f bc 05 2d 3f 52 eb 1c 3f e2 23 15 3f
       0.6413462 0.67586875 0.6129657 0.5825788
000100 94 2d 38 3f 30 a1 d4 3e b8 b5 0b 3f 76 10 e5 3e
       0.71944547 0.41529226 0.54574156 0.4473912
000110 6c b5 90 3d 83 2b eb 3e fe 66 f4 3e 04 91 ef 3e
       0.070658535 0.45931634 0.47734827 0.46790326
000120 48 a7 13 3f e4 0c 51 3f 78 9c f0 3e 56 02 50 3f
       0.57677126 0.81660295 0.46994376 0.81253564
000130 1e 94 2c 3f fa 02 e4 3e 74 a9 ef 3e 86 38 bf 3e
       0.6741351 0.4453352 0.4680897 0.3734781
000140 86 dd c6 3e 44 03 04 3f fc 38 1d 3f 5c 92 ff 3e
       0.38840884 0.5156748 0.61415076 0.4991635
