experiments/exp015/checkpoint.pth (torch, 802978 bytes, 21 tensors)

quant.activation_post_process.histogram f4 [2048]
00000000: 8066 4948 0000 0000 0000 0000 0000 0000
00000010: 0000 0000 0000 0000 0000 0000 0000 0000
00000020: 0000 0000 0000 0000 0000 0000 0000 0000
00000030: 0000 0000 0000 0000 0000 0000 0000 0000
00000040: 0000 0000 0000 0000 0000 0000 0000 0000
00000050: 0000 0000 0000 0000 0000 0000 0000 0000
00000060: 0000 0000 0000 0000 0000 0000 0000 0000
00000070: 0000 0000 0000 0000 0000 0000 0000 0000
00000080: 0000 0000 0000 0000 0000 0000 0000 0000
00000090: 0000 0000 0000 0000 0000 0000 0000 0000
000000a0: 0000 0000 0000 0000 0000 0000 0000 0000
000000b0: 0000 0000 0000 0000 0000 0000 0000 0000
000000c0: 0000 0000 0000 0000 0000 0000 0000 0000
000000d0: 0000 0000 0000 0000 0000 0000 0000 0000
000000e0: 0000 0000 0000 0000 0000 0000 0000 0000
000000f0: 0000 0000 0000 0000 0000 0000 0000 0000
00000100: 0000 0000 0000 0000 0000 0000 0000 0000
00000110: 0000 0000 0000 0000 0000 0000 0000 0000
00000120: 0000 0000 0000 0000 0000 0000 0000 0000
00000130: 0000 0000 0000 0000 0000 0000 0000 0000
00000140: 0000 0000 0000 0000 0000 0000 0000 0000
00000150: 0000 0000 0000 0000 0000 0000 0000 0000
00000160: 0000 0000 0000 0000 0000 0000 0000 0000
00000170: 0000 0000 0000 0000 0000 0000 0000 0000
00000180: 0000 0000 0000 0000 0000 0000 0000 0000
00000190: 0000 0000 0000 0000 0000 0000 0000 0000
000001a0: 0000 0000 0000 0000 0000 0000 0000 0000
000001b0: 0000 0000 0000 0000 0000 0000 0000 0000
000001c0: 0000 0000 0000 0000 0000 0000 0000 0000
000001d0: 0000 0000 0000 0000 0000 0000 0000 0000
000001e0: 0000 0000 0000 0000 0000 0000 0000 0000
000001f0: 0000 0000 0000 0000 0000 0000 0000 0000
00000200: 0000 0000 0000 0000 0000 0000 0000 0000
00000210: 0000 0000 0000 0000 0000 0000 0000 0000
00000220: 0000 0000 0000 0000 0000 0000 0000 0000
00000230: 0000 0000 0000 0000 0000 0000 0000 0000
00000240: 0000 0000 0000 0000 0000 0000 0000 0000
00000250: 0000 0000 0000 0000 0000 0000 0000 0000
00000260: 0000 0000 0000 0000 0000 0000 0000 0000
00000270: 30e1 db45 00f6 5644 0000 0000 0000 0000
00000280: 0000 0000 0000 0000 0000 0000 0000 0000
00000290: 0000 0000 0000 0000 0000 0000 0000 0000
000002a0: 0000 0000 0000 0000 0000 0000 0000 0000
000002b0: 0000 0000 0000 0000 0000 0000 0000 0000
000002c0: 0000 0000 0000 0000 0000 0000 0000 0000
000002d0: 0000 0000 0000 0000 0000 0000 0000 0000
000002e0: 0000 0000 0000 0000 0000 0000 0000 0000
000002f0: 0000 0000 0000 0000 0000 0000 0000 0000
00000300: 0000 0000 0000 0000 0000 0000 0000 0000
00000310: 0000 0000 0000 0000 0000 0000 0000 0000
00000320: 0000 0000 0000 0000 0000 0000 0000 0000
00000330: 0000 0000 0000 0000 0000 0000 0000 0000
00000340: 0000 0000 0000 0000 0000 0000 0000 0000
00000350: 0000 0000 0000 0000 0000 0000 0000 0000
00000360: 0000 0000 0000 0000 0000 0000 0000 0000
00000370: 0000 0000 0000 0000 0000 0000 0000 0000
00000380: 0000 0000 0000 0000 0000 0000 0000 0000
00000390: 0000 0000 0000 0000 0000 0000 0000 0000
000003a0: 0000 0000 0000 0000 0000 0000 0000 0000
000003b0: 0000 0000 0000 0000 0000 0000 0000 0000
000003c0: 0000 0000 0000 0000 0000 0000 0000 0000
000003d0: 0000 0000 0000 0000 0000 0000 0000 0000
000003e0: 0000 0000 0000 0000 0000 0000 0000 0000
000003f0: 0000 0000 0000 0000 0000 0000 0000 0000
206234.0 0.0 0.0 0.0 0.0 0.0 0.0 0.0
0.0 0.0 0.0 0.0 0.0 0.0 0.0 0.0
0.0 0.0 0.0 0.0 0.0 0.0 0.0 0.0
0.0 0.0 0.0 0.0 0.0 0.0 0.0 0.0
0.0 0.0 0.0 0.0 0.0 0.0 0.0 0.0
0.0 0.0 0.0 0.0 0.0 0.0 0.0 0.0
0.0 0.0 0.0 0.0 0.0 0.0 0.0 0.0
0.0 0.0 0.0 0.0 0.0 0.0 0.0 0.0
0.0 0.0 0.0 0.0 0.0 0.0 0.0 0.0
0.0 0.0 0.0 0.0 0.0 0.0 0.0 0.0
0.0 0.0 0.0 0.0 0.0 0.0 0.0 0.0
0.0 0.0 0.0 0.0 0.0 0.0 0.0 0.0
0.0 0.0 0.0 0.0 0.0 0.0 0.0 0.0
0.0 0.0 0.0 0.0 0.0 0.0 0.0 0.0
0.0 0.0 0.0 0.0 0.0 0.0 0.0 0.0
0.0 0.0 0.0 0.0 0.0 0.0 0.0 0.0
0.0 0.0 0.0 0.0 0.0 0.0 0.0 0.0
0.0 0.0 0.0 0.0 0.0 0.0 0.0 0.0
0.0 0.0 0.0 0.0 0.0 0.0 0.0 0.0
0.0 0.0 0.0 0.0 7036.1484 859.84375 0.0 0.0
0.0 0.0 0.0 0.0 0.0 0.0 0.0 0.0
0.0 0.0 0.0 0.0 0.0 0.0 0.0 0.0
0.0 0.0 0.0 0.0 0.0 0.0 0.0 0.0
0.0 0.0 0.0 0.0 0.0 0.0 0.0 0.0
0.0 0.0 0.0 0.0 0.0 0.0 0.0 0.0
0.0 0.0 0.0 0.0 0.0 0.0 0.0 0.0
0.0 0.0 0.0 0.0 0.0 0.0 0.0 0.0
0.0 0.0 0.0 0.0 0.0 0.0 0.0 0.0
0.0 0.0 0.0 0.0 0.0 0.0 0.0 0.0
0.0 0.0 0.0 0.0 0.0 0.0 0.0 0.0
0.0 0.0 0.0 0.0 0.0 0.0 0.0 0.0
0.0 0.0 0.0 0.0 0.0 0.0 0.0 0.0

conv1.weight f4 [6, 2, 5, 5]
00000000: 276d e3bc 86da 91bd ced8 f23b aa88 25be
00000010: 7657 edbd f64a 1fbe 2f43 4dbe ab99 6cbe
00000020: c90a 4bbe e063 c33c 3b8c 80be a208 06be
00000030: 9995 a9be 045a 12be 9ee8 e93d f48a 1cbe
00000040: 5554 8abe 5039 98be 2cd3 c63d 55d9 c03d
00000050: f427 1dbe bfd2 68be 5e9a 73bd ef21 253e
00000060: 70b8 673d 475f 683e c7a2 613d f73c 11bc
00000070: 933e 84bd 14c0 9c3d aae2 463e 55ec 3b3e
00000080: f540 bd3d e56c 363e 5384 163e f60b 2c3e
00000090: b1e9 723e 75ce 1d3e ce68 1d3e 2952 453e
000000a0: 6c34 a1bd a74a be3d b415 643e 59b7 b63d
000000b0: 2b2b 353e e3ae 993d 74b4 ca3d 8b07 513e
000000c0: bed9 023e fbb7 ec3d c797 223e 060a 233e
000000d0: fbf7 cb3c 89af 13be 886c 153d 78a7 143e
000000e0: 01e0 723e 5698 ab3c f5de 82be 36c7 9cbd
000000f0: c25f 353e 4dbe 6f3e 0989 4dbe f9da 61be
00000100: 8c0c 65be 82cd 323e c171 683e fd10 5dbd
00000110: e49e a5bd 6c59 0cbe bc47 513e e64b a13d
00000120: fade 133e 6df8 bbbc 85c0 d6bd c466 09be
00000130: 271b 4bbe f0a4 48be 75f5 5ebd dd63 2fbe
00000140: 01f3 3abe 811d 973c ef76 db3c e051 c4bc
00000150: 444c 12be 78e0 81bc b967 903d abf4 033e
00000160: d5ce cc3c 6209 e2bd 12c9 82bd f618 9abd
00000170: f0d4 903d 4fd6 cc3d dd39 cebc 6a33 5abd
00000180: a33c 3d3c d719 1f3c a292 023e a2c5 1a3e
00000190: 1d5b 4fbb 698f 62bd 4627 bfbd f1b6 94be
000001a0: 29d5 013e ad48 6cbd a222 54be 255f 77be
000001b0: 9ccb 353e c8b8 823e ceb9 91bd 1f36 a53d
000001c0: d1f7 5f3e 59d1 3d3e a7e0 583e cf5e 45bd
000001d0: 8fd8 003d 3626 453d 25d3 343e c185 6fbd
000001e0: 7603 b33c 934c a63d a037 17b7 bcd4 1b3d
000001f0: 23c7 853e d878 e0bd 3373 e33d a763 ac3d
00000200: f371 303d 0b8f 173e a1d0 6c3c c2a0 1a3e
00000210: f454 353e e604 12be eb92 efbd a750 103e
00000220: 9256 843e 01f7 50bd b7fd 94be 4bbb 87be
00000230: 0dfc 863e 278a 02be 0b18 aabe d881 83be
00000240: 32d9 a13c 3dd1 36bd 6ae4 79be f43e 30be
00000250: b97c 433d b3c7 1d3e 611f 613d ce22 e53d
00000260: 089a 25be d4ed 87be 4fa3 e3bd 839d e4bd
00000270: ebbe 0a3e 2493 433e 784b 85be f49b 0bbe
00000280: cff6 f43d 58a8 683e 9157 f03e f844 933e
00000290: d622 89bd 06b6 4fbe c261 033e 1ecb 903e
000002a0: 6519 843d 6ae7 b4bd be58 2fbe c890 d8be
000002b0: da48 50be e060 d13d 22d7 e9bd 9c77 a5bd
000002c0: 7d45 ccbd 8cf3 8abd 97d0 833d 82a6 8bbd
000002d0: 2fdd 3c3c d142 573d 6577 df3d bc4b 193e
000002e0: 3afb 5f3e 6f39 f23d 8ee2 293e 4a69 333d
000002f0: 345d a53d 998a 493e 6925 f03d eb15 073d
00000300: ad37 7abe 33a4 82be 03ed 813e 4597 1c3c
00000310: 6747 c33c a57a b03d e50e 60be 0081 893d
00000320: c741 e53d a55a a7bd fabf d53c fe39 a03d
00000330: 2f0c 2abe 43a2 0cbc 1413 a6bd f0aa 993c
00000340: 7d3e 9c3c a7b2 293d 6c59 17bb c79d 0abe
00000350: 1801 333d 23bc 673d 9fc0 1c3e 9d5c 423e
00000360: 9e2c 8e3e be22 1b3e cd64 a43e edd2 653e
00000370: e86f 613e 433f 613e 41ef 533e a87a c8bb
00000380: bb3b 6b3d f38b 44be db24 b1be 7682 70be
00000390: a97f 99bd 667f 033e 44e6 f1bd 5b39 a5bd
000003a0: 48da 893d cb6b 37bd 9edd 0f3e bf30 263d
000003b0: 9dc4 68be 36c4 18be 6d95 07be f2c8 403e
000003c0: ca66 eabd cd0e 9fbe 1324 07be f3a7 3dbe
000003d0: 6a85 3d3e d6ea 19be 4aa9 01be c91c ccbd
000003e0: 8db7 f8bd 652d 2d3e 42ab 6d3c 3663 12be
000003f0: f5b0 92bc eede ce3c 140f 0c3e a308 f13d
-0.027762009 -0.07121758 0.007411099 -0.16165414 -0.115889475 -0.15555939 -0.2004516 -0.23105495
-0.19828333 0.023851335 -0.25106987 -0.1308923 -0.33121946 -0.1429215 0.11421321 -0.15287381
-0.27017465 -0.29731226 0.097082466 0.09416453 -0.15347272 -0.22736643 -0.059473388 0.16126226
0.056572378 0.22692595 0.055086877 -0.008864633 -0.064572476 0.076538235 0.19422403 0.18351872
0.09240905 0.17814977 0.14698915 0.16801438 0.23721959 0.15410788 0.15372011 0.19269623
-0.07871327 0.092915826 0.22273904 0.089216895 0.17692249 0.0750406 0.098977 0.20413034
0.12778375 0.11558529 0.15878211 0.15921792 0.02489852 -0.1442243 0.036480457 0.1451701
0.23718263 0.020946663 -0.25560728 -0.07655184 0.1771231 0.23412438 -0.20071806 -0.22056188
-0.22368068 0.17461208 0.22699644 -0.05397128 -0.080869466 -0.13705987 0.2043752 0.078758046
0.14440528 -0.022945607 -0.10485939 -0.13418108 -0.19834577 -0.19594169 -0.054433305 -0.17127939
-0.18256761 0.018446686 0.02679011 -0.023964822 -0.14286906 -0.015854105 0.070510335 0.12886302
0.025000969 -0.11036946 -0.06386007 -0.07524292 0.070718646 0.100018136 -0.025174076 -0.05327169
0.011550101 0.009710751 0.12751248 0.15114453 -0.003164 -0.055312548 -0.09333663 -0.29045823
0.1267897 -0.057686497 -0.20716336 -0.24157389 0.17753452 0.25531602 -0.071155176 0.080669634
0.21871878 0.18536891 0.21179448 -0.04818612 0.031456526 0.048132144 0.1765867 -0.058477167
0.021852236 0.08120074 -9.013253e-06 0.038044676 0.26128492 -0.10960549 0.11105957 0.08417445
0.04307742 0.1480066 0.014454038 0.15100387 0.17708188 -0.14259681 -0.11697944 0.14093266
0.25847298 -0.05101681 -0.2909982 -0.2651008 0.26364174 -0.12748013 -0.33221468 -0.25685
0.019756887 -0.04463314 -0.2440354 -0.17211515 0.047726367 0.1540821 0.054961566 0.11188279
-0.1617204 -0.26548636 -0.11115133 -0.111628555 0.13549392 0.19099098 -0.2603414 -0.1363371
0.119611375 0.22720468 0.46941808 0.28763556 -0.066960976 -0.2028428 0.1283026 0.28279966
0.06450156 -0.08833201 -0.17123696 -0.4229796 -0.2034029 0.102235556 -0.114179865 -0.08079454
-0.09974191 -0.06784734 0.0643627 -0.06818868 0.011527344 0.052553955 0.109114446 0.14970297
0.21873179 0.11827361 0.1659033 0.043801583 0.08074418 0.19681777 0.117258854 0.032979887
-0.24435301 -0.255159 0.25376138 0.00955755 0.023837758 0.086171426 -0.21880682 0.06714058
0.11194187 -0.08171586 0.026092518 0.07823561 -0.1660621 -0.008583608 -0.081091076 0.018758267
0.019072765 0.04143014 -0.002309407 -0.1353675 0.043702215 0.056575906 0.15307854 0.18980642
0.27768415 0.15149972 0.32108155 0.22443743 0.22015345 0.21996789 0.20696737 -0.0061181374
0.05743001 -0.19194011 -0.3459843 -0.23487267 -0.07495052 0.12841567 -0.11811498 -0.0806758
0.06731087 -0.044780534 0.14049384 0.04057383 -0.22731252 -0.14918599 -0.13240595 0.18826655
-0.11445387 -0.3106598 -0.13197355 -0.18521099 0.18507925 -0.15030989 -0.12662235 -0.09966428
-0.121443845 0.16911848 0.014506163 -0.14295658 -0.017906645 0.025252786 0.13677627 0.117692254

conv1.activation_post_process.histogram f4 [2048]
00000000: 0000 803f 0000 0000 0000 0000 0000 0000
00000010: 0000 0000 0000 0000 0000 0000 0000 0000
00000020: 0000 0000 0000 0000 0000 0000 0000 0000
00000030: 0000 0000 0000 0000 0000 0000 0000 0000
00000040: 0000 0000 0000 0000 0000 0000 0000 0000
00000050: 0000 0000 0000 0000 0000 b03d 0000 6a3f
00000060: 0000 0000 0000 0000 0000 0000 0000 0000
00000070: 0000 0000 0000 0000 0000 0000 0000 0000
00000080: 0000 0000 0000 0000 0000 0000 0000 0000
00000090: 0000 0000 0000 0000 0000 0000 0000 0000
000000a0: 0000 0000 0000 0000 0000 0000 0000 0000
000000b0: 0000 0000 0000 0000 0000 0000 0000 0000
000000c0: 20de 623f b0eb 813f 0023 c93d 0080 183a
000000d0: 0000 0000 0000 0000 0000 0000 0000 0000
000000e0: 0000 0000 0000 0000 0000 0000 0000 0000
000000f0: 0000 0000 0000 0000 0000 0000 0000 0000
00000100: 0000 0000 0000 0000 0000 0000 0000 0000
00000110: 0000 0000 0000 0000 a630 723a e1c6 573d
00000120: 9133 dc3e d219 6a3f 6e5c 0d3f 706f 4b3d
00000130: 0000 80b3 0000 80b3 0000 80b3 0000 80b3
00000140: 0000 80b3 0000 80b3 0000 80b3 0000 80b3
00000150: dd91 fd38 6243 963b 7460 483d f0f7 543e
00000160: 222c c13e fe39 933e d2a3 963d 0090 3934
00000170: 0030 6234 0068 8534 0090 4cb4 00f0 23b4
00000180: 00a0 f6b3 0060 a5b3 0040 28b3 0000 b8b0
00000190: 00c0 1c33 00a0 9f33 00e0 f033 0010 2134
000001a0: 00b0 4934 0050 7234 0078 8d34 0070 3cb4
000001b0: 00d0 13b4 0060 d6b3 0020 85b3 0080 cfb2
000001c0: 0000 6b32 0040 5d33 00e0 bf33 0090 0834
000001d0: 0030 3134 00d0 5934 0038 8134 00f0 54b4
000001e0: 0050 2cb4 00b0 03b4 0020 b6b3 00c0 49b3
000001f0: 0000 1db2 0080 f632 00e0 8e33 0020 e033
00000200: 00b0 1834 d3db 3f3b e434 4a3d b1d7 593e
00000210: 6f5e 943f 1fc2 ed3e 1cf0 c33d c284 753c
00000220: f28c 533a 0000 803f e0ec adb4 e032 fab4
00000230: f013 55b5 0000 803f f7c7 e23e fa5f 0b3f
00000240: 43fd 4e3c c094 7c34 0061 5eb3 8046 d6b3
00000250: 2006 bfb4 a029 d0b4 107e 24b5 6082 ae34
00000260: 8047 a133 a08d b9b4 108e 1bb5 009a 85b2
00000270: 408c 7ab4 d0f0 1eb5 c0a7 2b34 73f9 8f3f
00000280: 1a0b 053f 04ab 9f3e 2617 c23d 2d5d 553e
00000290: e31a b03e 93b3 883e c29a d83d 64f6 b03c
000002a0: a7e0 0a3b 8d4a a138 370e 473e 40f6 ea3e
000002b0: 8485 8e3e c33d df3d 51bd a43e 989f e33e
000002c0: a5cb 663e 8122 7c3e 6f52 c23e 19c4 863e
000002d0: 94d8 8f3d 0535 033c cdb9 c939 e000 d136
000002e0: 8836 9c3d a77d 103f 6518 ad3e 0239 ac3c
000002f0: 6b4f 5939 6510 323f 932a 9f3e 3b6d 4d3d
00000300: 3447 393e 2ada a63e 2cb6 a43e 0e2f 843e
00000310: 5b94 9f3e c79c 1a3f 35b2 473f 9035 1f3e
00000320: 3762 5f3f 6725 083e 1650 133c 5eca 103e
00000330: 99e8 e83e fef9 bf3e bba6 ba3c 8dc8 543d
00000340: ed19 893e c852 ea3e 8bef 623e 8768 d93d
00000350: 5a96 0c3f cd16 b03e 1a61 1d3c 5f01 363d
00000360: ec58 903f 005e 803e e3bd d03e bd64 1d3f
00000370: 9627 643f 3bcd ac3f 8329 733e 012f 6c3e
00000380: 919e 263f a9ce 613e 189d 7c3e 8937 383f
00000390: d06a a33f 1035 873f dcbd 943e 74a2 a33e
000003a0: 15f4 af3e c2f7 b03e 47c1 793e 35e8 fa3e
000003b0: 41f0 183f a2b5 063d d271 1b38 59fd 533d
000003c0: 7cd7 783e 9b08 c73e a239 813e febd 873f
000003d0: 934a 743b c4ff 293b 4ca5 ad3c f27e 3b3e
000003e0: 285b 7b3f 11c3 953f 7692 6c3f 7550 a13f
000003f0: f69e 5d3f c880 ef3e 31a8 2c3e 0bc5 913e
1.0 0.0 0.0 0.0 0.0 0.0 0.0 0.0
0.0 0.0 0.0 0.0 0.0 0.0 0.0 0.0
0.0 0.0 0.0 0.0 0.0 0.0 0.0859375 0.9140625
0.0 0.0 0.0 0.0 0.0 0.0 0.0 0.0
0.0 0.0 0.0 0.0 0.0 0.0 0.0 0.0
0.0 0.0 0.0 0.0 0.0 0.0 0.0 0.0
0.88620186 1.0150051 0.09821129 0.00058174133 0.0 0.0 0.0 0.0
0.0 0.0 0.0 0.0 0.0 0.0 0.0 0.0
0.0 0.0 0.0 0.0 0.0 0.0 0.00092388166 0.0526799
0.43008092 0.9144565 0.5521916 0.049666822 -5.9604645e-08 -5.9604645e-08 -5.9604645e-08 -5.9604645e-08
-5.9604645e-08 -5.9604645e-08 -5.9604645e-08 -5.9604645e-08 0.00012091149 0.0045856694 0.04892011 0.20797706
0.37728983 0.28755182 0.07355465 1.7281855e-07 2.1065352e-07 2.484885e-07 -1.9051367e-07 -1.526787e-07
-1.14843715e-07 -7.7008735e-08 -3.9173756e-08 -1.3387762e-09 3.6496203e-08 7.433118e-08 1.1216616e-07 1.5000114e-07
1.8783612e-07 2.256711e-07 2.6350608e-07 -1.754961e-07 -1.3766112e-07 -9.982614e-08 -6.199116e-08 -2.415618e-08
1.36788e-08 5.151378e-08 8.934876e-08 1.2718374e-07 1.6501872e-07 2.028537e-07 2.4068868e-07 -1.983135e-07
-1.6047852e-07 -1.2264354e-07 -8.480856e-08 -4.6973582e-08 -9.138603e-09 2.8696377e-08 6.6531356e-08 1.04366336e-07
1.4220132e-07 0.0029275313 0.049366847 0.21273686 1.1591319 0.46437165 0.095672816 0.014985265
0.0008070014 1.0 -3.239611e-07 -4.6603145e-07 -7.9377696e-07 1.0 0.44293186 0.54443324
0.0126336245 2.3523444e-07 -5.1776624e-08 -9.9779754e-08 -3.558098e-07 -3.8773305e-07 -6.1278206e-07 3.2504886e-07
7.5101525e-08 -3.456198e-07 -5.794873e-07 -1.5553269e-08 -2.3334087e-07 -5.9210015e-07 1.5986643e-07 1.1248001
0.51970065 0.31185162 0.094770715 0.20836325 0.34395513 0.26699504 0.10576393 0.021601863
0.0021191032 7.6909644e-05 0.19439016 0.45891 0.2783624 0.10900452 0.32175687 0.44457698
0.22538622 0.24622537 0.37953517 0.26321486 0.07023731 0.008008246 0.0003847614 6.2287872e-06
0.076275885 0.5644173 0.33807674 0.021023277 0.00020724318 0.69556266 0.3108717 0.050153
0.18093568 0.3258832 0.32170236 0.2581715 0.31167874 0.60395473 0.780063 0.15547776
0.8725924 0.13295518 0.008991262 0.14139697 0.45489958 0.37495416 0.022784581 0.051949073
0.26777592 0.45766282 0.22161691 0.1061564 0.5491692 0.34392396 0.00960567 0.0444349
1.1277137 0.25071716 0.40769872 0.6148184 0.89122903 1.3500131 0.23746304 0.23064806
0.65085703 0.22051491 0.24669302 0.7195974 1.2766972 1.0563068 0.290511 0.3195988
0.34365907 0.34564024 0.24390136 0.49005285 0.597416 0.032888062 3.7060883e-05 0.051755283
0.24300951 0.38873753 0.25239283 1.0604856 0.0037275895 0.0025939802 0.021196984 0.18310145
0.9818597 1.1700155 0.9241098 1.2602679 0.8657068 0.4677794 0.16861035 0.28470644

conv2.weight f4 [16, 6, 5, 5]
00000000: 78b4 a3bd eb03 5dbd 7fa6 3f3d 8284 dd3c
00000010: 45a4 103d 7746 08be b60c 2d3e 84c9 113e
00000020: 283b fc3c 0753 403b 2d44 c1bd 0024 fd3d
00000030: 4592 413e 4578 47bd 8de1 68bd 69ad 00be
00000040: 020b 683d cea0 333e 897e 023d 78fe cb3c
00000050: ff74 82bd 13c6 243d ae92 503e 5265 f03d
00000060: 0ffa 473d ba68 01be 6a77 3e3e 40c5 623e
00000070: 1c0a 953d 43e2 b7be 8621 e03d 4b10 503e
00000080: 65d6 2f3e d90f 01be d759 02be cf78 273d
00000090: bc36 5b3e 8c45 c93d e752 7cbd 6bc9 f73d
000000a0: 4782 83bc 67e8 0d3e 9bef 65bd 9669 4fbe
000000b0: e6c0 b43d 7ada 75bd 0d49 eebb 17e7 5ebe
000000c0: b707 84bb 330e 533d 6a97 243e 76ba b03d
000000d0: abe1 c5be adab 58be 0bb8 5a3e 28c7 9fbd
000000e0: 60b4 42be 75cc 2dbf 29e5 02bf 48c1 88bd
000000f0: 2648 3abd 5da0 45be 289e 16be 11d2 eebd
00000100: aafb 6fbc c041 1c3d a370 6ebd 40c0 71bd
00000110: b320 8a3c 60dc 373e 8870 babd e4c7 13be
00000120: e751 443c 26f8 c33d 1dfb 803d 471d 9cbe
00000130: 7ed6 a2be 1097 59bd e106 62be e723 0a3e
00000140: 3d84 92bd f94d fabc ca22 0bbe 7911 bdbe
00000150: 45a0 66be 1bf3 313d 9654 f03d 1256 953d
00000160: 2e0a 8cbd 8563 bfbd bb3b ac3d 92ff ab3d
00000170: 7071 9d3c eea8 bdbd b42b 8bbd 6192 3b3d
00000180: b648 08be ecf7 15be 21d3 4abe cc79 0b3c
00000190: dc8d b6bd d79e cb3b d3fb 913c 00f8 1f3e
000001a0: cdaf af3e 9732 ca3c 54ad 90bd 140f 65be
000001b0: c5f9 07bf 1fb1 0fbe 414b 1c3e b13f 163e
000001c0: 04d4 f3bc 6b97 7ebc a8a6 963d 8f6e b73c
000001d0: f75c 533b 8100 54be 09d3 18be 385a bcbd
000001e0: d4ed 5cbb 7416 e9bd ec1f 69bc b325 b13c
000001f0: c8e6 1b3e 51d6 8ebe 6024 94be fc0d 33be
00000200: 76fc 4bbe 2334 42bd 3bfb 6fbe 66bd b1bc
00000210: 15d6 80bd 007c b8be 0518 9cbe 5e45 22bb
00000220: c52b 103e df5d e53d e322 893d 5ab4 7abd
00000230: fe07 07be e481 dbbd 9651 0dbe 8868 9dbd
00000240: e7de dfbd bfe1 b8bd 881e b2bd 69c7 dabc
00000250: b626 c7bd cb8d 18be 7b99 323d aa6c 413d
00000260: f614 88bd 1da1 5bbd b4da 18be 2739 263c
00000270: 71cc cb3b 4c17 70bd 4362 743c 4c04 8abc
00000280: da6e 763d fe6f 8f3d ed44 483d e86c 8c3a
00000290: eee7 07be 0c39 133e b97d 2a3e 6ec5 0bbd
000002a0: 2cd7 1bbe 1478 87be 4009 313d 3252 32bb
000002b0: 64d7 2dbe f684 63bc 75f5 8cbd 141a a8bd
000002c0: fd6a f23c db3d 133e 45f8 5f3e 18ac 5e3d
000002d0: 521a 3bbe d511 183b b509 60bd 8216 14be
000002e0: f363 03bd 694c 85be 251c 65be 6b6e 8bbe
000002f0: d31d 85bd 90f3 3e3e 754f a8be cbde c5be
00000300: 6a6c dcbd 7ed3 b83d ffad 283e 922a e4be
00000310: c126 98bd 6c0a d63d 7261 073e 2979 11bd
00000320: d255 f7bd 9072 073d a31d 17be f428 4abe
00000330: a6e6 debc 6767 82bd 63a9 e9bd da8a 39be
00000340: 989a a23d 9c38 2f3c 0704 34bd 201c 2abe
00000350: cf7f 103e cf2d 323e 6450 bc3d 78ed 9abd
00000360: b606 223e 338a 343e 99a9 e43b b405 f5bd
00000370: 930d e63d 5f18 813d 92d2 20bd 2834 5ebd
00000380: 6f4a a0bb 40dc 703d f088 0a3e e965 253e
00000390: f43f 2b3e 1d79 483c 2bb5 733d e048 b83d
000003a0: d73f 223e 464c 0a3d c2f2 4e3d 23d5 8f3d
000003b0: b393 063d 0784 ffbc 39f0 8a3d 3cd7 3a3e
000003c0: 15e9 2a3e 9287 8c3d 335c 733d fb1f c4bc
000003d0: 32de f03d 8e9b 953d 20f8 973c da04 8c3c
000003e0: 551e adbd c036 b53d 689f b6bc 5568 a5bc
000003f0: b11a f7bd b2f2 09be 77a8 d7bd d551 08be
-0.07993406 -0.053958815 0.046789642 0.027040724 0.03531291 -0.1330813 0.1689938 0.14237028
0.030789927 0.0029346363 -0.094368316 0.12360382 0.18903454 -0.048698682 -0.056855727 -0.1256615
0.056651123 0.17541811 0.031858955 0.024901614 -0.063699715 0.04022796 0.20368454 0.11738075
0.04882246 -0.12637606 0.1860024 0.22145557 0.07277319 -0.35914811 0.10943894 0.20318715
0.17171629 -0.12603702 -0.12729584 0.040886696 0.21407598 0.09827718 -0.0616025 0.12098964
-0.016053332 0.13858186 -0.05613671 -0.20255122 0.08825855 -0.06002281 -0.007271892 -0.21767841
-0.00402924 0.051527213 0.16073385 0.086293146 -0.38648733 -0.21159239 0.2135927 -0.07801658
-0.1901412 -0.678901 -0.5113092 -0.066774905 -0.045478962 -0.19299455 -0.1470877 -0.11661161
-0.014647404 0.03814864 -0.058212887 -0.059021235 0.016861295 0.1795516 -0.09103495 -0.14431721
0.011982418 0.09568815 0.06297896 -0.30491087 -0.3180427 -0.05312258 -0.22072937 0.13490258
-0.07154129 -0.030554758 -0.1358749 -0.36927393 -0.22522075 0.043444734 0.117348835 0.07291807
-0.06837879 -0.09345154 0.0840983 0.083983555 0.01921913 -0.092607364 -0.06795445 0.045793895
-0.13308987 -0.14645356 -0.19807102 0.008512925 -0.08913776 0.0062140035 0.017820274 0.15621948
0.34313813 0.024682326 -0.0706431 -0.22369033 -0.53115493 -0.1403241 0.15263082 0.14672734
-0.029764183 -0.015539031 0.07356006 0.022391586 0.0032251456 -0.20703317 -0.14924254 -0.09196895
-0.0033711093 -0.11381236 -0.014228802 0.021624422 0.15224755 -0.27897885 -0.28934002 -0.17485803
-0.19920525 -0.047413003 -0.2343568 -0.021696758 -0.06290833 -0.36032104 -0.30487075 -0.0024760584
0.14079197 0.11199545 0.06696107 -0.061207153 -0.13186643 -0.10718134 -0.13800654 -0.076859534
-0.10931187 -0.09027433 -0.086972296 -0.026706414 -0.097241804 -0.1489784 0.0436034 0.04722277
-0.06644623 -0.053620446 -0.14927179 0.010145462 0.0062194397 -0.058615968 0.014916006 -0.016847752
0.06016431 0.07003783 0.048893858 0.0010713609 -0.13272068 0.1437723 0.16649522 -0.03412383
-0.152188 -0.264588 0.043221712 -0.0027209637 -0.16976696 -0.013886681 -0.06882755 -0.08208099
0.029592032 0.14379065 0.21872051 0.05436334 -0.18271759 0.0023203988 -0.054696757 -0.14461711
-0.03207774 -0.2603486 -0.22374018 -0.2723268 -0.06499829 0.18647599 -0.3287312 -0.3864654
-0.10762866 0.09024714 0.16472624 -0.4456373 -0.07429267 0.104512066 0.13220766 -0.035515938
-0.12076916 0.03306824 -0.147574 -0.19742185 -0.027209591 -0.06367379 -0.11409261 -0.18119374
0.07939643 0.010694649 -0.043949153 -0.16612291 0.14111255 0.17400287 0.09195021 -0.07564825
0.15822873 0.17630844 0.0069782254 -0.119639784 0.11233058 0.063034765 -0.039263315 -0.05424896
-0.0048916857 0.058803797 0.135288 0.16152157 0.16723615 0.012235907 0.059498947 0.08998275
0.15844665 0.033764146 0.05052448 0.070230745 0.0328557 -0.031190885 0.067841 0.18246168
0.16690476 0.068617955 0.0594141 -0.02394103 0.117611304 0.0730506 0.018550932 0.017092157
-0.08453051 0.08848333 -0.022292808 -0.020191351 -0.12065638 -0.13471487 -0.10530179 -0.13312466

conv2.activation_post_process.histogram f4 [2048]
00000000: 0000 803f 0000 0000 0000 0000 0000 0000
00000010: 0000 0000 0000 0000 0000 0000 0000 0000
00000020: 0000 0000 0000 0000 0000 0000 0000 0000
00000030: 0000 0000 0000 0000 0000 0000 0000 0000
00000040: 0000 0000 0000 0000 0000 0000 0000 0000
00000050: 0000 0000 0000 0000 0000 0000 0000 0000
00000060: 0000 0000 0000 0000 0000 0000 0000 0000
00000070: 0000 0000 0000 0000 0000 0000 0000 0000
00000080: 0000 0000 0000 0000 0000 0000 0000 0000
00000090: 0000 0000 0000 0000 0000 0000 0000 0000
000000a0: 0000 0000 0000 0000 0000 0000 0000 0000
000000b0: 0000 0000 0000 0000 0000 0000 0000 0000
000000c0: 0000 0000 0000 ac3e 0000 2a3f 0000 0000
000000d0: 0000 0000 0000 0000 0000 0000 0000 0000
000000e0: 0000 0000 0000 0000 0000 0000 0000 0000
000000f0: 0000 0000 0000 0000 0000 0000 0000 0000
00000100: 0000 0000 0000 0000 0000 0000 0000 0000
00000110: 0000 0000 0000 0000 0000 0000 0000 0000
00000120: 0000 0000 0000 0000 0000 0000 0000 0000
00000130: 0000 0000 0000 0000 0000 0000 0000 0000
00000140: 0000 0000 0000 0000 0000 0000 0000 0000
00000150: 0000 0000 0000 0000 0000 0000 0000 0000
00000160: 0000 0000 0000 0000 0000 0000 0000 0000
00000170: 0000 0000 0000 0000 0000 0000 0000 0000
00000180: 0000 0000 0000 0000 0000 0000 0000 0000
00000190: 0000 0000 0000 0000 0000 0000 0000 0000
000001a0: 0000 0000 0000 0000 0000 0000 0000 0000
000001b0: 0000 0000 0000 0000 0000 0000 0000 0000
000001c0: 0000 0000 0000 0000 0000 0000 0000 0000
000001d0: 00c0 b23e 00c0 0c3f 0000 cf3d 0000 0000
000001e0: 0000 0000 0000 0000 0000 0000 0000 0000
000001f0: 0000 0000 0000 0000 008d 953d 204a d73e
00000200: 803f dc3e 804c 9c3d 0000 0000 0000 0000
00000210: 0000 0000 27e4 253e dae9 e13e ad75 a83e
00000220: a0b9 8a3d 0000 0000 0000 0000 0000 0000
00000230: 0000 0000 0000 0000 0000 0000 0000 0000
00000240: 0000 0000 0000 0000 0000 0000 0000 0000
00000250: 0000 0000 0000 0000 0000 0000 0000 0000
00000260: 0000 0000 0000 0000 0000 0000 0000 0000
00000270: 0000 0000 0000 0000 0000 0000 0000 0000
00000280: 0000 0000 0000 0000 0000 0000 c28b 573e
00000290: b18d ee3e f31e 8b3e 2019 4c3d f02c 053b
000002a0: 0000 44b4 0000 44b4 0000 44b4 0000 44b4
000002b0: 0000 44b4 0000 44b4 0000 44b4 0000 44b4
000002c0: 0000 44b4 0000 44b4 0000 44b4 0000 44b4
000002d0: 0000 44b4 0000 44b4 0000 44b4 0000 44b4
000002e0: 0000 44b4 0000 44b4 0000 44b4 0000 44b4
000002f0: c8b9 f33b 8813 043e 2728 083f 6cbc 963e
00000300: 7fd4 183d 0000 80b1 0000 80b1 0000 80b1
00000310: 0000 80b1 0000 80b1 0000 80b1 0000 80b1
00000320: 0000 80b1 0000 80b1 0000 80b1 0000 80b1
00000330: 0000 80b1 0000 80b1 0000 80b1 0000 80b1
00000340: 0000 80b1 ff13 0b3d b0ea 8d3e e007 fc3e
00000350: e055 493e 0000 80b1 0000 80b1 0000 80b1
00000360: 0000 80b1 0000 80b1 0000 80b1 0000 80b1
00000370: 0000 80b1 0000 80b1 0000 80b1 0000 80b1
00000380: 0000 80b1 fe8b af3c 36b6 473e 4bcb e83e
00000390: 3e45 9e3e feb8 a13c 0000 80b1 0000 80b1
000003a0: 0000 80b1 0000 80b1 0000 80b1 0000 80b1
000003b0: 795e 1b3b 240b 073d b972 1d3e facf a33e
000003c0: c444 a33e 0813 153e 671e cf3c 597d 9e3a
000003d0: 003d 9034 e09c 5135 0044 1433 005b e7b3
000003e0: 0090 b7b3 0083 d933 80f7 f234 10f8 8135
000003f0: 00d8 4833 0061 c5b3 00e6 8db3 806e 0534
1.0 0.0 0.0 0.0 0.0 0.0 0.0 0.0
0.0 0.0 0.0 0.0 0.0 0.0 0.0 0.0
0.0 0.0 0.0 0.0 0.0 0.0 0.0 0.0
0.0 0.0 0.0 0.0 0.0 0.0 0.0 0.0
0.0 0.0 0.0 0.0 0.0 0.0 0.0 0.0
0.0 0.0 0.0 0.0 0.0 0.0 0.0 0.0
0.0 0.3359375 0.6640625 0.0 0.0 0.0 0.0 0.0
0.0 0.0 0.0 0.0 0.0 0.0 0.0 0.0
0.0 0.0 0.0 0.0 0.0 0.0 0.0 0.0
0.0 0.0 0.0 0.0 0.0 0.0 0.0 0.0
0.0 0.0 0.0 0.0 0.0 0.0 0.0 0.0
0.0 0.0 0.0 0.0 0.0 0.0 0.0 0.0
0.0 0.0 0.0 0.0 0.0 0.0 0.0 0.0
0.0 0.0 0.0 0.0 0.0 0.0 0.0 0.0
0.0 0.0 0.0 0.0 0.3491211 0.5498047 0.10107422 0.0
0.0 0.0 0.0 0.0 0.0 0.0 0.07302284 0.4204874
0.43017197 0.07631779 0.0 0.0 0.0 0.16200314 0.44123727 0.3290228
0.067736864 0.0 0.0 0.0 0.0 0.0 0.0 0.0
0.0 0.0 0.0 0.0 0.0 0.0 0.0 0.0
0.0 0.0 0.0 0.0 0.0 0.0 0.0 0.0
0.0 0.0 0.0 0.21049407 0.46592477 0.2717205 0.04982865 0.0020320974
-1.8253922e-07 -1.8253922e-07 -1.8253922e-07 -1.8253922e-07 -1.8253922e-07 -1.8253922e-07 -1.8253922e-07 -1.8253922e-07
-1.8253922e-07 -1.8253922e-07 -1.8253922e-07 -1.8253922e-07 -1.8253922e-07 -1.8253922e-07 -1.8253922e-07 -1.8253922e-07
-1.8253922e-07 -1.8253922e-07 -1.8253922e-07 -1.8253922e-07 0.0074379183 0.12898076 0.5318627 0.2944063
0.037312027 -3.7252903e-09 -3.7252903e-09 -3.7252903e-09 -3.7252903e-09 -3.7252903e-09 -3.7252903e-09 -3.7252903e-09
-3.7252903e-09 -3.7252903e-09 -3.7252903e-09 -3.7252903e-09 -3.7252903e-09 -3.7252903e-09 -3.7252903e-09 -3.7252903e-09
-3.7252903e-09 0.033954617 0.27718115 0.49224758 0.19661665 -3.7252903e-09 -3.7252903e-09 -3.7252903e-09
-3.7252903e-09 -3.7252903e-09 -3.7252903e-09 -3.7252903e-09 -3.7252903e-09 -3.7252903e-09 -3.7252903e-09 -3.7252903e-09
-3.7252903e-09 0.021429058 0.19503102 0.454676 0.30912203 0.019741531 -3.7252903e-09 -3.7252903e-09
-3.7252903e-09 -3.7252903e-09 -3.7252903e-09 -3.7252903e-09 0.0023707433 0.03296961 0.15375794 0.3199461
0.31888402 0.14558041 0.025283052 0.00120918 2.6866473e-07 7.808685e-07 3.452078e-08 -1.07733285e-07
-8.547795e-08 1.0128679e-07 4.5256093e-07 9.683445e-07 4.676258e-08 -9.1911716e-08 -6.607661e-08 1.242679e-07

conv3.weight f4 [120, 16, 5, 5]
00000000: 23c4 4abe e749 5ebd facc 8d3d eb3b 02be
00000010: 70c9 623d 9449 12bc 1ed8 293d 708c f1bc
00000020: d719 77bd ddf9 f63d da53 0d3e 41fa 113e
00000030: ef66 fc3c fb73 b7bc 0b95 0abe 1821 2e3d
00000040: 84a2 ea3a 6165 0e3e 5413 89bd 16c3 e2bd
00000050: 5363 6f3e 936f 9cbd 2eda eb3d 6d39 eb3c
00000060: cc3b 733d 4090 2fbd baa3 17bd 2075 cd3d
00000070: ffb5 cfbb 6ccc 35be e6cd 90bd 38eb 8bbd
00000080: d638 8b3d 0e96 74bd 3f39 05be 3196 0b3e
00000090: 0dd2 053e d2ba a93d 17d5 2ebd 5c17 a3bd
000000a0: dbdf 813d c3d1 5f3c 6e21 943d 2159 923d
000000b0: 0ad7 11bd 1bf3 4c3d 17b9 cabc 271f c1bc
000000c0: c952 d9bc ca7c 5c3c 080a 513e a236 fe3d
000000d0: a046 c13d 35cb 313e 4636 85bd edac 91be
000000e0: 52c7 a2bc 3ad9 aaba 1032 743c 35f4 26bd
000000f0: 4d0f 1ebe ebde 63bd 63fa f8bd 9aae 7fbd
00000100: 3303 debd 1bdc 41bd dc1f afbc 3cfb b2bc
00000110: 3dae 8bbd da19 aabd d656 953d 1198 08bd
00000120: e43b b53c 1a06 cfbc 2997 26bc 6211 853d
00000130: 9cbb cb3d 9893 d53d c484 653e f949 6fbc
00000140: e25c 73be bd7c 6e3e 1488 a53d 6ea2 f7bc
00000150: ffb0 343d e390 7dbd 879b 5b3d 808c 243c
00000160: ed0c e2bd 2d4d 76bc 51b5 e6bd 0e4f 3cbc
00000170: 0dd9 3ebe a2af 27bd 28f4 88be cb1e 0d3d
00000180: 3752 3ebc c24e b73d 56a7 e93c 6280 ecbc
00000190: dd07 6abd 92dc 903d b2f0 a83d a792 d63d
000001a0: 032b 213e 77ac 0abd d582 c23d bdf9 babb
000001b0: 759b ea3d 0520 d93d fac7 c9bc cceb e6bd
000001c0: 5775 bebd cf82 24be 45e5 4b3c 5309 cfbd
000001d0: 16d6 febd 87f4 ef3c 67a4 863d 1b86 3f3c
000001e0: b981 9cbd e4dc 033d 0fd0 193e 6932 8e3e
000001f0: 0185 d7bb 4b73 a2be 5da7 9b3c 7de1 8fbc
00000200: 0712 6ebd e690 cd3c 31c6 b4bb b6f7 13be
00000210: 5f33 fd39 4318 83bd ed41 a7bd 88ab 913d
00000220: 5829 093d f944 71bd bbfb 12be 3e87 3dbe
00000230: 5942 4a3b 221e 373c d6ad e3bc 9a7e aa3c
00000240: d375 8a3c 5f4c 933d a3e0 de3c cde7 c93d
00000250: aee9 383c 0d9b 9f3d 5f70 b93e f87f 193e
00000260: 9a10 643e bc07 fd3d b268 603d 72ed aabc
00000270: e9b3 02bd 18f0 833c 130d f23d c220 95bd
00000280: a936 3cbe f687 eabc a8b8 773d f777 0fbe
00000290: c979 10be 91b2 93bd 4e7e a8bd 0e66 38be
000002a0: f935 68bd 8266 81be 451f 283d a590 fe3c
000002b0: a47b 93bc 8b59 223e 3a5d 253d 6650 183d
000002c0: f9b6 d33c 091a 463c 3df1 af3d c7f6 e73d
000002d0: 4261 a0bc 699f 673c 15f7 d03d 64b0 b63d
000002e0: dae4 87bd 488a d63c 3161 cfbc 9998 65bd
000002f0: 9936 48bd 23d8 07be 22a4 8e3d ae32 b4bd
00000300: cc6c 41be cf2a 06bd 58ba 51be c95c d7bd
00000310: 735f b4bd ffc4 573d c15a 763d 2cb5 663c
00000320: 1ab5 eb3d 8691 283e 8c68 303d 8084 d6bc
00000330: 395f f13c 0845 033e 7653 203e 425d 8c3d
00000340: bca2 573d 56be 31bd f022 3b3c 13a6 713c
00000350: 6b9d fabd 54ce 5a3d a92a ccbc 6678 ffbd
00000360: cd0c 76bd d024 02bd 3ef2 4ebe 2a01 c2bd
00000370: c7b8 693e 52c7 b2bc c350 2dbe a47a 18be
00000380: 805f 19bb f8d7 8dbe cdc4 a13d ac81 86bd
00000390: 7032 85bd 60ee f8bc 39e2 a3bd 5436 043b
000003a0: b9d1 42bb a1ff e5bd 3c58 193b d628 9f3d
000003b0: 8a49 79bd 9d12 8cbd ed1e 21be 36a7 32be
000003c0: 7da0 503d ae1f 283c 63d8 b73c b171 853b
000003d0: e046 f8bc 07b6 ad3d e47d 09bd 4d79 133e
000003e0: 3b94 883c a133 be3d 8d7a 713e 8b81 7b3d
000003f0: a613 f33d fdab e13c 2cb8 873d a1e3 583d
-0.19801383 -0.054269698 0.06923862 -0.1271817 0.055367887 -0.008928675 0.04146587 -0.029485911
-0.060327377 0.120593764 0.13801518 0.1425562 0.030810801 -0.022394171 -0.13533418 0.04251203
0.0017901217 0.1390586 -0.0669314 -0.11072366 0.23377733 -0.076384686 0.11516224 0.028713906
0.0593832 -0.042862177 -0.037021376 0.100321054 -0.0063388343 -0.17753762 -0.07070522 -0.06831974
0.0679795 -0.059713416 -0.13010119 0.13631512 0.1306841 0.08287586 -0.042683687 -0.0796344
0.06341525 0.013660851 0.07232939 0.07145906 -0.035605468 0.05003653 -0.02474646 -0.023574425
-0.026528733 0.013457486 0.20413983 0.12412764 0.09437299 0.17362674 -0.065044925 -0.28452244
-0.019870434 -0.0013034709 0.014904514 -0.040760238 -0.15435524 -0.055632513 -0.121571325 -0.062422372
-0.10840454 -0.04732905 -0.021377496 -0.021848314 -0.06820343 -0.08305712 0.07291953 -0.033348147
0.022123285 -0.025271464 -0.010167875 0.06497456 0.09947893 0.10428542 0.22413927 -0.014605039
-0.237659 0.23289771 0.080825955 -0.03022882 0.04411411 -0.061905753 0.05361512 0.010043263
-0.11037622 -0.015033049 -0.11265052 -0.0114934575 -0.18637486 -0.04093898 -0.26748776 0.034453195
-0.011616281 0.08950569 0.028522175 -0.028869811 -0.057136405 0.070733204 0.08249034 0.104771905
0.15739064 -0.03385588 0.094976105 -0.0057060407 0.11455432 0.1060181 -0.024631489 -0.112754434
-0.092997245 -0.16065525 0.012444799 -0.101092 -0.124431774 0.029291404 0.06574326 0.011689688
-0.0764193 0.03219308 0.15020774 0.27772835 -0.0065771346 -0.31728587 0.019000703 -0.017563576
-0.05812266 0.025093507 -0.0055167903 -0.14449963 0.00048294195 -0.06401112 -0.08166871 0.07112795
0.033486694 -0.058903668 -0.1435384 -0.18508622 0.00308623 0.011176618 -0.027792852 0.020812321
0.016901886 0.07192301 0.027206725 0.098586656 0.011286182 0.077932455 0.36218545 0.14990222
0.22271958 0.12354991 0.054787345 -0.020865176 -0.031909857 0.016105697 0.118189 -0.07281639
-0.18380226 -0.028629284 0.060478836 -0.14010607 -0.14108957 -0.07211793 -0.08227216 -0.18007681
-0.056692097 -0.2527352 0.041045446 0.031074831 -0.018003292 0.1585447 0.04037211 0.03718605
0.025844084 0.012091168 0.085909344 0.11326366 -0.019577626 0.014137127 0.10203377 0.089203626
-0.06635447 0.026188985 -0.0253149 -0.05605373 -0.048880193 -0.13266043 0.069648996 -0.08798729
-0.18889159 -0.03275567 -0.20481241 -0.10515744 -0.08807268 0.052678104 0.060145143 0.014081281
0.11509152 0.16461763 0.043068454 -0.026186228 0.029464351 0.12819302 0.15656838 0.06853725
0.05264543 -0.04339441 0.011421904 0.014749068 -0.12237056 0.053419426 -0.024922686 -0.12474136
-0.0600708 -0.03177339 -0.20209596 -0.09472878 0.22824393 -0.021823559 -0.1692534 -0.14890534
-0.002340287 -0.27703834 0.07898865 -0.06567702 -0.06503761 -0.030387104 -0.08002133 0.0020173984
-0.0029727055 -0.11230398 0.002339854 0.07771461 -0.060861148 -0.06839488 -0.15734453 -0.17446598
0.050934304 0.010261459 0.022442048 0.004072391 -0.030307233 0.084819846 -0.033567324 0.14401741
0.016672244 0.09287191 0.23581906 0.06140284 0.11868982 0.02754783 0.06626925 0.05295146

conv3.activation_post_process.histogram f4 [2048]
00000000: 0000 803f 0000 0000 0000 0000 0000 0000
00000010: 0000 0000 0000 0000 0000 0000 0000 0000
00000020: 0000 0000 0000 0000 0000 0000 0000 0000
00000030: 0000 0000 0000 0000 0000 0000 0000 0000
00000040: 0000 0000 0000 0000 0000 0000 0000 0000
00000050: 0000 0000 0000 0000 0000 0000 0000 0000
00000060: 0000 0000 0000 0000 0000 0000 0000 0000
00000070: 0000 0000 0000 0000 0000 0000 0000 0000
00000080: 0000 0000 0000 0000 0000 0000 0000 0000
00000090: 0000 0000 0000 0000 0000 0000 0000 0000
000000a0: 0000 0000 0000 0000 0000 0000 0000 0000
000000b0: 0000 0000 0000 0000 0000 0000 0000 0000
000000c0: 0000 0000 0000 0000 0000 0000 0000 0000
000000d0: 0000 0000 0000 0000 0000 0000 0000 0000
000000e0: 0000 0000 0000 0000 0000 0000 0000 0000
000000f0: 0000 0000 0000 0000 0000 0000 0000 0000
00000100: 0000 0000 0000 0000 0000 0000 0000 0000
00000110: 0000 0000 0000 0000 0000 0000 0000 0000
00000120: 0000 0000 0000 0000 0000 0000 0000 0000
00000130: 0000 0000 0000 0000 0000 0000 0000 0000
00000140: 0000 0000 0000 0000 0000 0000 0000 0000
00000150: 0000 0000 0000 0000 0000 0000 0000 0000
00000160: 0000 0000 0000 0000 0000 0000 0000 0000
00000170: 0000 0000 0000 0000 0000 0000 0000 0000
00000180: 0000 0000 0000 0000 0000 0000 0000 0000
00000190: 0000 0000 0000 0000 0000 0000 0000 0000
000001a0: 0000 0000 0000 0000 0000 0000 0000 0000
000001b0: 0000 0000 0000 0000 0000 0000 0000 0000
000001c0: 0000 0000 0000 0000 0000 0000 0000 0000
000001d0: 0000 0000 0000 0000 0000 0000 0000 0000
000001e0: 0000 0000 0000 0000 0000 0000 0000 0000
000001f0: 0000 0000 0000 0000 0000 0000 0000 0000
00000200: 0000 0000 0000 0000 0000 0000 0000 0000
00000210: 0000 0000 0000 0000 0000 0000 0000 803f
00000220: 0000 0000 0000 0000 0000 0000 0000 0000
00000230: 0000 0000 0000 103d 0098 123f 00d0 c83e
00000240: 0000 0000 0000 0000 0000 0000 0000 0000
00000250: 0000 0000 0000 0000 0000 0000 0000 0000
00000260: 0000 0000 0000 0000 0000 0000 0000 0000
00000270: 0000 0000 0000 0000 0000 0000 0000 0000
00000280: 0000 0000 0000 0000 0000 0000 0000 0000
00000290: 0000 0000 0000 0000 0000 0000 0000 0000
000002a0: 0000 0000 0000 0000 0000 0000 0000 0000
000002b0: 0000 0000 0000 0000 0000 0000 0000 0000
000002c0: 0000 0000 0000 0000 0000 0000 0000 0000
000002d0: 0000 0000 0000 0000 0000 0000 0000 0000
000002e0: 0000 0000 0000 d23e 0000 173f 0000 0000
000002f0: 0000 0000 0000 0000 0000 0000 0000 0000
00000300: 0000 0000 0000 0000 0000 0000 0000 0000
00000310: 0000 0000 0000 0000 0000 0000 0000 0000
00000320: 0000 0000 0000 0000 0000 0000 0000 0000
00000330: 0000 0000 0000 0000 0000 0000 0000 0000
00000340: 0000 0000 0000 0000 0000 0000 0000 0000
00000350: 0080 413a 00a1 ca3d 90ab 263f c03f 7f3e
00000360: 0000 0000 0000 0000 0000 0000 0000 0000
00000370: 6572 413e f8fe ff3e 5b91 8d3e 809f 0b3d
00000380: 0020 053a 0000 0000 0000 0000 0000 0000
00000390: 0000 0000 0000 0000 0000 0000 0000 0000
000003a0: 0000 0000 0000 0000 0000 0000 0000 0000
000003b0: 0000 0000 0000 0000 0000 0000 0000 0000
000003c0: 0000 0000 0000 0000 0000 0000 0000 0000
000003d0: 943a 8b3b f22d c73d 13ef f23e f1f7 b93e
000003e0: 3219 743d 0069 9d3a 0000 60b4 0000 60b4
000003f0: 5b68 9239 faa7 733c ac41 083e 5dc7 c03e
1.0 0.0 0.0 0.0 0.0 0.0 0.0 0.0
0.0 0.0 0.0 0.0 0.0 0.0 0.0 0.0
0.0 0.0 0.0 0.0 0.0 0.0 0.0 0.0
0.0 0.0 0.0 0.0 0.0 0.0 0.0 0.0
0.0 0.0 0.0 0.0 0.0 0.0 0.0 0.0
0.0 0.0 0.0 0.0 0.0 0.0 0.0 0.0
0.0 0.0 0.0 0.0 0.0 0.0 0.0 0.0
0.0 0.0 0.0 0.0 0.0 0.0 0.0 0.0
0.0 0.0 0.0 0.0 0.0 0.0 0.0 0.0
0.0 0.0 0.0 0.0 0.0 0.0 0.0 0.0
0.0 0.0 0.0 0.0 0.0 0.0 0.0 0.0
0.0 0.0 0.0 0.0 0.0 0.0 0.0 0.0
0.0 0.0 0.0 0.0 0.0 0.0 0.0 0.0
0.0 0.0 0.0 0.0 0.0 0.0 0.0 0.0
0.0 0.0 0.0 0.0 0.0 0.0 0.0 0.0
0.0 0.0 0.0 0.0 0.0 0.0 0.0 0.0
0.0 0.0 0.0 0.0 0.0 0.0 0.0 1.0
0.0 0.0 0.0 0.0 0.0 0.03515625 0.57263184 0.3922119
0.0 0.0 0.0 0.0 0.0 0.0 0.0 0.0
0.0 0.0 0.0 0.0 0.0 0.0 0.0 0.0
0.0 0.0 0.0 0.0 0.0 0.0 0.0 0.0
0.0 0.0 0.0 0.0 0.0 0.0 0.0 0.0
0.0 0.0 0.0 0.0 0.0 0.0 0.0 0.0
0.0 0.41015625 0.58984375 0.0 0.0 0.0 0.0 0.0
0.0 0.0 0.0 0.0 0.0 0.0 0.0 0.0
0.0 0.0 0.0 0.0 0.0 0.0 0.0 0.0
0.0 0.0 0.0 0.0 0.0007381439 0.098939896 0.65105534 0.24926662
0.0 0.0 0.0 0.0 0.18891294 0.49999213 0.2764996 0.034087658
0.0005078316 0.0 0.0 0.0 0.0 0.0 0.0 0.0
0.0 0.0 0.0 0.0 0.0 0.0 0.0 0.0
0.0 0.0 0.0 0.0 0.0042489264 0.0972556 0.47448024 0.36321977
0.05959434 0.0012009442 -2.0861626e-07 -2.0861626e-07 0.0002792504 0.014871592 0.13306302 0.37652102

fc1.weight f4 [84, 120]
00000000: 7663 4bbd 491f 173e b74a 283d 402f 433c
00000010: 841e b7bc 2b97 353b b678 f83c daf8 fe3c
00000020: fce8 b3bd 28fe 343d 7481 9e3d 26b8 803d
00000030: 6674 1a3d 9297 cc3c ac5f ccbd 9312 45bd
00000040: b5f3 b0bd 5726 1fbd 9712 133d 6358 aa3d
00000050: 0cf3 c7bc ac58 4b3d 41c6 c0bc e263 5d3e
00000060: e5fb edbb 97cb ad3d 2831 353c b3cd 3bbe
00000070: 1edd 1abd ca4d 3e3d 59ab 95bc 7975 cf3c
00000080: 3a87 85bd 1045 ea3b 9ef3 66bd b6c0 28be
00000090: df68 cd3d ae06 c3bd 4810 82bd 683e 17be
000000a0: 40e5 463e 9d11 9abc 788c 0fbe c200 843d
000000b0: e7c5 babc d844 573e 52fa c03d 40f5 183d
000000c0: c015 2c3d df97 08be d1fd e23d c733 f6bd
000000d0: 08a3 153e 9e88 873d f8f3 143c 643c a2bc
000000e0: 7cf4 89bd f69a 603d d761 dd3b ebee 9bbd
000000f0: a5a6 9a3d 5931 ab3c 9670 243c 4b63 62bd
00000100: a749 d53d cc00 0c3e 26be 13bd 7d2f 0e3e
00000110: a11b ffbc f433 d33d b019 1dbd 30a5 063e
00000120: fae7 e5bc 0701 aebd b8b2 b5bd f540 b8bd
00000130: 9aa6 a93d 4f35 b43c c526 1fbc 07f5 25be
00000140: b935 22bd 85fe 4cbd 9335 08be 9eb6 dabd
00000150: 7790 863d f848 eb39 4736 84bc 1bc9 9bbd
00000160: ec41 3bbe 8a84 2c3d 57ea 963b 1df5 1dbe
00000170: f0b6 103d 368b 213d 4131 3bbd 23a1 e9bd
00000180: 347a 5d3d 924e 51be b8f2 bfbb 89a9 c43d
00000190: 97c9 873c ecff 27be f084 b4bd 1d60 d8bc
000001a0: 229e 513d 1a01 8dbd 6939 cb3d 601e cbbc
000001b0: 2a0a 5f3d 0fe1 58bc 7aee bc3d 67f5 a93d
000001c0: fc16 773d 40b9 d63c 259c 72bd 7c1f f5bd
000001d0: 6787 a2bd 9ef9 51be e668 e23c 9250 8dbd
000001e0: 2590 e3bc 5997 183d 0584 573d 22e4 c93d
000001f0: d4b6 af3d 3a57 f73d 872b 13bd 6a43 c5bd
00000200: 7ea1 5ebc 81d4 8f3d 6e57 b63d b795 5fbe
00000210: 497b bb3d 922c a53c 1c9e 2ebd 6bd0 493c
00000220: 12ba 223d 7bd6 b0bc 8aad 10bd 3746 6d3d
00000230: 28e4 a4bc 2596 143e d975 d93c 5f30 d33c
00000240: 1b40 13bd 0711 96bd 0e1a 013d 8035 393e
00000250: 9bd6 23be b19f 0a3d f8f7 e6bd 3b73 183d
00000260: 6a17 76bd d3b3 40be 84cb 843c b8f9 4ebc
00000270: bc8a 45bd d81b eebd 7b7d 8f3d e7dc 213e
00000280: 14db 9dbd a7b7 473d a365 cdbd dd02 573d
00000290: 8536 04bd 18d4 023c cb46 99bd 0fce 2cbe
000002a0: ed74 9e3b 8573 9d3d cc37 01be e6b6 4f3d
000002b0: 7ca8 103d fcdc 903c dd86 093e c7c4 123c
000002c0: af31 873b 9e2c 7cbc 1b9e 1f3d a14a 23bd
000002d0: d011 163e f1e4 7a3c 1fca 5a3d a39e 42bd
000002e0: d75e c13b 92c7 9d3c 78d0 dd3d bb1f 30be
000002f0: 0dbb f0bd 6222 003e e787 bdbd a850 7b3d
00000300: 93b4 6d3d 4957 25bd 19a7 853d 3ce2 f93a
00000310: a3ad 91bd 0b93 773d c73e 713e d2c9 713d
00000320: bc90 6e3d 75d9 d13d ec40 b93d 5ccf c13d
00000330: aaee 58bc ac5d 2d3d 7b73 42bd fc5c 81bb
00000340: 134a 3a3e 7964 06bd c62a 62be 1e62 903d
00000350: 2b1e 9bbc 2bd8 5fbd 004d f4bb f235 1c3e
00000360: 07cf 6b3d d718 11bb fbc7 633c fcb7 40bc
00000370: 6017 773b d049 f53d 1c76 34bd fc66 5ebd
00000380: 05bb b33b c432 d9bd edce f43c a375 24bd
00000390: c9e8 6f3e 1bc9 543d 2127 6c3c 7f9d 653d
000003a0: d419 c7bd c671 f33c 6ba7 16bc b317 9cbd
000003b0: 4e82 d13a cd49 073e b9b8 34bd d139 84bd
000003c0: d615 f33c 8ea3 d33d b05b 77bd 2ebf 8f3d
000003d0: f03e 36be 7746 e03c 1bad aa3d 084f 50bd
000003e0: 910d 68bd 6cca 8cbd 1a7d 32bd 3f4b d93d
000003f0: 003d c4b9 a204 003d c96c ce3c d7cd 8b3d
-0.0496554 0.14758028 0.04108688 0.011913121 -0.022353418 0.0027708511 0.030330997 0.031124521
-0.087846726 0.044187695 0.07739535 0.062851235 0.037708662 0.024974618 -0.099791855 -0.048113417
-0.086402334 -0.038854923 0.0359064 0.0831764 -0.024407886 0.04964511 -0.023532035 0.21620134
-0.007262694 0.08486097 0.011059083 -0.18340187 -0.03780853 0.046460904 -0.018270181 0.02532457
-0.06519933 0.007149346 -0.056384675 -0.16479763 0.10029768 -0.095227584 -0.06350762 -0.147699
0.1942339 -0.018807227 -0.14018428 0.06445457 -0.022799445 0.21022356 0.09422745 0.037343264
0.04201293 -0.13339184 0.11083568 -0.120215945 0.14612973 0.066178545 0.00909137 -0.019804187
-0.06736085 0.054835282 0.006756048 -0.07613929 0.07551316 0.020897554 0.010036608 -0.055270474
0.10414439 0.13672179 -0.03607001 0.13885303 -0.031141104 0.10312644 -0.038354576 0.13148952
-0.028064717 -0.0849629 -0.088719785 -0.089967646 0.0828373 0.021998076 -0.009713833 -0.16206752
-0.039602015 -0.050047416 -0.13301687 -0.10679363 0.06570523 0.0004487706 -0.016139163 -0.07606717
-0.18286866 0.042118587 0.004605572 -0.15425535 0.035330713 0.039439403 -0.04570127 -0.114076875
0.05407162 -0.20440128 -0.0058577918 0.09602649 0.016575618 -0.1640622 -0.08814418 -0.026413018
0.051176198 -0.06884976 0.099230595 -0.024794757 0.054453053 -0.013237252 0.09225173 0.0829876
0.060324654 0.026211381 -0.059230942 -0.11968896 -0.07935982 -0.20505378 0.02763791 -0.06900133
-0.027778694 0.03725371 0.052616138 0.09857966 0.085797936 0.12077184 -0.035930183 -0.09631999
-0.013588307 0.07022954 0.08903395 -0.21834455 0.09154374 0.020162854 -0.042631254 0.012317757
0.03972823 -0.021586647 -0.03532175 0.05792829 -0.020128325 0.145104 0.026545452 0.025779901
-0.035949808 -0.073274665 0.03151899 0.18086815 -0.15999834 0.0338437 -0.11277765 0.037219267
-0.060080923 -0.18818597 0.016210325 -0.01263278 -0.04822801 -0.116264045 0.070063554 0.15806924
-0.077078015 0.04875913 -0.10029151 0.052492965 -0.032278556 0.007985137 -0.07484206 -0.1687548
0.004835716 0.07688049 -0.12618941 0.050711535 0.03531693 0.017683499 0.13430353 0.008958048
0.004125796 -0.015391497 0.03896914 -0.039866094 0.14655232 0.015313373 0.053415414 -0.04751457
0.0059011984 0.019260202 0.10830778 -0.17199604 -0.11754427 0.12513116 -0.09254437 0.061356217
0.058033537 -0.040366445 0.06526012 0.0019064615 -0.07113197 0.060442965 0.23559104 0.05903036
0.0582435 0.10246555 0.09045586 0.09463379 -0.013240496 0.04232566 -0.047473412 -0.003947852
0.1819232 -0.032810662 -0.2208663 0.07049964 -0.018935284 -0.054649513 -0.007455468 0.15254954
0.057570484 -0.002214005 0.0139026595 -0.011762615 0.0037703142 0.11976969 -0.04405795 -0.054297432
0.005484941 -0.10605386 0.029883826 -0.04015125 0.23428644 0.0519496 0.014413626 0.056058403
-0.09721723 0.029717337 -0.009195189 -0.07621708 0.0015984268 0.13211747 -0.044121478 -0.0645634
0.029673498 0.1033393 -0.060390174 0.070188865 -0.17797446 0.02737735 0.083337985 -0.05085662
-0.056653563 -0.068745464 -0.043576337 0.10610055 -0.00037429482 0.03125442 0.025198357 0.0682637

fc1.activation_post_process.histogram f4 [2048]
00000000: 0000 803f 0000 0000 0000 0000 0000 0000
00000010: 0000 0000 0000 0000 0000 0000 0000 0000
00000020: 0000 0000 0000 0000 0000 0000 0000 0000
00000030: 0000 0000 0000 0000 0000 0000 0000 0000
00000040: 0000 0000 0000 0000 0000 0000 0000 0000
00000050: 0000 0000 0000 0000 0000 0000 0000 0000
00000060: 0000 0000 0000 0000 0000 0000 0000 0000
00000070: 0000 0000 0000 0000 0000 0000 0000 0000
00000080: 0000 0000 0000 0000 0000 0000 0000 0000
00000090: 0000 0000 0000 0000 0000 0000 0000 0000
000000a0: 0000 0000 0000 0000 0000 0000 0000 0000
000000b0: 0000 0000 0000 0000 0000 0000 0000 0000
000000c0: 0000 0000 0000 0000 0000 0000 0000 0000
000000d0: 0000 0000 0000 0000 0000 0000 0000 0000
000000e0: 0000 0000 0000 0000 0000 0000 0000 0000
000000f0: 0000 0000 0000 0000 0000 0000 0000 0000
00000100: 0000 0000 0000 0000 0000 0000 0000 0000
00000110: 0000 0000 0000 0000 0000 0000 0000 0000
00000120: 0000 0000 0000 0000 0000 0000 0000 0000
00000130: 0000 0000 0000 0000 0000 0000 0000 0000
00000140: 0000 0000 0000 0000 0000 0000 0000 0000
00000150: 0000 0000 0000 0000 0000 0000 0000 0000
00000160: 0000 0000 0000 0000 0000 0000 0000 0000
00000170: 0000 0000 0000 0000 0000 0000 0000 0000
00000180: 0000 0000 0000 0000 0000 0000 0000 0000
00000190: 0000 0000 0000 0000 0000 0000 0000 0000
000001a0: 0000 0000 0000 0000 0000 0000 0000 0000
000001b0: 0000 0000 0000 0000 0000 0000 0000 0000
000001c0: 0000 0000 0000 0000 0000 0000 0000 0000
000001d0: 0000 0000 0000 0000 0000 0000 0000 0000
000001e0: 0000 0000 0000 0000 0000 663f 0000 d03d
000001f0: 0000 0000 0000 0000 0000 0000 0000 0000
00000200: 0000 0000 0000 0000 0000 313d 0030 083f
00000210: 0080 d93e 0000 0000 0000 0000 0000 0000
00000220: 0000 0000 0000 0000 0000 0000 0000 0000
00000230: 0000 0000 0000 0000 0000 0000 0000 0000
00000240: 0000 0000 0000 0000 0000 0000 0000 0000
00000250: 0000 0000 0000 0000 0000 0000 0000 0000
00000260: 0000 0000 0000 0000 0000 0000 0000 0000
00000270: 0000 0000 0000 0000 0000 0000 0000 0000
00000280: 0000 0000 0000 0000 0000 0000 0000 0000
00000290: 0000 0000 0000 0000 0000 0000 0000 0000
000002a0: 0000 0000 0000 0000 0000 0000 0000 0000
000002b0: 0000 0000 0000 0000 0000 0000 0000 0000
000002c0: 0000 0000 0000 0000 0000 0000 0000 0000
000002d0: 0000 0000 0000 0000 0000 0000 0000 0000
000002e0: 0000 0000 0000 0000 0000 0000 0000 0000
000002f0: 0000 0000 0000 0000 0000 0000 0000 0000
00000300: 0000 0000 0000 0000 0000 0000 0000 0000
00000310: 0000 0000 0000 0000 0000 0000 0000 0000
00000320: 0000 0000 0000 0000 0000 0000 0000 0000
00000330: 0000 0000 8093 c83e 70b9 eb3e 2060 0e3e
00000340: 0060 103c 0000 0000 0000 0000 0000 0000
00000350: 0000 0000 0000 0000 0000 0000 0000 0000
00000360: 0000 0000 0000 0000 0000 0000 0000 0000
00000370: 0000 0000 0000 0000 0000 0000 0000 0000
00000380: 0000 0000 0000 0000 0000 0000 0000 0000
00000390: 0000 0000 0000 0000 0000 0000 0000 0000
000003a0: 0000 0000 0000 0000 0000 0000 0000 0000
000003b0: 0000 0000 0000 0000 0000 0000 0000 0000
000003c0: 0000 0000 0000 0000 0000 0000 0000 0000
000003d0: 0000 0000 0000 0000 0000 0000 0000 0000
000003e0: 0000 0000 0000 0000 3435 073d 8eb4 d03e
000003f0: 6432 0f3f 0000 0000 0000 0000 0000 0000
1.0 0.0 0.0 0.0 0.0 0.0 0.0 0.0
0.0 0.0 0.0 0.0 0.0 0.0 0.0 0.0
0.0 0.0 0.0 0.0 0.0 0.0 0.0 0.0
0.0 0.0 0.0 0.0 0.0 0.0 0.0 0.0
0.0 0.0 0.0 0.0 0.0 0.0 0.0 0.0
0.0 0.0 0.0 0.0 0.0 0.0 0.0 0.0
0.0 0.0 0.0 0.0 0.0 0.0 0.0 0.0
0.0 0.0 0.0 0.0 0.0 0.0 0.0 0.0
0.0 0.0 0.0 0.0 0.0 0.0 0.0 0.0
0.0 0.0 0.0 0.0 0.0 0.0 0.0 0.0
0.0 0.0 0.0 0.0 0.0 0.0 0.0 0.0
0.0 0.0 0.0 0.0 0.0 0.0 0.0 0.0
0.0 0.0 0.0 0.0 0.0 0.0 0.0 0.0
0.0 0.0 0.0 0.0 0.0 0.0 0.0 0.0
0.0 0.0 0.0 0.0 0.0 0.0 0.0 0.0
0.0 0.0 0.8984375 0.1015625 0.0 0.0 0.0 0.0
0.0 0.0 0.04321289 0.5319824 0.4248047 0.0 0.0 0.0
0.0 0.0 0.0 0.0 0.0 0.0 0.0 0.0
0.0 0.0 0.0 0.0 0.0 0.0 0.0 0.0
0.0 0.0 0.0 0.0 0.0 0.0 0.0 0.0
0.0 0.0 0.0 0.0 0.0 0.0 0.0 0.0
0.0 0.0 0.0 0.0 0.0 0.0 0.0 0.0
0.0 0.0 0.0 0.0 0.0 0.0 0.0 0.0
0.0 0.0 0.0 0.0 0.0 0.0 0.0 0.0
0.0 0.0 0.0 0.0 0.0 0.0 0.0 0.0
0.0 0.0 0.0 0.0 0.0 0.39175034 0.46039915 0.13903856
0.008811951 0.0 0.0 0.0 0.0 0.0 0.0 0.0
0.0 0.0 0.0 0.0 0.0 0.0 0.0 0.0
0.0 0.0 0.0 0.0 0.0 0.0 0.0 0.0
0.0 0.0 0.0 0.0 0.0 0.0 0.0 0.0
0.0 0.0 0.0 0.0 0.0 0.0 0.0 0.0
0.0 0.0 0.033009723 0.40762752 0.55936265 0.0 0.0 0.0
