experiments/exp026/checkpoint.pth (torch, 764066 bytes, 27 tensors)

conv1.weight f4 [6, 2, 5, 5]
00000000: a1e4 cdbc 9c56 b7bd 5113 0abe abbe 413e
00000010: 1df8 793e 3164 873d d906 ccbd 319f ccbd
00000020: 5aba 0a3e 3fa2 9b3e a13e 6abd d3f0 783d
00000030: 0c9f 08be 817e 9b3e 2008 dd3d 1cc9 eb3b
00000040: 1643 ecbd 17dc edbd 659a 23bd 652c ebbc
00000050: 0826 08bd f71d 58be 25c8 a2be fe5c 893c
00000060: 6f36 e13d eae0 b83c ec8f 003d ccae 7ebd
00000070: 666e fa3d cdad d43d 8edc 803d da9c ae3c
00000080: 85c6 8e3c 30a4 d13d b478 0abd 9545 3c3d
00000090: c052 8d3a 027b a23d b20a 373e 08e0 f6bd
000000a0: 69c2 a6bd fecb a2bd 0970 08be 75ac c8bc
000000b0: cf4c 06bd 569c 7a3d aceb d0bc b921 50be
000000c0: bd99 2dbd 2587 fabd a17d 213e 7614 24be
000000d0: 5f60 24be 7303 2cbe c7a8 593e 6239 f73d
000000e0: 3b4e 9dbd f609 24be 5619 143d 3a38 233e
000000f0: d9c6 cfbd e9e7 22bd 5f9c f3bd d1d9 8a3d
00000100: d226 62bd b70c 97bd 47d7 1c3e 2ba8 933e
00000110: a0d8 4cbd c4a4 54bd b8be 96bd bb3e 2c3e
00000120: 3046 273e cff8 febc 6f11 41be 641e 46be
00000130: ecc4 0c3e 11cc 213e 6230 d13d 83af 3dbe
00000140: 1cf0 cfbd 664b 5b3d b015 863d d070 58bd
00000150: 6b30 e7bd 28d5 223e e7b4 b53c 354e 3f3d
00000160: 372f 92bd b969 d43d 0106 dc3d f6c6 d6bd
00000170: 7d69 5fbe d154 193d 9490 223b da69 083e
00000180: 0f9a 66be 74d3 1ebe 7299 563d 83ce 283e
00000190: 3c66 87bd 0b62 bebd c9fe b63c 80f1 b9bd
000001a0: b80c 8dbd c97f 1ebd f95e b9bb 7050 d33c
000001b0: 9f15 d1bd 106f 853d 2848 b63d 5607 2dbe
000001c0: ce11 ecbd 84b6 6c3d 7f35 c03c bdfa 12be
000001d0: 4a0e 34bc a391 723d 602e c3bc ab84 363d
000001e0: bb67 323c 9d87 b53d 412c 9bbe 308c 063e
000001f0: 02e3 3ebd ef85 e63d 537f 00bb bbb9 ff3d
00000200: 1552 ed3d fdcd f43b ed79 ccbd c064 ccbd
00000210: b103 0c3d a8eb b0bd 5b43 b5bd 799a 4cbe
00000220: 3709 1ebe 32f4 15be b2ed 28be 42ae 7fbe
00000230: c9b2 b3bd 42f6 05be 8fce bbbd 1c70 733d
00000240: 6f45 f5bd 6f76 80bd 63ea a33d ec44 90bd
00000250: e19b 8b3a df5f 10bd cee5 0abd 5b37 b0bd
00000260: 9214 3cbe f6ea 92bd 4b9b 0dbe fd7c 43be
00000270: c316 aabd 7124 00be 91fe e33d a4f4 02be
00000280: ebfa d2bd 96ef 023e 9c07 423e d739 e03c
00000290: 12f3 c5bd c468 b03d e16b 453e cfc3 063e
000002a0: f044 543e cc70 083e 68ed 19bc 67cf 813d
000002b0: 33b6 803d 5290 ad3c 35c4 d93d 3c62 bdbd
000002c0: 812c 1a3c 803b 58be 0c83 8bbd 27d6 9dbc
000002d0: 0ee2 01be 5766 18be d083 31bd 0f7e 40bd
000002e0: 7c3b 80bd dc31 dbbd d73a a2bd 8725 d63d
000002f0: 7170 8bbd d334 04be b931 bdbd 3913 2c3e
00000300: 89ec f83d 4f87 9d3c dd09 b43d 9169 883d
00000310: 3ab5 e43c 60cf 613e ff6b 663c 4235 3b3d
00000320: fb57 993d 0acc 4c3e d704 b2bd b1ed 103d
00000330: 80b1 10be a001 473d 7750 2a3e 4656 8d3d
00000340: a751 2cbe 959d 63bd 1f3a 053e 3209 f73d
00000350: c016 373d a6bc ed3c a10f 8cbe 52a4 813d
00000360: 016e f93d 432d 83bc 9eaa 28be 8110 82be
00000370: c806 c73d 43de 773d 9786 df3d 6196 23bd
00000380: 09f4 b13c 1f46 87bc 0735 33be e3bb 0c3e
00000390: db00 ad3d ab54 81bd 9119 00be e42d 82bc
000003a0: d0e1 4e3d 9ff4 203e 8014 243d 5fc5 2ebe
000003b0: e0aa 9fbd 1612 473e 9e71 ca3d eefb 983b
000003c0: f614 823d 6c77 663e 4866 96bc 84f9 30bd
000003d0: 21c2 f9bd 11c3 dcbc 2804 683e 57dc 0a3e
000003e0: aa60 d63c d0a8 53be 95d2 5cbe 4b7c 6a3d
000003f0: 2a90 323e 3829 7b3d 99c8 23be a6f5 f4bd
-0.025133433 -0.08952066 -0.13483931 0.1892039 0.24411054 0.06610907 -0.099622436 -0.09991301
0.1354765 0.3039722 -0.057188634 0.060776543 -0.13341922 0.30369952 0.10792565 0.007195605
-0.11536233 -0.116142444 -0.039942164 -0.028707692 -0.033239394 -0.2110518 -0.31793323 0.016767975
0.109967105 0.022568185 0.031387255 -0.062178418 0.12228088 0.10384712 0.062920675 0.021315027
0.017428646 0.102363944 -0.033806518 0.045964796 0.0010782108 0.07933618 0.17875174 -0.12054449
-0.081425495 -0.07949065 -0.13323988 -0.024496296 -0.032788094 0.06118425 -0.025503002 -0.20325364
-0.042382944 -0.12232808 0.1577058 -0.1602343 -0.16052388 -0.16798191 0.2125579 0.12071492
-0.07680937 -0.16019425 0.036156975 0.15939417 -0.10145349 -0.039771948 -0.1189506 0.067798264
-0.055212803 -0.07375472 0.15316497 0.2883924 -0.050011277 -0.051914945 -0.073605955 0.16820805
0.16335368 -0.0311245 -0.18854307 -0.1934753 0.13746995 0.15800501 0.102143064 -0.18523984
-0.10153219 0.053538702 0.06547105 -0.05284196 -0.11288532 0.15901625 0.022180988 0.046705443
-0.07137912 0.103717275 0.10743333 -0.104871675 -0.21817584 0.037434403 0.0024805414 0.13321629
-0.22519706 -0.1551035 0.05239243 0.16485028 -0.066112965 -0.09296044 0.022338288 -0.090792656
-0.068871915 -0.038696084 -0.0056570736 0.025795192 -0.10209202 0.06515324 0.089004815 -0.1689733
-0.115268335 0.057791248 0.023463009 -0.14353462 -0.010989735 0.05922092 -0.023825824 0.044560116
0.010888989 0.08863757 -0.303072 0.13139415 -0.04660321 0.112560146 -0.001960714 0.12486597
0.115879215 0.007470845 -0.09984193 -0.09980154 0.034183208 -0.08638698 -0.08850738 -0.19980802
-0.15433203 -0.14643934 -0.16496924 -0.24968818 -0.08774335 -0.13082221 -0.09170257 0.059433088
-0.11976134 -0.062725894 0.0800369 -0.07044396 0.0010651314 -0.03524768 -0.033910565 -0.08604308
-0.18367222 -0.071737215 -0.13828771 -0.19090648 -0.08305123 -0.12513901 0.11132539 -0.12788635
-0.10301765 0.12786707 0.18948215 0.02737133 -0.096655026 0.086137325 0.19279434 0.13160633
0.20729423 0.13324279 -0.009394981 0.06338387 0.06284752 0.021186981 0.10633127 -0.09247252
0.009410025 -0.21116447 -0.068121046 -0.019267155 -0.1268389 -0.1488279 -0.043338597 -0.04699522
-0.06261346 -0.10702869 -0.07921379 0.104563765 -0.06808556 -0.12910776 -0.092379995 0.16804208
0.121544905 0.01922956 0.08790944 0.0666076 0.027918447 0.22051764 0.014063834 0.045705087
0.07487484 0.1999971 -0.086923294 0.03538293 -0.14130211 0.048585534 0.16632257 0.06901221
-0.16828023 -0.055570204 0.13010453 0.12062301 0.04469943 0.029020619 -0.27355674 0.0633017
0.12179185 -0.016012793 -0.16471335 -0.25403216 0.0971809 0.0605147 0.10914343 -0.039938334
0.02172281 -0.016512929 -0.17500697 0.13743548 0.08447429 -0.06314977 -0.12509753 -0.015891023
0.05050832 0.15718316 0.040058613 -0.17067479 -0.07796264 0.19440493 0.09884952 0.0046687042
0.06351654 0.22506493 -0.018359318 -0.043206707 -0.1219523 -0.026948484 0.22657835 0.13560615
0.02616914 -0.20669866 -0.21564706 0.05724744 0.17437807 0.061318606 -0.1599449 -0.11960916

conv1.weight_fake_quant.scale f4 [6]
00000000: 4f5e 223b a401 153b 21f4 1a3b 5614 e33a
00000010: c3e3 0b3b 99e5 223b
0.002477545 0.0022736574 0.0023644047 0.0017324786 0.0021345473 0.002485609

conv1.weight_fake_quant.activation_post_process.min_val f4 [6]
00000000: 4f5e a2be bd76 66be 21f4 9abe 0432 58be
00000010: c3e3 8bbe 99e5 a2be
-0.31712577 -0.22506233 -0.3026438 -0.2111283 -0.27322206 -0.31815794

conv1.weight_fake_quant.activation_post_process.max_val f4 [6]
00000000: 2a04 9c3e a1d7 933e 425b 063e 2d4e 613e
00000010: 2f23 683e f13e 963e
0.30471927 0.2887545 0.1312075 0.22002478 0.22669671 0.29344895

conv2.weight f4 [16, 6, 5, 5]
00000000: f069 03bd 8f10 07be b8e4 44be 5c64 c8bc
00000010: a088 74be 6038 97bd b620 dcba d3ff 82bd
00000020: 3922 2bbe c932 1dbe 4ef8 0b3d 3a6e afbc
00000030: 6077 cb3d 8748 263d a553 30bd c98b ab3d
00000040: 7e4a 893d bdd0 253e d38d 6b3d 2395 0ebe
00000050: 32fd 2b3e 5daa 25bc 395a a53c b4da 073e
00000060: 9c3f cf3d 0442 9c3c d15e a3bd c0c4 d2ba
00000070: 95a2 863d d8d8 843d e328 07bd c456 0c3e
00000080: e84b 823c 1be3 c3bc 6e2b c93b 08b6 7b3d
00000090: 523b a23d a341 c9bd 42c6 a1bd b820 e13c
000000a0: 9f2a f43d a038 07bb 96c0 e8bd ba2c 7dbc
000000b0: 322c 7ebb 99ae 393e 7cbe 173d 20fc fa3c
000000c0: fcdc b7bc 4d13 373d 9545 173e 9f46 be3b
000000d0: b866 5f3d acaf 9abc fb34 f83c 0269 003d
000000e0: 2309 a13d 8758 6a3d fe27 15bc f25d 7b3d
000000f0: a34a da3d 1135 58bc ce42 4cbd cff9 a6bd
00000100: c501 bfbd ae59 5dbc df52 8bbd 2a84 87bd
00000110: 3009 2d3d 792e 463d 49ba b7bc e976 02be
00000120: 7e9a 71bd dd1d 623d ae61 febc fd25 f43d
00000130: 9697 e73d 3816 5fbd 63b1 feba 9b3c 093e
00000140: 60da afbd 5940 febd 2f6b 063d 0937 e23d
00000150: 62c8 2abc 58ef 4f3d 3dcb adbd 505a 573d
00000160: 6d8b 203d b6b8 c83d eefc 3b3d 03d0 8dbb
00000170: f452 17be 7f3a 58bd b649 3ebc fd07 373e
00000180: 6f5e eb3d b77c 783d f08c dbbc d3c4 8a3d
00000190: 47fb 21bd 7eb9 66bc b024 df3b 5bc1 0ebd
000001a0: b03e 43be b59c 313d 5109 18be 0edd 913b
000001b0: f5cd 3a3d 5bac 86bb 65cc 753d 6191 783c
000001c0: dec8 0abd df42 0c3d fef5 02bd c650 8cbd
000001d0: 74ad 4f3d 2b84 16be b82c 81bd 71d1 0cbd
000001e0: 03b9 333e 3464 463d 49a1 f2bc 39e6 263c
000001f0: 6baa cf3c 8c11 b4bd ff9e 0aba 6cfc d33b
00000200: 03b6 95bc 9f27 0abe 6b0e 773d 9d80 98b9
00000210: 1156 61bd b072 cfbb ebb3 67bc 5e69 9a3c
00000220: 7d95 de3d 31cc 113e 47cb a63d 6bfb 5e3d
00000230: fbe1 2b3c e2ec bfbb e7eb 0b3e bfca e93d
00000240: 0a22 b43c 9d8f d33d 9092 a63d f646 0c3e
00000250: 57d8 723e 0e4d 3f3e 553f 7ebc e151 833d
00000260: efc8 763d d897 9b3d fd69 4c3e 676e 153d
00000270: 0865 7e3b 0caf 4b3d 4984 253e 2c41 1e3e
00000280: 707d 75be 59cd 75be 1035 cfbd daed ddbc
00000290: 04a2 66bd 70d6 77be 836e 75be 7471 2bbe
000002a0: 149f fcbd 7dd6 b7bd 0794 09be 0f18 43bd
000002b0: e55c 31be 93ac 51bd 74c5 f9bd fc88 4c3d
000002c0: 5b4a c43d 1e22 e93d 0ee0 d23d 103d 003e
000002d0: af6b 823d 9f5a af3d a9b4 fd3d d20b e33d
000002e0: 8350 4c3e ea18 f4bd 1af6 56bd 5ea3 2f3d
000002f0: 539e c3bb 73e9 2b3d 8c47 9ebd d2fb 17be
00000300: 10e9 c4bd 3bc7 5dbc bb63 2cbe 6f01 f8ba
00000310: e425 b5bd 56b7 5a3d e75f 26bb f463 bdbd
00000320: 9c80 08be 2b0f b7bd a3d6 debd fc09 a4bd
00000330: 5b50 adbd d7fd a63d 9e4f 83bc 3189 d53d
00000340: c558 ee3d c6a3 b43d 6fa6 ac3d 364b c73d
00000350: 4a48 ed3c bf03 f23c 83b8 1a3d 74f2 08bd
00000360: 0481 40bd 4f08 4a3d e3e8 373d 13c0 633d
00000370: 0edc 433d 550c 66bd 5421 923c 35b5 19bc
00000380: 5ccd 2cbd f156 873c 2f71 16bd ff57 1d3c
00000390: 4966 69bd 025b d1bd ad6a 4ebe 4162 6bbe
000003a0: 06b4 4abe a742 efbd ccd2 84bd 7d6d c8bd
000003b0: feac 22be 43e5 ffbd 2bfa bcbd ca12 c2bd
000003c0: d562 d4bd 85af 89bd 3469 523d 5e8b fbbd
000003d0: 2e3c 04bd 9e48 2c3d 26db 4ebd f937 a1bd
000003e0: 65f5 8abd f3db 27be 8d01 abbd 8052 32bd
000003f0: 5477 873d 91a7 8b3c 9b0e 81bc 1081 f83c
-0.03208345 -0.1318991 -0.19227874 -0.024461918 -0.23880243 -0.073837996 -0.0016794417 -0.06396451
-0.16712274 -0.15351404 0.03417235 -0.021414865 0.09934878 0.04059651 -0.04304852 0.08376271
0.067036614 0.16192909 0.0575083 -0.13924079 0.16795805 -0.010111419 0.020184623 0.13267022
0.101195544 0.019074447 -0.07977069 -0.0016080365 0.06573979 0.06486672 -0.032997977 0.13704973
0.015905336 -0.023912003 0.0061392104 0.061452895 0.07921471 -0.09826972 -0.07899143 0.027481422
0.11922192 -0.0020633116 -0.11364858 -0.015452558 -0.0038783667 0.1813301 0.037046894 0.0306378
-0.02244424 0.04469614 0.14772637 0.0058067585 0.05454132 -0.018882595 0.0302987 0.031350143
0.07863071 0.057213333 -0.009103773 0.06136889 0.10658767 -0.013196246 -0.049868397 -0.08153116
-0.093265094 -0.013510151 -0.06802916 -0.06617005 0.04224509 0.048384164 -0.022427695 -0.12740673
-0.058985226 0.05520426 -0.031052437 0.11921308 0.113082096 -0.05446455 -0.0019431527 0.13402025
-0.085865736 -0.12414617 0.032817062 0.110456534 -0.010423752 0.050765365 -0.0848603 0.052576363
0.039195467 0.09800856 0.04589551 -0.0043277754 -0.14777738 -0.05279016 -0.011614254 0.17874141
0.11492621 0.060665812 -0.026800603 0.067758225 -0.039546277 -0.014082311 0.0068097934 -0.034852367
-0.19066882 0.043362338 -0.14847304 0.0044514006 0.045606572 -0.004109902 0.06000938 0.01517138
-0.033882968 0.03424346 -0.031972878 -0.06851344 0.050702527 -0.14698856 -0.063073575 -0.034379426
0.17551045 0.048435405 -0.029617922 0.010186725 0.025349816 -0.08792409 -0.00052879745 0.0064693
-0.018275267 -0.13491677 0.060316484 -0.00029087524 -0.05501372 -0.0063308105 -0.014142017 0.018849071
0.108683564 0.14238049 0.08144241 0.05443899 0.01049089 -0.005857096 0.13664208 0.11415624
0.021988887 0.103301264 0.08133423 0.13698944 0.2371534 0.18681738 -0.015518029 0.064121015
0.06025022 0.07597321 0.19962306 0.03648224 0.0038817544 0.049727485 0.16163744 0.15454549
-0.23973632 -0.24004115 -0.10117543 -0.027090956 -0.056306854 -0.24202895 -0.23967938 -0.16742498
-0.12335029 -0.08976457 -0.13435374 -0.047630366 -0.17320593 -0.05118997 -0.12195864 0.049935326
0.09584495 0.113834605 0.10296641 0.12523293 0.06368195 0.085622065 0.12387974 0.11086239
0.19952588 -0.119188145 -0.052480794 0.04288041 -0.0059698015 0.04197068 -0.0772849 -0.14842156
-0.09614766 -0.01353627 -0.16834919 -0.0018921326 -0.08845118 0.0533975 -0.0025386752 -0.0924758
-0.1333031 -0.0893844 -0.108807825 -0.08009717 -0.08462592 0.08153885 -0.016029175 0.10426558
0.11638025 0.088203 0.08430182 0.09731142 0.028965134 0.029542802 0.03777362 -0.033434346
-0.04699804 0.04932433 0.044899832 0.055603098 0.047817282 -0.056164104 0.017838158 -0.009381582
-0.042188033 0.01652095 -0.036729034 0.009603499 -0.056982312 -0.102224365 -0.20157881 -0.229867
-0.19795236 -0.11682635 -0.06485519 -0.09786508 -0.15886304 -0.124949 -0.09227403 -0.0947624
-0.10370413 -0.06722931 0.05136986 -0.122824416 -0.032283954 0.04206144 -0.050501965 -0.07872004
-0.067850865 -0.16392498 -0.08349905 -0.04353571 0.06614557 0.017047675 -0.015754035 0.03033498

conv2.weight_fake_quant.scale f4 [16]
00000000: 5d5e f43a 3db4 f63a 2629 063b 8f7b de3a
00000010: c717 d63a 6d11 df3a a173 123b a1dd ce3a
00000020: 9494 023b 9243 e33a 77ba 073b 661e fe3a
00000030: 9139 d03a c967 0a3b 712c c63a 1ca9 f43a
0.0018643845 0.0018822026 0.0020471304 0.0016974079 0.001633399 0.0017018743 0.0022346752 0.0015782603
0.0019924985 0.0017338863 0.0020710507 0.0019387722 0.0015886297 0.002111899 0.0015119446 0.0018666121

conv2.weight_fake_quant.activation_post_process.min_val f4 [16]
00000000: 043d 74be 3db4 76be 6111 38be d008 36be
00000010: c717 56be 5bc0 52be d91a 92be 9157 4bbe
00000020: 9494 82be 9243 63be 251d 7ebe 8649 4dbe
00000030: 9139 50be c967 8abe 712c 46be 1ca9 74be
-0.238514 -0.24092193 -0.1797538 -0.17776799 -0.20907508 -0.2058119 -0.28536108 -0.19857623
-0.2550398 -0.22193745 -0.24815805 -0.20047578 -0.2033446 -0.27032307 -0.1935289 -0.23892635

conv2.weight_fake_quant.activation_post_process.max_val f4 [16]
00000000: a075 723e fe8d 4c3e d41c 853e 98be 5c3e
00000010: fcb2 483e 4a53 5d3e ba4e 913e e63f 4d3e
00000020: f819 753e e93b 4d3e 02ab 863e 2922 7c3e
00000030: edf2 463e b5af 713e 30bd 433e 8b47 3b3e
0.23677683 0.1997604 0.25998557 0.21557081 0.19599527 0.21613804 0.28380376 0.20043907
0.23935688 0.20042385 0.26302344 0.24622406 0.19428606 0.23602183 0.19115138 0.1828901

conv3.weight f4 [120, 16, 5, 5]
00000000: e847 253d 3640 213c bbb6 40bd 4251 8abc
00000010: 6c88 0a3d c7e3 3bbd 754b a7bc 1b07 e5bc
00000020: 1a27 81bd 1ca8 2bbc fa4d 083c 27a9 883c
00000030: 5300 82bd 6838 fabc c934 53bd 90b4 52bd
00000040: 2b42 29bd 250b 8f3c 8304 713c 0bd4 fdbb
00000050: 26ae 033d be82 00bd c874 73bd 8c72 b13c
00000060: 738e 30bd a392 f1bb 4faa 29bd a7ee c6bc
00000070: feeb ee3c fa46 193d eca7 eebc 6c0f 04bd
00000080: 566a e2bc aa12 f7bc fbfa c73c ea71 b13c
00000090: e37e 303d beb7 4fbd c28b 1ebd 0029 97ba
000000a0: 2ab8 1fbc 3b63 4bbd bb02 a2bc 0197 8ebc
000000b0: 5f19 d43c f0af 19bc 34cd bebc 7355 45bd
000000c0: 2653 24bd 5179 81bd d2a7 c23c 0e06 033b
000000d0: d0a7 bc3b d774 a7ba d064 c2bb c112 06bd
000000e0: cb63 2cbd b137 7a3c 95cc 383d 15ca 123b
000000f0: 0060 4c3b 8d2b 103d 8906 003d 4efc b83c
00000100: ff0b 30bd d1c6 053d 4f2d ffbc a918 43bd
00000110: 0b71 cabc c079 c6ba 5dc4 a9bc dfee 13bc
00000120: 3752 bdbb 2f9c a4bc 548c 23bc 6158 273d
00000130: 572e ffbc 1802 45bd a557 de3a 9237 57bd
00000140: 4825 33bd 54a5 083c 6625 2bbd f643 85bc
00000150: 917a 53bd 141c c23c 57c8 dfbc 8d5b 82bd
00000160: ef45 64bc cce8 873c 1866 0bbc b6e1 2fbd
00000170: 5279 6abd 664c 99bd 5c5e 733b 13b0 993c
00000180: 6ca1 2c3b df40 24bc 5d88 113d 4f5c 213d
00000190: 69da 68bb 0f61 0fbd 5b82 a5bb 3a92 9d3c
000001a0: a62e a2bb 22b9 87bb 866a 5ebd b197 a83c
000001b0: e165 53bd 0928 0cbd 49ea 56bc 66e0 f43c
000001c0: df1d c3bc a6db c9bc 5f9e 003d ea7d aebc
000001d0: d284 a13c c6d8 28bd eab0 74bc a9b3 dfbc
000001e0: 700b 3abd dad3 b2bc dafb 293c f998 cdbc
000001f0: 22cb 60bd 5816 9bbc 5a84 363c f765 6c3c
00000200: b423 66bd 18cc e1bc 9bc7 813c 917c 86bd
00000210: 163c d8bc 6a26 29bd 84b0 143c 6966 803a
00000220: aa70 17bd e1b1 85bd 6239 90bb ff96 c53b
00000230: ed1c 42bd 0934 2dbd cc99 16bd 59f4 eabb
00000240: 76dd 94bc 4df6 e6bc 3ffc 39bd 4182 01bd
00000250: 249a c3bc ed39 59bd e018 33bb 5380 54bd
00000260: ec22 29bd 4a4e 933c 8837 153c 04d4 01bd
00000270: ddc3 533b ab31 c3bc ec92 013d 8fbe 683b
00000280: 57d2 f23c fa45 353d cae4 d53c f748 b5bc
00000290: 170b 2a3d 08bd 2ebd 4175 ce3c 5164 19bd
000002a0: 4f51 fa3b 7e70 fbbc f08a 953c 21f1 9c3c
000002b0: 8634 5e3c d8ed b7bc 08e2 d03c b3b6 9b3c
000002c0: 38d1 5bbc a308 823c 35b1 913b 402e d7bb
000002d0: 5899 f23c bd99 17bd bc93 223d 4e92 1fbd
000002e0: 12c9 123c 4b82 02bd 6b79 03bd 5f60 ec3c
000002f0: d76d d33c 125d 35bc c1f9 3cbc d781 1a3c
00000300: 97e7 4fbd 0855 fabc 4da5 debc 9c6e 63bc
00000310: eb31 64bd 3107 2dbc 1727 03bb c48d 05bd
00000320: d8fd e33c ee57 fa3c 569a 5bbb 691d 533b
00000330: 0dba 9abd e738 46bd c30d 143d 98dc 11bc
00000340: 15d5 c83c 4f18 593c 5de0 c9bc 2073 e7bc
00000350: 5729 c5bc 2f73 08bd eaf0 dfbc cbc7 153d
00000360: c062 18ba 93d8 833c 2172 2a3d be9f 813c
00000370: 6068 95ba 74bf 05bd 0296 09bd e560 07bd
00000380: 8907 42bd 98fe f6bc 5c53 97bd 6da9 97bd
00000390: 830c 853c b28f e63c 6ca9 bebc 07f6 5fbd
000003a0: 8b35 d3bc 3874 47bd e943 a33c 817a 16bd
000003b0: ace7 2fbc e3b1 c03b 9fda fdbc 1c86 52bc
000003c0: fcb8 96bc 5a66 87bc 9152 193c 0aad 1dbd
000003d0: 306e 17bd a30f 8cba dcbe 1f3c 485d 74b9
000003e0: 8194 3abd 3d1c c0bc c076 acba 3e1a 93bd
000003f0: 6345 3fbd 516e 84bd a24d 7ebd 9739 2abd
0.04035178 0.009841969 -0.047049265 -0.01688445 0.03382151 -0.045871522 -0.020421723 -0.02795749
-0.06306286 -0.010477092 0.008319372 0.01668222 -0.06347718 -0.030544475 -0.05156401 -0.05144173
-0.04132287 0.017461369 0.014710548 -0.0077462248 0.032148503 -0.031374685 -0.059437543 0.021661066
-0.0431046 -0.007372217 -0.041422185 -0.02428372 0.029165264 0.037421204 -0.029132806 -0.03224127
-0.027638596 -0.030160267 0.024411669 0.021660764 0.04308976 -0.05071234 -0.038707502 -0.0011532605
-0.009748498 -0.04965518 -0.019776693 -0.017405989 0.025891004 -0.009380326 -0.023291208 -0.048177194
-0.04011836 -0.063219674 0.023761664 0.0019992623 0.0057573095 -0.001277591 -0.005932428 -0.03273273
-0.042087357 0.015272067 0.04511698 0.0022398282 0.003118515 0.035197783 0.031256232 0.022581246
-0.04298019 0.03266031 -0.031149535 -0.04763094 -0.024712106 -0.0015142485 -0.020723516 -0.009029119
-0.005777623 -0.020094005 -0.009982187 0.04085577 -0.031150026 -0.0480977 0.0016963376 -0.05254323
-0.043736726 0.008340199 -0.041783713 -0.016267758 -0.05163056 0.02369503 -0.02731721 -0.06365118
-0.013932689 0.016590498 -0.008508228 -0.042939864 -0.057244606 -0.07485275 0.00371351 0.018760717
0.0026341332 -0.010025232 0.035530437 0.039394673 -0.0035530573 -0.03500467 -0.00505094 0.019234765
-0.0049494086 -0.0041419426 -0.054300807 0.020580145 -0.05161083 -0.034217868 -0.013117381 0.029892158
-0.023817955 -0.02464087 0.031401034 -0.021300275 0.019716654 -0.041222356 -0.014934758 -0.027307348
-0.045421064 -0.021829534 0.0103749875 -0.025097357 -0.054881223 -0.018931553 0.0111399535 0.014428607
-0.056186393 -0.02756314 0.01584225 -0.06566728 -0.026395839 -0.0412964 0.009075288 0.0009796146
-0.03697268 -0.06528068 -0.004401372 0.006029963 -0.047390867 -0.042285953 -0.036767766 -0.007170242
-0.018172007 -0.028193617 -0.045406576 -0.03161836 -0.02387721 -0.053033758 -0.002732806 -0.051880192
-0.04129307 0.017981667 0.009107478 -0.031696334 0.0032312789 -0.023827394 0.031634256 0.0035513972
0.029641313 0.044256188 0.026110072 -0.022129519 0.041514482 -0.042660743 0.025202395 -0.037449185
0.0076390873 -0.030693289 0.018254727 0.019157948 0.013562327 -0.02245228 0.025498405 0.019008016
-0.013416581 0.015873259 0.0044461736 -0.0065667927 0.029614136 -0.03701185 0.03969167 -0.038957886
0.008959072 -0.03186254 -0.032098215 0.028854547 0.025809212 -0.011069553 -0.011534155 0.00943037
-0.05075797 -0.030558124 -0.02717843 -0.013881352 -0.055711668 -0.010560797 -0.0020012313 -0.0326059
0.027831003 0.030559506 -0.003350874 0.0032213575 -0.075550176 -0.04839411 0.036145937 -0.008902691
0.024515668 0.0132504245 -0.024643118 -0.028253138 -0.024067564 -0.033312973 -0.027336556 0.03656749
-0.0005813055 0.016094482 0.041612748 0.015823241 -0.0011398904 -0.032653287 -0.033590324 -0.03305139
-0.047370467 -0.030150697 -0.073889464 -0.07405362 0.016241318 0.028144691 -0.023274146 -0.05467799
-0.025782367 -0.04869482 0.019929843 -0.036737923 -0.010736387 0.0058805807 -0.030988036 -0.012849357
-0.018398754 -0.016528297 0.009358064 -0.0384951 -0.036970317 -0.0010685812 0.009750094 -0.00023304403
-0.04555178 -0.023450965 -0.0013157949 -0.0718274 -0.04669703 -0.06466354 -0.062085755 -0.04155883

conv3.weight_fake_quant.scale f4 [120]
00000000: c0ed 1e3a 92de dc3a 3365 d13a ec6f 173b
00000010: f049 d73a bc09 c23a f09d 1e3b 2c44 0c3a
00000020: d25b 053b 3235 0c3b 2a46 013b 396d de3a
00000030: 4ccf ff3a 7938 ae3a fe50 f43a 551a c73a
00000040: f666 e639 e038 363a 9225 103a cd51 d93a
00000050: bb80 e93a 4e76 fa3a 3287 063a 8782 143b
00000060: d4ce 163b 0f9e 093b a9c5 d93a c41a ea3a
00000070: 1851 d43a 58d0 a73a c48c 1b3a 9682 e03a
00000080: 7ac7 e63a f83a e539 b4db c33a 5881 163a
00000090: c29c bf3a 8a11 033a 6968 1e3b a443 083a
000000a0: 0077 d63a 1487 da3a 64c6 043b 7ccf 0c3b
000000b0: a4e6 613a 5d57 8a3a b29b 033a 1091 b53a
000000c0: d01e 103b b717 f83a 6540 1c3b 225c 263a
000000d0: fb1e e93a b650 1e3a 2f97 cd3a dec7 da3a
000000e0: 4a5e 2b3a 2b8a c83a 4114 043b c9e5 b23a
000000f0: b2b7 b13a 8d10 903a 5fa3 f23a c47e 093a
00000100: 5ff0 273a 16ac 373a 3424 eb3a 13f7 f73a
00000110: 393e 233b 4875 d03a cad3 f53a 0454 313a
00000120: 63d8 d63a 66c1 ea3a eda4 f33a a47b 0a3b
00000130: 6e13 e139 bce9 123b cc3c 003b 1899 233a
00000140: 2f5f 093b 63dc e23a 29ec 0c3b 087b f83a
00000150: 0ed1 db3a 784f e339 fa72 f73a a2a7 073b
00000160: 457d d83a 58c2 b43a b24f d43a 1a62 0b3a
00000170: 9a4f 243b db16 ec3a 650a ab3a 29b6 e23a
00000180: de24 043b 9c60 013a 2f67 573a cade b53a
00000190: d72f 2c3b 4b6a 093b da3d 2b3b 180a 123a
000001a0: 0ac2 f23a 9661 053a 0729 d33a 0bbd 023b
000001b0: 3b21 d13a 714d 0f3b 9c16 003b 0c1c e839
000001c0: 24d8 b53a a962 363a b633 c43a 0338 ef3a
000001d0: 6793 df3a 7a8c ea3a 1260 103a d1df f23a
0.0006062649 0.0016850999 0.0015975594 0.0023107482 0.0016425233 0.0014803926 0.0024203025 0.00053507346
0.0020348919 0.0021394012 0.001972566 0.0016969807 0.0019516735 0.0013291977 0.001863986 0.0015190343
0.0004394573 0.0006951224 0.00054987625 0.0016580165 0.0017814854 0.0019108744 0.000513184 0.0022660808
0.0023011463 0.0020998751 0.0016614693 0.001786076 0.0016198484 0.001280318 0.00059337565 0.0017128761
0.0017607056 0.0004372222 0.0014942796 0.00057413196 0.0014618861 0.0004999867 0.002417112 0.00051980675
0.0016362369 0.0016672336 0.0020259852 0.0021485975 0.0008617437 0.0010554601 0.0005020454 0.0013852436
0.0021991022 0.0018927966 0.0023842093 0.00063461263 0.0017785722 0.00060392485 0.0015685315 0.0016691645
0.00065371825 0.0015299966 0.0020153674 0.0013648804 0.0013558774 0.0010991261 0.0018511823 0.0005245025
0.00064063625 0.0007006539 0.0017939867 0.0018918238 0.0024908914 0.0015904093 0.0018755135 0.00067645335
0.0016391393 0.001791042 0.001858858 0.0021130824 0.0004292982 0.0022417149 0.0019567488 0.0006240769
0.0020961275 0.0017308112 0.0021503067 0.0018957565 0.0016770677 0.00043356023 0.001887887 0.0020699282
0.0016516825 0.0013790829 0.0016198067 0.00053170475 0.002507186 0.0018012183 0.0013049362 0.001729672
0.0020163576 0.00049353554 0.00082169747 0.00138756 0.0026273632 0.0020967897 0.0026129396 0.0005570962
0.0018520963 0.0005088089 0.001611025 0.0019949104 0.0015955338 0.0021866227 0.0019544726 0.00044271385
0.0013873619 0.00069574505 0.0014969024 0.0018250946 0.0017057479 0.0017894648 0.00055074797 0.0018529837

conv3.weight_fake_quant.activation_post_process.min_val f4 [120]
00000000: c0ed 9ebd f269 4fbe 3365 51be ec6f 97be
00000010: f049 57be 3551 40be 6df6 6ebe 2c44 8cbd
00000020: cbce 7cbe 2170 88be 70f7 4bbe 3471 46be
00000030: 4ccf 7fbe 7938 2ebe a1a9 70be 75a9 2abe
00000040: f666 66bd 3e01 afbd 9225 90bd cd51 59be
00000050: bb80 69be 4e76 7abe 3287 86bd 8782 94be
00000060: d4ce 96be 4889 89be a9c5 59be 9d99 5bbe
00000070: 1851 54be 94e8 e0bd 1420 9bbd 9682 60be
00000080: 9c79 5dbe f83a 65bd b4db 43be 5881 96bd
00000090: f2fc 3ebe 8a11 83bd 2cd2 61be a443 88bd
000000a0: 0a96 4fbe 3af3 56be 24f6 83be 7ccf 8cbe
000000b0: a4e6 e1bd f962 efbd b29b 83bd 6e71 2fbe
000000c0: da8d 88be 91c1 55be 70ee 65be 225c a6bd
000000d0: fb1e 69be b650 9ebd 2f97 4dbe dec7 5abe
000000e0: 4a5e abbd dbc3 2ebe 592a 75be c9e5 32be
000000f0: 4439 14be 9613 f1bd 5fa3 72be c47e 89bd
00000100: 6a7f 9cbd c626 aabd eb8d 5bbe a895 46be
00000110: 393e a3be 3ae0 2abe cad3 75be 0454 b1bd
00000120: f173 3fbe c828 60be eda4 73be a47b 8abe
00000130: 6e13 61bd 22bb 92be e173 50be 1899 a3bd
00000140: 695f 6dbe aa83 52be 2969 63be 087b 78be
00000150: 0ed1 5bbe 784f 63bd 1723 6fbe f05c 51be
00000160: 3e68 2cbe 2412 31be b24f 54be 1a62 8bbd
00000170: 4cfa 8abe 0d8c 62be da03 0dbe 29b6 62be
00000180: 8768 7ebe 9c60 81bd 1756 bcbd 234b cabd
00000190: d72f acbe 08d9 7ebe da3d abbe 180a 92bd
000001a0: 0ac2 72be 9661 85bd 0729 53be 0bbd 82be
000001b0: 3b21 51be 714d 8fbe 9c16 80be 0c1c 68bd
000001c0: 24d8 35be f49b aabd 0f31 1ebe 0338 6fbe
000001d0: 24e1 51be 7a8c 6abe 1260 90bd 7466 71be
-0.07760191 -0.20255259 -0.2044876 -0.29577577 -0.21024299 -0.18780978 -0.23336191 -0.0684894
-0.2468826 -0.26648048 -0.19918609 -0.19379121 -0.24981421 -0.1701373 -0.23502208 -0.16666205
-0.056250535 -0.08545159 -0.07038416 -0.21222611 -0.22803013 -0.24459192 -0.06568755 -0.29005834
-0.29454672 -0.2686255 -0.21266808 -0.21445318 -0.2073406 -0.10981861 -0.07574478 -0.21924815
-0.21628422 -0.05596444 -0.19126779 -0.07348889 -0.18651178 -0.0639983 -0.2205283 -0.066535264
-0.20272079 -0.20991221 -0.25773728 -0.27502048 -0.11030319 -0.116887994 -0.06426181 -0.17133114
-0.26670724 -0.20874621 -0.22454238 -0.08123042 -0.22765724 -0.07730238 -0.20077203 -0.21365306
-0.083675936 -0.170669 -0.23941936 -0.17470469 -0.1447497 -0.11771314 -0.23695134 -0.06713632
-0.0764149 -0.08308177 -0.21440856 -0.19393027 -0.3188341 -0.16687098 -0.24006572 -0.08658603
-0.18696572 -0.21890557 -0.23793383 -0.27047455 -0.05495017 -0.28658396 -0.20356704 -0.07988185
-0.23180927 -0.20558038 -0.22208084 -0.24265683 -0.21466467 -0.05549571 -0.2335323 -0.20445609
-0.1683664 -0.17292076 -0.20733526 -0.06805821 -0.27144086 -0.22123738 -0.13771 -0.22139801
-0.24844562 -0.06317255 -0.09196108 -0.098776124 -0.3363025 -0.24887478 -0.33445626 -0.071308315
-0.23706833 -0.06512754 -0.2062112 -0.25534853 -0.20422833 -0.2798877 -0.2501725 -0.056667373
-0.17758232 -0.08330527 -0.15448402 -0.2336121 -0.2049604 -0.2290515 -0.07049574 -0.23574239

conv3.weight_fake_quant.activation_post_process.max_val f4 [120]
00000000: c6cc 383d d524 5b3e abc4 1e3e e6e8 7d3e
00000010: 886b 403e a985 403e b460 9d3e cac2 493d
00000020: 1a51 843e c81c 8b3e 9e43 803e 5fb0 5c3e
00000030: 87a9 563e 0a46 153e 5c68 723e 208c 453e
00000040: 6fb9 493d 6ecc b43d 2a79 423d 7c28 563e
00000050: 19fc 373e c285 513e 5c5e 413d 603a 913e
00000060: 5f8c 943e d38a 883e 67b5 573e 8e46 683e
00000070: ddeb 3d3e b780 263e aa55 9a3d 4a0b 583e
00000080: ebf9 643e 7656 5c3d d7b6 293e 1424 473d
00000090: 881d 3e3e d0b1 6a3d 982b 9d3e 9c2c 673d
000000a0: 12ca 543e 06d2 583e d7bc 833e 00ce 643e
000000b0: a465 c63d ae42 093e ba71 483d ee25 343e
000000c0: 92fe 8e3e 8827 763e e407 9b3e 8036 6e3d
000000d0: bd8e 1c3e 00fc 603d ac0a 4a3e 12a1 4d3e
000000e0: 8079 963d 17f9 463e 180c 833e 77ba 2c3e
000000f0: 4354 303e 6cf0 0e3e 662b 4f3e 50d7 453d
00000100: 7ea0 a63d be3c b63d ec4d 693e 2507 763e
00000110: bcfd 9f3e 5dd4 4e3e 9aad 523e e558 993d
00000120: b22a 553e e3eb 683e 6f38 2d3e 179c 883e
00000130: 02a7 3c3d e9c3 913e a478 7e3e 78a4 363d
00000140: 714c 883e aa16 613e 51d2 8b3e 90fa 413e
00000150: 5a7a 3f3e 8c36 463d 1484 753e 5398 863e
00000160: 4acc 563e d358 333e 969b 413e a240 633d
00000170: fb06 a33e ad3e 6a3e 50b4 293e 9f93 383e
00000180: 941c 833e 4240 613d 61b8 d53d 0c73 343e
00000190: 3b29 9e3e 7657 883e 766a a93e 9298 623d
000001a0: 77fe 413e ecac 623d cf5d 4f3e fb18 813e
000001b0: 5a70 363e 7c4e 813e d112 463e b8e2 353d
000001c0: f06d 1d3e e4f5 b43d 4fab 423e 0509 0d3e
000001d0: 40d4 5d3e 549b 663e d296 3c3d 11fa 703e
0.045117162 0.21400769 0.1550471 0.24795875 0.1879102 0.18800987 0.3073784 0.04925803
0.25843126 0.27170396 0.25051588 0.21551655 0.20963107 0.14577499 0.23672622 0.19291735
0.04924911 0.08828054 0.047478832 0.20913881 0.17967261 0.20461181 0.04720913 0.2836485
0.29013345 0.26668414 0.21065293 0.22683164 0.18547006 0.16260038 0.075358704 0.21098056
0.22360961 0.053793393 0.16573654 0.04861839 0.18565953 0.05729848 0.30697322 0.056439027
0.20780209 0.21173868 0.2573001 0.22344208 0.09687355 0.13404343 0.048936583 0.17592594
0.27928597 0.24038517 0.30279458 0.058157444 0.15288825 0.054927826 0.19730633 0.20080975
0.07347393 0.19430958 0.25595164 0.16868006 0.17219643 0.13958901 0.20231399 0.04830104
0.0813608 0.088983044 0.22783631 0.24026163 0.3124827 0.20198198 0.20574036 0.074876584
0.20817068 0.22746234 0.16916059 0.26681587 0.04605771 0.2846978 0.24850708 0.044590443
0.2662082 0.21981302 0.27308896 0.18943238 0.18699017 0.048391864 0.23976165 0.2628809
0.20976368 0.17514353 0.18907008 0.05548156 0.31841263 0.22875471 0.1657269 0.18025063
0.2560774 0.05499292 0.10435558 0.17622012 0.3089083 0.26629227 0.33089036 0.055321284
0.18944727 0.055340692 0.20250629 0.2521437 0.17816296 0.2525519 0.19343115 0.04440567
0.15373969 0.088359624 0.19010662 0.13772972 0.21662998 0.2252019 0.04604227 0.23532893

fc1.weight f4 [84, 120]
00000000: 7eca 0d3d 50cf 7d3d 808e febc 349f 38be
00000010: b256 0abe f59a 23be e845 f4bc c644 b73d
00000020: 4375 093c fde0 b2bd 9a4f 8a3d 019c e8bc
00000030: 0de4 c8bd 1f99 8bbc b65e 813d 7736 1a3e
00000040: 7c62 81ba cd38 ab3c 3cb0 b0bd 9d43 8bbc
00000050: 46dd bcbc 4219 43bd 60b5 d3bb 3b3f 13be
00000060: 3513 51bd ee50 21be f8d2 263e dac3 bb3c
00000070: d271 28be 3080 7f3d 1ecc 43bc 5bf4 47be
00000080: f3e8 753d f329 a23d 0e37 313c 7453 d53d
00000090: 67f8 fcbc 1c39 f03c b9f8 57bd c982 ca3c
000000a0: 2b7b 353e 6ade 77bd 13f1 dfbc 6201 453e
000000b0: f5fe cd3d f5f8 173d c3b9 ac3d 7f8b 98bd
000000c0: 9c25 c73d 7268 353d 5fb8 f9bc 5b53 5e3d
000000d0: 8ea8 ac3d 6ffd ab3a 9fef 3fbb 487f 91bc
000000e0: 00f3 48ba 7459 53bc b50a d9bd e675 bbbb
000000f0: 8ce5 dbbc 52e6 ec3b 9493 8cbd 52de 01bd
00000100: 6e6f a73d 48f9 a83d 5eb3 a13c e2c8 08bd
00000110: 2cdb 033e 74d5 81bd fdac debd c345 8ebd
00000120: f56e 7cbc be16 dbbd f2a7 b1bd fdd8 16bd
00000130: 6fce c1bd 6696 49be 710f 903c 35bb 57bd
00000140: 3b50 003c 1f28 c53d 9602 36bd 0036 b13d
00000150: b2a0 1dbc 3a82 2bbd 7e13 de3c 80ec d23c
00000160: b93a 91bb 6802 82bd c078 77bc f320 4bbc
00000170: 8f35 c43d 4e08 523c 3f85 42bc edb9 483d
00000180: a20e 373d 8b14 813d fc54 2cbd c8cb c93d
00000190: 07d2 ecbd bd1d 00be 2a03 fa3d 7e97 40bd
000001a0: dd05 fabd 65ef f2bc 91cb 773e 47b4 09bc
000001b0: 4996 97bc ebe9 e4bc e90b 18be 53f5 42bc
000001c0: a238 ef3b d578 843d 3fac 8bbd cc06 903d
000001d0: b392 03be 1e34 a3bd 846f 223d df2f debd
000001e0: e851 53bc 7968 cebb c3a0 4e3c ea90 5d3e
000001f0: 3729 7f3d 4eca 96bc 9e02 d73b 4d1e 1ebc
00000200: fa25 1fbc f65d 923e c823 9ebd b68b 9e3d
00000210: ca08 303e 6ec3 07bd 2d93 b8bc 7587 a03c
00000220: 727f 5abd 5498 123d 15f6 863a f1da c3bd
00000230: 183f 433e d891 183e d49e 8c3d c507 2c3e
00000240: cc97 933e 8fce 9f3d bebe 29bd 8ca8 883d
00000250: a3d3 9b3d e002 d43c b69a 833b 7757 0d3c
00000260: 9250 ce3c 26fd 933b 44c3 d03d fc94 843d
00000270: 1d7f e939 3c59 7abd 7f4b 89bd b5f4 a7bd
00000280: 784e 5bbe 4f0a f9bc 15c5 743d 54b4 53be
00000290: 9390 6b3d 7f35 97bc c8d3 afbd f461 f33c
000002a0: 6d14 b43b 7079 643d 911c b13d c2cb 27bd
000002b0: 7604 0d3e 10d2 13bd b5c3 8e3c c6a9 2f3e
000002c0: 5276 1d3d 0940 c93d fee1 d63d 35f1 a33d
000002d0: 9ac2 463b 4ff5 943d 5ba9 893d 663b 793c
000002e0: 0b2a 043d 672c c4bb 0dbe bdbd c827 dbbc
000002f0: f400 b7bd c857 5d3c 60c1 0cbd 87a3 4cbd
00000300: f7fb da3b 413e 17bc 0288 2c3e 3b53 c03d
00000310: 45a5 d5ba e815 d53d ce65 f1bb 45fd 283d
00000320: 3d51 29bd dc87 e33c 5df2 3dbd 287b 19bc
00000330: 729e 003e 7541 9e3d 4837 cc3c f854 c0bd
00000340: 7e90 413b 1645 853d 73ec e03c 40b1 93bd
00000350: 1e89 82bd e9de c9bd ce79 9d3d 4e41 d7bc
00000360: 506a 41bd d21c 3ebd 187f 79bd 1de1 b9bc
00000370: e9f9 813e 2cc4 823e fd33 88bd 7cc1 3e3d
00000380: 36cd b7bc 04ef 95bd a084 533e f490 e43d
00000390: e118 0d3e a8b5 ba3d b58b 8b3d 01d4 67bd
000003a0: 0443 303d c409 65bc ccd4 aebb 64ad 1dbd
000003b0: 8e6d f63c 0074 d43d fcf5 72bd e2f9 023e
000003c0: e132 5fbd 4a77 ce3d 8daa bd3d 4546 12be
000003d0: a2e3 ba3b a39f dc3c 28b5 093e b44d b73c
000003e0: 530c ee3d 339d bfbd e4f1 d53d 14e8 d83d
000003f0: 4fa1 98bd 6119 ca3c 66d9 34bc 4251 173e
0.03461694 0.061965287 -0.031073809 -0.18029481 -0.13509634 -0.1597708 -0.02981849 0.08948664
0.008389774 -0.08734319 0.06753464 -0.028394701 -0.09809122 -0.017040787 0.06316893 0.15059839
-0.000987127 0.020901108 -0.08627364 -0.017000014 -0.02305473 -0.04763151 -0.0064608306 -0.1437959
-0.051043708 -0.15753528 0.16291416 0.022920538 -0.16449669 0.06237811 -0.011950521 -0.19526808
0.06003661 0.079181574 0.010816349 0.10416308 -0.030880166 0.029324107 -0.052727435 0.024720566
0.17722766 -0.060514845 -0.027336633 0.19238809 0.10058395 0.03710266 0.08433869 -0.07448482
0.0972397 0.04428906 -0.030483423 0.054278713 0.08430587 0.0013121794 -0.0029287112 -0.017760888
-0.00076656044 -0.012899745 -0.10597745 -0.0057208417 -0.026842855 0.0072296048 -0.06864086 -0.03170616
0.081755504 0.082506716 0.01973885 -0.0333947 0.12876576 -0.06339541 -0.10872839 -0.069469
-0.015407314 -0.10697697 -0.08674611 -0.03682803 -0.09463202 -0.19686279 0.017585488 -0.05266877
0.007831628 0.09626793 -0.04443606 0.08652878 -0.009620832 -0.04187224 0.027108904 0.025747538
-0.004432049 -0.06348115 -0.015104473 -0.012397992 0.09580528 0.012819363 -0.011872589 0.049005438
0.04469169 0.063027464 -0.042073235 0.09853321 -0.11563497 -0.12511344 0.12207635 -0.047019474
-0.122081496 -0.029655168 0.24198748 -0.008404798 -0.018504279 -0.027943572 -0.14848293 -0.01189931
0.0073004523 0.064683594 -0.06819963 0.070325464 -0.1284893 -0.07968925 0.03965713 -0.108489744
-0.012897946 -0.006299075 0.012611571 0.21637312 0.062295165 -0.018407013 0.0065615913 -0.009650779
-0.009713644 0.28587312 -0.077216685 0.077414915 0.17190853 -0.03314536 -0.022531116 0.019595841
-0.053344198 0.035789803 0.0010296727 -0.09563244 0.19067037 0.14899385 0.068662316 0.16799839
0.2882675 0.0780307 -0.04144167 0.06672773 0.07608726 0.025880277 0.0040162457 0.00862681
0.025184903 0.0045162616 0.10193494 0.06473729 0.0004453593 -0.061120257 -0.06703853 -0.08200971
-0.21416652 -0.030400423 0.059758265 -0.20674258 0.057510924 -0.018458126 -0.08585316 0.029709794
0.005495599 0.055779874 0.08648027 -0.040965803 0.13771233 -0.036089003 0.017427305 0.17154607
0.038442917 0.09826667 0.10492323 0.08004991 0.0030328394 0.072733514 0.06721755 0.015211916
0.032266658 -0.0059867385 -0.09264765 -0.026752368 -0.08935729 0.013509698 -0.034364104 -0.04996064
0.0066828686 -0.009231151 0.16848758 0.09390875 -0.0016299865 0.10404569 -0.0073668724 0.04125716
-0.04133724 0.027774744 -0.046373714 -0.009367742 0.12560442 0.07727329 0.024928704 -0.093912065
0.0029535587 0.06507318 0.027456498 -0.07211542 -0.06373809 -0.0985697 0.07689248 -0.026276257
-0.047220528 -0.046414204 -0.06091222 -0.02269035 0.2538598 0.25540292 -0.06650541 0.04657124
-0.02243672 -0.07320979 0.20656061 0.1116046 0.13779022 0.091166794 0.068137564 -0.056598667
0.04303266 -0.013979379 -0.005335426 -0.038495436 0.030081537 0.10373688 -0.05931662 0.12790635
-0.05449188 0.10081346 0.092610456 -0.14284618 0.0057034055 0.02693159 0.13448012 0.022375919
0.116234444 -0.09356155 0.104465276 0.105911404 -0.07452642 0.024670305 -0.01103816 0.14777091

fc1.weight_fake_quant.scale f4 [84]
00000000: 5d73 f83a b332 143b 3567 fa3a 0fea ed3a
00000010: dd2c 093b 9ff8 003b f394 d63a d097 ce3a
00000020: 94ab d33a 539f 603a 6547 143b ae3e d83a
00000030: 7f02 013b cfde 0f3b 8570 133b 0b4f d23a
00000040: 38b5 093b a861 cf3a da96 fb3a 126b 113b
00000050: 9ed7 cb3a 41f1 083b d208 7d3a df38 e83a
00000060: 0612 f53a 89c4 0c3b b799 f33a 3383 f13a
00000070: a829 973a 609e ec3a 6ac6 fd3a 043b 143b
00000080: 27aa 043b 650b 113b 0d11 383b 9f57 dd3a
00000090: e727 6f3a 9607 c73a 19ef dc3a cb75 233b
000000a0: 0b99 003b b15b da3a 554e f73a 7d5a 033b
000000b0: 2abc e33a f593 023b f341 e13a 50d4 233b
000000c0: f062 043b e2f9 813a 22c5 f13a 3d42 0d3b
000000d0: 7931 f83a 0aef c43a 00d5 dc3a 21a4 893a
000000e0: d7ab fb3a b3d2 ea3a 2b8c ef3a 0b8a a43a
000000f0: 0af5 f53a b252 dc3a 6660 b43a 90e8 e43a
00000100: 82f0 cf3a 45ba fb3a dfb7 fa3a 6143 023b
00000110: 24c8 ea3a ed42 003b e427 183b 278f f53a
00000120: 801b ec3a 52d4 f53a 4f56 8c3a e6f3 003b
00000130: 963a ff3a e8cc 003b 8771 fe3a a1ec 093b
00000140: 3a11 763a a17c 0c3b afbe 803a 4cbb 213b
0.0018955279 0.0022613227 0.0019104244 0.001815142 0.0020931282 0.001967944 0.0016371295 0.0015761796
0.0016149157 0.0008568663 0.0022625562 0.0016498172 0.0019685326 0.0021952873 0.0022497487 0.0016045285
0.0021012556 0.001582195 0.0019194738 0.0022189063 0.001555193 0.0020895752 0.00096524984 0.0017717144
0.0018697388 0.0021479449 0.0018585239 0.0018425941 0.00115328 0.001805257 0.00193615 0.0022618184
0.002024302 0.0022132036 0.0028086335 0.0016887075 0.00091230724 0.0015184756 0.0016855925 0.0024942036
0.001962247 0.0016659406 0.0018867949 0.002004295 0.0017374803 0.0019924615 0.0017185792 0.0024998374
0.0020200573 0.000991639 0.0018445591 0.0021554374 0.0018935642 0.0015024852 0.0016848147 0.0010501185
0.0019200993 0.0017915576 0.0018276026 0.0012553347 0.0018765044 0.0016809313 0.0013761639 0.0017464329
0.0015864524 0.0019205293 0.0019128284 0.0019876587 0.001791243 0.001957114 0.0023217136 0.0018734679
0.0018013567 0.0018755293 0.0010706874 0.0019676625 0.0019472416 0.0019653384 0.0019412496 0.0021045583
0.0009386722 0.002143659 0.0009822453 0.0024678288

fc1.weight_fake_quant.activation_post_process.min_val f4 [84]
00000000: 3496 49be 4cde 5abe 3567 7abe 581d 5abe
00000010: c605 7fbe 0ccb 42be ef61 54be 0345 4bbe
00000020: d692 3dbe 539f e0bd 16e6 74be ae3e 58be
00000030: d590 80be 9820 19be e330 6abe 0b4f 52be
00000040: 4396 7abe 9ef9 22be e522 09be db1b 77be
00000050: 9ed7 4bbe a8cd 1dbe d208 fdbd 166f 55be
00000060: 5586 55be 9f72 2ebe d2fc 72be b040 70be
00000070: 71bf 11be 6e1c 5abe 400e 4abe ca70 30be
00000080: 9e25 63be a899 55be e84e 5fbe 9f57 5dbe
00000090: e727 efbd 99f2 45be 19ef 5cbe 3dfb 54be
000000a0: 1713 80be 0e96 19be e15e 61be 909c 2cbe
000000b0: ce19 28be f593 82be a0a6 44be 727c 5fbe
000000c0: 86a4 5dbe e2f9 01be e7ff 4fbe 6a61 47be
000000d0: 426f 10be 0aef 44be 7395 55be 21a4 09be
000000e0: d7ab 7bbe b3d2 6abe cd3b 1ebe 831e 1dbe
000000f0: 0af5 75be 6e74 25be 6796 32be 90e8 64be
00000100: bcda 0bbe 06a0 7bbe dfb7 7abe cac7 57be
00000110: 24c8 6abe ed42 80be 3d25 91be 278f 75be
00000120: 75da 31be 52d4 75be b37d 04be d84f 2fbe
00000130: 963a 7fbe e8cc 80be fd2b 4dbe a1ec 89be
00000140: 3a11 f6bd a17c 8cbe afbe 00be d002 43be
-0.19686204 -0.21373862 -0.24453433 -0.21300256 -0.24904546 -0.19022769 -0.20740484 -0.19850545
-0.18513045 -0.10967889 -0.23915896 -0.2111766 -0.25110498 -0.1495384 -0.22870211 -0.20537965
-0.24471383 -0.15915534 -0.13392217 -0.2413172 -0.1990647 -0.15410483 -0.12355198 -0.20843157
-0.20852025 -0.17035912 -0.23729256 -0.23462176 -0.14233185 -0.21299908 -0.19731998 -0.17230526
-0.22182319 -0.20859396 -0.21807444 -0.21615456 -0.11677533 -0.19330825 -0.21575584 -0.20798965
-0.25014564 -0.14998648 -0.2200885 -0.16856599 -0.16416094 -0.25503507 -0.19204187 -0.21824816
-0.21644792 -0.12692979 -0.20312463 -0.19470754 -0.14104941 -0.19231811 -0.20857792 -0.13441516
-0.2457727 -0.22931938 -0.154525 -0.1534367 -0.24019256 -0.16157696 -0.17440186 -0.2235434
-0.1365766 -0.24572763 -0.24484204 -0.21072307 -0.2292791 -0.2505106 -0.28348723 -0.2398039
-0.17368491 -0.24006775 -0.12938575 -0.17120302 -0.24924693 -0.2515633 -0.20036311 -0.26938346
-0.120150045 -0.27438834 -0.1257274 -0.19044042

fc1.weight_fake_quant.activation_post_process.max_val f4 [84]
00000000: 7682 763e 4e0a 933e 9969 753e 3b0e 6c3e
00000010: 831a 883e 5bed 7f3e c9e7 543e a0fa 4c3e
00000020: 3d04 523e fe20 b83d d61e 933e 646c 553e
00000030: 7a00 803e 11bf 8e3e a449 923e b886 373e
00000040: cea1 883e e5c2 4d3e ac9f 793e 3c48 903e
00000050: da50 0f3e 5edf 873e d434 ba3d 6d68 663e
00000060: e227 733e 00ab 8b3e 84b2 713e 2da0 6f3e
00000070: 55fb 153e 23c5 6a3e ddca 7b3e 8e12 933e
00000080: d3a0 833e 4ee9 8f3e eba0 b63e 21b0 5a3e
00000090: ca29 af3d 8779 453e b6ad 443e df2e a23e
000000a0: b12f 7f3e faa6 583e b85f 753e c853 823e
000000b0: b2f4 613e 778e 403e 6f7f 5f3e a78c a23e
000000c0: 2a5a 833e fe3d b23d 98e1 6f3e b927 8c3e
000000d0: 1641 763e 0b4c 273e 561b 5b3e 3e70 b93d
000000e0: 2ca3 563e d77d 3b3e 13ad 6d3e f740 233e
000000f0: a633 5d3e 0d9a 5a3e a5f7 323e b55e 563e
00000100: a150 4e3e d0c2 793e 7886 673e da3e 813e
00000110: b806 503e c908 3f3e 94f7 963e 2ca5 723e
00000120: 4943 6a3e d59a 293e a23d 0b3e fce3 7f3e
00000130: fee1 483e f668 513e a474 7c3e e8ae 6d3e
00000140: 5ced b33d 1bfe 843e b9ab df3d d577 a03e
0.24073204 0.287188 0.23966064 0.23052303 0.26582727 0.24992888 0.20791544 0.20017481
0.2050943 0.08990668 0.28734463 0.20842129 0.25000364 0.27880147 0.28571808 0.17922485
0.26685947 0.20093878 0.24377316 0.2818011 0.13995686 0.26537603 0.090921074 0.22500773
0.23745683 0.272789 0.23603255 0.23400946 0.14646657 0.22926764 0.24589105 0.28725094
0.25708637 0.28107685 0.35669646 0.2135625 0.085528925 0.1928464 0.1920689 0.31676385
0.24920537 0.21157447 0.23962295 0.25454545 0.22066 0.18804346 0.21825956 0.31747934
0.25654727 0.0870323 0.23425901 0.27374056 0.24048266 0.16337602 0.21397147 0.090546116
0.20960683 0.18309723 0.23210554 0.15942751 0.21601734 0.21347828 0.17477281 0.20934565
0.20147945 0.24390721 0.2260989 0.25243264 0.20315063 0.18655695 0.29485762 0.2369582
0.2287723 0.1656297 0.1359773 0.24989313 0.19617459 0.20450196 0.2465387 0.23211253
0.08785507 0.25975117 0.10921425 0.31341425

fc2.weight f4 [1, 84]
00000000: f34d 91bd c5fa a33d 827d 2fbe a86f 473e
00000010: 6e84 b63d 6461 313e 2756 e0bd cc7a c93d
00000020: c730 103e 7ec5 a43d 101a 6e3e 4d07 56be
00000030: 32f1 3a3e 1dc7 423e e95a 833e 75d7 13be
00000040: ba43 323e 5c81 ff3d e50c 543b f897 293e
00000050: 515c 5dbc d370 143e 2d83 46bd 4746 23be
00000060: 27da 2cbe 0dda b9bc 9bc4 ddbd ec17 3fbe
00000070: 8bb4 9bbc 4212 efbd 7ad6 57bd 0857 9d3c
00000080: f6cf 283e ea89 79bd cbf6 123e 9928 bcbd
00000090: 9f97 15bc fa66 1e3e 5861 28be 2b9c f53d
000000a0: 7480 44be 93e5 413e d73b 54be 5881 9f3d
000000b0: 1da7 2b3e aa80 56be 1050 8a3d 656a ea3d
000000c0: da14 64bd 1c30 76bc 4e36 d33d 5c46 843e
000000d0: 4f73 1f3e 8fff c23d 17c9 3ebe 1b57 edbd
000000e0: ae87 44be 8b4c 7ebe 0edc 2f3e 81ef 1d3d
000000f0: a4dc e9bd 1859 0f3e 38b9 e7bd a93b 08be
00000100: 8407 db3d fa1c fc3d 3d57 60be 8276 22be
00000110: 7010 34be 0be5 1fbe 120b 19be 167a 12be
00000120: 4d79 4c3e 19d9 eebd b212 3b39 3626 1d3e
00000130: a454 17be b4ca f6bd a10e 2e3e 286f 313e
00000140: 138c ee3a 4ac6 edbd 0ad3 debb d294 133e
-0.07094946 0.08006815 -0.17137721 0.19476187 0.08911978 0.17322308 -0.10953932 0.09837875
0.14081107 0.08045481 0.2325213 -0.20901223 0.18256071 0.19021268 0.25655296 -0.14437659
0.17408648 0.12475845 0.0032356319 0.16561878 -0.0135107795 0.14496164 -0.048464943 -0.15944777
-0.16880094 -0.022686983 -0.10828515 -0.18661469 -0.019006988 -0.11673404 -0.052694775 0.019206539
0.16485581 -0.06092254 0.14351957 -0.09187431 -0.009130388 0.1546897 -0.16443384 0.11992677
-0.19189626 0.18935232 -0.20725952 0.07788342 0.16762967 -0.20947519 0.06753552 0.114460744
-0.055683948 -0.015026119 0.10313092 0.2583493 0.1557133 0.095214 -0.18631397 -0.1158888
-0.19192383 -0.24833886 0.17173788 0.038558487 -0.11419037 0.1399883 -0.113146245 -0.13304009
0.10694793 0.12310214 -0.21908279 -0.1586552 -0.17584395 -0.15614717 -0.14945629 -0.14304385
0.19968148 -0.11662502 0.00017840674 0.15346608 -0.14778382 -0.12050381 0.16997768 0.17327559
0.0018199704 -0.11610086 -0.00680006 0.14412239
