experiments/exp026/model.pth (torch, 271383 bytes, 17 tensors)

conv1.weight f4 [6, 2, 5, 5]
0	0xbc97ce89	-0.0185311
1	0xbdddd10e	-0.1083089
2	0xbe31b8c2	-0.17355636
3	0x3e5fbcf6	0.21849427
4	0x3e8f8805	0.28033462
5	0x3d61ae31	0.055097762
6	0xbe04994e	-0.12949106
7	0xbe062c5a	-0.13102856
8	0x3e2f62e8	0.17127573
9	0x3ebc9bc0	0.36837578
10	0xbd880ab5	-0.06642667
11	0x3d424c8a	0.047436275
12	0xbe15eaa1	-0.14640285
13	0x3eb97a2c	0.36226022
14	0x3e22c9fe	0.15897366
15	0xbbb0af9b	-0.0053920276
16	0xbe155ed8	-0.14586961
17	0xbe0eaa89	-0.13932241
18	0xbd13abb9	-0.03605244
19	0xbc26168d	-0.010137212
20	0xbd1ff89d	-0.039055455
21	0xbe6bf1b2	-0.23041418
22	0xbebd2231	-0.36940148
23	0x3c3d2f03	0.011546853
24	0x3dd4eecb	0.10397109
25	0x3d0a0c8b	0.03370337
26	0x3d1ff47d	0.03905152
27	0xbd6bea03	-0.057596218
28	0x3dfe8ce4	0.124292165
29	0x3dd4d5c9	0.10392339
30	0x3d86021f	0.06543373
31	0x3c9908e6	0.018681
32	0x3d0b7e52	0.034056015
33	0x3dfe8d47	0.1242929
34	0xbc9effb6	-0.019409042
35	0x3cfe33d0	0.031030566
36	0xbb0e65eb	-0.0021728228
37	0x3d8e186b	0.06938251
38	0x3e2c1ee4	0.16808659
39	0xbe171072	-0.14752367
40	0xbdaed651	-0.08536971
41	0xbda5962c	-0.08085284
42	0xbe0ba788	-0.13638127
43	0xbd248d5e	-0.04017388
44	0xbd69d8a6	-0.057091378
45	0x3d247177	0.04014727
46	0xbcf0d120	-0.029396594
47	0xbe56b673	-0.20968036
48	0xbd53b51b	-0.051686388
49	0xbe1052ff	-0.1409416
50	0x3e1d5d42	0.15367606
51	0xbe3e9dd1	-0.1861489
52	0xbe388d69	-0.18022694
53	0xbe2fc27d	-0.17164035
54	0x3e731733	0.23739319
55	0x3dfe2a98	0.12410468
56	0xbdaea945	-0.08528379
57	0xbe36289e	-0.17788932
58	0x3d26477c	0.040595517
59	0x3e395a86	0.18100938
60	0xbdc80739	-0.097670026
61	0xbd3ae53c	-0.04562877
62	0xbe04cedd	-0.12969537
63	0x3d8072ed	0.0627192
64	0xbd7f18c5	-0.06227948
65	0xbda79145	-0.08182005
66	0x3e2320c0	0.15930462
67	0x3ea91c99	0.3302963
68	0xbd7321a3	-0.05935825
69	0xbdb19ce0	-0.086725
70	0xbdad0f02	-0.08450128
71	0x3e375f05	0.17907341
72	0x3e39e12a	0.181523
73	0xbd0169cb	-0.031595033
74	0xbe57164b	-0.21004598
75	0xbe5099bb	-0.20371144
76	0x3e13438d	0.14381237
77	0x3e2bc3c5	0.16773899
78	0x3df5376f	0.11973464
79	0xbe51b406	-0.2047883
80	0xbde49ba6	-0.111625
81	0x3d8bc55f	0.06824755
82	0x3db3bdc5	0.0877643
83	0xbd85969d	-0.06522868
84	0xbe102b09	-0.14078917
85	0x3e26108b	0.16217248
86	0x3ce34110	0.027740985
87	0x3d4de67f	0.050268646
88	0xbd9a8250	-0.075443864
89	0x3db1f4e3	0.086892866
90	0x3dcff0b2	0.10153331
91	0xbe046208	-0.12928021
92	0xbe8023ac	-0.25027215
93	0x3d0f1d10	0.034939826
94	0xbc0b77a2	-0.008512409
95	0x3e022371	0.12708832
96	0xbe7e5b50	-0.2483952
97	0xbe272caf	-0.16325639
98	0x3d86c8c3	0.06581261
99	0x3e2ddf9b	0.1697983
100	0xbd5fd093	-0.05464227
101	0xbdbe8b3a	-0.09303899
102	0x3c0f3730	0.008741185
103	0xbdd68d51	-0.10476173
104	0xbda1a7ee	-0.07893358
105	0xbd19344f	-0.0374034
106	0xbc9e0955	-0.01929156
107	0x3c6112d8	0.013737403
108	0xbdd91a1c	-0.10600683
109	0x3d6b6b49	0.057475362
110	0x3db0b4d9	0.08628244
111	0xbe3a36d3	-0.18184976
112	0xbdffe1fd	-0.12494276
113	0x3d54bfed	0.051940847
114	0x3ce6c522	0.028170172
115	0xbe0af0ab	-0.1356837
116	0xbcb9b165	-0.022667596
117	0x3d457a08	0.04821208
118	0xbcc8207d	-0.024429554
119	0x3d68a5cf	0.056798752
120	0x3c320fb0	0.010867998
121	0x3d848464	0.06470564
122	0xbeb08365	-0.34475246
123	0x3deaba3e	0.11461304
124	0xbd2ff9b9	-0.042962763
125	0x3de3267d	0.110913254
126	0xba105a37	-0.0005506607
127	0x3e09a2ab	0.13440959
128	0x3dfdbc72	0.12389459
129	0xbb5ea498	-0.0033972617
130	0xbde0325a	-0.10947104
131	0xbddb7e2c	-0.10717425
132	0x3cc8d961	0.024517717
133	0xbdcab06e	-0.098969325
134	0xbde94346	-0.113897845
135	0xbe5d8a2a	-0.21634737
136	0xbe30f9e8	-0.17282832
137	0xbe26a040	-0.16272068
138	0xbe3c3a66	-0.18381652
139	0xbe89211c	-0.26783073
140	0xbdda3a5a	-0.10655661
141	0xbe161c47	-0.14659224
142	0xbde014a4	-0.10941437
143	0x3cfbc470	0.030733317
144	0xbe14df08	-0.14538205
145	0xbd8631b4	-0.06552449
146	0x3d8a5007	0.06753545
147	0xbda40a2c	-0.08009753
148	0xbc3e0f66	-0.011600351
149	0xbd210cea	-0.039318956
150	0xbd7300a1	-0.05932677
151	0xbddebe31	-0.1087612
152	0xbe58a9e9	-0.21158566
153	0xbdda346c	-0.1065453
154	0xbe26773c	-0.16256422
155	0xbe5c1138	-0.21490943
156	0xbdd2c7ba	-0.10292001
157	0xbe02c683	-0.12771039
158	0x3db829ff	0.08992385
159	0xbe13a78c	-0.14419383
160	0xbdbe19f9	-0.09282298
161	0x3e184f15	0.14873917
162	0x3e850df3	0.25987205
163	0x3d1bae78	0.038008183
164	0xbdbd2e81	-0.092373855
165	0x3dbf26a1	0.0933354
166	0x3e5ecd83	0.21758084
167	0x3e275502	0.16341022
168	0x3e66e842	0.22549537
169	0x3e3057ce	0.17220995
170	0xbcf2feeb	-0.02966257
171	0x3d83b79f	0.06431507
172	0x3da4d0c6	0.08047633
173	0x3bfde7e0	0.007748589
174	0x3de44be8	0.111472905
175	0xbdbcfb54	-0.092276245
176	0x3c420dc1	0.0118440995
177	0xbe4f8584	-0.20265776
178	0xbd60a441	-0.054844145
179	0xbc2eb98d	-0.010664356
180	0xbe21340d	-0.15742512
181	0xbe2cc44b	-0.16871755
182	0xbd6a216f	-0.05716079
183	0xbd777788	-0.06041673
184	0xbd9c3e20	-0.07629037
185	0xbe02aa55	-0.12760289
186	0xbda19e71	-0.078915484
187	0x3dd97335	0.10617677
188	0xbdaa7b03	-0.08324244
189	0xbe227913	-0.15866499
190	0xbdc577ab	-0.096419655
191	0x3e430eec	0.19048661
192	0x3e1aed9c	0.15129703
193	0x3cef955e	0.029246029
194	0x3da04f75	0.07827655
195	0x3d75cca5	0.060009617
196	0x3d9f2551	0.077707894
197	0x3e7f243f	0.2491617
198	0x3d1b78ff	0.037957188
199	0x3d6f7d12	0.058468886
200	0x3dcdcde9	0.1004904
201	0x3e63b6ca	0.22237697
202	0xbdd4ffce	-0.10400353
203	0x3d0eabb9	0.034831736
204	0xbe091dc9	-0.13390268
205	0x3d9e5862	0.077317014
206	0x3e4c52f6	0.19953522
207	0x3d7c813b	0.06164668
208	0xbe399f12	-0.18127087
209	0xbd9f8bc8	-0.07790333
210	0x3e11dadf	0.14243649
211	0x3e0bddb8	0.13658798
212	0x3d3d8d67	0.04627743
213	0x3cbadc58	0.022810146
214	0xbe9cb0ec	-0.3060373
215	0x3d8a920a	0.06766136
216	0x3dfbeb25	0.1230071
217	0xbcd6906a	-0.026191909
218	0xbe3cb0d4	-0.1842683
219	0xbe988dad	-0.2979559
220	0x3dd5b5d2	0.1043507
221	0x3d8b3548	0.06797272
222	0x3de081c8	0.10962254
223	0xbd6b24c1	-0.057408098
224	0xbc5e4633	-0.0135665415
225	0xbc1358a1	-0.008993299
226	0xbe24e841	-0.16104223
227	0x3e12f0cc	0.14349669
228	0x3de93c09	0.11388404
229	0xbd8f0724	-0.06983784
230	0xbe1cde70	-0.15319228
231	0xbd0cd343	-0.034381162
232	0x3d84d3bf	0.064857
233	0x3e540f26	0.20708904
234	0x3d237692	0.039908
235	0xbe308316	-0.17237505
236	0xbd4c9a84	-0.049952045
237	0x3e65c1de	0.22437236
238	0x3e119baf	0.14219545
239	0x3bbae3dc	0.0057034325
240	0x3cb7169e	0.022349652
241	0x3e73d811	0.23812892
242	0x3b709b87	0.0036713795
243	0xbd14feb3	-0.036375713
244	0xbe0d8d6c	-0.1382348
245	0xbcab8c68	-0.020940974
246	0x3e7f65b9	0.24941148
247	0x3e1ec7d0	0.1550591
248	0x3d77b40b	0.060474437
249	0xbe5e778f	-0.21725295
250	0xbe53781a	-0.20651284
251	0x3da1f4ea	0.07908042
252	0x3e39c294	0.18140632
253	0x3d39a964	0.04532756
254	0xbe38a30f	-0.18030952
255	0xbdea5e89	-0.114438124

conv1.weight_fake_quant.scale f4 [6]
0	0x3b3e168a	0.0029005134
1	0x3b2a70f9	0.0026007278
2	0x3b3081fa	0.002693294
3	0x3b0618c3	0.0020461536
4	0x3b1caf2e	0.0023908126
5	0x3b446ca2	0.0029971977

conv1.weight_fake_quant.activation_post_process.min_val f4 [6]
0	0xbebd21f9	-0.36939982
1	0xbe8023de	-0.25027364
2	0xbeb081fa	-0.34474164
3	0xbe5c1106	-0.21490869
4	0xbe9caf2e	-0.30602401
5	0xbec46ca2	-0.3836413

conv1.weight_fake_quant.activation_post_process.max_val f4 [6]
0	0x3ebc9a5d	0.3683652
1	0x3ea91c17	0.33029243
2	0x3e09a257	0.13440834
3	0x3e850c91	0.2598615
4	0x3e7f6620	0.24941301
5	0x3ea46040	0.32104683

conv2.weight f4 [16, 6, 5, 5]
0	0xbd854536	-0.065073416
1	0xbe457540	-0.19283009
2	0xbe6fb200	-0.23407745
3	0xbd5afa03	-0.053461086
4	0xbe8d685b	-0.2761868
5	0xbdc331cb	-0.09530982
6	0xbb27a709	-0.0025581738
7	0xbd8a888e	-0.06764327
8	0xbe350cca	-0.1768066
9	0xbe0a5b71	-0.13511445
10	0x3cc3b510	0.023890048
11	0xba532de5	-0.000805585
12	0x3e106e3a	0.14104548
13	0x3d442e9c	0.047896013
14	0xbd77ca2d	-0.060495544
15	0x3da14f8b	0.078765
16	0x3d4a17dc	0.04933916
17	0x3e5b81d0	0.21436238
18	0x3dcac91d	0.099016406
19	0xbe1083ce	-0.1411278
20	0x3e53400e	0.20629904
21	0xbce13677	-0.027491791
22	0x3d0929c9	0.033487115
23	0x3e2ae460	0.1668868
24	0x3dc78313	0.09741797
25	0x3d48e50a	0.049046554
26	0xbda9cb5c	-0.08290741
27	0xbb8e780d	-0.0043478073
28	0x3d58f5b8	0.05296871
29	0x3c918f7e	0.017768618
30	0xbcc51088	-0.024055734
31	0x3e1c5d02	0.15269855
32	0x3ba67c7c	0.0050807577
33	0xbd0bad98	-0.0341011
34	0x3c429b34	0.011877824
35	0x3d8d7480	0.06906986
36	0x3d993a82	0.074818626
37	0xbe0861ae	-0.13318512
38	0xbdaa162b	-0.083050095
39	0x3cc147c6	0.023593795
40	0x3dc14180	0.09436321
41	0xbb18dab1	-0.002332371
42	0xbe03cfae	-0.12872192
43	0xbd151841	-0.036400083
44	0x3c9e7d58	0.019346878
45	0x3e3b39ed	0.18283816
46	0x3d2e47ef	0.04254907
47	0x3d323351	0.04350597
48	0xbd1fb679	-0.03899238
49	0x3db02270	0.086003184
50	0x3e145d27	0.1448866
51	0xb9b779b6	-0.00034995162
52	0x3d57d188	0.05269006
53	0xbcb85de4	-0.022505708
54	0x3cf7dcb7	0.030256612
55	0x3d49bcd4	0.049252346
56	0x3dadbc35	0.08483163
57	0x3d6aa394	0.057284907
58	0xbc82ebbb	-0.015981546
59	0x3d76264e	0.060095124
60	0x3e053cdd	0.13011499
61	0x39eacae6	0.0004478313
62	0xbd2ab6e9	-0.041678343
63	0xbdc4337e	-0.09580134
64	0xbde5b358	-0.11215848
65	0xbbe598fc	-0.0070067625
66	0xbd882b03	-0.06648829
67	0xbd81f907	-0.06346326
68	0x3d264a41	0.040598158
69	0x3d3ebdde	0.04656779
70	0xbd069d85	-0.032865066
71	0xbe1afbe3	-0.1513515
72	0xbd92329e	-0.07138561
73	0x3d557a9b	0.05211888
74	0xbd1d8469	-0.038456354
75	0x3e1595c2	0.1460791
76	0x3de412cc	0.11136398
77	0xbd9a9f6d	-0.07549939
78	0xbbfa8f02	-0.0076464424
79	0x3e2ce72c	0.1688506
80	0xbdde8814	-0.108657986
81	0xbe2afea5	-0.16698702
82	0x3c8b7f1d	0.017028386
83	0x3dde2eb5	0.108487524
84	0x3a7780f1	0.0009441516
85	0x3d4dc00d	0.050231982
86	0xbded44b6	-0.11585371
87	0x3d56ac07	0.05241015
88	0x3d6ad2b5	0.057329852
89	0x3df91ce7	0.12163716
90	0x3dac7a19	0.08421726
91	0x3c9c5990	0.019085675
92	0xbe23967c	-0.15975374
93	0xbd85f435	-0.065407194
94	0xbd08501e	-0.03327953
95	0x3e5397c5	0.20663364
96	0x3e097955	0.13425191
97	0x3d7cb2bd	0.061693896
98	0xbd28c871	-0.04120678
99	0x3d22ddf7	0.039762463
100	0xbd7495d0	-0.059713185
101	0xbc99b418	-0.018762633
102	0xbba84145	-0.005134734
103	0xbdd1618b	-0.10223683
104	0xbe818107	-0.25293753
105	0x3d45a17a	0.0482497
106	0xbe2af2f4	-0.16694242
107	0xbd5ab4fb	-0.053395253
108	0x3ca80546	0.020510327
109	0xbca7c69c	-0.020480447
110	0x3d63c824	0.05561079
111	0x3c9bf2f5	0.01903675
112	0xbda59a70	-0.08086097
113	0x3c8cee40	0.01720345
114	0xbd631a79	-0.05544517
115	0xbd246bfb	-0.04014204
116	0x3db69696	0.08915441
117	0xbe38ff85	-0.18066223
118	0xbd9a63b6	-0.075385496
119	0xbd9d0092	-0.076661244
120	0x3e501b4f	0.20322917
121	0x3d4d1661	0.05007017
122	0xbd60c7e2	-0.054878123
123	0x3c2c0e04	0.010501388
124	0xbc9d07d4	-0.019168772
125	0xbdbfbff4	-0.09362784
126	0xbc3fe2d2	-0.011711793
127	0xbc9d3515	-0.01919035
128	0xbd0db72a	-0.034598507
129	0xbe0701ce	-0.13184282
130	0x3d9e5a14	0.07732025
131	0xbcf5542e	-0.029947367
132	0xbd973ca4	-0.07384613
133	0xbc78e8ba	-0.015192205
134	0x3b4f63a9	0.0031645095
135	0xbb931471	-0.004488521
136	0x3dc966cd	0.09834061
137	0x3e19d507	0.1502267
138	0x3d43dcc7	0.04781797
139	0x3d71b551	0.059010807
140	0x3c53b425	0.012921368
141	0xbce9b99d	-0.02853089
142	0x3e21fa76	0.158182
143	0x3e15c8b1	0.14627339
144	0x3cdaf9b3	0.026730394
145	0x3db726f5	0.08942977
146	0x3dab8d7f	0.083765976
147	0x3e07ce03	0.13262181
148	0x3e808d37	0.25107738
149	0x3e25c134	0.16186982
150	0xbc815067	-0.01578541
151	0x3d929d94	0.07158962
152	0x3d7cd377	0.061725106
153	0x3da270d9	0.0793168
154	0x3e7619c2	0.24033263
155	0x3d1e47f2	0.03864283
156	0x3c87aabd	0.016560907
157	0x3d73fd07	0.059567478
158	0x3e4ec6ab	0.20192973
159	0x3e5b8b9a	0.21439973
160	0xbe81a120	-0.2531824
161	0xbe9bc585	-0.30424133
162	0xbe265a84	-0.16245466
163	0xbd17f4b6	-0.03709861
164	0xbd1ad937	-0.03780481
165	0xbe97b5c0	-0.29630852
166	0xbe9789ee	-0.2959742
167	0xbe707b48	-0.23484528
168	0xbe1f1b50	-0.15537763
169	0xbdc3f784	-0.09568694
170	0xbe1cd118	-0.15314138
171	0xbdb19b9a	-0.08672257
172	0xbe42a41b	-0.19007914
173	0xbd29a602	-0.041418083
174	0xbde1eefa	-0.11031909
175	0x3d986901	0.07441903
176	0x3de8f717	0.11375254
177	0x3dde2209	0.108463354
178	0x3dc77215	0.09738556
179	0x3e1a627b	0.1507663
180	0x3daae34a	0.08344133
181	0x3dc05187	0.0939055
182	0x3e1b133a	0.15144053
183	0x3e177513	0.14790754
184	0x3e4be2c9	0.1991073
185	0xbe17d0fc	-0.14825815
186	0xbd7ada6f	-0.06124347
187	0x3c6afd13	0.014342564
188	0x3c1fb303	0.00974727
189	0x3cfe077b	0.031009426
190	0xbddc4be0	-0.107566595
191	0xbe0a1b1f	-0.13486908
192	0xbe231f19	-0.15929832
193	0xbda52dca	-0.08065374
194	0xbe5d8983	-0.21634488
195	0x3d1bdaea	0.03805057
196	0xbd53942a	-0.051654972
197	0x3df1cde3	0.11806848
198	0xbb99b10c	-0.004690295
199	0xbdaee83c	-0.08540389
200	0xbe1c35ae	-0.15254852
201	0xbdd8d5ea	-0.10587676
202	0xbdfed69e	-0.12443279
203	0xbd9b2532	-0.07575454
204	0xbdba880b	-0.091079794
205	0x3da5ec8b	0.081017576
206	0xbc2cd46a	-0.01054869
207	0x3de51d65	0.11187247
208	0x3e0128cc	0.12613219
209	0x3dc2f4d3	0.09519353
210	0x3d93d82c	0.07218966
211	0x3db9b121	0.09066988
212	0x3cf1769b	0.0294755
213	0x3d021f8e	0.031768374
214	0x3d1b753a	0.037953593
215	0xbd1aa8ab	-0.03775851
216	0xbd5c7105	-0.05381872
217	0x3d346c62	0.044048674
218	0x3d2be35e	0.04196488
219	0x3d5de604	0.054174438
220	0x3d242d0f	0.040082034
221	0xbd859662	-0.06522824
222	0x3c0eb5f4	0.008710373
223	0xbc7350a9	-0.014850774
224	0xbd353f25	-0.044249672
225	0xbc851745	-0.016246447
226	0xbd8b8a0d	-0.068134405
227	0xbc409e2c	-0.011756461
228	0xbdad0b31	-0.084494
229	0xbda1f2e7	-0.07907658
230	0xbe3e1a70	-0.18564773
231	0xbe62cd62	-0.2214866
232	0xbe5a1b9f	-0.21299599
233	0xbe2bc3c7	-0.16773902
234	0xbd8a0992	-0.06740107
235	0xbdb801c9	-0.089847155
236	0xbe540aa4	-0.20707184
237	0xbe35f0a4	-0.17767578
238	0xbe2e0ba1	-0.16996624
239	0xbe05fab7	-0.13083921
240	0xbe25fdbf	-0.16210078
241	0xbdefb0df	-0.11703657
242	0x3c07405d	0.0082550915
243	0xbe18c72d	-0.1491973
244	0xbd04ddfb	-0.03243826
245	0x3db21450	0.086952806
246	0xbc77dd2c	-0.015128415
247	0xbd851dd2	-0.064998284
248	0xbda4aab3	-0.08040371
249	0xbe0e8163	-0.13916545
250	0xbd9a4a45	-0.07533697
251	0xbcff204f	-0.031143336
252	0x3dc900cc	0.09814605
253	0x3d391fb2	0.045196243
254	0xbcd2f744	-0.025752671
255	0x3c909298	0.017648026

conv2.weight_fake_quant.scale f4 [16]
0	0x3b0d66d9	0.0021576195
1	0x3b1bc849	0.0023770502
2	0x3b0829b3	0.0020776808
3	0x3b12e2da	0.0022413046
4	0x3aee7896	0.0018193896
5	0x3af8f8b5	0.0018995019
6	0x3b2ec229	0.0026666021
7	0x3b09db30	0.0021035187
8	0x3b126047	0.0022335218
9	0x3b05cd2a	0.0020416477
10	0x3b28e623	0.0025771938
11	0x3b10a057	0.0022068226
12	0x3ae99812	0.001782181
13	0x3b1e88d8	0.0024190452
14	0x3b01cec4	0.001980708
15	0x3b171216	0.0023051552

conv2.weight_fake_quant.activation_post_process.min_val f4 [16]
0	0xbe8d66d9	-0.2761753
1	0xbe9bc849	-0.30426243
2	0xbe4ffc97	-0.20311199
3	0xbe55b5f7	-0.20870195
4	0xbe6e7896	-0.23288187
5	0xbe73d078	-0.23809993
6	0xbeaec229	-0.34132507
7	0xbe74944b	-0.23884694
8	0xbe8ec4dd	-0.2788457
9	0xbe85cd2a	-0.2613309
10	0xbe9223f2	-0.2854305
11	0xbe8e507c	-0.2779578
12	0xbe699812	-0.22811916
13	0xbe9e88d8	-0.30963778
14	0xbe5b5b44	-0.21421534
15	0xbe971216	-0.29505986

conv2.weight_fake_quant.activation_post_process.max_val f4 [16]
0	0x3e808de7	0.25108263
1	0x3e761a06	0.24033365
2	0x3e871960	0.26386547
3	0x3e91bd14	0.28464568
4	0x3e5b0750	0.21389508
5	0x3e7706c4	0.24123675
6	0x3ea5ff29	0.32421234
7	0x3e88c77a	0.2671469
8	0x3e913b86	0.28365725
9	0x3e6bc1cf	0.23023151
10	0x3ea79457	0.32730362
11	0x3e8f7f16	0.28026646
12	0x3e61f70b	0.22066896
13	0x3e83522c	0.2564863
14	0x3e80cb26	0.2515499
15	0x3e56d40d	0.20979328

conv3.weight f4 [120, 16, 5, 5]
0	0x3d2547e8	0.04035178
1	0x3c214036	0.009841969
2	0xbd40b6bb	-0.047049265
3	0xbc8a5142	-0.01688445
4	0x3d0a886c	0.03382151
5	0xbd3be3c7	-0.045871522
6	0xbca74b75	-0.020421723
7	0xbce5071b	-0.02795749
8	0xbd81271a	-0.06306286
9	0xbc2ba81c	-0.010477092
10	0x3c084dfa	0.008319372
11	0x3c88a927	0.01668222
12	0xbd820053	-0.06347718
13	0xbcfa3868	-0.030544475
14	0xbd5334c9	-0.05156401
15	0xbd52b490	-0.05144173
16	0xbd29422b	-0.04132287
17	0x3c8f0b25	0.017461369
18	0x3c710483	0.014710548
19	0xbbfdd40b	-0.0077462248
20	0x3d03ae26	0.032148503
21	0xbd0082be	-0.031374685
22	0xbd7374c8	-0.059437543
23	0x3cb1728c	0.021661066
24	0xbd308e73	-0.0431046
25	0xbbf192a3	-0.007372217
26	0xbd29aa4f	-0.041422185
27	0xbcc6eea7	-0.02428372
28	0x3ceeebfe	0.029165264
29	0x3d1946fa	0.037421204
30	0xbceea7ec	-0.029132806
31	0xbd040f6c	-0.03224127
32	0xbce26a56	-0.027638596
33	0xbcf712aa	-0.030160267
34	0x3cc7fafb	0.024411669
35	0x3cb171ea	0.021660764
36	0x3d307ee3	0.04308976
37	0xbd4fb7be	-0.05071234
38	0xbd1e8bc2	-0.038707502
39	0xba972900	-0.0011532605
40	0xbc1fb82a	-0.009748498
41	0xbd4b633b	-0.04965518
42	0xbca202bb	-0.019776693
43	0xbc8e9701	-0.017405989
44	0x3cd4195f	0.025891004
45	0xbc19aff0	-0.009380326
46	0xbcbecd34	-0.023291208
47	0xbd455573	-0.048177194
48	0xbd245326	-0.04011836
49	0xbd817951	-0.063219674
50	0x3cc2a7d2	0.023761664
51	0x3b03060e	0.0019992623
52	0x3bbca7d0	0.0057573095
53	0xbaa774d7	-0.001277591
54	0xbbc264d0	-0.005932428
55	0xbd0612c1	-0.03273273
56	0xbd2c63cb	-0.042087357
57	0x3c7a37b1	0.015272067
58	0x3d38cc95	0.04511698
59	0x3b12ca15	0.0022398282
60	0x3b4c6000	0.003118515
61	0x3d102b8d	0.035197783
62	0x3d000689	0.031256232
63	0x3cb8fc4e	0.022581246
64	0xbd300bff	-0.04298019
65	0x3d05c6d1	0.03266031
66	0xbcff2d4f	-0.031149535
67	0xbd4318a9	-0.04763094
68	0xbcca710b	-0.024712106
69	0xbac679c0	-0.0015142485
70	0xbca9c45d	-0.020723516
71	0xbc13eedf	-0.009029119
72	0xbbbd5237	-0.005777623
73	0xbca49c2f	-0.020094005
74	0xbc238c54	-0.009982187
75	0x3d275861	0.04085577
76	0xbcff2e57	-0.031150026
77	0xbd450218	-0.0480977
78	0x3ade57a5	0.0016963376
79	0xbd573792	-0.05254323
80	0xbd332548	-0.043736726
81	0x3c08a554	0.008340199
82	0xbd2b2566	-0.041783713
83	0xbc8543f6	-0.016267758
84	0xbd537a91	-0.05163056
85	0x3cc21c14	0.02369503
86	0xbcdfc857	-0.02731721
87	0xbd825b8d	-0.06365118
88	0xbc6445ef	-0.013932689
89	0x3c87e8cc	0.016590498
90	0xbc0b6618	-0.008508228
91	0xbd2fe1b6	-0.042939864
92	0xbd6a7952	-0.057244606
93	0xbd994c66	-0.07485275
94	0x3b735e5c	0.00371351
95	0x3c99b013	0.018760717
96	0x3b2ca16c	0.0026341332
97	0xbc2440df	-0.010025232
98	0x3d11885d	0.035530437
99	0x3d215c4f	0.039394673
100	0xbb68da69	-0.0035530573
101	0xbd0f610f	-0.03500467
102	0xbba5825b	-0.00505094
103	0x3c9d923a	0.019234765
104	0xbba22ea6	-0.0049494086
105	0xbb87b922	-0.0041419426
106	0xbd5e6a86	-0.054300807
107	0x3ca897b1	0.020580145
108	0xbd5365e1	-0.05161083
109	0xbd0c2809	-0.034217868
110	0xbc56ea49	-0.013117381
111	0x3cf4e066	0.029892158
112	0xbcc31ddf	-0.023817955
113	0xbcc9dba6	-0.02464087
114	0x3d009e5f	0.031401034
115	0xbcae7dea	-0.021300275
116	0x3ca184d2	0.019716654
117	0xbd28d8c6	-0.041222356
118	0xbc74b0ea	-0.014934758
119	0xbcdfb3a9	-0.027307348
120	0xbd3a0b70	-0.045421064
121	0xbcb2d3da	-0.021829534
122	0x3c29fbda	0.0103749875
123	0xbccd98f9	-0.025097357
124	0xbd60cb22	-0.054881223
125	0xbc9b1658	-0.018931553
126	0x3c36845a	0.0111399535
127	0x3c6c65f7	0.014428607
128	0xbd6623b4	-0.056186393
129	0xbce1cc18	-0.02756314
130	0x3c81c79b	0.01584225
131	0xbd867c91	-0.06566728
132	0xbcd83c16	-0.026395839
133	0xbd29266a	-0.0412964
134	0x3c14b084	0.009075288
135	0x3a806669	0.0009796146
136	0xbd1770aa	-0.03697268
137	0xbd85b1e1	-0.06528068
138	0xbb903962	-0.004401372
139	0x3bc596ff	0.006029963
140	0xbd421ced	-0.047390867
141	0xbd2d3409	-0.042285953
142	0xbd1699cc	-0.036767766
143	0xbbeaf459	-0.007170242
144	0xbc94dd76	-0.018172007
145	0xbce6f64d	-0.028193617
146	0xbd39fc3f	-0.045406576
147	0xbd018241	-0.03161836
148	0xbcc39a24	-0.02387721
149	0xbd5939ed	-0.053033758
150	0xbb3318e0	-0.002732806
151	0xbd548053	-0.051880192
152	0xbd2922ec	-0.04129307
153	0x3c934e4a	0.017981667
154	0x3c153788	0.009107478
155	0xbd01d404	-0.031696334
156	0x3b53c3dd	0.0032312789
157	0xbcc331ab	-0.023827394
158	0x3d0192ec	0.031634256
159	0x3b68be8f	0.0035513972
160	0x3cf2d257	0.029641313
161	0x3d3545fa	0.044256188
162	0x3cd5e4ca	0.026110072
163	0xbcb548f7	-0.022129519
164	0x3d2a0b17	0.041514482
165	0xbd2ebd08	-0.042660743
166	0x3cce7541	0.025202395
167	0xbd196451	-0.037449185
168	0x3bfa514f	0.0076390873
169	0xbcfb707e	-0.030693289
170	0x3c958af0	0.018254727
171	0x3c9cf121	0.019157948
172	0x3c5e3486	0.013562327
173	0xbcb7edd8	-0.02245228
174	0x3cd0e208	0.025498405
175	0x3c9bb6b3	0.019008016
176	0xbc5bd138	-0.013416581
177	0x3c8208a3	0.015873259
178	0x3b91b135	0.0044461736
179	0xbbd72e40	-0.0065667927
180	0x3cf29958	0.029614136
181	0xbd1799bd	-0.03701185
182	0x3d2293bc	0.03969167
183	0xbd1f924e	-0.038957886
184	0x3c12c912	0.008959072
185	0xbd02824b	-0.03186254
186	0xbd03796b	-0.032098215
187	0x3cec605f	0.028854547
188	0x3cd36dd7	0.025809212
189	0xbc355d12	-0.011069553
190	0xbc3cf9c1	-0.011534155
191	0x3c1a81d7	0.00943037
192	0xbd4fe797	-0.05075797
193	0xbcfa5508	-0.030558124
194	0xbcdea54d	-0.02717843
195	0xbc636e9c	-0.013881352
196	0xbd6431eb	-0.055711668
197	0xbc2d0731	-0.010560797
198	0xbb032717	-0.0020012313
199	0xbd058dc4	-0.0326059
200	0x3ce3fdd8	0.027831003
201	0x3cfa57ee	0.030559506
202	0xbb5b9a56	-0.003350874
203	0x3b531d69	0.0032213575
204	0xbd9aba0d	-0.075550176
205	0xbd4638e7	-0.04839411
206	0x3d140dc3	0.036145937
207	0xbc11dc98	-0.008902691
208	0x3cc8d515	0.024515668
209	0x3c59184f	0.0132504245
210	0xbcc9e05d	-0.024643118
211	0xbce77320	-0.028253138
212	0xbcc52957	-0.024067564
213	0xbd08732f	-0.033312973
214	0xbcdff0ea	-0.027336556
215	0x3d15c7cb	0.03656749
216	0xba1862c0	-0.0005813055
217	0x3c83d893	0.016094482
218	0x3d2a7221	0.041612748
219	0x3c819fbe	0.015823241
220	0xba956860	-0.0011398904
221	0xbd05bf74	-0.032653287
222	0xbd099602	-0.033590324
223	0xbd0760e5	-0.03305139
224	0xbd420789	-0.047370467
225	0xbcf6fe98	-0.030150697
226	0xbd97535c	-0.073889464
227	0xbd97a96d	-0.07405362
228	0x3c850c83	0.016241318
229	0x3ce68fb2	0.028144691
230	0xbcbea96c	-0.023274146
231	0xbd5ff607	-0.05467799
232	0xbcd3358b	-0.025782367
233	0xbd477438	-0.04869482
234	0x3ca343e9	0.019929843
235	0xbd167a81	-0.036737923
236	0xbc2fe7ac	-0.010736387
237	0x3bc0b1e3	0.0058805807
238	0xbcfdda9f	-0.030988036
239	0xbc52861c	-0.012849357
240	0xbc96b8fc	-0.018398754
241	0xbc87665a	-0.016528297
242	0x3c195291	0.009358064
243	0xbd1dad0a	-0.0384951
244	0xbd176e30	-0.036970317
245	0xba8c0fa3	-0.0010685812
246	0x3c1fbedc	0.009750094
247	0xb9745d48	-0.00023304403
248	0xbd3a9481	-0.04555178
249	0xbcc01c3d	-0.023450965
250	0xbaac76c0	-0.0013157949
251	0xbd931a3e	-0.0718274
252	0xbd3f4563	-0.04669703
253	0xbd846e51	-0.06466354
254	0xbd7e4da2	-0.062085755
255	0xbd2a3997	-0.04155883

conv3.weight_fake_quant.scale f4 [120]
0	0x3a1eedc0	0.0006062649
1	0x3b005f8f	0.0019588207
2	0x3af6e36f	0.0018836091
3	0x3b47f240	0.0030509382
4	0x3b0691ef	0.002053376
5	0x3b0b24ca	0.0021231645
6	0x3b24a34f	0.0025121754
7	0x3a0c442c	0.00053507346
8	0x3b1d7728	0.0024027321
9	0x3b24e53e	0.0025161053
10	0x3b1b5844	0.0023703733
11	0x3b137947	0.0022502707
12	0x3b1adda1	0.0023630636
13	0x3ade088a	0.0016939801
14	0x3b147463	0.002265238
15	0x3ade9b52	0.0016983545
16	0x39e666f6	0.0004394573
17	0x3a3638e0	0.0006951224
18	0x3a102592	0.00054987625
19	0x3b087335	0.0020820622
20	0x3b05dc36	0.0020425445
21	0x3b07c35a	0.0020715804
22	0x3a068732	0.000513184
23	0x3b33a6e0	0.0027412698
24	0x3b34e860	0.0027604327
25	0x3b0a5252	0.0021106196
26	0x3b075c36	0.0020654327
27	0x3b0edf36	0.0021800525
28	0x3ae82b0a	0.0017713022
29	0x3ac6bcd8	0.0015162481
30	0x3a1b8cc4	0.00059337565
31	0x3b071f6a	0.002061809
32	0x3b220ed1	0.002472807
33	0x39e53af8	0.0004372222
34	0x3ae96901	0.0017807783
35	0x3a168158	0.00057413196
36	0x3aee0ce0	0.0018161796
37	0x3a8923c4	0.001046293
38	0x3b2b2b9d	0.0026118525
39	0x3a0843a4	0.00051980675
40	0x3b0ef100	0.0021811128
41	0x3b0f135c	0.0021831607
42	0x3b3017ae	0.0026869583
43	0x3b31504f	0.0027055924
44	0x3a61e6a4	0.0008617437
45	0x3aceac06	0.001576782
46	0x3a039bb2	0.0005020454
47	0x3af2ec14	0.0018533492
48	0x3b2c1f24	0.0026263678
49	0x3b0f3413	0.0021851107
50	0x3b5e5f56	0.0033931336
51	0x3a2f75a0	0.00066932477
52	0x3b186b92	0.0023257476
53	0x3a1e50b6	0.00060392485
54	0x3ade4c08	0.0016959915
55	0x3b1429e9	0.0022607988
56	0x3a2b5e4a	0.00065371825
57	0x3afad827	0.0019137905
58	0x3b0bce5e	0.0021332721
59	0x3abe5cf8	0.0014523556
60	0x3ab2afab	0.0013632675
61	0x3aff4438	0.0019475287
62	0x3b0f7af0	0.0021893345
63	0x3a097ec4	0.0005245025
64	0x3a6c242e	0.0009008077
65	0x3a37ac16	0.0007006539
66	0x3b0e7216	0.002173548
67	0x3b026b8b	0.0019900526
68	0x3b4990d0	0.003075648
69	0x3aec56bb	0.0018031219
70	0x3b19e9f4	0.0023485394
71	0x3a315404	0.00067645335
72	0x3af9b2d7	0.0019050491
73	0x3b175e18	0.0023096856
74	0x3b083185	0.002078147
75	0x3b3273f8	0.0027229767
76	0x39e1136e	0.0004292982
77	0x3b23fd31	0.002502274
78	0x3b258dde	0.0025261561
79	0x3a239918	0.0006240769
80	0x3b138b6b	0.002251352
81	0x3b185f4d	0.0023250163
82	0x3b26feac	0.0025481386
83	0x3b07742f	0.0020668616
84	0x3b04ffe0	0.0020294115
85	0x39e34f78	0.00043356023
86	0x3b209d93	0.0024507984
87	0x3b12d81c	0.0022406643
88	0x3b03ac17	0.0020091587
89	0x3af8afbb	0.001897327
90	0x3b031086	0.0019998862
91	0x3a0b621a	0.00053170475
92	0x3b3d5918	0.0028892215
93	0x3b0810b9	0.002076192
94	0x3ad5bd10	0.0016306955
95	0x3b078673	0.0020679503
96	0x3b2f0edd	0.002671174
97	0x3a01609c	0.00049353554
98	0x3aabca63	0.0013106581
99	0x3b102fce	0.002200115
100	0x3b540138	0.003234936
101	0x3b32976e	0.0027250904
102	0x3b48994e	0.0030608955
103	0x3a120a18	0.0005570962
104	0x3b125771	0.0022329951
105	0x3a168690	0.0005742097
106	0x3b015692	0.0019735438
107	0x3b167fa5	0.0022964266
108	0x3afcebf6	0.0019296396
109	0x3b2c8dd5	0.0026329656
110	0x3b1f6b5b	0.0024325463
111	0x39e81c0c	0.00044271385
112	0x3ac2f214	0.001487317
113	0x3a3662a9	0.00069574505
114	0x3ae5cbd0	0.0017532054
115	0x3b08335d	0.0020782568
116	0x3b093da4	0.0020941282
117	0x3b07ba4c	0.0020710407
118	0x3a106012	0.00055074797
119	0x3b27081b	0.002548701

conv3.weight_fake_quant.activation_post_process.min_val f4 [120]
0	0xbd9eedc0	-0.07760191
1	0xbe805f8f	-0.25072905
2	0xbe76e36f	-0.24110197
3	0xbec7f240	-0.3905201
4	0xbe759eec	-0.23986405
5	0xbe7b7ae2	-0.24558595
6	0xbe80df54	-0.25170386
7	0xbd8c442c	-0.0684894
8	0xbe9a4f46	-0.30138606
9	0xbea4e53e	-0.32206148
10	0xbe5be175	-0.21472724
11	0xbe60eb28	-0.21964705
12	0xbe9adda1	-0.30247214
13	0xbe5e088a	-0.21682945
14	0xbe8e680b	-0.27813753
15	0xbe4a9ed7	-0.19787155
16	0xbd6666f6	-0.056250535
17	0xbdaf013e	-0.08545159
18	0xbd902592	-0.07038416
19	0xbe711aaa	-0.23545328
20	0xbe85dc36	-0.2614457
21	0xbe87c35a	-0.2651623
22	0xbd868732	-0.06568755
23	0xbeb3a6e0	-0.35088253
24	0xbeb4e860	-0.35333538
25	0xbe8a5252	-0.2701593
26	0xbe875c36	-0.2643754
27	0xbe79dbfd	-0.24400325
28	0xbe682b0a	-0.22672668
29	0xbdf85f8e	-0.121276006
30	0xbd9b2014	-0.07574478
31	0xbe871f6a	-0.26391155
32	0xbe9106ed	-0.28325596
33	0xbd653af8	-0.05596444
34	0xbe696901	-0.22793962
35	0xbd968158	-0.07348889
36	0xbe6b37a8	-0.2297045
37	0xbe0923c4	-0.1339255
38	0xbe93a43c	-0.28836238
39	0xbd8843a4	-0.066535264
40	0xbe8ef100	-0.27918243
41	0xbe8f135c	-0.27944458
42	0xbea3a317	-0.31960365
43	0xbeb1504f	-0.34631583
44	0xbde1e6a4	-0.11030319
45	0xbe23b7b0	-0.1598804
46	0xbd839bb2	-0.06426181
47	0xbe7038de	-0.23459193
48	0xbea7677f	-0.3269615
49	0xbe631869	-0.2217728
50	0xbe802efa	-0.2503584
51	0xbdaf75a0	-0.08567357
52	0xbe986b92	-0.2976957
53	0xbd9e50b6	-0.07730238
54	0xbe5e4c08	-0.21708691
55	0xbe9429e9	-0.28938225
56	0xbdab5e4a	-0.083675936
57	0xbe759464	-0.23982388
58	0xbe8bce5e	-0.27305883
59	0xbe3e5cf8	-0.18590152
60	0xbe2f0122	-0.17090276
61	0xbe1b0053	-0.15136842
62	0xbe8f7af0	-0.2802348
63	0xbd897ec4	-0.06713632
64	0xbdbab272	-0.09116067
65	0xbdaa26c6	-0.08308177
66	0xbe71d934	-0.23618013
67	0xbe6686cc	-0.22512358
68	0xbeb8914e	-0.3604836
69	0xbe5b0281	-0.21387674
70	0xbe99e9f4	-0.30061305
71	0xbdb15404	-0.08658603
72	0xbe443f85	-0.19164856
73	0xbe88bd5a	-0.26706964
74	0xbe883185	-0.2660028
75	0xbeb273f8	-0.34854102
76	0xbd61136e	-0.05495017
77	0xbea3fd31	-0.32029107
78	0xbe98f450	-0.29873896
79	0xbda39918	-0.07988185
80	0xbe81d76a	-0.2535966
81	0xbe6453dd	-0.22297616
82	0xbe831b6a	-0.25606853
83	0xbe87742f	-0.2645583
84	0xbe84ffe0	-0.25976467
85	0xbd634f78	-0.05549571
86	0xbe8f6f20	-0.2801447
87	0xbe882e9a	-0.26598054
88	0xbe3ec24e	-0.18628809
89	0xbe6d1ce2	-0.23155549
90	0xbe831086	-0.25598544
91	0xbd8b621a	-0.06805821
92	0xbea9ec30	-0.3318801
93	0xbe8810b9	-0.26575258
94	0xbe55bd10	-0.20872903
95	0xbe878673	-0.26469764
96	0xbeaf0edd	-0.34191027
97	0xbd81609c	-0.06317255
98	0xbded3166	-0.11581688
99	0xbe2b0982	-0.16702846
100	0xbed0833c	-0.40725124
101	0xbe9caa06	-0.30598468
102	0xbec8994e	-0.39179462
103	0xbd920a18	-0.071308315
104	0xbe925771	-0.28582337
105	0xbd968690	-0.073498845
106	0xbe815692	-0.2526136
107	0xbe967fa5	-0.2939426
108	0xbe7cebf6	-0.24699387
109	0xbeac8dd5	-0.3370196
110	0xbe9f6b5b	-0.31136593
111	0xbd681c0c	-0.056667373
112	0xbe34f89d	-0.17672963
113	0xbdaa9bf4	-0.08330527
114	0xbe1f264c	-0.15541953
115	0xbe88335d	-0.26601687
116	0xbe893da4	-0.2680484
117	0xbe87ba4c	-0.2650932
118	0xbd906012	-0.07049574
119	0xbea7081b	-0.3262337

conv3.weight_fake_quant.activation_post_process.max_val f4 [120]
0	0x3d38ccc6	0.045117162
1	0x3e70ffc3	0.23535065
2	0x3e2b8ed7	0.16753708
3	0x3e98fdcb	0.2988113
4	0x3e8584cb	0.26077875
5	0x3e8a0e80	0.26964188
6	0x3ea35a08	0.31904626
7	0x3d49c2ca	0.04925803
8	0x3e9c3c3a	0.305147
9	0x3e9a17a2	0.30096155
10	0x3e9a2193	0.3010374
11	0x3e925254	0.28578436
12	0x3e89444e	0.26809925
13	0x3e13d718	0.1443752
14	0x3e934b7a	0.28768522
15	0x3e5cde1b	0.21569102
16	0x3d46d5ca	0.04854373
17	0x3db4cc6e	0.08828054
18	0x3d42792a	0.047478832
19	0x3e87624f	0.2644219
20	0x3e55539a	0.20832673
21	0x3e7bff0f	0.24609016
22	0x3d415e5c	0.04720913
23	0x3e9f3602	0.31095892
24	0x3e985a03	0.29756173
25	0x3e7d4693	0.24733953
26	0x3e806d46	0.2508337
27	0x3e8dc178	0.27686667
28	0x3e601fcc	0.2188713
29	0x3e452f5e	0.1925635
30	0x3d9a55aa	0.075358704
31	0x3e6b5e9a	0.22985306
32	0x3ea0cab3	0.31404647
33	0x3d5cac30	0.05387515
34	0x3e495d63	0.1966453
35	0x3d472414	0.04861839
36	0x3e6c30c6	0.2306548
37	0x3de966ea	0.113965824
38	0x3ea9d546	0.33170527
39	0x3d672c9c	0.056439027
40	0x3e7582d8	0.23975694
41	0x3e861fbf	0.26196095
42	0x3eaeb77f	0.3412437
43	0x3e942c4b	0.28940043
44	0x3dc665a4	0.09687355
45	0x3e4d0eae	0.20025131
46	0x3d4871ba	0.048936583
47	0x3e71063c	0.23537534
48	0x3eaac6e6	0.33354872
49	0x3e8e15ab	0.27750906
50	0x3edca297	0.43092796
51	0x3d83844c	0.06421718
52	0x3e6dfe19	0.23241462
53	0x3d60fc00	0.054927826
54	0x3e59ab07	0.21256648
55	0x3e90a32e	0.28249496
56	0x3d967980	0.07347393
57	0x3e78e277	0.2430514
58	0x3e7001bc	0.23438162
59	0x3e10c9ea	0.14139524
60	0x3e314a4c	0.17313498
61	0x3e7d45b0	0.24733615
62	0x3e8a63a4	0.27029145
63	0x3d45d750	0.04830104
64	0x3dea4be6	0.11440258
65	0x3db63cbe	0.088983044
66	0x3e8d5532	0.2760406
67	0x3e8166b4	0.2527367
68	0x3ec7fdae	0.3906073
69	0x3e6a7e0e	0.22899649
70	0x3e832852	0.256167
71	0x3d9958ee	0.07487665
72	0x3e77bf71	0.24194123
73	0x3e962f5c	0.29333007
74	0x3e3b9470	0.18318343
75	0x3ea33738	0.31878066
76	0x3d3ca702	0.04605771
77	0x3e71cee8	0.23614085
78	0x3ea442c2	0.32082182
79	0x3d36a478	0.044590443
80	0x3e926454	0.2859217
81	0x3e972e8e	0.29527706
82	0x3ea5b0af	0.3236136
83	0x3e724e86	0.23662767
84	0x3e538f0d	0.20660038
85	0x3d46368c	0.048391864
86	0x3e9f5c58	0.3112514
87	0x3e91b26c	0.28456438
88	0x3e82a4bf	0.25516316
89	0x3e76be5c	0.24096054
90	0x3e59006f	0.21191572
91	0x3d6340a2	0.05548156
92	0x3ebbde66	0.36693114
93	0x3e734c68	0.23759615
94	0x3e33b8c2	0.17550948
95	0x3e5be6d7	0.21474777
96	0x3ea956bc	0.33073986
97	0x3d614042	0.05499292
98	0x3e2a72ce	0.16645357
99	0x3e8f0f6e	0.2794146
100	0x3ed25936	0.41083688
101	0x3eb1323f	0.34608647
102	0x3ec64888	0.38727212
103	0x3d629892	0.055321284
104	0x3e53289d	0.20620961
105	0x3d62acec	0.055340692
106	0x3e41ad4d	0.18913765
107	0x3e8aa71a	0.27080613
108	0x3e54e37f	0.20789908
109	0x3e814b58	0.25252795
110	0x3e4f76da	0.20260182
111	0x3d35e2b8	0.04440567
112	0x3e416c30	0.18888927
113	0x3db4f5e4	0.088359624
114	0x3e640038	0.22265708
115	0x3e1fc9ce	0.15604326
116	0x3e87a4d6	0.26492947
117	0x3e847662	0.2587157
118	0x3d3c96d2	0.04604227
119	0x3e871dd2	0.2638994

fc1.weight f4 [84, 120]
0	0x3d0dca7e	0.03461694
1	0x3d4158c7	0.047203805
2	0xbd002dfc	-0.031293854
3	0xbe71b9c1	-0.23606016
4	0xbe26e6b8	-0.1629895
5	0xbe57ffe3	-0.21093707
6	0xbc97bec4	-0.018523581
7	0x3db744c6	0.08948664
8	0x3ce245cf	0.027621178
9	0xbe04f3a8	-0.12983572
10	0x3d6011b0	0.054704368
11	0xbc53ff60	-0.012939304
12	0xbdc31d69	-0.09527094
13	0x3cb3bab2	0.02193961
14	0x3de58704	0.11207393
15	0x3e2b751b	0.16743891
16	0xba81627c	-0.000987127
17	0x3cab38cd	0.020901108
18	0xbdb0b03c	-0.08627364
19	0xbc4c2ad0	-0.012461379
20	0xbd011e17	-0.031522837
21	0xbd7fc042	-0.06243921
22	0xbbd3b560	-0.0064608306
23	0xbe008805	-0.12551887
24	0xbdf6eee2	-0.12057282
25	0xbe175b31	-0.1478088
26	0x3e440a11	0.19144465
27	0x3d34955d	0.044087756
28	0xbe21b2e9	-0.15790905
29	0x3d7f8030	0.06237811
30	0xbc43cc1e	-0.011950521
31	0xbe605b30	-0.21909785
32	0x3dbae628	0.0912593
33	0x3da229f3	0.079181574
34	0x3d2f04a9	0.042729054
35	0x3dd55374	0.10416308
36	0xbcea8ad0	-0.028630644
37	0xbca4af14	-0.020103015
38	0x3c904366	0.017610263
39	0x3cca82c9	0.024720566
40	0x3e67da1e	0.22641799
41	0xbd8897ac	-0.06669554
42	0xbdd80725	-0.10548238
43	0x3e5a51b1	0.21320225
44	0x3dcdfef5	0.10058395
45	0x3db0d850	0.08635008
46	0x3dacb9c3	0.08433869
47	0xbd2fa99b	-0.042886358
48	0x3df45777	0.11930745
49	0x3dd75729	0.10514671
50	0xbd574dd7	-0.05256447
51	0x3d33591a	0.043786146
52	0x3d95a8be	0.07307576
53	0x3aabfd6f	0.0013121794
54	0x3cb97e5f	0.022643266
55	0xbd4a5b80	-0.049403667
56	0xba48f300	-0.00076656044
57	0xbcf52eb7	-0.029929502
58	0xbe1195bc	-0.14217275
59	0xbc1cf196	-0.009579083
60	0xbd1c3537	-0.038136687
61	0x3ba85dd0	0.0051381364
62	0xbd52c61b	-0.05145846
63	0xbd01de52	-0.03170616
64	0x3d5b5918	0.053551763
65	0x3da8f948	0.082506716
66	0x3d5ba8a5	0.05362763
67	0xbc88ad1a	-0.016684104
68	0x3e309e20	0.1724782
69	0xbdaa301d	-0.08309958
70	0xbe064d54	-0.13115436
71	0xbd8cf6cf	-0.068830125
72	0xba8cacde	-0.0010732671
73	0xbd6a994b	-0.057275098
74	0xbdd76b14	-0.105184704
75	0xbd89abaa	-0.067221954
76	0xbdc1ce6f	-0.09463202
77	0xbe35d894	-0.17758399
78	0x3e00c1f8	0.12573993
79	0xbd57bb35	-0.05266877
80	0x3d0ee8cf	0.034889992
81	0x3e101e36	0.14074025
82	0x3d15d962	0.036584266
83	0x3d86ce68	0.065823376
84	0xbbf6ef2c	-0.0075358357
85	0xbd2b823a	-0.04187224
86	0x3c92262e	0.017840471
87	0x3c9097ce	0.017650511
88	0xbc92b936	-0.017910581
89	0xbe03f1e9	-0.1288525
90	0xbd24b5cb	-0.040212434
91	0xbc4b20f3	-0.012397992
92	0x3e04b637	0.12960134
93	0xbc3ebd1e	-0.011641769
94	0x3cde93c1	0.027170064
95	0x3d285ee7	0.04110613
96	0x3d97c1b8	0.07409996
97	0x3d81148b	0.063027464
98	0xbd311616	-0.043233953
99	0x3d82f483	0.06394293
100	0xbe25aa1c	-0.16178173
101	0xbe170d37	-0.14751135
102	0x3e31ff5b	0.17382567
103	0xbd40977e	-0.047019474
104	0xbe01123c	-0.12604612
105	0xbcf2ef65	-0.029655168
106	0x3e85c992	0.26130348
107	0xbcb67822	-0.02227408
108	0xbd3efcb6	-0.046627723
109	0xbda6eb2e	-0.08150326
110	0xbe1c7ef4	-0.15282804
111	0xbc42f553	-0.01189931
112	0x3cc4db75	0.024030427
113	0x3d8478d5	0.064683594
114	0xbd5dfed3	-0.054198097
115	0x3dbeb958	0.09312695
116	0xbde5e342	-0.112249866
117	0xbdf68902	-0.12037851
118	0x3d226f84	0.03965713
119	0xbe17ef67	-0.14837418
120	0xbc5351e8	-0.012897946
121	0xbd0bc313	-0.034121584
122	0x3c273999	0.010206603
123	0x3e881dce	0.2658524
124	0x3dde6ca3	0.108605646
125	0xbcb535f7	-0.022120459
126	0xb9c87f89	-0.00038241994
127	0xbc1e1e4d	-0.009650779
128	0xbd86cc49	-0.06581933
129	0x3ea0a8e4	0.31378853
130	0xbd8df57a	-0.069315866
131	0x3d6d2b42	0.057902582
132	0x3e4faa81	0.20279886
133	0xbd9d0456	-0.07666843
134	0xbd0c0884	-0.03418781
135	0xbb86ea52	-0.0041172886
136	0xbd5a2984	-0.05326225
137	0x3d129854	0.035789803
138	0x3a86f615	0.0010296727
139	0xbe0f1f00	-0.1397667
140	0x3e69de85	0.2283879
141	0x3e468ef4	0.1939047
142	0x3d8c9ed4	0.068662316
143	0x3e2f7b30	0.17136836
144	0x3ec2e358	0.38064075
145	0x3dbc569a	0.091962054
146	0xbdb77559	-0.08957929
147	0x3d8d461e	0.068981394
148	0x3db922a3	0.090398096
149	0x3bd8c4f6	0.0066152764
150	0x3b839ab6	0.0040162457
151	0x3beb5df9	0.0071828333
152	0xbd0b7181	-0.034043793
153	0x3b94118b	0.004518693
154	0x3dcd0e45	0.10012487
155	0x3d8494fc	0.06473729
156	0x3cc9cb39	0.024633037
157	0xbd89ac9a	-0.06722374
158	0xbe010b0a	-0.12601867
159	0xbda7f4b5	-0.08200971
160	0xbe8bae25	-0.272813
161	0xb9ffd6cd	-0.0004879743
162	0x3ddcf1aa	0.10788281
163	0xbe7ddc43	-0.24791054
164	0x3d6b9093	0.057510924
165	0xbc3217d0	-0.010869935
166	0xbdafd3c8	-0.08585316
167	0x3d163a35	0.036676604
168	0xbb35766d	-0.0027688995
169	0x3cb76690	0.022387773
170	0x3de7b9d6	0.11314742
171	0xbcf716d6	-0.030162256
172	0x3e4a2479	0.19740476
173	0xbd13d210	-0.036089003
174	0x3be73412	0.007055768
175	0x3e6b8439	0.22999658
176	0x3d1d7652	0.038442917
177	0x3dba77b4	0.09104863
178	0x3e162bec	0.14665192
179	0x3da08e8e	0.0783969
180	0xbbfeae1c	-0.0077722203
181	0x3cfa4bfb	0.030553808
182	0x3dbe9cf5	0.09307281
183	0x3c793b66	0.015211916
184	0x3d3fae62	0.046797164
185	0xbbc42c67	-0.0059867385
186	0xbe03f5ff	-0.12886809
187	0xbd38b278	-0.045092076
188	0xbda92b76	-0.08260243
189	0x3a06bf8e	0.0005140238
190	0xbc69c478	-0.014268033
191	0xbd4ca387	-0.04996064
192	0x3c76418d	0.015030277
193	0xbd4df088	-0.050278217
194	0x3e24a92a	0.16080156
195	0x3de8e7b1	0.11372317
196	0xbad5a545	-0.0016299865
197	0x3dba5246	0.09097724
198	0xbd52effb	-0.051498394
199	0x3d28fd45	0.04125716
200	0xbd6757e2	-0.056480296
201	0x3d202946	0.03910186
202	0xbdb30ac5	-0.087422885
203	0xbcea0214	-0.028565444
204	0x3dea272b	0.11433252
205	0x3d9e4175	0.07727329
206	0x3ca577ca	0.020198721
207	0xbe07a741	-0.13247396
208	0x3c34547e	0.011006473
209	0x3e0f1c98	0.13975751
210	0x3d81d99e	0.06340335
211	0xbd93b140	-0.07211542
212	0xbdaacf22	-0.08340289
213	0xbdc5260a	-0.09626396
214	0x3daf3565	0.08555106
215	0xbbc4ef9f	-0.0060100104
216	0xbdc6e157	-0.09710949
217	0xbd3e1cd2	-0.046414204
218	0xbd5aea15	-0.053445894
219	0xbd0c3c6d	-0.034237314
220	0x3e8afd87	0.2714655
221	0x3e9be24b	0.30446085
222	0xbdd2f68f	-0.103009336
223	0x3d3ec17c	0.04657124
224	0xbc7f1c2a	-0.01557068
225	0xbd700584	-0.05859901
226	0x3e4b7c44	0.19871622
227	0x3e24f7ca	0.16110149
228	0x3e14ceec	0.1453206
229	0x3e03e104	0.12878805
230	0x3da3a187	0.07989793
231	0xbd67d401	-0.056598667
232	0x3cdbb194	0.026818074
233	0xbc6509c4	-0.013979379
234	0xbb9d5bfe	-0.004802226
235	0xbd13b7e2	-0.036064036
236	0x3d48d997	0.049035635
237	0x3db586ec	0.08863625
238	0xbd72f5fc	-0.05931662
239	0x3e2add86	0.16686067
240	0xbd5f32e1	-0.05449188
241	0x3dcec6c6	0.10096507
242	0x3dd84213	0.10559478
243	0xbe4131f5	-0.18866713
244	0xbd26fa92	-0.040766306
245	0x3cf1fbb4	0.029538967
246	0x3e040916	0.12894091
247	0x3cb74db4	0.022375919
248	0x3e08e1c5	0.13367374
249	0xbdf411af	-0.119174354
250	0x3d9999d7	0.07500046
251	0x3df61fe2	0.120178
252	0xbdc1e4ba	-0.09467454
253	0x3d8171e4	0.06320551
254	0x3bcafdb4	0.0061947946
255	0x3e213f0d	0.15746708

fc1.weight_fake_quant.scale f4 [84]
0	0x3b06d70e	0.002057496
1	0x3b4469ea	0.0029970356
2	0x3b1e6ded	0.0024174408
3	0x3b0a717a	0.0021124766
4	0x3b2cda59	0.0026375263
5	0x3b217c91	0.0024640898
6	0x3b0097e5	0.0019621786
7	0x3b031e8d	0.0020007223
8	0x3b0c54b4	0.0021412792
9	0x3a8a5702	0.0010554495
10	0x3b32e51a	0.00272972
11	0x3b11e2df	0.002226047
12	0x3b2cfc44	0.002639548
13	0x3b34b133	0.002757144
14	0x3b40529f	0.002934612
15	0x3adacbf6	0.0016692865
16	0x3b3c8ffe	0.002877235
17	0x3b095728	0.002095649
18	0x3b12fe99	0.0022429584
19	0x3b3a6a65	0.0028444764
20	0x3aecb128	0.0018058168
21	0x3b29453a	0.0025828616
22	0x3a8f7ccc	0.0010947227
23	0x3b078efe	0.0020684595
24	0x3b1ccd2b	0.0023926
25	0x3b4b4ef6	0.0031022406
26	0x3b220c19	0.002472645
27	0x3b14855a	0.0022662492
28	0x3b01bff0	0.0019798242
29	0x3b176003	0.0023098
30	0x3b2a0e89	0.0025948605
31	0x3b49feb0	0.0030821972
32	0x3b2e7d67	0.0026625039
33	0x3b57d864	0.0032935375
34	0x3b3ec7f3	0.0029110878
35	0x3b062b69	0.0020472652
36	0x3a73e3b0	0.00093036424
37	0x3af1e907	0.0018456288
38	0x3b05f953	0.0020442798
39	0x3b5303b5	0.0032198254
40	0x3b2595d6	0.002526631
41	0x3b1745cc	0.0023082374
42	0x3b1325f5	0.0022453044
43	0x3b22a66b	0.002481843
44	0x3b06ea43	0.0020586408
45	0x3b1f4978	0.0024305265
46	0x3b1f41a4	0.00243006
47	0x3b5697f7	0.0032744387
48	0x3b3efbaa	0.0029141703
49	0x3a81f9e2	0.000991639
50	0x3b1ee05a	0.002424261
51	0x3b2a63be	0.0025999392
52	0x3b226343	0.0024778403
53	0x3af431c4	0.0018630554
54	0x3b058788	0.0020374972
55	0x3ae512bb	0.0017476896
56	0x3b25dce6	0.0025308668
57	0x3b1310f8	0.0022440534
58	0x3b11b329	0.0022232032
59	0x3ad23602	0.0016037824
60	0x3b2449a2	0.0025068303
61	0x3b10e381	0.002210826
62	0x3af3de81	0.001860574
63	0x3b023e3c	0.001987352
64	0x3b13874a	0.0022511058
65	0x3b28dc6c	0.0025766147
66	0x3b20de18	0.002454644
67	0x3b1bef3e	0.0023793723
68	0x3b0a5ad9	0.0021111278
69	0x3b11888f	0.002220664
70	0x3b3f9266	0.0029231547
71	0x3b1f5ca9	0.0024316704
72	0x3b11869b	0.0022205475
73	0x3b2349a6	0.0024915724
74	0x3aa288b7	0.0012400363
75	0x3b19f522	0.0023492058
76	0x3b0d66f6	0.0021576262
77	0x3b218cc5	0.0024650556
78	0x3b2a429c	0.0025979644
79	0x3b2859f8	0.0025688391
80	0x3a76113a	0.0009386722
81	0x3b1c8f0a	0.002388897
82	0x3a910fec	0.0011067367
83	0x3b401327	0.002930829

fc1.weight_fake_quant.activation_post_process.min_val f4 [84]
0	0xbe71b6ae	-0.23604843
1	0xbe8bad54	-0.27280676
2	0xbe911fec	-0.28344667
3	0xbe691a68	-0.2276398
4	0xbe81db44	-0.253626
5	0xbe72bc2e	-0.23704597
6	0xbe8097e5	-0.25115886
7	0xbe675439	-0.22590722
8	0xbe49a3d1	-0.19691397
9	0xbe0a5702	-0.13509753
10	0xbe8adb18	-0.2712028
11	0xbe91e2df	-0.284934
12	0xbe71160a	-0.23543563
13	0xbe574262	-0.21021417
14	0xbe9ae70a	-0.30254394
15	0xbe5594b8	-0.20857513
16	0xbe7ffacd	-0.24998017
17	0xbe58b2a5	-0.21161897
18	0xbe2028e6	-0.15640602
19	0xbe794bd1	-0.24345328
20	0xbe6cb128	-0.23114455
21	0xbe6122a3	-0.21985869
22	0xbe0f7ccc	-0.1401245
23	0xbe7cd5d9	-0.24690951
24	0xbe81120e	-0.25209087
25	0xbe48539a	-0.19563141
26	0xbe8e18be	-0.27753252
27	0xbe94855a	-0.2900799
28	0xbe11c000	-0.14233398
29	0xbe976003	-0.2956544
30	0xbea0f8f8	-0.31439948
31	0xbe624f46	-0.22100553
32	0xbe5d6726	-0.2162138
33	0xbe8eef8c	-0.27917135
34	0xbe8e0cb6	-0.27744073
35	0xbe862b69	-0.26204994
36	0xbdf3e3b0	-0.11908662
37	0xbe700f90	-0.23443437
38	0xbe85f953	-0.26166782
39	0xbe83b18b	-0.25721392
40	0xbea595d6	-0.32340878
41	0xbe3745c6	-0.1789771
42	0xbe866a2c	-0.26252878
43	0xbe5bd0f8	-0.21466434
44	0xbe52daee	-0.20591328
45	0xbe9f4978	-0.3111074
46	0xbe4d5f85	-0.20055969
47	0xbe8086dd	-0.25102893
48	0xbe67b267	-0.22626649
49	0xbe01f9e2	-0.12692979
50	0xbe6218a4	-0.22079712
51	0xbe708570	-0.23488402
52	0xbe39ff24	-0.18163735
53	0xbe73170c	-0.2373926
54	0xbe858788	-0.26079965
55	0xbe56f2c4	-0.20991045
56	0xbea5dce6	-0.32395095
57	0xbe9310f8	-0.28723884
58	0xbe5e10ee	-0.21686146
59	0xbe3c8b5d	-0.18412538
60	0xbea449a2	-0.32087427
61	0xbe50e204	-0.20398718
62	0xbe70a828	-0.23501647
63	0xbe6734cd	-0.22578736
64	0xbe252f01	-0.16131212
65	0xbe981c0f	-0.29708907
66	0xbea0de18	-0.31419444
67	0xbe83d3bf	-0.25747487
68	0xbe8a5ad9	-0.27022436
69	0xbe91888f	-0.28424498
70	0xbea825d0	-0.3284135
71	0xbe8bbf92	-0.27294594
72	0xbe613e34	-0.21996385
73	0xbea349a6	-0.31892127
74	0xbe1cc6ea	-0.15310255
75	0xbe7846ce	-0.2424576
76	0xbe8d66f6	-0.27617615
77	0xbea18cc5	-0.3155271
78	0xbe4d810d	-0.2006876
79	0xbea859f8	-0.3288114
80	0xbdf6113a	-0.120150045
81	0xbe9c8f0a	-0.3057788
82	0xbe110fec	-0.1416623
83	0xbe929235	-0.28627172

fc1.weight_fake_quant.activation_post_process.max_val f4 [84]
0	0x3e85c960	0.261302
1	0x3ec2e116	0.38062352
2	0x3e9d3111	0.30701497
3	0x3e895c97	0.26828453
4	0x3eab80a4	0.33496583
5	0x3ea03998	0.3129394
6	0x3e7d458b	0.2473356
7	0x3e821850	0.25409174
8	0x3e8b3c0b	0.27194247
9	0x3db820fe	0.08990668
10	0x3eb17f50	0.34667444
11	0x3e85469e	0.2603044
12	0x3eaba24b	0.33522257
13	0x3eb347d1	0.3501573
14	0x3ebed1fa	0.37269574
15	0x3e59165e	0.21199939
16	0x3ebb16de	0.36540884
17	0x3e88447a	0.26614743
18	0x3e91d89c	0.28485572
19	0x3eb8f590	0.3612485
20	0x3df5a552	0.11994423
21	0x3ea7f2b0	0.32802343
22	0x3dba34d4	0.090921074
23	0x3e867fe0	0.26269436
24	0x3e9b9391	0.30386022
25	0x3ec9b858	0.39398456
26	0x3ea0c801	0.3140259
27	0x3e84d198	0.25941157
28	0x3e80bc70	0.25143766
29	0x3e889fe1	0.26684478
30	0x3ea8ba6c	0.3295473
31	0x3ec86ab3	0.39143905
32	0x3ead206c	0.33813798
33	0x3ed628b3	0.41827926
34	0x3ebd4a63	0.36970815
35	0x3e7c6424	0.24647576
36	0x3daf29ca	0.085528925
37	0x3e700535	0.23439486
38	0x3e5b0aac	0.2139079
39	0x3ed15dae	0.40891784
40	0x3e96c14a	0.29444343
41	0x3e961740	0.29314613
42	0x3e91ffa9	0.28515366
43	0x3ea1611e	0.31519407
44	0x3e85dc6e	0.26144737
45	0x3e55eadd	0.20890374
46	0x3e9e0321	0.30861762
47	0x3ed4eac7	0.4158537
48	0x3ebd7db3	0.37009963
49	0x3db23dfe	0.0870323
50	0x3e9da299	0.30788115
51	0x3ea90ef7	0.3301923
52	0x3ea11e7c	0.3146857
53	0x3e724960	0.23660803
54	0x3e54e47e	0.20790288
55	0x3e634896	0.22195658
56	0x3e817c13	0.25289974
57	0x3e5c2879	0.21499814
58	0x3e908fc3	0.2823468
59	0x3e509196	0.20368037
60	0x3e631576	0.22176155
61	0x3e8fc1ba	0.2807749
62	0x3e71f6c4	0.2362929
63	0x3e8139c0	0.25239372
64	0x3e92603b	0.28589043
65	0x3ea78ab3	0.32723007
66	0x3e8501e4	0.25978005
67	0x3e9ab760	0.3021803
68	0x3e6c984a	0.23104969
69	0x3e7405ed	0.23830386
70	0x3ebe1341	0.37124065
71	0x3e9e1df0	0.30882215
72	0x3e90638e	0.28200954
73	0x3e51d696	0.20492014
74	0x3e2143a6	0.15748462
75	0x3e98c138	0.29834914
76	0x3e61a927	0.22037183
77	0x3e6ea5f7	0.23305498
78	0x3ea8ee17	0.32994148
79	0x3e82345c	0.25430572
80	0x3db3ed5c	0.08785507
81	0x3e83a355	0.2571055
82	0x3dcc7e3b	0.09985014
83	0x3ebe9301	0.3722153

fc2.weight f4 [1, 84]
0	0xbdf7f4ee	-0.121072635
1	0x3ded5fcd	0.11590538
2	0xbe4aea7c	-0.19816011
3	0x3e6c3aa2	0.23069242
4	0x3de53f10	0.11193669
5	0x3e5222d2	0.20521095
6	0xbe0c1cda	-0.13682881
7	0x3e081b5a	0.13291684
8	0x3e307b1c	0.17234462
9	0x3caeac00	0.02132225
10	0x3e9f8d95	0.31162706
11	0xbe7d5efa	-0.24743262
12	0x3e5f4e0f	0.2180712
13	0x3e5d50ea	0.21612898
14	0x3e9a341d	0.30117884
15	0xbe3c23b5	-0.18372996
16	0x3e541f13	0.20714979
17	0x3e236ab6	0.15958676
18	0xbbdffdae	-0.006835661
19	0x3e46f2bf	0.19428538
20	0x3b732cf3	0.003710565
21	0x3e3130de	0.17303798
22	0x3c009c3f	0.007849752
23	0xbe46662e	-0.19374916
24	0xbe52a796	-0.20571741
25	0xbce6ad2c	-0.028158747
26	0xbe4263de	-0.18983409
27	0xbe599a80	-0.21250343
28	0xbd1d50e6	-0.03840723
29	0xbe18672d	-0.14883108
30	0xbe3c7dd7	-0.18407379
31	0x3da713bd	0.08158062
32	0x3e47ce0e	0.19512197
33	0xbdf9741d	-0.1218035
34	0x3e6f9297	0.23395763
35	0xbe025475	-0.1272753
36	0xbc1ff3ff	-0.009762763
37	0x3e30b1a2	0.17255262
38	0xbe816384	-0.25271237
39	0x3e2834e9	0.16426434
40	0xbe60560e	-0.21907827
41	0x3e65408b	0.22387902
42	0xbe6cfd22	-0.23143438
43	0x3df263b4	0.11835423
44	0x3e40ad4e	0.1881611
45	0xbe874819	-0.26422194
46	0x3dd43a4e	0.10362683
47	0x3e3048af	0.17215227
48	0xbe094508	-0.1340524
49	0x3c952229	0.018204765
50	0x3e1b8150	0.15186048
51	0x3ea0d6f6	0.31414002
52	0x3e37a8ba	0.17935458
53	0x3e22e099	0.1590599
54	0xbe593242	-0.21210578
55	0xbe85fb10	-0.26168108
56	0xbe687e25	-0.2270437
57	0xbea01a2f	-0.31269976
58	0x3e4c18a7	0.19931279
59	0x3d1e9fac	0.038726494
60	0xbe197f2e	-0.14989921
61	0x3e31386f	0.17306684
62	0xbe2b492f	-0.16727136
63	0xbe2f3735	-0.17110904
64	0x3e1f63ab	0.15565364
65	0x3e323ad6	0.17405257
66	0xbe7d6f05	-0.24749382
67	0xbe51b784	-0.20480162
68	0xbe60de73	-0.21959858
69	0xbe4643c0	-0.19361782
70	0xbe37809b	-0.17920153
71	0xbe34a31d	-0.17640348
72	0x3e6df9ba	0.23239794
73	0xbe4ca497	-0.19984661
74	0xbbfd45e4	-0.007729279
75	0x3e3f158b	0.18660562
76	0xbe4e0508	-0.20119107
77	0xbe18aa74	-0.14908773
78	0x3e732613	0.23744993
79	0x3e4d56d1	0.20052649
80	0x3a6304cb	0.0008660077
81	0xbe1c2d07	-0.15251552
82	0x3cd0e0e1	0.025497856
83	0x3e37a1bb	0.17932789
