experiments/exp023/checkpoint.pth (torch, 793954 bytes, 21 tensors)

quant.activation_post_process.histogram f4 [2048]
000000 c0 80 af 48 34 f8 d0 41 bf 77 14 44 fc 8d 77 45
       359430.0 26.121193 593.87103 3960.874
000010 03 63 b0 45 aa 4a 8f 45 e7 2b 48 45 24 af 6b 46
       5644.3765 4585.333 3202.744 15083.785
000020 40 04 1f 45 51 bc cb 43 c2 6d b3 45 fc 1c aa 45
       2544.2656 407.47122 5741.7197 5443.623
000030 61 8e af 44 3f 0b 6d 43 22 3b d2 45 5e f9 c5 44
       1404.4493 237.04393 6727.3916 1583.7927
000040 7a 99 06 46 ba eb 63 44 f0 db 12 41 ac cb b3 42
       8614.369 911.6832 9.178696 89.8978
000050 38 4c bb 43 79 10 66 45 2a f3 a3 45 0c 75 b4 41
       374.59546 3681.0295 5246.3955 22.557152
000060 a4 c9 59 43 09 9b d1 42 8e 01 98 42 a4 51 84 43
       217.78766 104.8028 76.00304 264.63782
000070 01 a8 18 44 c4 68 d5 44 66 1c 1d 42 98 c5 08 43
       610.62506 1707.2739 39.277733 136.77185
000080 77 9e 5e 45 4a 74 35 45 33 5b 3a 40 a8 b2 a2 3f
       3561.904 2903.268 2.9118164 1.2710772
000090 dc 3f 95 44 df 67 42 43 02 cc ed 42 58 2d 68 41
       1193.9956 194.40575 118.89845 14.51107
0000a0 25 3f c9 41 4c 89 67 42 a8 8a d4 40 a4 ef 74 44
       25.155832 57.88408 6.641926 979.7444
0000b0 8e 29 7c 44 96 64 70 42 4e 9e 38 40 00 2f 10 3c
       1008.6493 60.09823 2.8846622 0.008800268
0000c0 51 21 ca 43 ad a9 ad 44 8a b6 b6 43 92 25 c9 43
       404.26028 1389.3024 365.4261 402.29352
0000d0 7d 60 c8 41 f7 b7 36 42 c9 84 c9 43 f0 8b 6f 43
       25.047113 45.679653 403.03738 239.54663
0000e0 1e e7 b9 40 ef 34 cb 41 21 42 9d 43 3c cf 16 42
       5.8094625 25.400846 314.51663 37.702377
0000f0 41 60 f8 41 af fe 95 41 cb 76 0e 41 c0 2b 70 3e
       31.046999 18.749357 8.904002 0.2345419
000100 d0 b1 a2 bc 68 26 b0 44 97 81 82 44 ef f4 32 42
       -0.019860178 1409.2002 1044.0497 44.739193
000110 24 88 1b 3f 8d 18 c1 40 1a 14 d6 40 d2 ff 2a 41
       0.6075461 6.034247 6.689954 10.687456
000120 b7 3b 4b 42 68 87 d7 42 ba 5b 55 41 73 6a d7 40
       50.808315 107.764465 13.334894 6.7317443
000130 9d 5f 32 43 59 a4 ba 42 4e 87 ce 40 cb 25 0f 41
       178.37349 93.32099 6.4540167 8.946727
000140 81 21 b0 42 21 d7 70 42 a6 0e 0e 44 7e bf f4 40
       88.06544 60.210087 568.2289 7.6483755
000150 80 a2 11 40 93 d8 6e 40 9b a2 23 41 7e 93 16 43
       2.2755432 3.7319686 10.227199 150.57614
000160 cc 47 b5 42 df 44 c5 40 c2 7f b7 40 44 3f f2 3f
       90.64023 6.164657 5.7343454 1.8925557
000170 8c c6 4e 40 88 e4 9a 40 13 7b ca 41 ab bf 23 42
       3.2308683 4.840397 25.310095 40.937176
000180 ca ce c2 3f 3a 30 eb 40 ad 5a b2 43 7a f1 06 43
       1.5219357 7.349637 356.7084 134.94327
000190 e8 f5 51 3c 0e 13 e7 40 2a 4e 26 42 c0 60 dc 40
       0.012814976 7.221076 41.576332 6.8868103
0001a0 2f fa 87 40 e8 21 8a 3f e4 9a 2f 40 61 ca 0d 40
       4.24929 1.0791597 2.7438288 2.2154772
0001b0 fa b8 80 40 30 73 82 42 1c 6c 14 42 fa 5e 96 40
       4.02258 65.224976 37.105576 4.699094
0001c0 d8 85 07 3d 4d db 4b 3f 6f b7 9e 42 50 19 26 43
       0.033086628 0.796315 79.35827 166.09888
0001d0 15 8d 47 41 40 9a 91 41 a5 f7 e3 3f 7a 63 87 40
       12.471944 18.200317 1.780995 4.230893
0001e0 24 74 3c 42 59 15 50 41 93 a2 15 3f 09 86 00 41
       47.11342 13.005212 0.58451194 8.032723
0001f0 4c ce 82 41 1d b6 0d 40 a8 c1 23 40 e0 69 a5 40
       16.35073 2.2142403 2.5586948 5.169174
000200 4d 07 05 40 f0 0b d5 bc 24 6a 97 41 0f af 82 43
       2.0785706 -0.026006669 18.926826 261.36765
000210 5f 44 bb 42 00 88 72 bc 30 41 96 3b bd 20 1a 40
       93.63354 -0.014802933 0.0045854077 2.4082482
000220 56 36 b5 3f 76 83 2a 40 44 3c 40 41 c7 44 be 40
       1.4157207 2.6642737 12.014713 5.9458957
000230 e5 13 4b 3f 47 27 0e 40 ca 30 01 42 f5 76 86 40
       0.7932723 2.2211473 32.297646 4.202021
000240 9c 54 21 3f 38 05 d1 3f 36 6a d1 40 b2 4a c1 41
       0.6301973 1.6329718 6.544215 24.161472
000250 4e 56 78 42 4e 88 9f 40 94 e9 8b 3a 7c 77 8b 3e
       62.084282 4.9853888 0.001067447 0.27239597
000260 5f 70 3d 40 60 b9 c9 41 7a 7b 08 41 ca 19 21 3f
       2.9599836 25.215515 8.530146 0.62929976
000270 9b ec a4 3f 94 26 d9 3d 08 0f 06 3e fe 81 df 3f
       1.2884706 0.10603061 0.13091671 1.7461545
000280 df 74 e1 40 3e e0 49 40 30 12 3c bc ef 29 34 40
       7.0455165 3.1543117 -0.011478946 2.8150594
000290 a4 85 5d 42 a6 44 3a 41 04 b7 80 3e 32 42 79 40
       55.38051 11.64176 0.2513963 3.8946652
0002a0 11 cc 4c 41 74 c3 74 3e 25 73 7c 3f 40 22 cd bb
       12.799821 0.23902684 0.98613197 -0.0062601864
0002b0 40 7b e8 bb a0 be 07 bc fd a7 e9 3f 47 9b 5d 41
       -0.0070947707 -0.008285195 1.8254391 13.8504095
0002c0 ff cb b0 40 b7 ce ba 3f f9 cd 92 3e 00 42 8a bb
       5.524902 1.4594334 0.2867277 -0.0042192936
0002d0 d1 53 e4 41 69 a8 e4 41 75 b4 a8 40 36 18 20 3f
       28.540926 28.582232 5.2720284 0.6253694
0002e0 3c dd c8 3e 9d 3f 9a 3f 29 20 20 41 20 e7 15 40
       0.39231288 1.2050663 10.007852 2.3422318
0002f0 c5 98 a6 3d 68 7b 9e 3f 20 24 6c 40 00 a0 02 3b
       0.08134607 1.2381411 3.689705 0.0019931793
000300 40 23 6a 3c 70 ad fe 3c d0 af 89 bb 9c 6e 98 3d
       0.014290631 0.03108856 -0.0042018667 0.07442972
000310 fd 31 f7 40 8f c8 89 42 36 c5 aa 40 80 af 08 3c
       7.724852 68.891716 5.3365736 0.008342624
000320 36 fd 35 3f 8f 93 68 3f 76 6c b8 3e b8 93 c6 3e
       0.71089494 0.90850157 0.3602025 0.38784575
000330 52 8a 18 40 4c bb 85 3e 70 4b ab 3c 60 b7 a7 3d
       2.3834424 0.2611946 0.020909995 0.08189273
000340 75 65 db 3f d0 4a 61 3e 88 9e c1 3c 00 0d e0 3a
       1.7140337 0.22001195 0.023635164 0.0017093718
000350 1e 87 5c 3e c5 41 7c 40 e8 6b 35 40 c0 b7 01 bc
       0.21535918 3.9415143 2.834711 -0.007917345
000360 10 54 22 bc c0 55 7d bc fa 61 62 3d 97 5d ef 3f
       -0.009907737 -0.015462339 0.05526922 1.8700436
000370 8c 24 39 3f ee 33 8e 3e 64 41 80 bc 80 d4 0a 3d
       0.7232139 0.27773994 -0.01565618 0.033894062
000380 48 cb 8f 3c c0 6a 18 bb 6e c2 ff 3f c0 37 2a 3c
       0.017552987 -0.0023256987 1.998121 0.010389268
000390 f6 84 52 3c 85 bb 30 40 19 f7 07 41 da 56 43 3f
       0.012849083 2.7614453 8.497827 0.763044
0003a0 8d 81 ca 3d ec e0 e4 3f a2 d7 90 3f 58 21 01 3d
       0.09887991 1.7881141 1.1315806 0.03152594
0003b0 60 19 43 3b 20 e5 34 3c d6 7d 00 3d 00 95 fd bb
       0.0029769763 0.011040956 0.031370007 -0.0077387094
0003c0 5d 34 41 3e 2b ba b9 40 a0 37 6b 3b 10 d4 de 3c
       0.18867631 5.8039756 0.003589131 0.027200729
0003d0 e0 75 10 bc 48 60 9e 3c cb cd 29 40 0c 44 a8 40
       -0.008817166 0.01933302 2.6531856 5.2583065
0003e0 90 70 2e 40 b8 fc b8 3e e0 6e 44 bc 7c 64 29 3e
       2.7256203 0.3613031 -0.011989325 0.16542238
0003f0 b2 86 39 3f 91 0e 08 3e 6c 02 65 3d 8b 23 45 40
       0.72471154 0.13286807 0.055910513 3.0802944

conv1.weight f4 [6, 2, 5, 5]
000000 5c 42 e0 3d 75 f7 ae 3d a8 b6 18 3e 41 75 0c be
       0.10950157 0.085432924 0.14913428 -0.13716604
000010 5c c1 61 bd bb db b2 bd a2 72 3a bd de 62 07 3e
       -0.055116042 -0.087333165 -0.04551948 0.13221309
000020 94 a0 c6 bd 16 12 24 be 16 02 9b 3b 6e c7 42 3e
       -0.096985966 -0.16022524 0.0047304733 0.19021389
000030 59 59 92 bd d1 c6 8e 3d c8 a1 e9 bd b5 28 26 3e
       -0.07145948 0.06971515 -0.114078104 0.16226466
000040 c4 19 29 bd c1 e1 c4 bd 84 11 51 3d f3 32 7c bd
       -0.041284338 -0.09613372 0.051042095 -0.061572026
000050 bc 48 5b 3e b5 68 af 3d e4 e2 0b be 8d b1 e9 bc
       0.21414465 0.08564893 -0.1366077 -0.028527046
000060 92 d3 80 bd 8b 45 14 be 13 07 30 be f9 79 de 3d
       -0.06290354 -0.14479654 -0.17190199 0.10863108
000070 c6 39 f0 bb 6b de 03 3e e5 df a9 bd da e8 2c be
       -0.007331106 0.12877814 -0.082946576 -0.16885701
000080 bb 12 44 3d f2 13 72 3e 87 2f a9 3d 9a 7a dd 3d
       0.047869425 0.23640421 0.08261018 0.108144
000090 a2 22 15 be 7b 2f 27 3d 97 aa 8c bd 09 20 29 3b
       -0.14563993 0.040816765 -0.06868475 0.0025806448
0000a0 75 61 43 be 52 ad b7 3c 55 a4 1c be 34 ad 07 3e
       -0.19080146 0.022421513 -0.15297063 0.13249665
0000b0 bc 2d 4d 3e e4 cf e7 3d 88 db 0f be 08 e0 91 3d
       0.20036978 0.11318949 -0.14048588 0.07122809
0000c0 d7 60 53 3a 28 83 6d bd 52 91 15 3e d1 a0 db 3d
       0.00080634415 -0.05798641 0.14606217 0.10724033
0000d0 60 a2 d3 bd f4 f2 8f bd 63 34 ef bd 9f e6 2d 3e
       -0.10333705 -0.070287615 -0.11679914 0.16982506
0000e0 37 e6 af bd 55 9b 82 bd 38 25 80 bd a9 29 2e 3d
       -0.08588832 -0.063772835 -0.06257099 0.0425202
0000f0 38 31 15 3e 22 f7 90 bd e0 cf 0e 3e bc a9 0e bd
       0.14569557 -0.07078387 0.13946486 -0.03482984
000100 b2 4d c7 3d 97 24 ee 3d c0 86 99 bd 4d c0 8c bd
       0.09731616 0.11628073 -0.07496405 -0.06872616
000110 a4 b7 51 39 7f 57 e4 bd 13 81 d5 3d 35 69 19 bd
       0.00020000205 -0.11149501 0.104250096 -0.03745385
000120 41 0f 22 3d 2b 89 c5 bd be 7f a8 3d 24 82 0a 3e
       0.03956533 -0.09645303 0.0822749 0.13526207
000130 8d 2c e9 3d fb 2d 17 be 8b 2d 00 be 7e 98 e0 bd
       0.113854505 -0.14763634 -0.12517373 -0.109665856
000140 95 28 11 3d 5a 0c 07 3e 5b 71 73 bd b7 5e 2d bc
       0.035439093 0.13188305 -0.059434276 -0.010581664
000150 e2 d5 cf bd 58 dc 21 bd 80 f2 84 3d 84 d8 95 3d
       -0.10148217 -0.039516777 0.06491566 0.07316688
000160 3c f5 a4 3d 17 aa d7 3c f6 fb ca bd 96 71 28 be
       0.08054587 0.026326222 -0.09911339 -0.1644958
000170 55 ef 3e 3c 09 71 d6 bd 6e 51 75 3d 82 d3 d5 3c
       0.011653741 -0.104707785 0.05989211 0.026101831
000180 c3 d3 15 be 05 5e 6c 3b 26 ec cd bd dc dc 14 bd
       -0.14631562 0.0036066782 -0.10054807 -0.03634344
000190 ec 20 c8 3d 01 c7 c8 bc e0 76 96 3d d9 ab 26 3e
       0.09771904 -0.024508955 0.07346892 0.16276492
0001a0 c8 40 73 3e 60 69 01 3e 03 44 bb bd 23 9f 49 bd
       0.23755181 0.12637854 -0.091438316 -0.04922403
0001b0 b7 33 cf 3d a7 d3 cb 3d f5 ee f4 3d 34 ff d3 bc
       0.10117286 0.09952479 0.1195964 -0.025878526
0001c0 9b a4 92 3c df 98 ab 3d 1c 25 02 be 5e 32 e5 3d
       0.017900756 0.08378767 -0.12709469 0.111912474
0001d0 e9 5b ee 3c d2 b3 16 be 46 32 4d be 47 6a f8 3c
       0.02909656 -0.14717034 -0.20038709 0.030324114
0001e0 82 6d e8 bd 9d 98 42 be bb 48 2f be 14 7c 5c bd
       -0.11349012 -0.1900353 -0.17117588 -0.053829268
0001f0 eb 39 22 be 17 f0 45 3e 2a ea a0 3d 81 dd d0 3d
       -0.15842406 0.19329868 0.07857163 0.101984985
000200 5d a5 0f 3e 13 79 e9 3d 30 39 fe 3d dc b3 1d 3e
       0.14027925 0.11400046 0.124132514 0.15400642
000210 e2 35 b3 bd ee 1b b2 3d e6 6a e6 3d 77 62 d9 bd
       -0.08750512 0.086967334 0.11250858 -0.10614484
000220 d0 d6 91 3c 78 7d 8a bd a5 65 0f be 3b 27 24 3e
       0.017802626 -0.067622125 -0.14003618 0.1603059
000230 89 80 87 3c 8c 24 36 3d 81 e8 18 bd 20 eb 18 be
       0.016540783 0.044468448 -0.037331108 -0.14933443
000240 a3 47 3e bd 7d 74 ee 3c c8 27 49 be 06 08 1a bd
       -0.046455037 0.02910828 -0.19644082 -0.037605308
000250 d2 82 66 be 13 08 5a be b6 51 25 be 3a 19 99 3d
       -0.22510841 -0.21292143 -0.16144451 0.07475515
000260 bd cc 07 be b4 02 c3 3c 6c f4 f6 3c 5c d2 50 bd
       -0.13261695 0.023805 0.030145846 -0.050981864
000270 bb cb 12 be 29 c6 e2 3c 59 32 96 bd 06 6e 57 bd
       -0.1433553 0.02768238 -0.07333822 -0.05259516
000280 f3 2b 3c bd a5 32 a4 bc 60 b2 e2 bd f8 df 3e 3c
       -0.04594035 -0.02004368 -0.110691786 0.011650078
000290 46 3f f6 bd cf 87 ee bd 62 6f 41 3c c4 11 84 bc
       -0.12023787 -0.11646997 0.011806341 -0.016121753
0002a0 5f c9 a9 3c 04 0c e8 bd 8d 2c 03 3e 4d d6 b7 bd
       0.020725904 -0.11330417 0.12809964 -0.089764215
0002b0 c1 ee f7 3c 7d d7 6b 3d 32 e4 7d 3b 73 87 d7 bd
       0.030265214 0.057578553 0.0038740751 -0.10523882
0002c0 2b 68 a3 bd 29 c9 5a ba 00 1a f4 bd b7 75 04 3e
       -0.07978853 -0.0008346015 -0.119190216 0.1293553
0002d0 e6 fa bf 3d 73 cb a6 3d 32 ed c6 bd 88 18 18 bd
       0.09374027 0.081442736 -0.0971321 -0.03713277
0002e0 65 4a 05 be bf 21 3a bd d4 97 b0 bd 74 6e 67 3e
       -0.1301666 -0.04544234 -0.08622709 0.22600728
0002f0 26 9f 4a 3e 74 23 ca ba 49 77 3e bd b9 30 d9 3d
       0.19787273 -0.0015421943 -0.046500478 0.10604996
000300 de c5 5d 3e 02 d2 37 3e a4 ac 99 3d 18 3e 14 bd
       0.21657512 0.17951205 0.07503632 -0.03619203
000310 c4 58 4c 3e e3 1e 81 bd 7e 08 2c 3e 89 cc c6 3d
       0.19955736 -0.06304719 0.16800115 0.09706981
000320 9a 5d 82 be ee f2 19 3d a0 a6 1f 3e d5 f6 a5 bd
       -0.25462037 0.03758519 0.15590906 -0.0810372
000330 75 0e b6 bc a3 0b f5 3d 10 f6 82 3e 4a 80 cc 3d
       -0.02222369 0.1196511 0.25578356 0.09985407
000340 ff 71 02 be ae 34 5b bd 3d 6e a7 3d b0 71 e0 3e
       -0.12738799 -0.053517036 0.08175323 0.43836737
000350 8b e4 9f 3e e5 ab 0f 3e 64 d5 31 3c 56 05 e4 3c
       0.31229052 0.14030416 0.010854099 0.027834576
000360 4e ee 49 3e 06 a4 05 3e a7 d1 0e bd 04 20 1f 3e
       0.19719812 0.13050851 -0.03486791 0.15539557
000370 21 f1 85 bc b5 46 d3 3d 15 85 53 bd bd 34 67 be
       -0.01635033 0.10316221 -0.05164059 -0.22578712
000380 c6 83 79 bd 71 e3 90 3d 3d 92 38 3d e3 c1 59 3c
       -0.060916685 0.07074631 0.04506134 0.013290855
000390 21 3a e0 bd e5 89 82 bd f4 09 b2 bd 10 00 9c bd
       -0.10948587 -0.063739575 -0.08693305 -0.076171994
0003a0 0f c4 55 bd 28 f8 15 ba a1 02 66 be c3 b5 c2 bc
       -0.05218893 -0.0005720877 -0.2246194 -0.023768311
0003b0 87 c6 08 3c 51 36 d7 bd 0a 08 24 be 40 c9 4a be
       0.008348114 -0.10508407 -0.16018692 -0.19803333
0003c0 59 16 96 bd f6 77 2b 3c 73 65 18 bd 2b 3a 18 3c
       -0.07328481 0.010465613 -0.037206125 0.009291212
0003d0 7a 0d 86 bd 4c 2e 85 3c 88 af 85 bd f9 ea c3 bd
       -0.06545539 0.016257428 -0.065276206 -0.09566302
0003e0 06 ef 8b 3d bd c3 13 3d 17 41 bc 3d d6 7e 15 be
       0.068326995 0.036075342 0.091921024 -0.14599165
0003f0 a9 00 0b 3e 4c d2 35 3d 48 2a 37 be 8d 2c 10 3e
       0.1357447 0.044390008 -0.17887223 0.14079495

conv1.activation_post_process.histogram f4 [2048]
000000 00 00 80 3f 00 00 00 00 00 00 00 00 00 00 00 00
       1.0 0.0 0.0 0.0
000010 00 00 00 00 00 00 00 00 00 00 00 00 00 00 00 00
       0.0 0.0 0.0 0.0
000020 00 00 1c 3f 00 00 c8 3e 00 00 00 00 00 a0 54 3e
       0.609375 0.390625 0.0 0.2076416
000030 00 08 0d 3f 00 40 77 3e 00 00 00 00 00 00 00 00
       0.5509033 0.24145508 0.0 0.0
000040 00 00 00 00 00 00 00 00 00 00 00 00 00 00 00 00
       0.0 0.0 0.0 0.0
000050 80 e2 1c 3e e0 df db 3e e0 f0 ae 3e 00 f8 9a 3d
       0.15320778 0.4294424 0.34168148 0.075668335
000060 00 00 00 00 00 00 00 00 00 00 00 00 00 00 00 00
       0.0 0.0 0.0 0.0
000070 00 00 00 00 00 00 00 00 20 6f 36 3e 66 f0 d3 3e
       0.0 0.0 0.17815828 0.41394347
000080 ac b6 9e 3e 4d e1 64 3f 80 bd 50 3e 00 00 00 00
       0.30998743 0.8940628 0.20384789 0.0
000090 00 00 00 00 00 00 00 00 00 00 00 00 00 00 00 00
       0.0 0.0 0.0 0.0
0000a0 00 00 00 00 00 00 00 00 00 00 00 00 00 00 00 00
       0.0 0.0 0.0 0.0
0000b0 00 00 00 00 00 00 00 00 00 00 00 00 18 4f 38 3c
       0.0 0.0 0.0 0.011249326
0000c0 b0 6d 45 3e 49 9b d6 3e 98 8e 96 3e 22 68 9b 3d
       0.19280124 0.41915348 0.29405665 0.07588221
0000d0 55 56 db 3b d4 24 2b 39 00 20 86 34 00 a0 f5 b3
       0.006693641 0.0001632155 2.4982728e-07 -1.14378054e-07
0000e0 00 00 f0 b0 41 0b 86 3f 28 65 8b 3e 7b e1 cc 3e
       -1.7462298e-09 1.0472184 0.27225614 0.40015778
0000f0 da 49 66 3e fe 6f 53 3d d5 af 7c 3b 80 28 86 33
       0.2248911 0.051620476 0.0038556952 6.247228e-08
000100 00 f0 41 34 f7 25 36 3a 3b b9 fd 3c 61 f7 ac 3e
       1.8061837e-07 0.0006948406 0.030972114 0.33782485
000110 5a 9e 40 3f e1 fe 14 3f f3 83 7b 3e 44 06 42 3d
       0.75241625 0.58201414 0.24562053 0.047369257
000120 bb ff 46 3b 27 98 5b 38 00 4c 37 b1 bb 4d 78 3a
       0.003036483 5.235537e-05 -2.6673206e-09 0.0009472032
000130 5d 8d b5 3c e1 13 2c 3e 35 87 eb 3e 3c 2c 9f 3e
       0.022162134 0.16804458 0.46001592 0.31088436
000140 8d 28 8a 3d 4f bc 87 3e 6c 3a 21 3f 0b 00 d3 3d
       0.06746016 0.26510856 0.6297977 0.103027426
000150 35 2e 01 3e 3f 63 9d 3e 4a 88 ea 3e c9 f1 37 3f
       0.12615283 0.3073978 0.45807105 0.7185331
000160 66 28 6c 3f a6 e9 9f 3e 3d 62 da 3d eb 9e a0 3c
       0.92249143 0.31232947 0.10663269 0.019607028
000170 30 ee a6 3b 98 de f3 3c 8c 60 f5 3d 95 7e 85 3e
       0.005094312 0.029769227 0.119813055 0.26073137
000180 3b 9b a0 3e 67 08 59 3e 3c 82 01 3e 4f 94 48 3e
       0.3136843 0.21194611 0.12647337 0.19587825
000190 94 a2 9b 3e 78 f2 8a 3e 71 6f 04 3e 30 13 f7 3c
       0.30397475 0.27138114 0.12933137 0.030160517
0001a0 cf ed 43 3b d2 d6 e3 38 18 f7 d3 33 02 00 80 3f
       0.0029896384 0.00010864217 9.870399e-08 1.0000002
0001b0 7f 42 96 36 c0 d3 ee 38 67 9e c5 3a 34 ae d9 3e
       4.4780895e-06 0.00011388166 0.0015077115 0.4251572
0001c0 4f 89 22 3f 5d af 0a 3e 3f f3 74 3e ea 57 8a 3e
       0.63490766 0.13543458 0.23920916 0.27020198
0001d0 08 4a 44 3e f0 c6 a6 3d 72 c0 98 3c 00 17 b4 3d
       0.19168866 0.08143413 0.018646453 0.087934494
0001e0 d8 82 fe 3e 26 c9 e9 3e c3 b9 00 3e 41 f4 9d 3e
       0.497092 0.45661277 0.12570862 0.30850413
0001f0 2d ae 02 3f 39 16 17 3f 1d 55 05 3f bc 61 da 3e
       0.5104702 0.59018284 0.52083 0.4265269
000200 72 1f c7 3e d9 eb bd 3e 7a ef a2 3e 22 74 94 3e
       0.38891178 0.37094 0.3182333 0.28994852
000210 56 78 e2 3e 90 4d f8 3e ef 57 47 3f 82 9c e9 3e
       0.44232434 0.48496675 0.7786855 0.45627218
000220 20 91 69 3e d6 e5 f1 3e 54 43 05 3f 38 c0 ba 3e
       0.22809267 0.47245663 0.5205586 0.36474776
000230 4e c3 51 3e ad 12 d3 3d 5a 16 26 3d 88 40 34 3c
       0.20484659 0.103062965 0.04054866 0.011001714
000240 d3 65 04 3b 8f 33 a1 3a b0 6b 81 3f 02 25 66 3d
       0.0020202294 0.0012298691 1.0110989 0.056187637
000250 7d 3f 6c 3e 47 83 07 3f e5 ab 1e 3f 8f 84 c6 3e
       0.23071094 0.5293469 0.6198104 0.3877301
000260 86 08 0c 3e ed 8a 25 3d 71 f7 6b 3d 7f 60 47 3e
       0.13675126 0.040415693 0.057609025 0.19470404
000270 e4 f4 ee 3e 19 52 1f 3f c0 4f f8 3e d5 62 9b 3e
       0.46671212 0.62234646 0.48498344 0.3034884
000280 83 d7 83 3e 37 49 86 3e 2b af 7a 3e da 96 9c 3e
       0.2575036 0.26227733 0.24480884 0.3058384
000290 f8 f7 1f 3f 81 9c 68 3f 9f f4 79 3f 75 08 46 3f
       0.62487745 0.90863806 0.9763889 0.77356654
0002a0 66 ec bc 3e 49 7a da 3d 6d 21 c3 3c c5 35 c4 3c
       0.36899108 0.10667855 0.02381965 0.02395142
0002b0 0f e7 07 3e c3 cf a0 3e e0 b4 a8 3e 98 19 27 3e
       0.13271736 0.3140851 0.32950497 0.16318357
0002c0 ec d0 16 3d 5e 91 5b 3b 60 f3 42 3b 47 bd 17 3d
       0.036820337 0.0033503394 0.0029747114 0.037045743
0002d0 2b ed 28 3e 5d 03 57 3f 60 95 44 3f ec ba b3 3e
       0.16496722 0.83989507 0.7679043 0.35103548
0002e0 b7 97 6f 3e 7f a5 69 3e f5 2c 45 3e 0f 36 3b 3f
       0.23397718 0.22817038 0.19255431 0.7312936
0002f0 b5 09 c9 3e 78 1d 61 3d 6d 58 f5 3c bc 1c 28 3e
       0.39265218 0.054959744 0.029949391 0.16417211
000300 fb f1 f9 3e 3d 20 3a 3f 60 2f 1c 3f e9 63 dc 3e
       0.4881743 0.7270544 0.6100979 0.43044975
000310 a1 a2 e6 3e 85 95 13 3f 77 76 21 3f b8 02 01 3f
       0.4504595 0.57650024 0.6307139 0.50394773
000320 a5 23 8b 3e 8c 1e cc 3d 14 3d 49 3d 86 08 ed 3d
       0.27175632 0.09966764 0.049130514 0.11573891
000330 63 75 99 3e 82 da 01 3f 90 21 10 3f e2 33 ef 3e
       0.2997237 0.5072404 0.5630121 0.4671927
000340 27 df b7 3e 96 30 90 3e 81 96 99 3f c6 5b e9 3d
       0.3591244 0.28162068 1.1999055 0.113944575
000350 91 e6 80 3d e0 9f d2 3d e7 84 a9 3e 31 65 59 3f
       0.06293977 0.102844 0.3310921 0.8492003
000360 67 48 97 3f c6 98 30 3f 31 e3 54 3f c5 ae a3 3f
       1.181897 0.68983114 0.83159167 1.278771
000370 9c 69 07 3f 14 a0 e4 3e 5a 6c c2 3e 0f ef 83 3e
       0.5289552 0.4465338 0.3797329 0.25768325
000380 44 f8 e0 3e fa 7c 56 3f 18 97 81 3e 53 14 03 3f
       0.43939412 0.8378445 0.25310588 0.5120289
000390 f2 ee 81 3f 41 6f 9b 3f a2 d7 25 3f f1 9d 64 3f
       1.0151045 1.2143327 0.64782155 0.893035
0003a0 fd 66 88 3f 00 bf d6 3e 02 28 02 3f 83 95 ad 3e
       1.065643 0.41942596 0.508423 0.3390313
0003b0 37 e7 0e 3e 92 b4 7a 3e 83 6b b8 3e bd e0 d0 3e
       0.13955389 0.24482945 0.36019525 0.40796462
0003c0 18 c6 cf 3e ae 5a c9 3e 99 4b bc 3e 7f e1 9d 3e
       0.4058082 0.39326996 0.36776426 0.30836102
0003d0 b6 3e 62 3e ef 43 18 3e ad 1b 09 3e c1 28 36 3e
       0.22094235 0.14869665 0.13389464 0.17788984
0003e0 96 1f 88 3e 36 01 d6 3e 10 50 1d 3f d3 e7 2e 3f
       0.26586598 0.417978 0.6145029 0.68322486
0003f0 e7 5c 08 3f 0c 01 b7 3e 1b 4f 9f 3e c2 46 b0 3e
       0.5326676 0.35742986 0.3111504 0.34428984

conv2.weight f4 [16, 6, 5, 5]
000000 ec d5 27 be f3 29 28 be 14 34 b8 3d 09 6d 99 3c
       -0.16390198 -0.16422252 0.08994308 0.01872875
000010 6f 88 cc 3b 10 17 b6 bd a8 c3 36 be 7c 31 cd bd
       0.00624185 -0.088911176 -0.17848074 -0.10019204
000020 38 55 00 be 5a a9 c6 bd 55 d0 79 3d de be 37 3c
       -0.12532508 -0.0970027 0.060989697 0.01121494
000030 6c 2b 51 bd 3d 73 61 be 32 0c 43 be 3d 70 2f 3e
       -0.0510668 -0.22016616 -0.19047621 0.1713266
000040 09 7b fb 3d 5e a2 82 3d 59 bd ef bd ee 13 ad bd
       0.122793265 0.06378625 -0.11706037 -0.08451067
000050 99 38 f8 3e f7 52 b4 3e 28 3f 96 3e 21 26 4a 3e
       0.4848068 0.35219547 0.2934506 0.19741108
000060 69 6a ba 3e c3 5e 45 3d f0 38 ad 3d 1f c1 3c 3d
       0.3640931 0.048186075 0.084581256 0.046082612
000070 c9 fd da 3d 09 c1 ec bc 77 3c a8 bd dc 0f 13 bd
       0.10692937 -0.02890064 -0.08214658 -0.035903797
000080 ba 24 79 bd 1c 1f af 3c 5e f3 73 3d 96 72 9e bc
       -0.06082604 0.021377139 0.059558265 -0.019341748
000090 30 7a ac 3c 4d 6a e5 3c 9d e8 a6 3d f3 18 4a bc
       0.021054357 0.02800479 0.08149836 -0.01233505
0000a0 4f eb bf bc 45 e6 98 3d 00 8d c1 bc 1f f3 d3 3d
       -0.023427634 0.074657954 -0.023626804 0.10349106
0000b0 5f a5 49 3d 17 6e b4 bd fc b2 ca bd 7e f6 d1 bd
       0.049229976 -0.088100605 -0.0989742 -0.10252093
0000c0 22 7f f7 3c 02 45 89 bd fa 7f e4 bd 8f 92 35 bd
       0.030211989 -0.06702615 -0.11157222 -0.044329222
0000d0 ea 4a dc 3d e9 2a a2 3d 6d 29 36 bd c1 f4 09 be
       0.10756476 0.07918341 -0.0444731 -0.13472272
0000e0 51 98 10 bd a4 f6 10 3b eb 6a 58 3d 53 b7 94 3d
       -0.03530151 0.0022119666 0.05283634 0.07261529
0000f0 5b e7 0a be 2d 06 37 3d bc 97 07 3c 10 c2 4d ba
       -0.13564818 0.044683624 0.008275922 -0.0007849047
000100 2b 6b 9c 3d c7 66 a0 3d 4e 05 f4 3d 49 76 90 3c
       0.07637628 0.07832103 0.11915074 0.017634528
000110 ba 81 6d bd a3 7a 83 bd e6 ad 44 bd 3f 63 c5 bd
       -0.057985045 -0.064198755 -0.048017405 -0.0963807
000120 47 86 12 3d c5 ff 3f 3b cf bc 19 bc 7f cc 3c bd
       0.035772588 0.0029296738 -0.009383394 -0.04609346
000130 bd 5e b4 3b b9 20 3e bd d7 d5 f5 3c cc 10 42 3e
       0.0055044577 -0.046417926 0.030009193 0.1895172
000140 11 d3 68 bd b7 26 9d 3d e8 bc 2d 3d c1 43 9c bd
       -0.056841914 0.076734 0.042416483 -0.076301105
000150 67 9f 86 3c f5 51 19 be 1d bb e9 bd 9a 5a f8 3d
       0.01643343 -0.1497267 -0.11412642 0.12126656
000160 93 cf 1d 3e 59 b6 20 3e b6 c0 90 bd 6f 48 a9 bd
       0.15411215 0.1569456 -0.07068007 -0.08265769
000170 fe 9a f0 bd 29 95 be bd 36 fc af 3d 17 4e ab 3d
       -0.117483124 -0.09305794 0.08593027 0.08364504
000180 80 29 38 bd 89 54 4e 3c 3f 73 19 bd 68 06 c4 bc
       -0.044961452 0.012593397 -0.037463423 -0.023928836
000190 2b d6 b4 bd b5 de 26 bd f6 86 db 3d 38 e8 05 3e
       -0.08829912 -0.040739734 0.10719101 0.13076866
0001a0 5c b9 07 be b8 e0 ac bd d4 54 05 bd 12 71 bb 3d
       -0.13254303 -0.08441299 -0.0325516 0.09152426
0001b0 a6 28 03 3e f2 e5 0d be 4c 7f ce 3d 4e 2d c0 3d
       0.12808475 -0.13857248 0.10082874 0.09383641
0001c0 90 0d 8a 3b 15 eb 80 bd 2b 47 9f bb d8 5c f8 bd
       0.0042130426 -0.06294838 -0.004860779 -0.121270835
0001d0 08 9f 41 3d 60 08 50 3d a3 aa e6 bb 28 64 a7 bd
       0.047270805 0.050789237 -0.0070393845 -0.081734
0001e0 6e 04 1d 3d 0d 90 0d bd 60 32 b8 3d 14 d9 f4 3d
       0.038334303 -0.034561206 0.08993983 0.11955467
0001f0 21 00 5c 3e ae 0e bd bd 04 7f 20 3d f4 d6 1a 3d
       0.21484424 -0.092313156 0.03918363 0.03780265
000200 74 01 5c bd 69 4d 83 bc 32 12 06 bd 2d 06 d6 bd
       -0.053712323 -0.016028123 -0.032732196 -0.10450397
000210 44 8d b7 3b 26 3c 97 3d 6b 5d 42 be 41 32 41 3e
       0.005601557 0.07384519 -0.18980949 0.18866827
000220 20 d8 2c 3d 6d e5 f2 3d e5 00 8a 3c f6 90 03 bd
       0.0421983 0.11860166 0.01684613 -0.032120667
000230 74 93 59 3e b5 61 69 3e 1c ca d3 3d 66 44 94 bd
       0.21247655 0.22791179 0.10341284 -0.072396085
000240 c6 81 b3 bd 4e 0f 04 3f cf 99 ee 3e f4 e5 ad 3e
       -0.08764987 0.51585853 0.46601722 0.33964503
000250 87 59 49 3e f4 03 9a 3d 7c 0d 9d be 07 c7 a6 be
       0.19663058 0.07520285 -0.3067435 -0.3257372
000260 1e 14 2f be c6 20 8b bd 96 f1 e2 bd 4b f0 16 be
       -0.17097518 -0.067933604 -0.11081235 -0.14740102
000270 1e d7 ee bd 8f 29 4a be 38 58 d2 bd c2 6c 3f bd
       -0.11662124 -0.19742416 -0.10270733 -0.04673458
000280 b4 56 09 be 62 8b 66 3c 14 f9 80 bb af 63 78 3d
       -0.13411981 0.014071317 -0.0039359424 0.06064194
000290 fd 05 c3 3d 69 d0 f2 bd ae 54 8c 3d 6d 75 aa bd
       0.095226265 -0.11856157 0.06852089 -0.083231784
0002a0 eb 63 04 3e 1c 01 9c 3d ba a7 9f 3d f8 36 1d 3e
       0.1292874 0.07617399 0.07795663 0.15353
0002b0 3d d4 59 3d f0 1a 13 3e 66 7f 13 3e a0 1d e4 3d
       0.05318092 0.14365745 0.14404067 0.11138463
0002c0 b3 5a f5 bc f8 9a 82 3c 45 4d ba 3d 33 8f ba 3d
       -0.029950475 0.015943035 0.09096769 0.09109344
0002d0 ff 1d d8 3c 32 92 82 3d 47 6b 3a 3b 36 a4 79 3d
       0.02638149 0.06375541 0.002844529 0.06094762
0002e0 ed 58 b8 3d e4 4a 69 bc 3a 2f 0c 3d 96 ec 10 bd
       0.09001336 -0.014239047 0.034224726 -0.035381876
0002f0 73 3d c7 3d b7 af 34 3e 42 d7 70 3b ad 5c a3 3c
       0.097285174 0.17645155 0.0036749397 0.019941652
000300 19 92 d6 bc 0b 8d 4f 3d 43 b0 76 3d 9a 31 c7 bc
       -0.026192712 0.05067162 0.06022669 -0.024315644
000310 ed fa aa bd 19 d5 80 bd 65 94 4b bc 6c cb fe bc
       -0.083486415 -0.06290645 -0.012425517 -0.031102858
000320 e5 d6 60 be ea ac b0 bd 67 03 99 3d 36 96 24 3e
       -0.21956976 -0.08626731 0.07471352 0.16072926
000330 2f 1f 1a 3e f3 81 b9 be 95 ae 60 be 1b f2 6c be
       0.15050958 -0.36231956 -0.21941598 -0.23139231
000340 87 aa 83 bd 57 b8 6e bd d0 7d 3e be 40 53 25 be
       -0.0642901 -0.05828127 -0.18602681 -0.16145039
000350 51 03 dc bd d6 6d fb 3d a1 1e 71 3e 4a d4 33 be
       -0.1074282 0.12276809 0.2354684 -0.1756145
000360 f9 7a 53 be 6e 89 27 be 3b c2 8f 3d 7a 11 81 3d
       -0.20652379 -0.16361019 0.070194684 0.063021615
000370 79 2a f4 3d 87 f4 4d 39 63 de e3 bc 7e 76 72 3d
       0.119221635 0.00019641417 -0.027816003 0.059195034
000380 12 32 4f 3d d5 48 9f be 6f 61 d9 bd e6 58 47 be
       0.05058486 -0.31110254 -0.10614287 -0.19467506
000390 18 38 a0 be 8e 1d 88 be d2 ea da bc fd da 51 bd
       -0.31292796 -0.26585048 -0.0267233 -0.051234234
0003a0 4e f9 21 3b f3 c0 6b bd 5d 77 85 3c eb 33 c1 3d
       0.0024715248 -0.057557058 0.016292268 0.09433731
0003b0 d3 9e 00 3e f6 a7 f6 bc 9c 16 09 3e bb e7 30 3e
       0.12560587 -0.030109387 0.13387531 0.17275898
0003c0 42 04 1a 3d 49 c0 c2 3d 6b 2a e6 3c 2f f5 35 3d
       0.037601717 0.09509332 0.028096398 0.04442328
0003d0 bf 85 d9 3d 80 b9 a6 3c 14 89 13 bd 07 20 51 3d
       0.10621213 0.020352125 -0.0360194 0.051055934
0003e0 d2 53 8d 3c 6a 0e 18 bd bf c8 fa bd df 59 16 3d
       0.017251883 -0.03712312 -0.122453205 0.0367068
0003f0 29 46 26 3e 15 9d 5e 3e 98 56 5f be 29 94 a2 be
       0.16237701 0.2173961 -0.21810377 -0.31753662

conv2.activation_post_process.histogram f4 [2048]
000000 00 00 80 3f 00 00 00 00 00 00 00 00 00 00 00 00
       1.0 0.0 0.0 0.0
000010 00 00 00 00 00 00 00 00 00 00 00 00 00 00 00 00
       0.0 0.0 0.0 0.0
000020 00 00 00 00 00 00 00 00 00 00 00 00 00 00 00 00
       0.0 0.0 0.0 0.0
000030 00 00 00 00 00 00 00 00 00 00 00 00 00 00 00 00
       0.0 0.0 0.0 0.0
000040 00 00 00 00 00 00 00 00 00 00 00 00 00 00 00 00
       0.0 0.0 0.0 0.0
000050 00 00 00 00 00 00 00 00 00 00 00 00 00 00 00 00
       0.0 0.0 0.0 0.0
000060 00 00 00 00 00 00 00 00 00 00 00 00 00 00 00 00
       0.0 0.0 0.0 0.0
000070 00 00 00 00 00 00 00 00 00 00 00 00 00 00 00 00
       0.0 0.0 0.0 0.0
000080 00 00 00 00 00 00 00 00 00 00 00 00 00 00 00 00
       0.0 0.0 0.0 0.0
000090 00 00 00 00 00 00 00 00 00 00 00 00 00 00 00 00
       0.0 0.0 0.0 0.0
0000a0 00 00 00 00 00 00 00 00 00 00 00 00 00 00 00 00
       0.0 0.0 0.0 0.0
0000b0 00 00 00 00 00 00 00 00 00 00 00 00 00 00 00 00
       0.0 0.0 0.0 0.0
0000c0 00 00 00 00 00 00 00 00 00 00 00 00 00 00 00 00
       0.0 0.0 0.0 0.0
0000d0 00 00 00 00 00 00 00 00 00 00 00 00 00 00 00 00
       0.0 0.0 0.0 0.0
0000e0 00 00 00 00 00 00 00 00 00 00 00 00 00 00 12 3f
       0.0 0.0 0.0 0.5703125
0000f0 00 00 dc 3e 00 00 00 00 00 00 00 00 00 00 00 00
       0.4296875 0.0 0.0 0.0
000100 00 00 3a 3f 00 00 8c 3e 00 00 00 00 00 00 00 00
       0.7265625 0.2734375 0.0 0.0
000110 00 00 00 00 00 00 00 00 00 00 00 00 00 00 00 00
       0.0 0.0 0.0 0.0
000120 00 00 00 00 00 00 00 00 00 00 00 00 00 00 00 00
       0.0 0.0 0.0 0.0
000130 00 00 00 00 00 00 00 00 00 00 00 00 00 00 00 00
       0.0 0.0 0.0 0.0
000140 00 00 00 00 00 00 00 00 00 00 00 00 00 00 00 00
       0.0 0.0 0.0 0.0
000150 00 00 00 00 00 00 00 00 00 00 00 00 00 00 00 00
       0.0 0.0 0.0 0.0
000160 00 00 00 00 00 00 00 00 b0 70 a8 3e 00 50 f5 3e
       0.0 0.0 0.32898474 0.47912598
000170 60 03 33 3e 68 2f 82 3f 00 00 00 00 00 00 00 00
       0.17481756 1.0170717 0.0 0.0
000180 00 00 00 00 00 00 00 00 00 00 00 00 00 00 00 00
       0.0 0.0 0.0 0.0
000190 00 00 00 00 00 00 00 00 00 00 6a 3f 00 00 b0 3d
       0.0 0.0 0.9140625 0.0859375
0001a0 00 00 00 00 00 00 00 00 00 00 00 00 00 00 00 00
       0.0 0.0 0.0 0.0
0001b0 00 00 00 00 00 00 00 00 00 00 00 00 00 00 00 00
       0.0 0.0 0.0 0.0
0001c0 00 00 00 00 00 00 00 00 0d 6c 6c 3c 06 d4 ec 3d
       0.0 0.0 0.014430058 0.11563878
0001d0 01 f2 9f 3e 57 eb b6 3e fb 94 30 3e f5 8c 0c 3e
       0.31239322 0.35726425 0.17244332 0.13725646
0001e0 3a bc c2 3e 4d 61 0a 3f fd 9f 09 3f 7a 9d b1 3e
       0.3803423 0.5405472 0.5375975 0.34690458
0001f0 ea 73 ae 3d 00 00 30 b4 00 00 30 b4 00 00 30 b4
       0.085182026 -1.6391277e-07 -1.6391277e-07 -1.6391277e-07
000200 00 00 30 b4 00 00 30 b4 00 00 30 b4 00 00 30 b4
       -1.6391277e-07 -1.6391277e-07 -1.6391277e-07 -1.6391277e-07
000210 00 00 30 b4 00 00 30 b4 00 00 30 b4 00 00 30 b4
       -1.6391277e-07 -1.6391277e-07 -1.6391277e-07 -1.6391277e-07
000220 fd ff 7f 3f 00 00 30 b4 00 00 30 b4 00 00 30 b4
       0.9999998 -1.6391277e-07 -1.6391277e-07 -1.6391277e-07
000230 00 00 30 b4 00 00 30 b4 00 00 30 b4 00 00 30 b4
       -1.6391277e-07 -1.6391277e-07 -1.6391277e-07 -1.6391277e-07
000240 00 00 30 b4 00 00 30 b4 00 00 30 b4 00 00 30 b4
       -1.6391277e-07 -1.6391277e-07 -1.6391277e-07 -1.6391277e-07
000250 00 00 30 b4 00 00 30 b4 00 00 30 b4 00 00 30 b4
       -1.6391277e-07 -1.6391277e-07 -1.6391277e-07 -1.6391277e-07
000260 00 00 30 b4 00 00 30 b4 f5 cf 30 3e fd 07 09 3f
       -1.6391277e-07 -1.6391277e-07 0.1726683 0.53527814
000270 fa 87 95 3e 00 00 a8 34 00 00 a8 34 00 00 a8 34
       0.29205304 3.1292439e-07 3.1292439e-07 3.1292439e-07
000280 00 00 a8 34 03 00 80 3f 00 00 a8 34 00 00 a8 34
       3.1292439e-07 1.0000004 3.1292439e-07 3.1292439e-07
000290 00 00 a8 34 00 00 a8 34 00 00 a8 34 00 00 a8 34
       3.1292439e-07 3.1292439e-07 3.1292439e-07 3.1292439e-07
0002a0 00 00 a8 34 00 00 a8 34 00 00 a8 34 00 00 a8 34
       3.1292439e-07 3.1292439e-07 3.1292439e-07 3.1292439e-07
0002b0 00 00 a8 34 00 00 a8 34 00 00 a8 34 00 00 a8 34
       3.1292439e-07 3.1292439e-07 3.1292439e-07 3.1292439e-07
0002c0 00 00 a8 34 00 00 a8 34 00 00 a8 34 00 00 a8 34
       3.1292439e-07 3.1292439e-07 3.1292439e-07 3.1292439e-07
0002d0 00 00 a8 34 00 00 a8 34 00 00 a8 34 00 00 a8 34
       3.1292439e-07 3.1292439e-07 3.1292439e-07 3.1292439e-07
0002e0 3c 80 d3 39 00 40 81 3c 1c f9 37 3e 60 50 66 3f
       0.00040340598 0.015777588 0.17966121 0.8996639
0002f0 3c 22 3e 3f 1a 6f 13 3e 8b dd 91 3c 00 c0 d7 b4
       0.7427099 0.1439785 0.017805835 -4.018657e-07
000300 00 60 1d b5 75 60 32 3d 0f fb 88 3e 7b 9c e6 3e
       -5.8626756e-07 0.04354902 0.26754043 0.4504126
000310 c7 b5 5c 3e d6 19 bc 3c 00 c0 8c b4 00 c0 ef b4
       0.21553718 0.022961538 -2.621673e-07 -4.4656917e-07
000320 62 10 2e 3e ec e4 f5 3e be cf de 3e f9 f8 b6 3e
       0.16998437 0.48026216 0.4351787 0.35736826
000330 59 39 b2 3e 72 dd 30 3e b5 b1 0d 3d 16 8d eb 3a
       0.34809378 0.17271975 0.034593303 0.0017971124
000340 50 c9 55 35 80 f1 c7 b4 a0 2a ed b4 c0 18 c4 b4
       7.964163e-07 -3.7242353e-07 -4.4175704e-07 -3.6525853e-07
000350 c0 77 19 b4 00 d8 71 34 70 6f 46 35 00 cc b1 32
       -1.42928e-07 2.2523454e-07 7.392291e-07 2.069828e-08
000360 c0 b4 28 b4 00 0d 4b b4 80 9e a1 b3 00 c0 0d 3f
       -1.5711976e-07 -1.8910578e-07 -7.525978e-08 0.55371094
000370 8c 7a 3b 3f 33 1f 16 3f 2b 10 0c 3f e0 4e e6 3e
       0.73233867 0.58641356 0.5471217 0.44982052
000380 a7 fe 03 3e 7b aa dd 3a 75 79 ae 38 28 ac 6e 3b
       0.12890111 0.0016911769 8.31959e-05 0.003641853
000390 b2 c2 2a 3d 5f ab 39 3e 60 8a ae 3e 73 68 98 3e
       0.041689582 0.18131779 0.34089947 0.29767188
0003a0 20 5a f0 3d 5f 19 8b 3c 30 32 ba 39 06 18 1d 35
       0.1173594 0.016979871 0.00035514077 5.8522016e-07
0003b0 4e 69 5a 35 60 d7 b5 35 fe cd 96 b4 2a 9e 8c 38
       8.1364567e-07 1.3548233e-06 -2.8089556e-07 6.7051806e-05
0003c0 16 c8 03 3b 48 1e a9 3c 18 b3 c6 3d 5c 79 70 3e
       0.0020108274 0.020644322 0.09702128 0.23483795
0003d0 58 7b 9e 3e fe 91 67 3e 1f 39 b8 3d a5 0a 95 3c
       0.3095348 0.22614285 0.0899527 0.018193552
0003e0 16 01 cd 3a 54 d5 fd 37 dc 58 9c b4 ea 9b 10 33
       0.0015640582 3.0259289e-05 -2.9121918e-07 3.3669416e-08
0003f0 1f 40 8e 34 a6 d4 05 34 79 54 4b b4 08 64 4a b5
       2.6496215e-07 1.2463951e-07 -1.8936579e-07 -7.539643e-07

conv3.weight f4 [120, 16, 5, 5]
000000 37 03 b8 3d cb d4 05 3d 2f 7c 6b bd 33 4e aa 3d
       0.08984988 0.03267364 -0.057491478 0.083156966
000010 9a 30 1d bd 21 e9 df 3b 10 19 be 3c cd 2a ae bd
       -0.03837643 0.006833211 0.02320531 -0.08504257
000020 fa 95 31 3d f6 72 19 bc 7c 8c f0 3d 77 d6 70 3d
       0.04335592 -0.009365788 0.11745545 0.05879828
000030 0a 4b 5a bd 34 c1 0f bd b7 e5 3f 3d 2b 34 d5 3d
       -0.05329422 -0.035096362 0.046849933 0.10410341
000040 17 49 31 3d 97 7f dc 3c ce 18 4f 3d dd bc 86 3d
       0.043282595 0.026916308 0.050560765 0.065789916
000050 c5 9c 83 be 37 63 0c be 4b cb 71 bd 75 05 c2 3a
       -0.25705543 -0.13709722 -0.059031766 0.0014802652
000060 4b 73 ea bd 6e a9 78 be 07 4d 36 be 89 38 31 3d
       -0.11447772 -0.24283382 -0.17802821 0.043266807
000070 64 f0 c1 bd 1d 49 82 bd a5 56 bc bd 9a b1 9c bd
       -0.09469679 -0.063616015 -0.09196214 -0.07651062
000080 ba 23 20 3d 83 e2 bb bd 5e cf 2a bd 27 9c 7b 3d
       0.03909657 -0.09174063 -0.041701667 0.061428215
000090 54 72 c0 3d 18 2d 9f 3d 83 71 62 3c 08 0e 2b bc
       0.09396806 0.07772273 0.013821009 -0.010440357
0000a0 07 1e 08 3d 06 78 b4 3d a6 5e 8c 3d 1e 97 d2 3d
       0.03323176 0.08811955 0.0685399 0.102827296
0000b0 6b db 09 bd 91 e1 d8 bb 6b ff 92 3d e9 a0 c6 3b
       -0.03365652 -0.0066186865 0.07177623 0.0060616625
0000c0 cd d5 ff 3c e0 fa d6 bc df 24 3a bd 25 08 42 3d
       0.031229878 -0.026242673 -0.04544532 0.04737105
0000d0 bc 6d 0a bd 65 98 39 3d 5a 95 4c bd c3 05 5a 3d
       -0.033796057 0.04531135 -0.04994712 0.05322815
0000e0 45 d1 71 3d 0f f2 15 bd b9 3a c6 3c 7f a4 55 bc
       0.059037466 -0.0366078 0.024197923 -0.013039707
0000f0 6d 99 01 3d 8c 99 83 ba 8a 9a a7 3c f9 b3 97 bc
       0.03164046 -0.0010040267 0.020459432 -0.018518435
000100 3f c7 13 3c cb 25 96 bc dc 98 81 3c a0 24 c0 39
       0.009019672 -0.018328568 0.01581996 0.00036648382
000110 6b 36 34 ba 04 59 dc 3c 73 03 e4 3c 2b f8 4c 3d
       -0.0006874564 0.026897915 0.027833676 0.05004136
000120 93 a1 71 3b bc 0a 17 3d 19 2c ab 3d eb 5b 56 bd
       0.0036869987 0.03687547 0.0835802 -0.052333754
000130 c7 db b1 bc e4 55 d7 bb 6a 58 75 3d 20 21 d1 3d
       -0.021711243 -0.0065715183 0.05989877 0.10211396
000140 a0 e1 87 3d b6 13 c1 3c 82 9b e6 bc ea c2 93 ba
       0.066348314 0.02356897 -0.028150324 -0.0011273299
000150 d6 6b 2c bc 76 67 9b bd c7 1d a0 bc 2d e3 84 bb
       -0.010523757 -0.07588093 -0.019545449 -0.004055402
000160 70 47 7d bc f1 02 e4 3c 20 e0 2f 3d 04 60 a6 3c
       -0.015458927 0.027833434 0.04293835 0.020309456
000170 55 75 0f bc cf 8b c3 bc cc 66 17 3d bb f8 9f bd
       -0.0087560015 -0.023870377 0.03696327 -0.078111134
000180 4c 58 81 3d f5 80 a1 bb ab c9 50 bd 62 4a aa bd
       0.063156694 -0.004928703 -0.050973576 -0.08314969
000190 ca 34 8a 3d d2 3e 97 3c 44 d5 6a 3d 4f 4b 8f 3c
       0.0674835 0.018462572 0.057332292 0.017491965
0001a0 38 79 0c 3e ae a3 d8 bb c8 7d d8 3b 2c ca 6f 3d
       0.13718116 -0.006611309 0.006606791 0.058542415
0001b0 2a 60 c8 bc 17 51 86 3c 00 e7 b4 3a d4 1d 04 bd
       -0.024459917 0.016396089 0.0013801754 -0.03225501
0001c0 b5 5a 2e bd 3d 69 49 bd ff 20 23 3d cf 66 35 bd
       -0.042566974 -0.04917263 0.03982639 -0.0442875
0001d0 24 59 45 bd 52 d5 a0 3c 21 f8 5d 3d 63 05 24 3d
       -0.048180714 0.019632969 0.054191712 0.0400442
0001e0 ab 86 a4 bd b2 a5 ca 3c 30 c0 d2 3b 72 60 52 bd
       -0.080334984 0.024737213 0.006431602 -0.05136151
0001f0 32 fe b1 bd d6 3f 6a bc 37 06 c0 bd 77 1f 26 bd
       -0.08691062 -0.014297446 -0.093761854 -0.04055735
000200 fc 0d 4d be 28 f9 2f bd a7 40 12 bd b6 ba 40 bd
       -0.20024866 -0.042962223 -0.03570619 -0.04705306
000210 f5 83 35 bd f9 32 be 3b ff 72 86 3b 2c f3 f5 bd
       -0.044315297 0.0058044163 0.004103064 -0.12009272
000220 25 72 5e bc a9 4b 92 bd fd 70 90 bd d5 7b bc 3b
       -0.013577019 -0.07143337 -0.07052801 0.0057520666
000230 19 96 82 3d 5a a6 eb 3c db 0c f5 bc f0 49 1f 3c
       0.06376285 0.028765846 -0.029913357 0.009722218
000240 53 5a dd 3d 87 e9 c6 3d 83 c3 c3 3d 64 99 ae 3d
       0.108082436 0.097125106 0.09558775 0.08525351
000250 ba 3c 8f 3d aa 7c 03 3e 0c bb 6e 3d 62 6a 48 3d
       0.069940045 0.12840524 0.05828385 0.04892958
000260 72 3c 17 bd 58 64 f8 3b ad 06 4c 3d 25 a6 ea bc
       -0.03692288 0.0075803213 0.049811054 -0.028643677
000270 d0 55 a5 bd c9 2d df bc 3f 54 a2 3c 0e be 4e 3c
       -0.08073008 -0.027243512 0.019815562 0.012618555
000280 b3 af 93 3d 06 52 aa 3d 31 02 5d bd e0 49 8a 3a
       0.07211246 0.08316426 -0.053957168 0.0010550581
000290 fe 03 2d 3d 8f 7f ad 3d ae 6e 5c 3d 47 86 91 3b
       0.042240135 0.084715955 0.05381649 0.004441056
0002a0 eb 81 12 bd 0f 49 4a 3d d7 a3 3a bd 74 db 8c bd
       -0.03576843 0.04938608 -0.045566406 -0.06877795
0002b0 b1 44 b6 bc 55 a5 48 3c d8 9c 2f bd 6a d4 93 3d
       -0.022249551 0.0122464495 -0.042874187 0.07218249
0002c0 76 94 33 3d 41 5f 42 3d c0 bd 13 3c 42 6d 0d 3e
       0.043842755 0.047454122 0.009017408 0.1381121
0002d0 0c 0c 83 3c 81 62 42 3d eb e5 ce b9 21 80 97 3d
       0.015996955 0.047457222 -0.00039462684 0.073974855
0002e0 99 2d 27 3d f2 51 e6 3a 01 01 88 ba b0 90 56 3d
       0.04081497 0.0017572029 -0.0010376276 0.05238408
0002f0 7c 90 b4 3d 54 35 8d 3d ef 49 66 bb 5e 0a 34 bd
       0.08816621 0.06894937 -0.0035139283 -0.0439552
000300 1e 7c c7 ba 4d fd b6 bc 8a 5e 45 3d ca 3f 55 bd
       -0.0015219485 -0.02233758 0.048185863 -0.052062787
000310 34 c9 90 bd a5 14 63 bd 3c f0 a8 bb f2 b7 56 bd
       -0.070696265 -0.05543961 -0.0051555913 -0.052421518
000320 4c f9 25 3e a1 fe 14 bd 2c 16 00 3d 33 16 23 3d
       0.1620838 -0.036375646 0.031271145 0.039816093
000330 02 dc 99 3d 97 45 bf bb c1 d6 cb bb 6f 44 85 3c
       0.07512666 -0.005837153 -0.006220669 0.016267983
000340 12 83 b1 3d 15 99 80 3d c9 9d ad bc 4d 14 0f 3b
       0.08667578 0.06279198 -0.021193402 0.0021832169
000350 b5 0e ed 3c 49 76 90 bc bc 33 32 3d 16 37 47 3d
       0.028937677 -0.017634528 0.04350637 0.04863652
000360 b5 e1 46 bb 4e 3a 77 ba 9e 53 a4 3c f8 97 b3 3d
       -0.0030346934 -0.00094309903 0.020059403 0.0876922
000370 38 10 1b be cc 9d 81 bd 72 4c d3 bd 46 6a 39 bd
       -0.15142906 -0.063289255 -0.10317315 -0.045267366
000380 43 2e c0 ba b5 8e 97 bb a7 86 cf 3c e5 aa b9 3d
       -0.0014662225 -0.0046251663 0.025332762 0.09065799
000390 b0 8b 6f bd b5 2d 81 be d2 96 b6 bd e9 ce f5 3c
       -0.058482826 -0.25230184 -0.089154854 0.030005889
0003a0 55 0f 85 bc 24 ac 0c bd c8 ef d9 bd 19 8f d9 3c
       -0.016242662 -0.034343854 -0.10641438 0.026557492
0003b0 a7 3c 4f 3d ae f3 bb 3b 90 16 32 3d 06 3e 28 bd
       0.050594952 0.005735836 0.04347855 -0.041074775
0003c0 6b e9 69 bc e0 ac 55 3d 3b 6f 7c bd 41 9c 6d bd
       -0.014276843 0.05216682 -0.061629515 -0.058010343
0003d0 50 6b 3b bd 1b b0 1a 3d 47 dd b3 bd f3 6e bf bd
       -0.045756638 0.037765604 -0.0878244 -0.09347334
0003e0 6a ff ea bc b7 cc 9b bb c1 33 c8 bd c4 0d cc bd
       -0.028686244 -0.0047546285 -0.09775496 -0.09963563
0003f0 0e ff 1b bc ac 19 6f 3c a9 99 06 3e 02 4c a1 bd
       -0.009521259 0.014593523 0.13144554 -0.078758255

conv3.activation_post_process.histogram f4 [2048]
000000 00 00 80 3f 00 00 00 00 00 00 00 00 00 00 00 00
       1.0 0.0 0.0 0.0
000010 00 00 00 00 00 00 00 00 00 00 00 00 00 00 00 00
       0.0 0.0 0.0 0.0
000020 00 00 00 00 00 00 00 00 00 00 00 00 00 00 00 00
       0.0 0.0 0.0 0.0
000030 00 00 00 00 00 00 00 00 00 00 00 00 00 00 00 00
       0.0 0.0 0.0 0.0
000040 00 00 00 00 00 00 00 00 00 00 00 00 00 00 00 00
       0.0 0.0 0.0 0.0
000050 00 00 00 00 00 00 00 00 00 00 00 00 00 00 00 00
       0.0 0.0 0.0 0.0
000060 00 00 00 00 00 00 00 00 00 00 00 00 00 00 00 00
       0.0 0.0 0.0 0.0
000070 00 00 00 00 00 00 00 00 00 00 00 00 00 00 00 00
       0.0 0.0 0.0 0.0
000080 00 00 00 00 00 00 00 00 00 00 e4 3e 00 00 0e 3f
       0.0 0.0 0.4453125 0.5546875
000090 00 00 00 00 00 00 00 00 00 00 00 00 00 00 00 00
       0.0 0.0 0.0 0.0
0000a0 00 00 00 00 00 00 00 00 00 00 00 00 00 00 00 00
       0.0 0.0 0.0 0.0
0000b0 00 00 00 00 00 00 00 00 00 00 00 00 00 00 00 00
       0.0 0.0 0.0 0.0
0000c0 00 00 00 00 00 00 00 00 00 00 00 00 00 00 00 00
       0.0 0.0 0.0 0.0
0000d0 00 00 00 00 00 00 00 00 00 00 00 00 00 00 00 00
       0.0 0.0 0.0 0.0
0000e0 00 00 00 00 00 00 00 00 00 00 00 00 00 00 00 00
       0.0 0.0 0.0 0.0
0000f0 00 00 00 00 00 00 00 00 00 00 00 00 00 00 00 00
       0.0 0.0 0.0 0.0
000100 00 00 00 00 00 00 00 00 00 00 00 00 00 00 00 00
       0.0 0.0 0.0 0.0
000110 00 00 00 00 00 00 00 00 00 00 00 00 00 00 00 00
       0.0 0.0 0.0 0.0
000120 00 00 00 00 00 00 00 00 00 00 00 00 00 00 00 00
       0.0 0.0 0.0 0.0
000130 00 00 00 00 00 00 00 00 00 00 00 00 00 00 1c 3e
       0.0 0.0 0.0 0.15234375
000140 00 2c 04 3f 00 a8 a9 3e 00 00 00 00 00 00 00 00
       0.5162964 0.33135986 0.0 0.0
000150 00 00 00 00 00 00 00 00 00 00 00 00 00 00 00 00
       0.0 0.0 0.0 0.0
000160 00 00 00 00 00 00 00 00 00 00 00 00 00 00 00 00
       0.0 0.0 0.0 0.0
000170 00 00 00 00 00 00 00 00 00 00 00 00 00 00 00 00
       0.0 0.0 0.0 0.0
000180 00 00 00 00 00 00 00 00 00 00 00 00 00 00 00 00
       0.0 0.0 0.0 0.0
000190 00 00 00 00 00 00 00 00 00 00 00 00 00 00 00 00
       0.0 0.0 0.0 0.0
0001a0 00 00 00 00 00 00 00 00 00 00 00 00 00 00 00 00
       0.0 0.0 0.0 0.0
0001b0 00 00 00 00 00 00 00 00 00 00 00 00 00 00 00 00
       0.0 0.0 0.0 0.0
0001c0 00 00 00 00 00 00 00 00 00 00 00 00 00 00 00 00
       0.0 0.0 0.0 0.0
0001d0 00 00 00 00 00 d5 ca 3d 00 ad bc 3e c0 7c ce 3e
       0.0 0.09903908 0.3685074 0.40329552
0001e0 00 42 04 3e 00 00 00 00 00 00 00 00 00 00 00 00
       0.12915802 0.0 0.0 0.0
0001f0 00 00 00 00 00 00 00 00 00 00 00 00 00 00 00 00
       0.0 0.0 0.0 0.0
000200 00 00 00 00 00 00 00 00 00 00 00 00 00 00 00 00
       0.0 0.0 0.0 0.0
000210 00 00 00 00 00 00 00 00 00 00 00 00 00 00 00 00
       0.0 0.0 0.0 0.0
000220 00 00 00 00 00 00 00 00 00 00 00 00 00 00 00 00
       0.0 0.0 0.0 0.0
000230 00 00 00 00 00 00 00 00 00 00 00 00 00 00 00 00
       0.0 0.0 0.0 0.0
000240 00 00 00 00 00 00 00 00 00 00 00 00 00 00 00 00
       0.0 0.0 0.0 0.0
000250 00 00 00 00 00 00 00 00 00 00 00 00 00 00 00 00
       0.0 0.0 0.0 0.0
000260 00 00 00 00 00 00 00 00 00 00 00 00 00 00 00 00
       0.0 0.0 0.0 0.0
000270 00 00 00 00 00 00 00 00 00 00 00 00 00 00 00 00
       0.0 0.0 0.0 0.0
000280 00 00 00 00 00 00 00 00 00 00 00 00 00 00 00 00
       0.0 0.0 0.0 0.0
000290 00 00 00 00 00 00 00 00 00 00 00 00 00 00 00 00
       0.0 0.0 0.0 0.0
0002a0 00 00 00 00 00 00 00 00 00 00 00 00 00 00 00 00
       0.0 0.0 0.0 0.0
0002b0 00 00 00 00 00 00 00 00 00 00 00 00 00 00 00 00
       0.0 0.0 0.0 0.0
0002c0 00 00 00 00 00 00 00 00 00 00 00 00 00 00 00 00
       0.0 0.0 0.0 0.0
0002d0 00 00 00 00 00 00 00 00 00 00 00 00 00 00 00 00
       0.0 0.0 0.0 0.0
0002e0 00 00 00 00 00 00 00 00 00 00 00 00 00 00 00 00
       0.0 0.0 0.0 0.0
0002f0 00 00 00 00 00 2a 55 3a 0e f6 17 3d 28 2c a6 3e
       0.0 0.00081315637 0.03709989 0.32455564
000300 8b 34 14 3f 40 0b 70 3d 00 00 00 00 00 00 00 00
       0.57892674 0.05860448 0.0 0.0
000310 00 00 00 00 00 00 00 00 00 00 00 00 00 00 00 00
       0.0 0.0 0.0 0.0
000320 8c 30 f7 39 7c 5d 02 3d 53 81 5a 3e 09 e1 d5 3e
       0.00047147681 0.031827435 0.21338396 0.4177325
000330 f1 65 8f 3e a6 76 67 3d 00 00 18 34 00 00 18 34
       0.28007463 0.056509636 1.4156103e-07 1.4156103e-07
000340 00 00 18 34 00 00 18 34 00 00 18 34 00 00 18 34
       1.4156103e-07 1.4156103e-07 1.4156103e-07 1.4156103e-07
000350 00 00 18 34 00 00 18 34 00 00 18 34 00 00 18 34
       1.4156103e-07 1.4156103e-07 1.4156103e-07 1.4156103e-07
000360 00 00 18 34 00 00 18 34 00 00 18 34 00 00 18 34
       1.4156103e-07 1.4156103e-07 1.4156103e-07 1.4156103e-07
000370 00 00 18 34 00 00 18 34 00 00 18 34 00 00 18 34
       1.4156103e-07 1.4156103e-07 1.4156103e-07 1.4156103e-07
000380 00 00 18 34 00 00 18 34 00 00 18 34 00 00 18 34
       1.4156103e-07 1.4156103e-07 1.4156103e-07 1.4156103e-07
000390 00 00 18 34 00 00 18 34 00 00 18 34 00 00 18 34
       1.4156103e-07 1.4156103e-07 1.4156103e-07 1.4156103e-07
0003a0 00 00 18 34 00 00 18 34 00 00 18 34 00 00 18 34
       1.4156103e-07 1.4156103e-07 1.4156103e-07 1.4156103e-07
0003b0 00 00 18 34 00 00 18 34 00 00 18 34 00 00 18 34
       1.4156103e-07 1.4156103e-07 1.4156103e-07 1.4156103e-07
0003c0 00 00 18 34 00 00 18 34 00 00 18 34 00 00 18 34
       1.4156103e-07 1.4156103e-07 1.4156103e-07 1.4156103e-07
0003d0 00 00 18 34 00 00 18 34 00 00 18 34 00 00 18 34
       1.4156103e-07 1.4156103e-07 1.4156103e-07 1.4156103e-07
0003e0 00 00 18 34 00 00 18 34 00 00 18 34 00 00 18 34
       1.4156103e-07 1.4156103e-07 1.4156103e-07 1.4156103e-07
0003f0 c1 3b 7e 3c 5d 18 13 3e b6 f7 b6 3e 08 0f af 3e
       0.015517176 0.14364763 0.35735863 0.34191155
