experiments/exp030/model.pth (torch, 271383 bytes, 17 tensors)

conv1.weight f4 [6, 2, 5, 5]
00000000: 9fda 96bd 3a03 87be 833d 37be fe81 4b3e
00000010: 0825 413e ea82 c9bd a449 a7bd 16e6 cb3c
00000020: b850 783d 8276 363e dc93 953d 70e6 f63d
00000030: 7a58 b93c 6acf 0cbe 0c0a e6ba 0a48 8c3e
00000040: 0729 5e3d a168 85bd 98d3 17be b292 51be
00000050: 9da6 573e de4b 2f3e 01e5 d63c 968b ebbd
00000060: 7a60 17be b164 753d 4965 2e3e facf 643e
00000070: 11fb 7bbe 85fe 7fbe eb54 b63d ec1a dc3d
00000080: 886f 2c3d 290f 3bbd 35ae 38be 63d9 b2bd
00000090: 0472 21be 1931 abbb a0f3 c13d bd0d dfbc
000000a0: c313 57be 7ba0 57bd ceab 953d 0474 083e
000000b0: 3c7d 183e 8318 61be bcfd 48be eba3 f5bc
000000c0: 1f1a 903d 57ce 253e d365 c63d 3cd8 843e
000000d0: 4cb9 fe3d 4481 18be fe32 97be 8502 a0bc
000000e0: 28f3 aa3e 7c85 363e 804c 2abe f9ee 45be
000000f0: a495 9dbd 3a48 723e c546 e63d 4ea9 f63c
00000100: 7283 80be 1399 833d 4c10 0e3e 7004 ddbd
00000110: e836 9c3d 459f 74bd 88df 7dba 53a5 e53d
00000120: 952b 86bd f538 41bd d6ef a53d eea5 8ebc
00000130: b324 ca3d 516d 703d 0cb9 3abe 7892 82bd
00000140: 7761 153e 9309 be3c 6a5e 783d 0368 21be
00000150: 41be 34bc 3db7 e2bc 37a0 5f3d 443a 583d
00000160: eef4 04bd 3a9e 24be 9e4a d53d 9806 02be
00000170: f32f e53d 1796 2bbe 031a fa3d df60 623e
00000180: 0ce7 b2bd 848c 36bd 48a6 c3ba b4d3 9cbd
00000190: edf5 303e 6705 593e 4db1 c33d 73d7 adbc
000001a0: a213 d3bd 0cc5 fc3d 2ea0 c53e 0856 3ebc
000001b0: 30d8 83bd c22c 91bd 48de 123e 40a2 3fbd
000001c0: 9552 06be ecfc ad3d a69e d33d bde8 663d
000001d0: ef66 74bd 4069 78bd f388 97bd b74c 43be
000001e0: ddbd f63b 446e 88bd 4ad1 abbd a0ff 54be
000001f0: 04cd 61be 2b09 333e cac4 2e3e 112f 0abd
00000200: 18a1 12be c2dd bcbd ec64 293e d5dc 533e
00000210: e936 663d 67b2 90bc 05cb b8bd 35a4 883d
00000220: 03e1 57bd 364e 19be 94b7 17be bdf2 41be
00000230: 066b 0b3e dbfc 7dbd aa95 32be e4f1 0ebe
00000240: 2341 a7be 0882 b4bc 9df8 78bd 58a1 f0bd
00000250: 188f 23be 3622 8ebe 2c2a 8abd ae3b e13d
00000260: beb4 eebd e7d6 a33d 5a0a 05be f31f dc3c
00000270: 36b7 a53c 5493 b6bd 9db3 86bc 5b58 d43d
00000280: be64 5a3c 74e9 903d ea56 17bd e951 18be
00000290: a3a0 073e 5bb2 8d3d f20b 5d3d 4b72 61bd
000002a0: 7529 afbd c940 a23d f11a 0d3c 7493 adba
000002b0: a31a 8f3b 39d0 b7bc 5905 9dbc dc16 0a3c
000002c0: 333f 85bb 22c1 bebd eee6 4e3d 6a98 68bd
000002d0: ac59 7dba 05fd 7abd e355 8c3d 9ffd 1c3d
000002e0: 55ff 5c3d 2d08 c83d 014c f43c 8ff1 9b3d
000002f0: 9edf 78bd c900 8abd dc0c 0c3e 2590 dbbc
00000300: cdf5 af3d baf1 9c3d f074 893d 9c36 923e
00000310: 3fcb e83c 90cc 863c 51bc 0d3e ba4b 003e
00000320: 628f 573d f471 83be 3bd3 50be 4ea9 18bd
00000330: 80fb 963d b760 663e 1f80 45bd 18e6 b1bd
00000340: 7729 bebd d005 2bbe 91e8 863e 6ede 46be
00000350: 7b0d 823e 4985 9c3d b41a 143e c855 9c3d
00000360: e963 fdbd 6ce6 253d 30f6 b93d 7390 9b3d
00000370: a128 d33d 1cb1 dbbd 1af3 7bbd 738e 103e
00000380: 9b5a 213d 0a0c 73bd d484 ebbd a48e 72be
00000390: 5089 633d 1d6d 023e 5dd3 77bc dbf5 7cbe
000003a0: d29d d4bd 86fe 5cbe d1f5 a1be e183 aaba
000003b0: b6b6 6abe 8806 ef3d 4c0d bdbc 30f6 2dbe
000003c0: 464a ddbd 5eb8 b9bd abd6 b6ba 0495 b43d
000003d0: 7944 143e 01b0 30bd 464e 8dbd cd8a e7bc
000003e0: 2706 243e b049 47bb b20f c73c 8637 55bd
000003f0: c0eb 1f3e 1d6d 5b3e 2ac7 153e a69e cabd
-0.073659174 -0.2636965 -0.17894559 0.19873807 0.18861783 -0.09839423 -0.08168343 0.024889987
0.060623854 0.17818645 0.073035926 0.12055671 0.022625197 -0.13750997 -0.0017550602 0.2739871
0.054238345 -0.06514097 -0.1482681 -0.20466116 0.21059652 0.17118785 0.026232244 -0.11501233
-0.14782897 0.05991048 0.17030825 0.22344962 -0.24607493 -0.24999435 0.089029156 0.107473224
0.042098552 -0.045668755 -0.18035205 -0.087328695 -0.1576615 -0.0052243588 0.09470296 -0.02722823
-0.21003632 -0.05264328 0.0730816 0.13325506 0.14891523 -0.21982007 -0.19628042 -0.029985389
0.07036232 0.16191994 0.0968739 0.25946224 0.12437686 -0.14893061 -0.2953109 -0.019532451
0.33388638 0.17824358 -0.16630745 -0.19329442 -0.07694557 0.23660365 0.11243967 0.030110028
-0.25100285 0.06425681 0.13873404 -0.10791862 0.0762766 -0.059722204 -0.0009684493 0.11213174
-0.06551281 -0.04717346 0.08102386 -0.017413106 0.09870281 0.058698002 -0.18234652 -0.06375593
0.14587961 0.023197925 0.060636915 -0.15762334 -0.011031688 -0.027675265 0.054596152 0.05278994
-0.032460146 -0.16075984 0.10414623 -0.12697828 0.11190786 -0.16756473 0.122119926 0.22107266
-0.08735475 -0.0445676 -0.0014926875 -0.07657567 0.17281313 0.21193467 0.09555302 -0.021220898
-0.10306479 0.12342271 0.3859877 -0.011617191 -0.06437719 -0.07088615 0.14342606 -0.046785593
-0.1311744 0.08495507 0.10332994 0.0563743 -0.059668478 -0.06064725 -0.07399168 -0.19072233
0.0075299577 -0.066616565 -0.08389528 -0.20800638 -0.22050864 0.17483966 0.17067257 -0.033736292
-0.14319265 -0.092219844 0.16542405 0.2068971 0.05620471 -0.017663194 -0.09023098 0.06671945
-0.052704822 -0.14971241 -0.14816123 -0.18940254 0.13615045 -0.06200872 -0.17439905 -0.13959461
-0.32666883 -0.02203466 -0.06078397 -0.11749524 -0.15972555 -0.27760476 -0.06746325 0.10997711
-0.116555676 0.07999974 -0.1299223 0.026870703 0.020228963 -0.08914819 -0.016443068 0.10368415
0.013329683 0.07075778 -0.036948122 -0.14874996 0.13244872 0.06918784 0.05396647 -0.05504064
-0.08552829 0.07922513 0.00861238 -0.0013242797 0.004367189 -0.022438155 -0.019167589 0.008428302
-0.004066372 -0.09314181 0.0505132 -0.05678598 -0.0009664546 -0.061276454 0.06852319 0.03832781
0.05395444 0.097671844 0.029821398 0.07614433 -0.060760133 -0.06738431 0.1367678 -0.026802132
0.08591805 0.07663293 0.06711757 0.2855729 0.028417228 0.016454965 0.13841368 0.12528887
0.052626975 -0.25672877 -0.20393078 -0.037270837 0.073721886 0.22497831 -0.04821789 -0.08686465
-0.092852525 -0.16701436 0.2634931 -0.19420788 0.2540091 0.076426096 0.14463311 0.07633549
-0.12372572 0.04050295 0.0908016 0.07595911 0.10310484 -0.1072714 -0.061511137 0.1411684
0.03939305 -0.059337653 -0.11499944 -0.23687226 0.055550873 0.12736936 -0.0151260765 -0.24703161
-0.10381664 -0.21581468 -0.31632856 -0.0013009274 -0.22921261 0.116711676 -0.02307763 -0.16988444
-0.10805182 -0.090683684 -0.0013949474 0.08817485 0.14479245 -0.0431366 -0.06899695 -0.028264428
0.16017972 -0.0030408911 0.024299476 -0.052054904 0.15617275 0.21428342 0.14626756 -0.09893541

conv1.weight_fake_quant.scale f4 [6]
00000000: ad62 0d3b 8d4b 2c3b bd2e 473b 245d 133b
00000010: a0f5 213b 7771 ff3a
0.0021573708 0.002629015 0.0030392848 0.0022485936 0.0024713054 0.0019488771

conv1.weight_fake_quant.activation_post_process.min_val f4 [6]
00000000: 6c03 87be cc32 97be c640 a7be 8d51 18be
00000010: a0f5 a1be b814 21be
-0.26369798 -0.29530942 -0.32666606 -0.14874859 -0.3163271 -0.1573056

conv1.weight_fake_quant.activation_post_process.max_val f4 [6]
00000000: e847 8c3e f6f2 aa3e 60a0 c53e 6a36 923e
00000010: c2e8 863e 9472 7d3e
0.2739861 0.3338849 0.3859892 0.2855714 0.26349455 0.2475074

conv2.weight f4 [16, 6, 5, 5]
00000000: a06c 84bd 7294 87bc 5fe2 653e a957 893e
00000010: 0578 033e d8fa 0ebc 497b ac3b b356 7d3d
00000020: e989 273e 71e7 113e 10d1 323c b2c8 2fbb
00000030: 0f2b 343e 15f6 cb3d 8a44 113d 6207 583d
00000040: 4324 bcbd 11d6 c73d ab11 263e 56c5 d73d
00000050: fe15 0a3e 1f39 0e3d 1c58 433e 4c4d 683e
00000060: 80c2 8d3e 184b 48be d67d 80bd 389f 27be
00000070: 1775 5fbe 1199 24be 369f 30bc 2615 023e
00000080: 7e7f 653d 5771 423d a68c 37bd be03 4f3d
00000090: e03c b23d 0075 613e dd8d 093e ccea 3abd
000000a0: cb64 853e 63fa b73d 1309 b43d 6822 6a3d
000000b0: 9a18 a13d 7a65 823e 24f2 2e3e fca5 a63d
000000c0: fa69 153e a940 aa3d cd9a 7dbe 854e 12be
000000d0: 3a7f 2fbe ab41 4ebe 677c e4bd 5f16 36be
000000e0: 8044 a23d 936d c93a c16c 12be ad24 0dbe
000000f0: a39f 01be d639 873d 9e26 c6bd 4119 b1bd
00000100: 13ff 6abe 939d c93d 5200 103e a440 52bc
00000110: dc56 7fbd badb c3bd 92fb 993d 3abe 5ebd
00000120: 5a12 15be 7116 5ebe 7e6f 1ebe 33f9 83bd
00000130: f4c9 d9bd d136 01be 47e2 d6bc 37c1 663c
00000140: d2ff 653d 9fb3 293d ab7a 013d f5e8 6cbd
00000150: e430 2dbd 680a f83d 102b aabc b181 a3bd
00000160: b494 143d 3cf4 0dbd 7550 e83d 979b 93bd
00000170: f7d4 5abd c169 02bb 61d0 0a3d b777 c93d
00000180: 7c6c 5d3d c97e 903d 0e3f 093e d55b e33d
00000190: 74d9 1d3a d5b4 f83c 5970 fbbd e5cf 7cbd
000001a0: f3e0 8fbd 1fb1 80bd 9523 8abb 1579 99bd
000001b0: 98e0 833c 01db c2bd 2e15 8e3c f477 fdbd
000001c0: 4190 94bd aae0 7cbd be0b dcbd 3884 3abd
000001d0: a186 1d3d d698 e9bd 1bd8 43be 4699 40be
000001e0: c145 bf3d 4082 b33d 762c d83d 3263 a53b
000001f0: b085 9fbc 0caf 83bc 345d c6bd c2de c8bd
00000200: e8d1 fbbd 5f05 0bbe 3f78 cf3c e431 793d
00000210: 3e78 05bc 9969 ecbd 6522 abbd ba75 d93b
00000220: a02c 82bd 4e06 653d 304a 04bd 92a1 56bd
00000230: 7cfa 813d 91f1 efbd 6307 353c e7ec e73d
00000240: c535 203d 91b8 813e feff b23d 7793 ae3d
00000250: c6e4 623d 3bd6 f73d 5875 05be 775e 1ebe
00000260: 913a 8fbd e05e 50bd 60fe 0abd 6b4f c2bd
00000270: 02da 0cbc b486 bdbd 892a 783c c8d0 813e
00000280: 8265 ce3c eb81 bebd 6b87 71bd 8556 f93c
00000290: 9fbb 543e 252e ce3c 431a 1a3d 3fa7 ab3d
000002a0: a9e7 5d3e 7af6 9e3e d0aa 95bd d903 e5bb
000002b0: 96f6 643b eaf7 c9bc 938e 2c3e 79bc 97bd
000002c0: 7311 34bb b0d4 143e 4693 83bd 3b4f 47be
000002d0: 15cc f839 ecc3 a93c 3a3c 6dbd ddcc 08bc
000002e0: 9878 183d 85b6 03be 5b90 ac3b ed6b 943b
000002f0: 5ea0 02be d262 13bd 9820 923c 2a1e e7bd
00000300: ffb4 d1bc 223d 92bc 9a87 093d cf34 f3bb
00000310: 232e e5bd 6614 0abe 591c cbbd e434 e7bc
00000320: 8f17 87be 544a 96bd 59c8 8c3e 9bd2 1f3e
00000330: e48e 44bd de26 8bbd c8ef 893d 8c7d 283e
00000340: a1da 8dbd 1f13 79bd 1bb2 a7bd efb8 3c3d
00000350: 9379 4b3e dc41 22bd ef54 e7bd ae8b 8dbd
00000360: 4a3e 17bd 6180 98bd bf9e 17be 7b7d 02be
00000370: 9164 333d 5b62 9c3d dff4 9bbd 4f0f 80bc
00000380: e606 ffbb 3e18 50be 7c8f e6bd da7f 51be
00000390: 2074 cdbd 20f1 ddbc 84a7 50be aebd 1dbe
000003a0: 214a ccbc 00b4 12bd 1ded 61bd c31f e03c
000003b0: e294 d6bb a0df 95bb 568e 29bd 15bb ee3d
000003c0: 6c55 c1bc 557e ab3a 801e f83d 5539 f43d
000003d0: 1dcb 703e c23c 09bd 3c50 0dbd 9685 843c
000003e0: 21d6 283e 60fc 753e 72e4 9bbd 90a3 d7bd
000003f0: 7520 47bd 31a4 4b3e af6f 0f3e 60f5 753d
-0.06466031 -0.016550276 0.22449635 0.26824692 0.12838753 -0.008726798 0.00526372 0.06185026
0.16361202 0.14248444 0.010914102 -0.0026822505 0.1759455 0.09959046 0.035465755 0.052741416
-0.09186604 0.09757627 0.16217677 0.10535686 0.13484952 0.034722444 0.1907658 0.22685736
0.27687454 -0.19559896 -0.06274001 -0.16369331 -0.2182201 -0.16074015 -0.010780146 0.1270338
0.05602979 0.04747137 -0.044811867 0.05054068 0.08703017 0.22017288 0.13433023 -0.045634076
0.2605346 0.08983304 0.08790793 0.05716172 0.078660205 0.25468045 0.17084557 0.08137128
0.14591208 0.08313114 -0.24766083 -0.14287765 -0.17138377 -0.20142238 -0.1115654 -0.17781971
0.079232216 0.0015367739 -0.14299299 -0.13783522 -0.12658553 0.06602828 -0.096753344 -0.08647395
-0.22948866 0.09844508 0.14062622 -0.012832794 -0.062338695 -0.09563394 0.07518686 -0.054380633
-0.14557782 -0.21688248 -0.15472218 -0.06444015 -0.106342226 -0.12618567 -0.026230944 0.014084152
0.056152172 0.041431066 0.031611126 -0.057839353 -0.042282954 0.1211136 -0.020772487 -0.07983721
0.036274627 -0.03465675 0.11343471 -0.07207411 -0.053425755 -0.001989946 0.03389013 0.09837287
0.054058537 0.07055432 0.1340296 0.111015 0.0006021478 0.030359665 -0.12277288 -0.0617217
-0.070253275 -0.06283783 -0.0042156675 -0.07493798 0.016098306 -0.09514428 0.017344084 -0.12376395
-0.07254077 -0.061737694 -0.10744427 -0.04553625 0.03845847 -0.11406104 -0.19125406 -0.18808469
0.093394764 0.087650776 0.10555355 0.0050472254 -0.019472927 -0.01607468 -0.09685746 -0.09808113
-0.12295896 -0.13576268 0.025325892 0.060838595 -0.008146344 -0.11543579 -0.083561696 0.0066363486
-0.06356168 0.055914216 -0.032297313 -0.05240018 0.06346604 -0.11715997 0.011049124 0.113244824
0.03911378 0.25336125 0.08740233 0.085242204 0.055393957 0.12101408 -0.13033044 -0.15465723
-0.069935925 -0.05087173 -0.033933997 -0.09487804 -0.008596899 -0.09254208 0.01514686 0.253546
0.025194887 -0.09302124 -0.058967035 0.030436764 0.20774697 0.025168488 0.0376227 0.08381509
0.21670403 0.31047422 -0.073079705 -0.006988984 0.0034937016 -0.024654347 0.16851263 -0.07408995
-0.002747622 0.14534259 -0.064245746 -0.19463818 0.000474543 0.020723306 -0.057918765 -0.008349624
0.037224382 -0.12862594 0.005266232 0.0045294673 -0.12756488 -0.035982914 0.017837808 -0.1128505
-0.025599001 -0.017851416 0.033576585 -0.0074220668 -0.111904405 -0.13484344 -0.09917516 -0.028223462
-0.2638516 -0.07338396 0.27496603 0.15607683 -0.047987834 -0.06794523 0.06735188 0.16454142
-0.06926466 -0.06080925 -0.08188268 0.046074804 0.19870596 -0.03961359 -0.11295497 -0.069114074
-0.036924638 -0.07446361 -0.1480665 -0.1274318 0.04379708 0.07635947 -0.07615065 -0.0156323
-0.007782805 -0.20321748 -0.11257836 -0.20458928 -0.10031915 -0.027092516 -0.20376402 -0.15404388
-0.024937691 -0.035816193 -0.05515777 0.027358895 -0.00654851 -0.0045737773 -0.041395508 0.11656777
-0.023600303 0.0013083915 0.121151924 0.11924998 0.23514982 -0.03350521 -0.034500346 0.01617698
0.16487934 0.24022055 -0.07611932 -0.10529244 -0.048614938 0.19886853 0.14007448 0.06004846

conv2.weight_fake_quant.scale f4 [16]
00000000: 0ee0 0e3b d2ed 3e3b f8c8 343b 6be1 163b
00000010: 123c 133b 3e8a 2b3b 36ab 453b 97ba 353b
00000020: 972b 313b e086 1c3b b684 173b ae83 253b
00000030: 4345 323b 8e78 273b 7156 2a3b 5c47 1b3b
0.0021801027 0.0029133451 0.0027585607 0.0023022543 0.0022466225 0.0026174928 0.0030161864 0.0027729624
0.0027034038 0.0023884103 0.0023119873 0.002525549 0.0027201928 0.0025554034 0.0025991464 0.0023693657

conv2.weight_fake_quant.activation_post_process.min_val f4 [16]
00000000: fe9a 7dbe 92bf 90be 80f1 aabe 8cbe 8fbe
00000010: 703b 8fbe 3e8a abbe 1410 93be cacb 5fbe
00000020: 65f1 80be 4e68 6ebe b684 97be ae83 a5be
00000030: 40e4 9fbe 8e78 a7be f653 98be 5c47 9bbe
-0.24766156 -0.28271157 -0.33387375 -0.28075063 -0.27975035 -0.33503908 -0.28723204 -0.21855083
-0.2518417 -0.23281977 -0.29593438 -0.32327026 -0.31228828 -0.32709163 -0.29751557 -0.3032788

conv2.weight_fake_quant.activation_post_process.max_val f4 [16]
00000000: 4ec2 8d3e f66f bd3e 665f b33e a8b3 953e
00000010: 9a15 923e 9080 863e e01f c43e 224f b43e
00000020: 40c9 af3e d24d 9b3e 65b0 8c3e a2bf 873e
00000030: b8e0 b03e f320 5b3e c401 a93e be3a 963e
0.27687305 0.36999482 0.3503372 0.2923863 0.28532106 0.2626996 0.3830557 0.35216624
0.3433323 0.3033281 0.27478328 0.26513392 0.34546447 0.21399288 0.3300916 0.29341692

conv3.weight f4 [120, 16, 5, 5]
00000000: 4b7c 16bd b6e8 f43c dfce 85bb bd85 61bc
00000010: 19ce 39bd 7aa5 e83c aeb3 d93c 9e17 58bd
00000020: de8e aebc f434 b83b 80e0 ebbc 7664 90bb
00000030: 8520 0cbd 6441 58bd 5c55 a93c 8332 703c
00000040: 5732 35bd f54b 90bb 49e8 963b 607e d0bc
00000050: d3c8 74b9 8161 9d3b 6022 11bd 0ec4 09bc
00000060: 7e9d bebb 96db d2bb 12d3 cfbc 26cb aabc
00000070: 6a14 013d 0376 253c d9e4 a93c 1fbf 073d
00000080: 1b95 03bd df13 163d 3dcc 91bc 0cc3 283d
00000090: 344b 86ba df61 0cbd 00af 003d 7276 2e3d
000000a0: 488a dcbc 0747 43bc 8bf7 a4bc 6b07 49bd
000000b0: 75d3 2bbd 0fcb 173d b971 c23c 700e f5bc
000000c0: 26e3 283d 6182 52bc ea4e 18bd 0dc0 42bd
000000d0: 682d 20bd c88d 93bc c0b2 fd3c 31d7 64bd
000000e0: bfcb 303d 535b f73b 8633 64bd 7481 363c
000000f0: ff62 713c 60fb 993c fb85 793c 465a 83bc
00000100: 9a71 873c 4467 c7bc 9d03 fd3c 95a2 36bd
00000110: 0fce 24bd 3feb 49bd 33a9 82bc 4561 123d
00000120: 9e73 f0bc 4b43 e13c 8e87 bd3c 6cac 6b3c
00000130: ad71 2e3d 37ca 31bd b67f 25bd e971 c6bc
00000140: fa07 1b3d 0598 613c 390f 273d c53c bb3c
00000150: 20e6 23bd 0228 2dbd 9b99 193d 6fab 14bd
00000160: 3fb0 d6bc c205 db3c 4e37 26bd a24d 113d
00000170: 582e 5dbd 09b5 36bd a2e4 9c3b 4f5e 3fbc
00000180: 06b0 1b3d 67f4 63bd 683f 003d aea7 ff3c
00000190: 33fb 4f3b 9581 52bd 18e6 c4bc 2b99 ff3a
000001a0: 8ad7 b23c a864 a2bc 07b2 083d 40b8 6f3c
000001b0: 0a10 f53c df75 993c 2525 af3b 5881 363c
000001c0: d9c8 f23b 2f79 1c3d 3180 54bb 27f7 353c
000001d0: 1635 29bd 8949 d03c d67b f5bc 5dcf aabc
000001e0: 8519 893c 600b 93bc c6af 36bd 92bc 04bd
000001f0: b95b 3fbd 8431 4e3c 46c1 063d 7e36 51bd
00000200: 8861 493b b2f8 c83c b2eb 03bd a128 3d3b
00000210: c50b bbbb 637d 063d 250f 75bc aee5 743b
00000220: 941f f9bc 53fa 4ebd 8aaf c13c 2994 eabc
00000230: 8e2a fbbc a549 25bd 4533 45bd 010f dc3a
00000240: 7959 17bd ee6a 4cbd 89ed 34bd 179e 583c
00000250: 1486 52bd e329 133c b535 dc3a 5709 293d
00000260: 94a5 183d e536 63bd 7095 95ba f48a 873a
00000270: fe07 54bd 7a5e 133d 94bc 0bbd cf48 023d
00000280: 3db7 58bd 1b14 61bd 0e0d b5bc 7a67 26bc
00000290: cd39 50bd 24aa 71bc a8c9 2a3d 872e 8abc
000002a0: b3b6 f5bc 08c6 1abd 5a7e fc3c 03bc 353c
000002b0: 9e12 483c 25fa c8bc bf2b 663c 1abb 0fbc
000002c0: 5a65 da3c 477c 223c 29ab 93bc ce55 da3c
000002d0: ff2f 54bd 2e8b f03c 233e f9bc 0f8c 38bc
000002e0: 9d22 95bc 45f7 283d e4e2 59bc 9e64 13bd
000002f0: 9f04 8b3c d3b6 953b fc42 03bd 47d2 043d
00000300: 3a63 a5bc 6f73 c53c cbe6 58bd d034 f6bb
00000310: e3ed 4fbd d577 a33b 8319 453b 8470 21bc
00000320: 4591 eebc 9af0 eebc 2c42 333c 453f bdbc
00000330: b042 0cbd b00f 0a3d e003 1bbd 85a8 353c
00000340: 1eca 27bc ffa7 35bd b7e9 9c3c 83a2 a03c
00000350: 177b 92bb 2c92 e3bc b1b9 8c3c cdb8 d33b
00000360: 7f28 2a3c 69e8 0b3d 24a8 05bd 6660 803c
00000370: e4a6 58bc 3013 56bd 318b 783c 47e9 0dbd
00000380: 65c9 823c 9597 f83b aaf1 31bd 415e bc3c
00000390: e642 983c f4c2 7a3b 7dee 193d 88a1 083d
000003a0: b603 223d 4513 8c3c 73be 89bc 1a2b dd3b
000003b0: 0919 c0bc 19c9 5e3c 75ae 29bb 163b ddbc
000003c0: 045a 4dbd ab53 febc a785 2f3d d54c 893c
000003d0: 7ba3 debc 08dc 493c 2399 4b3c 31ff 103c
000003e0: 650d ea3c 6455 103c ee70 a2bc 7984 193c
000003f0: 0f62 273d 53cb 19bc e340 52bd a6b6 be3c
-0.03673963 0.029896121 -0.004083499 -0.013764796 -0.045362566 0.028399218 0.026574936 -0.052756898
-0.021308359 0.005621547 -0.028793573 -0.004406507 -0.0342107 -0.052796736 0.020670585 0.01466048
-0.04423746 -0.004403586 0.0046053273 -0.025450885 -0.00023344466 0.004802883 -0.035433173 -0.0084085595
-0.0058171144 -0.006434868 -0.0253692 -0.020848822 0.03151361 0.010098937 0.020739006 0.03314125
-0.03212462 0.036640044 -0.017797584 0.041201636 -0.0010245801 -0.034273025 0.031416893 0.042593427
-0.026921406 -0.01191879 -0.020137569 -0.04907934 -0.041949708 0.037058886 0.023735868 -0.02991411
0.04123225 -0.012848468 -0.037184633 -0.047546435 -0.039105803 -0.018011943 0.030969024 -0.055869285
0.043163057 0.0075487285 -0.0557132 0.0111392625 0.014733075 0.018796623 0.015229697 -0.016034257
0.016533662 -0.024341233 0.030885512 -0.044588644 -0.040235575 -0.049296614 -0.015949821 0.035737295
-0.029352006 0.027497908 0.023135927 0.01438437 0.04258888 -0.043405738 -0.040404998 -0.024224238
0.037849404 0.013769154 0.040786 0.022856126 -0.040014386 -0.042274483 0.037500005 -0.036296304
-0.026207088 0.026736144 -0.040580086 0.035474427 -0.053999275 -0.044606242 0.0047879973 -0.0116802
0.038009666 -0.055653002 0.03131047 0.031207886 0.003173542 -0.05139311 -0.024035498 0.0019500604
0.021831293 -0.019823387 0.033372905 0.014631331 0.029914875 0.018732963 0.005345004 0.011139236
0.007409197 0.038201507 -0.003242504 0.011106289 -0.041310392 0.02542569 -0.029966276 -0.020850832
0.016735801 -0.01794976 -0.044601224 -0.032406397 -0.046718333 0.012585048 0.032899164 -0.05107736
0.00307283 0.02453265 -0.0322072 0.0028863328 -0.00570819 0.03283442 -0.014957224 0.0037368345
-0.030410565 -0.050531697 0.023643274 -0.028635101 -0.03065994 -0.040353436 -0.048144598 0.001678914
-0.036950562 -0.049906664 -0.044171844 0.013221285 -0.051397398 0.008982155 0.0016800674 0.041268673
0.037267283 -0.055472273 -0.0011412334 0.0010341094 -0.051765434 0.03597877 -0.03411539 0.031807717
-0.052909125 -0.054950815 -0.022100952 -0.010156507 -0.050836373 -0.014750037 0.04169622 -0.01686789
-0.029994344 -0.037786514 0.030821968 0.011092189 0.01221147 -0.02453334 0.014048516 -0.008772636
0.026659656 0.009917325 -0.018025951 0.026652243 -0.051803585 0.029363241 -0.030425137 -0.011263861
-0.018204981 0.04125144 -0.013298724 -0.035984628 0.016969977 0.0045689135 -0.032046303 0.0324271
-0.020188916 0.024102895 -0.052954476 -0.00751362 -0.050763976 0.0049886503 0.003007502 -0.009853486
-0.029122004 -0.029167462 0.01094107 -0.023101458 -0.034243286 0.033706367 -0.037845492 0.0110875415
-0.01024106 -0.044349667 0.019154413 0.019608742 -0.00447024 -0.027779661 0.017178388 0.006461239
0.010385632 0.03415719 -0.032631055 0.015670966 -0.013223384 -0.052264392 0.015169905 -0.0346463
0.015965173 0.0075864294 -0.04344336 0.022994163 0.018586587 0.0038263174 0.037580956 0.033357173
0.03955432 0.017099032 -0.016814446 0.006749523 -0.023449438 0.01359775 -0.0025891338 -0.027005713
-0.050134674 -0.031045755 0.04285207 0.01676027 -0.027177563 0.012320526 0.012426647 0.008849905
0.02857084 0.008809421 -0.01982924 0.009369963 0.040865 -0.009386855 -0.051331412 0.023280453

conv3.weight_fake_quant.scale f4 [120]
00000000: 00d7 e439 0c4c 263b 97e4 033b b105 e13a
00000010: 3ed5 273b cd54 313b 3b2e 0b3b 3b34 fa3a
00000020: 2246 223a 454d 223b 327a 213b 822c 243a
00000030: 81c3 483b 494b 1c3a fe5c 443b fa68 273b
00000040: 7aba ff3a fcac 0a3b 0673 1a3b 55c1 213a
00000050: b605 203b 9e9d 1f3b 5a11 113b c8c3 f53a
00000060: a1ad 463b 96c3 473b 9c2b 133a 5cf7 fa39
00000070: d8f5 f13a a76c 323b 31c2 233b 7031 e439
00000080: 2439 063b 8d95 3e3b 3d17 4a3b d370 163b
00000090: 1cc7 183a c234 0f3a 5b9d 2d3b 04fc ed39
000000a0: 9a15 403b 976c 3d3b 3c5a 0a3a 6446 fd39
000000b0: b2a4 0b3b 84ab 133a dffa 123b be82 143b
000000c0: c479 523b ccab 113b a6d7 243a 7be5 433b
000000d0: 9a80 3c3b 0844 e539 6866 273a ea65 303b
000000e0: 89a9 293b 2e2b 143b 6099 1b3b fe69 6d3b
000000f0: d292 0e3b 928f 0b3a 1e2b 083a 7fd7 1d3b
00000100: c097 153b 83bf 1a3b c438 083b a481 1c3b
00000110: dcf3 0c3a d86d 1a3b 7c7a 133a 2879 0f3b
00000120: 56ee 393a 08a6 2f3b 7aef 523a 8080 0c3b
00000130: 6584 583b 56f5 173a fea1 063a 4c97 183b
00000140: fa5a 413b bd99 043b 8b3e 243b f20e 1f3b
00000150: 9759 203b 728a a93a 169f 1c3a c6f8 223b
00000160: 5054 1a3b ccbe 153b 86fb 1f3a 4b18 1a3b
00000170: 1aaa 193b 1c07 113b 5891 5c3b a267 183b
00000180: a95d 283b 55d8 4e3b e391 003b 2a49 b53a
00000190: e4d2 173b 5741 1e3b 086f 2b3b c6fe 063a
000001a0: ca24 0b3b 0c35 4a3b dfaf 123b 3216 fd3a
000001b0: b6a3 4e3b 956d 393b fedc 233b 7ce6 fb3a
000001c0: 7a21 2b3b b5a7 403b 546c 0b3b ea38 1d3a
000001d0: dee5 483b d26b 2f3b 1485 123a cae9 303b
0.00043647736 0.0025374917 0.0020125264 0.0017167834 0.002560928 0.0027058602 0.0021237272 0.0019089052
0.000619026 0.0024765295 0.0024639484 0.00062627357 0.0030634108 0.0005962146 0.0029962654 0.0025544749
0.001951053 0.0021160236 0.0023567094 0.00061704713 0.0024417466 0.0024355422 0.0022135586 0.0018750364
0.0030315893 0.0030481569 0.0005614103 0.00047868013 0.0018460108 0.0027225406 0.0024987573 0.00043524383
0.0020480836 0.0029080838 0.0030836605 0.0022955432 0.00058280095 0.00054628786 0.0026491496 0.0004539193
0.002930975 0.0028903836 0.0005277728 0.00048308366 0.0021307883 0.0005633163 0.0022427363 0.0022660936
0.0032116035 0.0022227643 0.00062882376 0.002989142 0.0028763176 0.0004372897 0.0006385804 0.0026916214
0.0025888404 0.0022608745 0.0023742542 0.0036226506 0.0021754992 0.0005323823 0.0005194413 0.0024084745
0.0022826046 0.0023612685 0.0020785788 0.0023880983 0.0005376914 0.0023564007 0.00056258566 0.0021892283
0.0007092705 0.0026801843 0.0008046549 0.0021438897 0.0033037898 0.0005796751 0.0005135833 0.002328354
0.002950369 0.0020233237 0.0025061693 0.0024270383 0.0024467462 0.0012934937 0.00059746334 0.0024867519
0.002354879 0.002284932 0.00061028486 0.0023513015 0.0023447336 0.0022129482 0.0033655968 0.002325513
0.0025690591 0.003156205 0.0019618205 0.0013831009 0.0023166472 0.0024147832 0.002615871 0.00051496585
0.0021231645 0.0030854372 0.002238266 0.0019308983 0.0031530685 0.0028294076 0.0025003548 0.001921847
0.0026112483 0.0029396836 0.0021274285 0.00059975556 0.003065459 0.0026767147 0.0005589288 0.0026994818

conv3.weight_fake_quant.activation_post_process.min_val f4 [120]
00000000: 00d7 64bd 66cd 95be 9a7b 70be c214 53be
00000010: 40c9 96be cd54 b1be 2e66 6fbe 3b34 7abe
00000020: 2246 a2bd e6d0 9dbe 7821 89be 822c a4bd
00000030: de5a 77be 1647 9cbd 7ee5 33be 6f11 39be
00000040: 7aba 7fbe de0f 38be 2e2b 83be d2d6 9abd
00000050: 952d 9abe 9e9d 9fbe 5a11 91be fb8a 56be
00000060: a07c a2be 96c3 c7be 9c2b 93bd 5cf7 7abd
00000070: ee2e 65be 6a14 3ebe 6099 8ebe 7031 64bd
00000080: c80d 84be 2aad 87be 3d17 cabe d370 96be
00000090: 1cc7 98bd c234 8fbd 7057 8bbe 04fc 6dbd
000000a0: 9a15 c0be aef5 bbbe 3c5a 8abd 6446 7dbd
000000b0: dd15 5bbe 84ab 93bd dffa 92be daff 62be
000000c0: b7d2 88be b816 7ebe a6d7 a4bd 1222 8abe
000000d0: 9a80 bcbe 0844 65bd 6866 a7bd ea65 b0be
000000e0: 5a4d 93be 2e2b 94be 22cf 98be 9e8d 9fbe
000000f0: 4213 71be 928f 8bbd 1e2b 88bd 5010 8bbe
00000100: c097 95be 1499 35be c438 88be a481 9cbe
00000110: dcf3 8cbd da50 4fbe 7c7a 93bd 2879 8fbe
00000120: 56ee b9bd 3270 90be 7aef d2bd 8080 8cbe
00000130: ced8 c7be 56f5 97bd fea1 86bd 4c97 98be
00000140: 4af1 bcbe e4f1 25be b4b7 92be 5e43 51be
00000150: 1cb7 9bbe 7b66 0fbe 169f 9cbd c6f8 a2be
00000160: 5054 9abe 2e56 4fbe 86fb 9fbd 9026 8dbe
00000170: 1aaa 99be 2427 80be 5891 dcbe a267 98be
00000180: 38e5 80be 46eb 9abe e391 80be ca4c f7bd
00000190: e4d2 97be 74ba 90be e8f1 67be c6fe 86bd
000001a0: ca24 8bbe cabf 81be dfaf 92be 26ff 46be
000001b0: b6a3 cebe f253 aabe fedc a3be 7ce6 7bbe
000001c0: 7a21 abbe 855d 55be 546c 8bbe ea38 9dbd
000001d0: 3a38 95be 32e1 9dbe 009c 8fbd 4648 85be
-0.055869102 -0.2925827 -0.2348465 -0.20613387 -0.29450417 -0.3463501 -0.23378822 -0.24433987
-0.07923533 -0.3082344 -0.26783347 -0.08016302 -0.24155757 -0.07630746 -0.17568013 -0.18073057
-0.24973479 -0.17974803 -0.2561888 -0.07560505 -0.301129 -0.3117494 -0.2833355 -0.20951454
-0.31735706 -0.39016408 -0.07186052 -0.061271057 -0.22381184 -0.18562475 -0.2785139 -0.05571121
-0.25791764 -0.264993 -0.39470854 -0.29382953 -0.07459852 -0.06992485 -0.27215147 -0.05810167
-0.3751648 -0.36710876 -0.06755492 -0.061834708 -0.21395059 -0.072104484 -0.28707024 -0.22167912
-0.26723263 -0.24813354 -0.08048944 -0.2697912 -0.36816865 -0.055973083 -0.08173829 -0.34452754
-0.28769952 -0.28939193 -0.2984553 -0.31162733 -0.23542503 -0.06814493 -0.06648849 -0.27160883
-0.2921734 -0.17734176 -0.2660581 -0.30567658 -0.0688245 -0.20245686 -0.072010964 -0.28022122
-0.09078662 -0.28210598 -0.10299583 -0.27441788 -0.39032596 -0.07419841 -0.06573866 -0.2980293
-0.3690284 -0.16205555 -0.2865578 -0.20435855 -0.3041314 -0.14003937 -0.07647531 -0.31830424
-0.3014245 -0.20247719 -0.07811646 -0.27568483 -0.3001259 -0.25029862 -0.43079638 -0.29766566
-0.2517488 -0.30257624 -0.25111303 -0.12075193 -0.29653084 -0.28267252 -0.22650874 -0.06591563
-0.27176505 -0.25341636 -0.28649804 -0.19433269 -0.40359277 -0.3326717 -0.3200454 -0.24599642
-0.33423978 -0.20836456 -0.27231085 -0.07676871 -0.2914446 -0.30835873 -0.070121765 -0.26031703

conv3.weight_fake_quant.activation_post_process.max_val f4 [120]
00000000: 82dc 493d 74ff a43e cedc 823e a643 5f3e
00000010: 9485 a63e da6d a83e df17 8a3e 7490 643e
00000020: 767b 2c3d aa08 a13e 3e37 a03e 706f 613d
00000030: fa31 c73e b212 9b3d 44d4 c23e 281a a63e
00000040: b8f8 573e a297 893e 203e 993e d27d a03d
00000050: abc5 9e3e dd24 833e 5248 713e 40d8 733e
00000060: 4620 c53e 12ea 983e 1083 643d 564d 613d
00000070: ec11 703e ce07 b13e ad7a a23e 7e6f 393d
00000080: b22c 853e 6218 bd3e 7a09 a13e eac9 8d3e
00000090: 3e1b 883d c00c 8d3d 2042 ac3e 141f 653d
000000a0: 6e3f a73e bef1 bb3e 0899 4b3d 5c48 673d
000000b0: 698d 8a3e f018 543d 9a76 883e b959 933e
000000c0: d0d4 d03e 7488 903e 547f 423d b05d c23e
000000d0: ee60 943e 085b 503d 5a0a 753d d48c a93e
000000e0: 3656 a83e 6aca 913e 2d62 9a3e 2a8f eb3e
000000f0: ac75 8d3e 800d 5c3d 3051 583d d09b 9c3e
00000100: 34dc 8b3e 048a 993e 6232 693e 346d 893e
00000110: 2cbb 633d fc38 993e 0c85 643d e648 823e
00000120: 3a48 8e3d bc46 ae3e bac0 cc3d f86d 8a3e
00000130: 5cd3 d63e 2cf6 8a3d eae7 493d 7fc3 493e
00000140: 44d8 bf3e 8a90 833e 0ef6 a23e d4d0 9d3e
00000150: e418 9f3e 5d37 283e 6e08 833d 02f5 9f3e
00000160: f635 933e 4e93 943e 1ca9 973d 1ae4 983e
00000170: 36a1 8e3e 0ee5 8f3e 46b4 af3e 393d 673e
00000180: ee0c a73e a43a cd3e b4a8 743e 98de 333e
00000190: da3f 713e d404 9d3e 2a18 aa3e dac6 443d
000001a0: 25e3 6e3e a2a0 c83e cea6 643e 061c 7b3e
000001b0: 4e83 c63e bafa b73e a4b4 7d3e e581 473e
000001c0: 44a9 993e 6626 bf3e 5c16 853e 6434 343d
000001d0: 1254 c73e fa0c ae3e 0a60 913d f687 af3e
0.04928256 0.32226145 0.25559086 0.2180315 0.32523787 0.3289631 0.26971337 0.2232073
0.04210993 0.31451923 0.31292146 0.055037916 0.38905317 0.07571925 0.3805257 0.3244183
0.21090972 0.268735 0.2993021 0.07836498 0.31010184 0.25614062 0.23562744 0.23812962
0.38501185 0.2986608 0.055789053 0.055005394 0.23444337 0.34576267 0.3173422 0.045272343
0.26010662 0.36932665 0.31452543 0.2769311 0.06645821 0.068871975 0.336442 0.05593784
0.3266558 0.36707872 0.04970649 0.05646549 0.27061012 0.051781595 0.26652986 0.2877939
0.40787363 0.28229105 0.04748471 0.37962103 0.289802 0.050868064 0.059824325 0.33115256
0.32878274 0.28474742 0.30153027 0.46007663 0.2762884 0.053723812 0.0528118 0.30587626
0.2731644 0.2998811 0.22773126 0.26841128 0.055598423 0.29926288 0.055790946 0.25446242
0.0694737 0.3403834 0.09997697 0.27037024 0.4195813 0.06785235 0.049293436 0.19703482
0.37469685 0.25696212 0.3182835 0.30823386 0.31073678 0.1642737 0.06398092 0.31241614
0.28752106 0.29018635 0.07405302 0.29861528 0.2785737 0.28104442 0.34317225 0.22581948
0.32627052 0.40083802 0.2389248 0.17565382 0.23559514 0.30667746 0.3322156 0.048041202
0.23328836 0.39185053 0.22329256 0.24522409 0.38772053 0.35933477 0.2477594 0.19483145
0.30011952 0.37333983 0.2599362 0.043995276 0.38931328 0.33994275 0.07098396 0.34283417

fc1.weight f4 [84, 120]
00000000: 27fc 6bbd 08e6 c63d 5fd1 263e b3a5 15be
00000010: 4999 3f3e bcbf 443e 350d 60bd f8e7 c63c
00000020: ef2f d63c 8784 9bbd c9a7 a33c f741 8a3b
00000030: 8fea 173e d3cd 41bd 7830 143e c6a1 df3d
00000040: 6bc3 9cbd 13d9 98bc 13a4 063e 9403 a03d
00000050: 579b 943e 8f9c 0a3d 3845 0abe dc09 b63d
00000060: 4b52 323e 8427 13be 3224 a43d 7178 9b3d
00000070: f92d 143e a40b 343e 7f55 e4bd 01c1 76bb
00000080: 2610 debd cca5 37be 14ba 783e 158e 743d
00000090: eeea d3bb 3b92 81bd 5cd0 8b3d e657 143d
000000a0: 0366 f9bd ec48 973e 0788 b1bd 3484 953d
000000b0: 6848 61bc e778 f3bc 3de8 013e f85e 74bc
000000c0: ef69 8c3d e510 eebb 8c8c 2a3d 98c6 4f3e
000000d0: 724f 88be 2670 a7bd f8d1 8f3d aa9d b2bd
000000e0: 553b 5a3e 0388 9cbd 7372 163e 4ff3 273e
000000f0: 2073 a9bd a818 1c3d c561 0f3c df4a 763d
00000100: c1d2 15be 8d72 e0bc dbfe 2b3d 4983 9c3e
00000110: 46a0 2e3c 40b7 3d3e 2aaa 8ebd 5492 0ebe
00000120: 24de 163d c95e 49bd c872 93bd 15b4 213e
00000130: 8b86 e8bd 88e2 4c3d 6ec5 57bd eb4d 7d3d
00000140: 2089 6cbe 76ca 27bd b77b d33d 7057 803d
00000150: 32f3 66bd be07 b6bd 7445 0dbd b345 9a3d
00000160: 8749 91bd 3a53 b8bc b615 93bc 51af a93c
00000170: b6e9 80bc df3e c43d 0bc0 083d 8b33 80bd
00000180: f2e5 25bd 980c 32be e360 debd a967 8a3d
00000190: 8a64 053e 921b d93d d941 423e ba8e 5ebd
000001a0: 23d3 c33d 0868 593e df12 81bc 5af4 83bd
000001b0: edb8 c3bd a446 a13e bc40 e6bd 717e bcbd
000001c0: bb2f fbbd ab43 8a3d 388a 84bc d645 a23c
000001d0: ca3b ac3e 0280 cebd 1688 a9bd 71e6 463d
000001e0: 419b 813d 3b4d f53d 572e 3e3e ef28 713d
000001f0: 2278 2e3e 4dae 043e cfde 11bd 1ca3 a53c
00000200: 9481 c93c b60e 93be 3c93 7a3d 271d b9bc
00000210: 95fb d03d 0ca1 63bd ea62 ce3d 08ca 3c3c
00000220: b3f8 f93c c190 0f3d a93f 373e 8a59 3abd
00000230: b91f 963d 8b5a c13d a71d da3d c281 653d
00000240: 0b59 223e 7c40 25be 7271 8ebd 0638 a83d
00000250: 45be 123d 3732 053e 9988 f93c 98ec 843d
00000260: cfb5 cabd 4868 76be 549c 4b3e 3921 cf3d
00000270: 68c5 b2bc ef26 d63c 64ed 513e d0d1 84bd
00000280: 6fa0 aebd e241 3c3e e7f1 b33c d26a af3d
00000290: 3028 053d 9e8b aebd 4c96 443e c154 703d
000002a0: 5890 c93d 5993 923d 4873 14bc 77a9 2e3e
000002b0: 4ba6 a0bd 1e89 703d 480c 17bb 5075 5f3d
000002c0: 8cbe 403d a1c6 c4bb 173a 4b3e 4e7a 9b3c
000002d0: 0864 453d 1997 863d d46f cc3d ddd0 103e
000002e0: 0a13 3cbe 551a 283d fd67 193e eaa1 b63d
000002f0: 98e0 323b 6354 8b3e 2fb9 a2bc 366c 2bbe
00000300: 79e7 38bd a1f7 81bd 5719 02bd 5b62 edba
00000310: 52ce ecbd 125e 46bd eb33 10bd 4c4d 443e
00000320: 57fd 31be 3d88 5b3c 2b21 313e acc4 26ba
00000330: ad02 703d 1558 4a3d 5da9 dcbc 3ddf 603e
00000340: e2ff 01be 2a73 003e 9744 a2bd 838d 403e
00000350: 7fc0 aa3d 3ae3 413e d364 3fbd 8113 68bd
00000360: bf22 71bc c6d9 8bbe 7720 363c 3706 053b
00000370: c49f 073d cae3 2b3e a294 443e 88fc 443d
00000380: 78aa 133d c5ae 2d3d 8544 213e a5d1 fc3c
00000390: c68a d3bd ba49 113e daa9 d33d c532 023e
000003a0: 849b 2cbe 2bbf c83b e2ef 8ebc ce62 eb3c
000003b0: fa7c 193d 7456 b9bd 8cb2 1fbd 7556 cf3d
000003c0: 3493 8bbd 391d 9e3d ec9b 123e ff37 c3bb
000003d0: abbb 853d 1a41 463c 2427 5a3d 8af0 1a3d
000003e0: af4d a33d c73d 2fbe 6acf 213d 7169 ea3b
000003f0: c1d8 1fbd 0c79 c9bc a485 d93d 5264 a03d
-0.057613518 0.09711844 0.16290806 -0.1461399 0.18710817 0.19213766 -0.054700095 0.024280533
0.026145903 -0.07593637 0.019977467 0.0042192894 0.14835571 -0.04731543 0.14471614 0.10919528
-0.076544605 -0.018658197 0.13148527 0.078131825 0.29024765 0.033840712 -0.13502967 0.08888599
0.17414205 -0.14370543 0.08014716 0.07591332 0.14470662 0.17582566 -0.111491196 -0.003765166
-0.10842924 -0.1793434 0.24289733 0.059705812 -0.006467215 -0.063267194 0.06826851 0.03621664
-0.1217766 0.29547822 -0.08668523 0.07300606 -0.013750173 -0.029720737 0.12686248 -0.01491522
0.06856143 -0.0072651976 0.041637942 0.20290601 -0.26623112 -0.081756875 0.0702247 -0.08721478
0.21311696 -0.0764313 0.14692096 0.16401409 -0.082739115 0.03810945 0.008751337 0.060129996
-0.14631177 -0.027398372 0.041991096 0.30568913 0.010658329 0.18526936 -0.0696605 -0.13923007
0.036832944 -0.04916266 -0.07199627 0.15791352 -0.11353787 0.050020725 -0.052678518 0.061841886
-0.23099184 -0.040964566 0.10326331 0.062666774 -0.056384273 -0.088881955 -0.034490064 0.07532825
-0.07094102 -0.022500623 -0.017954689 0.02071348 -0.015736442 0.09582304 0.03338627 -0.06259831
-0.040502496 -0.17387617 -0.108583234 0.06758053 0.13026634 0.10600962 0.18970431 -0.054335333
0.095617555 0.21231091 -0.015756069 -0.06443091 -0.09556756 0.31499207 -0.11242816 -0.09203804
-0.12264963 0.06751188 -0.01617919 0.019808691 0.33639365 -0.10083009 -0.082779095 0.04855961
0.063284405 0.11977621 0.18572365 0.058876928 0.17038015 0.12957115 -0.035612877 0.020219378
0.02459792 -0.2872216 0.06117557 -0.022596909 0.102042355 -0.05557351 0.1007746 0.011522777
0.030514097 0.035050157 0.17895378 -0.045495547 0.07330269 0.09441098 0.10650187 0.05603195
0.1585428 -0.1613788 -0.06955232 0.082138106 0.035825986 0.13007437 0.030460643 0.06490439
-0.098979585 -0.24063218 0.19883853 0.101137586 -0.021822646 0.026141612 0.20500714 -0.06485331
-0.08526694 0.18384507 0.021965934 0.08565296 0.03250903 -0.085227236 0.19197959 0.058674578
0.098419845 0.071570106 -0.009060688 0.17056833 -0.07844218 0.058724515 -0.0023048092 0.054555237
0.04705672 -0.0060051237 0.19846378 0.018979218 0.0481911 0.06571788 0.09982267 0.14142175
-0.18366638 0.041040737 0.14981075 0.089176014 0.0027294513 0.2721282 -0.019863693 -0.16740498
-0.045142625 -0.063460596 -0.031762447 -0.0018110977 -0.1156279 -0.048429556 -0.035205763 0.19170111
-0.17381798 0.013399181 0.17297809 -0.0006361704 0.0585963 0.049400408 -0.026936227 0.21960159
-0.12695268 0.12543932 -0.07923239 0.18803982 0.08337497 0.18934336 -0.046727013 -0.056659225
-0.014717757 -0.27314585 0.011116139 0.0020297894 0.03311135 0.16786113 0.19197324 0.048092395
0.036051244 0.042403 0.15748794 0.030861685 -0.10329203 0.1418828 0.10335131 0.1271468
-0.168562 0.0061263046 -0.01744837 0.028733637 0.037472703 -0.09049693 -0.038988635 0.10123912
-0.06815186 0.077204175 0.14317292 -0.005957603 0.065299354 0.012100482 0.053259984 0.037827052
0.07973801 -0.1711341 0.039504446 0.007153683 -0.039025072 -0.024593852 0.10621193 0.078316346

fc1.weight_fake_quant.scale f4 [84]
00000000: a196 2d3b 840e 133b 2a8f fe3a 5060 4e3a
00000010: 831c 803a 4f36 213b fc9e 083b 4a83 d33a
00000020: 4145 3b3b dede 303b 47f7 2c3b 2897 0a3b
00000030: 2c6f 233b 06d1 5d3a 7f0d 3b3b 631d 223b
00000040: 1808 1f3b 8781 043b f9f4 fc3a a183 353b
00000050: 1a2c 553a 8bb6 363b 22ed 443b 5788 293b
00000060: 552b 133b 2413 063b af9e 283b 8070 143b
00000070: 89d1 393b 04ea 113b bc0e 503a 8630 673a
00000080: f28b 883a 7196 153b deef 183b 30dd 113b
00000090: 14a2 673a 6568 283b d87c 293b 19b9 0b3b
000000a0: 1cbf 3d3b 1a9f 5b3b 84a4 3b3b 000c 853a
000000b0: 852a 193b 1636 043b 2644 3c3b 7961 543b
000000c0: 7954 3e3b da2f 373b 2213 183b ea37 2a3b
000000d0: c291 293b bd44 a73a 7bf9 403b 08a3 313b
000000e0: 1455 173b 26d3 263b fca6 1e3b 574b 403b
000000f0: 8517 403b 499f 303b fa4e 573b 5d3b 293b
00000100: 516a 243b b599 233b e613 423b b210 053b
00000110: 67c2 123b 2273 1b3b 74b0 213b b678 133b
00000120: e4c7 283b 5298 623a 9322 483b 281b 343b
00000130: 0c43 213b 887d ec3a c685 153b 49d1 393b
00000140: 1005 633a 4ae8 0e3b f379 1c3b c2d5 1f3b
0.0026487487 0.0022439072 0.0019421328 0.0007872628 0.0009774122 0.002459902 0.0020846715 0.001613715
0.0028575214 0.0026988308 0.0026392506 0.0021147225 0.002493809 0.0008461628 0.002854198 0.0024736754
0.00242663 0.0020218806 0.0019299082 0.0027696865 0.0008131877 0.00278798 0.0030048569 0.0025868618
0.0022456248 0.0020458186 0.0025729348 0.0022650063 0.0028353652 0.0022264728 0.0007936766 0.0008819181
0.0010417684 0.0022825266 0.0023336331 0.0022257082 0.0008836102 0.002569699 0.0025861766 0.0021320044
0.0028953021 0.003351158 0.0028631995 0.0010150671 0.002337129 0.002017384 0.0028727143 0.003240673
0.002904205 0.0027952106 0.0023204763 0.0025973269 0.0025874232 0.0012761574 0.0029445577 0.002710523
0.0023091482 0.0025455444 0.0024208417 0.002934178 0.0029310894 0.002695041 0.003285347 0.0025822737
0.0025087784 0.0024963443 0.0029613911 0.002030414 0.0022393705 0.0023719748 0.0024671825 0.002250237
0.002575391 0.00086439133 0.0030538186 0.0027482007 0.0024606613 0.0018042782 0.002281533 0.0028353503
0.0008660117 0.0021805936 0.0023876398 0.0024388884

fc1.weight_fake_quant.activation_post_process.min_val f4 [84]
00000000: 404f 88be 840e 93be 2a8f 7ebe 5060 cebd
00000010: 7036 ffbd c07a 92be 4e38 65be 7a24 4cbe
00000020: 324f 92be 1858 93be 2c09 55be 2897 8abe
00000030: 2c6f a3be 06d1 ddbd ece2 83be 222d 89be
00000040: 1d27 75be 0494 80be f9f4 7cbe 84cc 8fbe
00000050: 1a2c d5bd 74c7 b2be 6ed0 b7be 47f6 72be
00000060: 8ce4 8dbe 2413 86be 7283 7cbe 8070 94be
00000070: 4c69 75be 8680 8bbe bc0e d0bd 8630 e7bd
00000080: ec17 fdbd 5469 82be 749b 7bbe 40ee 83be
00000090: 14a2 e7bd 5841 84be c632 83be 8ae4 80be
000000a0: ec34 acbe 7046 a4be 84a4 bbbe 000c 05be
000000b0: 7c1a 84be 86e4 81be 47d3 72be 1aae 9abe
000000c0: 6a1f 69be e89a b5be 2213 98be d88a 9bbe
000000d0: 52fb 86be dae7 09be 52f6 91be d69e a0be
000000e0: 34f9 95be 26d3 a6be fca6 9ebe acbf 84be
000000f0: f811 a0be 7afb 6cbe 7947 89be 5e1c 7cbe
00000100: b6f6 88be 44f2 95be c43f 8ebe b210 85be
00000110: 783d 7ebe 5ed4 87be 9bcb 3ebe b678 93be
00000120: e4c7 a8be 5298 e2bd 9d7d 73be ec36 86be
00000130: 92c7 9cbe 72e2 34be c685 95be 4ac5 9abe
00000140: 1005 e3bd 4ae8 8ebe 9e87 83be ca2e 91be
-0.26622963 -0.28722012 -0.248593 -0.10076964 -0.12461555 -0.28609276 -0.2238476 -0.1993579
-0.28576046 -0.28778148 -0.2080428 -0.27068448 -0.31920755 -0.10830884 -0.25759065 -0.26792246
-0.23940702 -0.25112927 -0.24702825 -0.2808572 -0.10408802 -0.34917796 -0.35901207 -0.2372676
-0.2771343 -0.26186478 -0.24659517 -0.2899208 -0.23965949 -0.27246493 -0.1015906 -0.11288552
-0.12358078 -0.25470984 -0.2457102 -0.25767708 -0.11310211 -0.25831103 -0.25624675 -0.2517436
-0.33634126 -0.3208499 -0.36648953 -0.12992859 -0.25801456 -0.25369662 -0.23713408 -0.30210954
-0.2276589 -0.35469747 -0.29702097 -0.30379367 -0.26363617 -0.1346735 -0.2850824 -0.31371182
-0.2929169 -0.32582968 -0.30986774 -0.25927484 -0.3126371 -0.23142806 -0.26812342 -0.24620196
-0.26750726 -0.29286397 -0.27783024 -0.259893 -0.24828136 -0.2652921 -0.18632357 -0.28803033
-0.32965004 -0.11064209 -0.23778386 -0.26213777 -0.3062101 -0.17664507 -0.29203624 -0.30228645
-0.1108495 -0.27911597 -0.25689405 -0.2835601

fc1.weight_fake_quant.activation_post_process.max_val f4 [84]
00000000: 743b ac3e 3254 8b3e ed77 613e 6c3e b23d
00000010: 9438 fe3d e2f3 9f3e be8d 873e 43dc 513e
00000020: b6ce b93e 207d af3e 589d ab3e dad1 6d3e
00000030: a868 693e 90c4 b03d 6497 b93e 28d9 a03e
00000040: 08ca 9d3e 8478 833e 2dd3 623e 9a18 b43e
00000050: f0a2 b43d 1e49 b53e 4863 c33e 4635 a83e
00000060: fe04 923e c8b1 783e 724d a73e cae4 903e
00000070: e65d b83e 30c6 903e e225 ae3d d28c ba3d
00000080: da7a 073e 446b 943e febd 973e 76b9 903e
00000090: b061 ab3d 9417 a73e de29 a83e a7a1 8a3e
000000a0: 9e43 bc3e dce7 d93e 7a41 af3e 2222 af3d
000000b0: 30f8 973e aa2d 833e 9ecb ba3e b6b8 d23e
000000c0: d0d7 bc3e 7ac1 b53e 50de 943e 7ae3 a83e
000000d0: 9e3e a83e 34f6 253e 8877 bf3e c23f b03e
000000e0: 6a26 963e 6a3a a43e d0f5 973e c0ca be3e
000000f0: 5697 be3e 0a3e af3e 5ca0 d53e e6e8 a73e
00000100: 7c21 a33e 8252 a23e be8f c03e f679 813e
00000110: e29c 913e 3c3c 9a3e 136d a03e 4e69 8a3e
00000120: 0ee4 9a3e c206 ae3d 4e92 c63e f2b2 b23e
00000130: 8600 a03e 8da4 6a3e cbe4 873e a65d b83e
00000140: d056 b93d d24d 883e ff40 9b3e 1696 9e3e
0.3363911 0.27212673 0.22018404 0.08703312 0.12413135 0.31240755 0.26475328 0.2049418
0.3629052 0.3427515 0.3351848 0.23224583 0.2279383 0.08631241 0.36248314 0.31415677
0.308182 0.25677884 0.2215087 0.3517502 0.0882014 0.35407346 0.38161683 0.32853144
0.28519434 0.24286568 0.32676274 0.28299552 0.3600914 0.28276205 0.08503319 0.091088906
0.13230458 0.28988087 0.2963714 0.28266495 0.08368242 0.32635176 0.32844442 0.27076456
0.36770338 0.42559707 0.34229642 0.08551432 0.2968154 0.25620776 0.36483473 0.41156548
0.36883402 0.35499173 0.2907586 0.3298605 0.32860273 0.162072 0.37395883 0.34423643
0.29326183 0.32075816 0.29679728 0.3726406 0.37224835 0.3422702 0.41723907 0.32794875
0.31861484 0.31703573 0.37609667 0.2528836 0.28440005 0.3012408 0.31333217 0.27033466
0.30252117 0.08497383 0.38783497 0.3490215 0.312504 0.22914334 0.26541743 0.36008948
0.09049761 0.26621872 0.30323026 0.3097388

fc2.weight f4 [1, 84]
00000000: 0a1e 33be 6927 7bbe ba54 27be 0950 7fbd
00000010: de29 8c3d 3ff9 12be a8cd 71be b86c 92bd
00000020: 1036 613e 731d 453e 9db6 703e 8e09 17be
00000030: 970d 2fbe c327 333c 1247 283e 860c 6b3e
00000040: 18b8 723e 577c 4cbe 1b58 fcbd d7c6 9a3e
00000050: 6cc4 ea3c 710f 673e 149f 993e 0dc6 733e
00000060: f32e 8cbe 58f2 80be 9cab 703e c262 4bbe
00000070: 22b8 803e b4ef a8bd 9cc6 bdbc 9997 f93b
00000080: e753 1c3c 3499 d2bd 8e3d 3cbe 5f8a d2bd
00000090: e6c8 7c3d 73a2 34be 427f 463e 2844 64be
000000a0: fc9f a73e fc5d 57be 514b f2bd cf09 e23b
000000b0: 28f8 61be 2623 04be 4548 873e 3d5f 353e
000000c0: 04e5 473e 5507 833e c44b 88be b679 413e
000000d0: 5eec e4bd c7e6 e7bc fd7e 603e 72ce 9d3e
000000e0: 468c 18be 47f3 363e 90ec 67be 7174 37be
000000f0: abb1 a73e cad3 35be 6910 403e 4333 82be
00000100: e07c f1bd 05e8 55be 06ef 353e 1c8f 8fbe
00000110: 66d1 22be 4672 6abe ea6b edbd 9eaf 40be
00000120: 1fa1 5fbe bc60 2b3d 848c 9a3e ff6a 8b3e
00000130: 3428 7ebe 4f34 11be bc13 0bbe f90c 833e
00000140: 796c 853c f539 69be 4c50 9bbe 4a59 44be
-0.17491928 -0.24526753 -0.16340914 -0.062332187 0.06843923 -0.14352892 -0.23613608 -0.07149643
0.2199328 0.19249515 0.23507161 -0.14749739 -0.17095028 0.010934773 0.16433361 0.22953996
0.23703039 -0.19969307 -0.12321492 0.30229828 0.028658114 0.22564484 0.3000418 0.23806019
-0.2737957 -0.25184894 0.23502964 -0.19861892 0.25140482 -0.08248845 -0.023165993 0.007616949
0.009541488 -0.102831274 -0.18382856 -0.102802984 0.06171503 -0.17640094 0.19384483 -0.22291625
0.32739246 -0.21031946 -0.11830772 0.006898142 -0.2206732 -0.12904033 0.26422325 0.17712112
0.19520956 0.2559153 -0.26620305 0.18894085 -0.11177896 -0.028308285 0.21923442 0.30821568
-0.1489726 0.1786624 -0.22648835 -0.17915513 0.32752737 -0.17756572 0.1875626 -0.25429735
-0.11791396 -0.2088929 0.17766961 -0.2803887 -0.15900192 -0.22895154 -0.115928486 -0.18816993
-0.21838807 0.0418403 0.3018533 0.2723007 -0.24820024 -0.1418011 -0.13581747 0.25595835
0.016287075 -0.22776015 -0.303347 -0.19174686
