experiments/exp017/checkpoint.pth (torch, 802978 bytes, 21 tensors)

quant.activation_post_process.histogram f4 [2048]
68835.0 0.0 0.0 0.0 0.0 0.0 0.0 0.0
0.0 0.0 0.0 0.0 0.0 0.0 0.0 0.0
0.0 0.0 0.0 0.0 0.0 0.0 0.0 0.0
0.0 0.0 0.0 0.0 0.0 0.0 0.0 0.0
0.0 0.0 0.0 0.0 0.0 0.0 0.0 0.0
0.0 0.0 0.0 0.0 0.0 0.0 0.0 0.0
0.0 0.0 0.0 0.0 0.0 0.0 0.0 0.0
0.0 0.0 0.0 0.0 0.0 0.0 0.0 0.0
0.0 0.0 0.0 0.0 0.0 0.0 0.0 0.0
0.0 0.0 0.0 0.0 0.0 0.0 0.0 0.0
0.0 0.0 0.0 0.0 0.0 0.0 0.0 0.0
0.0 0.0 0.0 0.0 0.0 0.0 0.0 0.0
0.0 0.0 0.0 0.0 0.0 0.0 0.0 0.0
0.0 0.0 0.0 0.0 0.0 0.0 0.0 0.0
0.0 0.0 0.0 0.0 0.0 0.0 0.0 0.0
0.0 0.0 0.0 0.0 0.0 0.0 0.0 0.0
0.0 0.0 0.0 0.0 0.0 0.0 0.0 0.0
0.0 0.0 0.0 0.0 0.0 0.0 0.0 0.0
0.0 0.0 0.0 0.0 0.0 0.0 0.0 0.0
0.0 0.0 0.0 0.0 0.0 0.0 0.0 0.0
0.0 0.0 0.0 0.0 0.0 0.0 0.0 0.0
0.0 0.0 0.0 0.0 0.0 0.0 0.0 0.0
0.0 0.0 0.0 0.0 0.0 0.0 0.0 0.0
0.0 0.0 0.0 0.0 0.0 0.0 0.0 0.0
0.0 0.0 0.0 0.0 0.0 0.0 0.0 0.0
0.0 0.0 0.0 0.0 0.0 0.0 0.0 0.0
0.0 0.0 0.0 0.0 0.0 0.0 0.0 0.0
0.0 0.0 0.0 0.0 0.0 0.0 0.0 0.0
0.0 0.0 0.0 0.0 0.0 0.0 0.0 0.0
0.0 0.0 0.0 0.0 0.0 0.0 0.0 0.0
0.0 0.0 0.0 0.0 0.0 0.0 0.0 0.0
0.0 0.0 0.0 0.0 0.0 0.0 0.0 0.0
00000000: 8071 8647 0000 0000 0000 0000 0000 0000
00000010: 0000 0000 0000 0000 0000 0000 0000 0000
00000020: 0000 0000 0000 0000 0000 0000 0000 0000
00000030: 0000 0000 0000 0000 0000 0000 0000 0000
00000040: 0000 0000 0000 0000 0000 0000 0000 0000
00000050: 0000 0000 0000 0000 0000 0000 0000 0000
00000060: 0000 0000 0000 0000 0000 0000 0000 0000
00000070: 0000 0000 0000 0000 0000 0000 0000 0000
00000080: 0000 0000 0000 0000 0000 0000 0000 0000
00000090: 0000 0000 0000 0000 0000 0000 0000 0000
000000a0: 0000 0000 0000 0000 0000 0000 0000 0000
000000b0: 0000 0000 0000 0000 0000 0000 0000 0000
000000c0: 0000 0000 0000 0000 0000 0000 0000 0000
000000d0: 0000 0000 0000 0000 0000 0000 0000 0000
000000e0: 0000 0000 0000 0000 0000 0000 0000 0000
000000f0: 0000 0000 0000 0000 0000 0000 0000 0000
00000100: 0000 0000 0000 0000 0000 0000 0000 0000
00000110: 0000 0000 0000 0000 0000 0000 0000 0000
00000120: 0000 0000 0000 0000 0000 0000 0000 0000
00000130: 0000 0000 0000 0000 0000 0000 0000 0000
00000140: 0000 0000 0000 0000 0000 0000 0000 0000
00000150: 0000 0000 0000 0000 0000 0000 0000 0000
00000160: 0000 0000 0000 0000 0000 0000 0000 0000
00000170: 0000 0000 0000 0000 0000 0000 0000 0000
00000180: 0000 0000 0000 0000 0000 0000 0000 0000
00000190: 0000 0000 0000 0000 0000 0000 0000 0000
000001a0: 0000 0000 0000 0000 0000 0000 0000 0000
000001b0: 0000 0000 0000 0000 0000 0000 0000 0000
000001c0: 0000 0000 0000 0000 0000 0000 0000 0000
000001d0: 0000 0000 0000 0000 0000 0000 0000 0000
000001e0: 0000 0000 0000 0000 0000 0000 0000 0000
000001f0: 0000 0000 0000 0000 0000 0000 0000 0000
00000200: 0000 0000 0000 0000 0000 0000 0000 0000
00000210: 0000 0000 0000 0000 0000 0000 0000 0000
00000220: 0000 0000 0000 0000 0000 0000 0000 0000
00000230: 0000 0000 0000 0000 0000 0000 0000 0000
00000240: 0000 0000 0000 0000 0000 0000 0000 0000
00000250: 0000 0000 0000 0000 0000 0000 0000 0000
00000260: 0000 0000 0000 0000 0000 0000 0000 0000
00000270: 0000 0000 0000 0000 0000 0000 0000 0000
00000280: 0000 0000 0000 0000 0000 0000 0000 0000
00000290: 0000 0000 0000 0000 0000 0000 0000 0000
000002a0: 0000 0000 0000 0000 0000 0000 0000 0000
000002b0: 0000 0000 0000 0000 0000 0000 0000 0000
000002c0: 0000 0000 0000 0000 0000 0000 0000 0000
000002d0: 0000 0000 0000 0000 0000 0000 0000 0000
000002e0: 0000 0000 0000 0000 0000 0000 0000 0000
000002f0: 0000 0000 0000 0000 0000 0000 0000 0000
00000300: 0000 0000 0000 0000 0000 0000 0000 0000
00000310: 0000 0000 0000 0000 0000 0000 0000 0000
00000320: 0000 0000 0000 0000 0000 0000 0000 0000
00000330: 0000 0000 0000 0000 0000 0000 0000 0000
00000340: 0000 0000 0000 0000 0000 0000 0000 0000
00000350: 0000 0000 0000 0000 0000 0000 0000 0000
00000360: 0000 0000 0000 0000 0000 0000 0000 0000
00000370: 0000 0000 0000 0000 0000 0000 0000 0000
00000380: 0000 0000 0000 0000 0000 0000 0000 0000
00000390: 0000 0000 0000 0000 0000 0000 0000 0000
000003a0: 0000 0000 0000 0000 0000 0000 0000 0000
000003b0: 0000 0000 0000 0000 0000 0000 0000 0000
000003c0: 0000 0000 0000 0000 0000 0000 0000 0000
000003d0: 0000 0000 0000 0000 0000 0000 0000 0000
000003e0: 0000 0000 0000 0000 0000 0000 0000 0000
000003f0: 0000 0000 0000 0000 0000 0000 0000 0000

conv1.weight f4 [6, 2, 5, 5]
0.10546004 -0.03473269 0.14498435 0.116692044 0.15395384 0.41255447 0.31464636 0.209296
0.19013639 0.36740837 0.46870136 0.25379264 0.14017928 0.085182294 0.31840962 -0.24506955
-0.57290435 -0.5522996 -0.56810725 -0.32694042 -0.5429489 -1.0413591 -1.3273166 -0.9121259
-0.3623142 0.31162933 0.11340091 -0.083268456 -0.0081006475 0.10627446 0.11206733 -0.16541219
-0.052818388 -0.27268985 -0.09930921 -0.3729068 -0.6451551 -0.66009223 -0.33648345 -0.32169902
0.1342414 0.16915655 0.068222366 -0.024470728 0.08922191 0.37608504 0.3274187 0.28680068
0.2278949 0.12649392 -0.03070544 -0.14970997 -0.23871441 -0.1625447 -0.21788941 0.123092905
0.44199172 0.3985764 0.17479877 0.066407345 -0.13982633 0.33685225 0.57683814 0.34138715
0.017571501 -0.5861451 0.079379745 0.26071435 0.31954226 -0.055206217 -0.5539846 -0.54805213
-0.09433939 0.124308035 -0.023692844 -0.2838519 -0.038252506 0.28509018 0.28492817 0.21133292
-0.45236963 -0.31794173 0.10823107 0.41602567 0.38839462 -0.38213646 -0.5883238 -0.39802748
0.053403497 0.25609195 -0.20093437 -0.34055665 -0.48020563 -0.3074242 0.17773874 0.05213164
0.009201824 -0.059362337 -0.12748227 0.07118376 -0.034804165 0.008845345 -0.049733646 -0.048697803
0.0035844042 -0.10637528 -0.24138775 -0.16894074 0.07336823 0.11947237 -0.5218677 -0.18624838
0.28344813 0.33642864 0.18653566 -0.39606065 0.18174936 0.25627887 0.42846736 -0.08491419
-0.34500745 0.21397172 0.27824077 0.19678119 -0.025274346 -0.076074034 -0.057464782 0.0059134276
-0.0470348 -0.16722687 -0.070338055 0.27379993 0.17606342 0.04451594 -0.16187938 0.17892264
0.2922062 0.013252533 -0.30873054 -0.2779979 0.23786038 0.13650696 -0.30679348 -0.3735865
-0.19953023 0.067071654 -0.23669642 -0.30116925 -0.017501479 0.19566819 0.029592792 -0.2244174
-0.020941148 -0.12661676 -0.051268067 -0.2788794 0.2021003 0.29203993 0.1600813 0.0413219
0.17134547 0.5417322 0.5988251 0.2298308 0.18990193 0.19379537 0.43697128 0.2723662
0.233761 -0.10507232 0.03456457 0.1677228 0.033537883 -0.06283732 -0.19626456 -0.10571575
-0.08980413 -0.012468171 0.030335406 0.046614558 0.17080395 -0.010935575 0.062216584 0.012971302
0.041465268 0.019990008 -0.14909469 -0.14601235 0.008400795 0.13342549 -0.013150339 -0.28503278
-0.059709672 -0.035335913 0.109322235 -0.021575974 -0.15730605 0.07280691 0.075912625 0.089953825
-0.07208261 -0.27317575 -0.37113115 -0.22145183 0.07342739 0.06705485 -0.15903868 -0.21343975
-0.010487386 -0.040249493 -0.0438635 -0.04014096 0.01121957 0.13934456 0.06970387 0.17750132
0.13585936 0.043343738 0.021486416 0.012530958 -0.1373272 -0.004252589 -0.13004164 -0.09519889
-0.058850754 -0.099475555 0.22431165 0.20024773 0.13298878 -0.042711873 0.28236902 0.63608384
0.56363916 0.2711092 0.033476494 0.28747043 0.5259515 0.5127988 0.35031623 0.04522253
0.25142783 0.2229693 0.0012376346 -0.02695219 -0.08912682 -0.08292652 -0.12006829 -0.04764693
-0.2930622 -0.1819762 -0.044029143 -0.19200918 -0.2504793 0.0808755 0.025960812 -0.17943048
00000000: 6ffb d73d dd43 0ebd c776 143e 3dfc ee3d
00000010: 13a6 1d3e 573a d33e 5419 a13e b151 563e
00000020: 1db3 423e f31c bc3e a0f9 ef3e 1cf1 813e
00000030: 288b 0f3e 0e74 ae3d 9606 a33e 83f3 7abe
00000040: dca9 12bf 8263 0dbf 7a6f 11bf bc64 a7be
00000050: b3fe 0abf 414b 85bf 83e5 a9bf 1581 69bf
00000060: 3f81 b9be e18d 9f3e bc3e e83d a788 aabd
00000070: 94b8 04bc 6da6 d93d 8e83 e53d d061 29be
00000080: 1858 58bd 019e 8bbe a162 cbbd a4ed bebe
00000090: e228 25bf cefb 28bf 8f47 acbe bcb5 a4be
000000a0: 9476 093e 6037 2d3e 2bb8 8b3d d676 c8bc
000000b0: fab9 b63d 388e c03e 6da3 a73e 8ad7 923e
000000c0: 485d 693e 9f87 013e fa89 fbbc 924d 19be
000000d0: 8d71 74be 1e72 26be 671e 5fbe 2218 fc3d
000000e0: bd4c e23e 3512 cc3e 73fe 323e 9300 883d
000000f0: a22e 0fbe e677 ac3e aaab 133f 4cca ae3e
00000100: 1cf2 8f3c 9b0d 16bf d991 a23d 5a7c 853e
00000110: 0b9b a33e ea1f 62bd efd1 0dbf 254d 0cbf
00000120: 0335 c1bd 3695 fe3d 7f17 c2bc 0955 91be
00000130: a9ae 1cbd 57f7 913e 1be2 913e a867 583e
00000140: fe9c e7be 42c9 a2be 40a8 dd3d 5101 d53e
00000150: a9db c63e 64a7 c3be 639c 16bf 42ca cbbe
00000160: a0bd 5a3d 7c1e 833e bdc1 4dbe 715d aebe
00000170: 83dd f5be b466 9dbe 2501 363e fd87 553d
00000180: 3fc3 163c ec25 73bd b68a 02be cbc8 913d
00000190: d08e 0ebd 11ec 103c 82b5 4bbd 5977 47bd
000001a0: 53e8 6a3b 48db d9bd 5a2e 77be cdfe 2cbe
000001b0: 1542 963d eead f43d 1f99 05bf e5b7 3ebe
000001c0: 1d20 913e 6040 ac3e 3403 3f3e 76c8 cabe
000001d0: 811c 3a3e fc36 833e 1360 db3e 7ee7 adbd
000001e0: d1a4 b0be 671b 5b3e 9375 8e3e 0281 493e
000001f0: 250c cfbc b4cc 9bbd 3160 6bbd 6dc5 c13b
00000200: 90a7 40bd 853d 2bbe 660d 90bd 812f 8c3e
00000210: f849 343e 5956 363d b5c3 25be 7f37 373e
00000220: 0d9c 953e 2721 593c ee11 9ebe be55 8ebe
00000230: ac91 733e 7bc8 0b3e 0914 9dbe bb46 bfbe
00000240: a751 4cbe dd5c 893d 8c60 72be db32 9abe
00000250: 435f 8fbc 3e5d 483e 956c f23c adcd 65be
00000260: c58c abbc d3a7 01be 77fe 51bd 48c9 8ebe
00000270: 62f3 4e3e 4286 953e 5aec 233e 2741 293d
00000280: 3075 2f3e f6ae 0a3f 9a4c 193f c458 6b3e
00000290: a775 423e 4b72 463e b3ba df3e 9573 8b3e
000002a0: 0b5f 6f3e 2830 d7bd 9493 0d3d 87bf 2b3e
000002b0: 055f 093d dab0 80bd 94f9 48be 8081 d8bd
000002c0: 3aeb b7bd 4d47 4cbc f581 f83c e8ee 3e3d
000002d0: 3be7 2e3e 202b 33bc d1d6 7e3d 9585 543c
000002e0: 7cd7 293d 16c2 a33c 47ac 18be 4384 15be
000002f0: 7da3 093c b1a0 083e 8574 57bc d1ef 91be
00000300: 2192 74bd 64bc 10bd 56e4 df3d 19c0 b0bc
00000310: d614 21be ca1b 953d 1478 9b3d b639 b83d
00000320: 0ca0 93bd b1dd 8bbe e704 bebe 45c4 62be
00000330: 1961 963d 0e54 893d 09db 22be f38f 5abe
00000340: 49d3 2bbc a7dc 24bd 37aa 33bd d96a 24bd
00000350: 4ad2 373c 57b0 0e3e e7c0 8e3d e8c2 353e
00000360: b71e 0b3e 3489 313d 4804 b03c a64e 4d3c
00000370: 809f 0cbe 4d59 8bbb a329 05be a3f7 c2bd
00000380: 7d0d 71bd d7b9 cbbd f4b1 653e be0d 4d3e
00000390: 362e 083e a5f2 2ebd ac92 903e 64d6 223f
000003a0: a84a 103f d3ce 8a3e a61e 093d 532f 933e
000003b0: c2a4 063f c846 033f a65c b33e 423b 393d
000003c0: 26bb 803e 1052 643e 2038 a23a d7ca dcbc
000003d0: 1f88 b6bd 61d5 a9bd 5de6 f5bd 6d29 43bd
000003e0: 400c 96be f857 3abe e757 34bd 0e9e 44be
000003f0: d33e 80be 0ea2 a53d c5ab d43c a0bc 37be

conv1.activation_post_process.histogram f4 [2048]
14.251878 57.037533 102.07667 158.97612 238.11061 307.99197 396.38623 515.72186
608.31555 756.6684 915.1484 1065.5127 1250.2666 1489.9169 1739.699 1986.9568
2252.894 2556.2527 2913.091 3287.1587 3651.5137 4072.5952 4485.394 4944.186
5455.8516 6014.0356 6575.3535 7233.834 7877.9316 8523.9375 9266.485 10092.883
10998.843 11959.366 13020.387 14193.484 15480.212 16914.904 18523.094 20264.47
22269.223 24503.324 27027.865 29880.12 33098.51 36723.42 40733.613 45253.07
50459.688 56438.582 63444.742 71762.914 81883.766 94599.336 111242.6 134269.1
167669.42 218961.28 301167.53 436354.34 658155.2 1.0127973e+06 1.5542745e+06 2.3319762e+06
3.3670292e+06 4.6235775e+06 5.99998e+06 7.3188075e+06 8.356518e+06 8.895367e+06 8.390418e+06 7.409839e+06
6.1965635e+06 4.9404255e+06 3.7948422e+06 2.8486498e+06 2.1287275e+06 1.6148968e+06 1.2637201e+06 1.02752894e+06
865203.3 747893.3 656911.8 581569.3 515911.84 456997.94 403118.9 353350.88
307503.06 265365.06 226922.64 192370.67 161741.6 135018.97 112139.69 92674.25
76277.18 62549.527 51037.516 41340.285 33206.363 26370.252 20655.146 15929.757
12089.98 9006.135 6573.528 4692.567 3263.884 2210.782 1453.9434 920.8072
569.23175 339.90677 197.2935 96.17801 41.26532 2.4804742 -21.181864 -25.642904
-29.218273 -32.049335 -35.503708 -37.423058 -23.148975 -13.84806 -11.286712 -17.988813
-13.20462 -13.58115 -13.906338 -10.004912 -27.66098 -31.077747 -30.17285 -28.952665
-26.145678 -27.15529 -23.002205 -7.4366007 9.870048 14.652615 8.085506 18.20881
22.761143 10.355028 15.987729 19.832737 14.78151 8.200769 5.6825223 -17.631413
-19.33087 -17.153574 -2.6867976 -14.484574 -8.934717 -18.195435 -4.923382 13.404364
20.404533 8.668715 7.570963 -2.3355334 -1.4266384 8.656611 14.074349 16.063498
32.25461 29.46219 23.4293 33.9609 39.00293 27.918848 25.065536 15.997122
9.550172 8.64163 1.5107143 0.78354996 2.0193658 6.702462 11.363456 20.866987
15.803994 23.38833 24.69546 30.614964 26.913427 30.156 17.624249 22.885586
10.463644 5.430621 2.7757895 5.198048 0.07172169 4.7131658 6.9553766 12.461472
8.741951 13.811281 12.670571 1.7189274 -2.3626294 -12.745589 -8.59054 -12.09263
-6.431079 -8.391916 -3.3673093 -5.616954 -0.8439772 1.7769122 5.7495627 2.3931265
15.973004 21.74437 23.068748 27.9525 30.919867 18.856348 22.745518 19.771065
24.705519 18.687668 14.07187 8.611185 14.865779 17.068596 23.019157 21.99421
16.777376 18.348793 19.18134 14.98855 9.109195 16.955212 17.649933 10.721839
7.2520714 7.236953 11.586966 10.229209 4.2914143 -5.341678 -1.8209225 -12.674372
-12.9604 -14.598884 -16.197563 -19.658525 -22.04468 -11.8660755 -16.280554 -9.0862465
00000000: b107 6441 6f26 6442 4127 cc42 e3f9 1e43
00000010: 511c 6e43 f9fe 9943 7031 c643 33ee 0044
00000020: 3214 1844 c72a 3d44 7fc9 6444 6830 8544
00000030: 8848 9c44 573d ba44 5e76 d944 9e5e f844
00000040: 4ece 0c45 0bc4 1f45 7511 3645 8a72 4d45
00000050: 3838 6445 8689 7e45 272b 8c45 7d81 9a45
00000060: d07e aa45 49f0 bb45 d47a cd45 ac0e e245
00000070: 742f f645 c02f 0546 f1c9 1046 88b3 1d46
00000080: 5fdb 2b46 77dd 3a46 8c71 4b46 f0c5 5d46
00000090: d9e0 7146 cf25 8446 30b6 9046 f150 9e46
000000a0: 72fa ad46 a66e bf46 bb27 d346 3d70 e946
000000b0: 834a 0147 6c73 0f47 9d1d 1f47 12c5 3047
000000c0: b01b 4547 9576 5c47 bed4 7747 7529 8c47
000000d0: e2ed 9f47 abc3 b847 4d45 d947 461f 0348
000000e0: 5bbd 2348 52d4 5548 f10d 9348 4b10 d548
000000f0: b3ae 2049 d543 7749 14bb bd49 2155 0e4a
00000100: d581 4d4a b319 8d4a d81a b74a 2f5a df4a
00000110: 4c05 ff4a 87bb 074b 1207 004b 5e21 e24a
00000120: a71a bd4a 13c5 964a 699e 674a 27de 2d4a
00000130: 5eed 014a 8621 c549 4143 9a49 8fdc 7a49
00000140: 353b 5349 5597 3649 fd60 2049 15fc 0d49
00000150: fbe8 fb48 be24 df48 ddd5 c448 dc88 ac48
00000160: e225 9648 a292 8148 a99a 5d48 abdc 3b48
00000170: 66f3 1d48 beda 0348 d805 db47 2001 b547
00000180: 97fa 9447 8755 7447 845d 4747 497c 2147
00000190: 5db6 0147 8104 ce46 4b5e a146 07e7 7846
000001a0: ece7 3c46 8ab8 0c46 396c cd45 89a4 9245
000001b0: 25fe 4b45 832c 0a45 30be b544 a933 6644
000001c0: d54e 0e44 11f4 a943 234b 4543 245b c042
000001d0: b00f 2542 17c0 1e40 7574 a9c1 ab24 cdc1
000001e0: 06bf e9c1 8532 00c2 cc03 0ec2 36b1 15c2
000001f0: 1a31 b9c1 a791 5dc1 5f96 34c1 17e9 8fc1
00000200: 2046 53c1 644c 59c1 5c80 5ec1 1f14 20c1
00000210: b049 ddc1 3a9f f8c1 ff61 f1c1 0f9f e7c1
00000220: 592a d1c1 093e d9c1 8404 b8c1 a2f8 edc0
00000230: b7eb 1d41 1c71 6a41 3c5e 0141 a5ab 9141
00000240: d216 b641 32ae 2541 bdcd 7f41 72a9 9e41
00000250: 1181 6c41 5a36 0341 39d7 b540 220d 8dc1
00000260: 9fa5 9ac1 853a 89c1 7ef4 2bc0 d1c0 67c1
00000270: 9af4 0ec1 4090 91c1 588c 9dc0 4678 5641
00000280: 7c3c a341 0eb3 0a41 5445 f240 6179 15c0
00000290: 169c b6bf 7b81 0a41 8930 6141 0b82 8041
000002a0: b804 0142 91b2 eb41 356f bb41 f6d7 0742
000002b0: 0003 1c42 cd59 df41 3886 c841 36f4 7f41
000002c0: 81cd 1841 1e44 0a41 165f c13f bb96 483f
000002d0: 4a3d 0140 927a d640 b7d0 3541 97ef a641
000002e0: 29dd 7c41 4d1b bb41 4d90 c541 72eb f441
000002f0: b34e d741 7d3f f141 76fe 8c41 ae15 b741
00000300: 166b 2741 a6c7 ad40 89a6 3140 6956 a640
00000310: d2e2 923d 41d2 9640 7292 de40 3062 4741
00000320: 08df 0b41 02fb 5c41 a9ba 4a41 d005 dc3f
00000330: 5235 17c0 efed 4bc1 da72 09c1 6a7b 41c1
00000340: 66cb cdc0 4a45 06c1 ff81 57c0 16be b3c0
00000350: e40e 58bf dc71 e33f 6bfc b740 fc28 1940
00000360: 6d91 7f41 78f4 ad41 cc8c b841 b89e df41
00000370: e35b f741 cdd9 9641 d2f6 b541 242b 9e41
00000380: e7a4 c541 5880 9541 6126 6141 6ac7 0941
00000390: 3bda 6d41 7c8c 8841 3c27 b841 24f4 af41
000003a0: 1138 8641 54ca 9241 6273 9941 1ad1 6f41
000003b0: 43bf 1141 46a4 8741 1033 8d41 a78c 2b41
000003c0: f810 e840 1e95 e740 3664 3941 d7aa 2341
000003d0: 4453 8940 07ef aac0 fd13 e9bf 3aca 4ac1
000003e0: cc5d 4fc1 0795 69c1 9c94 81c1 a944 9dc1
000003f0: 815b b0c1 72db 3dc1 933e 82c1 4461 11c1

conv2.weight f4 [16, 6, 5, 5]
-0.08734816 -0.021867484 -0.008084233 0.12686306 0.16857132 -0.009337782 -0.1476372 -0.41844407
-0.38594526 -0.143305 0.038372606 -0.16891696 -0.6059293 -0.45143214 -0.11883386 0.08718307
0.17581688 -0.10455262 -0.18028224 -0.09475056 -0.092446014 0.11669596 0.2853723 0.22596999
0.109364726 -0.14443633 -0.20465128 -0.2194509 -0.17379302 -0.046176113 -0.12228086 -0.2041894
-0.10779358 -0.15622838 -0.18604857 0.012257315 0.04190324 0.018030137 -0.0011601911 -0.13739192
0.084967375 0.10719289 0.23676859 0.2910548 0.0613583 -0.16507119 -0.30030912 0.17849045
0.48980024 0.19036241 0.2381263 0.19492641 0.15467069 0.17128833 0.01005665 0.08970888
-0.020533187 0.096609734 -0.12460222 0.18559471 0.13831024 0.12739484 0.03160087 -0.07147286
0.071313135 -0.0922998 0.020420361 0.06297314 -0.076263666 -0.11539562 -0.23554817 -0.12646236
0.12573408 0.048067298 -0.04353786 -0.032861486 0.16051689 0.09701195 0.119305566 0.15373357
-0.079925574 0.0025296716 -0.057941053 -0.032226328 0.016209504 0.08444712 -0.015096502 0.09997529
-0.062282868 -0.03567303 -0.107543156 0.07574099 0.14971477 0.13366696 0.11007827 -0.2786044
-0.13380018 0.17442176 0.25621912 0.08616983 0.165174 -0.092274286 -0.14968568 -0.0155138085
0.14563444 0.122769944 -0.112393826 -0.04906084 -0.020048365 0.15933235 0.07487469 0.084503785
-0.22980487 -0.20560241 -0.1367471 -0.06949268 -0.15163466 -0.4123869 -0.31113583 -0.10190119
-0.01144246 0.025612734 -0.21380916 -0.29202262 -0.10910055 0.073768064 0.1388957 0.10062754
0.04025252 0.03539335 -0.13818944 -0.04007643 -0.058898486 -0.02258629 -0.089659266 0.105342515
0.123129524 0.116387054 0.065950476 0.06770293 -0.06956569 0.08542466 0.23559146 0.18767558
0.18371451 -0.25484723 -0.10430997 0.07484095 0.21125756 0.08956773 -0.118119724 -0.09768997
0.009932087 -0.041126143 0.094903655 0.17983514 0.18563841 0.22940929 0.27008626 0.32569614
0.48229176 0.35525206 0.3722029 0.44429627 0.33230203 0.2106994 0.2057698 0.08122801
0.1313374 -0.02125421 -0.3708202 -0.42615536 -0.2982491 -0.011692711 0.31319234 -0.14740802
-0.017523471 -0.098849505 -0.24103847 -0.098007776 -0.029216146 0.04881507 0.1327128 -0.042489298
0.038266327 0.1992788 0.12450348 -0.052991454 -0.053928923 -0.20499729 -0.13465609 0.06212437
-0.12348006 -0.26330596 -0.2634994 -0.15086986 -0.46227577 -0.122429624 0.10047306 0.17381658
-0.10581479 -0.05968673 0.02744772 0.004019175 0.15474086 0.024678322 0.019193515 -0.026218519
0.07231862 0.02055166 0.014167539 0.030605236 0.06865536 -0.08641695 -0.07447521 -0.49658027
-0.45658925 -0.38368034 -0.18184061 0.09673316 -0.31813753 -0.5932544 -0.31032583 -0.025720168
0.12932134 -0.17367731 -0.12258689 -0.05407596 0.013810025 0.09037509 -0.0540576 0.018091492
0.08914225 0.07831125 0.11380928 0.1883096 0.1872315 0.12923135 -0.045670245 -0.052368496
-0.33482084 -0.378658 -0.33764434 -0.5163677 -0.12785046 -0.106008425 -0.64196736 -0.5061686
-0.13384022 0.16269183 -0.17319377 -0.0737477 -0.010746696 -0.010353208 0.031572703 0.06788502
00000000: 98e3 b2bd 7023 b3bc bb73 04bc 64e8 013e
00000010: f69d 2c3e 7ffd 18bc 352e 17be 4d3e d6be
00000020: 9e9a c5be 8cbe 12be 982c 1d3d 91f8 2cbe
00000030: 2f1e 1bbf 1d22 e7be 2b5f f3bd 0a8d b23d
00000040: 5709 343e af1f d6bd e89b 38be 950c c2bd
00000050: 5654 bdbd 4bfe ee3d 511c 923e ad64 673e
00000060: 9dfa df3d 1ee7 13be 1b90 51be bdb7 60be
00000070: ccf6 31be 2a23 3dbd 636e fabd 0717 51be
00000080: e1c2 dcbd 55fa 1fbe 8483 3ebe e8d2 483c
00000090: bba2 2b3d f0b3 933c 8e11 98ba 78b0 0cbe
000000a0: 6003 ae3d f287 db3d 7773 723e 2205 953e
000000b0: d752 7b3d 6c08 29be 1ec2 99be 33c6 363e
000000c0: 19c7 fa3e 5dee 423e 61d7 733e ca9a 473e
000000d0: fe61 1e3e 3566 2f3e a6c4 243c 4ab9 b73d
000000e0: 3735 a8bc 53db c53d 732f ffbd 8a0c 3e3e
000000f0: 33a1 0d3e cb73 023e ea6f 013d 5d60 92bd
00000100: 9f0c 923d ad07 bdbd 9a48 a73c 10f8 803d
00000110: 2030 9cbd 8a54 ecbd 8a33 71be 597f 01be
00000120: 6fc0 003e 37e2 443d c154 32bd c499 06bd
00000130: 8a5e 243e 34ae c63d 7a56 f43d 556c 1d3e
00000140: 05b0 a3bd d9c8 253b 9953 6dbd c1ff 03bd
00000150: cbc9 843c 9df2 ac3d 5257 77bc d8bf cc3d
00000160: 521c 7fbd e21d 12bd 963f dcbd 181e 9b3d
00000170: d44e 193e fedf 083e b770 e13d 3ca5 8ebe
00000180: ea02 09be 9e9b 323e 272f 833e cf79 b03d
00000190: 6023 293e 4dfa bcbd 3447 19be a12d 7ebc
000001a0: 3221 153e cf6e fb3d bc2e e6bd 05f4 48bd
000001b0: 783c a4bc 0528 233e e757 993d 5210 ad3d
000001c0: f851 6bbe 7089 52be 6f07 0cbe 2e52 8ebd
000001d0: 1e46 1bbe 6024 d3be 324d 9fbe 92b1 d0bd
000001e0: 2879 3bbc ccd1 d13c caf0 5abe fd83 95be
000001f0: 1c70 dfbd b613 973d ad3a 0e3e d015 ce3d
00000200: d4df 243d 9ef8 103d 8881 0dbe 2f27 24bd
00000210: 8a3f 71bd e206 b9bc 479f b7bd d1bd d73d
00000220: 552b fc3d 565c ee3d 0b11 873d d5a7 8a3d
00000230: 7578 8ebd 20f3 ae3d e33e 713e 072e 403e
00000240: a81f 3c3e 567b 82be 77a0 d5bd 3646 993d
00000250: e753 583e 496f b73d c1e8 f1bd ae11 c8bd
00000260: 31ba 223c e373 28bd d95c c23d b426 383e
00000270: ff17 3e3e 45ea 6a3e bf48 8a3e a5c1 a63e
00000280: f2ee f63e 99e3 b53e 6191 be3e cd7a e33e
00000290: 7e23 aa3e 95c1 573e 52b5 523e df5a a63d
000002a0: 507d 063e 4f1d aebc 25dc bdbe 0931 dabe
000002b0: 1bb4 98be c992 3fbc bf5a a03e 21f2 16be
000002c0: 628d 8fbc 9c71 cabd cad2 76be 4db8 c8bd
000002d0: b356 efbc 50f2 473d dde5 073e 4209 2ebd
000002e0: 27bd 1c3d be0f 4c3e aefb fe3d 910d 59bd
000002f0: 93e4 5cbd cfea 51be 49e3 09be 2076 7e3d
00000300: 1de3 fcbd 0ad0 86be 65e9 86be a17d 1abe
00000310: 69af ecbe 62bc fabd d2c4 cd3d f9fc 313e
00000320: 6db5 d8bd 137a 74bd 0ada e03c 49b3 833b
00000330: 6374 1e3e 312a ca3c b83b 9d3c 38c8 d6bc
00000340: c91b 943d f45b a83c f71e 683c d5b7 fa3c
00000350: 2e9b 8c3d 5ffb b0bd 7586 98bd c53f febe
00000360: 11c6 e9be c071 c4be 6d34 3abe 091c c63d
00000370: ece2 a2be 85df 17bf 07e3 9ebe 1ab3 d2bc
00000380: d06c 043e 77d8 31be d60e fbbd c17e 5dbd
00000390: 7143 623c 9316 b93d 816b 5dbd 9c34 943c
000003a0: 3690 b63d a661 a03d d714 e93d 3bd4 403e
000003b0: 9db9 3f3e 3955 043e b910 3bbd 5980 56bd
000003c0: a36d abbe 76df c1be b8df acbe ac30 04bf
000003d0: 3beb 02be f21a d9bd f957 24bf 4494 01bf
000003e0: 690d 09be b098 263e b559 31be 0909 97bd
000003f0: e912 30bc 80a0 29bc 6152 013d 4d07 8b3d

conv2.activation_post_process.histogram f4 [2048]
1.3046875 0.78808594 0.4293213 0.47790527 0.0 0.0 0.0 0.0
0.0 0.0 0.0 0.0 0.0 0.0 0.0 0.0
0.0 0.0 0.0 0.0 0.0 0.0 0.0 0.0
0.0 0.0 0.0 0.0 0.0 0.0 0.0 0.0
0.0 0.0 0.0 0.0 0.0 0.0 0.0 0.0
0.29876184 0.46008062 0.21314335 0.028014183 0.0 0.0 0.0 0.0
0.0 0.0 0.0 0.0 0.0 0.0 1.0 0.0
0.0 0.0 0.0 0.0 0.0 0.0 0.0 0.0
0.0 0.0 0.26264408 0.5122348 0.2003696 0.024134517 0.0006170273 0.009169383
0.2600639 0.44853666 0.23773688 0.042230397 0.0022627562 1.6391277e-07 1.6391277e-07 0.09851627
0.58506817 0.28358078 0.031913914 0.00092093647 1.6391277e-07 1.6391277e-07 1.6391277e-07 1.6391277e-07
1.6391277e-07 2.0 1.0000001 1.6391277e-07 1.6391277e-07 1.6391277e-07 1.6391277e-07 9.291511e-06
0.000696643 0.016102133 0.13931808 0.4315065 0.36106074 0.099846974 0.34647214 0.656147
0.21805121 0.5876689 2.0597758 0.07760743 0.011910595 0.110508986 0.6232684 1.1353498
1.1247001 8.855495e-07 3.219102e-07 7.435483e-08 -3.5930498e-08 -8.94579e-09 1.5530895e-07 4.5683373e-07
8.9562855e-07 2.796005e-07 3.1810487e-08 0.2656249 1.0804443 1.1260988 0.52783245 8.151237e-07
1.0853637e-06 1.409374 1.2220013 0.8995566 0.8066093 0.9614427 0.9047629 1.9225926
1.9624643 2.5108016 1.166457 1.2449615 0.08742822 1.3026221 2.3025298 1.0542444
0.6556353 1.9617052 1.3114963 0.87674916 0.52225226 0.7872102 1.1516727 0.88512796
0.20482977 0.22252567 0.3077266 0.5026744 1.1306789 1.3067608 0.64984494 0.32918864
1.3460609 0.331692 0.6846089 0.77101564 1.2884057 0.014274813 0.1684091 0.39591768
0.321521 0.48947343 0.4841175 0.14056268 1.4154042 0.46105868 0.12353538 1.7459682e-06
1.0178412 1.865082 1.4549681 0.6925314 0.58228445 0.5840058 1.4569111 1.263269
0.19197412 0.9361561 1.9127096 2.4255748 2.6993234 1.1149604 0.6223866 0.65997493
0.70264345 2.2395597 1.74038 0.38992965 1.2674729 0.1667449 0.9022075 0.6146818
1.5799528 1.4798261 2.1940818 0.9530035 0.41085488 1.218156 0.3676489 1.2927375
1.4955273 1.5527089 1.2021536 1.5643021 0.74584293 1.3666885 0.31418306 0.5722366
0.17943227 0.00704143 1.0078995 1.0163157 1.0270371 0.51833 2.4764643 2.0510302
1.100061 0.33083603 1.2875457 1.1030699 1.0662696 0.027285112 2.0751991 0.36911443
3.1412625 0.59470826 1.8343549 1.1241117 1.6428083 2.4930859 2.6612196 1.1954354
1.1213392 0.96596336 3.557157 1.1576687 1.281436 1.4553026 1.8552003 2.1177106
2.6422143 1.4481138 1.8790481 4.913286 3.3478072 1.8890079 4.883256 1.9122019
00000000: 0000 a73f 00c0 493f 00d0 db3e 00b0 f43e
00000010: 0000 0000 0000 0000 0000 0000 0000 0000
00000020: 0000 0000 0000 0000 0000 0000 0000 0000
00000030: 0000 0000 0000 0000 0000 0000 0000 0000
00000040: 0000 0000 0000 0000 0000 0000 0000 0000
00000050: 0000 0000 0000 0000 0000 0000 0000 0000
00000060: 0000 0000 0000 0000 0000 0000 0000 0000
00000070: 0000 0000 0000 0000 0000 0000 0000 0000
00000080: 0000 0000 0000 0000 0000 0000 0000 0000
00000090: 0000 0000 0000 0000 0000 0000 0000 0000
000000a0: 50f7 983e b08f eb3e 4042 5a3e 007e e53c
000000b0: 0000 0000 0000 0000 0000 0000 0000 0000
000000c0: 0000 0000 0000 0000 0000 0000 0000 0000
000000d0: 0000 0000 0000 0000 0000 803f 0000 0000
000000e0: 0000 0000 0000 0000 0000 0000 0000 0000
000000f0: 0000 0000 0000 0000 0000 0000 0000 0000
00000100: 0000 0000 0000 0000 4979 863e d221 033f
00000110: b02d 4d3e c0b5 c53c 00c0 213a 2e3b 163c
00000120: 1827 853e 99a6 e53e 4c71 733e c8f9 2c3d
00000130: c04a 143b 0000 3034 0000 3034 e6c2 c93d
00000140: 07c7 153f 8031 913e 2ab8 023d 006b 713a
00000150: 0000 3034 0000 3034 0000 3034 0000 3034
00000160: 0000 3034 0000 0040 0100 803f 0000 3034
00000170: 0000 3034 0000 3034 0000 3034 bce2 1b37
00000180: ec9e 363a 9fe8 833c 66a9 0e3e 6cee dc3e
00000190: f4dc b83e 927c cc3d cc64 b13e 40f9 273f
000001a0: d148 5f3e 7871 163f 5ed3 0340 a5f0 9e3d
000001b0: a824 433c 8952 e23d 858e 1f3f 2453 913f
000001c0: 2cf6 8f3f 80b6 6d35 00d3 ac34 00ad 9f33
000001d0: 0052 1ab3 00b0 19b2 00c3 2634 c042 f534
000001e0: 206b 7035 001c 9634 00a0 0833 fdff 873e
000001f0: 004c 8a3f 0124 903f 0720 073f e0ce 5a35
00000200: d0ac 9135 5e66 b43f 8a6a 9c3f 5749 663f
00000210: f27d 4e3f 1c21 763f 8b9e 673f 8417 f63f
00000220: 0832 fb3f f9b0 2040 774e 953f e65a 9f3f
00000230: 910d b33d 52bc a63f a65c 1340 7bf1 863f
00000240: b7d7 273f 2819 fb3f 1cdf a73f a272 603f
00000250: 53b2 053f 9c86 493f 036a 933f bf97 623f
00000260: e5be 513e c5dd 633e 578e 9d3e 45af 003f
00000270: 16ba 903f f043 a73f 3d5c 263f 6a8b a83e
00000280: b94b ac3f 89d3 a93e 8742 2f3f 4861 453f
00000290: 7aea a43f e8e0 693c 6f73 2c3e b9b5 ca3e
000002a0: 679e a43e 439c fa3e 40de f73e aaef 0f3e
000002b0: f72b b53f e20f ec3e 1e00 fd3d 0357 ea35
000002c0: 9f48 823f 02bb ee3f 653c ba3f bd49 313f
000002d0: 9810 153f 6781 153f 107c ba3f ccb2 a13f
000002e0: dd94 443e eda7 6f3f abd3 f43f 9e3c 1b40
000002f0: b7c1 2c40 06b7 8e3f ba54 1f3f 1ef4 283f
00000300: 71e0 333f f254 0f40 c6c4 de3f dca4 c73e
00000310: 8d3c a23f 2dbf 2a3e 12f7 663f c95b 1d3f
00000320: e53b ca3f f16a bd3f d66b 0c40 0af8 733f
00000330: 925b d23e 89ec 9b3f 7a3c bc3e 6c78 a53f
00000340: 706d bf3f 2abf c63f 2be0 993f 0d3b c83f
00000350: 90ef 3e3f a6ef ae3f 9adc a03e 197e 123f
00000360: 18bd 373e ccbb e63b da02 813f a216 823f
00000370: f475 833f 46b1 043f 647e 1e40 1444 0340
00000380: cdce 8c3f 5763 a93e 4cce a43f 6531 8d3f
00000390: 867b 883f 0785 df3c 10d0 0440 91fc bc3e
000003a0: 720a 4940 cd3e 183f 24cc ea3f e4e2 8f3f
000003b0: 8b47 d23f b88e 1f40 6c51 2a40 0704 993f
000003c0: 0b88 8f3f 6049 773f 76a8 6340 7d2e 943f
000003d0: 1806 a43f 5b47 ba3f 3477 ed3f 9288 0740
000003e0: 0a1a 2940 cb5b b93f a684 f03f a439 9d40
000003f0: 7942 5640 03cb f13f a243 9c40 08c3 f43f

conv3.weight f4 [120, 16, 5, 5]
-0.050471064 -0.07783403 -0.18932937 -0.08574575 0.06412393 -0.097132295 -0.10611352 -0.12110196
0.044824317 0.0054263505 0.11000779 0.082191624 -0.036477175 0.026905546 0.0006036046 0.07964136
0.16586538 0.083591685 0.05388708 -0.09865451 0.039841335 0.087615706 0.07051842 0.05657
-0.08309603 -0.34538558 -0.7043013 -0.36772445 -0.036395073 0.1640973 -0.107614145 -0.31763825
-0.16636312 0.040584654 0.23153828 -0.29354495 -0.010098006 0.017133476 -0.014138244 -0.0912649
0.006445405 0.0055554947 0.14912638 -0.098507315 0.030290822 0.04565405 0.030241074 -0.044728324
-0.10480679 -0.009011838 -0.17112756 -0.07035117 -0.10419919 0.18516913 0.12664995 -0.15652099
-0.0724548 0.047591385 0.3345702 0.080033645 0.039908454 0.19555017 0.20294052 -0.011576517
-0.13759777 -0.037489496 -0.04039976 -0.08085829 -0.008789649 -0.034771785 0.052348293 0.07339523
-0.07306886 -0.07096789 0.021643152 0.13239677 0.041260533 0.007297614 0.15344205 0.11609125
-0.22662207 -0.17621852 0.019877402 0.029180432 0.20377836 -0.02029854 0.10848063 0.054839637
0.1069282 0.080926105 -0.14011961 -0.07408051 0.021325054 0.014085555 -0.15842758 -0.035416666
0.111999705 0.08486644 0.015880419 -0.06074348 -0.2887309 -0.2106821 0.08666579 0.2168917
0.47621778 -0.2572024 0.07222118 0.20230226 0.038184606 -0.027422475 -0.103811935 -0.052230302
-0.16015497 -0.07161649 -0.06002611 -0.13768081 0.23519544 0.04152242 0.03010968 -0.08289042
0.05640691 0.11226497 -0.08737091 -0.0076612984 0.042842347 0.0677504 0.102703035 0.1314051
0.013318281 0.0644982 -0.15170866 -0.00548374 0.03929912 0.0882516 0.1209643 -0.059637345
0.012585197 -0.071095705 0.1507295 -0.062287714 -0.06890561 0.055973172 0.106239505 -0.19428228
-0.09484403 0.10846192 0.04977933 0.13616 0.023378426 -0.034989815 -0.025412392 -0.24835879
-0.2160007 0.065067664 -0.05559472 -0.3454342 -0.31168747 -0.014742447 -0.10922523 0.017682144
0.05461626 0.044136614 0.09093208 0.007888515 -0.13150673 -0.04774187 0.0067439056 0.14686286
0.1080213 -0.1370797 -0.109776795 0.020949008 0.15017866 0.01875242 -0.028749727 -0.15817273
-0.26046062 -0.23015976 -0.2517057 0.03169706 -0.41052225 -0.37296006 -0.2069462 0.10095356
0.14342783 0.15044469 0.19145115 0.24326283 0.20243552 0.1281616 0.029752512 -0.12635645
-0.017544046 0.07328405 0.08573092 -0.025650041 0.0026741282 0.010279742 -0.08760637 -0.109537214
-0.085635036 -0.026997805 -0.25348788 -0.31097996 -0.03892553 -0.28402025 -0.29224983 -0.18107104
-0.054074217 0.01656453 -0.2032952 -0.06079915 0.22438458 -0.053125776 0.13603604 0.24058598
0.03779455 0.104705356 -0.0021865813 0.030173099 0.12533684 0.18347289 0.07466765 0.028566238
-0.064777605 -0.024634164 0.01797192 0.0338845 -0.08809272 -0.014494331 -0.17257044 -0.1828099
0.051302314 0.031097176 0.077737615 0.140192 -0.11942791 -0.036978804 -0.016850099 -0.02013305
0.0061359494 0.090160735 0.041221846 0.0011701249 -0.013094174 0.03842966 0.18316811 0.2721058
0.16088328 0.11612848 -0.14091945 -0.12772755 -0.24713609 -0.08233228 0.17799182 0.04444904
00000000: bfba 4ebd 7367 9fbd 8fdf 41be 789b afbd
00000010: 6853 833d 4ced c6bd 0c52 d9bd 4e04 f8bd
00000020: b499 373d 87cf b13b c44b e13d 1554 a83d
00000030: 1769 15bd 0569 dc3c 383b 1e3a 021b a33d
00000040: 9dd8 293e 1e32 ab3d b3b8 5c3d 600b cabd
00000050: ab30 233d dd6f b33d f66b 903d f2b5 673d
00000060: 402e aabd 61d6 b0be 174d 34bf 6146 bcbe
00000070: 0013 15bd 1f09 283e ce64 dcbd 7ba1 a2be
00000080: 185b 2abe 183c 263d 5f18 6d3e 864b 96be
00000090: 1b72 25bc 815b 8c3c 18a4 67bc 18e9 babd
000000a0: fa33 d33b de0a b63b 96b4 183e 34be c9bd
000000b0: 7524 f83c beff 3a3d 21bc f73c 0c35 37bd
000000c0: f1a4 d6bd 63a6 13bc 103c 2fbe 4614 90bd
000000d0: 6366 d5bd fa9c 3d3e 86b0 013e 0a47 20be
000000e0: 2f63 94bd 2fef 423d c94c ab3e aee8 a33d
000000f0: 0c77 233d 4e3e 483e a4cf 4f3e 6eab 3dbc
00000100: 6ee6 0cbe 968e 19bd 387a 25bd 0899 a5bd
00000110: 7602 10bc dc6c 0ebd 2a6b 563d 3d50 963d
00000120: 20a5 95bd 9d57 91bd fb4c b13c 0593 073e
00000130: ce00 293d d320 ef3b ea1f 1d3e 40c1 ed3d
00000140: 9e0f 68be a172 34be efd5 a23c cd0b ef3c
00000150: 46ab 503e 2049 a6bc 182b de3d 879f 603d
00000160: 2cfd da3d 96bc a53d 847b 0fbe 86b7 97bd
00000170: e1b1 ae3c 1ac7 663c d73a 22be 1111 11bd
00000180: 1a60 e53d 75ce ad3d a717 823c 28ce 78bd
00000190: 89d4 93be 0cbd 57be d57d b13d dc18 5e3e
000001a0: d1d2 f33e 08b0 83be b3e8 933d 5328 4f3e
000001b0: 7667 1c3d 19a5 e0bc 5a9b d4bd 71ef 55bd
000001c0: aaff 23be abab 92bd f0dd 75bd 33fc 0cbe
000001d0: 13d7 703e 6a13 2a3d 93a8 f63c 74c2 a9bd
000001e0: ef0a 673d 2deb e53d 85ef b2bd a10b fbbb
000001f0: 757b 2f3d b9c0 8a3d f855 d23d 0f8f 063e
00000200: eb34 5a3c a217 843d 8459 1bbe f2b0 b3bb
00000210: 1df8 203d 41bd b43d 22bc f73d 4a46 74bd
00000220: 2432 4e3c a09a 91bd d658 1a3e 6721 7fbd
00000230: 621e 8dbd 2044 653d 1994 d93d eff1 46be
00000240: 963d c2bd 4821 de3d 69e5 4b3d 876d 0b3e
00000250: 1d84 bf3c 7b51 0fbd a62d d0bc c451 7ebe
00000260: 4a2f 5dbe 3242 853d 4ab7 63bd c0dc b0be
00000270: 8095 9fbe 4e8a 71bc 7ab1 dfbd 25da 903c
00000280: 4db5 5f3d 98c8 343d 993a ba3d d43e 013c
00000290: b3a9 06be fb8c 43bd fbfb dc3b 3863 163e
000002a0: 453a dd3d 9f5e 0cbe a8d2 e0bd 419d ab3c
000002b0: 6fc8 193e ad9e 993c 8c84 ebbc 08f8 21be
000002c0: 185b 85be 00af 6bbe 92df 80be c7d4 013d
000002d0: f92f d2be 9ff4 bebe b4e9 53be bdc0 ce3d
000002e0: bfde 123e 2c0e 1a3e c50b 443e e419 793e
000002f0: 424b 4f3e cb3c 033e 8abb f33c 9663 01be
00000300: 88b8 8fbc f315 963d b193 af3d 0920 d2bc
00000310: 6d40 2f3b 5d6c 283c f86a b3bd 0c55 e0bd
00000320: 6c61 afbd 802a ddbc 2ac9 81be c438 9fbe
00000330: 6070 1fbd 1a6b 91be c5a1 95be b06a 39be
00000340: ed7c 5dbd 56b2 873c 9e2c 50be 8808 79bd
00000350: 12c5 653e 6a9a 59bd 084d 0b3e 2c5c 763e
00000360: 75ce 1a3d c36f d63d bf4c 0fbb 932d f73c
00000370: 4d58 003e 51e0 3b3e 5aeb 983d be03 ea3c
00000380: 1faa 84bd 96cd c9bc d939 933c 79ca 0a3d
00000390: f569 b4bd a179 6dbc 4eb6 30be 8532 3bbe
000003a0: 6022 523d 81bf fe3c e634 9f3d 7e8e 0f3e
000003b0: 9f96 f4bd 1677 17bd 3809 8abc 11ee a4bc
000003c0: 1310 c93b 31a6 b83d 3dd8 283d e05e 993a
000003d0: f288 56bc 6b68 1d3d 6c90 3b3e 7451 8b3e
000003e0: 96be 243e c5d4 ed3d 304d 10be 03cb 02be
000003f0: 3e11 7dbe d49d a8bd 7d43 363e 3210 363d

conv3.activation_post_process.histogram f4 [2048]
1.0 0.25 0.75 0.0 0.0 0.0 0.0 0.0
0.0 0.0 0.0 0.0 0.0 0.0 0.0 0.0
0.0 0.0 0.0 0.0 0.0 0.0 0.0 0.0
0.18127441 0.49353027 0.3251953 0.0 0.0 0.0 0.0 0.0
0.0 0.0 0.0 0.0 0.0 0.0 0.3318472 0.81528676
0.65338796 0.18678468 0.012521297 0.00017213821 0.0 0.0 0.0 0.0
0.0 0.0 0.0 0.0 0.0 0.0 0.0 0.0
0.0 0.0 0.0 0.0 0.0 0.0 0.0 0.0
0.0 0.0 0.0 0.0 0.0 0.0 0.0 0.0
0.0 0.0 0.0 0.0 0.0 0.0 0.0 0.0
0.0 0.0 0.0 0.0 0.0 0.0 0.0 0.0
0.0 0.0 0.0 0.0 0.0 0.0 0.0 0.0
0.0 0.0 0.0 0.0 0.0 0.0 0.0 0.0
0.0 0.0 0.0 0.0 0.0 0.0 0.0 0.0
0.0 0.0 0.0 0.0 0.0 0.0 0.0 0.0
0.0 0.0 0.0 0.0 0.0 0.0 0.0 0.0
0.0 0.0 0.0 0.0 0.0 0.0 0.0 0.0
0.0 0.0 0.0 0.0 0.0 0.0 0.0 0.0
0.0 0.0 0.0 0.0 0.0 0.0 0.0 0.17797852
0.49230957 0.3297119 0.099127404 0.33361152 0.37679163 0.16483802 0.024543803 0.0010880232
-1.1920929e-07 -1.1920929e-07 -1.1920929e-07 -1.1920929e-07 -1.1920929e-07 -1.1920929e-07 -1.1920929e-07 -1.1920929e-07
-1.1920929e-07 -1.1920929e-07 -1.1920929e-07 -1.1920929e-07 -1.1920929e-07 -1.1920929e-07 -1.1920929e-07 -1.1920929e-07
-1.1920929e-07 -1.1920929e-07 -1.1920929e-07 -1.1920929e-07 -1.1920929e-07 -1.1920929e-07 -1.1920929e-07 -1.1920929e-07
-1.1920929e-07 -1.1920929e-07 -1.1920929e-07 -1.1920929e-07 -1.1920929e-07 -1.1920929e-07 -1.1920929e-07 -1.1920929e-07
-1.1920929e-07 -1.1920929e-07 -1.1920929e-07 -1.1920929e-07 -1.1920929e-07 -1.1920929e-07 -1.1920929e-07 -1.1920929e-07
-1.1920929e-07 -1.1920929e-07 -1.1920929e-07 0.0074157533 0.07619409 0.26837206 0.39101258 0.2194522
0.036031295 0.001521443 -1.8940773e-07 -2.3446046e-07 -2.795132e-07 1.5227124e-07 1.0721851e-07 6.216578e-08
1.7113052e-08 -2.7939677e-08 -7.299241e-08 -1.18045136e-07 -1.6309787e-07 -2.081506e-07 -2.5320332e-07 1.785811e-07
1.3352837e-07 8.8475645e-08 4.3422915e-08 -1.6298145e-09 -4.6682544e-08 -9.1735274e-08 -1.36788e-07 -1.8184073e-07
-2.2689346e-07 -2.719462e-07 1.5983824e-07 1.1478551e-07 6.973278e-08 2.4680048e-08 -2.0372681e-08 -6.542541e-08
-1.1047814e-07 -1.5553087e-07 -2.005836e-07 -2.4563633e-07 1.861481e-07 1.4109537e-07 9.604264e-08 5.098991e-08
5.9371814e-09 -3.9115548e-08 -8.416828e-08 -1.2922101e-07 -1.7427374e-07 -2.1932647e-07 -2.643792e-07 1.6740523e-07
00000000: 0000 803f 0000 803e 0000 403f 0000 0000
00000010: 0000 0000 0000 0000 0000 0000 0000 0000
00000020: 0000 0000 0000 0000 0000 0000 0000 0000
00000030: 0000 0000 0000 0000 0000 0000 0000 0000
00000040: 0000 0000 0000 0000 0000 0000 0000 0000
00000050: 0000 0000 0000 0000 0000 0000 0000 0000
00000060: 00a0 393e 00b0 fc3e 0080 a63e 0000 0000
00000070: 0000 0000 0000 0000 0000 0000 0000 0000
00000080: 0000 0000 0000 0000 0000 0000 0000 0000
00000090: 0000 0000 0000 0000 e0e7 a93e a2b6 503f
000000a0: 6f44 273f 7c44 3f3e 2026 4d3c 0080 3439
000000b0: 0000 0000 0000 0000 0000 0000 0000 0000
000000c0: 0000 0000 0000 0000 0000 0000 0000 0000
000000d0: 0000 0000 0000 0000 0000 0000 0000 0000
000000e0: 0000 0000 0000 0000 0000 0000 0000 0000
000000f0: 0000 0000 0000 0000 0000 0000 0000 0000
00000100: 0000 0000 0000 0000 0000 0000 0000 0000
00000110: 0000 0000 0000 0000 0000 0000 0000 0000
00000120: 0000 0000 0000 0000 0000 0000 0000 0000
00000130: 0000 0000 0000 0000 0000 0000 0000 0000
00000140: 0000 0000 0000 0000 0000 0000 0000 0000
00000150: 0000 0000 0000 0000 0000 0000 0000 0000
00000160: 0000 0000 0000 0000 0000 0000 0000 0000
00000170: 0000 0000 0000 0000 0000 0000 0000 0000
00000180: 0000 0000 0000 0000 0000 0000 0000 0000
00000190: 0000 0000 0000 0000 0000 0000 0000 0000
000001a0: 0000 0000 0000 0000 0000 0000 0000 0000
000001b0: 0000 0000 0000 0000 0000 0000 0000 0000
000001c0: 0000 0000 0000 0000 0000 0000 0000 0000
000001d0: 0000 0000 0000 0000 0000 0000 0000 0000
000001e0: 0000 0000 0000 0000 0000 0000 0000 0000
000001f0: 0000 0000 0000 0000 0000 0000 0000 0000
00000200: 0000 0000 0000 0000 0000 0000 0000 0000
00000210: 0000 0000 0000 0000 0000 0000 0000 0000
00000220: 0000 0000 0000 0000 0000 0000 0000 0000
00000230: 0000 0000 0000 0000 0000 0000 0000 0000
00000240: 0000 0000 0000 0000 0000 0000 0000 0000
00000250: 0000 0000 0000 0000 0000 0000 0040 363e
00000260: 0010 fc3e 00d0 a83e 4f03 cb3d 21cf aa3e
00000270: d5ea c03e 4ccb 283e 1610 c93c 009c 8e3a
00000280: 0000 00b4 0000 00b4 0000 00b4 0000 00b4
00000290: 0000 00b4 0000 00b4 0000 00b4 0000 00b4
000002a0: 0000 00b4 0000 00b4 0000 00b4 0000 00b4
000002b0: 0000 00b4 0000 00b4 0000 00b4 0000 00b4
000002c0: 0000 00b4 0000 00b4 0000 00b4 0000 00b4
000002d0: 0000 00b4 0000 00b4 0000 00b4 0000 00b4
000002e0: 0000 00b4 0000 00b4 0000 00b4 0000 00b4
000002f0: 0000 00b4 0000 00b4 0000 00b4 0000 00b4
00000300: 0000 00b4 0000 00b4 0000 00b4 0000 00b4
00000310: 0000 00b4 0000 00b4 0000 00b4 0000 00b4
00000320: 0000 00b4 0000 00b4 0000 00b4 d9ff f23b
00000330: a60b 9c3d 1068 893e cd32 c83e 14b8 603e
00000340: 8d95 133d 286b c73a 0060 4bb4 00c0 7bb4
00000350: 0010 96b4 0080 2334 0040 e633 0080 8533
00000360: 0000 9332 0000 f0b2 00c0 9cb3 0080 fdb3
00000370: 0020 2fb4 0080 5fb4 00f0 87b4 00c0 3f34
00000380: 0060 0f34 0000 be33 0080 3a33 0000 e0b0
00000390: 0080 48b3 0000 c5b3 00e0 12b4 0040 43b4
000003a0: 00a0 73b4 0000 92b4 00a0 2b34 0080 f633
000003b0: 00c0 9533 0000 d432 0000 afb2 0080 8cb3
000003c0: 0040 edb3 0000 27b4 0060 57b4 00e0 83b4
000003d0: 00e0 4734 0080 1734 0040 ce33 0000 5b33
000003e0: 0000 cc31 0000 28b3 00c0 b4b3 00c0 0ab4
000003f0: 0020 3bb4 0080 6bb4 00f0 8db4 00c0 3334

fc1.weight f4 [84, 120]
0.14518592 0.00034607854 0.026851527 0.03745367 0.024443548 -0.3156179 0.038437646 -0.025567405
-0.050459567 -0.102732405 0.13478169 -0.11561659 -0.20820104 -0.015387999 0.06866806 0.009962149
0.0017881438 -0.009490225 -0.15665065 -0.115406856 -0.13389583 0.2541563 -0.051886033 -0.045149524
0.17988458 -0.09074203 -0.045215752 0.15547699 -0.13075623 0.084924206 0.121254474 0.18206629
0.11124991 -0.062309112 0.11014932 0.060882933 -0.00012423967 -0.057030328 0.12974852 -0.0435455
0.15848033 0.043622494 -0.072579645 0.01288776 0.040720377 -0.016594056 -0.0060447985 0.025701195
0.21648043 -0.29799733 0.119606964 -0.031477828 0.1655195 -0.0005895405 0.0066293944 0.050304476
0.27632362 -0.0013583486 0.012266491 0.17094119 -0.17169829 0.35842678 -0.075383596 0.001335107
-0.03536133 0.023794115 0.08692802 0.07733055 -0.050589297 -0.10230957 0.20604078 0.1540016
-0.082226254 0.025804564 0.036295965 0.064349584 0.114466235 -0.0034826943 0.00454358 -0.16181341
0.14405791 -0.24065751 0.04060495 0.21455337 -0.008628068 0.25296322 0.04566194 -0.13055417
-0.043166243 0.12609118 0.1691843 -0.27054775 0.108187996 -0.029218538 -0.08691849 -0.031624548
0.055571485 0.062148944 0.0041817627 -0.08795849 0.05693465 0.020452842 0.09620088 0.104219675
-0.08550546 -0.06563706 -0.034134436 0.09599025 0.010479198 -0.16060759 -0.046145037 -0.18086813
-0.059813213 -0.25540966 0.08288284 -0.21973093 -0.026802681 -0.013268671 -0.071855016 0.09842563
-0.13413763 -0.024152594 0.11045598 0.034629207 0.06354564 0.09649158 -0.010767758 -0.08634412
-0.02353662 0.044521853 -0.07598474 0.10755272 0.24935503 0.16148217 -0.02021452 0.059268113
-0.062400695 -0.17319393 -0.040041912 0.026879879 0.069499195 -0.0908588 -0.06935085 0.22452822
-0.42995527 0.0038678646 -0.2183999 -0.046619724 -0.062420744 -0.09097125 -0.09302047 0.08515687
-0.0942209 -0.07761644 -0.16355965 0.29550618 -0.07821805 -0.06302042 -0.12130612 0.07769412
-0.06391946 0.07261406 -0.14626142 0.09261454 0.03220649 -0.54804385 0.0804531 0.016072694
0.15296233 0.09613266 0.1560845 0.094229355 0.13035676 -0.0006708225 0.025943734 -0.033975314
-0.2837243 0.081980705 -0.01648657 -0.21472943 0.08044505 0.11570068 -0.02230531 -0.07575809
0.00906357 -0.4490988 -0.015499007 -0.13167405 -0.0071078837 -0.027578764 -0.45337918 -0.018972544
0.09066558 -0.034250658 -0.13582693 0.077804096 0.18178713 0.020503644 -0.2728478 0.021208212
0.058047436 0.039817322 -0.048007935 0.06529202 0.01762454 0.011109908 0.16228178 0.37006998
0.04425104 0.11347455 -0.09001091 0.097332746 -0.030162774 0.065678224 0.092321925 0.1291177
-0.040072404 0.08974794 -0.24563763 0.06559552 -0.28658256 0.03596321 -0.27731055 -0.29013693
-0.000679082 -0.08715351 0.091133446 0.13769591 0.05221632 0.042578902 0.031850494 -0.11273608
-0.011278105 0.12868735 -0.11622531 0.12911075 -0.0600064 0.040807724 -0.070384905 -0.090556294
-0.20337255 -0.29794198 -0.03715045 0.08271347 0.12042243 0.0032256886 -0.008351863 0.042888086
0.029688936 -0.009079685 0.042754672 0.09021188 0.14466065 0.12791108 0.053694945 -0.045117535
00000000: 9eab 143e e071 b539 bcf7 db3c 0569 193d
00000010: d63d c83c ab98 a1be cb70 1d3d bc72 d1bc
00000020: b1ae 4ebd 5e65 d2bd 3604 0a3e 64c8 ecbd
00000030: a732 55be f21d 7cbc d7a1 8c3d 4838 233c
00000040: 2660 ea3a e47c 1bbc 0769 20be 6e5a ecbd
00000050: fd1b 09be c620 823e 7386 54bd b5ee 38bd
00000060: aa33 383e f5d6 b9bd 2734 39bd 5c35 1f3e
00000070: f6e4 05be beec ad3d 4454 f83d 966f 3a3e
00000080: fed6 e33d d737 7fbd f795 e13d 6260 793d
00000090: 5546 02b9 a298 69bd ccdc 043e c45c 32bd
000000a0: ab48 223e 80ad 323d a3a4 94bd 2f27 533c
000000b0: 69ca 263d 42f0 87bc 7213 c6bb 508b d23c
000000c0: 0cad 5d3e 1b93 98be 7ff4 f43d e5ee 00bd
000000d0: f27d 293e 658b 1aba 643b d93b 110c 4e3d
000000e0: 4a7a 8d3e 9e0a b2ba 64f9 483c 350b 2f3e
000000f0: add1 2fbe b783 b73e b762 9abd c2fe ae3a
00000100: 0bd7 10bd e0eb c23c 5107 b23d 7b5f 9e3d
00000110: b936 4fbd ae87 d1bd 5bfc 523e 98b2 1d3e
00000120: 3d66 a8bd 1864 d33c 14ab 143d b7c9 833d
00000130: 466d ea3d ea3d 64bb 50e2 943b 6ab2 25be
00000140: eb83 133e ec6e 76be 6051 263d e1b3 5b3e
00000150: bd5c 0dbc 6584 813e 0408 3b3d feaf 05be
00000160: 16cf 30bd 0c1e 013e a63e 2d3e 3c85 8abe
00000170: ab91 dd3d b75b efbc 5202 b2bd be88 01bd
00000180: ed9e 633d e48f 7e3d 2b07 893b 9523 b4bd
00000190: 4f34 693d b88c a73c f804 c53d 2071 d53d
000001a0: 7d1d afbd b96c 86bd 8dd0 0bbd 8996 c43d
000001b0: f1b0 2b3c 5176 24be 9402 3dbd 7f35 39be
000001c0: b3fe 74bd 0ec5 82be 7abe a93d 2501 61be
000001d0: 4c91 dbbc d764 59bc b928 93bd 6093 c93d
000001e0: 605b 09be a9db c5bc bf36 e23d 5bd7 0d3d
000001f0: 3724 823d 619d c53d 406b 30bc 30d5 b0bd
00000200: dfcf c0bc 8c5c 363d e39d 9bbd 9a44 dc3d
00000210: ed56 7f3e 955b 253e ec98 a5bc 1fc3 723d
00000220: df97 7fbd c059 31be fd02 24bd 3133 dc3c
00000230: 9855 8e3d 2e14 babd d207 8ebd baea 653e
00000240: 1923 dcbe 007c 7d3b 39a4 5fbe 53f4 3ebd
00000250: e5ac 7fbd 224f babd 8481 bebd ba66 ae3d
00000260: e3f6 c0bd 5ef5 9ebd 2e7c 27be 964c 973e
00000270: c930 a0bd da10 81bd 586f f8bd 181e 9f3d
00000280: 35e8 82bd aeb6 943d 8ec5 15be b1ac bd3d
00000290: f4ea 033d 9a4c 0cbf 98c4 a43d e2aa 833c
000002a0: 28a2 1c3e 33e1 c43d 9dd4 1f3e 52fb c03d
000002b0: 3e7c 053e 23da 2fba f487 d43c b329 0bbd
000002c0: 5044 91be 80e5 a73d d80e 87bc 08e2 5bbe
000002d0: 60c0 a43d 7af4 ec3d a0b9 b6bc 0f27 9bbd
000002e0: 5e7f 143c 47f0 e5be 8cef 7dbc 90d5 06be
000002f0: 40e9 e8bb dcec e1bc 5121 e8be 4f6c 9bbc
00000300: e0ae b93d 6b4a 0cbd 3716 0bbe c157 9f3d
00000310: 6826 3a3e 42f7 a73c b5b2 8bbe d8bc ad3c
00000320: 26c3 6d3d 7d17 233d f8a3 44bd d3b7 853d
00000330: 5761 903c 5506 363c 322d 263e d079 bd3e
00000340: 9440 353d 5865 e83d a457 b8bd 6456 c73d
00000350: ec17 f7bc 4e82 863d 4713 bd3d 6e37 043e
00000360: f622 24bd c5cd b73d 6e88 7bbe f256 863d
00000370: f3ba 92be 294e 133d a6fb 8dbe d48c 94be
00000380: 6c04 32ba 8a7d b2bd 2ca4 ba3d 2800 0d3e
00000390: c8e0 553d 3767 2e3d aa75 023d 2de2 e6bd
000003a0: cdc7 38bc 9ec6 033e 8907 eebd 9c35 043e
000003b0: 45c9 75bd 0026 273d f625 90bd 9475 b9bd
000003c0: e540 50be da8b 98be 122b 18bd ae65 a93d
000003d0: 09a0 f63d 1366 533b 41d6 08bc 6bab 2f3d
000003e0: 3636 f33c f6c2 14bc 861f 2f3d 02c1 b83d
000003f0: ec21 143e 1ffb 023e 3bef 5b3d 2acd 38bd
