experiments/exp007/checkpoint.pth (torch, 793954 bytes, 21 tensors)

quant.activation_post_process.histogram f4 [2048]
0	0x48c7bbe9	409055.28
1	0x41b95948	23.168594
2	0x440aefcc	555.7468
3	0x4548acbf	3210.7966
4	0x45adb252	5558.29
5	0x45a7a35c	5364.42
6	0x45e4bb71	7319.43
7	0x4656f191	13756.392
8	0x4551ccf9	3356.8108
9	0x4436a27c	730.5388
10	0x4608d8f5	8758.239
11	0x458c7c79	4495.559
12	0x44a5dba4	1326.8638
13	0x44d743bf	1722.1171
14	0x45d79ce9	6899.614
15	0x4551f38e	3359.2222
16	0x45fcf461	8094.5474
17	0x44ba987b	1492.765
18	0x422bf4c0	42.989014
19	0x42abba68	85.864075
20	0x4473bd87	974.96136
21	0x46033169	8396.353
22	0x44fd2fd2	2025.4944
23	0x423c65e9	47.09952
24	0x43616529	225.39516
25	0x42508917	52.133877
26	0x42d1051d	104.50999
27	0x43ad5a2c	346.70447
28	0x4481a562	1037.1682
29	0x44efe20d	1919.0641
30	0x418f1573	17.885473
31	0x43437393	195.45146
32	0x459173aa	4654.458
33	0x452baf16	2746.9429
34	0x4286cdab	67.401695
35	0x4381c766	259.5578
36	0x449edd19	1270.9093
37	0x4310b0aa	144.6901
38	0x42e061d7	112.19109
39	0x41c043b5	24.03306
40	0x4200eed1	32.23322
41	0x42234cd4	40.825027
42	0x432d07c0	173.03027
43	0x44d162ef	1675.0917
44	0x44300860	704.13086
45	0x429103f0	72.50769
46	0x40c6632d	6.1996064
47	0x419f7db0	19.93637
48	0x43d0cf4d	417.61954
49	0x44c542fb	1578.0931
50	0x43f8aafd	497.33585
51	0x43b0a0aa	353.2552
52	0x41e3d740	28.480103
53	0x41be62cb	23.798239
54	0x442768cc	669.63745
55	0x4349fe46	201.99326
56	0x40cc98f2	6.39367
57	0x428dfd7a	70.99507
58	0x43a28b5a	325.08868
59	0x419c470d	19.534693
60	0x421a883c	38.63304
61	0x41bfe1ea	23.98531
62	0x4107dfae	8.492109
63	0x3f431969	0.7621065
64	0x4323328a	163.19742
65	0x4502ceb0	2092.918
66	0x4410e1e9	579.52985
67	0x4018e930	2.3892326
68	0x3ef6cb0d	0.4820179
69	0x414d95d8	12.849083
70	0x4151557c	13.08337
71	0x41b5528f	22.665312
72	0x42c699db	99.3005
73	0x42f617bf	123.04638
74	0x41075094	8.457172
75	0x41878735	16.94102
76	0x437b7978	251.47449
77	0x428baf14	69.84195
78	0x40b6ba47	5.710239
79	0x4214e7dd	37.22643
80	0x43001022	128.06302
81	0x43575094	215.31476
82	0x43d73fe2	430.49908
83	0x41b81503	23.01026
84	0x3f128476	0.5723337
85	0x3ff9a5a6	1.9503677
86	0x41d0f72e	26.120693
87	0x435bf61e	219.9614
88	0x42a8c85a	84.39131
89	0x3e0e7764	0.13912731
90	0x3f2b6baf	0.6696119
91	0x3f8c87ba	1.097892
92	0x400f78fd	2.2417595
93	0x4115dafb	9.365962
94	0x42185e25	38.091938
95	0x4234e8c0	45.227295
96	0x3f5f1658	0.8714347
97	0x426ef8cd	59.74297
98	0x43d192ec	419.14783
99	0x42c3e306	97.943405
100	0x40af07c2	5.469697
101	0x419102fb	18.126455
102	0x42382b97	46.04257
103	0x40a0b275	5.0217843
104	0x4020eee2	2.5145802
105	0x3eb87e8b	0.36034045
106	0x3f8f546d	1.119764
107	0x3f3f5242	0.7473489
108	0x4191f09f	18.24249
109	0x42e7a1ac	115.815765
110	0x4205cf5a	33.45249
111	0x40149f6d	2.3222306
112	0x3fa090a5	1.2544142
113	0x3fc51171	1.5395948
114	0x42b1d8a6	88.92314
115	0x435c4b46	220.29404
116	0x41ea6c12	29.302769
117	0x41852c77	16.646711
118	0x3f5b1657	0.8558096
119	0x40f21d95	7.566111
120	0x4289962a	68.79329
121	0x416dad95	14.854878
122	0x3f93c576	1.1544635
123	0x41266336	10.399221
124	0x41a678b7	20.808943
125	0x402e7f5d	2.7265236
126	0x3fbb927b	1.4654077
127	0x3f57ebe0	0.8434429
128	0x3f35d7f8	0.7103267
129	0x3edb1e88	0.4279673
130	0x42052bdd	33.292835
131	0x43a8542a	336.65753
132	0x42c78d1d	99.77561
133	0x3c217c2e	0.009856267
134	0x3e0dc71b	0.13845484
135	0x3fc6a515	1.5519129
136	0x3e9b49ae	0.3032965
137	0x3eecdee8	0.46263814
138	0x4160f03b	14.05865
139	0x41437fb3	12.218677
140	0x3fa6cde5	1.3031584
141	0x40d9fbd2	6.81199
142	0x4208cf32	34.20234
143	0x409d16ab	4.909017
144	0x3e11217e	0.14172933
145	0x4100041f	8.001006
146	0x415e633a	13.899225
147	0x41c39a51	24.45035
148	0x42bb6a9a	93.708206
149	0x3f5abdb7	0.8544573
150	0xbc190a83	-0.009340885
151	0x3e77a77a	0.24184981
152	0x41024add	8.143277
153	0x41eacff6	29.351543
154	0x40e54290	7.1643753
155	0x3f02d805	0.5111087
156	0x3efdc5ab	0.4956487
157	0x3f6e974d	0.93199617
158	0x3dd64a18	0.10463351
159	0x3f1f3d43	0.6220285
160	0x411d1458	9.817467
161	0x40c92f8c	6.287054
162	0x3f81e3b1	1.0147611
163	0x419900ca	19.125385
164	0x428aa22c	69.31674
165	0x4109163b	8.567927
166	0x3e987042	0.29773146
167	0x403773b7	2.8664377
168	0x41032771	8.197129
169	0x3f696d58	0.9118247
170	0x3bb7ac0d	0.005605227
171	0xbc430b84	-0.011904601
172	0x3c8091b2	0.015694473
173	0x3dcc3736	0.09971468
174	0x40786456	3.881124
175	0x41acda77	21.606672
176	0x40acdb34	5.401758
177	0x3bf0f4fa	0.007353422
178	0xbbad25aa	-0.005284031
179	0x400e4731	2.2230952
180	0x41e95a1b	29.168997
181	0x41c1458b	24.158957
182	0x406f0347	3.734575
183	0x3fd676a8	1.6754961
184	0x3d97d34c	0.074133486
185	0x40187a9e	2.382484
186	0x4146a314	12.414814
187	0x4033b167	2.8077028
188	0x3eb33fb6	0.35009545
189	0x3fb0bde3	1.3807949
190	0x402073ce	2.5070682
191	0x3dd792d5	0.10526053
192	0x3c95f2fa	0.018304337
193	0x3f467a46	0.77530324
194	0x3e21d228	0.15802824
195	0x3ee0fc43	0.4394246
196	0x41bc52f0	23.540497
197	0x42c82daf	100.089226
198	0x40f9cabe	7.805999
199	0x3d806b12	0.06270422
200	0xbc63e439	-0.013909393
201	0xbd0737fa	-0.033012368
202	0x3d51b4b9	0.05119774
203	0x3f4f87a9	0.81066376
204	0x409b6676	4.8562574
205	0x3ea92588	0.33036447
206	0x3da1699d	0.07881472
207	0x40797ec1	3.8983614
208	0x40ad2c21	5.411637
209	0x3f42fe1e	0.76169
210	0x3f90d521	1.1315042
211	0x40a87484	5.264223
212	0x40ceb11d	6.4591203
213	0x41a79141	20.945925
214	0x409aa468	4.832569
215	0x3e40579a	0.18783417
216	0xbce23611	-0.027613671
217	0x3e036cf0	0.12834525
218	0x3ff7aaec	1.9349036
219	0x40a10879	5.0322843
220	0x3f5b9550	0.8577471
221	0x3d597ba0	0.053096414
222	0xbca27188	-0.019829527
223	0xbc402668	-0.011727907
224	0xbcae5530	-0.021280855
225	0x3f259c33	0.64691466
226	0x409f18ad	4.971762
227	0x3eaacadd	0.33357897
228	0x3c2e0225	0.0106206285
229	0x40949d10	4.6441727
230	0x418ef094	17.86747
231	0x3fb4e574	1.4132524
232	0x3df16509	0.11786849
233	0x4040fdbb	3.0154865
234	0x3f4972bb	0.7869069
235	0x3d8fcd66	0.070215985
236	0x3cd6245d	0.026140386
237	0x3c802544	0.01564277
238	0x3c8c4edf	0.017127452
239	0x3e3fcb94	0.18730003
240	0x4065fb5f	3.5934675
241	0x412c4178	10.765984
242	0x3ee65049	0.44983128
243	0x3d1fd87a	0.039024808
244	0x3cb92ed1	0.022605332
245	0x3f8ff17f	1.1245574
246	0x412e6d5e	10.901701
247	0x4019291a	2.3931336
248	0x3fa02624	1.251164
249	0x3eaef9b9	0.34174898
250	0x3d2b90f5	0.04188629
251	0x3fe99593	1.8248771
252	0x403fd599	2.997412
253	0x3e6e40ac	0.23266858
254	0x3ea90dab	0.3301824
255	0x3fd45e5e	1.6591299

conv1.weight f4 [6, 2, 5, 5]
0	0xbd624b45	-0.055247564
1	0xbd91f0aa	-0.07125981
2	0x3dab81f8	0.08374399
3	0x3d7e1735	0.06203385
4	0xbd82a524	-0.06379154
5	0x3dca3991	0.09874261
6	0x3a86d476	0.0010286707
7	0xbdd863f1	-0.10565937
8	0xbe0a8824	-0.13528496
9	0xbe168898	-0.14700544
10	0x3e182583	0.1485806
11	0x3e19e0cc	0.1502716
12	0x3db1fbc1	0.08690596
13	0x3ce0a34f	0.027421622
14	0x3d70fd28	0.05883518
15	0xbc2996ca	-0.010350892
16	0xbcc81d7c	-0.024428122
17	0xbd7acfbd	-0.06123327
18	0x3c85f9ca	0.01635446
19	0x3e1cd9c6	0.15317449
20	0x3e1f09be	0.1553106
21	0xbb651b9a	-0.0034959079
22	0xbd42bb6b	-0.047542017
23	0x3dfede2f	0.12444722
24	0x3d579f3c	0.052642092
25	0xbd861bc6	-0.06548266
26	0x3cbd9d45	0.023146281
27	0xbe1b7a70	-0.15183425
28	0xbd4fbedc	-0.050719127
29	0xbda36eac	-0.07980093
30	0xbd512f69	-0.051070604
31	0x3d37c3da	0.044864513
32	0x3dbd86d3	0.09254231
33	0xbe1beb73	-0.15226535
34	0xbc7c3d43	-0.015395465
35	0x3dee4627	0.11634474
36	0xbd1a095a	-0.037606575
37	0x3c75e403	0.0150079755
38	0xbdd8677d	-0.10566614
39	0x3dd0557e	0.10172556
40	0xbe057f62	-0.13036874
41	0xbd1422c1	-0.036165956
42	0x3d6c5604	0.05769922
43	0xbd978d79	-0.07400031
44	0xbd3d583a	-0.046226718
45	0x3d59d1fe	0.05317878
46	0x3d327ebf	0.043577906
47	0xbca00373	-0.019532895
48	0xbde66c99	-0.11251182
49	0x3d46b4db	0.04851232
50	0x3c662460	0.014046758
51	0x3c93953a	0.018015493
52	0xbd200522	-0.039067395
53	0xbe07026e	-0.1318452
54	0x3da78a64	0.08180693
55	0xbdfdcc24	-0.12392452
56	0x3c1050a6	0.008808291
57	0x3d524047	0.05133083
58	0xbdf11c5e	-0.11772989
59	0x3e0314e0	0.12800932
60	0x3e1ea4c0	0.15492535
61	0x3e090b57	0.13383232
62	0x3d17be18	0.037046522
63	0xbc6232c0	-0.013806045
64	0xbdb9277f	-0.090407364
65	0x3e193f79	0.14965619
66	0xbd1ff36e	-0.039050512
67	0x3e01f764	0.12692028
68	0x3de07b26	0.10960989
69	0x3df522f3	0.11969557
70	0xbd47115c	-0.04860054
71	0xbda23ed0	-0.07922137
72	0xbd92aaad	-0.0716146
73	0xbd56a316	-0.052401625
74	0xbe0533f8	-0.13008106
75	0x3e215942	0.15756705
76	0xbe0c7a57	-0.13718544
77	0x3c3a3f2c	0.0113676
78	0xbdc18cbd	-0.09450672
79	0xbd595153	-0.053056072
80	0xbe07ab86	-0.13249025
81	0xbd27ab99	-0.040935133
82	0x3db5d755	0.08878962
83	0x3dc63227	0.096775346
84	0x3af1e687	0.0018455543
85	0xbd5e3fcd	-0.054260064
86	0x3cb46a89	0.022023456
87	0x3e345969	0.17612232
88	0xbdc53bd5	-0.09630553
89	0xbd76b449	-0.060230527
90	0xbd4e5868	-0.05037728
91	0x3ddb076d	0.10694776
92	0x3d63cf74	0.055617765
93	0xbcb014c4	-0.021494277
94	0xbdaa05e9	-0.083019085
95	0xbe0f3e4f	-0.13988613
96	0x3d92de8d	0.071713544
97	0x3dc2b1c9	0.09506566
98	0xbd42fc13	-0.047603678
99	0x3d20fd1b	0.03930388
100	0x3d9dbdd4	0.077022225
101	0x3dd530bc	0.10409686
102	0xbd136410	-0.0359841
103	0xbd32ffc1	-0.043700937
104	0xbc65fa98	-0.014036797
105	0xbde41b57	-0.11138027
106	0x3d8b7f2a	0.06811364
107	0x3c1353f0	0.00899218
108	0x3dfe9e76	0.12432568
109	0xbd80ee9b	-0.062955104
110	0x3db39e8d	0.087704755
111	0xbe03176e	-0.12801906
112	0xbdd721a0	-0.1050446
113	0x3d4ace84	0.049513355
114	0x3ca7a054	0.020462193
115	0x3c85aa26	0.016316485
116	0xbe2dacb6	-0.16960415
117	0xbc494bf5	-0.012286176
118	0xbde50c69	-0.11184008
119	0x3d066986	0.03281548
120	0xbe1cd393	-0.15315084
121	0x3d94b99f	0.07261967
122	0xbda1d6f1	-0.07902325
123	0xbde5d7b3	-0.11222782
124	0x3cc01ac4	0.023450263
125	0x3c6dd154	0.01451524
126	0x3e291ad8	0.16514146
127	0xbd11e80b	-0.035621684
128	0x3dd2b583	0.10288527
129	0x3db25456	0.08707492
130	0x3e38d39d	0.18049474
131	0x3e309a1a	0.17246285
132	0xbd86add8	-0.06576127
133	0x3d2f9e96	0.04287585
134	0x3d4783d2	0.048709698
135	0xbe104b84	-0.14091307
136	0xbd5a5f9b	-0.053313833
137	0x3d886699	0.06660194
138	0x3db72d13	0.08944144
139	0xbd9ce889	-0.0766154
140	0xbe1ca4ae	-0.15297195
141	0xbda52dcd	-0.080653764
142	0xbe051111	-0.12994792
143	0x3ded5cd7	0.115899734
144	0x3e29f550	0.16597486
145	0xbc0dbb74	-0.008650649
146	0xbe0a3178	-0.13495433
147	0x3df308a7	0.11866885
148	0x3d8b36e4	0.06797579
149	0xbc93e7e3	-0.018054908
150	0xbdd0cb2f	-0.10195004
151	0xbdcb46fe	-0.0992565
152	0x3dea2472	0.11432733
153	0xbcbfe5ff	-0.0234251
154	0x3d002b5f	0.031291362
155	0xbc013d93	-0.007888216
156	0x3cdd2d9b	0.026999285
157	0x3ccba54c	0.024859093
158	0x3a027da3	0.0004977828
159	0xbdc03340	-0.09384775
160	0xbde1e2cd	-0.11029587
161	0xbe04fb4d	-0.12986489
162	0x3de437b4	0.11143437
163	0x3ddb00f9	0.10693545
164	0x3de0f5dd	0.10984395
165	0xbe144f6d	-0.14483424
166	0xbdf69116	-0.12039392
167	0xbd80326d	-0.06259618
168	0x3d9b745e	0.07590555
169	0x3df953e9	0.12174208
170	0xbe02782f	-0.12741159
171	0x3cd6c23d	0.026215667
172	0xbdb72f55	-0.08944575
173	0xbaa7c701	-0.0012800397
174	0x3e0fd080	0.1404438
175	0x3e379c53	0.17930727
176	0x3e0edfc4	0.13952547
177	0xbe023e1a	-0.12719002
178	0x3e1e7fc3	0.15478425
179	0x3bc04dd2	0.005868652
180	0xbdde2969	-0.10847742
181	0xbdfb938d	-0.122840025
182	0x3cb1f210	0.02172187
183	0x3c4816a9	0.012212434
184	0xbd9f26b7	-0.07771056
185	0x3c26989c	0.010168221
186	0xbde76a87	-0.11299615
187	0x3d91d2d8	0.071202934
188	0xbb928bef	-0.004472248
189	0xbd729fb0	-0.05923432
190	0x3e46ee57	0.19426857
191	0x3d85a906	0.06526379
192	0xbd180130	-0.037110507
193	0x3d2364a4	0.0398909
194	0xbe0853a4	-0.13313156
195	0xbda729ce	-0.081622705
196	0x3e07d691	0.13265444
197	0x3df65db7	0.120295934
198	0xbd0806d1	-0.033209626
199	0x3e017250	0.12641263
200	0xbe0ea1c9	-0.13928904
201	0xbdfc1c06	-0.123100325
202	0xbe2d7545	-0.16939266
203	0x3db77fa8	0.08959895
204	0x38a28f0c	7.7514065e-05
205	0xbd209f1b	-0.039214235
206	0xbd7121f4	-0.05887027
207	0xbd85cede	-0.065335974
208	0x3d62ee81	0.055403236
209	0x3c5453f2	0.012959467
210	0xbdcfa84f	-0.10139524
211	0x3d85564e	0.06510602
212	0xbca825a5	-0.020525763
213	0x3db84358	0.0899722
214	0xbdc37c19	-0.09545154
215	0xbe0ded7f	-0.13860129
216	0xbcf20142	-0.029541615
217	0x3cb78cb8	0.022405967
218	0x3def9867	0.1169899
219	0x3e10d026	0.14141902
220	0xbe0236f1	-0.12716271
221	0xbd9c9bdb	-0.076469146
222	0xbe16b548	-0.14717591
223	0xbda2603e	-0.07928513
224	0x3d5b7b95	0.053584654
225	0x3dccaf89	0.09994418
226	0x3d825892	0.0636455
227	0x3e0f956b	0.14021842
228	0x3e309bf2	0.17246988
229	0xbbbcf310	-0.00576628
230	0x3d6113c9	0.05495051
231	0x3e3b6787	0.18301211
232	0x3cebb31b	0.028771928
233	0x3e1f3ac6	0.15549764
234	0x3e0be21d	0.13660474
235	0x3bda3b59	0.006659907
236	0x3dcda467	0.10041123
237	0x3e2688d2	0.1626313
238	0xbc33b7e2	-0.010969134
239	0x3d861c5a	0.065483764
240	0xbe1e854f	-0.1548054
241	0x3d49fea6	0.049315117
242	0xbd08181c	-0.033226117
243	0xbcf6e199	-0.03013687
244	0x3d7b8bb3	0.061412524
245	0xbd780e52	-0.060560532
246	0xbd0e6cad	-0.03477161
247	0x3d274287	0.04083493
248	0x3c92e03a	0.017929185
249	0xbd8c292e	-0.06843792
250	0xbb400966	-0.0029302477
251	0x3e1533b4	0.14570504
252	0x3e428329	0.18995346
253	0x3c38f775	0.011289467
254	0x3d53cc17	0.051708307
255	0x3e1b7dcc	0.15184706

conv1.activation_post_process.histogram f4 [2048]
0	0x3f800000	1.0
1	0x00000000	0.0
2	0x00000000	0.0
3	0x00000000	0.0
4	0x00000000	0.0
5	0x00000000	0.0
6	0x00000000	0.0
7	0x00000000	0.0
8	0x00000000	0.0
9	0x00000000	0.0
10	0x00000000	0.0
11	0x00000000	0.0
12	0x00000000	0.0
13	0x00000000	0.0
14	0x00000000	0.0
15	0x00000000	0.0
16	0x00000000	0.0
17	0x00000000	0.0
18	0x00000000	0.0
19	0x00000000	0.0
20	0x00000000	0.0
21	0x3f880000	1.0625
22	0x3f700000	0.9375
23	0x00000000	0.0
24	0x00000000	0.0
25	0x00000000	0.0
26	0x00000000	0.0
27	0x00000000	0.0
28	0x00000000	0.0
29	0x00000000	0.0
30	0x00000000	0.0
31	0x00000000	0.0
32	0x00000000	0.0
33	0x00000000	0.0
34	0x3c4c0000	0.012451172
35	0x3e3e8000	0.18603516
36	0x3f02a800	0.510376
37	0x3e951000	0.2911377
38	0x00000000	0.0
39	0x00000000	0.0
40	0x00000000	0.0
41	0x00000000	0.0
42	0x00000000	0.0
43	0x00000000	0.0
44	0x00000000	0.0
45	0x00000000	0.0
46	0x00000000	0.0
47	0x00000000	0.0
48	0x00000000	0.0
49	0x3daed080	0.08535862
50	0x3efc5faa	0.49291736
51	0x3f4aff7d	0.79296094
52	0x3efe1bae	0.49630493
53	0x3dfc6830	0.1232456
54	0x3c16ef80	0.009212375
55	0xb4000000	-1.1920929e-07
56	0xb4000000	-1.1920929e-07
57	0xb4000000	-1.1920929e-07
58	0xb4000000	-1.1920929e-07
59	0xb4000000	-1.1920929e-07
60	0xb4000000	-1.1920929e-07
61	0xb4000000	-1.1920929e-07
62	0xb4000000	-1.1920929e-07
63	0xb4000000	-1.1920929e-07
64	0xb4000000	-1.1920929e-07
65	0xb4000000	-1.1920929e-07
66	0xb4000000	-1.1920929e-07
67	0xb4000000	-1.1920929e-07
68	0xb4000000	-1.1920929e-07
69	0xb4000000	-1.1920929e-07
70	0xb4000000	-1.1920929e-07
71	0x3de09671	0.109661944
72	0x3f113c07	0.5673222
73	0x3e8eb123	0.2786952
74	0x3d2dc9cf	0.042428788
75	0x3af7e85c	0.0018913853
76	0x3ba95733	0.0051678657
77	0x3e0090b8	0.12555206
78	0x3ee4d0ac	0.44690454
79	0x3eb7914f	0.3585305
80	0x3d7b22b0	0.061312377
81	0x3b25e7e0	0.002531521
82	0x346bc000	2.195593e-07
83	0x34efc000	4.4656917e-07
84	0x34534000	1.967419e-07
85	0x34e38000	4.2375177e-07
86	0x343ac000	1.7392449e-07
87	0x34d74000	4.0093437e-07
88	0x34224000	1.5110709e-07
89	0x34cb0000	3.7811697e-07
90	0x3409c000	1.2828968e-07
91	0x34bec000	3.5529956e-07
92	0x33e28000	1.0547228e-07
93	0x34b28000	3.3248216e-07
94	0x33b18000	8.265488e-08
95	0x34a64000	3.0966476e-07
96	0x33808000	5.9837475e-08
97	0x349a0000	2.8684735e-07
98	0x331f0000	3.7020072e-08
99	0x348dc000	2.6402995e-07
100	0x32740000	1.4202669e-08
101	0x34818000	2.4121255e-07
102	0xb2140000	-8.614734e-09
103	0x346a8000	2.1839514e-07
104	0x34ef2000	4.4540502e-07
105	0x34520000	1.9557774e-07
106	0x34e2e000	4.2258762e-07
107	0x34398000	1.7276034e-07
108	0x34d6a000	3.9977022e-07
109	0x34210000	1.4994293e-07
110	0x34ca6000	3.769528e-07
111	0x34088000	1.2712553e-07
112	0x34be2000	3.541354e-07
113	0x33e00000	1.0430813e-07
114	0x34b1e000	3.31318e-07
115	0x33af0000	8.1490725e-08
116	0x34a5a000	3.085006e-07
117	0x337c0000	5.8673322e-08
118	0x34996000	2.856832e-07
119	0x331a0000	3.585592e-08
120	0x348d2000	2.628658e-07
121	0x32600000	1.3038516e-08
122	0x3480e000	2.400484e-07
123	0xb2280000	-9.778887e-09
124	0x34694000	2.1723099e-07
125	0x34ee8000	4.4424087e-07
126	0x3450c000	1.9441359e-07
127	0x34e24000	4.2142347e-07
128	0x34384000	1.7159618e-07
129	0x34d60000	3.9860606e-07
130	0x341fc000	1.4877878e-07
131	0x3f160006	0.58593786
132	0x3eba0005	0.3632814
133	0x3d500067	0.050781634
134	0x340ec000	1.329463e-07
135	0x34c14000	3.5995618e-07
136	0x33ec8000	1.10128894e-07
137	0x34b50000	3.3713877e-07
138	0x33bb8000	8.731149e-08
139	0x34a8c000	3.1432137e-07
140	0x338a8000	6.449409e-08
141	0x349c8000	2.9150397e-07
142	0x33330000	4.1676685e-08
143	0x34904000	2.6868656e-07
144	0x32a20000	1.8859282e-08
145	0x34840000	2.4586916e-07
146	0xb1880000	-3.958121e-09
147	0x346f8000	2.2305176e-07
148	0x34f1a000	4.5006163e-07
149	0x3b1fdb5c	0.0024392223
150	0x3d70ac53	0.05875809
151	0x3ea61682	0.32439047
152	0x3f301514	0.6878216
153	0x3f31b522	0.6941701
154	0x3e6dfff9	0.23242177
155	0xb4c14000	-3.5995618e-07
156	0xb525b000	-6.1723404e-07
157	0x33aa0000	7.916242e-08
158	0xb43f4000	-1.7811544e-07
159	0xb4e9c000	-4.353933e-07
160	0xb539f000	-6.9267116e-07
161	0x31800000	3.7252903e-09
162	0xb4882000	-2.5355257e-07
163	0xb5092000	-5.1083043e-07
164	0x3cf88edf	0.030341564
165	0x3e3f2a71	0.18668534
166	0x3ec04cfc	0.37558734
167	0x3e997bce	0.29977268
168	0x3dc75941	0.09733821
169	0x3c2857a2	0.0102748
170	0xb4b92000	-3.4482218e-07
171	0xb521a000	-6.0210004e-07
172	0x33ca8000	9.429641e-08
173	0xb42f0000	-1.6298145e-07
174	0xb4e1a000	-4.202593e-07
175	0xb535e000	-6.775372e-07
176	0x32a20000	1.8859282e-08
177	0xb4800000	-2.3841858e-07
178	0xb5051000	-4.9569644e-07
179	0x34578000	2.0070001e-07
180	0xb3730000	-5.6577846e-08
181	0xb4a88000	-3.138557e-07
182	0xb5195000	-5.7113357e-07
183	0x34068000	1.2526289e-07
184	0xb40dc000	-1.3201497e-07
185	0xb4d10000	-3.8929284e-07
186	0xb52d9000	-6.465707e-07
187	0x33560000	4.9825758e-08
188	0xb45ec000	-2.074521e-07
189	0xb4f98000	-4.6472996e-07
190	0xb541d000	-7.220078e-07
191	0xb2dc0000	-2.561137e-08
192	0xb497e000	-2.8288923e-07
193	0xb5110000	-5.401671e-07
194	0x3427c000	1.5622936e-07
195	0xb3d90000	-1.010485e-07
196	0xb4c06000	-3.5832636e-07
197	0xb5254000	-6.156042e-07
198	0x33ad8000	8.079223e-08
199	0xb43d8000	-1.7648563e-07
200	0xb4e8e000	-4.337635e-07
201	0xb5398000	-6.9104135e-07
202	0x31b80000	5.355105e-09
203	0xb4874000	-2.5192276e-07
204	0xb508b000	-5.092006e-07
205	0x34490000	1.8719584e-07
206	0xb3968000	-7.0082024e-08
207	0xb4afc000	-3.2735988e-07
208	0xb51cf000	-5.8463775e-07
209	0x33f00000	1.1175871e-07
210	0xb41c4000	-1.4551915e-07
211	0xb4d84000	-4.02797e-07
212	0xb5313000	-6.600749e-07
213	0x331c0000	3.632158e-08
214	0xb46d4000	-2.2095628e-07
215	0x3f8001c0	1.0000534
216	0x3b388b74	0.0028159292
217	0x3d21ba2c	0.039484188
218	0x3e4d4f2d	0.20049734
219	0x3ec61aa6	0.38692206
220	0x3e9531d9	0.29139593
221	0x3e8022f7	0.25026676
222	0x3f475cbb	0.7787587
223	0x3d4bff8c	0.049804255
224	0xb58806a0	-1.0134718e-06
225	0xb5621600	-8.4223575e-07
226	0xb4cbf200	-3.7987775e-07
227	0xb58bdb20	-1.0420081e-06
228	0xb5034dc0	-4.8914444e-07
229	0xb3a5fc00	-7.72925e-08
230	0xb4d01700	-3.8759754e-07
231	0xb55931c0	-8.0911195e-07
232	0xb3a19200	-7.523704e-08
233	0xb4ca1a00	-3.764435e-07
234	0xb507c200	-5.0573726e-07
235	0xb4014500	-1.2039163e-07
236	0xb542bac0	-7.254239e-07
237	0xb485fd00	-2.4957262e-07
238	0xb5451c80	-7.342969e-07
239	0xb4345300	-1.6794002e-07
240	0xb50ee740	-5.3235635e-07
241	0x3405b000	1.2450619e-07
242	0xb4006c00	-1.1960219e-07
243	0xb4aef880	-3.2590833e-07
244	0xb5825be0	-9.712494e-07
245	0xb517cd80	-5.6550925e-07
246	0xb432f600	-1.6667036e-07
247	0x3f17fff6	0.5937494
248	0x3ecffffd	0.4062499
249	0xb4d10600	-3.893365e-07
250	0xb54cdc00	-7.6316064e-07
251	0x3170c000	3.5033736e-09
252	0xb4963980	-2.7981514e-07
253	0xb5868240	-1.0021686e-06
254	0xb510c680	-5.3933036e-07
255	0x3f7ffffc	0.99999976

conv2.weight f4 [16, 6, 5, 5]
0	0xbd534ed9	-0.051588867
1	0xbd3f7e8b	-0.04675154
2	0xbde0a231	-0.109684356
3	0xbd74bcf2	-0.059750505
4	0xbcb439f3	-0.022000289
5	0xbd43978c	-0.04775195
6	0x3d0cffdc	0.034423694
7	0x3d5efb4f	0.054438885
8	0x3d92cf2a	0.0716842
9	0xbd630c86	-0.055431865
10	0xb8766be0	-5.8751437e-05
11	0xbb9e8eb2	-0.004838788
12	0x3dbae391	0.09125436
13	0x3cd314ec	0.025766812
14	0xbcf2f993	-0.029660022
15	0x3dd59fad	0.10430846
16	0x3da1d68b	0.07902249
17	0x3bad2833	0.005284333
18	0xbd88f73d	-0.06687782
19	0xbd0f3021	-0.03495801
20	0x3dc17d4d	0.09447727
21	0x3e2c0899	0.16800155
22	0x3d9c8eec	0.07644448
23	0xbc916ac6	-0.017751109
24	0x3d0f655c	0.035008773
25	0xbd431d41	-0.04763532
26	0x3ced3e4a	0.028960366
27	0xbdb6e33b	-0.089300595
28	0xbc2130d6	-0.009838304
29	0xbde13328	-0.109960854
30	0xbc68c52c	-0.014207166
31	0x3c5c0f66	0.013431406
32	0x3da035c2	0.078227535
33	0x3d80cc0a	0.06288917
34	0x3d9b8aad	0.0759481
35	0x3df26a09	0.11836631
36	0x3df280f0	0.11840999
37	0x3d143815	0.036186296
38	0x3d8b7899	0.068101116
39	0xbc88f4dc	-0.01671832
40	0x3df7f322	0.12106921
41	0xbba4a4d3	-0.0050245314
42	0x3d4ac824	0.049507275
43	0xbcf0e2be	-0.029404994
44	0x3c857b66	0.016294193
45	0x3de72662	0.11286618
46	0x3e29b78f	0.16573928
47	0x3ca35bfe	0.019941326
48	0x3d1f32ac	0.038866684
49	0x3d791314	0.06080921
50	0x3d2eb452	0.042652436
51	0x3cdf6084	0.027267702
52	0xbdb66879	-0.08906645
53	0xbbf6118d	-0.0075094164
54	0xbc8a0705	-0.01684905
55	0xbd862842	-0.06550647
56	0xbc80f3b2	-0.015741203
57	0x3c4f2848	0.012643881
58	0xbce0ba8e	-0.027432706
59	0x3b3c25d2	0.0028709066
60	0x3c89684c	0.016773365
61	0x3d3ae71b	0.045630556
62	0x3db12f35	0.08651582
63	0x3df53ab3	0.119740866
64	0xbc752f47	-0.014964885
65	0xbd5e4bd5	-0.054271538
66	0xbc8c6e51	-0.017142447
67	0xbc9c1a61	-0.019055547
68	0xbbac07aa	-0.005249937
69	0xbc1afcd4	-0.009459693
70	0x3e02bd6b	0.1276757
71	0x3df83a6b	0.12120517
72	0x3dabcd0b	0.08388718
73	0x3e016887	0.1263753
74	0x3d2482a0	0.040163636
75	0xbd33885c	-0.043831214
76	0xbd82671f	-0.06367325
77	0x3d351bfc	0.04421614
78	0xbd967217	-0.0734598
79	0xbd2a84fe	-0.041630737
80	0x3c0b204d	0.008491588
81	0xbc1e7828	-0.009672202
82	0x3d84496c	0.064593166
83	0x3d41a7c7	0.047279146
84	0xbc3a65c2	-0.0113768
85	0x3d96ed89	0.07369525
86	0xb84a26b0	-4.8196584e-05
87	0x3d57991c	0.05263625
88	0x3df08716	0.117445156
89	0x3c025bf0	0.00795649
90	0x3d37a110	0.044831336
91	0x3d3f582f	0.046714958
92	0x3e100cae	0.14067337
93	0x3d2db866	0.042412184
94	0x3da0b941	0.078478344
95	0x3e2508a3	0.16116576
96	0x3e1355a8	0.14388144
97	0x3e55ff6d	0.20898218
98	0x3db89ef8	0.09014696
99	0x3e1d4950	0.15359998
100	0xbe09fb68	-0.1347481
101	0xbd3f78f6	-0.046746217
102	0xbc6be86c	-0.014398675
103	0x3d510405	0.051029224
104	0xbb89aaf7	-0.004201289
105	0x3ce488d4	0.027897276
106	0xbd2fc4f6	-0.042912446
107	0xbd6f1901	-0.058373455
108	0x3bb00bb0	0.005372487
109	0x3dca4566	0.09876518
110	0x38fcf3bc	0.000120616955
111	0x3c117a89	0.008879312
112	0x3d0fca92	0.035105295
113	0xbce1d8e0	-0.027569234
114	0xbd11f3e8	-0.035632998
115	0xbcd7e9de	-0.026356634
116	0xbd03d2f7	-0.032183614
117	0xbdb85b8d	-0.09001837
118	0xbdf682ed	-0.12036691
119	0x3d423cf1	0.0474214
120	0x3d2afa21	0.041742448
121	0xbdcd3c72	-0.10021295
122	0xbce3713b	-0.027763953
123	0xbcbe1c04	-0.023206718
124	0x3ce9f308	0.02855827
125	0xbbf0e5c9	-0.0073516113
126	0x3c23807f	0.009979366
127	0xbdf95aeb	-0.12175544
128	0xbe4eaa79	-0.20182218
129	0xbdd396ed	-0.10331521
130	0xbdbdad73	-0.092615984
131	0xbd9f7bea	-0.077873066
132	0x3b1a7576	0.0023568547
133	0xbccae51c	-0.024767451
134	0xbde948c8	-0.11390835
135	0xbabfd4ae	-0.0014635527
136	0xbd1383db	-0.03601442
137	0xbd08b00b	-0.033371013
138	0xbd7677b6	-0.06017276
139	0xbda1d91f	-0.07902741
140	0xbd54407c	-0.05181931
141	0xbde84bed	-0.11342607
142	0xbd870979	-0.06593604
143	0xbcec2d97	-0.028830333
144	0xbdb6d1f9	-0.08926768
145	0xbd903ccd	-0.07042847
146	0xbc023e76	-0.007949462
147	0xbdc6fc31	-0.097160704
148	0x3b874426	0.004127997
149	0xbc649523	-0.013951573
150	0xbd019430	-0.031635463
151	0x3d366d4d	0.04453783
152	0x3d9fe834	0.07807961
153	0x3db9de71	0.090756305
154	0x3e1a4c20	0.15068102
155	0x3af6bdd9	0.001882489
156	0xbcc1b181	-0.02364421
157	0x3d599238	0.05311796
158	0xbd23b3e7	-0.03996649
159	0x3e0071c1	0.12543394
160	0xbd15c63e	-0.03656601
161	0x3d6bd72a	0.057578243
162	0xbd7bef8f	-0.061507758
163	0x3d26eb39	0.04075167
164	0x3c9d6471	0.019212933
165	0x3cd2cd59	0.025732683
166	0x3b8a0ade	0.0042127213
167	0x3b71caff	0.0036894677
168	0xbbaacd05	-0.0052124285
169	0x3d7ecf92	0.062209673
170	0x3cc0fde0	0.023558557
171	0x3cbad81e	0.02280813
172	0xbd456fcc	-0.04820232
173	0xbda5af07	-0.080900244
174	0xbd413adc	-0.047175273
175	0x3cb1f0e0	0.021721303
176	0x3dda0469	0.106453724
177	0x3d88d7d8	0.06681794
178	0x3e014423	0.12623648
179	0x3e241a0e	0.16025564
180	0xbd5a82b7	-0.053347316
181	0x3d14a5c7	0.03629091
182	0xbccad809	-0.024761217
183	0x3df0fd1b	0.11767026
184	0x3daa9b1f	0.08330368
185	0xbd7af627	-0.061269905
186	0xbd0f1c21	-0.034938935
187	0x3d92bfbc	0.07165477
188	0x3c1a432f	0.009415432
189	0x3ceb74a7	0.028742148
190	0xbd8e4e78	-0.069485605
191	0x3cd30c5e	0.025762733
192	0xbd859dc6	-0.065242335
193	0x3d9e3baf	0.077262275
194	0x3ce676de	0.028132852
195	0xbd44a344	-0.048007265
196	0xbc9ac416	-0.01889233
197	0xbd780476	-0.06055113
198	0x3d403aeb	0.04693119
199	0xbc1596ca	-0.009130189
200	0xbd1fb471	-0.03899044
201	0xbd029b5f	-0.031886455
202	0x3d1594f3	0.036519002
203	0x3d1b064e	0.03784781
204	0x3d6a656c	0.05722563
205	0x3be45706	0.006968382
206	0xbc966cdc	-0.018362455
207	0x3d46139c	0.048358545
208	0x3e2102e9	0.15723766
209	0x3e4ab97d	0.1979732
210	0x3cff1ab1	0.031140657
211	0x3da0a027	0.07843047
212	0x3dcc5e9a	0.09978981
213	0x3dc0aec6	0.094083354
214	0x3e1af810	0.15133691
215	0xbd884851	-0.06654418
216	0x3d7efc71	0.062252466
217	0x3d3d058d	0.04614787
218	0x3d9ebae3	0.077504896
219	0x3dae41a2	0.08508612
220	0xbdaaccc9	-0.08339841
221	0xbd46f7f4	-0.04857631
222	0x3d34278c	0.043983027
223	0x3cfb116d	0.030647958
224	0x3d40b04b	0.047043126
225	0x3dfc01c6	0.12305026
226	0xbb805980	-0.003916919
227	0x3d19cbb3	0.03754778
228	0x3d2f7ca2	0.04284347
229	0x3c5df757	0.01354774
230	0x3d2915d1	0.04128057
231	0x3dadbd3e	0.08483361
232	0x3d927c0a	0.07152565
233	0xbd1ccb72	-0.038279958
234	0xbc0a989c	-0.0084592365
235	0x3da9d119	0.08291835
236	0x3ba5c48f	0.005058832
237	0x3c457f0f	0.012054219
238	0x3d1b3673	0.037893724
239	0x3d86de31	0.065853484
240	0x3cbb0d8d	0.02283361
241	0x3da0071f	0.07813858
242	0x3c9a94e1	0.01886982
243	0xbdb2535a	-0.08707304
244	0x3db16d5c	0.08663437
245	0x3d2c0bb0	0.042003334
246	0xbd9d6304	-0.07684901
247	0xb658eb80	-3.2323587e-06
248	0xbdcee8ec	-0.1010302
249	0x3d8930c4	0.066987544
250	0xbd00ce8c	-0.03144698
251	0xbd8169fb	-0.06319042
252	0xbaa7150a	-0.0012747359
253	0xbcc5eb87	-0.02416016
254	0x3cc70143	0.024292594
255	0xbd5436a7	-0.051809933

conv2.activation_post_process.histogram f4 [2048]
0	0x3f800000	1.0
1	0x00000000	0.0
2	0x00000000	0.0
3	0x00000000	0.0
4	0x00000000	0.0
5	0x00000000	0.0
6	0x00000000	0.0
7	0x00000000	0.0
8	0x00000000	0.0
9	0x00000000	0.0
10	0x00000000	0.0
11	0x00000000	0.0
12	0x00000000	0.0
13	0x00000000	0.0
14	0x00000000	0.0
15	0x00000000	0.0
16	0x00000000	0.0
17	0x00000000	0.0
18	0x00000000	0.0
19	0x00000000	0.0
20	0x00000000	0.0
21	0x00000000	0.0
22	0x00000000	0.0
23	0x00000000	0.0
24	0x00000000	0.0
25	0x00000000	0.0
26	0x00000000	0.0
27	0x00000000	0.0
28	0x00000000	0.0
29	0x00000000	0.0
30	0x00000000	0.0
31	0x00000000	0.0
32	0x00000000	0.0
33	0x00000000	0.0
34	0x00000000	0.0
35	0x00000000	0.0
36	0x00000000	0.0
37	0x00000000	0.0
38	0x00000000	0.0
39	0x00000000	0.0
40	0x00000000	0.0
41	0x00000000	0.0
42	0x00000000	0.0
43	0x00000000	0.0
44	0x00000000	0.0
45	0x00000000	0.0
46	0x00000000	0.0
47	0x00000000	0.0
48	0x00000000	0.0
49	0x3f800000	1.0
50	0x00000000	0.0
51	0x00000000	0.0
52	0x00000000	0.0
53	0x00000000	0.0
54	0x00000000	0.0
55	0x00000000	0.0
56	0x00000000	0.0
57	0x00000000	0.0
58	0x00000000	0.0
59	0x00000000	0.0
60	0x00000000	0.0
61	0x00000000	0.0
62	0x00000000	0.0
63	0x00000000	0.0
64	0x00000000	0.0
65	0x00000000	0.0
66	0x00000000	0.0
67	0x00000000	0.0
68	0x00000000	0.0
69	0x00000000	0.0
70	0x00000000	0.0
71	0x00000000	0.0
72	0x3e940000	0.2890625
73	0x3f360000	0.7109375
74	0x00000000	0.0
75	0x00000000	0.0
76	0x00000000	0.0
77	0x00000000	0.0
78	0x00000000	0.0
79	0x00000000	0.0
80	0x00000000	0.0
81	0x3f800000	1.0
82	0x00000000	0.0
83	0x00000000	0.0
84	0x00000000	0.0
85	0x00000000	0.0
86	0x00000000	0.0
87	0x00000000	0.0
88	0x00000000	0.0
89	0x00000000	0.0
90	0x00000000	0.0
91	0x00000000	0.0
92	0x00000000	0.0
93	0x00000000	0.0
94	0x00000000	0.0
95	0x00000000	0.0
96	0x00000000	0.0
97	0x00000000	0.0
98	0x00000000	0.0
99	0x00000000	0.0
100	0x00000000	0.0
101	0x00000000	0.0
102	0x00000000	0.0
103	0x00000000	0.0
104	0x00000000	0.0
105	0x00000000	0.0
106	0x00000000	0.0
107	0x00000000	0.0
108	0x00000000	0.0
109	0x00000000	0.0
110	0x3f800000	1.0
111	0x00000000	0.0
112	0x00000000	0.0
113	0x00000000	0.0
114	0x00000000	0.0
115	0x00000000	0.0
116	0x00000000	0.0
117	0x00000000	0.0
118	0x00000000	0.0
119	0x00000000	0.0
120	0x00000000	0.0
121	0x00000000	0.0
122	0x00000000	0.0
123	0x00000000	0.0
124	0x00000000	0.0
125	0x00000000	0.0
126	0x00000000	0.0
127	0x00000000	0.0
128	0x00000000	0.0
129	0x00000000	0.0
130	0x00000000	0.0
131	0x00000000	0.0
132	0x00000000	0.0
133	0x00000000	0.0
134	0x00000000	0.0
135	0x00000000	0.0
136	0x00000000	0.0
137	0x00000000	0.0
138	0x00000000	0.0
139	0x00000000	0.0
140	0x00000000	0.0
141	0x00000000	0.0
142	0x00000000	0.0
143	0x00000000	0.0
144	0x00000000	0.0
145	0x00000000	0.0
146	0x00000000	0.0
147	0x00000000	0.0
148	0x00000000	0.0
149	0x00000000	0.0
150	0x00000000	0.0
151	0x00000000	0.0
152	0x00000000	0.0
153	0x00000000	0.0
154	0x00000000	0.0
155	0x00000000	0.0
156	0x00000000	0.0
157	0x00000000	0.0
158	0x00000000	0.0
159	0x00000000	0.0
160	0x00000000	0.0
161	0x00000000	0.0
162	0x00000000	0.0
163	0x00000000	0.0
164	0x00000000	0.0
165	0x00000000	0.0
166	0x00000000	0.0
167	0x00000000	0.0
168	0x00000000	0.0
169	0x00000000	0.0
170	0x00000000	0.0
171	0x00000000	0.0
172	0x00000000	0.0
173	0x00000000	0.0
174	0x00000000	0.0
175	0x00000000	0.0
176	0x00000000	0.0
177	0x00000000	0.0
178	0x00000000	0.0
179	0x00000000	0.0
180	0x00000000	0.0
181	0x00000000	0.0
182	0x00000000	0.0
183	0x00000000	0.0
184	0x00000000	0.0
185	0x00000000	0.0
186	0x00000000	0.0
187	0x00000000	0.0
188	0x00000000	0.0
189	0x00000000	0.0
190	0x00000000	0.0
191	0x00000000	0.0
192	0x00000000	0.0
193	0x3f800000	1.0
194	0x00000000	0.0
195	0x00000000	0.0
196	0x00000000	0.0
197	0x00000000	0.0
198	0x00000000	0.0
199	0x00000000	0.0
200	0x00000000	0.0
201	0x00000000	0.0
202	0x00000000	0.0
203	0x00000000	0.0
204	0x00000000	0.0
205	0x00000000	0.0
206	0x00000000	0.0
207	0x00000000	0.0
208	0x00000000	0.0
209	0x00000000	0.0
210	0x00000000	0.0
211	0x00000000	0.0
212	0x00000000	0.0
213	0x00000000	0.0
214	0x00000000	0.0
215	0x00000000	0.0
216	0x00000000	0.0
217	0x00000000	0.0
218	0x00000000	0.0
219	0x00000000	0.0
220	0x00000000	0.0
221	0x00000000	0.0
222	0x00000000	0.0
223	0x00000000	0.0
224	0x00000000	0.0
225	0x00000000	0.0
226	0x00000000	0.0
227	0x00000000	0.0
228	0x00000000	0.0
229	0x00000000	0.0
230	0x00000000	0.0
231	0x00000000	0.0
232	0x00000000	0.0
233	0x00000000	0.0
234	0x00000000	0.0
235	0x00000000	0.0
236	0x00000000	0.0
237	0x00000000	0.0
238	0x00000000	0.0
239	0x00000000	0.0
240	0x00000000	0.0
241	0x00000000	0.0
242	0x00000000	0.0
243	0x00000000	0.0
244	0x00000000	0.0
245	0x00000000	0.0
246	0x3db00000	0.0859375
247	0x3f6a0000	0.9140625
248	0x00000000	0.0
249	0x00000000	0.0
250	0x00000000	0.0
251	0x00000000	0.0
252	0x00000000	0.0
253	0x00000000	0.0
254	0x00000000	0.0
255	0x00000000	0.0

conv3.weight f4 [120, 16, 5, 5]
0	0xbd82d0eb	-0.06387504
1	0x3cafff77	0.02148412
2	0x3c27eea8	0.010249771
3	0xbc99c312	-0.018769775
4	0xbba8a869	-0.005147029
5	0x3d5d15c8	0.05397585
6	0xbcf24c6a	-0.029577453
7	0x3c33becd	0.010970783
8	0x3a8c3d23	0.0010699373
9	0xbd2ba63d	-0.041906584
10	0x3dd51727	0.104048066
11	0xbc46c598	-0.012132071
12	0xbd1f74ed	-0.03892987
13	0xbd3f9480	-0.04677248
14	0xba19e29b	-0.00058702537
15	0x3ce20290	0.027589113
16	0x3c4a822b	0.012360136
17	0x3d2a9e75	0.041655023
18	0x3d2a203e	0.041534655
19	0xbd1ec351	-0.038760487
20	0x3dca49ad	0.09877334
21	0x3d81190e	0.06303607
22	0x3da56529	0.080759354
23	0x3d0bdfd3	0.034149002
24	0x3c7bf74f	0.015378787
25	0x3d12cafc	0.035838112
26	0x3dac99b6	0.084277555
27	0x3dbf3a84	0.09337333
28	0x3da5b6f2	0.08091535
29	0x3d8e31ea	0.06943114
30	0xbb9c8122	-0.004776136
31	0xbd05f44d	-0.032703687
32	0x3d1f949f	0.038960095
33	0x3a59f318	0.0008314117
34	0xbd9d351f	-0.07676148
35	0x3cdd4ea2	0.027015034
36	0x3d50c29c	0.050966844
37	0x3d8d2a9f	0.06892895
38	0x3b370cc0	0.0027931184
39	0xbc783c34	-0.015151072
40	0x3c4e55bc	0.012593683
41	0x3a23700c	0.0006234653
42	0xbc5b260c	-0.01337577
43	0xbd21eba0	-0.03953135
44	0x3d6b2c58	0.057415336
45	0x3d635868	0.055504233
46	0x3d950ac2	0.072774425
47	0xbcb76a37	-0.022389514
48	0x3d69fbfd	0.05712508
49	0xb9f4f012	-0.00046718173
50	0x3bce6c5d	0.006299539
51	0xbb907c79	-0.0044093695
52	0x3c38a4d7	0.01126977
53	0x3d814f83	0.06313994
54	0x3e108c5e	0.14116046
55	0xbd0806d0	-0.033209622
56	0x3c3a3cc9	0.011367031
57	0xbd145a4e	-0.036218934
58	0xbd21742a	-0.039417423
59	0x3d16497b	0.03669117
60	0x3c2f39f8	0.010694973
61	0x3be310b7	0.006929483
62	0x3d47b154	0.048753098
63	0x3c4a6528	0.012353219
64	0x3d296441	0.041355375
65	0x3c5a49e2	0.013323279
66	0x3d37ab16	0.044840895
67	0x3ce06ff9	0.027397143
68	0xbc22f9ec	-0.009947281
69	0x3d39fefc	0.045409188
70	0xbd38dadc	-0.045130596
71	0xbd9bd8e2	-0.076097265
72	0x3c773d75	0.015090336
73	0x3cb5e925	0.022205899
74	0xbbccd8a2	-0.0062514106
75	0xbd0a2a6b	-0.03373186
76	0x3c8bca3c	0.017064206
77	0x3c5f0153	0.013611156
78	0xbace2c92	-0.0015729836
79	0xbc94c3e2	-0.01815981
80	0xbd689578	-0.05678317
81	0x3d33f8e4	0.043938532
82	0xbcd6c09c	-0.02621489
83	0xbcfbeaa8	-0.030751541
84	0xbca6c94e	-0.020359661
85	0x3c0fc06e	0.008773906
86	0x3d6b4230	0.05743617
87	0x3d6c53a6	0.05769696
88	0x3d20bed0	0.039244473
89	0xbc6f70b3	-0.014614272
90	0x3cf8a829	0.030353623
91	0x3d640429	0.05566803
92	0x3cb6ddad	0.0223225
93	0xbcf8cb49	-0.030370371
94	0x3d2b26c8	0.04178503
95	0x3ca28bb4	0.019842006
96	0x3d54f26d	0.051989008
97	0x3dacc511	0.08436025
98	0x3db0c2d2	0.08630909
99	0x3b3b972a	0.0028624036
100	0xbcdb5744	-0.02677501
101	0x3c3eac11	0.0116377035
102	0xbacf8e1c	-0.0015835199
103	0xb8b3323c	-8.544742e-05
104	0xbd89e828	-0.067337334
105	0x3d17ebae	0.037089996
106	0x3b06c72e	0.0020565498
107	0x3c84c945	0.016209254
108	0x3d0ce22f	0.034395393
109	0xba8b17c2	-0.0010611939
110	0x3b82302d	0.003973028
111	0x3c7a6524	0.015282903
112	0xbca87662	-0.020564262
113	0xbd46ca8b	-0.048533004
114	0xbd797ef7	-0.0609121
115	0x3d1eab3a	0.038737513
116	0xbcdbb4bc	-0.02681958
117	0xbc2326a0	-0.009957939
118	0xbc463b40	-0.012099087
119	0xbbb47df6	-0.00550818
120	0x3d2a0657	0.041509952
121	0x3a095ade	0.00052396755
122	0x3d29a014	0.041412428
123	0x3d02bbb7	0.0319173
124	0x3ce5371d	0.027980382
125	0xbda39057	-0.07986515
126	0x3d07a8a3	0.03311981
127	0xbd5ca786	-0.0538707
128	0xbc1fb60a	-0.009747991
129	0x3c120a03	0.00891352
130	0x3ddfcf06	0.109281585
131	0x3c70c29c	0.014694836
132	0x3c9c6173	0.019089436
133	0x3d4f26b4	0.05057402
134	0xbd3d48ab	-0.04621188
135	0x3d799815	0.060936052
136	0x3d8bd2be	0.06827305
137	0x3caa9cc9	0.020826714
138	0xbbc07e45	-0.0058744275
139	0x3d2fbb9c	0.042903528
140	0x3d4b9ef6	0.049712144
141	0xbc1c277f	-0.009530901
142	0x3c038c15	0.008029004
143	0xbbb0fc83	-0.0054011955
144	0x3c6653c3	0.014058056
145	0x3dc369f2	0.09541692
146	0x3dbd8a7c	0.092549294
147	0x3d9e22dd	0.077214934
148	0x3bf79c3c	0.0075564664
149	0x3d6887a3	0.05676998
150	0x3ccd18e7	0.025036288
151	0x3d34f0e8	0.04417506
152	0x3d850fa7	0.06497126
153	0x3d694005	0.05694582
154	0x3dc429a2	0.09578253
155	0x3ce8d56c	0.02842208
156	0xbbd557e3	-0.006510721
157	0x3ce33074	0.027733065
158	0x3c6d42dc	0.014481273
159	0x3d7217cb	0.059104722
160	0x3cbac378	0.022798285
161	0x3c71281e	0.014719037
162	0xbcd8a55e	-0.02644604
163	0x3d44d535	0.048054893
164	0xbc040563	-0.008057925
165	0x3c8dd356	0.017312687
166	0x3d2e79f4	0.042596772
167	0x3bfad42b	0.007654687
168	0x3d93eb90	0.07222664
169	0x3c29e7e5	0.010370229
170	0x3d997d18	0.07494563
171	0xbbee8fcd	-0.007280326
172	0xbcfc7ce1	-0.030821266
173	0xbd8ca7d2	-0.06867947
174	0xbd0523b9	-0.03250477
175	0xbc48a233	-0.012245703
176	0x3c9758db	0.018474987
177	0x3cd73b63	0.026273435
178	0x3c3e99bf	0.011633336
179	0x3d2bea30	0.041971385
180	0x3b1a75f1	0.0023568834
181	0x3c868d1a	0.016424704
182	0x3c15fe56	0.009154877
183	0x3d2a7131	0.041611854
184	0x3cae10d2	0.021248255
185	0x3c6b660f	0.014367594
186	0x3c9aea3b	0.018910518
187	0x3d1f5e7f	0.038908478
188	0x3c02a3ea	0.0079736505
189	0x3cd32e98	0.025779054
190	0xbc804ea9	-0.015662508
191	0x3d6d3e36	0.057920657
192	0x3b125052	0.0022325707
193	0xbd0220ac	-0.03176944
194	0x3d28c063	0.0411991
195	0x3d96f5f0	0.073711276
196	0xbb3a3ed7	-0.0028418803
197	0x3d36aa0a	0.044595756
198	0x3d334810	0.043769896
199	0xbd04bd31	-0.03240699
200	0x3c9aa6d0	0.01887837
201	0x3c2e62df	0.01064369
202	0x3d9cf025	0.076629914
203	0x3d803ec7	0.06261974
204	0x3d1443a1	0.03619731
205	0x3cae6c10	0.021291763
206	0xbd0720ea	-0.032990374
207	0x3d1c34dc	0.038136348
208	0x3d462f12	0.048384733
209	0xbbaca311	-0.0052684625
210	0xbcfa57f7	-0.030559523
211	0xbd16710d	-0.036728907
212	0xbcfb2dcb	-0.030661484
213	0xbce30761	-0.02771348
214	0xbc97d879	-0.01853584
215	0x3cdaa2bf	0.026688932
216	0xbc5051bc	-0.0127147995
217	0x3caf8bec	0.021429025
218	0x3d32a335	0.043612678
219	0xbbe89f16	-0.0070990426
220	0x3d890dcb	0.06692084
221	0x3d886730	0.066603065
222	0x3d54ee8b	0.051985305
223	0x3cc03b0a	0.023465652
224	0xbd4605a5	-0.048345227
225	0x3dba007a	0.09082122
226	0x3de0eb9f	0.10982441
227	0x3d9dd538	0.07706684
228	0x3d09f385	0.033679504
229	0x3e0d1afd	0.13779826
230	0x3d3e5ca5	0.04647507
231	0x3dedd4b5	0.11612836
232	0x3d85a74b	0.06526049
233	0x3d89b503	0.06723978
234	0x3d8b6182	0.068057075
235	0x3c479b4b	0.012183021
236	0x3caa5c02	0.020795826
237	0x3d86bff6	0.065795824
238	0xbcb64ee3	-0.022254413
239	0x3cf96479	0.030443417
240	0x3c32af63	0.010906073
241	0xbc9008d2	-0.01758233
242	0x3b916669	0.004437257
243	0xbce79215	-0.0282679
244	0x3caeb7d8	0.021327898
245	0xbc24683c	-0.010034617
246	0x3d02c67d	0.031927574
247	0x3d156633	0.036474418
248	0x3d0b01f9	0.03393743
249	0xbd8b3b1c	-0.067983836
250	0xbdbfb576	-0.09360783
251	0xbd9405ad	-0.07227645
252	0x3c33f40d	0.010983479
253	0x3ce9c607	0.02853681
254	0x3b42c2bf	0.0029718128
255	0xbd86bc48	-0.065788805

conv3.activation_post_process.histogram f4 [2048]
0	0x3f800000	1.0
1	0x00000000	0.0
2	0x00000000	0.0
3	0x00000000	0.0
4	0x00000000	0.0
5	0x00000000	0.0
6	0x00000000	0.0
7	0x00000000	0.0
8	0x00000000	0.0
9	0x00000000	0.0
10	0x00000000	0.0
11	0x00000000	0.0
12	0x00000000	0.0
13	0x00000000	0.0
14	0x00000000	0.0
15	0x00000000	0.0
16	0x00000000	0.0
17	0x00000000	0.0
18	0x00000000	0.0
19	0x00000000	0.0
20	0x00000000	0.0
21	0x00000000	0.0
22	0x00000000	0.0
23	0x00000000	0.0
24	0x00000000	0.0
25	0x00000000	0.0
26	0x00000000	0.0
27	0x00000000	0.0
28	0x00000000	0.0
29	0x00000000	0.0
30	0x00000000	0.0
31	0x00000000	0.0
32	0x00000000	0.0
33	0x00000000	0.0
34	0x00000000	0.0
35	0x00000000	0.0
36	0x00000000	0.0
37	0x00000000	0.0
38	0x00000000	0.0
39	0x00000000	0.0
40	0x00000000	0.0
41	0x00000000	0.0
42	0x00000000	0.0
43	0x00000000	0.0
44	0x00000000	0.0
45	0x00000000	0.0
46	0x00000000	0.0
47	0x00000000	0.0
48	0x00000000	0.0
49	0x00000000	0.0
50	0x00000000	0.0
51	0x00000000	0.0
52	0x00000000	0.0
53	0x00000000	0.0
54	0x00000000	0.0
55	0x00000000	0.0
56	0x00000000	0.0
57	0x00000000	0.0
58	0x00000000	0.0
59	0x00000000	0.0
60	0x00000000	0.0
61	0x00000000	0.0
62	0x00000000	0.0
63	0x00000000	0.0
64	0x00000000	0.0
65	0x00000000	0.0
66	0x00000000	0.0
67	0x00000000	0.0
68	0x00000000	0.0
69	0x00000000	0.0
70	0x00000000	0.0
71	0x00000000	0.0
72	0x00000000	0.0
73	0x00000000	0.0
74	0x00000000	0.0
75	0x00000000	0.0
76	0x00000000	0.0
77	0x00000000	0.0
78	0x00000000	0.0
79	0x00000000	0.0
80	0x00000000	0.0
81	0x3f800000	1.0
82	0x00000000	0.0
83	0x00000000	0.0
84	0x00000000	0.0
85	0x00000000	0.0
86	0x00000000	0.0
87	0x00000000	0.0
88	0x00000000	0.0
89	0x00000000	0.0
90	0x00000000	0.0
91	0x00000000	0.0
92	0x00000000	0.0
93	0x00000000	0.0
94	0x00000000	0.0
95	0x00000000	0.0
96	0x00000000	0.0
97	0x00000000	0.0
98	0x00000000	0.0
99	0x00000000	0.0
100	0x00000000	0.0
101	0x00000000	0.0
102	0x00000000	0.0
103	0x00000000	0.0
104	0x00000000	0.0
105	0x00000000	0.0
106	0x00000000	0.0
107	0x00000000	0.0
108	0x00000000	0.0
109	0x00000000	0.0
110	0x00000000	0.0
111	0x00000000	0.0
112	0x00000000	0.0
113	0x00000000	0.0
114	0x00000000	0.0
115	0x00000000	0.0
116	0x00000000	0.0
117	0x00000000	0.0
118	0x00000000	0.0
119	0x00000000	0.0
120	0x00000000	0.0
121	0x00000000	0.0
122	0x00000000	0.0
123	0x00000000	0.0
124	0x00000000	0.0
125	0x00000000	0.0
126	0x00000000	0.0
127	0x00000000	0.0
128	0x00000000	0.0
129	0x00000000	0.0
130	0x00000000	0.0
131	0x00000000	0.0
132	0x00000000	0.0
133	0x00000000	0.0
134	0x00000000	0.0
135	0x00000000	0.0
136	0x00000000	0.0
137	0x00000000	0.0
138	0x00000000	0.0
139	0x00000000	0.0
140	0x00000000	0.0
141	0x00000000	0.0
142	0x00000000	0.0
143	0x00000000	0.0
144	0x00000000	0.0
145	0x00000000	0.0
146	0x00000000	0.0
147	0x00000000	0.0
148	0x00000000	0.0
149	0x00000000	0.0
150	0x00000000	0.0
151	0x00000000	0.0
152	0x00000000	0.0
153	0x00000000	0.0
154	0x00000000	0.0
155	0x00000000	0.0
156	0x00000000	0.0
157	0x00000000	0.0
158	0x00000000	0.0
159	0x00000000	0.0
160	0x00000000	0.0
161	0x00000000	0.0
162	0x00000000	0.0
163	0x00000000	0.0
164	0x00000000	0.0
165	0x00000000	0.0
166	0x00000000	0.0
167	0x00000000	0.0
168	0x00000000	0.0
169	0x00000000	0.0
170	0x00000000	0.0
171	0x00000000	0.0
172	0x00000000	0.0
173	0x00000000	0.0
174	0x00000000	0.0
175	0x00000000	0.0
176	0x00000000	0.0
177	0x00000000	0.0
178	0x00000000	0.0
179	0x00000000	0.0
180	0x00000000	0.0
181	0x00000000	0.0
182	0x00000000	0.0
183	0x00000000	0.0
184	0x00000000	0.0
185	0x00000000	0.0
186	0x00000000	0.0
187	0x00000000	0.0
188	0x00000000	0.0
189	0x00000000	0.0
190	0x00000000	0.0
191	0x00000000	0.0
192	0x00000000	0.0
193	0x00000000	0.0
194	0x00000000	0.0
195	0x00000000	0.0
196	0x00000000	0.0
197	0x00000000	0.0
198	0x00000000	0.0
199	0x00000000	0.0
200	0x00000000	0.0
201	0x00000000	0.0
202	0x00000000	0.0
203	0x00000000	0.0
204	0x00000000	0.0
205	0x00000000	0.0
206	0x00000000	0.0
207	0x00000000	0.0
208	0x00000000	0.0
209	0x00000000	0.0
210	0x00000000	0.0
211	0x00000000	0.0
212	0x00000000	0.0
213	0x00000000	0.0
214	0x00000000	0.0
215	0x00000000	0.0
216	0x00000000	0.0
217	0x00000000	0.0
218	0x00000000	0.0
219	0x00000000	0.0
220	0x00000000	0.0
221	0x00000000	0.0
222	0x00000000	0.0
223	0x00000000	0.0
224	0x00000000	0.0
225	0x00000000	0.0
226	0x00000000	0.0
227	0x00000000	0.0
228	0x00000000	0.0
229	0x3f2c0000	0.671875
230	0x3ea80000	0.328125
231	0x00000000	0.0
232	0x00000000	0.0
233	0x00000000	0.0
234	0x00000000	0.0
235	0x00000000	0.0
236	0x00000000	0.0
237	0x00000000	0.0
238	0x00000000	0.0
239	0x00000000	0.0
240	0x00000000	0.0
241	0x00000000	0.0
242	0x00000000	0.0
243	0x00000000	0.0
244	0x00000000	0.0
245	0x00000000	0.0
246	0x00000000	0.0
247	0x00000000	0.0
248	0x00000000	0.0
249	0x00000000	0.0
250	0x00000000	0.0
251	0x00000000	0.0
252	0x00000000	0.0
253	0x00000000	0.0
254	0x00000000	0.0
255	0x00000000	0.0

fc1.weight f4 [84, 120]
0	0x3d4486c6	0.047980092
1	0xbc462bc5	-0.012095396
2	0xbd44dc55	-0.048061687
3	0x3d36934f	0.04457408
4	0x3e372119	0.1788372
5	0x3d7bfa07	0.06151774
6	0xbdd88dc5	-0.105739154
7	0xbe2fef94	-0.17181236
8	0x3bfefd69	0.0077816737
9	0x3cc4ce3c	0.024024121
10	0x3d99de34	0.07513085
11	0xbe0dfcb7	-0.13865934
12	0xbe48adf2	-0.19597605
13	0x3de07794	0.10960308
14	0x3d2837b8	0.041068763
15	0x3c41cb90	0.011828318
16	0xbd8a42ff	-0.0675106
17	0xbcd91a4b	-0.026501795
18	0xbd0fec99	-0.035137746
19	0xbbf98ee6	-0.007615912
20	0x3d931f22	0.071836725
21	0x3be22d66	0.0069023846
22	0xbdfc046a	-0.123055294
23	0xbd65d02c	-0.05610673
24	0xbdc26267	-0.09491425
25	0x3d8ff926	0.07029943
26	0x3c8b4fbf	0.0170058
27	0x3cb9d3de	0.022684034
28	0xbdba0901	-0.090837486
29	0x3bfe5fe6	0.007762897
30	0xbddd07cf	-0.10792505
31	0xbbf4f79f	-0.007475808
32	0xbd6c3bd6	-0.05767425
33	0xbda1a5e2	-0.07892968
34	0xbdddb454	-0.108254105
35	0x3e0f9aa0	0.14023829
36	0xbdcbb451	-0.09946502
37	0xbb18af67	-0.0023297907
38	0xbd70e55a	-0.058812477
39	0x3d65fa27	0.056146767
40	0xbd491d31	-0.049100105
41	0xbd6d032d	-0.057864357
42	0x39103688	0.00013753225
43	0x3d21f638	0.039541453
44	0x3c8d7dab	0.017271837
45	0x3d12e6b8	0.03586456
46	0x3c1909de	0.009340731
47	0x3d61e3e4	0.055148974
48	0xbcbb23ff	-0.022844313
49	0x3e1077be	0.14108178
50	0x3d92f1ec	0.07175049
51	0xbcb51e4a	-0.02210917
52	0xbdf76e5b	-0.120815955
53	0xbda8c076	-0.08239834
54	0xbdb3ddf9	-0.08782572
55	0xbc309a16	-0.010778924
56	0xbcf9f309	-0.030511396
57	0xbd17110b	-0.036881488
58	0x3cab2bbd	0.02089488
59	0x3cf9d1a1	0.030495467
60	0xbe3027a5	-0.17202623
61	0x3dee2b0f	0.116293065
62	0x3d3f2a32	0.0466711
63	0x3c0d63e4	0.008629773
64	0xbe0b7afa	-0.1362113
65	0x3be7f453	0.0070786863
66	0x3bcfe939	0.006344941
67	0xbd94fee5	-0.0727518
68	0x3d08a4b8	0.033360213
69	0x3d837c0e	0.06420146
70	0xbdccc72f	-0.09998929
71	0xbdca8714	-0.09889045
72	0xbccc7d4c	-0.02496209
73	0xbe03a96b	-0.12857597
74	0x3dbb02e4	0.09131411
75	0x3e5859cf	0.2112801
76	0x3e117831	0.14206006
77	0xbe0728d8	-0.13199174
78	0xbe045d7e	-0.1292629
79	0xbdbfec28	-0.09371215
80	0xbdfe3b65	-0.12413672
81	0x3dfc3890	0.12315476
82	0xbd686c65	-0.056743998
83	0x3e455c48	0.19273484
84	0xbdae2f39	-0.08505101
85	0xbdf44ab1	-0.11928309
86	0xbd3e3e48	-0.046446115
87	0x3d75d955	0.060021717
88	0xbe0bff87	-0.13671695
89	0x3d826e56	0.06368701
90	0x3c1526db	0.009103502
91	0x3db8df27	0.09026938
92	0x3cbc81c9	0.023011105
93	0xbdbc4083	-0.09191992
94	0x3dbad651	0.09122909
95	0xbd93bef4	-0.07214156
96	0xbdd7c234	-0.10535088
97	0xbce6a489	-0.028154628
98	0xbd81ef23	-0.0634444
99	0x3e088905	0.13333519
100	0xbd001009	-0.031265292
101	0x3c9e0113	0.019287622
102	0x3d4b7906	0.049675964
103	0x3d8a7a8b	0.067616545
104	0x3c21c865	0.009874438
105	0xbdc06951	-0.093950875
106	0xbd9aea79	-0.07564253
107	0x3dacb4d2	0.08432926
108	0xbd3788e0	-0.04480827
109	0x3e556eba	0.2084302
110	0xbe09fc4b	-0.13475148
111	0x3da91ab4	0.08257046
112	0xbe243387	-0.16035281
113	0xbd7c0e79	-0.06153724
114	0xbcf0b3dd	-0.02938264
115	0xbdf5d78f	-0.12004005
116	0x3dd15710	0.10221684
117	0xbdd8a1e8	-0.10577756
118	0xbb9c092e	-0.0047618365
119	0xbacd64e1	-0.0015670323
120	0x3dcd2ae3	0.100179456
121	0xbd2d27a0	-0.042274117
122	0x3d6d3d91	0.057920042
123	0xbd59965f	-0.05312192
124	0xbcf570ac	-0.029960953
125	0x3d533612	0.051565237
126	0xbd4b4bf7	-0.049632993
127	0xbd097fbb	-0.03356908
128	0xbc18fd6a	-0.009337762
129	0x3d17b61d	0.03703891
130	0xbcf65ae5	-0.030072639
131	0x3ac6d3c2	0.001516931
132	0x3c597876	0.013273349
133	0xbd13361e	-0.035940282
134	0xbdc5fb21	-0.0966704
135	0xbda27384	-0.07932189
136	0xbd6177f2	-0.05504603
137	0x3d05d15b	0.03267036
138	0x3dbb72e2	0.091527715
139	0x3d8bd412	0.068275586
140	0xbd39c77b	-0.045356255
141	0x3dbf247e	0.09333132
142	0xbd8a52fd	-0.0675411
143	0x3b7a1ca7	0.003816405
144	0x3d665791	0.056235854
145	0x3cbe1289	0.023202198
146	0x3dbec1e7	0.09314328
147	0xbcdb73d1	-0.026788624
148	0x3c876ab0	0.016530365
149	0x3d6d19ee	0.057886057
150	0x3d2776e4	0.040884867
151	0x3d91e8ff	0.071245186
152	0xbc56a544	-0.013100926
153	0x3cc86b21	0.024465146
154	0xbd91926c	-0.07108006
155	0xbd85202d	-0.06500278
156	0x3dd58a13	0.10426726
157	0x3d8090f1	0.062776454
158	0x3d2dbae8	0.042414576
159	0x3bc27fed	0.00593566
160	0x3dd9cb43	0.10634472
161	0xbae91c12	-0.0017784855
162	0x3dcf180c	0.101120085
163	0xbd9b7738	-0.075910985
164	0xbd80e3a0	-0.06293416
165	0xbded8da1	-0.11599279
166	0x3df82435	0.12116281
167	0x3c35af72	0.011089193
168	0x3d08ddcb	0.033414643
169	0xbd8e410a	-0.06945999
170	0xbc265da0	-0.010154158
171	0xbd3a2e6e	-0.045454435
172	0x3cd35fb6	0.025802474
173	0x3d39c89a	0.045357324
174	0x3d218a52	0.039438553
175	0xbd161dd3	-0.036649536
176	0x3d9d9177	0.07693761
177	0x3ae5ed42	0.0017542022
178	0x3cb34034	0.0218812
179	0x3dbd8bce	0.09255181
180	0x3d1411ef	0.036149915
181	0x3cd1e7bb	0.025623193
182	0x3b25bcec	0.0025289608
183	0x3d7d02de	0.061770312
184	0xbb36f498	-0.0027916785
185	0x3dad47df	0.08460974
186	0x3d65a88a	0.056068935
187	0xbdb98e90	-0.09060395
188	0x3d9229d7	0.071368866
189	0xbda0da06	-0.07854085
190	0x3c30995f	0.010778754
191	0x3d8856c6	0.06657176
192	0xbd3d1072	-0.04615826
193	0xbd5824d4	-0.052769497
194	0x3c3ac8eb	0.011400442
195	0x3cf88f5b	0.030341795
196	0xbc6c8eca	-0.01443834
197	0x3de606c4	0.11231759
198	0x3e20b6b4	0.15694696
199	0x3d967537	0.07346576
200	0xbd03f88c	-0.032219455
201	0x3cb138dd	0.02163356
202	0x3ce07938	0.027401552
203	0xbc50e4c7	-0.012749857
204	0xbb92ce11	-0.0044801314
205	0xbd6f3585	-0.05840065
206	0x3db907cd	0.09034691
207	0x3d4bf152	0.049790688
208	0x3d98f762	0.074690595
209	0x3d96bcc5	0.07360224
210	0x3d0f3fb7	0.034972873
211	0x3d5c95cd	0.0538538
212	0x3e26949f	0.16267632
213	0xbd0703a5	-0.03296246
214	0x3d12d328	0.035845906
215	0x3dae5492	0.08512224
216	0x3c0bbd2c	0.008528989
217	0x3cd05440	0.025430799
218	0x3d5b3896	0.05352076
219	0xbddcbf92	-0.10778727
220	0xbc140ba0	-0.009035975
221	0x3db7b7ad	0.0897058
222	0xbd3294f2	-0.043599077
223	0xba4bed05	-0.0007779154
224	0xbb1e9a30	-0.002420079
225	0x3d8ce490	0.06879532
226	0x3e1ac788	0.15115178
227	0xbcba4250	-0.022736698
228	0xbc81c8ab	-0.015842756
229	0xbdc229da	-0.09480639
230	0xbaeceb85	-0.0018075561
231	0x3d7fd296	0.06245669
232	0x3d890d8a	0.066920355
233	0x3e42b81c	0.19015545
234	0xbd23c09e	-0.039978616
235	0x3cb71fb4	0.022353984
236	0xbd2db9db	-0.042413574
237	0xbc436b56	-0.011927446
238	0x3bb3ccb1	0.0054870476
239	0x3cd27880	0.025692225
240	0x3d848e65	0.06472472
241	0xbd300c01	-0.042980198
242	0x3d0e3ac8	0.034724027
243	0xbd14dd5c	-0.036343917
244	0xbdbbc81b	-0.091690265
245	0x3cd95b2e	0.026532736
246	0xbd39227a	-0.045198895
247	0xbda6ab6d	-0.081381656
248	0x3d841a44	0.06450322
249	0x3dabfa6f	0.08397376
250	0xbc779537	-0.015111259
251	0xba2dc684	-0.00066290074
252	0xbc7e82b7	-0.015534095
253	0x3dba0dce	0.09084664
254	0x3d12660d	0.035741854
255	0xbd22ed96	-0.03977736
