experiments/exp034/checkpoint.pth (torch, 764066 bytes, 27 tensors)

conv1.weight f4 [6, 2, 5, 5]
0.05657661 -0.10026877 -0.13866754 -0.10257856 -0.1250054 0.05426323 -0.1310879 0.0676367
-0.13377051 -0.05055394 -0.091390185 -0.052418306 -0.009459647 -0.14942046 -0.08206866 -0.112694524
0.0675435 0.115886256 0.06624189 0.042481154 0.028143615 0.07228995 -0.1341609 0.10011615
0.10388783 -0.057672653 0.0025953983 -0.008211147 0.0022573622 0.045509964 -0.14018525 -0.11151926
-0.11288746 -0.14146999 -0.036563918 0.070430115 -0.11154045 -0.0418843 -0.032905757 0.104602635
0.0052275592 -0.06614538 0.09770212 -0.064329185 0.064857595 0.048116896 0.12157356 -0.09822988
0.026340056 0.035276268 0.09317021 -0.13193443 0.091369994 0.066289015 -0.1359495 -0.103876695
-0.055052098 -0.09499229 0.06996834 0.04639936 0.0072946763 -0.047234733 0.12483236 -0.08473745
0.021747993 0.056485742 0.017872268 -0.03496291 0.11734084 0.0036722817 -0.07214731 0.032663986
-0.01858264 0.11153728 0.07598278 0.1279108 0.04591119 0.0055900123 -0.009368183 -0.071408
0.06672064 -0.12679671 -0.117043376 -0.0316251 0.09712493 -0.11929596 -0.007879489 0.112937495
-0.014196594 -0.057897925 -0.03698552 0.049640037 -0.0545785 0.06102905 0.04263589 0.11690368
0.068534344 -0.0595789 -0.0032670416 0.073327065 0.022017958 0.123935595 0.122687005 -0.061737902
0.009500685 -0.0589564 0.096345834 0.013173235 -0.042903204 0.05819581 0.0060889097 -0.03280732
-0.021845737 0.10235195 0.09379008 -0.15354177 0.108346716 -0.11530317 0.035036262 -0.14902614
-0.107579395 0.013442228 0.08563658 -0.13045822 -0.039066542 0.095458455 0.13621162 0.019754749
0.09159563 0.10166376 0.13373697 -0.069148265 -0.05902072 0.12878013 -0.10794294 0.10848428
-0.038566384 -0.035494745 0.027455758 -0.07048379 -0.03886801 0.014371284 0.08461853 0.08163948
-0.13114598 0.07489888 -0.056853782 0.011097968 -0.13971592 0.004726671 0.10625684 -0.13284285
-0.07740866 0.032852273 -0.14392993 0.09384731 0.06625351 0.026911281 -0.050636027 0.09719565
0.046090648 0.074908786 0.067734264 -0.042339437 -0.08572449 -0.014426515 -0.14578016 -0.03551487
-0.017275168 0.09348723 0.060188405 -0.11436212 0.026151428 -0.10014371 -0.026631296 -0.08323451
-0.070195474 0.12919237 -0.009714697 0.05274787 -0.0833004 -0.12875664 0.0757864 -0.09707316
0.06964211 0.009556403 -0.03961319 0.09525243 -0.035617054 -0.14522229 -0.14280248 -0.118928544
0.15456244 0.116490975 -0.01224928 -0.0007772611 -0.09927066 -0.12156713 0.118453145 0.061089866
0.004287694 0.13879196 -0.08540358 0.09201169 0.0051587126 0.11279712 0.042188816 0.10638254
-0.09557763 -0.123316385 0.066705406 -0.05669221 0.09601434 0.0037922713 -0.006650696 0.036478892
0.05817119 -0.065052755 0.07721106 -0.010406546 -0.012652195 0.07336052 -0.0026946855 -0.03259342
-0.070281975 0.11897703 -0.07503883 -0.06717288 -0.009284169 0.07433618 0.0004775779 0.01880079
-0.12559804 -0.003730102 -0.14221157 0.031534467 -0.118722476 0.015862135 0.073879905 0.13397448
0.02461784 -0.04928478 -0.039626203 -0.082731 0.06735875 0.11634886 -0.050988644 -0.052691005
-0.14460035 0.08847029 0.109269924 -0.07929533 0.08974304 0.0958191 -0.08953441 -0.16286094
00000000: e0bc 673d b659 cdbd ddfe 0dbe b514 d2bd
00000010: 6a01 00be 1f43 5e3d e83b 06be 1c85 8a3d
00000020: 23fb 08be a611 4fbd c72a bbbd 94b4 56bd
00000030: a3fc 1abc ad01 19be 9d13 a8bd 63cc e6bd
00000040: 3f54 8a3d c655 ed3d d4a9 873d b800 2e3d
00000050: 708d e63c c10c 943d 7a61 09be b209 cd3d
00000060: 25c3 d43d 293a 6cbd 8f17 2a3b 0c88 06bc
00000070: 41f0 133b a868 3a3d b98c 0fbe 3664 e4bd
00000080: 8a31 e7bd 82dd 10be 0cc4 15bd aa3d 903d
00000090: 526f e4bd df8e 2bbd 30c8 06bd e839 d63d
000000a0: f24b ab3b 3b77 87bd 0d18 c83d 05bf 83bd
000000b0: 0fd4 843d 3916 453d 8ffb f83d bf2c c9bd
000000c0: 1ac7 d73c d97d 103d 06d0 be3d d219 07be
000000d0: 3120 bb3d 89c2 873d 5936 0bbe 4ebd d4bd
000000e0: 4f7e 61bd 518b c2bd 904b 8f3d 410d 3e3d
000000f0: 2e08 ef3b 3579 41bd 1ca8 ff3d d48a adbd
00000100: d928 b23c 985d 673d dd68 923c 4535 0fbd
00000110: 6550 f03d aaaa 703b f8c1 93bd acca 053d
00000120: 9f3a 98bc a86d e43d dc9c 9b3d 0cfb 023e
00000130: 5f0d 3c3d 6c2c b73b 027d 19bc 5c3e 92bd
00000140: d5a4 883d ffd6 01be 70b4 efbd 5289 01bd
00000150: 6fe9 c63d 7151 f4bd f918 01bc c64b e73d
00000160: d598 68bc 6026 6dbd 217e 17bd 5a53 4b3d
00000170: b58d 5fbd 99f9 793d f9a2 2e3d 326b ef3d
00000180: bc5b 8c3d 0109 74bd dd1b 56bb 802c 963d
00000190: 015f b43c f2d1 fd3d 5343 fb3d e2e0 7cbd
000001a0: c3a8 1b3c 447c 71bd f750 c53d 8dd4 573c
000001b0: 45bb 2fbd bb5e 6e3d 7a85 c73b f860 06bd
000001c0: d5f5 b2bc e69d d13d 0315 c03d 0e3a 1dbe
000001d0: e2e4 dd3d 1224 ecbd 2f82 0f3d 4f9a 18be
000001e0: 9652 dcbd ca3c 5c3c 3b62 af3d d796 05be
000001f0: 3d04 20bd b97f c33d 0f7b 0b3e b6d4 a13c
00000200: 7d96 bb3d 1735 d03d 58f2 083e 9b9d 8dbd
00000210: b6bf 71bd f0de 033e 3011 ddbd 022d de3d
00000220: c9f7 1dbd f062 11bd e6ea e03c ce59 90bd
00000230: 1034 1fbd 8975 6b3c 7b4c ad3d 9a32 a73d
00000240: 224b 06be 9664 993d 83df 68bd 40d4 353c
00000250: b111 0fbe 31e2 9a3b 309d d93d f507 08be
00000260: 6e88 9ebd 1b90 063d 5e62 13be 0533 c03d
00000270: ecaf 873d 0c75 dc3c b967 4fbd 830e c73d
00000280: 8cc9 3c3d c769 993d 43b8 8a3d 1e6c 2dbd
00000290: 5290 afbd 315d 6cbc 6547 15be 0a78 11bd
000002a0: a784 8dbc 3c76 bf3d 1e88 763d b036 eabd
000002b0: 853b d63c 2518 cdbd e029 dabc db76 aabd
000002c0: a5c2 8fbd 014b 043e 642a 1fbc 270e 583d
000002d0: 6699 aabd c8d8 03be e635 9b3d 4bce c6bd
000002e0: 86a0 8e3d 7692 1c3c 7141 22bd b513 c33d
000002f0: 30e3 11bd 27b5 14be d03a 12be cf90 f3bd
00000300: 9e45 1e3e d292 ee3d 34b1 48bc 1cc1 4bba
00000310: 6a4e cbbd 30f8 f8bd 9097 f23d 5e39 7a3d
00000320: c97f 8c3b 7b1f 0e3e 12e8 aebd a070 bc3d
00000330: 6b0a a93b 2d02 e73d 2ece 2c3d 17df d93d
00000340: 34be c3bd 4d8d fcbd d89c 883d 1736 68bd
00000350: 2ba3 c43d c187 783b 15ee d9bb e46a 153d
00000360: ea44 6e3d 613a 85bd d520 9e3d 3880 2abc
00000370: 274b 4fbc 0a3e 963d 5299 30bb ae80 05bd
00000380: ffef 8fbd 3baa f33d f5ad 99bd ef91 89bd
00000390: a11c 18bc 913d 983d 6c63 fa39 1d04 9a3c
000003a0: c69c 00be ba74 74bb e99f 11be 492a 013d
000003b0: c524 f3bd 4ff1 813c 594e 973d 9b30 093e
000003c0: 5aab c93c d6de 49bd 164f 22bd df6e a9bd
000003d0: 62f3 893d 5048 ee3d 78d9 50bd 86d2 57bd
000003e0: 1d12 14be e92f b53d e9c8 df3d 9765 a2bd
000003f0: 33cb b73d ce3c c43d d15d b7bd 05c5 26be

conv1.weight_fake_quant.scale f4 [6]
0.0011517338 0.0010613794 0.0011838428 0.0012005661 0.0011209288 0.0012549418
00000000: c6f5 963a fc1d 8b3a 2c2b 9b3a 505c 9d3a
00000010: 21ec 923a dc7c a43a

conv1.weight_fake_quant.activation_post_process.min_val f4 [6]
-0.14742193 -0.13585657 -0.15153188 -0.14568621 -0.14347889 -0.16063255
00000000: c6f5 16be fc1d 0bbe 2c2b 1bbe c42e 15be
00000010: 21ec 12be dc7c 24be

conv1.weight_fake_quant.activation_post_process.max_val f4 [6]
0.12356514 0.12845136 0.13590749 0.15247189 0.13927089 0.1165994
00000000: b80f fd3d c188 033e 552b 0b3e 9721 1c3e
00000010: 079d 0e3e abcb ee3d

conv2.weight f4 [16, 6, 5, 5]
0.043156747 0.09445031 0.0014322634 0.071947254 -0.05140226 0.0813486 -0.027632378 0.00068753376
-0.01732269 0.08379674 0.0670112 -0.055842407 -0.009574836 -0.040397257 0.002753021 0.047671773
-0.05421344 -0.029646007 0.08805022 0.058740467 -0.04116811 -0.0050278623 0.03246879 0.0710255
0.08738535 0.07713802 -0.057097223 0.016932191 -0.06190569 0.091011666 0.014497887 0.028534496
-0.017540047 0.053768866 -0.050636794 -0.0658908 0.003517264 0.06301055 -0.046580702 -0.0108188735
0.06449637 -0.03723119 0.045739792 0.08494897 -0.03304295 0.012384808 0.0557488 0.07146208
-0.06946406 0.021422595 0.002928889 0.071423724 -0.05482876 -0.0019014544 -0.016939739 0.0018544553
-0.05650858 0.012568357 0.06547716 0.0072447434 -7.533205e-05 0.07902237 -0.026834343 -0.062360093
-0.039745357 0.028029794 -0.029714504 0.006908984 0.0032972535 0.036405317 -0.03292478 -0.022857113
0.05411061 -0.04889879 0.07771533 -0.049483143 -0.03109484 0.033778165 -0.041527834 0.047984235
0.06874096 -0.04372778 0.008480832 0.08932004 -0.03968097 0.024156053 0.08363969 -0.007646937
-0.025021592 -0.049205024 0.074058644 0.010903631 0.0033066263 -0.0026183827 0.06374068 0.084197156
0.014642961 0.057261422 0.08755598 -0.05476783 0.09495289 0.077059925 0.030172938 -0.04587975
-0.021307802 0.039693173 0.029664477 0.026121626 0.015655179 0.09573284 0.041468203 0.0114741735
0.05724401 -0.039142683 0.022498306 -0.0563921 0.04480396 -0.013777133 0.0021660442 0.06457155
-0.035442848 -0.04179171 0.057053 -0.01155391 0.0025050496 -0.033962805 -0.014256391 0.008993791
-0.0220104 0.057273112 0.03623244 -0.027750459 0.015168504 -0.033738382 0.05932678 0.07939168
0.09957331 0.03674738 0.102587864 0.10180721 0.030500684 -0.017814176 -0.03755665 0.0062587983
0.067589104 0.037642345 -0.0100865 0.09967843 -0.045808733 -0.050699286 -0.035565607 0.08174434
-0.016763905 -0.030791475 -0.04917559 -0.06544012 -0.036407568 -0.014064897 -0.027092637 -0.06984149
-0.05299037 -0.004249909 0.020108068 0.08700186 0.021234112 0.055804595 0.07295291 0.032277815
-0.029548327 0.06518764 -0.013655604 -0.07138986 -0.058226172 -0.063131854 -0.028662596 0.01691529
-0.073612064 0.02688143 -0.060869705 -0.034215525 -0.024352515 0.05757718 0.028411794 -0.040929195
0.0028432054 0.04159303 -0.03569124 0.011782695 -0.050251924 0.076174505 -0.05135018 -0.023191584
0.002112688 -0.04898125 -0.077919 0.005476544 -0.070209116 0.000911984 -0.05187786 0.07593932
0.05350904 0.02526825 0.0076346193 -0.027729549 0.04993074 -0.06634284 0.011593442 -0.04678513
0.039738383 -0.025137458 0.02071148 0.032570034 0.0531875 0.07534608 -0.0054402985 0.042738523
0.05957826 0.049075413 -0.06366664 -0.0063722925 -0.0038506757 -0.07026009 0.0063791294 -0.007151999
0.014269544 0.07853538 0.07102382 -0.013762089 -0.06739397 0.08161018 0.028857298 0.004112218
0.09172403 -0.014997897 0.04421048 0.044083364 -0.07274912 0.0047249408 0.081102744 0.008960701
-0.011950403 0.04243232 0.026720474 0.04956748 -0.06277263 0.0610945 -0.04252422 -0.026811112
0.015073665 0.038540103 -0.059353814 0.040385704 -0.008551243 0.045590032 0.048594054 0.0047755884
00000000: 21c5 303d 2a6f c13d c9ba bb3a 1559 933d
00000010: 2d8b 52bd 189a a63d 4c5d e2bc 9c3b 343a
00000020: 50e8 8dbc a09d ab3d 2b3d 893d 02bb 64bd
00000030: c6df 1cbc 9877 25bd 076c 343b 7a43 433d
00000040: e90e 5ebd 2fdc f2bc ac53 b43d d899 703d
00000050: e49f 28bd c4c0 a4bb fefd 043d d175 913d
00000060: 17f7 b23d 8afa 9d3d c7de 69bd 61b5 8a3c
00000070: d290 7dbd 5364 ba3d 8c88 6d3c 2dc1 e93c
00000080: 25b0 8fbc be3c 5c3d 8768 4fbd c1f1 86bd
00000090: e681 663b ad0b 813d 68cb 3ebd a541 31bc
000000a0: ac16 843d bb7f 18bd a659 3b3d baf9 ad3d
000000b0: 0b58 07bd a6e9 4a3c db58 643d b65a 923d
000000c0: 2c43 8ebd 707e af3c 9af2 3f3b 9a46 923d
000000d0: 1f94 60bd 393a f9ba 35c5 8abc 3211 f33a
000000e0: 8a75 67bd 83eb 4d3c e418 863d 5065 ed3b
000000f0: 96fb 9db8 7bd6 a13d b2d3 dbbc 4c6d 7fbd
00000100: 07cc 22bd bd9e e53c d56b f3bc c264 e23b
00000110: bc16 583b be1d 153d 22dc 06bd d73e bbbc
00000120: 16a3 5d3d 194a 48bd 3729 9f3d d6ae 4abd
00000130: 9bba febc f95a 0a3d 1719 2abd 1e8b 443d
00000140: 0fc8 8c3d e71b 33bd 30f3 0a3c 6ded b63d
00000150: 8388 22bd eae2 c53c 494b ab3d 2893 fabb
00000160: 15fa ccbc 358b 49bd 0fac 973d 25a5 323c
00000170: fcb3 583b 2c99 2bbb 798a 823d 8f6f ac3d
00000180: 08e9 6f3c f48a 6a3d 8d50 b33d 3b54 60bd
00000190: a976 c23d 98d1 9d3d 3d2d f73c 68ec 3bbd
000001a0: b38d aebc 4f95 223d eb02 f33c 05fd d53c
000001b0: 4a3f 803c 940f c43d 90da 293d 2cfe 3b3c
000001c0: b278 6a3d 1454 20bd 5e4e b83c 67fb 66bd
000001d0: 5b84 373d 7cb9 61bc 31f4 0d3b 173e 843d
000001e0: 852c 11bd c92d 2bbd 68b0 693d 9c4c 3dbc
000001f0: c22b 243b 951c 0bbd a393 69bc b25a 133c
00000200: 284f b4bc 3697 6a3d 7868 143d ee54 e3bc
00000210: 5185 783c 4231 0abd a300 733d 1b98 a23d
00000220: 17ed cb3d 6c84 163d 9619 d23d 4c80 d03d
00000230: 92dc f93c 09ef 91bc 00d5 19bd 9b16 cd3b
00000240: 286c 8a3d dc2e 1a3d d941 25bc 3424 cc3d
00000250: f0a1 3bbd 0eaa 4fbd 3ead 11bd 9469 a73d
00000260: 7554 89bc 673e fcbc 586c 49bd 7805 86bd
00000270: 1a20 15bd 7470 66bc 61f1 ddbc 0e09 8fbd
00000280: 6e0c 59bd d242 8bbb adb9 a43c 082e b23d
00000290: 29f3 ad3c 5c93 643d 5668 953d be35 043d
000002a0: 550f f2bc 1981 853d c1bb 5fbc d934 92bd
000002b0: 917e 6ebd 464b 81bd d2cd eabc ef91 8a3c
000002c0: ecc1 96bd 7236 dc3c 8352 79bd 9425 0cbd
000002d0: ed7e c7bc 0dd6 6b3d dabf e83c 5fa5 27bd
000002e0: 1255 3a3b 745d 2a3d fa30 12bd 340c 413c
000002f0: f6d4 4dbd 6101 9c3d 9154 52bd 47fc bdbc
00000300: 0675 0a3b 90a0 48bd ff93 9fbd 9574 b33b
00000310: ccc9 8fbd 3612 6f3a e17d 54bd 1386 9b3d
00000320: 4c2c 5b3d 5cff ce3c d42b fa3b 1429 e3bc
00000330: 2d84 4c3d c1de 87bd 6cf2 3d3c c4a1 3fbd
00000340: b7c4 223d 12ed cdbc 1fab a93c 2868 053d
00000350: 23db 593d 0c4f 9a3d 8844 b2bb 970e 2f3d
00000360: 5508 743d 4d03 493d a863 82bd aace d0bb
00000370: 9e5b 7cbb 86e4 8fbd 0408 d13b 515b eabb
00000380: ceca 693c 28d7 a03d f074 913d 637a 61bc
00000390: da05 8abd 3d23 a73d 2466 ec3c c9bf 863b
000003a0: cfd9 bb3d bdb9 75bc 0c16 353d c290 343d
000003b0: 7efd 94bd add3 9a3b 3219 a63d e7cf 123c
000003c0: a0cb 43bc 83cd 2d3d e5e4 da3c 4507 4b3d
000003d0: f08e 80bd 3a3e 7a3d e02d 2ebd faa2 dbbc
000003e0: 89f7 763c 3adc 1d3d fc1c 73bd 7b6b 253d
000003f0: 831a 0cbc 9dbc 3a3d 8f0a 473d 8a7c 9c3b

conv2.weight_fake_quant.scale f4 [16]
0.00079084013 0.00070941605 0.00077578786 0.0006825604 0.0007728907 0.0007892211 0.000682559 0.0006871248
0.0007790763 0.00079591933 0.000683463 0.0006797026 0.00068181625 0.00066038367 0.00067551236 0.00068280904
00000000: 6250 4f3a 1bf8 393a 3e5e 4b3a daed 323a
00000010: d19b 4a3a bbe3 4e3a c2ed 323a 2a20 343a
00000020: ed3a 4c3a 3ea5 503a 6d2a 333a 122e 323a
00000030: eabb 323a 991d 2d3a de14 313a 8afe 323a

conv2.weight_fake_quant.activation_post_process.min_val f4 [16]
-0.06972621 -0.08675404 -0.07343469 -0.08736773 -0.07113611 -0.07376043 -0.087037005 -0.08626748
-0.07037293 -0.069704 -0.08666573 -0.08668942 -0.08727248 -0.08452911 -0.08646558 -0.08739956
00000000: 9dcc 8ebd 1aac b1bd ed64 96bd daed b2bd
00000010: cfaf 91bd b50f 97bd 7540 b2bd 01ad b0bd
00000020: af1f 90bd f9c0 8ebd cd7d b1bd 398a b1bd
00000030: eabb b2bd 991d adbd de14 b1bd 8afe b2bd

conv2.weight_fake_quant.activation_post_process.max_val f4 [16]
0.100436695 0.09009584 0.09852506 0.07288512 0.098157115 0.10023108 0.08668499 0.08726485
0.09894269 0.10108176 0.0867998 0.08632223 0.07885075 0.071482204 0.083716825 0.077800356
00000000: c1b1 cd3d 2b84 b83d 82c7 c93d cb44 953d
00000010: 9906 c93d f445 cd3d e687 b13d eab7 b23d
00000020: 77a2 ca3d f403 cf3d 18c4 b13d b6c9 b03d
00000030: 817c a13d 4365 923d ba73 ab3d cb55 9f3d

conv3.weight f4 [120, 16, 5, 5]
0.035409257 -0.021419056 -0.041541297 0.004626109 0.011054867 0.037261195 -0.03141597 -0.009179505
0.010423653 -0.008121842 0.020895336 0.012202567 -0.03838626 -0.015793802 -0.026561813 0.01750115
-0.05269078 0.041856587 -0.009965989 0.0113711 0.03163444 0.03487889 -0.048001286 -0.04830085
0.004713052 -0.043751955 0.0066907513 0.0151831545 -0.001812682 0.0449157 0.018670075 0.0017660923
0.035950862 -0.029567922 0.007245116 -0.009068697 0.042923566 -0.033104215 0.0018431157 0.018369129
0.0038324383 0.024801351 0.012214854 -0.022960726 -0.044248335 -0.027895024 0.04323236 -0.014786943
0.032537784 -0.014255244 0.033778034 -0.047740504 -0.012374461 -0.01958635 -0.014191288 -0.0026837138
0.018570844 0.028370209 -0.04160168 -0.042638227 -0.018384956 -0.009422026 0.00060422876 -0.03790378
0.031469777 0.019814217 -0.03528941 0.028878482 -0.0069076945 0.036778368 0.009714002 0.018176805
0.008114362 0.0026907441 -0.047221906 0.041902836 -0.035404854 -0.026896724 -0.05389212 -0.027624952
0.022552105 -0.045647375 -0.04599339 -0.012861073 -0.05155465 -0.02790844 -0.0177074 -0.03955994
-0.012103685 -0.0069711767 -0.015136745 -0.02635308 -0.038108815 0.0018194335 -0.0060203625 0.014409944
-0.009246835 0.028844008 -0.03806822 -0.022128575 0.0021413625 0.0122888 0.002295811 -0.037791956
-0.029670859 -0.0045154137 0.0020236447 -0.006008691 0.022593943 -0.005984998 0.03270829 -0.045790553
-0.0096664475 -0.03937387 0.009322864 0.041428857 -0.0014284118 -0.02446387 0.0034921223 -0.0020831109
-0.012057958 0.025608711 -0.051826913 0.01953254 0.0068721157 -0.030155458 -0.0032089115 0.0002607753
0.005884568 0.00097103947 -0.03849007 0.044150412 -0.033546563 -0.013745032 0.04548922 0.02355166
0.015001259 0.047659338 0.029597297 -0.034083873 -0.04987731 0.03920927 0.0014190051 0.012998316
0.001601189 -0.033531893 -0.009774236 0.02927311 0.012058447 -0.03820003 -0.015798017 0.040666863
-0.008582292 -0.004210978 0.04174154 -0.012727733 -0.016050357 -0.028995816 0.030348469 -0.005227619
-0.05379258 0.03228886 -0.011244424 0.0038040034 -0.04655912 -0.005264772 -0.016041651 -0.034910228
0.031539775 0.036288504 0.040621772 0.03668019 0.035291348 0.033157796 -0.019801345 0.040528562
0.033300176 0.05488902 0.029022785 0.030362448 0.005369265 -0.0002819031 0.04936223 0.032065537
-0.020709077 0.054429095 -0.0076561896 0.024082191 0.033705823 -0.048293743 0.01842456 0.009702963
0.017401055 -0.0017026492 -0.01529159 0.007694332 0.014969366 -0.0380001 -0.014760798 -0.025032995
-0.028004184 0.0533433 0.015759097 0.015121803 0.0121001415 0.008762242 0.045243718 0.022144495
0.022421673 -0.046730902 -0.016327027 -0.030207707 -0.015850242 -0.014627045 0.029401751 -0.0049406677
-0.04696648 0.028422438 0.012496255 0.00027295967 -0.0046375846 0.016674785 0.0048233527 -0.03134301
-0.042092666 -0.047086325 0.018863903 0.001421955 0.024922617 -0.03389031 -0.022997037 -0.035554323
-0.04055679 0.033480197 0.019705852 0.015467503 -0.040273227 -0.023995375 -0.03283266 -0.0024840983
-0.05244125 0.03419771 -0.044488527 0.032376204 -0.00641833 -0.008688088 0.011919732 -0.055175457
0.037919793 0.020334056 0.023674035 -0.011220406 -0.010558051 0.014835858 -0.019133382 0.011042954
00000000: 4c09 113d 0477 afbc 3527 2abd 9d96 973b
00000010: 791f 353c 329f 183d 08ae 00bd a265 16bc
00000020: f8c7 2a3c 7911 05bc b22c ab3c 47ed 473c
00000030: e93a 1dbd 0162 81bc 2998 d9bc 925e 8f3c
00000040: 4ad2 57bd d071 2b3d 6348 23bc da4d 3a3c
00000050: 1d93 013d 2bdd 0e3d ff9c 44bd 1dd7 45bd
00000060: f26f 9a3b 4035 33bd 173e db3b c4c2 783c
00000070: 8497 edba 86f9 373d fcf1 983c 397c e73a
00000080: 3641 133d 6d38 f2bc 7068 ed3b df94 14bc
00000090: 9fd0 2f3d 4998 07bd b394 f13a db7a 963c
000000a0: a529 7b3b 342c cb3c d020 483c 2218 bcbc
000000b0: be3d 35bd 1b84 e4bc 6a14 313d ef44 72bc
000000c0: 5746 053d d48e 69bc d65a 0a3d 8c8b 43bd
000000d0: 40be 4abc 8e73 a0bc 9382 68bc 3fe1 2fbb
000000e0: e221 983c a468 e83c 8666 2abd 6ca5 2ebd
000000f0: 0c9c 96bc d75e 1abc 1b65 1e3a fe40 1bbd
00000100: 74e6 003d 6d51 a23c a18b 10bd 9192 ec3c
00000110: f159 e2bb eaa4 163d 7a27 1f3c 86e7 943c
00000120: 1af2 043c 3257 303b c26b 41bd 4fa2 2b3d
00000130: ae04 11bd 8556 dcbc fcbd 5cbd b94d e2bc
00000140: 31bf b83c bef8 3abd 9163 3cbd 40b7 52bc
00000150: f82a 53bd 3ea0 e4bc 1c0f 91bc 9b09 22bd
00000160: 894e 46bc 786e e4bb 1c00 78bc 6ae2 d7bc
00000170: fd17 1cbd 0f7a ee3a 7646 c5bb b017 6c3c
00000180: 0980 17bc 454a ec3c 6ced 1bbd fc46 b5bc
00000190: 1a56 0c3b f756 493c 5175 163b bdcb 1abd
000001a0: 4d10 f3bc 09f6 93bb 209f 043b 8ee4 c4bb
000001b0: ef16 b93c cd1d c4bb 21f9 053d e08e 3bbd
000001c0: 0560 1ebc 7f46 21bd edbe 183c 4eb1 293d
000001d0: 8c39 bbba 7468 c8bc 17dc 643b cd84 08bb
000001e0: be8e 45bc 5cc9 d13c 7548 54bd b502 a03c
000001f0: 7c2f e13b 9408 f7bc 9a4c 52bb abb8 8839
00000200: 56d3 c03b 5b8d 7e3a c3a7 1dbd 10d7 343d
00000210: 1f68 09bd d832 61bc e852 3a3d 69ef c03c
00000220: d7c7 753c 7036 433d 0876 f23c 889b 0bbd
00000230: 264c 4cbd e699 203d e9fd b93a e4f6 543c
00000240: fdde d13a bd58 09bd 1e24 20bc 29ce ef3c
00000250: cb90 453c a277 1cbd d86a 81bc 4c92 263d
00000260: be9c 0cbc 3efc 89bb 2df9 2a3d fb87 50bc
00000270: 0a7c 83bc a288 edbc 5a9d f83c 724c abbb
00000280: 9c55 5cbd 5341 043d 883a 38bc 964c 793b
00000290: c7b4 3ebd 1c84 acbb c869 83bc 07fe 0ebd
000002a0: da2f 013d 41a3 143d 0463 263d f83d 163d
000002b0: a98d 103d 78d0 073d 6e36 a2bc 4701 263d
000002c0: c465 083d 4fd3 603d 31c1 ed3c abba f83c
000002d0: a9f0 af3b 65cc 93b9 0d30 4a3d 2757 033d
000002e0: 15a6 a9bc 0bf1 5e3d c6e0 fabb 0448 c53c
000002f0: 1e0f 0a3d a9cf 45bd 1aef 963c 2df9 1e3c
00000300: a88c 8e3c 6d2b dfba 9489 7abc bc20 fc3b
00000310: 1242 753c fea5 1bbd 46d7 71bc ff11 cdbc
00000320: 0869 e5bc 817e 5a3d 3919 813c 70c1 773c
00000330: ac3f 463c 828f 0f3c 7a51 393d 5f68 b53c
00000340: a8ad b73c e768 3fbd 42c0 85bc 2776 f7bc
00000350: 5ed8 81bc 46a6 6fbc f1db f03c 53e5 a1bb
00000360: ec5f 40bd 2cd6 e83c 18bd 4c3c 071c 8f39
00000370: e1f6 97bb 8f99 883c 370d 9e3b 8761 00bd
00000380: 5c69 2cbd 97dd 40bd 7988 9a3c e460 ba3a
00000390: 842a cc3c 91d0 0abd 4864 bcbc 69a1 11bd
000003a0: e01e 26bd 8822 093d 2b6e a13c 696b 7d3c
000003b0: 8af5 24bd f391 c4bc 8a7b 06bd 41cc 22bb
000003c0: a3cc 56bd e612 0c3d 9a39 36bd e99c 043d
000003d0: db50 d2bb 7b58 0ebc fb4a 433c a9ff 61bd
000003e0: c951 1b3d 9b93 a63c 0df0 c13c cbd5 37bc
000003f0: adfb 2cbc 1912 733c 9cbd 9cbc 82ed 343c

conv3.weight_fake_quant.scale f4 [120]
0.00043580186 0.00053333375 0.0005329209 0.0004354377 0.0005413474 0.0005241687 0.0005395972 0.00043540762
0.00043997378 0.0004393336 0.0004343432 0.00043635975 0.00054298196 0.0004315223 0.0005375608 0.00049897266
0.0004398142 0.00043544313 0.0004274798 0.00043884644 0.00043114106 0.00043061466 0.00043354565 0.00047794334
0.00043370196 0.0005423217 0.00043532276 0.00043404102 0.0004325364 0.00043772804 0.0005393019 0.00043599747
0.0005400431 0.00043216028 0.0004331356 0.00043720688 0.00043888798 0.00053924957 0.0005372158 0.00053468015
0.00043818518 0.00043546048 0.0005428768 0.00043362452 0.0005380541 0.00043349736 0.0005436042 0.000432199
0.00043362362 0.00043915573 0.0004349642 0.00043584514 0.00053079205 0.00043896827 0.0005428448 0.0004347636
0.00043660318 0.0004403963 0.0005328926 0.00043273793 0.00047248788 0.0004354004 0.00052307145 0.0004364836
0.0005142345 0.00054152723 0.00043544243 0.00050983013 0.00042954463 0.0005152312 0.00043503827 0.00043528315
0.0005418888 0.0004358423 0.00042818676 0.0005267101 0.0004354152 0.0004360182 0.0004377202 0.0005387845
0.00054552295 0.0004327248 0.00053181313 0.00043897278 0.00043569147 0.0005313122 0.00043490162 0.00053824903
0.00043204962 0.00044040615 0.00043900576 0.00043874796 0.00054399186 0.00053888577 0.00043524333 0.000537182
0.00046292177 0.00051759003 0.00054406276 0.00053120975 0.0005390508 0.00043768878 0.00043331875 0.0004359543
0.0004399192 0.00043569313 0.0004337651 0.0004387526 0.00043457188 0.0005417105 0.00043590055 0.00050302356
0.000538852 0.00043238272 0.0004391664 0.00049193064 0.00043473634 0.00042989335 0.0005371041 0.00043706872
00000000: 567c e439 6ccf 0b3a b7b3 0b3a 754b e439
00000010: 36e9 0d3a 5e68 093a c173 0d3a 6c47 e439
00000020: 48ac e639 5c56 e639 8fb8 e339 37c7 e439
00000030: e756 0e3a f13d e239 18eb 0c3a 7dcd 023a
00000040: dd96 e639 304c e439 5e1f e039 f914 e639
00000050: c60a e239 1fc4 e139 834d e339 7894 fa39
00000060: 7e62 e339 982a 0e3a 083c e439 0090 e339
00000070: 0ec6 e239 dd7e e539 f05f 0d3a 9796 e439
00000080: ae91 0d3a 9293 e239 7a16 e339 ea38 e539
00000090: 8c1a e639 6d5c 0d3a f1d3 0c3a c729 0c3a
000000a0: 38bc e539 844e e439 d84f 0e3a 1958 e339
000000b0: 330c 0d3a 0847 e339 a980 0e3a c598 e239
000000c0: fa57 e339 7c3e e639 e80b e439 2582 e439
000000d0: da24 0b3a 5325 e639 b34d 0e3a fcf0 e339
000000e0: e3e7 e439 fee4 e639 d1b1 0b3a 1ae1 e239
000000f0: 40b8 f739 7446 e439 bb1e 093a d6d7 e439
00000100: b1cd 063a 47f5 0d3a 184c e439 1fa6 053a
00000110: 8134 e139 9510 073a d915 e439 b736 e439
00000120: 8b0d 0e3a c381 e439 417e e039 eb12 0a3a
00000130: 7048 e439 5f99 e439 d07d e539 373d 0d3a
00000140: 6d01 0f3a 57df e239 6069 0b3a ee25 e639
00000150: 856d e439 c247 0b3a 8203 e439 4819 0d3a
00000160: b884 e239 50e6 e639 5b2a e639 c107 e639
00000170: ad9a 0e3a 0344 0d3a 5f31 e439 acd1 0c3a
00000180: 4fb4 f239 e1ae 073a 6f9f 0e3a e240 0b3a
00000190: 164f 0d3a 9879 e539 0f2f e339 cc90 e439
000001a0: f5a4 e639 be6d e439 f76a e339 6108 e639
000001b0: 40d7 e339 9401 0e3a 9589 e439 57dd 033a
000001c0: bf41 0d3a 6db1 e239 eb3f e639 e8f4 003a
000001d0: 53ed e339 4f63 e139 72cc 0c3a 5f26 e539

conv3.weight_fake_quant.activation_post_process.min_val f4 [120]
-0.05578264 -0.055142403 -0.04660356 -0.055736024 -0.04422948 -0.05582572 -0.06906844 -0.055732176
-0.055247385 -0.055057343 -0.05559593 -0.05585405 -0.042222418 -0.055234853 -0.04371583 -0.055836324
-0.055900265 -0.05573672 -0.054717414 -0.055945996 -0.055186056 -0.055118676 -0.055493843 -0.061176747
-0.05551385 -0.05132436 -0.055721313 -0.05555725 -0.055261403 -0.053601705 -0.048856486 -0.055807676
-0.05510321 -0.055316515 -0.05116466 -0.05562241 -0.055730406 -0.042279698 -0.05585961 -0.06843906
-0.055640873 -0.05573894 -0.04414458 -0.055500485 -0.068870924 -0.05342581 -0.045143396 -0.055321474
-0.055503823 -0.05035856 -0.055675417 -0.054717887 -0.06794138 -0.05543484 -0.05495776 -0.055649742
-0.055885207 -0.05554601 -0.046006087 -0.055390455 -0.06047845 -0.05573125 -0.055124424 -0.0558699
-0.06582201 -0.049515486 -0.055334933 -0.05462253 -0.054981712 -0.0659496 -0.055684898 -0.055716243
-0.045715254 -0.055787813 -0.054807905 -0.05551929 -0.055447362 -0.05581033 -0.055038206 -0.054785665
-0.048657186 -0.055388775 -0.055377267 -0.05586626 -0.05576851 -0.06800796 -0.055667408 -0.042187873
-0.05530235 -0.056116328 -0.053136833 -0.05569543 -0.05514852 -0.051042553 -0.055711146 -0.06875929
-0.059253987 -0.05567887 -0.039846916 -0.04693548 -0.053498685 -0.055278085 -0.0554648 -0.05580215
-0.055703674 -0.05576872 -0.05552193 -0.055261422 -0.0556252 -0.04106068 -0.055770367 -0.064387016
-0.06897306 -0.055160325 -0.051159058 -0.06296712 -0.055646252 -0.05502635 -0.050392903 -0.055441473
00000000: 567c 64bd 00dd 61bd 60e3 3ebd 754b 64bd
00000010: f929 35bd 83a9 64bd c173 8dbd 6c47 64bd
00000020: 154b 62bd cf83 61bd 8fb8 63bd 37c7 64bd
00000030: 6af1 2cbd f13d 62bd 5f0f 33bd a1b4 64bd
00000040: adf7 64bd 304c 64bd 5e1f 60bd a127 65bd
00000050: c60a 62bd 1fc4 61bd 834d 63bd 7894 7abd
00000060: 7e62 63bd 7e39 52bd 083c 64bd 0090 63bd
00000070: c859 62bd 768d 5bbd bd1d 48bd 9796 64bd
00000080: e7b3 61bd 9293 62bd 0992 51bd 53d4 63bd
00000090: 9145 64bd 7a2d 2dbd 0ccd 64bd c729 8cbd
000000a0: afe7 63bd 844e 64bd f2d0 34bd 7a54 63bd
000000b0: 330c 8dbd 06d5 5abd 48e8 38bd c598 62bd
000000c0: fa57 63bd c744 4ebd e80b 64bd dd1f 60bd
000000d0: da24 8bbd a50f 63bd 631b 61bd fcf0 63bd
000000e0: e3e7 64bd 3784 63bd e170 3cbd 1ae1 62bd
000000f0: 40b8 77bd 7446 64bd 26ca 61bd d6d7 64bd
00000100: b1cd 86bd c0d0 4abd e2a6 62bd e0bb 5fbd
00000110: 8134 61bd 9510 87bd d915 64bd b736 64bd
00000120: eb3f 3bbd c381 64bd 417e 60bd 3268 63bd
00000130: c61c 63bd 5f99 64bd be6f 61bd ef66 60bd
00000140: c24c 47bd 57df 62bd 46d3 62bd 05d4 64bd
00000150: 856d 64bd c247 8bbd 8203 64bd 31cd 2cbd
00000160: b884 62bd 3cda 65bd 02a6 59bd e420 64bd
00000170: 6ae3 61bd ff11 51bd 5f31 64bd acd1 8cbd
00000180: 4fb4 72bd 870f 64bd 8536 23bd 6b3f 40bd
00000190: 7021 5bbd 466b 62bd 0f2f 63bd cc90 64bd
000001a0: 8929 64bd be6d 64bd f76a 63bd cd59 62bd
000001b0: 40d7 63bd 3e2f 28bd 786f 64bd 57dd 83bd
000001c0: bf41 8dbd cbef 61bd 298c 51bd e8f4 80bd
000001d0: 53ed 63bd 4f63 61bd ca68 4ebd 9916 63bd

conv3.weight_fake_quant.activation_post_process.max_val f4 [120]
0.05484306 0.067733385 0.067680955 0.045466524 0.06875113 0.066569425 0.055925168 0.052155565
0.05587667 0.055795368 0.049621668 0.053684067 0.06895871 0.04414302 0.06827022 0.06336953
0.055856403 0.053918827 0.052300498 0.0557335 0.04674556 0.04895079 0.049484573 0.055756554
0.05341022 0.06887486 0.048249267 0.0499846 0.054932125 0.05559146 0.06849134 0.055122294
0.06858548 0.048093595 0.05500822 0.055525273 0.055738773 0.068484694 0.068226404 0.05586765
0.05564952 0.04968595 0.06894535 0.055070315 0.055860274 0.055054165 0.069037735 0.054722834
0.047159716 0.055772778 0.05377269 0.055352334 0.05404827 0.05574897 0.068941295 0.05509764
0.054273568 0.05593033 0.06767736 0.045213103 0.05519592 0.053989347 0.06643008 0.05375023
0.05553926 0.068773955 0.05530119 0.06474843 0.048383784 0.055953465 0.05224073 0.049253315
0.06881988 0.055012584 0.051715977 0.066892184 0.05529773 0.04871468 0.055590466 0.06842563
0.069281414 0.051372483 0.067540266 0.055749543 0.05511635 0.05580941 0.052964423 0.068357624
0.05430167 0.05593158 0.05575373 0.05572099 0.06908697 0.06843849 0.04465965 0.055745494
0.054898195 0.06573393 0.06909597 0.06746364 0.06845945 0.055586476 0.049997393 0.04933588
0.05586974 0.054749183 0.053462174 0.05572158 0.053121638 0.06879724 0.05535937 0.055659927
0.055535194 0.054912604 0.055774134 0.05562695 0.054652616 0.053558532 0.06821222 0.055507727
00000000: 1ea3 603d cdb7 8a3d 509c 8a3d 1b3b 3a3d
00000010: 64cd 8c3d 8d55 883d ca11 653d 13a1 553d
00000020: efde 643d af89 643d 1740 4b3d d3e3 5b3d
00000030: 393a 8d3d 50cf 343d 42d1 8b3d e2c7 813d
00000040: afc9 643d fdd9 5c3d 0c39 563d cf48 643d
00000050: 4678 3f3d a080 483d 56b0 4a3d fc60 643d
00000060: adc4 5a3d 430e 8d3d 06a1 453d a7bc 4c3d
00000070: 8200 613d dfb3 633d 3045 8c3d eac7 613d
00000080: 8b76 8c3d cafd 443d 4d50 613d 786e 633d
00000090: 574e 643d b441 8c3d 49ba 8b3d 7ad5 643d
000000a0: c0f0 633d 7f83 4b3d 3833 8d3d 6991 613d
000000b0: becd 643d 7a80 613d a863 8d3d 0d25 603d
000000c0: 8c2a 413d ff71 643d c140 5c3d 21b9 623d
000000d0: b861 5d3d 0859 643d 1831 8d3d 10ae 613d
000000e0: f64d 5e3d 3417 653d 6d9a 8a3d 6031 393d
000000f0: 1e15 623d ef23 5d3d 7e0c 883d 3429 5c3d
00000100: 237d 633d 5cd9 8c3d 8083 623d d39a 843d
00000110: 132e 463d 762f 653d 60fa 553d d8bd 493d
00000120: 70f1 8c3d e054 613d 22d4 533d c5fe 883d
00000130: df7f 623d 0b89 473d d4b2 633d bd22 8c3d
00000140: 6ae3 8d3d f46b 523d 8d52 8a3d a259 643d
00000150: afc1 613d 6898 643d 39f1 583d 15ff 8b3d
00000160: 6e6b 5e3d 8318 653d 065e 643d b13b 643d
00000170: 787d 8d3d 7b29 8c3d 0aed 363d 6355 643d
00000180: eedc 603d 839f 863d 3082 8d3d 602a 8a3d
00000190: 7834 8c3d a5ae 633d 11ca 4c3d 6b14 4a3d
000001a0: abd7 643d ae40 603d 27fb 5a3d 503c 643d
000001b0: 1396 593d 91e5 8c3d 82c0 623d aafb 633d
000001c0: df78 633d 0aec 603d 6b73 643d 16d9 633d
000001d0: 6cdb 5f3d 3160 5b3d d9b2 8b3d 125c 633d

fc1.weight f4 [84, 120]
0.016078299 0.033949185 0.02382962 -0.09654118 0.0718013 0.08482119 0.06531501 -0.03990934
-0.06735549 -0.019504284 -0.04826545 0.03316803 0.06618194 -0.035226904 -0.01159064 0.039111495
0.031237457 0.0440115 0.047128413 -0.06381618 0.013547999 -0.08217388 -0.07701821 0.05679046
-0.036508765 0.064716436 0.020166809 -0.008866818 -0.037153967 -0.019788386 0.08548093 -0.059444238
-0.025387064 0.046385653 0.08146821 0.057394434 -0.081339665 -0.04047307 0.08462356 -0.032766826
0.06563138 -0.06323596 -0.064187355 -0.008106758 0.054240927 0.014664102 0.107420795 -0.004082848
0.04795261 -0.07412145 0.060561005 0.07676941 0.08216546 -0.09358452 0.00943022 0.016281804
0.08483519 -0.07772545 0.10363834 0.04896885 -0.056044612 0.0048131556 0.021246638 0.0897527
-0.044830833 -0.04628739 0.057235684 0.061484836 0.0500973 0.078429624 0.061383158 -0.055427454
0.012277862 0.06626013 0.07482055 -0.07520102 0.07787692 -0.07252663 -0.06953696 -0.04591858
-0.06474849 -0.058805227 -0.033528592 -0.016393565 0.00010567553 0.073021576 -0.015093264 0.0069907554
-0.00679176 0.02262524 0.09239121 -0.054832138 0.09262176 0.096178636 -0.042319734 0.0018729137
0.085132845 0.026606267 0.025650347 -0.07855718 0.03276652 -0.089300275 0.08077551 0.0134778
0.045639336 -0.07778283 0.003918996 0.018422643 -0.07477956 -0.051164657 -0.06121961 0.03888649
-0.023745535 0.054293912 -0.06547783 -0.032734238 0.031087216 0.047606394 -0.05711552 0.07558423
0.030647159 -0.016556472 -0.00913614 -0.09098061 0.017682634 0.017300487 -0.0857657 -0.051820487
-0.02548828 -0.087206 -0.024590947 0.050243765 0.042155787 -0.05103976 -0.053414736 0.024199009
-0.002076596 -0.020502783 0.05319442 -0.059900593 0.06621349 0.041464895 -0.08745915 -0.0912718
-0.06032611 -0.08323183 0.07853618 0.020649217 0.0032399967 -0.07502547 -0.020452335 -0.0034694
-0.030025769 -0.07611065 0.021878116 0.085278824 -0.032213073 0.08539043 -0.033620488 -0.043106172
0.05253634 -0.028282136 -0.003727235 -0.07741841 0.076211184 -0.04867626 -0.017383762 -0.050121393
0.071926996 -0.06988984 0.0072330236 -0.08085248 -0.09086846 -0.006955914 -0.076214045 -0.055744022
-0.07452516 0.04054351 -0.04184694 -0.070867494 0.038664415 -0.08908225 -0.020202592 0.07406452
-0.0030274168 0.06783989 -0.026732013 -0.08105539 -0.07247898 0.0071823 0.067875266 0.07244128
0.066746905 -0.07465619 0.070998475 -0.062036 0.044995278 0.08017881 0.019128077 -0.08819638
0.02916228 -0.030078452 0.018888354 -0.024405353 0.005196981 -0.041398764 0.03836301 -0.041032664
-0.03516676 -0.0763677 0.07990676 -0.06360928 -0.035477612 -0.090837754 0.039064363 0.014487676
0.05563417 -0.08290872 0.01565098 0.027616829 -0.0075777993 0.034099445 -0.0075054243 -0.000115305185
0.041716576 -0.017242491 0.04516989 -0.00501588 -0.022414349 0.010572441 -0.0662587 -0.037015997
0.0034298003 0.023909934 -0.049493942 0.05728279 -0.085829124 0.0581443 -0.03184451 0.0016753897
-0.03145003 -0.0064674765 -0.028578877 0.0063418522 0.064129576 0.086228594 0.008683205 0.039406702
0.016937949 0.0043639764 0.06576508 -0.021479107 0.0036105514 -0.07185239 0.087751776 0.08873595
00000000: a3b6 833c 4d0e 0b3d 5636 c33c 62b7 c5bd
00000010: 8f0c 933d bbb6 ad3d e0c3 853d fa77 23bd
00000020: adf1 89bd 73c7 9fbc feb1 45bd 33db 073d
00000030: 668a 873d 164a 10bd abe6 3dbc 6033 203d
00000040: b2e5 ff3c 6745 343d b909 413d 0fb2 82bd
00000050: 6df8 5d3c c74a a8bd b9bb 9dbd 1d9d 683d
00000060: 378a 15bd 0d8a 843d dd34 a53c 2146 11bc
00000070: c22e 18bd 411b a2bc a010 af3d cd7b 73bd
00000080: 88f8 cfbc e2fe 3d3d ced8 a63d 6d16 6b3d
00000090: 6995 a6bd 17c7 25bd 1e4f ad3d 8236 06bd
000000a0: bf69 863d db81 81bd a974 83bd 35d2 04bc
000000b0: bc2b 5e3d b441 703c 6fff db3d 69c9 85bb
000000c0: f569 443d fdcc 97bd d10e 783d 4839 9d3d
000000d0: 5d46 a83d 3ea9 bfbd 3681 1a3c 6b61 853c
000000e0: 12be ad3d 852e 9fbd 5740 d43d 9093 483d
000000f0: 098f 65bd adb7 9d3b 6e0d ae3c 43d0 b73d
00000100: 89a0 37bd d997 3dbd f76f 6a3d 86d7 7b3d
00000110: d432 4d3d b69f a03d e86c 7b3d e607 63bd
00000120: 1629 493c 64b3 873d 843b 993d fe02 9abd
00000130: ef7d 9f3d d788 94bd 6569 8ebd 1f15 3cbd
00000140: db9a 84bd c0dd 70bd 4755 09bd cc4b 86bc
00000150: 1e9e dd38 568c 953d bd49 77bc b512 e53b
00000160: 6a8d debb 9158 b93c 9a37 bd3d aa97 60bd
00000170: 7ab0 bd3d 4ef9 c43d 7557 2dbd 8e7c f53a
00000180: 215a ae3d 63f5 d93c ad20 d23c 96e2 a0bd
00000190: 3036 063d 10e3 b6bd a16d a53d fed1 5c3c
000001a0: 50f0 3a3d 9b4c 9fbd ec6a 803b 15eb 963c
000001b0: 0726 99bd 0892 51bd 6ac1 7abd 7147 1f3d
000001c0: ff85 c2bc 4b63 5e3d 3e19 86bd 5614 06bd
000001d0: 9eaa fe3c ecfe 423d f7f1 69bd e8cb 9a3d
000001e0: c00f fb3c 70a1 87bc c0af 15bc 0b54 babd
000001f0: 2cdb 903c c0b9 8d3c eda5 afbd b841 54bd
00000200: cccc d0bc 0f99 b2bd f472 c9bc 68cc 4d3d
00000210: 8cab 2c3d 110f 51bd 69c9 5abd 003d c63c
00000220: 8017 08bb 74f5 a7bc 64e2 593d 535a 75bd
00000230: f09a 873d 18d7 293d c81d b3bd b6ec babd
00000240: 8318 77bd 7375 aabd 94d7 a03d 8c28 a93c
00000250: 2056 543b f4a6 99bd a88b a7bc e05e 63bb
00000260: 9af8 f5bc e7df 9bbd bc39 b33c aaa6 ae3d
00000270: dbf1 03bd 2ee1 ae3d a3b5 09bd 1990 30bd
00000280: 5830 573d f0af e7bc a044 74bb 8b8d 9ebd
00000290: 9c14 9c3d c260 47bd 6468 8ebc 174c 4dbd
000002a0: 764e 933d 6822 8fbd 0003 ed3b fc95 a5bd
000002b0: 3e19 babd 70ee e3bb 1c16 9cbd d853 64bd
000002c0: a6a0 98bd f410 263d b267 2bbd fa22 91bd
000002d0: 945e 1e3d c170 b6bd e87f a5bc 24af 973d
000002e0: a067 46bb a4ef 8a3d 18fd dabc 5e00 a6bd
000002f0: dc6f 94bd 8059 eb3b 3002 8b3d 185c 943d
00000300: 9ab2 883d 58e5 98bd a667 913d 7619 7ebd
00000310: f84c 383d ca34 a43d 7cb2 9c3c 4ea0 b4bd
00000320: bce5 ee3c 1667 f6bc c0bb 9a3c bced c7bc
00000330: 704b aa3b c091 29bd 8822 1d3d de11 28bd
00000340: 050b 10bd ab66 9cbd 28a6 a33d 9545 82bd
00000350: f950 11bd 2509 babd f401 203d b85d 6d3c
00000360: a8e0 633d 0ccc a9bd 7c36 803c b03c e23c
00000370: 304f f8bb dcab 0b3d 10f0 f5bb 00d0 f1b8
00000380: 00df 2a3d 2040 8dbc 1004 393d 405c a4bb
00000390: 4c9e b7bc 0838 2d3c a4b2 87bd 169e 17bd
000003a0: 80c6 603b c4de c33c 29ba 4abd 5ca1 6a3d
000003b0: 2ec7 afbd b828 6e3d 646f 02bd c098 db3a
000003c0: bfd1 00bd 20ed d3bb 401e eabc 50cf cf3b
000003d0: 5e56 833d 9e98 b03d 0044 0e3c ec68 213d
000003e0: 74c1 8a3c b0ff 8e3b d8af 863d f4f4 afbc
000003f0: 009f 6c3b 5927 93bd 34b7 b33d 32bb b53d

fc1.weight_fake_quant.scale f4 [84]
0.00083301426 0.00071306096 0.0007048471 0.00082469266 0.0007604424 0.00072939467 0.0008486826 0.00071503024
0.000749846 0.0007564169 0.00072020484 0.0008511697 0.00085970614 0.00086541777 0.0007454465 0.0007602196
0.00075602665 0.0007530738 0.0007585139 0.00072087196 0.00082813064 0.0007070057 0.0008176366 0.0008618526
0.0007348137 0.00071690005 0.000840482 0.00074851146 0.0007525602 0.00081158336 0.00077597797 0.0007180188
0.0007379481 0.0006995179 0.00082339253 0.00072457123 0.0008411922 0.00075580995 0.00074354507 0.00084546016
0.00067216443 0.0007517058 0.00071072637 0.0008153423 0.0007589453 0.00084626244 0.00080180465 0.0008217648
0.00083926634 0.0007535306 0.0007544065 0.000843123 0.0007667592 0.0008613339 0.00076351635 0.0007154411
0.0007087801 0.0007591101 0.0007712937 0.0007591994 0.00078947726 0.0008701124 0.00075081165 0.00081718725
0.0008646956 0.00071671663 0.00070791924 0.00072231994 0.0008463101 0.00081752 0.00073712086 0.0007415805
0.0007815229 0.0008512973 0.00071121997 0.0007598953 0.0007424113 0.00084475 0.00071722915 0.00074778526
0.00075190794 0.0008488325 0.00078694697 0.00080829626
00000000: a45e 5a3a b6ec 3a3a 7dc5 383a 3030 583a
00000010: 6d58 473a d934 3f3a 207a 5e3a de70 3b3a
00000020: 5091 443a 474a 463a 21cc 3c3a 0821 5f3a
00000030: e75d 613a 34dd 623a 116a 433a 7949 473a
00000040: 1730 463a ed69 453a 02d7 463a e6f8 3c3a
00000050: e816 593a 5956 393a aa56 563a f3ed 613a
00000060: 83a0 403a 59ee 3b3a cb53 5c3a c137 443a
00000070: 7647 453a 70c0 543a 006b 4b3a 6d39 3c3a
00000080: dc72 413a da5f 373a f0d8 573a 27f1 3d3a
00000090: 7483 5c3a 8c21 463a 77ea 423a dfa1 5d3a
000000a0: 3134 303a 1f0e 453a 0a50 3a3a b2bc 553a
000000b0: f5f3 463a b6d7 5d3a 3330 523a b46b 573a
000000c0: 3602 5c3a 9588 453a 5dc3 453a 0705 5d3a
000000d0: 5700 493a 24cb 613a b726 483a 718c 3b3a
000000e0: 6dcd 393a 04ff 463a a530 4a3a 0205 473a
000000f0: ecf4 4e3a 4118 643a 1ed2 443a 8238 563a
00000100: bdac 623a 0ae2 3b3a a893 393a 125a 3d3a
00000110: e9da 5d3a d74e 563a 583b 413a a066 423a
00000120: 1ddf 4c3a 9829 5f3a 2a71 3a3a b633 473a
00000130: 619e 423a 3672 5d3a 6f04 3c3a 0507 443a
00000140: b01b 453a 2f84 5e3a 1e4b 4e3a d8e3 533a

fc1.weight_fake_quant.activation_post_process.min_val f4 [84]
-0.09649122 -0.0912718 -0.086910784 -0.10556066 -0.0922524 -0.09336252 -0.08746803 -0.090139
-0.09502821 -0.09132102 -0.09218622 -0.087499775 -0.08237475 -0.09716478 -0.094027616 -0.09730811
-0.0932236 -0.09639344 -0.091227725 -0.09209818 -0.08370292 -0.09049673 -0.09101781 -0.09712443
-0.09405615 -0.08974343 -0.08573096 -0.09580947 -0.09338102 -0.10388267 -0.08730926 -0.08894654
-0.09445736 -0.08892884 -0.0849164 -0.09218835 -0.095044546 -0.09583347 -0.09322738 -0.1082189
-0.08603705 -0.09224991 -0.090972975 -0.08956212 -0.097145 -0.08547428 -0.102630995 -0.08618768
-0.10742609 -0.091684334 -0.09656403 -0.086429484 -0.09814518 -0.09483177 -0.094020456 -0.08621652
-0.0893438 -0.0962545 -0.098725595 -0.097127415 -0.088820904 -0.094244994 -0.09610389 -0.083506435
-0.09164012 -0.09064997 -0.09061366 -0.08879312 -0.086852506 -0.10464256 -0.09383233 -0.094922304
-0.10003493 -0.10896605 -0.091036156 -0.096409485 -0.09502865 -0.108128 -0.08970397 -0.09571651
-0.096244216 -0.08335589 -0.09044135 -0.088745646
00000000: 309d c5bd b6ec babd 48fe b1bd 3030 d8bd
00000010: d4ee bcbd d934 bfbd 7022 b3bd cc9a b8bd
00000020: 269e c2bd 8406 bbbd 21cc bcbd 1533 b3bd
00000030: 18b4 a8bd 54fe c6bd 8d91 c0bd 7949 c7bd
00000040: 04ec bebd ed69 c5bd 9ad5 babd f89d bcbd
00000050: 706c abbd 5956 b9bd 8c67 babd 2ce9 c6bd
00000060: 83a0 c0bd 67cb b7bd b793 afbd c137 c4bd
00000070: 8c3e bfbd 70c0 d4bd 33cf b2bd 9b29 b6bd
00000080: dc72 c1bd 5320 b6bd a6e8 adbd 3fcd bcbd
00000090: b7a6 c2bd 5744 c4bd ffed bebd dfa1 ddbd
000000a0: 3134 b0bd 85ed bcbd 0a50 babd 586c b7bd
000000b0: f5f3 c6bd 240d afbd 3330 d2bd 2b83 b0bd
000000c0: 3602 dcbd ffc4 bbbd 5dc3 c5bd f101 b1bd
000000d0: 5700 c9bd 2937 c2bd cc8d c0bd 4992 b0bd
000000e0: e2f9 b6bd 1421 c5bd a530 cabd bdea c6bd
000000f0: bce7 b5bd 8503 c1bd 1ed2 c4bd 6c05 abbd
00000100: d1ad bbbd b1a6 b9bd a893 b9bd 2bd9 b5bd
00000110: badf b1bd d74e d6bd 2a2b c0bd a066 c2bd
00000120: 1ddf ccbd 9829 dfbd 2a71 babd 5672 c5bd
00000130: 619e c2bd 3672 ddbd b7b6 b7bd 0507 c4bd
00000140: b01b c5bd 7eb6 aabd 5139 b9bd 47c0 b5bd

fc1.weight_fake_quant.activation_post_process.max_val f4 [84]
0.10579281 0.08539043 0.08951558 0.09503783 0.096576184 0.08474297 0.10778269 0.09080884
0.09523044 0.09606494 0.0813023 0.10809855 0.10918268 0.10990806 0.094671704 0.09448705
0.09601539 0.09079323 0.09633127 0.09155074 0.10517259 0.08961041 0.10383985 0.10945528
0.09242498 0.0910463 0.10674121 0.09256647 0.09557515 0.08862971 0.0985492 0.091188386
0.08302253 0.08883877 0.10457085 0.09202055 0.10683141 0.095987864 0.09443022 0.09391093
0.084133044 0.095466636 0.08997652 0.103548475 0.09444267 0.10747533 0.09717191 0.104364134
0.097231835 0.09569839 0.094262645 0.10707662 0.095799185 0.10938941 0.09696658 0.09086102
0.09001507 0.09640698 0.084696956 0.09641832 0.10026361 0.11050427 0.08607906 0.10378278
0.10981634 0.09102301 0.08879477 0.09173463 0.10748138 0.08581048 0.09361435 0.092506275
0.08938532 0.09686197 0.084786415 0.09650671 0.093911335 0.09649555 0.0910881 0.09397615
0.08748772 0.10780173 0.09994227 0.10265362
00000000: e7a9 d83d 2ee1 ae3d f253 b73d 32a3 c23d
00000010: bcc9 c53d b98d ad3d 2cbd dc3d fcf9 b93d
00000020: 2d08 c33d b2bd c43d d281 a63d c662 dd3d
00000030: 2b9b df3d 7a17 e13d 3de3 c13d 6d82 c13d
00000040: b7a3 c43d cdf1 b93d 5449 c53d f47e bb3d
00000050: ba64 d73d aa85 b73d fda9 d43d 172a e03d
00000060: 4f49 bd3d 7c76 ba3d 239b da3d 7d93 bd3d
00000070: e7bc c33d 7e83 b53d 2ad4 c93d fac0 ba3d
00000080: b707 aa3d 1af1 b53d 3e29 d63d 4575 bc3d
00000090: 6dca da3d 4995 c43d a264 c13d 6054 c03d
000000a0: f24d ac3d 0384 c33d 9c45 b83d 3911 d43d
000000b0: 296b c13d 071c dc3d 1102 c73d ddbc d53d
000000c0: 7c21 c73d 84fd c33d c60c c13d fd4a db3d
000000d0: 5d32 c43d 8e07 e03d 6a96 c63d 5815 ba3d
000000e0: d259 b83d 0671 c53d 9975 ad3d f876 c53d
000000f0: 0257 cd3d 1050 e23d 384a b03d 118c d43d
00000100: 64e7 e03d 466a ba3d 08da b53d 5edf bb3d
00000110: 331f dc3d 68bd af3d e1b8 bf3d ee73 bd3d
00000120: a70f b73d 925f c63d 80a4 ad3d 4fa5 c53d
00000130: 9654 c03d 759f c53d 668c ba3d 9176 c03d
00000140: c32c b33d 27c7 dc3d 88ae cc3d 103c d23d

fc2.weight f4 [1, 84]
0.021657577 -0.008190952 -0.015895769 -0.0063945283 0.010477767 -0.019034952 0.046325255 -0.10360261
0.091442555 -0.025842048 0.07308001 0.06625343 0.101988226 0.10839428 -0.090459906 -0.068516135
-0.07884339 0.02248404 0.08260644 -0.08083394 0.11524194 0.086678274 0.06628767 0.08505268
-0.016509024 0.09181907 0.107614994 0.083042465 -0.03673207 -0.0923608 0.12305564 0.026045747
-0.027906558 0.0028285608 0.06959883 0.08538967 0.10835865 -0.06028478 0.03883031 -0.006727138
0.10140713 0.035322733 0.017107643 0.12234526 -0.055691224 0.084104516 -0.061573625 0.10650029
-0.09845227 -0.084799916 0.062872574 0.10838679 -0.07896588 0.037597597 -0.012083465 0.058402814
-0.09872085 0.06290838 -0.059649687 -0.07555947 0.06142473 0.122819066 0.0010546108 0.05473512
0.08007168 -0.10523699 -0.014628097 0.08172111 0.083948076 -0.0027244773 0.0502309 -0.06460535
-0.019233689 -0.02218995 0.09337386 -0.0026155408 0.069091454 -0.010613403 -0.06061706 0.10779331
-0.09430412 0.11309863 0.11418696 0.07532986
00000000: 3b6b b13c 5833 06bc d837 82bc 3189 d1bb
00000010: f1aa 2b3c 30ef 9bbc 8dbf 3d3d 9b2d d4bd
00000020: 3c46 bb3d b4b2 d3bc f9aa 953d e1af 873d
00000030: 34df d03d d2fd dd3d 0b43 b9bd 3052 8cbd
00000040: a578 a1bd 7330 b83c 912d a93d 448c a5bd
00000050: f703 ec3d 6184 b13d d4c1 873d 1930 ae3d
00000060: ef3d 87bc a30b bc3d 4065 dc3d 2b12 aa3d
00000070: 5e74 16bd a927 bdbd 9804 fc3d e45d d53c
00000080: 4b9c e4bc 605f 393b d589 8e3d c8e0 ae3d
00000090: 24eb dd3d 2ced 76bd 880c 1f3d 536f dcbb
000000a0: 8bae cf3d 92ae 103d 5425 8c3c 2790 fa3d
000000b0: 7b1c 64bd fd3e ac3d a034 7cbd d31c da3d
000000c0: 58a1 c9bd 94ab adbd 56c3 803d e5f9 dd3d
000000d0: ddb8 a1bd f0ff 193d baf9 45bc ca37 6f3d
000000e0: 282e cabd 1cd6 803d 3b53 74bd ecbe 9abd
000000f0: 7f98 7b3d 9088 fb3d de3a 8a3a ef31 603d
00000100: 9ffc a33d 7e86 d7bd b0aa 6fbc 665d a73d
00000110: f8ec ab3d 258d 32bb ebbe 4d3d cf4f 84bd
00000120: f88f 9dbc b3c7 b5bc cb3a bf3d 7e69 2bbb
00000130: d27f 8d3d d7e3 2dbc 9849 78bd bdc2 dc3d
00000140: 8522 c1bd 41a0 e73d dada e93d 8b46 9a3d
