experiments/exp014/checkpoint.pth (torch, 773090 bytes, 30 tensors)

conv1.weight f4 [6, 2, 5, 5]
00000000: 38cb 103e b88e 293d 68d0 56be 2aa1 9c3d
00000010: 15f5 943e b1ff 72bd 3858 60be c057 cbbc
00000020: c2ed 463d f1f2 3c3e 0974 47be 18f2 0bbe
00000030: 490e c13d 1797 533e 6343 1f3e f227 40bd
00000040: 4976 e4ba 45c5 4a3e 6139 563e 83dd 13be
00000050: fa59 6b3d 8821 2d3e 1241 4e3e 4529 b6bd
00000060: 675a d13c 9246 853d bbed b23d a873 203e
00000070: 1e78 47be a544 6cbe 4550 883d fae3 013e
00000080: 2e26 7c3d 7a32 b4bd b9ea 63be 848f dc3d
00000090: 0331 c83d 0da2 28be a43e c4be 3631 6cbe
000000a0: c8db a13d cb30 b6bb 348f 70be 2515 22be
000000b0: 31d7 67bd 2ca8 7c3d 51f5 1e3d eb0d 07be
000000c0: 0c42 2abe c8d9 4cbd 5e56 1dbd 9f3b b23d
000000d0: 7e88 fdbd 0cab 21ba 00de e2bd 397a 153e
000000e0: 3602 9a3d 41f7 043d 04b8 a93e 7d73 523d
000000f0: d076 013e 8e85 653d 6fc7 a03e 415f 783e
00000100: e4b5 483e 3254 aa3b ed96 40bd 9b3e 463e
00000110: 4b6a 7e3e 61c0 373e 0e54 34bd 7642 1cbe
00000120: 7cc1 8ebd b502 363c 6c98 4a3e 854b a8bd
00000130: 05c2 62be e424 86be 7b4c 98bc 23b8 c83d
00000140: 2ec8 95bd 8d6c b8be a49c 5abe 9a8a ebbd
00000150: 5b26 733e 33b5 06be 9595 93bd 8760 5fbe
00000160: f912 88be ef23 143e 42a7 ffbc 1e87 c3bd
00000170: 0415 32be 7436 68be 8ac4 f63c ab4b 97bc
00000180: 60b5 4b3c dab0 cc3d 09e8 c6bd b291 043d
00000190: a311 10bd 9db2 bdbd 094c 693d 84af 083e
000001a0: 364e e0bd 2ac0 51be a1fa 7d3c fa4b 7cbe
000001b0: ace3 33be c147 88be 3210 f4bc ad7c 8dbc
000001c0: 6c30 9fbd a727 083d dc7f 46bd fec0 d83c
000001d0: 85d8 213e d021 e63e aabc a33e 7cc6 f73d
000001e0: dc29 fc3d ca62 563e 012b 803e d607 193e
000001f0: 1b62 7d3d 8100 ab3c 8f0c 6ebe c3ca 89be
00000200: 7a51 b2bd 5232 f4bd 8fc0 83be a033 3fbd
00000210: cee1 413d 8070 153e bc86 463e 278f 973b
00000220: 10bc c43d 7670 253e b5cf e63d 5dfa d03d
00000230: 0a70 2b3e 676c 393e 2f90 0bbe f119 5ebd
00000240: 95ce 5a3e c186 97bd 0963 7bbe 2c69 9fbe
00000250: 9d8c 82be b2c9 abbd 613e 173e 6818 6a3d
00000260: 9506 da3d 4f3c 3c3d 5c65 833e b9fe 6cbb
00000270: 5349 c0bc 48ad 92bb f4f3 6a3e 7cd0 043e
00000280: 740e fa3c 6664 ab3c f63a 123e e375 223e
00000290: 54d6 033e f404 74bc 7b7e 22be cc01 4abe
000002a0: 6304 7d3d 8c88 9e3d a4b6 a8be a655 a5be
000002b0: 7398 c2be ecc3 03bf 50ef 24bd 3c7c d63d
000002c0: b02c 0c3e ff5d 9bbc 1f02 153d a70d 353e
000002d0: e8e4 993c edf3 1fbc 37a4 a5bc 908f 0d3e
000002e0: 5c56 0b3e aef4 13bd b2a8 18be 7eb1 2ebe
000002f0: 7b9f dfbc 7406 7dbb b658 953b 98e9 26bd
00000300: 0f7a 17bd 6bd1 d9bd 9b05 cc3d 8cb9 57bc
00000310: 964d 7d3d 0f5a 10bd 124e afbd 4f99 35bd
00000320: 6dd8 633d 0292 afbc 9818 133e e699 0c3d
00000330: f8fa 0a3e ec8b edbd 8503 4abd 3c90 ddbd
00000340: adc6 0f3c 2f97 213e 732c 96be 4484 a0be
00000350: 4023 48be 7106 94be 39b4 56bd b62b 803d
00000360: 727d 59be 838f 90be de1c 92be 793f 67be
00000370: 37cc 953d cf96 533d e4e9 b4bd 7604 c73c
00000380: 03d6 fd3c 4432 12be 8570 a5be af81 b2be
00000390: e325 4ebe 6e7f 33be 1307 643e 1171 bdba
000003a0: eefa 88be 95a2 59be f44b 8ebe d0ab 803e
000003b0: 7dd6 753e 9a8b 433e a084 83bd 6432 aa3d
000003c0: a054 693e 6e5b e23e 2029 7e3e 9ef6 1e3e
000003d0: d1e9 a1bc f6dd 433e ddea 3e3e 60fd 383e
000003e0: 331e e13d a4a6 b2bd 2801 71bd dd87 91bd
000003f0: 9b2b bbbc 7e89 15be c1b8 0fbe 0632 0ebe
0.14140022 0.041395873 -0.20977938 0.07647927 0.29093233 -0.059325878 -0.21908653 -0.024822116
0.048566587 0.1845205 -0.19477858 -0.1366657 0.09426553 0.20663105 0.1555305 -0.046913095
-0.0017430271 0.19801815 0.20920326 -0.14439969 0.057458855 0.16907322 0.2014201 -0.0889459
0.025555803 0.06507601 0.0873675 0.1566912 -0.19479415 -0.23073061 0.06655935 0.12684622
0.06155985 -0.0879869 -0.22257508 0.10769561 0.09774973 -0.16468067 -0.3832904 -0.23065647
0.07903248 -0.005560016 -0.23492128 -0.15828378 -0.056601707 0.06168382 0.03880817 -0.13188903
-0.16626757 -0.05001238 -0.038412444 0.08702778 -0.123795494 -0.00061671506 -0.110774994 0.14597405
0.07519953 0.032462362 0.33148205 0.05137967 0.1264298 0.05603557 0.31402156 0.24255086
0.19600636 0.005198025 -0.047018934 0.1935982 0.24845235 0.1794448 -0.044025473 -0.15259728
-0.06970498 0.011109044 0.19784707 -0.08217529 -0.22144325 -0.2620002 -0.018591156 0.09800746
-0.07313572 -0.36020318 -0.21348816 -0.115010455 0.237451 -0.1315506 -0.07206265 -0.21814166
-0.26576975 0.14466833 -0.031207684 -0.09547256 -0.1739083 -0.22677022 0.030123014 -0.018468698
0.01243338 0.09994669 -0.09712226 0.03236551 -0.03517307 -0.092625834 0.05695728 0.13348204
-0.109524176 -0.20483461 0.015501649 -0.24638358 -0.17567319 -0.26617244 -0.029792879 -0.017271364
-0.077729076 0.03324094 -0.04846178 0.026459213 0.15805252 0.44947672 0.31979877 0.12098405
0.123126715 0.20936123 0.2503281 0.14944395 0.06186114 0.020874264 -0.23246978 -0.26912507
-0.08706947 -0.1192366 -0.25732848 -0.046680093 0.047334485 0.14593697 0.19387335 0.0046252194
0.096061826 0.16156182 0.11270086 0.10204003 0.16741958 0.18107758 -0.1362922 -0.05422396
0.21367867 -0.07398749 -0.24549498 -0.31134927 -0.25497904 -0.0838808 0.1476989 0.057152182
0.10645787 0.045955952 0.2566327 -0.0036162569 -0.023472464 -0.004476223 0.22944623 0.12970155
0.03052447 0.020921897 0.14280304 0.15865283 0.12874728 -0.014893759 -0.15868561 -0.19727248
0.06177176 0.07740888 -0.32951844 -0.32291907 -0.38006935 -0.5147083 -0.04026729 0.104729146
0.13688922 -0.01896572 0.036378976 0.17680989 0.018785909 -0.009762746 -0.020219905 0.13824296
0.13607162 -0.036122017 -0.14908102 -0.17059895 -0.027297726 -0.0038608583 0.0045576943 -0.040750116
-0.03698164 -0.106356464 0.09962007 -0.013166796 0.06184157 -0.035242137 -0.085598126 -0.04433566
0.05562632 -0.021431927 0.1436485 0.034326456 0.135723 -0.115989536 -0.049319763 -0.10818526
0.008775395 0.15780328 -0.29330787 -0.3135091 -0.19544697 -0.28911164 -0.052417967 0.06258337
-0.2123926 -0.2823449 -0.2853765 -0.22582807 0.073143415 0.051657494 -0.088336736 0.02429412
0.030985838 -0.14276987 -0.32312408 -0.34864566 -0.2013164 -0.1752908 0.22268324 -0.0014453252
-0.26753944 -0.21253426 -0.27792323 0.25131083 0.24007602 0.19096223 -0.064217806 0.083103925
0.22786188 0.4421038 0.24820375 0.15523764 -0.019764813 0.1912764 0.1864428 0.18065405
0.10992088 -0.087231904 -0.058838993 -0.07105992 -0.022847941 -0.1460323 -0.14035322 -0.1388627

conv1.weight_fake_quant.scale f4 [6]
00000000: 613a 443b 835e 383b 95d9 673b b3bc 833b
00000010: e607 643b a034 533b
0.0029942023 0.0028132505 0.0035377492 0.0040202974 0.0034794747 0.0032227412

conv1.weight_fake_quant.activation_post_process.min_val f4 [6]
00000000: 613a c4be 835e b8be 407c 9fbe b3bc 03bf
00000010: cc65 b2be eb46 a8be
-0.3832579 -0.36009607 -0.31149483 -0.5145981 -0.3484329 -0.32866606

conv1.weight_fake_quant.activation_post_process.max_val f4 [6]
00000000: 07d2 943e 01bf a93e e209 e63e c095 833e
00000010: d63f e23e 378e d13e
0.29066488 0.33153537 0.44929415 0.25700188 0.44189328 0.40928814

conv2.weight f4 [16, 6, 5, 5]
00000000: 0d74 01bd 022d 02bd 3f9f 34bd 22ff f4bb
00000010: 7475 113d 2c80 cfbd 10e8 6ebe 8470 67bd
00000020: 2452 68bd e6f4 afbc ad41 1e3d 0680 eebd
00000030: d390 853d ff49 483c 8670 043e 6a97 f73d
00000040: 4863 de3d f972 983c b716 013e c807 b23d
00000050: 1c68 da3d bb5c 1b3e 2bf5 7d3d 389c bb3d
00000060: 779f 453d df4e 353b c3d3 40be 0cea 80bd
00000070: 9cd7 813d 3bab a23c b271 da3e b810 45bd
00000080: f4e4 e7be c229 a9be 9f10 32be d2f5 353e
00000090: 6611 023e ae9e 17be 2a22 2bbe 5e53 f13c
000000a0: 1025 07be c821 a53b 6b98 1ebe f95f fcbd
000000b0: 0e41 c63d 53cf e4bd 3e6b 12be c710 04be
000000c0: ab26 a4bd ca3f d5ba 9ea8 083e 14ad 86be
000000d0: a669 d8be bf24 bbbe 81e9 5abe 3ae3 133e
000000e0: a2a0 52bc 87eb 16be 9936 79bd 9149 293d
000000f0: 287b 0fbe e836 f7bd de4e 14bd 133e 54bc
00000100: 3da1 f23d 67eb a7bd b1ed f3bb 6303 8b3d
00000110: 5ab1 1e3d e9fa efbd d006 19be cca4 9f3d
00000120: 093d 343c 6832 293c 3148 0fbe e24e 5e3d
00000130: 6fb0 16be ce0a c439 dad1 af3c 67dd c43c
00000140: f5f0 8a3d f313 81be 9914 8abe 9acc 713b
00000150: 2719 abbd 2b85 0c3e 1c3d bc3d 39ff 64be
00000160: e1d2 61bd 650f bc3d 876d 16bc d1b3 2e3d
00000170: 39ea c6bd ed74 79bd 098d 6a3e a1f8 823d
00000180: 3a75 923b 258d 13be b41f efbd 6b6a 81bd
00000190: 3edb 52be 3753 ec3b adfe c33d fa4f c0bd
000001a0: 8a15 503c 8f46 98be 0f83 cdbd 182c 763e
000001b0: 8429 d03d 3d23 563d e3a6 aa3d 035a 6fbe
000001c0: 4ae2 c2bd 7c53 ccbc 9d9e 223c 0ddb b63e
000001d0: 5a41 28bc 5e0d 8cbe 6ed0 42be ffb4 eebc
000001e0: 22d0 1cbe f28d 28be 8cc9 a6be 9a10 41be
000001f0: a683 fbbd f00f 21bd d2f9 35be 4f56 9f3c
00000200: ebee 103d 1452 973d 7950 8fbe f79b 10be
00000210: f141 29bc 17fa dc3c fa05 32bd d0a4 7dbe
00000220: 9c4b 52bd b044 dc3d 72cf 063e 60cc debd
00000230: b98a 333d b969 013d 5629 983d 2aee 743d
00000240: 4d91 59be d2bf 2a3d 7aa0 ab3c 29ef c93d
00000250: a88a e43d f63d 59be 6339 1c3d 0857 cdbb
00000260: 4382 1a3e be78 853d 11e0 b13c 2b4e 1a3e
00000270: 797f 203e 732d 4b3e 1599 623e 3a9d 543d
00000280: a322 b33d 1ec8 423d 8bc0 f2bd 05a8 f83d
00000290: 5df9 043e c37f 12be b76e b5bd a9ec 093e
000002a0: 865f 0c3a 0676 63be 8221 96be a40a 4abd
000002b0: eff9 863b b32f d6bc e5d8 4b3d 5ba8 3fbd
000002c0: 971a 67be 3fe3 8dbe 2ee8 0c3d 30bb 1f3e
000002d0: 93c8 6cbd 4e26 b9bd f15d 233d dbc0 583d
000002e0: 83cd ebbc b280 06be 0bb4 26bd fb6f d23d
000002f0: b064 c53d 0d05 943d ce0f 09be ead0 1abc
00000300: 16c2 393e 59da 5a3d 2cef f0bd 0e84 dabe
00000310: 420f e5be fe99 f4be 552a 94be c181 0dbe
00000320: 83c3 76bc 53d5 b53d 1486 fa3a 034d ec3c
00000330: 1ad5 3cbd 2b39 b43d 9ed4 0ebd 967e fbbc
00000340: 39d7 2cbb e76b a83d cb2d 293e e0e0 073d
00000350: 717b 323e 361d 563e ea85 2fba 9630 d4be
00000360: aca4 b4be 04f4 4ebe c8c1 dbbe fcfc 75be
00000370: d2e6 15bd 5db7 a3be 6640 5bbe 72e2 34ba
00000380: eabc 613e 4dd6 953b 851d 44be de48 baba
00000390: b621 99bc 4737 673d 38b4 863d 2a35 903d
000003a0: cf24 253d 723f b63d b702 053d acc7 d13d
000003b0: 9d65 8d3d ad83 70bc b612 d13c 030c be3c
000003c0: c6c8 aa3d ac7d 0c3e f04b 5b3e 1561 b43d
000003d0: b643 97be 3c2b 08be 638a ecbd 80ee 37be
000003e0: 9f92 90be ba67 9abe bea2 0a3d a1c6 1f3d
000003f0: 57a5 dabd af9d 1ebe 8583 f83c fa2c fdbb
-0.031604815 -0.031781204 -0.04409718 -0.0074767033 0.035512403 -0.10131869 -0.23330712 -0.056503788
-0.05671896 -0.021479081 0.038636852 -0.11645512 0.06521764 0.012224673 0.1293355 0.12089427
0.1085878 0.01860951 0.12606321 0.086928904 0.106643885 0.15172093 0.06200139 0.09160656
0.04824778 0.002766542 -0.1883078 -0.06294641 0.06339952 0.01985704 0.42664868 -0.048111647
-0.45291865 -0.3303967 -0.17389153 0.17769554 0.1270195 -0.14806625 -0.16712251 0.029458698
-0.13197732 0.0050394274 -0.1548783 -0.12322993 0.09680377 -0.111723565 -0.14298722 -0.12897025
-0.08015188 -0.0016269621 0.13345572 -0.26303923 -0.42268103 -0.36551473 -0.21378137 0.14442149
-0.012855681 -0.14738284 -0.060843084 0.041329924 -0.14011824 -0.120710194 -0.036208026 -0.012954253
0.1184716 -0.08199196 -0.0074441065 0.06787755 0.038743354 -0.11717779 -0.14944005 0.077951044
0.01100088 0.010326959 -0.13992383 0.054274447 -0.14715742 0.00037392083 0.02146237 0.024031354
0.0678424 -0.25210533 -0.2696884 0.0036895634 -0.08354407 0.13722675 0.09191343 -0.22362985
-0.05513275 0.09182624 -0.009181387 0.042651955 -0.09712643 -0.060902525 0.22905363 0.063950785
0.004469541 -0.14409311 -0.11675969 -0.06319126 -0.20591447 0.0072120684 0.0957006 -0.09390254
0.012700448 -0.29741332 -0.10034763 0.24040258 0.101641685 0.0522797 0.08332612 -0.2337418
-0.095158175 -0.024942152 0.009925512 0.35713997 -0.010269487 -0.27353948 -0.19024822 -0.02913904
-0.15313771 -0.16460398 -0.32575643 -0.18853989 -0.12280969 -0.03932184 -0.1777108 0.019450335
0.0353841 0.07388702 -0.27991083 -0.14121996 -0.010330663 0.02697472 -0.04346273 -0.24769902
-0.051341638 0.107552886 0.13165072 -0.10878825 0.043833468 0.031594966 0.07429759 0.059797443
-0.21246834 0.04168684 0.020950545 0.09860069 0.11159259 -0.21215042 0.038140666 -0.0062664784
0.15088753 0.0651717 0.021713289 0.15068881 0.15673627 0.19841556 0.22128709 0.051907755
0.08746841 0.047554128 -0.11853131 0.12141422 0.1298575 -0.1430655 -0.08859008 0.13469185
0.000535481 -0.22212991 -0.2932244 -0.049326554 0.00411915 -0.026145792 0.049767394 -0.046791416
-0.22568737 -0.27712438 0.03440111 0.1559875 -0.05780847 -0.09040509 0.03988451 0.052918296
-0.028784519 -0.13135031 -0.040699046 0.10275265 0.09638345 0.07227526 -0.13384935 -0.009449223
0.18140444 0.05343089 -0.117643684 -0.42678875 -0.44738203 -0.47773737 -0.28938547 -0.13819028
-0.015061262 0.08878579 0.0019113445 0.028845316 -0.046101667 0.087999664 -0.034870736 -0.03070001
-0.00263734 0.08223706 0.16521375 0.033173442 0.17429902 0.2090958 -0.0006695675 -0.41443318
-0.35281885 -0.20210272 -0.4292128 -0.24022287 -0.03659708 -0.31975833 -0.21411285 -0.0006900198
0.22044721 0.004572666 -0.19151886 -0.001421239 -0.018692832 0.0564492 0.06577343 0.0704139
0.040318307 0.0889882 0.032473292 0.102431625 0.06904147 -0.014679831 0.025521617 0.023199087
0.08339076 0.13719815 0.21415687 0.088075794 -0.29543847 -0.13297743 -0.11549833 -0.17962074
-0.28236863 -0.30157262 0.03384661 0.039007787 -0.10676067 -0.15489839 0.03033615 -0.007726309

conv2.weight_fake_quant.scale f4 [16]
00000000: bbd8 673b 357f 743b d7a5 803b 4b03 573b
00000010: 2412 663b d6f1 4b3b 35f5 4a3b b3cf 2b3b
00000020: d5b8 3a3b f057 3e3b bfa3 283b fb35 5b3b
00000030: 2370 3f3b e4d1 613b fc42 613b 4fd8 723b
0.0035376984 0.0037307267 0.0039260196 0.003280836 0.0035106027 0.0031119487 0.0030968909 0.0026216328
0.0028491516 0.0029044114 0.0025732366 0.0033448923 0.0029211126 0.003445738 0.0034372201 0.00370552

conv2.weight_fake_quant.activation_post_process.min_val f4 [16]
00000000: bbd8 e7be 357f f4be d7a5 00bf b6ec c3be
00000010: 2412 e6be d6f1 cbbe 35f5 cabe b3cf abbe
00000020: 9271 8dbe f057 bebe bfa3 a8be fb35 dbbe
00000030: 2370 bfbe e4d1 e1be fc42 e1be 4fd8 f2be
-0.4528254 -0.477533 -0.5025305 -0.38266534 -0.44935715 -0.39832944 -0.39640203 -0.335569
-0.2762571 -0.37176466 -0.32937428 -0.4281462 -0.3739024 -0.44105446 -0.43996418 -0.47430655

conv2.weight_fake_quant.activation_post_process.max_val f4 [16]
00000000: 4ea9 da3e 43ee 803e d2f1 903e 4455 d53e
00000010: 4335 a23e 16ae 933e 582e a73e 601d 8e3e
00000020: 6343 b93e 64b1 5c3e 5ba7 713e 3ba7 cb3e
00000030: c319 813e 232b 5b3e f0dc 813e 4a23 bc3e
0.42707294 0.2518178 0.28309494 0.41666615 0.3168126 0.28843755 0.32652545 0.27756786
0.36184224 0.21552044 0.23598997 0.39776024 0.25214967 0.21403174 0.25363874 0.36745673

conv3.weight f4 [120, 16, 5, 5]
00000000: b7f2 74bd 4bdd 19bc 4e9e 6f3d d6d7 6bbc
00000010: a2d5 16bd 7760 94bd 4ff3 ae3d fb4c ab3c
00000020: 81ff c23c a846 863e 72d7 d83d 0e7d 9f3b
00000030: 3af7 ab3d 152a 093e 77d3 cb3d 4cb4 3ebc
00000040: 1562 61bd d587 52bd 04ef c43b 7c85 8fbc
00000050: 22a9 a23d 6217 753a 1ea6 2f3d 6e02 d7bc
00000060: f94e d6bd 2f1b 54bd 421a a4bd 18a7 743c
00000070: a1ed 693e 13de 1b3e d044 03be ad51 503d
00000080: 9c72 06be 6209 c33c 89cc 07be 2d64 81be
00000090: 3011 9ebc cf2b dfbd 231d 54be 9de5 47be
000000a0: 3154 02be aa40 25be db64 e53d a501 453d
000000b0: 02eb c13d 120c 61bd 7374 813d f7e2 b03d
000000c0: 9f0f f23b cb90 e6bc d710 0fbe 432c 0fbe
000000d0: 6cbc 29be 3103 b93d 7424 eb3d 276e cebe
000000e0: 76d7 37be 8904 cdbd b79c d63d 868d a03d
000000f0: 40a6 f8bd 428a 28bd 1061 79be 17bd bcbd
00000100: 5366 9fbd 2b75 f03c 4c61 03bd 647e cbbb
00000110: 68fa 6cbe 4028 1abe 1949 063d 70eb 51bd
00000120: 7c93 8abd e74d 8fbc 029c bc3d 4a46 02be
00000130: c334 8fbd f267 17be 325e 7fbe c162 50bd
00000140: 7429 85bd e71c 53bd 43fe 363d 06bd 2f3d
00000150: 9ef0 f13d 425b abbe e21a 60be a074 90bd
00000160: 9570 aa3d d7a8 3f3d 83d0 6abe b15c 1cbe
00000170: 7f06 313c 34bc 9ebd ad62 01be 8fb6 753d
00000180: e0ad b23c 3866 d53d 9dcd 283d bedb 03ba
00000190: 5c7e fdbc 30df 503d 6f4b 98bc e8e5 1fbe
000001a0: e056 fd3d 9c22 38be 395a 67bd 7a8a 393e
000001b0: afbe f53c 6191 7ebd 188f 3abe 76ce 63bd
000001c0: 0777 24bd 3082 403c 9f2a 29be 00fc 84be
000001d0: f117 57be ee67 a8bd fc74 c93c 7cfe 3c3d
000001e0: 063c db3b 60a1 12bc 6eb5 6b3d 4285 4e3d
000001f0: 064c 813d a673 0f3d ec90 e63d 3488 4e3d
00000200: c778 8e3b 4aa2 6abe c4f0 5b3b 9518 863c
00000210: 1224 dfbd 0fdc f5bd 2279 ff3c f7e7 103e
00000220: 9bf3 b4bc f722 88be 20dc 68be 81aa 0f3e
00000230: 3a65 84bc 7b28 88be 76e1 a9be 3675 13be
00000240: 3c96 a3bd 4a50 27be efc5 83be 7ea7 ce3d
00000250: ef89 ec3d 3677 a03d 6860 b83d 59c0 913e
00000260: c0a4 083d b8fa a73d 7134 b23c 9277 b43d
00000270: 350e 6c3d 9124 103e 319e 78bd 7ba1 8fbe
00000280: ad28 503e 2a7f 17be afd8 30be a5f7 16be
00000290: a69d c63d 0814 73bd e396 36be 1369 1cbc
000002a0: f5df 633d 96dc 0e3e 87c2 dbbd 297e 92bd
000002b0: 250d 8ebd d068 353d c4d6 10bd 1c9d b4be
000002c0: 4055 82be 6dbc 74bd f064 f4bc 1125 a2bd
000002d0: bc9e b3be 7d43 483d efa3 243e 4af5 b83d
000002e0: 9eb0 793d 9c12 ffbd 3092 ccbd 2cb5 08bd
000002f0: d4df 2c3e 3ef0 a63d 03e1 06be 63f5 12bd
00000300: abfa b4bd ce3c 2bbd ac05 2dbe f4b2 c3bd
00000310: d912 aebd 46b1 00be bcc4 26be 6693 2dbe
00000320: 7268 28be 58f9 9fbd 11e0 d23d c1b0 b1bc
00000330: a2e9 a63d f3fa cabe 5a10 d4bc 2bde 5ebe
00000340: 97dd 9b3c 93b3 1c3e 7141 5bbd 2104 efbd
00000350: 5ccf be3c a210 bcbd 74a6 8c39 c08f f33d
00000360: 1510 eb3b 0502 963d fa16 b9bd 8cc0 eabc
00000370: 3f25 f2bd 786f ba3b dc3b 84bd a3ba 30be
00000380: aad9 173e 1c5b 73be 9f48 87bd dade 0f3e
00000390: a81f 2f3c 0dce c2bd 9287 82be 4491 54bb
000003a0: 3255 0fbd c2b9 f6bc ce7a f9bc 3fbb a6bd
000003b0: 849c 08be ff92 3fbd a16f 113e c813 0c3e
000003c0: cd37 c7bd 44c2 673d 9742 3a3d 6f3b 2d3c
000003d0: 0834 20ba a471 c9bd 52dd 6fbd 3512 90bd
000003e0: 0733 7c3c 345b 42bd 7eb2 8fbd 75b7 05bc
000003f0: 8544 4bbc 1b17 24ba 5281 04bd be86 b3be
-0.059801783 -0.009391139 0.05850058 -0.014394721 -0.03682483 -0.07244962 0.08542501 0.02091073
0.023803474 0.2622578 0.10587968 0.0048672026 0.08396764 0.1339496 0.09952443 -0.011639666
-0.05502518 -0.05139907 0.006009938 -0.017519705 0.07942416 0.00093494926 0.04288303 -0.026246276
-0.104642816 -0.051783737 -0.08012821 0.014932416 0.22844554 0.15221433 -0.12819219 0.050859142
-0.13129658 0.023808185 -0.13261618 -0.2527174 -0.019295305 -0.10897028 -0.2071424 -0.19521184
-0.12727429 -0.16137949 0.11200877 0.04809727 0.09468652 -0.05494315 0.06321039 0.0863704
0.007387116 -0.028145215 -0.13971268 -0.13981728 -0.16575783 0.09033812 0.11481562 -0.40318415
-0.17953286 -0.10010631 0.1047911 0.078394935 -0.12141085 -0.041147478 -0.24353433 -0.092157535
-0.07783189 0.029352745 -0.03207521 -0.0062101353 -0.23142397 -0.15054417 0.032784555 -0.05124992
-0.06766412 -0.017493201 0.09209444 -0.12722126 -0.069924854 -0.14785746 -0.24938276 -0.05087543
-0.06502047 -0.051541235 0.044676077 0.042904876 0.11813472 -0.33468062 -0.21885255 -0.070534945
0.083222546 0.046791878 -0.22931103 -0.15269734 0.010804771 -0.07750741 -0.12635298 0.059988555
0.021811426 0.10419887 0.041211713 -0.00050299976 -0.030944042 0.0509941 -0.018590657 -0.15615046
0.12370086 -0.17981952 -0.056482527 0.18119231 0.029998152 -0.062150363 -0.18218648 -0.05561682
-0.040152576 0.011749789 -0.16520165 -0.2597351 -0.21005227 -0.08222948 0.024591915 0.046141133
0.006690505 -0.008949608 0.05754607 0.050420053 0.063133284 0.0350224 0.112581104 0.050422862
0.004347894 -0.22913471 0.0033560256 0.016369144 -0.10895552 -0.120048635 0.03118569 0.14150988
-0.022088816 -0.26589176 -0.22740221 0.14029886 -0.01616155 -0.26593384 -0.33179826 -0.14400181
-0.07987639 -0.16339222 -0.2573695 0.1009054 0.11549746 0.07835238 0.09002763 0.28467062
0.033360243 0.08202118 0.021753522 0.08811869 0.057630736 0.14076449 -0.060697738 -0.28052887
0.20328017 -0.14794603 -0.17270158 -0.14742906 0.09698038 -0.059345275 -0.17830996 -0.009546536
0.055633504 0.13951334 -0.107304625 -0.071529694 -0.06936101 0.04428941 -0.035361066 -0.35276115
-0.25455666 -0.05975001 -0.029833287 -0.07917226 -0.35082042 0.048892487 0.1607816 0.0903116
0.06095945 -0.12454721 -0.099888206 -0.033375904 0.16882259 0.08151291 -0.13171773 -0.03587855
-0.088368736 -0.041806035 -0.16896695 -0.09555617 -0.08499689 -0.12567624 -0.16285986 -0.1695076
-0.16446093 -0.078112304 0.102966435 -0.021690728 0.08150031 -0.39644584 -0.025886703 -0.21764438
0.01902656 0.15302877 -0.053529207 -0.116707094 0.023292236 -0.0918286 0.00026826898 0.118926525
0.007173548 0.07324604 -0.090375856 -0.028656267 -0.118235104 0.0056895576 -0.0645673 -0.17258696
0.14829126 -0.23765224 -0.06605648 0.14049855 0.0106887 -0.09511957 -0.25494057 -0.0032435218
-0.034993358 -0.030117873 -0.030454066 -0.08141183 -0.13340956 -0.046771046 0.1420274 0.13679421
-0.0972744 0.05658175 0.04547366 0.010573252 -0.0006111269 -0.09836128 -0.058560677 -0.07034723
0.015393025 -0.04745026 -0.070164666 -0.008161415 -0.012406473 -0.00062595465 -0.032349892 -0.35063738

conv3.weight_fake_quant.scale f4 [120]
00000000: 4c65 4e3b 2bd9 183b 191c 283b 2fc5 593b
00000010: 7183 453b c95b 283b d5ad 573b 1cff 433a
00000020: 3076 b63a 6a6f 0e3b 7f55 743a fce6 2a3b
00000030: df26 353b 6413 3c3b 749d 403b 1408 353b
00000040: e7b5 4b3b a814 023a 9bfa 233b 7ee3 303a
00000050: 13a6 523b 2cd8 673b 379d 403b 6f31 3c3b
00000060: d7a9 523b 59b4 3b3b d76e 443b d769 283b
00000070: 9c99 5f3b b4aa 803b 6777 d23a 0303 483b
00000080: c74b 2c3b 96bc 223a 745f 693b c0f0 0c3a
00000090: 5693 373b f399 4e3b e671 493b e106 693b
000000a0: a1fd 9e3a 2bf7 5e3b 585a 393a b4ee 563b
000000b0: 44e3 353b fd19 6f3b 0a55 3c3b 77ac 6e3b
000000c0: b0de 513b 503a 3c3b 7cf0 5a3a 0d3f 653b
000000d0: c741 653b 54b9 403b afb8 3a3b fb65 403b
000000e0: 1630 4c3b 82f4 473b e3c5 3c3b ac0a 1f3a
000000f0: 951d 873a 177c 2e3b 0e28 3d3b a2d7 3c3b
00000100: 7f57 643b 664b 253a 80d5 3f3a a08d 193a
00000110: fa18 3c3a 8a48 853a 3000 3f3b 8cf1 343a
00000120: d66a 523b 792a 483b 9e0c 3a3b fa00 813b
00000130: 792c 1d3b 6014 433b 5000 fe39 d436 1a3a
00000140: 9d63 003b bbb7 503b 4dc1 5e3b a96e 4f3b
00000150: c58a 4b3b 6395 3e3b 688c 333b eb25 483b
00000160: 1a8c 493b 1095 213b f1b5 ef3a eef9 543b
00000170: 26db 433b e1a1 323b d748 243b 1939 353b
00000180: 1835 0d3a bd85 3e3b 6d24 2c3b 85c3 0e3a
00000190: 7df5 453b 6df7 443b d80b 2b3b c7fd 773b
000001a0: 665b 213a 0b66 343b 8673 0f3a 5fc2 473b
000001b0: 71cc 523b fe01 463b d0a2 4d3b 7145 563b
000001c0: 5947 5e3b d719 353b 1a03 2d3a 32ce 393b
000001d0: 4735 8f3b 3cef 4c3b 6b93 383b ac55 413a
0.0031493483 0.0023322802 0.0025651513 0.0033229103 0.003013816 0.0025689474 0.0032910008 0.0007476674
0.0013920721 0.0021733888 0.0009320601 0.0026077619 0.0027641577 0.002869808 0.0029390724 0.0027623223
0.0031083764 0.00049621845 0.0025021199 0.0006747766 0.0032142445 0.0035376651 0.0029390582 0.0028715988
0.003214469 0.002864143 0.0029973292 0.002569785 0.0034118658 0.0039265994 0.0016057313 0.0030519373
0.0026290284 0.0006207911 0.0035609873 0.0005376451 0.0028011403 0.0031524866 0.0030738055 0.0035557079
0.0012130031 0.0034021835 0.0007070652 0.0032796087 0.002775387 0.0036483996 0.002873721 0.0036418715
0.0032023601 0.002872128 0.0008351875 0.0034980208 0.0034981833 0.002940734 0.0028491428 0.002935766
0.003115659 0.0030510728 0.0028804473 0.0006066959 0.0010308499 0.0026624256 0.0028862986 0.002881505
0.003484219 0.0006305486 0.0007317886 0.00058575906 0.00071753527 0.0010168713 0.00291444 0.00069024484
0.0032107136 0.0030542894 0.0028388868 0.003936884 0.0023982807 0.0029766783 0.00048446888 0.0005882804
0.0019590624 0.0031847793 0.0033989728 0.0031651652 0.0031058055 0.002908074 0.002739692 0.003054018
0.0030753673 0.0024655499 0.0018288476 0.0032497603 0.0029885261 0.0027257132 0.002506783 0.002765244
0.0005386635 0.0029071413 0.0026266829 0.0005446005 0.0030206137 0.0030054704 0.0026099589 0.0037840472
0.0006155282 0.0027526643 0.00054722314 0.0030480844 0.0032165314 0.003021359 0.0031377561 0.00326952
0.0033917038 0.002763381 0.00065998884 0.0028351662 0.004370365 0.0031270524 0.002816404 0.0007375132

conv3.weight_fake_quant.activation_post_process.min_val f4 [120]
00000000: 4c65 cebe da89 41be 191c a8be 2fc5 d9be
00000010: 7183 c5be d3ab 99be d5ad d7be 1cff c3bd
00000020: d0ca 0cbe bde1 8bbe 7f55 f4bd 5aec 5cbe
00000030: ba3b 9cbe 6413 bcbe 749d c0be 1408 b5be
00000040: 63bc c1be a814 82bd 9bfa a3be 7ee3 b0bd
00000050: 13a6 d2be 2cd8 e7be 541e 8bbe 6107 b6be
00000060: d7a9 d2be 59b4 bbbe d76e c4be d769 a8be
00000070: 9c99 dfbe 90f4 babe 0de3 1ebe 0303 c8be
00000080: c74b acbe 96bc a2bd 745f e9be c0f0 8cbd
00000090: 5693 b7be f399 cebe e671 c9be c2e0 d5be
000000a0: 90e3 0cbe 2bf7 debe 585a b9bd b4ee d6be
000000b0: f517 b0be fd19 efbe 2e1a 7dbe 8e8e b8be
000000c0: b0de d1be 503a bcbe 7cf0 dabd 0d3f e5be
000000d0: c741 e5be 54b9 c0be afb8 babe fb65 c0be
000000e0: 1630 ccbe 82f4 c7be e3c5 bcbe ac0a 9fbd
000000f0: 2cef f0bd 184f a7be 87cd b7be c5b8 87be
00000100: 7f57 e4be 664b a5bd 80d5 bfbd a08d 99bd
00000110: fa18 bcbd 8a48 05be 62d1 a1be 8cf1 b4bd
00000120: 2ff2 85be 8514 c0be 9e0c babe fa00 01bf
00000130: f6ad 82be 9e67 92be 5000 7ebd d436 9abd
00000140: 12b6 31be fd60 c4be 4dc1 debe a96e cfbe
00000150: c58a cbbe 6395 bebe 688c b3be 5e6f a3be
00000160: 1a8c c9be 1095 a1be 8881 59be 42ea c4be
00000170: 26db c3be e1a1 b2be 84d0 97be 1939 b5be
00000180: 1835 8dbd 1573 b3be 6d24 acbe 905b 8ebd
00000190: db65 c5be 6df7 c4be d80b abbe 69ca cdbe
000001a0: 665b a1bd 0b66 b4be 8673 8fbd 5fc2 c7be
000001b0: 71cc d2be fe01 c6be 80f6 a6be 7145 d6be
000001c0: 5947 debe d719 b5be 1a03 adbd 32ce b9be
000001d0: 747b fcbe 3cef ccbe 6b93 b8be ac55 c1bd
-0.40311658 -0.18900242 -0.32833937 -0.42533252 -0.38576844 -0.30013904 -0.4212481 -0.095701426
-0.13749242 -0.27320662 -0.119303696 -0.21574536 -0.30514318 -0.36733544 -0.37620127 -0.35357726
-0.3783904 -0.06351596 -0.32027134 -0.08637141 -0.4114233 -0.45282114 -0.27171576 -0.35552505
-0.41145203 -0.36661032 -0.38365814 -0.3289325 -0.43671882 -0.3651471 -0.155163 -0.39064798
-0.33651564 -0.07946126 -0.45580637 -0.06881857 -0.35854596 -0.4035183 -0.3934471 -0.4177304
-0.13758683 -0.4354795 -0.09050435 -0.4197899 -0.34393278 -0.46699515 -0.24717018 -0.3604626
-0.4099021 -0.3676324 -0.106904 -0.44774666 -0.44776747 -0.37641394 -0.36469027 -0.37577805
-0.39880437 -0.39053732 -0.36869726 -0.077657074 -0.117643684 -0.3267753 -0.35898992 -0.26508155
-0.44598004 -0.08071022 -0.09366894 -0.07497716 -0.091844514 -0.13015953 -0.3160506 -0.08835134
-0.26161334 -0.37515655 -0.3633775 -0.50392115 -0.25523347 -0.2859468 -0.062012017 -0.07529989
-0.1735461 -0.38355246 -0.43506852 -0.40514114 -0.3975431 -0.37223348 -0.3506806 -0.31920904
-0.39364702 -0.31559038 -0.21240819 -0.38459975 -0.38253134 -0.3488913 -0.29651272 -0.35395125
-0.068948925 -0.35048738 -0.3362154 -0.06951058 -0.38554272 -0.3847002 -0.33407474 -0.4019349
-0.07878761 -0.35234103 -0.07004456 -0.3901548 -0.411716 -0.38673395 -0.3260994 -0.41849855
-0.4341381 -0.35371277 -0.08447857 -0.36290127 -0.49312937 -0.4002627 -0.3604997 -0.09440169

conv3.weight_fake_quant.activation_post_process.max_val f4 [120]
00000000: afb8 913e 79a7 973e c30a 8f3e d41f 923e
00000010: 9851 903e 110b a73e f008 883e d6c3 293d
00000020: 4409 353e 8b52 8d3e 76a0 d53d 2e91 a93e
00000030: 91bc b33e 2f07 b13e 0766 8c3e 3f0b 683e
00000040: 7b1e ca3e 4c33 423d 2f63 873e 0a2a 593d
00000050: 2e78 ac3e 14ce a53e fd1b bf3e 0cb9 ba3e
00000060: c5f4 af3e 01e3 b43e 43ba 9b3e ac08 823e
00000070: e56e a03e be52 ff3e 78d2 503e c23c 9b3e
00000080: 61b5 a03e 1c03 393d e33b c93e 3ad0 663d
00000090: ca48 7e3e 4883 803e a5eb ae3e d334 e73e
000000a0: a6bf 1d3e fec6 993e 90b4 ab3d 1752 883e
000000b0: 7d77 b43e e049 ae3e 60dc ba3e 1ecf ec3e
000000c0: 41d4 a33e c51a a43e 743e 983d ccd1 a43e
000000d0: 9db4 903e 0c06 7e3e b0ac 983e 56f3 903e
000000e0: 4a25 c83e 14c6 8c3e 3d13 a03e b62d 4a3d
000000f0: 5a0f 063e 1f1f ad3e bead bb3e f35d bb3e
00000100: 7630 ab3e 86af 463d baf2 2a3d 16d1 573d
00000110: 98ee 933d 32fd dc3d 3082 bd3e ce17 a93d
00000120: 00c6 d03e 249a c63e 97b2 b73e d500 bd3e
00000130: 20f2 9b3e 378e c13e 0a8c 453d 4cc8 4d3d
00000140: abc5 7e3e 4c16 cf3e c28b b23e f71a a83e
00000150: 5750 813e 3ffe 9d3e db6b a03e 9f95 c63e
00000160: 8ae5 a93e ba00 9b3e 85d6 6d3e fa4f d33e
00000170: a064 883e a404 823e 4500 a33e cfac 9b3e
00000180: d427 283d b208 bd3e 7c24 9e3e fea5 8d3d
00000190: 9269 c43e 34d8 9b3e 1f3d 733e cb0d f63e
000001a0: 6c4c 4c3d 0abb ac3e 6824 523d 731e c43e
000001b0: 1401 9f3e de97 b43e 8a07 cc3e a98a a73e
000001c0: dbeb a33e a654 b33e 8200 653d 5f15 9a3e
000001d0: dc16 0e3f 6a4f 953e 0c56 9a3e 089e 9d3d
0.28461215 0.2961996 0.27937898 0.28539908 0.2818725 0.3262563 0.2656932 0.04144653
0.17679316 0.27602038 0.10430996 0.33118576 0.35104802 0.34575793 0.2742159 0.2266054
0.3947638 0.0474122 0.2644286 0.053018607 0.3368544 0.32383788 0.3732604 0.36469305
0.34366432 0.3532944 0.30415544 0.2539724 0.31334606 0.49867815 0.20392787 0.30319792
0.3138838 0.04516898 0.39303502 0.056350924 0.24832454 0.2510016 0.34164158 0.4515749
0.1540514 0.30034631 0.08384049 0.2662513 0.35247412 0.34040737 0.36496258 0.46251768
0.31997874 0.32051674 0.07433787 0.32191312 0.28262797 0.24806994 0.2981925 0.2831065
0.3909095 0.27494872 0.31264678 0.04936 0.13091794 0.33812806 0.36655992 0.36595115
0.3343541 0.048507236 0.04173539 0.052689634 0.072232425 0.10790481 0.37013388 0.082564935
0.40776062 0.38789475 0.3587844 0.36914697 0.30458164 0.37803814 0.048229255 0.050239846
0.24880092 0.404467 0.34872252 0.32833073 0.25256607 0.30858037 0.31332287 0.38786027
0.33182937 0.30273992 0.23226364 0.41271955 0.2663927 0.25394166 0.31836143 0.3040528
0.041053608 0.36920696 0.3088721 0.06916426 0.38361794 0.30438387 0.23753785 0.48057398
0.04987757 0.3373645 0.05130425 0.3830448 0.3105551 0.35272115 0.39849502 0.32722977
0.3201588 0.3502552 0.055908687 0.3009443 0.5550363 0.2916215 0.30143774 0.07696158

fc1.weight f4 [84, 120]
00000000: 942b a5bb c350 31bd bc3b 5ebe 3175 a13d
00000010: 8434 673d 4e88 8dbc d570 703d e9ca c23d
00000020: a250 1ebd 0a93 82bd 80ac e13c 25ae 37bd
00000030: b24c 3fbc 2177 4e3d 2cb1 6b3e b63e ae3d
00000040: 5017 c8bd dcbe 8c3d 8af5 96bd dd55 87bd
00000050: 226a b03d 9134 40bd c9e4 afbd 4358 c33a
00000060: 220f c93c 6255 323e 82b0 cdbc 6b2e 93bb
00000070: 22d9 c0bd 7705 933d d6c0 e7bc 5059 40bd
00000080: e343 9dbd c53c c5bc 94a9 d93c 0b61 a3bc
00000090: e8b9 2b3e 5689 bfbd 82bf 393e f7d3 8cbc
000000a0: 6ba5 e13d 8c97 c8bc 28e2 52bd 096f 803e
000000b0: acdc b23d c30c a63d 268c 0abd fbc5 233d
000000c0: 7011 053e 94be 683e 62f3 61ba 7d30 9abc
000000d0: 192d 01bd 1096 793d c5ab 0cbe ce9a a2bc
000000e0: 4591 b5bd 6d1b a4be e9b2 ba3c 2a3c 803c
000000f0: 073f 1c3b 7fdc 82bc 196f 1d3d 2453 293e
00000100: 4939 233c 7ea3 9fbd d872 8ebd b5f9 d5bd
00000110: 346f 2fb8 cbec 4c3d b821 ef3d 1b3b 763d
00000120: b17d 663c 747c 243e bf28 95bd 1582 a53e
00000130: 14d3 1dbe d439 21be 5035 37bd 1ef7 aabd
00000140: d408 f33c 3816 e5bc 2de8 3abe de9b 98bd
00000150: 5b39 f53d e0ef 07be 32b1 133e 7b7e 003c
00000160: 5889 a03d 1a55 ac3c 3de2 85bc d8ad 5d3d
00000170: 9c6a c03d f5a6 e73b d757 903c cce0 50bd
00000180: 36c7 bbbc 204b bfbc d22b a33d 6a8d 553d
00000190: a86d 42bd 6fb6 b93d cd0e d3bd fe39 8b3d
000001a0: bf76 be3d 9f2b 6fbe 9955 793d 8059 143d
000001b0: 3dfd e5bd 87e7 d53d 1b8a 863b e5b5 ccbd
000001c0: ef70 aa3d 7d41 7bbb 523f aebd fac1 ec3d
000001d0: 6269 98bc 6d7f cabd fa61 3fbe 0c33 a73c
000001e0: fdb2 673e c1e3 f3bd 5b33 253d 299b 663d
000001f0: 89f9 ad3c 91da 27be 7341 8cbd 7b14 02bd
00000200: cb3e 56bd 9311 d73d 7b7f ab3d 4b60 253c
00000210: abdd 4e3e 7a05 3d3c cdb3 eb3d fe8a edbd
00000220: 84dd 65bd bb8a 0fbd 44ed 203d 98c7 643d
00000230: 7a2f 793c e689 65be 80d2 edbc de0e 52be
00000240: 167b afbd afde 973d 751f a73d e6fa 403e
00000250: 29f1 1e3e 446e 1c3e 0440 303e 3074 7cbd
00000260: ab1c 413d 4d13 adbc c2dc d9bd ee64 0bbd
00000270: 60e7 0bbe ee6f a1bb a6b1 863e 3e1e 163e
00000280: 2892 ac3d 8a99 3fbe 9275 ab3d 2129 d4bd
00000290: 4ede cabd 4327 5f3e 50cd 8abd 5de7 23be
000002a0: ef4e 6abe 9a47 993d 13ea 8e3d 2d0e b53c
000002b0: 8f85 8abe 07d9 fd3d 9512 90bd 23c7 fcbc
000002c0: 8f12 603e ed8f bbbe 2004 50be 516e 143c
000002d0: 63c8 8d3d fa71 fc3d c3c0 a8be 1e36 7b3e
000002e0: 9ae6 8cbb 5abe 35bc ab6f 7d3d 0754 963d
000002f0: de5c 873d 9133 8e3c dfcd 0bbd b18d a03c
00000300: 26b3 3f3d b51b 59be 7850 fd3d 10ad 0d3c
00000310: 626f a73d 03ec 403d 551b e9ba 0a49 a93d
00000320: 4296 be3d a1b3 9bbd 92ff b53d d380 703d
00000330: 4b54 743d f4b1 dc3d 7454 5f3d 1f95 7fbd
00000340: 995d 21be 3e1f 743d a10c 933d 293a a83d
00000350: 5250 5c3d 1877 163d 62a8 08bd da03 e8bd
00000360: 8a9c 633d c4df 50be b774 34bc 3273 87bd
00000370: 993d b13c a1d7 8ebd b190 27bb b77e 84bd
00000380: 259d bfbc c5d5 a6bc f64a 2a3d eb1f 34be
00000390: 7b45 e0bc bbdd bdbd 0894 fe3d 560f 80be
000003a0: e369 8a3d f137 9f3d 6c60 cdbc 9872 ca3d
000003b0: 5761 953d 8a17 48bd b9b7 3fbe 6567 47bd
000003c0: 5bf7 8bbc 0e86 183e 309d 74bd 6c6d b0bc
000003d0: 000e babd 434b bcbd aa4a 08be f22a eebc
000003e0: e08c 8a3d 0257 e738 ac95 983c 7e91 ba3d
000003f0: 976a 1fbe b5e4 d3bd b117 e2bc 5715 043e
-0.0050405953 -0.04328991 -0.21702474 0.078836806 0.056446567 -0.01727691 0.058701355 0.09511358
-0.038651116 -0.06375702 0.027548075 -0.04484381 -0.011676 0.05040658 0.23016804 0.08508055
-0.097700715 0.06872341 -0.073710516 -0.06608174 0.08613993 -0.04692513 -0.08588559 0.0014903623
0.024543349 0.17415383 -0.02510858 -0.0044916174 -0.09416415 0.07178777 -0.028290194 -0.046960175
-0.07678964 -0.024076829 0.026570119 -0.019943735 0.16770136 -0.093523666 0.1813946 -0.017190916
0.11017879 -0.024486326 -0.05148521 0.25084713 0.08733496 0.08107903 -0.033825062 0.03998373
0.12994933 0.2272895 -0.0008619336 -0.01882195 -0.03153715 0.060934126 -0.137374 -0.019849207
-0.088655986 -0.32052174 0.02279039 0.015653688 0.0023841278 -0.015974281 0.03843603 0.16535622
0.009962388 -0.077948555 -0.069554985 -0.104480185 -4.1826817e-05 0.05003051 0.11676353 0.06011496
0.014068053 0.160631 -0.07283162 0.32325807 -0.15412551 -0.15744716 -0.044728577 -0.08347915
0.029667296 -0.027964696 -0.1825263 -0.07451604 0.1197383 -0.13275099 0.14423063 0.007842655
0.07838696 0.021036673 -0.01634323 0.05412087 0.09395334 0.0070694634 0.01762001 -0.050995633
-0.02292214 -0.023351252 0.079673424 0.052136816 -0.047467858 0.090679996 -0.103055574 0.067981705
0.09299993 -0.23356484 0.060872648 0.036218166 -0.11229942 0.10444551 0.004105819 -0.09995631
0.083223216 -0.0038338595 -0.08508171 0.115604356 -0.018604938 -0.09887586 -0.18689719 0.020410083
0.22626872 -0.11908675 0.04033218 0.056300316 0.021237152 -0.1639197 -0.06848421 -0.031757813
-0.052305978 0.10501399 0.08373924 0.010093759 0.20201747 0.01153695 0.11508904 -0.11598776
-0.056119457 -0.035044413 0.039288774 0.05585441 0.015209073 -0.22415885 -0.029031038 -0.20513484
-0.08568399 0.074155204 0.08160297 0.1884571 0.15521683 0.15276438 0.1721192 -0.061634243
0.04714648 -0.021127367 -0.10637809 -0.0340318 -0.13662481 -0.004926673 0.2630741 0.14659974
0.084263146 -0.18710914 0.08372034 -0.10359407 -0.099056825 0.21792321 -0.067774415 -0.16006227
-0.22881673 0.0748436 0.0697824 0.022101486 -0.27055022 0.1239491 -0.07034794 -0.030856675
0.2188208 -0.36633244 -0.20314074 0.009059505 0.06922986 0.12326427 -0.32959566 0.24532363
-0.004299951 -0.011092747 0.061874073 0.07340246 0.0660951 0.017358573 -0.03413188 0.019598814
0.04680171 -0.21201976 0.12368864 0.008647218 0.081755415 0.04710008 -0.0017784635 0.08265884
0.09306003 -0.07602621 0.08886637 0.058716606 0.0596507 0.10776129 0.0545239 -0.062398072
-0.15758361 0.059600107 0.07180143 0.08214218 0.053787537 0.03673467 -0.033363707 -0.113288596
0.05556921 -0.2039786 -0.011014155 -0.06613769 0.021635817 -0.06974722 -0.002556842 -0.064694814
-0.023390362 -0.020365605 0.041575395 -0.175903 -0.02737688 -0.09270807 0.124305785 -0.250117
0.067584775 0.07774342 -0.025070392 0.09885138 0.07293957 -0.048850574 -0.18722428 -0.04868259
-0.017085722 0.14894888 -0.05972022 -0.021536551 -0.090847015 -0.091940425 -0.13309732 -0.029073212
0.06765151 0.00011031145 0.018626057 0.09109782 -0.15568005 -0.10346357 -0.027599188 0.12898766

fc1.weight_fake_quant.scale f4 [84]
00000000: 87be 263b 867f 3b3b 923d 4b3b d692 2f3b
00000010: 9014 753a 6e6b 3a3b 2ce1 2e3b de1e 243b
00000020: 08aa 273b 600a 503b 6b51 543b 8cbe 1d3b
00000030: 2682 353b f6b0 323b e033 453b f1e0 0a3b
00000040: bc51 2c3b 6fd0 213b d0b1 353b fea9 633b
00000050: ddb0 2c3b 2c13 0c3b 24df 3d3b 1a54 473b
00000060: b86d 4b3b 1b1f 3f3b cfb1 473b 8de6 0c3b
00000070: ab8d 2a3b a254 4e3b 2e87 223b 5231 313b
00000080: 75b1 623b a66e 273b 54a8 403b 83fd 2a3b
00000090: e2bf 093b 627f 193b bb4c 203b 5d17 2e3b
000000a0: e2fe 363b f1d9 1e3b af52 363b 2605 333b
000000b0: 8536 553b 42f9 223b c620 313b 4085 4f3b
000000c0: 3167 373b b835 3f3b 88e3 033b 0c5f 343b
000000d0: 2fab 663b 8911 293b f40d 273b 1ea6 2f3b
000000e0: e429 7b3a 371c 693b b5c7 443b 77ea 433b
000000f0: 22d8 533b eb1c 033b 0084 373b 5b46 363b
00000100: 3bb5 103b 0cbf 583b 6087 213b 77f9 303b
00000110: b066 473b 34ac 1b3b d070 503b 0e5c 473b
00000120: c217 1c3b 4669 723b 5462 813a 196f 323b
00000130: 28cc 213b 2919 273b 99e7 343b 07d7 363b
00000140: 8f17 523b 0e20 683a bccf ff3a b00d 3f3b
0.0025443153 0.0028609945 0.003101204 0.0026790402 0.00093490724 0.002844538 0.0026684506 0.0025042812
0.0025583524 0.0031744465 0.0032397162 0.0024069874 0.0027695983 0.0027266121 0.0030090734 0.0021191204
0.0026293835 0.0024690886 0.0027724393 0.0034738774 0.0026350536 0.0021373732 0.0028972114 0.0030415119
0.003104074 0.0029162827 0.0030470972 0.0021499724 0.0026024382 0.003148355 0.0024799812 0.0027037454
0.0034590636 0.002554813 0.0029397206 0.0026091046 0.0021018912 0.0023421873 0.0024459797 0.0026564219
0.0027922918 0.002423879 0.002782028 0.00273163 0.0032533717 0.0024867808 0.002702759 0.0031665117
0.002798509 0.0029176306 0.0020124633 0.0027522473 0.0035197248 0.0025797805 0.0025490494 0.0026801894
0.00095811323 0.0035569796 0.0030026261 0.002989439 0.003232487 0.002000625 0.0028002262 0.0027812931
0.0022080678 0.0033072857 0.002464734 0.0027004161 0.0030426197 0.0023753764 0.0031805523 0.003041986
0.0023817872 0.0036989017 0.0009871223 0.0027226864 0.0024688337 0.0025497174 0.0027603863 0.0027899162
0.00320575 0.0008854874 0.0019516866 0.0029152445

fc1.weight_fake_quant.activation_post_process.min_val f4 [84]
00000000: fa1c a4be 867f bbbe 80d4 8dbe 9607 aabe
00000010: 9014 f5bd 6e6b babe 4665 92be de1e a4be
00000020: 08aa a7be 600a d0be e9cf c1be 96c5 6ebe
00000030: 2682 b5be a501 8bbe 07d6 95be b729 89be
00000040: bc51 acbe 6fd0 a1be d0b1 b5be fea9 e3be
00000050: ddb0 acbe 2c13 8cbe 24df bdbe 1a54 c7be
00000060: 8e82 92be fd13 9dbe cfb1 c7be c8ce 82be
00000070: ddeb 4bbe 5cf0 acbe 07b1 86be 1afd a5be
00000080: 9f12 c1be a66e a7be 54a8 c0be 83fd aabe
00000090: e2bf 89be 627f 99be 0e76 53be 5d17 aebe
000000a0: 8f76 a4be f1d9 9ebe 15f4 a0be 2605 b3be
000000b0: dbe0 8bbe 32dd 87be c620 b1be 4085 cfbe
000000c0: 3fec 98be 419c a9be 88e3 83be 0403 91be
000000d0: c01f ccbe e1a2 81be f40d a7be 94a8 9cbe
000000e0: e429 fbbd 371c e9be b5c7 c4be 77ea c3be
000000f0: 935a c2be 473f 43be 0084 b7be 5b46 b6be
00000100: 3bb5 90be fd69 85be 277d 91be 77f9 b0be
00000110: 9882 5ebe 0649 8cbe d070 d0be 0e5c c7be
00000120: 9f7e 8dbe 7d37 b0be 5462 01be 0581 abbe
00000130: 28cc a1be 2919 a7be 3fd9 85be 07d7 b6be
00000140: 2068 86be 0e20 e8bd e228 62be b0a9 a8be
-0.32053357 -0.3662073 -0.27701187 -0.33208913 -0.119668126 -0.36410087 -0.2859289 -0.320548
-0.3274691 -0.40632915 -0.37853935 -0.2331756 -0.35450858 -0.27149692 -0.29264852 -0.26789638
-0.33656108 -0.31604335 -0.35487223 -0.4446563 -0.33728686 -0.27358377 -0.37084305 -0.38931352
-0.2861523 -0.30679312 -0.39002845 -0.25548387 -0.19914193 -0.3377713 -0.26306936 -0.32419664
-0.3770952 -0.32701606 -0.37628424 -0.3339654 -0.26904207 -0.29979998 -0.20650503 -0.340022
-0.32121703 -0.3102565 -0.3143622 -0.34964865 -0.2731999 -0.26535946 -0.34595317 -0.4053135
-0.2986774 -0.33127025 -0.2575953 -0.28322613 -0.39867973 -0.2531958 -0.32627833 -0.30597365
-0.122638494 -0.4552934 -0.38433614 -0.3826482 -0.37959728 -0.19067107 -0.35842896 -0.35600552
-0.28263268 -0.26057425 -0.28415796 -0.34565327 -0.21729505 -0.27399462 -0.4071107 -0.3893742
-0.27635667 -0.34417334 -0.12635165 -0.33496872 -0.3160107 -0.32636383 -0.26142308 -0.35710928
-0.26251316 -0.11334239 -0.22085908 -0.3294196

fc1.weight_fake_quant.activation_post_process.max_val f4 [84]
00000000: 0a71 a53e ada7 863e 17a7 c93e b033 ae3e
00000010: 1aa3 b83d 7f3d 923e 6a83 ad3e 6f82 8c3e
00000020: 793b 8c3e 4525 c63e c8a8 d23e 0f83 9c3e
00000030: c84f 713e 944b b13e 78a9 c33e 2fcb 893e
00000040: 30bb 8b3e 793b 7a3e 32b6 9a3e 7e53 7d3e
00000050: 08a6 823e 93b6 6b3e 9906 823e 4f6b a03e
00000060: ddd6 c93e dda0 bd3e bc12 7d3e c0cc 8b3e
00000070: 9038 a93e f9b7 cc3e 2042 a13e efce af3e
00000080: 12ec e03e 3f25 833e 6b72 a03e 9217 873e
00000090: 3b4f 7a3e b43e 8c3e 220c 9f3e 67d0 873e
000000a0: e490 b53e 7dfe 563e 0ae6 b43e 3eca 893e
000000b0: 188c d33e 4fb3 a13e 0d7d 953e 9771 a23e
000000c0: 63f8 b53e 4db7 bd3e d22a 633e 4ef6 b23e
000000d0: d9dd e43e 66bf a73e 592a 8f3e d246 ae3e
000000e0: 8e24 b93d baaa de3e b182 813e cfcb 793e
000000f0: 7230 d23e b116 823e 1613 8e3e 245a 8c3e
00000100: 628d 6f3e 8e0d d73e 5144 a03e 44c7 653e
00000110: e3d7 c53e dc74 9a3e dd40 9e3e 4a60 853e
00000120: 92df 9a3e 7384 f03e 5c81 d53d 3b0a b13e
00000130: 5c73 9c3e 6825 943e ca7d b33e ee16 af3e
00000140: 6073 d03e 04f6 b93d 1dd0 7d3e 958f bd3e
0.32312804 0.262998 0.39385292 0.3402381 0.09015484 0.28562543 0.33889323 0.27443263
0.27389124 0.3870031 0.41144395 0.3056874 0.2356559 0.34627974 0.38215232 0.2691283
0.2729125 0.2443675 0.3021713 0.24738881 0.25517297 0.23018865 0.2539566 0.3133187
0.3942174 0.3703679 0.24714178 0.2730465 0.33050966 0.3998411 0.31495762 0.34337565
0.43930107 0.25614354 0.31337294 0.2638517 0.24444287 0.2739159 0.31063944 0.26526186
0.35462105 0.20995517 0.35331756 0.2691211 0.4131782 0.31582114 0.2919697 0.31727287
0.35541067 0.3705391 0.22184303 0.3495354 0.44700506 0.32763213 0.27961996 0.34038407
0.090401754 0.4348963 0.25295022 0.24394153 0.41052586 0.25407937 0.27748936 0.27412522
0.23393777 0.4200253 0.3130212 0.22439295 0.3864127 0.30167282 0.30908862 0.26050025
0.30248696 0.4697605 0.10425064 0.34578118 0.30556762 0.2893479 0.35056907 0.3419718
0.40713024 0.09080127 0.2478642 0.37023607

fc2.weight f4 [10, 84]
00000000: 5c18 59be ddb9 af3d 4140 e43d 4d27 45be
00000010: 3633 08be 7f63 44be ed28 90be 977e 15be
00000020: dbc7 013c 089e 3cbe b882 5fbe ec05 683d
00000030: 982d 863e 1836 87bd ef65 90be de94 03be
00000040: 1e55 99be 5259 0bbd 8cd3 753d 0158 e33d
00000050: 2140 f33d 5e4c 81be 7a83 033e b934 51be
00000060: 36e0 82be 7c5a b0bc 80e0 593d 5ad5 d53d
00000070: 711f 4abd c846 703d 1e01 96be 9665 84be
00000080: dc16 87bc f703 e53c e28c abbe ba21 e93d
00000090: ac71 76be 26b2 013e 7352 c3bc 1b05 cc3d
000000a0: 3cf9 c8be c7a2 4fbe bc42 c43d 2fe9 62be
000000b0: e9b1 8ebe fc24 84be 13c8 71be 2789 10be
000000c0: 6b8b febd f108 593d 5b20 0ebe b416 9dbe
000000d0: 517e acbd ea83 eebd 4263 6fbe 4085 cd3d
000000e0: f439 57bd a265 163b ff3a 90bd 42bd 78be
000000f0: 3edd 57be ef1c 33be 7786 1c3e f672 e3be
00000100: 6d3f 4ebe 4ba5 f53d 54de 073e 6c8c 06be
00000110: 6918 43be 62ac 0abe b1be 89be 7426 a83d
00000120: 8089 1dbe 0d33 2fbe 841c ff3c 5f9a 1abc
00000130: ea14 973c 9474 233e 4c16 87be 2168 cebd
00000140: 3427 f4be 05d1 8fbd 5684 24bd 4361 76bd
00000150: 56d5 713d 25a6 123e 5173 433d 2351 88bd
00000160: 3f3e 8bbb 639d a6bd ab3a f43b cd06 813d
00000170: a54f 9fbe 11c1 693e bf27 2dbe af53 003c
00000180: a786 cabe ccfb 953c bdcb 19be d96d 92bd
00000190: fe07 fdba 8f65 25be d801 e3bd 405a 5bbe
000001a0: 22d1 b3be 4b9c 963d b6aa 22bf ee4d f13d
000001b0: d25b d4bd 8c48 7ebe 7a40 843c 4138 1abe
000001c0: 2adc 6cbe dbec 2cbe c0e1 b1be 7659 e5bd
000001d0: 9e8f a4be 7ba0 e03d 3282 113d ee90 68be
000001e0: 5b54 43be f0ed 58bd 28a3 ed3a b73a 78be
000001f0: ea8b cbbd b542 89bb 7543 0dbe d4bb 33be
00000200: b526 1a3e f5ce 5e3d 284d a53d 7f42 bb3d
00000210: f1b8 543c c1f1 333d 0077 1bbe 29d1 1fbd
00000220: 8557 a2bd 484e 463d 74e5 32bd 7259 01be
00000230: d99e 47bd 81e9 a8be eda2 32be ee8d 59be
00000240: a873 85be b715 c1be ff8e 523d 49e2 07be
00000250: 292e e73c 550f 9a3d 3fb8 e43d db34 b0be
00000260: 36b6 29bd 3764 24be e0fd c4be 11ac 74be
00000270: 904a d73d 4749 db3c a257 0b3d d268 693d
00000280: dfc0 f83d fd64 ba3d 5bcc 69be 84c4 a4be
00000290: ef24 08be faf1 d73c fe8a 27be 928c 703d
000002a0: 84dd 82be 025f babd 9dea b6bd e77e 01be
000002b0: b865 ae3c e1ad 5dbe 1c4e 8dbe eb07 7ebe
000002c0: e801 c43c f0a7 45be 209e bb3d a104 42be
000002d0: cc57 22bd e29f de3d 9f1b 1a3e 23e9 093d
000002e0: 365d 0f3e b1a1 85bd 2aa4 98be 3772 b8bd
000002f0: 809b 8bbe 87ec e33d 7631 263d 8601 2f3d
00000300: c468 013e f52d 9a3d c339 24be 6e7c 0dbd
00000310: 228e 97bd dd1c 90be 6c8a 52be e59d e43d
00000320: 66fd 5abe 4f5b cfbd 7ddf cb3d fdad 013d
00000330: fe5e e13d 9498 8e3d d6ee d93d 1744 3e3d
00000340: 7d64 7abc cca9 8ebe 9a33 f4bd 34eb 70be
00000350: 311b 79be 41fe 9f3d fa5b 013e 6150 80be
00000360: ac7d cebd 3185 a1be 6354 1cbe 51c1 e9bd
00000370: 8378 6a3e 1f5d 84bd b69e 90bd ca91 d33d
00000380: 60d7 05bd 2ce5 833b cc54 9c3c ec68 59be
00000390: 0073 a5be 1fd1 c1bd f2ac 95be 77af 72be
000003a0: 4f8d 24be d300 09be 703e d1bd 0293 283c
000003b0: 7645 3abe 601e b1be 1450 1d3d e054 1a3e
000003c0: 2ae6 3c3c c2e2 30be 25bc 763d bd97 d83d
000003d0: e1c7 c83d a5c1 58be 9d6e 9dbb b56f 3e3d
000003e0: e8df e8bc 605d 9a3c 1a2f 90be 7611 dd3d
000003f0: f7ef 23bd de70 cabd 70e9 eebd 3ab5 28be
-0.21200699 0.085803725 0.11145068 -0.19253273 -0.13300785 -0.1917858 -0.28156224 -0.14599071
0.007921184 -0.18419659 -0.21827209 0.056646273 0.2620666 -0.066021144 -0.2820277 -0.12849757
-0.29947752 -0.03402073 0.0600162 0.1110077 0.11877466 -0.25253576 0.12843123 -0.20430268
-0.25561684 -0.021527521 0.053192616 0.10441084 -0.04934639 0.058661252 -0.29297727 -0.25858754
-0.016490392 0.027955992 -0.33505923 0.11383386 -0.240668 0.12665614 -0.023843026 0.09961911
-0.3925265 -0.20276938 0.09583041 -0.22159265 -0.2787011 -0.25809467 -0.23611479 -0.1411482
-0.124289356 0.052987043 -0.1387953 -0.30681384 -0.084225304 -0.11646254 -0.23377708 0.10035181
-0.052545503 0.0022948761 -0.070425026 -0.24290946 -0.21080491 -0.17491506 0.1528567 -0.44423646
-0.20141383 0.11994418 0.13268405 -0.13139504 -0.1905228 -0.13542321 -0.26903298 0.08210459
-0.15384483 -0.17109318 0.031141527 -0.009436219 0.01844259 0.1596244 -0.263842 -0.10078455
-0.4768616 -0.07022289 -0.040165268 -0.06015135 0.059041344 0.14321192 0.047717396 -0.066561006
-0.0042493637 -0.08135488 0.007453283 0.06300125 -0.3111545 0.22827555 -0.16909693 0.007832452
-0.39555857 0.018308543 -0.15019126 -0.07149858 -0.001930475 -0.16152023 -0.11084336 -0.21421146
-0.35120493 0.07354029 -0.63541734 0.11782442 -0.10369076 -0.24832362 0.016144026 -0.15060522
-0.23130861 -0.16887228 -0.34742546 -0.11198704 -0.3214082 0.10968109 0.035524555 -0.22711536
-0.19075148 -0.05296129 0.0018130289 -0.24241148 -0.09938796 -0.0041888603 -0.13795264 -0.1755212
0.15053828 0.05439659 0.08071357 0.091435425 0.012983547 0.043931726 -0.15182114 -0.03901783
-0.07926849 0.0484145 -0.043675855 -0.12631777 -0.048735473 -0.3299065 -0.17444964 -0.21245548
-0.260648 -0.3771188 0.051405903 -0.13269915 0.028220253 0.075224556 0.11167955 -0.34415326
-0.041433536 -0.16053854 -0.3847494 -0.23893763 0.105122685 0.02676834 0.03401912 0.05698473
0.12146162 0.09101293 -0.22831862 -0.3218118 -0.13295339 0.0263605 -0.16361615 0.05872781
-0.25559628 -0.091001526 -0.08931468 -0.12646066 0.021288738 -0.21648361 -0.27598655 -0.24807708
0.02392669 -0.19302344 0.09161019 -0.18947078 -0.03963451 0.10870339 0.15049599 0.033669602
0.14000401 -0.06524981 -0.29812747 -0.0900616 -0.27267075 0.111290984 0.040574513 0.042726062
0.12637621 0.07528297 -0.1603766 -0.034542494 -0.074001566 -0.2814702 -0.20560616 0.111629285
-0.21385726 -0.101248376 0.099547364 0.03166007 0.110044464 0.06962696 0.106412575 0.046451654
-0.015282747 -0.2786392 -0.11923905 -0.23527223 -0.24326779 0.07812167 0.12632743 -0.25061324
-0.10082564 -0.3154693 -0.15266566 -0.11413825 0.22897534 -0.06463074 -0.07061522 0.103305414
-0.0326761 0.004025122 0.019083403 -0.21231431 -0.323143 -0.09463715 -0.2923351 -0.23699747
-0.1606953 -0.1337922 -0.10216987 0.010288956 -0.1819056 -0.34593487 0.038406447 0.1507144
0.011529485 -0.17274001 0.060238022 0.10575817 0.09803749 -0.2116762 -0.004804446 0.04649325
-0.02842708 0.018843353 -0.28160936 0.10794346 -0.04002377 -0.09884809 -0.116656184 -0.16475382

fc2.weight_fake_quant.scale f4 [10]
00000000: 9e09 743b f674 a23b 7216 313b 92c0 6c3b
00000010: 132a 593b f035 7c3b 73ca 933b 0e64 523b
00000020: ddbc 633b e6b0 473b
0.0037237178 0.0049577905 0.0027021435 0.0036125523 0.003313665 0.0038484298 0.004510218 0.0032103094
0.0034750022 0.003047043

fc2.weight_fake_quant.activation_post_process.min_val f4 [10]
00000000: 9e09 f4be f674 22bf 7216 b1be 92c0 ecbe
00000010: 132a d9be f035 fcbe 73ca 13bf 0e64 d2be
00000020: ddbc e3be e6b0 c7be
-0.47663587 -0.6345972 -0.34587437 -0.4624067 -0.42414913 -0.492599 -0.5773079 -0.4109196
-0.4448003 -0.3900215

fc2.weight_fake_quant.activation_post_process.max_val f4 [10]
00000000: de1f 863e 2275 693e 6283 6a3e 952a 6f3e
00000010: 8332 333e 20b6 613e a9cf 483e e4d3 353e
00000020: 9073 403e 8b94 673e
0.26196188 0.22798589 0.22901681 0.23356088 0.17499737 0.22042131 0.19610466 0.17756611
0.18794084 0.22615258
