experiments/exp014/model.pth (torch, 274391 bytes, 20 tensors)

conv1.weight f4 [6, 2, 5, 5]
000000 4d 25 64 3e 10 23 e1 3c 54 8a 87 be 9a 32 16 3d
       0.22279854 0.02748254 -0.26472723 0.03666935
000010 9f 42 90 3e 6c cc 81 bc 25 ca 8a be 98 52 7b bd
       0.28175828 -0.015844546 -0.2710735 -0.061358064
000020 a2 6d a1 3d 07 e1 56 3e b3 64 6d be e1 02 4e be
       0.07882239 0.20984279 -0.23182945 -0.20118286
000030 80 5d cb 3d 57 6d 80 3e 28 ed 2d 3e bd 36 b7 bd
       0.09929943 0.2508342 0.16984999 -0.089459874
000040 91 00 f5 bb 51 b1 66 3e 74 f6 6e 3e 12 b9 0a be
       -0.007476874 0.22528578 0.23336202 -0.13547161
000050 f5 8c 08 3d 84 ce 2f 3e fe 28 66 3e 9f 61 96 bd
       0.033337552 0.17168623 0.22476575 -0.073428385
000060 82 4e fe 3c 21 c3 be 3d 1a 95 dc 3d 9f 8b 2e 3e
       0.031043295 0.09314562 0.10770626 0.17045449
000070 52 3f 45 be 1f 7b 65 be e9 d9 6e 3d f8 32 1c 3e
       -0.19262436 -0.22410248 0.058313284 0.15253818
000080 35 08 bc 3d 55 5f de bd 07 6b 5b be 21 4b d5 3d
       0.09181253 -0.10858027 -0.21427546 0.1041472
000090 6a 44 f1 3d de b4 27 be 42 7b d9 be 82 d7 61 be
       0.11780627 -0.16377589 -0.4247685 -0.22054866
0000a0 68 d8 f9 3d 99 e9 2d bb ff eb 5e be 83 01 1e be
       0.12199479 -0.002653694 -0.21769713 -0.15430264
0000b0 55 37 ec bc bc 16 9b 3d 1f 34 90 bb e8 7e 00 be
       -0.028834978 0.075726956 -0.0044007446 -0.12548411
0000c0 38 e7 c3 bd 58 fe f4 3c 2f 1b 98 bc f2 20 ba 3d
       -0.09565586 0.029906437 -0.01856765 0.09088315
0000d0 5f 67 22 be 6c fa 95 bb 26 7b d2 bd e6 ab 3e 3e
       -0.15859745 -0.0045769718 -0.10277395 0.18620262
0000e0 ed 20 4b 3d df b2 dd 3c 04 7b b7 3e df ab 1a 3d
       0.049591947 0.027062831 0.3583604 0.037761565
0000f0 c3 c0 02 3e 3c 64 e9 3c 40 c8 b9 3e 9d 4f 9d 3e
       0.12768845 0.028490178 0.3628559 0.30724803
000100 5f 8e 69 3e c5 95 f5 bb bc 36 41 bd 7b 96 6b 3e
       0.22808217 -0.0074946606 -0.04717134 0.23006622
000110 65 bb 93 3e fb e2 3f 3e 26 53 40 bd 17 38 30 be
       0.28853908 0.1873893 -0.046954297 -0.17208897
000120 9e b4 6b bd a5 74 73 3d bf cf 69 3e 13 7f 83 bd
       -0.057545297 0.059437413 0.22833155 -0.06420722
000130 0b 54 86 be be 8b 95 be 86 b7 0b bd bc 51 df 3d
       -0.26235995 -0.29208177 -0.03411057 0.109042615
000140 b5 18 e2 bd 71 65 fd be 3a 32 91 be b5 7f 03 be
       -0.11039869 -0.49491456 -0.28358632 -0.12841685
000150 86 bd 6f 3e 5d b5 e0 bd a4 b9 8c bd 16 58 6d be
       0.23412141 -0.10972092 -0.06871346 -0.23178133
000160 34 25 8e be 7e 8b 34 3e 71 81 fe bc 0a 98 20 bd
       -0.2776276 0.17631337 -0.031067582 -0.039207496
000170 e8 8d 00 be 4e 3b 72 be ad db 9e 3d 58 9f ce bb
       -0.12554133 -0.23655435 0.077567436 -0.0063056163
000180 91 87 1a 3d 1e 1b d1 3d 47 ef c1 bd 63 f3 86 3d
       0.037726942 0.1021025 -0.09469467 0.06589391
000190 41 6e cc bc e2 d0 a5 bd 89 9f a3 3d 9c fe 32 3e
       -0.024954917 -0.08096482 0.07989413 0.17479938
0001a0 ad 70 bf bd b3 ed 6a be 52 e6 9c 3c 19 6a 75 be
       -0.09347663 -0.22942238 0.019152794 -0.23966254
0001b0 53 49 45 be ad b7 9a be 45 2c 27 bd 32 82 0e bd
       -0.19266252 -0.30218259 -0.040813703 -0.034792133
0001c0 27 b8 ff bd 75 d8 f0 bc 68 9c 88 bd 01 dd f3 3c
       -0.12486296 -0.02940009 -0.06670457 0.029768469
0001d0 7b 1c 26 3e 3f 91 19 3f 56 9e b0 3e e6 c0 ea 3d
       0.16221802 0.5998725 0.344958 0.11462574
0001e0 ff 21 c8 3d d4 61 2d 3e 78 2c 79 3e 84 21 1a 3e
       0.09772109 0.1693185 0.2433337 0.15051848
0001f0 5a 95 14 3d f5 30 ae 3d f7 d6 80 be ad 10 9f be
       0.036275245 0.085054316 -0.25164005 -0.3106741
000200 e4 24 e3 bd 0c f2 f2 bd 31 eb 6f be b1 f0 af bd
       -0.11091021 -0.11862573 -0.23429562 -0.0859083
000210 bf 5f 86 3d fc 81 43 3e 02 e3 62 3e 32 67 4e 3c
       0.06561231 0.19092554 0.22156909 0.012597846
000220 f1 68 f3 3d 34 46 4b 3e 3c 0c 06 3e b6 62 a1 3d
       0.1188525 0.19850999 0.13090605 0.07880156
000230 34 d9 48 3e a7 42 4f 3e 76 87 fa bd ae 6d 59 bd
       0.19614106 0.2024027 -0.122328684 -0.053083114
000240 91 97 42 3e aa 97 64 bd 19 4e 88 be 35 cb 9d be
       0.1900313 -0.0558087 -0.26622084 -0.30819097
000250 74 7d 73 be ae 51 93 bc d5 99 0d 3e 79 13 ed 3c
       -0.23778325 -0.017983284 0.13828214 0.02893995
000260 30 26 88 3d 3b 76 18 3d 27 4a 8f 3e 45 c3 35 ba
       0.06647909 0.03722213 0.2798626 -0.00069336995
000270 24 72 9a bc 84 82 8a 3b 89 30 82 3e d4 4a 1a 3e
       -0.018853255 0.0042269845 0.25427654 0.15067607
000280 a1 5c 9f 3c 1e 5e d3 3c 79 79 17 3e b4 cb 42 3e
       0.019453349 0.025801715 0.14792432 0.19023019
000290 d7 50 1d 3e 08 c7 1b bd bd a7 34 be 32 2a 59 be
       0.15362869 -0.038031608 -0.17642112 -0.21207502
0002a0 40 e7 a4 3d 21 f6 f0 3d 35 a5 a2 be 9f e8 9e be
       0.0805192 0.11765695 -0.31766668 -0.3103685
0002b0 e2 ea bc be 6f 1b 1e bf f7 32 ad bb 83 72 19 3e
       -0.3689795 -0.6176061 -0.0052856165 0.14985089
0002c0 b3 b2 11 3e 1e d6 e7 3b 32 68 51 3d d4 db 45 3e
       0.14228325 0.0070750853 0.05112476 0.19322139
0002d0 79 f8 15 3d 00 03 a4 3c 06 1c 8b 3c 6b 9a 19 3e
       0.036613915 0.020020962 0.016981136 0.15000312
0002e0 1f df 26 3e 4e 54 89 bc cf ee d2 bd 1c 02 29 be
       0.16296051 -0.016763832 -0.102994554 -0.16504711
0002f0 28 0f 73 bd 47 55 11 3d 64 d9 20 bc 1c ae 27 bd
       -0.059340626 0.035481717 -0.009817455 -0.040937528
000300 14 ff 62 bd fd 25 03 be 55 36 bd 3d 77 a8 cf 3b
       -0.055419043 -0.1280746 0.09238879 0.0063372212
000310 75 e3 83 3d 4f 40 3f bd 9a 54 cf bd da b6 12 bd
       0.06439868 -0.04669219 -0.10123558 -0.035818912
000320 c1 cd ac 3d a9 51 45 3c c8 8b 18 3e f5 3f 44 3d
       0.08437682 0.012043395 0.14897072 0.047912557
000330 25 08 1f 3e 21 e9 01 be 47 d7 28 bd 35 4c d7 bd
       0.1553045 -0.12686588 -0.04122093 -0.10512582
000340 5d 4b 24 3d 78 a5 47 3e 98 7b 8d be ce 16 a4 be
       0.040110935 0.19496715 -0.27633357 -0.3204865
000350 08 74 59 be aa 45 81 be 56 e8 2e bc e4 f2 c6 3d
       -0.21235669 -0.25248462 -0.01067551 0.097142965
000360 c5 80 69 be 17 f8 92 be 42 7d 8c be 76 39 5d be
       -0.22803028 -0.28704903 -0.27439314 -0.21603951
000370 f8 3e c0 3d 47 03 3c 3d 27 34 d8 bd a4 2d 90 3c
       0.0938701 0.045901563 -0.10556822 0.017599888
000380 31 87 00 3d 8c 63 ef bd a8 31 a9 be 5b 51 af be
       0.03137893 -0.11688909 -0.33045697 -0.34241757
000390 9b 66 39 be 6d 04 06 be 3e 20 80 3e 8c 08 7a bc
       -0.18105547 -0.13087626 0.250246 -0.015260827
0003a0 98 59 9f be 5f 30 7f be c4 8a 94 be 4d 35 86 3e
       -0.31123042 -0.24920796 -0.2901212 0.2621254
0003b0 bf 37 93 3e fc ac 4a 3e 4a f6 bb bd ef 2f 93 3d
       0.28753468 0.19792551 -0.09177835 0.07186877
0003c0 17 c9 77 3e ef dc 12 3f e5 0e 8e 3e 9c 77 36 3e
       0.24197803 0.5736837 0.2774574 0.17819065
0003d0 fd bd d5 3a 51 37 2d 3e ac dd 3b 3e 80 0a 36 3e
       0.0016307231 0.16915633 0.1834628 0.17777443
0003e0 39 39 f3 3d ba 90 90 bd fa 0f 3d bd 44 d7 92 bd
       0.11876149 -0.070588544 -0.046157815 -0.07169965
0003f0 4f 11 f3 bc 23 b7 14 be 85 bb 02 be 96 b8 07 be
       -0.02967134 -0.14522986 -0.12766846 -0.13254008

conv1.weight_fake_quant.scale f4 [6]
000000 10 7b 59 3b 40 65 7d 3b 9b c6 9a 3b a0 1b 9e 3b
       0.0033184923 0.0038665086 0.0047233826 0.0048250705
000010 2a 05 94 3b 4d 70 71 3b
       0.004517217 0.0036840618

conv1.weight_fake_quant.activation_post_process.min_val f4 [6]
000000 10 7b d9 be 40 65 fd be de 10 9f be a0 1b 1e bf
       -0.42476702 -0.4949131 -0.31067556 -0.617609
000010 2a 51 af be 8e c9 b1 be
       -0.3424161 -0.34724087

conv1.weight_fake_quant.activation_post_process.max_val f4 [6]
000000 d0 42 90 3e 0e c8 b9 3e 0e 91 19 3f f6 49 8f 3e
       0.28175974 0.36285442 0.5998696 0.27986115
000010 20 dd 12 3f 6c 8d ef 3e
       0.5736866 0.46787584

conv2.weight f4 [16, 6, 5, 5]
000000 dd 86 10 3d 94 73 06 bd ac ae 82 bd 16 aa 23 3d
       0.035284866 -0.032825068 -0.06380972 0.03995713
000010 38 f6 90 3d ea 57 31 bd 68 27 73 be 02 3e 51 bd
       0.070782125 -0.043296732 -0.23745501 -0.051084526
000020 1e 26 2b bd ae 1c 82 bd 7c 7c a4 3d 7c e0 29 be
       -0.0417844 -0.063531265 0.08031556 -0.1658954
000030 8d a7 b2 3c 95 cb 32 bb 74 a7 ea 3d 51 be 06 3e
       0.02180841 -0.002728199 0.114577204 0.13158537
000040 34 2a db 3d 51 3b 38 bb 10 41 16 3e bd 01 79 3d
       0.10701409 -0.0028111527 0.14673257 0.060792673
000050 9c 29 db 3d be b8 1e 3e d0 f4 93 3d 7c f9 9c 3d
       0.10701296 0.15500161 0.07224429 0.07664773
000060 57 64 87 bc c7 17 5d bd 8d 1c 9e be e2 ad a7 bd
       -0.016527338 -0.053977754 -0.30881158 -0.081874624
000070 7c 5d a7 3d 8a 0e 13 3d 28 aa 13 3f cb b8 29 bd
       0.081721276 0.035902537 0.5768151 -0.041435998
000080 95 51 12 bf 52 96 ba be 6c 4a 7e be aa 3c 54 3e
       -0.57155734 -0.3644281 -0.24833077 0.20726267
000090 09 ce 28 3e 74 af 08 be c5 b4 15 be 59 58 55 3d
       0.16484846 -0.1334818 -0.1461974 0.052086208
0000a0 29 a3 0a be f6 86 8d bb 18 8b 24 be 86 3c 11 be
       -0.13538803 -0.004319067 -0.16068685 -0.14183244
0000b0 ef 6e 18 3e 8b 45 0b be 2a 11 4e be d1 9a 20 be
       0.14886068 -0.13600747 -0.20123735 -0.15684058
0000c0 ed 7a 43 bd b9 5b 76 bc b3 4e 1d 3e cd b8 a5 be
       -0.047724653 -0.015036517 0.15362053 -0.32367554
0000d0 65 f7 f8 be ab 5e c0 be e3 7b 93 be 0a 10 19 3e
       -0.48626247 -0.37572226 -0.28805456 0.14947525
0000e0 07 0d b6 3c c2 ae 20 be 2d 3d 9e bd 81 75 1b 3d
       0.022223009 -0.15691665 -0.07726512 0.037953857
0000f0 9e 85 de bd 0d a5 0a be a8 ad ac bd b1 40 d4 bc
       -0.10865329 -0.13539524 -0.0843156 -0.025909754
000100 26 42 0a 3e 11 ef f5 bd f3 08 e4 bc 34 e0 70 3d
       0.13501796 -0.12008489 -0.027836299 0.058807567
000110 38 19 7b 3c 85 1d 32 be 15 39 00 be 3f e2 df 3d
       0.015325837 -0.17394073 -0.12521775 0.10931825
000120 e7 35 4c bb 5e d4 2b 3d 3b 7c c2 bd 62 fa 8e 3d
       -0.0031160058 0.041950576 -0.09496351 0.069813505
000130 b8 0c 43 be 01 7e 1c 3d 99 76 8d 3d 78 c0 bb 3d
       -0.1904782 0.038206104 0.06907386 0.0916757
000140 82 4c b2 3d 8b 91 75 be b7 f3 b7 be b3 9b 9e 3d
       0.08705999 -0.23981301 -0.35928127 0.07744541
000150 85 10 91 bd fb a1 21 3e fc 06 07 3e df e6 48 be
       -0.07083229 0.15784447 0.13186258 -0.1961932
000160 5c 15 9d 39 14 a7 95 3d d5 3d c8 3c 00 15 7c 3d
       0.00029961288 0.07307258 0.024443546 0.061543465
000170 b1 aa cb bd 19 0f 87 bd 5c 73 81 3e 97 c8 94 3d
       -0.09944666 -0.065946765 0.25283325 0.07264822
000180 39 ff 3a bd ac 69 40 be e1 36 28 be e4 52 a6 bd
       -0.045653556 -0.1879031 -0.16427185 -0.08121279
000190 46 d8 6f be 84 98 bc 3b df c5 06 3e 5b e1 ed bd
       -0.23422346 0.005755486 0.1316142 -0.11615249
0001a0 31 be f8 3b fb a1 c0 be 9b 35 35 be e0 06 92 3e
       0.007591032 -0.3762358 -0.1769623 0.2852087
0001b0 60 a7 19 3e d0 76 84 3d 68 0e d6 3d a3 b1 8f be
       0.15005255 0.06467974 0.104519665 -0.28065214
0001c0 e8 00 01 be 3e de 53 bc 51 fb a9 3c 84 fa c7 3e
       -0.12598002 -0.012931405 0.02074972 0.39058316
0001d0 1a 65 06 3d 9d 24 97 be 56 dd 5f be 26 75 21 3d
       0.03281126 -0.2952012 -0.21861777 0.039418362
0001e0 f2 5e 3b be 5f 0d 2a be ad 69 a1 be d3 a8 60 be
       -0.18297938 -0.16606663 -0.31525937 -0.21939401
0001f0 70 18 06 be 52 be 31 bd ef 5e 3c be ea 06 83 3d
       -0.1309526 -0.043394394 -0.1839559 0.06397803
000200 04 86 c7 3d 14 a0 bd 3d 63 5b a4 be 0d 44 4e be
       0.09742358 0.09259048 -0.32100973 -0.20143147
000210 e7 9e cd 3c b6 8b 43 3d ae 5c 5b bd 83 4e 82 be
       0.025100185 0.04774066 -0.053555183 -0.25450525
000220 b6 35 90 bd 18 3d 0e 3e 6a fe 12 3e d3 18 26 be
       -0.070414945 0.13890493 0.14354864 -0.16220407
000230 3b 4a 94 3d 2d f6 6d 3d 25 fa da 3d ce 92 f8 3c
       0.07240721 0.0580961 0.106922425 0.03034344
000240 cd 27 a3 be 32 f1 a5 3d d6 96 ef 3c 8b 19 6a 3d
       -0.31866303 0.08102645 0.029246729 0.057153266
000250 4f fb e7 bb 68 42 99 be 4d 4b 16 3d 65 9a 68 3c
       -0.007079519 -0.29933476 0.036692906 0.014196967
000260 0b c2 14 3e c3 f8 b5 3d 8b dc 40 3d 91 34 3c 3e
       0.14527147 0.08885338 0.047085326 0.18379427
000270 71 55 42 3e b7 ea 54 3e 3e 2d 85 3e 08 56 b6 3d
       0.18977906 0.20792662 0.2601108 0.08903128
000280 07 28 bd 3d 45 59 02 3d 0c a2 a3 bd 63 5a 34 3e
       0.0923615 0.031823415 -0.07989892 0.17612605
000290 4d c0 0a 3e d4 10 40 be 2a 60 c1 bd 33 77 e2 3d
       0.1354992 -0.1875642 -0.0944217 0.11057892
0002a0 17 c8 82 bc 65 16 5f be db f4 a9 be d4 3f 11 be
       -0.01596455 -0.21785887 -0.33194622 -0.14184505
0002b0 8c 0a 3a bd 07 2d 1e bd a4 3e 88 3d d4 35 3c bd
       -0.045420215 -0.03861716 0.06652573 -0.045949772
0002c0 26 b1 a2 be 83 81 9c be bf 96 6c 3a 56 cf 1e 3e
       -0.3177578 -0.3056756 0.00090251485 0.1550878
0002d0 bb df d3 bd c4 26 14 be fa 30 5c 3d dd 61 bd 3d
       -0.103454076 -0.14467913 0.053757645 0.092471816
0002e0 6d d9 95 bc e3 e8 1c be ce 52 6f bd 52 62 0e 3e
       -0.018292153 -0.15323214 -0.058428578 0.13904694
0002f0 f7 3c 0a 3e 7a f0 b2 3d 7b 41 ea bd a1 18 ab 3c
       0.13499819 0.087372735 -0.11438271 0.020885767
000300 9e a2 4c 3e 46 20 c8 3c bc 6f 28 be 16 e5 0b bf
       0.19983909 0.024429452 -0.16448873 -0.5464643
000310 49 bd 31 bf 08 3e 16 bf 88 66 c4 be 72 f0 64 be
       -0.6942945 -0.586884 -0.38359475 -0.22357348
000320 12 29 19 bd 35 74 c6 3d bf 82 d0 bc 04 33 24 3c
       -0.037392683 0.096901335 -0.02545297 0.010021929
000330 cc d8 82 bd 42 66 e6 3d 26 eb 95 bd 65 60 a5 bd
       -0.06389007 0.11249973 -0.07320242 -0.080750264
000340 57 7f 07 bc 88 71 c7 3d d8 4b 1e 3e 39 b9 15 3d
       -0.008270106 0.09738451 0.1545862 0.036553595
000350 9e e5 4f 3e 04 85 7c 3e e1 94 18 bd ef 88 11 bf
       0.20302436 0.24660116 -0.037251357 -0.5684957
000360 4c ec de be 0c 73 a0 be 05 47 10 bf ac f1 6f be
       -0.43539655 -0.31337774 -0.5635837 -0.23432034
000370 44 6d 29 bd 82 43 b0 be ff f6 73 be 93 55 d1 39
       -0.04136397 -0.34426504 -0.2382469 0.00039927344
000380 07 05 6b 3e 80 44 dd 3c d8 c4 6e be 7c 80 04 bd
       0.22951137 0.027010202 -0.23317277 -0.032349095
000390 a6 4d 48 bc f8 58 aa 3d ee 6b ba 3d 3d 7c 36 3d
       -0.012225544 0.08317751 0.09102617 0.044552077
0003a0 4b f5 64 3b 5d f6 4f 3d da 19 94 3c ee 89 fe 3d
       0.0034936245 0.05077206 0.018078733 0.12428652
0003b0 cd 21 43 3d a0 1e 22 bd f5 77 ba 3c bb 59 92 3c
       0.047639657 -0.039579988 0.022762278 0.017865052
0003c0 20 b3 f5 3d d1 d3 29 3e b9 11 82 3e 3c b6 bd 3d
       0.11997056 0.16584708 0.25404146 0.09263274
0003d0 0c cd a3 be 99 a6 0c be eb cd ce bd 8e 1a 28 be
       -0.31992376 -0.13735427 -0.100978695 -0.1641638
0003e0 e1 52 b5 be 45 ee da be 2f 9e 93 3d 3c 55 8f 3d
       -0.35414794 -0.4275991 0.072079055 0.06998679
0003f0 cb 6c d9 bd d6 8a 2b be bc 52 89 3c c0 d9 2b bc
       -0.10616454 -0.1675218 0.016763084 -0.010488927

conv2.weight_fake_quant.scale f4 [16]
000000 9d d3 94 3b 7a bd b1 3b 70 e3 9d 3b a9 eb 4f 3b
       0.004541828 0.0054241987 0.0048183724 0.0031726158
000010 1c 21 93 3b c0 6e 6c 3b d4 b2 8c 3b 5c b5 4d 3b
       0.004490031 0.0036076754 0.004293779 0.0031388616
000020 c9 49 80 3b 08 28 57 3b 9a 89 56 3b 64 9c 82 3b
       0.003915046 0.0032830257 0.0032735826 0.0039859284
000030 d0 fd 6a 3b ea cd 8f 3b 3a 18 90 3b 86 ef 86 3b
       0.003585685 0.0043885605 0.0043974193 0.004117909

conv2.weight_fake_quant.activation_post_process.min_val f4 [16]
000000 c6 51 12 bf 7a bd 31 bf 70 e3 1d bf fe 62 cd be
       -0.57156026 -0.69429743 -0.6167517 -0.40114588
000010 1c 21 13 bf c0 6e ec be d4 b2 0c bf 5c b5 cd be
       -0.57472396 -0.46178246 -0.5496037 -0.4017743
000020 2c e3 cb be 08 28 d7 be 9a 89 d6 be 64 9c 02 bf
       -0.39821756 -0.4202273 -0.41901857 -0.51019883
000030 d0 fd ea be ea cd 0f bf 3a 18 10 bf 86 ef 06 bf
       -0.4589677 -0.56173575 -0.56286967 -0.52709234

conv2.weight_fake_quant.activation_post_process.max_val f4 [16]
000000 f6 a9 13 3f 7e 64 95 3e be ed 97 3e d2 4b ce 3e
       0.57681215 0.29178232 0.2967357 0.4029222
000010 b2 19 b2 3e 4a 55 b9 3e 76 6d a6 3e 58 08 98 3e
       0.3478523 0.36197883 0.32505387 0.29693866
000020 6a 92 fe 3e 6e 30 77 3e 7a f4 89 3e 8a c2 cd 3e
       0.4972108 0.24139568 0.26944333 0.40187484
000030 46 fb 97 3e 7e 59 8e 3e da cd a0 3e b0 5f d7 3e
       0.29683894 0.27802652 0.31407052 0.4206519

conv3.weight f4 [120, 16, 5, 5]
000000 49 28 2d bd 93 7e a0 bd 10 07 71 bb 3f 75 d0 bc
       -0.042274747 -0.07836642 -0.0036777891 -0.025446532
000010 2d 1e a7 bd 8c 71 c0 bc eb c1 96 3d fd 16 b9 3c
       -0.081600524 -0.023491643 0.07361206 0.02259397
000020 c8 73 10 bd 08 7c 9a 3e 92 21 19 3e 5c b3 96 bd
       -0.035266668 0.30172753 0.14954212 -0.07358429
000030 e5 8f f1 3d 63 6e d5 3d 0e e9 0f 3e 15 c9 92 3b
       0.11795024 0.10421445 0.14053747 0.0044795373
000040 5e 34 31 bd 15 aa 6e bd 3c 9c 83 bc 52 c0 62 bd
       -0.043262832 -0.05826767 -0.01606571 -0.055359192
000050 f6 e8 09 3e ae 6f 00 bd 38 a5 91 3d a5 4a b5 3c
       0.13467774 -0.031356506 0.07111591 0.02213032
000060 80 8a 19 be 5c e2 35 bd 59 92 c9 bb a2 d8 bf 3c
       -0.1499424 -0.044405326 -0.006151479 0.023418728
000070 5a 41 81 3e 98 ed 31 3e a8 8c 9f bd ea 3c b0 3d
       0.25245172 0.17375791 -0.077905 0.086053684
000080 33 f1 49 be c9 65 6b 3c 09 19 18 be 87 d8 a0 be
       -0.19720916 0.014367529 -0.148533 -0.31415197
000090 a3 74 14 bd 16 84 05 be 30 c4 0d be c3 a9 57 be
       -0.036244046 -0.13038668 -0.13844371 -0.21060853
0000a0 fa b3 8a bd 26 89 17 be 1d 99 d4 3d bb 42 ac 3c
       -0.06772609 -0.14798412 0.103807665 0.021027913
0000b0 ed 31 df 3d 3a d7 05 bd be d0 c7 3d ce 29 02 3e
       0.108981945 -0.03267596 0.09756611 0.1271126
0000c0 71 a7 43 3d 55 db 11 3d cd fd 18 be a0 c2 90 bd
       0.047767106 0.035609562 -0.14940567 -0.07068372
0000d0 6a e4 0d be ea 70 3d 3d 35 95 bf 3d 70 a6 e7 be
       -0.13856664 0.04625026 0.09354631 -0.4524417
0000e0 98 a3 2a be 98 6d 93 bd 65 37 1e 3e 17 25 b7 3d
       -0.16663969 -0.07198638 0.15450819 0.08942621
0000f0 f6 3b f8 bd 3c fe ac bc 1a 07 8e be 66 3d ac bd
       -0.12120812 -0.021117322 -0.27739793 -0.08410148
000100 6c 07 1e be 1c 03 a6 3d 1b 2b ea bd c6 52 57 bc
       -0.15432519 0.08106062 -0.11434003 -0.013142293
000110 e9 df 67 be f3 44 40 be 5d 29 b6 3c 50 b0 9e 3c
       -0.22644009 -0.18776302 0.02223652 0.019371182
000120 c7 7e 98 bd 49 04 ab bd 3a c6 e7 3d b0 73 35 be
       -0.07446056 -0.08350427 0.113171056 -0.17719913
000130 e7 3b d2 bd 05 ea 21 be 35 b7 a9 be c8 c5 a9 bd
       -0.10265332 -0.15811928 -0.33147588 -0.08289677
000140 d0 70 c7 3d 0b a3 43 bd cb 26 65 3d 86 a7 53 3d
       0.09738314 -0.04776291 0.0559452 0.051673435
000150 aa 7a 14 3e ba 96 a8 be 41 39 57 be 25 49 1f bc
       0.14499918 -0.32927495 -0.21017934 -0.009722029
000160 c8 45 1f 3e 48 9d 94 3d 49 60 74 be 67 73 16 be
       0.15553963 0.072565615 -0.23864855 -0.1469246
000170 9c aa b9 3d 77 00 33 be 19 f0 6c be 45 47 95 3d
       0.09065744 -0.17480646 -0.23138465 0.07288984
000180 aa 15 3a 3d 06 1f f1 3d 86 c0 27 bd 05 b5 2a bd
       0.045430817 0.117734954 -0.04095509 -0.04167654
000190 04 4d bc 3c 72 99 10 3e 20 cb 8c 3d c2 ee 2d be
       0.022985943 0.14121035 0.068746805 -0.1698561
0001a0 76 2a 64 3d fa eb 13 be 53 57 1e 3d f3 43 7d 3e
       0.055704556 -0.14445487 0.038657498 0.24732952
0001b0 07 eb 13 3d 88 50 7d 3c f1 8e 9c be bf a8 ba bc
       0.03611281 0.015461095 -0.30577806 -0.022785543
0001c0 86 e6 32 3c 4c 88 6d 3d 60 ad 55 be a3 ed 9d be
       0.010919219 0.05799131 -0.20866919 -0.30845365
0001d0 7a c2 5f be 91 ca 10 be be d1 26 bd 1a f3 2f 3d
       -0.2185153 -0.14139773 -0.04072737 0.04295645
0001e0 9d 79 47 3d e1 eb 47 3d 33 51 c4 3d 0e 08 da 3d
       0.048699964 0.048808936 0.095858 0.106460676
0001f0 19 81 34 3d c0 a2 b6 3c be b4 81 3d 6d 47 93 3d
       0.04406843 0.022294402 0.06333302 0.07191358
000200 b1 ac 3c bd 6c 32 93 be 85 cb 5d bb 9f 7e ca 3d
       -0.04606313 -0.28749406 -0.003384323 0.09887432
000210 68 b1 df bd c9 8a 28 bd 8d 4e e3 bc 6d 1e 0f 3e
       -0.109225094 -0.04114798 -0.027747417 0.1397645
000220 84 d9 5c bc 7e 38 83 be 8a 82 1c be b3 b4 5e 3e
       -0.013479594 -0.25629038 -0.15284172 0.21748619
000230 94 13 99 ba 65 56 cf be 09 56 cb be f0 fd 38 be
       -0.0011678808 -0.404956 -0.39714077 -0.1806562
000240 56 3c aa bd 79 0f 42 be 9f 85 8e be e2 dd 1d 3e
       -0.083122894 -0.18951215 -0.2783632 0.15416673
000250 4f 3f b7 3d f2 42 ad 3d 69 56 76 3d 8f 80 c0 3e
       0.08947622 0.084600344 0.060141 0.37598082
000260 50 74 a6 3d c5 fe ca 3d 2e ce 00 3d 1d db 30 3e
       0.081276536 0.09911875 0.03144663 0.17271085
000270 3a f3 b3 3d e1 fa 0c 3e 77 16 5b bd 19 48 b2 be
       0.08786626 0.13767578 -0.05348822 -0.3482063
000280 09 ac 45 3e 22 ef 2f be d6 da 55 be 13 69 1e be
       0.19303907 -0.17181066 -0.2088426 -0.1546977
000290 70 42 fa 3d 03 41 e0 bd fa 9b 55 be 7d a2 ce 3b
       0.12219703 -0.109499 -0.20860282 0.006305991
0002a0 44 4f fb 3d 28 7d 37 3e 59 65 69 be 40 a8 0b be
       0.12270978 0.17918837 -0.22792567 -0.13638401
0002b0 35 b5 9b bd 14 69 7e 3d 58 77 95 bc 2b 4b ac be
       -0.07602922 0.06211193 -0.018245384 -0.336511
0002c0 68 2e 9b be ec 31 13 be cc a0 b4 bd a5 cc ac bd
       -0.30308843 -0.14374512 -0.08819732 -0.0843747
0002d0 13 04 cb be 7a d5 12 bd 9b 8b 5c 3e a3 46 34 3e
       -0.39651546 -0.03584812 0.2153763 0.17605071
0002e0 67 f6 e8 3d 98 81 68 bd 4d 7a 57 bd d8 01 6b 3c
       0.113751225 -0.056764215 -0.05260687 0.014343701
0002f0 14 17 4c 3e 21 5a ac 3c da 92 16 be 7d c9 96 bd
       0.19930679 0.02103907 -0.14704457 -0.073626496
000300 38 a8 b4 bd b6 a0 a9 bd 75 2b 8f be 38 81 d3 bd
       -0.08821148 -0.08282606 -0.27962843 -0.10327381
000310 e3 97 97 bd 4d b6 2b be b1 17 1d be 2b 39 7e be
       -0.07402017 -0.16768761 -0.15341069 -0.24826495
000320 92 83 1a be dc 1c 35 3d 6c 2f c0 3d b6 e6 4f 3d
       -0.15089253 0.044216976 0.09384045 0.050757132
000330 3d 24 1b 3d 09 6d fd be 46 f4 d2 3d e2 80 01 be
       0.037876356 -0.4949725 0.10300498 -0.12646821
000340 99 03 49 3e 82 44 6c 3e db 6a 4c bd 08 92 32 be
       0.19630279 0.23073009 -0.049906593 -0.17438519
000350 0e b1 af bb 72 9d 3a be e1 10 76 3c 55 80 3e 3e
       -0.0053616827 -0.18224123 0.015018673 0.18603642
000360 9d e0 96 bc 32 a3 52 3e d4 a0 91 bd 83 16 35 3d
       -0.01841765 0.20570067 -0.07110754 0.044210922
000370 3a 09 0c bd e8 4a ab 3d af 3e c5 bd 4c e2 0c be
       -0.034188487 0.083638966 -0.096310966 -0.137582
000380 c5 09 71 3e 31 b6 1d be 38 62 23 3a 55 63 45 3e
       0.23538883 -0.15401532 0.0006232592 0.19276173
000390 cb d6 09 3d 7a 82 0b be 61 f4 c4 be 69 f5 6f bd
       0.03365211 -0.13623992 -0.38467696 -0.05858365
0003a0 87 7a e4 bc da 3b 84 3c 86 2d 9a bd 42 cb af bd
       -0.027890457 0.01614182 -0.07528214 -0.0858369
0003b0 cb dc 13 be f2 0a 16 be 99 68 27 3e 7f e4 2f 3e
       -0.14439695 -0.14652613 0.16348495 0.17177008
0003c0 e0 74 00 be 9f a3 c1 3d bf 30 b7 3d 29 32 1f bc
       -0.12544584 0.09455036 0.089448445 -0.009716549
0003d0 b0 74 f1 3c c9 ed f4 bd eb d6 19 3d ac 98 44 bd
       0.029474586 -0.119594164 0.037558477 -0.04799716
0003e0 64 93 9b 3d 7f d8 ba bb be d5 a6 bd 62 f0 aa bb
       0.07596472 -0.005702078 -0.08146237 -0.005216644
0003f0 fe 0b a8 bc 09 30 2b 3c d1 f2 e9 bc 4a ac bc be
       -0.02051353 0.010448464 -0.028558167 -0.36850196

conv3.weight_fake_quant.scale f4 [120]
000000 d8 6c 7d 3b 1c 16 0a 3b b0 ea 6a 3b d8 0c 8a 3b
       0.0038669612 0.0021070307 0.003584545 0.004212957
000010 10 75 79 3b 73 9c 52 3b 6e 84 5b 3b 1c ff 43 3a
       0.003806416 0.0032136708 0.0033495682 0.0007476674
000020 2e 3e b8 3a 64 c4 3a 3b a6 56 74 3a e8 54 62 3b
       0.0014056617 0.0028498406 0.0009320773 0.0034535471
000030 87 0d 77 3b f2 42 7b 3b a8 3a 58 3b 60 58 81 3b
       0.0037697272 0.0038339463 0.0032993946 0.0039473027
000040 9e 6d 7f 3b a8 14 02 3a d5 42 75 3b 7e e3 30 3a
       0.003897525 0.00049621845 0.0037423868 0.0006747766
000050 d4 df 7a 3b 2a 8d 92 3b d4 31 7a 3b f8 19 7f 3b
       0.0038280385 0.0044723945 0.0038176673 0.003892539
000060 b8 25 75 3b d6 cf 6e 3b aa 9d 71 3b e6 02 44 3b
       0.0037406515 0.0036439798 0.0036867657 0.0029908954
000070 34 6a 7b 3b b3 2e 9e 3b 5f 01 1f 3b 20 1a 67 3b
       0.0038362863 0.0048273443 0.0024262292 0.0035263374
000080 8c ed 6a 3b 96 bc 22 3a 90 1c 81 3b c0 f0 0c 3a
       0.0035847155 0.0006207911 0.0039401725 0.0005376451
000090 94 fc 60 3b a6 20 70 3b 5e ae 76 3b d8 9c 86 3b
       0.0034330236 0.0036640554 0.0037640552 0.0041080527
0000a0 a1 fd 9e 3a ec 14 88 3b 58 5a 39 3a da d7 83 3b
       0.0012130031 0.0041528847 0.0007070652 0.0040235342
0000b0 75 21 61 3b 04 bc 89 3b 8d 33 5e 3b 51 25 90 3b
       0.0034352217 0.0042033214 0.0033905238 0.0043989797
0000c0 40 56 8c 3b 5c db 81 3b 7c f0 5a 3a 26 2e 7c 3b
       0.0042827427 0.0039629173 0.0008351875 0.0038479655
0000d0 40 74 b2 3b 82 b8 6d 3b 4a 58 86 3b 2a d8 71 3b
       0.005445987 0.0036273305 0.0040998803 0.0036902525
0000e0 98 fa 8c 3b 32 f8 7b 3b 24 10 4d 3b ac 0a 1f 3a
       0.004302334 0.0038447496 0.0031290138 0.0006066959
0000f0 67 30 19 3b ea 15 6e 3b 97 1a 62 3b f8 8e 6f 3b
       0.0023374797 0.003632898 0.0034500712 0.0036553722
000100 e0 ed 8a 3b 66 4b 25 3a 80 d5 3f 3a a0 8d 19 3a
       0.0042397827 0.0006305486 0.0007317886 0.00058575906
000110 fa 18 3c 3a 8a 48 85 3a d4 9f 7a 3b 8c f1 34 3a
       0.00071753527 0.0010168713 0.0038242238 0.00069024484
000120 fe ac 84 3b 2a eb 54 3b d2 bb 6c 3b 32 f1 af 3b
       0.0040489426 0.0032488802 0.0036122692 0.005369329
000130 e8 55 1a 3b ea c1 63 3b 50 00 fe 39 d4 36 1a 3a
       0.002354974 0.0034753033 0.00048446888 0.0005882804
000140 8b 59 3c 3b 38 fe 60 3b 30 e5 88 3b 06 48 87 3b
       0.0028739895 0.0034331214 0.004177712 0.004128459
000150 9c ea 80 3b 6c 15 64 3b 78 ec 56 3b 73 8d 82 3b
       0.0039342176 0.0034802807 0.0032794755 0.003984147
000160 b0 f7 88 3b e4 bf 44 3b b3 3d 23 3b 73 7b 72 3b
       0.0041799173 0.0030021602 0.0024908602 0.003699985
000170 6e 02 7a 3b b8 ba 79 3b 28 09 54 3b 3e 04 66 3b
       0.003814842 0.0038105678 0.003235409 0.0035097743
000180 18 35 0d 3a a2 87 62 3b 70 16 5c 3b 85 c3 0e 3a
       0.0005386635 0.0034565707 0.003358271 0.0005446005
000190 58 87 80 3b b2 ae 87 3b aa 9b 64 3b 6d 66 8c 3b
       0.003922384 0.0041406984 0.0034882822 0.004284671
0001a0 56 dd 2b 3a 02 29 81 3b 86 73 0f 3a 88 2a 70 3b
       0.0006556114 0.003941656 0.00054722314 0.0036646444
0001b0 5c ee 85 3b fc 85 6e 3b fe 38 74 3b 66 db 82 3b
       0.0040872525 0.003639578 0.0037265415 0.0039934395
0001c0 c0 a9 98 3b 97 e5 70 3b 1a 03 2d 3a 56 8f 52 3b
       0.0046589077 0.003675794 0.00065998884 0.0032128892
0001d0 08 2d a8 3b ea 44 72 3b 84 57 75 3b ac 55 41 3a
       0.0051323213 0.0036967346 0.0037436197 0.0007375132

conv3.weight_fake_quant.activation_post_process.min_val f4 [120]
000000 d8 6c fd be 88 de 89 be b0 ea ea be d8 0c 0a bf
       -0.49497104 -0.2692759 -0.45882177 -0.5392585
000010 10 75 f9 be 56 21 b7 be 6e 84 db be 1c ff c3 bd
       -0.48722124 -0.3576762 -0.42874473 -0.095701426
000020 7a b3 10 be 64 c4 ba be a6 56 f4 bd d6 63 86 be
       -0.14130965 -0.3647796 -0.119305894 -0.26248044
000030 38 1f be be f2 42 fb be a8 3a d8 be 60 58 01 bf
       -0.37133193 -0.49074513 -0.4223225 -0.50525475
000040 9e 6d ff be a8 14 82 bd d5 42 f5 be 7e e3 b0 bd
       -0.4988832 -0.06351596 -0.4790255 -0.08637141
000050 d4 df fa be 2a 8d 12 bf e8 fc d3 be fc 63 da be
       -0.48998892 -0.5724665 -0.4140389 -0.42654407
000060 b8 25 f5 be d6 cf ee be aa 9d f1 be e6 02 c4 be
       -0.4788034 -0.4664294 -0.471906 -0.3828346
000070 34 6a fb be ae 8a dd be 2a 71 55 be 20 1a e7 be
       -0.49104464 -0.43269867 -0.2084395 -0.4513712
000080 8c ed ea be 96 bc a2 bd 90 1c 01 bf c0 f0 8c bd
       -0.4588436 -0.07946126 -0.5043421 -0.06881857
000090 94 fc e0 be a6 20 f0 be 5e ae f6 be d8 9c 06 bf
       -0.43942702 -0.4689991 -0.48179907 -0.52583075
0000a0 90 e3 0c be ec 14 08 bf 58 5a b9 bd da d7 03 bf
       -0.13758683 -0.53156924 -0.09050435 -0.5150124
0000b0 9c c0 d8 be 04 bc 09 bf 5a ae b9 be 1c 2b fb be
       -0.4233445 -0.53802514 -0.36265832 -0.49056327
0000c0 40 56 0c bf 5c db 01 bf 7c f0 da bd 26 2e fc be
       -0.5481911 -0.5072534 -0.106904 -0.49253958
0000d0 40 74 32 bf 82 b8 ed be 4a 58 06 bf 2a d8 f1 be
       -0.69708633 -0.4642983 -0.5247847 -0.47235233
0000e0 98 fa 0c bf 32 f8 fb be 24 10 cd be ac 0a 9f bd
       -0.55069876 -0.49212795 -0.40051377 -0.077657074
0000f0 50 0b 4b be dc 6d d5 be 38 f2 d4 be 08 e6 9a be
       -0.19828534 -0.4168538 -0.41591048 -0.30253625
000100 e0 ed 0a bf 66 4b a5 bd 80 d5 bf bd a0 8d 99 bd
       -0.5426922 -0.08071022 -0.09366894 -0.07497716
000110 fa 18 bc bd 8a 48 05 be 9c 56 bb be 8c f1 b4 bd
       -0.091844514 -0.13015953 -0.36589515 -0.08835134
000120 ea 07 b4 be 2a eb d4 be 6e bf e7 be 32 f1 2f bf
       -0.35162288 -0.41585666 -0.45263237 -0.6872741
000130 e8 55 9a be 28 ba b9 be 50 00 7e bd d4 36 9a bd
       -0.30143666 -0.36274838 -0.062012017 -0.07529989
000140 72 a3 6c be 38 fe e0 be 30 e5 08 bf 06 48 07 bf
       -0.23109224 -0.43943954 -0.5347471 -0.52844274
000150 9c ea 00 bf 6c 15 e4 be 78 ec d6 be c4 42 cb be
       -0.50357985 -0.44547594 -0.41977286 -0.39699376
000160 b0 f7 08 bf e4 bf c4 be fa ac 9d be 70 cf cb be
       -0.5350294 -0.3842765 -0.30796033 -0.398067
000170 6e 02 fa be b8 ba f9 be 2c 04 bd be 3e 04 e6 be
       -0.4882998 -0.48775268 -0.36917245 -0.44925112
000180 18 35 8d bd a2 87 e2 be 70 16 dc be 90 5b 8e bd
       -0.068948925 -0.44244105 -0.42985868 -0.06951058
000190 58 87 00 bf b2 ae 07 bf aa 9b e4 be d6 e0 fc be
       -0.5020652 -0.5300094 -0.44650012 -0.49390286
0001a0 56 dd ab bd 02 29 01 bf 86 73 8f bd 88 2a f0 be
       -0.08391826 -0.504532 -0.07004456 -0.4690745
0001b0 5c ee 05 bf fc 85 ee be fb 77 d0 be 66 db 02 bf
       -0.5231683 -0.46586597 -0.40716538 -0.51116025
0001c0 c0 a9 18 bf 2c 50 ee be 1a 03 ad bd 56 8f d2 be
       -0.5963402 -0.4654554 -0.08447857 -0.41124982
0001d0 28 3e 15 bf ea 44 f2 be 84 57 f5 be ac 55 c1 bd
       -0.5829797 -0.47318202 -0.47918332 -0.09440169

conv3.weight_fake_quant.activation_post_process.max_val f4 [120]
000000 c0 80 c0 3e f0 01 89 3e a8 09 b5 3e cc 28 a6 3e
       0.37598228 0.2675929 0.3535893 0.32453
000010 48 37 ad 3e 3a f7 d0 3e de 00 9d 3e d6 c3 29 3d
       0.3383124 0.4081362 0.30664724 0.04144653
000020 b2 cd 36 3e 30 fc 94 3e 86 9e d5 3d 3e 90 e0 3e
       0.17851904 0.29098654 0.104306266 0.43860048
000030 6c 1f f5 3e d8 79 e4 3e 48 97 c4 3e 92 d9 99 3e
       0.47875535 0.4462421 0.38396668 0.30048805
000040 0e 9a da 3e 4c 33 42 3d a4 9d 9a 3e 0a 2a 59 3d
       0.4269566 0.0474122 0.30198395 0.053018607
000050 62 a2 d3 3e 28 bc e1 3e 70 3d f8 3e c4 1b fd 3e
       0.41334826 0.44088864 0.48484373 0.49435246
000060 b8 b3 bf 3e 94 85 b5 3e a2 f2 ce 3e 3e 0e a2 3e
       0.37441802 0.35453475 0.4041949 0.3165149
000070 7c ab a9 3e 56 f2 1c 3f 5c c3 9d 3e 14 f1 ae 3e
       0.33138645 0.61307275 0.3081311 0.34168303
000080 0e 20 c1 3e 1c 03 39 3d 06 10 df 3e 3a d0 66 3d
       0.37719768 0.04516898 0.43566912 0.056350924
000090 74 f3 a6 3e 1c 30 94 3e 42 b6 da 3e 08 c8 03 3f
       0.32607615 0.28942955 0.42717177 0.514771
0000a0 a6 bf 1d 3e c4 63 b1 3e 90 b4 ab 3d da e5 d1 3e
       0.1540514 0.34646428 0.08384049 0.40995675
0000b0 32 5f df 3e 00 e3 dc 3e 26 77 dc 3e 06 05 0f 3f
       0.43627316 0.43141937 0.43059653 0.5586704
0000c0 aa 47 c3 3e ba 8e c0 3e 74 3e 98 3d 8c a8 ba 3e
       0.38140613 0.37608892 0.07433787 0.36456716
0000d0 5c 10 a3 3e a4 f1 8f 3e 6a 9c cc 3e 06 c8 b1 3e
       0.3184842 0.28114045 0.39963084 0.34722918
0000e0 f2 58 dc 3e 42 c4 cb 3e 32 95 a7 3e b6 2d 4a 3d
       0.4303661 0.3979817 0.32731014 0.04936
0000f0 06 fe 97 3e be 39 ec 3e 62 56 e0 3e da af ed 3e
       0.29685992 0.46137804 0.43815905 0.46423227
000100 e4 0d c0 3e 86 af 46 3d ba f2 2a 3d 16 d1 57 3d
       0.37510598 0.048507236 0.04173539 0.052689634
000110 98 ee 93 3d 28 bf db 3d 94 aa f8 3e ce 17 a9 3d
       0.072232425 0.107298195 0.4856764 0.082564935
000120 a4 a3 03 3f 1a bf ca 3e 5a e2 ea 3e d6 24 e6 3e
       0.5142157 0.39598924 0.45875818 0.4494998
000130 5a 76 98 3e 66 fa e1 3e 0a 8c 45 3d 4c c8 4d 3d
       0.29777795 0.4413635 0.048229255 0.050239846
000140 d8 e0 ba 3e 58 4d d8 3e 56 08 be 3e 18 61 da 3e
       0.36499667 0.4224651 0.37115735 0.42652202
000150 a2 70 8e 3e 00 39 ad 3e ea 53 a8 3e 58 88 01 3f
       0.27820307 0.3383255 0.3287652 0.5059867
000160 c0 1d e7 3e 0e 00 ae 3e 38 f7 a1 3e 7c 96 f0 3e
       0.45139885 0.33984417 0.31633925 0.4698981
000170 c6 05 bd 3e f4 9c 93 3e 16 61 d2 3e 9e 18 a4 3e
       0.36918467 0.28830683 0.41089696 0.3205003
000180 d4 27 28 3d e8 35 ba 3e 12 fe b9 3e fe a5 8d 3d
       0.041053608 0.36369252 0.36326653 0.06916426
000190 d4 60 d5 3e 70 6f c6 3e f4 f2 ad 3e a0 4d 0b 3f
       0.41675436 0.38756895 0.3397442 0.5441532
0001a0 b8 c5 3a 3d ca 7a b7 3e 68 24 52 3d 66 a0 b9 3e
       0.045598716 0.35835868 0.05130425 0.36255187
0001b0 18 4e cd 3e d8 98 d0 3e 8c 50 f2 3e 06 c5 c7 3e
       0.40098643 0.4074161 0.47327077 0.39017504
0001c0 70 6a c8 3e cc 03 ef 3e 82 00 65 3d da 46 b6 3e
       0.39143705 0.46682584 0.055908687 0.3560093
0001d0 ae dc 26 3f 13 66 b7 3e e6 fd de 3e 0a 9e 9d 3d
       0.6518048 0.35820064 0.43553084 0.07696159

fc1.weight f4 [84, 120]
000000 c0 65 84 3c 31 f1 f5 bc bf f5 92 be 59 94 9a 3d
       0.0161618 -0.030022236 -0.28703114 0.07547826
000010 e6 b9 d6 3d fe 4c c1 3c 28 a9 4e 3d e9 ca c2 3d
       0.10484676 0.023596283 0.05045429 0.09511358
000020 9c 71 e3 bb ea 8d c7 bd 80 ac e1 3c ec 6b 40 bd
       -0.0069410335 -0.09743865 0.027548075 -0.046977922
000030 5a cc 91 3a 0d 55 7e bc 34 5e ac 3e f7 51 06 3e
       0.0011123524 -0.015523207 0.3366562 0.13117205
000040 e7 8b 11 be dc be 8c 3d 44 74 42 be dd 55 87 bd
       -0.14213525 0.06872341 -0.18989664 -0.06608174
000050 b7 9e 17 3e 5d d6 d9 bc 0a 20 85 bd 7b 67 b3 3d
       0.14806639 -0.026591474 -0.065002516 0.08759972
000060 14 c3 63 bd 4e 9e 47 3e 12 62 da bc 66 4b ff 3b
       -0.055605963 0.19493982 -0.026658092 0.0077909706
000070 96 18 e2 bd d9 2c 73 3d 2d c3 97 bb fc 0f 44 bd
       -0.11039846 0.059368942 -0.004631421 -0.047866806
000080 bb dc 84 bd c5 3c c5 bc 13 e0 b1 3d 0b 61 a3 bc
       -0.064874135 -0.024076829 0.08685317 -0.019943735
000090 dc 44 26 3e dc 67 03 be b7 6b 2a 3e 69 d7 b3 bd
       0.16237205 -0.12832588 0.16642652 -0.087813206
0000a0 6b a5 e1 3d c1 66 e4 bc 28 e2 52 bd 78 c5 94 3e
       0.11017879 -0.027881028 -0.05148521 0.29056907
0000b0 33 36 39 3e f4 dc 70 3d 1c d2 7e bb 47 cb 96 3d
       0.18087082 0.058804467 -0.003888256 0.07362991
0000c0 b6 bb 2f 3e 12 c4 3f 3e 62 f3 61 ba ca 46 87 3c
       0.1716145 0.18727139 -0.0008619336 0.016513247
0000d0 2d 6f fe bc 21 96 80 3d 34 db 16 be c3 03 ae 3a
       -0.031058872 0.06278635 -0.14732057 0.0013276268
0000e0 d2 f5 ac bd 5e 4f 9f be c6 80 32 3d 2a 3c 80 3c
       -0.08445324 -0.3111524 0.04357984 0.015653688
0000f0 cf 33 df 3d bf b3 0d 3d 8f 39 6a 3d 77 32 8f 3e
       0.108985536 0.034595247 0.0571838 0.2796819
000100 b5 d8 80 bd 7e a3 9f bd d8 72 8e bd b5 f9 d5 bd
       -0.062913336 -0.077948555 -0.069554985 -0.104480185
000110 34 6f 2f b8 46 db 4c 3d 7b f6 c5 3d 1b 3b 76 3d
       -4.1826817e-05 0.050013803 0.09666153 0.06011496
000120 55 95 85 3c 1d eb 6b 3e 52 2b e2 bb 23 8e e1 3e
       0.016306559 0.23038907 -0.006902137 0.44053754
000130 11 49 57 be 57 d5 11 be 50 35 37 bd 1e f7 aa bd
       -0.21023966 -0.14241539 -0.044728577 -0.08347915
000140 4b e5 9d 3d d9 57 72 bd 68 3f 40 be 69 ec e0 bd
       0.0770975 -0.05916581 -0.18774188 -0.10982592
000150 e9 09 e6 3d f4 85 30 be d5 60 2f 3e c8 69 11 3a
       0.11232359 -0.17238599 0.17126782 0.00055470737
000160 49 18 e3 3d 65 15 08 3d 0b c8 da bb 1e 37 af 3d
       0.110886164 0.03322353 -0.006676679 0.08555435
000170 39 12 ce 3d fc 66 e9 3c a6 d2 7d 3d ec 50 9e bd
       0.100620694 0.02849149 0.061968468 -0.077302784
000180 36 c7 bb bc b1 78 f9 bc 17 e1 be 3d 6a 8d 55 3d
       -0.02292214 -0.030453058 0.09320276 0.052136816
000190 5c 2a 9d b9 cc c9 e5 3d c0 eb b8 bd 52 3b da 3d
       -0.00029976934 0.1122013 -0.09029341 0.10655846
0001a0 bf 76 be 3d 0b d8 91 be 99 55 79 3d 81 e7 51 3d
       0.09299993 -0.2848514 0.060872648 0.05124617
0001b0 04 60 b7 bd 5f 55 18 3e ef 36 24 bd 22 5f 30 be
       -0.089538604 0.14876316 -0.04009145 -0.1722379
0001c0 a1 59 d9 3d 37 3d 1c bd 52 3f ae bd 49 2a f3 3d
       0.106127985 -0.038144317 -0.08508171 0.118733
0001d0 92 2a 5f 3d 53 c3 61 be 53 e4 8c be 26 37 a7 3c
       0.054483958 -0.22047167 -0.27517948 0.020412039
0001e0 24 14 87 3e 5b cd e9 bd 31 1e 61 3d 32 95 46 3d
       0.26382554 -0.114161216 0.054960433 0.048482127
0001f0 e1 35 bc 3c 48 6e 20 be 6a 19 01 be 7b 14 02 bd
       0.02297491 -0.15667069 -0.12607351 -0.031757813
000200 cb 3e 56 bd 6c 59 a8 3d 7b 7f ab 3d c2 3d ec ba
       -0.052305978 0.08220181 0.08373924 -0.0018023776
000210 2b e3 55 3e 8e b6 05 bc 3c 44 c4 3c 08 df cd bd
       0.20887439 -0.0081612 0.023958318 -0.100523055
000220 e8 58 30 bd bb 8a 0f bd a5 5b 57 3d 98 c7 64 3d
       -0.043053538 -0.035044413 0.052577633 0.05585441
000230 4f f4 e9 3c d1 2f 78 be 25 76 79 bd 6b 8d 90 be
       0.028558878 -0.2423699 -0.060903687 -0.28232893
000240 5a 6a e4 bd d8 97 a0 3c d1 5a 97 3d 58 a4 64 3e
       -0.111530975 0.019603655 0.07390369 0.22328317
000250 81 20 5d 3e 75 ba 21 3e 28 fe 3e 3e 47 e8 7c bd
       0.2159443 0.15793784 0.1865164 -0.061744954
000260 36 90 e5 3d 4d 13 ad bc e9 36 07 be ee 64 0b bd
       0.11209147 -0.021127367 -0.1320454 -0.0340318
000270 f4 6e 28 be 8a d9 41 bc 0c 50 8a 3e 7e 8e 36 3e
       -0.16448575 -0.0118316505 0.27014196 0.17827794
000280 28 92 ac 3d 47 02 52 be 92 75 ab 3d d1 52 42 be
       0.084263146 -0.20508681 0.08372034 -0.18976904
000290 53 ba 0b be 9c 39 8d 3e 2a 92 2f bd 49 f3 19 be
       -0.13645296 0.27583015 -0.042864002 -0.15034212
0002a0 ba 82 41 be 8d 99 d9 3c 13 ea 8e 3d 52 8e 89 bd
       -0.18897524 0.026562477 0.0697824 -0.067165986
0002b0 4e b4 92 be d9 15 85 3d 6e 84 9f bd 7b 7a bf 3b
       -0.28653187 0.06498308 -0.07788931 0.005843458
0002c0 3f da 63 3e 5b 9a ea be d4 43 54 be 51 6e 14 3c
       0.22251223 -0.4582089 -0.20729 0.009059505
0002d0 24 cf 2d 3d f8 31 1e 3e 6e 8e a1 be c2 f0 95 3e
       0.042433873 0.15448749 -0.31553978 0.29285246
0002e0 02 b0 26 bd 5a be 35 bc ab 6f 7d 3d 07 54 96 3d
       -0.040695198 -0.011092747 0.061874073 0.07340246
0002f0 de 5c 87 3d 91 33 8e 3c 19 08 a9 bd b1 8d a0 3c
       0.0660951 0.017358573 -0.08253498 0.019598814
000300 6a 24 f1 bb 80 c9 8b be 0e 79 c5 3d 99 79 2a bd
       -0.007359077 -0.2730217 0.0964223 -0.04161987
000310 60 82 a3 3d c8 ca 43 3d 55 1b e9 ba 0a 49 a9 3d
       0.079838514 0.04780081 -0.0017784635 0.08265884
000320 28 34 8d 3d 46 77 e2 bd 3f e6 b2 3d 04 98 a9 3d
       0.06894714 -0.11057906 0.08735322 0.08280948
000330 fc 57 a2 3c b9 b4 0b 3e c4 bc b4 3d f9 1b 85 bd
       0.019817345 0.13643159 0.08825067 -0.06499476
000340 ca b7 64 be 7d 97 a8 3d 6f 69 1b 3e 48 04 54 3d
       -0.22335735 0.08232019 0.15176938 0.051761895
000350 62 e3 f7 3c d6 be 27 3c 3f aa 22 bd a6 ef 69 be
       0.030259792 0.01023837 -0.03971314 -0.22845325
000360 8a 9c 63 3d 3f 84 91 be 3c 7e c7 3a 32 73 87 bd
       0.05556921 -0.28421208 0.0015220116 -0.06613769
000370 67 d1 00 bd fd ca c2 bd 25 c7 f7 bb 14 ed fc bd
       -0.0314497 -0.09511373 -0.0075615817 -0.123499066
000380 a8 52 98 bb bd 29 e1 bb f6 4a 2a 3d 52 50 59 be
       -0.0046485253 -0.0068714307 0.041575395 -0.21222046
000390 7b 5b c3 bc b9 0f 1b be 98 7d 18 3e 09 ec 94 be
       -0.023847332 -0.15142716 0.1489166 -0.2908633
0003a0 89 e2 b8 3d cb de 0e 3d 6c 60 cd bc 80 0e 79 3d
       0.09027583 0.03488044 -0.025070392 0.060804844
0003b0 b9 dc 64 3c 4d f6 9e bd db 55 88 be 65 67 47 bd
       0.01396864 -0.07761822 -0.26628003 -0.04868259
0003c0 23 7c cd bd db f7 53 3e 8c 02 ae bd fa b5 ab bd
       -0.10033443 0.20700018 -0.084965795 -0.08384319
0003d0 bb dd c6 bd 67 41 06 be 9c 0c 1a be f2 2a ee bc
       -0.097102605 -0.13110887 -0.15043873 -0.029073212
0003e0 e0 8c 8a 3d f3 0b 13 3d ac 95 98 3c 8d f2 97 3d
       0.06765151 0.035900068 0.018626057 0.0741931
0003f0 1f 09 5f be ff ad cb bd 23 ac a1 3d ef 7c 12 3e
       -0.21780823 -0.099452965 0.078941606 0.14305471

fc1.weight_fake_quant.scale f4 [84]
000000 fe 54 63 3b 2a 9a 6a 3b 9f ce 75 3b cc eb 73 3b
       0.003468811 0.0035797455 0.003750719 0.0037219403
000010 02 20 a1 3a 5c 5a 4e 3b e4 91 4a 3b 28 1e 33 3b
       0.0012292864 0.0031486964 0.0030909711 0.0027331207
000020 95 97 1f 3b fc ea 7c 3b 62 3b 70 3b 7b f6 10 3b
       0.0024351825 0.003859221 0.0036656489 0.002211957
000030 fa 6d 41 3b f8 cc 78 3b 87 b1 8a 3b b9 f4 2b 3b
       0.0029515014 0.0037963968 0.0042325887 0.0026238395
000040 26 aa 47 3b b6 68 4a 3b 4a 6f 49 3b 02 fb 68 3b
       0.0030466407 0.0030885166 0.00307365 0.0035550003
000050 c2 d6 62 3b 26 78 30 3b 40 71 48 3b 74 cf 80 3b
       0.003461287 0.0026927083 0.003058508 0.0039309803
000060 44 ff 47 3b e8 bd 8a 3b c0 16 71 3b 5f af 2e 3b
       0.003051714 0.0042340644 0.0036787242 0.0026654822
000070 77 21 53 3b 8d f4 8e 3b 2a a9 35 3b 9d 89 6e 3b
       0.0032215992 0.004362649 0.0027719238 0.0036397942
000080 3c e9 98 3b 72 1d 64 3b b2 95 6e 3b 4a cc 38 3b
       0.0046664756 0.003480759 0.0036405143 0.0028197938
000090 24 52 37 3b 5f 6e 3f 3b d4 d9 46 3b ac 7d 37 3b
       0.0027972544 0.0029210073 0.0030342238 0.002799849
0000a0 12 84 68 3b 9c bc 35 3b 08 77 55 3b 40 e8 79 3b
       0.003547911 0.0027730828 0.003257217 0.0038132817
0000b0 d2 d8 5c 3b ca 0a 46 3b 60 5f 60 3b 1a 6b 77 3b
       0.003369857 0.0030218833 0.0034236535 0.0037753046
0000c0 34 33 72 3b 36 cd 81 3b c2 98 2c 3b 30 c2 34 3b
       0.003695679 0.0039612306 0.0026336168 0.0027581565
0000d0 95 09 92 3b 14 63 52 3b 7c b6 3b 3b 1a 8e 6f 3b
       0.0044567087 0.0032102512 0.0028642705 0.0036553205
0000e0 1a 15 bf 3a 6d ec 93 3b 78 1e 8a 3b 7c 71 8b 3b
       0.0014578432 0.004514268 0.004215058 0.0042554718
0000f0 cf e9 91 3b aa 96 05 3b e4 86 83 3b d8 00 42 3b
       0.004452921 0.0020383992 0.004013883 0.0029602554
000100 a8 af 65 3b e2 5d 88 3b d2 d1 2c 3b 9e 27 55 3b
       0.0035047326 0.0041615823 0.002637018 0.0032524834
000110 7f 8e 44 3b 16 cc 39 3b 6a 69 4a 3b 44 26 44 3b
       0.002999216 0.0028350404 0.0030885586 0.0029930035
000120 51 16 41 3b 77 6d 81 3b 8e e3 02 3b 5c d2 6d 3b
       0.0029462765 0.003949817 0.001997206 0.0036288714
000130 4a 98 57 3b 6f a2 40 3b e4 91 7d 3b c4 68 70 3b
       0.0032897168 0.0029393693 0.0038691694 0.003668354
000140 14 b6 64 3b 0e 20 68 3a 99 e2 46 3b 1e 84 4c 3b
       0.0034898566 0.0008854874 0.0030347465 0.0031206678

fc1.weight_fake_quant.activation_post_process.min_val f4 [84]
000000 90 4f 9f be 2a 9a ea be 44 31 8f be e6 aa bf be
       -0.3111539 -0.45820743 -0.27967274 -0.37435073
000010 3a 55 16 be 5c 5a ce be e8 d3 a9 be 28 1e b3 be
       -0.14680949 -0.40303314 -0.33169484 -0.34983945
000020 ca 9a 94 be fc ea fc be 62 3b f0 be ea 4d 85 be
       -0.29024345 -0.4939803 -0.46920305 -0.26036006
000030 fa 6d c1 be 10 dc 90 be 56 5a bc be aa dd a3 be
       -0.37779218 -0.28292894 -0.3678767 -0.32005054
000040 26 aa c7 be b6 68 ca be 4a 6f c9 be 02 fb e8 be
       -0.38997 -0.39533013 -0.3934272 -0.45504004
000050 c2 d6 e2 be 26 78 b0 be 40 71 c8 be 74 cf 00 bf
       -0.44304472 -0.34466666 -0.39148903 -0.5031655
000060 44 ff c7 be 32 89 ac be c0 16 f1 be 96 13 9f be
       -0.3906194 -0.33698422 -0.4708767 -0.3106963
000070 0e 06 91 be 64 a2 b5 be f8 17 a8 be 56 2c da be
       -0.28324932 -0.35475457 -0.32830787 -0.4261195
000080 b6 66 db be 72 1d e4 be b2 95 ee be 4a cc b8 be
       -0.428518 -0.44553715 -0.46598583 -0.3609336
000090 24 52 b7 be ea 91 b6 be ee 1a 8c be ac 7d b7 be
       -0.35804856 -0.356582 -0.27364296 -0.35838068
0000a0 6e f7 d4 be 9c bc b5 be 08 77 d5 be 40 e8 f9 be
       -0.41595024 -0.3549546 -0.41692376 -0.48810005
0000b0 f8 71 ab be 58 8d bf be 60 5f e0 be 1a 6b f7 be
       -0.3348539 -0.37412524 -0.43822765 -0.483239
0000c0 84 2b dd be 6c d5 ad be c2 98 ac be 30 c2 b4 be
       -0.43197262 -0.3395189 -0.33710295 -0.35304403
0000d0 88 7b ec be c0 dc a0 be 7c b6 bb be 90 77 ae be
       -0.46187997 -0.3141842 -0.36662662 -0.34075594
0000e0 1a 15 3f be e4 33 08 bf 78 1e 0a bf 7c 71 0b bf
       -0.18660393 -0.5320418 -0.5395274 -0.5447004
0000f0 34 b9 02 bf aa 96 85 be e4 86 03 bf 2c fc c0 be
       -0.5106385 -0.2609151 -0.513777 -0.37692392
000100 a8 af e5 be 48 30 b6 be 0e e1 aa be 9e 27 d5 be
       -0.44860578 -0.3558371 -0.33374828 -0.41631788
000110 ca 05 97 be 64 62 ad be 6a 69 ca be 44 26 c4 be
       -0.29496604 -0.3386413 -0.3953355 -0.38310444
000120 2c 90 c0 be 74 be cc be 8e e3 82 be 5c d2 ed be
       -0.37609994 -0.39989054 -0.25564235 -0.46449554
000130 4a 98 d7 be 2a 5b af be b8 19 c8 be c4 68 f0 be
       -0.42108375 -0.3424924 -0.39082122 -0.4695493
000140 ea 33 ba be 0e 20 e8 bd 18 00 94 be 20 fa c5 be
       -0.36367732 -0.11334239 -0.28906322 -0.38667393

fc1.weight_fake_quant.activation_post_process.max_val f4 [84]
000000 54 8e e1 3e 90 f0 95 3e 02 e3 f3 3e f4 03 f2 3e
       0.440539 0.29285097 0.4763413 0.4726864
000010 c2 dd 1f 3e d8 2d bf 3e c0 fc c8 3e bc c8 ab 3e
       0.15611938 0.37339664 0.39255333 0.33551586
000020 66 58 9e 3e 8a 05 e2 3e 70 31 d6 3e 8e d4 8f 3e
       0.30926818 0.4414485 0.41834593 0.28091854
000030 1e a5 95 3e 5e db f6 3e 24 9c 09 3f d0 9c aa 3e
       0.29227537 0.4821424 0.53753877 0.33322763
000040 28 ad 93 3e da 5f 86 3e f0 4f b7 3e e6 83 b3 3e
       0.28843045 0.26245004 0.35803175 0.35061568
000050 b2 58 9c 3e ae 6b 87 3e c0 51 74 3e 1a c7 c8 3e
       0.3053642 0.2644934 0.2385931 0.39214402
000060 38 8c c3 3e 6c a8 09 3f 12 97 a4 3e 00 52 ad 3e
       0.38192916 0.53772616 0.32146508 0.33851624
000070 34 7b d1 3e a4 d6 0d 3f d8 3d b4 3e 8a ac ec 3e
       0.4091431 0.5540564 0.35203433 0.46225387
000080 6a b7 17 3f 1c ae ae 3e ca a0 9c 3e ac 73 9c 3e
       0.5926424 0.3411721 0.30591422 0.30557
000090 f8 85 8e 3e 82 ef bd 3e 20 4c c5 3e 38 65 ab 3e
       0.27836585 0.37096792 0.3853464 0.3347566
0000a0 0a b3 e6 3e b4 85 94 3e d4 e7 c7 3e ee 07 9e 3e
       0.4505847 0.29008257 0.39044058 0.30865425
0000b0 20 1f db 3e b4 7e c4 3e c6 6b ac 3e be 3e b4 3e
       0.42797184 0.38377917 0.33675975 0.35204118
0000c0 ce 4e f0 3e 9c c9 00 3f da 06 84 3e 5a 5d a3 3e
       0.46935123 0.5030763 0.25786477 0.3190716
0000d0 82 e5 10 3f 4e be d0 3e 54 f9 99 3e fe ae ed 3e
       0.566002 0.4077019 0.30073035 0.4642257
0000e0 d8 c4 07 3e 94 c4 12 3f d2 f5 91 3e 1c 8b 91 3e
       0.13258684 0.57331204 0.2850786 0.28426445
0000f0 fb c5 10 3f ae 72 69 3e 3a b8 ab 3e d6 7c c0 3e
       0.56552094 0.22797653 0.3353899 0.37595242
000100 9c 4c 8a 3e 26 4d 07 3f 2e 78 ab 3e cc 89 8a 3e
       0.27011573 0.52852094 0.33490127 0.27058256
000110 62 05 c3 3e 7e 58 b8 3e 26 3c a9 3e fa 5b 93 3e
       0.38090044 0.36005014 0.33053702 0.2878111
000120 24 94 bf 3e 9c 6a 00 3f 5c 0d 32 3e ca 17 b6 3e
       0.3741771 0.50162673 0.17387909 0.35565025
000130 fc 9a d5 3e 2a 21 bf 3e c0 96 fb 3e 14 93 d0 3e
       0.41719806 0.3732999 0.4913845 0.40737212
000140 a8 ec e2 3e 04 f6 b9 3d d4 54 c5 3e 16 eb ca 3e
       0.4432118 0.09080127 0.3854128 0.3963248
