experiments/checkpoint.pth (torch, 737314 bytes, 15 tensors)

conv1.weight f4 [6, 2, 5, 5]
0.09535135 -0.07005198 0.015653292 0.10214222 -0.067296416 0.03229286 -0.103204414 -0.007718915
0.011122641 -0.13171086 0.110000245 0.0061801258 0.11034659 0.020439088 -0.059761528 -0.090144545
0.11950126 -0.13053095 0.100381926 0.06823167 0.10142881 0.17842168 0.16214615 0.14841785
0.13643314 -0.14100102 -0.13681397 -0.1414063 -0.007440976 -0.03046888 0.1352479 -0.13141276
0.09881748 0.07222813 -0.042104833 0.11385319 -0.15154193 -0.14022446 -0.008380936 -0.076914676
-0.054908868 -0.102958605 0.052984003 0.09193794 -0.11874775 0.01689176 0.16584195 -0.017471183
-0.15139435 -0.12223965 0.28859016 0.1908872 0.11824955 0.10292913 0.03336009 0.17372675
0.18726337 0.12441355 0.10020775 0.11134341 0.05807087 -0.08015494 -0.009412428 0.040479906
-0.020321589 -0.019211559 0.005700856 -0.14888021 -0.026911471 0.049063545 0.057300486 0.03272069
-0.13570958 -0.1717543 -0.14362386 0.03875657 -0.024433523 -0.1629915 -0.15215838 -0.15096392
0.12690061 0.103631996 0.08505193 0.035224658 -0.16187778 -0.00801049 0.13979347 0.070139825
0.15277667 0.09189313 0.005164787 -0.13859792 -0.019485202 -0.014445875 0.10131586 -0.077800766
-0.13198166 -0.106388174 -0.12839352 0.004225258 0.08308834 0.026063604 0.03664183 -0.06691904
0.04544001 0.03751268 -0.07192886 -0.080758885 -0.007023792 -0.1248575 -0.13677283 -0.010788346
-0.083965056 -0.03354229 -0.02313076 0.022839649 -0.08371758 0.00054766 -0.028992394 -0.08823688
0.024630137 -0.022597104 0.0065696435 0.045658372 -0.0801604 0.24359769 0.24110712 0.20069994
0.08552568 0.19287452 0.14463593 0.09064026 0.08612049 0.14795452 0.0064490354 -0.06767382
-0.103413105 -0.038539737 -0.10098416 0.080507234 0.012606639 -0.07952207 -0.014251688 0.061955336
-0.071377836 0.03842325 0.06677963 0.039816767 -0.09511145 -0.15762787 0.0785276 0.087475464
0.011097258 -0.044212483 -0.06791951 0.088744484 -0.119578674 -0.1297639 0.006230896 -0.14869109
-0.010908301 0.035370354 -0.09185633 0.012095438 0.114697725 -0.118669145 -0.12920451 0.03420395
-0.032170195 0.013378071 0.0009580814 -0.1788766 -0.17486238 -0.044837605 0.06476159 0.12570667
0.08967583 0.025431983 -0.08309985 0.10876205 -0.092770055 -0.058963362 0.058502376 0.070170105
-0.080438726 -0.07650899 0.15275495 -0.037399147 -0.06565883 0.016752876 0.16695298 0.11209653
0.090466715 0.16055195 0.15859085 -0.04277868 0.036888275 0.039630525 0.015463185 -0.13896915
0.07565451 -0.073281154 0.112941325 0.08486961 -0.001380205 -0.005068429 0.07439351 -0.016081205
-0.07369884 -0.08293725 -0.07509563 0.092123464 -0.11858085 0.016600644 -0.09051331 0.046900854
-0.044661023 -0.085339986 0.12933494 0.015915785 -0.053422265 -0.05000155 0.0019105504 0.15255989
-0.121061206 0.09533056 -0.07284525 0.073616825 -0.06085052 -0.08290599 -0.11771626 -0.06282762
0.11229474 -0.08203623 -0.07302243 0.06192368 -0.047357496 -0.033599943 -0.061279774 -0.093423
-0.09705467 0.13191438 0.12420383 0.024545027 -0.14816792 -0.13620101 -0.10045828 -0.013318915
-0.048621178 -0.11656474 0.09537192 0.051483806 0.16296007 0.017579919 0.14448734 -0.11921668
00000000: 9247 c33d 6a77 8fbd 553b 803c f12f d13d
00000010: b4d2 89bd 8545 043d d65c d3bd f4ee fcbb
00000020: bd3b 363c 36df 06be cf47 e13d a782 ca3b
00000030: 65fd e13d e06f a73c 81c8 74bd b49d b8bd
00000040: 14bd f43d e8a9 05be 0a95 cd3d 0cbd 8b3d
00000050: e8b9 cf3d 2cb4 363e a409 263e d9fa 173e
00000060: 21b5 0b3e 9262 10be f618 0cbe d0cc 10be
00000070: 6ed3 f3bb df99 f9bc 6d7e 0a3e 1191 06be
00000080: d260 ca3d 58ec 933d 1e76 2cbd dc2b e93d
00000090: cf2d 1bbe 0097 0fbe 3250 09bc 7185 9dbd
000000a0: 1fe8 60bd f6db d2bd c105 593d f549 bc3d
000000b0: 0532 f3bd 9760 8a3c 79d2 293e ba1f 8fbc
000000c0: 1f07 1bbe c858 fabd 17c2 933e ef77 433e
000000d0: d22c f23d 82cc d23d 97a4 083d 6de5 313e
000000e0: f8c1 3f3e 88cc fe3d b939 cd3d 0408 e43d
000000f0: b8db 6d3d 4628 a4bd 9636 1abc 42ce 253d
00000100: 7679 a6bc 8f61 9dbc 3fce ba3b 0e74 18be
00000110: 7275 dcbc dbf6 483d eab3 6a3d 2106 063d
00000120: 74f7 0abe 5ce0 2fbe 2212 13be 36bf 1e3d
00000130: d028 c8bc 3ee7 26be 68cf 1bbe 4996 1abe
00000140: 3cf2 013e 033d d43d b52f ae3d bb47 103d
00000150: 4ac3 25be 6e3e 03bc 0526 0f3e 78a5 8f3d
00000160: 7d71 1c3e 7732 bc3d 603d a93b 9dec 0dbe
00000170: 6e9f 9fbc 64ae 6cbc b17e cf3d 0256 9fbd
00000180: 3326 07be 0be2 d9bd 9779 03be 0874 8a3b
00000190: 382a aa3d 5783 d53c be15 163d da0c 89bd
000001a0: 4e1f 3a3d e5a6 193d 704f 93bd ea64 a5bd
000001b0: d627 e6bb 4ab5 ffbd 2d0e 0cbe 9ac1 30bc
000001c0: dff5 abbd a463 09bd b87c bdbc 371a bb3c
000001d0: 1f74 abbd d790 0f3a 7581 edbc 8ab5 b4bd
000001e0: 24c5 c93c 901d b9bc 2a46 d73b 4604 3b3d
000001f0: 232b a4bd ac71 793e c9e4 763e 4984 4d3e
00000200: 1628 af3d e680 453e 711b 143e 9aa1 b93d
00000210: f15f b03d 6481 173e 6e52 d33b 9298 8abd
00000220: 40ca d3bd d8db 1dbd c9d0 cebd fae0 a43d
00000230: 148c 4e3c 78dc a2bd e97f 69bc e1c4 7d3d
00000240: 8b2e 92bd b361 1d3d c2c3 883d e816 233d
00000250: cbc9 c2bd 3369 21be 14d3 a03d 5626 b33d
00000260: 46d1 353c 2618 35bd 6219 8bbd abbf b53d
00000270: aae5 f4bd d4e0 04be 8b2c cc3b 7a42 18be
00000280: bbb8 32bc 81e0 103d 2c1f bcbd f22b 463c
00000290: a4e6 ea3d cf08 f3bd 304e 04be 7119 0c3d
000002a0: e5c4 03bd b22f 5b3c c127 7b3a 6d2b 37be
000002b0: 200f 33be a3a7 37bd b9a1 843d 40b9 003e
000002c0: f6a7 b73d bc56 d03c 4130 aabd a3be de3d
000002d0: 3afe bdbd 9183 71bd 30a0 6f3d 58b5 8f3d
000002e0: 0fbd a4bd bfb0 9cbd cb6b 1c3e d92f 19bd
000002f0: 2378 86bd 543d 893c b9f5 2a3e de92 e53d
00000300: 9d46 b93d bb67 243e a465 223e b238 2fbd
00000310: 2918 173d 9e53 223d 4c59 7d3c ee4d 0ebe
00000320: c0f0 9a3d 6e14 96bd c84d e73d 1ed0 ad3d
00000330: ffe7 b4ba 1015 a6bb a05b 983d bbbc 83bc
00000340: 6bef 96bd 01db a9bd bdcb 99bd 3aab bc3d
00000350: 84da f2bd 13fe 873c 0b5f b9bd 1c1b 403d
00000360: 7aee 36bd bbc6 aebd 6170 043e d261 823c
00000370: 4ed1 5abd 6dce 4cbd 6f6b fa3a a938 1c3e
00000380: f0ee f7bd ab3c c33d e42f 95bd 6bc4 963d
00000390: 653e 79bd 9eca a9bd 3915 f1bd c4ab 80bd
000003a0: c9fa e53d 9c02 a8bd c98c 95bd afa3 7d3d
000003b0: eff9 41bd 18a0 09bd 8000 7bbd 8f54 bfbd
000003c0: 99c4 c6bd 9014 073e 945e fe3d a712 c93c
000003d0: 55b9 17be 4778 0bbe 12bd cdbd 9437 5abc
000003e0: 0027 47bd 7fb9 eebd 5a52 c33d afe0 523d
000003f0: 01df 263e c303 903c 7df4 133e e027 f4bd

conv2.weight f4 [16, 6, 5, 5]
-0.06340002 -0.049534537 0.0100208055 0.08004385 0.14869313 -0.057810776 -0.098162286 -0.0145113235
-0.061574265 0.06778158 -0.13897157 -0.02178049 -0.16404764 -0.0061602495 -0.0047111716 -0.027939219
-0.12566817 -0.04316692 -0.14349699 -0.044736966 -0.14562017 -0.16149642 -0.07893742 -0.11519631
-0.08722128 0.012855859 -0.039398998 0.036471188 0.051261667 0.05134632 -0.014210506 0.020922504
0.06424797 0.063497104 0.0032587664 -0.0010837007 0.016868396 0.048529085 0.085490905 0.13996558
-0.0040193805 -0.07452611 0.0013051255 0.03786006 0.04017487 -0.101136655 0.009567917 -0.053853355
-0.10983725 0.0066752387 0.012364715 -0.06543007 0.013825208 -0.03466201 -0.057655614 0.03111964
0.054423857 -0.018485513 -0.04159313 -0.021405265 -0.027023712 -0.010079982 -0.04845861 0.055798184
0.05416362 0.0546123 0.01426927 0.05601971 -0.019921865 -0.0499165 0.016332293 0.02418226
0.10094369 -0.05532708 0.062398873 0.11447265 -0.0006566204 -0.022047473 -0.001184034 0.055241406
0.061491378 0.0060847327 0.0673756 0.07090788 0.0107740965 0.09773062 -0.011703022 0.046097513
-0.048052877 -0.014227025 0.008650995 0.02550831 -0.005711286 -0.0016904038 0.0032034519 0.067405425
-0.035240628 0.107672 0.027583089 0.053370807 -0.049911115 -0.119988754 -0.04157719 -0.071697205
0.01680959 -0.015712196 -0.066272296 -0.06922992 -0.12000832 -0.10614926 -0.06413612 0.022141868
-0.040720202 -0.0019610748 -0.060587924 0.05073735 0.051628456 -0.061522026 0.053810444 -0.021548344
0.08142821 -0.03946915 0.04880269 -0.050566416 -0.024683138 0.07992185 0.0018604352 -0.09432427
-0.083290845 0.0145174125 0.009809696 0.0877316 -0.018324858 0.07698181 0.032701287 0.084142305
0.03341809 0.09869515 0.0534 0.16005741 -0.0006319982 0.08509734 0.08785458 0.053723115
0.14792183 0.109597884 0.011654822 0.09770781 -0.056922805 0.06482568 -0.03714858 0.04838417
-0.0743162 0.004434501 -0.104272425 -0.021282401 -0.06320606 0.023379229 -0.07530946 -0.014375816
0.035505388 -0.10205339 -0.047079068 0.03676771 -0.027326772 -0.1983014 -0.10288206 -0.13783948
-0.12958091 -0.14566483 -0.28808892 -0.17828605 -0.12939724 -0.11280627 -0.23055884 -0.008769288
-0.011350577 0.0875441 0.03420272 0.018709961 0.08172795 -0.0393836 0.07633158 -0.037590817
-0.017848857 -0.049319178 0.03459626 0.058561753 0.0104404595 0.05939098 0.0017838866 -0.02312153
-0.0019816735 -0.040411226 0.06847893 0.084302515 0.12633128 0.11181478 0.08444703 0.13769375
0.08903735 0.04740015 0.10853989 0.054827962 0.13400815 0.03700286 -0.00084457005 -0.041449394
0.028905079 -0.020587957 0.017570369 -0.015363406 0.036321912 0.12196763 0.10528901 0.105462104
-0.01968598 0.1181235 0.1058693 -0.025047043 0.08433423 0.07689232 0.15011306 0.13418593
0.14167088 -0.017031644 0.032518286 -0.09351129 -0.035316654 0.012372268 -0.043352786 -0.023914186
-0.0051702373 -0.030654786 -0.103990935 -0.08301577 -0.013786874 0.03784742 0.013780412 -0.09480934
-0.12683651 -0.1311 -0.1565381 -0.10704917 -0.14864972 -0.16881602 -0.17653769 -0.22929108
-0.27662456 -0.33130503 -0.035826303 -0.029681934 0.060154267 -0.04033044 0.066553034 -0.016433802
00000000: dfd7 81bd bae4 4abd 4e2e 243c 08ee a33d
00000010: 0343 183e feca 6cbd 4f09 c9bd e7c0 6dbc
00000020: 4c35 7cbd 12d1 8a3d 904e 0ebe 006d b2bc
00000030: 1bfc 27be ebdb c9bb 2c60 9abb cae0 e4bc
00000040: 28af 00be cccf 30bd e0f0 12be 1c3e 37bd
00000050: 741d 15be 515f 25be f1a9 a1bd 0bec ebbd
00000060: 12a1 b2bd 61a1 523c d860 21bd d062 153d
00000070: c1f7 513d 8550 523d 2fd3 68bc ac65 ab3c
00000080: 7194 833d c50a 823d 0791 553b f60a 8eba
00000090: 972f 8a3c 6fc6 463d db15 af3d 2353 0f3e
000000a0: 02b5 83bb 25a1 98bd bf10 ab3a 2613 1b3d
000000b0: 688e 243d bc20 cfbd c1c2 1c3c 5695 5cbd
000000c0: 5af2 e0bd f6bb da3b 6095 4a3c 3300 86bd
000000d0: 2083 623c c0f9 0dbd 4b28 6cbd 9eee fe3c
000000e0: 8deb 5e3d ee6e 97bc 8f5d 2abd 185a afbc
000000f0: d560 ddbc 8226 25bc 897c 46bd a38c 643d
00000100: acda 5d3d 26b1 5f3d a8c9 693c ec74 653d
00000110: 2e33 a3bc 3e75 4cbd 4dcb 853c e019 c63c
00000120: 91bb ce3d a69e 62bd f695 7f3d a370 ea3d
00000130: 0d21 2cba e79c b4bc 9731 9bba d044 623d
00000140: 62de 7b3d 7062 c73b 38fc 893d 2738 913d
00000150: d685 303c fe26 c83d 08be 3fbc bfd0 3c3d
00000160: 18d3 44bd 7818 69bc e7bc 0d3c cef6 d03c
00000170: bd25 bbbb 8a90 ddba 01f1 513b db0b 8a3d
00000180: 7a58 10bd 2383 dc3d eef5 e13c 599b 5a3d
00000190: 996f 4cbd aabc f5bd d84c 2abd fcd5 92bd
000001a0: 44b4 893c ddb6 80bc c5b9 87bd 6bc8 8dbd
000001b0: ecc6 f5bd c964 d9bd cc59 83bd dd62 b53c
000001c0: 3aca 26bd 6085 00bb 0b2b 78bd f8d1 4f3d
000001d0: 5c78 533d 85fe 7bbd 5768 5c3d 2786 b0bc
000001e0: d5c3 a63d 67aa 21bd 54e5 473d bb1e 4fbd
000001f0: 4b34 cabc 11ae a33d d9d9 f33a 152d c1bd
00000200: 6494 aabd 71da 6d3c d9b8 203c a0ac b33d
00000210: 031e 96bc a4a8 9d3d c9f1 053d cd52 ac3d
00000220: 68e1 083d af20 ca3d f5b9 5a3d 17e6 233e
00000230: aeac 25ba 8447 ae3d 1aed b33d c50c 5c3d
00000240: d278 173e db74 e03d def3 3e3c 081b c83d
00000250: e327 69bd 53c3 843d 1c29 18bd 7b2e 463d
00000260: 1833 98bd 4a4f 913b c88c d5bd 6e58 aebc
00000270: 2e72 81bd cc85 bf3c d93b 9abd 8b88 6bbc
00000280: 196e 113d 5e01 d1bd fbd5 40bd bd99 163d
00000290: 65dc dfbc 860f 4bbe d4b3 d2bd cb25 0dbe
000002a0: dcb0 04be 2929 15be 6480 93be 9e90 36be
000002b0: b680 04be f906 e7bd 9e17 6cbe 0fad 0fbc
000002c0: c5f7 39bc 524a b33d 2718 0c3d a245 993c
000002d0: fc60 a73d b350 21bd bb53 9c3d d4f8 19bd
000002e0: c437 92bc e802 4abd cfb4 0d3d 73de 6f3d
000002f0: 760e 2b3c f543 733d 4dd1 e93a 5d69 bdbc
00000300: f7de 01bb 3e86 25bd ae3e 8c3d cca6 ac3d
00000310: fd5c 013e 26ff e43d 91f2 ac3d 97ff 0c3e
00000320: 3759 b63d a926 423d 294a de3d 4993 603d
00000330: 6f39 093e 5090 173d 2366 5dba d7c6 29bd
00000340: 58ca ec3c 13a8 a8bc bcef 8f3c ccb6 7bbc
00000350: 49c6 143d 2aca f93d c4a1 d73d 84fc d73d
00000360: 7e44 a1bc bcea f13d 01d2 d83d 752f cdbc
00000370: 6db7 ac3d b879 9d3d 3db7 193e 0968 093e
00000380: 2c12 113e f285 8bbc e531 053d d982 bfbd
00000390: 32a8 10bd 0eb5 4a3c b192 31bd afe7 c3bc
000003a0: 186b a9bb bf1f fbbc 33f9 d4bd 2c04 aabd
000003b0: 57e2 61bc e505 1b3d 3dc7 613c 662b c2bd
000003c0: 6ee1 01be 143f 06be 864b 20be 983c dbbd
000003d0: a237 18be 1bde 2cbe 4cc6 34be 48cb 6abe
000003e0: bca1 8dbe d0a0 a9be 9abe 12bd 8727 f3bc
000003f0: 5264 763d 8831 25bd f54c 883d 2ea0 86bc

conv3.weight f4 [120, 16, 5, 5]
-0.059593983 0.014884961 -0.022557385 -0.0070750373 -0.015087765 -0.06822087 -0.022807654 0.020131178
-0.09285219 -0.11663924 0.040505756 0.057484332 -0.027979078 -0.060454343 -0.09336754 0.04041708
-0.005426052 -0.027024537 0.097628936 0.039219562 0.020053923 0.035651423 0.0040030084 0.02482797
0.01339765 0.0912406 0.021846956 0.033935655 0.048593543 0.06577172 0.033856653 0.061282706
-0.0002915782 0.056405623 0.064762175 -0.042616155 0.0025518665 -0.041687433 -0.029165521 -0.024108704
0.0020899647 0.030123629 0.012594321 0.053763527 -0.04224352 -0.09157476 -0.06297523 0.028816756
0.01078073 -0.048888195 -0.052206848 -0.055992585 -0.041321985 -0.036291476 -0.024904877 0.02966691
0.023329211 0.044164337 -0.025018841 -0.068006456 -0.02855461 0.03111428 0.020794088 0.055172376
0.06171472 -0.06949915 -0.016720602 0.022923253 -0.015717618 0.01907044 -0.0015422197 0.026620941
0.06480974 0.044520263 -0.052261688 0.056276802 -0.021390984 -0.007909525 -0.024441972 -0.038906004
0.09857001 0.025620712 -0.027025342 -0.04066766 -0.07741886 0.044678878 0.022397036 -0.00091230747
0.00078181544 -0.06046514 0.068412386 -0.014000093 -0.012553049 0.043232296 -0.020736856 0.03003905
-0.03198041 0.03638767 0.062434074 0.06411259 0.04244682 0.08071489 0.06500023 0.08121163
0.08280473 -0.036299445 0.03240841 0.04719924 -0.01759729 -0.07599697 -0.06321269 -0.004695942
-0.025159294 -0.018518513 -0.07642409 0.029972017 0.015405151 -0.0038263905 0.042022597 0.016091073
-0.016601875 -0.032402914 0.018991718 0.05701908 -0.08968678 0.004999459 0.023304498 0.003218995
-0.02724233 0.021722794 -0.06892148 -0.037694007 -0.009698835 -0.0100503955 0.0467786 -0.054002207
0.0012637388 -0.033471655 0.017132016 0.09766412 0.009262407 -0.017868586 -0.056072194 -0.02387247
-0.036708694 0.042832233 0.11910606 0.04085452 0.0011022793 0.082243174 -0.0134556275 0.04481749
0.007055665 -0.011593257 -0.029118614 0.08934548 0.023653304 0.009459032 -0.06904574 0.009688084
-0.020794723 -0.043215238 0.027926268 0.08277766 0.057413667 -0.09628246 -0.004613102 0.00072320155
-0.023636788 -0.04369529 -0.13215792 -0.07266362 -0.09648991 -0.121540055 -0.09809376 0.018054962
0.03622697 0.030696157 0.055172864 -0.05605197 0.00770266 0.0349367 -0.028913751 -0.045099758
-0.08702608 0.124676056 0.039208625 0.055389695 0.078206226 -0.029817292 0.021092312 0.09003228
0.096593015 0.07090975 0.04614606 0.044623986 0.041213628 0.034230195 0.012064115 0.06156271
0.029311156 -0.017592909 0.044053946 0.0049832654 0.07494952 0.035857122 -0.05105233 0.030794261
0.015123309 -0.042519268 0.002507878 0.008521219 0.025328297 0.018582953 0.012412646 -0.011941658
-0.047022406 0.04674079 0.033966903 -0.036904152 -0.07760695 -0.08138326 0.009974956 0.036797248
-0.023541115 -0.13606186 -0.031545375 -0.080353476 -0.053095717 -0.13035104 0.10663514 0.081550315
-0.0388126 0.07006441 -0.017010223 0.038959347 0.018105641 -0.019017147 0.07205879 0.047878947
-0.013459783 -0.018742565 -0.04821886 0.026195077 0.03550117 0.12894118 0.056749236 0.109556876
0.033063848 0.034199934 0.019224992 -0.03735105 -0.006470031 -0.090633534 0.013241558 0.032970242
00000000: d218 74bd 0de0 733c 44ca b8bc b7d5 e7bb
00000010: ac32 77bc 62b7 8bbd 1ed7 babc 24ea a43c
00000020: 4a29 bebd 8ee0 eebd 5de9 253d b174 6b3d
00000030: 6134 e5bc f99e 77bd 7b37 bfbd 618c 253d
00000040: 06cd b1bb 9062 ddbc aef1 c73d b1a4 203d
00000050: 2048 a43c 3a07 123d ab2b 833b 0764 cb3c
00000060: d181 5b3c 5adc ba3d 63f8 b23c 1d00 0b3d
00000070: 060a 473d 53b3 863d 46ad 0a3d 9303 7b3d
00000080: f7de 98b9 9509 673d 08a2 843d 478e 2ebd
00000090: 373d 273b 71c0 2abd 88ec eebc 9e7f c5bc
000000a0: caf7 083b d4c5 f63c 6958 4e3c 2537 5c3d
000000b0: 8b07 2dbd 8c8b bbbd 28f9 80bd 1e11 ec3c
000000c0: a9a1 303c fd3e 48bd d9d6 55bd 7b58 65bd
000000d0: 3e41 29bd 5fa6 14bd 5005 ccbc 0508 f33c
000000e0: e71c bf3c aae5 343d 50f4 ccbc f846 8bbd
000000f0: 5ceb e9bc 60e3 fe3c 5d58 aa3c 6efc 613d
00000100: 93c8 7c3d 9255 8ebd a5f9 88bc 8cc9 bb3c
00000110: 3cc2 80bc 9d39 9c3c 4e24 caba 2914 da3c
00000120: f8ba 843d e15a 363d 5a10 56bd 8182 663d
00000130: 253c afbc f496 01bc 883a c8bc e75b 1fbd
00000140: 13df c93d 87e2 d13c 4064 ddbc 2293 26bd
00000150: c78d 9ebd 3301 373d fd79 b73c eb27 6fba
00000160: bff2 4c3a 4baa 77bd cb1b 8c3d a560 65bc
00000170: 4eab 4dbc 5914 313d 57e0 a9bc 7414 f63c
00000180: e4fd 02bd 3d0b 153d dfba 7f3d 764d 833d
00000190: b7dc 2d3d d94d a53d d71e 853d 4852 a63d
000001a0: 8795 a93d baae 14bd aebe 043d fe53 413d
000001b0: 3128 90bc 4da4 9bbd a875 81bd 6be0 99bb
000001c0: dd1a cebc 23b4 97bc 3c84 9cbd e087 f53c
000001d0: e365 7c3c 2ec4 7abb e31f 2c3d 6dd1 833c
000001e0: a800 88bc ebb8 04bd 8594 9b3c d78c 693d
000001f0: b4ad b7bd 80d2 a33b 13e9 be3c c6f5 523b
00000200: 4f2b dfbc 00f4 b13c b426 8dbd 0865 1abd
00000210: dde7 1ebc 6aaa 24bc eb9a 3f3d 6b31 5dbd
00000220: 0aa4 a53a 9319 09bd 7158 8c3c 2004 c83d
00000230: 5ac1 173c 2461 92bc f5ab 65bd 3390 c3bc
00000240: db5b 16bd da70 2f3d e1ed f33d 1257 273d
00000250: 5b7a 903a 1c6f a83d fe74 5cbc 8b92 373d
00000260: 3533 e73b a5f1 3dbc 298a eebc c3fa b63d
00000270: 93c4 c13c 0efa 1a3c da67 8dbd c5ba 1e3c
00000280: b259 aabc 7602 31bd a1c5 e43c 5587 a93d
00000290: 982a 6b3d bd2f c5bd 8129 97bb 3c95 3d3a
000002a0: f0a1 c1bc d5f9 32bd 6854 07be aad0 94bd
000002b0: 809c c5bd fee9 f8bd 62e5 c8bd 00e8 933c
000002c0: bb62 143d 8276 fb3c f1fc 613d c096 65bd
000002d0: 9866 fc3b c919 0f3d 88dc ecbc 86ba 38bd
000002e0: bb3a b2bd 2956 ff3d 3999 203d 4ee0 623d
000002f0: 962a a03d 6543 f4bc c9c9 ac3c d862 b83d
00000300: 8fd2 c53d 2239 913d a703 3d3d a4c7 363d
00000310: 9fcf 283d f634 0c3d 91a8 453c 2e29 7c3d
00000320: f31d f03c 011f 90bc e971 343d a94a a33b
00000330: 227f 993d ebde 123d 3f1c 51bd 3f44 fc3c
00000340: c1c7 773c af28 2ebd 365b 243b 959c 0b3c
00000350: 4a7d cf3c 473b 983c 695e 4b3c f2a6 43bc
00000360: 919a 40bd 4573 3f3d e120 0b3d cf28 17bd
00000370: 65f0 9ebd 44ac a6bd ff6d 233c b6b8 163d
00000380: 4cd9 c0bc cd53 0bbe b935 01bd 5d90 a4bd
00000390: e57a 59bd be7a 05be 8663 da3d da03 a73d
000003a0: f6f9 1ebd ee7d 8f3d 0659 8bbc d693 1f3d
000003b0: 4852 943c d9c9 9bbc 8f93 933d b71c 443d
000003c0: 6c86 5cbc 028a 99bc 2481 45bd 0f97 d63c
000003d0: ad69 113d 2809 043e e371 683d 5b5f e03d
000003e0: f56d 073d 3b15 0c3d bb7d 9d3c 6afd 18bd
000003f0: 8e02 d4bb 139e b9bd 1ff3 583c ce0b 073d

fc1.weight f4 [84, 120]
0.03668029 0.021885078 -0.065215215 -0.07843639 0.017084641 -0.038789637 0.08086576 0.0647051
-0.07765502 0.06574747 0.07323592 -0.098702185 -0.05249268 -0.008811647 -0.009050704 0.058761254
0.00835359 0.060812786 -0.02411196 0.024700558 -0.016270442 -0.063124456 0.014724854 0.012126182
-0.060502518 -0.079032354 -0.08598633 -0.07467293 -0.13266319 0.035562485 0.00061057275 -0.051612206
0.07815951 0.04618981 -0.19198804 -0.050987743 0.06285577 -0.09404732 0.03840863 0.028205713
-0.0032666784 0.016957179 -0.039354593 -0.06026736 0.010175426 0.033811018 0.10188783 -0.05389475
-0.09868965 -0.015521643 0.025462838 -0.0004581362 0.041650217 0.061597463 0.05408943 -0.024367945
0.03364583 -0.032537367 0.04092095 0.046600934 0.007962332 0.009235486 0.025605053 -0.062251687
-0.030070411 -0.044894323 0.028516142 -0.026406704 0.016363638 -0.010700678 0.059510022 -0.016233454
-0.06705311 -0.04179775 -0.09580532 -0.047510076 -0.019736197 0.0028992295 0.006741113 0.030513966
0.029298043 -0.06797605 -0.055012062 -0.019580433 0.14324065 -0.0060229306 0.07688596 0.015937489
-0.041211344 0.025167739 -0.030016558 0.08693077 -0.008627001 0.07359184 -0.061310302 -0.08624669
0.06861566 0.04450383 0.025478218 -0.026032846 0.014803784 0.03480397 -0.002203264 0.038082693
-0.052767478 -0.029627336 0.06629731 0.13472024 0.052002843 0.12930194 -0.015688539 -0.00052165927
-0.053108666 0.079564646 0.051861744 0.02347768 0.01971393 -0.0031125976 -0.046987765 0.066598944
-0.08588983 0.055078976 0.0101721985 0.07473072 0.010015058 -0.08814468 -0.07687328 0.014426125
-0.049165566 0.015353047 -0.0015531752 0.056458734 0.022823647 -0.022668133 -0.025166703 -0.10412642
0.06938756 0.0332055 -0.06970869 0.06686845 -0.10148056 -0.07132171 0.032522865 0.027851136
-0.13762261 -0.034951508 0.016709505 0.053877138 -0.018012887 -0.016162325 0.00080753106 -0.018382076
0.09209068 -0.05146089 0.17042938 0.011634871 -0.12066167 0.096235976 0.092409834 -0.03027651
0.07831009 -0.071588516 -0.07721458 -0.040514868 0.058962584 -0.0028929699 -0.038935237 -0.09444601
0.1313247 -0.017472196 0.007175624 -0.04495535 0.028178051 0.07958892 -0.077016294 -0.0662275
-0.13034293 0.11422756 -0.2586972 0.1021386 0.048597645 0.04544318 -0.020302555 0.038397394
-0.06415865 -0.05634368 0.037942596 0.082269944 -0.0025967702 -0.03154898 -0.060300313 -0.08139016
0.07378687 -0.040781688 0.041800383 -0.09482406 0.03722211 -0.05058872 0.112438664 -0.10543321
-0.0050995913 0.040370394 0.08261016 -0.07739023 -0.098871164 -0.0712297 0.08765147 0.06730553
0.034871433 0.123147644 0.049642265 0.031054173 0.030355243 0.067073345 0.11268177 0.008329585
-0.018344184 -0.096379615 -0.104448244 0.12888147 0.017799376 -0.13633823 0.0014889817 0.03552739
-0.07487485 -0.06352479 0.0576945 0.015469793 0.0048273145 -0.04326629 0.07177213 -0.023271604
-0.022471627 -0.014175698 -0.03569126 0.07028636 0.058777045 0.018900225 0.09012066 0.03715226
-0.06569345 -0.010712084 -0.005004033 -0.044383477 0.03695019 0.003998329 0.011083824 -0.07270505
-0.01290451 -0.028247904 -0.020576358 -0.08550645 -0.09597472 -0.08834229 -0.057562888 0.027076162
00000000: 123e 163d 5648 b33c 8e8f 85bd 42a3 a0bd
00000010: 17f5 8b3c e2e1 1ebd f39c a53d 1c84 843d
00000020: 9809 9fbd 9ca6 863d b7fc 953d 5f24 cabd
00000030: 9002 57bd ba5e 10bc 6749 14bc a4af 703d
00000040: 7fdd 083c d416 793d 7286 c5bc d358 ca3c
00000050: 9749 85bc 6547 81bd 8440 713c e5ac 463c
00000060: 7dd1 77bd b7db a1bd 9a19 b0bd 1fee 98bd
00000070: dcd8 07be f8a9 113d d80e 203a 5267 53bd
00000080: 1812 a03d 8731 3d3d 8398 44be 86d8 50bd
00000090: 87ba 803d e29b c0bd 5e52 1d3d ab0f e73c
000000a0: c515 56bb c8e9 8a3c 4832 21bd e8da 76bd
000000b0: d4b6 263c 6c7d 0a3d 91aa d03d bec0 5cbd
000000c0: cd1d cabd 7d4e 7ebc 7197 d03c 0032 f0b9
000000d0: 6b99 2a3d 9f4d 7c3d e18c 5d3d 499f c7bc
000000e0: 36d0 093d e745 05bd ba9c 273d 9fe0 3e3d
000000f0: 7174 023c 7050 173c b0c1 d13c a0fb 7ebd
00000100: 3956 f6bc 1ce3 37bd af9a e93c df52 d8bc
00000110: 090d 863c e651 2fbc c8c0 733d 05fc 84bc
00000120: 2453 89bd 1e34 2bbd 9435 c4bd ed99 42bd
00000130: cead a1bc 0001 3e3b 8ee4 dc3b 6df8 f93c
00000140: 7302 f03c 0737 8bbd 5454 61bd 2567 a0bc
00000150: adad 123e 015c c5bb 6376 9d3d 568f 823c
00000160: 3acd 28bd 932c ce3c 49e5 f5bc c208 b23d
00000170: 4458 0dbc 52b7 963d 8320 7bbd 1ba2 b0bd
00000180: 5e86 8c3d a649 363d b2b7 d03c d642 d5bc
00000190: 928b 723c 9c8e 0e3d a364 10bb 99fc 1b3d
000001a0: b622 58bd 07b5 f2bc e2c6 873d 1af4 093e
000001b0: ef00 553d ba67 043e 4085 80bc f6bf 08ba
000001c0: 7988 59bd caf2 a23d fb6c 543d 4354 c03c
000001d0: 1c7f a13c b9fc 4bbb 3e76 40bd 0765 883d
000001e0: 02e7 afbd 7e9a 613d 4ba9 263c 6b0c 993d
000001f0: 3316 243c 3385 b4bd bd6f 9dbd 8e5b 6c3c
00000200: d561 49bd 598b 7b3c e993 cbba 4641 673d
00000210: a8f8 ba3c 85b2 b9bc 672a cebc 3c40 d5bd
00000220: 111b 8e3d 7e02 083d 6ec3 8ebd 53f2 883d
00000230: 0ad5 cfbd 1e11 92bd b236 053d 1128 e43c
00000240: f1ec 0cbe 5029 0fbd 5fe2 883c 46ae 5c3d
00000250: c38f 93bc da66 84bc 7eb0 533a 0296 96bc
00000260: 0a9a bc3d a7c8 52bd 0a85 2e3e 30a0 3e3c
00000270: 771d f7bd 5e17 c53d 5e41 bd3d 7206 f8bc
00000280: 0a61 a03d 009d 92bd ad22 9ebd ebf2 25bd
00000290: c082 713d fb97 3dbb 8e7a 1fbd e96c c1bd
000002a0: fb79 063e da21 8fbc 7f21 eb3b 1a23 38bd
000002b0: a8d5 e63c 84ff a23d b8ba 9dbd 49a2 87bd
000002c0: 9e78 05be 24f0 e93d f673 84be 0b2e d13d
000002d0: 530e 473d a122 3a3d 8b51 a6bc 9646 1d3d
000002e0: 9c65 83bd a1c8 66bd b269 1b3d 257d a83d
000002f0: 932e 2abb 8139 01bd 76fd 76bd e2af a6bd
00000300: 921d 973d b30a 27bd e136 2b3d 1e33 c2bd
00000310: 3676 183d 1e36 4fbd 3e46 e63d 5eed d7bd
00000320: 791a a7bb 6d5b 253d 842f a93d c57e 9ebd
00000330: f77c cabd e1e0 91bd 9d82 b33d 7bd7 893d
00000340: 59d5 0e3d d534 fc3d b055 4b3d 5265 fe3c
00000350: 8fab f83c c05d 893d b3c5 e63d d078 083c
00000360: 8b46 96bc ad62 c5bd f6e8 d5bd 81f9 033e
00000370: ffcf 913c 409c 0bbe ef29 c33a 2b85 113d
00000380: fc57 99bd 4919 82bd 1151 6c3d 0475 7d3c
00000390: 732e 9e3b fe37 31bd 44fd 923d 17a4 bebc
000003a0: 6b16 b8bc 3041 68bc 0031 12bd 4cf2 8f3d
000003b0: 33c0 703d a5d4 9a3c 2e91 b83d f82c 183d
000003c0: 4a8a 86bd bd81 2fbc dff8 a3bb 73cb 35bd
000003d0: 1559 173d 6a04 833b ed98 353c 63e6 94bd
000003e0: 706d 53bc 2668 e7bc c08f a8bc 011e afbd
000003f0: 658e c4bd cdec b4bd 10c7 6bbd d4ce dd3c

fc2.weight f4 [1, 84]
-0.07606944 0.11134224 -0.0065385317 -0.11380609 -0.074878 -0.13031806 0.09439808 -0.13598175
0.13223857 -0.08527407 -0.05725653 -0.116171986 -0.06859607 0.027220208 0.16472566 0.15754738
-0.12060844 0.075120434 0.07619173 0.015391965 0.17121963 -0.058906984 0.15058395 0.06997467
-0.105500385 -0.068450436 0.07392296 0.09341733 0.1308348 -0.06878664 0.00690264 -0.004684878
0.07053705 0.067413874 -0.11682013 0.107105054 0.052286744 -0.025567507 -0.1497595 -0.064024605
0.138777 -0.075382106 0.0907712 -0.09488878 0.0729057 0.021139339 0.12479338 -0.03869554
-0.15218946 -0.00081735256 0.115087695 -0.14995164 0.07052104 0.058841363 -0.0049587316 -0.06840348
0.1494584 0.05895946 0.14455833 -0.06058916 0.111792386 0.09062284 -0.07872204 0.07151919
0.10876843 -0.12846078 -0.016296478 -0.1257247 -0.11897673 -0.05939871 0.007929917 0.0067918524
-0.1509572 0.071260065 -0.096523754 -0.106508456 0.16179538 0.10991288 -0.0950233 0.13722007
-0.07120354 0.13117409 -0.11880428 -0.003699444
00000000: 4bca 9bbd 6607 e43d 2e41 d6bb 2b13 e9bd
00000010: a359 99bd 1972 05be c853 c13d cd3e 0bbe
00000020: 8c69 073e 2ca4 aebd d385 6abd 94eb edbd
00000030: 197c 8cbd eafc de3c d8ad 283e 1a54 213e
00000040: 8f01 f7bd bed8 993d 690a 9c3d 952e 7c3c
00000050: 3354 2f3e 7348 71bd ae32 1a3e e14e 8f3d
00000060: 9610 d8bd be2f 8cbd ec64 973d 9651 bf3d
00000070: 8ff9 053e 03e0 8cbd 8b2f e23b 9b83 99bb
00000080: bb75 903d 4910 8a3d 643f efbd e559 db3d
00000090: a02a 563d f372 d1bc 8e5a 19be 551f 83bd
000000a0: 8f1b 0e3e ef61 9abd 40e6 b93d 0c55 c2bd
000000b0: 954f 953d 682c ad3c ac93 ff3d 377f 1ebd
000000c0: 8ed7 1bbe 9a43 56ba 19b3 eb3d ec8c 19be
000000d0: 566d 903d a403 713d db7c a2bb 2017 8cbd
000000e0: 9f0b 193e 7a7f 713d 1907 143e 572c 78bd
000000f0: 68f3 e43d 7898 b93d 0539 a1bd a778 923d
00000100: fcc1 de3d 398b 03be 3180 85bc fabd 00be
00000110: 12aa f3bd 104c 73bd 7cec 013c 308e de3b
00000120: 8694 1abe ccf0 913d 3fae c5bd 1b21 dabd
00000130: b0ad 253e 011a e13d 939b c2bd 6b83 0c3e
00000140: 29d3 91bd 8052 063e a94f f3bd 5f72 72bb

exp_avg f4 [6, 2, 5, 5]
-0.011098479 -0.014846994 -0.0119499955 -0.011127406 -0.01370425 -0.012545806 -0.018048659 -0.012824362
-0.01402708 -0.015344547 -0.0068455017 -0.013019014 -0.007090448 -0.010758446 -0.012942238 -0.013501865
-0.016125742 -0.010984762 -0.012058316 -0.0147219 -0.01506891 -0.017940339 -0.01533843 -0.024441468
-0.020552812 -0.014964404 -0.01636583 -0.017209094 -0.016557913 -0.01637467 -0.01991954 -0.013705265
-0.016165135 -0.01703976 -0.018967452 -0.020246759 -0.011986222 -0.011484161 -0.014214676 -0.01696948
-0.016148044 -0.010343042 -0.012023399 -0.008794052 -0.010864059 -0.0155966375 -0.018171607 -0.011747158
-0.007854714 -0.0051184744 -0.010567139 -0.0061098333 -0.0018194645 0.0035560124 0.008963111 -0.0072448235
-0.002897272 9.4160496e-05 0.004081194 0.008024745 -0.002853863 0.00093534065 0.0052979933 0.009069283
0.012509932 -0.0021790615 0.0008267582 0.005810563 0.010361931 0.013073158 -0.0018194745 0.002359352
0.009059574 0.012596987 0.013859277 0.013840089 0.013107602 0.012385991 0.012786062 0.012101386
0.012371878 0.011512886 0.012457517 0.014035351 0.012492669 0.008043252 0.0076766396 0.008694233
0.011597788 0.0119996155 0.009659201 0.008320156 0.009666459 0.012578351 0.012531906 0.009492897
0.009449546 0.011704044 0.014616416 0.015902782 -0.011839892 -0.009097703 -0.005261907 -0.005640381
-0.0040949825 -0.010923247 -0.0075697834 -0.0047814064 -0.0057800426 -0.006179687 -0.012181395 -0.009087901
-0.005220664 -0.0049562044 -0.006240103 -0.013919261 -0.011288636 -0.007532642 -0.0070527312 -0.007280286
-0.011473731 -0.010852974 -0.00860645 -0.008212608 -0.009378894 0.0023358164 0.0011492519 0.0006374237
-2.397108e-05 -0.00063341693 -0.0028962905 -0.0021429101 -0.0017235838 -0.00025284686 -0.00010498455 -0.0052992646
-0.0058720014 -0.0035113166 -0.0009463003 0.000861655 -0.005879038 -0.0057642516 -0.003091364 -0.0009772418
0.00032894083 -0.006562404 -0.005367089 -0.0036124245 -0.0023400642 -0.0014920649 -0.17089361 -0.16167665
-0.15145114 -0.14288114 -0.14483461 -0.18164442 -0.17052132 -0.15956804 -0.16415228 -0.17251506
-0.16276686 -0.14791329 -0.15109597 -0.16437712 -0.17303821 -0.17026156 -0.1639622 -0.16155173
-0.17243314 -0.1852622 -0.1747301 -0.16874528 -0.16652735 -0.17811254 -0.19116731 -0.15613052
-0.16304612 -0.17232189 -0.17594936 -0.17425382 -0.1640624 -0.17394948 -0.17934684 -0.17639047
-0.17855577 -0.17089143 -0.17393467 -0.17786185 -0.17691259 -0.16982846 -0.17434321 -0.17768961
-0.17002654 -0.16347983 -0.15972464 -0.17446795 -0.18498535 -0.18274164 -0.17431323 -0.1648493
0.019351125 0.021092381 0.02145715 0.022989664 0.023225164 0.02286639 0.02317978 0.022778101
0.02330713 0.023619412 0.026294151 0.024268765 0.02402445 0.025188163 0.025903715 0.029310012
0.026810862 0.0260847 0.02829705 0.030473577 0.032539517 0.030614378 0.030400362 0.033018544
0.035331663 0.026887143 0.025530556 0.027167734 0.028854469 0.030855231 0.032009237 0.03185359
0.032013673 0.032843813 0.03384339 0.032741982 0.032533016 0.032652482 0.03253429 0.03344068
0.031923696 0.030981123 0.030811455 0.0306664 0.033107176 0.034054138 0.032599032 0.03146661
0.030772356 0.032647144 0.040548015 0.03985124 0.044222713 0.041839834 0.0408796 0.03315051
00000000: 65d6 35bc ce40 73bc eac9 43bc b94f 36bc
00000010: ca87 60bc ed8c 4dbc c8da 93bc 461d 52bc
00000020: d6d1 65bc b267 7bbc 3b50 e0bb b44d 55bc
00000030: fd56 e8bb 3144 30bc ae0b 54bc ed36 5dbc
00000040: 221a 84bc 6ef9 33bc 3e90 45bc 2034 71bc
00000050: 97e3 76bc 9ef7 92bc 0a4e 7bbc 7939 c8bc
00000060: 5f5e a8bc 422d 75bc a211 86bc 16fa 8cbc
00000070: 76a4 87bc 2c24 86bc 4e2e a3bc 0c8c 60bc
00000080: bf6c 84bc f796 8bbc a161 9bbc 88dc a5bc
00000090: dc61 44bc 1028 3cbc ace4 68bc 9403 8bbc
000000a0: e748 84bc dd75 29bc cafd 44bc ed14 10bc
000000b0: 2bff 31bc 0a89 7fbc 9fdc 94bc 2777 40bc
000000c0: 0fb1 00bc e0b8 a7bb cb21 2dbc ff34 c8bb
000000d0: 197b eeba fd0b 693b 03da 123c fc65 edbb
000000e0: 28e0 3dbb 0878 c538 89bb 853b 387a 033c
000000f0: e007 3bbb a631 753a ca9a ad3b 5497 143c
00000100: 75f6 4c3c 96ce 0ebb ceba 583a 8966 be3b
00000110: 17c5 293c cd30 563c 6f7b eeba 5c9f 1a3b
00000120: 9c6e 143c 9863 4e3c 0512 633c 8ac1 623c
00000130: 44c1 563c 9dee 4a3c a27c 513c e444 463c
00000140: 6bb3 4a3c 8ba0 3c3c 9d1a 4c3c 87f4 653c
00000150: 0dae 4c3c d8c7 033c 528c fb3b 4272 0e3c
00000160: a604 3e3c 099a 443c a041 1e3c 4351 083c
00000170: 1160 1e3c 6e15 4e3c a052 4d3c 1988 1b3c
00000180: 45d2 1a3c 52c2 3f3c b179 6f3c 8d46 823c
00000190: 1bfc 41bc 880e 15bc 136c acbb f2d2 b8bb
000001a0: 342f 86bb 6bf7 32bc f20b f8bb 58ad 9cbb
000001b0: 8366 bdbb f97e cabb 7994 47bc 6be5 14bc
000001c0: 1b12 abbb a867 a2bb c779 ccbb 9d0d 64bc
000001d0: f9f3 38bc 62d4 f6bb 991a e7bb 778f eebb
000001e0: 51fc 3bbc acd0 31bc 1102 0dbc 2d8e 06bc
000001f0: efa9 19bc 7f14 193b 7fa2 963a c818 273a
00000200: 8115 c9b7 e40b 26ba b1cf 3dbb 1170 0cbb
00000210: e0e9 e1ba 8890 84b9 272b dcb8 74a5 adbb
00000220: eb69 c0bb 1e1e 66bb 2311 78ba b0e0 613a
00000230: f2a4 c0bb 0ce2 bcbb 7b98 4abb cb16 80ba
00000240: b175 ac39 6f09 d7bb 68de afbb 6dbe 6cbb
00000250: c35b 19bb 6491 c3ba bcfe 2ebe 908e 25be
00000260: 0216 1bbe 6f4f 12be 864f 14be ff00 3abe
00000270: 249d 2ebe ce65 23be 8917 28be caa7 30be
00000280: 5bac 26be 9576 17be e7b8 1abe 7a52 28be
00000290: ee30 31be 0c59 2ebe b5e5 27be d16d 25be
000002a0: 5092 30be 60b5 3dbe 73ec 32be 90cb 2cbe
000002b0: 2586 2abe 2263 36be 5dc1 43be aee0 1fbe
000002c0: 90f5 26be 2675 30be 122c 34be 986f 32be
000002d0: f9ff 27be d01f 32be b3a6 37be b49f 34be
000002e0: 53d7 36be 2afe 2ebe ee1b 32be 6b21 36be
000002f0: 9328 35be 83e7 2dbe 0787 32be 44f4 35be
00000300: 701b 2ebe 4267 27be db8e 23be baa7 32be
00000310: cd6c 3dbe a020 3bbe 2b7f 32be 41ce 28be
00000320: 4086 9e3c eec9 ac3c e8c6 af3c d254 bc3c
00000330: b342 be3c 4c52 bb3c 86e3 bd3c 2499 ba3c
00000340: 98ee be3c 7f7d c13c d566 d73c 4acf c63c
00000350: ecce c43c 6857 ce3c 0734 d43c 8d1b f03c
00000360: 74a2 db3c 95af d53c 37cf e73c b9a3 f93c
00000370: 2848 053d 01cb fa3c 2e0a f93c 743e 073d
00000380: efb7 103d 6d42 dc3c 7525 d13c de8e de3c
00000390: 3560 ec3c 1cc4 fc3c 1e1c 033d e978 023d
000003a0: c520 033d 3c87 063d 5e9f 0a3d 751c 063d
000003b0: 5741 053d 9cbe 053d ad42 053d 18f9 083d
000003c0: 6cc2 023d 20cc fd3c 4e68 fc3c 1a38 fb3c
000003d0: 649b 073d 5a7c 0b3d 9086 053d 22e3 003d
000003e0: 4f16 fc3c 03b9 053d ad15 263d 0e3b 233d
000003f0: e022 353d 3f60 2b3d 5e71 273d d4c8 073d

exp_avg_sq f4 [6, 2, 5, 5]
0.08437347 0.08573115 0.08466797 0.084292054 0.0860607 0.08380655 0.085379876 0.084530935
0.08471394 0.086666964 0.0828203 0.082907654 0.08303226 0.08384562 0.08557117 0.08315463
0.08089909 0.08228281 0.08160642 0.08284032 0.08173402 0.07951094 0.08013933 0.080545105
0.08182763 0.0888502 0.088978045 0.08889225 0.08831833 0.08852511 0.08744711 0.08874596
0.08835455 0.08808857 0.088619344 0.08721702 0.08861825 0.08866515 0.08833123 0.08890545
0.087035984 0.08750885 0.087496124 0.087871075 0.08904401 0.08631685 0.08573679 0.08673417
0.08822048 0.08880921 0.00043674596 0.00047221218 0.00044075417 0.0004167956 0.00045079546 0.00039505708
0.00041921323 0.00039701158 0.0003898517 0.00040881295 0.00044933436 0.00042681082 0.00041176495 0.000426041
0.000500757 0.00065347436 0.00068910327 0.0007484648 0.00071741187 0.00071685034 0.0007498404 0.00080348185
0.0009517522 0.001000766 0.0009797317 0.0008086249 0.00085876085 0.00093756226 0.0009984771 0.0010318194
0.00078336976 0.00077555206 0.00081258966 0.0008699547 0.0009478989 0.00088975864 0.00085081835 0.00084400235
0.00085511437 0.00089349196 0.0010503166 0.0010741537 0.001038954 0.0009976941 0.0009562346 0.0011620857
0.0011990219 0.0011917163 0.0011796958 0.0011195244 0.0033149475 0.003316006 0.0033480485 0.0033705155
0.003350715 0.0034596338 0.003499834 0.0035289808 0.0035021557 0.0034997081 0.003619538 0.0036562802
0.0036718172 0.0036313916 0.003609497 0.0036435295 0.00366816 0.003661126 0.0036420384 0.0036663506
0.0036247326 0.0036244655 0.0036229498 0.0036359709 0.003682928 0.0021280162 0.0020781832 0.0021169917
0.0022520167 0.002349379 0.0023219616 0.0022813564 0.0022974855 0.0023747794 0.0024864052 0.002852126
0.0028477025 0.0028214636 0.0027929426 0.0027841807 0.0030838216 0.0031203926 0.003081309 0.0030814249
0.003125324 0.0031898755 0.0031903218 0.0032165651 0.0033080985 0.0033719095 0.2924015 0.29739565
0.30537388 0.3092458 0.31062382 0.29759613 0.31037304 0.3164032 0.3105987 0.3127234
0.3054814 0.31024405 0.31474537 0.30661651 0.30005965 0.31443116 0.3185758 0.31361774
0.30891758 0.3021395 0.3145181 0.32375506 0.32255045 0.31490505 0.3053426 0.28523037
0.2851217 0.28901735 0.29451823 0.2876138 0.29921538 0.29388186 0.29084837 0.29312453
0.29701605 0.29590896 0.28538495 0.29250556 0.2946985 0.29276165 0.28567258 0.28232107
0.28492033 0.28350365 0.28563768 0.2981992 0.29407218 0.29375017 0.29591268 0.30335343
0.0069712056 0.0069243624 0.0069173053 0.006968875 0.007086063 0.007099945 0.0070342356 0.007042919
0.0070884703 0.0071678883 0.0072631445 0.007200125 0.00721002 0.0072172615 0.0072838743 0.0073339213
0.0072918 0.007267495 0.0072381594 0.0072949715 0.0074489377 0.0074285753 0.0073864795 0.007353383
0.007400964 0.0071702003 0.0071610035 0.0071762614 0.0071459375 0.0071526533 0.0073343953 0.007340912
0.0073293773 0.0072872615 0.0072663575 0.0074182255 0.0074297464 0.0074189836 0.0073945555 0.0073806224
0.0074463543 0.0074349525 0.007417085 0.0074138255 0.007398466 0.007459217 0.00745362 0.0074300794
0.0074206144 0.007410392 0.042017106 0.041056484 0.038871735 0.039622974 0.03823373 0.044568703
00000000: ffcb ac3d d093 af3d 6766 ad3d 50a1 ac3d
00000010: 9840 b03d c5a2 ab3d a5db ae3d 8e1e ad3d
00000020: 817e ad3d 737e b13d b09d a93d 7dcb a93d
00000030: d10c aa3d 41b7 ab3d f03f af3d fa4c aa3d
00000040: 6cae a53d e483 a83d 4421 a73d 30a8 a93d
00000050: 2a64 a73d a2d6 a23d 1720 a43d d5f4 a43d
00000060: 3f95 a73d 18f7 b53d 1f3a b63d 240d b63d
00000070: 3ee0 b43d a74c b53d 7817 b33d 71c0 b53d
00000080: 3bf3 b43d c867 b43d 0f7e b53d d69e b23d
00000090: 7c7d b53d 1396 b53d 01e7 b43d 1014 b63d
000000a0: ec3f b23d d737 b33d 2b31 b33d c0f5 b33d
000000b0: b55c b63d e3c6 b03d c596 af3d afa1 b13d
000000c0: f0ac b43d 9ae1 b53d 0dfb e439 3f93 f739
000000d0: 0615 e739 5c85 da39 be58 ec39 aa1f cf39
000000e0: d9c9 db39 fe25 d039 0265 cc39 f255 d639
000000f0: a394 eb39 94c5 df39 28e2 d739 415e df39
00000100: 3c45 033a ec4d 2b3a f0a4 343a 9f34 443a
00000110: b210 3c3a 03eb 3b3a f090 443a c1a0 523a
00000120: 027f 793a 222c 833a 576a 803a e6f9 533a
00000130: 771e 613a bdc6 753a 55df 823a 1d3e 873a
00000140: 0e5b 4d3a 6b4e 4b3a f803 553a ac0d 643a
00000150: 6b7c 783a b13e 693a 7409 5f3a 0a40 5d3a
00000160: c129 603a 3b39 6a3a c7aa 893a 9eca 8c3a
00000170: 832d 883a 0fc5 823a d1ab 7a3a 2051 983a
00000180: 8028 9d3a 5d33 9c3a 06a0 9a3a 01bd 923a
00000190: 973f 593b 5951 593b ef6a 5b3b dee3 5c3b
000001a0: ab97 5b3b 06bb 623b 795d 653b 7946 673b
000001b0: 6c84 653b 5c5b 653b c535 6d3b 349e 6f3b
000001c0: dfa2 703b a4fc 6d3b 508d 6c3b 48c8 6e3b
000001d0: 8365 703b 80ef 6f3b 44af 6e3b 2847 703b
000001e0: ec8c 6d3b 7188 6d3b 036f 6d3b 7849 6e3b
000001f0: 475d 713b 3076 0b3b 2132 083b 3abd 0a3b
00000200: 9296 133b 0af8 193b 0d2c 183b cf82 153b
00000210: 6991 163b 30a2 1b3b f5f2 223b bcea 3a3b
00000220: 85a0 3a3b 4ee8 383b cd09 373b cd76 363b
00000230: f119 4a3b 807f 4c3b c9ef 493b bbf1 493b
00000240: 3cd2 4c3b 3b0d 513b b814 513b 02cd 523b
00000250: afcc 583b 41fb 5c3b a6b5 953e 3e44 983e
00000260: f759 9c3e 7755 9e3e 160a 9f3e 855e 983e
00000270: 37e9 9e3e 9aff a13e cb06 9f3e 481d a03e
00000280: 0f68 9c3e 4fd8 9e3e 4e26 a13e d7fc 9c3e
00000290: 6ba1 993e 1ffd a03e 5e1c a33e 8192 a03e
000002a0: 722a 9e3e 07b2 9a3e 8408 a13e 39c3 a53e
000002b0: 5525 a53e 3c3b a13e de55 9c3e b709 923e
000002c0: 79fb 913e 15fa 933e 18cb 963e 1e42 933e
000002d0: c232 993e af77 963e 14ea 943e 6b14 963e
000002e0: 7d12 983e 6181 973e fa1d 923e 4ac3 953e
000002f0: b9e2 963e dbe4 953e ad43 923e 638c 903e
00000300: 14e1 913e 6427 913e 1a3f 923e 91ad 983e
00000310: a190 963e 6c66 963e de81 973e 2451 9b3e
00000320: b66e e43b c3e5 e23b 90aa e23b 295b e43b
00000330: 3432 e83b a8a6 e83b 727f e63b 49c8 e63b
00000340: 6646 e83b 9be0 ea3b acff ed3b 07ef eb3b
00000350: 0842 ec3b c77e ec3b 91ad ee3b 6451 f03b
00000360: 0df0 ee3b 2b24 ee3b 152e ed3b a80a ef3b
00000370: 3816 f43b 686b f33b 480a f23b a6f4 f03b
00000380: c983 f23b 00f4 ea3b daa6 ea3b d826 eb3b
00000390: 7828 ea3b ce60 ea3b 5e55 f03b 088c f03b
000003a0: 462b f03b fbc9 ee3b a01a ee3b 9614 f33b
000003b0: 3b75 f33b f21a f33b 074e f23b 26d9 f13b
000003c0: 8c00 f43b e7a0 f33b 050b f33b adef f23b
000003d0: d56e f23b 736c f43b 7f3d f43b 0678 f33b
000003e0: a028 f33b e0d2 f23b 211a 2c3d d82a 283d
000003f0: f837 1f3d b34b 223d f99a 1c3d ac8d 363d

exp_avg f4 [16, 6, 5, 5]
-0.0013593116 -0.0010384736 -0.00043129828 -5.4172142e-05 -0.00024015876 -0.0011135652 -0.0009652383 -0.00067486736
-0.0012545574 -0.0009844564 -0.0005087471 -0.0004397168 -0.00027139302 -0.00077793206 -0.00096482923 -0.00016939666
-0.00013367648 -0.00046775542 -0.0010559927 -0.0005074824 0.00017298911 0.000117119394 -0.00020453829 -0.0006207903
-0.00014854813 0.00130187 0.0018248516 0.00076614396 -0.0008147549 -0.003976197 2.2483932e-06 -0.00044072914
-0.0006291853 -0.0006038241 -0.0030494644 -0.0018024583 -0.0017207097 -0.0015794632 -0.001599483 -0.002822102
-0.0016649467 -0.0022975015 -0.0021847135 -0.0027421175 -0.0027740519 -0.00023523513 -0.0009297195 -0.0014519754
-0.0027379026 -0.0031006546 0.0014302044 0.0016800459 0.0023203823 0.0027260487 0.0010461153 0.0017514444
0.0035079732 0.004239952 0.0034184214 0.00043871286 0.0007043479 0.0015436114 0.0023854848 0.0029045073
0.0011629942 -0.0022456301 -0.0017364213 0.0007071163 0.0027031917 0.0025234171 -0.0012312889 -0.00042141153
0.0013955489 0.0021153812 0.0014727436 0.0012357711 0.0024053755 0.0026998655 0.002642842 0.0014133239
0.00058680004 0.0013077103 0.0019102185 0.002893361 0.0021205638 -0.00064914126 -0.0003091762 0.001167526
0.0026605926 0.0022624184 -0.00019348158 0.00018926365 0.0017707242 0.002435765 0.0016745338 -0.0003870754
0.00014384829 0.0015693193 0.0020552878 0.0008304852 0.0010198421 0.0005144133 0.0012326501 0.0014438286
0.0011574706 0.0012984568 0.0016420338 0.0012770056 0.0012614417 0.0010442699 0.0009069621 0.0008438113
0.0008422328 0.00070929097 0.0005292655 0.00020194484 -0.00028492877 -0.0004841151 -0.00045838146 -0.0005952592
-0.00083900755 -0.0013689973 -0.0011099187 -0.0010900229 -0.0013261269 0.00026347872 0.00053067465 6.6786466e-05
-0.0011585562 -0.0013413617 0.00036759794 0.0012378509 0.0008528827 9.511979e-06 -0.0011395126 -0.0011980098
-0.0010880037 -0.0016252166 -0.0010712756 0.00021614356 -0.0022501203 -0.0025730717 -0.0027092185 -0.0011845155
0.0007398188 -0.0012231638 -0.0012877001 -0.0017159524 -0.00095457776 0.00076081906 -0.001845031 -0.0031905845
-0.00282275 -0.0017719365 -0.0011879198 -0.0011114656 -0.0024113865 -0.0018278298 -0.0012457907 -0.0012064552
-0.0011343472 -0.0024094372 -0.0023123808 -0.0017357846 -0.0017003986 -0.00036520284 -0.0017871244 -0.0016808142
-0.0015047316 -0.0010352848 0.0012644776 -0.0002818687 6.5088905e-05 0.0004042786 0.00020549272 3.9013386e-05
-0.0015538464 -0.00325993 -0.0032751295 -0.0015727449 0.00011069151 -0.0020457855 -0.0032387327 -0.0019519845
-0.00048813672 0.002997793 0.0009063727 -0.00034766758 2.9700694e-05 0.00048683022 0.0037051986 0.0011225154
-0.00028536067 -0.00021982292 -0.000108616856 0.002859193 0.0007296391 -0.0010852116 -0.0020683978 -0.001721914
0.0006143376 0.0008971485 -0.0011005772 -0.0020494105 -0.0011544338 -0.0008135097 0.0003734629 -0.00093185937
-0.0025385187 -0.0022231177 0.0009581 0.00056672737 -0.00071214087 -0.0009197702 -0.000517491 0.0028738056
0.0025206679 0.0012693008 0.001372432 0.0015090673 0.0029341322 0.0024590974 0.0007432448 0.0003257096
0.0005115068 0.0006175711 0.001858314 0.00120459 0.0004975644 0.00036843037 0.002280578 0.0029807894
0.0017594479 0.0006898182 0.00057141954 0.0030300883 0.003840169 0.002591444 0.0021232918 0.001906548
0.0026860395 0.0026713219 0.0008258188 0.0011537396 0.000864903 0.0012315679 0.0014215756 5.7644676e-05
-9.959387e-05 -0.00044844742 -0.0072455634 -0.006269786 -0.008044918 -0.006508302 -0.0062296554 -0.0069682426
00000000: ee2a b2ba 641d 88ba e01f e2b9 e536 63b8
00000010: 20d3 7bb9 0cf5 91ba 0c08 7dba 95e9 30ba
00000020: f66f a4ba e008 81ba 715d 05ba ca89 e6b9
00000030: c149 8eb9 23ee 4bba 98ec 7cba 12a0 31b9
00000040: 822b 0cb9 123d f5b9 3c69 8aba 9108 05ba
00000050: 6964 3539 ff9d f538 5479 56b9 88bc 22ba
00000060: 96c3 1bb9 82a3 aa3a dc2f ef3a 0dd7 483a
00000070: 4795 55ba c24a 82bb 1ae3 1636 aa11 e7b9
00000080: e9ef 24ba f349 1eba 86d9 47bb 7740 ecba
00000090: 7089 e1ba fe05 cfba bea5 d1ba 04f3 38bb
000000a0: 573a daba ae91 16bb 692d 0fbb 19b5 33bb
000000b0: decc 35bb 73a9 76b9 6bb8 73ba 3650 beba
000000c0: 626e 33bb 5a34 4bbb b275 bb3a fc34 dc3a
000000d0: 8e11 183b 82a7 323b ce1d 893a b990 e53a
000000e0: 06e6 653b 4cef 8a3b 9807 603b 0b03 e639
000000f0: fda3 383a 0153 ca3a cb55 1c3b 8c59 3e3b
00000100: 9c6f 983a 6c2b 13bb a198 e3ba c65d 393a
00000110: 0828 313b ea5f 253b 3363 a1ba e6f0 dcb9
00000120: daea b63a 35a2 0a3b 1309 c13a 99f9 a13a
00000130: 81a3 1d3b 3af0 303b 8833 2d3b 483f b93a
00000140: 7cd3 193a 7a67 ab3a 4c60 fa3a 8b9e 3d3b
00000150: 28f9 0a3b 222b 2aba ed18 a2b9 ac07 993a
00000160: 565d 2e3b 1545 143b 51e1 4ab9 1375 4639
00000170: a517 e83a 5ba1 1f3b 087c db3a 61f0 cab9
00000180: fbd5 1639 9eb1 cd3a 02b2 063b ebb4 593a
00000190: 39ac 853a b1d9 063a e090 a13a d93e bd3a
000001a0: 45b6 973a fb30 aa3a 8339 d73a 3361 a73a
000001b0: f656 a53a e2df 883a 32c1 6d3a 3833 5d3a
000001c0: 49c9 5c3a b6ef 393a 68be 0a3a 28c1 5339
000001d0: 7e62 95b9 d4d0 fdb9 eb52 f0b9 2b0b 1cba
000001e0: d8f0 5bba ed6f b3ba b17a 91ba 19df 8eba
000001f0: 6fd1 adba 8423 8a39 f91c 0b3a b60f 8c38
00000200: b2da 97ba a1d0 afba 29ba c039 623f a23a
00000210: fd93 5f3a a495 1f37 b35b 95ba 8a06 9dba
00000220: 599b 8eba 3805 d5ba 0b6a 8cba 98a4 6239
00000230: c176 13bb fba0 28bb 258d 31bb bf41 9bba
00000240: 66f0 413a 9152 a0ba 0cc8 a8ba cfe9 e0ba
00000250: a13c 7aba b471 473a f8d4 f1ba 2019 51bb
00000260: e3fd 38bb 5340 e8ba f9b3 9bba 99ae 91ba
00000270: 5a08 1ebb ca93 efba cd49 a3ba eb21 9eba
00000280: 60ae 94ba a6e7 1dbb 508b 17bb 4483 e3ba
00000290: e9df deba b278 bfb9 f23d eaba c44e dcba
000002a0: 6a3a c5ba 65b2 87ba d4bc a53a c7c7 93b9
000002b0: 5780 8838 5bf5 d339 8879 5739 4ea2 2338
000002c0: 6faa cbba 8da4 55bb 8ea3 56bb 9024 ceba
000002d0: 0d23 e838 9612 06bb eb40 54bb bbd9 ffba
000002e0: 9aec ffb9 9f76 443b a499 6d3a 2747 b6b9
000002f0: c125 f937 3f3d ff39 ebd2 723b 5e21 933a
00000300: 769c 95b9 4480 66b9 3bc9 e3b8 4c61 3b3b
00000310: 4045 3f3a a93d 8eba f58d 07bb d9b1 e1ba
00000320: 800b 213a 9e2e 6b3a 3e41 90ba 674f 06bb
00000330: 5f50 97ba b641 55ba 58cd c339 0648 74ba
00000340: 475d 26bb bab1 11bb 0129 7b3a 6e90 143a
00000350: f7ae 3aba bc1c 71ba 3ca8 07ba 7556 3c3b
00000360: ca31 253b ab5e a63a 2de3 b33a e5cb c53a
00000370: 924a 403b cf28 213b 50d6 423a 01c4 aa39
00000380: a416 063a 7fe4 213a ac92 f33a 55e3 9d3a
00000390: fb6e 023a e329 c139 c075 153b 5959 433b
000003a0: 469d e63a ead4 343a 51cb 153a 7294 463b
000003b0: 58ab 7b3b 37d5 293b ed26 0b3b 23e5 f93a
000003c0: 4408 303b 5811 2f3b c37b 583a 1439 973a
000003d0: a8ba 623a 906c a13a 2954 ba3a 80c7 7138
000003e0: 0ddd d0b8 981d ebb9 316c edbb c772 cdbb
000003f0: d5ce 03bc 9843 d5bb 2322 ccbb db55 e4bb
