experiments/exp032/model.pth (torch, 95178 bytes, 29 tensors)

conv1.depthwise.weight f4 [2, 1, 5, 5]
000000 65 01 e0 bd 7b c3 56 be a6 df 94 be 8e 98 c7 be
       -0.10937766 -0.20973007 -0.2907688 -0.38983577
000010 9d 42 00 be d7 56 6e bd 83 48 72 bd ab 75 d3 be
       -0.12525411 -0.058188286 -0.059151184 -0.4130071
000020 83 c1 8d be 8f b4 c4 3d 99 1e 91 3e 90 2e 83 3e
       -0.276867 0.09604751 0.28343657 0.25621462
000030 a1 d0 37 3d 0b fc 20 3e 50 e9 33 3e 0b 3a aa be
       0.0448767 0.15721147 0.1756947 -0.33247408
000040 2b fc a3 3e 01 97 bb 3e 6c 96 59 3e 37 f1 7e 3e
       0.32028326 0.36638644 0.21248788 0.24896704
000050 c1 78 58 be 87 45 56 3e 97 da 37 3e 95 44 b0 3e
       -0.21139814 0.2092496 0.17954479 0.34427324
000060 33 da 02 3f 53 e2 83 3e ae 1e 32 bd 99 57 4c be
       0.51114196 0.2575861 -0.04348629 -0.19955291
000070 02 e1 c4 be 94 71 c0 bd 9b b9 56 3e bd 5b ca 3d
       -0.38452917 -0.09396663 0.2096924 0.09880779
000080 7c ca fb be 27 4d b5 be 09 d6 1d 3e b7 ed 0e 3f
       -0.4917792 -0.35410425 0.15413679 0.55831474
000090 7a df b9 3e be ef 54 3d 5c c9 2a 3e 1e 61 8a 3e
       0.36303312 0.05198645 0.16678375 0.2702722
0000a0 d4 48 2d be 09 c9 a3 3e 10 94 b6 3e 73 5c 3e 3e
       -0.16922313 0.31989315 0.35659838 0.18589954
0000b0 d2 86 06 3e 6e 01 ad be d8 88 81 3d e7 46 34 3e
       0.13137367 -0.33790153 0.06324929 0.17605172
0000c0 b4 cd 4e 3e 22 5b 34 3e
       0.20195657 0.1761289

conv1.depthwise.weight_fake_quant.scale f4 [2]
000000 28 e2 83 3b a1 0d 90 3b
       0.0040247627 0.004396156

conv1.depthwise.weight_fake_quant.activation_post_process.min_val f4 [2]
000000 7a 75 d3 be ae ca fb be
       -0.41300565 -0.4917807

conv1.depthwise.weight_fake_quant.activation_post_process.max_val f4 [2]
000000 64 da 02 3f 86 ed 0e 3f
       0.5111449 0.5583118

conv1.pointwise.weight f4 [6, 2, 1, 1]
000000 e9 8c b1 3e b9 92 8a 3e ba c6 2d bf a4 a1 54 3f
       0.34677818 0.27065066 -0.6788136 0.83059144
000010 8a 51 80 bf 3d b9 23 be 12 6d 3b 3f 3e 01 83 3c
       -1.0024884 -0.15988632 0.73213303 0.015991803
000020 0b e6 77 3e b4 a8 7f 3f 18 c2 51 3f 64 d0 14 bf
       0.24208848 0.99866796 0.8193679 -0.5813048

conv1.pointwise.weight_fake_quant.scale f4 [6]
000000 f7 3e b2 3a 0e 4e d6 3b 2a d2 80 3b 3b 29 3c 3b
       0.0013599087 0.0065400666 0.0039313035 0.0028711099
000010 c8 54 80 3b c6 68 d3 3b
       0.0039163567 0.006451699

conv1.pointwise.weight_fake_quant.activation_post_process.min_val f4 [6]
000000 88 92 8a 3e ec c6 2d bf 58 51 80 bf ce 00 83 3c
       0.2706492 -0.67881656 -1.0024824 0.015991595
000010 a4 e5 77 3e 96 d0 14 bf
       0.24208695 -0.58130777

conv1.pointwise.weight_fake_quant.activation_post_process.max_val f4 [6]
000000 b8 8c b1 3e 72 a1 54 3f 6e b9 23 be 12 6d 3b 3f
       0.34677672 0.83058846 -0.15988705 0.73213303
000010 e6 a8 7f 3f f4 c1 51 3f
       0.99867094 0.81936574

conv2.depthwise.weight f4 [6, 1, 5, 5]
000000 f8 1d e3 be 5c 5a 1a be 94 27 8c be 31 cb 96 bd
       -0.44358802 -0.15073532 -0.27373946 -0.073629744
000010 eb 14 5e 3e 5d e0 ef bc a2 c0 74 be 5a 63 99 bd
       0.21687667 -0.02928179 -0.23901609 -0.07489653
000020 6c c9 fb 3d 8a 4e 0b 3f 55 a0 b9 3d 1c 9d f7 3d
       0.122942775 0.54416716 0.09063784 0.12090513
000030 7c c8 80 3e 2e 2e e6 3e 06 ba cf 3e 50 34 11 be
       0.25152957 0.44957107 0.40571612 -0.14180112
000040 d3 13 12 bd fe bb 91 bd 21 22 26 3d b3 aa 88 bd
       -0.035663437 -0.07115935 0.04055989 -0.06673183
000050 8b 9f e3 bc 2b 81 01 3c 66 ba 0b be 01 3d f5 bd
       -0.027786037 0.007904331 -0.13645324 -0.11974526
000060 67 67 91 be e3 6d fd 3e 39 bf 93 3e 78 fb 85 3e
       -0.28399202 0.494979 0.2885683 0.26168418
000070 a4 4a c1 3e b0 3c 82 3e 84 e5 60 3e 45 ff 87 3d
       0.3775226 0.25436926 0.21962553 0.06640486
000080 22 68 12 3e f6 0c 12 be dd 9a 28 3d 96 6b 20 3d
       0.14297536 -0.14262757 0.041163314 0.039165102
000090 87 b5 3b bc 33 92 04 3d 84 b9 2b be f9 93 60 be
       -0.011456854 0.03236599 -0.16769987 -0.21931447
0000a0 82 f2 88 3d be ea 04 bd 3d e2 85 bd 18 82 53 be
       0.0668688 -0.03245043 -0.06537292 -0.20655096
0000b0 c6 72 18 be 36 c2 02 bd 0c a8 e0 3c 64 74 4e bc
       -0.14887533 -0.031923495 0.027423881 -0.012600992
0000c0 3e 83 cc 3d f7 44 a9 3d 8d 3e 49 3d 13 09 bb 3d
       0.0998597 0.08265107 0.04913192 0.0913259
0000d0 5d 3c bc bd 25 c2 89 be d5 a0 df be fa 41 26 bf
       -0.09191201 -0.26905933 -0.43677393 -0.6494442
0000e0 0c 84 7a be 02 ab a6 be c8 64 9e be cf 4f bf be
       -0.24464434 -0.32552344 -0.30936265 -0.37365577
0000f0 1c 46 ec bd ed fd 53 be 14 11 3f be ad 73 d7 be
       -0.1153681 -0.20702334 -0.18658859 -0.4208044
000100 04 c6 d8 be fa 91 dd 3d 9b 41 99 bd 66 fa 79 be
       -0.42338574 0.108188584 -0.074832164 -0.24411926
000110 28 61 71 be 06 f7 23 be ac bc 0e 3e 5b 80 44 be
       -0.23572218 -0.160122 0.1393916 -0.19189589
000120 3f d3 8f be 07 8a 04 3e ab a9 24 3d 76 c9 a1 bd
       -0.28090855 0.12943278 0.04020087 -0.07899754
000130 df ab e4 3d a2 65 3f bd 2d 0d 00 be 20 e6 6e bd
       0.11165594 -0.046727784 -0.12505026 -0.058324933
000140 d3 56 82 3d f3 0e 10 be 39 52 83 be 3f 36 65 be
       0.06364217 -0.14068203 -0.25648668 -0.22383974
000150 b5 e9 ee bd 89 d5 bd bd fd b2 52 be 85 e4 34 3d
       -0.1166567 -0.09269244 -0.20576091 0.044163246
000160 f6 ad 99 be 96 a1 63 be 5e ed a9 3c cc bd 71 3d
       -0.30015534 -0.22229609 0.020743068 0.059018895
000170 63 5b 86 be 05 9d 1a be c9 d1 42 be 39 29 19 bf
       -0.26241598 -0.1509896 -0.19025339 -0.59828526
000180 7f df 80 be c9 2d 51 be de 81 b6 be 5f 39 aa be
       -0.25170514 -0.20427622 -0.35645956 -0.33246896
000190 04 41 22 be b6 90 3e be f0 17 18 be 5e e9 58 be
       -0.15845114 -0.1860989 -0.14852881 -0.21182773
0001a0 e2 80 8e be b1 f4 01 be ec 88 44 3c e6 be b4 3d
       -0.27832705 -0.12690999 0.011995535 0.088254735
0001b0 bd e7 22 3e 70 f4 9d bc 11 6d 32 bd 10 ec d2 3d
       0.15908714 -0.019281596 -0.043561045 0.102989316
0001c0 24 24 8a 3d cc 1c 5a be 3f 03 21 be d9 e6 eb bd
       0.067451745 -0.21300048 -0.15723895 -0.1151864
0001d0 b5 93 a2 bd 0b 9c 34 be b4 f6 48 bd 60 d5 a9 be
       -0.07938329 -0.1763765 -0.0490634 -0.33170605
0001e0 1e 3a 97 be 28 b4 57 be 93 c2 9a be 54 f7 90 bd
       -0.29536527 -0.21064818 -0.30226573 -0.07078424
0001f0 de b2 1b bf e6 a5 12 3d 15 e7 4b 3d a6 ef ee 3d
       -0.60819805 0.035802744 0.049780924 0.11666803
000200 8a 79 00 bd 6c 36 86 3e 5b fd 9b be 71 df 5c be
       -0.03136591 0.26213396 -0.30466732 -0.21569611
000210 73 62 b5 be f8 76 6b be c3 de ef be d0 0f e7 be
       -0.35426673 -0.22994602 -0.4684964 -0.4512925
000220 cb 9c 58 be 10 75 c3 be 73 57 9f be 51 f0 44 be
       -0.21153562 -0.3817525 -0.31121406 -0.19232298
000230 54 c5 4d be 1b 49 a8 be d6 f1 aa be 61 9e 78 be
       -0.20094806 -0.32868275 -0.3338763 -0.24279167
000240 5c 68 61 be 74 fe b9 be 8b cb 2c be 4d b9 90 be
       -0.22012466 -0.36326945 -0.1687452 -0.28266373
000250 96 85 72 be 4d 05 13 bf
       -0.23683771 -0.57429963

conv2.depthwise.weight_fake_quant.scale f4 [6]
000000 26 67 8c 3b 8b 6c 7f 3b c8 41 a6 3b 6a 29 99 3b
       0.004284757 0.0038974609 0.0050737597 0.0046741264
000010 ac b2 9b 3b 7e 05 93 3b
       0.004751524 0.0044867387

conv2.depthwise.weight_fake_quant.activation_post_process.min_val f4 [6]
000000 2a 1e e3 be 2a 94 60 be c8 41 26 bf 6a 29 19 bf
       -0.4435895 -0.2193152 -0.64944124 -0.5982882
000010 ac b2 1b bf 7e 05 13 bf
       -0.60819507 -0.57430255

conv2.depthwise.weight_fake_quant.activation_post_process.max_val f4 [6]
000000 58 4e 0b 3f b2 6d fd 3e 4c bc 0e 3e 10 ac e4 3d
       0.5441642 0.49497753 0.13939017 0.11165631
000010 6a e7 22 3e 3a 36 86 3e
       0.1590859 0.26213247

conv2.pointwise.weight f4 [16, 6, 1, 1]
000000 e3 af fc be 5a 3d 8f bd 43 62 bd 3e a3 c2 39 be
       -0.4935294 -0.06994124 0.3698903 -0.18140654
000010 02 41 fb be e9 92 88 be e8 6f 18 3f fc 6d a9 be
       -0.49073035 -0.26674584 0.59545755 -0.33091724
000020 29 1c ea be 47 ed 6a be dc c1 fa 3e 2a 6b 0b 3f
       -0.4572461 -0.22942077 0.48976028 0.54460394
000030 61 d5 3b 3f 5b c5 1d bf 09 a2 eb bd 36 94 b6 bd
       0.73372465 -0.61629266 -0.11505515 -0.08914988
000040 b6 4e bb 3e 3c df 6a bd 64 b8 75 3e 7a fe 00 3f
       0.3658349 -0.0573418 0.2399612 0.503883
000050 4c 0f 2e bf 8e 8b 68 3e 0b 73 64 be d9 e5 55 3d
       -0.6799209 0.22709486 -0.2230951 0.052221153
000060 87 76 21 3f b9 fb ae be 0b 44 8a 3e 62 72 6c 3e
       0.63071483 -0.34176424 0.27005038 0.23090509
000070 3f 5a b3 be 4e f8 1f bd fa 3e bd 3e f7 14 1c bf
       -0.3502979 -0.03905516 0.3696211 -0.6096949
000080 35 a5 b5 be d8 92 e0 be c7 b7 a2 bc 06 7d 14 3f
       -0.35477605 -0.43862033 -0.019863022 0.5800327
000090 2a 43 8f 3d 73 04 ad 3d 70 0b ed bd 46 e8 96 be
       0.069952324 0.08448114 -0.11574447 -0.29474086
0000a0 ce a0 f4 bd 8b c9 25 3f 38 da fd 3d 9a f8 81 be
       -0.119447336 0.64760655 0.123951375 -0.2538498
0000b0 9e 0b 15 3f 12 ac 3e bf 8a b6 d2 be c8 70 da 3d
       0.5822085 -0.7448131 -0.4115489 0.106660426
0000c0 d2 32 c5 3e 62 ec ff 3e 45 19 69 be 93 cb a9 3e
       0.38515335 0.49985033 -0.22763546 0.33163127
0000d0 bd ac 87 be b5 1a cf bd dc 11 bc 3e 76 51 c6 bd
       -0.26498976 -0.10112516 0.36732376 -0.09683506
0000e0 e3 07 29 3e 98 23 4d bf df fe 14 be 47 fe 34 be
       0.16506915 -0.80132437 -0.1455035 -0.17675124
0000f0 08 ff 0b 3f 1a e2 24 3f bf 12 b8 3e 81 87 69 3d
       0.5468602 0.64407504 0.35951802 0.057013992
000100 9d dd 9f 3e 23 84 bb be 1c 3a 84 be bb 0b 29 3f
       0.31223765 -0.3662425 -0.25825584 0.66033524
000110 26 ae c2 be 06 c2 dd 3e 9b ce 55 bd b5 5f c0 3e
       -0.3802349 0.4331209 -0.052198987 0.3757302
000120 16 b5 e6 3d fa 57 55 3d 3a a5 62 3e f8 ff 9f 3e
       0.11265008 0.052085854 0.22133341 0.31249976
000130 1d cc c3 3d 89 c5 ff be 46 60 6e 3e bc 77 0a bf
       0.09560416 -0.49955395 0.23278913 -0.5408895
000140 62 cc d4 be 08 87 98 be 5f 39 60 3e 8b ce 16 3e
       -0.41562182 -0.2979052 0.21896885 0.14727227
000150 fb 54 07 3c b9 c9 0b be f2 96 a6 bc b9 b3 a8 be
       0.008260007 -0.1365117 -0.020335648 -0.32949618
000160 f1 ad 2d bf 1b da 79 be d0 56 3b bb 6d 82 a1 bd
       -0.6784354 -0.24399607 -0.002858568 -0.07886205
000170 d7 61 00 bd e5 97 4c bf 36 a7 64 be c7 c9 00 3f
       -0.031343307 -0.7991927 -0.22329411 0.5030789

conv2.pointwise.weight_fake_quant.scale f4 [16]
000000 14 b0 7c 3b 61 a3 99 3b 2f 50 bd 3b 7e 0f ae 3b
       0.00385571 0.0046886657 0.005777381 0.0053119054
000010 ce bb a2 3b c6 14 9c 3b ec 17 a7 3b e0 ab be 3b
       0.0049662357 0.0047632186 0.0050992873 0.005818829
000020 08 f8 80 3b 66 23 cd 3b 59 2e a6 3b 4b 60 aa 3b
       0.0039358176 0.0062603233 0.005071443 0.0051994673
000030 ba c5 7f 3b 8a 77 8a 3b 22 ae ad 3b b4 97 cc 3b
       0.0039027766 0.004225676 0.0053002993 0.0062436704

conv2.pointwise.weight_fake_quant.activation_post_process.min_val f4 [16]
000000 14 b0 fc be f8 1b ea be 8c c5 1d bf 7e 0f 2e bf
       -0.49353087 -0.45724463 -0.6162956 -0.6799239
000010 70 5a b3 be c6 14 1c bf 14 e8 96 be e0 ab 3e bf
       -0.35029936 -0.609692 -0.29473937 -0.7448101
000020 8c ac 87 be 66 23 4d bf f2 83 bb be e4 ad c2 be
       -0.2649883 -0.8013214 -0.36624104 -0.38023293
000030 ba c5 ff be 8a 77 0a bf 22 ae 2d bf b4 97 4c bf
       -0.4995554 -0.5408865 -0.6784383 -0.7991898

conv2.pointwise.weight_fake_quant.activation_post_process.max_val f4 [16]
000000 12 62 bd 3e 1a 70 18 3f 8f d5 3b 3f ac fe 00 3f
       0.36988884 0.59546053 0.7337274 0.503886
000010 56 76 21 3f d4 7c 14 3f bc c9 25 3f d0 0b 15 3f
       0.6307119 0.5800297 0.6476095 0.5822115
000020 30 ec ff 3e aa 11 bc 3e fc e1 24 3f 8a 0b 29 3f
       0.49984884 0.36732227 0.64407325 0.6603323
000030 c6 ff 9f 3e 98 60 6e 3e 02 5c 07 3c f8 c9 00 3f
       0.31249827 0.23279035 0.0082616825 0.5030818

conv3.depthwise.weight f4 [16, 1, 5, 5]
000000 41 ff 16 3e 98 0c 23 3e c4 2c 17 be 02 01 34 3d
       0.14745809 0.15922773 -0.1476317 0.043946274
000010 29 c4 04 be 27 6d 49 bd 03 63 b9 be 18 2d 19 bd
       -0.12965454 -0.04917636 -0.36208352 -0.03739652
000020 1d 99 4c be 06 06 c3 bd 14 f6 da bc fe 7b 94 3e
       -0.19980283 -0.09522633 -0.026728667 0.2900085
000030 96 07 46 3e 9b d4 55 3e e7 8c a6 3e 0f b6 a0 bd
       0.19338831 0.20881884 0.32529375 -0.07847225
000040 46 ea 8d 3e f1 6b 14 3e c5 43 f9 3c 27 0c 0c be
       0.277178 0.14494301 0.030427823 -0.13676511
000050 c7 6a 2d bd 09 2a e4 3d ca c1 b8 3d 9f a8 a2 bd
       -0.04233816 0.1114083 0.09021337 -0.07942318
000060 e5 57 94 be dc 1e d8 be 6c 4f 18 3f 06 3c 50 3d
       -0.28973308 -0.42211044 0.5949619 0.050838493
000070 59 69 99 be 33 13 61 be e1 07 18 bf c6 86 55 be
       -0.29963186 -0.2197998 -0.5938702 -0.20852193
000080 07 d5 4e be cc 45 37 bd 78 10 a3 3e 0c 56 8a bd
       -0.20198451 -0.044744298 0.31848502 -0.067546934
000090 5f 65 ca 3d 3c fb 81 3e d4 fc a2 3e 5e 07 1b be
       0.09882616 0.2538699 0.31833518 -0.15139529
0000a0 b5 a4 c6 bc 77 15 25 3e e7 5a 8c 3e 6d a3 cb 3e
       -0.02424846 0.1612147 0.27413103 0.3977312
0000b0 fd c2 1d 3d 09 d0 95 3e 22 e1 67 3e 29 fb 36 3e
       0.038516033 0.2926028 0.22644475 0.17869247
0000c0 41 f4 48 3e 74 b1 6c 3e de 3b a1 be dd 71 80 be
       0.19624425 0.23114568 -0.31490988 -0.2508687
0000d0 b1 ce ae bd e5 6a 8d be 30 0f dd be 7f b3 2b 3b
       -0.08535517 -0.27620617 -0.4317565 0.0026199517
0000e0 34 61 41 3e 87 5b 85 3e 26 92 69 3e 8c 58 38 3f
       0.18884736 0.26046392 0.22809657 0.7201011
0000f0 8c 09 dc bd 9b 8c 88 3d 4c 20 72 3c 2e a1 9f 3e
       -0.107440084 0.06667443 0.014778208 0.31177658
000100 1f 9c 03 be 37 87 3a bf 90 b0 8d be 67 a2 8f bd
       -0.12852524 -0.7286257 -0.2767377 -0.07013398
000110 9f e4 24 3e ce 2f 9c 3e fe 27 a6 be 1c 15 21 be
       0.16102837 0.30505222 -0.32452387 -0.15730709
000120 43 45 50 be 52 2e 6a 3d 64 0e a5 3d 87 48 8f bc
       -0.20338921 0.05717308 0.080593854 -0.017490638
000130 32 27 64 3e 4c 0c 41 3d 5f 8e e8 3d cf 12 18 3d
       0.22280577 0.047130868 0.1135528 0.037127312
000140 cd dd af be a5 44 48 bd af 52 6c 3e 19 0d 8e 3d
       -0.34348908 -0.04889359 0.23078416 0.06936092
000150 40 35 16 3e 32 9d b1 be b8 9f bd bc c6 1f eb bd
       0.14668751 -0.34690243 -0.023147449 -0.1148067
000160 f1 07 c3 3d e6 4d 36 be 18 b5 e6 be 89 7b 03 be
       0.09522999 -0.17803153 -0.4506004 -0.12840094
000170 8e d7 cd 3b 50 68 25 be fd 51 31 be 8b 2f 29 3e
       0.0062817996 -0.16153073 -0.17316432 0.16522042
000180 f4 fe d2 3d 81 3c 79 3e 4b aa 83 3d 6d c3 c1 bd
       0.10302535 0.24339487 0.06428965 -0.09461103
000190 55 eb 89 be 2f 85 55 be 88 a8 23 3d 53 a8 55 3e
       -0.26937357 -0.20851587 0.039955646 0.20864992
0001a0 bf 48 2f 3e 39 58 32 be 23 5a c5 bd 63 e9 54 be
       0.17117594 -0.17416467 -0.09636333 -0.20792155
0001b0 48 b6 8b bd 17 40 39 3d 5f 71 11 bb 19 5b ff bd
       -0.06821877 0.045227136 -0.0022192819 -0.124685474
0001c0 4e bd e6 3c b4 d1 ed bd 98 e3 5b be b9 be 58 3e
       0.02816644 -0.11612263 -0.21473539 0.21166505
0001d0 5e 47 45 3e 86 fc 12 3e 14 b5 d7 3c 30 ff c4 be
       0.19265506 0.14354143 0.026331462 -0.38475943
0001e0 54 b7 5d 3e f6 1b e8 3d 63 77 02 3f 35 be f8 3e
       0.21651965 0.11333458 0.5096342 0.48582616
0001f0 76 f8 c5 3c 52 5d b4 3e 0c 5b 6c 3e cb 36 c4 3d
       0.024166327 0.35227448 0.23081607 0.095807634
000200 98 aa 43 3e 30 24 1b 3f bd 12 ed 3e 73 0c db 3d
       0.19108045 0.6060209 0.4630336 0.10695734
000210 21 50 5c 3e 3c 3a 5d 3e 75 7c 12 3e 08 ba f0 3c
       0.21514942 0.21604246 0.14305289 0.029385582
000220 63 21 5a be 9f 60 63 3e 1a 62 85 bd ba de ac 3e
       -0.21301799 0.22204827 -0.06512852 0.33763677
000230 1d 92 5a 3e 7c 68 da bc 91 73 b7 3d 6a 1f 0b be
       0.213448 -0.02666115 0.089575894 -0.13586202
000240 56 a2 05 be 7f 63 ad be 55 f9 29 be ee af bf bd
       -0.13050207 -0.33864972 -0.16599019 -0.09359728
000250 c1 a2 d1 bd 80 12 8d bd 7c a3 e3 3d 43 1a 94 3d
       -0.10236121 -0.06888294 0.111151665 0.072315715
000260 a4 42 07 3e cc 2f 82 3e 2a a9 9e 3c 97 e2 1d 3e
       0.13209015 0.2542709 0.019367773 0.15418468
000270 d1 64 43 3e 54 ac 43 3e 85 6d bb 3c 87 7c 08 3e
       0.19081427 0.19108707 0.022879371 0.13328753
000280 57 ac 46 3e e6 87 52 3e 54 12 97 bd e5 29 50 3e
       0.1940168 0.20559654 -0.07376543 0.20328481
000290 78 89 8f 3e 5f 31 d2 bc cd 3b d2 bd b3 f2 a3 bd
       0.28034568 -0.025658308 -0.10265312 -0.080052756
0002a0 e6 fa 44 3d 5d b6 87 3e 62 96 5f 3d 4d 20 9a 3e
       0.048090838 0.2650632 0.054586776 0.3010277
0002b0 d4 8a ac 3e 1b ef 41 3e 7e 84 ed 3e 2d b9 87 3d
       0.33699667 0.18938868 0.46390146 0.06627116
0002c0 10 6e 52 be 2f 1c 5a 3e aa b9 9f bd 00 e5 98 3e
       -0.20549798 0.21299814 -0.077990845 0.29862213
0002d0 3c 02 5a 3d f8 91 bc bd d1 68 e0 bd d6 bc 68 be
       0.053224787 -0.09207529 -0.10957492 -0.22728285
0002e0 a9 de 78 be 49 bb e6 bd a5 9e 84 3e ff 38 51 bd
       -0.24303688 -0.112661906 0.25902286 -0.051079746
0002f0 75 51 f7 3d 0b bf ac 3d 73 40 f8 bd 85 20 67 3e
       0.120760836 0.08434876 -0.12121668 0.22570999
000300 af a9 1e bd 92 87 cf 3d c9 d4 89 3e 56 fb 14 bf
       -0.03873604 0.1013328 0.26920155 -0.5819601
000310 c0 af 97 be 94 ac 68 be 6d 1e 3c be 0a d1 43 be
       -0.29626274 -0.22722083 -0.18370982 -0.19122711
000320 31 ce 57 3e 40 0c ea bc 20 a9 51 3e 7b 5a 9e 3e
       0.2107475 -0.028570294 0.20474672 0.30928406
000330 4a af ae 3d 71 81 e7 3d 90 88 76 3e e8 ab 07 3e
       0.085295275 0.11303986 0.24075532 0.13249171
000340 df f1 15 3d b2 78 fa 3e ec 2f 73 3c 27 86 eb 3d
       0.03660762 0.48920208 0.014842968 0.11500197
000350 8b 72 0f bd 81 ed 9b bd ba 41 1f 3e 10 93 8f bd
       -0.035021346 -0.0761366 0.15552416 -0.07010472
000360 36 45 fb 3c 04 f1 0d be d4 44 63 bd ae dc 31 be
       0.03067265 -0.13861471 -0.05548556 -0.17369339
000370 94 25 18 3e 79 8d 9f 3e c4 37 0e bd 00 eb 06 3e
       0.14858085 0.31162623 -0.03472115 0.13175583
000380 5e 5c 26 bd a8 b5 bb bd b2 c7 59 3d 5f f0 02 3d
       -0.040615432 -0.091655076 0.05316896 0.031967517
000390 eb b3 ea 3c 99 b0 e2 3e c7 63 2a be cf 01 1e bc
       0.028650245 0.44275358 -0.16639625 -0.009643986
0003a0 a7 a7 ae bd 36 5b 3f be 89 5e 28 3e 55 03 99 3e
       -0.08528071 -0.18687138 0.16442312 0.29885355
0003b0 56 d7 48 bd b3 63 86 3e f5 30 18 3e 67 88 c9 3d
       -0.049033485 0.2624794 0.14862426 0.0984047
0003c0 0a d4 cb 3d 2e 74 40 3d 70 e2 f9 3d 5f 35 90 3e
       0.099525526 0.046985798 0.12201393 0.2816572
0003d0 58 db d3 3e 94 72 63 be 8c 2c ee b9 8b 38 af 3c
       0.41378284 -0.22211677 -0.00045428087 0.021389266
0003e0 df ba 6d bc b8 80 30 be 4e 68 3f be b8 d0 00 be
       -0.014509886 -0.17236602 -0.18692133 -0.1257962
0003f0 2b c7 56 3d fc 8e 3f be 77 0a 31 be 4d 06 66 be
       0.052436035 -0.18706888 -0.17289148 -0.22463341

conv3.depthwise.weight_fake_quant.scale f4 [16]
000000 34 63 39 3b 3e 82 99 3b 06 87 ba 3b 52 b5 66 3b
       0.002828789 0.0046847155 0.0056923656 0.003520329
000010 91 7e 83 3b b7 5c 9c 3b 12 63 6f 3b 24 fb 94 3b
       0.0040128906 0.0047717947 0.0036527556 0.00454654
000020 63 71 7c 3b 5b 79 64 3b 16 3d 76 3b 2d ce 7b 3b
       0.0038519732 0.0034862373 0.003757303 0.003842245
000030 53 01 85 3b e6 a8 97 3b cd 92 43 3b bc ff 6e 3b
       0.0040589957 0.0046282886 0.0029842139 0.0036468348

conv3.depthwise.weight_fake_quant.activation_post_process.min_val f4 [16]
000000 34 63 b9 be b0 07 18 bf 06 87 3a bf 52 b5 e6 be
       -0.36208498 -0.5938673 -0.7286228 -0.4506021
000010 62 ff c4 be 4e 63 ad be f1 3a d2 bd 24 fb 14 bf
       -0.38476092 -0.33864826 -0.102651484 -0.5819571
000020 e0 dc 31 be c6 72 63 be 16 3d f6 be 2d ce fb be
       -0.17369413 -0.22211751 -0.4809348 -0.49180737
000030 5a 20 cc be e6 a8 17 bf 8c 05 78 be bc ff ee be
       -0.39868432 -0.59242094 -0.24220866 -0.46679485

conv3.depthwise.weight_fake_quant.activation_post_process.max_val f4 [16]
000000 b6 8c a6 3e 3a 4f 18 3f 5a 58 38 3f 50 3c 79 3e
       0.3252923 0.5949589 0.72009814 0.24339414
000010 94 77 02 3f fe 23 1b 3f 4c 84 ed 3e 32 e5 98 3e
       0.5096371 0.60601795 0.46389997 0.29862362
000020 80 78 fa 3e 68 b0 e2 3e e4 99 10 3e a2 dd ec 3e
       0.4892006 0.44275212 0.14121205 0.46262842
000030 50 f7 03 3f 0a c8 04 3e a7 0b c2 3e 38 cb 84 3e
       0.51549244 0.12966934 0.37899515 0.25936294

conv3.pointwise.weight f4 [120, 16, 1, 1]
000000 05 36 a7 bd d6 95 c8 3e 0d 2c 0a 3f 21 b2 6c 3e
       -0.081646 0.39176816 0.53973466 0.23114826
000010 a5 cb 97 3e 07 b1 ff 3b ae b3 48 be 99 4e 0c 3e
       0.29647556 0.0078030857 -0.19599792 0.13701858
000020 0b c4 41 3e d3 13 7c 3d 8d a2 61 be c9 12 07 bd
       0.1892244 0.061542343 -0.22034664 -0.0329769
000030 fa 1b 89 be 84 23 4e bd ac 27 83 be 5c 78 b6 bc
       -0.26779157 -0.05032684 -0.25616205 -0.022274189
000040 98 ce 0c 3e a4 09 a8 be 9b a9 ed 3d cf 66 72 3e
       0.13750684 -0.32819855 0.11604615 0.23672031
000050 e2 18 23 3c 43 1b a3 3e a6 83 8c 3d 25 b8 94 3e
       0.009954663 0.31856737 0.068610474 0.2904674
000060 98 a8 d7 3d 39 6f 87 bc 73 b6 d2 3b da 89 f4 3d
       0.105302036 -0.016532527 0.006430441 0.119403556
000070 3a 57 a1 3d fa ad 5a be 00 9a dc 3d 02 f2 1c bf
       0.07877965 -0.2135543 0.10771561 -0.61306775
000080 b8 70 fd 3d f5 cb 0d be 90 7f 05 3e 8d e5 5a 3b
       0.12375015 -0.13847335 0.13036942 0.0033400983
000090 4e f5 0c 3e 4d bf 61 3e 05 2c 37 bd e4 cf 39 3d
       0.13765451 0.22045632 -0.044719715 0.045364276
0000a0 11 e9 34 3d b4 ee 07 be fa e5 89 3e 67 f0 dd 3c
       0.044167582 -0.13274652 0.2693327 0.027092172
0000b0 06 d0 9f 3e c4 db 26 bf 0a dd 16 3d 31 62 eb 3d
       0.31213397 -0.65179086 0.036831893 0.11493338
0000c0 69 7d bd be b5 da 9a bd ad 62 0f bf c2 6b aa be
       -0.37009743 -0.07561246 -0.5600994 -0.33285338
0000d0 3f d8 c4 bd 9c 66 ba be c0 6e a3 bc f8 26 9b be
       -0.09611558 -0.3640641 -0.01995027 -0.30303168
0000e0 06 5f 9a bd bc c0 72 be 6e 05 3a bd 5b 9e 81 be
       -0.075376555 -0.23706335 -0.045415334 -0.25316128
0000f0 0d f6 7d be 59 b9 b0 3d af 48 f1 bd a8 df b2 3e
       -0.24800892 0.08629102 -0.117814414 0.3493626
000100 e0 bc e0 3c c9 66 0b bf d2 23 9b 3e bb a8 8f 3d
       0.027433813 -0.5445371 0.30300766 0.07014605
000110 f6 9b fa 3d d3 b1 0e be e2 ac 46 3d 9a 84 29 3d
       0.122367784 -0.13935022 0.048504718 0.041386224
000120 ba bf 63 3d 81 7a 64 be 1a a6 66 be 1f c1 1a be
       0.055602767 -0.22312357 -0.225243 -0.15112732
000130 95 df b3 3c 09 78 9a be 3d 84 3f 3e 1a d1 75 3e
       0.021957198 -0.30169705 0.18702789 0.24005547
000140 16 46 af 3d f0 33 09 3e b7 78 e4 be 3c 6b 89 bc
       0.0855829 0.13398719 -0.44623348 -0.016774766
000150 40 e7 29 3d ee 33 0e bf a4 f5 d0 3d 4b 18 e7 bd
       0.041480303 -0.5554799 0.10203102 -0.112839304
000160 b5 79 04 3d 5b 67 92 be f4 b5 21 be 3d cd e4 be
       0.03234263 -0.2859448 -0.15792066 -0.44687834
000170 db b7 30 be 9c c9 cc be cd 39 1c 3e 11 21 0b 3e
       -0.17257635 -0.39997566 0.15256424 0.13586833
000180 74 c0 40 3d db 7c 91 be 10 5c 01 bf 06 59 5d 3d
       0.047058538 -0.2841557 -0.505311 0.054039977
000190 d6 53 20 3f c2 74 b7 3e 4f 78 7c 3e 07 d3 be 3e
       0.62627923 0.35831267 0.24655269 0.37270376
0001a0 e1 a8 ae 3d 91 3f 29 be 07 6a 22 3d 1b d7 72 be
       0.08528305 -0.16528155 0.039651897 -0.23714869
0001b0 67 22 4d 3e 49 f4 2c be 08 5b 7b bd 6b 01 db 3d
       0.20032655 -0.16890062 -0.06136611 0.1069363
0001c0 dd 26 51 3d fb 2e 11 be 7b 12 d3 3c b8 ba db ba
       0.051062454 -0.14178078 0.025765648 -0.001676402
0001d0 20 ec 26 be 58 56 b4 bd 0b 8f 01 be 3f be 97 3e
       -0.16301012 -0.08805531 -0.12652223 0.29637334
0001e0 65 01 a8 be 92 72 d9 3d 9c d5 37 be fb 84 4a be
       -0.32813564 0.10617556 -0.1795258 -0.1977729
0001f0 b0 96 01 3e 20 52 89 bd 81 08 37 3e fc e4 c1 3e
       0.12655139 -0.06705117 0.17874338 0.37870014
000200 c7 9c 49 be 91 d1 23 bd 34 5b 53 3e b0 6d e3 bd
       -0.19688712 -0.03999478 0.2064026 -0.111049056
000210 fd ba 2a be f1 47 7a 3b f3 44 cf bc 9c e1 7b bc
       -0.16672893 0.0038189853 -0.025301432 -0.015373614
000220 67 a6 31 3e e1 f5 83 be c4 d5 19 3e d1 71 f1 bd
       0.17348634 -0.25773528 0.15022951 -0.11789287
000230 64 65 e8 3e 20 f9 0c bd 2c b8 50 3e bf 23 8e be
       0.45389855 -0.03441727 0.20382756 -0.27761647
000240 f6 a8 b0 3e 39 3c b1 3e d9 59 12 3f 21 5d 0d be
       0.34503907 0.3461626 0.57168347 -0.13805057
000250 e5 30 3e bd 33 6e 48 be a2 62 23 be d5 34 80 3c
       -0.04643335 -0.19573288 -0.15955594 0.015650192
000260 18 1c 37 3e 42 bb ef 3b 5c 9e bd be 18 dd 79 3d
       0.1788181 0.007316024 -0.3703488 0.061001867
000270 a9 fb 72 bc b4 48 78 be 05 4d d2 3b 12 fb 4e 3e
       -0.014830508 -0.24246484 0.006417873 0.20212963
000280 66 b9 84 3e c3 3e 94 be 1c e8 33 3e 6f 9d 11 3d
       0.25922698 -0.28954133 0.17569011 0.03555053
000290 3c d9 b1 bd 71 f9 c5 3e 48 41 bd 3c e5 bf 37 bb
       -0.08684012 0.3866687 0.023102418 -0.0028037962
0002a0 14 08 cf be e5 c9 49 3d d6 b2 6f bd c8 0c 99 3e
       -0.4043585 0.049264807 -0.05852016 0.29892564
0002b0 af f5 77 be 9e 59 83 be 52 25 49 3e 77 a3 56 3e
       -0.24214815 -0.2565431 0.19643143 0.20960794
0002c0 ac 1d b9 bc 23 4c 52 be 7e d8 58 be 42 a1 72 3b
       -0.022597156 -0.20536856 -0.21176335 0.0037022387
0002d0 5b e6 d2 be a2 45 6a be 22 95 35 bd a4 44 a8 3d
       -0.41191372 -0.22878125 -0.044331677 0.08216217
0002e0 8a 2c 56 3d bd 20 00 3e e3 7a 8c 3e 86 93 42 be
       0.05228857 0.12512489 0.27437505 -0.19001588
0002f0 88 a9 5e 3e 6a 52 d4 3d 1e 57 87 bb fc 4e b4 3d
       0.21744359 0.10367282 -0.004130258 0.088041276
000300 3f d0 ea 3c cc 99 81 3c b1 69 04 3f 2e bf 80 3e
       0.028663753 0.015820406 0.5172377 0.2514586
000310 28 50 56 bd 00 86 a7 be c3 55 e0 3c 17 89 92 be
       -0.052322537 -0.3271942 0.027384644 -0.28620216
000320 8c 7f f1 bc ea ab 1d 3e 26 bc 33 3e 06 f3 f6 be
       -0.029479764 0.15397611 0.17552242 -0.48232287
000330 6c 09 74 3d 33 a3 05 3e 62 ef 84 3d 12 47 89 bd
       0.059579298 0.13050537 0.06490971 -0.06703009
000340 ff b6 a7 bd be 80 63 bd 78 ef 4d 3e 56 15 ea bd
       -0.081892006 -0.0555427 0.20110881 -0.11429851
000350 6e 70 c5 3e 6e 38 2d 3f d4 60 07 3e cc 1c 90 be
       0.3856234 0.6766423 0.13220531 -0.2814697
000360 6a b5 37 be 65 4b 98 be ab 9b ac 3e 53 d9 ba bc
       -0.17940298 -0.2974502 0.33712515 -0.022808706
000370 3e ec 1f be 24 b0 41 bb 58 d6 bd bd 88 6c f7 bd
       -0.15617463 -0.002955445 -0.092693985 -0.120812476
000380 fd 5a ad be 69 7a 4e be 84 6d 0f be a9 ac 8e bd
       -0.3385848 -0.20163883 -0.1400662 -0.06966526
000390 20 77 65 3d e0 89 05 be 3e 11 17 3d 2d 75 c2 be
       0.05602181 -0.13040876 0.036881678 -0.37980023
0003a0 c2 3f 6b be d5 1c 90 3e 28 a9 87 3d 99 1a 99 be
       -0.2297354 0.28146997 0.06624061 -0.29903105
0003b0 fd 08 3a 3d c5 1d 99 3e 7c 5e f8 be 91 ba a3 3e
       0.04541873 0.29905525 -0.48509586 0.31978276
0003c0 fa bc 06 be 7b 50 3c be b9 c5 27 be d1 2b 47 be
       -0.13158026 -0.18390076 -0.16384019 -0.19450308
0003d0 b7 3b a0 be 23 42 08 3e 01 7a 76 bb c4 43 9d 3e
       -0.3129556 0.13306479 -0.003760934 0.30715764
0003e0 51 5e 8b 3d 45 90 10 be 92 0a 77 3e 31 1c c9 3e
       0.06805099 -0.14117534 0.24125126 0.3927932
0003f0 41 45 0d 3f c7 e9 9e be 03 5c 93 bc 40 7f 1f be
       0.551838 -0.31037733 -0.01798821 -0.15575886

conv3.pointwise.weight_fake_quant.scale f4 [120]
000000 c4 42 8b 3b d0 f1 9c 3b f6 db a6 3b de 62 8f 3b
       0.0042499024 0.0047895685 0.0050921394 0.0043757996
000010 fa 66 8b 3b bc 33 8e 3b 36 97 a1 3b 06 6c 43 3b
       0.004254219 0.0043396633 0.004931356 0.0029819026
000020 a5 39 6a 3b 0c 81 93 3b e2 07 4f 3b 2a e6 52 3b
       0.0035739925 0.0045014676 0.0031590392 0.0032180646
000030 69 74 85 3b 67 95 ae 3b ae 5e 78 3b 36 62 8e 3b
       0.004072715 0.0053278687 0.003789823 0.0043452037
000040 b7 41 8d 3b ce 63 b6 3b 81 bb ab 3b ab 9e b9 3b
       0.0043108123 0.005566097 0.005240858 0.0056646666
000050 18 55 8d 3b e8 09 9b 3b 9f 5c 8f 3b 18 be 7e 3b
       0.0043131225 0.0047314055 0.004375055 0.003887063
000060 4f 0e 8a 3b a7 bc c2 3b b7 af 36 3b 4b eb 8a 3b
       0.0042131315 0.0059428993 0.002787573 0.004239475
000070 ba a1 8d 3b df fc 73 3b 89 d0 78 3b 18 8a 5d 3b
       0.004322258 0.003722958 0.0037966094 0.0033804234
000080 12 3f a9 3b d8 89 80 3b 5b 27 82 3b 66 25 46 3b
       0.0051649893 0.0039226823 0.0039719767 0.0030234694
000090 92 33 5b 3b 0e 6d 89 3b e2 e6 85 3b 5f dd 76 3b
       0.0033447486 0.0041939085 0.0040863613 0.0037668569
0000a0 e2 9d 6e 3b 36 ad 9a 3b 5f ac 89 3b 22 7e 8b 3b
       0.0036410023 0.0047203554 0.0042014564 0.0042569796
0000b0 6f 4a 44 3b 4e 0e 90 3b 80 7b b0 3b cc 5a 9b 3b
       0.0029951592 0.0043962365 0.005385816 0.0047410484
0000c0 92 a5 a2 3b b5 df 8f 3b 48 75 44 3b bf 2c bc 3b
       0.004963585 0.0043906816 0.0029977132 0.005742639
0000d0 35 5c 73 3b e6 bb a5 3b 3e 61 a3 3b b3 51 66 3b
       0.0037133817 0.0050577996 0.0049859574 0.0035143911
0000e0 c9 e2 86 3b c2 12 8e 3b 0e 67 90 3b 9b fb 8a 3b
       0.0041163904 0.004335732 0.0044068163 0.0042414195
0000f0 a2 e0 7d 3b 46 09 83 3b 50 ca 8c 3b ec 98 ac 3b
       0.0038738628 0.003998908 0.0042965785 0.005267253
000100 52 a3 57 3b 42 20 8c 3b 10 ea 71 3b 16 eb 9b 3b
       0.0032903743 0.0042763064 0.0036913194 0.004758249
000110 63 2b 93 3b ca 71 59 3b 48 cb 6f 3b d4 50 8a 3b
       0.004491256 0.0033179396 0.003658967 0.0042210612
000120 b4 af 69 3b 99 11 8b 3b e4 f3 81 3b 18 1f 4c 3b
       0.0035657706 0.004244041 0.0039658416 0.0031146463
000130 85 d9 55 3b 17 06 3b 3b ba 36 65 3b 78 6a 69 3b
       0.0032630872 0.0028537565 0.0034975247 0.003561644
000140 ec c0 4f 3b 9d 6d ac 3b 71 80 9f 3b 9d 2d 5c 3b
       0.0031700684 0.0052620904 0.0048676063 0.0033596524
000150 08 6c a4 3b 1a 0f b7 3b 57 35 a6 3b ef 02 97 3b
       0.005017761 0.005586517 0.0050722766 0.004608504
000160 ce a7 94 3b c0 33 8a 3b b8 d0 69 3b d8 10 7d 3b
       0.0045366054 0.004217595 0.0035677385 0.0038614776
000170 48 08 8d 3b 43 27 5e 3b 8b b4 78 3b 83 c2 a3 3b
       0.0043039657 0.0033897914 0.003794941 0.004997553
000180 98 2a a8 3b a5 59 9b 3b 3a 31 83 3b 61 dd 88 3b
       0.0051320307 0.004740911 0.004003671 0.004176781
000190 a4 f9 7f 3b c1 2b 73 3b 5d 48 ba 3b 86 21 6f 3b
       0.003905871 0.0037104937 0.005684896 0.0036488487
0001a0 16 5d 87 3b 12 a4 8e 3b ae a2 8b 3b 44 04 c1 3b
       0.0041309698 0.004353055 0.0042613363 0.005890401
0001b0 80 95 6c 3b 22 70 8b 3b 00 60 85 3b 62 6b 72 3b
       0.003609985 0.0042553106 0.004070282 0.0036990275
0001c0 36 a4 81 3b 5a a2 92 3b a3 81 91 3b 14 96 7f 3b
       0.003956343 0.00447492 0.0044405027 0.0038999366
0001d0 ca b9 84 3b 02 ab d6 3b fe 07 55 3b ba 45 8c 3b
       0.004050468 0.0065511474 0.0032505984 0.004280773

conv3.pointwise.weight_fake_quant.activation_post_process.min_val f4 [120]
000000 2c 1c 89 be d0 f1 1c bf f6 db 26 bf de 62 0f bf
       -0.26779306 -0.61306477 -0.65179384 -0.56010234
000010 fa 66 0b bf bc 33 0e bf 42 5c 01 bf 96 01 a8 be
       -0.54454005 -0.5554769 -0.505314 -0.3281371
000020 8e 23 8e be 2a 9e bd be e2 07 cf be 2a e6 d2 be
       -0.277615 -0.37034732 -0.40435702 -0.41191226
000030 d4 f2 f6 be 34 4b 98 be ae 5e f8 be e8 3b a0 be
       -0.48232138 -0.29744875 -0.48509735 -0.31295705
000040 8e 78 b2 be 2e 6c a2 be e2 83 bc be ce 49 de be
       -0.348576 -0.3172316 -0.3681937 -0.43415684
000050 18 55 0d bf e4 91 c4 be eb 66 e1 be 86 29 e1 be
       -0.5520797 -0.38392556 -0.44023833 -0.43976992
000060 1e f7 a9 be 6e 60 21 bf b7 af b6 be 3e 03 d1 be
       -0.33196348 -0.63037765 -0.35680935 -0.40822786
000070 ba a1 0d bf df fc f3 be ba 1e 89 be 18 8a dd be
       -0.553249 -0.47653863 -0.26781255 -0.4326942
000080 78 f4 9f be d8 89 00 bf ac c5 a7 be 66 25 c6 be
       -0.31241202 -0.5021033 -0.32768 -0.38700408
000090 92 33 db be bc 1b d5 be ae dd a9 be 00 4d b7 be
       -0.42812783 -0.41622722 -0.3317694 -0.35800934
0000a0 86 f9 a6 be 00 95 15 bf d8 ad 91 be 22 7e 0b bf
       -0.32612246 -0.5843048 -0.28452945 -0.5448934
0000b0 a2 b0 a7 be 4e 0e 10 bf 80 7b 30 bf 08 7d 9d be
       -0.32751948 -0.5627183 -0.68938446 -0.30759454
0000c0 92 a5 22 bf c0 62 ac be 48 75 c4 be b0 56 90 be
       -0.6353389 -0.3366909 -0.38370728 -0.28191137
0000d0 35 5c f3 be e6 bb 25 bf f0 85 86 be 86 a5 9d be
       -0.47531286 -0.64739835 -0.2627406 -0.30790347
0000e0 c9 e2 06 bf c2 12 0e bf 7a 04 bc be 9b fb 0a bf
       -0.52689797 -0.5549737 -0.36722165 -0.5429017
0000f0 a2 e0 fd be 46 09 03 bf 50 ca 0c bf 0a 49 05 bf
       -0.49585444 -0.51186025 -0.54996204 -0.52064574
000100 52 a3 d7 be 42 20 0c bf 64 5e d9 be d4 fc c8 be
       -0.4211679 -0.5473672 -0.42454827 -0.39255393
000110 6a c8 d7 be ca 71 d9 be 48 cb ef be 42 37 b7 be
       -0.4214509 -0.42469627 -0.4683478 -0.35784346
000120 b4 af e9 be 9c b5 49 be e4 f3 01 bf 18 1f cc be
       -0.45641863 -0.19698185 -0.5076277 -0.39867473
000130 94 e1 8f be 17 06 bb be ba 36 e5 be 78 6a e9 be
       -0.2810179 -0.36528084 -0.44768316 -0.45589042
000140 ec c0 cf be 04 bb c9 be 7e 4f e2 be aa d5 b0 be
       -0.40576875 -0.39400494 -0.44201273 -0.34538013
000150 08 6c 24 bf e2 87 c3 be 38 80 96 be ef 02 17 bf
       -0.6422734 -0.38189608 -0.29394698 -0.5898885
000160 88 e9 d6 be c0 33 0a bf b8 d0 e9 be cc 07 dc be
       -0.41975045 -0.53985214 -0.45667052 -0.429747
000170 48 08 0d bf 36 05 9d be db 8b 8c be 10 4c e0 be
       -0.5509076 -0.30668038 -0.2745045 -0.4380803
000180 98 2a 28 bf aa fd 92 be 04 e0 9e be 52 ed fd be
       -0.6568999 -0.28709155 -0.31030285 -0.49595124
000190 a4 f9 ff be f8 4c be be 22 19 2f be 86 21 ef be
       -0.49995148 -0.37168097 -0.17099431 -0.46705264
0001a0 5c 7f a5 be 04 36 ca be ae a2 0b bf 44 04 41 bf
       -0.3232373 -0.39494336 -0.54545105 -0.75397134
0001b0 80 95 ec be 22 70 0b bf 2c 6e e4 be 62 6b f2 be
       -0.4620781 -0.54467976 -0.44615304 -0.47347552
0001c0 c2 43 9e be 5a a2 12 bf 56 ac a9 be 8c a0 9f be
       -0.3091107 -0.5727898 -0.33139294 -0.31177175
0001d0 ca b9 04 bf 3a 10 ac be 60 ea 82 be ba 45 0c bf
       -0.5184599 -0.3360613 -0.2556944 -0.54793894

conv3.pointwise.weight_fake_quant.activation_post_process.max_val f4 [120]
000000 3e 2c 0a 3f 12 1b a3 3e 38 d0 9f 3e da df b2 3e
       0.5397376 0.3185659 0.31213546 0.3493641
000010 a0 23 9b 3e fe 39 1c 3e 08 54 20 3f 2e e5 c1 3e
       0.30300617 0.15256497 0.6262822 0.37870163
000020 32 65 e8 3e 0a 5a 12 3f a2 f9 c5 3e 40 7b 8c 3e
       0.45389706 0.5716864 0.38667017 0.27437782
000030 80 69 04 3f 3c 38 2d 3f c2 ba a3 3e 72 45 0d 3f
       0.5172348 0.6766393 0.31978422 0.5518409
000040 34 27 0c 3f 06 f7 34 3f 0a 64 2a 3f 6e 2b 38 3f
       0.5474732 0.7068943 0.665589 0.7194127
000050 50 41 87 3e d4 d3 19 3f e6 3d 0e 3f 9c c0 fc 3e
       0.26417017 0.6008885 0.555632 0.493657
000060 32 fa 08 3f 2e 37 41 3f e4 10 a0 3e 74 d5 09 3f
       0.5350677 0.7547482 0.31262887 0.5384133
000070 b2 b5 0b 3f ca 99 ad 3e e8 de f6 3e 30 0c 31 3e
       0.5457412 0.33906394 0.4821694 0.17289805
000080 94 ec 27 3f d6 ec a7 3e 0c 23 01 3f 56 04 8a 3e
       0.65595365 0.3279788 0.504441 0.26956433
000090 72 30 af 3e 34 5a 08 3f 14 db 04 3f a4 ef f4 3e
       0.34216648 0.5326264 0.51896787 0.4783908
0000a0 a6 c0 ec 3e dc 77 19 3f 06 99 08 3f 18 21 de 3e
       0.4624073 0.59948516 0.53358495 0.43384624
0000b0 da c1 c2 3e 70 9c 06 3f 0c 04 14 3e 16 24 1a 3f
       0.38038522 0.52582455 0.14454669 0.6021131
0000c0 66 04 92 3e f6 bf 0e 3f 10 d2 60 3e 66 b4 3a 3f
       0.2851898 0.5576166 0.21955132 0.72931516
0000d0 d4 35 e2 3e b4 cb eb 3e 7c 1a 22 3f 10 85 e4 3e
       0.44181693 0.4605385 0.6332166 0.4463277
0000e0 98 87 9e 3e 57 e4 8e 3e 40 46 0f 3f cc 72 f6 3e
       0.30962825 0.27908584 0.5596657 0.48134458
0000f0 1a b0 7a 3e fc 84 83 3e ce 74 dd 3e ba 3f 2b 3f
       0.2448124 0.25687397 0.43253177 0.66894114
000100 60 fc be 3e 99 41 a6 3e 3c 06 f0 3e 40 b3 1a 3f
       0.37301922 0.32471922 0.46879756 0.60429764
000110 0c 05 12 3f a9 c0 53 3e fe bf c9 3e 32 3c 09 3f
       0.5703895 0.20678963 0.3940429 0.53607476
000120 66 f8 a0 3e 76 fb 09 3f 57 f6 89 3e f6 22 6b 3e
       0.31439513 0.53899324 0.26945755 0.22962555
000130 d2 2d d4 3e 40 98 9d 3e 70 dd b9 3e f4 05 a9 3e
       0.41441208 0.3078022 0.36301756 0.33012354
000140 5b 1b ab 3e c2 14 2b 3f 70 41 1e 3f 42 75 da 3e
       0.33419308 0.6682855 0.618186 0.42667586
000150 b6 9f c7 3e fc a0 35 3f ec e8 24 3f 04 60 07 3f
       0.38989037 0.7094877 0.6441791 0.52880883
000160 7e 7e 13 3f 14 52 bc 3e 92 59 e6 3e b6 16 fb 3e
       0.57614887 0.3678137 0.44990212 0.49040765
000170 a6 9e af 3e f4 6a dc 3e 22 c3 f6 3e fe 7a 22 3f
       0.34300727 0.4305035 0.4819575 0.6346892
000180 f8 76 0a 3f f2 22 1a 3f d8 2a 02 3f a6 cb 07 3f
       0.5408778 0.6020957 0.50846624 0.5304512
000190 e4 5c 10 3e 69 45 f1 3e cc d3 38 3f c6 96 b2 3e
       0.14097935 0.47123268 0.72198176 0.34880656
0001a0 5c 4e 06 3f ca 86 0d 3f 18 05 e6 3e f4 14 db 3e
       0.52463317 0.55283797 0.4492576 0.42789423
0001b0 aa 30 a0 3e 6c 9c 90 3e 40 55 04 3f 74 58 af 3e
       0.31287128 0.2824434 0.5169258 0.34247172
0001c0 ee a0 00 3f 00 f4 db 3e a0 5e 10 3f e8 96 fd 3e
       0.5024556 0.42959595 0.56394386 0.49529195
0001d0 da 77 b6 3e ac fd 54 3f ee 5d d3 3e 66 90 83 3e
       0.35638314 0.8319957 0.412826 0.25696105

fc1.weight f4 [84, 120]
000000 06 38 8a 3d dd d2 f1 bc 18 26 80 3d e7 a1 2c 3e
       0.06748967 -0.029519493 0.06257266 0.16858636
000010 96 64 3c 3e f7 d5 22 3e e5 68 ae 3e bc ec 9f bd
       0.18397745 0.15901934 0.34064403 -0.078088254
000020 fc ce 5e 3d 29 d1 a3 3d 6d 71 72 3e 4e 34 ae bc
       0.054396614 0.079988785 0.23676081 -0.021265175
000030 82 82 08 3e 48 c2 b5 3e d7 39 12 3e 3b 51 45 3e
       0.13331035 0.35499787 0.14279877 0.19269268
000040 c7 6d 82 3d 72 8a 04 bf 98 03 69 bc f2 fe 60 3c
       0.063685946 -0.5177375 -0.014222048 0.013732659
000050 bd ef 47 3e 4f a1 21 3d 26 13 a3 3e b5 6c bc 3c
       0.19525047 0.039460476 0.31850547 0.023001054
000060 8c 59 99 bb 21 e7 0c bf c4 e4 0d 3e 72 7c 86 3d
       -0.0046798643 -0.55040175 0.13856798 0.06566705
000070 50 c1 1f be 8a 10 88 3e 96 51 b1 3d 47 09 9b 3c
       -0.15601087 0.26575118 0.086581394 0.018925322
000080 99 1c 85 3b 52 15 9c 3e 37 0c 93 3d dd 99 3e 3d
       0.004062247 0.30485016 0.07180064 0.046533454
000090 7a 89 e2 3d d3 01 58 3e 4e b3 7b bd 82 55 2b 3d
       0.11061378 0.21094446 -0.061450295 0.041829593
0000a0 7b b7 4b 3e fe 25 64 3e 80 0e 92 3b 0a 5d 1b 3e
       0.19894211 0.22280118 0.004457295 0.1517221
0000b0 ed 27 b6 3d 87 6d c1 3e bf d7 21 3e 6a c9 8c bc
       0.08894334 0.37778875 0.15804957 -0.017185885
0000c0 62 31 42 3e ff 57 1c 3e 7f 4f 36 bd 13 7f bb bd
       0.1896415 0.15267943 -0.044509407 -0.09155097
0000d0 18 0f c6 3e ad 87 85 3e 0e 56 39 3e aa c5 18 3e
       0.3868339 0.26080075 0.18099234 0.14919153
0000e0 a4 01 92 3e 37 fd 2d 3d 23 f2 bf 3e 19 10 2b 3e
       0.28516877 0.042477813 0.37489423 0.1670536
0000f0 64 b9 77 3c f0 f2 91 3e f7 66 14 3f 9f f6 1f 3d
       0.015119884 0.2850566 0.5796961 0.039053556
000100 60 2b ae 3e d0 7a 57 3e a5 34 3f bc bd 9b 15 be
       0.34017467 0.21042943 -0.011670266 -0.1461019
000110 57 2d db bd 4c 70 bb 3d 7a 57 99 3e e3 54 09 3e
       -0.10702007 0.09152278 0.29949552 0.13411288
000120 ff 3f 72 3d 1c c0 a0 bd 1c 83 75 3e 1e 07 11 bd
       0.059143063 -0.07849142 0.23975796 -0.035407178
000130 ac 99 d4 3d fc 7b 09 3d 79 07 da 3e df 4c c3 bc
       0.10380873 0.033565506 0.42583826 -0.023840366
000140 09 df d4 3d c1 b5 8f 3e 44 29 c2 3d 16 74 95 3b
       0.10394103 0.28068355 0.09480527 0.0045609577
000150 0f 56 eb bd 63 b3 b6 3d 01 20 2b bd 03 7e 64 3e
       -0.11491024 0.08920934 -0.04177857 0.22313695
000160 d2 2c ff 3c 5b 79 dc 3c 3a a1 26 be 96 d3 e5 3e
       0.031149302 0.026913336 -0.1627244 0.4488799
000170 13 0a 63 be 97 52 1d be bc 6b 32 be a7 63 84 3e
       -0.22171812 -0.15363537 -0.1742391 0.2585728
000180 75 b4 cc 3c 81 54 81 3d f1 bb f0 3c 39 64 6e 3e
       0.024988392 0.06314946 0.029386492 0.2328042
000190 0b e2 37 3d d3 74 64 3e d6 6d 02 bb 0b 8a 21 3e
       0.044893306 0.2231019 -0.0019901893 0.15775315
0001a0 31 b4 98 bc 65 57 dc 3e 54 11 fc 3e 80 64 a9 be
       -0.01864061 0.43035427 0.4923197 -0.33084488
0001b0 68 9e 31 3e e8 9c f7 3d 3b eb 86 bd 2f 73 1c 3e
       0.17345583 0.12090474 -0.065878354 0.15278314
0001c0 1d 61 68 bd 9a 80 2b 3e 5c 0b ba bd 53 32 33 3e
       -0.05673324 0.16748276 -0.09084198 0.17499666
0001d0 6b 49 11 3e f7 1c 79 bd ac 09 33 3e d5 31 0d 3e
       0.14188163 -0.06081864 0.17484158 0.1378854
0001e0 b6 a0 49 3c 6f 4f 1b bd c9 8c 85 3d 62 1b f7 bb
       0.012306383 -0.03791755 0.06520993 -0.007541106
0001f0 b5 79 ec bc 9b f0 8c bd 11 fe 9e bd 5a 4e 0b bd
       -0.028866628 -0.06881829 -0.07763303 -0.03401027
000200 41 27 3e 3c 9b 73 63 bd 68 d2 db bc e5 1d a7 3c
       0.011606039 -0.05553017 -0.026833728 0.020399997
000210 2e b8 97 bc 68 a3 a5 3c 54 46 41 3d a1 78 5a bd
       -0.01852044 0.02021952 0.04718621 -0.053337697
000220 a9 91 d2 bc eb 3f 9d bb f4 2d ca bc 6c 09 90 3d
       -0.025704222 -0.0047988794 -0.024680115 0.07033047
000230 4a 49 ea bc 5d eb 96 3d 03 7c 6b 3d 19 03 d0 bc
       -0.0285994 0.07369111 0.057491314 -0.025392102
000240 39 a4 77 3a b8 e5 31 3d 80 c4 5e 3c 55 42 12 bd
       0.00094467733 0.043431967 0.013596654 -0.03570779
000250 cc a8 72 bd 1e 8e 36 bd e0 72 67 bd f0 2c b8 bd
       -0.05924301 -0.044569127 -0.056506038 -0.08992946
000260 0e 3b 01 3c 2a fa c3 bd 3e 89 92 3d 33 23 01 3d
       0.007887615 -0.095691994 0.07155083 0.03152771
000270 a5 59 a0 bd 24 69 32 bc 8f 6b a6 bd fa d3 5d bd
       -0.07829598 -0.010889325 -0.08125984 -0.054157235
000280 58 94 82 3d 50 20 cc bd f5 00 65 3d 75 5e 99 bd
       0.063759506 -0.099671006 0.055909116 -0.074887194
000290 6e 48 64 bd 22 76 56 3c 20 d4 5f bd c1 d0 c6 bd
       -0.055733137 0.0130896885 -0.054645658 -0.097077854
0002a0 80 aa 38 3b 66 d7 9a 3c 99 90 40 3c 7a 94 4b bd
       0.0028177798 0.018901538 0.011753225 -0.049702145
0002b0 24 6b ad 3d bb 5e 11 3d 97 58 cc 3c 35 75 82 bd
       0.08467701 0.035490733 0.024944587 -0.06370012
0002c0 e3 89 b3 bd a1 9c 04 bc 4d 0d 4a 3c 24 76 3d bd
       -0.08766534 -0.008093984 0.012332273 -0.046255246
0002d0 ab 35 06 3d ad 86 6b bc 68 a9 8c bd a3 6d 2b 3d
       0.032766026 -0.014375371 -0.06868249 0.041852605
0002e0 9d a1 60 bc eb d3 c3 bd f4 f4 c1 bd b1 61 eb 3c
       -0.013710407 -0.095619045 -0.09470549 0.028733106
0002f0 2f 65 5b 3d f1 12 76 bd 19 fa e9 bb e0 b2 ac bd
       0.053563293 -0.060076658 -0.0071404097 -0.08432555
000300 a4 d3 54 3d ab 66 70 bd d2 c1 90 bd 3c 79 ad bc
       0.05195965 -0.05869166 -0.07068218 -0.021175973
000310 c8 a8 a0 bd 6b 7d c0 bb a6 c7 6e bd f8 ee 90 bc
       -0.078446925 -0.005874326 -0.05829587 -0.017692074
000320 22 11 45 bd 10 86 ac bd 6b fb aa bd 33 9b 28 3d
       -0.048112042 -0.08424008 -0.083487354 0.041163635
000330 f7 d9 14 3d 94 e8 bc 3c b0 df 56 3d 3b 23 f1 bc
       0.03634068 0.02306012 0.05245942 -0.029435745
000340 2d 6c 61 3d 80 00 dd 3c df 9d c4 bd d5 7e 2d bd
       0.055034805 0.026977777 -0.09600424 -0.042357285
000350 4e 75 c9 bd 6a 9f b8 3c 45 72 c2 3b d7 59 a6 bd
       -0.09836827 0.022536952 0.005934032 -0.08122604
000360 42 63 5c 3c e5 c8 48 bd ee 1d b6 bd be 31 db 3c
       0.013451399 -0.049019713 -0.088924274 0.026757117
000370 f3 20 81 bd 57 e2 c5 bd ac 9f 55 3d 72 db 3d bd
       -0.06305113 -0.096623115 0.052154228 -0.046351857
000380 b9 71 26 bd e8 2c b6 3c f7 f6 4d bd c0 3a 58 3d
       -0.040635798 0.02223821 -0.050284352 0.052790403
000390 ab a0 44 bc 4a cb 95 bd 6a 76 a7 bc cf ee 86 3d
       -0.012001197 -0.07314165 -0.020442206 0.06588518
0003a0 93 d2 a1 bd d3 33 2c bd bf 7c 93 bd 14 be a0 bc
       -0.07901492 -0.04204161 -0.07201528 -0.019621886
0003b0 bc 79 88 bd 87 41 aa bc d0 5a 4d bc 5c 3b e7 3c
       -0.06663844 -0.020783199 -0.012533858 0.028226547
0003c0 b0 e7 09 be 61 a3 85 3e 43 5d 1c 3e 9a 3f 7c 3e
       -0.13467288 0.2610121 0.15269952 0.24633637
0003d0 39 cf 53 3e f2 ae 60 3e 1d 77 de 3d 54 cb 42 be
       0.20684518 0.21941736 0.10862563 -0.19022876
0003e0 54 1f ac 3d 81 b5 df bd ce 12 a7 3e b7 63 a8 3c
       0.08404413 -0.10923291 0.32631534 0.02055536
0003f0 a2 33 22 3e a7 ab 81 3e 90 bd 05 3e 3f 9e 15 3e
       0.15840009 0.25326273 0.13060594 0.14611147

fc1.weight_fake_quant.scale f4 [84]
000000 ea 91 95 3b 1e 20 4c 3a 2e 86 90 3b b3 67 9a 3b
       0.0045645135 0.0007786768 0.0044105267 0.004712069
000010 7c 47 8b 3b a7 b9 8e 3b 8f b8 96 3b e0 4a 86 3b
       0.004250465 0.0043556276 0.004599638 0.0040982813
000020 59 b2 90 3b 4b f3 89 3b 98 d3 84 3a ab 87 8f 3b
       0.004415792 0.004209911 0.0010133861 0.0043801866
000030 ce a4 a5 3b c0 64 67 3a f2 76 a0 3b 96 36 8b 3b
       0.0050550466 0.00088269636 0.004896992 0.0042484505
000040 51 25 99 3b 2c b0 97 3b 8c 98 9a 3b e6 26 83 3b
       0.004673638 0.0046291556 0.004717892 0.00400244
000050 30 d5 ad 3b 64 36 6e 3a 2a 60 4b 3a 8e 97 8e 3b
       0.005304955 0.00090870843 0.0007758165 0.004351563
000060 56 59 8f 3b 5f 55 a2 3b fe 5a 8c 3b e9 e1 86 3b
       0.0043746633 0.0049540247 0.004283308 0.004116286
000070 e3 ec 94 3b 55 62 99 3b 47 40 80 3b ad 30 9d 3b
       0.0045448407 0.0046809115 0.0039139125 0.0047970624
000080 76 66 5c 3a f0 3d 60 3a 68 39 88 3b 0e ba 86 3a
       0.0008407602 0.0008554151 0.004157234 0.0010278837
000090 81 09 90 3b 77 79 90 3b 08 27 87 3b 7d 90 99 3b
       0.004395664 0.004409011 0.004124526 0.004686414
0000a0 8e b0 55 3a 8b 92 03 3b 94 48 64 3a 57 dd 94 3b
       0.0008151614 0.002007636 0.0008708325 0.0045429873
0000b0 41 1f 9a 3b e8 56 a3 3b 75 58 8a 3b fc 40 93 3a
       0.004703433 0.0049847253 0.0042219707 0.0011234577
0000c0 dc 84 8c 3b 24 e2 9e 3b 8a 90 8b 3b f6 92 8f 3b
       0.004288299 0.0048487354 0.0042591738 0.004381533
0000d0 e6 f9 92 3b d7 3f 91 3b 7c 67 83 3b 96 81 80 3b
       0.0044853566 0.004432659 0.004010139 0.003921698
0000e0 0c 24 8b 3b a5 a5 84 3b 00 9d ce 3b 4f 70 98 3b
       0.0042462405 0.0040480667 0.006305337 0.00465206
0000f0 b2 da 93 3b 06 9a 99 3b 69 bf 85 3b 6f bd b0 3b
       0.0045121545 0.0046875505 0.0040816558 0.005393676
000100 6d 7d 8f 3b 50 5e 5d 3a 5b e5 94 3b b5 52 86 3b
       0.0043789656 0.00084445346 0.004543943 0.004099215
000110 6f a2 97 3b 34 0d 97 3b 36 6f 8a 3b a3 d2 8d 3b
       0.004627518 0.004609728 0.004224683 0.0043280884
000120 91 07 cb 3b cc 11 98 3b cc a5 89 3b 2c de 90 3b
       0.0061959703 0.0046407934 0.0042006727 0.004421016
000130 83 39 9b 3b c4 0f 94 3b 51 4e 94 3b b9 4f 82 3b
       0.0047370805 0.004518481 0.0045259376 0.003976789
000140 b4 c2 88 3b d7 46 8f 3b 32 08 9a 3b f8 92 7b 3a
       0.004173601 0.0043724584 0.004700684 0.000959679

fc1.weight_fake_quant.activation_post_process.min_val f4 [84]
000000 f0 e6 0c bf 1e 20 cc bd 2e 86 10 bf 2c 3c 16 bf
       -0.5503988 -0.09967063 -0.5645474 -0.58685565
000010 7c 47 0b bf 6a ff ef be 39 9a ee be e0 4a 06 bf
       -0.5440595 -0.46874553 -0.46602038 -0.52458
000020 30 ee 06 bf 9c 9e 06 bf 98 d3 04 be c4 04 0d bf
       -0.52707195 -0.5258577 -0.12971342 -0.55085397
000030 84 56 12 bf c0 64 e7 bd 96 b8 c0 be 96 36 0b bf
       -0.5716326 -0.112985134 -0.37640828 -0.54380167
000040 6e d2 0c bf 2c b0 17 bf 8c 98 1a bf e6 26 03 bf
       -0.5500859 -0.5925319 -0.6038902 -0.5123123
000050 62 84 26 bf 64 36 ee bd 2a 60 cb bd 8e 97 0e bf
       -0.6504575 -0.11631468 -0.09930451 -0.55700004
000060 56 59 0f bf 83 98 ee be 20 4f 0b bf e9 e1 06 bf
       -0.5599569 -0.46600732 -0.5441761 -0.5268846
000070 8a 11 ef be b0 b8 0e bf e8 a0 9c be b6 a0 0a bf
       -0.4669307 -0.5575056 -0.30591512 -0.54151475
000080 76 66 dc bd f0 3d e0 bd 68 39 08 bf 0e ba 06 be
       -0.107617304 -0.10949314 -0.53212595 -0.13156912
000090 c8 77 fe be de 64 b8 be 08 27 07 bf 70 0e 16 bf
       -0.4970076 -0.36014456 -0.5279393 -0.5861578
0000a0 8e b0 d5 bd ba 11 36 be 94 48 e4 bd 9c d6 fe be
       -0.10434066 -0.177802 -0.11146656 -0.4977311
0000b0 2c 7b e8 be 43 90 1b bf 75 58 0a bf 32 f2 f1 bd
       -0.45406473 -0.60767 -0.54041225 -0.11813773
0000c0 30 63 e8 be fc 30 1a bf 8a 90 0b bf 68 53 0b bf
       -0.45388174 -0.60230994 -0.54517424 -0.5442414
0000d0 58 81 0b bf 1a 5c f8 be 7c 67 03 bf 96 81 00 bf
       -0.5449424 -0.48507768 -0.5132978 -0.5019773
0000e0 0c 24 0b bf 66 1e 01 bf a2 75 f6 be b0 99 07 bf
       -0.5435188 -0.5043701 -0.48136622 -0.52968884
0000f0 b2 da 13 bf da 1b e0 be 69 bf 05 bf e8 7a 16 bf
       -0.5775558 -0.4377125 -0.52245194 -0.5878129
000100 c4 db e2 be 50 5e dd bd 82 2b f3 be 0d 8e 05 bf
       -0.44308293 -0.10809004 -0.4749413 -0.5216988
000110 42 96 f9 be 04 bd ef be 36 6f 0a bf 44 9c e3 be
       -0.4874745 -0.46823895 -0.54075944 -0.4445516
000120 9a 6d a0 be cc 11 18 bf 00 39 ee be 2c de 10 bf
       -0.3133362 -0.59402156 -0.46527863 -0.5658901
000130 22 d5 04 bf d8 ee 0b bf bc 82 13 bf 8a ae e9 be
       -0.51887715 -0.5466132 -0.5762136 -0.45640975
000140 b4 c2 08 bf d7 46 0f bf 52 29 16 bf 98 e2 ef bd
       -0.53422093 -0.5596747 -0.586568 -0.11713141

fc1.weight_fake_quant.activation_post_process.max_val f4 [84]
000000 c6 66 14 3f 56 6b ad 3d 06 5d 05 3f e4 32 19 3f
       0.5796932 0.08467738 0.5209507 0.5984328
000010 eb e4 ec 3e 34 9c 0d 3f 1e 8b 15 3f 06 de 01 3f
       0.462684 0.5531647 0.584154 0.50729406
000020 f4 90 0f 3f 64 df 08 3f 36 e9 be 3d 9c 68 0e 3f
       0.56080556 0.5346587 0.09321825 0.5562837
000030 84 59 24 3f 56 cb c6 3d 04 36 1f 3f 72 22 05 3f
       0.6419909 0.09706752 0.62191796 0.52005684
000040 06 f3 17 3f 84 e2 00 3f 60 14 13 3f cd 20 de 3e
       0.593552 0.50345635 0.57452965 0.433844
000050 86 79 2c 3f 72 04 bb 3d 5a 67 a4 3d ca 6c 0c 3f
       0.6737293 0.09131707 0.08027525 0.548535
000060 fa 6f 0d 3f b4 10 21 3f 48 42 0b 3f e6 af fc 3e
       0.5524899 0.6291611 0.5439801 0.4935295
000070 09 c3 13 3f 90 2f 18 3f 8d 7f fe 3e 4c f6 1b 3f
       0.57719475 0.59447575 0.4970669 0.60922694
000080 7c 02 b4 3d 92 20 cf 3d d8 54 e2 3e 82 df ea 3d
       0.08789536 0.10113634 0.44205356 0.11468412
000090 6e e9 0e 3f 84 58 0f 3f 76 6a 04 3f 5c 5d 18 3f
       0.55824935 0.5599444 0.51724946 0.59517455
0000a0 4c 50 ae 3d 66 8b 82 3e 8a 33 ae 3d 9c b3 13 3f
       0.08511409 0.25496978 0.08505924 0.5769594
0000b0 02 eb 18 3f 3a 10 22 3f 2c 90 04 3f 7a 1a 12 3e
       0.59733593 0.6330601 0.5178249 0.14267913
0000c0 d2 6b 0b 3f 60 a4 1d 3f d9 22 f8 3e d0 73 0e 3f
       0.54461396 0.6157894 0.48464087 0.55645466
0000d0 f2 d3 11 3f 57 1d 10 3f 1a 6d f3 3e dc fd fc 3e
       0.5696403 0.5629477 0.47544175 0.4941243
0000e0 2a 17 08 3f 5a 9c 03 3f c6 ff 4c 3f 6e 3f 17 3f
       0.53160346 0.5141045 0.8007778 0.5908116
0000f0 00 0c ff 3e d2 66 18 3f d6 19 00 3f f4 5b 2f 3f
       0.49813843 0.5953189 0.5003942 0.68499684
000100 72 5e 0e 3f 4c bb a7 3d 90 bb 13 3f 10 46 05 3f
       0.5561286 0.08190021 0.5770807 0.5206003
000110 2a 73 16 3f 1a df 15 3f cc 21 07 3f fe b6 0c 3f
       0.58769476 0.5854355 0.52785945 0.54966724
000120 82 71 49 3f 1e 20 0c 3f 80 92 08 3f bc ae 0b 3f
       0.78688824 0.54736507 0.5334854 0.545635
000130 10 03 1a 3f a4 e7 12 3f b4 25 13 3f 1a 4b 01 3f
       0.60160923 0.57384706 0.57479405 0.5050522
000140 38 64 07 3f 40 9c 00 3f 22 d4 18 3f d2 9b f9 3d
       0.52887297 0.5023842 0.5969869 0.121879235
