experiments/exp033/checkpoint.pth (torch, 249442 bytes, 33 tensors)

quant.activation_post_process.histogram f4 [2048]
51588.0 0.0 0.0 0.0 0.0 0.0 0.0 0.0
0.0 0.0 0.0 0.0 0.0 0.0 0.0 0.0
0.0 0.0 0.0 0.0 0.0 0.0 0.0 0.0
0.0 0.0 0.0 0.0 0.0 0.0 0.0 0.0
0.0 0.0 0.0 0.0 0.0 0.0 0.0 0.0
0.0 0.0 0.0 0.0 0.0 0.0 0.0 0.0
0.0 0.0 0.0 0.0 0.0 0.0 0.0 0.0
0.0 0.0 0.0 0.0 0.0 0.0 0.0 0.0
0.0 0.0 0.0 0.0 0.0 0.0 0.0 0.0
0.0 0.0 0.0 0.0 0.0 0.0 0.0 0.0
0.0 0.0 0.0 0.0 0.0 0.0 0.0 0.0
0.0 0.0 0.0 0.0 0.0 0.0 0.0 0.0
0.0 0.0 0.0 0.0 0.0 0.0 0.0 0.0
0.0 0.0 0.0 0.0 0.0 0.0 0.0 0.0
0.0 0.0 0.0 0.0 0.0 0.0 0.0 0.0
0.0 0.0 0.0 0.0 0.0 0.0 0.0 0.0
0.0 0.0 0.0 0.0 0.0 0.0 0.0 0.0
0.0 0.0 0.0 0.0 0.0 0.0 0.0 0.0
0.0 0.0 0.0 0.0 0.0 0.0 0.0 0.0
0.0 0.0 0.0 0.0 0.0 0.0 0.0 0.0
0.0 0.0 0.0 0.0 0.0 0.0 0.0 0.0
0.0 0.0 0.0 0.0 0.0 0.0 0.0 0.0
0.0 0.0 0.0 0.0 0.0 0.0 0.0 0.0
0.0 0.0 0.0 0.0 0.0 0.0 0.0 0.0
0.0 0.0 0.0 0.0 0.0 0.0 0.0 0.0
0.0 0.0 0.0 0.0 0.0 0.0 0.0 0.0
0.0 0.0 0.0 0.0 0.0 0.0 0.0 0.0
0.0 0.0 0.0 0.0 0.0 0.0 0.0 0.0
0.0 0.0 0.0 0.0 0.0 0.0 0.0 0.0
0.0 0.0 0.0 0.0 0.0 0.0 0.0 0.0
0.0 0.0 0.0 0.0 0.0 0.0 0.0 0.0
0.0 0.0 0.0 0.0 0.0 0.0 0.0 0.0
00000000: 0084 4947 0000 0000 0000 0000 0000 0000
00000010: 0000 0000 0000 0000 0000 0000 0000 0000
00000020: 0000 0000 0000 0000 0000 0000 0000 0000
00000030: 0000 0000 0000 0000 0000 0000 0000 0000
00000040: 0000 0000 0000 0000 0000 0000 0000 0000
00000050: 0000 0000 0000 0000 0000 0000 0000 0000
00000060: 0000 0000 0000 0000 0000 0000 0000 0000
00000070: 0000 0000 0000 0000 0000 0000 0000 0000
00000080: 0000 0000 0000 0000 0000 0000 0000 0000
00000090: 0000 0000 0000 0000 0000 0000 0000 0000
000000a0: 0000 0000 0000 0000 0000 0000 0000 0000
000000b0: 0000 0000 0000 0000 0000 0000 0000 0000
000000c0: 0000 0000 0000 0000 0000 0000 0000 0000
000000d0: 0000 0000 0000 0000 0000 0000 0000 0000
000000e0: 0000 0000 0000 0000 0000 0000 0000 0000
000000f0: 0000 0000 0000 0000 0000 0000 0000 0000
00000100: 0000 0000 0000 0000 0000 0000 0000 0000
00000110: 0000 0000 0000 0000 0000 0000 0000 0000
00000120: 0000 0000 0000 0000 0000 0000 0000 0000
00000130: 0000 0000 0000 0000 0000 0000 0000 0000
00000140: 0000 0000 0000 0000 0000 0000 0000 0000
00000150: 0000 0000 0000 0000 0000 0000 0000 0000
00000160: 0000 0000 0000 0000 0000 0000 0000 0000
00000170: 0000 0000 0000 0000 0000 0000 0000 0000
00000180: 0000 0000 0000 0000 0000 0000 0000 0000
00000190: 0000 0000 0000 0000 0000 0000 0000 0000
000001a0: 0000 0000 0000 0000 0000 0000 0000 0000
000001b0: 0000 0000 0000 0000 0000 0000 0000 0000
000001c0: 0000 0000 0000 0000 0000 0000 0000 0000
000001d0: 0000 0000 0000 0000 0000 0000 0000 0000
000001e0: 0000 0000 0000 0000 0000 0000 0000 0000
000001f0: 0000 0000 0000 0000 0000 0000 0000 0000
00000200: 0000 0000 0000 0000 0000 0000 0000 0000
00000210: 0000 0000 0000 0000 0000 0000 0000 0000
00000220: 0000 0000 0000 0000 0000 0000 0000 0000
00000230: 0000 0000 0000 0000 0000 0000 0000 0000
00000240: 0000 0000 0000 0000 0000 0000 0000 0000
00000250: 0000 0000 0000 0000 0000 0000 0000 0000
00000260: 0000 0000 0000 0000 0000 0000 0000 0000
00000270: 0000 0000 0000 0000 0000 0000 0000 0000
00000280: 0000 0000 0000 0000 0000 0000 0000 0000
00000290: 0000 0000 0000 0000 0000 0000 0000 0000
000002a0: 0000 0000 0000 0000 0000 0000 0000 0000
000002b0: 0000 0000 0000 0000 0000 0000 0000 0000
000002c0: 0000 0000 0000 0000 0000 0000 0000 0000
000002d0: 0000 0000 0000 0000 0000 0000 0000 0000
000002e0: 0000 0000 0000 0000 0000 0000 0000 0000
000002f0: 0000 0000 0000 0000 0000 0000 0000 0000
00000300: 0000 0000 0000 0000 0000 0000 0000 0000
00000310: 0000 0000 0000 0000 0000 0000 0000 0000
00000320: 0000 0000 0000 0000 0000 0000 0000 0000
00000330: 0000 0000 0000 0000 0000 0000 0000 0000
00000340: 0000 0000 0000 0000 0000 0000 0000 0000
00000350: 0000 0000 0000 0000 0000 0000 0000 0000
00000360: 0000 0000 0000 0000 0000 0000 0000 0000
00000370: 0000 0000 0000 0000 0000 0000 0000 0000
00000380: 0000 0000 0000 0000 0000 0000 0000 0000
00000390: 0000 0000 0000 0000 0000 0000 0000 0000
000003a0: 0000 0000 0000 0000 0000 0000 0000 0000
000003b0: 0000 0000 0000 0000 0000 0000 0000 0000
000003c0: 0000 0000 0000 0000 0000 0000 0000 0000
000003d0: 0000 0000 0000 0000 0000 0000 0000 0000
000003e0: 0000 0000 0000 0000 0000 0000 0000 0000
000003f0: 0000 0000 0000 0000 0000 0000 0000 0000

conv1.depthwise.weight f4 [2, 1, 5, 5]
-0.13395402 -0.1293161 -0.14809003 -0.18552452 -0.16611834 -0.049361795 0.00929485 0.06054827
0.018982122 -0.019874016 -0.38985765 -0.51391476 -0.07379324 -0.024304021 -0.46321046 -0.40193355
-0.3582451 -0.12708919 -0.10823298 -0.32962078 0.0031220857 -0.0022850786 0.0018468472 -0.0041693263
0.06076535 0.26553535 0.021558184 0.028907018 0.2101276 0.08858721 0.13028733 -0.097352624
-0.21549825 -0.17337777 -0.17615984 -0.22572578 -0.67666185 -0.24553762 -0.22318482 -0.5253915
-0.53361005 -0.32545745 -0.10523256 -0.20805748 -0.34128013 -0.07311121 -0.002486647 -0.00818329
-0.0010380901 -0.19287279
00000000: 3e2b 09be 716b 04be eaa4 17be 24fa 3dbe
00000010: ed1a 2abe 982f 4abd 6d49 183c 7601 783d
00000020: 6580 9b3c d5ce a2bc 6c9b c7be eb8f 03bf
00000030: e920 97bd 3a19 c7bc ec29 edbe 3cca cdbe
00000040: e76b b7be ab23 02be 41a9 ddbd 0ec4 a8be
00000050: e89b 4c3b 42c1 15bb e911 f23a d89e 88bb
00000060: 16e5 783d 40f4 873e ca9a b03c 69ce ec3c
00000070: b12b 573e 366d b53d 0b6a 053e d060 c7bd
00000080: 93ab 5cbe f189 31be 3f63 34be a924 67be
00000090: b639 2dbf 376e 7bbe 908a 64be 0f80 06bf
000000a0: ab9a 08bf 5ca2 a6be 2b84 d7bd 050d 55be
000000b0: 45bc aebe 54bb 95bd 04f7 22bb 3513 06bc
000000c0: 8610 88ba 7280 45be

conv1.depthwise.activation_post_process.histogram f4 [2048]
3.0 1.0458984 0.89367676 0.19084167 1.6181909 1.0215691 1.5495973 2.1313815
2.1986434 2.242669 2.563554 3.13696 2.5177875 3.7832272 3.7124956 1.6707519
2.4972696 2.6229753 2.7616234 2.2299325 8.334047 9.112175 6.6470504 8.370335
13.01802 16.139679 15.609963 15.892493 14.811617 17.234535 13.632722 12.2806425
11.949352 15.339363 14.864668 20.04546 22.207472 20.230669 22.36877 25.492037
22.310022 26.774233 28.312822 27.888044 28.46948 30.55055 34.766037 30.804855
29.371147 26.912672 32.00094 28.77867 30.952606 32.113853 38.216316 43.23403
42.63005 51.77981 47.37087 49.022713 49.489204 48.897152 57.337257 56.43615
55.773567 53.603153 63.74114 58.581852 66.645584 57.532063 61.039116 80.16974
84.06603 95.73686 101.6069 114.16739 117.74978 129.52594 130.55948 133.08752
142.22787 144.79295 144.08583 143.46286 139.2993 129.08072 138.28702 133.69646
140.64224 145.42221 155.60287 162.49489 166.403 165.12071 178.30798 178.64359
182.95132 192.85336 190.72255 202.6397 206.70714 205.22914 198.10678 193.053
203.19951 203.92625 211.19385 210.43709 220.52637 222.35931 257.41138 268.37488
276.3139 279.5466 283.82538 268.62354 273.67432 284.09097 358.6614 413.11536
458.37906 373.6537 431.15216 537.0791 592.1547 591.55273 605.36835 579.86646
541.0582 530.9186 505.332 495.83905 485.78204 469.25528 473.61853 484.71286
498.2372 498.80838 505.83627 523.57025 544.88684 574.8917 611.579 623.8807
618.3722 605.85754 615.0896 619.70514 642.93945 644.1931 644.99066 636.7957
607.78894 596.0234 611.84955 629.7958 652.075 676.15625 735.745 784.48773
821.47217 837.81604 849.78625 857.35895 831.30176 812.02057 783.8354 798.40405
793.1531 796.69666 827.4477 856.44995 906.8624 919.9614 895.9312 872.13116
842.10675 848.2719 858.39795 859.7625 863.1931 900.0385 1014.1197 1113.2131
999.66174 973.6408 1043.8928 964.54224 974.4296 980.4072 1004.143 1036.537
1076.9325 1079.2949 1091.9241 1095.2767 1092.8505 1126.2102 1140.8557 1144.5128
1147.7328 1178.2618 1203.2999 1213.2158 1221.6088 1207.1997 1216.6982 1205.0266
1204.9728 1205.0121 1222.8539 1253.305 1239.006 1263.7965 1281.9025 1290.8839
1295.3239 1313.9425 1313.8107 1323.8483 1345.9292 1357.238 1395.5994 1421.6354
1445.3141 1453.0813 1418.8527 1419.0337 1433.249 1447.6205 1460.3536 1477.4213
1490.0143 1505.2661 1513.0994 1515.9651 1532.9137 1541.311 1540.0936 1543.1771
1579.8586 1586.9125 1581.8069 1599.2076 1621.8363 1660.5312 1682.6378 1711.8312
1722.1011 1735.7965 1766.4664 1766.4884 1807.3141 1843.1262 1894.888 1925.9645
00000000: 0000 4040 00e0 853f 00c8 643f 006c 433e
00000010: e120 cf3f c7c2 823f 3459 c63f 8e68 0840
00000020: 93b6 0c40 e487 0f40 4511 2440 f4c3 4840
00000030: 6e23 2140 6520 7240 8799 6d40 33db d53f
00000040: 44d3 1f40 d4de 2740 70be 3040 37b7 0e40
00000050: 4258 0541 78cb 1141 a3b4 d440 e4ec 0541
00000060: cf49 5041 101e 8141 69c2 7941 a747 7e41
00000070: 62fc 6c41 54e0 8941 a11f 5a41 837d 4441
00000080: 8c30 3f41 086e 7541 aed5 6d41 1a5d a041
00000090: e7a8 b141 69d8 a141 3ef3 b241 b1ef cb41
000000a0: ed7a b241 a131 d641 a980 e241 b71a df41
000000b0: 7fc1 e341 8767 f441 6c10 0b42 5870 f641
000000c0: 1cf8 ea41 274d d741 f600 0042 b73a e641
000000d0: f09e f741 9674 0042 82dd 1842 a6ef 2c42
000000e0: 2c85 2a42 871e 4f42 c57b 3d42 4217 4442
000000f0: f2f4 4542 af96 4342 5a59 6542 9ebe 6142
00000100: 2218 5f42 a169 5642 edf6 7e42 d153 6a42
00000110: 8a4a 8542 d520 6642 0e28 7442 e856 a042
00000120: cf21 a842 4679 bf42 bc36 cb42 b455 e442
00000130: e37f eb42 a486 0143 3a8f 0243 6816 0543
00000140: 563a 0e43 ffca 1043 f915 1043 7e76 0f43
00000150: 9f4c 0b43 aa14 0143 7a49 0a43 4bb2 0543
00000160: 6aa4 0c43 166c 1143 569a 1b43 b17e 2243
00000170: 2b67 2643 e71e 2543 d84e 3243 c2a4 3243
00000180: 8af3 3643 76da 4043 f9b8 3e43 c3a3 4a43
00000190: 07b5 4e43 a93a 4d43 561b 4643 910d 4143
000001a0: 1333 4b43 1fed 4b43 a031 5343 e56f 5243
000001b0: c086 5c43 fc5b 5e43 a8b4 8043 fc2f 8643
000001c0: 2e28 8a43 f7c5 8b43 a6e9 8d43 d04f 8643
000001d0: 50d6 8843 a50b 8e43 a954 b343 c48e ce43
000001e0: 8530 e543 acd3 ba43 7a93 d743 1045 0644
000001f0: e709 1444 60e3 1344 9357 1744 74f7 1044
00000200: ba43 0744 caba 0444 7faa fc43 66eb f743
00000210: 1ae4 f243 ada0 ea43 2ccf ec43 3f5b f243
00000220: 5d1e f943 7967 f943 0beb fc43 7fe4 0244
00000230: c238 0844 12b9 0f44 0ee5 1844 5df8 1b44
00000240: d297 1a44 e276 1744 bcc5 1944 21ed 1a44
00000250: 20bc 2044 5c0c 2144 673f 2144 ed32 1f44
00000260: 7ef2 1744 7f01 1544 5ff6 1844 ee72 1d44
00000270: cd04 2344 000a 2944 aeef 3744 371f 4444
00000280: 385e 4d44 3a74 5144 5272 5444 f956 5644
00000290: 50d3 4f44 5101 4b44 77f5 4344 dc99 4744
000002a0: cc49 4644 962c 4744 a7dc 4e44 cc1c 5644
000002b0: 32b7 6244 88fd 6544 99fb 5f44 6508 5a44
000002c0: d586 5244 6711 5444 7899 5644 cdf0 5644
000002d0: 5ccc 5744 7702 6144 a987 7d44 d226 8b44
000002e0: 5aea 7944 0369 7344 927c 8244 b422 7144
000002f0: 7f9b 7344 101a 7544 2709 7b44 2f91 8144
00000300: d79d 8644 70e9 8644 927d 8844 dbe8 8844
00000310: 379b 8844 bac6 8c44 629b 8e44 6910 8f44
00000320: 7377 8f44 6148 9344 9969 9644 e8a6 9744
00000330: 7bb3 9844 64e6 9644 5816 9844 daa0 9644
00000340: 219f 9644 63a0 9644 53db 9844 c3a9 9c44
00000350: 31e0 9a44 7df9 9d44 e13c a044 495c a144
00000360: 5dea a144 293e a444 f139 a444 257b a544
00000370: bc3d a844 9ea7 a944 2e73 ae44 55b4 b144
00000380: 0daa b444 9aa2 b544 495b b144 1461 b144
00000390: f827 b344 dbf3 b444 518b b644 7bad b844
000003a0: 7540 ba44 8428 bc44 2e23 bd44 e27e bd44
000003b0: 3d9d bf44 f4a9 c044 ff82 c044 abe5 c044
000003c0: 7a7b c544 335d c644 d2b9 c544 a5e6 c744
000003d0: c3ba ca44 0091 cf44 6954 d244 99fa d544
000003e0: 3c43 d744 7df9 d844 edce dc44 a1cf dc44
000003f0: 0dea e144 0a64 e644 6adc ec44 ddbe f044

conv1.pointwise.weight f4 [6, 2, 1, 1]
-0.7414942 -0.2272428 1.9909775 0.72553277 -0.6681136 -0.3493784 1.54876 0.5806764
-0.6839481 0.56949997 -0.09657115 -0.36942834
00000000: 90d2 3dbf 56b2 68be 5ad8 fe3f 84bc 393f
00000010: 7e09 2bbf bae1 b2be c53d c63f 35a7 143f
00000020: 3917 2fbf c0ca 113f 18c7 c5bd b625 bdbe

conv1.pointwise.activation_post_process.histogram f4 [2048]
1.0 0.0 0.28125 0.71875 0.0 0.0 0.0 0.0
0.0 0.0 0.0 0.0 0.34848452 1.4113415 1.9341372 1.5067556
1.3414121 0.9025104 0.39176345 0.20597447 0.45571572 1.2540139 2.2000422 3.6111925
5.017116 4.2509236 2.3885512 2.0099936 1.7355585 2.8668103 4.257075 5.429619
5.404873 3.500764 3.0704823 2.635371 2.190313 1.9524593 2.2549887 2.0502195
1.9069315 1.9930621 2.930722 5.2021804 5.2308626 5.4079275 4.1189 4.174062
4.509419 4.569142 5.654476 4.084462 4.7518888 9.74758 4.7943273 3.3489115
5.18044 8.504894 8.516715 4.9164186 4.2543797 5.4556317 6.228069 5.1245136
4.87719 5.3421025 6.8826866 7.318643 7.361948 6.3483424 9.621833 8.670471
5.634972 4.233994 4.940531 6.6943917 9.190782 7.1140876 6.3899965 6.348372
5.080484 4.6499543 6.974903 10.041446 8.008932 6.734086 9.492588 9.820063
10.474636 9.817382 8.351248 8.1754265 9.617987 10.405039 12.423441 13.136812
12.05493 11.708966 11.2703 13.252697 11.032898 12.369138 11.630567 11.772707
15.917299 15.538413 13.673674 15.700837 16.061535 17.815277 19.842455 19.190191
20.130821 19.266665 16.929514 17.829878 20.92613 23.333448 20.766466 20.885633
22.122934 24.072342 26.49395 22.401907 25.690847 27.151728 26.638807 22.539871
23.263216 22.740946 26.812532 30.793324 29.790333 29.019802 30.484043 33.21305
26.844358 28.358763 25.42258 26.560278 29.589844 30.769655 31.968243 31.405056
33.885136 32.269325 33.062996 33.87142 35.152676 33.867027 34.520466 39.73524
40.806496 42.18095 41.4173 46.067947 45.483772 44.78516 39.113655 44.192513
46.26964 44.944744 44.20489 44.021297 45.035717 50.62048 49.506866 51.609623
51.028408 53.940998 56.897167 52.511063 53.228813 55.697952 57.590336 55.71921
62.60458 63.003887 61.29337 57.379383 59.4624 57.142982 66.1202 72.205864
75.15057 75.85131 79.15232 74.09758 75.2291 76.75527 74.8664 80.60385
72.33587 75.96882 79.630424 80.007996 83.71287 80.71699 90.01604 83.41854
85.56811 89.08316 86.41236 95.96104 94.67209 90.74809 94.808174 91.93005
98.885185 110.79804 98.9159 100.78137 96.74167 100.74166 104.70719 112.8828
113.48402 116.32326 114.47156 114.33386 128.2554 111.112885 116.98209 114.90282
112.474525 124.49599 125.63963 122.99474 127.27792 130.73988 136.07832 137.96649
141.08205 137.92343 151.528 153.67593 152.63795 153.72218 156.071 149.62138
148.36482 146.6972 145.17632 144.9326 156.25044 156.98741 161.20499 160.87569
160.49304 168.05524 174.81036 173.62775 183.484 183.42354 183.29349 186.02745
00000000: 0000 803f 0000 0000 0000 903e 0000 383f
00000010: 0000 0000 0000 0000 0000 0000 0000 0000
00000020: 0000 0000 0000 0000 0000 0000 0000 0000
00000030: 906c b23e d7a6 b43f cf91 f73f 5edd c03f
00000040: 64b3 ab3f ec0a 673f 3895 c83e f9ea 523e
00000050: 9253 e93e 8783 a03f 7ecd 0c40 c71d 6740
00000060: 378c a040 9107 8840 06de 1840 bca3 0040
00000070: c826 de3f d279 3740 f539 8840 70bf ad40
00000080: b8f4 ac40 840c 6040 c882 4440 eba9 2840
00000090: 172e 0c40 30ea f93f bc51 1040 cc36 0340
000000a0: 5516 f43f a91c ff3f f390 3b40 4378 a640
000000b0: 3a63 a740 be0d ad40 07ce 8340 ea91 8540
000000c0: 294d 9040 6936 9240 78f1 b440 eab3 8240
000000d0: 790f 9840 16f6 1b41 216b 9940 9154 5640
000000e0: 2ac6 a540 0c14 0841 7744 0841 4d53 9d40
000000f0: e123 8840 8994 ae40 574c c740 04fc a340
00000100: f111 9c40 81f2 aa40 f83e dc40 5332 ea40
00000110: 1495 eb40 9f25 cb40 07f3 1941 40ba 0a41
00000120: b151 b440 e17c 8740 d418 9e40 7538 d640
00000130: 710d 1341 9ba6 e340 da7a cc40 dd25 cb40
00000140: 5393 a240 6dcc 9440 6832 df40 c3a9 2041
00000150: 9624 0041 a27d d740 a4e1 1741 fa1e 1d41
00000160: 1c98 2741 ff13 1d41 b69e 0541 8cce 0241
00000170: 46e3 1941 0a7b 2641 6ac6 4641 6230 5241
00000180: fee0 4041 ed57 3b41 2653 3441 0c0b 5441
00000190: c086 3041 fde7 4541 cd16 3a41 025d 3c41
000001a0: 42ad 7e41 579d 7841 5ec7 5a41 a136 7b41
000001b0: 067e 8041 b085 8e41 59bd 9e41 8385 9941
000001c0: ec0b a141 2122 9a41 a56f 8741 97a3 8e41
000001d0: b768 a741 e7aa ba41 b921 a641 c715 a741
000001e0: c5fb b041 2894 c041 9cf3 d341 1b37 b341
000001f0: db86 cd41 bd36 d941 471c d541 a851 b441
00000200: 111b ba41 75ed b541 1180 d641 ba58 f641
00000210: 9a52 ee41 8e28 e841 52df f341 2ada 0442
00000220: 3fc1 d641 bfde e241 7261 cb41 737b d441
00000230: 00b8 ec41 4128 f641 f6be ff41 8e3d fb41
00000240: 618a 0742 ca13 0142 8240 0442 567c 0742
00000250: 579c 0c42 d677 0742 f514 0a42 e3f0 1e42
00000260: da39 2342 4bb9 2842 51ab 2542 9445 3842
00000270: 62ef 3542 0124 3342 6274 1c42 22c5 3042
00000280: 1d14 3942 6bc7 3342 cfd1 3042 cf15 3042
00000290: 9324 3442 5f7b 4a42 0807 4642 4170 4e42
000002a0: 171d 4c42 95c3 5742 b396 6342 540b 5242
000002b0: 4eea 5442 b4ca 5e42 815c 6642 79e0 5e42
000002c0: 176b 7a42 fb03 7c42 692c 7542 7d84 6542
000002d0: 7fd9 6d42 6a92 6442 8b3d 8442 6769 9042
000002e0: 184d 9642 dfb3 9742 fd4d 9e42 f631 9442
000002f0: 4d75 9642 b382 9942 99bb 9542 2c35 a142
00000300: f7ab 9042 09f0 9742 c742 9f42 1804 a042
00000310: fd6c a742 196f a142 3608 b442 4bd6 a642
00000320: df22 ab42 942a b242 21d3 ac42 0dec bf42
00000330: 1c58 bd42 067f b542 c99d bd42 30dc b742
00000340: 37c5 c542 9998 dd42 f1d4 c542 1090 c942
00000350: bc7b c142 bb7b c942 156a d142 fec3 e142
00000360: d1f7 e242 82a5 e842 70f1 e442 f0aa e442
00000370: 6241 0043 cc39 de42 d5f6 e942 3ece e542
00000380: f5f2 e042 f2fd f842 7e47 fb42 4ffd f542
00000390: 4c8e fe42 69bd 0243 0d14 0843 6cf7 0943
000003a0: 0115 0d43 66ec 0943 2b87 1743 0aad 1943
000003b0: 51a3 1843 e1b8 1943 2d12 1c43 139f 1543
000003c0: 655d 1443 7cb2 1243 232d 1143 bfee 1043
000003d0: 1d40 1c43 c7fc 1c43 7a34 2143 2de0 2043
000003e0: 387e 2043 240e 2843 74cf 2e43 b4a0 2d43
000003f0: e77b 3743 6d6c 3743 224b 3743 0707 3a43

conv2.depthwise.weight f4 [6, 1, 5, 5]
-0.05416263 -0.17317887 -0.14947389 0.170169 0.13016838 -0.32530716 -0.114995904 -0.068693556
-0.15125513 0.04708909 -0.29280034 0.014942374 0.018314082 -0.15417694 -0.10377778 -0.23996842
0.17721486 0.28987834 0.27391896 0.040292308 -0.36836654 -0.31567883 -0.26705423 -0.044510413
-0.23533386 -0.42656425 -0.15158 -0.17165834 -0.39056253 -0.28591862 -0.4544461 -0.3339345
-0.28614634 -0.32099834 -0.23868938 -0.5670249 -0.5463 -0.45804927 -0.032790493 -0.33926505
-0.5646161 -0.22868359 -0.10694092 0.08448182 0.015950153 -0.8311421 -0.58793 -0.48724744
-0.4096864 -0.52433497 0.16379842 0.12251514 0.14006397 -0.0070585953 0.23531613 -0.009102318
0.033075705 0.114275195 -0.021196334 0.17643702 -0.19009712 0.004205952 -0.1401922 0.2619601
0.22004718 -0.20373677 -0.16434073 -0.21581367 -0.18109383 -0.10771781 -0.051525775 0.1868129
-0.18877801 0.15455234 -0.31367278 -0.32061824 -0.19915189 -0.1534477 -0.41538525 0.049287315
-0.518965 -0.43376207 -0.3980053 -0.19242485 -0.18317223 -0.81135255 -0.34303516 -0.29509243
-0.16752313 -0.07375217 -0.55136466 -0.10248073 0.094379 0.10757017 0.13587567 -0.67213154
-0.34855503 -0.607631 -0.33501202 -0.60100776 0.10289249 0.09520859 0.16760513 0.07750643
0.3946409 0.16738667 0.008676492 0.28013837 0.04536604 0.03767285 0.13360827 0.091107965
-0.07650006 -0.03643926 -0.011545708 0.25464445 0.11777279 0.14058445 0.10676029 0.14417116
0.017721543 -0.009050621 -0.050360195 -0.12943585 0.12640841 0.043907918 -0.0053872745 0.089068465
0.113007925 0.024556441 0.07968614 0.19558172 -0.061448928 -0.07672163 0.051337577 0.03286467
-0.0023058967 -0.08563617 -0.08307209 -0.035575554 -0.345719 0.08092606 -0.07262096 -0.22532165
-0.36588973 -0.23542856 -0.11260881 -0.075114846 -0.34168097 -0.5417644
00000000: a2d9 5dbd cd55 31be af0f 19be c840 2e3e
00000010: dc4a 053e a98e a6be f982 ebbd 35af 8cbd
00000020: a0e2 1abe 7de0 403d ede9 95be dcd0 743c
00000030: 6a07 963c 8fe0 1dbe 7289 d4bd 48ba 75be
00000040: d077 353e ef6a 943e 1b3f 8c3e 8c09 253d
00000050: 8a9a bcbe a8a0 a1be 55bb 88be 8d50 36bd
00000060: 5cfb 70be a166 dabe ca37 1bbe 34c7 2fbe
00000070: d0f7 c7be ed63 92be 29ad e8be 76f9 aabe
00000080: c681 92be e559 a4be fd6a 74be 8b28 11bf
00000090: 51da 0bbf 6f85 eabe 534f 06bd 26b4 adbe
000000a0: ae8a 10bf 082c 6abe d703 dbbd ce04 ad3d
000000b0: e5a9 823c bbc5 54bf 9582 16bf 7f78 f9be
000000c0: 6ac2 d1be d13a 06bf c6ba 273e 38e9 fa3d
000000d0: ee6c 0f3e ca4b e7bb b6f6 703e e421 15bc
000000e0: 647a 073d 1d09 ea3d efa3 adbc e8ab 343e
000000f0: d2a8 42be 15d2 893b 8b8e 0fbe a21f 863e
00000100: 0c54 613e 5fa0 50be f048 28be 42fe 5cbe
00000110: a970 39be 289b dcbd b10c 53bd e14b 3f3e
00000120: 064f 41be f842 1e3e b899 a0be 1328 a4be
00000130: 79ee 4bbe 6521 1dbe 60ad d4be 7fe1 493d
00000140: e4da 04bf 1016 debe 5ac7 cbbe 050b 45be
00000150: 8091 3bbe cdb4 4fbf 4ea2 afbe 5b16 97be
00000160: 2f8b 2bbe 610b 97bd 3c26 0dbf 6be1 d1bd
00000170: c749 c13d c04d dc3d fe22 0b3e d010 2cbf
00000180: ce75 b2be b58d 1bbf b286 abbe a5db 19bf
00000190: 4cb9 d23d b9fc c23d aea0 2b3e b1bb 9e3d
000001a0: 5f0e ca3e 6967 2b3e d827 0e3c 4c6e 8f3e
000001b0: bed1 393d d94e 1a3d 9bd0 083e d096 ba3d
000001c0: 10ac 9cbd 5541 15bd 362a 3dbc c260 823e
000001d0: dc32 f13d 5ff5 0f3e 24a5 da3d 9ba1 133e
000001e0: c52c 913c 0e49 14bc 7e46 4ebd d58a 04be
000001f0: 3571 013e cad8 333d bc87 b0bb 8769 b63d
00000200: b370 e73d 972a c93c 7d32 a33d 9346 483e
00000210: dfb1 7bbd 3b20 9dbd 5a47 523d 1b9d 063d
00000220: 871e 17bb 0462 afbd b321 aabd acb7 11bd
00000230: 1502 b1be 90bc a53d 4cba 94bd b8ba 66be
00000240: e655 bbbe 2f14 71be 739f e6bd d0d5 99bd
00000250: cff0 aebe 12b1 0abf

conv2.depthwise.activation_post_process.histogram f4 [2048]
1.0 0.0 0.0 0.0 0.0 0.0 0.0 0.0
0.0 0.0 0.0 0.8359375 0.1640625 0.0 0.0 0.0
0.0 0.0 0.0 0.0 0.0 0.0 0.0 0.0
0.0 0.0 0.0 0.0 0.08325195 0.8953247 0.02142334 0.0
0.0 1.0 0.0 0.0 0.0 0.0 0.0 0.0
0.0 0.0 0.0 0.0 0.0 0.0 1.0 0.0
0.0 0.0 0.0 0.03474474 0.27874708 0.5518956 1.7140803 0.42053223
0.0 0.2166748 1.1894531 1.2548218 0.3390503 0.0 0.0 0.0
0.0 0.0 0.0 0.0 0.2043457 0.6012573 0.3937497 0.56398904
0.21793324 0.018488172 0.00023651123 0.0 0.0 0.035727024 0.35157204 0.91442156
0.69828033 0.0 0.0 0.0 0.016446866 0.57508695 2.021581 0.35521126
0.048763976 0.4500875 0.54817855 0.24481197 1.6041075 2.2474055 0.8437335 0.05903346
0.1428893 0.40034714 0.6313191 1.0187911 0.708383 0.08382202 4.8894435e-07 0.11375535
0.50038856 0.83733475 1.0197264 0.4997653 0.029029151 -8.3811756e-07 -1.1052471e-06 0.249462
0.5705823 0.39685613 0.31961897 0.29720232 0.13652825 0.35479942 0.5083241 0.16662638
8.2332554e-07 0.3856826 0.54391646 0.48909336 0.40845117 0.15490513 0.5970695 0.8627563
0.45022988 0.19546938 1.1759546 1.6977822 1.214621 0.66235083 0.48543856 0.6809147
1.1880386 1.2907457 1.9222147 1.2337043 1.4232825 0.36766118 0.6791923 1.0352442
0.74830025 1.4161209 1.3612635 2.412768 1.9411175 0.8343018 0.434285 0.43833128
0.41508234 0.5988301 0.967362 2.0330415 0.963222 1.2107217 1.0643688 0.2057529
0.64296234 1.286071 1.9214516 2.8030996 1.8336872 0.7074744 0.4361795 0.23817466
0.28073996 0.55328315 1.2715495 2.0180812 1.4451084 0.9975225 0.8207844 0.8243237
1.2496501 1.6589837 2.2223556 1.3439792 1.255481 1.0716305 1.1510603 1.7957697
0.7765346 1.3822474 0.6517638 0.9497379 2.5119448 1.415097 1.0602661 1.4469593
1.8543379 3.0733004 1.7207568 1.4582452 1.3837687 1.5532889 1.902104 1.4212654
0.77544534 0.9803291 0.6273193 1.597343 1.0231134 1.4984596 1.2220008 1.2408358
1.2019472 1.3835027 2.7179692 3.7133424 2.641306 1.2098588 0.44547224 1.2883801
1.5767019 1.1488696 1.6314387 1.8697952 2.2646995 2.9104815 2.4168513 1.9595301
2.7074037 3.0300682 2.0123866 0.98803943 1.1346012 1.6644142 1.6933444 1.5477021
1.5641038 0.8533149 2.6292028 1.228999 1.0369712 0.5704018 1.5821613 0.8097369
1.0827693 1.3008696 2.2527578 2.5888093 2.0818055 2.0977492 0.58386445 0.90830904
1.1867096 1.3897543 1.3153254 0.9982593 1.5959072 1.9421831 3.369154 2.508103
00000000: 0000 803f 0000 0000 0000 0000 0000 0000
00000010: 0000 0000 0000 0000 0000 0000 0000 0000
00000020: 0000 0000 0000 0000 0000 0000 0000 563f
00000030: 0000 283e 0000 0000 0000 0000 0000 0000
00000040: 0000 0000 0000 0000 0000 0000 0000 0000
00000050: 0000 0000 0000 0000 0000 0000 0000 0000
00000060: 0000 0000 0000 0000 0000 0000 0000 0000
00000070: 0080 aa3d 0034 653f 0080 af3c 0000 0000
00000080: 0000 0000 0000 803f 0000 0000 0000 0000
00000090: 0000 0000 0000 0000 0000 0000 0000 0000
000000a0: 0000 0000 0000 0000 0000 0000 0000 0000
000000b0: 0000 0000 0000 0000 0000 803f 0000 0000
000000c0: 0000 0000 0000 0000 0000 0000 8050 0e3d
000000d0: f0b7 8e3e 0849 0d3f fc66 db3f 0050 d73e
000000e0: 0000 0000 00e0 5d3e 0040 983f 009e a03f
000000f0: 0098 ad3e 0000 0000 0000 0000 0000 0000
00000100: 0000 0000 0000 0000 0000 0000 0000 0000
00000110: 0040 513e 00ec 193f 9099 c93e 9661 103f
00000120: e429 5f3e 8274 973c 0000 7839 0000 0000
00000130: 0000 0000 8056 123d 4001 b43e 8817 6a3f
00000140: 80c2 323f 0000 0000 0000 0000 0000 0000
00000150: 94bb 863c e638 133f 9561 0140 40de b53e
00000160: bcbc 473d de71 e63e 6e55 0c3f fdaf 7a3e
00000170: 6553 cd3f 7ed5 0f40 ebfe 573f 12cd 713d
00000180: 9351 123e 4dfa cc3e 219e 213f bf67 823f
00000190: 9758 353f e1aa ab3d 0040 0335 91f8 e83d
000001a0: 7719 003f 925b 563f 6586 823f 3de1 ff3e
000001b0: 8bce ed3c 00fb 60b5 0058 94b5 f772 7f3e
000001c0: ae11 123f ba30 cb3e 19a5 a33e e72a 983e
000001d0: 10ce 0b3e 45a8 b53e 8721 023f 1ba0 2a3e
000001e0: 8002 5d35 3178 c53e 1c3e 0b3f 726a fa3e
000001f0: 8320 d13e 739f 1e3e 8cd9 183f 99dd 5c3f
00000200: 8884 e63e 2029 483e ae85 963f ed50 d93f
00000210: b378 9b3f d38f 293f 678b f83e 6d50 2e3f
00000220: a611 983f 2837 a53f 220b f63f 06ea 9d3f
00000230: 1f2e b63f 163e bc3e 8cdf 2d3f e282 843f
00000240: 9b90 3f3f 7343 b53f e23d ae3f ca6a 1a40
00000250: 8a76 f83f ce94 553f 9b5a de3e f56c e03e
00000260: ac85 d43e ee4c 193f 09a5 773f 5a1d 0240
00000270: b895 763f eef8 9a3f 3d3d 883f e3b0 523e
00000280: 2e99 243f f99d a43f 20f2 f53f fc65 3340
00000290: 43b6 ea3f 0b1d 353f eb52 df3e 0fe4 733e
000002a0: 26bd 8f3e f7a3 0d3f 22c2 a23f 3e28 0140
000002b0: 50f9 b83f a25d 7f3f ed1e 523f e106 533f
000002c0: 89f4 9f3f 9459 d43f 133b 0e40 8307 ac3f
000002d0: 9ab3 a03f 302b 893f f255 933f c8db e53f
000002e0: f9ca 463f 7ced b03f fed9 263f 0622 733f
000002f0: b4c3 2040 e621 b53f cdb6 873f f635 b93f
00000300: f25a ed3f f4b0 4440 c241 dc3f c7a7 ba3f
00000310: 551f b13f 2cd2 c63f 2578 f33f 06ec b53f
00000320: 9683 463f d9f6 7a3f ff97 203f bc75 cc3f
00000330: 61f5 823f 86cd bf3f 866a 9c3f b5d3 9e3f
00000340: 68d9 993f 9e16 b13f 35f3 2d40 67a7 6d40
00000350: 280b 2940 a7dc 9a3f f014 e43e a4e9 a43f
00000360: 5ed1 c93f 290e 933f fcd2 d03f 7355 ef3f
00000370: d6f0 1040 5445 3a40 b1ad 1a40 e2d1 fa3f
00000380: 1a46 2d40 a3ec 4140 f1ca 0040 27f0 7c3f
00000390: 9d3a 913f 860b d53f 82bf d83f 1a1b c63f
000003a0: 8e34 c83f d872 5a3f dc44 2840 d74f 9d3f
000003b0: 79bb 843f da05 123f 4384 ca3f eb4a 4f3f
000003c0: 2f98 8a3f e582 a63f 2f2d 1040 0daf 2540
000003d0: 4d3c 0540 8641 0640 2478 153f f186 683f
000003e0: 1ae6 973f 78e3 b13f 955c a83f ec8d 7f3f
000003f0: b046 cc3f 7599 f83f 38a0 5740 c284 2040

conv2.pointwise.weight f4 [16, 6, 1, 1]
-0.025340624 -0.551859 -0.8229889 -0.35531834 -0.0944635 -0.040250685 -0.26772594 1.1214696
0.15210724 0.97319144 -0.12406135 -0.21581468 -0.019024145 0.070916176 0.43577686 -0.26238668
0.093157485 -0.40793407 -0.30773872 0.79361683 -0.020472713 0.5345361 -0.18678716 -0.2070757
0.30112442 0.0718476 -0.49654585 0.31132403 0.13967185 -0.39254346 -0.020253064 -0.32909516
0.4461277 0.48995048 0.6360683 0.15668632 -0.32714885 0.10440165 0.22019851 0.33316156
-0.3626252 -0.108364224 0.17672588 -0.43351632 0.15636046 -0.7894493 0.022478854 -0.4691303
0.08458738 -0.06581486 0.21306916 -0.17052887 0.14869942 -0.37657055 0.33510277 -0.47582167
0.08824676 -0.21223147 0.20398286 0.39470398 0.16850917 0.06667319 0.35461923 -0.5408824
0.43013614 0.13826327 -0.3008891 -0.02235529 -0.35593933 -0.014713414 0.003559661 -0.20573668
-0.39080563 1.3733265 -0.061142027 1.4464535 -0.06817246 -0.22996923 -0.14261867 -0.14321674
-0.10358114 -0.32555494 0.31680152 0.28195497 0.24043535 0.45240957 0.49745676 0.5242804
-0.07076838 0.13378716 -0.083935395 0.50307745 0.41041765 0.21659534 -0.25476763 0.60669154
00000000: 2497 cfbc a246 0dbf 67af 52bf 49ec b5be
00000010: 1476 c1bd e7dd 24bd 6013 89be 518c 8f3f
00000020: 00c2 1b3e 1323 793f e113 febd 86fe 5cbe
00000030: 86d8 9bbc 803c 913d 251e df3e 8c57 86be
00000040: 5ac9 be3d bcdc d0be ee8f 9dbe 792a 4b3f
00000050: 64b6 a7bc 5cd7 083f 2245 3fbe a70b 54be
00000060: fb2c 9a3e d624 933d 423b febe dd65 9f3e
00000070: 2306 0f3e 75fb c8be c1e9 a5bc 297f a8be
00000080: da6a e43e cada fa3e 5fd5 223f 6172 203e
00000090: 0e80 a7be 88d0 d53d b87b 613e 2794 aa3e
000000a0: 03aa b9be 10ee ddbd a1f7 343e daf5 ddbe
000000b0: f51c 203e 5919 4abf 9325 b83c d931 f0be
000000c0: 263c ad3d f1c9 86bd cd2e 5a3e 1f9f 2ebe
000000d0: a944 183e dbcd c0be 9792 ab3e e69e f3be
000000e0: b8ba b43d 3553 59be e2e0 503e a416 ca3e
000000f0: ab8d 2c3e f48b 883d a790 b53e 4577 0abf
00000100: ce3a dc3e e394 0d3e 230e 9abe 7122 b7bc
00000110: ae3d b6be 8810 71bc 3449 693b a3ac 52be
00000120: ad17 c8be 2ac9 af3f 1070 7abd 6325 b93f
00000130: 019e 8bbd 0e7d 6bbe a10a 12be 69a7 12be
00000140: 5922 d4bd 23af a6be cf33 a23e 675c 903e
00000150: af34 763e 3aa2 e73e a7b2 fe3e 3e37 063f
00000160: 03ef 90bd 80ff 083e 52e6 abbd afc9 003f
00000170: 4322 d23e 2bcb 5d3e e770 82be 2350 1b3f

conv2.pointwise.activation_post_process.histogram f4 [2048]
1.0 0.0 1.0 0.0 0.0 0.0 0.0 0.0
0.0 0.71875 0.28125 1.0 0.7421875 0.2578125 0.0 0.0
0.0 1.0 0.0 0.796875 0.203125 0.0 0.08331299 0.76226807
0.15441895 0.0 0.113098145 2.6243286 0.4606862 1.3149104 0.9998312 0.4457159
0.04142952 0.90625 0.20489404 0.65889245 0.86795396 0.34322643 0.0931364 0.36941284
0.41573495 0.29176426 0.56857777 0.27598858 0.29411417 1.0046511 0.61731005 0.39595413
0.6994629 0.33600032 1.0099884 1.4217982 1.7193722 0.6366581 0.72829884 0.7610612
0.35690072 0.36298272 0.52965736 0.13009757 0.005695997 0.07056751 0.31256926 1.4237516
0.1680958 0.019182403 -3.882451e-07 0.0014952837 0.20651197 1.0440619 0.822821 1.1479481
0.6379132 0.1310245 0.008224417 0.102720544 0.50349474 0.6787931 0.6081236 0.544541
0.3835451 0.17073752 0.09880533 0.28167558 0.57618487 0.72553754 0.63731146 0.5175968
0.4793757 0.41710111 0.46242782 0.6298464 1.4095657 0.45835653 0.6352527 0.48012522
0.20144561 0.52155185 0.80763376 0.3477011 0.43870783 0.48327726 0.48503852 0.5161576
0.6148379 0.6439809 1.5874355 0.5521864 0.61405617 0.82008743 0.71390915 0.994201
1.1683469 0.9869494 0.68100524 0.37717623 0.77705514 0.91408294 1.3722043 1.0844134
1.3359547 0.18449566 0.51034915 1.5426127 1.0469848 0.9495794 0.71145993 0.55637443
0.74776876 0.5434669 0.45252898 0.5413036 4.2816496 2.026958 1.8417628 1.0424272
1.2055725 1.5555755 2.8481977 3.5796106 4.530584 2.7290509 2.3467567 1.5637814
3.5109885 2.5186067 2.494698 3.886942 3.272986 2.2494276 3.1403751 3.627652
1.8933777 1.559523 1.492868 1.9330537 2.1378944 3.6777422 3.1434143 2.646756
2.1691608 0.91374075 1.5727515 2.2644384 1.3511231 1.7933811 2.281489 2.3047712
2.02257 2.6408894 4.754974 3.6625168 2.8461912 2.9387121 2.2091448 2.2032466
2.148894 5.131564 4.9078293 4.197671 4.3389935 3.252279 4.072521 3.2473292
1.9891328 1.7496059 1.6916924 1.883032 3.0487142 2.0801883 2.0440986 2.3481164
2.5545263 2.9002094 2.0359344 1.0374761 2.091366 2.9587588 4.3700037 2.7291808
4.139686 3.7861311 3.4393106 3.5857816 1.5246491 1.2563794 2.1437163 3.3434088
2.6584048 3.245099 4.671026 4.3356924 5.045035 5.8998165 4.2771573 3.660742
4.794688 5.638691 3.4974954 2.8638206 3.986454 4.146863 5.0580263 3.9233234
3.3778138 2.9429498 2.6942735 2.7549965 3.2403688 4.1865335 5.6268086 4.3256545
3.4566216 2.986833 4.584547 4.338531 4.279823 4.881929 6.3026247 7.3217607
6.4689856 5.050655 4.1232877 4.0763607 3.512493 1.9816782 1.570588 2.695145
4.7968526 4.8575344 4.2989516 4.2628407 4.3296866 3.7136667 3.3926616 4.3371077
00000000: 0000 803f 0000 0000 0000 803f 0000 0000
00000010: 0000 0000 0000 0000 0000 0000 0000 0000
00000020: 0000 0000 0000 383f 0000 903e 0000 803f
00000030: 0000 3e3f 0000 843e 0000 0000 0000 0000
00000040: 0000 0000 0000 803f 0000 0000 0000 4c3f
00000050: 0000 503e 0000 0000 00a0 aa3d 0024 433f
00000060: 0020 1e3e 0000 0000 00a0 e73d 00f5 2740
00000070: 10df eb3e fc4e a83f f0f4 7f3f e034 e43e
00000080: 00b2 293d 0000 683f becf 513e 2dad 283f
00000090: 3b32 5e3f 60bb af3e 4cbe be3d ae23 bd3e
000000a0: 36db d43e 2062 953e 508e 113f 604e 8d3e
000000b0: 2296 963e 6898 803f 0808 1e3f 80ba ca3e
000000c0: 0010 333f 3c08 ac3e 4d47 813f 7cfd b53f
000000d0: 6314 dc3f 06fc 223f cb71 3a3f e8d4 423f
000000e0: b1bb b63e dfd8 b93e a097 073f 4c38 053e
000000f0: 7ca5 ba3b b385 903d 1409 a03e 7e3d b63f
00000100: 4e21 2c3e 6a24 9d3c 0070 d0b4 65fd c33a
00000110: e077 533e d2a3 853f 66a4 523f f7ef 923f
00000120: 484e 233f 492b 063e b5bf 063c 265f d23d
00000130: 08e5 003f 62c5 2d3f fdad 1b3f 0a67 0b3f
00000140: 0660 c43e d1d5 2e3e 735a ca3d c837 903e
00000150: da80 133f d4bc 393f d826 233f 3981 043f
00000160: bb70 f53e 478e d53e 57c3 ec3e 9d3d 213f
00000170: a66c b43f b5ad ea3e ec9f 223f f9d2 f53e
00000180: c247 4e3e 6c84 053f 16c1 4e3f e105 b23e
00000190: 509e e03e 1e70 f73e f856 f83e e822 043f
000001a0: 0466 1d3f efdb 243f 1631 cb3f 175c 0d3f
000001b0: c932 1d3f 40f1 513f c0c2 363f f583 7e3f
000001c0: 648c 953f b7a8 7c3f 5c56 2e3f 3e1d c13e
000001d0: 16ed 463f 5701 6a3f 64a4 af3f 0fce 8a3f
000001e0: 9000 ab3f 6eec 3c3e 3ea6 023f 5574 c53f
000001f0: 9903 863f a317 733f 3d22 363f 8e6e 0e3f
00000200: c66d 3f3f a620 0b3f e1b1 e73e df92 0a3f
00000210: 4603 8940 aeb9 0140 e2be eb3f 416e 853f
00000220: 3350 9a3f 191d c73f df48 3640 5718 6540
00000230: 8bfa 9040 c5a8 2e40 4331 1640 fd29 c83f
00000240: 09b4 6040 da30 2140 22a9 1f40 a8c3 7840
00000250: 9a78 5140 9ff6 0f40 e8fb 4840 732b 6840
00000260: 335a f23f 739e c73f 4c16 bf3f 4e6e f73f
00000270: 43d3 0840 2160 6b40 b32d 4940 7364 2940
00000280: 88d3 0a40 eaea 693f ec4f c93f 8fec 1040
00000290: 9af1 ac3f 838d e53f ea03 1240 5f81 1340
000002a0: c971 0140 5504 2940 bf28 9840 ad66 6a40
000002b0: ff27 3640 dc13 3c40 a162 0d40 fe01 0d40
000002c0: 7b87 0940 c635 a440 f00c 9d40 5253 8640
000002d0: 09d9 8a40 5725 5040 1852 8240 3ed4 4f40
000002e0: e79b fe3f 16f3 df3f 6089 d83f 3107 f13f
000002f0: 221e 4340 ce21 0540 83d2 0240 8a47 1640
00000300: 5c7d 2340 089d 3940 c04c 0240 04cc 843f
00000310: f1d8 0540 4e5c 3d40 12d7 8b40 e6aa 2e40
00000320: 4f78 8440 f94f 7240 aa1d 5c40 727d 6540
00000330: b427 c33f 0ad1 a03f a632 0940 69fa 5540
00000340: 4e23 2a40 b4af 4f40 0c79 9540 febd 8a40
00000350: ed70 a140 4ccb bc40 79de 8840 9949 6a40
00000360: 166e 9940 2870 b440 f7d6 5f40 d648 3740
00000370: 1022 7f40 1ab3 8440 5adb a140 bb17 7b40
00000380: 1a2e 5840 4a59 3c40 fa6e 2c40 dd51 3040
00000390: 3462 4f40 15f8 8540 d10e b440 c36b 8a40
000003a0: 4a39 5d40 4628 3f40 9cb4 9240 3fd5 8a40
000003b0: 4ff4 8840 c338 9c40 1aaf c940 dd4b ea40
000003c0: ee01 cf40 f79e a140 f9f1 8340 8c71 8240
000003d0: afcc 6040 a2a7 fd3f 0709 c93f 417d 2c40
000003e0: d17f 9940 ec70 9b40 0391 8940 3169 8840
000003f0: cb8c 8a40 b7ac 6d40 5e21 5940 96c9 8a40

conv3.depthwise.weight f4 [16, 1, 5, 5]
-0.21968895 0.13006483 0.15164967 0.20587221 0.30432925 -0.07110775 -0.07589571 0.14904448
0.18760139 -0.22015822 0.16942051 0.16817394 0.14397825 0.16889805 -0.35731682 0.030125223
0.17454751 0.07036755 0.38147736 -0.09262193 -0.087477915 0.0802017 0.115580976 0.07619993
0.10359255 -0.05754296 0.045710683 0.1280282 -0.018266445 -0.062083654 0.042536423 0.01642257
0.1023344 -0.06294557 0.274229 -0.29480788 0.0670725 0.054487076 0.02739584 0.07338972
-0.25184005 -0.12156279 -0.13700795 0.19609159 -0.025928896 -0.2985684 -0.061524883 -0.07252334
-0.08813415 -0.11311266 0.08944398 -0.13225591 -0.040394023 -0.09782614 -0.32034785 -0.020332335
-0.124484494 -0.02122055 -0.022494528 -0.36095092 -0.13925113 0.19048013 -0.0857921 0.13354664
-0.24526674 0.010138747 0.031437654 0.2654793 0.029215638 -0.008362072 -0.1632332 0.1195936
0.20828405 0.30722228 0.32172453 -0.08348166 -0.19684587 -0.18178125 -0.0804468 -0.020072313
0.20481624 -0.026755314 0.2015271 0.07557054 0.18269186 -0.14122893 -0.0072012316 0.22280401
-0.012433429 -0.115337 -0.090469256 0.05063069 0.085053965 0.08149618 -0.15016428 0.363614
0.29106313 0.20576131 -0.053294744 0.028591802 0.47563595 0.13698363 -0.10089114 0.24177678
0.22732116 0.3489193 0.14050728 0.14511645 0.102395214 0.22874469 0.35331094 -0.06956351
0.03910565 -0.12142853 0.024779677 0.10801742 0.07065616 -0.19317584 -0.051695935 0.15772128
0.14771134 0.048486926 0.1709869 -0.077013545 0.13478884 -0.19430618 0.14671081 -0.08283585
-0.0022895543 0.095848046 -0.20274808 -0.0573751 -0.009380704 0.019450989 -0.41702408 -0.11307337
0.16561541 0.10371804 -0.082633436 0.05603154 0.070865184 -0.10728354 -0.17653632 0.067913465
-0.32526392 -0.09740059 0.15061729 -0.113907695 0.04694347 -0.33140936 0.14995581 0.12828544
-0.072731346 0.017231615 0.2594885 0.14664516 -0.11004137 -0.18922098 0.04310623 0.09946983
0.0032558895 0.056802474 0.0828147 -0.12726088 -0.12354853 0.028156744 0.11263735 0.032769237
0.2676111 0.10025135 -0.26936078 -0.020664914 -0.1701148 -0.13793512 -0.0059272964 0.006278016
0.22481474 0.1586822 0.070251524 0.13108554 0.040197097 -0.077569894 -0.21996386 -0.04991368
0.06573052 -0.03330737 -0.015290386 -0.3257438 -0.24729495 -0.19421723 -0.28783998 -0.030305685
-0.31454298 -0.2725889 -0.025401738 -0.26919726 -0.35554782 -0.41895932 -0.27321166 -0.06450384
-0.16245481 -0.09222358 -0.045750737 -0.07832052 -0.2751032 0.017128665 0.066533044 0.31297457
0.27075976 -0.121020846 -0.10161896 -0.010467453 -0.078113474 -0.04330611 0.16517477 -0.41058558
-0.31140652 -0.0068492508 -0.20395575 -0.25738916 0.01262393 0.04265895 -0.1736953 0.22532584
0.11397793 0.6179722 -0.83960205 -1.0017546 -0.08062832 -0.006925988 0.2466641 -0.09050053
-0.35389856 -0.13713364 0.0755144 -0.27679253 -0.14565408 -0.20884795 -0.25984237 0.08813866
-0.23044144 -0.016895495 0.020874435 -0.068445265 -0.1666709 -0.55044526 -0.44209036 -0.19810534
-0.47283873 -0.3394796 -0.39648846 0.054877684 0.18146636 -0.2474512 -0.55710566 -0.17664842
00000000: 24f6 60be b72f 053e 0d4a 1b3e 2ad0 523e
00000010: 0bd1 9b3e f1a0 91bd 366f 9bbd 1e9f 183e
00000020: 941a 403e 2871 61be 927c 2d3e ca35 2c3e
00000030: 096f 133e 9cf3 2c3e 3bf2 b6be 2cc9 f63c
00000040: 95bc 323e dd1c 903d 0051 c33e 91b0 bdbd
00000050: 9f27 b3bd ca40 a43d b8b5 ec3d b50e 9c3d
00000060: 5528 d43d 2bb2 6bbd 203b 3b3d d319 033e
00000070: 83a3 95bc 6e4b 7ebd ac3a 2e3d a088 863c
00000080: b394 d13d 9be9 80bd be67 8c3e 0ff1 96be
00000090: 4f5d 893d d72d 5f3d 3e6d e03c 594d 963d
000000a0: 2ef1 80be e9f5 f8bd d04b 0cbe 3ccc 483e
000000b0: d668 d4bc f5dd 98be 8401 7cbd 1e87 94bd
000000c0: ad7f b4bd 9ca7 e7bd 682e b73d 186e 07be
000000d0: 3474 25bd 1259 c8bd a204 a4be ff8f a6bc
000000e0: baf1 febd b8d6 adbc 7246 b8bc 8fce b8be
000000f0: d997 0ebe 390d 433e c5b3 afbd 73c0 083e
00000100: 3427 7bbe fd1c 263c c5c4 003d e7ec 873e
00000110: a255 ef3c 1201 09bc 9b26 27be 7ded f43d
00000120: 6a48 553e 3d4c 9d3e 14b9 a43e 6ff8 aabd
00000130: f791 49be dd24 3abe 4bc1 a4bd b16e a4bc
00000140: 59bb 513e f62d dbbc 1f5d 4e3e bac4 9a3d
00000150: 9313 3b3e 519e 10be 4ff8 ebbb bc26 643e
00000160: 95b5 4bbc ce35 ecbd f247 b9bd 2062 4f3d
00000170: c630 ae3d 78e7 a63d aac4 19be 9d2b ba3e
00000180: 3a06 953e 18b3 523e 974b 5abd 5b39 ea3c
00000190: 8e86 f33e 7045 0c3e 04a0 cebd 5594 773e
000001a0: e1c6 683e 8da5 b23e 24e1 0f3e 6899 143e
000001b0: 95b4 d13d 0c3c 6a3e 2ce5 b43e 5077 8ebd
000001c0: 3f2d 203d 85af f8bd c0fe ca3c 3d38 dd3d
000001d0: 2db4 903d e3cf 45be 1ebf 53bd b081 213e
000001e0: a441 173e 3a9a 463d 3117 2f3e 47b9 9dbd
000001f0: 1606 0a3e 33f8 46be 5c3b 163e d8a5 a9bd
00000200: 590c 16bb fb4b c43d 319d 4fbe 2702 6bbd
00000210: 86b1 19bc ae57 9f3c 2e84 d5be 0393 e7bd
00000220: 1697 293e 206a d43d b83b a9bd 5481 653d
00000230: c421 913d 79b7 dbbd f0c5 34be 3716 8b3d
00000240: fe88 a6be f679 c7bd 6b3b 1a3e 7048 e9bd
00000250: cc47 403d 7dae a9be 048e 193e 425d 033e
00000260: 2cf4 94bd 5129 8d3c addb 843e 262a 163e
00000270: 5f5d e1bd 25c3 41be 2990 303d d7b6 cb3d
00000280: c360 553b b6a9 683d c19a a93d ad50 02be
00000290: 0307 fdbd f9a8 e63c 69ae e63d 0939 063d
000002a0: 5204 893e 9450 cd3d a8e9 89be 7749 a9bc
000002b0: 9332 2ebe dd3e 0dbe c439 c2bb d1b7 cd3b
000002c0: d635 663e 967d 223e 08e0 8f3d 4a3b 063e
000002d0: b6a5 243d f7dc 9ebd 353e 61be 4972 4cbd
000002e0: b99d 863d 4f6d 08bd 8784 7abc e4c7 a6be
000002f0: e33a 7dbe e2e0 46be c35f 93be a143 f8bc
00000300: c70b a1be c690 8bbe 4e17 d0bc 39d4 89be
00000310: 5d0a b6be d681 d6be 66e2 8bbe 971a 84bd
00000320: 8e5a 26be b7df bcbd 2065 3bbd 8266 a0bd
00000330: 54da 8cbe 6a51 8c3c 7a42 883d 343e a03e
00000340: 06a1 8a3e c7d9 f7bd 9a1d d0bd ae7f 2bbc
00000350: f5f9 9fbd bf61 31bd 9323 293e 4638 d2be
00000360: ad70 9fbe ae6f e0bb c7d9 50be 83c8 83be
00000370: 9ad4 4e3c 27bb 2e3d 2edd 31be d1bb 663e
00000380: 436d e93d 6d33 1e3f 29f0 56bf 7f39 80bf
00000390: 7620 a5bd 66f3 e2bb 8495 7c3e 5858 b9bd
000003a0: 3132 b5be c36c 0cbe 4ba7 9a3d c0b7 8dbe
000003b0: 5826 15be 3ddc 55be 0f0a 85be 0b82 b43d
000003c0: d7f8 6bbe 6c68 8abc dd00 ab3c 082d 8cbd
000003d0: c7ab 2abe fbe9 0cbf ab59 e2be 20dc 4abe
000003e0: eb17 f2be 45d0 adbe 8900 cbbe 6cc7 603d
000003f0: 51d2 393e d963 7dbe 7a9e 0ebf 53e3 34be

conv3.depthwise.activation_post_process.histogram f4 [2048]
1.0 0.0 0.0 0.0 0.0 0.9296875 0.0703125 0.0
0.0 0.0 0.0 0.0 0.0 0.0 0.0 0.0
0.0 0.0 0.0 0.0 0.0 0.0 0.0 0.0
0.0 0.0 0.0 0.0 0.0 0.0 0.0 0.0
0.0 0.0 0.0 0.0 0.0 0.0 0.0 0.0
0.0 0.0 0.0 0.0 0.0 0.0 0.0 0.0
0.0 0.0 0.0 0.0 0.0 0.0 0.0 0.0
0.0 0.0 0.0 0.0 0.0 0.0 0.0 0.0
0.0 0.0 0.0 0.0 0.0 0.0 0.0 0.0
0.0 0.0 0.0 0.0 0.0 0.0 0.0051498413 0.087316036
0.35815662 0.41225192 0.13712549 0.0 0.0 0.0 0.0 0.0
0.0 0.0 0.0 0.0 0.0 0.0 0.0 0.0
0.0 0.0 0.0 0.0 0.0 0.0 0.0 0.0
0.0 0.0 0.0 0.0 0.0 0.0 0.0 0.0
0.0 0.0 0.0 0.0 0.0 0.0 0.0 0.0
0.0 0.0 0.0 0.0 0.0 0.0 0.0 0.0
0.0 0.0 0.0 0.0 0.0 0.0 1.760701e-05 0.0016285868
0.037210587 0.25501314 0.45035964 0.24111828 0.014508379 0.0001437389 3.445166e-08 1.5601472e-07
-1.3825047e-07 1.053304e-07 1.715016e-07 5.0949893e-08 -1.1423253e-09 7.774361e-09 7.769995e-08 1.9187064e-07
-9.488576e-08 -8.221468e-08 -8.534698e-09 1.01939804e-07 5.7356374e-08 7.378185e-08 1.5121623e-07 1.9575964e-08
-2.1253072e-08 -1.0732037e-09 8.011557e-08 1.831977e-07 -9.229552e-08 -6.836126e-08 1.6581907e-08 1.1596785e-07
8.26476e-08 1.1033626e-07 1.9903382e-07 5.6304998e-08 2.6739144e-08 5.8182195e-08 1.5063415e-07 4.2091415e-09
-2.1602318e-08 1.3595127e-08 1.09801476e-07 1.9809886e-07 -6.2376785e-08 -2.3424946e-08 7.65358e-08 1.61137e-07
-9.5584255e-08 -5.2878022e-08 5.0837116e-08 1.3174213e-07 -1.2122473e-07 1.6365448e-07 3.270543e-08 1.09914254e-07
9.912037e-08 1.4933539e-07 2.2140739e-08 9.565338e-08 8.861389e-08 1.425833e-07 1.9143044e-08 0.4453126
0.55468756 1.1406155e-07 2.3279426e-07 2.9891453e-07 -1.7745333e-07 -1.15975126e-07 6.511982e-09 6.893606e-08
7.3159754e-08 1.3839235e-07 2.6463385e-07 -1.5347541e-07 -1.4549732e-07 -7.651033e-08 5.3485564e-08 1.0851727e-07
1.2024975e-07 0.00015234912 0.0051755807 0.050689973 0.20032685 0.34639487 0.27916548 0.10340555
0.014517292 0.00017261332 2.2223321e-07 4.82714e-07 7.687913e-08 2.1297464e-07 4.1262138e-07 9.601334e-08
2.7660462e-07 9.510515e-08 2.5684676e-07 -1.7676857e-07 -1.9857316e-07 -2.1616566e-07 -1.3516183e-07 1.3882257e-07
3.3509332e-07 9.699477e-10 1.4746183e-07 0.00016706779 0.016127357 0.11197999 0.2840214 0.33215058
0.19145554 0.055555776 0.008004421 0.0005256022 1.217184e-05 -4.9080384e-08 1.3519241e-07 3.2127292e-07
00000000: 0000 803f 0000 0000 0000 0000 0000 0000
00000010: 0000 0000 0000 6e3f 0000 903d 0000 0000
00000020: 0000 0000 0000 0000 0000 0000 0000 0000
00000030: 0000 0000 0000 0000 0000 0000 0000 0000
00000040: 0000 0000 0000 0000 0000 0000 0000 0000
00000050: 0000 0000 0000 0000 0000 0000 0000 0000
00000060: 0000 0000 0000 0000 0000 0000 0000 0000
00000070: 0000 0000 0000 0000 0000 0000 0000 0000
00000080: 0000 0000 0000 0000 0000 0000 0000 0000
00000090: 0000 0000 0000 0000 0000 0000 0000 0000
000000a0: 0000 0000 0000 0000 0000 0000 0000 0000
000000b0: 0000 0000 0000 0000 0000 0000 0000 0000
000000c0: 0000 0000 0000 0000 0000 0000 0000 0000
000000d0: 0000 0000 0000 0000 0000 0000 0000 0000
000000e0: 0000 0000 0000 0000 0000 0000 0000 0000
000000f0: 0000 0000 0000 0000 0000 0000 0000 0000
00000100: 0000 0000 0000 0000 0000 0000 0000 0000
00000110: 0000 0000 0000 0000 0000 0000 0000 0000
00000120: 0000 0000 0000 0000 0000 0000 0000 0000
00000130: 0000 0000 0000 0000 00c0 a83b c0d2 b23d
00000140: 4e60 b73e af12 d33e a06a 0c3e 0000 0000
00000150: 0000 0000 0000 0000 0000 0000 0000 0000
00000160: 0000 0000 0000 0000 0000 0000 0000 0000
00000170: 0000 0000 0000 0000 0000 0000 0000 0000
00000180: 0000 0000 0000 0000 0000 0000 0000 0000
00000190: 0000 0000 0000 0000 0000 0000 0000 0000
000001a0: 0000 0000 0000 0000 0000 0000 0000 0000
000001b0: 0000 0000 0000 0000 0000 0000 0000 0000
000001c0: 0000 0000 0000 0000 0000 0000 0000 0000
000001d0: 0000 0000 0000 0000 0000 0000 0000 0000
000001e0: 0000 0000 0000 0000 0000 0000 0000 0000
000001f0: 0000 0000 0000 0000 0000 0000 0000 0000
00000200: 0000 0000 0000 0000 0000 0000 0000 0000
00000210: 0000 0000 0000 0000 c4b2 9337 4e76 d53a
00000220: 216a 183d 1591 823e 8a95 e63e b6e7 763e
00000230: 8db4 6d3c 9eb8 1639 00f8 1333 0085 2734
00000240: 0072 14b4 0032 e233 0026 3834 00d4 5a33
00000250: 0000 9db0 0090 0532 00dc a633 0005 4e34
00000260: 00c4 cbb3 008e b0b3 00a0 12b2 00ea da33
00000270: 0058 7633 0072 9e33 005e 2234 0028 a832
00000280: 0090 b6b2 0080 93b0 000c ac33 00b5 4434
00000290: 0034 c6b3 00ce 92b3 0070 8e32 000a f933
000002a0: 007c b133 00f2 ec33 00b6 5534 00d4 7133
000002b0: 00b0 e532 00e4 7933 00be 2134 00a0 9031
000002c0: 0090 b9b2 0090 6932 00cc eb33 00b5 5434
000002d0: 00f4 85b3 0038 c9b2 005c a433 0005 2d34
000002e0: 0044 cdb3 001c 63b3 0058 5a33 0075 0d34
000002f0: 002a 02b4 00b9 2f34 0078 0c33 000a ec33
00000300: 00dc d433 0059 2034 0030 be32 006a cd33
00000310: 004c be33 0019 1934 0070 a432 0300 e43e
00000320: 0100 0e3f 00f2 f433 00f6 7934 807a a034
00000330: 008a 3eb4 000e f9b3 00c0 df31 000a 9433
00000340: 001c 9d33 0099 1434 0013 8e34 00cb 24b4
00000350: 003a 1cb4 004e a4b3 00b8 6533 000a e933
00000360: 001e 0134 e8bf 1f39 eb97 a93b 4aa0 4f3d
00000370: 7b22 4d3e ab5a b13e c7ee 8e3e 4ac6 d33d
00000380: f0d9 6d3c 89ff 3439 009f 6e34 da93 0135
00000390: c018 a533 06ae 6434 4086 dd34 e42f ce33
000003a0: 4080 9434 9c3c cc33 c0e4 8934 c6cd 3db4
000003b0: 6037 55b4 2a1b 68b4 0021 11b4 420f 1534
000003c0: e0e6 b334 004f 8530 0056 1e34 eb2e 2f39
000003d0: 851d 843c c455 e53d 416b 913e a40f aa3e
000003e0: ec0c 443e 748e 633d fa24 033c 91c8 093a
000003f0: a835 4c37 74cc 52b3 6829 1134 6a7b ac34
