experiments/exp003/checkpoint.pth (torch, 764066 bytes, 27 tensors)

conv1.weight f4 [6, 2, 5, 5]
000000 5e eb bd bd 58 6b f3 3d 99 c0 87 3d 35 24 c0 3d
       -0.09273408 0.118857086 0.06628532 0.09381906
000010 2b f7 ed b9 a4 00 f3 bd 5d 18 fc 3d c6 4b cd bd
       -0.00045388317 -0.118653566 0.123093344 -0.10024218
000020 af 71 83 3d 3b c2 41 be 7e e5 0c 3e 8b 8a 96 bd
       0.06418168 -0.1892175 0.1375942 -0.07350644
000030 37 fb 34 3d f7 92 9a bc 23 a2 2f be 24 5f 31 3d
       0.04418489 -0.018868906 -0.17151694 0.043303624
000040 14 d7 e3 3d a9 e2 51 3d 0e 87 11 3e f6 a9 d7 3d
       0.11125007 0.05124155 0.14211676 0.10530464
000050 72 a6 50 be 29 35 3d be ee 8e 13 bd 42 f6 01 3e
       -0.20375994 -0.1847731 -0.03602498 0.12691596
000060 3c 35 e0 3d 0c 33 ee 3d 62 90 06 be 51 e4 d0 3d
       0.10947654 0.1163083 -0.13141015 0.10199798
000070 75 0c 9f bd 64 a4 d7 bd 88 2c 02 3b a3 e7 16 3e
       -0.07766048 -0.10529402 0.0019862968 0.147368
000080 24 8c ab 3d b5 56 bb 3d 1c 86 90 3c 57 75 99 3b
       0.08376339 0.091473974 0.017642073 0.0046831775
000090 e2 10 70 bd eb fd d4 bd 66 68 67 3c d7 b7 5e ba
       -0.05860985 -0.103999935 0.014124012 -0.0008496022
0000a0 2a 7f 08 3d b8 44 85 bd b8 66 60 bd 8d 29 08 bd
       0.033324398 -0.06507248 -0.05478546 -0.03324275
0000b0 8e e5 fc 3d 07 ed b3 bd 06 85 7d 3d f1 f8 86 3c
       0.123484716 -0.08785444 0.06189444 0.016476126
0000c0 89 2c 07 3e 09 99 22 3e 96 f4 97 3c f0 57 e2 3d
       0.13200583 0.15878691 0.018549245 0.11051929
0000d0 3c 48 bc 3d d6 da 1b 3e 99 bb a0 3d f7 d2 12 be
       0.09193465 0.15220198 0.078482814 -0.14338289
0000e0 37 c2 b8 3d 0f f2 55 bd 97 5b 05 bd 86 5f 17 3e
       0.090214185 -0.0522328 -0.03255805 0.14782533
0000f0 33 ee 35 3c 33 2d c8 bc ba 10 5a bd 1b 77 fb 3d
       0.011104154 -0.024435615 -0.053238608 0.12278577
000100 d5 15 78 3d c0 3e 9e 3d 2c 06 a2 3d f3 c6 d6 3d
       0.060567696 0.07726812 0.079113334 0.10487165
000110 d5 6b 2b 3c d7 97 01 be 3d 45 c5 bd 24 d0 a7 bd
       0.010462721 -0.12655579 -0.09632347 -0.081939965
000120 86 d1 c8 bc 13 c1 c5 bd fd 2f b9 bd fa 87 3e bd
       -0.024513971 -0.096559666 -0.09042356 -0.046516396
000130 a3 b6 ec 3c 50 5a e7 3d e1 d4 fd bd 5c 7f 0f be
       0.028895682 0.112965226 -0.12394119 -0.14013427
000140 ff ea 99 bc 2c be c2 3d 30 85 06 3e 83 d0 01 bd
       -0.018788813 0.09508929 0.13136744 -0.031692993
000150 53 92 b6 bb b0 33 c9 bd 8c 75 21 3d f4 f4 1b 3c
       -0.0055716424 -0.09824312 0.039418742 0.009518851
000160 65 cf 09 3e b5 97 e7 bd 8e d8 3f be 07 2a 66 bd
       0.13458021 -0.11308233 -0.18734953 -0.056192424
000170 ad 1d 98 bd d2 ea cf bc 36 e9 ff bd 95 2f 61 3c
       -0.07427535 -0.025380526 -0.12495653 0.013744255
000180 1e df 1c 3d 4c 87 91 bc 9f 2f fe 3d 4b 80 e9 bc
       0.03829872 -0.01776471 0.12411427 -0.028503558
000190 fe dc 57 bd 9e 36 ab 39 50 5d 0d 3d 6c ed 82 bd
       -0.05270099 0.00032656355 0.034512818 -0.06392941
0001a0 92 ea 29 3c 39 91 0d be 4c 3d f4 bb b9 4a 96 3d
       0.010370867 -0.1382493 -0.007453596 0.07338471
0001b0 40 e2 8c 3d 08 91 1c be 5d 1e 54 3c 12 e4 19 bd
       0.06879091 -0.152897 0.012946692 -0.03757102
0001c0 f1 d6 00 3e fd 11 25 3e b8 c9 8d bc 92 cc d6 3c
       0.12581994 0.16120143 -0.017308101 0.026220594
0001d0 27 a2 5d 3d f4 59 83 bd 1e 1d dd bd 2b 46 fd bd
       0.05410972 -0.064136416 -0.10796569 -0.12366899
0001e0 76 35 6c bb 63 fb 24 3e 33 d6 12 bd 90 a6 74 bd
       -0.0036042607 0.16111521 -0.035848808 -0.05972916
0001f0 78 c2 9d 3d 2a 5d 1d be 74 9b e3 3d 5f 6d 6f 3d
       0.077031076 -0.1536757 0.11113635 0.058453914
000200 5c 8c b3 3d 18 de f5 bd 2b 53 0b 3e 0c fe e8 bd
       0.08767006 -0.12005252 0.13605945 -0.113765806
000210 75 36 e6 bd c1 a6 f6 bd 32 e0 03 3e 0c 6f d5 3d
       -0.112408556 -0.120435245 0.12878492 0.10421571
000220 1c d3 a8 bd a3 4c c2 bd 67 cc 4b bc 03 32 08 3e
       -0.08243391 -0.094872735 -0.01243887 0.13300328
000230 b8 4e 41 3b 0a 54 27 be bd 77 56 3b 42 16 f9 3d
       0.0029496383 -0.16340652 0.0032725178 0.121624485
000240 55 8b fa 3d ae 90 07 bd a3 f9 07 be b5 2b 98 bd
       0.12233607 -0.03309696 -0.13278823 -0.074302115
000250 f3 20 bf 3d f2 08 0c 3e 89 f5 c6 3d 85 7b ea 3d
       0.093324564 0.13675287 0.09714801 0.11449341
000260 aa b0 4b bd db df 0b be fb 98 c3 bc 7e 5d ee 3c
       -0.049729027 -0.13659613 -0.023876658 0.029097315
000270 4d 68 f2 bd e5 11 96 3c f2 a5 38 3a 31 8d 45 be
       -0.118363 0.01831908 0.0007043771 -0.19292141
000280 ea 0a 62 3d f9 18 71 bc da 4a 8e 3d d3 8a ee bc
       0.05518619 -0.014715427 0.069478706 -0.02911893
000290 97 81 b7 bc db 0c 09 be e0 83 7d 3b 3b 6e 86 3d
       -0.02240066 -0.1338381 0.003868334 0.065639935
0002a0 34 11 48 3d 9d 71 94 3d b8 ad a5 3d 8a e5 68 3c
       0.04884453 0.072482325 0.08089775 0.014214883
0002b0 64 52 91 bd ac 43 44 3b bf 2a 98 bd 5b 02 ae bd
       -0.07095793 0.0029947562 -0.07430028 -0.08496543
0002c0 e1 70 e6 bd 3a 22 fd bd c9 7d 5a bd 05 8a 0a 3e
       -0.11251999 -0.12360044 -0.053342614 0.13529213
0002d0 70 67 23 3e 81 d6 d3 bd 97 44 f9 bd 7d d8 9b 3d
       0.15957427 -0.10343648 -0.121712856 0.07609651
0002e0 4c 39 c8 bc 7b 09 ed 3d cb 67 dc bd d2 76 27 bd
       -0.024441384 0.11574074 -0.107619844 -0.0408848
0002f0 98 66 20 3e a0 bc 4a 3d 90 7d d9 bd 50 b5 37 3d
       0.15664136 0.049496293 -0.10619652 0.044850647
000300 2a 79 b9 3d f7 6f 07 3e 31 9d 11 be 33 14 f3 3d
       0.09056313 0.13226305 -0.1422012 0.11869087
000310 f3 04 61 bc 6c e9 0d 3e cc c4 38 3e 68 a8 21 be
       -0.01373409 0.13858575 0.18043822 -0.15786898
000320 79 dd 8c bc 8a 39 2e be 6f 89 a0 bc 52 3a 23 3e
       -0.01719545 -0.17014137 -0.019596783 0.15940216
000330 53 8c b1 3d aa 33 e7 3d 55 17 13 be 8c 7e 74 3d
       0.08669343 0.11289151 -0.14364369 0.059690997
000340 53 26 e1 bd 77 f3 16 3e 14 8d b1 3d 3d fd 1a be
       -0.10993638 0.14741312 0.08669487 -0.15135665
000350 60 b3 d1 bd 5e f6 25 be 4d 46 bd 3d 87 e7 c7 3c
       -0.10239291 -0.16207263 0.092419244 0.024402393
000360 99 6b 3a be 8a d2 b8 3d b0 4e 63 3d 48 1c 69 3d
       -0.18205108 0.09024532 0.055494964 0.056911737
000370 72 0e 55 bd 40 2e 21 be 42 d4 5a bd 6f 50 d8 3d
       -0.05201573 -0.15740299 -0.05342508 0.105622165
000380 c1 1f 94 3c 5c d6 db 3d e3 ab 0d 3e 5f 5d 3a 3d
       0.018081548 0.10734245 0.13835101 0.045499202
000390 2d f4 23 3e f2 f9 28 3e 30 1a 64 3d d1 3a 50 3e
       0.16011114 0.16501597 0.055689037 0.20334937
0003a0 96 b5 d3 3d de a5 c8 bd 1f 02 57 3d 37 69 2e be
       0.10337369 -0.09797262 0.052492257 -0.17032324
0003b0 19 c4 31 be cd c6 96 bd 90 32 09 bd 3f 7e 05 be
       -0.17359962 -0.07362137 -0.033495486 -0.1303644
0003c0 b9 48 55 3d a1 86 c0 bc 60 e8 ae 3c 7b bf f9 bd
       0.052071307 -0.023501696 0.02135104 -0.12194725
0003d0 cc 04 e1 bc 2d a4 1d be 8a 2a 24 bd 90 88 33 3d
       -0.027468108 -0.1539466 -0.04007963 0.043831408
0003e0 45 49 d7 3d c7 87 c2 3d c2 ad 69 3d 50 dd 85 bd
       0.10512022 0.09498554 0.057050474 -0.06536353
0003f0 28 4a f1 3d ee 2a 05 bd fd 80 9a bc 42 78 af bd
       0.11781722 -0.032511644 -0.018860335 -0.08567859

conv1.weight_fake_quant.scale f4 [6]
000000 3f e9 cf 3a 3c 05 bd 3a 25 d0 a6 3a f9 51 c5 3a
       0.001586236 0.0014421116 0.0012726827 0.0015054337
000010 e2 66 ce 3a 3d 01 c0 3a
       0.0015747214 0.0014648807

conv1.weight_fake_quant.activation_post_process.min_val f4 [6]
000000 3f e9 4f be 3c 05 3d be 25 d0 26 be f9 51 45 be
       -0.2030382 -0.18459028 -0.16290338 -0.19269551
000010 74 ec 39 be bc cb 01 be
       -0.18156606 -0.12675375

conv1.weight_fake_quant.activation_post_process.max_val f4 [6]
000000 35 d7 20 3e fe f7 1a 3e b1 d8 24 3e 54 94 39 3e
       0.15707095 0.15133664 0.16098286 0.18122989
000010 14 ca 4c 3e 3b 81 3e 3e
       0.19998962 0.18603985

conv2.weight f4 [16, 6, 5, 5]
000000 c2 ef e4 3c f9 1b 15 3c 58 94 fd 38 c3 ff 0f bd
       0.027946357 0.0091009075 0.00012091611 -0.035156023
000010 24 10 89 3c 03 e2 59 3d 48 54 24 bd 50 94 3e 3d
       0.01673133 0.053194057 -0.04011944 0.04652816
000020 19 a4 ae bc 8a a0 a4 bd 48 9b 22 bd 9c 37 05 be
       -0.021318482 -0.08038433 -0.03969887 -0.13009495
000030 14 d8 5b 3c f0 a8 13 3b 3b 00 8d bd 63 f0 df bc
       0.013418216 0.0022531115 -0.068848096 -0.027336305
000040 4f 15 0d 3b 0a 59 d1 3d a0 15 a7 bd aa 0f 39 bd
       0.0021527593 0.10222061 -0.081584215 -0.045180954
000050 66 35 9a 3d 44 cc 61 3d 96 82 4a bc 26 21 79 bd
       0.07529716 0.055126444 -0.012360236 -0.06082263
000060 05 f3 61 bc 64 56 fe bd e2 9d db bd 37 48 f3 bd
       -0.0137908505 -0.124188215 -0.10723473 -0.11879008
000070 a1 7d a4 bd de 61 65 bd d1 87 ea bb 1e b1 0f bc
       -0.08031774 -0.056001537 -0.007157304 -0.008770255
000080 f4 c9 ad bd 98 8f 0c 3d d1 8e 5f bd 4f ab cd 3d
       -0.08485785 0.03431663 -0.05457956 0.1004244
000090 9e 79 6e 3d d2 ef d0 3d f5 ab 1b 3d 4c 96 5f bb
       0.058221452 0.10201992 0.038005788 -0.0034116684
0000a0 30 61 19 3e b2 10 dc bb af 57 b2 3c 51 76 13 3e
       0.1497848 -0.0067158574 0.021770326 0.14400603
0000b0 16 f9 98 ba c5 4c be 3c fd 17 a6 3d e5 bc 41 bd
       -0.0011670913 0.023229966 0.08110044 -0.047299284
0000c0 29 46 ce 3c 77 eb ab bc 6e 47 52 3d 4d ce 95 3c
       0.02517994 -0.020986302 0.051337652 0.018286848
0000d0 ff 5c 92 3b ad d5 71 3c 2d c8 a4 3d 37 69 4f bc
       0.0044666524 0.014760417 0.08045993 -0.0126593625
0000e0 f6 3f 95 3d cd 5c 8b 3b 99 18 ed 3d 29 8f cd 3d
       0.0728759 0.004253006 0.11576957 0.10037071
0000f0 9e 11 a7 bc fa 4e c3 3d 77 3c 7f ba 46 4d 6e 3d
       -0.020394143 0.09536548 -0.0009736488 0.058179162
000100 18 e0 10 3d 56 cd 51 3d 01 32 9f 3d 50 fb 0e 3e
       0.035369962 0.051221214 0.07773209 0.13963056
000110 ea b3 02 3e a9 cc 05 3e 24 a3 21 3e 8f 04 1f 3e
       0.12763944 0.13066353 0.1578489 0.15529083
000120 12 35 1f 3e bb 11 02 3e e1 a7 21 3e 41 8a a5 3c
       0.15547588 0.12702076 0.15786697 0.020207526
000130 4e 4e 96 3d 3f 11 2a 3c 45 39 c4 3d 3e 8a 15 bc
       0.07339154 0.010380088 0.09581236 -0.009127198
000140 ae 32 28 bd fd 6f 86 bd d1 15 4d bd e9 74 61 3d
       -0.041063957 -0.06564329 -0.050069634 0.055043135
000150 15 84 4d 3d 92 32 94 bc 41 c9 3c bd 78 9c c4 bd
       0.05017479 -0.01809052 -0.04609037 -0.096001565
000160 14 c0 f6 3c e4 50 3c 3c 06 d7 3b 3d a4 69 c2 3c
       0.030120887 0.011493895 0.04585936 0.023732014
000170 0d c1 72 bd b3 18 cb bc 47 55 5f bc 3e 0e 7f 3d
       -0.05926614 -0.024792051 -0.013631172 0.06226944
000180 79 68 ad 3d a5 56 cc 3d d5 15 a1 3c 73 b8 00 3e
       0.08467192 0.09977464 0.01966373 0.12570362
000190 b9 b3 c0 bc dd 21 e8 bc 1a d5 b7 bd ee 7e f3 bc
       -0.023523198 -0.02833646 -0.08976193 -0.02972361
0001a0 6e 60 f4 3c cb 9d 25 bb eb 31 39 bd 62 c9 66 3c
       0.029831138 -0.0025271054 -0.04521362 0.014086099
0001b0 66 4e 03 bd 4d b5 9a bc 86 a1 99 3c d6 62 40 3d
       -0.03205719 -0.01888528 0.018753778 0.046969257
0001c0 dd 65 77 3d 8e 29 43 3c 13 84 77 3c dc 47 5f 3c
       0.06039988 0.011911763 0.015107173 0.013627972
0001d0 13 d2 03 3d 3d b3 4b bd 42 ec 07 3c 69 70 0b 3d
       0.032182764 -0.04973148 0.008296074 0.03404275
0001e0 f5 8f c9 3d 4d 3a ae 3d ed 62 4a 3b 2b b3 de 3c
       0.09841911 0.08507214 0.0030881718 0.027185043
0001f0 dc 56 7c 3d a9 b5 e4 bc ec d1 c9 bc 0e f8 8e bd
       0.061606273 -0.027918654 -0.024636231 -0.069809064
000200 7f ae 87 bd 1e 1f 04 be ca 0b 4f bd 9b 6b 23 bd
       -0.06625079 -0.12902495 -0.050548352 -0.039897542
000210 ea c1 2d bd b3 13 3f 3c dc 04 09 bd 5a ec 8f 3d
       -0.04242126 0.0116624115 -0.0334519 0.07027502
000220 39 a7 68 3c db 2a dd 39 15 a8 d7 bc fc d6 20 be
       0.014200025 0.00042184335 -0.026325265 -0.1570701
000230 e7 ba 57 3d f1 6f 0c bc 1d 82 b6 bd 96 1a be 3c
       0.05266848 -0.008571611 -0.08911536 0.023206037
000240 4a 4e 9f 3c 96 10 3b 3c f0 92 ad 3d f3 a6 66 3d
       0.01944651 0.011417529 0.08475292 0.05631156
000250 40 42 3d bd a2 c5 e9 3d 43 be f5 3c e4 9d 1e 3e
       -0.04620576 0.114146486 0.02999795 0.15489918
000260 1f a1 1c 3d 07 b5 d7 bd 7b dc 9b 3c df b8 83 bd
       0.038239595 -0.10532575 0.019026032 -0.06431746
000270 77 a9 50 3c 16 47 10 3d 8d ae ad bd 61 fa 07 bd
       0.012735716 0.035224043 -0.084805585 -0.033197764
000280 96 fb d5 bd 2b f2 35 bd 7c 2a 25 bd a3 7b f5 bc
       -0.10448377 -0.044420402 -0.04032372 -0.029966181
000290 ab a7 3b 3d d9 31 58 3c e7 52 fa bb 1f 3c 6a bd
       0.045814198 0.013195478 -0.0076392773 -0.057186242
0002a0 4f 61 ad bd 42 67 15 bd 6f f8 32 3d be a6 a1 bd
       -0.08465826 -0.036475427 0.043693956 -0.07893132
0002b0 8d 02 b8 bd 22 b1 e2 3c 30 1e 8d bd b0 66 a8 3d
       -0.089848615 0.027672354 -0.068905234 0.08222711
0002c0 84 f5 93 bd ac 7c 42 3c 14 3d a1 3b 00 ba 86 3d
       -0.07224563 0.011870544 0.004920611 0.065784454
0002d0 12 0c 1b 3d 66 ab 69 3d ba 76 8f 3d d1 5c 30 3c
       0.037853308 0.057048224 0.07005067 0.010764317
0002e0 3d aa 80 bc da c3 91 3d 73 9d 95 bd e5 5a 76 3d
       -0.015706176 0.07117434 -0.07305422 0.060145278
0002f0 02 d6 7c ba d2 82 ef 3d a1 71 a0 bb ca 49 d3 3c
       -0.0009644927 0.11694874 -0.004896358 0.025792021
000300 6c 64 a6 b9 f1 85 a7 3d 55 dc 19 3c 1d a6 2f bd
       -0.00031736807 0.08179844 0.00939091 -0.042883027
000310 a8 ad ee 3a 6d 85 ba 3c f8 3a 90 3d fd b8 50 3d
       0.0018209713 0.0227687 0.070424974 0.05095767
000320 2a 83 f9 3d 20 de 90 3d d2 f6 bf 3d 64 77 03 3d
       0.12183221 0.07073617 0.09373249 0.03209628
000330 47 60 52 3d f3 70 80 3d 4d 37 c7 3b 92 ea 4e 3d
       0.05136135 0.06271543 0.0060795904 0.050516672
000340 f1 39 33 bd 8c 6c b7 3d d3 06 11 bd 38 89 a0 bb
       -0.04375643 0.089562505 -0.0354069 -0.0048991702
000350 af b4 3c 3d b8 45 1a bd a8 6b 96 3d 29 34 1f bd
       0.04607075 -0.037664145 0.073447526 -0.038868103
000360 7f af 43 3d 62 5c 86 bd 8e 9b 8c bd 64 43 5f 3d
       0.047774788 -0.065605894 -0.06865607 0.054507628
000370 2e 2f de 3d 84 93 0f bd 52 82 51 3d b5 f0 c5 bc
       0.108488426 -0.03505279 0.051149674 -0.02416263
000380 47 d5 9a 3d 37 35 48 3d d5 b5 52 3c 2b 19 8c 3c
       0.07560211 0.048878875 0.012860735 0.017101845
000390 b9 db 64 3d 25 ac 76 3c 5e f5 a7 bd 92 75 ee bd
       0.055873606 0.015055691 -0.08201097 -0.116435185
0003a0 fc 09 d1 bd 07 c4 a2 bd 1a 4f 97 3d ed 07 0d bd
       -0.102069825 -0.079475455 0.07388134 -0.034431387
0003b0 5d 42 b3 bd 76 ef a2 bc a2 e0 05 3d 58 f1 cb 3c
       -0.08752892 -0.019889574 0.03268493 0.024895355
0003c0 81 60 46 bd 48 b8 bb ba 4d f3 06 be bf a8 73 3d
       -0.048431877 -0.0014321888 -0.1317875 0.0594871
0003d0 1f b8 f6 3c 1b d5 b5 bd 33 ae 1f 3d b5 81 c3 bc
       0.030117093 -0.08878537 0.03898449 -0.02386556
0003e0 4d 06 c9 3c 7a 95 1c 3d aa 38 e5 3c 49 84 1e 3c
       0.024539137 0.03822849 0.027981121 0.009675094
0003f0 f6 02 4f bd 46 38 36 3d 96 4d e1 bc 82 be 14 3c
       -0.050539933 0.04448726 -0.027502816 0.009078624

conv2.weight_fake_quant.scale f4 [16]
000000 bd a6 a1 3a 16 d4 9e 3a 64 f9 99 3a 91 20 9a 3a
       0.0012333017 0.001211765 0.0011747298 0.0011758973
000010 b3 94 a6 3a 65 ac 95 3a e2 4f 96 3a d1 55 9e 3a
       0.0012709111 0.0011419175 0.0011467899 0.0012080019
000020 89 b2 91 3a 72 d3 8d 3a 8d 43 9d 3a 15 90 98 3a
       0.001111583 0.0010820462 0.0011998281 0.001163962
000030 1b 5b 9f 3a 22 9d 97 3a 67 08 9d 3a 16 60 9f 3a
       0.0012157889 0.0011567215 0.0011980654 0.0012159373

conv2.weight_fake_quant.activation_post_process.min_val f4 [16]
000000 a8 f5 1f be 24 ce 04 be 64 f9 19 be 91 20 1a be
       -0.15621054 -0.12969261 -0.15036541 -0.15051486
000010 76 ba f6 bd 65 ac 15 be e2 4f 16 be d9 7f 01 be
       -0.12047283 -0.14616545 -0.1467891 -0.12646426
000020 44 6b e8 bd 72 d3 0d be 8d 43 1d be 12 eb e8 bd
       -0.11348584 -0.13850191 -0.153578 -0.11372961
000030 f3 15 17 be 59 be 16 be c5 31 1b be 3b e4 1a be
       -0.14754467 -0.1472105 -0.15155704 -0.15126126

conv2.weight_fake_quant.activation_post_process.max_val f4 [16]
000000 70 63 20 3e 6e 96 1d 3e db d2 17 3e f3 cd 17 3e
       0.15662932 0.15389416 0.14826529 0.14824657
000010 8a 47 25 3e e6 5e 14 3e c5 2f 13 3e 25 19 1d 3e
       0.16140571 0.14489326 0.14373691 0.15341623
000020 24 8f 10 3e 74 e9 eb 3d 6c ec 08 3e f5 5e 17 3e
       0.14117104 0.11519137 0.13371438 0.14782317
000030 65 1c 1e 3e e8 6d 16 3e 56 ce 1b 3e 56 21 1e 3e
       0.15440519 0.14690363 0.1521543 0.15442404

conv3.weight f4 [120, 16, 5, 5]
000000 7e db c9 bc 2a 69 9c bc 76 0b 46 bd 73 da 6e bd
       -0.024640795 -0.019093115 -0.048350774 -0.0583138
000010 2e 98 f6 3c 26 5e eb bb bc d3 80 bd 26 a0 25 bd
       0.030101862 -0.007182854 -0.06290385 -0.040435933
000020 a5 63 c1 3c 22 8c dc 3c f3 7a b6 bc 73 f4 75 bc
       0.023607085 0.02692229 -0.022275424 -0.0150118945
000030 ef fe 17 3c e9 4b c3 3b 0e c2 b3 3c bb b6 f9 3c
       0.0092770895 0.005959977 0.021943118 0.03048264
000040 7e a4 65 3c 3b bb 87 bc 48 f7 ae bc 7c 8f a9 bc
       0.014016269 -0.01656877 -0.021358147 -0.020698301
000050 5e 40 74 bd a3 5f b5 3c 84 f0 bc bc 72 6d 3f bd
       -0.059631698 0.02214033 -0.023063906 -0.046735235
000060 46 27 e4 3c 6e 96 2c bd c7 d1 e4 3c 1f ac 1e bd
       0.027850758 -0.04213565 0.02793206 -0.038738366
000070 d5 12 a8 bc 77 f3 73 bd aa 81 96 bd f7 00 ff bc
       -0.020516792 -0.059558358 -0.0734895 -0.03112839
000080 10 6b 2b ba 40 20 17 bd bb 0d 61 bb 60 91 f7 bc
       -0.0006539086 -0.03689599 -0.003434046 -0.030220687
000090 78 57 22 3d 18 dd 46 bc 98 0e 8e 3b 92 0c 20 3d
       0.039634198 -0.012137674 0.004335236 0.039074488
0000a0 67 37 d2 3b d2 18 0c bc e9 8f 37 bc 6c e1 0e 3d
       0.006415296 -0.0085508395 -0.011203744 0.034882948
0000b0 0a 8c 1f bd 10 dc 1c bd b3 ef 5b 3c 6c d2 ec bc
       -0.03895191 -0.038295805 0.013423848 -0.02890893
0000c0 4a e9 04 bd df d3 06 bd 1b 01 db 3c 87 40 83 bb
       -0.032449044 -0.0329169 0.026733926 -0.004005495
0000d0 44 c7 58 3c 67 27 bc 3b a0 1c ec ba f0 81 29 bd
       0.013231102 0.005742002 -0.0018013902 -0.041383684
0000e0 e8 78 0a bd eb f3 4b bd e4 ca b7 bc 02 b7 76 bd
       -0.03380671 -0.049793165 -0.022435613 -0.060233124
0000f0 6c e8 59 bb 35 72 23 bd eb 7f be bc 1d ed ad ba
       -0.0033250106 -0.03990384 -0.023254355 -0.0013269518
000100 f6 cf 2c 3d 6b 5b 92 bd 76 e2 d9 39 1f ff 21 3d
       0.042190515 -0.07146343 0.00041558192 0.039549943
000110 50 39 2d bd 03 e4 3f bc 15 e4 27 bc 0b 57 d5 3c
       -0.042290986 -0.011712077 -0.01024725 0.026042482
000120 b3 48 be 3c 8e 5b a7 bc 9a 03 58 bd 84 45 11 3d
       0.023228025 -0.020429399 -0.05273781 0.035466686
000130 27 13 61 3c 4b cf 42 bd 33 73 0c 3d 64 2d 43 bd
       0.013737476 -0.04756097 0.03428955 -0.04765071
000140 0d 48 3d bd 7e ad 0b bd 74 0b b2 3c cc 95 ce 3a
       -0.04621129 -0.034101002 0.021733977 0.0015761196
000150 d9 a2 26 bc 67 d3 2b bd 88 ea 65 bc 01 96 f1 3c
       -0.010170662 -0.041949656 -0.014032967 0.029490473
000160 b1 f7 a2 bc 34 e6 23 3d 6c d6 8c bc 6c f8 22 3b
       -0.0198935 0.04001446 -0.017192088 0.002486731
000170 39 63 d9 3b bf c0 d4 3c 0b a0 0a 3d 8f bc 52 bb
       0.0066341427 0.025970815 0.033844035 -0.0032155847
000180 9a ed b3 bc 45 d0 16 3d 82 43 81 3b 49 1e ef 3c
       -0.021963883 0.036819715 0.003944815 0.029189246
000190 9f 47 99 3c 88 da 07 3b 05 ab 8d bd 26 3e 9b 3a
       0.01871091 0.002072962 -0.06917385 0.0011844083
0001a0 f6 ea 67 bd 12 3e ff 3b 88 9d 0a 3c 33 1e 04 bc
       -0.05662056 0.007789382 0.00846041 -0.008063841
0001b0 32 d9 9c 3c 4d d3 50 3c 23 68 7e bd 40 2c 4c bb
       0.019146536 0.0127456905 -0.06211103 -0.0031154305
0001c0 8a 8e 55 bd ef ba 39 bd 04 72 bb 3c ad f3 5b bd
       -0.05213789 -0.04534429 0.022881515 -0.053699184
0001d0 8b 79 b9 bc d6 fe 09 3c 69 82 e5 bc 45 5a 2a bd
       -0.022640964 0.008422574 -0.028016286 -0.041589994
0001e0 6b 39 4d bd 2f a5 0b bd e5 40 65 bd a8 4e 27 bd
       -0.050103586 -0.03409308 -0.05597009 -0.040846497
0001f0 5d c2 3d bd 48 ba 85 3c 95 80 0d bd 90 58 b9 bc
       -0.046327937 0.016324177 -0.034546454 -0.022625238
000200 2c 26 95 bc 09 ed 50 3c 43 e8 27 bd 38 93 7b bc
       -0.018206678 0.012751826 -0.040992986 -0.015354924
000210 fc 21 0a 3d b4 a1 30 bd 1d dd 20 bd e1 e6 a9 b9
       0.033723816 -0.043122962 -0.03927337 -0.0003240621
000220 2f d3 54 bd bf 59 fa 3b 05 58 e8 bc cf d0 d8 bc
       -0.051959213 0.007640093 -0.028362283 -0.026466755
000230 5c 1c c9 3c 81 af 0d 3d 9b d4 1e 3d a2 42 56 bd
       0.024549656 0.0345912 0.038776975 -0.05230964
000240 e0 ad 40 bd b1 82 1c 3d ce 60 90 bc ea 4f b6 bb
       -0.04704082 0.038210575 -0.017624285 -0.0055637257
000250 41 f0 a4 bc d2 02 c7 3c 4c 05 c3 3c 17 ad 4f bd
       -0.020134093 0.024293337 0.023806237 -0.05070218
000260 57 49 07 bd 5d 6d 0a bd f6 24 d2 3c 4a e5 d3 bb
       -0.033028927 -0.033795703 0.02565239 -0.0064665424
000270 55 a1 89 bc 7b b3 83 bc 35 c0 03 bd 90 38 a8 3c
       -0.016800562 -0.016076794 -0.032165725 0.020534784
000280 99 9f 1e bd 0b 7f 80 bd dc 4e 17 3d ca 98 61 bd
       -0.038726423 -0.062742315 0.03694044 -0.05507735
000290 e3 4e 07 3d 49 95 7d 3c d8 94 dc bc a4 de 2a 3d
       0.033034217 0.015477487 -0.026926443 0.041716233
0002a0 bb bb ee 3c 66 2e fc bc f3 b9 ec bc 4a 20 26 bd
       0.029142251 -0.030783843 -0.028897261 -0.040558137
0002b0 a5 ff 8e 3c 8f 16 da bc ca 4a 99 bc f9 b5 74 bd
       0.017455885 -0.026622085 -0.01871242 -0.059743855
0002c0 8d e1 ce bc 18 a9 6a bd 22 96 5e bc ab d8 54 bd
       -0.025254035 -0.057290167 -0.013585599 -0.051964443
0002d0 8f b2 5d bd f1 a9 9f bc bd 52 7c bc 60 ce e9 bc
       -0.054125365 -0.019490214 -0.015400586 -0.02854079
0002e0 48 8c 58 3c 3b af 8c bd 1f 05 c0 bc d1 f2 a7 bc
       0.013217039 -0.0686936 -0.023439942 -0.020501526
0002f0 b6 16 68 bd 71 45 6b bc 47 41 5a bd 21 68 4f bd
       -0.056662284 -0.014359818 -0.05328491 -0.050636414
000300 d4 dd c4 bb d0 d4 79 3c 8a e5 7d bc 29 47 1d bb
       -0.0060078893 0.015248492 -0.015496621 -0.0023998714
000310 58 79 a3 bc bc 5c 17 3d 11 42 36 bc ed 28 ae 3b
       -0.019955322 0.036953673 -0.01112415 0.0053149373
000320 d6 94 e1 bc b9 d6 9a 3b a0 55 3d bd 29 5c a1 3c
       -0.02753679 0.004725304 -0.046224236 0.019697266
000330 ce b9 90 bd 2d 6c 78 bd d4 39 69 bc 40 34 46 bd
       -0.070666894 -0.06065004 -0.014234979 -0.048389673
000340 d7 fa 25 bd e2 39 bb bb 42 d4 1d 3d 40 ca 0a bc
       -0.040522423 -0.0057136873 0.038532503 -0.008471072
000350 52 66 07 3d 5b af f9 bc d3 c4 08 bd 19 f7 2b bd
       0.033056565 -0.030479124 -0.03339083 -0.041983698
000360 77 00 0d 3d 6f b7 9b 3c 4b 53 1f bd 9c 4d 1e 3b
       0.03442427 0.019008366 -0.038897794 0.0024155146
000370 e8 3b c5 bc 70 5f 27 3d 14 24 b7 3c b4 6d 78 3c
       -0.024076417 0.0408625 0.02235607 0.015162874
000380 c5 f6 48 bc 37 d5 d2 bb db c6 af bc d4 7f 21 bd
       -0.012265866 -0.0064341086 -0.021457126 -0.039428547
000390 6f dd e7 3c c8 f4 90 bd 9a d2 4f bc 02 b8 20 bd
       0.02830383 -0.07077938 -0.012684489 -0.039237984
0003a0 ce e5 46 bd f3 a3 fc 3c 35 78 ed bc 47 e5 21 bd
       -0.048559003 0.030839896 -0.028987983 -0.039525297
0003b0 40 6a 23 3d 9e c5 c4 3c f2 0e 07 bd 10 43 67 3c
       0.03989625 0.024020012 -0.032973237 0.01411511
0003c0 ac 9d 2c bd bb 92 b8 bc 26 7e e6 ba f0 0f f8 3c
       -0.042142555 -0.022530904 -0.0017585203 0.030281037
0003d0 78 ae 33 3c 3a 4d 95 bc 0d 8a 27 bd 21 76 ab bb
       0.01096689 -0.018225301 -0.04090314 -0.005232588
0003e0 6a f4 06 bd ce 23 ce 3c 7e 1f bb 3c de 3e f0 3c
       -0.032947935 0.025163557 0.022842165 0.029326852
0003f0 ce 5c 70 bd 80 2f 89 3c e7 6d df bc a5 25 5e bd
       -0.058682255 0.016746283 -0.027274085 -0.05423512

conv3.weight_fake_quant.scale f4 [120]
000000 2a 16 16 3a e8 f9 85 3a e9 32 80 3a 91 9c 78 3a
       0.00057253486 0.0010221573 0.0009780797 0.00094837794
000010 28 d1 fe 39 35 92 71 3a 0b ad 8d 3a 62 ab 07 3a
       0.0004860249 0.0009215207 0.0010809017 0.00051753793
000020 e4 6d e6 39 c8 9a 80 3a b7 50 89 3a 59 23 8e 3a
       0.00043950893 0.0009811753 0.0010476325 0.0010844275
000030 30 de 4e 3a b0 79 39 3a d8 51 11 3a 94 86 83 3a
       0.0007891385 0.0007075323 0.00055435067 0.0010034614
000040 2d 4f 85 3a a6 fe 06 3a a2 89 82 3a 35 98 7c 3a
       0.0010170691 0.000514964 0.0009959231 0.0009635718
000050 44 b3 2a 3a 7e 4c eb 39 f8 24 82 3a 7a be 47 3a
       0.0006511698 0.00044879684 0.000992923 0.0007619631
000060 71 a8 90 3a ac 79 86 3a 70 b3 6d 3a 53 46 4a 3a
       0.0011036528 0.001025965 0.0009067571 0.00077161676
000070 7d 00 7a 3a 90 16 2a 3a d1 6e 00 3a 46 e0 89 3a
       0.0009536816 0.00064883474 0.00048993254 0.0010519109
000080 76 9d e4 39 1b 33 80 3a a6 31 88 3a 47 b7 80 3a
       0.00043604866 0.0009780856 0.0010390773 0.0009820246
000090 0c 86 1a 3a a4 a2 83 3a f9 6c 86 3a 06 23 31 3a
       0.00058946083 0.0010042978 0.0010255865 0.0006757233
0000a0 06 ea 60 3a fc 7b 89 3a 19 77 6a 3a 90 6a 78 3a
       0.0008579794 0.0010489221 0.00089441385 0.0009476328
0000b0 20 52 77 3a 06 58 72 3a 5e 23 08 3a 7d 24 71 3a
       0.000943454 0.0009244684 0.00051932584 0.00091988576
0000c0 2a 91 88 3a a4 90 75 3a fa 39 75 3a 13 01 8b 3a
       0.0010419239 0.00093675614 0.00093546475 0.0010605179
0000d0 6b ea 74 3a 88 23 75 3a 48 f0 04 3a e9 2a fe 39
       0.00093427923 0.0009351303 0.0005071205 0.00048478626
0000e0 82 6f 81 3a 13 63 6f 3a d0 c6 3a 3a d5 d2 73 3a
       0.0009875151 0.00091318897 0.0007124962 0.0009301131
0000f0 f4 f0 f5 39 46 9e 81 3a 65 c0 80 3a d5 95 7b 3a
       0.00046909566 0.0009889088 0.0009822963 0.0009597217
000100 8c 6e fa 39 d3 70 7b 3a 9d 79 82 3a 37 d6 91 3a
       0.0004776608 0.0009591702 0.0009954456 0.0011126463
000110 51 8f 85 3a 25 fb 66 3a 62 84 83 3a 0a 20 87 3a
       0.0010189806 0.0008811227 0.001003396 0.0010309231
000120 ae b9 e9 39 68 b8 79 3a 4a ef 8f 3a 4d 6d 82 3a
       0.00044579565 0.0009526075 0.0010981348 0.0009950787
000130 24 65 86 3a 79 2d 6e 3a 70 e9 77 3a e0 02 78 3a
       0.0010253531 0.00090857554 0.0009457087 0.00094608776
000140 63 cf 68 3a 96 0e f2 39 fb 4f 82 3a bb f2 04 3a
       0.00088810007 0.00046168704 0.0009942049 0.000507157
000150 2c 00 7d 3a e0 58 77 3a fa a1 7c 3a 89 9e 7b 3a
       0.00096512097 0.00094355457 0.00096371735 0.0009598514
000160 15 43 47 3a a6 90 75 3a 77 20 80 3a f0 27 82 3a
       0.00076012436 0.00093675626 0.00097753 0.0009930115
000170 cd 60 5b 3a 5c 75 82 3a a6 3b ef 39 77 b2 2b 3a
       0.00083686115 0.0009953189 0.00045630074 0.00065497257
000180 3f b1 7c 3a bc b0 72 3a 0c 11 87 3a 55 d0 81 3a
       0.0009639449 0.0009257903 0.0010304763 0.0009904007
000190 24 3f 81 3a fe 14 34 3a 5c 9f 83 3a 60 04 77 3a
       0.0009860736 0.0006869583 0.0010042 0.0009422954
0001a0 21 c9 83 3a ae 4a 75 3a 04 ad 93 3a e8 32 84 3a
       0.0010054448 0.00093571364 0.0011266773 0.0010085972
0001b0 42 a0 82 3a 27 22 8c 3a 53 23 65 3a 3e 0c 2f 3a
       0.0009965973 0.001069133 0.00087409205 0.00066775444
0001c0 02 1a 84 3a 03 b7 74 3a 26 df eb 39 ff 0f 75 3a
       0.0010078552 0.0009335132 0.0004498895 0.0009348392
0001d0 de 93 8d 3a e4 4f 84 3a fb 12 7c 3a 93 9d 80 3a
       0.0010801514 0.001009461 0.00096158654 0.0009812586

conv3.weight_fake_quant.activation_post_process.min_val f4 [120]
000000 2a 16 96 bd e8 f9 05 be b5 fb fa bd 1b 4f d2 bd
       -0.07328446 -0.13083613 -0.122550406 -0.102689944
000010 28 d1 7e bd 9f c1 d9 bd 0b ad 0d be 62 ab 87 bd
       -0.062211186 -0.106326334 -0.13835542 -0.066244856
000020 e4 6d 66 bd ad 65 f9 bd f6 6a ff bd 70 87 05 be
       -0.056257144 -0.12177596 -0.12471573 -0.13039947
000030 87 89 c8 bd 8c 70 a8 bd d8 51 91 bd ea d4 f9 bd
       -0.09791856 -0.082245916 -0.070956886 -0.12198813
000040 c6 c4 02 be a6 fe 86 bd dd fe 01 be b7 4f f6 bd
       -0.12770376 -0.06591539 -0.12694879 -0.12026923
000050 44 b3 aa bd 7e 4c 6b bd f8 24 02 be 41 c9 b4 bd
       -0.083349735 -0.057445996 -0.12709415 -0.08827449
000060 ca b5 03 be a7 cb c0 bd d1 62 e7 bd 9b 12 ca bd
       -0.12862316 -0.094138436 -0.112981446 -0.0986683
000070 c4 69 f0 bd a4 27 a0 bd d1 6e 80 bd c8 68 06 be
       -0.11738923 -0.07820061 -0.062711366 -0.13125908
000080 76 9d 64 bd 1b 33 00 be 64 90 00 be 28 6f ee bd
       -0.05581423 -0.12519495 -0.1255508 -0.11642295
000090 0c 86 9a bd 5f 72 fa bd f9 6c 06 be 92 f1 a9 bd
       -0.07545099 -0.12228846 -0.13127507 -0.08298029
0000a0 40 81 b8 bd 10 5c 03 be 19 77 ea bd c3 b8 e2 bd
       -0.090090275 -0.12828088 -0.11448497 -0.11070397
0000b0 53 9d f1 bd 12 63 ee bd 5e 23 88 bd d9 08 ea bd
       -0.11797585 -0.1163999 -0.06647371 -0.11427469
0000c0 d3 fa 05 be a4 90 f5 bd fa 39 f5 bd 0c c9 06 be
       -0.13083963 -0.11990479 -0.11973949 -0.13162631
0000d0 6b ea f4 bd c6 d8 ed bd 48 f0 84 bd e2 f5 77 bd
       -0.11958774 -0.11613612 -0.064911425 -0.060537226
0000e0 0e cf f0 bd 13 63 ef bd de 9f 93 bd f4 66 e9 bd
       -0.117582425 -0.11688819 -0.072082266 -0.1139659
0000f0 f4 f0 75 bd 1c e1 da bd 3d 38 fc bd 4c 2c ef bd
       -0.060044244 -0.106874675 -0.12315414 -0.11678371
000100 8c 6e 7a bd da 95 f8 bd 07 5b fe bd 94 23 0a be
       -0.061140582 -0.12137957 -0.12419706 -0.13490134
000110 d5 19 fc bd 25 fb e6 bd c0 73 01 be 00 39 f2 bd
       -0.123096146 -0.11278371 -0.12641811 -0.11827278
000120 ae b9 69 bd 03 f3 e0 bd ad c3 0b be 13 7a cf bd
       -0.057061844 -0.10983851 -0.13648863 -0.10130706
000130 91 b5 03 be f3 c4 ed bd ab 49 f2 bd fa 55 f3 bd
       -0.12862231 -0.11609831 -0.11830457 -0.11881633
000140 ad 4a ac bd 96 0e 72 bd 63 94 f8 bd bb f2 84 bd
       -0.08412681 -0.05909594 -0.121376775 -0.0649161
000150 2c 00 fd bd f8 ad f5 bd fa a1 fc bd c5 2a fb bd
       -0.123535484 -0.119960725 -0.12335582 -0.12264017
000160 15 43 c7 bd 56 64 ce bd 77 20 00 be 0f ee fe bd
       -0.09729592 -0.10077731 -0.12512384 -0.1244775
000170 58 e8 b3 bd 9c 0b f9 bd a6 3b 6f bd 69 4e 95 bd
       -0.087845504 -0.121604174 -0.058406495 -0.07290346
000180 01 58 f6 bd a0 e6 f1 bd 19 20 01 be a8 55 c0 bd
       -0.12028504 -0.11811566 -0.126099 -0.09391338
000190 53 4c 00 be cb 9b 99 bd 60 f7 d3 bd bc 71 ef bd
       -0.12529115 -0.07500418 -0.103499174 -0.11691615
0001a0 3f 06 02 be 6d 28 f0 bd f6 8c 13 be 28 d3 f3 bd
       -0.12697695 -0.117264606 -0.14409241 -0.11905509
0001b0 42 a0 02 be bd ab 02 be 78 39 e1 bd f8 6a 95 bd
       -0.12756446 -0.12760825 -0.109972894 -0.07295793
0001c0 f3 2a 03 be 03 b7 f4 bd 26 df 6b bd 46 cf e9 bd
       -0.12809353 -0.11948969 -0.057585858 -0.114164874
0001d0 0d 26 08 be e0 db fa bd fb 12 fc bd e5 cd f4 bd
       -0.13295765 -0.12248969 -0.12308308 -0.11953334

conv3.weight_fake_quant.activation_post_process.max_val f4 [120]
000000 93 ff 3a 3d 82 0e ff 3d 07 65 fe 3d 58 ab f6 3d
       0.04565389 0.12453939 0.12421613 0.120444
000010 f9 cf 3e 3d 11 af ef 3d ba 33 09 3e ec 50 74 3d
       0.046585057 0.11703313 0.13398638 0.059647486
000020 3a cc 52 3d 25 33 ff 3d 16 3e 08 3e 12 07 0d 3e
       0.051464297 0.12460927 0.13304934 0.13772228
000030 74 40 cd 3d bd 06 b8 3d 22 5a 86 3d 87 7f 02 3e
       0.10022059 0.0898566 0.0656016 0.1274396
000040 8f 44 04 3e bb 2f 4c 3d 8f 84 01 3e 05 9f fa 3d
       0.12916778 0.049850207 0.12648223 0.12237362
000050 6d 42 a6 3d b4 e9 45 3d 82 3f 00 3e fd 2e c6 3d
       0.081181385 0.04831858 0.12524226 0.09676931
000060 20 87 0f 3e b9 6c 05 3e 09 d8 eb 3d c6 b1 c8 3d
       0.1401639 0.13029756 0.11515815 0.097995326
000070 7c 0c f8 3d 63 c2 a8 3d 9c 37 64 3d 85 cc 08 3e
       0.12111756 0.08240201 0.055717096 0.13359268
000080 fa f3 5d 3d cd f3 fb 3d 43 21 07 3e b0 6b ff 3d
       0.054187752 0.12302361 0.13196282 0.12471712
000090 dc b7 63 3d 5f 9b 02 3e 6d 0a 03 3e c0 c0 af 3d
       0.055595264 0.12754582 0.12796946 0.08581686
0000a0 32 28 df 3d 04 69 08 3e a0 97 e7 3d bb 79 f6 3d
       0.108963385 0.1332131 0.11308217 0.12034937
0000b0 7c 63 f5 3d 56 73 f0 3d 92 d0 4a 3d 34 42 ef 3d
       0.11981866 0.117407486 0.049515314 0.11682549
0000c0 08 80 07 3e df 6f eb 3d ef 69 ec 3d 11 eb 09 3e
       0.13232434 0.11495947 0.11543643 0.13468577
0000d0 35 81 ea 3d 41 39 f3 3d 4a a6 63 3d 93 2e 7c 3d
       0.114504255 0.11876155 0.055578507 0.061567854
0000e0 a3 6c 00 3e b1 53 ea 3d 42 51 b9 3d 2f eb f1 3d
       0.12541442 0.11441744 0.09048702 0.11812436
0000f0 38 3d 61 3d 09 9b 00 3e c8 7d ff 3d a9 9e f9 3d
       0.054990023 0.12559141 0.12475163 0.12188465
000100 28 96 63 3d f1 79 f9 3d aa 74 01 3e 8b b2 10 3e
       0.055563122 0.121814616 0.1264216 0.14130609
000110 32 84 04 3e 3e e4 e1 3d 59 7d 02 3e ca 11 06 3e
       0.12941054 0.11029862 0.12743129 0.13092723
000120 1e d6 63 3d f7 c4 f7 3d 6b cf 0e 3e 72 68 01 3e
       0.05562412 0.12098115 0.13946311 0.12637499
000130 5a 58 05 3e 1e 51 ec 3d 9d f9 f5 3d da 12 f6 3d
       0.13021985 0.115389094 0.120105006 0.120153144
000140 c4 fd e6 3d fe bf 63 3d 5b 4b 01 3e 59 76 57 3d
       0.11278871 0.05560302 0.12626402 0.0526031
000150 bb cc f5 3d 2e 6a f5 3d a0 cf ee 3d 4c a7 f9 3d
       0.1200194 0.11983143 0.11660695 0.121901125
000160 6f a5 c3 3d 85 a5 f3 3d 83 6d f3 3d a0 23 01 3e
       0.09553038 0.11896805 0.11886122 0.12611246
000170 0b aa d9 3d 71 70 01 3e 54 21 62 3d 12 5b aa 3d
       0.10628136 0.12640549 0.055207565 0.083181515
000180 dd b7 fa 3d 5b cb f0 3d ea 02 06 3e b4 cc 00 3e
       0.122421004 0.11757537 0.13087049 0.12578088
000190 a6 3c 00 3e d4 ac b2 3d 1d 98 02 3e 57 16 f5 3d
       0.12523136 0.087243706 0.12753339 0.119671516
0001a0 8f c1 02 3e 19 60 f3 3d aa 85 12 3e 82 2a 03 3e
       0.12769149 0.118835635 0.14308801 0.12809184
0001b0 0c d0 f9 3d e3 09 0b 3e 0c 59 e3 3d 26 ae ad 3d
       0.12197885 0.1357799 0.11100969 0.08480482
0001c0 ce 11 03 3e e4 a2 ed 3d 46 2b 4b 3d df 25 f3 3d
       0.1279976 0.116033345 0.049601816 0.11872458
0001d0 b6 78 0c 3e 44 47 03 3e e3 12 fa 3d b0 38 ff 3d
       0.13717923 0.12820154 0.122106336 0.12461984

fc1.weight f4 [84, 120]
000000 57 59 19 3c b4 07 b8 bd 3d 2d 34 bc 3e 39 b5 bc
       0.009359679 -0.08985844 -0.010997114 -0.022122022
000010 16 46 d7 bb b6 2a 49 bd 49 b5 a7 3d 26 c7 90 bd
       -0.006569634 -0.049112998 0.08188874 -0.070692345
000020 43 6f 22 bd 07 1c 80 3c a4 69 26 bd d8 e9 1c bd
       -0.03965689 0.015638364 -0.04062809 -0.03830895
000030 24 eb 08 3d 70 bb 67 3d 5c a7 51 3d f5 86 8c bd
       0.033427373 0.05657524 0.051184997 -0.068616785
000040 a3 94 85 bd cc bf 97 3c 31 84 16 bd 7f 02 10 bd
       -0.06522491 0.018524073 -0.03674716 -0.03515863
000050 6e 24 51 bb aa 44 09 3d 18 5a ba 3b 45 3f 01 3e
       -0.0031912583 0.03351275 0.0056870095 0.12621792
000060 c3 b6 c7 bc 52 36 ad bd e9 aa a7 3c 0e f1 de 3c
       -0.02437914 -0.084576264 0.020467239 0.027214553
000070 8c d2 f9 bc c3 b9 ef bc 01 bd ba 3c a7 a1 b1 bd
       -0.030495904 -0.029263383 0.022795202 -0.08673411
000080 56 38 a0 bd 35 9b ae bd 4d fb 0f bc 58 e0 fd bc
       -0.07823245 -0.08525697 -0.008787942 -0.030990764
000090 8c 95 a5 bd 84 e5 5c bd e6 e0 a7 3d 59 c5 d2 3d
       -0.080851644 -0.05392982 0.08197193 0.10291547
0000a0 74 11 a4 bd e1 c6 95 bc fc 99 fb bd 44 f7 b2 3c
       -0.080111414 -0.01828331 -0.122852296 0.021846421
0000b0 87 99 a6 bc b3 87 14 bd b8 11 b9 3c 3e fd 45 bd
       -0.02033688 -0.036262225 0.022591457 -0.048337214
0000c0 17 1e ee bd 9e f2 b2 3d 65 eb 3b 3d a8 c4 01 3e
       -0.11626833 0.08737682 0.045878787 0.12672675
0000d0 bb d9 9d bc f7 98 73 3a f7 f5 4d bc cb 0a 25 3d
       -0.019268861 0.0009292508 -0.01257085 0.040293496
0000e0 11 08 a4 3d 6e 92 7e bd 1c 09 3e bd 57 b7 88 bd
       0.08009351 -0.062151365 -0.046395406 -0.06675594
0000f0 e8 c0 6a bc be d5 52 3d 4c 75 68 3d 74 f0 c2 bd
       -0.014328219 0.05147337 0.056752488 -0.09518519
000100 8a e0 aa bd 81 22 12 bd 02 48 8e bd 1d fb 5c 3d
       -0.08343609 -0.035677437 -0.06947328 0.053950418
000110 df 0c bd bd 4a 90 c7 3b 54 2e 81 3b f4 a4 8d bc
       -0.092309706 0.0060901986 0.0039422903 -0.01729057
000120 da 2a 83 3a f6 44 77 bd f0 c1 5e 3c a6 a2 35 3d
       0.0010007278 -0.0603685 0.013596043 0.044344567
000130 45 e8 96 3d b2 16 e7 bc 04 80 44 bd 02 0f f1 3d
       0.07368521 -0.028209064 -0.047973648 0.11770441
000140 fe 7b 23 bd 09 5c 30 3d e2 0a 33 3c 2a 22 9c bd
       -0.03991317 0.04305652 0.010927888 -0.07623704
000150 13 4e e9 bc 21 7b bc bd 7c 96 0b bd 48 fb b6 3c
       -0.028479612 -0.092031725 -0.03407906 0.022336617
000160 a3 77 ca 3c d5 0f 29 bd bf 5f b5 bb ff b5 d7 bd
       0.02471525 -0.041274864 -0.0055350955 -0.1053276
000170 15 da ba bc 35 25 9c bd 2c f1 78 3d fa ef 93 bd
       -0.022809068 -0.07624284 0.060776874 -0.07223506
000180 5e c4 d3 bd c8 bc af 3c 59 8e 3a bd 0b 41 37 3d
       -0.103401884 0.021452323 -0.04554591 0.044739764
000190 a8 d0 39 3d 5d af 20 bd 38 7f 7f 3d 38 03 24 3d
       0.045365006 -0.03922974 0.062377185 0.040042132
0001a0 c3 9c 2c bd 8f d2 32 bc 01 ab 9d bd 65 ea bc bd
       -0.042141687 -0.010914459 -0.07698632 -0.09224395
0001b0 33 0c 66 bc a8 dd 9e 3d 68 ae 06 3d c2 9f 2e bd
       -0.014040994 0.07757121 0.03288117 -0.042632826
0001c0 3c a8 1f 3c 1d 6e 1b bd 8b 29 51 3d 86 7e 86 bd
       0.0097447 -0.03794681 0.05106501 -0.06567101
0001d0 6a 7e 3d bd df ae 3b bd d0 63 77 bd c6 48 74 bd
       -0.046263136 -0.045821067 -0.060397923 -0.059639715
0001e0 10 bf 1e bd 91 b0 bb 3c f0 6e 85 bd 4d e4 a1 ba
       -0.03875643 0.022911342 -0.065153 -0.0012351364
0001f0 73 40 2b ba ec ab 82 3d 9b c2 da 3d c9 22 80 bd
       -0.0006532736 0.06380448 0.10681649 -0.06256635
000200 64 04 5c bd 99 8d 81 bd ac 76 82 bc 0b 6a 77 3c
       -0.053715125 -0.06325836 -0.015925728 0.015100966
000210 73 12 72 bd a3 54 c9 bd 75 4b 44 3d 6e 2b 9b 3d
       -0.059099626 -0.09830596 0.047923524 0.07576643
000220 00 31 7d bd 61 7a 17 3c ef 4f 6a 3d cb 74 8c 3b
       -0.06181431 0.009245486 0.057205137 0.0042863837
000230 c7 c9 1e bd 18 42 9a 3d cc 5b e8 3d 9c 8a 0a 3d
       -0.03876665 0.07532138 0.11345634 0.033823594
000240 ab df 20 3e 8f c4 2e bd 03 39 b6 3d 46 c8 89 3d
       0.15710323 -0.04266792 0.08897593 0.06727652
000250 d9 54 04 bd 70 05 3a bc 8a 8e b4 3d 8f 0b 8d bc
       -0.03230748 -0.011353835 0.0881625 -0.017217426
000260 f9 3d 9e 3c 16 f4 d7 bc 5f 9c 96 bb dc 9d d0 3c
       0.01931666 -0.026361506 -0.0045962776 0.025465898
000270 a5 e8 a4 3c 86 3c 25 be 76 2e a3 bd 18 5c 12 bd
       0.020130465 -0.16136369 -0.07967846 -0.03573236
000280 38 ba 67 3d 8f 3f de bd eb 62 09 3e 40 b8 eb 3d
       0.056574076 -0.108519666 0.1341664 0.11509752
000290 44 62 eb 3d 2d 49 d7 3d c7 f4 0b 3d ed a0 94 bd
       0.11493352 0.10512004 0.034168985 -0.07257257
0002a0 1c 85 fa ba b5 96 16 bc 8a fc f6 3d 53 26 aa 3d
       -0.0019113156 -0.009191205 0.12059887 0.08308091
0002b0 8e 5c 22 3e 91 d1 03 3e 4e a3 98 3c 35 d7 a6 3d
       0.1585562 0.12872912 0.018632557 0.08146516
0002c0 a3 35 35 3d de fa 0d 3e 25 ab 73 bd fa 48 cb 3b
       0.044240605 0.1386523 -0.059489388 0.006203768
0002d0 72 ac 2e 3c 1e 49 6d 3c 67 74 9c 3c b1 ae 8b bc
       0.010661231 0.0144827645 0.019098474 -0.017051073
0002e0 82 3a 8e bd 0f fc 1c 3e db fc 39 3c 5d 86 f5 3d
       -0.06944753 0.15330528 0.011351789 0.119885184
0002f0 22 e7 9a bd b2 e0 05 3d 0b de e4 bb d9 66 ac 3d
       -0.07563616 0.03268499 -0.0069844774 0.08418054
000300 a1 92 c3 ba cf 8d 0f 3d fd 29 76 3b 0f d7 bd bd
       -0.0014921018 0.03504735 0.0037561648 -0.09269535
000310 56 3f b5 bd e7 3b ab bd ad 5e b9 bd 80 0b aa 3d
       -0.08849971 -0.08361035 -0.09051261 0.08302975
000320 ad 41 29 3d 7c 41 17 3d a2 1b 55 3d f0 d5 41 bd
       0.0413224 0.036927685 0.052028306 -0.047323167
000330 11 ed 91 bd 2b 9c b0 bd b9 22 15 3e 5b 48 f3 bc
       -0.07125295 -0.08623537 0.14564027 -0.029697588
000340 13 2e 94 3c 1e 2f 8c 3d 33 3a e3 3c 24 6d 83 ba
       0.018088376 0.068449244 0.027737712 -0.0010027033
000350 a8 58 13 3d cc f3 81 bb 92 22 f0 bc 53 0f 0f bd
       0.03597322 -0.0039658304 -0.02931336 -0.034926724
000360 7c ec 92 3d c0 75 e4 3b 8e d6 8b 3d a6 ea ac 3c
       0.07174012 0.0069720447 0.068280324 0.021107983
000370 ae cc b4 3d 7d d1 a3 3d 75 fc f5 3d f4 36 64 bd
       0.08828102 0.07998941 0.12011043 -0.05571647
000380 ec 6a 8a 3d f7 e3 9c bd 35 28 ac bd ff ec b9 3d
       0.06758675 -0.07660668 -0.084061064 0.090784065
000390 bb 5d 16 3d 45 62 40 bd 73 d5 89 bd 68 79 a0 3d
       0.036710482 -0.046968717 -0.06730165 0.078356564
0003a0 8f ce e5 3d 09 11 db bd ef b3 0c bd a3 bf 40 3d
       0.112210386 -0.106966086 -0.034351286 0.04705776
0003b0 86 bd 98 3d 11 85 fd 3d 27 1d fc 3d 3c 3c dd bd
       0.07458024 0.12378896 0.12310248 -0.108025044
0003c0 f0 21 b5 3d 31 d3 74 bd d2 6e d2 bb c4 55 e8 bc
       0.08844364 -0.05977172 -0.006421902 -0.028361209
0003d0 74 f0 24 3d 1d e2 27 bc 0d da 0e 3d f8 9f fd bc
       0.040268376 -0.010246781 0.03487592 -0.030960068
0003e0 4c 7f 98 3d f4 ce 8d bd 18 c5 4f bd 85 a4 a8 bd
       0.07446155 -0.06924239 -0.050725073 -0.082345046
0003f0 0a 57 53 bc a0 d7 a5 3d 03 c4 3a bd 2e f9 36 3d
       -0.01289917 0.08097768 -0.045597088 0.04467123

fc1.weight_fake_quant.scale f4 [84]
000000 b3 7b 81 3a da a7 a2 3a 4d 75 8a 3a 27 38 ae 3a
       0.0009878784 0.0012409643 0.0010563523 0.0013291881
000010 db 0f 94 3a d2 be 44 3a 26 66 b6 3a 9b 12 63 3a
       0.0011296229 0.0007505241 0.0013915941 0.0008662135
000020 57 18 47 3a 50 b1 6d 3a 41 fc 6d 3a f1 4b 8e 3a
       0.00075948745 0.0009067254 0.0009078421 0.0010856373
000030 3a 44 9f 3a 85 cf 9a 3a 13 ee a5 3a 56 c9 96 3a
       0.001215107 0.0011811113 0.0012659453 0.0011504095
000040 8f ed 89 3a 94 98 8d 3a ed 04 a4 3a 1b 6b 5c 3a
       0.0010523068 0.0010802918 0.0012513675 0.0008408294
000050 f8 7a 49 3a 71 b3 a6 3a a9 47 aa 3a b6 e3 9a 3a
       0.0007685865 0.0012718273 0.0012991327 0.0011817131
000060 c1 c9 8f 3a 0a 5d 99 3a e3 37 87 3a e1 6b 94 3a
       0.0010970162 0.0011700701 0.0010316338 0.0011323654
000070 0e 31 a0 3a 90 74 9b 3a 29 89 9e 3a 83 50 92 3a
       0.0012221651 0.00118603 0.001209532 0.001116291
000080 2a 4f a3 3a e9 7e a8 3a d6 b4 91 3a 02 f9 8d 3a
       0.0012459506 0.0012855205 0.0011116515 0.0010831656
000090 4d 64 ad 3a f0 e5 a0 3a 9e 74 a3 3a 3e 9f 49 3a
       0.0013228745 0.0012275558 0.0012470668 0.00076912704
0000a0 e3 81 8a 3a 1f a6 9a 3a d6 bd 73 3a 1c 7b 3b 3a
       0.0010567274 0.0011798776 0.0009298002 0.00071518286
0000b0 33 bb 95 3a 12 c0 9c 3a ab 52 a5 3a 4a df 52 3a
       0.0011423588 0.0011959097 0.0012613138 0.0008044137
0000c0 8e a8 95 3a 6f c1 97 3a 44 2a a6 3a 29 7a 9e 3a
       0.0011418031 0.0011578033 0.0012677391 0.001209085
0000d0 a5 95 7d 3a 29 99 9c 3a 3d d0 9a 3a c5 b0 94 3a
       0.0009673483 0.0011947501 0.0011811327 0.0011344185
0000e0 0d ef 9a 3a aa 50 a5 3a 2f a2 83 3a 82 70 4a 3a
       0.001182051 0.0012612541 0.0010042841 0.00077224534
0000f0 e4 12 93 3a 02 d9 9a 3a 26 48 8d 3a f5 b4 93 3a
       0.001122084 0.0011813941 0.0010778948 0.0011269139
000100 60 c0 99 3a 8f 19 8a 3a e9 42 aa 3a 32 11 97 3a
       0.0011730306 0.0010536182 0.0012989911 0.001152551
000110 89 4d ad 3a ea 59 a7 3a b1 2f 9e 3a a8 36 95 3a
       0.001322196 0.0012767885 0.0012068657 0.0011384087
000120 81 18 9e 3a c2 b7 9f 3a 9a 1a ab 3a cd c8 a2 3a
       0.0012061746 0.0012185501 0.0013054193 0.0012419462
000130 79 af 95 3a 0a 2c 95 3a d1 8b 99 3a ce 60 9b 3a
       0.0011420093 0.0011380923 0.0011714642 0.0011854412
000140 44 36 80 3a 99 6c 58 3a f8 d5 53 3a b2 d8 99 3a
       0.0009781797 0.00082559284 0.0008080895 0.0011737554

fc1.weight_fake_quant.activation_post_process.min_val f4 [84]
000000 60 4d fb bd 52 ed 1e be 97 2e d8 bd 32 1b d6 bd
       -0.122706175 -0.15520218 -0.10555761 -0.10454406
000010 ae 3d 0f be d2 be c4 bd 26 66 36 be 9b 12 e3 bd
       -0.13988373 -0.096067086 -0.17812404 -0.11087533
000020 57 18 c7 bd 50 b1 ed bd 41 fc ed bd ec 3f 0e be
       -0.09721439 -0.11606085 -0.11620379 -0.13891572
000030 d3 42 e8 bd 70 7d 14 be 13 ee 25 be 56 c9 16 be
       -0.11340871 -0.14500976 -0.162041 -0.14725241
000040 ba d6 00 be 94 98 0d be ed 04 24 be 1b 6b dc bd
       -0.12581912 -0.13827735 -0.16017504 -0.10762616
000050 f8 7a c9 bd 5e 83 f0 bd 7b bb 21 be d5 52 e5 bd
       -0.098379076 -0.11743806 -0.15794174 -0.111974396
000060 58 a9 0f be fd 40 0f be 4c 2e eb bd 07 9b 13 be
       -0.14029443 -0.13989635 -0.1148344 -0.14414607
000070 0e 31 20 be 90 74 1b be f4 77 cb bd c0 fe b7 bd
       -0.15643713 -0.15181184 -0.099349886 -0.089841366
000080 2a 4f 23 be 0f f8 c6 bd 37 28 10 be fc c2 0c be
       -0.15948167 -0.09715282 -0.14077841 -0.13746256
000090 63 24 26 be f0 e5 20 be 1c 87 d4 bd 3e 9f c9 bd
       -0.16224818 -0.15712714 -0.103773326 -0.09844826
0000a0 b3 7e 06 be 61 53 18 be d6 bd f3 bd 1c 7b bb bd
       -0.1313427 -0.14875557 -0.11901443 -0.091543406
0000b0 33 bb 15 be 03 8f cd bd ab 52 25 be 4a df d2 bd
       -0.14622192 -0.10037043 -0.16144817 -0.10296495
0000c0 41 b8 0b be 49 b7 0b be 44 2a 26 be 17 18 1e be
       -0.13644506 -0.13644136 -0.1622706 -0.15438877
0000d0 61 b7 cf bd 29 99 1c be 97 14 00 be ab b5 0e be
       -0.101423986 -0.15292801 -0.12507854 -0.13936488
0000e0 cb 9b 1a be aa 50 25 be 4d d1 e7 bd 82 70 ca bd
       -0.15098493 -0.16144052 -0.11319218 -0.098847404
0000f0 05 e0 0e be 02 d9 1a be 47 18 c1 bd 72 30 d2 bd
       -0.13952644 -0.15121844 -0.09428459 -0.102631465
000100 b3 69 19 be 6b ea cb bd a6 ed 28 be 8a be 06 be
       -0.14981727 -0.09956821 -0.16496906 -0.13158622
000110 89 4d 2d be 7c 80 13 be b1 2f 1e be ba 82 05 be
       -0.16924109 -0.14404482 -0.1544788 -0.1303815
000120 81 18 1e be f1 6a 01 be 60 f7 1a be 40 ba 0a be
       -0.15439035 -0.12638451 -0.15133429 -0.13547611
000130 79 af 15 be 45 9e 14 be b6 8d 17 be a7 f2 b5 bd
       -0.14617719 -0.145135 -0.14800152 -0.08884173
000140 32 82 e7 bd 99 6c d8 bd f8 d5 d3 bd b2 d8 19 be
       -0.1130413 -0.10567588 -0.10343546 -0.15024069

fc1.weight_fake_quant.activation_post_process.max_val f4 [84]
000000 bc 78 00 3e 8a 62 21 3e 62 60 09 3e b7 db 2c 3e
       0.12546057 0.15760246 0.13415673 0.1688069
000010 bb e7 12 3e b4 ea ba 3d 3c 49 2e 3e 91 6d c3 3d
       0.1434621 0.09126797 0.17020124 0.095423825
000020 97 b8 ac 3d 03 00 ca 3d 11 78 e6 3d 59 2f 0d 3e
       0.08433645 0.098632835 0.112533696 0.13787593
000030 b2 05 1e 3e e6 99 19 3e 63 d7 1f 3e 82 79 13 3e
       0.1543186 0.15000114 0.15609507 0.1440182
000040 b4 d9 08 3e b0 0a 0c 3e 0f 6b 1b 3e 9e b0 a6 3d
       0.13364297 0.13675952 0.15177558 0.08139156
000050 ce a8 c1 3d 0a 66 25 3e 1a f3 28 3e ef ad 19 3e
       0.09456025 0.16152206 0.16498986 0.15007757
000060 2d aa 0e 3e 50 2a 18 3e 73 29 06 3e 09 43 13 3e
       0.13932104 0.14859891 0.13101749 0.1438104
000070 d5 f4 14 3e 13 bc 17 3e 17 4c 1d 3e e2 2b 11 3e
       0.14546521 0.14817838 0.15361057 0.14176896
000080 c4 48 20 3e eb 2d 27 3e 6c 91 10 3e 10 dd 0c 3e
       0.15652758 0.1632611 0.14117974 0.13756204
000090 84 09 2c 3e 67 e3 1b 3e b5 2d 22 3e 4a 88 ba 3d
       0.16800505 0.15223466 0.15837748 0.09108026
0000a0 df 6c 09 3e d3 70 19 3e 9c af ae 3d f6 92 b8 3d
       0.13420437 0.14984445 0.085295886 0.090124056
0000b0 c0 33 14 3e 92 86 1b 3e 81 cb 1e 3e 6a b5 9d 3d
       0.14472866 0.15188053 0.15507318 0.077006176
0000c0 3d 7d 14 3e ec 91 16 3e 3a cb 1c 3e 35 3d 1d 3e
       0.145009 0.14704102 0.153119 0.1535538
0000d0 7a 9a fb 3d 30 3d 18 3e 9d 9a 19 3e 63 87 13 3e
       0.122853234 0.14867091 0.15000387 0.14407115
0000e0 2f b9 19 3e fd c5 22 3e eb 9a 02 3e da 6a ba 3d
       0.15012048 0.15895839 0.12754409 0.091024116
0000f0 be ec 11 3e bf 00 11 3e 96 2d 0c 3e 8b 8d 12 3e
       0.14250466 0.14160441 0.13689265 0.14311807
000100 df 8c 18 3e 5c 05 09 3e 63 ee 28 3e 10 e3 15 3e
       0.14897488 0.1338095 0.16497187 0.14637399
000110 6b b7 19 3e 36 0b 26 3e d0 f6 14 3e 3b 0c 14 3e
       0.15011375 0.16215214 0.14547276 0.1445779
000120 ad 9c 1c 3e 52 78 1e 3e 65 c4 29 3e 3b 83 21 3e
       0.15294142 0.15475586 0.16578825 0.15772717
000130 4c 61 14 3e b2 01 14 3e b9 58 18 3e 0c 2a 1a 3e
       0.14490241 0.14453772 0.14877595 0.15055102
000140 ae 6b fe 3d f6 3c b9 3d d2 cd af 3d 61 4c 0e 3e
       0.12422882 0.090448305 0.08584179 0.13896324

fc2.weight f4 [1, 84]
000000 46 18 a0 3d c8 d3 15 3e f1 32 b1 3d b7 e1 2f bd
       0.0781713 0.1463157 0.086522944 -0.042939868
000010 15 2f 02 3e 3a 7a c1 3d 6d b1 9e 3d 2f 5c 27 bc
       0.12713273 0.09447141 0.07748685 -0.010214849
000020 43 58 7f 3c 7e 69 3e 3b d1 0b 9b 3d 21 59 0c 3e
       0.015585008 0.0029054577 0.07570613 0.13705875
000030 eb 52 ff bd 6e 9e 0b be 32 41 c5 3d a4 b9 11 3e
       -0.12466987 -0.13634655 0.09631576 0.14230973
000040 80 9a 00 3d de 9e e1 bd 7e 36 0f 3e 09 a2 7d 3c
       0.031397343 -0.1101663 0.13985631 0.015480527
000050 fa f3 a6 bd 22 5c ef bd 72 28 81 3d 34 e2 1e bd
       -0.081520036 -0.11687495 0.063065425 -0.038789943
000060 cc d1 fd bd a5 46 0a be 6b a9 b3 3d 10 87 a1 3d
       -0.12393531 -0.13503511 0.08772548 0.07887089
000070 64 f5 a7 bd 37 14 c4 3d 6f ae 14 be 46 3f 0d be
       -0.082011014 0.09574168 -0.14519666 -0.13793668
000080 1e c1 06 3e 09 d2 9c bd bd f7 05 be b0 8e ef bd
       0.13159606 -0.076572485 -0.13082786 -0.11697137
000090 dd 55 ba bd 91 d9 f3 3d 71 d9 ab bd 40 1a a1 3d
       -0.09098408 0.11906732 -0.08391083 0.07866335
0000a0 53 f9 c0 bd 65 2f f3 3d 3a 52 ad bd d2 77 8f 3d
       -0.09422555 0.11874274 -0.08462949 0.07005276
0000b0 da 86 84 3d 0c 2b 8e bd 22 38 fb 3d 21 7d 46 3d
       0.064710334 -0.06941804 0.12266566 0.048459176
0000c0 e0 3e e8 bd 1b 0b c6 bd 66 d4 9a 3d 1e f8 98 3d
       -0.113401175 -0.09670087 0.07560043 0.074691996
0000d0 df e9 e4 bd da aa eb bd b5 4e 1d 3e b0 7a d6 bd
       -0.1117742 -0.11507197 0.15362056 -0.104726195
0000e0 7b b6 1e 3e 0e 79 02 3e ec c0 55 bd 8a 7a c4 3c
       0.15499298 0.12741491 -0.052185938 0.023984212
0000f0 68 dd c5 3d 11 56 0e be 40 f5 b2 bd 40 98 0c be
       0.096613705 -0.13900019 -0.08738184 -0.13729954
000100 64 a9 9d 3d 14 04 08 be ae 3a 1a 3e a3 e7 67 bd
       0.07698324 -0.13282806 0.15061447 -0.05661739
000110 2b d6 c2 3d 96 fd 90 bd d2 98 14 3e 77 b0 c4 bd
       0.095135055 -0.07079618 0.14511421 -0.096039705
000120 27 50 00 be 44 12 d6 3d f3 e6 09 3e bc b8 a7 bd
       -0.12530576 0.10452703 0.13467006 -0.08189532
000130 73 d3 cf bd 3d 13 03 be d7 a6 c1 bd 9d ca be bd
       -0.101477526 -0.12800308 -0.0945565 -0.09315989
000140 4a 11 5d 3c 82 4e 4a 3d f6 42 5c 3d 61 37 bc bd
       0.013492892 0.049391277 0.053774796 -0.0919025
