experiments/exp001/checkpoint.pth (torch, 764066 bytes, 27 tensors)

conv1.weight f4 [6, 2, 5, 5]
0.08140402 -0.101443656 0.08097137 -0.0974679 -0.025390059 -0.13446918 0.04509514 0.02896129
-0.09598355 -0.11836102 0.0120433215 0.116235055 0.12347979 -0.0012837523 0.09786293 -0.023228038
0.14755592 -0.06527328 -0.02781698 0.10549106 0.08349363 0.0901524 0.1626114 0.03176102
0.093056194 -0.12219237 -0.14525075 -0.020447668 -0.13610353 0.10386004 -0.08664775 0.026693739
-0.17750959 -0.032686505 -0.077888034 0.14451127 -0.21449122 0.09778525 -0.21022306 0.0649985
-0.07017798 -0.015504141 0.14273468 -0.05447611 -0.019245587 0.08127665 -0.0063609174 0.09961129
0.11738952 0.053351983 0.08686929 -0.16260199 -0.09225139 0.13833751 0.038815252 -0.038676396
-0.059492968 0.054579444 -0.104179606 0.12196108 -0.008882956 -0.014948898 0.088655055 -0.13212597
0.06901191 0.05273089 -0.043768376 -0.07212674 -0.13556278 -0.049057357 -0.09617324 -0.10172359
0.079941735 0.0997086 -0.16430902 0.012990622 0.1559843 0.16636364 0.18111329 0.14191426
-0.09562352 0.15548792 0.001898575 -0.0051201493 0.01346227 -0.101010434 0.078267954 -0.030872123
0.18079263 0.11891687 -0.06058982 0.06725685 0.067043 -0.076725736 -0.12321282 0.023280486
-0.03778637 -0.18128796 -0.1821172 -0.18517244 0.14746264 -0.11770575 0.031533267 0.0025849813
-0.096663214 0.13950047 0.09155632 0.087732345 -0.03975521 0.001412798 -0.12286292 -0.048174318
-0.1382545 0.010067849 0.04637787 0.00065420015 -0.0119600175 -0.008444828 0.03596317 0.11679575
-0.11364901 0.08794958 0.051355395 0.1389901 -0.017513165 -0.13122782 0.15081717 0.08920662
-0.021915056 0.07068573 -0.05614991 0.06170131 0.10582619 0.018652024 0.10457956 -0.002035053
0.015829979 0.064130425 -0.08913765 -0.094577625 0.012758595 0.014219934 -0.106352165 -0.12248548
0.12729065 0.09272415 -0.08804371 -0.03537735 -0.048300203 -0.034567773 0.07506287 0.13839018
-0.03836274 -0.0257087 -0.050730072 -0.061795115 0.04832926 -0.009525051 -0.030460734 0.007897073
0.0906831 0.05196564 0.039618272 0.056393974 -0.083894126 -0.013636941 0.10143179 -0.04134585
0.052349422 -0.067001484 -0.067526504 0.06538318 0.073062204 0.005388053 -0.04231038 0.02147562
0.021049226 -0.043928064 0.09269814 -0.09048684 -0.035382543 0.06098574 -0.17012374 -0.0007478761
-0.16757147 0.015461564 -0.035668854 -0.13100216 0.06262174 -0.10175192 -0.11006281 -0.12798965
0.0016621613 -0.05350583 0.0149042215 -0.06403734 -0.07058237 0.05225025 0.010270779 -0.045660928
-0.15723966 -0.20139141 -0.13712205 0.085346594 0.0966495 -0.028106002 0.03359361 -0.030437509
-0.13688914 0.14177808 -0.09839285 0.047969315 -0.002389911 -0.037217535 0.16115047 0.08094619
-0.043016586 0.10772692 -0.0740468 -0.06821337 -0.06809832 0.061535712 0.01632934 -0.04504104
0.06125436 0.103542216 -0.030611752 -0.16294897 0.033943977 0.19456531 -0.083597705 -0.12831853
0.030667974 0.14066344 -0.007573477 -0.007885202 0.040574037 -0.06713158 0.01118639 -0.19457696
-0.124542855 0.006010658 0.09155805 0.12865259 -0.13332085 0.119740345 -0.04174745 0.096312486
0.08427264 0.044763736 0.04910169 0.17240374 0.15753107 -0.028691608 -0.0060098367 0.14716092
00000000: 27b7 a63d b1c1 cfbd 51d4 a53d 409d c7bd
00000010: d0fe cfbc 4ab2 09be aeb5 383d 3a40 ed3c
00000020: 0693 c4bd 4367 f2bd 5a51 453c a50c ee3d
00000030: f9e2 fc3d 9443 a8ba 5c6c c83d ba48 bebc
00000040: e618 173e ffad 85bd 6fe0 e3bc b20b d83d
00000050: b5fe aa3d d2a1 b83d 9a83 263e d817 023d
00000060: 3f94 be3d fe3f fabd 9dbc 14be de81 a7bc
00000070: b95e 0bbe 93b4 d43d 6074 b1bd d4ac da3c
00000080: 13c5 35be 49e2 05bd c383 9fbd c3fa 133e
00000090: 96a3 5bbe a243 c83d b744 57be ef1d 853d
000000a0: 79b9 8fbd 1505 7ebc 0a29 123e 5722 5fbd
000000b0: eca8 9dbc 5f74 a63d 3e6f d0bb 0101 cc3d
000000c0: eb69 f03d 9c87 5a3d 87e8 b13d 2381 26be
000000d0: 4cee bcbd 59a8 0d3e befc 1e3d 246b 1ebd
000000e0: e6ae 73bd b28e 5f3d 1e5c d5bd bbc6 f93d
000000f0: d189 11bc 39ec 74bc c890 b53d 084c 07be
00000100: 1e56 8d3d 59fc 573d 7846 33bd 2fb7 93bd
00000110: f8d0 0abe 5ef0 48bd 7af6 c4bd 7554 d0bd
00000120: 7eb8 a33d 0634 cc3d a040 28be 9ed6 543c
00000130: 59ba 1f3e 3b5b 2a3e c375 393e f951 113e
00000140: 44d6 c3bd 3a38 1f3e 9bd9 f83a edc6 a7bb
00000150: da90 5c3c 8fde cebd f34a a03d 89e7 fcbc
00000160: b421 393e b08a f33d 082d 78bd f6bd 893d
00000170: d74d 893d 6222 9dbd 0157 fcbd b8b6 be3c
00000180: e1c5 1abd 8da3 39be ee7c 3abe d89d 3dbe
00000190: 7200 173e b60f f1bd 0729 013d ca68 293b
000001a0: 5df7 c5bd 36d9 0e3e e181 bb3d 04ad b33d
000001b0: 5cd6 22bd a22d b93a 8e9f fbbd 6f52 45bd
000001c0: 9692 0dbe 9ff3 243c b9f6 3d3d a17e 2b3a
000001d0: f3f3 43bc 2d5c 0abc 1e4e 133d 9c32 ef3d
000001e0: d0c0 e8bd e91e b43d 095a 523d 6c53 0e3e
000001f0: c577 8fbc 9660 06be d16f 1a3e f6b1 b63d
00000200: 3487 b3bc aec3 903d 73fd 65bd 83ba 7c3d
00000210: 67bb d83d 21cc 983c cf2d d63d 865e 05bb
00000220: dfad 813c d056 833d cd8d b6bd eab1 c1bd
00000230: 6d09 513c bafa 683c 2acf d9bd abd9 fabd
00000240: 7b58 023e 29e6 bd3d 4350 b4bd d7e7 10bd
00000250: 6fd6 45bd f096 0dbd 90ba 993d 28b6 0d3e
00000260: 4022 1dbd 0d9b d2bc 56ca 4fbd e01c 7dbd
00000270: e7f4 453d f60e 1cbc ca88 f9bc ba62 013c
00000280: 10b8 b93d ecd9 543d c546 223d 5efd 663d
00000290: afd0 abbd 7a6d 5fbc 78bb cf3d 445a 29bd
000002a0: 596c 563d 1338 89bd 564b 8abd 9ee7 853d
000002b0: a3a1 953d 448e b03b a64d 2dbd a4ed af3c
000002c0: 6d6f ac3c eaed 33bd 86d8 bd3d 2a51 b9bd
000002d0: 49ed 10bd 2fcc 793d eb34 2ebe 1e0d 44ba
000002e0: db97 2bbe 8052 7d3c 8119 12bd 6e25 06be
000002f0: d43f 803d 5063 d0bd 9c68 e1bd b80f 03be
00000300: e1dc d93a ee28 5bbd d630 743c 0226 83bd
00000310: 7d8d 90bd 5c04 563d c546 283c f406 3bbd
00000320: 6f03 21be 8d39 4ebe b969 0cbe 32ca ae3d
00000330: 2cf0 c53d 8f3e e6bc 7499 093d 1558 f9bc
00000340: ab2c 0cbe 462e 113e 3182 c9bd 797b 443d
00000350: 0ea0 1cbb 6a71 18bd a104 253e 1ec7 a53d
00000360: 2932 30bd ee9f dc3d d9a5 97bd 74b3 8bbd
00000370: 2277 8bbd df0c 7c3d 1cc5 853c f47c 38bd
00000380: dae5 7a3d f10d d43d 7fc5 fabc 18dc 26be
00000390: d708 0b3d 213c 473e 4635 abbd ef65 03be
000003a0: 673b fb3c 140a 103e ee2a f8bb ef30 01bc
000003b0: f630 263d 487c 89bd 1f47 373c 2f3f 47be
000003c0: 5310 ffbd 0ef5 c43b c982 bb3d 81bd 033e
000003d0: 4385 08be 6d3a f53d 60ff 2abd 7b3f c53d
000003e0: 2297 ac3d 2e5a 373d db1e 493d 9b8a 303e
000003f0: d34f 213e aa0a ebbc 2aee c4bb 5ab1 163e

conv1.weight_fake_quant.scale f4 [6]
0.0016636665 0.0014365889 0.0011816128 0.0013143806 0.0015503494 0.0014073037
00000000: 620f da3a ed4b bc3a 59e0 9a3a 4b47 ac3a
00000010: 1835 cb3a 4775 b83a

conv1.weight_fake_quant.activation_post_process.min_val f4 [6]
-0.2129493 -0.18388338 -0.13622235 -0.16824071 -0.19844472 -0.18013488
00000000: 620f 5abe ed4b 3cbe df7d 0bbe 4b47 2cbe
00000010: 1835 4bbe 4775 38be

conv1.weight_fake_quant.activation_post_process.max_val f4 [6]
0.16096891 0.18050535 0.15006483 0.1380871 0.19268094 0.17153406
00000000: 09d5 243e 65d6 383e 98aa 193e b466 0d3e
00000010: 274e 453e a0a6 2f3e

conv2.weight f4 [16, 6, 5, 5]
-0.048531286 -0.11180111 -0.10724179 -0.024943918 -0.0792898 0.06958136 -0.069523655 -0.13856927
0.0048656063 -0.12818654 0.0015243819 -0.035249032 0.046225656 -0.037624367 -0.09170035 -0.01968392
0.15366715 0.05373011 0.13334437 0.08782249 0.13262574 0.08684018 0.07559563 0.11337224
0.057009835 0.15132907 0.10814105 0.1409864 0.045214746 0.06825431 0.015573023 -0.0021380347
0.042507805 -0.015520818 0.064756386 -0.113211475 -0.14705257 -0.05322812 -0.07860899 -0.018830404
0.051168248 0.013971851 -0.030969437 0.011819086 -0.056001946 0.041083533 -0.030079274 0.1029173
0.022009283 -0.08841659 -0.109167285 -0.06654579 -0.09558285 -0.013154806 0.023433104 -0.15975069
-0.100476876 -0.01532545 -0.091732286 0.1072023 -0.1588976 -0.13239881 -0.10175699 -0.04300693
-0.032146003 -0.15819418 -0.0739969 -0.15024088 -0.15883425 -0.04097557 -0.06315233 -0.051418222
0.03397803 -0.016253011 -0.008259316 0.070799455 -0.0031076332 -0.041465487 0.04019838 -0.049963817
0.05473206 0.13190104 0.07811648 0.07009247 0.01547832 -0.010866432 0.00855515 0.016611677
0.023870373 -0.0321356 0.005973011 -0.09585416 -0.06566661 -0.049231213 0.009927782 -0.04071917
-0.049860664 -0.10542053 -0.019347994 -0.06635052 0.03200644 0.08658967 0.066274084 0.06685031
0.051015284 0.0536405 0.12025748 -0.004402294 -0.048518077 -0.041534875 0.15795115 0.10886709
-0.0015440071 0.004703212 -0.015142481 0.017869027 0.095481046 0.072839305 -0.0074540214 0.008728893
0.041494966 0.08051699 0.033322763 0.122594945 0.15907507 -0.14872667 -0.10925245 -0.114753604
0.042235702 0.13412319 -0.15435952 -0.16138244 -0.14479351 -0.055679638 0.017633477 -0.15925574
-0.115787424 -0.10246516 -0.043170907 0.0072156284 -0.09396481 -0.038195644 -0.11149264 -0.08011806
-0.03861528 -0.02204622 0.05704496 0.0689371 0.017101428 -0.0016076514 0.1387242 -0.069006294
0.002271682 -0.028641362 -0.029990135 -0.016617663 -0.1384289 -0.098665245 -0.0110195875 0.022443775
0.11135077 -0.068617575 -0.051102564 0.0063900487 -0.056147642 0.07164034 0.058790874 0.018354226
0.017634884 -0.008379419 0.035258915 -0.1025856 0.0034361812 -0.005551894 -0.06191613 0.15526496
0.07956369 0.15783282 0.10639549 0.053036686 0.037706394 0.053132977 -0.03773368 -0.09520368
-0.104892954 0.08301509 -0.024074016 0.016213926 -0.13372752 -0.1140666 0.08725208 0.022803187
0.0088691665 -0.10258025 -0.03213201 0.08748957 -0.004983361 0.02555313 -0.108313754 -0.12298636
0.10950711 0.042766783 0.054103423 -0.0040191673 0.050478756 0.11005397 0.039392184 0.11915986
-0.11162475 -0.015079609 0.08477497 -0.09185701 -0.0032939939 -0.08777133 -0.023396827 0.06255271
-0.028166827 0.048977666 -0.037709057 -0.026431866 0.07253054 -0.011258562 0.009944616 -0.066949315
-0.021050971 -0.06311178 0.02475355 -0.0856989 0.008191043 0.083598375 -0.035792563 0.033813786
-0.06876804 -0.047349658 0.039241105 -0.10894747 0.02612776 -0.0031223716 0.015770601 -0.016847083
-0.03171624 0.048792783 -0.07950857 0.063021146 0.041799806 -0.04708451 0.042224925 0.016129298
0.04532106 0.031701613 0.046936132 0.110948846 -0.009745881 -0.046433263 -0.16281024 0.09482439
00000000: bec8 46bd fbf7 e4bd 95a1 dbbd 3057 ccbc
00000010: b162 a2bd ac80 8e3d 6b62 8ebd 1ae5 0dbe
00000020: aa6f 9f3b 5543 03be c5cd c73a 4a61 10bd
00000030: 1d57 3d3d 021c 1abd 65cd bbbd 2c40 a1bc
00000040: ec5a 1d3e 1b14 5c3d 6d8b 083e 47dc b33d
00000050: 0bcf 073e 44d9 b13d e2d1 9a3d b42f e83d
00000060: 2583 693d 02f6 1a3e 0e79 dd3d bd5e 103e
00000070: 1933 393d eac8 8b3d fe25 7f3c 451e 0cbb
00000080: aa1c 2e3d 074b 7ebc ff9e 843d 6bdb e7bd
00000090: f394 16be bb05 5abd c0fd a0bd 3842 9abc
000000a0: cc95 513d 31ea 643c 9eb3 fdbc d7a4 413c
000000b0: 4c62 65bd 3547 283d cf68 f6bc 4ec6 d23d
000000c0: d04c b43c c213 b5bd 1993 dfbd 2949 88bd
000000d0: f1c0 c3bd 4187 57bc c8f6 bf3c af95 23be
000000e0: d2c6 cdbd 9917 7bbc 23de bbbd e18c db3d
000000f0: 0db6 22be 8e93 07be f865 d0bd 0928 30bd
00000100: 87ab 03bd a8fd 21be b08b 97bd bfd8 19be
00000110: 72a5 22be 00d6 27bd 0256 81bd ea9b 52bd
00000120: 8c2c 0b3d 0925 85bc 1552 07bc 4eff 903d
00000130: 6fa9 4bbb b7d7 29bd 0ea7 243d dca6 4cbd
00000140: b92e 603d 1111 073e 88fb 9f3d a48c 8f3d
00000150: c898 7d3c 1f09 32bc e62a 0c3c 3615 883c
00000160: cd8b c33c 9ea0 03bd 3fb9 c33b 304f c4bd
00000170: 377c 86bd aba6 49bd 23a8 223c 25c9 26bd
00000180: b23a 4cbd b8e6 d7bd af7f 9ebc c8e2 87bd
00000190: 2f19 033d ed55 b13d b5ba 873d d1e8 883d
000001a0: 67f5 503d 24b6 5b3d 8e49 f63d 1e41 90bb
000001b0: e4ba 46bd 7920 2abd f2bd 213e b5f5 de3d
000001c0: 4860 caba 671d 9a3b 2b18 78bc 1162 923c
000001d0: 918b c33d c62c 953d dd40 f4bb a103 0f3c
000001e0: a0f6 293d 17e6 a43d 737d 083d 0f13 fb3d
000001f0: 93e4 223e ce4b 18be c0bf dfbd f003 ebbd
00000200: 58ff 2c3d 9757 093e 6c10 1ebe 7041 25be
00000210: c044 14be 5510 64bd 1574 903c f013 23be
00000220: f521 edbd 41d9 d1bd fad3 30bd 1471 ec3b
00000230: 9f70 c0bd 0973 1cbd 4156 e4bd f014 a4bd
00000240: 0e2b 1ebd 469a b4bc faa7 693d e52e 8d3d
00000250: 4b18 8c3c d4b7 d2ba b70d 0e3e 2c53 8dbd
00000260: 80e0 143b 4aa1 eabc dfad f5bc c421 88bc
00000270: 4ec0 0dbe 0111 cabd 808b 34bc 02dc b73c
00000280: df0b e43d 5f87 8cbd ec50 51bd 9d63 d13b
00000290: 12fb 65bd 2cb8 923d b3ce 703d 9a5b 963c
000002a0: 0877 903c d549 09bc a76b 103d 6618 d2bd
000002b0: 8e31 613b aaec b5bb c59b 7dbd c7fd 1e3e
000002c0: 4af2 a23d ed9e 213e e1e5 d93d ff3c 593d
000002d0: 0572 1a3d f7a1 593d a28e 1abd 26fa c2bd
000002e0: 1ed2 d6bd d103 aa3d df36 c5bc 11d3 843c
000002f0: deef 08be c09b e9bd 38b1 b23d c0cd ba3c
00000300: fb4f 113c 9815 d2bd db9c 03bd bb2d b33d
00000310: 764b a3bb cc54 d13c 9ad3 ddbd 46e0 fbbd
00000320: 4445 e03d 392c 2f3d 8d9b 5d3d 38b3 83bb
00000330: d0c2 4e3d fa63 e13d b359 213d 160a f43d
00000340: 849b e4bd 7710 77bc 809e ad3d 871f bcbd
00000350: 0ce0 57bb 74c1 b3bd b4aa bfbc a31b 803d
00000360: 1ebe e6bc ce9c 483d d074 1abd a487 d8bc
00000370: e48a 943d d575 38bc beee 223c b91c 89bd
00000380: 1673 acbc c040 81bd f5c7 ca3c e882 afbd
00000390: b933 063c a035 ab3d 399b 12bd 5380 0a3d
000003a0: 42d6 8cbd b7f1 41bd 48bb 203d da1f dfbd
000003b0: e209 d63c b4a0 4cbb 5931 813c e502 8abc
000003c0: e3e8 01bd f1da 473d 64d5 a2bd 3b11 813d
000003d0: 4636 2b3d b0db 40bd 0bf4 2c3d 9721 843c
000003e0: 93a2 393d 8dd9 013d 1a40 403d 2639 e33d
000003f0: 30ad 1fbc ce30 3ebd bab7 26be 4a33 c23d

conv2.weight_fake_quant.scale f4 [16]
0.0012506266 0.0012533626 0.001181699 0.0012394091 0.0011916967 0.0012472119 0.0011986194 0.0013097781
0.0013187428 0.0012067955 0.0011988712 0.0012806928 0.0011580865 0.0012766871 0.0014228196 0.001290565
00000000: 11ec a33a df47 a43a 3de3 9a3a ab73 a23a
00000010: b532 9c3a 7d79 a33a fe1a 9d3a dcac ab3a
00000020: aad9 ac3a 562d 9e3a 7123 9d3a ebdc a73a
00000030: efca 973a 8356 a73a e77d ba3a 2d28 a93a

conv2.weight_fake_quant.activation_post_process.min_val f4 [16]
-0.16008021 -0.16043042 -0.12920102 -0.15864436 -0.13341631 -0.15964313 -0.14546552 -0.1607118
-0.12805915 -0.1498125 -0.14694001 -0.1601553 -0.14768347 -0.1627264 -0.1821209 -0.116571
00000000: 11ec 23be df47 24be 464d 04be ab73 22be
00000010: 499e 08be 7d79 23be eaf4 14be a291 24be
00000020: f021 03be 7368 19be 7177 16be c0ff 23be
00000030: 563a 17be c0a1 26be e77d 3abe c7bc eebd

conv2.weight_fake_quant.activation_post_process.max_val f4 [16]
0.15833816 0.156809 0.15007578 0.15152901 0.15134549 0.15742408 0.15222466 0.16634181
0.16748033 0.15326302 0.15225664 0.16264798 0.14707698 0.16213927 0.14624606 0.16390176
00000000: 6623 223e 8a92 203e 77ad 193e 6c2a 1b3e
00000010: 50fa 1a3e c733 213e c8e0 1b3e 8255 2a3e
00000020: f77f 2b3e fbf0 1c3e 2ae9 1b3e 318d 263e
00000030: 599b 163e d607 263e 87c1 153e ddd5 273e

conv3.weight f4 [120, 16, 5, 5]
0.004624532 -0.024236154 0.023140037 0.03649511 -0.12528732 -0.016565638 -0.09398476 -0.0067201806
-0.05859475 0.04979441 -0.06276472 -0.014851714 0.0032829288 0.11226507 0.11991285 0.05997171
0.07740532 0.034658823 0.111147024 0.03387611 -0.042263802 -0.092622295 -0.013800843 0.022173826
0.095287055 0.023212891 -0.012753298 0.0657347 0.042657577 -0.06429369 0.072609976 -0.03765351
-0.039585054 -0.03023147 0.00035071466 0.012695776 -0.12740302 -0.028399976 -0.07266682 -0.020738536
-0.053818192 -0.04090768 -0.035925854 0.0066207023 0.01693543 -0.07916103 -0.059735917 -0.076711565
0.0022584086 0.059359647 -0.11277723 -0.042622875 -0.08440987 0.0014346456 -0.03991813 -0.09817388
-0.06817021 -0.043902557 -0.01619121 -0.0045044683 -0.0063388105 -0.084165506 -0.10622588 -0.011350966
-0.005883797 -0.07388301 -0.049068708 0.0042555872 0.04219076 0.10154517 -0.021874124 -0.10724483
-0.054520335 -0.032328762 -0.0021865177 -0.05570732 0.04677721 0.01786495 0.017478298 -0.045230772
0.01873305 0.020566534 -0.01370251 -0.04039577 -0.00022712276 0.007767342 0.0147946505 0.0036183223
-0.094867535 -0.044607885 0.008970385 -0.009992328 0.0040779766 0.0063669467 0.053008307 0.08866256
-0.0037448206 0.015344026 0.050926678 0.01418157 0.106952265 -0.01555752 0.027560487 0.0135580525
0.01609335 -0.06338867 -0.07101882 -0.018531704 -0.02039154 -0.010242287 -0.025736729 -0.04820183
-0.013429636 0.038206246 0.054024708 0.04355425 -0.002538413 0.03238799 0.13275652 0.12942553
-0.084705696 -0.030408328 -0.09363894 0.03968967 0.12955274 0.020890962 -0.059477214 -0.0548539
-0.029754147 -0.024624452 -0.03550401 -0.08594341 -0.061612617 -0.04016714 0.013687642 -0.000341471
0.008927962 -0.059783243 0.024887402 0.018685346 -0.06514752 -0.041474532 -0.041172203 0.12961552
0.12947586 -0.015007146 0.006093122 -0.108551934 0.102424316 0.13026246 -0.06870721 -0.059779234
0.02368252 -0.05252884 -0.03525421 -0.060887534 -0.018922346 -0.08434596 -0.0022413249 -0.041764565
-0.027359178 0.012063422 -0.009207688 -0.057613183 -0.031956002 -0.053515702 -0.030808808 -0.061529417
0.08609831 -0.040645394 -0.04111233 -0.07782231 -0.05172038 -0.10158754 -0.0830748 0.008270396
0.027719771 0.0022704916 -0.04008941 -0.019184487 0.008335623 -0.03030326 -0.05981963 -0.10196081
-0.024183813 -0.052076194 -0.07348853 0.020975402 0.06773199 0.049073037 -0.050674986 0.011040388
-0.027267393 0.02806596 0.037211563 -0.064784504 -0.05417124 0.03324559 0.016806625 0.021661885
-0.02064145 0.013047338 -0.07325377 -0.087823234 -0.11466227 0.007085005 0.002276186 -0.084656864
-0.05453278 -0.064149275 -0.051650412 -0.06353244 -0.048400804 0.033231676 -0.022342417 -0.05252493
-0.038987376 -0.011781848 0.052194934 0.017035773 -0.093948804 -0.04398931 0.07863888 0.13406037
-0.01117673 -0.13006164 -0.07992816 -0.10390101 0.026366785 -0.029292712 -0.13454084 -0.11647393
-0.025531106 0.0006477607 -0.0038059491 -0.08422627 -0.05930943 -0.036269035 0.07127728 -0.030943163
-0.054310232 -0.06440762 -0.119371735 -0.014715664 0.05904135 -0.10315218 -0.11120841 -0.053106528
-0.026076194 -0.05452133 0.05499191 -0.036586296 -0.01639861 -0.038816188 -0.050578114 -0.022860521
00000000: 6389 973b e68a c6bc 2d90 bd3c e57b 153d
00000010: 524b 00be a9b4 87bc 157b c0bd f634 dcbb
00000020: 0c01 70bd 39f5 4b3d ca8a 80bd 9a54 73bc
00000030: 6826 573b 3beb e53d de94 f53d e5a4 753d
00000040: ae86 9e3d 69f6 0d3d 0da1 e33d adc1 0a3d
00000050: cf1c 2dbd c2b0 bdbd ee1c 62bc e2a5 b53c
00000060: dc25 c33d f628 be3c 35f3 50bc ea9f 863d
00000070: b6b9 2e3d 69ac 83bd 8ab4 943d 913a 1abd
00000080: f023 22bd fda7 f7bc 20e0 b739 f201 503c
00000090: f075 02be 11a7 e8bc 57d2 94bd dde3 a9bc
000000a0: 7770 5cbd d08e 27bd fd26 13bd 7af2 d83b
000000b0: 2cbc 8a3c 2e1f a2bd a6ad 74bd f41a 9dbd
000000c0: cf01 143b 1a23 733d c0f7 e6bd 5395 2ebd
000000d0: 15df acbd b80a bc3a 3181 23bd 630f c9bd
000000e0: d39c 8bbd 2bd3 33bd 6ea3 84bc 389a 93bb
000000f0: ccb5 cfbb f75e acbd f48c d9bd 67f9 39bc
00000100: decc c0bb fa4f 97bd 45fc 48bd 7472 8b3b
00000110: 38d0 2c3d eaf6 cf3d 5d31 b3bc 2da3 dbbd
00000120: b750 5fbd 2a6b 04bd ae4b 0fbb 5c2d 64bd
00000130: 7699 3f3d 8459 923c a62e 8f3c e743 39bd
00000140: 0e76 993c 267b a83c 7e80 60bc 0976 25bd
00000150: cd27 6eb9 3085 fe3b 4365 723c 6021 6d3b
00000160: e949 c2bd c2b6 36bd 86f8 123c dcb6 23bc
00000170: 8ca0 853b d2a1 d03b 3d1f 593d b794 b53d
00000180: aa6b 75bb 8265 7b3c 7e98 503d d159 683c
00000190: ca09 db3d f8e4 7ebc 88c6 e13c 9822 5e3c
000001a0: 33d6 833c ebd1 81bd 5172 91bd cdcf 97bc
000001b0: 290c a7bc 44cf 27bc d5d5 d2bc 486f 45bd
000001c0: fa07 5cbc 277e 1c3d 0349 5d3d f165 323d
000001d0: 815b 26bb 45a9 043d 53f1 073e 2088 043e
000001e0: 2e7a adbd e31a f9bc c6c5 bfbd a391 223d
000001f0: 79a9 043e 8623 ab3c 619e 73bd 7cae 60bd
00000200: f8be f3bc 38b9 c9bc a76c 11bd 1903 b0bd
00000210: 835d 7cbd 4d86 24bd 2242 603c 7607 b3b9
00000220: 9646 123c 46df 74bd aae0 cb3c 0312 993c
00000230: 106c 85bd 33e1 29bd 2fa4 28bd eeb9 043e
00000240: 5295 043e 88e0 75bc d0a8 c73b 7a50 debd
00000250: d7c3 d13d 8663 053e 5eb6 8cbd 12db 74bd
00000260: d801 c23c 7b28 57bd b866 10bd 3565 79bd
00000270: 0903 9bbc 93bd acbd 31e3 12bb 5211 2bbd
00000280: 5b20 e0bc a9a5 453c d8db 16bc cdfb 6bbd
00000290: 4ce4 02bd 4833 5bbd c162 fcbc 4506 7cbd
000002a0: 5054 b03d c97b 26bd 6765 28bd 4e61 9fbd
000002b0: c0d8 53bd 210d d0bd 1f23 aabd 8e80 073c
000002c0: 9314 e33c 87cc 143b cb34 24bd c928 9dbc
000002d0: 2392 083c 8b3e f8bc 6e05 75bd d4d0 d0bd
000002e0: 221d c6bc d94d 55bd 2881 96bd 9bd4 ab3c
000002f0: 12b7 8a3d cf00 493d 9390 4fbd bee2 343c
00000300: de5f dfbc 96ea e53c 276b 183d bdad 84bd
00000310: aae2 5dbd 872c 083d 0cae 893c 4474 b13c
00000320: 4218 a9bc 81c4 553c 1306 96bd abdc b3bd
00000330: 0dd4 eabd 5429 e83b 102c 153b 9460 adbd
00000340: c45d 5fbd b260 83bd 628f 53bd 4c1d 82bd
00000350: ec3f 46bd f01d 083d 7207 b7bc 6224 57bd
00000360: 3ab1 1fbd a708 41bc 5bca 553d 9b8e 8b3c
00000370: 3b68 c0bd 222e 34bd 6c0d a13d 1f47 093e
00000380: 9a1e 37bc e12e 05be 60b1 a3bd 0dca d4bd
00000390: 28ff d73c 45f7 efbc 13c5 09be e289 eebd
000003a0: 9c26 d1bc 7cce 293a 3b6d 79bb d37e acbd
000003b0: 72ee 72bd d78e 14bd d3f9 913d 847c fdbc
000003c0: 6874 5ebd 24e8 83bd 2b79 f4bd f819 71bc
000003d0: 58d5 713d 7341 d3bd 3cc1 e3bd 3b86 59bd
000003e0: be9d d5bc c251 5fbd 323f 613d 83db 15bd
000003f0: 6156 86bc b9fd 1ebd ff2a 4fbd fd45 bbbc

conv3.weight_fake_quant.scale f4 [120]
0.0011040709 0.0005383369 0.0010799336 0.00094859285 0.0010243034 0.0009091094 0.0010199794 0.0006866377
0.0011809745 0.0010820183 0.00087630906 0.0010890259 0.0005890803 0.00046817656 0.0009764035 0.000551851
0.00060349813 0.0010143658 0.00047720684 0.00078918523 0.0007586587 0.0005510066 0.0010987762 0.00046356983
0.0004963005 0.00045797275 0.00084036525 0.00089306914 0.0007017623 0.0011444142 0.0011679035 0.0004813022
0.0010480676 0.0005151236 0.0009170562 0.00057616027 0.00052110525 0.0011223537 0.0010906041 0.001079488
0.0009323669 0.0009825658 0.00047974696 0.0010368614 0.0011069487 0.00093977945 0.0005443542 0.0004664503
0.0011662378 0.0011254309 0.00055119366 0.0010906644 0.0004607535 0.0011629548 0.00055607234 0.0009987485
0.0010136402 0.0004858203 0.0011197664 0.0005822712 0.0011468879 0.00045225315 0.0011325665 0.0005074269
0.0010678511 0.0010818577 0.00045924657 0.0004669539 0.0004915693 0.00077069685 0.0010075142 0.0011354445
0.00045067893 0.0010783914 0.000565369 0.00045236188 0.001102492 0.000926192 0.0011453857 0.0010486664
0.0010333104 0.0010389104 0.0006157781 0.00045506062 0.001154516 0.0004912468 0.001181343 0.0004848849
0.0011281187 0.00093393016 0.0011435742 0.0010765702 0.001187857 0.0011400591 0.00045695918 0.00043903384
0.0010822613 0.0005367277 0.0011073464 0.00048477715 0.00053061714 0.0011215227 0.0010030518 0.00066932105
0.00046747975 0.00049243437 0.0006054727 0.00109355 0.0011522338 0.0010614431 0.00047654333 0.00053239
0.00043535721 0.001094194 0.0005499524 0.0011069659 0.00044086933 0.00093478896 0.0009643737 0.00090637297
00000000: 79b6 903a 2e1f 0d3a 8f8c 8d3a fdaa 783a
00000010: eb41 863a 4d51 6e3a d4b0 853a 7aff 333a
00000020: eeca 9a3a 82d2 8d3a 1bb8 653a a5bd 8e3a
00000030: 826c 1a3a 9875 f539 54f5 7f3a 18aa 103a
00000040: 1334 1e3a 78f4 843a 9e31 fa39 53e1 4e3a
00000050: b9e0 463a 6d71 103a d004 903a 4a0b f339
00000060: 2a1a 023a 101c f039 f54b 5c3a db1c 6a3a
00000070: 79f6 373a 2b00 963a 5714 993a 4a57 fc39
00000080: 505f 893a 5c09 073a 9a66 703a 7609 173a
00000090: c89a 083a f11b 933a 9af2 8e3a 9b7d 8d3a
000000a0: 156a 743a 70c9 803a 8c86 fb39 4ce7 873a
000000b0: 0917 913a 885b 763a feb2 0e3a e68d f439
000000c0: 72dc 983a 3283 933a fb7d 103a a0f4 8e3a
000000d0: 4a91 f139 4a6e 983a 62c5 113a 70e8 823a
000000e0: 1fdc 843a b2b5 fe39 20c5 923a 8fa3 183a
000000f0: 2c53 963a 641c ed39 a072 943a d804 053a
00000100: 23f7 8b3a 1fcd 8d3a 08c7 f039 7ed1 f439
00000110: a8dc 003a 9708 4a3a 910e 843a 32d3 943a
00000120: 1a49 ec39 d058 8d3a 4535 143a fc2a ed39
00000130: 7e81 903a b1cb 723a c420 963a 6873 893a
00000140: 2570 873a 0c2c 883a 2b6c 213a 3495 ee39
00000150: 2153 973a 04c7 003a 4bd7 9a3a 2638 fe39
00000160: 62dd 933a fed2 743a fce3 953a b41b 8d3a
00000170: deb1 9b3a 096e 953a 0694 ef39 202e e639
00000180: aada 8d3a 30b3 0c3a 6124 913a b029 fe39
00000190: 1d19 0b3a 0f00 933a d578 833a 6075 2f3a
000001a0: 1218 f539 b616 013a 96b8 1e3a 7355 8f3a
000001b0: 8d06 973a 1f20 8b3a 90d8 f939 1790 0b3a
000001c0: a840 e439 0f6b 8f3a ae2a 103a 9d17 913a
000001d0: 7b24 e739 a00c 753a 06ce 7c3a a999 6d3a

conv3.weight_fake_quant.activation_post_process.min_val f4 [120]
-0.14132108 -0.06890713 -0.1382315 -0.118745886 -0.1268227 -0.110848516 -0.12409937 -0.08788963
-0.121413015 -0.13249841 -0.11022163 -0.12727815 -0.075402275 -0.0599266 -0.123501785 -0.07063693
-0.07724776 -0.12983882 -0.061082475 -0.0963619 -0.08543963 -0.07004744 -0.10474227 -0.059336938
-0.06352647 -0.058620512 -0.102358036 -0.0947082 -0.08339162 -0.14648502 -0.14949165 -0.061606683
-0.11688342 -0.06593582 -0.10333874 -0.065066665 -0.06670147 -0.14366128 -0.0963372 -0.13817446
-0.11729704 -0.121022224 -0.06140761 -0.12911707 -0.12590934 -0.118771695 -0.06967734 -0.059705637
-0.14313413 -0.14048848 -0.07055279 -0.13524188 -0.05897645 -0.10408687 -0.07117726 -0.1278398
-0.12974595 -0.062184997 -0.1408543 -0.07453071 -0.14680165 -0.057888404 -0.14170946 -0.064950645
-0.1339774 -0.13847779 -0.055291474 -0.0597701 -0.06292087 -0.09287202 -0.12896182 -0.14355147
-0.057686903 -0.1261434 -0.07236723 -0.05790232 -0.13860708 -0.09791812 -0.13255467 -0.12148949
-0.13055539 -0.13298053 -0.078819595 -0.05824776 -0.14283596 -0.06287959 -0.1284002 -0.062065266
-0.1443992 -0.11733853 -0.13781212 -0.13402501 -0.14468898 -0.13458931 -0.058490776 -0.056196332
-0.13852945 -0.06870115 -0.13677043 -0.062051475 -0.06791899 -0.14355491 -0.113483325 -0.085673094
-0.05983741 -0.0630316 -0.075942695 -0.13927722 -0.12439071 -0.13198319 -0.060997546 -0.06814592
-0.055725724 -0.11559596 -0.070393905 -0.13574645 -0.054969504 -0.09923863 -0.12343983 -0.11452184
00000000: 79b6 10be 2e1f 8dbd 8f8c 0dbe 0b31 f3bd
00000010: cfdd 01be 8c04 e3bd cf27 febd 7aff b3bd
00000020: 63a7 f8bd aaad 07be e1bb e1bd 3455 02be
00000030: 826c 9abd 9875 75bd 81ee fcbd 18aa 90bd
00000040: 1334 9ebd 78f4 04be 9e31 7abd 6359 c5bd
00000050: f9fa aebd 0875 8fbd 1e83 d6bd 4a0b 73bd
00000060: 2a1a 82bd 101c 70bd 17a1 d1bd 5ff6 c1bd
00000070: 3ac9 aabd 2b00 16be 5714 19be 4a57 7cbd
00000080: 9360 efbd 5c09 87bd 43a3 d3bd ac41 85bd
00000090: c89a 88bd f11b 13be 704c c5bd 9b7d 0dbe
000000a0: 6e39 f0bd 80da f7bd 8c86 7bbd 4437 04be
000000b0: 61ee 00be 933e f3bd feb2 8ebd e68d 74bd
000000c0: c191 12be 36dc 0fbe fb7d 90bd d97c 0abe
000000d0: 4a91 71bd 7f2b d5bd 62c5 91bd 70e8 02be
000000e0: 1fdc 04be b2b5 7ebd 1c3c 10be 8fa3 98bd
000000f0: 2c53 16be 641c 6dbd 491c 11be d804 85bd
00000100: 5f31 09be 1fcd 0dbe 5079 62bd 7ed1 74bd
00000110: a8dc 80bd b033 bebd 910e 04be 28ff 12be
00000120: 1a49 6cbd bc2b 01be 4535 94bd fc2a 6dbd
00000130: 04ef 0dbe 4c89 c8bd 69bc 07be 7bcf f8bd
00000140: 50b0 05be 0c2c 08be 2b6c a1bd 3495 6ebd
00000150: 9743 12be 04c7 80bd 587b 03be 2638 7ebd
00000160: 62dd 13be 2f4f f0bd 9f1e 0dbe da3d 09be
00000170: 5929 14be c8d1 09be 0694 6fbd 202e 66bd
00000180: aada 0dbe 30b3 8cbd 8c0d 0cbe b029 7ebd
00000190: 1d19 8bbd 0f00 13be f269 e8bd 6075 afbd
000001a0: 1218 75bd b616 81bd d887 9bbd b09e 0ebe
000001b0: 8ec0 febd 9a26 07be 90d8 79bd 1790 8bbd
000001c0: a840 64bd 93bd ecbd ae2a 90bd 1e01 0bbe
000001d0: b427 61bd 9f3d cbbd 06ce fcbd 6d8a eabd

conv3.weight_fake_quant.activation_post_process.max_val f4 [120]
0.13236123 0.049018208 0.12942043 0.12047129 0.13008653 0.115456894 0.12953737 0.08468239
0.14998376 0.13741632 0.11129125 0.13830629 0.067425996 0.049909744 0.12400324 0.049333766
0.07365744 0.12851991 0.055301808 0.10022652 0.09634966 0.069977835 0.13954458 0.053443976
0.05898498 0.049764834 0.106726386 0.11341978 0.089123815 0.1451383 0.13969432 0.05800929
0.13310458 0.055887595 0.11646614 0.07317235 0.04947854 0.1334761 0.13850673 0.12987915
0.118410595 0.12478586 0.057220194 0.1316814 0.14058249 0.11935199 0.06272258 0.048882294
0.1481122 0.14292973 0.043810103 0.13851438 0.049354985 0.14769526 0.047701187 0.12273907
0.12636073 0.049167044 0.14221033 0.057640087 0.13985759 0.051634096 0.14383595 0.048895888
0.13561709 0.13581388 0.058324315 0.05543469 0.049402453 0.0978785 0.12267209 0.14420146
0.04982448 0.13695571 0.057687767 0.049403124 0.14001648 0.117626384 0.14546397 0.13318063
0.13123043 0.122348614 0.07758944 0.049579468 0.14662354 0.05567985 0.15003055 0.04981086
0.13132805 0.11860913 0.14523393 0.13672443 0.15085784 0.1447875 0.049549975 0.049868356
0.13607706 0.04988773 0.14063299 0.050325066 0.04865457 0.13492881 0.12738757 0.071999304
0.049699273 0.055499434 0.076895036 0.13888085 0.1463337 0.13480328 0.05592124 0.04963894
0.049739014 0.13896264 0.059242133 0.14058468 0.055990405 0.1187182 0.11945374 0.11510937
00000000: b489 073e 51c7 483d ca86 043e a7b9 f63d
00000010: 6735 053e aa74 ec3d 72a5 043e f66d ad3d
00000020: 5895 193e ddb6 0c3e abec e33d 2aa0 0d3e
00000030: a416 8a3d 296e 4c3d 69f5 fd3d 3412 4a3d
00000040: b6d9 963d b99a 033e 2684 623d 9043 cd3d
00000050: f852 c53d 8a50 8f3d c6e4 0e3e 12e8 5a3d
00000060: 3c9a 713d 36d6 4b3d 5d93 da3d a148 e83d
00000070: 8c86 b63d 229f 143e 070c 0f3e 269b 6d3d
00000080: 914c 083e 64ea 643d cd85 ee3d 63db 953d
00000090: 02aa 4a3d f5ad 083e b5d4 0d3e 0aff 043e
000000a0: 4181 f23d bb8f ff3d b95f 6a3d 7dd7 063e
000000b0: dbf4 0f3e d16e f43d b274 803d cd38 483d
000000c0: b9aa 173e 2c5c 123e 3972 333d b7d6 0d3e
000000d0: 7428 4a3d 6d3d 173e 5262 433d 9f5e fb3d
000000e0: b564 013e 6263 493d 969f 113e 0318 6c3d
000000f0: d436 0f3e 467e 533d bb49 133e 0e47 483d
00000100: 35df 0a3e cb12 0b3e 7ae5 6e3d 7c0f 633d
00000110: 3a5a 4a3d 8674 c83d 813b fb3d 8ca9 133e
00000120: c114 4c3d 1e3e 0c3e 024a 6c3d ee5a 4a3d
00000130: 7b60 0f3e 1ae6 f03d 82f4 143e 8160 083e
00000140: 4561 063e e991 fa3d 36e7 9e3d d713 4b3d
00000150: 7b24 163e 8e10 643d 9ca1 193e 7906 4c3d
00000160: dc7a 063e 58e9 f23d 34b8 143e 7d01 0c3e
00000170: 7a7a 1a3e 2d43 143e eaf4 4a3d c342 4c3d
00000180: c957 0b3e 1457 4c3d 1802 103e a821 4e3d
00000190: 044a 473d c72a 0a3e e371 023e 5f74 933d
000001a0: 7791 4b3d 6053 633d 257b 9d3d c836 0e3e
000001b0: 80d8 153e df09 0a3e ac0d 653d 3352 4b3d
000001c0: 23bb 4b3d 394c 0e3e e1a7 723d 6ef5 0f3e
000001d0: 3256 653d 8722 f33d 2aa4 f43d 76be eb3d

fc1.weight f4 [84, 120]
-0.07681369 -0.07083042 0.004895965 -0.09220779 -0.07461073 -0.03245265 0.02225355 -0.080765985
0.010228775 -0.07012271 -0.03187062 -0.008479319 0.05490929 0.095197655 0.090847954 -0.048088703
-0.0702277 -0.07250136 -0.027783051 0.0164043 0.07416178 0.057844236 0.050988007 -0.002948543
-0.013569683 0.025152048 -0.025323473 -0.038321216 0.04168397 -0.043136045 -0.047775224 0.06965375
-0.014027313 -0.06622035 -0.0047133043 -0.055459224 0.055091232 0.012585462 0.071203664 -0.06240577
-0.079953216 -0.086088896 0.07232102 0.0110083 0.04362579 0.0875265 0.036696732 0.051578477
-0.01339148 -0.0029755607 0.018209055 0.009935768 0.022774938 0.053289037 -0.054752048 -0.015308322
0.079118334 -0.0142702 -0.033270564 0.018042348 0.017894201 0.025443744 0.0037333784 -0.047170404
0.03796184 -0.07471561 0.0018623801 0.013534296 -0.08818065 0.024078436 0.054216452 0.052423097
0.061651424 0.0034553367 -0.090912096 0.022646468 0.08373384 -0.0107641965 -0.018815 0.036531866
0.07947492 -0.05996359 0.032864332 -0.073492125 0.08525241 0.04088538 -0.0322592 0.08034305
-0.058118336 -0.060723726 -0.07790194 -0.015211217 -0.06846228 0.057954863 -0.011144258 0.0828519
0.012207257 0.08286411 -0.07826236 0.04457865 -0.017685331 -0.0013447119 -0.012568958 0.047095962
0.030502029 -0.04743203 -0.050679088 -0.048219696 0.019169485 0.012924641 -0.03333464 -0.074969575
0.03965345 -0.058075603 0.054918114 -0.05846075 0.04561856 0.058053523 -0.025549505 -0.031776316
-0.10605564 -0.028171359 -0.055476602 0.11642945 0.011405793 -0.026480384 -0.014857005 0.09779002
-0.024037115 0.14996381 0.0769511 0.14682926 -0.025699513 0.043378547 0.01803373 0.017886562
0.06694849 -0.05684873 -0.0460935 0.043121673 -0.019100841 0.05618274 -0.027949609 -0.03127714
0.034198366 0.09656118 0.024936521 -0.000670126 0.09608262 0.01828233 0.0170236 0.032266997
0.031875007 -0.051919483 -0.04843067 -0.008311346 -0.08736449 0.05032266 0.069394626 -0.077860065
-0.028958235 -0.0052671162 0.08476568 -0.080969416 0.15342449 0.021160603 0.058059078 0.07859413
0.10753808 0.093961805 -0.049830936 0.032621793 0.0018397326 0.101554275 -0.054836523 -0.06603249
0.06453925 -0.00018251604 0.014409509 -0.10928705 0.09277978 -0.015903305 0.10571356 -0.005187541
0.1496875 -0.043770228 -0.060937054 0.06715118 0.054683894 -0.06498555 -0.04630025 0.11709964
-0.048573818 0.07472012 0.026290294 0.064736106 0.092149526 -0.10160294 0.1424845 0.12635453
0.022357015 -0.045103345 -0.09387585 0.044259105 0.10959017 -0.01310007 0.07301359 0.074816175
-0.0074334517 0.009716321 0.14548233 0.006884237 0.061491635 0.1480281 -0.01219616 -0.03826368
0.024145383 -0.04106295 0.034183994 -0.030014321 0.09236376 0.009201702 -0.15327452 0.06385659
0.10002329 0.034663808 -0.05354075 0.10175048 0.027145853 0.09734445 0.009880794 -0.025673265
0.04570154 -0.05361449 -0.0016058255 0.1092141 -0.079839066 -0.018696819 0.10699995 0.091509946
0.0087918155 -0.0044022724 0.07469818 -0.085902184 -0.04102414 0.024931293 -0.07882111 0.034006417
-0.05663419 0.038421705 -0.07765265 -0.049863853 -0.01928594 -0.02577833 0.013610145 -0.07032444
00000000: 7f50 9dbd 8a0f 91bd 556e a03b 70d7 bcbd
00000010: 83cd 98bd 12ed 04bd 144d b63c a368 a5bd
00000020: 9896 273c 7f9c 8fbd c48a 02bd d7ec 0abc
00000030: 90e8 603d fdf6 c23d 7e0e ba3d a9f8 44bd
00000040: 8ad3 8fbd 987b 94bd 4899 e3bc 5062 863c
00000050: 22e2 973d 14ee 6c3d cdd8 503d 583c 41bb
00000060: 6053 5ebc ab0b ce3c 2c73 cfbc b5f6 1cbd
00000070: cfbc 2a3d 6caf 30bd f4af 43bd a0a6 8e3d
00000080: d1d2 65bc 899e 87bd 1072 9abb 3629 63bd
00000090: 58a7 613d 4133 4e3c 3ad3 913d 319d 7fbd
000000a0: 83be a3bd 604f b0bd 0b1d 943d 285c 343c
000000b0: f5b0 323d 1841 b33d 504f 163d f443 533d
000000c0: f067 5bbc a001 43bb 282b 953c a2c9 223c
000000d0: 8292 ba3c 9b45 5a3d af43 60bd c2cf 7abc
000000e0: cb08 a23d 8fcd 69bc b746 08bd 8ccd 933c
000000f0: dc96 923c 666f d03c b2ab 743b c135 41bd
00000100: e07d 1b3d 7f04 99bd 1b1b f43a f4be 5d3c
00000110: 0e98 b4bd 2440 c53c 1212 5e3d 9ab9 563d
00000120: 3486 7c3d ee72 623b 1f30 babd 1685 b93c
00000130: a67c ab3d 505c 30bc ea21 9abc 70a2 153d
00000140: bfc3 a23d 629c 75bd c09c 063d 0a83 96bd
00000150: d198 ae3d 6e77 273d 3922 04bd e68a a43d
00000160: 7e0d 6ebd 71b9 78bd 0d8b 9fbd 7838 79bc
00000170: f435 8cbd 1462 6d3d 6896 36bc 42ae a93d
00000180: f200 483c a9b4 a93d 0448 a0bd 1a98 363d
00000190: d4e0 90bc 0b41 b0ba 08ee 4dbc b2e7 403d
000001a0: 64df f93c 1748 42bd e094 4fbd 0482 45bd
000001b0: 5309 9d3c e0c1 533c e789 08bd a689 99bd
000001c0: a86b 223d afe0 6dbd d1f1 603d 8a74 6fbd
000001d0: 87da 3a3d 88c9 6d3d 324d d1bc e227 02bd
000001e0: b333 d9bd 9fc7 e6bc 6f3b 63bd 9072 ee3d
000001f0: 5ddf 3a3c 64ed d8bc cc6a 73bc 2246 c83d
00000200: 7ce9 c4bc 1d90 193e 8a98 9d3d 695a 163e
00000210: c987 d2bc b4ad 313d 79bb 933c d786 923c
00000220: 4a1c 893d 37da 68bd 8acc 3cbd 5aa0 303d
00000230: 5e79 9cbc df1f 663d 94f6 e4bc 751c 00bd
00000240: 9613 0c3d dec1 c53d ad47 cc3c 65ab 2fba
00000250: f7c6 c43d d3c4 953c 1475 8b3c 662a 043d
00000260: 5e8f 023d 86a9 54bd 3d5f 46bd 502c 08bc
00000270: 27ec b2bd 221f 4e3d c51e 8e3d 1975 9fbd
00000280: d239 edbc c697 acbb a199 ad3d 4bd3 a5bd
00000290: 4f1b 1d3e 0059 ad3c 5bcf 6d3d f6f5 a03d
000002a0: ed3c dc3d 0c6f c03d 861b 4cbd 6e9e 053d
000002b0: 2f23 f13a b0fb cf3d 439c 60bd 0b3c 87bd
000002c0: 282d 843d c761 3fb9 dc15 6c3c e4d1 dfbd
000002d0: 5303 be3d a647 82bc 5a80 d83d 3ffc a9bb
000002e0: ae47 193e 6948 33bd 2299 79bd 8f86 893d
000002f0: 38fc 5f3d 2517 85bd 55a5 3dbd f0d1 ef3d
00000300: 57f5 46bd dd06 993d be5e d73c 5d94 843d
00000310: e4b8 bc3d 3415 d0bd 75e7 113e 1563 013e
00000320: 0f26 b73c 49be 38bd fb41 c0bd 0949 353d
00000330: d070 e03d ada1 56bc 2688 953d 3939 993d
00000340: 5094 f3bb 3431 1f3c 52f9 143e 2a95 e13b
00000350: a7de 7b3d ae94 173e 67d2 47bc 60ba 1cbd
00000360: 8acc c53c a031 28bd 8404 0c3d 98e0 f5bc
00000370: 3629 bd3d bcc2 163c fff3 1cbe 3ec7 823d
00000380: 03d9 cc3d a3fb 0d3d 8c4d 5bbd 8e62 d03d
00000390: fb60 de3c 875c c73d 0ee3 213c bd50 d2bc
000003a0: 8a31 3b3d de9a 5bbd 907a d2ba a4ab df3d
000003b0: aa82 a3bd 122a 99bc ca22 db3d 9169 bb3d
000003c0: 8c0b 103c f040 90bb 5cfb 983d 7ced afbd
000003d0: ee08 28bd b63c cc3c f66c a1bd 504a 0b3d
000003e0: 41f9 67bd 1460 1d3d 5a08 9fbd 0a3e 4cbd
000003f0: 8cfd 9dbc 142d d3bc 16fd 5e3c 4306 90bd

fc1.weight_fake_quant.scale f4 [84]
0.000749585 0.0011930334 0.00076389255 0.0008445971 0.0010687511 0.001237146 0.0009378931 0.0009609924
0.0008765966 0.0011037956 0.0010669909 0.0012733665 0.0012220985 0.0009695886 0.001109701 0.0012182049
0.0011423485 0.0010867903 0.0012144563 0.0007715265 0.0007873368 0.0012293396 0.001039719 0.0010790366
0.0011043361 0.0010810887 0.0012031224 0.001275101 0.0011697119 0.00091291935 0.0012735397 0.000762544
0.0012175537 0.0012796278 0.0008428115 0.0012006166 0.00077270356 0.0010534645 0.00071347674 0.0009493954
0.0009981873 0.0009941886 0.0012096403 0.001256232 0.0012268082 0.0007674915 0.00093479577 0.0011708527
0.0011326768 0.001186713 0.0010629726 0.001170576 0.0007540082 0.0012655543 0.0008726154 0.0012037213
0.00074984133 0.0011241457 0.0010859941 0.0011122865 0.0011718938 0.0011026948 0.0011300525 0.001185911
0.0010848154 0.0009250076 0.0007446571 0.001276763 0.00106516 0.0011678796 0.0011362497 0.0012374978
0.000996491 0.0012367682 0.0007651914 0.0011823433 0.00071763207 0.0012877968 0.0010072766 0.0012507392
0.0008193543 0.0012389848 0.0011544622 0.00070953055
00000000: cc7f 443a 8f5f 9c3a f63f 483a f467 5d3a
00000010: 5615 8c3a bb27 a23a f1dc 753a 1ceb 7b3a
00000020: 67cb 653a 3cad 903a 46da 8b3a 17e7 a63a
00000030: d22e a03a fd2b 7e3a 6373 913a 2cac 9f3a
00000040: dbba 953a a272 8e3a 642e 9f3a 4440 4a3a
00000050: 4765 4e3a cb21 a13a 2e47 883a 766e 8d3a
00000060: 5fbf 903a 51b3 8d3a 17b2 9d3a 4a21 a73a
00000070: 0551 993a fb50 6f3a e7ec a63a 76e5 473a
00000080: 5396 9f3a 2fb9 a73a 1ff0 5c3a 025e 9d3a
00000090: 428f 4a3a 6714 8a3a 9d08 3b3a d9e0 783a
000000a0: 9cd5 823a 6f4f 823a cb8c 9e3a 27a8 a43a
000000b0: dacc a03a 7c31 493a 150d 753a 4c77 993a
000000c0: 5476 943a 7b8b 9b3a 7153 8b3a 036e 993a
000000d0: a2a8 453a f5e0 a53a 3ac0 643a 2fc6 9d3a
000000e0: 0091 443a 1258 933a ea57 8e3a 24ca 913a
000000f0: 3b9a 993a 4c88 903a 451e 943a 9270 9b3a
00000100: 5d30 8e3a 367c 723a 1835 433a 0f59 a73a
00000110: d79c 8b3a 8913 993a 37ee 943a 8933 a23a
00000120: b19c 823a 0e1b a23a 2097 483a dcf8 9a3a
00000130: 791f 3c3a 4acb a83a 9806 843a d8ef a33a
00000140: f0c9 563a 6e65 a23a 5351 973a caff 393a

fc1.weight_fake_quant.activation_post_process.min_val f4 [84]
-0.09220742 -0.15067637 -0.097778246 -0.10810843 -0.12987517 -0.15835468 -0.12005032 -0.12300703
-0.112204365 -0.14128584 -0.11939662 -0.16299091 -0.1564286 -0.12410734 -0.13833775 -0.12851
-0.13552582 -0.13863577 -0.13143793 -0.09875539 -0.10077911 -0.1544272 -0.11997185 -0.13727255
-0.14135502 -0.13336763 -0.15399967 -0.1384104 -0.14969467 -0.11685368 -0.10601401 -0.09760563
-0.14791363 -0.16379236 -0.10787987 -0.15124428 -0.098906055 -0.1153782 -0.08923004 -0.116736114
-0.110153414 -0.12725614 -0.1493268 -0.16027148 -0.11472702 -0.098238915 -0.11965386 -0.11750128
-0.12779379 -0.15189926 -0.113269925 -0.11344625 -0.09651305 -0.10945031 -0.11169477 -0.15137947
-0.09597969 -0.13692982 -0.11453147 -0.11628674 -0.11140546 -0.14114493 -0.13370572 -0.13562353
-0.13885637 -0.118400976 -0.09531611 -0.16342567 -0.13116692 -0.14863868 -0.14543997 -0.14279859
-0.12638912 -0.14117266 -0.0979445 -0.15133995 -0.090023115 -0.16483799 -0.12039209 -0.11228122
-0.10487735 -0.14421046 -0.14646044 -0.0897971
00000000: 3ed7 bcbd e84a 1abe f63f c8bd f467 ddbd
00000010: fffd 04be bb27 22be f1dc f5bd 1ceb fbbd
00000020: 67cb e5bd 3cad 10be 3786 f4bd 17e7 26be
00000030: d22e 20be fd2b febd 69a8 0dbe 2098 03be
00000040: 48c7 0abe 89f6 0dbe aa97 06be 4440 cabd
00000050: 4765 cebd 2a22 1ebe cdb3 f5bd 2d91 0cbe
00000060: 5fbf 10be 8691 08be 17b2 1dbe 75bb 0dbe
00000070: 8f49 19be fb50 efbd e01d d9bd 76e5 c7bd
00000080: ac76 17be 2fb9 27be 1ff0 dcbd c8df 1abe
00000090: 428f cabd 684b ecbd 3dbe b6bd 5813 efbd
000000a0: 1d98 e1bd 6f4f 02be 20e9 18be 351e 24be
000000b0: 00f6 eabd 7c31 c9bd 150d f5bd 83a4 f0bd
000000c0: 60dc 02be 7b8b 1bbe 10fa e7bd 8256 e8bd
000000d0: a2a8 c5bd 7c27 e0bd 3ac0 e4bd 3803 1bbe
000000e0: 0091 c4bd 5537 0cbe 7a8f eabd be27 eebd
000000f0: 8c28 e4bd 4c88 10be 27ea 08be e5e0 0abe
00000100: 5d30 0ebe 367c f2bd 1835 c3bd 0f59 27be
00000110: 9f50 06be bd34 18be 37ee 14be cb39 12be
00000120: 266c 01be 918f 10be 2097 c8bd dcf8 1abe
00000130: 0a5e b8bd 4acb 28be 2190 f6bd b2f3 e5bd
00000140: f0c9 d6bd e8ab 13be baf9 15be 8be7 b7bd

fc1.weight_fake_quant.activation_post_process.max_val f4 [84]
0.09519729 0.15151525 0.08471592 0.0871137 0.13573138 0.152065 0.09450154 0.09147009
0.08993058 0.117875904 0.13550784 0.16100624 0.1489121 0.09925227 0.14093202 0.15471202
0.14507826 0.13802238 0.15423594 0.09105329 0.08534938 0.15612613 0.13204432 0.13703765
0.13979071 0.13729826 0.14882296 0.16193782 0.14855342 0.11496613 0.16173954 0.0903312
0.15462932 0.15892772 0.1069893 0.15247831 0.08722176 0.13378999 0.09061155 0.120573215
0.1267698 0.09644388 0.15362431 0.15954147 0.15580463 0.09473398 0.088865414 0.14869829
0.14384995 0.14674431 0.13499752 0.14866315 0.08622973 0.1607254 0.08750093 0.1528726
0.08994295 0.1427665 0.13792124 0.14126039 0.14883052 0.13008986 0.14351666 0.1506107
0.13732548 0.08346145 0.091007456 0.15810905 0.13527532 0.1483207 0.14237557 0.15716222
0.12655437 0.15706956 0.09452179 0.14424026 0.09113927 0.16033438 0.12792413 0.15884387
0.08463003 0.15735106 0.1466167 0.09011038
00000000: ccf6 c23d d026 1b3e 8a7f ad3d ab68 b23d
00000010: 2bfd 0a3e edb6 1b3e 068a c13d ac54 bb3d
00000020: 862d b83d ec68 f13d 91c2 0a3e d2de 243e
00000030: 6a7c 183e c644 cb3d 7c50 103e d46c 1e3e
00000040: 658f 143e bd55 0d3e 07f0 1d3e 267a ba3d
00000050: a8cb ae3d 87df 1f3e a036 073e 9953 0c3e
00000060: 4c25 0f3e ea97 0c3e 0c65 183e 07d3 253e
00000070: 631e 183e 5d73 eb3d 0d9f 253e 90ff b83d
00000080: 2657 1e3e f3bd 223e 351d db3d 4623 1c3e
00000090: 52a1 b23d 3e00 093e 8c92 b93d 17ef f63d
000000a0: f1cf 013e 5e84 c53d b14f 1d3e d75e 233e
000000b0: 408b 1f3e e403 c23d 12ff b53d 5d44 183e
000000c0: 674d 133e 2444 163e ca3c 0a3e 273b 183e
000000d0: 3699 b03d 3395 243e b033 b33d a38a 1c3e
000000e0: 0234 b83d 6231 123e 3a3b 0d3e 90a6 103e
000000f0: 0767 183e 4736 053e 08f6 123e b139 1a3e
00000100: 0d9f 0c3e d6ed aa3d 1e62 ba3d 57e7 213e
00000110: 9d85 0a3e 62e1 173e e7ca 113e 22ef 203e
00000120: 7897 013e d8d6 203e a494 c13d b8b3 133e
00000130: 3aa7 ba3d b22e 243e 8bfe 023e f8a7 223e
00000140: 8252 ad3d a320 213e b022 163e ca8b b83d

fc2.weight f4 [1, 84]
-0.07581951 -0.1379191 0.04499897 0.022211472 -0.12026203 -0.054386355 -0.06806625 -0.0071178926
-0.002951368 -0.03303054 -0.101286754 -0.09765838 0.17397001 0.055571634 -0.10878307 0.12631531
-0.03417248 0.07043388 -0.119912066 -0.008726008 0.027430667 0.12866445 -0.096582025 0.12793303
0.16695961 -0.04849471 0.084571235 0.116867326 0.09808383 -0.012798861 -0.07756855 -0.061607532
0.08954675 0.07205185 -0.06174809 -0.11419464 0.050810106 -0.12401375 0.10315453 0.058332153
-0.009510284 -0.003110343 -0.10181216 0.1145336 -0.06874463 0.043153543 -0.02772741 0.13237998
0.08966374 0.10767276 -0.11613649 -0.09353249 0.0641914 0.15212305 0.013815473 0.16557397
-0.062395815 -0.13887873 -0.07671067 -0.024299258 -0.0788978 -0.10863261 -0.09039673 -0.1320559
0.13275877 0.05384916 -0.084950425 0.16149911 0.103311405 0.114390284 0.11532355 0.112094015
-0.110330865 0.15217079 -0.032823816 -0.0854132 0.059493072 0.09302526 -0.0012015353 -0.066410996
-0.02858831 0.15500277 0.1724678 -0.09587661
00000000: 4247 9bbd aa3a 0dbe d750 383d d5f4 b53c
00000010: f04b f6bd 3ac4 5ebd 5166 8bbd 363d e9bb
00000020: bd6b 41bb 084b 07bd 6e6f cfbd 1e01 c8bd
00000030: 3225 323e 159f 633d a9c9 debd cd58 013e
00000040: 71f8 0bbd a33f 903d 7594 f5bd 88f7 0ebc
00000050: 47b6 e03c 9dc0 033e cccc c5bd e000 033e
00000060: 76f7 2a3e 64a2 46bd af33 ad3d 2358 ef3d
00000070: 2de0 c83d 50b2 51bc 43dc 9ebd 2e58 7cbd
00000080: 4964 b73d ec8f 933d 91eb 7cbd e1de e9bd
00000090: 421e 503d ecfa fdbd af42 d33d b2ed 6e3d
000000a0: 06d1 1bbc e5d6 4bbb e582 d0bd 9890 ea3d
000000b0: fcc9 8cbd c5c1 303d 9824 e3bc 9e8e 073e
000000c0: 9fa1 b73d 8983 dc3d f8d8 edbd f68d bfbd
000000d0: c876 833d 25c6 1b3e 4b5a 623c 398c 293e
000000e0: c192 7fbd 3a36 0ebe 7c1a 9dbd 3d0f c7bc
000000f0: 2b95 a1bd c67a debd ec21 b9bd a939 07be
00000100: eaf1 073e f090 5c3d 7dfa adbd 0660 253e
00000110: ee94 d33d 7445 ea3d c12e ec3d 8c91 e53d
00000120: 26f5 e1bd a9d2 1b3e 4472 06bd 1eed aebd
00000130: 02af 733d 0784 be3d d67c 9dba 7d02 88bd
00000140: 0832 eabc 0cb9 1e3e 669b 303e f55a c4bd
