experiments/exp009/checkpoint.pth (torch, 206286 bytes, 45 tensors)

conv1.depthwise.weight f4 [2, 1, 5, 5]
0	0x3d1b7dd8	0.03796181
1	0xbdfb8e1d	-0.12282965
2	0xbe00369b	-0.1252083
3	0xbe098485	-0.13429458
4	0xbcd42b26	-0.025899481
5	0xbe1552ba	-0.14582339
6	0x3d6173d1	0.05504209
7	0xbdf2544a	-0.11832483
8	0xbe7b7c0c	-0.24559039
9	0xbe30ea23	-0.17276816
10	0xbdf0b1d0	-0.11752665
11	0xbe6a3250	-0.22870755
12	0xbe2ac2e2	-0.16675904
13	0x3d767878	0.06017348
14	0xbe2891e1	-0.16461898
15	0x3d69ae12	0.057050772
16	0xbdbdc913	-0.092668675
17	0x3ddd4ff3	0.10806265
18	0xbdd43b45	-0.10362867
19	0xbe430528	-0.19044936
20	0x3e135b26	0.14390239
21	0xbe19164f	-0.14949916
22	0xbd958d59	-0.073023506
23	0x3d94c583	0.07264235
24	0xbde8a294	-0.11359134
25	0x3d0f8cbd	0.035046328
26	0xbe03e82f	-0.1288154
27	0x3e84913f	0.25892064
28	0x3e5acb7a	0.21366683
29	0x3dc44598	0.095835865
30	0x3e5656b0	0.20931506
31	0xbe045cf3	-0.12926082
32	0xbe63ed0d	-0.22258396
33	0x3dab75cc	0.08372077
34	0x3c05abd6	0.008158645
35	0xbe4968dd	-0.19668908
36	0xbe50aa9e	-0.20377585
37	0xbe8553d8	-0.2604053
38	0x3d289322	0.04115594
39	0x3de9b513	0.1141149
40	0x3e3f51e6	0.18683586
41	0x3dd15921	0.10222078
42	0xbe736ba5	-0.23771532
43	0x3c89975b	0.016795805
44	0xbdbbe35d	-0.091742255
45	0xbc939a77	-0.01801799
46	0xbe5b9a1c	-0.21445507
47	0xbe4dfe1e	-0.2011647
48	0x3c323518	0.010876916
49	0xbe76a327	-0.24085675

conv1.depthwise.weight_fake_quant.scale f4 [2]
0	0x3af7af08	0.0018896768
1	0x3b053eab	0.0020331542

conv1.depthwise.weight_fake_quant.activation_post_process.min_val f4 [2]
0	0xbe77af08	-0.24187863
1	0xbe850bdf	-0.2598562

conv1.depthwise.weight_fake_quant.activation_post_process.max_val f4 [2]
0	0x3e10d63f	0.14144228
1	0x3e84342e	0.2582106

conv1.pointwise.weight f4 [6, 2, 1, 1]
0	0xbf090464	-0.53522325
1	0xbf1a308f	-0.60230345
2	0x3e8b5d5c	0.27219665
3	0xbf27e36a	-0.6558138
4	0xbe1ffd29	-0.15623917
5	0xbcf7eadb	-0.030263355
6	0xbe73d779	-0.23812665
7	0x3f328470	0.69733334
8	0xbebf9bd5	-0.37423578
9	0x3e82a531	0.25516656
10	0x3ea0305b	0.31286892
11	0x3e2517f6	0.16122422

conv1.pointwise.weight_fake_quant.scale f4 [6]
0	0x3b1b996d	0.0023742572
1	0x3ba78cb2	0.0051132077
2	0x3a1bc686	0.0005942363
3	0x3bb2fc02	0.0054621706
4	0x3b3f1acc	0.002916026
5	0x3aa0b847	0.001226195

conv1.pointwise.weight_fake_quant.activation_post_process.min_val f4 [6]
0	0xbf1afdd4	-0.6054356
1	0xbf278cb2	-0.6544906
2	0xbe1b2abf	-0.15153025
3	0xbe78db65	-0.24302442
4	0xbebf1acc	-0.37325132
5	0x3e260114	0.16211349

conv1.pointwise.weight_fake_quant.activation_post_process.max_val f4 [6]
0	0xbf09b36c	-0.537894
1	0x3e8b1c3c	0.2716998
2	0xbcf19c1e	-0.029493388
3	0x3f31960a	0.69369566
4	0x3e8402dd	0.25783435
5	0x3ea0178f	0.31267974

conv2.depthwise.weight f4 [6, 1, 5, 5]
0	0x3cc37f58	0.023864433
1	0xbe6293d7	-0.22126709
2	0xbd464329	-0.048403893
3	0x3db88012	0.090088025
4	0xbe3366e2	-0.17519715
5	0xbd8ef32a	-0.069799736
6	0x3d74ecab	0.059796017
7	0xbe185ea7	-0.14879857
8	0xbceb2bf8	-0.02870749
9	0x3e098dfc	0.13433069
10	0x3e52af67	0.20574723
11	0x3c1b2de3	0.009471389
12	0x3c581589	0.013188728
13	0xbe256354	-0.16151172
14	0xbd54e2fe	-0.05197429
15	0xbcfef9c3	-0.031124955
16	0xbe824297	-0.2544143
17	0x3bb8c8ba	0.005639163
18	0xbda48d0b	-0.08034714
19	0xba8ecec5	-0.0010895362
20	0xbe2a2576	-0.16615853
21	0x3b548870	0.0032429956
22	0x3df74b9d	0.12074969
23	0xbd10b004	-0.03532411
24	0xbe81f1a7	-0.2537968
25	0xbb6a588f	-0.0035758351
26	0x3cf86c84	0.030325182
27	0x3e104fcd	0.14092942
28	0x3e1a3a98	0.15061414
29	0x3e4305ed	0.1904523
30	0xbd4b8e92	-0.049696513
31	0xbe17df98	-0.14831388
32	0x3e95c22c	0.29249704
33	0x3d9b291d	0.07576201
34	0x3e3a3c75	0.18187125
35	0x3e21a803	0.15786748
36	0x3db7b3e3	0.089698575
37	0xbd291208	-0.04127696
38	0x3e647b4d	0.2231266
39	0x3e7d257a	0.24721327
40	0x3e931eeb	0.28734526
41	0x3e46ce9c	0.19414753
42	0x3de6ecd2	0.11275639
43	0x3e00b423	0.12568717
44	0x3dff28b9	0.12458939
45	0x3e907adf	0.28218743
46	0x3e83341c	0.25625694
47	0x3e364640	0.17800236
48	0x3e90f8ae	0.28314728
49	0x3e559733	0.20858459
50	0x3e89a0bb	0.2688044
51	0xbd4d861f	-0.050176736
52	0x3e08c9aa	0.13358179
53	0x3e79fc2c	0.24412602
54	0x3b20ade8	0.0024517719
55	0x3e1fecab	0.15617625
56	0x3dfd9e40	0.123836994
57	0x3d7780d6	0.060425602
58	0x3e8b8550	0.27250147
59	0x3e5a8f23	0.21343665
60	0x3e069969	0.13144459
61	0x3e4a3bea	0.19749418
62	0x3e02a7a8	0.12759268
63	0x3e8cb248	0.27479768
64	0x3e6634bf	0.22481059
65	0xbd4b246d	-0.049595285
66	0x3e8dc17e	0.27686685
67	0x3dc2491a	0.09486599
68	0x3e5e0afb	0.21683876
69	0x3e8a6a4e	0.2703423
70	0x3e8cc086	0.27490634
71	0xbce1b02d	-0.027549827
72	0x3e583fc0	0.21118069
73	0x3e4d4dd9	0.20049228
74	0x3e8a728c	0.27040517
75	0xbe828bf6	-0.25497407
76	0xbe726018	-0.2366947
77	0xbe84feb7	-0.25975582
78	0xbe82b1f5	-0.25526395
79	0x3e236dd8	0.15959871
80	0xbe73c0ad	-0.23803969
81	0x3d9fde3e	0.07806061
82	0xbe5fe331	-0.2186401
83	0xbc2bfbfd	-0.01049709
84	0x3e3a2c5a	0.18180981
85	0xbd3c2ea2	-0.04594291
86	0x3e03abde	0.12858531
87	0xbd2395d2	-0.0399378
88	0x3e817567	0.25284883
89	0x3e811bfa	0.25216657
90	0xbe09252e	-0.13393089
91	0xbc39cd77	-0.011340491
92	0xbc8a2e72	-0.01686785
93	0x3e71ae42	0.2360163
94	0x3c390681	0.011293055
95	0x3e6500b9	0.22363557
96	0x3d0a286d	0.03372996
97	0xbd7e7ec9	-0.06213263
98	0x3dc05d94	0.093928486
99	0x3ac087da	0.0014688924
100	0xbe245ca2	-0.16050962
101	0xbe1d7f1d	-0.15380521
102	0xbdb051c3	-0.08609345
103	0xbdbf334c	-0.09335956
104	0xbe2bed82	-0.16789821
105	0xbc63f7c9	-0.013914057
106	0xbe15a3b8	-0.14613235
107	0x3dd2da13	0.102955006
108	0x3c0825ac	0.008309763
109	0xbe836bc5	-0.2566816
110	0x3caf1765	0.02137346
111	0xbbf223eb	-0.0073895357
112	0xbdd4d0cf	-0.103913896
113	0xbe8165fe	-0.25273126
114	0xbdbd1867	-0.0923317
115	0x3d327df6	0.043577157
116	0xbe1577cd	-0.14596482
117	0xbdcc4377	-0.099738054
118	0xbd95dfb5	-0.07318059
119	0xbd56649d	-0.052342046
120	0x3e5260b9	0.2054471
121	0x3bd5787c	0.006514607
122	0xbe3c5a18	-0.18393743
123	0xbe25f65b	-0.16207258
124	0x3de20f77	0.11038106
125	0x3ddf3087	0.10897928
126	0xbe0bcf64	-0.13653332
127	0xbd2c1f7e	-0.04202222
128	0x3dd7cf46	0.10537581
129	0x3c8e78bb	0.017391553
130	0xbe497f62	-0.19677499
131	0x3d812e14	0.06307617
132	0xbe2ab9fe	-0.16672513
133	0xbe018c2e	-0.1265113
134	0x3e31580c	0.17318743
135	0xbda14a2d	-0.07875476
136	0x3dda1fe8	0.10650617
137	0x3df16a86	0.11787896
138	0x3e575fee	0.21032688
139	0x3e803f91	0.25048497
140	0xbd983db1	-0.07433642
141	0x3e14564a	0.14486042
142	0x3e622f0d	0.22088261
143	0xbd95fdc8	-0.073237956
144	0x3dcb3ea2	0.09924056
145	0x3d1a0c9b	0.037609678
146	0x3e2a7df9	0.16649617
147	0x3abe5dda	0.001452382
148	0x3d8f4d0c	0.069971174
149	0x3cd97fc1	0.026550176

conv2.depthwise.weight_fake_quant.scale f4 [6]
0	0x3b01f71b	0.0019831124
1	0x3b1505a5	0.002273896
2	0x3b0d5d63	0.0021570555
3	0x3b03c974	0.002010909
4	0x3b02842a	0.0019915202
5	0x3aff4a80	0.0019477159

conv2.depthwise.weight_fake_quant.activation_post_process.min_val f4 [6]
0	0xbe81f71b	-0.2538384
1	0xbe172622	-0.1476064
2	0xbd624011	-0.05523688
3	0xbe83c974	-0.25739634
4	0xbe82842a	-0.25491458
5	0xbe498304	-0.19678885

conv2.depthwise.weight_fake_quant.activation_post_process.max_val f4 [6]
0	0x3e4dc7f5	0.20095809
1	0x3e93db9a	0.2887848
2	0x3e8c42a8	0.27394605
3	0x3e80b21e	0.25135893
4	0x3e4f7cc4	0.20262438
5	0x3e7d4beb	0.24735992

conv2.pointwise.weight f4 [16, 6, 1, 1]
0	0x3e9b31fd	0.30311576
1	0xbecda5de	-0.4016561
2	0xbd5180ab	-0.051148098
3	0xbe877751	-0.2645822
4	0xbe61c7b2	-0.22048834
5	0x3ee76af1	0.45198777
6	0x3db39b0e	0.08769809
7	0x3e455c8e	0.19273588
8	0xbd8195e5	-0.06327418
9	0xbd3c5875	-0.045982797
10	0x3e2e7541	0.17036916
11	0xbdd1125e	-0.102085814
12	0x3b177e3d	0.0023116015
13	0xbce1ed8a	-0.027579088
14	0xbdf12e26	-0.1177638
15	0x3e161b14	0.14658767
16	0x3d8b5d26	0.06804876
17	0x3c168dae	0.0091890525
18	0x3d0ce525	0.034398217
19	0x3bf2312e	0.0073911166
20	0xbe3afb5d	-0.1825995
21	0x3e0b01dd	0.1357493
22	0x3ec0836d	0.3760027
23	0xbec25917	-0.37958595
24	0xbdfaf2a7	-0.122533135
25	0x3e91271e	0.28350157
26	0x3ea03def	0.31297252
27	0xbe62a8bf	-0.22134684
28	0xbdbdd637	-0.09269374
29	0xbe1a742b	-0.15083377
30	0xbee12bc5	-0.43978706
31	0xbeb9247b	-0.36160645
32	0xbc82e816	-0.015979808
33	0x3ee023de	0.43777364
34	0x3e41afc4	0.18914706
35	0x3eaf0b77	0.34188434
36	0xbee973a4	-0.4559604
37	0xbee8379a	-0.4535492
38	0xbdaeab5f	-0.0852878
39	0xbe71e98d	-0.23624249
40	0xbe8759de	-0.2643575
41	0x3e96e453	0.29471073
42	0x3ddd4b38	0.108053625
43	0xbed11ddc	-0.40843093
44	0x3ecedda2	0.40403467
45	0x3e3cbad7	0.18430649
46	0xbed1751d	-0.40909663
47	0xbe56610f	-0.20935462
48	0xbe550d7b	-0.20805924
49	0x3eb29ad3	0.34883747
50	0xbb1c26e3	-0.002382689
51	0x3eacd093	0.3375288
52	0x3e0d5822	0.13803151
53	0x3ccfb2b9	0.025353776
54	0xbdfa95d7	-0.12235611
55	0x3eae64ba	0.34061223
56	0xbead6626	-0.33866996
57	0x3e921cec	0.2853769
58	0x3bde3c95	0.0067821243
59	0xbe3a6cf7	-0.1820563
60	0x3cb7353f	0.022364257
61	0x3ec50eb9	0.38487795
62	0xbbe82549	-0.007084523
63	0x3d1a5762	0.03768099
64	0x3e633b39	0.2219056
65	0x3ccd033c	0.025025956
66	0x3edc05f2	0.42973286
67	0x3ebc67ea	0.3679803
68	0xbdc6e610	-0.0971185
69	0xbedd3266	-0.43202513
70	0xbe217a94	-0.15769416
71	0x3ca4809f	0.020080863
72	0x3ed656c1	0.41863063
73	0xbe7eea98	-0.24894178
74	0x3dd2858b	0.102793775
75	0x3e1e3e2d	0.15453406
76	0xbe64f51c	-0.22359127
77	0x3d984d83	0.07436659
78	0x3e8d58f8	0.2760694
79	0xbea6ac1f	-0.32553193
80	0x3ceccabb	0.028905263
81	0xbe4bf9ab	-0.1991946
82	0x3e1ecb8a	0.15507331
83	0xbec8dc36	-0.39230508
84	0xbe9e4f07	-0.30919668
85	0xbe9bc409	-0.30423
86	0xbd22d305	-0.039752025
87	0x3da1d52a	0.07901986
88	0xbd4ccfc6	-0.050002836
89	0xbea17928	-0.31537747
90	0xbe424cd9	-0.18974628
91	0x3e30025c	0.171884
92	0x3ebe7206	0.37196368
93	0xbdf2c5e2	-0.118541494
94	0xbe919708	-0.2843554
95	0xbd4c434d	-0.04986887

conv2.pointwise.weight_fake_quant.scale f4 [16]
0	0x3b68842c	0.0035479171
1	0x3ac3fb50	0.0014952216
2	0x3a96e957	0.0011513632
3	0x3b41d551	0.002957661
4	0x3b213bee	0.0024602371
5	0x3b614e20	0.0034378842
6	0x3b68bd75	0.0035513316
7	0x3b50c016	0.0031852773
8	0x3b334c59	0.002735874
9	0x3b2ed3d5	0.0026676555
10	0x3b4563a7	0.0030119212
11	0x3b5d2561	0.0033744203
12	0x3b572ff7	0.0032834986
13	0x3b486470	0.0030577444
14	0x3b229e30	0.0024813525
15	0x3b3ea938	0.0029092561

conv2.pointwise.weight_fake_quant.activation_post_process.min_val f4 [16]
0	0xbecdf300	-0.40224457
1	0xbdcd2014	-0.10015884
2	0xbdee3988	-0.11632067
3	0xbec1d551	-0.3785806
4	0xbe64bb5c	-0.22337097
5	0xbee09575	-0.43864027
6	0xbee8bd75	-0.45457044
7	0xbed0c016	-0.4077155
8	0xbe56927f	-0.20954321
9	0xbeacae88	-0.33726907
10	0xbc2f4408	-0.010697372
11	0xbedc8ab3	-0.4307457
12	0xbe7cdffc	-0.24694818
13	0xbec86470	-0.39139128
14	0xbea29e30	-0.31761312
15	0xbe91739e	-0.2840852

conv2.pointwise.weight_fake_quant.activation_post_process.max_val f4 [16]
0	0x3ee6b324	0.45058548
1	0x3e427359	0.18989314
2	0x3e15bb84	0.14622313
3	0x3ec01be6	0.37521285
4	0x3e9ff976	0.3124501
5	0x3edf8b84	0.4366113
6	0x3e9666e8	0.29375386
7	0x3ece0e91	0.40245488
8	0x3eb1e5c0	0.34745598
9	0x3ead762d	0.33879223
10	0x3ec3d8e0	0.382514
11	0x3edb6b16	0.42855138
12	0x3ed58197	0.41700432
13	0x3e8c4fe5	0.27404705
14	0x3d985f9f	0.07440113
15	0x3ebd2be6	0.36947554

conv3.depthwise.weight f4 [16, 1, 5, 5]
0	0xbe6b79b6	-0.22995648
1	0xbdea5c3f	-0.11443376
2	0x3d5d4511	0.054020945
3	0xbe0add60	-0.1356101
4	0xbe136048	-0.14392197
5	0x3e5bd91d	0.21469541
6	0x3d67f6d6	0.056631885
7	0xbe06a5e5	-0.13149221
8	0xbd3a81df	-0.04553401
9	0xbda162ae	-0.0788015
10	0xbdb22970	-0.0869931
11	0xbd0257fc	-0.03182219
12	0xbc9c0ebc	-0.019049995
13	0xbd8abede	-0.06774686
14	0xbceb1d57	-0.028700514
15	0x3e2dc361	0.16969062
16	0x3e3735d9	0.17891635
17	0x3d822aa7	0.063557915
18	0xbe2b6ff6	-0.16741928
19	0x3dc2487d	0.09486482
20	0x3defe528	0.1171363
21	0x3e0d24e5	0.13783605
22	0x3d95d598	0.073161304
23	0x3d9c584a	0.07634027
24	0x3e4e1e23	0.20128684
25	0xbc00437d	-0.00782859
26	0xbc172fd2	-0.00922771
27	0x3ce80905	0.028324613
28	0xbe66fa04	-0.22556311
29	0x3e3f9369	0.18708576
30	0xbd442384	-0.047885433
31	0xbd1c8fb8	-0.038223
32	0xbdf0d93b	-0.117601834
33	0xbd145401	-0.036212925
34	0x3dd9cd17	0.10634821
35	0xbe1c04ec	-0.15236253
36	0x3d90f0f1	0.07077206
37	0xbd314c4f	-0.043285664
38	0xbe15c5a1	-0.1462617
39	0x3d0654dc	0.032795772
40	0x3e50cee2	0.2039142
41	0xbd349294	-0.0440851
42	0xbbb425d2	-0.0054976726
43	0x3df8feaa	0.12157948
44	0x3e306e3a	0.17229548
45	0xbe6740cb	-0.2258331
46	0xbda244ea	-0.079233006
47	0xbdae9c3e	-0.085258946
48	0x3daaba1b	0.08336278
49	0xbe24eca9	-0.16105904
50	0x3e69596c	0.22788018
51	0xbd7e4071	-0.062073175
52	0x3e278a40	0.16361332
53	0x3b8b5703	0.004252316
54	0x3e3d966d	0.18514414
55	0x3e3804e6	0.17970619
56	0xbab43300	-0.0013748109
57	0x3d09fecd	0.033690263
58	0xbd8dfed6	-0.06933372
59	0x3e4dec0f	0.2010958
60	0xbe21b95e	-0.15793368
61	0x3c810864	0.015751071
62	0x3dff7cab	0.124749504
63	0xbd59f901	-0.053215984
64	0x3e6aed0e	0.22941992
65	0x3e1d2189	0.15344824
66	0x3d72c6bd	0.059271563
67	0x3df65038	0.12027019
68	0xbdeb91e5	-0.115024365
69	0x3e6e093e	0.23245713
70	0xbd41a24f	-0.04727393
71	0xbd5212c0	-0.051287413
72	0x3dc3dcd7	0.09563606
73	0x3d9ae440	0.075630665
74	0xbdb7ec6d	-0.089806415
75	0x3e201336	0.15632328
76	0xbc900039	-0.017578231
77	0xbdeb273f	-0.11482095
78	0x3e191550	0.14949536
79	0x3e293eb2	0.16527823
80	0x3d6e0ca6	0.05811753
81	0x3dc7a82d	0.09748874
82	0xbd962d5b	-0.073328696
83	0x3d5b84c4	0.053593412
84	0x3e1d7ce6	0.15379676
85	0xbde38eb2	-0.11111201
86	0xbc8b8038	-0.017028913
87	0xbe0de7f7	-0.13858019
88	0xbc5770ce	-0.013149453
89	0x3e0e505a	0.13897839
90	0x3e336ee8	0.17522776
91	0xbd913ef9	-0.07092089
92	0x3d468304	0.04846479
93	0xbe0f43d6	-0.13990721
94	0xbd7613c3	-0.06007744
95	0xbe394547	-0.18092833
96	0x3e3a5f09	0.18200316
97	0xbe3ab228	-0.18232024
98	0xbe038aec	-0.12845963
99	0xbe3e63e7	-0.18592797
100	0x3d8f0372	0.06983079
101	0xbd07217a	-0.03299091
102	0xbe7ced89	-0.24699987
103	0xbc6046fc	-0.013688799
104	0x3e7eca57	0.24881874
105	0x3dc15dc2	0.09441711
106	0xbe4dc708	-0.20095456
107	0xbdae0c24	-0.084984094
108	0x3c9b158e	0.018931177
109	0x3e553e3d	0.20824523
110	0x3d3c6273	0.045992326
111	0xbe1a5e00	-0.1507492
112	0xbce89862	-0.028392974
113	0x3d36d7c8	0.04463938
114	0xbd71b744	-0.059012666
115	0x3d38f250	0.045152962
116	0xbd91e26c	-0.07123265
117	0xbd90c496	-0.07068746
118	0x3cc19ef7	0.02363537
119	0x3e459ed1	0.19298865
120	0xbc4989f9	-0.012300962
121	0xbde6cd83	-0.11269667
122	0xbe7fbfaf	-0.24975465
123	0xbc5e22d6	-0.01355811
124	0xbd890cf0	-0.06691921
125	0xbd082a27	-0.033243325
126	0xbe162df5	-0.14665969
127	0xbe0e83e3	-0.13917498
128	0xbd9f4eb2	-0.07778682
129	0xbdfe4fed	-0.124175884
130	0xbe19f099	-0.15033187
131	0xbe164fb6	-0.14678845
132	0x3da0e6dd	0.07856534
133	0x3dc4a472	0.09601678
134	0xbe6cb7fe	-0.23117062
135	0xbe3c4c47	-0.18388472
136	0xbd7cb866	-0.061699294
137	0xbb26d255	-0.0025454958
138	0x3e394cd5	0.18095715
139	0xbe17b3c3	-0.14814667
140	0xbd057094	-0.032578066
141	0x3dde7fb4	0.10864201
142	0x3e15e5b9	0.14638413
143	0xbe23c5b7	-0.15993391
144	0x3e2a2752	0.16616562
145	0x3dcc9748	0.09989792
146	0x3d795fff	0.060882565
147	0x3d8ff39f	0.07028889
148	0x3e5bca8d	0.21463986
149	0xbc9ce451	-0.019151838
150	0xbcea8d84	-0.028631933
151	0xbe67054a	-0.22560611
152	0xbd60fc9d	-0.05492841
153	0xbe39b776	-0.18136391
154	0xbe808c53	-0.2510706
155	0xbe5f6f2d	-0.21819754
156	0x3d14f68c	0.036367938
157	0x3dc9f4b8	0.098611295
158	0xbd93d8cf	-0.07219087
159	0xbe173d29	-0.14769424
160	0x3d6debd4	0.05808623
161	0xbbf0012b	-0.007324358
162	0x3d909db8	0.070613325
163	0x3df5fa3c	0.12010619
164	0xbd8c9cae	-0.06865822
165	0xbdb5eace	-0.08882676
166	0xbe6f0aa7	-0.23343907
167	0xbe4c3077	-0.19940363
168	0xbde6f6af	-0.1127752
169	0xbe2946f6	-0.16530976
170	0x3e56278c	0.20913523
171	0x3db93826	0.090439126
172	0x3d1ba669	0.038000498
173	0x3e64eb6e	0.22355434
174	0xbe346a0e	-0.17618582
175	0x3e673ee5	0.22582586
176	0x3e2740b7	0.1633328
177	0xbd300948	-0.0429776
178	0x3c211581	0.009831787
179	0x3d6903f2	0.05688853
180	0x3d094f62	0.03352297
181	0x3b628208	0.0034562368
182	0x3e649af1	0.2232473
183	0x3c02b699	0.007978105
184	0x3d8ed7a2	0.069747224
185	0xbe12901c	-0.14312786
186	0x3d41cd3e	0.047314875
187	0xbc9035fc	-0.017603867
188	0x3e3b8967	0.18314134
189	0x3df0f15f	0.11764788
190	0x3c987131	0.018608661
191	0x3e1310a6	0.1436182
192	0x3e260f08	0.16216671
193	0x3e517374	0.20454198
194	0xbbdf44ce	-0.006813622
195	0x3e10da88	0.14145863
196	0x3e64f2db	0.22358267
197	0xbbdbde37	-0.0067098397
198	0x3c231789	0.009954342
199	0xbb84e74a	-0.004055892
200	0xbe42cea1	-0.19024135
201	0xbd32ca26	-0.043649815
202	0xbdd07ad6	-0.10179679
203	0x3e0845d7	0.13307892
204	0x3d23fafb	0.040034276
205	0x3e3dcc06	0.1853486
206	0x3e59532b	0.21223132
207	0x3d44d93c	0.048058733
208	0x3d68ce19	0.056837175
209	0xbe738307	-0.23780452
210	0xbd6fe8c2	-0.058571585
211	0x3d501f66	0.050811194
212	0xbcd03a81	-0.025418522
213	0x3deec58c	0.11658773
214	0xbe740aa0	-0.23832178
215	0xbe53ebd0	-0.20695424
216	0xbe75caac	-0.24003094
217	0xbe0fc78f	-0.1404097
218	0x3d89ac51	0.0672232
219	0xbe758f0d	-0.23980351
220	0x3dcd9d96	0.10039823
221	0xbd30570b	-0.04305176
222	0x3e63c25c	0.22242111
223	0xbd1782be	-0.03698992
224	0xbd53c859	-0.05170474
225	0xbe8ac848	-0.27105927
226	0xbe8a213f	-0.2697849
227	0xbd7310a8	-0.059342057
228	0xbd86bbe2	-0.065788046
229	0x3e29c7d7	0.16580139
230	0xbd77dd43	-0.060513746
231	0xbdd1328b	-0.102147184
232	0xbd9e046f	-0.077156894
233	0xbe897f04	-0.26854718
234	0x3d43e932	0.047829814
235	0x3e10e48a	0.1414968
236	0xbdb53e3a	-0.088497594
237	0x3de0f30c	0.109838575
238	0x3da496b7	0.08036559
239	0x3d836a54	0.06416765
240	0x3e499b91	0.1968825
241	0x3e20c885	0.15701492
242	0x3db96255	0.090519585
243	0xbe0111de	-0.12604472
244	0x3e09747f	0.13423346
245	0xbe1a84ae	-0.15089676
246	0xbd654528	-0.055974156
247	0x3d379309	0.044817958
248	0x3def71b0	0.11691606
249	0xbd964174	-0.07336703
250	0xbe6a87e8	-0.22903407
251	0xbd62217d	-0.05520772
252	0xbd43c468	-0.04779473
253	0x3b0d0c46	0.0021522208
254	0xbe3f0440	-0.18653965
255	0x3d912283	0.07086661

conv3.depthwise.weight_fake_quant.scale f4 [16]
0	0x3ae993a4	0.001782049
1	0x3ae6dadd	0.0017612834
2	0x3aec8bfb	0.0018047089
3	0x3abe6418	0.001452568
4	0x3b000b77	0.0019538084
5	0x3aec1d38	0.0018014079
6	0x3b0055a6	0.00195823
7	0x3ae7dd5b	0.001768987
8	0x3af4a05e	0.0018663516
9	0x3b09c5e4	0.0021022493
10	0x3b0597cf	0.0020384674
11	0x3afb558a	0.0019175273
12	0x3af28853	0.0018503763
13	0x3ad14649	0.0015966381
14	0x3af4efc9	0.0018687184
15	0x3b0a5807	0.0021109597

conv3.depthwise.weight_fake_quant.activation_post_process.min_val f4 [16]
0	0xbe6993a4	-0.22810227
1	0xbe66dadd	-0.22544427
2	0xbe1d2a0e	-0.15348074
3	0xbe3e6418	-0.1859287
4	0xbe7e9474	-0.24861318
5	0xbe6c1d38	-0.23058021
6	0xbe8055a6	-0.25065345
7	0xbe132a2d	-0.14371558
8	0xbe74a05e	-0.238893
9	0xbe89c5e4	-0.2690879
10	0xbe6a2dd7	-0.22869049
11	0xbe7b558a	-0.2454435
12	0xbe702e20	-0.23455095
13	0xbde8ea86	-0.11372857
14	0xbe24ecc3	-0.16105942
15	0xbe8a5807	-0.27020285

conv3.depthwise.weight_fake_quant.activation_post_process.max_val f4 [16]
0	0x3e5f0c68	0.21782076
1	0x3e4e6b1b	0.20158045
2	0x3e6ab2e3	0.22919802
3	0x3e3c0543	0.18361382
4	0x3e7e16c0	0.24813366
5	0x3e5bac6c	0.21452492
6	0x3e63af26	0.22234783
7	0x3e660da0	0.22466135
8	0x3e603023	0.21893363
9	0x3e43527b	0.19074433
10	0x3e848c9f	0.25888535
11	0x3e2acaea	0.16678968
12	0x3e70a342	0.23499778
13	0x3e4fa3bc	0.20277303
14	0x3e7305e9	0.23732723
15	0x3de9c489	0.11414439

conv3.pointwise.weight f4 [120, 16, 1, 1]
0	0x3e0e855f	0.13918065
1	0x3d1f33ca	0.03886775
2	0x3d49183a	0.04909537
3	0x3e13b314	0.14423782
4	0x3e539273	0.20661335
5	0x3e2355ea	0.15950742
6	0x3adca446	0.0016833625
7	0xbe931a4d	-0.28731003
8	0xbe561192	-0.2090514
9	0xbdc21eb5	-0.09478513
10	0xbe06df51	-0.13171126
11	0xbe00ea9d	-0.12589498
12	0x3e2c129c	0.16803974
13	0xbe02a039	-0.12756433
14	0xbd487faa	-0.048949875
15	0x3e90e91b	0.28302845
16	0x3d40d627	0.04707923
17	0x3e64c180	0.2233944
18	0xbd5fff4f	-0.05468684
19	0x3e11cae4	0.14237553
20	0x3e366c68	0.17814791
21	0xbde6f68e	-0.11277495
22	0x3d6a4870	0.057197988
23	0x3d6231d5	0.055223305
24	0x3e6f3ddc	0.23363441
25	0x3e3f1609	0.1866075
26	0xbd77be23	-0.060484063
27	0x3e67c385	0.22633179
28	0x3dffe18d	0.12494192
29	0xbe5dd496	-0.21663126
30	0x3e3d534c	0.18488806
31	0x3e0bed6c	0.13664788
32	0x3dfcd24c	0.123447984
33	0xbd96aaba	-0.07356782
34	0x3c946bdd	0.01811784
35	0xbe140e03	-0.1445847
36	0xbd9b0f2d	-0.07571254
37	0x3b97eb63	0.0046362146
38	0x3e1f764c	0.1557247
39	0x3d4fb848	0.050712854
40	0x3e9cf1bc	0.3065318
41	0xbd566964	-0.052346602
42	0x3be9c264	0.007133769
43	0xbc8a1dd1	-0.01685992
44	0xbe304443	-0.1721354
45	0x3cabfda6	0.020994972
46	0x3e09cb64	0.13456494
47	0xbd904ff4	-0.070465
48	0xbe525d63	-0.20543437
49	0xbe7383ae	-0.237807
50	0xbdf3989b	-0.118943416
51	0x3d3b7ed2	0.045775242
52	0x3e0a45a7	0.13503133
53	0x3cf1f49c	0.029535584
54	0x3ddac3e3	0.10681894
55	0xbe5b4a13	-0.21414976
56	0x3d58d2bb	0.052935343
57	0x3c007639	0.0078406865
58	0xbe3fbdcc	-0.18724746
59	0xbc390ea0	-0.011294991
60	0xbd38947b	-0.045063477
61	0xbce3322e	-0.027733888
62	0xbe1b4590	-0.15163255
63	0x3e14c982	0.14529994
64	0x3e7cea98	0.24698865
65	0xbe2338b4	-0.159396
66	0x3e5b549e	0.21418998
67	0x3e4d18f8	0.20029056
68	0xbe3315dc	-0.17488807
69	0x3e3d36a1	0.1847787
70	0xbe26d913	-0.16293745
71	0xbe8af57e	-0.2714042
72	0xbd4351b3	-0.047685336
73	0x3e6a8a55	0.22904332
74	0xbe8b4fda	-0.2720936
75	0x3c809701	0.015697004
76	0xbe8ba61f	-0.27275178
77	0x3d2ee049	0.042694364
78	0xbe41d783	-0.18929867
79	0x3c81a967	0.015827848
80	0xbb8b290f	-0.004246838
81	0x3e1db7f4	0.15402204
82	0xbc009e11	-0.007850186
83	0xbdab8559	-0.083750434
84	0xbe2026ff	-0.15639876
85	0xbcbd4587	-0.023104442
86	0xbe90ac0c	-0.2825626
87	0x3dd9255e	0.1060283
88	0x3e848290	0.2588086
89	0x3d928fd0	0.07156336
90	0x3e587958	0.21140039
91	0xbd958cc7	-0.07302242
92	0xbd5f46bb	-0.054510813
93	0xbdb9c69a	-0.09071083
94	0x3e30310f	0.17206214
95	0x3dbab8fd	0.09117315
96	0x3e80dffc	0.25170887
97	0x3e1f7862	0.15573266
98	0x3e1c0e1d	0.15239759
99	0xbe1d4d5b	-0.1536154
100	0xbd6b16a1	-0.057394627
101	0x3bced09d	0.0063114897
102	0xbdb8c8fd	-0.090227105
103	0xbe890847	-0.26764128
104	0xbe9a0dd3	-0.30088672
105	0x3e17ab2b	0.14811389
106	0xbea1a460	-0.3157072
107	0xbe9f876d	-0.3115801
108	0x3e0ee19d	0.13953252
109	0x3ce0be90	0.027434617
110	0xbea35e7f	-0.31908032
111	0x3da315b7	0.07963126
112	0x3e11dcfc	0.14244455
113	0x3dd9dedb	0.106382094
114	0x3d0af995	0.033929426
115	0xbe67b494	-0.22627479
116	0xbbe97114	-0.0071240757
117	0x3d971389	0.07376773
118	0xbe0e8339	-0.13917245
119	0xbdcd7cdc	-0.10033581
120	0xbe6f8810	-0.23391747
121	0x3e905572	0.2819019
122	0x3e4b0125	0.19824655
123	0xbe92d7a0	-0.28680134
124	0x3d7a1a88	0.06106046
125	0xbe6698db	-0.22519247
126	0x3de1f085	0.110322036
127	0x3e775c1a	0.24156228
128	0x3e2dc131	0.16968228
129	0x3d5c6283	0.053804886
130	0xbe522aec	-0.20524186
131	0xbe78f3e6	-0.2431179
132	0x3e1c6a91	0.15275027
133	0x3e99187c	0.29901493
134	0xbc891706	-0.016734611
135	0x3d62dae9	0.05538455
136	0xbe81269f	-0.25224778
137	0xbcc059d6	-0.023480337
138	0x3e38fc6c	0.18065041
139	0x3e04b418	0.12959325
140	0x3e979bec	0.29611146
141	0x3e238d7d	0.15971942
142	0x3dfaa0cd	0.122377016
143	0xbdfe7c53	-0.12426057
144	0xbdd19072	-0.10232629
145	0xbd28d48b	-0.04121832
146	0xbd625618	-0.055257887
147	0x3db400d9	0.08789224
148	0xbe90a39e	-0.2824983
149	0xbde02d41	-0.109461315
150	0xbbedb19b	-0.0072538382
151	0x3d00370b	0.031302493
152	0xbcd7d80f	-0.026348142
153	0x3db2250d	0.08698473
154	0xbb5818c8	-0.0032973755
155	0xbdb5c6fc	-0.08875844
156	0x3dcb11ad	0.09915481
157	0x3e694637	0.22780691
158	0x3e1d7aa4	0.15378815
159	0xbe838eff	-0.25695035
160	0x3e212d95	0.15740044
161	0x3dfd797f	0.12376689
162	0xbe90a8fc	-0.28253925
163	0x3e03d647	0.12874709
164	0x3e24188f	0.16024993
165	0xbe883297	-0.26601097
166	0xbddd5b5f	-0.10808443
167	0x3e8a512d	0.27015057
168	0x3e301cd7	0.17198502
169	0xbe13e823	-0.14444022
170	0x3e8c443c	0.2739581
171	0x3dbc4b4a	0.09194048
172	0xbde1a608	-0.11017996
173	0x3dac4dec	0.084133
174	0x3d8d484a	0.06898554
175	0xbd41a74c	-0.047278687
176	0xbe8feb10	-0.28109026
177	0xbe098e6f	-0.1343324
178	0x3cc144e2	0.023592416
179	0xbe651354	-0.22370654
180	0xbe8c8ef4	-0.27452815
181	0xbe8ceeb1	-0.27525857
182	0x3dac60aa	0.08416875
183	0xbcfd7fca	-0.030944724
184	0x3e3783f3	0.17921428
185	0x3e2481f4	0.16065198
186	0x3e2b35a9	0.16719688
187	0xbdc35c3c	-0.09539077
188	0x3e89a7fa	0.26885968
189	0xbe023b96	-0.12718043
190	0xbcda0400	-0.026613235
191	0x3d49d69c	0.049276933
192	0x3e5237e3	0.20529132
193	0x3e6df7d0	0.23239064
194	0xbcb012ce	-0.021493342
195	0x3e7bc0ee	0.24585316
196	0x3e8edb24	0.27901566
197	0xbbfbada2	-0.0076806108
198	0x3e374538	0.17897499
199	0x3c3cdd59	0.011527383
200	0x3e0bc790	0.13650346
201	0xbe043fe4	-0.12914997
202	0xbd6cd381	-0.057818893
203	0x3e2d503b	0.16925137
204	0xbc75ca2e	-0.015001817
205	0x3e48a021	0.19592334
206	0xbe51f263	-0.2050262
207	0x3df65c53	0.12029328
208	0x3e0f8109	0.14014067
209	0x3adbe6e0	0.001677718
210	0x3b49dd7e	0.0030802186
211	0x3c998286	0.018738996
212	0x3d7ba656	0.061437927
213	0xbe30cef6	-0.1726645
214	0xbd9bf989	-0.076159544
215	0x3c97f42c	0.018549047
216	0xbe92ca76	-0.2867009
217	0x3e91e1e1	0.28492644
218	0xbd5886ef	-0.052863058
219	0xbe0a1f6c	-0.13488549
220	0x3e7e1872	0.24814013
221	0x3dda29f0	0.1065253
222	0xbe7bd532	-0.24593046
223	0x3e9187f7	0.28424045
224	0x3e953fe5	0.2915031
225	0x3d8dd6e1	0.069257505
226	0xbdfec226	-0.124393746
227	0x3e54dee2	0.20788148
228	0x3ceb8d65	0.028753946
229	0xbcea156e	-0.028574672
230	0xbd2d03ef	-0.04224008
231	0xbc9ed3da	-0.019388128
232	0xbd88410c	-0.06653032
233	0x3dcdde0b	0.10052117
234	0xbe95b2e4	-0.29238045
235	0x3c9b99bd	0.018994207
236	0xbb99cc10	-0.0046935156
237	0x3d90213e	0.070375904
238	0x3d2a9341	0.04164434
239	0x3e5cf424	0.21577507
240	0xbdf69d7c	-0.120417565
241	0xbbb4c8a8	-0.005517084
242	0x3de2a30b	0.11066254
243	0x3e3ae867	0.18252717
244	0x3caef441	0.021356704
245	0xbe6625c7	-0.22475348
246	0xbe490555	-0.1963094
247	0xbe12f292	-0.14350346
248	0x3e1df787	0.15426455
249	0x3e900e16	0.28135747
250	0xbca4fc70	-0.020139903
251	0xbe68da69	-0.22739567
252	0xbdb3f86a	-0.087876156
253	0xbe509065	-0.20367582
254	0x3e52824d	0.20557518
255	0xbe91e830	-0.28497458

conv3.pointwise.weight_fake_quant.scale f4 [120]
0	0x3b125fce	0.0022334936
1	0x3aee476d	0.0018179246
2	0x3b1b0bcc	0.0023658155
3	0x3af383e0	0.001857873
4	0x3b0ada9b	0.0021187428
5	0x3b0eec69	0.0021808392
6	0x3b22a21b	0.002481586
7	0x3b118aee	0.0022208053
8	0x3b1988c1	0.002342746
9	0x3b0f7aa0	0.0021893159
10	0x3b0e4ba3	0.0021712563
11	0x3b0e4669	0.0021709448
12	0x3b0e4b4b	0.0021712359
13	0x3b11f288	0.0022269804
14	0x3b159f2b	0.0022830467
15	0x3b116131	0.0022183175
16	0x3b0b257d	0.0021232062
17	0x3b0c9b12	0.0021454734
18	0x3b19e924	0.002348491
19	0x3b1b2966	0.0023675798
20	0x3b0670c6	0.0020513996
21	0x3b238cdd	0.0024955787
22	0x3b0660ac	0.0020504398
23	0x3b12e2f1	0.00224131
24	0x3b159539	0.002282454
25	0x3b026cc6	0.001990126
26	0x3b0addd7	0.0021189356
27	0x3ae663bc	0.001757733
28	0x3b0304a6	0.0019991784
29	0x3b05d5f1	0.0020421708
30	0x3afea138	0.0019426709
31	0x3afcbd52	0.0019282496
32	0x3b072d67	0.0020626427
33	0x3b18995f	0.0023284776
34	0x3b1307e2	0.0022435118
35	0x3aec5600	0.0018031001
36	0x3b1059e3	0.0022026233
37	0x3b04a1f7	0.002023814
38	0x3b18fe52	0.0023344946
39	0x3b08261b	0.0020774666
40	0x3b1375e1	0.0022500681
41	0x3b2236ed	0.0024751977
42	0x3b1a9117	0.0023585015
43	0x3b0e30a8	0.0021696482
44	0x3b0e409a	0.0021705986
45	0x3b10b68a	0.0022081458
46	0x3b0d3354	0.0021545487
47	0x3b038219	0.0020066558
48	0x3b0fea66	0.002195978
49	0x3b1569d0	0.0022798665
50	0x3b105ebc	0.0022029122
51	0x3b1ba950	0.002375204
52	0x3b17030a	0.0023042583
53	0x3b0a195c	0.0021072244
54	0x3b04efe5	0.002028459
55	0x3aec8a20	0.0018046536
56	0x3b18ef12	0.0023335856
57	0x3b07c283	0.0020715303
58	0x3b18d2c4	0.0023318985
59	0x3b1b8a5f	0.0023733599
60	0x3b0dd232	0.0021640179
61	0x3b08c412	0.002086882
62	0x3b110c80	0.0022132695
63	0x3b109d9c	0.0022066599
64	0x3b172fa5	0.002306917
65	0x3b005cff	0.001958668
66	0x3b0d8654	0.0021594958
67	0x3b121ded	0.002229567
68	0x3b17ac5e	0.002314351
69	0x3b1f4fcd	0.002430904
70	0x3b11369f	0.00221578
71	0x3afdda40	0.0019367412
72	0x3ae2f039	0.0017314024
73	0x3b18cd41	0.00233157
74	0x3b010bbe	0.0019690837
75	0x3aff8271	0.0019493831
76	0x3b171f85	0.0023059559
77	0x3b1dcd22	0.0024078568
78	0x3ad43bda	0.0016192154
79	0x3b1b5bfb	0.0023705948
80	0x3b11c93d	0.0022245192
81	0x3b0fb103	0.0021925576
82	0x3ae06a65	0.0017121552
83	0x3b12d01d	0.0022401877
84	0x3b04bc8e	0.002025399
85	0x3b10762a	0.0022043088
86	0x3b01a8be	0.0019784416
87	0x3b18c085	0.002330811
88	0x3b0647dd	0.0020489611
89	0x3b1b47be	0.0023693885
90	0x3b12b4bd	0.002238556
91	0x3b0ea2e7	0.0021764578
92	0x3b05c24c	0.002041
93	0x3b1bbee7	0.002376491
94	0x3b15ec8e	0.0022876593
95	0x3b1a5a75	0.0023552452
96	0x3b19ce22	0.0023468812
97	0x3af38e68	0.0018581869
98	0x3b0fb67e	0.0021928842
99	0x3b03dc11	0.0020120183
100	0x3b1f96a3	0.002435126
101	0x3af5dd93	0.0018758051
102	0x3b12f426	0.0022423356
103	0x3b104be5	0.0022017893
104	0x3b16795e	0.0022960524
105	0x3b184290	0.0023233034
106	0x3b1e9326	0.0024196594
107	0x3b1bcd17	0.0023773366
108	0x3b1a95aa	0.0023587742
109	0x3b1ab41d	0.002360589
110	0x3b1d4013	0.002399449
111	0x3b1ddbe1	0.0024087357
112	0x3b11613b	0.0022183198
113	0x3b117a98	0.0022198316
114	0x3b18297c	0.0023218086
115	0x3b155a22	0.002278932
116	0x3b0c2278	0.002138285
117	0x3b138b7b	0.0022513557
118	0x3b0c286f	0.0021386405
119	0x3b1983ec	0.0023424579

conv3.pointwise.weight_fake_quant.activation_post_process.min_val f4 [120]
0	0xbe925fce	-0.28588718
1	0xbe5dd464	-0.21663052
2	0xbe2e0c8c	-0.16996974
3	0xbe7383e0	-0.23780775
4	0xbe8ada9b	-0.27119908
5	0xbe8eec69	-0.27914742
6	0xbea2a21b	-0.31764302
7	0xbe918aee	-0.28426307
8	0xbe811dd4	-0.2521807
9	0xbe8f7aa0	-0.28023243
10	0xbe8e4ba3	-0.2779208
11	0xbe8e4669	-0.27788094
12	0xbe522b9c	-0.20524448
13	0xbe91822b	-0.28419623
14	0xbe94de32	-0.29075772
15	0xbe916131	-0.28394464
16	0xbe7adc61	-0.2449813
17	0xbe8a8c37	-0.270601
18	0xbe8a462e	-0.27006668
19	0xbe9b2966	-0.30305022
20	0xbe84a193	-0.2590452
21	0xbea02f66	-0.31286162
22	0xbe73a670	-0.2379396
23	0xbe92b2a1	-0.28651908
24	0xbe8fb53c	-0.28067958
25	0xbe826cc6	-0.25473613
26	0xbe8addd7	-0.27122375
27	0xbe6663bc	-0.22498983
28	0xbe8304a6	-0.25589484
29	0xbe85d5f1	-0.26139787
30	0xbe64ede6	-0.22356376
31	0xbe5b99dc	-0.21445411
32	0xbe812570	-0.25223875
33	0xbe8bf81c	-0.2733773
34	0xbe92b56a	-0.28654033
35	0xbe65f9d8	-0.22458589
36	0xbe83de0c	-0.25755346
37	0xbe83be06	-0.25730914
38	0xbe98fe52	-0.2988153
39	0xbe881874	-0.26581156
40	0xbe92ba73	-0.28657874
41	0xbe80389e	-0.25043195
42	0xbe635b1e	-0.22202727
43	0xbe8a9916	-0.2706992
44	0xbe8ae34a	-0.27126533
45	0xbe90b68a	-0.28264266
46	0xbe87748b	-0.26456103
47	0xbe838219	-0.25685194
48	0xbe8321bc	-0.25611675
49	0xbe8ed4eb	-0.2789682
50	0xbe905ebc	-0.28197277
51	0xbe9ba950	-0.30402613
52	0xbe858869	-0.26080635
53	0xbe7b0eb9	-0.24517335
54	0xbe84efe5	-0.25964275
55	0xbe6c8a20	-0.23099566
56	0xbe96f950	-0.29487085
57	0xbe3aff3b	-0.18261425
58	0xbe98d2c4	-0.298483
59	0xbe9b8a5f	-0.30379006
60	0xbe8dd232	-0.2769943
61	0xbe719b95	-0.23594506
62	0xbe6f6fa6	-0.23382434
63	0xbe909d9c	-0.28245246
64	0xbe9494bd	-0.29019728
65	0xbe805cff	-0.2507095
66	0xbe8d8654	-0.27641547
67	0xbe80ce41	-0.2515736
68	0xbe4765c5	-0.19472416
69	0xbe9f4fcd	-0.3111557
70	0xbe902d74	-0.28159678
71	0xbe7dda40	-0.24790287
72	0xbe32f580	-0.17476463
73	0xbe98cd41	-0.29844096
74	0xbe810bbe	-0.2520427
75	0xbe7f8271	-0.24952103
76	0xbe971f85	-0.29516235
77	0xbe9dcd22	-0.30820566
78	0xbe4161c8	-0.18884957
79	0xbe9b21a3	-0.302991
80	0xbe91c93d	-0.28473845
81	0xbe765e9b	-0.24059527
82	0xbe45fea3	-0.19335417
83	0xbe7683d6	-0.24073729
84	0xbe27a9d6	-0.16373381
85	0xbe8a268b	-0.2698253
86	0xbe7c6cb5	-0.24650843
87	0xbe98c085	-0.2983438
88	0xbe67dc2d	-0.22642584
89	0xbe9b47be	-0.30328172
90	0xbe90ca1e	-0.28279203
91	0xbe8db73a	-0.27678853
92	0xbe85c24c	-0.261248
93	0xbe84fd5a	-0.25974542
94	0xbe95ec8e	-0.2928204
95	0xbe9a5a75	-0.30147138
96	0xbe99ce22	-0.3004008
97	0xbe4f5b24	-0.20249611
98	0xbe3ab093	-0.1823142
99	0xbe7b608a	-0.24548545
100	0xbe7135b3	-0.23555641
101	0xbe47848c	-0.19484156
102	0xbe92f426	-0.28701895
103	0xbe904be5	-0.28182903
104	0xbe7f2cec	-0.2491948
105	0xbe8d9788	-0.27654672
106	0xbe9e9326	-0.3097164
107	0xbe8b1147	-0.2716162
108	0xbe9a95aa	-0.3019231
109	0xbe86374c	-0.26214063
110	0xbe9d4013	-0.30712947
111	0xbe9ddbe1	-0.30831817
112	0xbe91613b	-0.28394493
113	0xbe917a98	-0.28413844
114	0xbe97c39e	-0.29641432
115	0xbe920e0a	-0.28526336
116	0xbe8bcb04	-0.27303326
117	0xbe938b7b	-0.28817353
118	0xbe8bc0e5	-0.27295604
119	0xbe75d8aa	-0.24008432

conv3.pointwise.weight_fake_quant.activation_post_process.max_val f4 [120]
0	0x3e90176d	0.28142872
1	0x3e6c6ade	0.23087642
2	0x3e99d5b4	0.30045855
3	0x3e14c9b4	0.14530069
4	0x3e7d7c52	0.24754456
5	0x3e829f98	0.25512385
6	0x3e80fa3c	0.25190914
7	0x3e90040f	0.28128096
8	0x3e9855af	0.2975287
9	0x3e67146e	0.22566387
10	0x3e8a91b2	0.27064282
11	0x3e87fedd	0.26561633
12	0x3e8d2eb4	0.27574694
13	0x3e90cea3	0.2828265
14	0x3e9473ed	0.28994694
15	0x3e8f6bd6	0.2801196
16	0x3e8a0f32	0.26964718
17	0x3e8b81dc	0.27247512
18	0x3e98b552	0.29825836
19	0x3e301cac	0.17198437
20	0x3e8563e4	0.26052773
21	0x3ea245c3	0.3169385
22	0x3e8553eb	0.26040587
23	0x3e91bd2b	0.28464636
24	0x3e946a0f	0.28987166
25	0x3e50eeb7	0.20403562
26	0x3e6c2209	0.23059858
27	0x3e4fe972	0.20303896
28	0x3e371ff5	0.17883284
29	0x3e796ebe	0.24358651
30	0x3e7ca3f6	0.24671921
31	0x3e7ac3d7	0.2448877
32	0x3e861f0c	0.26195562
33	0x3e97682c	0.29571664
34	0x3e91e1d2	0.284926
35	0x3e6a7d54	0.22899371
36	0x3e8f392f	0.27973315
37	0x3e8398b3	0.25702438
38	0x3e3883d7	0.18019043
39	0x3e8715cf	0.26383826
40	0x3e924ef5	0.28575864
41	0x3ea0f27f	0.3143501
42	0x3e995bf5	0.2995297
43	0x3e8d1447	0.27554533
44	0x3e8d2419	0.27566603
45	0x3e6818ef	0.22665761
46	0x3e8c18ed	0.27362767
47	0x3e7a6295	0.24451669
48	0x3e8eca91	0.2788892
49	0x3e943efc	0.28954303
50	0x3e8efb57	0.27926132
51	0x3e8dd80f	0.27703902
52	0x3e95d504	0.2926408
53	0x3e890529	0.2676175
54	0x3e82d2fc	0.25551593
55	0x3e57e9ee	0.21085331
56	0x3e97bd34	0.29636538
57	0x3e86b2fe	0.26308435
58	0x3e1cce2b	0.15313022
59	0x3e9949e5	0.2993919
60	0x3e8b2da6	0.27183264
61	0x3e87b28a	0.26503402
62	0x3e8fea67	0.28108522
63	0x3e79e4be	0.24403664
64	0x3e960146	0.29297847
65	0x3e7b6b8d	0.24552746
66	0x3e4efaa2	0.20212796
67	0x3e90f9b1	0.283155
68	0x3e967d05	0.29392257
69	0x3e9d6733	0.30742797
70	0x3e901432	0.28140408
71	0x3e5fafa0	0.2184434
72	0x3e612a59	0.2198881
73	0x3e8943b8	0.26809478
74	0x3e4991cf	0.19684528
75	0x3e4c84dc	0.19972557
76	0x3e766337	0.24061285
77	0x3e9aaff6	0.30212373
78	0x3e529362	0.20564035
79	0x3e9a2543	0.30106553
80	0x3e8edf42	0.27904707
81	0x3e8e91a1	0.2784548
82	0x3e5ea990	0.2174437
83	0x3e91aa7d	0.28450385
84	0x3e83b315	0.25722566
85	0x3e8f553e	0.27994722
86	0x3e80a56d	0.2512621
87	0x3e95832d	0.29201642
88	0x3e853b4d	0.26021805
89	0x3e935f4d	0.28783646
90	0x3e918f54	0.28429663
91	0x3e8d85a1	0.27641013
92	0x3e6c1eb7	0.23058592
93	0x3e9a8769	0.30181435
94	0x3e930ccb	0.28720698
95	0x3e975a8e	0.29561275
96	0x3e980f0e	0.29698986
97	0x3e71a74b	0.23598973
98	0x3e8e9711	0.2784963
99	0x3e82d459	0.25552633
100	0x3e9e5776	0.30926102
101	0x3e73f1d8	0.23822725
102	0x3e909adc	0.28243148
103	0x3e85b3fb	0.26113877
104	0x3e954c6b	0.29159865
105	0x3e97120b	0.29505953
106	0x3e979075	0.296024
107	0x3e9a957d	0.30192176
108	0x3e942c69	0.28940132
109	0x3e997eb5	0.29979482
110	0x3e6e6911	0.23282267
111	0x3e831e9b	0.25609288
112	0x3e8da16e	0.27662224
113	0x3e897a4b	0.26851115
114	0x3e96f929	0.2948697
115	0x3e942f6e	0.28942436
116	0x3e8b0a33	0.2715622
117	0x3e750859	0.23928966
118	0x3e8b101e	0.27160734
119	0x3e9850e4	0.29749215

fc1.weight f4 [84, 120]
0	0xbd986858	-0.07441777
1	0xbdfc8a26	-0.12331037
2	0xbd8db072	-0.0691842
3	0xbdb456a6	-0.088055894
4	0x3d885595	0.066569485
5	0x3d6c3d1a	0.05767546
6	0x3d8f92c8	0.07010418
7	0x3dbd0fa5	0.092314996
8	0x3d048cff	0.032361027
9	0x3d6a5700	0.057211876
10	0x3e34ed50	0.17668653
11	0x3e3652c4	0.1780501
12	0xbdffe86f	-0.12495505
13	0xbb989fdb	-0.004657728
14	0x3d4393a2	0.047748215
15	0x3cbbebfe	0.022939678
16	0xbd96e490	-0.073678136
17	0xbe14764f	-0.14498256
18	0xbdd95dae	-0.10613571
19	0xbd96696c	-0.073443264
20	0x3d840736	0.06446688
21	0x3e302a2f	0.17203592
22	0x3d1bc05c	0.038025245
23	0x3dd6d9ba	0.10490747
24	0x3da0daa9	0.07854206
25	0x3e022262	0.12708429
26	0x3a12f43c	0.0005605852
27	0xbce4f736	-0.02794991
28	0x3d17384b	0.03691892
29	0xbd1a168a	-0.03761915
30	0xbb9222ed	-0.00445973
31	0xbe14cd6c	-0.14531487
32	0x3c90dfc3	0.017684823
33	0xbc939b59	-0.018018411
34	0x3d11c5e7	0.035589125
35	0x3d2dc692	0.0424257
36	0xbcc6b2f9	-0.024255263
37	0xbd36aedc	-0.044600353
38	0x3e03eaf4	0.12882596
39	0x3df8cea9	0.12148792
40	0x3d1091b7	0.035295215
41	0xbd8208ba	-0.06349321
42	0x3d90cd37	0.070703916
43	0xbd9e6857	-0.07734745
44	0xbe10ad48	-0.14128602
45	0xbaab156a	-0.0013052647
46	0x3dd6e6dc	0.10493252
47	0x3da0ff5a	0.078612044
48	0x3d266de6	0.04063215
49	0xbd929d4a	-0.07158907
50	0x3da453d9	0.08023805
51	0x3de29527	0.11063605
52	0x3cdee083	0.027206665
53	0x3d947ea8	0.0725072
54	0x3cdfeb29	0.027333813
55	0x3dd587a4	0.10426262
56	0xbd66445e	-0.056217544
57	0x3db0a3d6	0.08624999
58	0x3dcde385	0.100531615
59	0x3df672b1	0.120335944
60	0x3d76d6bb	0.060263377
61	0x3d68774f	0.056754407
62	0xbbcc7c6e	-0.006240419
63	0xbc3b2fe5	-0.011424993
64	0x3e35e494	0.17762977
65	0xbda17866	-0.07884292
66	0x3e10dcf1	0.14146782
67	0x3cf71f43	0.030166274
68	0x3db6b769	0.089217015
69	0xbe38ff3c	-0.18066114
70	0xbda812bd	-0.08206699
71	0x3c9965b6	0.018725257
72	0xbded1f13	-0.115781926
73	0xbdb40e1b	-0.08791753
74	0x3d0c2669	0.03421632
75	0xbd35e5b5	-0.04440852
76	0x3d5a2a33	0.0532629
77	0x3dc35247	0.095371775
78	0x3a808cb2	0.0009807555
79	0x3d13995b	0.036034923
80	0x3d447dc2	0.047971494
81	0x3d859ec9	0.065244265
82	0x3d276f88	0.04087785
83	0x3de08b81	0.10964108
84	0xbd445c6d	-0.047939707
85	0xbc97ef15	-0.01854662
86	0xbc6c7517	-0.014432213
87	0x3ddeead6	0.10884635
88	0xbc0da23b	-0.008644636
89	0x3e3638ad	0.17795058
90	0xbdd89d36	-0.105768606
91	0xbc91342e	-0.017725077
92	0xbdf12e74	-0.11776438
93	0xbd2a80e9	-0.041626845
94	0xbd6656b1	-0.05623502
95	0x3d722b5c	0.059123382
96	0xbd108da1	-0.035291318
97	0xbdbdecc5	-0.09273676
98	0x3e02208b	0.12707727
99	0x3d546781	0.05185652
100	0xbcc314ad	-0.02381357
101	0xbd6af4b5	-0.057362277
102	0xbc026caf	-0.0079604825
103	0x3d201820	0.039085507
104	0x3c46cdaa	0.012133995
105	0x3c61e4e9	0.013787487
106	0x3e3267e9	0.17422451
107	0x3df5b217	0.119968586
108	0x3e342a68	0.17594302
109	0x3e263f96	0.16235194
110	0x3da94d75	0.08266727
111	0x3dfdb2c9	0.12387616
112	0x3ca02c71	0.019552441
113	0x3e10de2a	0.14147249
114	0xbe092345	-0.1339236
115	0xbcb02f27	-0.021506859
116	0xbd2db452	-0.042408295
117	0x3c797086	0.015224582
118	0x3e307ebd	0.17235847
119	0x3d1785bb	0.03699277
120	0xbd987085	-0.074433364
121	0x3cedd72f	0.029033272
122	0xbdf20647	-0.118176036
123	0x3d56af56	0.052413307
124	0xbc17b1e6	-0.009258723
125	0x3e1d4c24	0.15361077
126	0x3d27f986	0.04100945
127	0x3cba92dd	0.022775108
128	0xbd7e9bba	-0.06216023
129	0x3ce59514	0.028025188
130	0x3dac6f9c	0.08419725
131	0x3d07baf4	0.033137277
132	0xbce7834f	-0.028260855
133	0x3daaa0ae	0.083314285
134	0xbd67f183	-0.056626808
135	0xbc97aa56	-0.01851384
136	0xbd787700	-0.060660362
137	0xbd07820d	-0.03308301
138	0x3d39ef6e	0.045394354
139	0x3b7eab8b	0.0038859572
140	0x3d891fb6	0.066955015
141	0x3e3791de	0.17926738
142	0x3dea72ec	0.11447701
143	0x3d81bb76	0.063345835
144	0x3d3c8aa0	0.04603064
145	0x3e2bf497	0.16792522
146	0x3e330d2f	0.17485498
147	0x3dcff882	0.10154821
148	0x3dbfea75	0.09370891
149	0x3c0b767f	0.008512138
150	0xbbd6863a	-0.006546763
151	0xbd8f18c8	-0.069871485
152	0xbd0fd970	-0.035119474
153	0x3d3e89bf	0.046518084
154	0x3d63433c	0.05548404
155	0x3e04a9ca	0.12955394
156	0x3e313684	0.17305952
157	0xbd11ff24	-0.03564371
158	0x3daf6f2d	0.08566127
159	0x3e34e17e	0.17664143
160	0x3d93c9b0	0.07216203
161	0x3daa13f7	0.08304589
162	0x3aaa0022	0.001297001
163	0xbd4363ab	-0.047702473
164	0xbd6f6634	-0.058447078
165	0x3d7786ca	0.06043128
166	0x3e31d15c	0.1736502
167	0xbd146d49	-0.036237035
168	0x3c865409	0.016397493
169	0xbda90edc	-0.08254787
170	0x3e1bd4fd	0.15217967
171	0x3e12b07a	0.14325133
172	0xbd492f65	-0.049117465
173	0x3dfad7f7	0.12248223
174	0xbd0147f6	-0.031562768
175	0x3e2c5ba3	0.16831832
176	0xbcf57da1	-0.029967131
177	0x3e31018a	0.17285743
178	0x3dcdb59d	0.100444056
179	0x3e078604	0.13234717
180	0x3d8d3507	0.0689488
181	0x3de36f9a	0.11105271
182	0x3db8c346	0.090216205
183	0x3d90a753	0.070631646
184	0x3dfc4cae	0.12319313
185	0xbb8c9be7	-0.004291046
186	0x3d7013c7	0.05861261
187	0x3ddb8ade	0.10719846
188	0x39f2b56c	0.00046293007
189	0xbdeab116	-0.11459558
190	0xbbfd0675	-0.007721717
191	0xbcb17727	-0.021663262
192	0xbda03f5b	-0.07824584
193	0xbd362e04	-0.044477478
194	0xbc5825b3	-0.013192582
195	0x3d458505	0.04822256
196	0xbcaba167	-0.020950986
197	0x3e26c526	0.16286144
198	0x3bb070f5	0.0053845593
199	0x3d2841dd	0.041078437
200	0xbda7b9c2	-0.08189727
201	0x3dc548d7	0.09633034
202	0xbc2be98b	-0.010492693
203	0x3df0c0e1	0.11755539
204	0x3b7f62aa	0.003896872
205	0x3d2be8f5	0.041970212
206	0x3dd1503f	0.10220384
207	0xbd487918	-0.04894361
208	0xbe1044d9	-0.14088763
209	0x3e353ce4	0.17699009
210	0xbd72b04e	-0.05925017
211	0xbb80edfe	-0.003934621
212	0xbe060a3f	-0.13089846
213	0xbd175996	-0.03695067
214	0x3d58d99d	0.052941907
215	0x3dffac84	0.124840766
216	0xbbf78f19	-0.0075549004
217	0xbdd8a710	-0.1057874
218	0x3de26249	0.11053903
219	0xbd8b92c3	-0.06815102
220	0x3b0f2e92	0.0021847826
221	0xbd08a1a3	-0.033357274
222	0x3d335ba2	0.04378856
223	0xbb1b96b4	-0.002374095
224	0x3b88197a	0.0041534277
225	0xbd65407d	-0.055969704
226	0x3e16f2b7	0.14741026
227	0x3e20ac26	0.1569067
228	0x3e325ebf	0.17418955
229	0x3e30a2fc	0.17249674
230	0x3cf2faaf	0.02966055
231	0x3e3f226b	0.18665473
232	0x3d46ca91	0.048533026
233	0xbd09965b	-0.033590656
234	0xbd9b0578	-0.075694025
235	0xbdd2e83e	-0.10298203
236	0x3ba21455	0.0049462714
237	0x3cc28076	0.023742896
238	0x3e1c2838	0.15249717
239	0x3d43c444	0.047794595
240	0xbd7f7078	-0.062363118
241	0x3c9ce51a	0.019152213
242	0x3bcbf236	0.006223942
243	0xbc6108ed	-0.013735038
244	0xbcf184c2	-0.02948225
245	0x3dcc35d3	0.09971204
246	0xbd92237f	-0.071356766
247	0xbb9faf64	-0.004873203
248	0xbe29d61a	-0.1658558
249	0xbbb17b0a	-0.0054162787
250	0x3dca22d7	0.098699264
251	0x3e29ad88	0.16570103
252	0xbdf9da9c	-0.121998996
253	0x3d2e60d2	0.042572804
254	0xbd539b39	-0.051661704
255	0x3dba3b6b	0.09093364

fc1.weight_fake_quant.scale f4 [84]
0	0x3ab5bac2	0.0013864862
1	0x3abbf90e	0.0014341192
2	0x3aad437f	0.0013218968
3	0x3aac5f72	0.0013151004
4	0x3aaf6f5f	0.0013384632
5	0x3aaf9028	0.0013394402
6	0x3abb30d9	0.0014281526
7	0x3abc0d5d	0.0014347244
8	0x3a5ba066	0.0008378088
9	0x3ab21dd9	0.0013589218
10	0x3a671d54	0.0008816321
11	0x3ac0c115	0.001470598
12	0x3abe119e	0.00145011
13	0x3ab97924	0.0014150483
14	0x3ab25ece	0.0013608576
15	0x3ab6523a	0.0013910003
16	0x3aaf4be8	0.0013374062
17	0x3a9cffbe	0.0011978073
18	0x3abf022b	0.001457279
19	0x3ab5005d	0.0013809312
20	0x3abe7f9f	0.0014533884
21	0x3ab734ef	0.0013977567
22	0x3ab3cd19	0.001371774
23	0x3ab46b78	0.0013764938
24	0x3abcc2fd	0.0014401373
25	0x3a4d1085	0.0007822591
26	0x3ab7b134	0.0014014603
27	0x3abef332	0.0014568327
28	0x3ab598cb	0.001385474
29	0x3a4be483	0.00077778863
30	0x3a531cf2	0.00080533244
31	0x3ab01ae0	0.0013435744
32	0x3ab55999	0.0013835906
33	0x3aacea32	0.0013192354
34	0x3ab0147e	0.0013433842
35	0x3abc33e3	0.0014358725
36	0x3abe83fb	0.0014535183
37	0x3aad58dd	0.0013225336
38	0x3ab6f014	0.0013957047
39	0x3ab5dea4	0.0013875556
40	0x3ab5f781	0.0013882966
41	0x3ac2c42a	0.0014859487
42	0x3ab0fb90	0.0013502706
43	0x3ac2dd8e	0.0014867054
44	0x3ab339b1	0.001367381
45	0x3ab79f00	0.0014009178
46	0x3abe700f	0.0014529246
47	0x3ab79b86	0.0014008142
48	0x3a4b7056	0.0007760575
49	0x3ac03c04	0.0014666324
50	0x3ab21a41	0.0013588147
51	0x3aade622	0.0013267437
52	0x3ab83656	0.0014054279
53	0x3ab2d1c2	0.0013642835
54	0x3abe84c5	0.0014535418
55	0x3aaf5608	0.001337708
56	0x3ab893cc	0.0014082133
57	0x3ab0de74	0.001349403
58	0x3ab5b420	0.0013862886
59	0x3ab95247	0.00141389
60	0x3ab08030	0.0013465937
61	0x3a48adc4	0.00076552876
62	0x3ab3edd4	0.0013727495
63	0x3aac133a	0.0013128289
64	0x3abe2e94	0.0014509731
65	0x3aada79b	0.0013248803
66	0x3ab89586	0.0014082647
67	0x3ab7d629	0.0014025617
68	0x3ab731b6	0.0013976607
69	0x3ab6d9f0	0.0013950448
70	0x3abb1436	0.0014272991
71	0x3ab93513	0.0014130197
72	0x3aafb0a0	0.0013404079
73	0x3abfc4b5	0.0014630767
74	0x3ab8af07	0.0014090248
75	0x3ab9d101	0.0014176668
76	0x3ab9b6dc	0.0014168876
77	0x3ab8e569	0.0014106455
78	0x3ab2a9c5	0.0013630918
79	0x3ab0b8cc	0.0013482808
80	0x3ab2f6eb	0.001365391
81	0x3ab394ab	0.0013700923
82	0x3a76ca0b	0.0009414262
83	0x3abaf414	0.0014263415

fc1.weight_fake_quant.activation_post_process.min_val f4 [84]
0	0xbe354c41	-0.1770487
1	0xbe0e1863	-0.1387649
2	0xbe27828c	-0.16358393
3	0xbe2b31b3	-0.16718177
4	0xbe29b397	-0.16572414
5	0xbe2b47ab	-0.16726558
6	0xbe238aea	-0.1597096
7	0xbe3708f5	-0.1787451
8	0xbddba066	-0.10723953
9	0xbe2d4ddf	-0.16924237
10	0xbde4b4e2	-0.11167313
11	0xbe2cb357	-0.16865288
12	0xbe2e883e	-0.1704416
13	0xbe32d766	-0.1746498
14	0xbe325ece	-0.17418978
15	0xbe311f82	-0.17297176
16	0xbe2cdf0c	-0.1688196
17	0xbe195ac1	-0.14976026
18	0xbe3461ea	-0.17615476
19	0xbe35005d	-0.1767592
20	0xbe214a63	-0.15751033
21	0xbe31733c	-0.17329115
22	0xbe311c64	-0.17295986
23	0xbe316796	-0.17324671
24	0xbe35c6fe	-0.17751691
25	0xbdcd1085	-0.100129165
26	0xbe324459	-0.17408885
27	0xbe3755b7	-0.17903791
28	0xbe3598cb	-0.17734067
29	0xbdc68618	-0.09693545
30	0xbdd31cf2	-0.10308255
31	0xbe2cb2dd	-0.16865106
32	0xbe288dba	-0.16460314
33	0xbe2ac5bb	-0.1667699
34	0xbe2b5d89	-0.167349
35	0xbe355879	-0.17709531
36	0xbe3bb6b4	-0.18331414
37	0xbe280d27	-0.16411267
38	0xbe2e0d8c	-0.16997355
39	0xbe31de3d	-0.17369933
40	0xbe32bc6f	-0.17454694
41	0xbe386732	-0.18008116
42	0xbe13a684	-0.1441899
43	0xbe3e2585	-0.18569
44	0xbe24d925	-0.16098459
45	0xbe379f00	-0.17931747
46	0xbe163515	-0.14668687
47	0xbe2ce88d	-0.16885586
48	0xbdcb7056	-0.09933536
49	0xbe403c04	-0.18772894
50	0xbe2b4b86	-0.16728029
51	0xbe2aa629	-0.16664948
52	0xbe35e8c8	-0.1776458
53	0xbe31779a	-0.1733078
54	0xbe37c155	-0.17944844
55	0xbe2f5608	-0.17122662
56	0xbe334678	-0.1750735
57	0xbe2bc144	-0.16772944
58	0xbe300a11	-0.1719134
59	0xbe3083f3	-0.17237835
60	0xbe232be5	-0.15934713
61	0xbdc8adc4	-0.09798768
62	0xbe33df99	-0.17565764
63	0xbe28c487	-0.16481219
64	0xbe3e2e94	-0.18572456
65	0xbe0fe1c7	-0.14050971
66	0xbe2dc177	-0.16968332
67	0xbe2f563a	-0.17122737
68	0xbe3554f7	-0.17708193
69	0xbe326a43	-0.17423348
70	0xbe3af34b	-0.18256871
71	0xbe2f2cfc	-0.17107004
72	0xbe2dcb05	-0.16971977
73	0xbe236fda	-0.15960637
74	0xbe38af07	-0.18035518
75	0xbe399437	-0.18122946
76	0xbe311e00	-0.172966
77	0xbe38e569	-0.18056263
78	0xbe2fec3c	-0.1717996
79	0xbe219977	-0.15781198
80	0xbe2c18ad	-0.16806288
81	0xbe3394ab	-0.17537181
82	0xbdf6ca0b	-0.120502554
83	0xbe3af414	-0.18257171

fc1.weight_fake_quant.activation_post_process.max_val f4 [84]
0	0x3e344f4c	0.17608374
1	0x3e3a811c	0.18213314
2	0x3e2be8f8	0.1678809
3	0x3e2b06b3	0.16701774
4	0x3e2e1080	0.16998482
5	0x3e2e3108	0.17010891
6	0x3e39ba77	0.18137537
7	0x3e3a9542	0.18221
8	0x3dd0f706	0.10203366
9	0x3e30b99d	0.17258306
10	0x3de54f19	0.11196727
11	0x3e3f3f93	0.18676595
12	0x3e3c957b	0.18416397
13	0x3e380632	0.17971113
14	0x3e30cd53	0.17265825
15	0x3e34e596	0.17665705
16	0x3e2ded50	0.16985059
17	0x3e1bc5bf	0.15212153
18	0x3e3d8427	0.18507443
19	0x3e311c1e	0.17295882
20	0x3e3d02a0	0.18458033
21	0x3e35c685	0.1775151
22	0x3e32657f	0.1742153
23	0x3e3302a1	0.17481472
24	0x3e3b4977	0.18289743
25	0x3dbae4a5	0.09125642
26	0x3e3641d2	0.17798546
27	0x3e3d754c	0.18501776
28	0x3e30d618	0.1726917
29	0x3dca4cba	0.09877916
30	0x3db04cc4	0.08608392
31	0x3e2ebaaa	0.17063394
32	0x3e33eee6	0.17571601
33	0x3e2b905e	0.1675429
34	0x3e2eb455	0.17060979
35	0x3e3abb7b	0.1823558
36	0x3e3d06f3	0.18459682
37	0x3e2bfe2b	0.16796176
38	0x3e358234	0.1772545
39	0x3e3472e7	0.17621957
40	0x3e348b92	0.17631367
41	0x3e413ea2	0.18871549
42	0x3e2f9999	0.17148437
43	0x3e4157d3	0.18881159
44	0x3e31d33e	0.17365739
45	0x3e33fc96	0.17576823
46	0x3e3cf32f	0.18452142
47	0x3e362c4f	0.1779034
48	0x3da18e12	0.07888426
49	0x3e3a3ca4	0.18187195
50	0x3e30b60c	0.17256945
51	0x3e2c8a56	0.16849646
52	0x3e36c5e9	0.17848934
53	0x3e316c1e	0.173264
54	0x3e3d07bb	0.1845998
55	0x3e2d1e50	0.16906095
56	0x3e3722a4	0.17884308
57	0x3e2f7cb7	0.17137419
58	0x3e3448b8	0.17605865
59	0x3e37dfa2	0.17956403
60	0x3e2f1f30	0.17101741
61	0x3dc505a0	0.096202135
62	0x3e3285f8	0.17433918
63	0x3e2abb14	0.16672927
64	0x3e37c0ec	0.17944688
65	0x3e2c4c4c	0.1682598
66	0x3e37245b	0.17884962
67	0x3e36667d	0.17812534
68	0x3e35c353	0.17750292
69	0x3e356c3c	0.1771707
70	0x3e399e0e	0.181267
71	0x3e37c2a9	0.1794535
72	0x3e2e513f	0.1702318
73	0x3e3e452c	0.18581074
74	0x3e33ac79	0.17546262
75	0x3e385d5f	0.18004368
76	0x3e38436e	0.17994472
77	0x3e316f64	0.17327648
78	0x3e314471	0.17311265
79	0x3e2f575a	0.17123166
80	0x3e3190fd	0.17340465
81	0x3e315028	0.17315733
82	0x3dae1455	0.08499972
83	0x3e37ed38	0.17961586

fc2.weight f4 [1, 84]
0	0xbe14ead2	-0.14542702
1	0xbe35785c	-0.17721695
2	0xbe4de048	-0.20105088
3	0xbe30d873	-0.17270069
4	0xbe15e8a6	-0.1463953
5	0x3e388665	0.18020017
6	0xbe4c15cc	-0.1993019
7	0x3e507fd1	0.20361258
8	0x3ccbdd2c	0.024885736
9	0xbe543b31	-0.20725705
10	0xbdab6ca2	-0.083703294
11	0xbe5133ab	-0.20429866
12	0x3e49f2de	0.19721553
13	0xbe56fe57	-0.2099546
14	0x3e2a2956	0.16617331
15	0xbe5072a2	-0.20356229
16	0x3e4aa046	0.19787702
17	0x3d8263a2	0.0636666
18	0xbe3bcbe8	-0.18339503
19	0x3e3cef76	0.18450722
20	0xbe3d39eb	-0.18479125
21	0x3e4d7d06	0.20067224
22	0x3e3d8e0b	0.18511216
23	0xbe51ed25	-0.2050062
24	0xbe4d06a2	-0.20022061
25	0x3add36f4	0.0016877339
26	0x3e4c31cd	0.19940872
27	0xbe4fd539	-0.20296182
28	0x3e4ce57f	0.20009421
29	0xbdb054de	-0.08609937
30	0x3cb4595c	0.022015266
31	0xbe502850	-0.20327878
32	0x3e3957c5	0.18099888
33	0x3e4e5d7a	0.20152846
34	0xbe35bb59	-0.17747249
35	0xbe2ed8be	-0.17074868
36	0x3e417fe7	0.18896447
37	0x3e26604d	0.16247673
38	0x3e35dfd2	0.17761162
39	0x3e33fa22	0.17575887
40	0xbe4f9abc	-0.2027387
41	0xbe4f9d98	-0.20274961
42	0x3e197982	0.14987758
43	0xbe1987c6	-0.149932
44	0xbe4bbb41	-0.1989565
45	0x3e51624a	0.2044765
46	0xbe54f1cf	-0.20795368
47	0x3e502144	0.2032519
48	0x3cf87581	0.030329468
49	0xbe30cede	-0.17266414
50	0x3e2c3ffe	0.16821286
51	0x3e4a8f01	0.19781114
52	0xbe3785d0	-0.17922139
53	0xbe25e0dc	-0.16199058
54	0xbe503076	-0.20330986
55	0x3e4ae69d	0.19814534
56	0x3e4d2171	0.20032288
57	0xbe4a0f10	-0.19732308
58	0xbe50c02c	-0.20385808
59	0xbe3ebb21	-0.18626072
60	0xbe32578b	-0.17416207
61	0xbd960528	-0.07325202
62	0x3e180c62	0.14848474
63	0xbe4c5d81	-0.19957544
64	0xbe3a68dd	-0.18204065
65	0x3e4b3172	0.1984308
66	0x3e49f537	0.19722448
67	0x3e4b75b7	0.19869123
68	0xbe4241dd	-0.18970437
69	0x3e425b42	0.18980125
70	0x3e4d54b3	0.20051841
71	0x3e3d11d7	0.18463837
72	0x3e4bdaa8	0.1990763
73	0xbe201524	-0.15633065
74	0xbe4c3c42	-0.19944862
75	0xbe4be236	-0.19910511
76	0xbe4cf2e9	-0.20014538
77	0xbe51c473	-0.20485096
78	0x3e0e92e5	0.13923223
79	0xbe48bb52	-0.19602707
80	0x3e2c0e3a	0.16802302
81	0xbe533bfc	-0.20628351
82	0xbd2c5d7c	-0.04208134
83	0x3e47fc44	0.19529825
