experiments/exp009/model.pth (torch, 95178 bytes, 29 tensors)

conv1.depthwise.weight f4 [2, 1, 5, 5]
0.03796181 -0.12282965 -0.1252083 -0.13429458 -0.025899481 -0.14582339 0.05504209 -0.11832483
-0.24559039 -0.17276816 -0.11752665 -0.22870755 -0.16675904 0.06017348 -0.16461898 0.057050772
-0.092668675 0.10806265 -0.10362867 -0.19044936 0.14390239 -0.14949916 -0.073023506 0.07264235
-0.11359134 0.035046328 -0.1288154 0.25892064 0.21366683 0.095835865 0.20931506 -0.12926082
-0.22258396 0.08372077 0.008158645 -0.19668908 -0.20377585 -0.2604053 0.04115594 0.1141149
0.18683586 0.10222078 -0.23771532 0.016795805 -0.091742255 -0.01801799 -0.21445507 -0.2011647
0.010876916 -0.24085675
00000000: d87d 1b3d 1d8e fbbd 9b36 00be 8584 09be
00000010: 262b d4bc ba52 15be d173 613d 4a54 f2bd
00000020: 0c7c 7bbe 23ea 30be d0b1 f0bd 5032 6abe
00000030: e2c2 2abe 7878 763d e191 28be 12ae 693d
00000040: 13c9 bdbd f34f dd3d 453b d4bd 2805 43be
00000050: 265b 133e 4f16 19be 598d 95bd 83c5 943d
00000060: 94a2 e8bd bd8c 0f3d 2fe8 03be 3f91 843e
00000070: 7acb 5a3e 9845 c43d b056 563e f35c 04be
00000080: 0ded 63be cc75 ab3d d6ab 053c dd68 49be
00000090: 9eaa 50be d853 85be 2293 283d 13b5 e93d
000000a0: e651 3f3e 2159 d13d a56b 73be 5b97 893c
000000b0: 5de3 bbbd 779a 93bc 1c9a 5bbe 1efe 4dbe
000000c0: 1835 323c 27a3 76be

conv1.depthwise.weight_fake_quant.scale f4 [2]
0.0019167329 0.0020383706
00000000: e23a fb3a 2f96 053b

conv1.depthwise.weight_fake_quant.activation_post_process.min_val f4 [2]
-0.24534181 -0.2603685
00000000: e23a 7bbe 054f 85be

conv1.depthwise.weight_fake_quant.activation_post_process.max_val f4 [2]
0.14373763 0.25887308
00000000: f52f 133e 038b 843e

conv1.pointwise.weight f4 [6, 2, 1, 1]
-0.53522325 -0.60230345 0.27219665 -0.6558138 -0.15623917 -0.030263355 -0.23812665 0.69733334
-0.37423578 0.25516656 0.31286892 0.16122422
00000000: 6404 09bf 8f30 1abf 5c5d 8b3e 6ae3 27bf
00000010: 29fd 1fbe dbea f7bc 79d7 73be 7084 323f
00000020: d59b bfbe 31a5 823e 5b30 a03e f617 253e

conv1.pointwise.weight_fake_quant.scale f4 [6]
0.0023627963 0.005122853 0.00061146606 0.005488895 0.0029232015 0.0012268872
00000000: 25d9 1a3b 9bdd a73b cb4a 203a 30dc b33b
00000010: 2f93 3f3b 81cf a03a

conv1.pointwise.weight_fake_quant.activation_post_process.min_val f4 [6]
-0.6025131 -0.6557252 -0.15592384 -0.23845465 -0.3741698 0.16128376
00000000: 4c3e 1abf 9bdd 27bf 80aa 1fbe 752d 74be
00000010: 2f93 bfbe 9227 253e

conv1.pointwise.weight_fake_quant.activation_post_process.max_val f4 [6]
-0.535402 0.27216336 -0.030211788 0.6970897 0.25534526 0.31285623
00000000: 1b10 09bf ff58 8b3e b67e f7bc 7874 323f
00000010: 9dbc 823e b12e a03e

conv2.depthwise.weight f4 [6, 1, 5, 5]
0.023864433 -0.22126709 -0.048403893 0.090088025 -0.17519715 -0.069799736 0.059796017 -0.14879857
-0.02870749 0.13433069 0.20574723 0.009471389 0.013188728 -0.16151172 -0.05197429 -0.031124955
-0.2544143 0.005639163 -0.08034714 -0.0010895362 -0.16615853 0.0032429956 0.12074969 -0.03532411
-0.2537968 -0.0035758351 0.030325182 0.14092942 0.15061414 0.1904523 -0.049696513 -0.14831388
0.29249704 0.07576201 0.18187125 0.15786748 0.089698575 -0.04127696 0.2231266 0.24721327
0.28734526 0.19414753 0.11275639 0.12568717 0.12458939 0.28218743 0.25625694 0.17800236
0.28314728 0.20858459 0.2688044 -0.050176736 0.13358179 0.24412602 0.0024517719 0.15617625
0.123836994 0.060425602 0.27250147 0.21343665 0.13144459 0.19749418 0.12759268 0.27479768
0.22481059 -0.049595285 0.27686685 0.09486599 0.21683876 0.2703423 0.27490634 -0.027549827
0.21118069 0.20049228 0.27040517 -0.25497407 -0.2366947 -0.25975582 -0.25526395 0.15959871
-0.23803969 0.07806061 -0.2186401 -0.01049709 0.18180981 -0.04594291 0.12858531 -0.0399378
0.25284883 0.25216657 -0.13393089 -0.011340491 -0.01686785 0.2360163 0.011293055 0.22363557
0.03372996 -0.06213263 0.093928486 0.0014688924 -0.16050962 -0.15380521 -0.08609345 -0.09335956
-0.16789821 -0.013914057 -0.14613235 0.102955006 0.008309763 -0.2566816 0.02137346 -0.0073895357
-0.103913896 -0.25273126 -0.0923317 0.043577157 -0.14596482 -0.099738054 -0.07318059 -0.052342046
0.2054471 0.006514607 -0.18393743 -0.16207258 0.11038106 0.10897928 -0.13653332 -0.04202222
0.10537581 0.017391553 -0.19677499 0.06307617 -0.16672513 -0.1265113 0.17318743 -0.07875476
0.10650617 0.11787896 0.21032688 0.25048497 -0.07433642 0.14486042 0.22088261 -0.073237956
0.09924056 0.037609678 0.16649617 0.001452382 0.069971174 0.026550176
00000000: 587f c33c d793 62be 2943 46bd 1280 b83d
00000010: e266 33be 2af3 8ebd abec 743d a75e 18be
00000020: f82b ebbc fc8d 093e 67af 523e e32d 1b3c
00000030: 8915 583c 5463 25be fee2 54bd c3f9 febc
00000040: 9742 82be bac8 b83b 0b8d a4bd c5ce 8eba
00000050: 7625 2abe 7088 543b 9d4b f73d 04b0 10bd
00000060: a7f1 81be 8f58 6abb 846c f83c cd4f 103e
00000070: 983a 1a3e ed05 433e 928e 4bbd 98df 17be
00000080: 2cc2 953e 1d29 9b3d 753c 3a3e 03a8 213e
00000090: e3b3 b73d 0812 29bd 4d7b 643e 7a25 7d3e
000000a0: eb1e 933e 9cce 463e d2ec e63d 23b4 003e
000000b0: b928 ff3d df7a 903e 1c34 833e 4046 363e
000000c0: aef8 903e 3397 553e bba0 893e 1f86 4dbd
000000d0: aac9 083e 2cfc 793e e8ad 203b abec 1f3e
000000e0: 409e fd3d d680 773d 5085 8b3e 238f 5a3e
000000f0: 6999 063e ea3b 4a3e a8a7 023e 48b2 8c3e
00000100: bf34 663e 6d24 4bbd 7ec1 8d3e 1a49 c23d
00000110: fb0a 5e3e 4e6a 8a3e 86c0 8c3e 2db0 e1bc
00000120: c03f 583e d94d 4d3e 8c72 8a3e f68b 82be
00000130: 1860 72be b7fe 84be f5b1 82be d86d 233e
00000140: adc0 73be 3ede 9f3d 31e3 5fbe fdfb 2bbc
00000150: 5a2c 3a3e a22e 3cbd deab 033e d295 23bd
00000160: 6775 813e fa1b 813e 2e25 09be 77cd 39bc
00000170: 722e 8abc 42ae 713e 8106 393c b900 653e
00000180: 6d28 0a3d c97e 7ebd 945d c03d da87 c03a
00000190: a25c 24be 1d7f 1dbe c351 b0bd 4c33 bfbd
000001a0: 82ed 2bbe c9f7 63bc b8a3 15be 13da d23d
000001b0: ac25 083c c56b 83be 6517 af3c eb23 f2bb
000001c0: cfd0 d4bd fe65 81be 6718 bdbd f67d 323d
000001d0: cd77 15be 7743 ccbd b5df 95bd 9d64 56bd
000001e0: b960 523e 7c78 d53b 185a 3cbe 5bf6 25be
000001f0: 770f e23d 8730 df3d 64cf 0bbe 7e1f 2cbd
00000200: 46cf d73d bb78 8e3c 627f 49be 142e 813d
00000210: feb9 2abe 2e8c 01be 0c58 313e 2d4a a1bd
00000220: e81f da3d 866a f13d ee5f 573e 913f 803e
00000230: b13d 98bd 4a56 143e 0d2f 623e c8fd 95bd
00000240: a23e cb3d 9b0c 1a3d f97d 2a3e da5d be3a
00000250: 0c4d 8f3d c17f d93c

conv2.depthwise.weight_fake_quant.scale f4 [6]
0.0019873101 0.0023011684 0.002178513 0.0020281083 0.0020044008 0.0019706746
00000000: 883d 023b 33cf 163b 62c5 0e3b 03ea 043b
00000010: 445c 033b 6f26 013b

conv2.depthwise.weight_fake_quant.activation_post_process.min_val f4 [6]
-0.2543757 -0.14826648 -0.05051561 -0.25959787 -0.2565633 -0.19677588
00000000: 883d 82be 2bd3 17be 75e9 4ebd 03ea 84be
00000010: 445c 83be 9e7f 49be

conv2.depthwise.weight_fake_quant.activation_post_process.max_val f4 [6]
0.20542654 0.2922484 0.27667114 0.25274906 0.20525804 0.25027567
00000000: 565b 523e 95a1 953e d7a7 8d3e 5368 813e
00000010: 2a2f 523e 2224 803e

conv2.pointwise.weight f4 [16, 6, 1, 1]
0.30311576 -0.4016561 -0.051148098 -0.2645822 -0.22048834 0.45198777 0.08769809 0.19273588
-0.06327418 -0.045982797 0.17036916 -0.102085814 0.0023116015 -0.027579088 -0.1177638 0.14658767
0.06804876 0.0091890525 0.034398217 0.0073911166 -0.1825995 0.1357493 0.3760027 -0.37958595
-0.122533135 0.28350157 0.31297252 -0.22134684 -0.09269374 -0.15083377 -0.43978706 -0.36160645
-0.015979808 0.43777364 0.18914706 0.34188434 -0.4559604 -0.4535492 -0.0852878 -0.23624249
-0.2643575 0.29471073 0.108053625 -0.40843093 0.40403467 0.18430649 -0.40909663 -0.20935462
-0.20805924 0.34883747 -0.002382689 0.3375288 0.13803151 0.025353776 -0.12235611 0.34061223
-0.33866996 0.2853769 0.0067821243 -0.1820563 0.022364257 0.38487795 -0.007084523 0.03768099
0.2219056 0.025025956 0.42973286 0.3679803 -0.0971185 -0.43202513 -0.15769416 0.020080863
0.41863063 -0.24894178 0.102793775 0.15453406 -0.22359127 0.07436659 0.2760694 -0.32553193
0.028905263 -0.1991946 0.15507331 -0.39230508 -0.30919668 -0.30423 -0.039752025 0.07901986
-0.050002836 -0.31537747 -0.18974628 0.171884 0.37196368 -0.118541494 -0.2843554 -0.04986887
00000000: fd31 9b3e dea5 cdbe ab80 51bd 5177 87be
00000010: b2c7 61be f16a e73e 0e9b b33d 8e5c 453e
00000020: e595 81bd 7558 3cbd 4175 2e3e 5e12 d1bd
00000030: 3d7e 173b 8aed e1bc 262e f1bd 141b 163e
00000040: 265d 8b3d ae8d 163c 25e5 0c3d 2e31 f23b
00000050: 5dfb 3abe dd01 0b3e 6d83 c03e 1759 c2be
00000060: a7f2 fabd 1e27 913e ef3d a03e bfa8 62be
00000070: 37d6 bdbd 2b74 1abe c52b e1be 7b24 b9be
00000080: 16e8 82bc de23 e03e c4af 413e 770b af3e
00000090: a473 e9be 9a37 e8be 5fab aebd 8de9 71be
000000a0: de59 87be 53e4 963e 384b dd3d dc1d d1be
000000b0: a2dd ce3e d7ba 3c3e 1d75 d1be 0f61 56be
000000c0: 7b0d 55be d39a b23e e326 1cbb 93d0 ac3e
000000d0: 2258 0d3e b9b2 cf3c d795 fabd ba64 ae3e
000000e0: 2666 adbe ec1c 923e 953c de3b f76c 3abe
000000f0: 3f35 b73c b90e c53e 4925 e8bb 6257 1a3d
00000100: 393b 633e 3c03 cd3c f205 dc3e ea67 bc3e
00000110: 10e6 c6bd 6632 ddbe 947a 21be 9f80 a43c
00000120: c156 d63e 98ea 7ebe 8b85 d23d 2d3e 1e3e
00000130: 1cf5 64be 834d 983d f858 8d3e 1fac a6be
00000140: bbca ec3c abf9 4bbe 8acb 1e3e 36dc c8be
00000150: 074f 9ebe 09c4 9bbe 05d3 22bd 2ad5 a13d
00000160: c6cf 4cbd 2879 a1be d94c 42be 5c02 303e
00000170: 0672 be3e e2c5 f2bd 0897 91be 4d43 4cbd

conv2.pointwise.weight_fake_quant.scale f4 [16]
0.0035582196 0.0015161064 0.0011540413 0.002964989 0.002464075 0.0034464237 0.0035614637 0.0031953447
0.002746023 0.0026810267 0.0030292885 0.0033831003 0.0032954465 0.0030644054 0.0024650556 0.0029275354
00000000: 0531 693b 17b8 c63a 3343 973a 4350 423b
00000010: 527c 213b 65dd 613b 7267 693b fd68 513b
00000020: 9ff6 333b 2ab4 2f3b 0787 463b 01b7 5d3b
00000030: 6bf8 573b 31d4 483b c58c 213b e5db 3f3b

conv2.pointwise.weight_fake_quant.activation_post_process.min_val f4 [16]
-0.40169552 -0.10195677 -0.11766715 -0.3795186 -0.22148234 -0.43971026 -0.45586735 -0.40900412
-0.2081586 -0.3385761 -0.0073264684 -0.43193942 -0.24880822 -0.3922439 -0.3155271 -0.28433728
00000000: 09ab cdbe b6ce d0bd 7afb f0bd 4350 c2be
00000010: 44cc 62be b421 e1be 7267 e9be fd68 d1be
00000020: 8727 55be d959 adbe df12 f0bb 2a27 ddbe
00000030: 95c7 7ebe 31d4 c8be c58c a1be a894 91be

conv2.pointwise.weight_fake_quant.activation_post_process.max_val f4 [16]
0.4518939 0.19254552 0.14656325 0.37594974 0.31293753 0.4376958 0.29464668 0.40392885
0.34874493 0.3404904 0.38471964 0.42965373 0.4185217 0.27593407 0.07871057 0.371797
00000000: a35e e73e a72a 453e ad14 163e 7c7c c03e
00000010: 5939 a03e aa19 e03e eedb 963e c3cf ce3e
00000020: b28e b23e c254 ae3e f9f9 c43e 93fb db3e
00000030: 7a48 d63e 3b47 8d3e 0233 a13d 2d5c be3e

conv3.depthwise.weight f4 [16, 1, 5, 5]
-0.22995648 -0.11443376 0.054020945 -0.1356101 -0.14392197 0.21469541 0.056631885 -0.13149221
-0.04553401 -0.0788015 -0.0869931 -0.03182219 -0.019049995 -0.06774686 -0.028700514 0.16969062
0.17891635 0.063557915 -0.16741928 0.09486482 0.1171363 0.13783605 0.073161304 0.07634027
0.20128684 -0.00782859 -0.00922771 0.028324613 -0.22556311 0.18708576 -0.047885433 -0.038223
-0.117601834 -0.036212925 0.10634821 -0.15236253 0.07077206 -0.043285664 -0.1462617 0.032795772
0.2039142 -0.0440851 -0.0054976726 0.12157948 0.17229548 -0.2258331 -0.079233006 -0.085258946
0.08336278 -0.16105904 0.22788018 -0.062073175 0.16361332 0.004252316 0.18514414 0.17970619
-0.0013748109 0.033690263 -0.06933372 0.2010958 -0.15793368 0.015751071 0.124749504 -0.053215984
0.22941992 0.15344824 0.059271563 0.12027019 -0.115024365 0.23245713 -0.04727393 -0.051287413
0.09563606 0.075630665 -0.089806415 0.15632328 -0.017578231 -0.11482095 0.14949536 0.16527823
0.05811753 0.09748874 -0.073328696 0.053593412 0.15379676 -0.11111201 -0.017028913 -0.13858019
-0.013149453 0.13897839 0.17522776 -0.07092089 0.04846479 -0.13990721 -0.06007744 -0.18092833
0.18200316 -0.18232024 -0.12845963 -0.18592797 0.06983079 -0.03299091 -0.24699987 -0.013688799
0.24881874 0.09441711 -0.20095456 -0.084984094 0.018931177 0.20824523 0.045992326 -0.1507492
-0.028392974 0.04463938 -0.059012666 0.045152962 -0.07123265 -0.07068746 0.02363537 0.19298865
-0.012300962 -0.11269667 -0.24975465 -0.01355811 -0.06691921 -0.033243325 -0.14665969 -0.13917498
-0.07778682 -0.124175884 -0.15033187 -0.14678845 0.07856534 0.09601678 -0.23117062 -0.18388472
-0.061699294 -0.0025454958 0.18095715 -0.14814667 -0.032578066 0.10864201 0.14638413 -0.15993391
0.16616562 0.09989792 0.060882565 0.07028889 0.21463986 -0.019151838 -0.028631933 -0.22560611
-0.05492841 -0.18136391 -0.2510706 -0.21819754 0.036367938 0.098611295 -0.07219087 -0.14769424
0.05808623 -0.007324358 0.070613325 0.12010619 -0.06865822 -0.08882676 -0.23343907 -0.19940363
-0.1127752 -0.16530976 0.20913523 0.090439126 0.038000498 0.22355434 -0.17618582 0.22582586
0.1633328 -0.0429776 0.009831787 0.05688853 0.03352297 0.0034562368 0.2232473 0.007978105
0.069747224 -0.14312786 0.047314875 -0.017603867 0.18314134 0.11764788 0.018608661 0.1436182
0.16216671 0.20454198 -0.006813622 0.14145863 0.22358267 -0.0067098397 0.009954342 -0.004055892
-0.19024135 -0.043649815 -0.10179679 0.13307892 0.040034276 0.1853486 0.21223132 0.048058733
0.056837175 -0.23780452 -0.058571585 0.050811194 -0.025418522 0.11658773 -0.23832178 -0.20695424
-0.24003094 -0.1404097 0.0672232 -0.23980351 0.10039823 -0.04305176 0.22242111 -0.03698992
-0.05170474 -0.27105927 -0.2697849 -0.059342057 -0.065788046 0.16580139 -0.060513746 -0.102147184
-0.077156894 -0.26854718 0.047829814 0.1414968 -0.088497594 0.109838575 0.08036559 0.06416765
0.1968825 0.15701492 0.090519585 -0.12604472 0.13423346 -0.15089676 -0.055974156 0.044817958
0.11691606 -0.07336703 -0.22903407 -0.05520772 -0.04779473 0.0021522208 -0.18653965 0.07086661
00000000: b679 6bbe 3f5c eabd 1145 5d3d 60dd 0abe
00000010: 4860 13be 1dd9 5b3e d6f6 673d e5a5 06be
00000020: df81 3abd ae62 a1bd 7029 b2bd fc57 02bd
00000030: bc0e 9cbc debe 8abd 571d ebbc 61c3 2d3e
00000040: d935 373e a72a 823d f66f 2bbe 7d48 c23d
00000050: 28e5 ef3d e524 0d3e 98d5 953d 4a58 9c3d
00000060: 231e 4e3e 7d43 00bc d22f 17bc 0509 e83c
00000070: 04fa 66be 6993 3f3e 8423 44bd b88f 1cbd
00000080: 3bd9 f0bd 0154 14bd 17cd d93d ec04 1cbe
00000090: f1f0 903d 4f4c 31bd a1c5 15be dc54 063d
000000a0: e2ce 503e 9492 34bd d225 b4bb aafe f83d
000000b0: 3a6e 303e cb40 67be ea44 a2bd 3e9c aebd
000000c0: 1bba aa3d a9ec 24be 6c59 693e 7140 7ebd
000000d0: 408a 273e 0357 8b3b 6d96 3d3e e604 383e
000000e0: 0033 b4ba cdfe 093d d6fe 8dbd 0fec 4d3e
000000f0: 5eb9 21be 6408 813c ab7c ff3d 01f9 59bd
00000100: 0eed 6a3e 8921 1d3e bdc6 723d 3850 f63d
00000110: e591 ebbd 3e09 6e3e 4fa2 41bd c012 52bd
00000120: d7dc c33d 40e4 9a3d 6dec b7bd 3613 203e
00000130: 3900 90bc 3f27 ebbd 5015 193e b23e 293e
00000140: a60c 6e3d 2da8 c73d 5b2d 96bd c484 5b3d
00000150: e67c 1d3e b28e e3bd 3880 8bbc f7e7 0dbe
00000160: ce70 57bc 5a50 0e3e e86e 333e f93e 91bd
00000170: 0483 463d d643 0fbe c313 76bd 4745 39be
00000180: 095f 3a3e 28b2 3abe ec8a 03be e763 3ebe
00000190: 7203 8f3d 7a21 07bd 89ed 7cbe fc46 60bc
000001a0: 57ca 7e3e c25d c13d 08c7 4dbe 240c aebd
000001b0: 8e15 9b3c 3d3e 553e 7362 3c3d 005e 1abe
000001c0: 6298 e8bc c8d7 363d 44b7 71bd 50f2 383d
000001d0: 6ce2 91bd 96c4 90bd f79e c13c d19e 453e
000001e0: f989 49bc 83cd e6bd afbf 7fbe d622 5ebc
000001f0: f00c 89bd 272a 08bd f52d 16be e383 0ebe
00000200: b24e 9fbd ed4f febd 99f0 19be b64f 16be
00000210: dde6 a03d 72a4 c43d feb7 6cbe 474c 3cbe
00000220: 66b8 7cbd 55d2 26bb d54c 393e c3b3 17be
00000230: 9470 05bd b47f de3d b9e5 153e b7c5 23be
00000240: 5227 2a3e 4897 cc3d ff5f 793d 9ff3 8f3d
00000250: 8dca 5b3e 51e4 9cbc 848d eabc 4a05 67be
00000260: 9dfc 60bd 76b7 39be 538c 80be 2d6f 5fbe
00000270: 8cf6 143d b8f4 c93d cfd8 93bd 293d 17be
00000280: d4eb 6d3d 2b01 f0bb b89d 903d 3cfa f53d
00000290: ae9c 8cbd ceea b5bd a70a 6fbe 7730 4cbe
000002a0: aff6 e6bd f646 29be 8c27 563e 2638 b93d
000002b0: 69a6 1b3d 6eeb 643e 0e6a 34be e53e 673e
000002c0: b740 273e 4809 30bd 8115 213c f203 693d
000002d0: 624f 093d 0882 623b f19a 643e 99b6 023c
000002e0: a2d7 8e3d 1c90 12be 3ecd 413d fc35 90bc
000002f0: 6789 3b3e 5ff1 f03d 3171 983c a610 133e
00000300: 080f 263e 7473 513e ce44 dfbb 88da 103e
00000310: dbf2 643e 37de dbbb 8917 233c 4ae7 84bb
00000320: a1ce 42be 26ca 32bd d67a d0bd d745 083e
00000330: fbfa 233d 06cc 3d3e 2b53 593e 3cd9 443d
00000340: 19ce 683d 0783 73be c2e8 6fbd 661f 503d
00000350: 813a d0bc 8cc5 ee3d a00a 74be d0eb 53be
00000360: acca 75be 8fc7 0fbe 51ac 893d 0d8f 75be
00000370: 969d cd3d 0b57 30bd 5cc2 633e be82 17bd
00000380: 59c8 53bd 48c8 8abe 3f21 8abe a810 73bd
00000390: e2bb 86bd d7c7 293e 43dd 77bd 8b32 d1bd
000003a0: 6f04 9ebd 047f 89be 32e9 433d 8ae4 103e
000003b0: 3a3e b5bd 0cf3 e03d b796 a43d 546a 833d
000003c0: 919b 493e 85c8 203e 5562 b93d de11 01be
000003d0: 7f74 093e ae84 1abe 2845 65bd 0993 373d
000003e0: b071 ef3d 7441 96bd e887 6abe 7d21 62bd
000003f0: 68c4 43bd 460c 0d3b 4004 3fbe 8322 913d

conv3.depthwise.weight_fake_quant.scale f4 [16]
0.0017955651 0.0017641179 0.0018286526 0.001452568 0.0019588415 0.0018057114 0.0019612708 0.0017775426
0.0018746463 0.0021166191 0.002059912 0.0019369745 0.0018622894 0.0015818989 0.0018846043 0.0021439234
00000000: 2b59 eb3a f939 e73a 66af ef3a 1864 be3a
00000010: e85f 003b 9fad ec3a aa88 003b 6ffc e83a
00000020: b1b6 f53a fab6 0a3b 97ff 063b 14e2 fd3a
00000030: 1018 f43a b857 cf3a d404 f73a 1181 0c3b

conv3.depthwise.weight_fake_quant.activation_post_process.min_val f4 [16]
-0.22983234 -0.22580709 -0.15763544 -0.1859287 -0.24967821 -0.23113106 -0.25104266 -0.14316718
-0.23995472 -0.27092725 -0.22901107 -0.24793273 -0.23687063 -0.11364496 -0.1628462 -0.2744222
00000000: 2b59 6bbe f939 67be 2f6b 21be 1864 3ebe
00000010: a5ab 7fbe 9fad 6cbe aa88 80be 6b9a 12be
00000020: b1b6 75be fab6 8abe e181 6abe 14e2 7dbe
00000030: 378e 72be b0be e8bd 27c1 26be 1181 8cbe

conv3.depthwise.weight_fake_quant.activation_post_process.max_val f4 [16]
0.21490467 0.20375793 0.23223887 0.18211101 0.24877286 0.21463215 0.22347352 0.22574791
0.22218758 0.19647142 0.26160884 0.17017476 0.23651075 0.20090117 0.23934475 0.11312601
00000000: f80f 5c3e eba5 503e 07d0 6d3e 4f7b 3a3e
00000010: 50be 7e3e 88c8 5b3e 3ed6 643e 762a 673e
00000020: 2485 633e ce2f 493e 98f1 853e 4b42 2e3e
00000030: e02f 723e 09b9 4d3e ca16 753e 9cae e73d

conv3.pointwise.weight f4 [120, 16, 1, 1]
0.13918065 0.03886775 0.04909537 0.14423782 0.20661335 0.15950742 0.0016833625 -0.28731003
-0.2090514 -0.09478513 -0.13171126 -0.12589498 0.16803974 -0.12756433 -0.048949875 0.28302845
0.04707923 0.2233944 -0.05468684 0.14237553 0.17814791 -0.11277495 0.057197988 0.055223305
0.23363441 0.1866075 -0.060484063 0.22633179 0.12494192 -0.21663126 0.18488806 0.13664788
0.123447984 -0.07356782 0.01811784 -0.1445847 -0.07571254 0.0046362146 0.1557247 0.050712854
0.3065318 -0.052346602 0.007133769 -0.01685992 -0.1721354 0.020994972 0.13456494 -0.070465
-0.20543437 -0.237807 -0.118943416 0.045775242 0.13503133 0.029535584 0.10681894 -0.21414976
0.052935343 0.0078406865 -0.18724746 -0.011294991 -0.045063477 -0.027733888 -0.15163255 0.14529994
0.24698865 -0.159396 0.21418998 0.20029056 -0.17488807 0.1847787 -0.16293745 -0.2714042
-0.047685336 0.22904332 -0.2720936 0.015697004 -0.27275178 0.042694364 -0.18929867 0.015827848
-0.004246838 0.15402204 -0.007850186 -0.083750434 -0.15639876 -0.023104442 -0.2825626 0.1060283
0.2588086 0.07156336 0.21140039 -0.07302242 -0.054510813 -0.09071083 0.17206214 0.09117315
0.25170887 0.15573266 0.15239759 -0.1536154 -0.057394627 0.0063114897 -0.090227105 -0.26764128
-0.30088672 0.14811389 -0.3157072 -0.3115801 0.13953252 0.027434617 -0.31908032 0.07963126
0.14244455 0.106382094 0.033929426 -0.22627479 -0.0071240757 0.07376773 -0.13917245 -0.10033581
-0.23391747 0.2819019 0.19824655 -0.28680134 0.06106046 -0.22519247 0.110322036 0.24156228
0.16968228 0.053804886 -0.20524186 -0.2431179 0.15275027 0.29901493 -0.016734611 0.05538455
-0.25224778 -0.023480337 0.18065041 0.12959325 0.29611146 0.15971942 0.122377016 -0.12426057
-0.10232629 -0.04121832 -0.055257887 0.08789224 -0.2824983 -0.109461315 -0.0072538382 0.031302493
-0.026348142 0.08698473 -0.0032973755 -0.08875844 0.09915481 0.22780691 0.15378815 -0.25695035
0.15740044 0.12376689 -0.28253925 0.12874709 0.16024993 -0.26601097 -0.10808443 0.27015057
0.17198502 -0.14444022 0.2739581 0.09194048 -0.11017996 0.084133 0.06898554 -0.047278687
-0.28109026 -0.1343324 0.023592416 -0.22370654 -0.27452815 -0.27525857 0.08416875 -0.030944724
0.17921428 0.16065198 0.16719688 -0.09539077 0.26885968 -0.12718043 -0.026613235 0.049276933
0.20529132 0.23239064 -0.021493342 0.24585316 0.27901566 -0.0076806108 0.17897499 0.011527383
0.13650346 -0.12914997 -0.057818893 0.16925137 -0.015001817 0.19592334 -0.2050262 0.12029328
0.14014067 0.001677718 0.0030802186 0.018738996 0.061437927 -0.1726645 -0.076159544 0.018549047
-0.2867009 0.28492644 -0.052863058 -0.13488549 0.24814013 0.1065253 -0.24593046 0.28424045
0.2915031 0.069257505 -0.124393746 0.20788148 0.028753946 -0.028574672 -0.04224008 -0.019388128
-0.06653032 0.10052117 -0.29238045 0.018994207 -0.0046935156 0.070375904 0.04164434 0.21577507
-0.120417565 -0.005517084 0.11066254 0.18252717 0.021356704 -0.22475348 -0.1963094 -0.14350346
0.15426455 0.28135747 -0.020139903 -0.22739567 -0.087876156 -0.20367582 0.20557518 -0.28497458
00000000: 5f85 0e3e ca33 1f3d 3a18 493d 14b3 133e
00000010: 7392 533e ea55 233e 46a4 dc3a 4d1a 93be
00000020: 9211 56be b51e c2bd 51df 06be 9dea 00be
00000030: 9c12 2c3e 39a0 02be aa7f 48bd 1be9 903e
00000040: 27d6 403d 80c1 643e 4fff 5fbd e4ca 113e
00000050: 686c 363e 8ef6 e6bd 7048 6a3d d531 623d
00000060: dc3d 6f3e 0916 3f3e 23be 77bd 85c3 673e
00000070: 8de1 ff3d 96d4 5dbe 4c53 3d3e 6ced 0b3e
00000080: 4cd2 fc3d baaa 96bd dd6b 943c 030e 14be
00000090: 2d0f 9bbd 63eb 973b 4c76 1f3e 48b8 4f3d
000000a0: bcf1 9c3e 6469 56bd 64c2 e93b d11d 8abc
000000b0: 4344 30be a6fd ab3c 64cb 093e f44f 90bd
000000c0: 635d 52be ae83 73be 9b98 f3bd d27e 3b3d
000000d0: a745 0a3e 9cf4 f13c e3c3 da3d 134a 5bbe
000000e0: bbd2 583d 3976 003c ccbd 3fbe a00e 39bc
000000f0: 7b94 38bd 2e32 e3bc 9045 1bbe 82c9 143e
00000100: 98ea 7c3e b438 23be 9e54 5b3e f818 4d3e
00000110: dc15 33be a136 3d3e 13d9 26be 7ef5 8abe
00000120: b351 43bd 558a 6a3e da4f 8bbe 0197 803c
00000130: 1fa6 8bbe 49e0 2e3d 83d7 41be 67a9 813c
00000140: 0f29 8bbb f4b7 1d3e 119e 00bc 5985 abbd
00000150: ff26 20be 8745 bdbc 0cac 90be 5e25 d93d
00000160: 9082 843e d08f 923d 5879 583e c78c 95bd
00000170: bb46 5fbd 9ac6 b9bd 0f31 303e fdb8 ba3d
00000180: fcdf 803e 6278 1f3e 1d0e 1c3e 5b4d 1dbe
00000190: a116 6bbd 9dd0 ce3b fdc8 b8bd 4708 89be
000001a0: d30d 9abe 2bab 173e 60a4 a1be 6d87 9fbe
000001b0: 9de1 0e3e 90be e03c 7f5e a3be b715 a33d
000001c0: fcdc 113e dbde d93d 95f9 0a3d 94b4 67be
000001d0: 1471 e9bb 8913 973d 3983 0ebe dc7c cdbd
000001e0: 1088 6fbe 7255 903e 2501 4b3e a0d7 92be
000001f0: 881a 7a3d db98 66be 85f0 e13d 1a5c 773e
00000200: 31c1 2d3e 8362 5c3d ec2a 52be e6f3 78be
00000210: 916a 1c3e 7c18 993e 0617 89bc e9da 623d
00000220: 9f26 81be d659 c0bc 6cfc 383e 18b4 043e
00000230: ec9b 973e 7d8d 233e cda0 fa3d 537c febd
00000240: 7290 d1bd 8bd4 28bd 1856 62bd d900 b43d
00000250: 9ea3 90be 412d e0bd 9bb1 edbb 0b37 003d
00000260: 0fd8 d7bc 0d25 b23d c818 58bb fcc6 b5bd
00000270: ad11 cb3d 3746 693e a47a 1d3e ff8e 83be
00000280: 952d 213e 7f79 fd3d fca8 90be 47d6 033e
00000290: 8f18 243e 9732 88be 5f5b ddbd 2d51 8a3e
000002a0: d71c 303e 23e8 13be 3c44 8c3e 4a4b bc3d
000002b0: 08a6 e1bd ec4d ac3d 4a48 8d3d 4ca7 41bd
000002c0: 10eb 8fbe 6f8e 09be e244 c13c 5413 65be
000002d0: f48e 8cbe b1ee 8cbe aa60 ac3d ca7f fdbc
000002e0: f383 373e f481 243e a935 2b3e 3c5c c3bd
000002f0: faa7 893e 963b 02be 0004 dabc 9cd6 493d
00000300: e337 523e d0f7 6d3e ce12 b0bc eec0 7b3e
00000310: 24db 8e3e a2ad fbbb 3845 373e 59dd 3c3c
00000320: 90c7 0b3e e43f 04be 81d3 6cbd 3b50 2d3e
00000330: 2eca 75bc 21a0 483e 63f2 51be 535c f63d
00000340: 0981 0f3e e0e6 db3a 7edd 493b 8682 993c
00000350: 56a6 7b3d f6ce 30be 89f9 9bbd 2cf4 973c
00000360: 76ca 92be e1e1 913e ef86 58bd 6c1f 0abe
00000370: 7218 7e3e f029 da3d 32d5 7bbe f787 913e
00000380: e53f 953e e1d6 8d3d 26c2 febd e2de 543e
00000390: 658d eb3c 6e15 eabc ef03 2dbd dad3 9ebc
000003a0: 0c41 88bd 0bde cd3d e4b2 95be bd99 9b3c
000003b0: 10cc 99bb 3e21 903d 4193 2a3d 24f4 5c3e
000003c0: 7c9d f6bd a8c8 b4bb 0ba3 e23d 67e8 3a3e
000003d0: 41f4 ae3c c725 66be 5505 49be 92f2 12be
000003e0: 87f7 1d3e 160e 903e 70fc a4bc 69da 68be
000003f0: 6af8 b3bd 6590 50be 4d82 523e 30e8 91be

conv3.pointwise.weight_fake_quant.scale f4 [120]
0.0022438657 0.001838187 0.0024104333 0.001857873 0.0021300614 0.0022057341 0.0024920637 0.002239307
0.0023536643 0.0022058324 0.0022049216 0.002194339 0.0021952493 0.0022424082 0.0022944796 0.002225825
0.0021339627 0.002158234 0.0023564007 0.0023860754 0.0020662951 0.0025214548 0.0020560946 0.0022597658
0.0022921076 0.0020115043 0.002126423 0.0017665862 0.0019903819 0.0020469713 0.0019460756 0.001943835
0.0020671121 0.0023384753 0.002251038 0.0018071076 0.0022108094 0.0020382244 0.0023643023 0.0020822964
0.002270502 0.0024979769 0.002366416 0.0022003278 0.002186978 0.0022237538 0.002177435 0.0020274306
0.0022091407 0.0022857673 0.0022100157 0.0023884107 0.0023341335 0.002126234 0.0020375503 0.0018114432
0.0023527509 0.0020844408 0.0023497944 0.002384943 0.0021766645 0.0021061595 0.0022398732 0.0022130525
0.0023246675 0.0019630168 0.0021533452 0.0022346491 0.0023435885 0.0024456705 0.0022310817 0.001948664
0.0017356024 0.002355213 0.0019805867 0.0019527192 0.0023187627 0.002422011 0.0016320642 0.0023816505
0.0022530903 0.0022014582 0.0016657662 0.0022552044 0.002032878 0.002229492 0.001983255 0.0023401391
0.0020623908 0.0023742067 0.0022472423 0.0021883058 0.0020472151 0.0023875993 0.0023025586 0.002371115
0.0023581977 0.0018689212 0.0022156583 0.0020391727 0.0024620963 0.0018965394 0.0022532267 0.0022140585
0.0023160474 0.0023434847 0.0024301214 0.002384653 0.0023849958 0.0023715638 0.002412154 0.0024190722
0.0022357686 0.0022289455 0.0023373023 0.0023021668 0.0021434724 0.0022871925 0.0021463924 0.0023610261
00000000: d20d 133b 52ef f03a 5cf8 1d3b e083 f33a
00000010: 8098 0b3b 148e 103b e451 233b 56c1 123b
00000020: ef3f 1a3b ba8f 103b 7280 103b e6ce 0f3b
00000030: 2cde 0f3b 5ef5 123b fb5e 163b 26df 113b
00000040: f4d9 0b3b 2871 0d3b d86d 1a3b b45f 1c3b
00000050: ae6a 073b fe3e 253b 8bbf 063b 9418 143b
00000060: 2f37 163b 71d3 033b 755b 0b3b cc8c e73a
00000070: 1171 023b 7b26 063b 7613 ff3a 48c8 fe3a
00000080: 6378 073b 1b41 193b 2786 133b 78dc ec3a
00000090: 3ae3 103b bb93 053b 69f2 1a3b 2377 083b
000000a0: b4cc 143b 19b5 233b df15 1b3b 6033 103b
000000b0: 6753 0f3b 66bc 113b 4cb3 0e3b a4de 043b
000000c0: 3bc7 103b d0cc 153b e9d5 103b e286 1c3b
000000d0: 43f8 183b 4958 0b3b 6c88 053b f36d ed3a
000000e0: 9c30 1a3b 1d9b 083b 02ff 193b b44c 1c3b
000000f0: 5fa6 0e3b 7e07 0a3b d6ca 123b dc08 113b
00000100: 7359 183b f5a5 003b 231f 0d3b 3173 123b
00000110: e496 193b 8b47 203b 5737 123b 506a ff3a
00000120: 277d e33a eb59 1a3b bbcc 013b 62f2 ff3a
00000130: 62f6 173b 9aba 1e3b fdea d53a 7715 1c3b
00000140: 95a8 133b 5746 103b d755 da3a 0dcc 133b
00000150: 093a 053b ab1c 123b 7ff9 013b 055d 193b
00000160: 2d29 073b 9498 1b3b 7846 133b ae69 0f3b
00000170: 922a 063b 4579 1c3b 86e6 163b b564 1b3b
00000180: fe8b 1a3b 97f6 f43a 9434 113b a4a3 053b
00000190: 1f5b 213b 4d95 f83a dfaa 133b bd19 113b
000001a0: d4c8 173b 2695 193b ac42 1f3b d747 1c3b
000001b0: 974d 1c3b 3d6c 1b3b 3b15 1e3b 4c89 1e3b
000001c0: f985 123b 8013 123b 6d2d 193b f3df 163b
000001d0: 8079 0c3b b9e4 153b 7daa 0c3b 72bb 1a3b

conv3.pointwise.weight_fake_quant.activation_post_process.min_val f4 [120]
-0.28721482 -0.21663052 -0.17199032 -0.23780775 -0.27264786 -0.28233397 -0.31898415 -0.2866313
-0.25224337 -0.28234655 -0.28222996 -0.28087538 -0.20504083 -0.2865332 -0.2922718 -0.2849056
-0.24799383 -0.27625394 -0.2676816 -0.30541766 -0.26056656 -0.3141965 -0.24217057 -0.28925002
-0.2819846 -0.25747254 -0.27218214 -0.22612303 -0.25476888 -0.26201233 -0.22356376 -0.20537
-0.25438097 -0.27636033 -0.28754565 -0.22798851 -0.25730953 -0.258366 -0.3026307 -0.2662904
-0.2884162 -0.25068372 -0.21998982 -0.27214146 -0.27462196 -0.2846405 -0.2632089 -0.2595111
-0.2600043 -0.2792366 -0.282882 -0.30571657 -0.26401246 -0.24562655 -0.26080644 -0.23186474
-0.29674873 -0.18461493 -0.30077368 -0.3052727 -0.27861306 -0.22997287 -0.23382434 -0.28327072
-0.29119006 -0.25126615 -0.27562818 -0.25180292 -0.20051673 -0.31304583 -0.28289858 -0.24942899
-0.18068267 -0.30146727 -0.2535151 -0.24994805 -0.29680163 -0.3100174 -0.18988673 -0.30356124
-0.28839555 -0.24532384 -0.19166018 -0.2402876 -0.1626874 -0.2810733 -0.25103152 -0.2995378
-0.23117726 -0.30389845 -0.2851185 -0.27755463 -0.26204354 -0.2618161 -0.2947275 -0.3035027
-0.3018493 -0.20095609 -0.1822733 -0.24728596 -0.2375756 -0.2080499 -0.28841302 -0.2833995
-0.25047782 -0.2802657 -0.31105554 -0.27188927 -0.30527946 -0.26079205 -0.30875573 -0.30964124
-0.28617838 -0.28530502 -0.29726568 -0.28626 -0.27375716 -0.29276064 -0.27401924 -0.24112494
00000000: d20d 93be 64d4 5dbe 3b1e 30be e083 73be
00000010: 8098 8bbe 148e 90be e451 a3be 56c1 92be
00000020: 0b26 81be ba8f 90be 7280 90be e6ce 8fbe
00000030: 39f6 51be 7bb4 92be a6a4 95be 26df 91be
00000040: 18f2 7dbe 2871 8dbe 900d 89be b45f 9cbe
00000050: fb68 85be 5dde a0be 90fb 77be 9418 94be
00000060: 4960 90be 71d3 83be 755b 8bbe cc8c 67be
00000070: 1171 82be 7b26 86be e6ed 64be 834c 52be
00000080: 393e 82be 1a7f 8dbe 2f39 93be d275 69be
00000090: 13be 83be 8c48 84be 69f2 9abe 3757 88be
000000a0: 4aab 93be 9e59 80be 0345 61be 2056 8bbe
000000b0: 409b 8cbe 66bc 91be 51c3 86be a4de 84be
000000c0: 491f 85be 1af8 8ebe e9d5 90be e286 9cbe
000000d0: a42c 87be 8785 7bbe 6c88 85be f36d 6dbe
000000e0: 73ef 97be b20b 3dbe 02ff 99be b44c 9cbe
000000f0: 5fa6 8ebe 027e 6bbe a66f 6fbe dc08 91be
00000100: dd16 95be f5a5 80be 231f 8dbe 50ec 80be
00000110: 4254 4dbe 8b47 a0be 15d8 90be 506a 7fbe
00000120: e104 39be eb59 9abe bbcc 81be 62f2 7fbe
00000130: 62f6 97be 9aba 9ebe ab71 42be 616c 9bbe
00000140: 95a8 93be 2c36 7bbe 9142 44be f40d 76be
00000150: 8797 26be d7e8 8fbe 3487 80be 055d 99be
00000160: bbb9 6cbe 9498 9bbe 0dfb 91be a41b 8ebe
00000170: 922a 86be c30c 86be 86e6 96be b564 9bbe
00000180: fe8b 9abe 6fc7 4dbe daa5 3abe 8838 7dbe
00000190: 0547 73be 080b 55be dfaa 93be bd19 91be
000001a0: a13e 80be fc7e 8fbe ac42 9fbe 1235 8bbe
000001b0: 974d 9cbe 8986 85be 3b15 9ebe 4c89 9ebe
000001c0: f985 92be 8013 92be 3533 98be ac90 92be
000001d0: e629 8cbe b9e4 95be 404c 8cbe 75e9 76be

conv3.pointwise.weight_fake_quant.activation_post_process.max_val f4 [120]
0.28292134 0.23344974 0.30612502 0.14530069 0.24702589 0.25856182 0.25172225 0.2818603
0.29891536 0.22766341 0.27373615 0.2686426 0.27879667 0.28478584 0.2913989 0.28127456
0.27101326 0.27391297 0.29926288 0.17490047 0.2624195 0.32022476 0.261124 0.28638336
0.29109767 0.2024867 0.23091002 0.20291293 0.17878738 0.24318685 0.2471516 0.24686705
0.26252323 0.29698637 0.28588185 0.22950266 0.2807728 0.2588545 0.17973305 0.26445165
0.28835377 0.31724307 0.3005348 0.27944162 0.2777462 0.2270104 0.27653423 0.2526465
0.28056088 0.29029244 0.28018677 0.28101194 0.29643494 0.2700317 0.2559934 0.2126357
0.29879937 0.264724 0.15417844 0.30013332 0.27368096 0.26748225 0.28446388 0.24428445
0.29523277 0.24548827 0.20340219 0.28380045 0.29763573 0.309681 0.28334737 0.21802413
0.22042151 0.27507573 0.19996744 0.19972557 0.2423887 0.30370817 0.20727216 0.3024696
0.28131282 0.27958518 0.2115523 0.28641096 0.25817552 0.2831455 0.25187337 0.29383513
0.26192364 0.28671014 0.28539976 0.27791485 0.23049891 0.3032251 0.2921526 0.2971258
0.29780912 0.237353 0.2813886 0.25897494 0.31268623 0.24086049 0.28387544 0.26282918
0.294138 0.29762256 0.2994506 0.30285093 0.29250744 0.30118862 0.23481846 0.2571958
0.27747753 0.27276376 0.2968374 0.29237518 0.272221 0.2410875 0.27259183 0.2998503
00000000: 11db 903e 730d 6f3e 6bbc 9c3e b4c9 143e
00000010: 5bf4 7c3e 3762 843e bde1 803e fe4f 903e
00000020: 6f0b 993e 9920 693e 2527 8c3e 868b 893e
00000030: 70be 8e3e 73cf 913e 3d32 953e 3803 903e
00000040: 40c2 8a3e 523e 8c3e fc38 993e 1c19 333e
00000050: d95b 863e 80f4 a33e 0cb2 853e d7a0 923e
00000060: c10a 953e ac58 4f3e ad73 6c3e 68c8 4f3e
00000070: 0a14 373e f905 793e 4f15 7d3e b7ca 7c3e
00000080: 7269 863e 990e 983e 1b5f 923e bf02 6b3e
00000090: 74c1 8f3e 9488 843e f10b 383e 3566 873e
000000a0: 1ba3 933e af6d a23e b3df 993e f912 8f3e
000000b0: c034 8e3e 6a75 683e e595 8d3e e25a 813e
000000c0: ada5 8f3e 36a1 943e a474 8f3e cce0 8f3e
000000d0: 52c6 973e 9841 8a3e 9111 833e 2cbd 593e
000000e0: 3bfc 983e e789 873e f4e0 1d3e 13ab 993e
000000f0: e91f 8c3e 6ff3 883e 40a5 913e b425 7a3e
00000100: c028 973e 4761 7b3e aa48 503e 4b4e 913e
00000110: b663 983e 828e 9e3e e812 913e b841 5f3e
00000120: 2db6 613e bad6 8c3e 44c4 4c3e dc84 4c3e
00000130: be34 783e a37f 9b3e 273f 543e 4cdd 9a3e
00000140: 3c08 903e ca25 8f3e 2ba1 583e 75a4 923e
00000150: 952f 843e 72f8 903e 8cf5 803e 8f71 963e
00000160: db1a 863e accb 923e eb1f 923e db4a 8e3e
00000170: e807 6c3e 5240 9b3e 0795 953e df20 983e
00000180: 707a 983e aa0c 733e 2b12 903e 5d98 843e
00000190: 6918 a03e 22a4 763e 1f58 913e 8c91 863e
000001a0: 4299 963e fc61 983e 9751 993e 470f 9b3e
000001b0: 89c3 953e 6535 9a3e 4074 703e 2baf 833e
000001c0: 8911 8e3e b1a7 8b3e 12fb 973e 33b2 953e
000001d0: 8d60 8b3e a4df 763e 2891 8b3e fb85 993e

fc1.weight f4 [84, 120]
-0.07441777 -0.12331037 -0.0691842 -0.088055894 0.066569485 0.05767546 0.07010418 0.092314996
0.032361027 0.057211876 0.17668653 0.1780501 -0.12495505 -0.004657728 0.047748215 0.022939678
-0.073678136 -0.14498256 -0.10613571 -0.073443264 0.06446688 0.17203592 0.038025245 0.10490747
0.07854206 0.12708429 0.0005605852 -0.02794991 0.03691892 -0.03761915 -0.00445973 -0.14531487
0.017684823 -0.018018411 0.035589125 0.0424257 -0.024255263 -0.044600353 0.12882596 0.12148792
0.035295215 -0.06349321 0.070703916 -0.07734745 -0.14128602 -0.0013052647 0.10493252 0.078612044
0.04063215 -0.07158907 0.08023805 0.11063605 0.027206665 0.0725072 0.027333813 0.10426262
-0.056217544 0.08624999 0.100531615 0.120335944 0.060263377 0.056754407 -0.006240419 -0.011424993
0.17762977 -0.07884292 0.14146782 0.030166274 0.089217015 -0.18066114 -0.08206699 0.018725257
-0.115781926 -0.08791753 0.03421632 -0.04440852 0.0532629 0.095371775 0.0009807555 0.036034923
0.047971494 0.065244265 0.04087785 0.10964108 -0.047939707 -0.01854662 -0.014432213 0.10884635
-0.008644636 0.17795058 -0.105768606 -0.017725077 -0.11776438 -0.041626845 -0.05623502 0.059123382
-0.035291318 -0.09273676 0.12707727 0.05185652 -0.02381357 -0.057362277 -0.0079604825 0.039085507
0.012133995 0.013787487 0.17422451 0.119968586 0.17594302 0.16235194 0.08266727 0.12387616
0.019552441 0.14147249 -0.1339236 -0.021506859 -0.042408295 0.015224582 0.17235847 0.03699277
-0.074433364 0.029033272 -0.118176036 0.052413307 -0.009258723 0.15361077 0.04100945 0.022775108
-0.06216023 0.028025188 0.08419725 0.033137277 -0.028260855 0.083314285 -0.056626808 -0.01851384
-0.060660362 -0.03308301 0.045394354 0.0038859572 0.066955015 0.17926738 0.11447701 0.063345835
0.04603064 0.16792522 0.17485498 0.10154821 0.09370891 0.008512138 -0.006546763 -0.069871485
-0.035119474 0.046518084 0.05548404 0.12955394 0.17305952 -0.03564371 0.08566127 0.17664143
0.07216203 0.08304589 0.001297001 -0.047702473 -0.058447078 0.06043128 0.1736502 -0.036237035
0.016397493 -0.08254787 0.15217967 0.14325133 -0.049117465 0.12248223 -0.031562768 0.16831832
-0.029967131 0.17285743 0.100444056 0.13234717 0.0689488 0.11105271 0.090216205 0.070631646
0.12319313 -0.004291046 0.05861261 0.10719846 0.00046293007 -0.11459558 -0.007721717 -0.021663262
-0.07824584 -0.044477478 -0.013192582 0.04822256 -0.020950986 0.16286144 0.0053845593 0.041078437
-0.08189727 0.09633034 -0.010492693 0.11755539 0.003896872 0.041970212 0.10220384 -0.04894361
-0.14088763 0.17699009 -0.05925017 -0.003934621 -0.13089846 -0.03695067 0.052941907 0.124840766
-0.0075549004 -0.1057874 0.11053903 -0.06815102 0.0021847826 -0.033357274 0.04378856 -0.002374095
0.0041534277 -0.055969704 0.14741026 0.1569067 0.17418955 0.17249674 0.02966055 0.18665473
0.048533026 -0.033590656 -0.075694025 -0.10298203 0.0049462714 0.023742896 0.15249717 0.047794595
-0.062363118 0.019152213 0.006223942 -0.013735038 -0.02948225 0.09971204 -0.071356766 -0.004873203
-0.1658558 -0.0054162787 0.098699264 0.16570103 -0.121998996 0.042572804 -0.051661704 0.09093364
00000000: 5868 98bd 268a fcbd 72b0 8dbd a656 b4bd
00000010: 9555 883d 1a3d 6c3d c892 8f3d a50f bd3d
00000020: ff8c 043d 0057 6a3d 50ed 343e c452 363e
00000030: 6fe8 ffbd db9f 98bb a293 433d feeb bb3c
00000040: 90e4 96bd 4f76 14be ae5d d9bd 6c69 96bd
00000050: 3607 843d 2f2a 303e 5cc0 1b3d bad9 d63d
00000060: a9da a03d 6222 023e 3cf4 123a 36f7 e4bc
00000070: 4b38 173d 8a16 1abd ed22 92bb 6ccd 14be
00000080: c3df 903c 599b 93bc e7c5 113d 92c6 2d3d
00000090: f9b2 c6bc dcae 36bd f4ea 033e a9ce f83d
000000a0: b791 103d ba08 82bd 37cd 903d 5768 9ebd
000000b0: 48ad 10be 6a15 abba dce6 d63d 5aff a03d
000000c0: e66d 263d 4a9d 92bd d953 a43d 2795 e23d
000000d0: 83e0 de3c a87e 943d 29eb df3c a487 d53d
000000e0: 5e44 66bd d6a3 b03d 85e3 cd3d b172 f63d
000000f0: bbd6 763d 4f77 683d 6e7c ccbb e52f 3bbc
00000100: 94e4 353e 6678 a1bd f1dc 103e 431f f73c
00000110: 69b7 b63d 3cff 38be bd12 a8bd b665 993c
00000120: 131f edbd 1b0e b4bd 6926 0c3d b5e5 35bd
00000130: 332a 5a3d 4752 c33d b28c 803a 5b99 133d
00000140: c27d 443d c99e 853d 886f 273d 818b e03d
00000150: 6d5c 44bd 15ef 97bc 1775 6cbc d6ea de3d
00000160: 3ba2 0dbc ad38 363e 369d d8bd 2e34 91bc
00000170: 742e f1bd e980 2abd b156 66bd 5c2b 723d
00000180: a18d 10bd c5ec bdbd 8b20 023e 8167 543d
00000190: ad14 c3bc b5f4 6abd af6c 02bc 2018 203d
000001a0: aacd 463c e9e4 613c e967 323e 17b2 f53d
000001b0: 682a 343e 963f 263e 754d a93d c9b2 fd3d
000001c0: 712c a03c 2ade 103e 4523 09be 272f b0bc
000001d0: 52b4 2dbd 8670 793c bd7e 303e bb85 173d
000001e0: 8570 98bd 2fd7 ed3c 4706 f2bd 56af 563d
000001f0: e6b1 17bc 244c 1d3e 86f9 273d dd92 ba3c
00000200: ba9b 7ebd 1495 e53c 9c6f ac3d f4ba 073d
00000210: 4f83 e7bc aea0 aa3d 83f1 67bd 56aa 97bc
00000220: 0077 78bd 0d82 07bd 6eef 393d 8bab 7e3b
00000230: b61f 893d de91 373e ec72 ea3d 76bb 813d
00000240: a08a 3c3d 97f4 2b3e 2f0d 333e 82f8 cf3d
00000250: 75ea bf3d 7f76 0b3c 3a86 d6bb c818 8fbd
00000260: 70d9 0fbd bf89 3e3d 3c43 633d caa9 043e
00000270: 8436 313e 24ff 11bd 2d6f af3d 7ee1 343e
00000280: b0c9 933d f713 aa3d 2200 aa3a ab63 43bd
00000290: 3466 6fbd ca86 773d 5cd1 313e 496d 14bd
000002a0: 0954 863c dc0e a9bd fdd4 1b3e 7ab0 123e
000002b0: 652f 49bd f7d7 fa3d f647 01bd a35b 2c3e
000002c0: a17d f5bc 8a01 313e 9db5 cd3d 0486 073e
000002d0: 0735 8d3d 9a6f e33d 46c3 b83d 53a7 903d
000002e0: ae4c fc3d e79b 8cbb c713 703d de8a db3d
000002f0: 6cb5 f239 16b1 eabd 7506 fdbb 2777 b1bc
00000300: 5b3f a0bd 042e 36bd b325 58bc 0585 453d
00000310: 67a1 abbc 26c5 263e f570 b03b dd41 283d
00000320: c2b9 a7bd d748 c53d 8be9 2bbc e1c0 f03d
00000330: aa62 7f3b f5e8 2b3d 3f50 d13d 1879 48bd
00000340: d944 10be e43c 353e 4eb0 72bd feed 80bb
00000350: 3f0a 06be 9659 17bd 9dd9 583d 84ac ff3d
00000360: 198f f7bb 10a7 d8bd 4962 e23d c392 8bbd
00000370: 922e 0f3b a3a1 08bd a25b 333d b496 1bbb
00000380: 7a19 883b 7d40 65bd b7f2 163e 26ac 203e
00000390: bf5e 323e fca2 303e affa f23c 6b22 3f3e
000003a0: 91ca 463d 5b96 09bd 7805 9bbd 3ee8 d2bd
000003b0: 5514 a23b 7680 c23c 3828 1c3e 44c4 433d
000003c0: 7870 7fbd 1ae5 9c3c 36f2 cb3b ed08 61bc
000003d0: c284 f1bc d335 cc3d 7f23 92bd 64af 9fbb
000003e0: 1ad6 29be 0a7b b1bb d722 ca3d 88ad 293e
000003f0: 9cda f9bd d260 2e3d 399b 53bd 6b3b ba3d

fc1.weight_fake_quant.scale f4 [84]
0.0014095254 0.0014673383 0.0013348951 0.0013286292 0.0013664779 0.0013560244 0.0014431416 0.0014506485
0.0008378088 0.001383444 0.0008816509 0.0014972286 0.0014696255 0.0014413418 0.0013812823 0.0014089263
0.001352365 0.0012243182 0.0014839916 0.0014172888 0.0014744456 0.001419285 0.0013954721 0.001397301
0.0014578556 0.0007840823 0.0014278772 0.0014801723 0.0014147107 0.00077778863 0.00080870633 0.0013575823
0.0014059886 0.0013305712 0.0013622401 0.0014665548 0.0014770498 0.0013380871 0.0014230098 0.001410656
0.0014063584 0.001513207 0.0013660408 0.0015069126 0.0013808218 0.0014276867 0.00147672 0.0014349722
0.0007760575 0.001494931 0.0013826503 0.0013354864 0.0014266017 0.001385113 0.0014746338 0.0013563458
0.0014277508 0.0013673747 0.0014051421 0.0014349708 0.0013646531 0.00076552876 0.0014047899 0.0013424918
0.0014892956 0.0013443832 0.0014361413 0.0014333528 0.0014219339 0.0014159167 0.0014447727 0.0014352667
0.0013536925 0.0014900918 0.001433558 0.0014312151 0.0014370818 0.0014413644 0.0013818222 0.0013639788
0.0013864894 0.0013931512 0.00094567833 0.0014499173
00000000: d3bf b83a b453 c03a a6f7 ae3a 6625 ae3a
00000010: 641b b33a a1bc b13a cc27 bd3a b023 be3a
00000020: 66a0 5b3a ad54 b53a 971e 673a a83e c43a
00000030: 73a0 c03a 68eb bc3a 250c b53a b9ab b83a
00000040: d741 b13a 4d79 a03a 7f82 c23a 52c4 b93a
00000050: 2f42 c13a 4d07 ba3a 46e8 b63a a425 b73a
00000060: 8415 bf3a df8a 4d3a 9c27 bb3a 5702 c23a
00000070: d06d b93a 83e4 4b3a 5dff 533a e7f0 b13a
00000080: 2649 b83a 9066 ae3a 318d b23a 6a39 c03a
00000090: 9199 c13a c162 af3a 4984 ba3a c3e5 b83a
000000a0: 8f55 b83a cd56 c63a b90c b33a 9983 c53a
000000b0: b1fc b43a 3721 bb3a 808e c13a ad15 bc3a
000000c0: 5670 4b3a 90f1 c33a 0c3a b53a 7d0b af3a
000000d0: cffc ba3a ae8c b53a 8048 c13a 6ac7 b13a
000000e0: 5e23 bb3a 7b39 b33a bf2c b83a a115 bc3a
000000f0: 29de b23a c4ad 483a ed20 b83a 8df6 af3a
00000100: 7834 c33a 0436 b03a e83c bc3a 57df bb3a
00000110: 2f60 ba3a 4896 b93a 875e bd3a 8f1f bc3a
00000120: 626e b13a 2f4f c33a 39e6 bb3a 9c97 bb3a
00000130: 775c bc3a 2aec bc3a 421e b53a 89c7 b23a
00000140: ddba b53a 669a b63a 66e7 773a 270b be3a

fc1.weight_fake_quant.activation_post_process.min_val f4 [84]
-0.18041925 -0.14074543 -0.16570362 -0.16903237 -0.16909783 -0.16863185 -0.16181034 -0.18092573
-0.10723953 -0.17207922 -0.111828305 -0.1689616 -0.16924028 -0.1775656 -0.17680414 -0.17460255
-0.17131999 -0.15110874 -0.17889345 -0.18141297 -0.15996449 -0.17688982 -0.17544924 -0.17701176
-0.17970146 -0.10036253 -0.17658652 -0.18173602 -0.18108296 -0.09693545 -0.10351441 -0.17028038
-0.16549209 -0.16841035 -0.16956179 -0.17912 -0.18658552 -0.16582057 -0.17183372 -0.17588164
-0.17709461 -0.18239376 -0.1408087 -0.18860067 -0.16155854 -0.18274389 -0.1441506 -0.17158638
-0.09933536 -0.19135118 -0.17047314 -0.16850416 -0.17956197 -0.17474386 -0.1817667 -0.17361227
-0.17672665 -0.16939595 -0.17453192 -0.17474736 -0.1609396 -0.09798768 -0.1798131 -0.16708405
-0.19062984 -0.13927324 -0.1726455 -0.17357364 -0.18026 -0.17614552 -0.1849309 -0.17427357
-0.17188361 -0.16175866 -0.18349542 -0.18298228 -0.17638287 -0.18449464 -0.17349176 -0.15694307
-0.17005153 -0.17832336 -0.121046826 -0.18558942
00000000: d3bf 38be 921f 10be 36ae 29be d216 2dbe
00000010: fb27 2dbe d4ad 2cbe 9cb1 25be 9844 39be
00000020: 66a0 dbbd 8935 30be 3d06 e5bd 4504 2dbe
00000030: 534d 2dbe c2d3 35be 250c 35be 03cb 32be
00000040: 826e 2fbe 40bc 1abe d82f 37be 52c4 39be
00000050: bbcd 23be 9b22 35be f7a8 33be 9242 35be
00000060: a903 38be df8a cdbd 19d3 34be 0219 3abe
00000070: d06d 39be 1886 c6bd 5dff d3bd fb5d 2ebe
00000080: c276 29be c373 2cbe 9ba1 2dbe 3c6b 37be
00000090: 4610 3fbe decc 29be 2ef5 2fbe 511a 34be
000000a0: 4a58 35be 6ec5 3abe 2830 10be 8920 41be
000000b0: 9a6f 25be 3721 3bbe 379c 13be 57b4 2fbe
000000c0: 5670 cbbd 90f1 43be 8390 2ebe 5b8c 2cbe
000000d0: 18df 37be 0ef0 32be 0d21 3abe 6ac7 31be
000000e0: d5f7 34be 2276 2dbe 7fb8 32be f9f0 32be
000000f0: 5acd 24be c4ad c8bd ed20 38be 1518 2bbe
00000100: 7834 43be a59d 0ebe fbc9 30be 4abd 31be
00000110: 1496 38be 7e5f 34be 875e 3dbe c574 32be
00000120: 4202 30be 10a4 25be 39e6 3bbe b55f 3bbe
00000130: b69d 34be 2aec 3cbe d3a7 31be afb5 20be
00000140: fd21 2ebe 669a 36be 66e7 f7bd 270b 3ebe

fc1.weight_fake_quant.activation_post_process.max_val f4 [84]
0.17791846 0.18635197 0.16953169 0.1687359 0.1735427 0.1722151 0.18327898 0.18423237
0.10203366 0.17569739 0.111969665 0.19014804 0.18664244 0.18305041 0.17438641 0.17893365
0.17175035 0.1554884 0.18846694 0.17503943 0.1872546 0.18024918 0.17722495 0.17745723
0.18514766 0.090388045 0.18134041 0.18798187 0.17499164 0.09877916 0.08608392 0.17241295
0.17856055 0.16898255 0.1730045 0.18625246 0.18758532 0.16993706 0.18072224 0.17915331
0.17860752 0.19217728 0.17348719 0.19137791 0.17536438 0.17849796 0.18754344 0.18224147
0.07888426 0.18338647 0.1755966 0.16960678 0.1811784 0.17590936 0.1872785 0.17106134
0.18132435 0.17365658 0.17845306 0.18224129 0.17331095 0.096202135 0.17717247 0.17049646
0.18120827 0.17073667 0.18238994 0.1820358 0.18058561 0.17982142 0.18327439 0.18227887
0.17191894 0.18924166 0.17741136 0.18176432 0.18250939 0.17539115 0.17549141 0.17322531
0.17608415 0.17526808 0.084981576 0.18140124
00000000: 4230 363e 0dd3 3e3e b799 2d3e 1bc9 2c3e
00000010: 2db5 313e 2859 303e 7cad 3b3e 69a7 3c3e
00000020: 06f7 d03d 04ea 333e 5a50 e53d 2bb6 423e
00000030: 321f 3f3e 9171 3b3e 5a92 323e 623a 373e
00000040: 53df 2f3e 5a38 1f3e 7afd 403e 893d 333e
00000050: abbf 3f3e 3e93 383e 757a 353e 59b7 353e
00000060: 5997 3d3e 5e1d b93d 4db1 393e 527e 403e
00000070: 0231 333e ba4c ca3d c44c b03d 058d 303e
00000080: 94d8 363e c309 2d3e 1728 313e f7b8 3e3e
00000090: 5e16 403e fb03 2e3e 400f 393e f773 373e
000000a0: e4e4 363e 1fca 443e a0a6 313e 92f8 433e
000000b0: b892 333e 2bc8 363e 630b 403e 829d 3a3e
000000c0: 128e a13d aac9 3b3e 98cf 333e 66ad 2d3e
000000d0: d586 393e 9521 343e efc5 3f3e b42a 2f3e
000000e0: 17ad 393e 08d3 313e 66bc 363e 769d 3a3e
000000f0: 6d78 313e a005 c53d b36c 353e a096 2e3e
00000100: a98e 393e 98d5 2e3e 6ec4 3a3e 9867 3a3e
00000110: 6feb 383e 1b23 383e 48ac 3b3e 50a7 3a3e
00000120: 850b 303e 91c8 413e 53ab 353e 6d20 3a3e
00000130: bee3 3a3e bd99 333e 05b4 333e fa61 313e
00000140: 674f 343e 7a79 333e d20a ae3d 3fc1 393e

fc2.weight f4 [1, 84]
-0.14542702 -0.17721695 -0.20105088 -0.17270069 -0.1463953 0.18020017 -0.1993019 0.20361258
0.024885736 -0.20725705 -0.083703294 -0.20429866 0.19721553 -0.2099546 0.16617331 -0.20356229
0.19787702 0.0636666 -0.18339503 0.18450722 -0.18479125 0.20067224 0.18511216 -0.2050062
-0.20022061 0.0016877339 0.19940872 -0.20296182 0.20009421 -0.08609937 0.022015266 -0.20327878
0.18099888 0.20152846 -0.17747249 -0.17074868 0.18896447 0.16247673 0.17761162 0.17575887
-0.2027387 -0.20274961 0.14987758 -0.149932 -0.1989565 0.2044765 -0.20795368 0.2032519
0.030329468 -0.17266414 0.16821286 0.19781114 -0.17922139 -0.16199058 -0.20330986 0.19814534
0.20032288 -0.19732308 -0.20385808 -0.18626072 -0.17416207 -0.07325202 0.14848474 -0.19957544
-0.18204065 0.1984308 0.19722448 0.19869123 -0.18970437 0.18980125 0.20051841 0.18463837
0.1990763 -0.15633065 -0.19944862 -0.19910511 -0.20014538 -0.20485096 0.13923223 -0.19602707
0.16802302 -0.20628351 -0.04208134 0.19529825
00000000: d2ea 14be 5c78 35be 48e0 4dbe 73d8 30be
00000010: a6e8 15be 6586 383e cc15 4cbe d17f 503e
00000020: 2cdd cb3c 313b 54be a26c abbd ab33 51be
00000030: def2 493e 57fe 56be 5629 2a3e a272 50be
00000040: 46a0 4a3e a263 823d e8cb 3bbe 76ef 3c3e
00000050: eb39 3dbe 067d 4d3e 0b8e 3d3e 25ed 51be
00000060: a206 4dbe f436 dd3a cd31 4c3e 39d5 4fbe
00000070: 7fe5 4c3e de54 b0bd 5c59 b43c 5028 50be
00000080: c557 393e 7a5d 4e3e 59bb 35be bed8 2ebe
00000090: e77f 413e 4d60 263e d2df 353e 22fa 333e
000000a0: bc9a 4fbe 989d 4fbe 8279 193e c687 19be
000000b0: 41bb 4bbe 4a62 513e cff1 54be 4421 503e
000000c0: 8175 f83c dece 30be fe3f 2c3e 018f 4a3e
000000d0: d085 37be dce0 25be 7630 50be 9de6 4a3e
000000e0: 7121 4d3e 100f 4abe 2cc0 50be 21bb 3ebe
000000f0: 8b57 32be 2805 96bd 620c 183e 815d 4cbe
00000100: dd68 3abe 7231 4b3e 37f5 493e b775 4b3e
00000110: dd41 42be 425b 423e b354 4d3e d711 3d3e
00000120: a8da 4b3e 2415 20be 423c 4cbe 36e2 4bbe
00000130: e9f2 4cbe 73c4 51be e592 0e3e 52bb 48be
00000140: 3a0e 2c3e fc3b 53be 7c5d 2cbd 44fc 473e
