experiments/exp022/checkpoint.pth (torch, 764066 bytes, 27 tensors)

conv1.weight f4 [6, 2, 5, 5]
00000000: 4c7c 2f3d 0e02 c63d 1954 07bd 9ebe 773e
00000010: 8096 5d3c f1a2 4ebc 4d3b 60bd 8e40 c5bd
00000020: e3ce f0bd bb30 143e d6a1 593c 3c8d 91bd
00000030: 8fd8 07be 1670 35be 241e e33d c0dd 58be
00000040: 090a 0ebd f21f 04be b512 9abd ddf8 1f3e
00000050: 9aa7 56be 7ca5 46be ae5a cbbd afd9 67bd
00000060: 3001 b73d 9d88 45be 43ac 94bc d9bb 333e
00000070: 378d 54bd 710b 543e 4b42 21bd 0112 35be
00000080: 6747 acbd 1392 243e f115 603e 4145 07bd
00000090: 6c72 5bbe 86d6 3cbe 2cb7 483e 0fb4 863e
000000a0: e5fc 963e 6609 1dbc 990d 1bbe 5994 053e
000000b0: 6c3d 81bc f89e 9a3d 852b 953d a3c4 033e
000000c0: 9390 f8bc b222 93bc de70 f4bc b8fc f33d
000000d0: 3a83 82bc 6bf7 a1bd 8b42 b1bd 6100 dc3d
000000e0: 774d c4bd 3aec b5bd 475c f5bd f558 69be
000000f0: 97b3 3c3e c78c edbc 371d a9bd fa17 7f3c
00000100: 5eba 163d dc23 7f3e 7fdb 013e a02e 5a3a
00000110: 074b 41be 44e2 9f3d fc4b 863e e5fb a43e
00000120: 7908 3a3e 7416 503e 16d4 3bbd a769 1c3e
00000130: e716 1fbc 8171 bfbd 24c1 f4bd 293c f8bd
00000140: 2fe4 983a 8bc4 0d3e b9bf 49bd bd14 e6bc
00000150: 65c1 ebbd cf23 023e 2309 e7bd 4dde 12be
00000160: 4d42 73bb e1bb 00be 40cc 7c3e fdbd 86bd
00000170: e27b 11be 6c09 5bbe 271d 94be 38cb 4a3d
00000180: a674 243e 8dc2 693c fc1f 2cbd 39d7 0bbe
00000190: f1bb c23d 4e34 1ebd c789 b3bd 847a f5bd
000001a0: 4da3 ae3c 0a64 c73d c736 58be e6fc 98bd
000001b0: 4240 693d 69e8 793e 976f d03d 45f9 5fbe
000001c0: 7926 96bd 3e5d 873d 9dfb 453e 908c b2bc
000001d0: 0c93 29be 4b94 ed3d 8e2f 923d f43a ddbd
000001e0: b51f 263d a725 a4bd 9c0f 9d3c 3390 cd3d
000001f0: b41f a3bd cbd3 86bd 6f28 debd d84e 363d
00000200: 84d7 0ebd 8420 c63d 4074 1e3e 9670 d33d
00000210: 2bf3 59bc a402 04be d006 2b3d 0051 cc3d
00000220: 9bd8 8f3e 5a5d 863d bebd 4cbe b721 48be
00000230: 737d 71bd 589f 683e 510c 07be 2ea2 a3be
00000240: abc5 653d b97c 0abe 7cd6 d03d e41d 19bd
00000250: 2acc 10bd ab0f 4a3e a16d 1bbe 6c79 07be
00000260: b1b1 00be 2064 6cbd b8c8 02be 4952 bbbd
00000270: 96b4 7b3d 0f87 e2bb 1f50 e6bd c821 9b3d
00000280: bd67 9b3b cfe6 69bd 9712 003d 1ed1 bbbd
00000290: 47ee c0bd 46cd 923c 3d2a 50bd 4bbc bcbd
000002a0: fda8 abbd c664 cc3c 4b45 b13d f8a0 93bd
000002b0: b544 b4bd cfa3 613d b5d1 963c dbf7 f8bd
000002c0: 406e 0abe e23d 193c e4a1 b13c 7fe2 01be
000002d0: 0d91 113d 7a1a 8d3d 05d0 9c3c 6a52 1dbe
000002e0: e319 003e c0ff 393e 9abd abbd 4f7e 2abd
000002f0: 2e95 bebd 55d7 073e c1fc 83bc f1ae 853c
00000300: dcbb 343d 7ff8 6dbd ed99 a93e b7e3 d5bc
00000310: 9821 e63d 5fde 2bbc 4833 953c df24 223e
00000320: f392 323e c681 803e c1dc 833c 4a77 9cbd
00000330: 6b25 b53d a901 443e 121e 953d b65e f03c
00000340: 5d3c c9bc e15c a03d 7365 6a3e b7a3 e23d
00000350: bb2e 103e d591 c13d 53b8 2a3d 305e 173e
00000360: 5cee 103e 9fca 953d cd73 40b9 557c 6e3d
00000370: 1c1c 8ebd 16f8 92be bb4b c5bd 4e3f 10bd
00000380: 06dd b0bd 6702 88be 6261 86be cba7 14bd
00000390: e9d7 2abe dab6 0cbe b11a 59be 97c0 96bd
000003a0: 1bd7 59be d6d7 40be 7981 7ebe e40f a8bd
000003b0: fcc2 25be 3b9f 81bd 8d60 0cbd d91e b93d
000003c0: b8b7 76bd cf4f 2a3e 9886 673e 148a b43e
000003d0: 815a 1f3e 0871 0fbe f1f2 fd3b 81c8 523e
000003e0: 59f5 b03e 41e8 aa3e 9466 3cbe 8cca 37be
000003f0: f5a7 bbbd 55ea 05be bda9 b73c 62db 58be
0.042843148 0.09668361 -0.033039186 0.24193808 0.0135246515 -0.01261209 -0.054744054 -0.096314535
-0.117582105 0.14471714 0.013283214 -0.071070164 -0.13266204 -0.17718539 0.11089733 -0.21178341
-0.03467754 -0.12902811 -0.07523099 0.15622278 -0.20962372 -0.19399065 -0.09929405 -0.056604084
0.089357734 -0.19290395 -0.018148547 0.17552127 -0.051892485 0.2070749 -0.039369863 -0.17682649
-0.084120564 0.16071348 0.2188337 -0.03302503 -0.21430367 -0.18441209 0.19601125 0.2630925
0.29489818 -0.00958476 -0.15141906 0.13044871 -0.015776359 0.07549852 0.07283691 0.1286798
-0.030342376 -0.01796088 -0.029838976 0.11913437 -0.015931714 -0.07908519 -0.0865527 0.1074226
-0.09585088 -0.08882947 -0.11980491 -0.2278784 0.18427883 -0.028997792 -0.082575254 0.015569681
0.036798827 0.24916023 0.12681387 0.00083229877 -0.18876277 0.078068286 0.26229846 0.3222343
0.18167295 0.20321065 -0.045856558 0.15274678 -0.00971005 -0.09347821 -0.11950901 -0.1212085
0.0011664684 0.13844506 -0.049255107 -0.02808606 -0.115114965 0.12708972 -0.112810396 -0.14342614
-0.0037118376 -0.1257167 0.2468729 -0.06579206 -0.14207414 -0.21390313 -0.2892849 0.04951021
0.16060123 0.014267576 -0.04202269 -0.1365632 0.09508503 -0.0386241 -0.08766513 -0.119862586
0.021318102 0.09735878 -0.21114646 -0.074701115 0.056946047 0.24405064 0.10177534 -0.21872433
-0.07331557 0.066095814 0.19334264 -0.021795541 -0.1656 0.1160055 0.071379766 -0.1080226
0.040557582 -0.08014994 0.019172482 0.100372694 -0.07965031 -0.06583365 -0.10847556 0.044508785
-0.0348735 0.096741706 0.15474033 0.103242084 -0.013302605 -0.12891632 0.041754544 0.09976387
0.28094944 0.06560774 -0.19994256 -0.19544111 -0.05895753 0.22717035 -0.13188292 -0.3195967
0.056096714 -0.1352414 0.1019716 -0.03738202 -0.035350956 0.1973254 -0.15178539 -0.13229913
-0.12567784 -0.057712674 -0.1277188 -0.09146554 0.061451517 -0.006913073 -0.11245751 0.07574803
0.004742591 -0.05710488 0.03126773 -0.09170745 -0.09420448 0.017920148 -0.05082153 -0.092156015
-0.08381841 0.024950396 0.08655795 -0.07208437 -0.08802167 0.05508786 0.018410543 -0.1215665
-0.1351862 0.009353133 0.02168364 -0.12684058 0.03553872 0.06889816 0.01914216 -0.1536347
0.12509875 0.18163967 -0.08385773 -0.041624364 -0.093057975 0.13265736 -0.016111733 0.01631877
0.04412447 -0.058098312 0.3312525 -0.02610956 0.11236876 -0.010490029 0.01821293 0.15834378
0.17438869 0.2509901 0.016096475 -0.0763994 0.088450275 0.19141258 0.07281126 0.029342037
-0.024564916 0.07830215 0.22890262 0.110663824 0.14080326 0.094516434 0.04167969 0.14782023
0.14153427 0.073140375 -0.00018353686 0.05822404 -0.06938955 -0.287049 -0.09633585 -0.035216622
-0.08635907 -0.26564333 -0.26246172 -0.036292832 -0.16683926 -0.13741627 -0.21201588 -0.07360952
-0.21273462 -0.18832335 -0.24854077 -0.08206156 -0.16187662 -0.06329199 -0.034271766 0.09039087
-0.0602338 0.16632007 0.22609937 0.35261595 0.15561868 -0.14007962 0.007749908 0.20584299
0.34562185 0.3338032 -0.18398505 -0.17948359 -0.09162895 -0.13077672 0.022419805 -0.21177438

conv1.weight_fake_quant.scale f4 [6]
00000000: e231 183b f243 263b 09a0 233b 8edc 2a3b
00000010: 64db 353b 45ab 0b3b
0.0023223092 0.0025370088 0.0024967215 0.0026071402 0.0027749175 0.0021311801

conv1.weight_fake_quant.activation_post_process.min_val f4 [6]
00000000: a36a 5bbe 4b0c 94be 09a0 a3be 1b6b 1dbe
00000010: abe2 92be bf8e 7ebe
-0.21427397 -0.2891563 -0.31958035 -0.15372889 -0.2868856 -0.24859141

conv1.weight_fake_quant.activation_post_process.max_val f4 [6]
00000000: 7e01 973e 6af7 a43e 97ca 8f3e d586 a93e
00000010: ad6f b43e ee93 8a3e
0.29493326 0.32220012 0.2808425 0.3311068 0.35241452 0.27065986

conv2.weight f4 [16, 6, 5, 5]
00000000: 96bc fa3d 0670 823e 9cff b13e adc2 a03e
00000010: e216 ba3e 0c80 2e3e 55ee fc3d b4ba 963d
00000020: 3289 cc3d 3cc3 bb3e 73e3 1fbd 1b6e dbbd
00000030: e359 ab3d f120 aa3c ac35 743d 827a 24be
00000040: 7902 0d3d df79 46bd aa8c d3bd 5ee1 1ebe
00000050: b827 013d eb8a 203e d004 c43c 72b5 2abd
00000060: 971f c23d 740d acbd 5eb0 e63d 4869 633e
00000070: b4d6 623e 81d9 bbbd 2d71 ccb8 0cc3 4dbd
00000080: 0f9b 2bbd 392f 16be 1f36 0abe ab83 71bd
00000090: d99a 18bd 4d2c 88bd 1a2e 943c 84f7 e33d
000000a0: a0e2 cf3d 884f afbd 4aaf c23d 2a5e aabb
000000b0: b57a 233a 1454 433e 3b74 973a 8479 0b3e
000000c0: 353c 043e f25d 003e f479 0f3e 4861 863e
000000d0: bfad 363e 7687 3e3e 3d7c f13d da9d 85bd
000000e0: 7e1d 213e 85df d53c 6e22 d33c 3ea3 91bd
000000f0: 2f62 d0bd ca04 73bd 434d 67be 3575 96be
00000100: b9cf 783d 591f c33d da03 3d3d 3bd8 7c3d
00000110: 74f7 b53d 8482 5d3d f241 a03d 5a45 123e
00000120: 13ab 0a3e d262 403e 6d42 c73d 8029 17bd
00000130: 13fe 5fbe 0ffc 80be 7820 13be 302a 83be
00000140: 8beb aabd 863a a3bc faff cabc c0c4 08be
00000150: 08a3 24be f434 223d 0402 993d 9de3 1fbd
00000160: 04ee b5bc 6c98 0539 d975 053e 2be2 f63d
00000170: 21fc a5bc 445d dbbc 0399 143e 7a9c 4f3d
00000180: 9c49 d53d f0a2 9abc 48f5 8a3d 58ab 273e
00000190: 506b 0fbe e590 cfbd fa44 a23d 9eaa 343e
000001a0: 94da cf3d 13eb 64be d259 0cbe 77dd 44be
000001b0: 10d8 603b 556a 8fbc 6ca3 c1bc 847e 3fbe
000001c0: 01a6 4fbe 6c17 04be 247b 89be d7bc 123c
000001d0: e67d 69bd 8fcc 853d 2b0f e7bd a481 15bd
000001e0: 967b 6cbe 473a 1bbe e90b d9bc e619 0cbe
000001f0: ff72 42be fdcc cf3d f5d3 ba3d f4db 793d
00000200: 6b66 e239 e7a6 0bbe 301d e6bd 1d6b 83bc
00000210: a260 0fbe ff2b 12be 7d9b e7bd 1b64 e8bd
00000220: 21fd afbc 92f0 213d cca0 97bc ddaf 96bc
00000230: 8090 56bc f4b3 453e 04b4 7a3d 656e 26bd
00000240: 3f7a a6bd 6c28 53be 62d3 703a 4885 f8bc
00000250: 343f 063d cb66 133e b910 4a3e fa0e 293d
00000260: 0f39 07be ffc9 adbe 1b49 d6be 33c4 893d
00000270: f041 aabd c27f 0bbe cb61 7bbe 4e7e c1be
00000280: 519f c63d 42e1 acbd e319 41be c21e 10be
00000290: 2da1 82be a183 b53c 5747 5dbe 7962 6ebe
000002a0: 607c c4be bbb1 aebe 8a5e f23d a454 82be
000002b0: 4910 a2be c6e8 ccbe 7c5d 61be 31de 333d
000002c0: 45e1 1abe d2ff 9a3e 63f6 483e dfc6 763e
000002d0: 3e4e 813d e0a2 3bbe ec9c 643d a408 853d
000002e0: ad02 a03d b805 76bd 3527 dcbd ec03 a93d
000002f0: 5ea2 9e3d cabb d73d 5e20 d63d 6d30 00be
00000300: c56f f83d f20d a53d b0de 063d 8739 a13c
00000310: b23e db3c 7ae3 c73e ffb4 ad3d cf3a 073e
00000320: 98f7 5d3d fbcd 1a3d c90b 5a3e b6b8 513e
00000330: 8644 47bd 37a5 32bc 0ad6 96bd 591c 2f3e
00000340: 4ffb 713d 846b 02be c447 18bc cf17 cbbd
00000350: 781f 023e 27ce 43bd 465b c1bd b1bf e93d
00000360: 00fc 6e3d 7801 773e 5cbb f5bc 9ab3 22be
00000370: b4bc a63c 21d7 8abc b22f 943d a8d7 3dbe
00000380: 76bd 73be 0b21 21be 4118 b9be 883d bbbe
00000390: 8b43 18be da3a cb3a 6876 703d 4fbe eb3c
000003a0: fde9 b8bd d2d1 53bc b9bd 243d cbd0 8e3e
000003b0: 653d 8b3c f432 743d ce24 2f3e 139d 443d
000003c0: 8179 babc a6b9 00be af0f c5bc 5911 b43d
000003d0: cd6e c33d dae1 07be f9bb 38be 2746 a8bd
000003e0: a88e 1eb9 38ac 003e eb23 983c eedb 02be
000003f0: 73fb 8e3c 38bb 243e 904a 8d3e 6622 b0bd
0.12243001 0.25476092 0.34765327 0.31398526 0.36345583 0.17041034 0.12350146 0.073598295
0.099871054 0.3667239 -0.03903527 -0.1071436 0.08366754 0.02076766 0.059621498 -0.16062358
0.034426186 -0.04845607 -0.10329564 -0.15515658 0.03153202 0.15677993 0.023928076 -0.041676946
0.094786815 -0.084010035 0.11264108 0.2220813 0.22152215 -0.09172345 -9.748559e-05 -0.05023484
-0.041895922 -0.14666452 -0.13497208 -0.05896346 -0.03725705 -0.06649075 0.01808839 0.11131194
0.10150647 -0.08560091 0.0950609 -0.0051992135 0.00062362413 0.19075042 0.0011555025 0.13620573
0.12913592 0.12535837 0.14011365 0.26246095 0.17839716 0.18606362 0.11791275 -0.065242484
0.15733907 0.026107559 0.025773253 -0.07111214 -0.10174977 -0.05933074 -0.22588067 -0.29386297
0.060744975 0.095274635 0.04614625 0.06172965 0.088850886 0.054079548 0.07825078 0.14284268
0.13541822 0.18787697 0.097294666 -0.03690481 -0.21874265 -0.25192305 -0.14367855 -0.25618124
-0.083457075 -0.019925367 -0.024780262 -0.13356304 -0.16077816 0.03960128 0.074710876 -0.03903543
-0.022208221 0.0001274065 0.13033237 0.12054857 -0.020261826 -0.026777871 0.14511494 0.050686337
0.104144305 -0.018876523 0.06785065 0.16373956 -0.1400578 -0.10135058 0.079233125 0.1764321
0.10149112 -0.22355299 -0.13706139 -0.19225107 0.003430847 -0.017506758 -0.023637496 -0.18700606
-0.20278169 -0.1289956 -0.2685176 0.008956156 -0.05700483 0.06533157 -0.1128219 -0.036500588
-0.2309402 -0.1515895 -0.026494937 -0.13681754 -0.1898918 0.1014652 0.09122459 0.06100078
0.00043182386 -0.13637887 -0.11236036 -0.016042287 -0.14001706 -0.14274596 -0.11308954 -0.113472186
-0.021483006 0.039536066 -0.018509291 -0.018394405 -0.013095975 0.19306928 0.061206833 -0.040632624
-0.08128785 -0.20620888 0.0009186772 -0.030336991 0.03277512 0.14394681 0.19732942 0.04127405
-0.1320536 -0.33943173 -0.4185265 0.06726875 -0.08313358 -0.13622954 -0.24549024 -0.37791675
0.09698356 -0.08441402 -0.18857531 -0.14074233 -0.25513592 0.022157492 -0.21609245 -0.23279752
-0.3837614 -0.34119973 0.11834438 -0.254552 -0.3165305 -0.40021342 -0.22008318 0.04391307
-0.15124996 0.302733 0.19625239 0.24099301 0.06313752 -0.1832385 0.055813715 0.06495789
0.0781301 -0.060064048 -0.10749666 0.08252701 0.07745813 0.10533865 0.10455392 -0.12518473
0.12130693 0.080593005 0.032927215 0.019680751 0.026763294 0.39040738 0.08481788 0.13206027
0.054191202 0.037794095 0.21293558 0.20480618 -0.048649333 -0.010903648 -0.073650435 0.17100658
0.059077557 -0.12736326 -0.009294454 -0.099166505 0.12707317 -0.047804024 -0.09441237 0.11413515
0.058345795 0.24121654 -0.029996566 -0.15888825 0.020353653 -0.016948285 0.0723566 -0.18539298
-0.23802742 -0.15735261 -0.36151317 -0.36570382 -0.14869516 0.001550521 0.05870667 0.02877727
-0.09029005 -0.012928443 0.040219996 0.2789367 0.016997049 0.059618905 0.17103884 0.04800136
-0.022763016 -0.1257082 -0.02405533 0.08792371 0.09542618 -0.1326975 -0.18040456 -0.082165055
-0.00015121198 0.12565696 0.018571815 -0.12779209 0.017453885 0.16087043 0.2759595 -0.08600311

conv2.weight_fake_quant.scale f4 [16]
00000000: bc43 3d3b 4660 563b dd7c 763b c95b 383b
00000010: 94a1 483b 3d94 7e3b ec87 333b 1e2b 5e3b
00000020: b289 5b3b 2da5 463b e683 203b 3f1d 273b
00000030: 0c6c 3d3b b58a 5b3b 826d 5c3b e90b 2e3b
0.0028879484 0.0032711192 0.0037611045 0.002813088 0.0030613886 0.003884568 0.0027394248 0.0033900212
0.003349882 0.0030310855 0.002449268 0.002549961 0.0028903512 0.0033499424 0.0033634608 0.0026557392

conv2.weight_fake_quant.activation_post_process.min_val f4 [16]
00000000: 8169 96be 4660 d6be a744 debe c95b b8be
00000010: 94a1 c8be 0def 66be cd2d abbe 375e 6ebe
00000020: b289 dbbe 2da5 c6be e683 a0be b20f a1be
00000030: 0c6c bdbe 92a2 cdbe 826d dcbe b89b adbe
-0.29377368 -0.41870326 -0.43411753 -0.36007527 -0.39185774 -0.22552128 -0.3343338 -0.23278128
-0.4287849 -0.38797894 -0.3135063 -0.31457287 -0.36996496 -0.40163094 -0.43052298 -0.33907866

conv2.weight_fake_quant.activation_post_process.max_val f4 [16]
00000000: 35c9 bb3e 03c8 c73e e38f f43e de70 a93e
00000010: b4b4 b53e 1597 fc3e dc20 b23e c86e dc3e
00000020: d491 b03e 1129 ab3e 00e8 8a3e 05cf a53e
00000030: 5a80 713e a0d3 d93e b339 cf3e d1af ac3e
0.36676946 0.39019784 0.47766027 0.33093923 0.35489428 0.49334016 0.34790695 0.4305327
0.34486258 0.3342977 0.27130127 0.32384506 0.23584118 0.4254427 0.4047371 0.33727887

conv3.weight f4 [120, 16, 5, 5]
00000000: 383a 66bd d246 433d eb68 f1bd 9d3c 38be
00000010: a83a cdbd 3798 3cbe 0869 32be ae3f 35be
00000020: 7d31 14be d02d 79be 9e27 1cbd 6e6b 4d3d
00000030: 9624 03be 2803 75be 93f4 bebe 73a3 3a3d
00000040: a8be 0e3e 39ad 993c 7876 1fbd 1ff8 fdbc
00000050: 2171 64bd ea22 d7bd dbc9 b83d db20 c23d
00000060: 458a 5dbd 659a 443e 8363 283e 1c6f 54bd
00000070: f1b9 833e 02c3 273e a165 c6bd c1f8 e3bd
00000080: fd53 82be 1a19 d93d e003 7abd 960c 793e
00000090: 4fe6 37be 6d7a 0fbc b67b 4ebd 13a3 ffbd
000000a0: 82c7 15bd 035e 9dbe 670d 0bbe ec8c 913c
000000b0: e687 96bd 0779 813d 341b 49bd 84ff 8f3c
000000c0: 1270 bfbd 5d8e 1cbe 427b 613e 6abb e13d
000000d0: 38c3 10bd 7521 13be c194 04bd 3a05 35bd
000000e0: 06dd dcbd a71d 1dbe 40e5 56be df57 b0bd
000000f0: 83e6 68be bfda 66be 3dd0 8dbe 8092 1dbe
00000100: b321 51be 3b3f b83d 9c3d 173c 4e0f 0c3e
00000110: b361 693d ab13 26bd e05b 683e 5848 2c3e
00000120: 2e6d 103e 97c5 0e3e 5538 083e 5b9f 3cbe
00000130: 71a5 38be 3bac 18be 7b70 e6bd 2000 b5bd
00000140: 779f 3a3d da20 103e c0db 3ebd 1b9e 4ebe
00000150: 2826 7bbe 07aa b33d ed81 d8bc 21db 053e
00000160: 86e0 55be 4e4b 2c3d 5a24 0f3d 7c88 86be
00000170: 703f dabd 4e4c 623e 272b 083e c03c 56be
00000180: 55a2 27be 12fe 40be 966c 2bbe 4b52 dcbd
00000190: 99b8 4fbc 3aac 8ebd 53e6 c5bd a7cd 893d
000001a0: 9ea8 32be 4134 9c3e ca8e e83d db76 9dbe
000001b0: 4618 22be 54a1 2b3d 3cd5 19be 99d8 ae3e
000001c0: c7b2 dc3d d731 24be 006e efba 7de8 82bc
000001d0: 9911 7a3d 5cf1 3cbd abc6 b43d 2c36 5a3e
000001e0: f789 183e 5e07 b83d c0bb b7bd ec5c 333b
000001f0: 40cb a73d 2998 493d cbb0 7a3c 4d64 f63d
00000200: 1243 9bbd b5e5 b4bd eb1e 0a3c b127 2fbd
00000210: d64d 8d3d 1a6f 243e 1430 2fbd 5ca8 d33d
00000220: 27c6 aebd 686e 12be fce1 04be bebb 65bd
00000230: ee78 60be ac5b 0ebe 7b8c efbd 2f28 4cbe
00000240: 1186 7cbd e48f 68bc f2c7 673d ac99 593e
00000250: 4661 0c3d fcd6 e0bd 74af 3ebe 594f a13c
00000260: bd3f c93d 7f83 4bbe fef4 b93d 3023 ddbb
00000270: aa63 26be 2f8c 143d 3bcb 8d3e 81c7 8a3e
00000280: 1255 e23d 094e b9bc fecd 4dbd 65b0 f7bd
00000290: 0906 ad3c 2fe7 bdbb 7eaf 95be f1fd 80bd
000002a0: 6e0a 2f3e 8fdd de3b 54b5 313e 30dc 8a3e
000002b0: 420b a23e 9fa7 b53e ce08 55bd a37f fc3b
000002c0: 280b e0bc 52ef 443d 9623 47bd b46f 00be
000002d0: eb08 c13e ea6d b33d a0e3 f93d 59c6 353e
000002e0: 1755 243e ba1b 78bc df86 8dbd 2e8a 6abc
000002f0: dc21 76bd fb5f 02be ac7f 88be 59d5 61be
00000300: f4d1 4dbe 6e7a e4bd a037 02be f0f8 7ebc
00000310: 6a97 913b 8d11 e8bb 9608 073e c65e 41bc
00000320: 077d 313e 3a33 743d 9609 423e cb88 fbbc
00000330: b8d0 913e 8fc3 7ebd ede4 f1bc c964 963d
00000340: 197d e7bd a004 3e3e 5a75 183b 0338 2ebd
00000350: 0086 16bd a298 1c3d 95b5 8cbd cfeb d2bd
00000360: f439 acbc 616a aebe 682c d8bd 6dc9 6a3b
00000370: a8e4 69be 1054 88bd 3fb5 97be b81b 92be
00000380: 6957 29be 9606 283e 6bac 0f3e 0f98 b6bd
00000390: 2d19 68bd 8b69 91bc 2d9f bb3e c819 973d
000003a0: 22b5 b5bd 66c7 70bd 6b76 2cbc d682 093d
000003b0: 56d6 d5ba e80b b43d 43dd b83d 2908 06be
000003c0: a396 1fbe a85b c4bd 94f3 47be d14f f8bd
000003d0: 45c1 78be b7ec 9abd d229 4ebc 04b0 babc
000003e0: e526 10bb 791a 18bc 76a9 b03c 7fe4 e6bc
000003f0: f1e9 873d df58 883d a226 a53e 0b63 713d
-0.056207865 0.04767496 -0.1178759 -0.17991872 -0.100209534 -0.1841744 -0.17422879 -0.17700073
-0.14472003 -0.24333882 -0.03812372 0.05015128 -0.12806925 -0.23926985 -0.3729597 0.045566034
0.13939917 0.018759357 -0.03893134 -0.031002102 -0.05577195 -0.10504706 0.09022876 0.09478923
-0.054086942 0.19199522 0.1644421 -0.051863775 0.257278 0.16382983 -0.09687353 -0.111314304
-0.25454703 0.10600491 -0.06103885 0.24321207 -0.1795895 -0.008757216 -0.05041095 -0.12482276
-0.03656722 -0.30735788 -0.13579331 0.017767392 -0.07350139 0.06321912 -0.04909821 0.017577894
-0.093475476 -0.15288682 0.22019675 0.110220745 -0.035342425 -0.14368232 -0.032368425 -0.044194438
-0.107843444 -0.15343343 -0.2098589 -0.0861051 -0.22744183 -0.22544383 -0.27697936 -0.15387917
-0.20423011 0.08996435 0.009230997 0.13677713 0.05697794 -0.0405461 0.22691298 0.16824472
0.14104149 0.13942562 0.13302739 -0.18420164 -0.18031861 -0.1490945 -0.11251923 -0.088379145
0.045562234 0.14075032 -0.04659629 -0.201775 -0.24526274 0.087726645 -0.026429141 0.13071872
-0.2088643 0.042064004 0.034946777 -0.26276004 -0.10656631 0.2209942 0.13297711 -0.20921612
-0.16370519 -0.1884692 -0.16740641 -0.10757884 -0.012678289 -0.06966443 -0.096630715 0.06728678
-0.17447135 0.30508617 0.1135536 -0.30754742 -0.15829572 0.0419019 -0.15022749 0.34149626
0.107762866 -0.16034637 -0.0018267035 -0.01598 0.06105194 -0.046128616 0.088269554 0.21309727
0.1489638 0.0898578 -0.08971357 0.0027368618 0.08193064 0.049217377 0.01530094 0.120308496
-0.07581152 -0.08832876 0.008430223 -0.042762462 0.06899612 0.16058007 -0.04277046 0.103348464
-0.08533888 -0.14299929 -0.12976831 -0.056087248 -0.21921131 -0.13902158 -0.116967164 -0.19937204
-0.061651293 -0.014194462 0.056587167 0.21250027 0.034272455 -0.10978505 -0.18621618 0.019691156
0.0982661 -0.1987438 0.09079932 -0.0067485794 -0.16248956 0.036266502 0.27694115 0.27105334
0.11051382 -0.022620218 -0.050245278 -0.120941915 0.021121042 -0.0057953815 -0.29235452 -0.062984355
0.17093822 0.006801314 0.17354327 0.27121115 0.31649214 0.35479447 -0.05201035 0.007705645
-0.02734907 0.048079796 -0.04861792 -0.12542611 0.37702116 0.08761199 0.12201619 0.17751445
0.16048084 -0.015143329 -0.0691049 -0.014315171 -0.060090885 -0.12731926 -0.26659906 -0.22054042
-0.20099622 -0.11156164 -0.12716532 -0.015562281 0.004443099 -0.0070821703 0.13186869 -0.011802381
0.1733285 0.059619166 0.18948969 -0.030704876 0.28479552 -0.062198218 -0.029528106 0.07343442
-0.11303157 0.18556452 0.0023263306 -0.042533886 -0.036748886 0.0382315 -0.068705715 -0.10298883
-0.021023728 -0.34065536 -0.10555345 0.0035825626 -0.22841132 -0.06656659 -0.29630467 -0.28536773
-0.1653725 0.16408762 0.14030616 -0.089157216 -0.056664634 -0.017750522 0.3664488 0.07377964
-0.08872439 -0.05878391 -0.01052628 0.03357204 -0.0016314487 0.087913334 0.09026577 -0.1308905
-0.15584807 -0.095877945 -0.19526511 -0.12124599 -0.24292476 -0.07564681 -0.012583213 -0.022789009
-0.002199584 -0.009283655 0.02156518 -0.028185127 0.06636418 0.06657576 0.32256037 0.058932345

conv3.weight_fake_quant.scale f4 [120]
00000000: 388e 423b 7da6 383b f6d4 2a3b dd27 463b
00000010: c4fe 893b f0e6 453a 4ec3 4a3b b40a 1c3a
00000020: cf6c 3c3b 962c 013b fdfe 543b 356e 483b
00000030: 66bc 383a 596d 993b 4acc 453b 58d1 5b3b
00000040: 6d06 583a 64e1 693b 25ea 423b a161 433b
00000050: 5323 233b 437c 4d3b f4b8 203a 31a8 503b
00000060: 8277 463a 4119 483b c137 3b3b a3ed 803b
00000070: 3a1a 333b 280e 683b 5417 703b f6c6 8c3b
00000080: 3e32 2e3b b77d 2a3b 8cbd 113a 710c 303b
00000090: bc42 263a c6a1 0d3b 9f82 af3a 7112 543b
000000a0: 489d 233a e5bb 153b 225a 2c3a 6b2e b43a
000000b0: c079 633b c4b0 603b bfbc 3a3b d30b 0d3b
000000c0: a47e 5a3b 2de9 3b3b f672 b73a c644 0a3a
000000d0: 74e2 353b a39f 573b 918e 3b3b 2a1b 1a3b
000000e0: 103d 443a f337 303b cc74 333b ca9c 523b
000000f0: 2474 423b b06b 3e3a a151 283b e67e 163a
00000100: 7c90 233a 66dd 493b a83d 693b 8f05 403b
00000110: 0192 233b 048d 103b 8120 2c3b 8b0b 153b
00000120: 1d16 2d3b 8939 683b 2717 633b 04a8 993b
00000130: c8f3 193a d879 5b3b ee81 2a3a def1 493b
00000140: 45a7 353b 9a66 8e3a 3e29 523a 9b4b 613b
00000150: d844 583b 0fd5 373b 9a3b 293a adcc 383b
00000160: 5ccc 783b 2ad5 0b3a 24f7 3a3b 5cf5 513b
00000170: 50c4 523b 090c 333b 0f40 5b3b cdf7 173b
00000180: 9f23 2c3b 4515 443b 25f3 6f3b a043 4c3b
00000190: 9294 623b aeb8 ec3a 8e88 4f3b 89c7 523b
000001a0: d119 803b 84a3 243b bb52 183a b3ce 483b
000001b0: 3482 623b c20b 713b 5a7f 573b 937b 223b
000001c0: 96d5 4e3b 38f1 4c3a 16e2 273a cd6a 303b
000001d0: f718 823b f2e6 573b 008f 293b 0aa2 1a3a
0.002968682 0.0028175407 0.0026066876 0.0030236163 0.0042112786 0.0007549366 0.0030939165 0.00059525226
0.0028751378 0.0019710413 0.0032500618 0.0030583267 0.00070471165 0.0046822247 0.003018158 0.0033541527
0.00082407036 0.0035687322 0.0029741612 0.002981283 0.002489288 0.0031354583 0.0006131076 0.003183853
0.00075709086 0.003053263 0.0028567167 0.0039345785 0.0027328865 0.0035408828 0.0036634998 0.004296179
0.002658024 0.0026014873 0.0005559556 0.0026862884 0.00063423417 0.0021611317 0.0013390369 0.0032359625
0.0006241393 0.002284759 0.000657471 0.0013746744 0.003471002 0.0034285048 0.002849385 0.002152194
0.0033339644 0.002867292 0.0013996053 0.000527453 0.0027753385 0.0032901547 0.0028618912 0.0023514726
0.00074859057 0.0026888817 0.0027382849 0.003213691 0.0029671276 0.00072639715 0.002568342 0.0005740955
0.00062394864 0.003080213 0.0035589729 0.0029300188 0.0024958851 0.0022056708 0.002626449 0.0022742476
0.0026410886 0.0035434684 0.003465125 0.0046892185 0.0005872813 0.0033489373 0.00065043464 0.003081433
0.0027718109 0.0010864318 0.000801701 0.003437734 0.0033000018 0.0028050577 0.00064557197 0.0028198168
0.0037963605 0.0005334193 0.0028528655 0.0032037115 0.0032160468 0.0027320406 0.003345493 0.0023188472
0.002626635 0.0029919904 0.0036613431 0.0031168237 0.0034573418 0.001806041 0.0031667086 0.003216239
0.0039093276 0.0025121877 0.00058106676 0.003064078 0.003456247 0.003678069 0.0032882304 0.0024792894
0.0031560413 0.0007817927 0.0006404234 0.0026919127 0.003970261 0.003294405 0.0025872588 0.00058987795

conv3.weight_fake_quant.activation_post_process.min_val f4 [120]
00000000: eceb bebe 1265 9bbe f6d4 aabe 27ca c0be
00000010: 775f 80be f0e6 c5bd 4ec3 cabe b40a 9cbd
00000020: 6429 acbe 962c 81be fdfe d4be 356e c8be
00000030: 66bc b8bd ccf6 9cbe 669c b5be bca5 b8be
00000040: 38e6 c5bd afe9 aabe 25ea c2be faea c0be
00000050: c4bd 86be 1335 a9be f4b8 a0bd 592c 9ebe
00000060: 8277 c6bd 4119 c8be c137 bbbe 98c9 7dbe
00000070: 12a2 9bbe 46c8 d4be 17a8 9abe 7156 8fbe
00000080: 3e32 aebe 3e04 43be 8cbd 91bd 3473 76be
00000090: bc42 a6bd 66d8 8bbe 0595 fdbd d1e9 c0be
000000a0: 489d a3bd 22fd 2bbe 225a acbd 0448 19be
000000b0: c079 e3be 2431 cbbe 198f 90be 6f73 8abe
000000c0: a47e dabe c8b3 b3be d6a6 19be c644 8abd
000000d0: 74e2 b5be 07f2 b4be 918e bbbe 2a1b 9abe
000000e0: 103d c4bd f337 b0be 3ab5 a4be ca9c d2be
000000f0: 91d8 97be b06b bebd a151 a8be e67e 96bd
00000100: 7c90 a3bd 2d81 a2be a83d e9be b80d 9abe
00000110: 0192 a3be 0fb7 67be 8120 acbe 5b6a 4abe
00000120: 1d16 adbe 8939 e8be b536 5bbe 23ce 9ebe
00000130: c8f3 99bd d879 dbbe 2a7c a8bd def1 c9be
00000140: 45a7 b5be 9a66 0ebe 3e29 d2bd 9b4b e1be
00000150: d844 d8be 85d4 92be 9a3b a9bd 1913 9fbe
00000160: 78e9 c2be 2ad5 8bbd 9a65 87be 5cf5 d1be
00000170: 7f58 90be 66b7 a3be 32f6 b4be cdf7 97be
00000180: 1b01 9ebe e176 6ebe 8890 b1be 59e3 bdbe
00000190: 9294 e2be aeb8 6cbe 8e34 cabe 89c7 d2be
000001a0: a86d 91be 84a3 a4be 9a5c 90bd 5615 bdbe
000001b0: 33c1 bdbe c20b f1be 9242 b3be cf4f 9cbe
000001c0: a30c bebe 38f1 ccbd 16e2 a7bd 7b62 4cbe
000001d0: 5345 bebe b5b5 9cbe 008f a9be 0aa2 9abd
-0.3728937 -0.30350548 -0.333656 -0.3765423 -0.25072834 -0.096631885 -0.3960213 -0.07619229
-0.3362533 -0.2522933 -0.4160079 -0.3914658 -0.09020309 -0.3065704 -0.35470885 -0.36063945
-0.09663051 -0.3338141 -0.38069263 -0.37679273 -0.26316655 -0.33048305 -0.07847777 -0.3089321
-0.09690763 -0.39081767 -0.36565974 -0.24783933 -0.30397087 -0.41559047 -0.30206367 -0.27995637
-0.34022707 -0.19044587 -0.07116231 -0.24067384 -0.08118197 -0.27313536 -0.12381939 -0.37678388
-0.079889834 -0.16795781 -0.08415629 -0.14968878 -0.44428825 -0.3968593 -0.28234175 -0.27041194
-0.42674744 -0.350981 -0.15005049 -0.06751399 -0.35524333 -0.35340902 -0.36632207 -0.3009885
-0.09581959 -0.34417686 -0.32169515 -0.41135246 -0.29657415 -0.092978835 -0.32874778 -0.07348423
-0.079865426 -0.31739178 -0.45554852 -0.30088592 -0.3194733 -0.22628425 -0.3361855 -0.19767134
-0.33805934 -0.45356396 -0.21407588 -0.31016645 -0.07517201 -0.42866397 -0.082268074 -0.39442343
-0.3547918 -0.13906327 -0.102617726 -0.44002995 -0.42240024 -0.28677765 -0.08263321 -0.31069258
-0.38068748 -0.06827767 -0.26444703 -0.41007507 -0.28192517 -0.3197586 -0.35344082 -0.29681244
-0.30860218 -0.23287536 -0.3468058 -0.37087515 -0.44253975 -0.23117325 -0.3949322 -0.41167858
-0.28403974 -0.32156003 -0.07048912 -0.3693034 -0.37061462 -0.47079283 -0.35011727 -0.3052964
-0.37119016 -0.10006946 -0.08197419 -0.19959442 -0.37162265 -0.3060738 -0.33116913 -0.07550438

conv3.weight_fake_quant.activation_post_process.max_val f4 [120]
00000000: 1c09 c13e 3035 b73e f83d 633e 8d9b c43e
00000010: c6ea 083f 4a33 bd3d 7843 b33e 4ebf 6c3d
00000020: f5f3 ba3e 609e 623e c769 d13e 7564 943e
00000030: 0c53 b53d 7e3a 183f b140 c43e b519 da3e
00000040: 6056 d63d a10d e83e 84a6 ac3e deda c13e
00000050: 0cdd a13e 4ae1 cb3e b431 633d e106 cf3e
00000060: 0e24 c03d 7e17 7a3e 799f 9b3e 90d7 ff3e
00000070: 06b4 b13e 0c3e e63e 2537 ee3e 68ad 0b3f
00000080: 9633 943e bc28 a93e fe14 3e3d 58ac ae3e
00000090: 58b1 543d 8286 8c3e 9a23 2e3e 4c6a d23e
000000a0: dad3 583d 6d90 943e 2e34 5b3d 0ec6 323e
000000b0: 4a90 c23e 62ef de3e 4647 b93e bbf1 8b3e
000000c0: 3603 bb3e 5b71 ba3e 1004 363e c2ae 493d
000000d0: 0d8c 9e3e 64f0 d53e c01c 853e ddf4 433e
000000e0: 4671 a63d 8a51 a33e e20d b23e 00f2 9f3e
000000f0: 3cef c03e 4817 973d 858f 8c3e a086 203d
00000100: c2d8 863d ab49 c83e fc0b b93e 8485 be3e
00000110: 37df 9b3e ea6b 8f3e e935 aa3e 74e1 933e
00000120: 6629 693e 37c9 be3e f950 e13e b474 183f
00000130: dae9 8a3d 96db d73e ea2c a93d 97d9 bb3e
00000140: 4a94 983e 9ef6 d03d 3e16 9a3d b760 ae3e
00000150: 95a0 a43e 6565 b63e 0864 653d 145b b73e
00000160: c3da f63e 5e0f 633d 3681 b93e b85d b53e
00000170: c71e d13e f1a5 b13e 8f89 d93e 5227 953e
00000180: 58cb aa3e 1a8d c23e 3f13 ee3e 19ab ca3e
00000190: 6c2f d23e a6d4 5f3e 7de9 cd3e ec8a 933e
000001a0: 3b33 fe3e bbf9 823e 1622 973d 163d c73e
000001b0: 30bd e03e 82c1 b33e 5bd0 d53e 9c36 a13e
000001c0: eb37 cd3e 98d8 b33d 3078 853d f709 af3e
000001d0: c514 013f 2437 d63e f623 703e b426 4d3d
0.37702262 0.35782766 0.22191608 0.38399926 0.53483236 0.09238298 0.35012412 0.05779963
0.3651425 0.22130728 0.40901014 0.28982893 0.088537306 0.5946425 0.38330606 0.42597738
0.104656935 0.45322898 0.3372079 0.37862295 0.31613958 0.3982032 0.055467322 0.40434936
0.09381877 0.24423024 0.30395105 0.4996915 0.3470766 0.44969213 0.46526447 0.5456147
0.28945607 0.3303889 0.04640674 0.34115863 0.05192694 0.2744637 0.17005768 0.41096723
0.052936412 0.29016438 0.05351656 0.17458364 0.3800071 0.4354201 0.3618719 0.27332863
0.36525887 0.36414608 0.17774987 0.049238928 0.30966225 0.41784966 0.25998497 0.19136377
0.08127074 0.31898147 0.34776217 0.3123932 0.3768252 0.073774874 0.27453247 0.03919089
0.06584312 0.39118704 0.36141956 0.3721124 0.30443737 0.2801202 0.33244255 0.28882945
0.22769699 0.3726289 0.4400709 0.59553075 0.06782885 0.42159718 0.0826052 0.36689445
0.29800636 0.102032885 0.075237736 0.34058163 0.32153764 0.35624233 0.0560036 0.35811675
0.48213777 0.055434577 0.36231393 0.35423064 0.40843794 0.34696916 0.4248776 0.29131562
0.33358264 0.37998277 0.4649906 0.39583662 0.41051805 0.21858463 0.402172 0.28816926
0.4964846 0.25581154 0.07379548 0.38913792 0.4389434 0.35108572 0.41760525 0.31486976
0.40081725 0.08781546 0.065170646 0.3418729 0.50422317 0.41838944 0.23451218 0.05008574

fc1.weight f4 [84, 120]
00000000: e86c e3bd cd08 2c3d 53a6 8dba d361 953d
00000010: b5c2 b23e 84f0 a5bc d77f 32be 437a 36bd
00000020: 97b4 4cbd 4753 4dbd 00e9 dd3c 55c3 81bd
00000030: dda0 df3d 6a58 6b3d 5540 f73d 34fd 15be
00000040: 75dd df3c 759c 973c 4810 11be f935 d6bd
00000050: 6041 1cbe 53e3 b1bd 016e b7bb 895c 343e
00000060: 4748 6cbd 8f14 c6bd 19ed c2bd b44e 3f3e
00000070: 533c 103e a9be 24bd 7883 e33d 370b bf3d
00000080: 3f4e c9bd bfb1 083e 3090 c63b eef5 03bd
00000090: f5b1 9f3d 6748 96be 025b 2bbc 5d0d c5bb
000000a0: 6746 9fbd 1ee9 74bd 64c0 b23a d5b2 39bd
000000b0: 279c 1c3d 9649 05be 41ad 463d d71e 60bd
000000c0: a901 21be cf7b a4bd e7f0 b1bd cecd 63bc
000000d0: e6ba 433c 66f3 b43e 81e6 cfbd 9c24 febd
000000e0: ec2b a63c e876 97bd e820 5ebd 7c01 063d
000000f0: c61e 14bd 90e3 193d 9df8 113d 2873 173d
00000100: 8b68 e23d 5254 283e c685 17bd 52e7 d7b9
00000110: 7668 ccbd 523a 403e bb03 0f3e f858 023e
00000120: 67de a8bd a2ec 6cb8 f25f 95bd 420f a53e
00000130: 9b5b 7abd c7c8 8cbc 08ef 743d 8f1d a53d
00000140: d93e 95bc 24fa 57bc 8837 3dbd 4e64 bebd
00000150: 191e ba3c 6e12 89be 00df ae39 b1c3 36bd
00000160: 7ed1 bc3d 7a23 f5ba 66c4 553a d6e8 b0bd
00000170: e55b 103e 25af e0bc 6180 28bd 06b0 01bc
00000180: 1cdb d2bc b28f c33c bb8b 1dbd bfd9 70bd
00000190: 992c 3dbe 1800 35bd f662 5fbd f11a 253c
000001a0: bf54 213e 2bcc 13bd ca69 8fbd 954e 023f
000001b0: a06b 17be 04f9 5d3d 9ab6 adbd b782 0d3c
000001c0: 1055 113d 8b7e 0d3d 765b a0bd fdb4 90bc
000001d0: abea a23d 7011 ce3b 3765 cfbd 30df d23c
000001e0: 6e67 b93e d02b 903d 6e6a a83d c1a0 6dbe
000001f0: c3fe b63d c90e 77bd a7f8 6b3e c322 19bd
00000200: e3d1 033e cc04 003e f9fa a93d 29c0 82bd
00000210: 0eb8 af3d da95 9b3d 6793 8c3e 87a7 283e
00000220: ba24 9b3c 7819 2f3e 8fc9 86bc 9d36 0d3d
00000230: cf87 65be 60e0 c53c ce51 babd f500 cd3d
00000240: 3174 89bc e663 b6bb 31c0 b83d 9ec6 f63d
00000250: 84d9 783e a895 4b3e 0436 283e 0996 613d
00000260: 1aa7 15bb de30 403e a197 863d d81c 173d
00000270: eeb7 10bb 7086 6cbe f0fd 17bd bb33 0b3e
00000280: fe81 4b3d 305c 58bd e17a 973d 8e95 77bc
00000290: 7a59 41be 2a24 363b a725 8f3d 7c8d bebd
000002a0: c81a 363e be81 313e 7626 c2bd 6a95 81bd
000002b0: 4dc0 1cbe 87a7 f43d 6aac 1dbd fdc9 033d
000002c0: 4fd6 99bd 98ef 213c 5a13 283d e0ae ac3e
000002d0: c58a d43d ec23 983d 9f9c af3c f391 893d
000002e0: e79a 7fbd 39b0 8c3e add7 163e a25d 6c3e
000002f0: 05b1 76bc f0ee a13d bcd1 393d 0b9b 25bd
00000300: 67d2 68bc 0f08 95be 0df8 aabb b752 c33e
00000310: 8108 71bd cc1d 8d3e 9da3 93bd 7d56 763e
00000320: ba59 343e 673d 82bd 6139 64bd c30f 68be
00000330: cd66 68be 8fc4 083e efef 68bd 632c 893c
00000340: 2476 ab3c cb36 29bd ce3e 133d e962 023e
00000350: 54ae 7e3e 3534 6d3d 8c34 973e e43a 323e
00000360: 4711 a93d be51 db3d 8a76 083e efc9 6d3d
00000370: 1796 223e 2a98 bebd ab6e f53d 1d09 07be
00000380: 47b2 1dbd c792 403d 7e55 533d 71c7 9c3d
00000390: 5b26 693e 33b3 783e 71c6 473d 498a 8c3d
000003a0: 301e 643e f3d1 313d f2fb ea3c c4e1 003e
000003b0: 9fe7 823e b0c5 693e 8e4f 9c3d a75e 2c3d
000003c0: 5ab9 a3bc 2e49 7dbd 21dd 43bd fc80 833e
000003d0: 508f 80bc 7ca4 9fbc 1854 9ebb 76be c93c
000003e0: 2119 c0bc b503 a8bd 8c87 90bc b33a 32bd
000003f0: 0023 c1bd b235 483e ac3e 98bd 5e0d 0fbe
-0.111047566 0.04200058 -0.0010807015 0.07294049 0.34914175 -0.020256288 -0.1743158 -0.04455019
-0.04997691 -0.050128248 0.027088642 -0.06336085 0.10919354 0.057457365 0.12072817 -0.1464737
0.027327279 0.018507222 -0.14166367 -0.10459513 -0.15259314 -0.08685937 -0.0055978303 0.17613424
-0.057686117 -0.0967189 -0.09517879 0.18682367 0.14085512 -0.04022089 0.1110906 0.09328311
-0.098293774 0.13349055 0.006059669 -0.03221696 0.077976145 -0.29352114 -0.01045871 -0.006013556
-0.077771 -0.05979263 0.0013637659 -0.045336563 0.038234856 -0.13016352 0.04850507 -0.05471691
-0.1572329 -0.08031427 -0.086885266 -0.013904048 0.0119464155 0.35341948 -0.10151387 -0.124093264
0.020284615 -0.073957264 -0.0542306 0.03271626 -0.03616216 0.037570536 0.035637487 0.036975056
0.11055096 0.16438416 -0.03699281 -0.00041180343 -0.09980862 0.18772247 0.13966267 0.12729251
-0.08245545 -5.6487166e-05 -0.07293691 0.32238203 -0.061122518 -0.017185582 0.05979827 0.080622785
-0.018218445 -0.013182197 -0.046195537 -0.09296475 0.02271943 -0.26771873 0.00033354014 -0.04462022
0.09219645 -0.001870259 0.0008154571 -0.0863816 0.14097555 -0.027427265 -0.041138057 -0.007915502
-0.025739245 0.02387223 -0.038463335 -0.05880141 -0.18474044 -0.044189543 -0.054537736 0.010077224
0.15754984 -0.03608338 -0.070025995 0.50901157 -0.1478715 0.054192558 -0.08482094 0.008637122
0.035481513 0.03454451 -0.07829945 -0.017664427 0.079549156 0.0062887 -0.10126727 0.02574119
0.36211723 0.070396066 0.08223425 -0.23205854 0.08935311 -0.060316835 0.23044072 -0.037386667
0.12873034 0.1250183 0.08299822 -0.06384308 0.085800275 0.07596941 0.2745621 0.16470157
0.018938411 0.1709956 -0.016453533 0.03447591 -0.22415088 0.024154842 -0.09097634 0.10009948
-0.016779037 -0.005566108 0.090210326 0.12049602 0.24301726 0.19881308 0.16426855 0.055074725
-0.0022835196 0.18768641 0.0657189 0.036892742 -0.0022082287 -0.23098159 -0.037107408 0.13593952
0.049684517 -0.05282229 0.07396484 -0.01511134 -0.18881789 0.0027792552 0.069896035 -0.0930433
0.17783654 0.17334649 -0.09479992 -0.063273266 -0.15307732 0.11946016 -0.038494505 0.032175053
-0.07511579 0.009883784 0.04103408 0.3372717 0.10378031 0.074287266 0.021436987 0.06717291
-0.062403586 0.27478197 0.14730711 0.23082593 -0.015056853 0.07906902 0.045366034 -0.040431064
-0.01421032 -0.2910771 -0.0052175582 0.38149044 -0.058846 0.27561796 -0.07208941 0.2405643
0.17612353 -0.06359368 -0.055718783 -0.22662263 -0.22695465 0.13356231 -0.056869444 0.016744798
0.020930357 -0.04131202 0.035948567 0.12733044 0.24871188 0.057911117 0.29532278 0.17405277
0.082552485 0.107089505 0.13326469 0.058053907 0.15877567 -0.09306367 0.11983999 -0.1318707
-0.038500097 0.047014978 0.051595204 0.07655228 0.22768538 0.24287109 0.048773233 0.06862313
0.2227714 0.043413114 0.02868459 0.12586123 0.25567338 0.22829318 0.07632361 0.042082455
-0.019985843 -0.061837368 -0.047818307 0.25684345 -0.015693337 -0.019487612 -0.004831802 0.024626952
-0.023449482 -0.08203832 -0.017642759 -0.04351301 -0.09430504 0.19551733 -0.07433829 -0.13969943

fc1.weight_fake_quant.scale f4 [84]
00000000: c942 833b 51be 443b 55ca 0a3b dc1b 313b
00000010: 98d3 7a3a 49f7 833a e8d5 fb3a 3066 4c3b
00000020: 3ef7 713a f7c4 ac3a 9838 0b3b 0af4 b93a
00000030: 57c2 313b f379 ca3a 6cff 543b b6e6 5c3a
00000040: 7bb6 873a 4d5a 3f3b da4e 923a 5647 883b
00000050: 8782 5c3b 0c40 7a3b 7d9e 233b 1353 483b
00000060: 17df 073b a985 1f3b 27f1 423b eb91 283b
00000070: b6f6 463b af3d 863a be66 353b 2dcf 043b
00000080: 0017 563a 2e6f 1d3b 9892 773b 65ce 503b
00000090: 0e14 3c3b 78e7 473b e816 223b 94c1 763a
000000a0: 2cbe 933a 2684 5a3b 75ce 583b 042b 3c3b
000000b0: 6010 b73a 7b71 403b 08b6 5c3b 9831 fe3a
000000c0: 78a5 333b a7b4 4f3b bc8f 2e3b f230 4e3b
000000d0: c2f6 243b e8ec 513b 2aa2 3a3b bb1a 733b
000000e0: 498a 343b f310 583b ddfd 3c3b 8674 313b
000000f0: 6a86 223b 44fa 4b3b 3be5 563b b33a 0f3b
00000100: 6f46 4c3b 9ef5 373b 14ff 513b 50cb 4f3b
00000110: aa91 5e3b 7c65 743a b609 8b3a c9b6 0b3b
00000120: 3a1e 383b 2a5d 6d3b cf16 1a3b 772d 213b
00000130: 3407 6f3a 3ec0 433b a904 7e3b 891a 683b
00000140: cb14 263b 4ffd 593b 23af 3e3b f077 9f3a
0.004005764 0.0030020664 0.0021177728 0.0027024662 0.0009568273 0.0010068204 0.0019213529 0.0031188838
0.00092302624 0.0013181259 0.002124345 0.0014187109 0.0027123892 0.0015447721 0.0032500876 0.00084267126
0.0010354066 0.002919811 0.0011162416 0.0041588945 0.0033647136 0.0038185148 0.0024966293 0.0030567094
0.0020732337 0.0024341142 0.0029745789 0.002572174 0.0030359454 0.0010241772 0.0027679647 0.0020265088
0.00081668794 0.0024022567 0.0037776586 0.0031861302 0.0028698477 0.0030502956 0.0024732891 0.00094130007
0.0011271886 0.0033342927 0.0033082042 0.0028712163 0.0013966672 0.0029364515 0.0033677835 0.0019393442
0.002741186 0.003169337 0.0026635965 0.003146228 0.0025171493 0.0032032076 0.0028478005 0.003709479
0.0027548245 0.0032969087 0.0028837838 0.002707751 0.0024799355 0.0031124512 0.003279044 0.0021855056
0.0031169911 0.0028069983 0.0032042908 0.0031706877 0.0033961334 0.00093229837 0.0010607752 0.0021318665
0.0028094188 0.003621886 0.002351213 0.002459375 0.00091182 0.0029869224 0.0038760102 0.0035416207
0.0025341983 0.0033262556 0.002909609 0.0012166481

fc1.weight_fake_quant.activation_post_process.min_val f4 [84]
00000000: 3848 96be 63f2 94be b057 41be dc1b b1be
00000010: 98d3 fabd 24c9 03be 345b 52be 7220 a7be
00000020: 3ef7 f1bd 2ec1 1abe 255f 8abe ecca 2ebe
00000030: 61d2 89be 7971 3dbe 6cff d4be b6e6 dcbd
00000040: 7bb6 07be e843 86be da4e 12be 33bd 97be
00000050: fbc2 b6be a966 d8be fde0 5abe 1353 c8be
00000060: 17df 87be a985 9fbe 27f1 c2be cb2e 7dbe
00000070: 1d02 85be ce27 01be f386 5ebe dbfd 38be
00000080: 0017 d6bd f6b1 30be de61 99be c086 71be
00000090: 3dab 9abe 78e7 c7be e816 a2be 94c1 f6bd
000000a0: 2cbe 13be b66f a8be c691 9cbe cdf1 87be
000000b0: 6010 37be ce13 8cbe 23c7 a7be 3c42 4abe
000000c0: 78a5 b3be b77e 94be 556e a9be f230 cebe
000000d0: 37b7 8fbe 9f71 bbbe b851 89be efdb b7be
000000e0: 9a6c 73be ef1d 73be b341 76be f10f 87be
000000f0: 15e4 83be 68bc 7fbe b616 a7be 0d92 41be
00000100: aaec 98be fdce b0be 14ff d1be 973f 7ebe
00000110: 5db9 dabe 7c65 f4bd b609 0bbe c9b6 8bbe
00000120: 4909 a1be ec9a c3be 7122 90be 387b 75be
00000130: 3407 efbd e1fa a2be 757d aebe 8ea2 b6be
00000140: 1c8b 6cbe c078 92be 23af bebe f077 1fbe
-0.29351974 -0.29091176 -0.18881106 -0.34591568 -0.122473896 -0.12869698 -0.20542604 -0.3264194
-0.11814736 -0.15112755 -0.27025715 -0.17069596 -0.2691832 -0.18500318 -0.4160112 -0.10786192
-0.13253205 -0.26223683 -0.14287892 -0.29636535 -0.35695633 -0.42265823 -0.21374889 -0.3912588
-0.26537392 -0.31156662 -0.3807461 -0.24724881 -0.25978175 -0.1261284 -0.21731167 -0.18065588
-0.10453606 -0.17255387 -0.2995748 -0.2358656 -0.3020877 -0.39043784 -0.316581 -0.12048641
-0.14428014 -0.3289773 -0.30579966 -0.26551667 -0.1787734 -0.2735886 -0.32769117 -0.19751829
-0.3508718 -0.29002926 -0.3309199 -0.40271717 -0.2806947 -0.36610124 -0.2682016 -0.35909984
-0.23771897 -0.23741888 -0.240485 -0.2637935 -0.2575995 -0.24974215 -0.32634515 -0.1890337
-0.2986806 -0.3453292 -0.41014922 -0.24828945 -0.42719546 -0.11933419 -0.13577923 -0.27287892
-0.31452397 -0.38204134 -0.28151277 -0.23972785 -0.11671296 -0.3183203 -0.3408009 -0.35670894
-0.23099941 -0.2860775 -0.37242994 -0.15573096

fc1.weight_fake_quant.activation_post_process.max_val f4 [84]
00000000: 433c 023f d434 c33e c0b4 893e 596d ac3e
00000010: 4228 ba3d 5aef 023e 3cde 793e 64cd ca3e
00000020: cae8 bf3d 6d6b 2b3e 2722 8a3e 2280 383e
00000030: d25e b03e ffe4 483e 9593 bb3e 90fe c43d
00000040: 98a0 e53d 98db bd3e e8b9 b83d c736 073f
00000050: 82c9 da3e 8c4b f83e 4057 a23e 13ff 833e
00000060: 3065 413e 8439 8d3e e7bd b23e c740 a73e
00000070: c968 c53e 3431 053e f1fb b33e 8fc5 833e
00000080: b075 bc3d 5034 9c3e 73a3 f53e c82c cf3e
00000090: e69b ba3e a0c8 c13e ce58 4c3e 221a 893d
000000a0: 8a16 a43d 1ecf d83e d81c d73e aeb2 ba3e
000000b0: d892 e83d 98f0 be3e 9cfc da3e 3535 7c3e
000000c0: 7d0c 943e 3e15 ce3e 9d32 ad3e 6a57 ad3e
000000d0: d4ac a33e 0e49 d03e e62c b93e 8634 f13e
000000e0: 3421 b33e d160 d63e e183 bb3e 9d11 b03e
000000f0: 5d41 a13e 4f62 ca3e 7137 d53e 3e1c 8e3e
00000100: e2ad ca3e b385 b63e 5519 c03e b92b ce3e
00000110: 87d4 dc3e 702e c33d be2d 893d 637a 873e
00000120: fead b63e 7082 eb3e a1e2 983e 1ceb 9f3e
00000130: 16a0 b73d be38 c23e a008 fc3e 544a e63e
00000140: a1c8 a43e 5449 d83e fa29 a93e 0084 ba3d
0.508732 0.38126242 0.26895714 0.33677176 0.0908971 0.12786618 0.24401182 0.39609826
0.09370573 0.16740198 0.2697918 0.18017629 0.34447342 0.19618605 0.36636034 0.096188664
0.112122715 0.370816 0.09019834 0.5281796 0.42731863 0.48495138 0.3170719 0.25780544
0.18886256 0.27582943 0.3491051 0.3266661 0.38556507 0.13007051 0.35153154 0.25736663
0.092021346 0.3050866 0.47976264 0.40463853 0.36447066 0.37848377 0.19955751 0.066944376
0.080121115 0.42345518 0.42014194 0.36464447 0.11356133 0.37292933 0.4277085 0.24629672
0.28915778 0.40250582 0.33827677 0.33855754 0.31967795 0.40680736 0.36167067 0.47110385
0.3498627 0.4187074 0.36624053 0.34388438 0.3149518 0.39528129 0.4164386 0.27755922
0.39585787 0.3564888 0.37519327 0.40267733 0.43130895 0.095303416 0.06698178 0.2646056
0.3567962 0.45997953 0.29860404 0.31234062 0.08966081 0.37933916 0.4922533 0.44978583
0.32184318 0.42243445 0.33039838 0.09107208

fc2.weight f4 [1, 84]
00000000: d949 f9bd 945f 06be cb5c ad3d 6907 273e
00000010: b822 383d 1b06 ab3b a054 3c3e 8b89 af3e
00000020: afb7 613d 334e d33a c669 463e ba95 a33c
00000030: a012 62be 489d 183c f9f5 903e 1d4c c63d
00000040: c6e6 ec3b 8282 8bbe bef0 b33c debd 52be
00000050: 9057 75be 1fd9 46be 5004 2c3d 7900 49bd
00000060: 18ed 7d3d 4c00 6a3e 5487 ef3d fdbd da3d
00000070: a188 38be 325e 063c 29be 0bbe 246a 9dbd
00000080: 90fa c63c 648c 013e eebb 1ebe 1815 8dbe
00000090: c88c 903e 4f6f a63e f133 4f3e 0034 5a3b
000000a0: 3c4d c03c caed 28be ef30 a33e 2ab7 743e
000000b0: 1515 1239 5806 2f3e bf3f 39be 52c3 0d3e
000000c0: 6adf 8a3e 4c28 9abe 4f51 19be 2595 09be
000000d0: 0b4a 2a3e f65d 523e 0aff 553e d033 2abe
000000e0: fc91 ab3e 1d62 d13e 29c2 863e 5f12 d03e
000000f0: 5a29 443e 35e3 16be 7345 0bbe 6362 093e
00000100: c483 70be cdd3 643e bb68 703e 720d 893e
00000110: ce85 0fbe 7a3a 813d 5b34 cbbb bcdf 263e
00000120: 15aa 983e e13e 21be 87e8 3c3e 012d 2f3e
00000130: c6d1 8bbc b16e 493e adb5 43be c149 3dbe
00000140: cae6 9a3d ad3f 203e 214d 4abe b229 c73b
-0.121722884 -0.13122398 0.084649645 0.1631142 0.044954985 0.0052192337 0.18391657 0.34284624
0.055106815 0.0016121328 0.19376287 0.019968856 -0.22077417 0.0093148425 0.28312662 0.09682486
0.007229659 -0.27248007 0.02196538 -0.20580241 -0.23959184 -0.19418763 0.0419963 -0.049072716
0.06199369 0.22851676 0.11695734 0.10680769 -0.1802087 0.008201169 -0.13646759 -0.0768626
0.0242894 0.12651211 -0.15501377 -0.27555156 0.28232408 0.32506797 0.20234658 0.0033295155
0.023474328 -0.1649696 0.3187327 0.23897997 0.00013931499 0.17092264 -0.18090723 0.1384404
0.27123576 -0.3010887 -0.14972423 -0.134358 0.16629808 0.20543656 0.20898071 -0.16621327
0.33509815 0.40895167 0.26320007 0.40639016 0.191564 -0.1473511 -0.13600712 0.13416438
-0.23487765 0.2234642 0.23477452 0.2676807 -0.14015886 0.06309982 -0.0062013096 0.16296285
0.29817262 -0.15746643 0.18448077 0.17107011 -0.017067801 0.19671132 -0.19112273 -0.18485166
0.07563551 0.1564929 -0.19755985 0.0060779685

exp_avg f4 [6, 2, 5, 5]
00000000: 9ffc 5e3c 44eb 4d3c a87e 373c 4161 0f3c
00000010: f322 023c d573 5b3c 8b1f 4f3c 6aa4 513c
00000020: 032f 3a3c 6111 463c e753 493c db05 313c
00000030: a3a3 223c ee31 1f3c 9f54 5c3c 7459 5a3c
00000040: f930 333c 609c 1d3c d292 0a3c 1adb 5e3c
00000050: dea2 443c 4c37 413c 32f4 003c 2344 e93b
00000060: c9fa 373c c345 403c e897 113c d483 a23b
00000070: 5e3e 953b 01fa 543a 54fd 603c faa5 5d3c
00000080: 4f61 363c a92c 013c 9622 c03b 2a2a 3d3c
00000090: 3fcb 4b3c 5780 363c 10fb 1d3c 7420 093c
000000a0: fc3e 4d3c 2754 513c ad09 3d3c e05d 623c
000000b0: a53b 623c 3643 333c 2776 3f3c ab08 5c3c
000000c0: 9391 7e3c 120a 823c 8b8e 4c3d a300 543d
000000d0: 092f 573d 4e3d 533d af28 563d 28e7 393d
000000e0: f7c4 483d b958 513d 3534 4d3d a0cc 503d
000000f0: 7fe1 303d 66dc 3b3d 3d05 493d 2ea9 443d
00000100: 7b1f 463d 6233 283d d1ca 2b3d 9eca 383d
00000110: b4c6 3d3d 6dd5 473d cb42 233d 5d4d 1c3d
00000120: 234f 253d 19bf 2d3d 57d9 403d 9c07 323d
00000130: 2947 373d 5971 493d 7317 533d 16e4 553d
00000140: 8af1 383d 6717 383d 3301 483d ba58 513d
00000150: 398b 523d 6597 2c3d 8ec9 343d e1aa 433d
00000160: d03b 503d b42d 4e3d 5b54 293d 67c9 303d
00000170: 08a0 3f3d 5a85 4e3d ab84 503d 45b0 313d
00000180: e62e 263d 9e64 343d 529e 473d f7f4 4a3d
00000190: b20f 163d 1413 fd3c 48dd f23c 8942 e33c
000001a0: aff5 fe3c 0f97 053d 26f8 f23c 01f3 043d
000001b0: a408 0c3d 55d6 283d b1d1 053d 2bf7 e73c
000001c0: 97d6 033d 5e58 1a3d d3e0 343d 1581 f33c
000001d0: b1bc db3c 3b6b f73c 869c 023d 3f1a 133d
000001e0: 9950 ec3c f2af ca3c 0802 e73c 944d f83c
000001f0: 2e98 ea3c 07d9 7b3c 31b2 5b3c 4c0d 923c
00000200: c546 ae3c 9c8d 9c3c be55 5d3c 12d7 423c
00000210: c39a 983c ea30 b63c 3564 c33c 9240 7c3c
00000220: 643b 0d3c 7236 a43c ef5c d13c 5530 cf3c
00000230: fc73 8c3c d496 503c a936 c03c f3e4 d33c
00000240: 253b ef3c 0786 883c 9601 8f3c b901 bc3c
00000250: 2588 d53c fda5 dd3c b29d 3ebd 9fe4 37bd
00000260: eabd 3abd ba63 42bd 1057 4dbd 7cd5 43bd
00000270: c05e 40bd bd7f 47bd 9afa 4ebd 4333 52bd
00000280: 5e18 4cbd 6946 4bbd 9250 4ebd 84bf 55bd
00000290: d96c 57bd 3f4f 55bd e151 54bd d78a 57bd
000002a0: f52c 5abd 7ae8 5bbd f1c0 54bd 3a65 4dbd
000002b0: 3183 4dbd 9fbd 4cbd e283 4ebd dd97 21bd
000002c0: 9abe 27bd 9c5b 23bd 892d 2ebd d598 32bd
000002d0: 3292 28bd 0230 28bd 172d 27bd c978 33bd
000002e0: cfbe 36bd f100 32bd 6d02 33bd 48f7 34bd
000002f0: 98ee 3bbd c9c0 3ebd 2d91 3cbd 4228 3abd
00000300: 30bb 3abd 84ca 3ebd 9854 47bd 20bf 40bd
00000310: 031e 3abd 7f46 3dbd bb6c 3fbd 6aa9 45bd
00000320: 5a3f aaba 42d2 f13a 3daf 2a3b 3aeb 693b
00000330: 1132 613b 6a3b 18bb c59f 9d3a 9cb7 e73a
00000340: 16dc 173b aacb 513b 89fe 01bb b95a 87ba
00000350: e116 1aba b600 943a 133f 2b3b 6359 15ba
00000360: 8e15 10b9 1df1 fab9 1a9c 813a d1da 533b
00000370: cd4b 4d3b dd3f 493b 1c7e 273b 5bf2 f63a
00000380: ef14 3b3b 8f2b 433b caa0 5a3b 4977 4f3b
00000390: ff24 843b bedb 8b3b ebf7 0d3b b3fc 3e3b
000003a0: b806 2e3b dcb9 703b e204 8d3b 0c68 bf3a
000003b0: b292 e33a cee1 053b b914 483b 0453 8f3b
000003c0: 5750 fc3a f089 cf3a e290 1d3b ec02 703b
000003d0: 633e 983b eeae 043b 4241 1a3b 6f72 143b
000003e0: bb2a dd3a 5286 503b 7a47 1a3c 5f79 1a3c
000003f0: 7bf9 233c 75c1 1a3c b92d 223c 54fb 173c
0.013610034 0.012568299 0.011199631 0.0087512145 0.007942903 0.013394316 0.012641798 0.012795547
0.0113637475 0.012089104 0.01228807 0.010804619 0.009926709 0.009716494 0.01344791 0.013326991
0.010936969 0.009619802 0.008457856 0.013602043 0.012001721 0.011792969 0.007870721 0.0071187182
0.011229225 0.0117353825 0.008886315 0.004959563 0.004554554 0.00081244117 0.013732273 0.013528341
0.011131599 0.007884183 0.005863498 0.011545697 0.012438594 0.011138997 0.0096423775 0.008369554
0.012527224 0.012776411 0.011537951 0.013816327 0.013808166 0.010941317 0.011685885 0.013429801
0.015537637 0.015873943 0.049940627 0.05175842 0.05253509 0.051572137 0.052284893 0.045386463
0.049015965 0.051110003 0.050098617 0.050976396 0.0431838 0.045864485 0.04907726 0.048012905
0.048369866 0.041064627 0.041941468 0.045115106 0.046332076 0.048787523 0.03985862 0.038159717
0.040358674 0.042418573 0.04708227 0.043464288 0.044745598 0.049180362 0.051536035 0.052219473
0.045152225 0.044944193 0.04882927 0.051110007 0.051402304 0.04213657 0.04413753 0.047770385
0.05083829 0.050336555 0.041340213 0.043160822 0.046783477 0.050420143 0.050907772 0.043380994
0.04057207 0.04404127 0.04873497 0.049550023 0.036636062 0.030892886 0.02964653 0.027741687
0.03112301 0.032614764 0.029659342 0.03245831 0.034187928 0.041220028 0.03267068 0.028316101
0.03218707 0.03768193 0.04415972 0.029724637 0.026823374 0.030202499 0.031887554 0.035913702
0.028847026 0.0247421 0.02819921 0.03031043 0.028637018 0.015371568 0.013409183 0.017828606
0.02127398 0.019110493 0.013509212 0.011892097 0.018628484 0.02224012 0.023851493 0.015396254
0.008620117 0.020045493 0.02555701 0.025291601 0.01714515 0.012731273 0.023463564 0.025866007
0.029203007 0.016665472 0.01745681 0.02295004 0.026065895 0.027056688 -0.04653711 -0.044895764
-0.045591272 -0.047458388 -0.050131857 -0.047811016 -0.04696536 -0.048705805 -0.05053196 -0.05131842
-0.049827926 -0.049627695 -0.050369807 -0.052184597 -0.05259404 -0.052077528 -0.0518359 -0.052622642
-0.05326553 -0.053688504 -0.051941816 -0.050145365 -0.050173942 -0.049985524 -0.050418742 -0.03945147
-0.040953256 -0.039882287 -0.042523894 -0.043602783 -0.041155048 -0.04106141 -0.040814485 -0.04381636
-0.044615563 -0.04345793 -0.043703485 -0.04418114 -0.045881838 -0.046570573 -0.046036888 -0.04544855
-0.045588672 -0.046579853 -0.04866466 -0.04705727 -0.045438778 -0.04620981 -0.046734553 -0.04825727
-0.0012988851 0.0018449503 0.0026044392 0.0035693184 0.0034362117 -0.0023228773 0.0012025764 0.0017678621
0.0023171953 0.0032012262 -0.0019835553 -0.001032672 -0.0005878043 0.0011291716 0.0026130124 -0.00056972186
-0.0001374094 -0.0004786336 0.0009888441 0.003232647 0.0031325698 0.0030708231 0.0025557345 0.0018840538
0.0028546413 0.0029780602 0.0033359998 0.0031656793 0.0040327306 0.0042681387 0.0021662663 0.002914232
0.0026554298 0.0036731875 0.0043035606 0.0014603152 0.0017362444 0.002042878 0.003052993 0.00437391
0.0019250017 0.0015833955 0.0024042656 0.0036622835 0.004646109 0.0020245868 0.0023537432 0.0022651216
0.0016873697 0.0031818342 0.009416455 0.009428351 0.010008211 0.009445538 0.009898596 0.00927623
