experiments/exp022/model.pth (torch, 271383 bytes, 17 tensors)

conv1.weight f4 [6, 2, 5, 5]
0	0x3d2ec0d8	0.04266438
1	0x3dc6dabe	0.097096905
2	0xbd0489b7	-0.032357898
3	0x3e791554	0.24324542
4	0x3c537d79	0.012908333
5	0xbc527134	-0.012844373
6	0xbd5c2588	-0.05374673
7	0xbdc28615	-0.0949823
8	0xbdee235c	-0.11627838
9	0x3e14eb45	0.14542873
10	0x3c40ae5c	0.0117603205
11	0xbd91f5a2	-0.07126929
12	0xbe0799ce	-0.13242266
13	0xbe357aab	-0.17722575
14	0x3de461fa	0.111515
15	0xbe5c50d4	-0.21515208
16	0xbd14f4b2	-0.036366172
17	0xbe04f280	-0.12983131
18	0xbd9bac47	-0.07601219
19	0x3e2048a5	0.15652712
20	0xbe59a468	-0.21254122
21	0xbe492051	-0.19641234
22	0xbdcdb60e	-0.1004449
23	0xbd6971f0	-0.056993425
24	0x3db77caa	0.08959325
25	0xbe477fb0	-0.19482303
26	0xbc9cef27	-0.019157005
27	0x3e33fbf4	0.17576581
28	0xbd5229ea	-0.051309504
29	0x3e564e3f	0.20928286
30	0xbd27c27a	-0.04095695
31	0xbe364102	-0.17798236
32	0xbdad2972	-0.08455171
33	0x3e268fd4	0.16265804
34	0x3e631a6c	0.22178048
35	0xbd08e352	-0.033419915
36	0xbe5c1daf	-0.21495698
37	0xbe3d62a4	-0.1849466
38	0x3e4ad5c9	0.19808115
39	0x3e87fd1e	0.265603
40	0x3e973b0a	0.2953723
41	0xbc1eceb5	-0.0096928375
42	0xbe1b7069	-0.151796
43	0x3e064ef2	0.13116053
44	0xbc7b299c	-0.015329745
45	0x3d9afbed	0.07567582
46	0x3d95e86f	0.07319724
47	0x3e03896c	0.12845391
48	0xbcfc9c80	-0.030836344
49	0xbc98379c	-0.018581204
50	0xbcf4758f	-0.029841213
51	0x3df3fe6f	0.11913764
52	0xbc892297	-0.016740127
53	0xbda508cf	-0.08058321
54	0xbdb4ff7f	-0.088377945
55	0x3dddbecd	0.10827408
56	0xbdc2ce5d	-0.09512017
57	0xbdb7456f	-0.0894879
58	0xbdf7bbeb	-0.120963894
59	0xbe6adcb3	-0.22935753
60	0x3e3dbfef	0.18530248
61	0xbce65005	-0.028114328
62	0xbda8d072	-0.08242883
63	0x3c74b4fa	0.014935726
64	0x3d14ac87	0.036297347
65	0x3e818cc6	0.25302714
66	0x3e052b99	0.13004912
67	0x3b1a89a4	0.0023580575
68	0xbe41275f	-0.18862675
69	0x3da0923e	0.078403935
70	0x3e88b07f	0.26697156
71	0x3ea7bf56	0.32763165
72	0x3e3cda2f	0.18442605
73	0x3e50b6e5	0.20382269
74	0xbd3d0b33	-0.04615326
75	0x3e1c8354	0.15284473
76	0xbc131f92	-0.008979695
77	0xbdc03e26	-0.09386854
78	0xbdf65f24	-0.120298654
79	0xbdfa5868	-0.122238934
80	0x3b0df169	0.0021658784
81	0x3e0f1472	0.13972643
82	0xbd4b0833	-0.049568366
83	0xbcec0d4f	-0.02881494
84	0xbded433c	-0.115850896
85	0x3e03e7a8	0.12881339
86	0xbde503c9	-0.111823626
87	0xbe1373a2	-0.14399579
88	0xbba4ff5e	-0.005035325
89	0xbe022a52	-0.12711456
90	0x3e7ed60a	0.24886337
91	0xbd84debc	-0.06487796
92	0xbe12b98c	-0.14328593
93	0xbe5d160d	-0.21590443
94	0xbe94f1ea	-0.29090816
95	0x3d500231	0.05078334
96	0x3e256af1	0.16154076
97	0x3c5e72ff	0.013577222
98	0xbd3285e7	-0.04358473
99	0xbe0d65c7	-0.13808356
100	0x3dc3ce4d	0.09560833
101	0xbd1e160e	-0.03859525
102	0xbdb54d8e	-0.08852683
103	0xbdf54fa9	-0.119780846
104	0x3cb87c3a	0.022520173
105	0x3dc55fee	0.09637438
106	0xbe5af34f	-0.21381877
107	0xbd9de069	-0.077088185
108	0x3d6ac171	0.057313386
109	0x3e7a4e58	0.24443948
110	0x3dcd67af	0.10029542
111	0xbe63b68f	-0.2223761
112	0xbd99c7b5	-0.07508794
113	0x3d8a26c4	0.06745675
114	0x3e468f53	0.19390611
115	0xbcb71eac	-0.022353493
116	0xbe2c0114	-0.16797286
117	0x3dedcd3d	0.11611412
118	0x3d965262	0.07339932
119	0xbddd85ad	-0.10816512
120	0x3d25c9ab	0.04047553
121	0xbda7055e	-0.081553206
122	0x3c96e357	0.018418951
123	0x3dcd177d	0.10014246
124	0xbda65328	-0.081213295
125	0xbd86f755	-0.065901436
126	0xbddcc369	-0.10779459
127	0x3d36ad2c	0.044598743
128	0xbd132802	-0.035926826
129	0x3dc3b258	0.09555501
130	0x3e1d5b85	0.15366943
131	0x3dd69570	0.10477722
132	0xbc606531	-0.013696001
133	0xbe066955	-0.13126118
134	0x3d1fea10	0.03904158
135	0x3dcb5be9	0.0992964
136	0x3e91acfa	0.28452283
137	0x3d86c745	0.065809764
138	0xbe4f396e	-0.20236751
139	0xbe4aaea4	-0.19793183
140	0xbd6f29f8	-0.058389634
141	0x3e6c5c40	0.23082066
142	0xbe071699	-0.13192214
143	0xbea48316	-0.3213126
144	0x3d620b92	0.055186816
145	0xbe0ae1f7	-0.13562761
146	0x3dd3ad88	0.10335833
147	0xbd1bbb16	-0.038020216
148	0xbd178ecd	-0.03700142
149	0x3e498c9d	0.19682546
150	0xbe1e5bdd	-0.1546473
151	0xbe0b62c1	-0.1361189
152	0xbe0463b7	-0.12928663
153	0xbd7c1383	-0.061542045
154	0xbe05ea72	-0.13077715
155	0xbdc23c16	-0.09484117
156	0x3d6a850b	0.057255786
157	0xbc2ae9e7	-0.010431743
158	0xbdedf25a	-0.116184905
159	0x3d9420c8	0.07232815
160	0x3ad5e32e	0.0016318315
161	0xbd78ef83	-0.06077529
162	0x3ce38c57	0.02777688
163	0xbdc2650e	-0.09491931
164	0xbdc5a053	-0.0964972
165	0x3c7e53d1	0.015522913
166	0xbd5b1cb8	-0.053494185
167	0xbdc24340	-0.09485483
168	0xbdb0ce62	-0.086331144
169	0x3cbfc916	0.023411315
170	0x3dad311c	0.084566325
171	0xbd9730be	-0.07382344
172	0xbdb79c43	-0.089653514
173	0x3d5a538a	0.053302325
174	0x3c8d7408	0.017267242
175	0xbdfc964d	-0.12333355
176	0xbe0c7654	-0.13717014
177	0x3bdd7133	0.006757879
178	0x3c99d69d	0.018779093
179	0xbe03dfce	-0.12878343
180	0x3d0cfe3e	0.03442215
181	0x3d8a0cdf	0.06740736
182	0x3c8c0385	0.017091522
183	0xbe1f8584	-0.15578276
184	0x3dfc3e86	0.12316613
185	0x3e38fde9	0.18065609
186	0xbdaeca95	-0.08534733
187	0xbd3210fa	-0.04347322
188	0xbdc241c0	-0.09485197
189	0x3e0687d4	0.13137752
190	0xbc8a9ac3	-0.0169195
191	0x3c7f7695	0.015592237
192	0x3d317390	0.0433231
193	0xbd713f16	-0.058898054
194	0x3ea9a1c6	0.33131236
195	0xbcd8f182	-0.026482347
196	0x3de55b11	0.1119901
197	0xbc351a0e	-0.011053575
198	0x3c935b53	0.017987883
199	0x3e22a9b4	0.15885049
200	0x3e329cc1	0.1744261
201	0x3e811683	0.25212488
202	0x3c9aeea8	0.018912628
203	0xbd97a36b	-0.074042164
204	0x3dbc6c64	0.09200361
205	0x3e44bb17	0.19211994
206	0x3d969d15	0.0735418
207	0x3d052a2c	0.03251092
208	0xbcb0bc8d	-0.021574283
209	0x3da784cd	0.081796266
210	0x3e690422	0.22755483
211	0x3de8d366	0.11368446
212	0x3e146392	0.14491108
213	0x3dc81133	0.097689055
214	0x3d2eeb93	0.04270513
215	0x3e161d58	0.14659631
216	0x3e1090f2	0.14117792
217	0x3d988643	0.074474834
218	0x398cd550	0.0002686181
219	0x3d6a240e	0.05716329
220	0xbd9616df	-0.07328581
221	0xbe9507e6	-0.2910759
222	0xbdcdc29d	-0.10046885
223	0xbd20a650	-0.039221108
224	0xbdb605c8	-0.088878214
225	0xbe898686	-0.26860446
226	0xbe87b41e	-0.26504606
227	0xbd1d060d	-0.03833585
228	0xbe2c2548	-0.16811097
229	0xbe0c6f01	-0.1371422
230	0xbe5ccb4d	-0.21561928
231	0xbd9d55fd	-0.076824166
232	0xbe5c708d	-0.2152731
233	0xbe424368	-0.18971026
234	0xbe7e9227	-0.2486044
235	0xbdb1791f	-0.0866568
236	0xbe29d26c	-0.16584176
237	0xbd8746e6	-0.0660532
238	0xbd0bf050	-0.034164727
239	0x3dbb2afe	0.091390595
240	0xbd87a075	-0.066224016
241	0x3e2659ad	0.16245146
242	0x3e690241	0.22754766
243	0x3eb7090b	0.35749087
244	0x3e25b2d3	0.16181497
245	0xbe13b4d9	-0.14424457
246	0x3baf241e	0.0053448817
247	0x3e52c6fc	0.20583719
248	0x3eb1fe07	0.3476412
249	0x3ead4ec6	0.33849162
250	0xbe3eafec	-0.18621796
251	0xbe3941f7	-0.1809157
252	0xbdbca79d	-0.09211657
253	0xbe05fd9a	-0.13085023
254	0x3cb5b619	0.022181557
255	0xbe5ae4c9	-0.21376337

conv1.weight_fake_quant.scale f4 [6]
0	0x3b186c14	0.002325778
1	0x3b2911ab	0.0025797884
2	0x3b2482e4	0.002510243
3	0x3b2af783	0.002608747
4	0x3b3879ce	0.0028148773
5	0x3b0c2445	0.0021383923

conv1.weight_fake_quant.activation_post_process.min_val f4 [6]
0	0xbe5c507e	-0.2151508
1	0xbe94f199	-0.29090574
2	0xbea482e4	-0.32131112
3	0xbe1f85b6	-0.1557835
4	0xbe9507b4	-0.2910744
5	0xbe80d3fe	-0.25161737

conv1.weight_fake_quant.activation_post_process.max_val f4 [6]
0	0x3e973b3c	0.2953738
1	0x3ea7bf88	0.32763314
2	0x3e91acc8	0.28452134
3	0x3ea9a194	0.33131087
4	0x3eb708da	0.3574894
5	0x3e8b0bfc	0.2715758

conv2.weight f4 [16, 6, 5, 5]
0	0x3e0073a4	0.12544113
1	0x3e83420f	0.25636336
2	0x3eb10660	0.34575176
3	0x3ea3329d	0.31874552
4	0x3ebcd37d	0.36880103
5	0x3e35da40	0.17759037
6	0x3e0231ad	0.12714262
7	0x3d9bda94	0.0761005
8	0x3dd60f93	0.10452189
9	0x3ebf198b	0.37324175
10	0xbd113735	-0.03545304
11	0xbdd71089	-0.10501201
12	0x3db45979	0.08806128
13	0x3cbb95eb	0.022898635
14	0x3d708617	0.058721628
15	0xbe262c1e	-0.16227767
16	0x3d144cad	0.036205936
17	0xbd3a18d3	-0.04543383
18	0xbdd7f5c5	-0.10544924
19	0xbe23a4ea	-0.15980878
20	0x3ce80d76	0.028326731
21	0x3e1feb5a	0.15617123
22	0x3cc2ff4c	0.023803376
23	0xbd33c291	-0.043886725
24	0x3dc25e3c	0.0949063
25	0xbdb74a21	-0.08949686
26	0x3de86ce7	0.113488965
27	0x3e6727d2	0.22573784
28	0x3e63cdaf	0.22246431
29	0xbdc1950d	-0.09452257
30	0xbbeef87a	-0.0072928043
31	0xbd656912	-0.056008406
32	0xbd2c67d5	-0.04209121
33	0xbe168bbf	-0.14701746
34	0xbe0c2055	-0.13684209
35	0xbd7af0d6	-0.061264835
36	0xbd215e2f	-0.03939646
37	0xbd8fab3d	-0.07015083
38	0x3c9d1182	0.019173387
39	0x3dec62a7	0.11542254
40	0x3dd63fe3	0.10461404
41	0xbdab0709	-0.08350951
42	0x3dbc1408	0.09183508
43	0xbbd9f78d	-0.006651825
44	0x3b1fd2d2	0.0024387133
45	0x3e43a027	0.19104062
46	0x3a83363b	0.0010010669
47	0x3e094cc2	0.13408187
48	0x3e042644	0.12905222
49	0x3e038332	0.12843016
50	0x3e0e69fe	0.1390762
51	0x3e874e66	0.26427
52	0x3e37a360	0.17933416
53	0x3e440bf3	0.19145183
54	0x3df598bc	0.119920224
55	0xbd83cc6c	-0.06435475
56	0x3e2452a6	0.16047153
57	0x3cd951a2	0.026528183
58	0x3cf51957	0.02991931
59	0xbd945376	-0.072424814
60	0xbdd1019e	-0.102053866
61	0xbd7b5126	-0.061356686
62	0xbe671732	-0.22567442
63	0xbe975d70	-0.29563475
64	0x3d81a95a	0.06331129
65	0x3dca82da	0.09888239
66	0x3d3c04c3	0.04590298
67	0x3d773119	0.060349558
68	0x3db5b2e3	0.088720106
69	0x3d66a29b	0.056307416
70	0x3da5cb3d	0.08095405
71	0x3e1354ec	0.14387864
72	0x3e0e4645	0.13893993
73	0x3e428f31	0.18999936
74	0x3dc4f1c0	0.09616423
75	0xbd12d4fd	-0.035847653
76	0xbe5f69a7	-0.21817647
77	0xbe8045a9	-0.25053146
78	0xbe117c0f	-0.14207481
79	0xbe8342e7	-0.2563698
80	0xbdaaa0bc	-0.08331439
81	0xbca7e9c6	-0.020497214
82	0xbcc7f3eb	-0.024408301
83	0xbe092c42	-0.1339579
84	0xbe253828	-0.16134703
85	0x3d2704b6	0.040775977
86	0x3d9a30a6	0.0752881
87	0xbd1d8ae5	-0.03846254
88	0xbcb65dd0	-0.02226153
89	0x3a34ce4b	0.0006897195
90	0x3e07939a	0.132399
91	0x3df9a8a7	0.12190371
92	0xbca0ba3b	-0.019620052
93	0xbcda3b16	-0.026639502
94	0x3e163823	0.14669852
95	0x3d546c1d	0.051860917
96	0x3dd84365	0.105597295
97	0xbc8fbf77	-0.017547352
98	0x3d8dae3d	0.06917999
99	0x3e298a5e	0.16556689
100	0xbe103abd	-0.14084907
101	0xbdd05901	-0.10173226
102	0x3da15c08	0.07878882
103	0x3e327395	0.17426904
104	0x3dd1e158	0.10248059
105	0xbe69112c	-0.22760457
106	0xbe14886f	-0.1450517
107	0xbe4a63ef	-0.19764684
108	0x39ed1435	0.00045219218
109	0xbc96329f	-0.018334685
110	0xbca3f3f4	-0.020013787
111	0xbe44fcca	-0.19237056
112	0xbe50280d	-0.20327778
113	0xbe071acf	-0.1319382
114	0xbe89d067	-0.2691681
115	0x3c6c7ec2	0.014434518
116	0xbd5b42a4	-0.05353035
117	0x3d90b4df	0.070657484
118	0xbddba54c	-0.10724887
119	0xbce02ade	-0.02736419
120	0xbe687545	-0.22700985
121	0xbe17064e	-0.14748499
122	0xbcb1c74e	-0.021701481
123	0xbe04fb4f	-0.12986492
124	0xbe3a8165	-0.18213423
125	0x3dd62c7b	0.10457703
126	0x3dbe2164	0.092837125
127	0x3d7e890b	0.062142413
128	0x3b84da51	0.0040543457
129	0xbe0ac846	-0.13552961
130	0xbddb6fce	-0.107146844
131	0xbc4f3078	-0.012645833
132	0xbe0eae30	-0.13933635
133	0xbe104d85	-0.14092071
134	0xbde830d1	-0.11337436
135	0xbdde826e	-0.10864721
136	0xbc989bd7	-0.018628998
137	0x3d342eec	0.04399006
138	0xbc510ec6	-0.01275987
139	0xbc7a589b	-0.015279914
140	0xbc21aa00	-0.009867191
141	0x3e46dc04	0.19419867
142	0x3d7f7ea2	0.062376626
143	0xbd25e4df	-0.04050147
144	0xbdaa2616	-0.083080456
145	0xbe5259f1	-0.20542122
146	0x392c4b9b	0.00016431363
147	0xbcf93de3	-0.030425018
148	0x3d0ade9a	0.033903696
149	0x3e146c6a	0.14494482
150	0x3e4a2196	0.19739375
151	0x3d241626	0.040060185
152	0xbe063f8d	-0.1311018
153	0xbeaf2b14	-0.34212554
154	0xbed7f9d3	-0.42182788
155	0x3d8549d5	0.06508223
156	0xbdaf0bbd	-0.08547161
157	0xbe0eb49a	-0.13936082
158	0xbe78633b	-0.24256603
159	0xbec2d6f3	-0.38054618
160	0x3dc39f75	0.095518984
161	0xbdb4a992	-0.088214055
162	0xbe45bb1c	-0.19309658
163	0xbe128892	-0.1430991
164	0xbe828707	-0.25493643
165	0x3cc8e545	0.024523387
166	0xbe5edc1e	-0.21763656
167	0xbe6eb067	-0.2330948
168	0xbec5e3eb	-0.3865045
169	0xbeac9a71	-0.3371158
170	0x3df571bc	0.11984584
171	0xbe8396f7	-0.25701115
172	0xbea0a44a	-0.31375343
173	0xbeca7c48	-0.39547944
174	0xbe5a84ac	-0.21339673
175	0x3d4cd7c0	0.050010443
176	0xbe1fab97	-0.155928
177	0x3e9c08d2	0.3047548
178	0x3e4d2c55	0.20036443
179	0x3e7d8bd4	0.24760371
180	0x3d958662	0.07301022
181	0xbe379550	-0.17928052
182	0x3d82a861	0.06379772
183	0x3d8df7e4	0.06932047
184	0x3daec7a0	0.08534169
185	0xbd6a5fdb	-0.05722032
186	0xbdde2460	-0.10846782
187	0x3db372de	0.087621436
188	0x3da9c6f0	0.082898974
189	0x3de56534	0.112009436
190	0x3dd916eb	0.106000744
191	0xbe04257d	-0.12904926
192	0x3df6c06b	0.120484196
193	0x3da2077e	0.07911585
194	0x3d1282b1	0.03576917
195	0x3ce1a43e	0.027544137
196	0x3d0823db	0.03323732
197	0x3ec8b07e	0.39197153
198	0x3dade34c	0.08490619
199	0x3e08672f	0.13320611
200	0x3d5bab06	0.053629898
201	0x3d1b11ce	0.037858777
202	0x3e5bb34a	0.21455112
203	0x3e5d7dd0	0.21630025
204	0xbd325eb5	-0.04354735
205	0xbc055193	-0.008137125
206	0xbd971264	-0.073765546
207	0x3e38e930	0.18057704
208	0x3d8c9331	0.06864012
209	0xbdf2f010	-0.118621945
210	0xbb69ffed	-0.0035705522
211	0xbdc4ac2d	-0.096031524
212	0x3e0be45e	0.13661334
213	0xbd251f14	-0.04031284
214	0xbdad92e5	-0.084752835
215	0x3ded2413	0.11579146
216	0x3d7588c6	0.05994489
217	0x3e801b16	0.25020665
218	0xbcc7aaba	-0.024373401
219	0xbe188906	-0.1489602
220	0x3ca558a7	0.020183874
221	0xbca869aa	-0.020558197
222	0x3d9e8a67	0.07741242
223	0xbe3a5d76	-0.18199715
224	0xbe6d32a8	-0.23163855
225	0xbe1e9561	-0.15486671
226	0xbeb87d76	-0.3603322
227	0xbebaccc9	-0.36484364
228	0xbe13bbba	-0.14427081
229	0x3c108825	0.008821522
230	0x3d8036ca	0.0626045
231	0x3d011a4d	0.031519223
232	0xbdb1962c	-0.08671221
233	0xbbff943a	-0.0077996524
234	0x3d399e7e	0.045317166
235	0x3e8f32cb	0.2796844
236	0x3c8a9389	0.016916053
237	0x3d7e2eac	0.06205623
238	0x3e326279	0.17420377
239	0x3d537435	0.051624496
240	0xbcbbfe4e	-0.02294841
241	0xbe01a998	-0.12662351
242	0xbcbb70e8	-0.022880986
243	0x3dbb5b5c	0.09148285
244	0x3dc9b048	0.09848076
245	0xbe06881a	-0.13137856
246	0xbe32b864	-0.17453152
247	0xbd9dfad4	-0.07713857
248	0x3baefc68	0.0053401478
249	0x3e03e046	0.12878522
250	0x3c573d3c	0.013137158
251	0xbe0774de	-0.13228175
252	0x3c40aa5c	0.011759367
253	0x3e1f394c	0.15549201
254	0x3e8d33f1	0.2757869
255	0xbdb4c2d3	-0.08826222

conv2.weight_fake_quant.scale f4 [16]
0	0x3b409a53	0.002938886
1	0x3b57f9a2	0.003295519
2	0x3b7a09ec	0.0038152887
3	0x3b398a54	0.002831121
4	0x3b4a2f54	0.0030850964
5	0x3b8094d9	0.003923994
6	0x3b32aa7b	0.0027262259
7	0x3b5f7aec	0.0034100367
8	0x3b5b7938	0.0033489
9	0x3b45ba18	0.0030170735
10	0x3b213874	0.00246003
11	0x3b2cbc67	0.0026357414
12	0x3b42f5dc	0.0029748594
13	0x3b5e33fc	0.0033905497
14	0x3b61dede	0.0034465115
15	0x3b2e1fea	0.0026569315

conv2.weight_fake_quant.activation_post_process.min_val f4 [16]
0	0xbe975dab	-0.2956365
1	0xbed7f9a2	-0.42182642
2	0xbedd857e	-0.4326591
3	0xbeb98a54	-0.36238348
4	0xbeca2f54	-0.39489233
5	0xbe648622	-0.22316793
6	0xbeadcbf4	-0.33944666
7	0xbe6c8b64	-0.23100048
8	0xbedb7938	-0.4286592
9	0xbec5ba18	-0.3861854
10	0xbea13874	-0.31488383
11	0xbea00854	-0.31256354
12	0xbec2f5dc	-0.380782
13	0xbecce1ee	-0.4001612
14	0xbee1dede	-0.44115347
15	0xbead3f2e	-0.33837265

conv2.weight_fake_quant.activation_post_process.max_val f4 [16]
0	0x3ebf191e	0.3732385
1	0x3ec8b0b0	0.39197302
2	0x3ef815d8	0.48454165
3	0x3eab26de	0.3342809
4	0x3eb92074	0.36157572
5	0x3eff275e	0.49834722
6	0x3eb14526	0.3462307
7	0x3eddbbf6	0.43307465
8	0x3eb32640	0.3499012
9	0x3ead8a1a	0.33894426
10	0x3e8d0c26	0.2754833
11	0x3eab62ee	0.33473915
12	0x3e74624a	0.2386562
13	0x3edc7794	0.4305998
14	0x3ed1cada	0.40975076
15	0x3eacc3aa	0.3374303

conv3.weight f4 [120, 16, 5, 5]
0	0xbd84c720	-0.064832926
1	0x3d486327	0.048922684
2	0xbdecfcac	-0.11571631
3	0xbe363854	-0.17794925
4	0xbdd83c85	-0.10558418
5	0xbe3e0e3f	-0.18560122
6	0xbe33db87	-0.17564212
7	0xbe3b9279	-0.18317594
8	0xbe13dc0c	-0.1443941
9	0xbe7b10e8	-0.24518168
10	0xbd1cd413	-0.038288187
11	0x3d5ae447	0.05344036
12	0xbe018631	-0.12648846
13	0xbe75f2d0	-0.24018407
14	0xbec230e1	-0.37927917
15	0x3d373161	0.044724826
16	0x3e0d708a	0.13812461
17	0x3c71eba4	0.014765654
18	0xbd426161	-0.04745615
19	0xbd1161cc	-0.035493657
20	0xbd5c9823	-0.053856026
21	0xbddcd9e0	-0.10783744
22	0x3dc2ac8f	0.09505569
23	0x3dc94458	0.09827489
24	0xbd459bb2	-0.048244186
25	0x3e45d3c5	0.19319065
26	0x3e2d89f6	0.16947159
27	0xbd2aab24	-0.04166712
28	0x3e85eaa4	0.2615558
29	0x3e278f4a	0.16363254
30	0xbdc2b893	-0.09507861
31	0xbdda6b3d	-0.10664985
32	0xbe7bca8c	-0.24588984
33	0x3dd393d3	0.103309296
34	0xbd740ae0	-0.059580684
35	0x3e76d3df	0.2410426
36	0xbe36ea42	-0.178628
37	0xbbd4feca	-0.0065001
38	0xbd560aaf	-0.052256282
39	0xbe081c86	-0.13292131
40	0xbd0770c4	-0.033066526
41	0xbe9eba6d	-0.31001607
42	0xbe01e44d	-0.12684746
43	0x3cb116bf	0.021617291
44	0xbda8243f	-0.082100384
45	0x3d80cb8c	0.062888235
46	0xbd5c33d4	-0.053760365
47	0x3cc2c30e	0.02377465
48	0xbdb1627c	-0.086613625
49	0xbe1f2921	-0.15543033
50	0x3e61ab59	0.2203802
51	0x3debd76e	0.11515699
52	0xbd23419f	-0.039857503
53	0xbe216293	-0.1576026
54	0xbd2983eb	-0.041385572
55	0xbd254410	-0.040348113
56	0xbdd43256	-0.10361163
57	0xbe219820	-0.15780687
58	0xbe656207	-0.22400676
59	0xbdba5990	-0.09099114
60	0xbe702a2d	-0.23453589
61	0xbe70c46e	-0.23512432
62	0xbe90d904	-0.2829057
63	0xbe277124	-0.16351753
64	0xbe58adfa	-0.21160117
65	0x3db6dbb9	0.089286275
66	0x3be1132c	0.0068687405
67	0x3e0bb762	0.13644174
68	0x3d617963	0.055047404
69	0xbd263e9a	-0.040587045
70	0x3e69d918	0.22836721
71	0x3e2cd998	0.1687988
72	0x3e1069f8	0.14102924
73	0x3e1107dc	0.14163154
74	0x3e08b957	0.13351952
75	0xbe4787ee	-0.19485447
76	0xbe43c779	-0.19119062
77	0xbe1d59ff	-0.15366362
78	0xbdee40a2	-0.116334215
79	0xbdcafccf	-0.09911501
80	0x3ceab0e1	0.028648796
81	0x3e0e6603	0.13906102
82	0xbd66d39b	-0.056354146
83	0xbe538190	-0.20654893
84	0xbe78c37a	-0.24293318
85	0x3da7cacd	0.08192978
86	0xbce0904f	-0.027412562
87	0x3e04c725	0.12966593
88	0xbe5a75ba	-0.21333972
89	0x3d0816ff	0.033225056
90	0x3d2c17d9	0.04201493
91	0xbe86b373	-0.26308784
92	0xbdde6b81	-0.108603485
93	0x3e5df5b8	0.21675766
94	0x3e04151a	0.12898675
95	0xbe56c26e	-0.20972607
96	0xbe1a8a8d	-0.15091915
97	0xbe3ca652	-0.18422821
98	0xbe27774b	-0.163541
99	0xbdcfd6c1	-0.10148383
100	0xbbe63ed0	-0.007026531
101	0xbd9af59d	-0.07566378
102	0xbdcefadd	-0.10106442
103	0x3d5d3588	0.05400613
104	0xbe41103e	-0.18853852
105	0x3e9a6552	0.30155426
106	0x3de4dd0e	0.11174975
107	0xbea61af4	-0.3244244
108	0xbe1cdc0a	-0.15318313
109	0x3d274856	0.04084047
110	0xbe2032c7	-0.1564437
111	0x3ea75545	0.32682243
112	0x3dde0282	0.10840322
113	0xbe2db96f	-0.16965269
114	0xbaa74a38	-0.0012763208
115	0xbc468a63	-0.012117955
116	0x3d49afbd	0.049239863
117	0xbd6e96b1	-0.05824918
118	0x3db7a9db	0.08967944
119	0x3e5d6337	0.21619879
120	0x3e1dc34f	0.15406536
121	0x3dc98f54	0.09841791
122	0xbdc1fd42	-0.09472133
123	0x3bc4b367	0.0060028317
124	0x3daf2f75	0.085539736
125	0x3d391ad2	0.045191593
126	0x3c7c848e	0.015412463
127	0x3dfa91fd	0.12234876
128	0xbda634e2	-0.08115555
129	0xbdbeef64	-0.09323004
130	0x3c063712	0.008191841
131	0xbd3c269c	-0.04593526
132	0x3d82903f	0.06375169
133	0x3e200888	0.15628254
134	0xbd379044	-0.044815317
135	0x3dd80492	0.10547747
136	0xbda25027	-0.07925444
137	0xbe174faa	-0.14776483
138	0xbe0d796a	-0.13815847
139	0xbd5e41d3	-0.054261994
140	0xbe5e6726	-0.21719036
141	0xbe0527f9	-0.1300353
142	0xbde0cb66	-0.10976295
143	0xbe4c0833	-0.19925003
144	0xbd5ebc52	-0.054378815
145	0xbc4eeff2	-0.01263045
146	0x3d79da39	0.06099913
147	0x3e611ad6	0.21982893
148	0x3d1e8cb5	0.038708407
149	0xbddbc4ac	-0.107308716
150	0xbe43dfb8	-0.1912831
151	0x3c7396fa	0.014867539
152	0x3dc516b5	0.09623472
153	0xbe57a1fc	-0.21057886
154	0x3db5f94a	0.08885439
155	0x3b5d1ba8	0.0033738408
156	0xbe2a484c	-0.16629142
157	0x3d08aab4	0.03336592
158	0x3e93e7b5	0.28887716
159	0x3e8ae5b3	0.27128372
160	0x3dde0021	0.10839868
161	0xbce2bb81	-0.0276773
162	0xbd6585c0	-0.056035757
163	0xbe05503c	-0.13018888
164	0x3c926286	0.017869245
165	0x3b2a1356	0.0025951467
166	0xbe948b9e	-0.2901277
167	0xbd5309ba	-0.051522948
168	0x3e30fd0b	0.17284028
169	0x3bbc0b03	0.0057386174
170	0x3e368e04	0.17827612
171	0x3e8c757a	0.27433378
172	0x3ea67d4a	0.32517463
173	0x3eb9e380	0.3630638
174	0xbd520297	-0.051272
175	0x3a0aacbc	0.00052900217
176	0xbcfcf4bd	-0.030878419
177	0x3d47f600	0.04881859
178	0xbd3cf0cd	-0.046128083
179	0xbe036d13	-0.12834577
180	0x3ec02533	0.3752838
181	0x3db08828	0.0861972
182	0x3dfa1b6d	0.12212262
183	0x3e361f8c	0.17785472
184	0x3e240d28	0.16020644
185	0xbc616bb8	-0.013758592
186	0xbd90a10e	-0.07061969
187	0xbc8dda3b	-0.017315974
188	0xbd8753ca	-0.06607778
189	0xbe05bca7	-0.13060246
190	0xbe879443	-0.26480302
191	0xbe603937	-0.21896826
192	0xbe4d2219	-0.20032538
193	0xbde35e64	-0.11101988
194	0xbe009833	-0.1255806
195	0xbc447e23	-0.011992964
196	0x3c0d35b5	0.008618762
197	0xbb07c45b	-0.0020716402
198	0x3e0d379d	0.13790746
199	0xbbd7c416	-0.0065846546
200	0x3e27eaab	0.16398112
201	0x3d4c3907	0.049859073
202	0x3e411e61	0.18859245
203	0xbcd05449	-0.025430815
204	0x3e913f2b	0.28368506
205	0xbd91288a	-0.0708781
206	0xbd0c810b	-0.034302752
207	0x3d9ba737	0.07600253
208	0xbdd98e05	-0.10622791
209	0x3e3777e0	0.17916822
210	0xbb42d6ad	-0.0029730008
211	0xbd2e7538	-0.042592257
212	0xbd191721	-0.037375573
213	0x3d27b813	0.04094703
214	0xbd9e80e5	-0.077394284
215	0xbde42d17	-0.11141413
216	0xbcb16128	-0.021652773
217	0xbeaeb98b	-0.34125933
218	0xbdd5e863	-0.10444715
219	0xba557c6c	-0.00081438455
220	0xbe73bcf0	-0.23802543
221	0xbd97eae1	-0.074178465
222	0xbe935b7b	-0.28780732
223	0xbe9120ca	-0.2834533
224	0xbe2a61ec	-0.16638917
225	0x3e227663	0.15865473
226	0x3e163c95	0.14671548
227	0xbdc58148	-0.09643799
228	0xbd840d7c	-0.064478844
229	0xbca0a665	-0.019610593
230	0x3eb7da87	0.3590891
231	0x3d8130b1	0.06308115
232	0xbdbb6ec1	-0.09151984
233	0xbd802e18	-0.06258792
234	0xbc9349b7	-0.017979486
235	0x3d1ede1f	0.03878605
236	0xbb046f08	-0.0020207781
237	0x3db6e7e0	0.089309454
238	0x3dbba0d4	0.09161535
239	0xbe044ddb	-0.12920325
240	0xbe205c7a	-0.15660277
241	0xbdd9d7df	-0.10636877
242	0xbe4b4452	-0.19850281
243	0xbdf61f80	-0.12017727
244	0xbe79ed11	-0.2440684
245	0xbd8757b8	-0.06608528
246	0xbb0981ca	-0.0020981901
247	0xbc5678dc	-0.013090339
248	0x3b0c948e	0.002145085
249	0x3a897734	0.0010487796
250	0x3c03cd0e	0.008044494
251	0xbd198fdc	-0.03749071
252	0x3d8c4ad8	0.06850213
253	0x3d7a2804	0.061073318
254	0x3ea3bd94	0.31980574
255	0x3d44f49c	0.04808484

conv3.weight_fake_quant.scale f4 [120]
0	0x3b46c81e	0.0030331681
1	0x3b357450	0.0027687736
2	0x3b2754d6	0.0025532744
3	0x3b409ab9	0.0029389097
4	0x3b895c45	0.0041919076
5	0x3a45e6f0	0.0007549366
6	0x3b465b28	0.0030266736
7	0x3a1c0ab4	0.00059525226
8	0x3b3df82a	0.0028987029
9	0x3b07c0fe	0.0020714398
10	0x3b558088	0.0032577831
11	0x3b4c23f4	0.003114936
12	0x3a38bc66	0.00070471165
13	0x3b996369	0.00468104
14	0x3b443ea9	0.0029944575
15	0x3b5cbdfc	0.0033682575
16	0x3a58066f	0.0008240705
17	0x3b6a803e	0.0035782005
18	0x3b44c474	0.0030024322
19	0x3b422d5d	0.002962909
20	0x3b2412f2	0.0025035706
21	0x3b52311f	0.0032072735
22	0x3a20b8f4	0.0006131076
23	0x3b511324	0.0031902278
24	0x3a467782	0.00075709086
25	0x3b483796	0.003055071
26	0x3b3c9e30	0.002878081
27	0x3b81bd8d	0.003959364
28	0x3b3707d8	0.002792826
29	0x3b69c734	0.0035671713
30	0x3b73607f	0.0037136374
31	0x3b8f777f	0.0043782587
32	0x3b2bb582	0.0026200716
33	0x3b2975b9	0.0025857522
34	0x3a11bd8c	0.0005559556
35	0x3b32372e	0.0027193534
36	0x3a2642da	0.0006342359
37	0x3b0e662c	0.002172838
38	0x3ab0417b	0.0013447249
39	0x3b56cae8	0.003277475
40	0x3a239d48	0.0006241393
41	0x3b1751dc	0.0023089563
42	0x3a2c5a22	0.000657471
43	0x3ab42e6b	0.0013746744
44	0x3b6a69b2	0.0035768566
45	0x3b605383	0.0034229464
46	0x3b39efd0	0.00283717
47	0x3b0f5f52	0.0021876884
48	0x3b5c7058	0.0033636298
49	0x3b3b770c	0.0028604893
50	0x3ab772f6	0.0013996053
51	0x3a0a44c6	0.000527453
52	0x3b311aee	0.0027024108
53	0x3b57344d	0.003283757
54	0x3b393008	0.0028257389
55	0x3b15fa70	0.0022884868
56	0x3a443d10	0.00074859057
57	0x3b353931	0.0027652497
58	0x3b36a86d	0.0027871386
59	0x3b56cc52	0.0032775593
60	0x3b41f036	0.002959264
61	0x3a3e6bb0	0.00072639715
62	0x3b2cfb84	0.0026395032
63	0x3a167ee6	0.0005740955
64	0x3a23907c	0.00062394864
65	0x3b4e1127	0.003144333
66	0x3b6ee31a	0.003645128
67	0x3b3ed7f0	0.0029120408
68	0x3b22d890	0.002484832
69	0x3b0ff5f0	0.0021966659
70	0x3b2b6ef2	0.0026158658
71	0x3b153181	0.0022765102
72	0x3b31e1e8	0.0027142707
73	0x3b685b0d	0.003545466
74	0x3b64ee93	0.003493224
75	0x3b9a23a5	0.004703956
76	0x3a19f3c8	0.0005872813
77	0x3b5faffb	0.0034131992
78	0x3a2a81ee	0.00065043464
79	0x3b4aded8	0.003095558
80	0x3b3c6346	0.0028745695
81	0x3a8e669a	0.0010864318
82	0x3a52293e	0.000801701
83	0x3b6592c4	0.0035030106
84	0x3b5870b6	0.0033026165
85	0x3b3784bd	0.0028002702
86	0x3a293b9a	0.00064557197
87	0x3b3ad6a1	0.0028509276
88	0x3b79e38d	0.0038130016
89	0x3a0bd52a	0.0005334193
90	0x3b3b3920	0.0028567985
91	0x3b50aa88	0.0031839926
92	0x3b50cdd8	0.0031860974
93	0x3b342251	0.0027486274
94	0x3b5bc218	0.0033532437
95	0x3b1b4092	0.002368961
96	0x3b314122	0.0027046879
97	0x3b44b0ee	0.0030012685
98	0x3b70bb61	0.003673278
99	0x3b4c222e	0.0031148302
100	0x3b62e41a	0.0034620822
101	0x3af44dd8	0.0018638922
102	0x3b52c875	0.0032162939
103	0x3b53375a	0.0032229037
104	0x3b808d08	0.0039230622
105	0x3b2252c8	0.002476858
106	0x3a1852bb	0.00058106676
107	0x3b451955	0.0030074914
108	0x3b652987	0.003496738
109	0x3b72d9a0	0.0037055984
110	0x3b57eefa	0.0032948838
111	0x3b1f4e43	0.0024308122
112	0x3b4fc5e0	0.0031703636
113	0x3a4cf138	0.0007817927
114	0x3a27e216	0.0006404234
115	0x3b32487f	0.0027203856
116	0x3b831b0e	0.004001028
117	0x3b592b20	0.0033137277
118	0x3b268d34	0.0025413753
119	0x3a1aa20a	0.00058987795

conv3.weight_fake_quant.activation_post_process.min_val f4 [120]
0	0xbec230b0	-0.3792777
1	0xbe9b29ae	-0.30305237
2	0xbea754d6	-0.32681912
3	0xbebd33ac	-0.36953485
4	0xbe814456	-0.2524745
5	0xbdc5e6f0	-0.096631885
6	0xbec65b28	-0.38741422
7	0xbd9c0ab4	-0.07619229
8	0xbeaae727	-0.3337948
9	0xbe87c0fe	-0.2651443
10	0xbed58088	-0.41699624
11	0xbecc23f4	-0.3987118
12	0xbdb8bc66	-0.09020309
13	0xbe9ae860	-0.30255413
14	0xbebb9d72	-0.3664356
15	0xbeb459c9	-0.3522475
16	0xbdc5e638	-0.09663051
17	0xbeaed172	-0.3414417
18	0xbec4c474	-0.38431132
19	0xbebf4d72	-0.37363774
20	0xbe852434	-0.26004183
21	0xbea3df98	-0.32006526
22	0xbda0b8f4	-0.07847777
23	0xbea02154	-0.31275427
24	0xbdc67782	-0.09690763
25	0xbec83796	-0.3910491
26	0xbebc9e30	-0.36839437
27	0xbe79481c	-0.24343914
28	0xbe9ae520	-0.30252934
29	0xbed56fb8	-0.41686797
30	0xbe9bd79c	-0.30437934
31	0xbe8e3bca	-0.2777999
32	0xbeabb582	-0.33536917
33	0xbe46b106	-0.19403467
34	0xbd91bd8c	-0.07116231
35	0xbe7a9f94	-0.24474937
36	0xbda642da	-0.0811822
37	0xbe8bd838	-0.273134
38	0xbdfd9a6e	-0.12382971
39	0xbebd39c8	-0.36958146
40	0xbda39d48	-0.079889834
41	0xbe25cc84	-0.16191298
42	0xbdac5a22	-0.08415629
43	0xbe194804	-0.14968878
44	0xbeea69b2	-0.45783764
45	0xbecdbcdc	-0.4018315
46	0xbe947d2e	-0.29001755
47	0xbe8f5f52	-0.2800241
48	0xbedc7058	-0.4305446
49	0xbeb33b80	-0.35006332
50	0xbe19a6d6	-0.15005049
51	0xbd8a44c6	-0.06751399
52	0xbeb11aee	-0.34590858
53	0xbeb7c098	-0.35889125
54	0xbeb93008	-0.36169457
55	0xbe95fa70	-0.2929263
56	0xbdc43d10	-0.09581959
57	0xbeb53931	-0.35395196
58	0xbea84b40	-0.3286991
59	0xbed6cc52	-0.4195276
60	0xbe9bbefc	-0.30419147
61	0xbdbe6bb0	-0.092978835
62	0xbeacfb84	-0.3378564
63	0xbd967ee6	-0.07348423
64	0xbda3907c	-0.079865426
65	0xbea64e76	-0.32481736
66	0xbeeee31a	-0.4665764
67	0xbe97b15e	-0.29627508
68	0xbea2d890	-0.3180585
69	0xbe6bd195	-0.23029168
70	0xbeab6ef2	-0.33483082
71	0xbe48fa58	-0.19626749
72	0xbeb1e1e8	-0.34742665
73	0xbee85b0d	-0.45381966
74	0xbe59effc	-0.21282953
75	0xbe9fe34f	-0.3122811
76	0xbd99f3c8	-0.07517201
77	0xbedfaffb	-0.4368895
78	0xbda87c2a	-0.082268074
79	0xbecaded8	-0.3962314
80	0xbebc6346	-0.3679449
81	0xbe0e669a	-0.13906327
82	0xbdd2293e	-0.102617726
83	0xbee592c4	-0.44838536
84	0xbed870b6	-0.42273492
85	0xbe924bf4	-0.28573573
86	0xbda93b9a	-0.08263321
87	0xbea10fb6	-0.314573
88	0xbec0f816	-0.37689275
89	0xbd8bd52a	-0.06827767
90	0xbe8a62ae	-0.27028412
91	0xbed0aa88	-0.40755105
92	0xbe8ed3b6	-0.27895898
93	0xbea50268	-0.32228398
94	0xbeba6a70	-0.3640933
95	0xbe9b4092	-0.303227
96	0xbe9e66ed	-0.309379
97	0xbe734362	-0.23756173
98	0xbeaeeff2	-0.3416744
99	0xbebed95c	-0.37275207
100	0xbee2e41a	-0.44314653
101	0xbe744dd8	-0.2385782
102	0xbecc536f	-0.39907405
103	0xbed3375a	-0.41253167
104	0xbe96df66	-0.29467314
105	0xbea252c8	-0.31703782
106	0xbd905c9a	-0.07048912
107	0xbeb9fd7c	-0.36326206
108	0xbec187c6	-0.377989
109	0xbef2d9a0	-0.4743166
110	0xbeb33710	-0.35002947
111	0xbe9c0682	-0.30473715
112	0xbebf8970	-0.37409544
113	0xbdccf138	-0.10006946
114	0xbda7e216	-0.08197419
115	0xbe4d3db0	-0.20043063
116	0xbec1e83c	-0.37872493
117	0xbe9f4208	-0.31105065
118	0xbea68d34	-0.32529604
119	0xbd9aa20a	-0.07550438

conv3.weight_fake_quant.activation_post_process.max_val f4 [120]
0	0x3ec53a8e	0.38521236
1	0x3eb40967	0.35163423
2	0x3e6b64b5	0.22987635
3	0x3ebf1984	0.37324154
4	0x3f08498c	0.53237224
5	0x3dbd334a	0.09238298
6	0x3eb1fabc	0.34761608
7	0x3d6cbf4e	0.05779963
8	0x3ebc7c3a	0.36813527
9	0x3e672181	0.22571374
10	0x3ecf07b0	0.40435553
11	0x3e98239e	0.29714674
12	0x3db5530c	0.088537306
13	0x3f1830a2	0.5944921
14	0x3ec2b62c	0.3802961
15	0x3edb0480	0.4277687
16	0x3dd65662	0.10465695
17	0x3ee8ab3e	0.45443147
18	0x3eb49f42	0.35277754
19	0x3ec0a902	0.37628943
20	0x3ea2cacc	0.31795347
21	0x3ed08cbd	0.40732375
22	0x3d6331b4	0.055467322
23	0x3ecf70fe	0.40515894
24	0x3dc0240e	0.09381877
25	0x3e85aae4	0.26106942
26	0x3ea218f0	0.3165965
27	0x3f00ba12	0.5028392
28	0x3eb599c8	0.35468888
29	0x3ee7f3a6	0.45303077
30	0x3ef179be	0.47163194
31	0x3f0e5890	0.55603886
32	0x3e9b31da	0.3031147
33	0x3ea822ce	0.32839054
34	0x3d3e14fe	0.04640674
35	0x3eb0d2c0	0.3453579
36	0x3d54b158	0.05192694
37	0x3e8d4960	0.27595043
38	0x3e2ee0f8	0.17078006
39	0x3ed51d52	0.41623932
40	0x3d58d3da	0.052936412
41	0x3e962338	0.29323745
42	0x3d5b342e	0.05351656
43	0x3e32c60e	0.17458364
44	0x3ec32a8e	0.38118404
45	0x3ede92dc	0.4347142
46	0x3eb87bf0	0.36032057
47	0x3e8b63ec	0.27224672
48	0x3ebedaba	0.3727625
49	0x3eba001e	0.36328214
50	0x3e360410	0.17774987
51	0x3d49aec2	0.049238928
52	0x3ea11d48	0.31467652
53	0x3ed585e4	0.41703713
54	0x3e893922	0.268014
55	0x3e4b48af	0.19851945
56	0x3da67146	0.08127074
57	0x3ea2c94e	0.31794208
58	0x3eb53b1c	0.3539666
59	0x3ea069d8	0.31330752
60	0x3ec06c56	0.37582654
61	0x3d971748	0.073774874
62	0x3e8bc362	0.27297503
63	0x3d2086a0	0.03919089
64	0x3d86d8c2	0.06584312
65	0x3ecc7505	0.3993303
66	0x3ebbba3c	0.36665523
67	0x3ebd5a40	0.36982918
68	0x3e9a78c8	0.30170274
69	0x3e8ed604	0.27897656
70	0x3ea800a0	0.32812977
71	0x3e94071e	0.2891168
72	0x3e6edf47	0.23327361
73	0x3ebf34b6	0.37344903
74	0x3ee324b6	0.44363946
75	0x3f18ef5e	0.59740245
76	0x3d8ae9da	0.06782885
77	0x3ed5c2c1	0.41750148
78	0x3da92cea	0.0826052
79	0x3eba8256	0.36427563
80	0x3e94f04c	0.29089582
81	0x3dd0f69e	0.102032885
82	0x3d9a163e	0.075237736
83	0x3eaf29a0	0.34211445
84	0x3ea3763a	0.31926137
85	0x3eb615b4	0.35563433
86	0x3d656408	0.0560036
87	0x3eb960f4	0.36206782
88	0x3ef7efc6	0.4842512
89	0x3d630f5e	0.055434577
90	0x3eb9c2ae	0.3628134
91	0x3eb4339f	0.35195634
92	0x3ecf2c3c	0.40463436
93	0x3eb2ba0c	0.34907568
94	0x3eda0a94	0.42586195
95	0x3e98bca6	0.29831427
96	0x3eafdea0	0.34349537
97	0x3ec3278c	0.3811611
98	0x3eeed9ea	0.4665063
99	0x3eca89ea	0.39558345
100	0x3ed0bf1a	0.407708
101	0x3e5fdcec	0.21861619
102	0x3ed122e4	0.40846932
103	0x3e931fbc	0.2873515
104	0x3eff17dc	0.4982289
105	0x3e8203c2	0.25393492
106	0x3d972216	0.07379548
107	0x3ec38f22	0.3819514
108	0x3ee35f34	0.44408572
109	0x3eb20af8	0.34773993
110	0x3ed63f1c	0.41845024
111	0x3e9e0fa6	0.30871314
112	0x3ece2654	0.40263617
113	0x3db3d898	0.08781546
114	0x3d857830	0.065170646
115	0x3eb0e3ee	0.34548897
116	0x3f0214d8	0.50813055
117	0x3ed778ca	0.42084342
118	0x3e72bc12	0.23704556
119	0x3d4d26b4	0.05008574

fc1.weight f4 [84, 120]
0	0xbde1c4d7	-0.11023872
1	0x3d573c5e	0.052547805
2	0x3c096828	0.008386649
3	0x3d935d6e	0.07195555
4	0x3eb321ff	0.34986874
5	0xbca5f084	-0.020256288
6	0xbe2cc08d	-0.16870327
7	0xbd367a43	-0.04455019
8	0xbd50025b	-0.050783496
9	0xbd410e8f	-0.047133025
10	0x3d14cc0d	0.03632741
11	0xbd8f29f2	-0.06990422
12	0x3ddfa0dd	0.10919354
13	0x3d965d1b	0.07341977
14	0x3e00cf09	0.12578978
15	0xbe0f528c	-0.13996333
16	0x3cdfdd9c	0.027327351
17	0x3cbea097	0.023269935
18	0xbe0ba8ad	-0.13638563
19	0xbdcd0354	-0.100104004
20	0xbe1c6478	-0.15272701
21	0xbda2e92f	-0.079546325
22	0xbbb76e01	-0.0055978303
23	0x3e4a141d	0.19734235
24	0xbd6c4847	-0.057686117
25	0xbdb435d4	-0.087993294
26	0xbdbd183e	-0.092331395
27	0x3e3e6b6e	0.18595669
28	0x3e1885cc	0.1489479
29	0xbd2423f4	-0.04007335
30	0x3df99a8e	0.12187682
31	0x3dd8918d	0.105746366
32	0xbdc60aef	-0.09670054
33	0x3e15c52b	0.14625995
34	0x3bc69030	0.006059669
35	0xbcf5c7cd	-0.030002499
36	0x3da3b1eb	0.079929195
37	0xbe964867	-0.29352114
38	0xbc2b16be	-0.010442434
39	0xbb108267	-0.0022050382
40	0xbd9f4667	-0.077771
41	0xbd4d1969	-0.05007306
42	0x3ab2c064	0.0013637659
43	0xbd39b2d5	-0.045336563
44	0x3d14a686	0.03629162
45	0xbe015dc6	-0.12633428
46	0x3d6eb275	0.05827566
47	0xbd441532	-0.047871776
48	0xbe1d6b83	-0.15373044
49	0xbd908d2f	-0.07058179
50	0xbdb1f0e7	-0.086885266
51	0xbc63cdce	-0.013904048
52	0x3c45a78e	0.012063874
53	0x3ebbe6db	0.36699566
54	0xbdb50fcc	-0.08840904
55	0xbe00bf9f	-0.12573098
56	0x3ca62bec	0.020284615
57	0xbd8f57cb	-0.06999167
58	0xbd371faa	-0.04470793
59	0x3d2ce470	0.042210042
60	0xbcf6ac09	-0.03011133
61	0x3d19e390	0.037570536
62	0x3d1c3dc5	0.038144846
63	0x3d177328	0.036975056
64	0x3de2688b	0.11055096
65	0x3e2e72c0	0.17035961
66	0xbd1d003d	-0.038330305
67	0x3b841685	0.004031005
68	0xbdbaae3c	-0.09115264
69	0x3e49b624	0.19698387
70	0x3e14afe0	0.14520216
71	0x3e0cddcb	0.13756482
72	0xbd9ba94d	-0.07600651
73	0x3bcc01c0	0.0062257946
74	0xbd7dd24f	-0.061968144
75	0x3ea70ebe	0.32628435
76	0xbd7a5b9b	-0.061122518
77	0xbc8bbed6	-0.017058771
78	0x3d74ef08	0.05979827
79	0x3dae6632	0.08515586
80	0xbca49813	-0.020092046
81	0xbc57fa24	-0.013182197
82	0xbd3d3788	-0.046195537
83	0xbdaedef2	-0.08538617
84	0x3ceb72fb	0.02874135
85	0xbe88a2d3	-0.26686725
86	0x39aedf00	0.00033354014
87	0xbd2393df	-0.039935943
88	0x3dc3dc88	0.095635474
89	0xbaf5237a	-0.001870259
90	0x3957b513	0.00020571453
91	0xbdaefadf	-0.085439436
92	0x3e20aa93	0.15690069
93	0xbcd12859	-0.025531935
94	0xbd083020	-0.03324902
95	0x3b2c03a5	0.002624729
96	0xbc85244f	-0.016252665
97	0x3ce231cb	0.027611634
98	0xbd0268ce	-0.03183823
99	0xbd6325b7	-0.05545589
100	0xbe3c334f	-0.18378948
101	0xbd1b9b08	-0.037989646
102	0xbd4658fa	-0.0484247
103	0x3c5e3c5e	0.013564197
104	0x3e2f9650	0.17147183
105	0xbce9a7a6	-0.028522324
106	0xbd8f69ca	-0.070025995
107	0x3f03931f	0.51396364
108	0xbe178ec7	-0.14800559
109	0x3d6321c3	0.05545212
110	0xbd98bb5c	-0.07457611
111	0x3c841235	0.016121963
112	0x3d5296d9	0.05141339
113	0x3d0d7e8b	0.03454451
114	0xbda05b76	-0.07829945
115	0xbcb215a8	-0.021738842
116	0x3db67859	0.08909673
117	0x3bcd14fd	0.0062586055
118	0xbdb9b298	-0.09067267
119	0x3cd2df30	0.02574119
120	0x3ebba013	0.36645564
121	0x3d98b966	0.07457237
122	0x3dafb50a	0.08579452
123	0xbe77b6b1	-0.24190785
124	0x3dbb0f79	0.091338105
125	0xbd770ec9	-0.060316835
126	0x3e757930	0.2397201
127	0xbd1922c3	-0.037386667
128	0x3e01a154	0.12659198
129	0x3e0c87f7	0.13723741
130	0x3db2750b	0.087137304
131	0xbd929de8	-0.071590245
132	0x3dafb80e	0.085800275
133	0x3d997061	0.07492138
134	0x3e8e21a7	0.2776005
135	0x3e2e0fca	0.1699821
136	0x3c9b24ba	0.018938411
137	0x3e2e5a41	0.17026617
138	0xbca59de8	-0.020216897
139	0x3d03b1c6	0.03215196
140	0xbe6739ff	-0.22580718
141	0x3ce12018	0.027481124
142	0xbdba51ce	-0.09097634
143	0x3ddeef1a	0.10885449
144	0xbc897431	-0.016779037
145	0xbbc7e26f	-0.006099991
146	0x3db185dd	0.086681105
147	0x3e012e1d	0.12615247
148	0x3e7ddb2c	0.24790639
149	0x3e482590	0.19545579
150	0x3e2800ed	0.16406603
151	0x3d84300e	0.06454478
152	0x3b17cc65	0.00231626
153	0x3e48a06f	0.1959245
154	0x3d8697a1	0.0657189
155	0x3d41e0fa	0.047333695
156	0xbb02fc35	-0.0019986753
157	0xbe6e23da	-0.23255864
158	0xbd077bc2	-0.03307701
159	0x3e024e9b	0.12725298
160	0x3d4b81fe	0.049684517
161	0xbd34f8e5	-0.044182677
162	0x3d977ae1	0.07396484
163	0xbc77958e	-0.01511134
164	0xbe4048a5	-0.18777712
165	0x3b5f7ac0	0.0034100264
166	0x3d8ea366	0.069647595
167	0xbda6317b	-0.081149064
168	0x3e39c233	0.18140487
169	0x3e361a90	0.1778357
170	0xbdc22676	-0.09479992
171	0xbd81956a	-0.063273266
172	0xbe24d603	-0.16097264
173	0x3dfe1a4b	0.12407359
174	0xbd141f7a	-0.03616283
175	0x3d338305	0.04382612
176	0xbd99d64f	-0.07511579
177	0x3c4afbc1	0.012389124
178	0x3d4317d7	0.047630157
179	0x3eb0da2b	0.3454145
180	0x3de0c0da	0.109742835
181	0x3d9823ec	0.074287266
182	0x3ca54fd4	0.020179667
183	0x3d8991f3	0.06717291
184	0xbd7f9ae7	-0.062403586
185	0x3e907842	0.2821675
186	0x3e16962d	0.14705725
187	0x3e6e1645	0.23250683
188	0xbc32fe73	-0.010924923
189	0x3db1e4a2	0.086861864
190	0x3d3d1c80	0.046169758
191	0xbd3a398f	-0.04546505
192	0xbc11fe67	-0.008910752
193	0xbe950de7	-0.2911217
194	0xbc51b047	-0.012798375
195	0x3ec4bb84	0.38424313
196	0xbd710881	-0.058846
197	0x3e8f6acd	0.2801117
198	0xbd93a39d	-0.07208941
199	0x3e76afb9	0.2409047
200	0x3e3573b5	0.1771992
201	0xbd823d67	-0.06359368
202	0xbd643961	-0.055718783
203	0xbe665217	-0.22492252
204	0xbe6bb208	-0.23017132
205	0x3e09dd01	0.13463213
206	0xbd68efef	-0.056869444
207	0x3cc5d651	0.024150046
208	0x3ca10453	0.019655382
209	0xbd2936cb	-0.04131202
210	0x3d357b3c	0.04430698
211	0x3e017518	0.12642324
212	0x3e83108c	0.25598562
213	0x3d80cbfe	0.062889084
214	0x3e96ac2c	0.29428232
215	0x3e2f562e	0.17122719
216	0x3dc09464	0.09403303
217	0x3de51b07	0.11186796
218	0x3e0b8607	0.13625346
219	0x3d6f7e26	0.058469914
220	0x3e25d627	0.16194974
221	0xbdbf1e95	-0.09332005
222	0x3dfeab53	0.12435021
223	0xbe03d74a	-0.12875095
224	0xbd39a3ae	-0.045322113
225	0x3d461a43	0.04836489
226	0x3d53557e	0.051595204
227	0x3da66dad	0.08126388
228	0x3e644ce0	0.2229495
229	0x3e797a67	0.24363099
230	0x3d503d9d	0.05084001
231	0x3d8d0499	0.068856426
232	0x3e64eadd	0.22355218
233	0x3d31d1f3	0.043413114
234	0x3ceafbf2	0.02868459
235	0x3e09f9e5	0.13474233
236	0x3e84468a	0.25835067
237	0x3e67f73c	0.22652906
238	0x3d9fba20	0.077991724
239	0x3d2c5ea7	0.042082455
240	0xbcc1c8d7	-0.023655338
241	0xbd7bc466	-0.061466597
242	0xbd339eb6	-0.04385253
243	0x3e8944d5	0.26810327
244	0xbcc49adc	-0.023999624
245	0xbc9fa47c	-0.019487612
246	0xbc30cc15	-0.010790844
247	0x3cc9be76	0.024626952
248	0xbcdbe6ca	-0.026843447
249	0xbdb02590	-0.086009145
250	0xbc713314	-0.014721651
251	0xbd04436e	-0.03229087
252	0xbdc12300	-0.09430504
253	0x3e4dd022	0.20098928
254	0xbd98a1e6	-0.07452755
255	0xbe14b787	-0.14523135

fc1.weight_fake_quant.scale f4 [84]
0	0x3b849c26	0.0040469347
1	0x3b4647e2	0.0030255248
2	0x3b11bd60	0.002223812
3	0x3b336130	0.002737116
4	0x3a7481ba	0.0009327192
5	0x3a83f749	0.0010068204
6	0x3afd6910	0.0019333679
7	0x3b4bb50c	0.0031083254
8	0x3a71f73e	0.00092302624
9	0x3aabd841	0.0013110713
10	0x3b10538b	0.0022022452
11	0x3ab7f29d	0.0014034096
12	0x3b307e18	0.0026930626
13	0x3ad18c95	0.0015987331
14	0x3b57d07e	0.0032930668
15	0x3a5ce6b6	0.00084267126
16	0x3a829d0c	0.0009965017
17	0x3b3dfe83	0.0028990812
18	0x3a924eda	0.0011162416
19	0x3b891697	0.004183601
20	0x3b5e12ce	0.003388572
21	0x3b7bc445	0.0038416546
22	0x3b247814	0.0025095986
23	0x3b4c9c74	0.0031221183
24	0x3b09ecca	0.0021045678
25	0x3b20be52	0.0024527502
26	0x3b456ce8	0.0030124728
27	0x3b27f383	0.0025627322
28	0x3b49e222	0.0030804952
29	0x3a863daf	0.0010241772
30	0x3b3b8c53	0.0028617575
31	0x3b0508ee	0.0020299512
32	0x3a561700	0.00081668794
33	0x3b1e0677	0.002411274
34	0x3b7a8bbb	0.0038230259
35	0x3b56a722	0.0032753428
36	0x3b3a7f97	0.0028457397
37	0x3b498bac	0.0030753417
38	0x3b22ac5d	0.0024821975
39	0x3a76c1be	0.0009413025
40	0x3a93be2c	0.0011271886
41	0x3b5b1941	0.00334318
42	0x3b5eec6d	0.0034015432
43	0x3b3bb4ec	0.0028641773
44	0x3ab6ca92	0.0013945869
45	0x3b446caf	0.0029972007
46	0x3b5e92b5	0.0033961956
47	0x3b02a2dc	0.0019933498
48	0x3b359b07	0.0027710812
49	0x3b4f7734	0.0031656744
50	0x3b30590e	0.002690855
51	0x3b4ee8de	0.0031571905
52	0x3b24b8d2	0.0025134576
53	0x3b52a122	0.00321395
54	0x3b3f0ab1	0.002915066
55	0x3b74ef5f	0.0037374122
56	0x3b354eea	0.0027665445
57	0x3b57baec	0.003291781
58	0x3b3f9b4d	0.0029236854
59	0x3b304597	0.0026896948
60	0x3b21e014	0.0024700211
61	0x3b4ec4a3	0.003155031
62	0x3b58f52e	0.0033105123
63	0x3b1833a4	0.002322414
64	0x3b4dc1dc	0.0031396067
65	0x3b3d269b	0.0028862122
66	0x3b551b10	0.0032517351
67	0x3b4ec838	0.0031552445
68	0x3b6162d7	0.0034391189
69	0x3a7466c0	0.0009323172
70	0x3a8b09b6	0.0010607752
71	0x3b101150	0.0021982975
72	0x3b3a1883	0.0028395958
73	0x3b6ee65d	0.0036453225
74	0x3b1c4ce8	0.002384955
75	0x3b274ba5	0.0025527265
76	0x3a73ae86	0.00092957204
77	0x3b42ec4b	0.0029742892
78	0x3b8109c6	0.0039379327
79	0x3b6bdaa9	0.0035988486
80	0x3b2c4171	0.0026284123
81	0x3b5abd3e	0.0033376957
82	0x3b3eb2a0	0.0029098168
83	0x3a9f77f0	0.0012166481

fc1.weight_fake_quant.activation_post_process.min_val f4 [84]
0	0xbe964838	-0.29351974
1	0xbe950dfd	-0.29112235
2	0xbe384bb9	-0.17997636
3	0xbeb36130	-0.35035086
4	0xbdf481ba	-0.11938806
5	0xbe03c924	-0.12869698
6	0xbe525b34	-0.20542604
7	0xbea8358f	-0.32853362
8	0xbdf1f73e	-0.11814736
9	0xbe1ac12e	-0.15112755
10	0xbe8dc85a	-0.2769192
11	0xbe2f3e8c	-0.17113703
12	0xbe8b2388	-0.27175546
13	0xbe518c95	-0.20463784
14	0xbed7d07e	-0.42151254
15	0xbddce6b6	-0.10786192
16	0xbe029d0c	-0.12755221
17	0xbe86fc48	-0.2636435
18	0xbe124eda	-0.14287892
19	0xbe9773be	-0.29580492
20	0xbeb7d000	-0.3590088
21	0xbed9dd62	-0.42551714
22	0xbe5ac588	-0.21364415
23	0xbecc9c74	-0.39963114
24	0xbe89ecca	-0.26938468
25	0xbea0be52	-0.31395203
26	0xbec56ce8	-0.3855965
27	0xbe804dc8	-0.25059342
28	0xbe84f6f2	-0.25969654
29	0xbe012a0e	-0.12613699
30	0xbe601e2a	-0.21886507
31	0xbe3d2e85	-0.18474777
32	0xbdd61700	-0.10453606
33	0xbe303a50	-0.17209744
34	0xbe987610	-0.29777575
35	0xbe7452d2	-0.23859718
36	0xbe9d4cc2	-0.30722624
37	0xbec98bac	-0.39364374
38	0xbea2ac5d	-0.31772128
39	0xbdf6c1be	-0.12048672
40	0xbe13be2c	-0.14428014
41	0xbeaa15f0	-0.33219862
42	0xbe9f2c0f	-0.31088302
43	0xbe8bb6be	-0.2728786
44	0xbe36ca92	-0.17850712
45	0xbe8e4e34	-0.2779404
46	0xbea84f08	-0.32872796
47	0xbe4e5c34	-0.2015236
48	0xbeb59b07	-0.3546984
49	0xbe94aff0	-0.2904048
50	0xbeaab83a	-0.3334368
51	0xbecee8de	-0.4041204
52	0xbe92b61c	-0.28654563
53	0xbec1af24	-0.37828934
54	0xbe8dee5f	-0.27720925
55	0xbeb801d6	-0.359389
56	0xbe74e1fc	-0.23914331
57	0xbe799e50	-0.24376798
58	0xbe76bce7	-0.24095498
59	0xbe896eba	-0.2684229
60	0xbe83b124	-0.25721085
61	0xbe80afba	-0.2513407
62	0xbea8c5ee	-0.32963508
63	0xbe4b45ae	-0.198508
64	0xbe981cca	-0.29709464
65	0xbeb1d0cc	-0.34729612
66	0xbed51b10	-0.4162221
67	0xbe835518	-0.2565086
68	0xbedbfa24	-0.4296428
69	0xbdf466c0	-0.119336605
70	0xbe0b09b6	-0.13577923
71	0xbe901150	-0.28138208
72	0xbea298a4	-0.3175708
73	0xbec4b4d6	-0.38419217
74	0xbe90c300	-0.28273773
75	0xbe7d715e	-0.24750277
76	0xbdf3ae86	-0.11898522
77	0xbea58b64	-0.3233291
78	0xbeafbc34	-0.34323275
79	0xbeb76c24	-0.35824692
80	0xbe735807	-0.23764049
81	0xbe93b326	-0.28847617
82	0xbebeb2a0	-0.37245655
83	0xbe1f77f0	-0.15573096

fc1.weight_fake_quant.activation_post_process.max_val f4 [84]
0	0x3f0392ee	0.5139607
1	0x3ec4bb52	0.38424164
2	0x3e9099e5	0.28242412
3	0x3eabadd0	0.33531046
4	0x3dd007dc	0.10157749
5	0x3e02ef5a	0.12786618
6	0x3e7b6e3e	0.24553773
7	0x3eca1da2	0.39475733
8	0x3dbfe8ca	0.09370573
9	0x3e2a8090	0.16650605
10	0x3e8f32e4	0.27968514
11	0x3e3682b8	0.17823303
12	0x3eaf1d1c	0.34201896
13	0x3e4fa1ab	0.20276515
14	0x3ebb8ba6	0.3662998
15	0x3dc4fe90	0.096188664
16	0x3df6b2d2	0.12045826
17	0x3ebc8286	0.3681833
18	0x3db8b9e8	0.09019834
19	0x3f08046a	0.53131735
20	0x3edc56a8	0.43034863
21	0x3ef9ccbc	0.48789012
22	0x3ea32f24	0.31871903
23	0x3e82d8c8	0.25556016
24	0x3e45e1ea	0.1932446
25	0x3e914e2c	0.28379953
26	0x3eb6ecb0	0.35727453
27	0x3ea6a39c	0.325467
28	0x3ec84e5e	0.3912229
29	0x3e053134	0.13007051
30	0x3eba153a	0.3634432
31	0x3e83fedc	0.2578038
32	0x3dbc75b0	0.092021346
33	0x3e9cca6a	0.3062318
34	0x3ef896a4	0.4855243
35	0x3ed4f9d4	0.41596854
36	0x3eb90a98	0.36140895
37	0x3ec294be	0.38004106
38	0x3e543fc1	0.20727445
39	0x3d891a22	0.066944376
40	0x3da4168a	0.080121115
41	0x3ed9630e	0.42458385
42	0x3edd2e94	0.431996
43	0x3eba3d82	0.36375052
44	0x3de892d8	0.11356133
45	0x3ec2e3d6	0.3806445
46	0x3edcd590	0.43131685
47	0x3e819d96	0.2531554
48	0x3e985d0c	0.2975849
49	0x3ecdd846	0.40204066
50	0x3eaef85c	0.34173858
51	0x3eb0109c	0.34387672
52	0x3ea36f60	0.3192091
53	0x3ed0fbe0	0.40817165
54	0x3ebd8c9c	0.3702134
55	0x3ef30580	0.47465134
56	0x3eb3e44c	0.35135114
57	0x3ed60b76	0.4180562
58	0x3ebe1c16	0.37130803
59	0x3eaee50c	0.34159124
60	0x3ea09c54	0.3136927
61	0x3ecd271a	0.40068895
62	0x3ed74344	0.42043507
63	0x3e97033d	0.29494658
64	0x3ecc2658	0.39873004
65	0x3ebbac4e	0.36654896
66	0x3ec470c8	0.38367295
67	0x3ecd2aa8	0.40071607
68	0x3edfa011	0.43676808
69	0x3dc32e70	0.095303416
70	0x3d892dbe	0.06698178
71	0x3e884182	0.26612478
72	0x3eb8a452	0.36062866
73	0x3eed0890	0.46295595
74	0x3e9b144e	0.3028893
75	0x3ea5fd0e	0.32419628
76	0x3db7a016	0.08966081
77	0x3ec16672	0.37773472
78	0x3f0007b2	0.5001174
79	0x3eea02f4	0.45705378
80	0x3eaae8ee	0.33380836
81	0x3ed907c4	0.42388737
82	0x3eaaf22c	0.33387887
83	0x3dba8400	0.09107208

fc2.weight f4 [1, 84]
0	0xbe0d34cc	-0.13789672
1	0xbe0d84f7	-0.13820253
2	0x3dc58824	0.096451074
3	0x3e2d0690	0.16897035
4	0x3d510132	0.05102653
5	0x3ba74265	0.0051043504
6	0x3e3e4b4d	0.18583412
7	0x3eb58fab	0.35461172
8	0x3d606c9b	0.054791074
9	0x399c5a65	0.00029821988
10	0x3e510b06	0.20414361
11	0x3cbd1ae1	0.023084106
12	0xbe6914c8	-0.22761834
13	0x3cc774a9	0.02434762
14	0x3e93432c	0.28762186
15	0x3dc64c1d	0.09682486
16	0x3c9fef5e	0.019523319
17	0xbe8d9283	-0.27650842
18	0x3cb3f0be	0.02196538
19	0xbe5bd709	-0.21468748
20	0xbe7d32c1	-0.24726392
21	0xbe4d40dc	-0.20044273
22	0x3d39a480	0.045322895
23	0xbd66a48c	-0.056309268
24	0x3d95b2a6	0.07309465
25	0x3e72872b	0.23684375
26	0x3dfc8d35	0.123316206
27	0x3de7aff7	0.113128595
28	0xbe3f5641	-0.18685247
29	0x3c013167	0.007885314
30	0xbe163fa4	-0.14672714
31	0xbda0758e	-0.07834922
32	0x3cc6fa90	0.0242894
33	0x3e01a46f	0.12660383
34	0xbe27e0f4	-0.16394407
35	0xbe919c36	-0.28439492
36	0x3e958f8c	0.2921108
37	0x3eac71d0	0.33680582
38	0x3e55862b	0.20851962
39	0x3b3d3562	0.002887093
40	0x3cc04d3c	0.023474328
41	0xbe2f2e7b	-0.17107575
42	0x3eaa7cc8	0.33298326
43	0x3e7e9d64	0.24864727
44	0xbb0effa3	-0.0021819852
45	0x3e39b1cf	0.18134235
46	0xbe404f9b	-0.18780367
47	0x3e178851	0.14798094
48	0x3e8d68c0	0.2761898
49	0xbe9cb08e	-0.3060345
50	0xbe1ed1e9	-0.15509762
51	0xbe167d7b	-0.14696305
52	0x3e31d11f	0.1736493
53	0x3e5f1767	0.21786271
54	0x3e60e2b4	0.2196148
55	0xbe31092b	-0.17288654
56	0x3eac65fe	0.33671564
57	0x3ed694c2	0.41910368
58	0x3e8c2abe	0.2737636
59	0x3ed635b7	0.41837856
60	0x3e4e433c	0.20142835
61	0xbe1e8933	-0.15482025
62	0xbe13bb17	-0.14426838
63	0x3e16fb9e	0.14744422
64	0xbe765e4f	-0.24059413
65	0x3e774060	0.24145651
66	0x3e759e9d	0.23986287
67	0x3e8e9013	0.27844295
68	0xbe1697eb	-0.1470639
69	0x3d813840	0.06309557
70	0xbbcb345b	-0.0062013096
71	0x3e2ceeef	0.16888021
72	0x3e9de86c	0.30841386
73	0xbe2b61bd	-0.16736503
74	0x3e44d2b8	0.19221008
75	0x3e3b9252	0.18317536
76	0xbcdc485a	-0.026889969
77	0x3e53ae17	0.20671879
78	0xbe4c6151	-0.19958998
79	0xbe459082	-0.19293407
80	0x3dbe9de6	0.093074605
81	0x3e2b158b	0.16707437
82	0xbe502b84	-0.203291
83	0x3bc729b2	0.0060779685
