experiments/exp024/checkpoint.pth (torch, 206286 bytes, 45 tensors)

conv1.depthwise.weight f4 [2, 1, 5, 5]
0	0x3e831878	0.25604606
1	0x3b12f606	0.0022424473
2	0x3dca5bdf	0.09880804
3	0xbe15b3d9	-0.14619388
4	0x3e286e9c	0.16448444
5	0x3e807f22	0.25096995
6	0x3e78e78e	0.24307081
7	0x3e4fdee5	0.20299871
8	0x3e526142	0.20544913
9	0xbe3c44a1	-0.18385555
10	0xbe7c5530	-0.24641871
11	0x3ec258f4	0.3795849
12	0x3e76861c	0.24074596
13	0x3e724c8a	0.2366201
14	0x3e53681b	0.20645182
15	0xbd91ec16	-0.07125108
16	0xbe66714e	-0.2250416
17	0x3db74ac8	0.0894981
18	0x3cdfa471	0.027300091
19	0x3d66113e	0.056168787
20	0xbe8b6567	-0.272258
21	0xbe64740f	-0.22309898
22	0x39a413e9	0.00031295352
23	0x3e5caf98	0.21551359
24	0x3e1aafd0	0.1510613
25	0xbd97405c	-0.073853225
26	0xbdcca77f	-0.09992885
27	0xbdcdb9df	-0.10045218
28	0x3dfa90dd	0.12234662
29	0xbed127bd	-0.4085063
30	0x3e1f03e5	0.1552883
31	0xbe265a56	-0.16245398
32	0x3e4267f0	0.18984962
33	0x3df157f7	0.11784356
34	0xbd98b241	-0.07455874
35	0xbe649422	-0.22322133
36	0xbe590295	-0.21192391
37	0x3daae9b6	0.08345358
38	0x3e15bcae	0.14622757
39	0xbe4fc201	-0.2028885
40	0xbe92b9fd	-0.28657523
41	0xbe94085b	-0.28912625
42	0x3db62b0c	0.08894929
43	0xbe741628	-0.23836577
44	0xbdda29ed	-0.10652528
45	0xbdd6917c	-0.10476968
46	0xbe7a1cd0	-0.24425054
47	0xbddccc63	-0.10781171
48	0x3df043bf	0.117316715
49	0xbe5d77d7	-0.21627747

conv1.depthwise.weight_fake_quant.scale f4 [2]
0	0x3b44d2a5	0.003003278
1	0x3b50dcde	0.0031869928

conv1.depthwise.weight_fake_quant.activation_post_process.min_val f4 [2]
0	0xbe8ae99c	-0.27131355
1	0xbed0dcde	-0.40793508

conv1.depthwise.weight_fake_quant.activation_post_process.max_val f4 [2]
0	0x3ec34900	0.38141632
1	0x3e41fdf2	0.18944529

conv1.pointwise.weight f4 [6, 2, 1, 1]
0	0xbeb186ac	-0.3467306
1	0xbf4f01e9	-0.8086229
2	0xbf563213	-0.8367016
3	0x3ed8b199	0.42322996
4	0x3f4f0f25	0.80882484
5	0x3eaab7c9	0.33343342
6	0xbf5126f7	-0.8170008
7	0xbe81fa9c	-0.25386512
8	0x3f43f7fa	0.7655026
9	0x3d12f6b9	0.035879824
10	0xbf5eaacc	-0.86979365
11	0xbf23362b	-0.6375453

conv1.pointwise.weight_fake_quant.scale f4 [6]
0	0x3b4f9ed3	0.003168036
1	0x3bd59746	0.0065182773
2	0x3b4fbc9e	0.0031698118
3	0x3b51bd60	0.0032003745
4	0x3b4498fb	0.002999841
5	0x3b5f57e1	0.003407948

conv1.pointwise.weight_fake_quant.activation_post_process.min_val f4 [6]
0	0xbf4ecf34	-0.80784917
1	0xbf559746	-0.8343395
2	0x3ea95363	0.33071432
3	0xbf50eba3	-0.81609553
4	0x3d10c5db	0.03534494
5	0xbf5e7889	-0.8690267

conv1.pointwise.weight_fake_quant.activation_post_process.max_val f4 [6]
0	0xbeafd9ee	-0.34345955
1	0x3ed8737d	0.4227561
2	0x3f4eece1	0.808302
3	0xbe819f87	-0.25317022
4	0x3f43d462	0.76495945
5	0xbf234ccd	-0.63789064

conv2.depthwise.weight f4 [6, 1, 5, 5]
0	0x3e4c37a5	0.19943102
1	0x3d6ece5f	0.05830228
2	0x3d974167	0.073855214
3	0x3ec1d998	0.37861323
4	0x3ecaf0d4	0.39636862
5	0x3e68b308	0.22724545
6	0x3cac56d5	0.021037498
7	0x3dba368a	0.09092434
8	0x3ce99088	0.0285113
9	0x3e3734de	0.17891261
10	0xbd90d2c7	-0.070714526
11	0xbe9c690d	-0.30548897
12	0x3dddc7b9	0.1082911
13	0x3e49431b	0.19654505
14	0xbd34c29d	-0.04413091
15	0xbec3b09c	-0.3822068
16	0xbe97fe03	-0.29685983
17	0x3cccb863	0.024990266
18	0x3dda60a0	0.10662961
19	0x3d6db6d4	0.058035687
20	0xbd78da4e	-0.060755067
21	0x3d84fced	0.06493554
22	0x3c0fb33e	0.008770762
23	0xbdbbf635	-0.0917782
24	0xbe8a92fe	-0.2706527
25	0x3ecaedfa	0.39634687
26	0x3e010769	0.12600483
27	0x3d62aaf6	0.055338822
28	0x3e5cec59	0.21574534
29	0xbca4b994	-0.020108022
30	0xbd636110	-0.055512488
31	0x3e6a5283	0.22883038
32	0x3d27f1ca	0.041002072
33	0x3d868cc1	0.065698154
34	0xbe4a8477	-0.19777094
35	0x3a9d93d4	0.0012022206
36	0xbe4349ef	-0.19071172
37	0xbe86e225	-0.2634441
38	0x3cd9f94a	0.026608128
39	0xbeb3f39d	-0.351468
40	0xbddd5af7	-0.10808366
41	0xbdffaf5d	-0.1248462
42	0x3cd10ea9	0.025519686
43	0xbeafe788	-0.34356332
44	0xbee55266	-0.44789428
45	0x3e04a989	0.12955298
46	0x3d68c5af	0.05682915
47	0xbd5fce13	-0.054639887
48	0xbc99a543	-0.01875556
49	0xbd51c9a0	-0.051217675
50	0x3d05d45c	0.032673225
51	0x3d4b8b4d	0.049693394
52	0x3d87bd0d	0.066278554
53	0xbd7a7a2f	-0.06115168
54	0xbebbe75a	-0.36699945
55	0x3e5048e0	0.203403
56	0x3c6eb753	0.014570075
57	0xba175cf6	-0.0005774045
58	0x3dc92cb4	0.098229796
59	0x3b5d4253	0.0033761456
60	0x3dbaf830	0.09129369
61	0x3e50399a	0.20334473
62	0x3e7c835e	0.24659488
63	0x3e416f3c	0.18890089
64	0x3e4a62c6	0.19764242
65	0x3e171c85	0.14756973
66	0x3e3dab0f	0.18522285
67	0x3eb0ebc0	0.34554863
68	0x3e11f9ae	0.14255401
69	0x3ea8449c	0.32864845
70	0xbce1d63a	-0.027567971
71	0xbe0671c9	-0.13129343
72	0xbe47d40f	-0.19514488
73	0xbdf2f0c1	-0.118623264
74	0x3d602ace	0.05472832
75	0xbc01494d	-0.007891011
76	0xbdb5dec7	-0.08880382
77	0xbec095d5	-0.37614313
78	0xbe32b1ed	-0.17450686
79	0xbcd28fbd	-0.025703305
80	0xbdf16313	-0.11786475
81	0x3d63edac	0.055646583
82	0x3c16d3d4	0.009205777
83	0xbd7ed6f2	-0.062216707
84	0x3e340d6a	0.17583242
85	0xbd21f00c	-0.039535567
86	0x3d6506fc	0.055914864
87	0x3d18d47a	0.03731201
88	0x3e1e57e0	0.15463209
89	0xbe1c793d	-0.15280624
90	0xbdb9f5ff	-0.09080123
91	0xbdf1685d	-0.11787484
92	0xbc2bc269	-0.010483363
93	0xbe59e003	-0.2127686
94	0x3dd20793	0.10255351
95	0xbe6ef2bf	-0.23334788
96	0xbe52b3d2	-0.20576409
97	0xbe96491c	-0.29352653
98	0xbe455e8d	-0.1927435
99	0x3be8363f	0.0070865448
100	0xbce6a184	-0.028153189
101	0xbd2a2ecf	-0.041548546
102	0xbe2a9ce9	-0.16661419
103	0xbe8d2a78	-0.27571464
104	0xbd9826e6	-0.07429294
105	0xbe8975e7	-0.26847765
106	0x3d8a7151	0.06759895
107	0xbdc05674	-0.093914896
108	0x3d7ff31e	0.062487714
109	0xbc3eecb6	-0.011653116
110	0xbe06dcf6	-0.13170227
111	0xbe85741e	-0.26065153
112	0xbe38c52a	-0.18043962
113	0xbee804c2	-0.4531613
114	0xbcb58188	-0.022156492
115	0xbea5727d	-0.3231391
116	0xbcc20c5c	-0.023687534
117	0xbe75f9e4	-0.24021107
118	0xbd0f08d6	-0.034920536
119	0xbd87d5c8	-0.066325724
120	0xbeb2aeac	-0.3489889
121	0xbdd40730	-0.103529334
122	0xbdfc47d3	-0.12318387
123	0xbdb741ba	-0.08948083
124	0xbcd517e1	-0.026012363
125	0xbe894999	-0.26813963
126	0xbe6dff64	-0.23241955
127	0xbd8a236a	-0.06745036
128	0xbe9d8cbe	-0.3077144
129	0xbeb8e15a	-0.3610943
130	0x3bd53e78	0.006507691
131	0x3dc5a760	0.09651065
132	0x3d4c0fe9	0.04981986
133	0xbd791a9c	-0.060816392
134	0xbed6c092	-0.41943794
135	0xbebc44f6	-0.36771363
136	0xbe9ef15b	-0.31043515
137	0xbe090cf9	-0.13383855
138	0xbd78f850	-0.060783684
139	0xbe88afd8	-0.26696658
140	0xbee69483	-0.4503518
141	0xbe923a8b	-0.2856029
142	0x3d8a447e	0.06751345
143	0xbe1ac680	-0.15114784
144	0xbec48874	-0.38385355
145	0xbef2e93e	-0.47443575
146	0xbe0fc337	-0.14039312
147	0xbe9279bb	-0.28608498
148	0xbe6d7c4c	-0.23191947
149	0xbee0c5f5	-0.4390103

conv2.depthwise.weight_fake_quant.scale f4 [6]
0	0x3b4c4630	0.0031169765
1	0x3b650dcd	0.0034950853
2	0x3b3b93bf	0.0028622
3	0x3b404afa	0.0029341565
4	0x3b67c483	0.0035364933
5	0x3b72a089	0.0037021956

conv2.depthwise.weight_fake_quant.activation_post_process.min_val f4 [6]
0	0xbec25a85	-0.37959686
1	0xbee50dcd	-0.44737092
2	0xbebb93bf	-0.3663616
3	0xbec04afa	-0.37557203
4	0xbee7c483	-0.45267114
5	0xbef2a089	-0.47388104

conv2.depthwise.weight_fake_quant.activation_post_process.max_val f4 [6]
0	0x3ecaada4	0.39585602
1	0x3ecab1a9	0.3958867
2	0x3eafcc0d	0.34335366
3	0x3e34a656	0.17641577
4	0x3d8ed9ea	0.069751576
5	0x3dc2f1d5	0.09518782

conv2.pointwise.weight f4 [16, 6, 1, 1]
0	0xbee12713	-0.43975124
1	0x3edc33bc	0.4300822
2	0x3c447055	0.011989673
3	0xbe1bb9af	-0.15207551
4	0xbe2df8da	-0.1698946
5	0xbe6df99e	-0.23239753
6	0xbf33aa79	-0.70181996
7	0x3e577112	0.21039227
8	0xbeaaafb6	-0.33337182
9	0x3ee86951	0.4539285
10	0x3e157f2f	0.14599298
11	0xbdf882a6	-0.12134294
12	0xbe83bf77	-0.25732014
13	0x3ee2db50	0.44307947
14	0x3ea4ff7c	0.3222617
15	0xbedc182d	-0.42987195
16	0x3ea0f73b	0.31438622
17	0x3d624559	0.055241916
18	0x3d9fee53	0.078091286
19	0x3e069147	0.13141356
20	0x3ebdaa5a	0.3704403
21	0xbe6bfac2	-0.23044875
22	0xbd005d03	-0.031338703
23	0xbea91008	-0.33020043
24	0x3ebadb23	0.36495313
25	0xbe8950de	-0.2681951
26	0xbeea7d22	-0.45798594
27	0xbed94b24	-0.4244014
28	0xbe233883	-0.15939526
29	0x3e6eb6ba	0.23311892
30	0xbdcef905	-0.101060905
31	0x3e47f94d	0.19528694
32	0x3e39018d	0.18066998
33	0x3d32102e	0.04347246
34	0xbe22ca71	-0.15897538
35	0xbf14a51b	-0.5806443
36	0x3f23b623	0.63949794
37	0xbd80a70d	-0.062818624
38	0xbebfa5cf	-0.3743119
39	0x3e267fb0	0.16259646
40	0xbda15803	-0.07878115
41	0x3e6a66a1	0.22890712
42	0xbeb20649	-0.3477042
43	0x3ec1209d	0.37720194
44	0x3e57a8d2	0.21060494
45	0xbc47f88e	-0.012205256
46	0xbf40e57e	-0.7535018
47	0x3e1fcf94	0.15606529
48	0x3e5445bc	0.20729727
49	0xbe2fafe9	-0.17156948
50	0x3ea2164c	0.31657636
51	0xbdcd844f	-0.100350015
52	0xbed03264	-0.40663445
53	0x3ee105b1	0.43949655
54	0xbf2a980a	-0.66638243
55	0xbe57f72e	-0.21090385
56	0x3e52a6c8	0.20571434
57	0x3ebeec25	0.3728954
58	0xbedff9c8	-0.43745255
59	0xbef6f6d5	-0.48235193
60	0xbdae42bb	-0.085088216
61	0x3f2c3caf	0.67280096
62	0x3c1a422d	0.009415192
63	0xbe426b2b	-0.18986194
64	0x3e08031a	0.13282433
65	0x3c0564d4	0.008141715
66	0x3e24cc98	0.16093671
67	0xbd7ce2ec	-0.061739847
68	0xbf16ed96	-0.5895628
69	0xbebbdebc	-0.3669337
70	0x3c34477d	0.011003372
71	0xbd94e597	-0.07270353
72	0x3e2df1b6	0.16986737
73	0x3d15572f	0.036460098
74	0x3e6498e9	0.22323956
75	0xbe8282d1	-0.2549043
76	0xbe9f237d	-0.31081763
77	0x3efbe990	0.49201632
78	0x3e3c5e93	0.18395452
79	0x3c9fb5be	0.019495841
80	0x3ebf7ce6	0.37399977
81	0x3d1f63ca	0.038913526
82	0xbd139acd	-0.0360363
83	0xbeffc92a	-0.49958163
84	0x3eddc45f	0.43313882
85	0xbea706cd	-0.32622376
86	0x3e1fc9fa	0.15604392
87	0x3d8c67be	0.06855725
88	0xbde6d065	-0.11270217
89	0x3eb264c9	0.34842518
90	0x3ed0ce65	0.40782467
91	0x3e416755	0.18887074
92	0x3d92f037	0.071747236
93	0xbe9ee584	-0.31034482
94	0x3f08c690	0.5342798
95	0xbdd87a1a	-0.10570164

conv2.pointwise.weight_fake_quant.scale f4 [16]
0	0x3b60f53b	0.0034325856
1	0x3bb3021d	0.0054628984
2	0x3b645281	0.0034839215
3	0x3b3ec174	0.0029107006
4	0x3b6a09fb	0.0035711515
5	0x3b9469a1	0.0045291935
6	0x3ba4884f	0.005021132
7	0x3bc09b86	0.005877915
8	0x3b61e230	0.0034467094
9	0x3baa37e5	0.0051946514
10	0x3bad58ac	0.0052901115
11	0x3b96bf5b	0.004600448
12	0x3b7d7883	0.0038676567
13	0x3b7f1e13	0.0038927838
14	0x3b5f07c8	0.0034031738
15	0x3b89a8c5	0.004201027

conv2.pointwise.weight_fake_quant.activation_post_process.min_val f4 [16]
0	0xbee0f53b	-0.43937096
1	0xbf33021d	-0.699251
2	0xbedc6633	-0.43046722
3	0xbea93314	-0.33046782
4	0xbeea09fb	-0.4571074
5	0xbf1469a1	-0.57973677
6	0xbebf23a3	-0.37331876
7	0xbf409b86	-0.7523731
8	0xbecfad36	-0.40561837
9	0xbf2a37e5	-0.6649154
10	0xbe434001	-0.19067384
11	0xbf16bf5b	-0.58885735
12	0xbe9ec089	-0.31006268
13	0xbeff1e13	-0.49827632
14	0xbea6e67d	-0.32597724
15	0xbe9f1dd7	-0.31077453

conv2.pointwise.weight_fake_quant.activation_post_process.max_val f4 [16]
0	0x3edae14b	0.4275001
1	0x3ee790ea	0.45227748
2	0x3ee289dc	0.44245803
3	0x3ebd43f1	0.36965898
4	0x3ebb3b1a	0.36568528
5	0x3e46be2e	0.19408485
6	0x3f233f3e	0.63768375
7	0x3ebfd84e	0.37469715
8	0x3ee01e6c	0.4377321
9	0x3ebf0127	0.37305567
10	0x3f2bfdfb	0.6718442
11	0x3e261a58	0.16220987
12	0x3efb7d92	0.4911924
13	0x3ebfe22f	0.37477252
14	0x3edd49b8	0.43220305
15	0x3f089573	0.5335304

conv3.depthwise.weight f4 [16, 1, 5, 5]
0	0x3cb0d12d	0.021584118
1	0x3e79b4ca	0.24385372
2	0x3d06eae2	0.032938845
3	0x3e9562c9	0.2917693
4	0x3ec31057	0.38098404
5	0xbdd558d3	-0.104173325
6	0x3ddcd32c	0.10782465
7	0x3ce7a221	0.028275551
8	0xbe12d059	-0.14337291
9	0xbc7571cc	-0.014980745
10	0xbe1b19d3	-0.1514657
11	0xbd8aea4c	-0.0678297
12	0xbdd67972	-0.104723826
13	0xbeab6c91	-0.33481267
14	0x3dd31646	0.10306983
15	0xbe4040fb	-0.18774788
16	0x3e56c2ee	0.20972797
17	0xbd130db5	-0.035901744
18	0xbe9fe7bf	-0.31231496
19	0xbe2d6d0d	-0.16936131
20	0x3c09d1f9	0.008411878
21	0x3db2abfa	0.08724208
22	0x3e06a94b	0.13150518
23	0x3dcf33eb	0.101173244
24	0xbd3fbd66	-0.046811484
25	0xbed683e5	-0.41897503
26	0xbe08bd41	-0.13353445
27	0x3ebb3edd	0.36571398
28	0x3d763578	0.060109586
29	0xbc581668	-0.013188936
30	0x3e40cde2	0.18828538
31	0xbcad8887	-0.021183265
32	0xbd31d8ff	-0.043419834
33	0x3e636606	0.22206888
34	0xbd40d800	-0.047080994
35	0x3d7496e3	0.05971421
36	0x3eeef42d	0.46670666
37	0x3e93ca94	0.28865492
38	0x3ecf5f54	0.40502417
39	0xbeda8203	-0.42677316
40	0xbd9c06bf	-0.07618474
41	0x3e8ee452	0.2790857
42	0x3ee3fd95	0.44529405
43	0x3cf98c23	0.03046233
44	0x3e5a8d46	0.21342954
45	0x3ecfcbef	0.40585276
46	0x3ec4e684	0.3845712
47	0x3e9ad9ee	0.30244392
48	0xbdbf697d	-0.09346292
49	0x3d5cd900	0.053917885
50	0x3db4af7c	0.088225335
51	0xbe83c01c	-0.25732505
52	0x3d2fe040	0.04293847
53	0x3e7f73dc	0.2494654
54	0x3e2cd6b8	0.16878784
55	0xbe0a9dfc	-0.13536829
56	0x3d68b9f9	0.056817982
57	0xbeb973da	-0.362212
58	0xbe7c66a7	-0.24648534
59	0xbea28409	-0.3174136
60	0x3da450a4	0.080231935
61	0x3e00c90b	0.12576692
62	0xbdad85ba	-0.08472772
63	0xbdf52fd4	-0.11972013
64	0xbe42bcb5	-0.19017299
65	0x3d9f5d25	0.07781438
66	0x3e541954	0.20712787
67	0x3dba538b	0.09097966
68	0xbe40cafb	-0.18827431
69	0x3e231599	0.15926208
70	0x3e6e46a4	0.23269135
71	0x3f097823	0.5369894
72	0x3f09c446	0.53815114
73	0x3e519fd7	0.2047113
74	0x3e39b3dd	0.18135019
75	0x3ce92c56	0.028463524
76	0x3c1bd92a	0.009512225
77	0x3c214810	0.009843841
78	0x3d58d6cd	0.052939225
79	0xbe079d1e	-0.13243529
80	0x3d7c46a5	0.06159081
81	0x3e78717d	0.24262042
82	0x3e02a861	0.12759544
83	0x3e87d551	0.26529935
84	0x3e138c83	0.1440907
85	0xbdfd12f5	-0.123571314
86	0xbea84c7f	-0.32870862
87	0x3d096073	0.033539247
88	0xbe4091ac	-0.1880557
89	0x3dc73c30	0.09728277
90	0xbdbe07db	-0.09278842
91	0xbe056776	-0.13027748
92	0xbe2cb37d	-0.16865344
93	0xbdc9fcc6	-0.09862666
94	0xbd0850ed	-0.0332803
95	0x3c8d1d48	0.017225876
96	0x3dab217f	0.08355998
97	0xbce219fb	-0.02760028
98	0x3db00e5a	0.08596487
99	0x3dd67315	0.10471169
100	0xbe0b9f83	-0.13635068
101	0xbdd20787	-0.10255342
102	0x3e044f0f	0.12920783
103	0xbe6e676d	-0.23281641
104	0xbe86f421	-0.2635813
105	0x3d31b235	0.043382842
106	0xbcfb9276	-0.030709486
107	0xbce9c11f	-0.02853447
108	0xbcf2a747	-0.02962078
109	0xbe5145f2	-0.20436838
110	0x3e12265c	0.14272445
111	0xbe120a30	-0.14261699
112	0x3e59f65c	0.21285385
113	0xbdd6a50a	-0.104806975
114	0xbea05524	-0.31314957
115	0x3e28e796	0.16494593
116	0x3da5c3ad	0.08093963
117	0xbe036368	-0.12830889
118	0xbde10e2e	-0.10989033
119	0x3e519fd5	0.20471127
120	0x3e80a280	0.25123978
121	0x3ca9e1a0	0.02073747
122	0x3e1df338	0.15424812
123	0x3e151db4	0.14562112
124	0xbd83dcf5	-0.064386286
125	0x3dfcee29	0.12350113
126	0xbe0294a6	-0.12752017
127	0xbe2c3eb3	-0.16820793
128	0xbe1849d4	-0.14871913
129	0x3e6c7626	0.23091945
130	0xbee5716d	-0.448131
131	0xbd2fac61	-0.042889003
132	0x3d258a84	0.040415302
133	0xbdc8c9d5	-0.098041214
134	0x3e395235	0.18097766
135	0xbd9274b0	-0.071511626
136	0xbde14780	-0.10999966
137	0xbd2e5b82	-0.042567737
138	0xbe389ec6	-0.18029317
139	0xbc10f169	-0.008846619
140	0x3e231bff	0.15928648
141	0xbd3b300a	-0.04570011
142	0xbe0eb0d6	-0.13934645
143	0xbe4dc1e6	-0.20093498
144	0x3e1a3b36	0.1506165
145	0xbd9a420d	-0.075321294
146	0xbd0f382a	-0.03496567
147	0xbe3ecbe8	-0.18632472
148	0x3c0949d5	0.008379419
149	0xbd787d21	-0.060666207
150	0xbdd5a416	-0.104316875
151	0xbe795a21	-0.24350788
152	0xbb3f06d1	-0.002914835
153	0x3eaa0927	0.33210108
154	0x3ec7ca5f	0.39021584
155	0xbe930764	-0.28716576
156	0xbe625dbc	-0.2210607
157	0x3e09873f	0.13430499
158	0xbe9e6429	-0.3093579
159	0xbdaa6ddd	-0.08321736
160	0x3ee6a7b0	0.4504981
161	0x3e73a5fd	0.23793788
162	0x3e03415d	0.12817903
163	0x3cc8cea3	0.024512595
164	0xbe1e59e6	-0.15463981
165	0x3e06cea2	0.13164762
166	0x3ed9357a	0.42423612
167	0x3db90b5f	0.09035372
168	0xbe9cfb5c	-0.30660522
169	0xbd96c1cc	-0.073611826
170	0x3e94aae3	0.29036626
171	0x3df5991f	0.11992096
172	0xbd7005e3	-0.058599364
173	0xbda35ff4	-0.07977286
174	0xbe849ec0	-0.25902367
175	0xbee4f01b	-0.44714436
176	0xbd1a6763	-0.037696254
177	0x3abb8c6c	0.0014308817
178	0x3e315bbc	0.1732015
179	0xbe9d58b6	-0.30731744
180	0xbe4454ba	-0.19172946
181	0x3c8f2b52	0.017476711
182	0x3e08d2ce	0.13361666
183	0xbd6cd612	-0.05782134
184	0xbe1a5e08	-0.15074933
185	0x3d65bc04	0.05608751
186	0xbe5e2ceb	-0.21696822
187	0xbe6f941d	-0.23396344
188	0xbe860050	-0.26172113
189	0xbe2827fd	-0.16421504
190	0xbd22674b	-0.03964929
191	0xbd819cc6	-0.0632873
192	0xbee57816	-0.4481818
193	0xbeb2900f	-0.34875533
194	0xbe06a8f2	-0.13150385
195	0xb9acd9fc	-0.00032968807
196	0x3da1107a	0.07864471
197	0xbdf5a7e2	-0.11994912
198	0xbed5c15b	-0.4174908
199	0xbe65ee89	-0.22454275
200	0xbeaa30d2	-0.33240372
201	0xbe99861c	-0.2998513
202	0xbdb7fe92	-0.08984102
203	0xbe97242a	-0.29519778
204	0xbd8d68dd	-0.06904767
205	0x3e58b2ef	0.21162008
206	0x3d85da1f	0.06535744
207	0xbc916850	-0.017749935
208	0x3e4bb4e9	0.1989323
209	0x3db58f34	0.088652045
210	0x3e991d89	0.29905346
211	0x3dcec491	0.10096086
212	0x3e204dc0	0.1565466
213	0xbd2f1b87	-0.04275086
214	0x3cf70ca5	0.030157397
215	0xbe4a2ac9	-0.19742884
216	0xbd30deae	-0.043181114
217	0x3d3a91c0	0.045549154
218	0x3c4d4aba	0.012530023
219	0xbe1fe0c5	-0.15613087
220	0xbc2403f3	-0.010010707
221	0x3e4cffce	0.20019457
222	0xbd9c76da	-0.07639857
223	0x3d30bf13	0.043150973
224	0x3e40b9aa	0.18820825
225	0x3eaf4220	0.34230137
226	0xbd3abf40	-0.045592546
227	0x3db6298a	0.08894642
228	0xbddf12a1	-0.10892225
229	0xbe2d19b8	-0.16904342
230	0x3d85890f	0.065202825
231	0x3d0ebb1d	0.034846414
232	0xbd816677	-0.06318372
233	0xbbb49a8a	-0.0055115866
234	0xbdb3fc14	-0.087883145
235	0x3d3110ba	0.043228842
236	0x3e101b7e	0.14072987
237	0xbd01b9c6	-0.031671308
238	0x3c639e82	0.013892772
239	0xbb936c45	-0.0044989907
240	0x3e1436e2	0.14474061
241	0x3e4d29f4	0.20035535
242	0x3e86bf2a	0.26317722
243	0x3e180f49	0.14849581
244	0x3d1c0621	0.038091782
245	0xbe4e157a	-0.2012538
246	0xbd6fb70d	-0.05852418
247	0xbee0b858	-0.43890643
248	0xbe2e73cf	-0.17036365
249	0xbe44361c	-0.19161266
250	0x3e436446	0.1908122
251	0xbd92451c	-0.07142088
252	0x3ca0b4d9	0.019617485
253	0x3e70b7ea	0.23507658
254	0x3e83e377	0.2575948
255	0x3d89f766	0.06736641

conv3.depthwise.weight_fake_quant.scale f4 [16]
0	0x3b443f78	0.0029945057
1	0x3b705f37	0.0036677846
2	0x3b8a9510	0.0042291954
3	0x3b27f6c9	0.0025629273
4	0x3b1fd99b	0.0024391178
5	0x3b64f722	0.0034937342
6	0x3b67ff94	0.003540014
7	0x3b650b28	0.0034949277
8	0x3b29f233	0.0025931715
9	0x3b604774	0.0034222277
10	0x3b3a5d59	0.0028436987
11	0x3b307ef9	0.002693115
12	0x3b42fdf5	0.002975342
13	0x3b57116e	0.0032816785
14	0x3b4d303b	0.0031309265
15	0x3b6d866f	0.0036243459

conv3.depthwise.weight_fake_quant.activation_post_process.min_val f4 [16]
0	0xbeaae26f	-0.3337588
1	0xbeda1ef5	-0.42601743
2	0xbeb95058	-0.3619411
3	0xbea7f6c9	-0.3280547
4	0xbe9fd99b	-0.31220707
5	0xbee4f722	-0.44719797
6	0xbe9fc177	-0.3120229
7	0xbee50b28	-0.44735074
8	0xbea9f233	-0.33192596
9	0xbee04774	-0.43804514
10	0xbe9d6db5	-0.30747762
11	0xbeb07ef9	-0.34471872
12	0xbeb9715b	-0.36219296
13	0xbeb60c34	-0.35556185
14	0xbecd303b	-0.4007586
15	0xbeb46c97	-0.35239097

conv3.depthwise.weight_fake_quant.activation_post_process.max_val f4 [16]
0	0x3ec2b6f9	0.38030222
1	0x3eee7e79	0.46580866
2	0x3f097fe6	0.5371078
3	0x3e87b325	0.26503864
4	0x3e805343	0.25063524
5	0x3e6d1a11	0.23154475
6	0x3ee62f95	0.44958177
7	0x3e333403	0.1750031
8	0x3e98d777	0.29851887
9	0x3eaf8220	0.34278965
10	0x3eb8e89e	0.36114973
11	0x3e8c634c	0.27419508
12	0x3ec177f9	0.37786844
13	0x3ed5634b	0.41677317
14	0x3ea1cccf	0.3160157
15	0x3eebab62	0.46029192

conv3.pointwise.weight f4 [120, 16, 1, 1]
0	0xbe497c25	-0.19676264
1	0xbecac2a6	-0.3960163
2	0x3e1ca413	0.15296964
3	0x3e293590	0.16524339
4	0xbe7c7316	-0.24653277
5	0x3e87fc5c	0.26559722
6	0xbed90e78	-0.4239385
7	0x3da77e9f	0.08178448
8	0xbe7c411e	-0.24634215
9	0xbe06f6e5	-0.1318012
10	0x3e0cbfa7	0.13744985
11	0x3eda5ba6	0.42648047
12	0xbe06a49d	-0.13148732
13	0xbe0f75f4	-0.1400984
14	0x3e005959	0.12534083
15	0x3de5b481	0.11216069
16	0x3e9a2d86	0.30112857
17	0xbd7cd513	-0.06172664
18	0x3e397af0	0.18113303
19	0xbeb04dae	-0.34434265
20	0xbe427135	-0.18988498
21	0xbc8a4912	-0.016880546
22	0xbe97164f	-0.29509208
23	0xbdb5a832	-0.08869971
24	0x3d062728	0.032752186
25	0xbeb94ce0	-0.36191463
26	0x3e6c0a45	0.23050793
27	0x3e6e1a78	0.23252285
28	0x3d8063f4	0.062690645
29	0x3e2e03bf	0.16993617
30	0x3e4eae26	0.2018362
31	0x3e4fc365	0.20289381
32	0xbeb116f8	-0.34587836
33	0x3e919e8e	0.2844128
34	0xbdc172b2	-0.094457045
35	0xbe3bac15	-0.18327363
36	0x3d1d697a	0.03843067
37	0x3e120276	0.14258751
38	0x3eb43c3d	0.35202208
39	0x3e593f70	0.21215606
40	0xbe4cfde0	-0.2001872
41	0xbd282638	-0.041052073
42	0x3e3e4ee6	0.18584785
43	0xbd453d0e	-0.04815393
44	0xbecc6e33	-0.39927825
45	0x3dffbac2	0.12486793
46	0xbcaf7bdf	-0.021421371
47	0x3e447bc7	0.19187842
48	0x3cb05dde	0.021529134
49	0x3ea3f3e6	0.32022017
50	0xbda8abcf	-0.08235895
51	0xbe9638af	-0.2934012
52	0x3d162600	0.036657333
53	0xbd781e60	-0.060575843
54	0xbd65ec90	-0.056133807
55	0x3e927659	0.28605917
56	0x3d914e5f	0.07095026
57	0x3e780a29	0.24222626
58	0xbe88a25f	-0.2668638
59	0xbdb20573	-0.086924456
60	0x3e7057f3	0.2347105
61	0x3d51124a	0.051042832
62	0xbeafb6f6	-0.34319276
63	0xbe202acb	-0.15641324
64	0x3e133835	0.1437691
65	0x3ed2c165	0.41163173
66	0xbe2170fd	-0.15765758
67	0xbe325aa8	-0.17417395
68	0x3d17394b	0.036919873
69	0xb9330fc8	-0.00017076649
70	0xbdef0caf	-0.11672341
71	0x3bec6fee	0.0072154915
72	0xbd6f2278	-0.05838248
73	0x3e989e5b	0.29808316
74	0xbe4d3088	-0.20038044
75	0xbe31485b	-0.17312758
76	0x3edd4149	0.4321387
77	0x3ee2fcf9	0.44333628
78	0xbee77f1b	-0.4521416
79	0x3dbcd8c9	0.09221036
80	0x3d046ca5	0.032330174
81	0xbda50702	-0.08057977
82	0xbd36f331	-0.04466552
83	0xbe6bcb37	-0.23026739
84	0x3db153dc	0.08658573
85	0x3d8c1db1	0.06841601
86	0xbf0b4d3b	-0.5441472
87	0x3e501aea	0.20322767
88	0x3e1b96f4	0.15194303
89	0x3ea29c87	0.31760046
90	0xbedbde54	-0.4294306
91	0xbe441b23	-0.19150977
92	0x3de17322	0.11008288
93	0xbd986264	-0.074406415
94	0xbe3905ae	-0.18068573
95	0xbec4e827	-0.38458368
96	0xbdcdf030	-0.10055578
97	0x3c76d52a	0.015065471
98	0xbcecbf7c	-0.0288999
99	0xbe1298e4	-0.14316136
100	0x3cd49eb9	0.025954591
101	0xbe34759e	-0.17622992
102	0xbece253a	-0.40262777
103	0x3e2ebe36	0.17064747
104	0x3e953e31	0.2914901
105	0x3cbd4869	0.023105817
106	0x3c92c559	0.017916368
107	0xbdd0ef0d	-0.10201845
108	0x3e0cd7ad	0.13754149
109	0xbde62204	-0.11236957
110	0xbe993cdc	-0.29929245
111	0xbe87da4e	-0.2653374
112	0x3d7c4b8a	0.061595477
113	0x3d945d16	0.07244317
114	0xbbc19b84	-0.0059084315
115	0xbe83583b	-0.25653252
116	0x3ee107a5	0.43951145
117	0xbd8cb4ca	-0.0687042
118	0xbd3904d3	-0.045170616
119	0x3bc5ec98	0.006040167
120	0x3dd3b572	0.10337342
121	0xbd99fb14	-0.075185925
122	0xbd243d5f	-0.04009759
123	0xbddc1425	-0.1074603
124	0x3e0c63f2	0.13710001
125	0x3e85efd3	0.26159534
126	0xbec89e2d	-0.3918318
127	0xbe2f85bf	-0.17140864
128	0xbe450e7a	-0.19243804
129	0x3e3148ce	0.17312929
130	0x3dded89a	0.10881157
131	0xbe8ec55a	-0.27884942
132	0x3e9b8601	0.30375674
133	0x3d95729f	0.07297253
134	0xbcf3a636	-0.029742341
135	0x3ec786a6	0.38969916
136	0x3d5ec912	0.054390974
137	0x3e8dba46	0.27681178
138	0xbdc26813	-0.09492507
139	0xbe07341d	-0.13203473
140	0x3e19eb62	0.15031198
141	0x3d1be43f	0.03805947
142	0xbe8c94c7	-0.27457258
143	0xbe64772a	-0.22311082
144	0xbebe3d21	-0.37156013
145	0x3e0e4bcc	0.13896102
146	0xbd67e9c9	-0.05661944
147	0xbe2bd2bc	-0.16779608
148	0xbdbf74c5	-0.09348444
149	0xbe72be62	-0.23705438
150	0x3e89c11a	0.26905137
151	0x3c2301d6	0.009949168
152	0xbe81a29d	-0.25319377
153	0xbe5036f8	-0.20333469
154	0x3e13c189	0.14429297
155	0x3dc8c67d	0.09803484
156	0xbe3bf3d9	-0.18354739
157	0x3d9013f1	0.070350535
158	0x3bd09cee	0.0063663637
159	0x3d050093	0.03247125
160	0x3eef724a	0.46766883
161	0xbda684fb	-0.08130833
162	0x3dee7af3	0.116445445
163	0xbe479cc0	-0.19493389
164	0xbe6f445c	-0.23365921
165	0x3d7d2f94	0.061812952
166	0xbef9648d	-0.48709527
167	0xbdcf293f	-0.10115289
168	0x3c3f5b48	0.011679478
169	0xbe9dcced	-0.30820408
170	0x3ef5e27b	0.48024353
171	0x3e762e7e	0.24041173
172	0xbd290895	-0.04126795
173	0x3e2bbbd7	0.16770874
174	0x3e8f6072	0.2800327
175	0x3be425df	0.0069625224
176	0x3e96a8fc	0.294258
177	0x3d5fabaa	0.05460707
178	0xbe81e90a	-0.25373107
179	0xbd4a275f	-0.049353953
180	0x3ee0c7d6	0.43902463
181	0xbd733ac4	-0.059382215
182	0x3e0c3b68	0.13694537
183	0x3e688604	0.22707373
184	0x3d676c38	0.05649969
185	0x3e136e16	0.14397463
186	0xbc8b9f36	-0.017043691
187	0xbe11543d	-0.1419229
188	0x3d492989	0.049111877
189	0xbdbcd994	-0.09221187
190	0xbe9d8a30	-0.3076949
191	0xbe57ace3	-0.21062045
192	0xbe6e7d14	-0.23289901
193	0x3e7eabd2	0.24870232
194	0x3ca712b4	0.02039466
195	0x3d497d2a	0.04919163
196	0xbed7bbbb	-0.42135414
197	0x3e4385c8	0.19094002
198	0x3bd4118f	0.0064718197
199	0x3e9c4ba6	0.30526465
200	0x3e32e301	0.17469408
201	0x3cd7b83c	0.026332967
202	0xbe255683	-0.16146283
203	0x3df092c7	0.117467456
204	0xbcf38deb	-0.029730758
205	0x3eb2326f	0.34804103
206	0x3e28d0cb	0.16485898
207	0xbd93b773	-0.072127245
208	0xbe0a9d8d	-0.13536663
209	0x3d8299b9	0.063769765
210	0xbd74fa3f	-0.059808966
211	0x3e0ef88a	0.13961998
212	0x3dac30d7	0.08407753
213	0xbcea915d	-0.028633768
214	0xbecfb9ed	-0.40571538
215	0x3e3b7d40	0.18309498
216	0x3de57e8a	0.11205776
217	0x3eb82100	0.35962677
218	0xbdbfb008	-0.09359747
219	0xbe41aeca	-0.18914333
220	0x3ec0b6fa	0.376396
221	0xbdb92dc5	-0.09041933
222	0xbe8f04bd	-0.27933303
223	0x3dae99f0	0.08525455
224	0xbc06736e	-0.0082062315
225	0xbe4bea4e	-0.19913599
226	0xbde74d7c	-0.11294076
227	0x3dd22d56	0.102625534
228	0x3c9b8cf5	0.018988112
229	0x3db7f6a4	0.0898259
230	0xbf14fdc5	-0.5819972
231	0x3d2fd063	0.042923342
232	0xbec19f55	-0.37816873
233	0x3e77a28e	0.24183103
234	0x3d2599f9	0.040430043
235	0x3d9e9bbc	0.07744548
236	0x3e45fae8	0.19333994
237	0xbe2c9453	-0.16853456
238	0x3d99402a	0.074829414
239	0x3d0bb116	0.03410443
240	0xbea6efaa	-0.32604724
241	0x3e68ae36	0.22722706
242	0xbe966d50	-0.29380274
243	0xbe147589	-0.14497961
244	0xbc2be870	-0.010492429
245	0x3e63970b	0.22225587
246	0x3ef0d857	0.47040054
247	0xbdede44f	-0.11615812
248	0x3d0e273c	0.034705386
249	0x3d5a45b4	0.05328913
250	0x3efc60e6	0.49292678
251	0x3e016ab6	0.12638363
252	0xbee00a01	-0.43757632
253	0x3ce15e57	0.027510805
254	0xbe75815e	-0.23975131
255	0x3d00c3a0	0.031436563

conv3.pointwise.weight_fake_quant.scale f4 [120]
0	0x3b597f5d	0.0033187487
1	0x3b38d016	0.00282002
2	0x3b4c256d	0.0031150237
3	0x3b3076b5	0.0026926224
4	0x3b67e862	0.0035386314
5	0x3b8b1c63	0.0042453273
6	0x3b4db66a	0.0031389245
7	0x3b6273e0	0.003455393
8	0x3b48bbe6	0.0030629574
9	0x3b3e0249	0.0028993061
10	0x3b78e86d	0.0037980333
11	0x3b639bcd	0.0034730316
12	0x3b5751f0	0.0032855235
13	0x3b4f5ff0	0.0031642877
14	0x3b94ce75	0.004541213
15	0x3b7ded96	0.0038746349
16	0x3b6605c7	0.0035098658
17	0x3b151793	0.0022749647
18	0x3b679bb2	0.0035340604
19	0x3b443986	0.0029941513
20	0x3b74c037	0.0037346014
21	0x3b5ac219	0.0033379851
22	0x3b41ac28	0.0029552076
23	0x3b826978	0.003979858
24	0x3b5e0fcc	0.0033883927
25	0x3b795829	0.0038046932
26	0x3b485ba3	0.0030572198
27	0x3b3e4666	0.002903366
28	0x3b777425	0.0037758437
29	0x3b5b6256	0.003347536
30	0x3b5bd1a1	0.0033541697
31	0x3b91ed77	0.004453357
32	0x3ba028eb	0.0048876903
33	0x3b406295	0.0029355634
34	0x3b1372f1	0.002249893
35	0x3b547e0d	0.0032423765
36	0x3b83c862	0.00402169
37	0x3b249607	0.0025113837
38	0x3b538fc8	0.0032281745
39	0x3b5dadf1	0.00338256
40	0x3b3e3ead	0.0029029057
41	0x3b61eb7d	0.0034472637
42	0x3b4706b5	0.0030368988
43	0x3b71da31	0.0036903734
44	0x3b265521	0.002538033
45	0x3b4cc200	0.0031243563
46	0x3b864ae9	0.0040982855
47	0x3b4c8635	0.0031207923
48	0x3b568dc7	0.0032738314
49	0x3b2060fc	0.002447187
50	0x3b940404	0.0045170803
51	0x3b6080cf	0.0034256463
52	0x3b745a6a	0.0037285336
53	0x3b4439ad	0.0029941604
54	0x3b73c223	0.0037194572
55	0x3b87f77e	0.0041493764
56	0x3b834c64	0.004006909
57	0x3b3203bf	0.0027162877
58	0x3b71ee41	0.0036915692
59	0x3b6fbd98	0.0036581513
60	0x3b407bf6	0.0029370761
61	0x3b61287c	0.0034356406
62	0x3b77013f	0.0037689952
63	0x3b470873	0.0030370026
64	0x3b571717	0.003282016
65	0x3b814946	0.0039455025
66	0x3b2052d8	0.0024463441
67	0x3b4805f1	0.003052112
68	0x3b52e4c2	0.0032179807
69	0x3b36e644	0.0027908245
70	0x3b7dc20a	0.0038720393
71	0x3b5cf813	0.00337172
72	0x3b6ae765	0.0035843488
73	0x3b8569bc	0.0040714424
74	0x3b43018c	0.002975556
75	0x3b96e854	0.0046053324
76	0x3b5c5d8b	0.0033625092
77	0x3b8f543d	0.0043740557
78	0x3b65a4e4	0.003504091
79	0x3b837b7c	0.004012523
80	0x3b76edc1	0.0037678333
81	0x3b687b69	0.0035473949
82	0x3b395265	0.002827787
83	0x3b49b3b8	0.0030777287
84	0x3b692baf	0.0035579016
85	0x3b79bff1	0.003810879
86	0x3b2d714d	0.0026465238
87	0x3b36b007	0.0027875917
88	0x3b90d157	0.0044194865
89	0x3b55a47b	0.0032599259
90	0x3b2dbc8b	0.0026510085
91	0x3b32b9b8	0.0027271342
92	0x3b652c2b	0.0034968953
93	0x3b4eb3b5	0.003154022
94	0x3b8e6a79	0.0043461886
95	0x3b66176a	0.003510917
96	0x3b54bdee	0.003246184
97	0x3b84c516	0.004051815
98	0x3b8955e6	0.004191148
99	0x3b89373d	0.004187493
100	0x3b790c6a	0.0038001784
101	0x3b68b90d	0.003551069
102	0x3b4208bd	0.002960726
103	0x3b5a9b5b	0.003335676
104	0x3b869029	0.0041065407
105	0x3b332ec3	0.0027341105
106	0x3b5f24fd	0.0034049146
107	0x3b485e7c	0.0030573895
108	0x3b8e88c6	0.0043498008
109	0x3b583659	0.0032991378
110	0x3b749cc6	0.003732489
111	0x3b974e90	0.0046175197
112	0x3b91f25e	0.0044539412
113	0x3b1b9d65	0.0023744937
114	0x3b63841f	0.0034716201
115	0x3b7ee5c3	0.0038894273
116	0x3b6b8918	0.0035939869
117	0x3b61c8f8	0.0034452062
118	0x3b55715f	0.0032568795
119	0x3b62807e	0.003456145

conv3.pointwise.weight_fake_quant.activation_post_process.min_val f4 [120]
0	0xbed8c443	-0.42337236
1	0xbeb8d016	-0.36096257
2	0xbecc256d	-0.39872304
3	0xbeb076b5	-0.34465566
4	0xbee7e862	-0.45294482
5	0xbf0b1c63	-0.5434019
6	0xbecdb66a	-0.40178233
7	0xbec94a72	-0.3931461
8	0xbe8eea4d	-0.27913132
9	0xbebe0249	-0.37111118
10	0xbef8e86d	-0.48614827
11	0xbe9d6a38	-0.307451
12	0xbed751f0	-0.420547
13	0xbecf5ff0	-0.40502882
14	0xbf14ce75	-0.5812753
15	0xbee07343	-0.43837938
16	0xbee605c7	-0.44926283
17	0xbe5a7386	-0.21333131
18	0xbe6d8f78	-0.2319926
19	0xbe9e15d9	-0.30876043
20	0xbef4c037	-0.47802898
21	0xbedac219	-0.4272621
22	0xbe9ff1c9	-0.31239155
23	0xbf026978	-0.5094218
24	0xbede0fcc	-0.43371427
25	0xbef95829	-0.48700073
26	0xbea25037	-0.31701824
27	0xbea360bf	-0.3190975
28	0xbef77425	-0.483308
29	0xbea09161	-0.31360915
30	0xbebecef7	-0.37267277
31	0xbefb297e	-0.49055094
32	0xbf2028eb	-0.62562436
33	0xbe9e787d	-0.309513
34	0xbe81c37c	-0.25344455
35	0xbed434a8	-0.41446424
36	0xbf03c862	-0.51477635
37	0xbe9b2fff	-0.30310056
38	0xbe8726b4	-0.26396716
39	0xbeddadf1	-0.4329677
40	0xbebe3ead	-0.37157193
41	0xbea2fb66	-0.31832427
42	0xbec706b5	-0.38872305
43	0xbebc3dc1	-0.36765864
44	0xbe895096	-0.26819295
45	0xbe90ca2a	-0.2827924
46	0xbe9ac8ad	-0.30231228
47	0xbec31a6e	-0.38106102
48	0xbea9ce74	-0.33165324
49	0xbe765e97	-0.2405952
50	0xbe84feb2	-0.25975567
51	0xbee080cf	-0.43848273
52	0xbede7d1e	-0.43454832
53	0xbe9f4d1e	-0.31113523
54	0xbea4043f	-0.3203449
55	0xbe88ede6	-0.26744002
56	0xbeefe06c	-0.46850908
57	0xbea270b7	-0.3172662
58	0xbeef6f34	-0.4676453
59	0xbeefbd98	-0.46824336
60	0xbec07bf6	-0.37594575
61	0xbee1287c	-0.439762
62	0xbef7013f	-0.48243138
63	0xbe99741f	-0.29971406
64	0xbed71717	-0.42009804
65	0xbef0fc1f	-0.47067353
66	0xbe634443	-0.22194009
67	0xbec805f1	-0.39067033
68	0xbed2e4c2	-0.41190153
69	0xbe74bc81	-0.23900034
70	0xbefdc20a	-0.49562103
71	0xbe6929d0	-0.22769856
72	0xbeeae765	-0.45879665
73	0xbf0569bc	-0.5211446
74	0xbec3018c	-0.38087118
75	0xbebdb2ea	-0.37050563
76	0xbebb5408	-0.36587548
77	0xbf0f543d	-0.5598791
78	0xbee5a4e4	-0.44852364
79	0xbeb2fd43	-0.34958848
80	0xbec9dd59	-0.39426687
81	0xbeb46b2d	-0.3523802
82	0xbeb95265	-0.36195675
83	0xbec9b3b8	-0.39394927
84	0xbea2199b	-0.3166016
85	0xbef9bff1	-0.48779252
86	0xbe8fd095	-0.28088823
87	0xbeb61f87	-0.35570928
88	0xbf08212d	-0.5317562
89	0xbec352ff	-0.38149258
90	0xbe8ef323	-0.27919874
91	0xbeb2b9b8	-0.34907317
92	0xbee52c2b	-0.4476026
93	0xbeceb3b5	-0.4037148
94	0xbf0e6a79	-0.55631214
95	0xbeaf6568	-0.34257054
96	0xbe97675b	-0.2957104
97	0xbef58872	-0.47955662
98	0xbf0955e6	-0.53646696
99	0xbf09373d	-0.5359991
100	0xbea098b8	-0.31366515
101	0xbe864b71	-0.26229432
102	0xbe8dcf31	-0.27697137
103	0xbeda9b5b	-0.42696652
104	0xbee7d122	-0.45276743
105	0xbe7ce350	-0.24696088
106	0xbe941404	-0.2892152
107	0xbe73d818	-0.23812902
108	0xbf0e88c6	-0.5567745
109	0xbed83659	-0.42228964
110	0xbea3451b	-0.3188866
111	0xbe970cb6	-0.29501885
112	0xbea2653d	-0.31717864
113	0xbe57d809	-0.21078505
114	0xbecfc985	-0.40583435
115	0xbe927904	-0.28607953
116	0xbec5e4c9	-0.38651112
117	0xbebdba94	-0.3705641
118	0xbec7971a	-0.3898247
119	0xbee2807e	-0.44238657

conv3.pointwise.weight_fake_quant.activation_post_process.max_val f4 [120]
0	0x3ed7cc5e	0.42148107
1	0x3e99c06e	0.30029625
2	0x3eb39423	0.35073957
3	0x3ea36727	0.31914636
4	0x3ee285e5	0.44242778
5	0x3ea20135	0.31641546
6	0x3e9538ac	0.291448
7	0x3ee0aef8	0.4388349
8	0x3ec72a6e	0.3889956
9	0x3e8895c2	0.26676756
10	0x3ef5a3d9	0.47976568
11	0x3ee1d495	0.441075
12	0x3eb1c9de	0.34724325
13	0x3ec07c80	0.37594986
14	0x3e76f12f	0.24115442
15	0x3efbf1bb	0.49207863
16	0x3ea9e409	0.3318179
17	0x3e93ed64	0.28892052
18	0x3ee5cc7b	0.4488257
19	0x3ec2b113	0.38025722
20	0x3ef168e7	0.47150347
21	0x3ea8c75a	0.32964593
22	0x3ec028d0	0.37531137
23	0x3ee49447	0.44644377
24	0x3ec69e99	0.38792875
25	0x3e8cf7aa	0.27532703
26	0x3ec6caec	0.38826692
27	0x3ebcc9d9	0.36872748
28	0x3eca696e	0.3953356
29	0x3ed9ab91	0.42513707
30	0x3eda19fe	0.42597955
31	0x3f10c99c	0.5655763
32	0x3ec3a89d	0.3821458
33	0x3ebee1d0	0.37281656
34	0x3e924c0b	0.2857364
35	0x3ed2d511	0.41178182
36	0x3e8b2e39	0.27183703
37	0x3ea34cdb	0.31894574
38	0x3ed1e8a8	0.40997815
39	0x3e8825ef	0.2659144
40	0x3e88f51a	0.26749498
41	0x3ee027a6	0.4378025
42	0x3e72fc8e	0.23729154
43	0x3eeff67d	0.46867743
44	0x3ea50877	0.3223302
45	0x3ecb287c	0.39679325
46	0x3f053e53	0.52048224
47	0x3ecaed29	0.39634064
48	0x3ed4e0ab	0.41577658
49	0x3e9f203a	0.31079274
50	0x3f12dbfc	0.5736692
51	0x3eb0983c	0.34491146
52	0x3ef271b5	0.47352377
53	0x3ec2b13a	0.38025838
54	0x3ef1da9f	0.47237107
55	0x3f06e78f	0.5269708
56	0x3f0245cb	0.50887746
57	0x3eb09fb8	0.34496856
58	0x3ef00a64	0.46882927
59	0x3e9c5009	0.30529812
60	0x3e9eb67b	0.30998597
61	0x3ea2b3f4	0.31777918
62	0x3ed5f950	0.41791773
63	0x3ec57a62	0.38569933
64	0x3e81704e	0.25280994
65	0x3f0046b3	0.5010788
66	0x3e9f1232	0.3106857
67	0x3ec1074e	0.37700886
68	0x3e81b07e	0.25329965
69	0x3eb57877	0.3544347
70	0x3eba96c1	0.3644314
71	0x3edb3e23	0.42820844
72	0x3ec5a8f5	0.38605466
73	0x3e8ea4c5	0.27860084
74	0x3ea7d500	0.32779694
75	0x3f15ba83	0.5848772
76	0x3edaa4d0	0.42703867
77	0x3eab9569	0.33512428
78	0x3ebc2125	0.36744037
79	0x3f027485	0.50959045
80	0x3ef4ffe5	0.47851482
81	0x3ee6aa72	0.45051914
82	0x3eab4f09	0.33458737
83	0x3e9fa781	0.31182483
84	0x3ee75958	0.4518535
85	0x3ef2b09d	0.4740037
86	0x3eac166a	0.3361085
87	0x3eb542a7	0.35402414
88	0x3f0fafb4	0.56127477
89	0x3ed3f932	0.41401058
90	0x3eac6112	0.3366781
91	0x3e9b49f5	0.30329862
92	0x3e8dc2bb	0.2768763
93	0x3e86a61f	0.26298615
94	0x3ec908b6	0.39264458
95	0x3ee44b3b	0.44588646
96	0x3ed31472	0.41226536
97	0x3f03bb8c	0.5145805
98	0x3ebc1d3b	0.3674105
99	0x3e5208d8	0.20511186
100	0x3ef71a51	0.48262265
101	0x3ee6e79b	0.45098576
102	0x3ec084ac	0.3760122
103	0x3ecdd1ab	0.40199026
104	0x3f058309	0.5215307
105	0x3eb1c865	0.347232
106	0x3edd66b3	0.43242416
107	0x3ec6cdbf	0.38828847
108	0x3ecb7de1	0.39744475
109	0x3e9ca112	0.30591637
110	0x3ef2b38c	0.47402608
111	0x3f161ff3	0.586425
112	0x3f10ce79	0.5656505
113	0x3e9a662a	0.3015607
114	0x3ee1bd17	0.44089577
115	0x3efce7f7	0.49395725
116	0x3ee9b206	0.45643634
117	0x3ee00566	0.4375412
118	0x3ed3c67c	0.4136237
119	0x3e9737d7	0.2953479

fc1.weight f4 [84, 120]
0	0xbc885a22	-0.016644541
1	0x3d99e4d9	0.07514352
2	0xbd79c9de	-0.06098353
3	0x3e258741	0.16164877
4	0x3e3c7f3e	0.18407914
5	0x3de6f59c	0.11277315
6	0x3e0ccaa5	0.13749178
7	0x3e3a7739	0.18209542
8	0x3e343368	0.17597735
9	0xbe05181c	-0.12997478
10	0x3d28780e	0.041130118
11	0x3e78f989	0.2431394
12	0x3e815cea	0.252662
13	0x3dfe2d6d	0.12411008
14	0xbd3bc389	-0.045840774
15	0xbe0415f0	-0.12898993
16	0x3e0ab521	0.13545658
17	0x3d9a8744	0.07545331
18	0xbe51654c	-0.20448798
19	0x3def95e8	0.11698514
20	0xbee9bc77	-0.456516
21	0xbc8f19f4	-0.01746843
22	0xbd36607d	-0.044525612
23	0x3d1af068	0.037826926
24	0xbbc21d16	-0.0059238775
25	0xbdbb91dc	-0.0915868
26	0xbc0a9c2e	-0.008460088
27	0x3d8b8f10	0.068143964
28	0x3d7303c3	0.05932976
29	0x3e042273	0.12903766
30	0xbe021c58	-0.12706125
31	0xbe0607ca	-0.13088909
32	0xbe852ec7	-0.2601225
33	0x3d8b7d69	0.068110295
34	0x3ca03273	0.019555306
35	0xbe214016	-0.15747103
36	0x3dfc80bf	0.12329244
37	0xbe71ff40	-0.23632526
38	0xbe49c9f0	-0.1970594
39	0x3e0c99d3	0.13730554
40	0xbdc4ac82	-0.09603216
41	0xbe4adfce	-0.19811937
42	0x3d8a1ea4	0.067441255
43	0xbe354cbe	-0.17705056
44	0xbd8d1fc1	-0.06890822
45	0xbe74f651	-0.23922087
46	0xbe836f47	-0.25670835
47	0xbd6c9b49	-0.05776528
48	0xbdde9a7e	-0.10869311
49	0x3dc1f23c	0.09470031
50	0xb7f35ab8	-2.9010102e-05
51	0x3c804701	0.015658857
52	0xbc9897a0	-0.018626988
53	0x3d9a5f73	0.07537737
54	0x3c994d47	0.018713607
55	0xbd7d0e09	-0.061780963
56	0xbbb38b55	-0.005479256
57	0x3df5cd3d	0.12002037
58	0x3cf81232	0.030282114
59	0x3daafef8	0.08349413
60	0xbe1224de	-0.14271876
61	0xbe874097	-0.26416466
62	0xbe0f0519	-0.13966788
63	0xbe0ad4a4	-0.13557678
64	0x3d32bbb2	0.04363603
65	0x3d5605e3	0.052251708
66	0xbd662bb7	-0.056194033
67	0x3be64d8d	0.0070282877
68	0xbd06ce52	-0.032911606
69	0xbc55936c	-0.013035636
70	0x3d95b0a5	0.07309083
71	0xbe98627b	-0.29762635
72	0x3e68922f	0.22712015
73	0xbe2185b6	-0.15773663
74	0x3e241109	0.16022123
75	0xbe14f382	-0.14546016
76	0x3dbbadb9	0.09163994
77	0x3dceaf1e	0.10091995
78	0xbd29abfb	-0.04142378
79	0x3e46b033	0.19403152
80	0xbe7ddd4b	-0.24791448
81	0x3d28beb0	0.04119748
82	0x3cf2aa45	0.029622206
83	0xbd765d38	-0.060147494
84	0xbe33d7d3	-0.17562799
85	0x3cd5e8af	0.026111929
86	0xbca9c095	-0.020721713
87	0xbe2aa1b3	-0.16663246
88	0xbea1c400	-0.3159485
89	0xbe95200e	-0.29126018
90	0xbd60d2a8	-0.054888397
91	0x3c638063	0.01388559
92	0x3e220e40	0.15825748
93	0xbe52752f	-0.20552514
94	0xbd5a7044	-0.05332972
95	0x3db52f41	0.088469036
96	0xbec322a1	-0.38112357
97	0xbe24b66b	-0.16085212
98	0xbe8bcac9	-0.2730315
99	0x3cfbe637	0.030749423
100	0xbe2219b0	-0.15830112
101	0xbd92208e	-0.071351156
102	0x3d706946	0.058694147
103	0x3e652553	0.2237752
104	0xbe44f019	-0.19232215
105	0x3d2cb1f0	0.042161882
106	0xbdd2138c	-0.102576345
107	0xbe49a9ee	-0.1969373
108	0xbda2923f	-0.079380505
109	0x3e0ceb25	0.13761576
110	0x3ed5e4fe	0.4177627
111	0xbd00a5f8	-0.03140828
112	0x3eb4c1d9	0.35304144
113	0x3dd53f8d	0.10412512
114	0x3d397aa8	0.04528299
115	0x3e0fd45f	0.14045857
116	0xbe2bdd6e	-0.16783687
117	0xbe553ec8	-0.2082473
118	0xbe063343	-0.13105492
119	0x3db6be3a	0.089230016
120	0xbdab79c6	-0.08372836
121	0xbce07618	-0.027400061
122	0x3cad022c	0.0211192
123	0xbda1c820	-0.07899499
124	0xbd1a0029	-0.03759781
125	0x3ca6fbdc	0.020383768
126	0x3d6022fa	0.054720856
127	0xbce57307	-0.02800895
128	0xbc2c6a38	-0.010523371
129	0x3d03f1fa	0.03221319
130	0xbdb2fce0	-0.08739638
131	0xbc850372	-0.016236994
132	0x3d884e8e	0.06655608
133	0xbb354c26	-0.0027663796
134	0xbc114eb9	-0.008868867
135	0x3caa2c8a	0.020773191
136	0x3d51be67	0.051206972
137	0xbc8da63d	-0.017291183
138	0x3d63be3c	0.055601344
139	0x3d4aa710	0.04947573
140	0xbda804ca	-0.082040384
141	0xbdbdd353	-0.092688225
142	0xbd36db6a	-0.044642843
143	0x3d926968	0.07149011
144	0x3d08db1a	0.033412077
145	0xbc439188	-0.011936553
146	0x3c9f079c	0.019412808
147	0xbd50ed69	-0.051007662
148	0xbde96822	-0.11396815
149	0xbd1490bd	-0.036270846
150	0x3d690793	0.05689199
151	0x3da15f17	0.07879465
152	0x3cf81dba	0.030287612
153	0x3b635714	0.0034689354
154	0x3c80eedf	0.015738903
155	0xbd8d4376	-0.06897633
156	0x3da7fd05	0.082025565
157	0x3c37ac5c	0.011210527
158	0x3da0f7e1	0.07859779
159	0xbd68c2e9	-0.056826506
160	0xbd89de95	-0.06731907
161	0xbd857bd1	-0.06517757
162	0x3d2f5319	0.042803857
163	0x3d2c9a10	0.042139113
164	0xbdaa99f0	-0.083301425
165	0xbdc58047	-0.096436076
166	0xbd84e33c	-0.06488654
167	0xbd08ab51	-0.033366505
168	0xbd5326d7	-0.051550712
169	0x3d992c25	0.07479123
170	0x3ca13c4c	0.019682072
171	0x3d3de5cd	0.046361733
172	0x3d315e50	0.043302834
173	0x3c06e97c	0.008234378
174	0xbd07ee8c	-0.03318648
175	0xba05d86d	-0.00051057973
176	0x3cff780a	0.031185169
177	0xbdb8c64a	-0.09022196
178	0xbdaa1067	-0.0830391
179	0x3d950e8f	0.072781675
180	0xbd891aab	-0.0669454
181	0x3d67dc4c	0.056606576
182	0xbd400d5a	-0.046887733
183	0xbdb34982	-0.08754255
184	0xbb261d35	-0.0025346999
185	0xbd0b50cf	-0.034012612
186	0x3d436f90	0.047713816
187	0xbd32a636	-0.043615542
188	0xbc1c21e0	-0.009529561
189	0xbb194840	-0.0023389012
190	0x3b86a60a	0.004109149
191	0x3d896fde	0.0671079
192	0x3c65b840	0.014020979
193	0xbd78f57a	-0.06078098
194	0xbcaac7f1	-0.020847293
195	0x3c0a99e8	0.008459546
196	0x3cb74a63	0.022374338
197	0xbd90c0b1	-0.07068003
198	0xbd84b544	-0.06479886
199	0xbc8f736c	-0.017511092
200	0xbd6ebd38	-0.05828592
201	0xbcf3b9c4	-0.029751666
202	0xbd91f851	-0.07127441
203	0x3d0decb7	0.034649577
204	0x3c4fdf1e	0.012687473
205	0xbd440dd8	-0.047864765
206	0xbb45086b	-0.0030064832
207	0x3d827adf	0.06371092
208	0xbc140a48	-0.009035654
209	0xbd9e5f18	-0.077329814
210	0xbcc068e7	-0.023487521
211	0xbae48278	-0.0017433902
212	0xbde38135	-0.11108629
213	0xbda7cf01	-0.0819378
214	0xbdb8ad22	-0.090173975
215	0x3c18e923	0.009332928
216	0xbd37312e	-0.044724636
217	0x3d7d6578	0.061864346
218	0xbdc78f82	-0.09744169
219	0xbc5dccc3	-0.0135375885
220	0xbc681a30	-0.0141664
221	0x3da6f643	0.081524394
222	0xbdcd7549	-0.10032136
223	0x3b28ecfd	0.0025776022
224	0x3caab83e	0.020839807
225	0xbc5c4dd8	-0.013446294
226	0x3c7fc5fa	0.015611166
227	0xbdb38682	-0.0876589
228	0xbdb28b17	-0.087179355
229	0x3d55337a	0.052051045
230	0x3c5531d9	0.013012373
231	0xbc728266	-0.014801597
232	0xbd4b47a6	-0.049628876
233	0x3d2bc092	0.041931696
234	0xbd476ebb	-0.048689585
235	0xbdad655f	-0.084666006
236	0xbd02084b	-0.03174619
237	0xbda475a6	-0.08030252
238	0xbd4f7f5b	-0.050658565
239	0xbd256ea0	-0.040388703
240	0x3d7cf79e	0.061759584
241	0xbc080c0d	-0.008303654
242	0xbe09927b	-0.13434784
243	0x3e40e4aa	0.18837228
244	0x3e2f90d3	0.1714509
245	0x3e1049fe	0.14090726
246	0xbcca2c05	-0.024679193
247	0x3de4d6ca	0.1117378
248	0x3e8192ab	0.2530721
249	0xbd74b267	-0.05974045
250	0x3deff5dd	0.117168166
251	0x3da44586	0.08021073
252	0x3e6cf7fa	0.2314147
253	0x3d7172d5	0.058947403
254	0x3e134cbb	0.14384739
255	0xbd83fe1c	-0.06444952

fc1.weight_fake_quant.scale f4 [84]
0	0x3b6abee2	0.0035819341
1	0x3a6967f0	0.00089037325
2	0x3b350652	0.0027622175
3	0x3b4ee717	0.0031570846
4	0x3b3f179f	0.0029158366
5	0x3b6c57a8	0.003606299
6	0x3b5c9693	0.0033659085
7	0x3b58c101	0.0033074024
8	0x3b4782ec	0.0030443026
9	0x3b595e9e	0.0033167969
10	0x3b44e5ca	0.0030044192
11	0x3b6ad82d	0.0035834417
12	0x3b64b5df	0.0034898443
13	0x3b4f1230	0.0031596534
14	0x3b4cf3c8	0.0031273235
15	0x3b34480c	0.0027508764
16	0x3b646a59	0.0034853427
17	0x3b72a78a	0.003702613
18	0x3a6c1594	0.0009005901
19	0x3b4a133b	0.0030834216
20	0x3b45779f	0.0030131114
21	0x3b671710	0.003526155
22	0x3a764486	0.0009394366
23	0x3a76af6a	0.0009410294
24	0x3b42ed41	0.0029743465
25	0x3b5faf5a	0.0034131617
26	0x3b588454	0.0033037858
27	0x3b501fe1	0.0031757283
28	0x3b66c6d7	0.0035213733
29	0x3b468277	0.0030290165
30	0x3b3a9906	0.0028472557
31	0x3b672cd0	0.0035274513
32	0x3b55e710	0.0032638945
33	0x3b466882	0.0030274694
34	0x3b427264	0.0029670233
35	0x3b40b721	0.0029406028
36	0x3b3b9b95	0.002862667
37	0x3b5660e7	0.0032711567
38	0x3b4fc527	0.0031703205
39	0x3b516d3f	0.0031955985
40	0x3b6c4d58	0.0036056843
41	0x3a707e3a	0.00091740827
42	0x3b756383	0.0037443347
43	0x3b130f41	0.0022439512
44	0x3b45d16e	0.0030184644
45	0x3b4bbcf6	0.0031087971
46	0x3b46779b	0.0030283693
47	0x3a6f0ed0	0.00091193337
48	0x3b3e1726	0.0029005497
49	0x3b3d3687	0.0028871612
50	0x3b564637	0.003269566
51	0x3b5b7986	0.0033489182
52	0x3b71bfd0	0.003688801
53	0x3b417282	0.0029517715
54	0x3b46c525	0.003032991
55	0x3b38bada	0.0028187544
56	0x3a4a9914	0.0007728499
57	0x3b4f4c1a	0.0031631053
58	0x3b5a0934	0.0033269646
59	0x3b640cca	0.0034797662
60	0x3b55880e	0.0032582316
61	0x3b546ebd	0.0032414638
62	0x3a811f26	0.0009851202
63	0x3b517f0c	0.0031966595
64	0x3b591c5e	0.003312848
65	0x3b4d0687	0.0031284408
66	0x3b56fced	0.0032804564
67	0x3b45583f	0.0030112413
68	0x3b785037	0.0037889609
69	0x3b5c119d	0.0033579834
70	0x3b526b49	0.0032107404
71	0x3aab8e06	0.0013088591
72	0x3b4e9cac	0.003152649
73	0x3b588174	0.0033036144
74	0x3b2204b7	0.0024722049
75	0x3b42b6c6	0.0029710992
76	0x3b6c5646	0.0036062165
77	0x3b5d8be0	0.0033805296
78	0x3b4b0fef	0.003098484
79	0x3b303fe1	0.0026893544
80	0x3b4b7e51	0.0031050632
81	0x3b46a934	0.0030313255
82	0x3b434aa3	0.0029799126
83	0x3b716af5	0.0036837433

fc1.weight_fake_quant.activation_post_process.min_val f4 [84]
0	0xbeeabee2	-0.45848757
1	0xbde967f0	-0.11396778
2	0xbeb50652	-0.35356385
3	0xbeb827e0	-0.35967922
4	0xbe8e07b1	-0.27740243
5	0xbeaa4f33	-0.3326355
6	0xbedc9693	-0.4308363
7	0xbed8c101	-0.4233475
8	0xbec782ec	-0.38967073
9	0xbed95e9e	-0.42455
10	0xbea7e9e2	-0.32795626
11	0xbe74da85	-0.23911484
12	0xbee4b5df	-0.44670007
13	0xbe7a6f65	-0.24456556
14	0xbeac6f1f	-0.3367853
15	0xbeb4480c	-0.35211217
16	0xbeab12ba	-0.33412725
17	0xbef0f77d	-0.4706382
18	0xbdec1594	-0.11527553
19	0xbeca133b	-0.39467797
20	0xbec5779f	-0.38567826
21	0xbee71710	-0.45134783
22	0xbdf64486	-0.120247886
23	0xbdf6af6a	-0.12045176
24	0xbea99af5	-0.33126035
25	0xbe55ae72	-0.20867327
26	0xbeae4cd6	-0.34042996
27	0xbe8cf633	-0.27531585
28	0xbe73b5ec	-0.23799866
29	0xbec68277	-0.38771412
30	0xbe5cd7a9	-0.21566643
31	0xbe6008e2	-0.21878389
32	0xbe8e8b1e	-0.27840513
33	0xbeb0cf8d	-0.3453335
34	0xbec27264	-0.37977898
35	0xbec0b721	-0.37639716
36	0xbe7b7c62	-0.24559167
37	0xbe9a0e51	-0.30089048
38	0xbe621763	-0.22079234
39	0xbe8ab8c6	-0.27094096
40	0xbe8632f3	-0.26210746
41	0xbdf07e3a	-0.11742826
42	0xbef56383	-0.47927484
43	0xbe930f41	-0.28722575
44	0xbe89011e	-0.26758665
45	0xbe3eaa0d	-0.18619557
46	0xbebce981	-0.368969
47	0xbdef0ed0	-0.11672747
48	0xbe90ac34	-0.2825638
49	0xbebd3687	-0.36955664
50	0xbed64637	-0.41850445
51	0xbe7b535a	-0.24543515
52	0xbedc94a8	-0.43082166
53	0xbec17282	-0.37782675
54	0xbe6b19fe	-0.22959134
55	0xbeb7e74b	-0.3591865
56	0xbdca9914	-0.098924786
57	0xbe431b82	-0.19053462
58	0xbe964f29	-0.2935727
59	0xbe3feda3	-0.18742995
60	0xbe9219f2	-0.2853542
61	0xbed46ebd	-0.41490737
62	0xbe011f26	-0.12609538
63	0xbec3f09f	-0.38269517
64	0xbed7a6b3	-0.4211937
65	0xbea14682	-0.31499106
66	0xbed6fced	-0.41989842
67	0xbec5583f	-0.3854389
68	0xbe9cebb2	-0.3064857
69	0xbe8ea067	-0.27856752
70	0xbe680b37	-0.22660528
71	0xbe2b8e06	-0.16753396
72	0xbece9cac	-0.40353906
73	0xbe55b5f5	-0.20870192
74	0xbe73e76b	-0.23818748
75	0xbec2b6c6	-0.3803007
76	0xbee87f01	-0.45409396
77	0xbe6a7051	-0.22894408
78	0xbe7a0012	-0.2441409
79	0xbeab5765	-0.33465114
80	0xbecb7e51	-0.3974481
81	0xbe5041c8	-0.20337594
82	0xbe9aa0e9	-0.3020089
83	0xbef16af5	-0.47151914

fc1.weight_fake_quant.activation_post_process.max_val f4 [84]
0	0x3ed574d5	0.41690698
1	0x3da7fd36	0.08202593
2	0x3e817f45	0.2529241
3	0x3ecd4949	0.40094975
4	0x3ebd9970	0.37031126
5	0x3eea7ef9	0.45799997
6	0x3ea93321	0.3304682
7	0x3eca0ccd	0.3946289
8	0x3ea3dce9	0.3200448
9	0x3ebb467e	0.3657722
10	0x3ec35bfe	0.38156122
11	0x3ee9027d	0.4550971
12	0x3e9dbce6	0.3080818
13	0x3ecd740c	0.401276
14	0x3ecb59e0	0.39717007
15	0x3e9e25ed	0.3088831
16	0x3ee2a184	0.44263852
17	0x3ef0c23b	0.47023186
18	0x3d9d210a	0.07672317
19	0x3e9c943c	0.30581844
20	0x3eb830b8	0.3597467
21	0x3eafaeae	0.34312958
22	0x3da4a2dc	0.080388755
23	0x3da84ca0	0.0821774
24	0x3ec16766	0.377742
25	0x3eddeffb	0.43347153
26	0x3ed6d34b	0.4195808
27	0x3ece7fa1	0.40331748
28	0x3ee4f949	0.4472144
29	0x3e99e8bb	0.30060372
30	0x3eb923d4	0.36160147
31	0x3ee55e76	0.4479863
32	0x3ed43b42	0.4145146
33	0x3ec4dbb1	0.3844886
34	0x3e81c9ea	0.2534936
35	0x3ea21cc0	0.3166256
36	0x3eba245e	0.3635587
37	0x3ed4b425	0.4154369
38	0x3ece259d	0.40263072
39	0x3ecfca65	0.40584102
40	0x3eea74bd	0.4579219
41	0x3d752710	0.059851706
42	0x3e8b2f7a	0.2718466
43	0x3e802d6b	0.2503465
44	0x3ec445cb	0.38334498
45	0x3eca257c	0.39481723
46	0x3ec4eaac	0.3846029
47	0x3d98552c	0.0743812
48	0x3ebc9af8	0.36836982
49	0x3eb1a36b	0.3469499
50	0x3ecfd579	0.40592554
51	0x3ed9c293	0.4253126
52	0x3eefdc50	0.46847773
53	0x3ea6a59b	0.32548222
54	0x3ec5379b	0.38518986
55	0x3eb74964	0.3579818
56	0x3db23626	0.08701734
57	0x3ecdad82	0.40171438
58	0x3ed85522	0.4225245
59	0x3ee244b0	0.4419303
60	0x3ed3dcfe	0.4137954
61	0x3ebf9908	0.3742144
62	0x3dfe7596	0.124247715
63	0x3ecfdc0e	0.40597576
64	0x3ed76a25	0.4207317
65	0x3ecb6c7a	0.397312
66	0x3eb55fa7	0.3542454
67	0x3eb597a4	0.35467255
68	0x3ef65f97	0.48119804
69	0x3eda597a	0.4264639
70	0x3ed0c672	0.40776402
71	0x3d8ddd62	0.06926991
72	0x3ea55e91	0.3229871
73	0x3ed6d071	0.41955903
74	0x3ea0c0ae	0.31397003
75	0x3e8c5e57	0.27415726
76	0x3eea7d99	0.45798948
77	0x3edbd0c8	0.42932725
78	0x3ec979cf	0.39350745
79	0x3eaedf61	0.341548
80	0x3eb0bfb3	0.34521255
81	0x3ec51be2	0.38497835
82	0x3ec1c40e	0.3784489
83	0x3ee345cb	0.44389185

fc2.weight f4 [1, 84]
0	0x3e618610	0.22023797
1	0xbbbcd1fe	-0.0057623377
2	0x3e2b8d66	0.16753158
3	0xbdd24eab	-0.10268911
4	0xbe2ee646	-0.1708003
5	0xbe2e81fa	-0.1704177
6	0x3e67382b	0.2258002
7	0x3e344533	0.17604522
8	0x3e630b04	0.22172171
9	0x3e97b2ad	0.29628506
10	0xbe4a3820	-0.19747972
11	0xbe3506e3	-0.17678408
12	0x3e6f393d	0.23361678
13	0xbe458085	-0.19287308
14	0xbe612bc9	-0.21989359
15	0x3e285f30	0.16442561
16	0xbe5d201b	-0.21594279
17	0x3e420b25	0.18949564
18	0x3c6cdbc8	0.014456697
19	0x3e3b8846	0.18313703
20	0x3e543b19	0.20725669
21	0x3e447350	0.19184613
22	0x3c3f3db2	0.011672424
23	0xbcd6bc85	-0.02621294
24	0xbe361fe9	-0.1778561
25	0xbe139335	-0.14411624
26	0xbead0fa0	-0.33800983
27	0xbe3546d5	-0.17702802
28	0xbe46add3	-0.19402246
29	0x3e57e53a	0.21083537
30	0xbe0b5b0f	-0.13608955
31	0xbe1670c4	-0.14691454
32	0xbe249b88	-0.16074955
33	0xbe43fe0a	-0.19139877
34	0x3e2589f5	0.16165908
35	0x3e386735	0.1800812
36	0xbe7f3519	-0.24922599
37	0xbea6cbec	-0.32577455
38	0xbe34fcf9	-0.17674626
39	0xbe1d0ecc	-0.15337676
40	0xbe4a68bb	-0.19766514
41	0x3b3e20bc	0.002901121
42	0x3e10d70a	0.14144531
43	0x3de1e8db	0.11030742
44	0xbe42afbd	-0.19012351
45	0xbe5fb721	-0.21847202
46	0x3e4e3024	0.20135552
47	0x3d5eb950	0.054375947
48	0xbe369eb5	-0.1783398
49	0x3e395e6b	0.18102424
50	0x3e81c2fe	0.2534408
51	0xbe60424b	-0.21900289
52	0x3e2e1cfc	0.17003244
53	0x3e65aada	0.22428456
54	0xbdee9e82	-0.11651327
55	0xbe8f848c	-0.28030813
56	0xbd1d58f4	-0.03841491
57	0xbe1a8838	-0.15091026
58	0xbdf49f61	-0.119444616
59	0xbe34b94c	-0.1764881
60	0xbe4fe02f	-0.20300363
61	0x3e2be8fe	0.16788098
62	0xbd10f084	-0.035385624
63	0x3e26ad29	0.16276993
64	0xbe4f6d8f	-0.20256637
65	0xbe942629	-0.28935364
66	0x3e369cac	0.17833203
67	0x3e5e8830	0.21731639
68	0xbe5a923b	-0.21344845
69	0xbe329d76	-0.17442879
70	0xbe14f496	-0.14546427
71	0x3c6a5ca3	0.014304313
72	0x3e3387d6	0.17532286
73	0xbe23ebc2	-0.16007903
74	0x3a622d70	0.00086279865
75	0x3e6e3f83	0.23266415
76	0x3e4cc3e2	0.19996598
77	0xbe52eac9	-0.20597376
78	0xbe562464	-0.2091232
79	0xbe92b758	-0.28655505
80	0x3e6c63ab	0.23084895
81	0xbe0ce7ac	-0.13760251
82	0xbe11c432	-0.14234999
83	0x3e2fd612	0.17171505
