experiments/exp024/model.pth (torch, 95178 bytes, 29 tensors)

conv1.depthwise.weight f4 [2, 1, 5, 5]
000000 55 e3 93 3e 62 94 ed 3c 7f 2b c3 3d 44 b7 2c be
       0.28884378 0.029001419 0.095297806 -0.16866785
000010 7c fd 27 3e 92 58 8a 3e 3a 74 8e 3e 06 be 5d 3e
       0.1640529 0.270207 0.2782305 0.2165452
000020 67 bc 54 3e 7c 94 41 be 87 ef 87 be 1e b8 e7 3e
       0.20774995 -0.18904299 -0.26549932 0.45257658
000030 d6 2e 82 3e 72 d7 82 3e d3 cd 67 3e 24 d7 d8 bd
       0.25426358 0.25554997 0.2263711 -0.1058791
000040 56 8a 7d be b1 28 a9 3d 1e b5 1c 3d 31 73 94 3d
       -0.24759802 0.082597144 0.038258664 0.072485335
000050 91 2b a4 be 08 56 88 be 7d 8e a7 bb 5a 1b 6e 3e
       -0.3206449 -0.26628137 -0.0051134215 0.23252621
000060 96 d7 2b 3e 45 14 9e bd 0c 71 d7 bd 9a da c6 bd
       0.16781458 -0.0771871 -0.10519609 -0.09709664
000070 13 0b 0a 3e 07 f8 d3 be ef a8 13 3e e8 c2 41 be
       0.13480787 -0.41400167 0.14419912 -0.18922007
000080 05 6a 3f 3e 89 cd f6 3d 35 f5 a0 bd fd 4e 82 be
       0.18692787 0.120509215 -0.078592695 -0.25450888
000090 1f 29 84 be 5d 0f 8f 3d dd 0c 0c 3e 07 50 66 be
       -0.25812623 0.06985352 0.13676782 -0.22491466
0000a0 63 21 a2 be 45 89 a8 be c5 9a 89 3d 7a 6f 88 be
       -0.31666097 -0.32917228 0.06718973 -0.2664755
0000b0 a9 4b 0c be d0 06 f5 bd 3d 66 89 be c7 5f 02 be
       -0.13700737 -0.1196419 -0.26835814 -0.12731849
0000c0 07 3a cb 3d da b2 7b be
       0.09923177 -0.24579945

conv1.depthwise.weight_fake_quant.scale f4 [2]
000000 eb 88 69 3b 38 f8 53 3b
       0.0035634588 0.0032343995

conv1.depthwise.weight_fake_quant.activation_post_process.min_val f4 [2]
000000 b4 2a a4 be 38 f8 d3 be
       -0.3206383 -0.41400313

conv1.depthwise.weight_fake_quant.activation_post_process.max_val f4 [2]
000000 d9 b5 e7 3e 46 6a 3f 3e
       0.45255926 0.18692884

conv1.pointwise.weight f4 [6, 2, 1, 1]
000000 4f ac c8 be 69 51 65 bf 6c 8b 68 bf 48 d9 ed 3e
       -0.3919396 -0.8957735 -0.9083774 0.46454835
000010 8b 2f 55 3f a3 f7 ba 3e fe 0f 60 bf 8f 40 68 be
       0.8327567 0.36517057 -0.875244 -0.22680877
000020 42 b6 49 3f 71 37 88 3c a3 35 74 bf 97 18 28 bf
       0.7879373 0.016627999 -0.95394343 -0.6566252

conv1.pointwise.weight_fake_quant.scale f4 [6]
000000 2b 38 66 3b f0 8a e8 3b 53 04 56 3b 44 f1 60 3b
       0.0035128694 0.0070966408 0.0032656386 0.0034323493
000010 a0 7f 4a 3b 9d 2a 75 3b
       0.0030898824 0.0037409433

conv1.pointwise.weight_fake_quant.activation_post_process.min_val f4 [6]
000000 f3 51 65 bf f0 8a 68 bf ea f5 ba 3e 53 10 60 bf
       -0.8957817 -0.90837 0.36515743 -0.8752491
000010 05 2f 88 3c 72 35 74 bf
       0.016623983 -0.9539405

conv1.pointwise.weight_fake_quant.activation_post_process.max_val f4 [6]
000000 db ac c8 be cf d8 ed 3e 4f 2e 55 3f 47 40 68 be
       -0.39194378 0.46454474 0.83273786 -0.2268077
000010 20 b5 49 3f 66 18 28 bf
       0.78792 -0.6566223

conv2.depthwise.weight f4 [6, 1, 5, 5]
000000 60 07 47 3e c2 c3 6a 3d 56 2f aa 3d 27 f8 c7 3e
       0.19436407 0.057315595 0.0830981 0.39056513
000010 e1 66 dd 3e d5 3f 81 3e f2 68 e7 3c ff ae 8d 3d
       0.43242553 0.25244012 0.028248284 0.069181435
000020 86 38 88 3c a7 b5 38 3e e9 17 a0 bd 30 56 9b be
       0.016628515 0.18038045 -0.078170605 -0.30339193
000030 ae 07 d6 3d b0 c1 45 3e f8 5d 20 bc 64 02 e0 be
       0.104506835 0.19312167 -0.009788029 -0.43751824
000040 00 4b a5 be aa 08 35 38 68 de 5b 3d 78 03 80 3d
       -0.32283783 4.3161832e-05 0.0536789 0.062506616
000050 cc 4d 7b bd 1a ad 8a 3d d9 75 a5 3c 1a d8 ab bd
       -0.06135349 0.06771298 0.020197796 -0.083908275
000060 88 b4 74 be 7d 91 d8 3e 82 e7 11 3e a9 aa 73 3d
       -0.23896992 0.422985 0.1424847 0.059488926
000070 41 1c 5d 3e c1 06 0e bd ee 9f 23 bd 41 2b 74 3e
       0.2159281 -0.03467441 -0.039947443 0.23844625
000080 ed a8 4a 3d c3 d9 a1 3d 1c 1f 54 be 5e 2f de ba
       0.049477506 0.07902863 -0.20714992 -0.0016951372
000090 dc c3 4e be 3d e5 8e be e2 d9 a3 3c 53 c3 bf be
       -0.20191902 -0.2790927 0.020001356 -0.37453708
0000a0 ae 84 b9 bd a8 13 f4 bd e0 37 b1 3c f4 a2 af be
       -0.0905851 -0.11917812 0.021633089 -0.3430401
0000b0 90 3e 05 bf 5a a9 20 3e cf af 87 3d 75 e2 39 bd
       -0.5204859 0.15689602 0.0662533 -0.045381982
0000c0 97 84 b1 bb f6 83 72 bd 1b 00 2d bc 43 bc 1f 3d
       -0.0054174173 -0.05920788 -0.010559107 0.0389979
0000d0 93 0f 46 3d 44 36 91 bd 25 d6 d1 be 26 d2 52 3e
       0.048354696 -0.070904285 -0.40983692 0.20587978
0000e0 20 32 3a 3c ef 3b d2 bc 16 e3 3a 3d d0 70 b0 3c
       0.01136449 -0.025663344 0.045626722 0.021538168
0000f0 e4 fc e4 3d 31 f5 86 3e 4f 28 ae 3e c2 56 5f 3e
       0.111810476 0.2635894 0.34015128 0.21810439
000100 a4 10 4f 3e 2e 46 1f 3e 3c b3 5f 3e d2 9c d1 3e
       0.20221192 0.15554115 0.21845716 0.40939957
000110 29 0c 4e 3e 34 7b b1 3e c5 38 ac bb 1b 9b 0f be
       0.20121826 0.3466431 -0.005255791 -0.14024012
000120 b5 b4 51 be fb c9 d7 bd 62 2d 78 3c 9e ec 41 bc
       -0.2047909 -0.105365716 0.015147539 -0.011836199
000130 c0 14 cc bd 03 4a c6 be 04 ae 36 be 2a 79 5f bd
       -0.09964895 -0.3872834 -0.17839819 -0.05455891
000140 e2 e9 03 be d6 fc 29 3d f6 32 2b 3c 52 01 7d bd
       -0.12882188 0.04150089 0.010449162 -0.061768837
000150 b0 97 29 3e 74 75 6d bd fc fc 56 3d a5 1a 24 3d
       0.1656177 -0.05797334 0.05248736 0.040064473
000160 69 88 25 3e ef e7 10 be 2b f4 ef bd 27 f6 0c be
       0.16165318 -0.14150976 -0.11716493 -0.13765775
000170 6c 10 32 bc 54 c4 5c be 74 43 ba 3d cd 48 7c be
       -0.010868173 -0.21559268 0.09094897 -0.24637146
000180 d5 79 68 be 98 04 9c be db 95 47 be 51 6e 40 bc
       -0.22702725 -0.30472255 -0.19490759 -0.0117450515
000190 62 a4 90 bb 8c 32 ac bc 1b 7f 5d be dd e9 9c be
       -0.004414127 -0.021020196 -0.21630518 -0.30647174
0001a0 71 ed 9b bd e6 70 90 be f4 f3 ca 3d 90 c5 5b bd
       -0.07613648 -0.28211135 0.099098116 -0.053655207
0001b0 07 9d f8 3d 39 fc 44 3d cf b3 38 be a4 75 93 be
       0.121393256 0.0480921 -0.18037342 -0.2880069
0001c0 aa d2 76 be 09 f7 ec be 1c 4a 9f 3c 5b 3d bd be
       -0.241038 -0.46282223 0.019444518 -0.36960873
0001d0 8a cf 35 bd 89 92 89 be 4c cd 96 bd 39 17 84 bd
       -0.044387378 -0.2686961 -0.07363376 -0.06449742
0001e0 04 89 c4 be 56 d6 98 bd 30 b0 0c be d0 c6 a5 bd
       -0.38385785 -0.07462756 -0.13739085 -0.08094561
0001f0 4b 43 37 3d f4 85 a0 be 4e 73 86 be 3b 0f fc bd
       0.04474191 -0.31352198 -0.26259845 -0.123075925
000200 11 57 b0 be 85 9a ca be 5a af 1a bd 18 40 8d 3d
       -0.34441426 -0.39571014 -0.037764885 0.068969905
000210 6e 35 dd 3b 66 15 8a bd e2 e7 d4 be 1b 51 c8 be
       0.006750754 -0.06742363 -0.41583163 -0.3912438
000220 23 ec bb be a5 d6 31 be 52 01 58 bd 0b 2b 85 be
       -0.36703596 -0.17367037 -0.052735634 -0.26009402
000230 4f 11 ee be eb 25 99 be 8d 96 18 3d b4 f7 15 be
       -0.4649758 -0.29911742 0.03725295 -0.14645272
000240 07 b6 d0 be e4 3c 0d bf 44 cf 1a be bb 7c 9b be
       -0.40763876 -0.55171037 -0.15118128 -0.303686
000250 23 47 6a be de 1d e4 be
       -0.22878699 -0.44554037

conv2.depthwise.weight_fake_quant.scale f4 [6]
000000 e8 01 60 3b d6 3e 85 3b a7 41 53 3b e4 48 46 3b
       0.0034180824 0.0040663285 0.0032235177 0.0030255849
000010 a6 f3 6c 3b fa 3b 8d 3b
       0.0036155968 0.0043101283

conv2.depthwise.weight_fake_quant.activation_post_process.min_val f4 [6]
000000 e8 01 e0 be d6 3e 05 bf 16 d7 d1 be e4 48 c6 be
       -0.43751454 -0.52049005 -0.4098441 -0.38727486
000010 a6 f3 ec be fa 3b 0d bf
       -0.4627964 -0.5516964

conv2.depthwise.weight_fake_quant.activation_post_process.max_val f4 [6]
000000 a8 68 dd 3e b6 8f d8 3e 24 9b d1 3e e2 97 29 3e
       0.4324391 0.42297143 0.40938675 0.16561845
000010 3a a1 f8 3d 3f 47 8d 3d
       0.121401265 0.06898355

conv2.pointwise.weight f4 [16, 6, 1, 1]
000000 30 02 ce be d4 ba e4 3e 17 c0 56 3d bc ce 32 be
       -0.40236044 0.4467379 0.052429285 -0.17461675
000010 eb 38 29 be 1a 42 81 be 2a 20 32 bf 25 ae 6a 3e
       -0.16525619 -0.25245744 -0.6958033 0.22917993
000020 db bd d0 be e4 8e eb 3e a1 69 1a 3e fe 84 05 be
       -0.40769848 0.46007454 0.15079357 -0.13039014
000030 aa ab 92 be 00 84 da 3e 11 dc a1 3e 3d 21 f1 be
       -0.28646594 0.42678833 0.3161321 -0.4709567
000040 37 c9 a3 3e 7a 16 91 3d d6 0e 37 3c 2c 0d 3b 3e
       0.31989452 0.07084365 0.011172971 0.18266743
000050 d6 aa af 3e c8 22 4d be fc e6 e3 bc 0e 8f a8 be
       0.34310025 -0.20032799 -0.027820103 -0.32921642
000060 ab 16 a2 3e d3 c8 8e be f6 60 03 bf 38 eb df be
       0.3165792 -0.27887592 -0.51319826 -0.43734145
000070 38 c3 35 be c6 cd 63 3e e1 72 2b be c9 ae 49 3e
       -0.17750251 0.22246465 -0.16743042 0.19695581
000080 e7 a5 3d 3e d8 a9 52 3d 5c 7e 1b be 86 06 1d bf
       0.18520318 0.051431507 -0.15184921 -0.6133808
000090 5a a7 38 3f 9b c0 9a bd 65 87 dd be ff 3e 33 3e
       0.7213036 -0.07556268 -0.4326736 0.175045
0000a0 5e 9e b5 bd 49 64 99 3e a0 6e b4 be 78 6b c4 3e
       -0.08868097 0.29959324 -0.3524065 0.38363242
0000b0 f8 c5 6f 3e 35 41 4b bd e9 75 46 bf a1 dc 26 3e
       0.23415363 -0.049622733 -0.77523667 0.16295101
0000c0 d1 e8 87 3e 1f 01 49 be 24 79 7e 3e 2b b6 0c be
       0.26544812 -0.19629334 0.24850899 -0.13741367
0000d0 b6 4c d6 be ad 58 fd 3e 2c 4d 33 bf 06 ec 5e be
       -0.418554 0.49481717 -0.7003963 -0.21769723
0000e0 a8 67 86 3e ca 23 ba 3e 8d c2 ec be f2 ae eb be
       0.26250958 0.3635543 -0.4624218 -0.4603191
0000f0 c1 34 e8 bd e8 7a 32 3f 14 aa 00 3b 8e b1 35 be
       -0.11338187 0.6971879 0.0019632624 -0.17743513
000100 69 2c f4 3d 3f 22 b1 bb 45 c7 cb 3d 71 91 88 bd
       0.11922533 -0.005405694 0.09950117 -0.06668366
000110 87 c1 10 bf 01 9b bc be f1 ec ca 39 3b 28 8b bd
       -0.565453 -0.3683701 0.00038704977 -0.06794783
000120 47 75 35 3e 08 94 0d 3d 47 fe 6a 3e 35 d1 80 be
       0.17720519 0.034565 0.22948562 -0.25159612
000130 c3 e1 a6 be ea 8c 0c 3f 0d 90 5d 3e c3 bc b8 bb
       -0.32594118 0.5490252 0.21636982 -0.0056377365
000140 a3 43 aa 3e 79 cc d9 3c eb 42 b0 bc cf 96 0e bf
       0.33254728 0.026586758 -0.021516284 -0.55698866
000150 da b5 05 3f e1 d9 ad be 80 b2 0e 3e 59 e5 ae 3d
       0.5223061 -0.3395529 0.1393528 0.08539838
000160 b8 8b f5 bd b6 a1 b1 3e b6 4c e0 3e 60 16 50 3e
       -0.1198954 0.34693688 0.43808526 0.20321035
000170 0b 29 7a bd 82 cc 9b be b3 86 0d 3f 42 1c f4 bd
       -0.061074298 -0.30429465 0.5528366 -0.11919452

conv2.pointwise.weight_fake_quant.scale f4 [16]
000000 61 85 66 3b de 1e b2 3b be 22 71 3b 3a 0d 31 3b
       0.0035174715 0.0054358086 0.003679439 0.002701594
000010 63 5f 83 3b a5 05 9d 3b f8 1c ba 3b fd 74 c6 3b
       0.0040091737 0.0047919326 0.005679723 0.0060564266
000020 53 55 7f 3b 10 4e b3 3b bc e1 b3 3b ea c2 90 3b
       0.003896077 0.0054719523 0.005489556 0.004417767
000030 ce a7 8d 3b 08 97 8e 3b d0 c1 86 3b 2c a4 8e 3b
       0.0043229824 0.0043515004 0.0041124597 0.004353067

conv2.pointwise.weight_fake_quant.activation_post_process.min_val f4 [16]
000000 33 03 ce be de 1e 32 bf be 22 f1 be dc 8e a8 be
       -0.40236816 -0.6957835 -0.4709682 -0.32921493
000010 63 5f 03 bf a5 05 1d bf d0 87 dd be fd 74 46 bf
       -0.51317424 -0.6133674 -0.4326768 -0.7752226
000020 84 4c d6 be 10 4e 33 bf 16 ae 35 be ea c2 10 bf
       -0.41855252 -0.7004099 -0.1774219 -0.56547415
000030 04 df a6 be 08 97 0e bf 53 d9 ad be 94 cb 9b be
       -0.32592022 -0.55699205 -0.33954868 -0.30428755

conv2.pointwise.weight_fake_quant.activation_post_process.max_val f4 [16]
000000 56 b8 e4 3e 0c 91 eb 3e 8d 83 da 3e 20 ab af 3e
       0.44671887 0.460091 0.4267849 0.34310246
000010 e1 17 a2 3e c4 b0 49 3e be a8 38 3f df 6c c4 3e
       0.31658843 0.19696337 0.7213248 0.38364312
000020 a8 56 fd 3e ee 22 ba 3e f9 79 32 3f 0c c7 cb 3d
       0.49480176 0.36354774 0.69717366 0.099500746
000030 7e 8c 0c 3f 00 43 aa 3e 4c b4 05 3f e4 86 0d 3f
       0.54901874 0.33254242 0.52228236 0.5528395

conv3.depthwise.weight f4 [16, 1, 5, 5]
000000 10 0c ae 3c 5c 25 83 3e 0c 88 a7 3c 73 50 87 3e
       0.021245986 0.2561444 0.020450614 0.26428565
000010 6a 54 cb 3e 5e cb c6 bd 79 c8 17 3e 60 fc 6e 3c
       0.3971284 -0.09706758 0.14822568 0.014586538
000020 69 a6 1c be 0d 58 b5 3b 1a c2 31 be 82 d9 63 bd
       -0.15297855 0.005534178 -0.173592 -0.055627353
000030 2c ae 06 be ae a0 c7 be 29 c0 e5 3d ee 3a 02 be
       -0.13152379 -0.38989776 0.11218292 -0.12717792
000040 04 de 59 3e cd e9 c7 bd 0a a9 a5 be 78 a9 1c be
       0.21276098 -0.09761391 -0.3235553 -0.15299022
000050 ec 88 4a 3d fd ef b1 3d d2 b8 da 3d 9d a8 da 3d
       0.049446985 0.08688352 0.10679783 0.10676692
000060 22 84 f8 3a 15 de e5 be 90 36 89 bd 7f 0b d6 3e
       0.0018960277 -0.44895998 -0.0669986 0.41805646
000070 35 bb 6c 3d 6c 8a 49 bd e4 43 1e 3e 57 ab c6 bd
       0.057795722 -0.049204275 0.15455586 -0.09700649
000080 9a c4 63 bd fb 4b a5 3e a4 b1 10 bd 47 90 18 3e
       -0.055607416 0.3228453 -0.03532566 0.14898787
000090 2b ad fc 3e e7 84 6b 3e ac 77 c0 3e 92 a3 e2 be
       0.49350867 0.22999917 0.37591302 -0.4426542
0000a0 cf 9f d8 bc fa 0e 97 3e d3 19 00 3f be 7d b8 3d
       -0.02644339 0.29503614 0.50039405 0.090083584
0000b0 4f 35 46 3e 81 99 c7 3e 8f b1 b4 3e d5 8f 87 3e
       0.19356273 0.38984302 0.35291716 0.26476923
0000c0 2e 36 cd bd 92 4a 41 3d 07 37 96 3d 15 ea 89 be
       -0.100200996 0.047190256 0.073347144 -0.26936403
0000d0 db f0 ce 3d 14 b4 8b 3e 29 4a 48 3e 33 cb 19 be
       0.10104533 0.27285826 0.1955954 -0.1501892
0000e0 1d d0 3a 3d ea 7b a2 be c8 13 fb bd f8 11 7a be
       0.04560863 -0.31735164 -0.12259632 -0.24420917
0000f0 c1 95 c2 3d bc 86 f9 3d 57 e8 0b be 56 53 ea bd
       0.095012195 0.12183902 -0.1366285 -0.11441676
000100 48 86 63 be 44 85 3b 3e b8 95 80 3e 6a 06 d6 3d
       -0.22219193 0.18312556 0.25114226 0.10450442
000110 34 3f 30 be 4e 4d 01 3e 65 9c 76 3e fd 43 1f 3f
       -0.1721161 0.12627146 0.24083097 0.62213117
000120 99 96 1b 3f e9 d0 89 3e 15 d6 d6 3d dd 47 21 3d
       0.6077667 0.26917198 0.10490052 0.039375175
000130 8e ea e3 3c 1b 02 a5 3c d3 33 0a 3d f5 81 08 be
       0.027821805 0.020142606 0.03374083 -0.13330825
000140 95 6f 57 3d 39 d9 6f 3e d6 e8 08 3e bf a9 94 3e
       0.052596647 0.23422708 0.1337007 0.29035756
000150 84 15 25 3e e7 b7 1d be 1f 96 a8 be bd 4b 2d 3d
       0.16121489 -0.15402184 -0.32927033 0.042308558
000160 68 fa 2f be 13 c8 cd 3d 0a 1f f9 bd 11 e3 08 be
       -0.17185366 0.10047927 -0.12164123 -0.13367869
000170 45 ab 1a be 6d b2 81 bd aa a7 a2 bc 5a ed aa b9
       -0.15104397 -0.0633286 -0.01985534 -0.00032601767
000180 2e 88 db 3d 49 3b 1d bd c0 72 a3 3d ce 8f dd 3d
       0.107193336 -0.038386617 0.07980871 0.10818444
000190 aa 5f 04 be 7b f7 d5 bd ac 2a 0d 3e d8 54 6b be
       -0.12927118 -0.10447594 0.1378581 -0.22981584
0001a0 a5 f8 97 be 64 7c 56 3d e6 9e 18 bd bd 1f fd bc
       -0.29681888 0.052364722 -0.037260912 -0.030898923
0001b0 60 f2 23 bd e4 c1 6c be 01 37 0b 3e 35 e2 16 be
       -0.04002607 -0.23120838 0.13595201 -0.14734729
0001c0 22 21 5e 3e 6f b4 b2 bd 9e d1 b5 be b8 bf 2d 3e
       0.21692327 -0.08725821 -0.35511488 0.16967666
0001d0 e2 98 b6 3d 41 3f ee bd 08 b6 d2 bd b9 44 57 3e
       0.08915879 -0.116331585 -0.10288626 0.2102231
0001e0 94 a6 88 3e e7 21 cd 3c f8 b1 22 3e da 85 13 3e
       0.2668959 0.02504058 0.15888202 0.14406529
0001f0 9c 90 70 bd c3 b4 00 3e 28 b8 23 be 4b 1b 3c be
       -0.05873166 0.12568955 -0.15988219 -0.18369786
000200 42 91 21 be e0 4c 66 3e 9b 84 fb be f3 07 23 bd
       -0.15778068 0.22490263 -0.49124607 -0.039802503
000210 6c 0d 76 3d 38 63 82 bd 4a 9e 4d 3e 6b b8 65 bd
       0.060071394 -0.06366581 0.20079914 -0.056084078
000220 30 ce f0 bd ee fd 24 bd 75 65 35 be 1a c1 e6 3b
       -0.11758077 -0.04028123 -0.17714484 0.0070420625
000230 5a 29 48 3e 0e 63 4d bd 9c f9 0d be e1 56 5f be
       0.19547024 -0.050143294 -0.1386475 -0.21810485
000240 b3 7f f7 3d f1 f6 93 bd 99 1b 2e bd 50 7d 3f be
       0.120849036 -0.07224835 -0.042506788 -0.18700147
000250 01 6b 52 3c 15 ea 8f bd 3a 58 7c bd 76 03 92 be
       0.0128428945 -0.070270695 -0.061607577 -0.28518265
000260 5f 5b ae bd 6d 25 b6 3e 86 36 cb 3e 35 27 8a be
       -0.085135214 0.3557543 0.39690036 -0.26983038
000270 66 7e 71 be 64 c3 24 3e cf 19 9f be bc 46 0f bd
       -0.23583373 0.1609016 -0.31074378 -0.034979567
000280 17 b8 07 3f d4 f6 9c 3e 12 e0 5d 3e 30 27 23 3d
       0.53015274 0.30657065 0.21667507 0.039832294
000290 c0 c3 29 be e4 0b 33 3e c8 92 f1 3e b0 3e 01 3e
       -0.16578579 0.17485005 0.47182298 0.1262157
0002a0 84 21 4e be de 8c fd bd f3 92 af 3e 43 6c c6 3d
       -0.20129973 -0.12380384 0.342918 0.09688618
0002b0 84 1a 7f bd 3e d1 6e bd a2 51 82 be fb f0 ff be
       -0.062281147 -0.058305018 -0.25452906 -0.4998854
0002c0 a6 33 4c bd 7e bf 91 3c 36 4a 1d 3e c7 7b a7 be
       -0.049853943 0.017791506 0.1536034 -0.32711622
0002d0 2e ec 47 be 5f a4 43 3d cd 22 08 3e 11 c9 b1 bd
       -0.19523689 0.04776418 0.13294525 -0.086809285
0002e0 b1 db 46 be df 15 b4 3c 1e 0d 65 be 3f 09 58 be
       -0.19419743 0.021983085 -0.22368285 -0.21097277
0002f0 ac c3 75 be f2 5a 02 be 8c 4d 92 bd 38 0e e4 bd
       -0.24000424 -0.12730005 -0.07143697 -0.111355245
000300 1e 4c 00 bf 1f 55 c2 be 8e c3 e8 bd f6 5d 68 3c
       -0.50116146 -0.37955567 -0.11365424 0.014182558
000310 18 08 c2 3d 4a df 14 be b6 3f fa be fd ef 5b be
       0.094742 -0.14538303 -0.48876733 -0.21478267
000320 96 28 b0 be 14 c0 a5 be 9a c8 02 be cd 72 a6 be
       -0.34405965 -0.32373106 -0.12771836 -0.3250946
000330 6b 81 c8 bd f9 82 83 3e 78 05 a2 3d 0d 77 8b bc
       -0.097903095 0.25685862 0.07911199 -0.017024541
000340 8b 3d 58 3e 88 c2 d2 3d dc 69 9a 3e 7a a6 c5 3d
       0.21117227 0.1029101 0.3015889 0.096508935
000350 c3 01 24 3e 91 6a e6 bc 83 13 74 3d f1 74 57 be
       0.16016297 -0.028126987 0.05958892 -0.21040703
000360 50 7a 6b bd d2 43 00 3d a1 f7 cf bb 96 9f 17 be
       -0.057489693 0.03131468 -0.0063466583 -0.14806971
000370 09 7a 92 3b ac ad 48 3e 98 72 af bd a6 c5 ca 3c
       0.004470114 0.195975 -0.08566779 0.02475245
000380 99 22 4b 3e 76 9c b7 3e 00 f5 2b bd 21 8d 97 3d
       0.19837417 0.35861558 -0.041981697 0.07399965
000390 52 e7 ca bd 9b 42 23 be d7 cc 77 3d dd d0 27 3d
       -0.09907402 -0.15943377 0.060498085 0.040970672
0003a0 16 f2 73 bd e9 37 19 bc 2b bc b4 bd c5 de 0e 3d
       -0.059557043 -0.009351709 -0.08824953 0.03488042
0003b0 fb 75 24 3e 86 02 4b bb 03 34 f9 3c a2 a0 90 bc
       0.16060631 -0.0030976846 0.030420309 -0.01765472
0003c0 fe 7f 02 3e db 86 5b 3e 8b 93 91 3e b6 eb 37 3e
       0.12744138 0.21438162 0.2843288 0.1796101
0003d0 ca 94 43 3d a0 a8 4d be de 47 3f bd fd 49 fe be
       0.04774932 -0.20083857 -0.046699397 -0.49665824
0003e0 82 e3 2a be 61 fa 51 be f6 29 52 3e 41 87 02 bd
       -0.1668835 -0.20505668 0.2052382 -0.03186727
0003f0 51 91 9c 3d 30 79 96 3e c6 08 66 3e 0c 76 2f 3d
       0.076449044 0.29389334 0.22464284 0.042837188

conv3.depthwise.weight_fake_quant.scale f4 [16]
000000 58 eb 4c 3b a3 1a 81 3b a1 84 a0 3b be 96 28 3b
       0.0031268205 0.003939943 0.004898623 0.0025724615
000010 20 d2 35 3b a4 83 7b 3b 7b c7 88 3b 76 4b 80 3b
       0.0027743652 0.0038378024 0.0041741705 0.0039152456
000020 4a 2a 30 3b 54 4a 7e 3b bb d9 43 3b b3 54 3a 3b
       0.0026880675 0.0038801627 0.0029884416 0.0028431832
000030 de 5f 5f 3b 65 7a 60 3b e4 9d 58 3b af 31 77 3b
       0.003408424 0.003425264 0.0033053095 0.0037718823

conv3.depthwise.weight_fake_quant.activation_post_process.min_val f4 [16]
000000 7c a0 c7 be de dc e5 be c3 7a a2 be be 96 a8 be
       -0.38989627 -0.4489507 -0.31734285 -0.32927507
000010 20 d2 b5 be a4 83 fb be 2c 19 9f be 76 4b 00 bf
       -0.35511875 -0.4912387 -0.31073892 -0.50115144
000020 4a 2a b0 be 54 4a fe be 5d bb 94 be b3 54 ba be
       -0.34407264 -0.49666083 -0.29049197 -0.36392745
000030 de 5f df be d0 f3 bf be e4 9d d8 be 64 40 c7 be
       -0.43627828 -0.37490702 -0.4230796 -0.38916314

conv3.depthwise.weight_fake_quant.activation_post_process.max_val f4 [16]
000000 81 51 cb 3e 6e 18 00 3f 98 43 1f 3f eb a8 94 3e
       0.3971062 0.50037277 0.62212515 0.29035124
000010 e2 a5 88 3e 4f 4e 66 3e ec b5 07 3f 73 4b 1d 3e
       0.2668906 0.2249081 0.53011966 0.15360813
000020 91 68 9a 3e 3b 9e b7 3e 08 52 c2 3e eb 14 94 3e
       0.30157903 0.35862908 0.3795321 0.2892221
000030 79 c0 be 3e 70 b9 de 3e 9c e0 ac 3e 4c 43 f5 3e
       0.3725622 0.43500853 0.33765113 0.47902906

conv3.pointwise.weight f4 [120, 16, 1, 1]
000000 89 48 97 be 41 74 f1 be 8e ae 25 3e 01 e0 4e 3e
       -0.29547527 -0.47159007 0.16179869 0.20202638
000010 8d 76 89 be f3 6c 95 3e 0c ce 98 be 35 e9 c9 3d
       -0.2684826 0.29184684 -0.298447 0.09858934
000020 a8 eb 81 be 81 86 ec bd a1 61 34 3e b4 82 fc 3e
       -0.25375104 -0.11549092 0.17615367 0.4931847
000030 61 3a b3 bd 86 f6 32 be dd 69 4a 3e da 5a d1 3d
       -0.08751369 -0.17476854 0.19766946 0.10222407
000040 ed c7 ab 3e e4 d7 0e be f9 c3 4c 3e 74 63 a4 be
       0.3355097 -0.13949543 0.19996633 -0.32107127
000050 7c 27 09 be be 18 d9 3b 0c b0 c8 be f4 e2 e3 bd
       -0.13393968 0.006625264 -0.39196813 -0.11127272
000060 94 23 bb bb 91 af b6 be 2c d4 89 3e 07 b7 75 3e
       -0.0057110284 -0.35680822 0.26919687 0.239956
000070 e9 8f ae 3c 1c ea fc 3d d0 5d 48 3e da 81 69 3e
       0.021308856 0.1234934 0.19567037 0.2280344
000080 bc a4 bd be 0c 51 53 3e eb 5f 3e bd e9 b8 28 be
       -0.37039745 0.20636386 -0.046478193 -0.16476788
000090 31 f2 71 3d d8 1a 0d 3e 12 a0 a1 3e d2 13 9a 3e
       0.059068862 0.13779771 0.31567436 0.30093247
0000a0 13 fd 6b be 78 fa d3 bc 3e bd 50 3e 3c 31 70 bd
       -0.23045759 -0.025876269 0.2038469 -0.058640704
0000b0 a6 c0 d2 be 72 72 f4 3d ef 06 d3 bd 9e b4 44 3e
       -0.41162604 0.11935891 -0.10304057 0.19209525
0000c0 a6 96 0b 3c 0d 78 ba 3e 00 b5 0f be ea a6 93 be
       0.008519804 0.36419716 -0.1403389 -0.28838283
0000d0 4b 83 d7 bb 60 10 91 bd ca 3c 7f bc ee ca 92 3e
       -0.0065769306 -0.070832014 -0.015578458 0.28670448
0000e0 20 fa 62 3d dc 48 76 3e be 29 83 be 3e 83 b4 bd
       0.05541432 0.24051231 -0.25617784 -0.08814095
0000f0 73 a2 63 3e b9 44 46 3d 2c e1 b7 be 41 dc 39 be
       0.22229938 0.048405383 -0.3591398 -0.18150426
000100 58 f7 02 3e 62 77 f5 3e b4 c0 03 be 0f 10 47 be
       0.12789667 0.47942644 -0.12866479 -0.1943972
000110 a6 3f 05 3c 5b 7b 10 3d 62 6d b9 bd 0e 45 ff bc
       0.008132851 0.03527389 -0.09054066 -0.031160858
000120 1a ec 1e bd 8a f4 91 3e e1 a9 37 be fd 04 1b be
       -0.038799383 0.2850688 -0.17935897 -0.15138622
000130 07 86 e7 3e 94 45 ee 3e 20 c4 fa be 57 7f e9 3d
       0.45219442 0.4653746 -0.48977757 0.11401241
000140 cd 35 47 3d a5 01 ab bd e0 e2 56 bc 10 0c 50 be
       0.048635293 -0.08349923 -0.013115615 -0.20317101
000150 79 a1 de 3d dd c4 71 3d 60 f0 21 bf b3 92 26 3e
       0.10870642 0.059025634 -0.6325741 0.16266899
000160 a5 35 0b 3e e7 9b a6 3e 6b 9c d1 be 68 52 29 be
       0.13594683 0.3254082 -0.4093965 -0.16535342
000170 b4 94 bf 3d cf 77 60 bd 9b cb 3b be 31 36 d5 be
       0.09354535 -0.05480176 -0.18339388 -0.41642907
000180 d4 ab f5 bd b5 f2 af bc 45 a0 1e bd 09 ab 1a be
       -0.11995664 -0.021478036 -0.038727064 -0.15104307
000190 fd 14 28 3d c7 03 3d be 77 c7 f0 be 30 84 0f 3e
       0.04103564 -0.18458472 -0.4702718 0.1401527
0001a0 91 8c 94 3e 10 75 92 3c 2e 21 b1 3d 80 a3 d7 bd
       0.29013494 0.017878085 0.08648907 -0.10529232
0001b0 2c 84 09 3e db e5 e8 bd d8 44 9c be 7b a7 91 be
       0.13429326 -0.113719665 -0.30521274 -0.2844809
0001c0 4e 91 88 3d c9 46 bf 3d 96 da a9 bd f3 c7 94 be
       0.0666834 0.09339673 -0.08293645 -0.290588
0001d0 af 58 e7 3e bb 77 75 bd be 6d e5 3c cf 2e 1c bc
       0.45184848 -0.059928637 0.02800643 -0.009532644
0001e0 e2 60 0d 3e 6a 2c b0 bd 54 eb 88 3b 94 42 a4 bd
       0.13806489 -0.08602221 0.004178444 -0.08020511
0001f0 94 59 26 3e f2 69 94 3e 1f d4 ab be 16 b5 2f be
       0.16245109 0.2898708 -0.33560273 -0.17158923
000200 b2 ad 54 be 19 60 6e 3e ba 3d cc 3d 0f a2 83 be
       -0.20769385 0.23278846 0.09972711 -0.25709578
000210 5a c4 95 3e 6a 74 ab 3d 49 76 05 3b 3d 15 d7 3e
       0.29251367 0.083718136 0.0020364693 0.4200839
000220 c9 2c 2e 3d 07 81 84 3e 0c 2c 97 bd 41 c8 f7 bd
       0.04252318 0.2587969 -0.07381448 -0.12098742
000230 41 d3 2d 3e db 74 2d 3d 5f 88 7a be 15 f1 7a be
       0.16975118 0.04234777 -0.24466084 -0.24506028
000240 99 97 d1 be 76 61 17 3e b5 71 13 be 4f f1 0f be
       -0.40935972 0.14783272 -0.14398845 -0.14056896
000250 b3 a1 ce bc c1 90 76 be b5 1c 9f 3e 37 c9 aa 3b
       -0.025223589 -0.24078657 0.3107659 0.005211975
000260 75 1d 89 be 1c 78 48 be 24 00 9f 3d 5c b1 e9 3d
       -0.26780286 -0.19577068 0.07763699 0.11410782
000270 6b 71 3a be 7c 66 6e 3d ba a6 2d bd f0 f0 37 3d
       -0.18207328 0.058203205 -0.04239533 0.04490751
000280 ca 62 0b 3f bb fc 1b be ab 88 0b 3e 6c ef 2f be
       0.54447615 -0.15233128 0.13626353 -0.17181176
000290 06 ef 50 be 9f b5 2c 3d 53 8f 0e bf 95 0f 0c be
       -0.2040368 0.042165395 -0.55687445 -0.13677819
0002a0 2d 1d b1 3d 4d 5e c4 be 59 7d ff 3e d2 59 5e 3e
       0.08648143 -0.38353196 0.4990032 0.21713951
0002b0 00 26 04 3c 9f d0 dd 3d 56 96 8d 3e 57 06 81 3d
       0.0080657005 0.10830807 0.2765376 0.06300037
0002c0 1f ac 8d 3e a4 7e a7 3d 44 77 a3 be 33 75 79 bd
       0.2767038 0.08178452 -0.3192693 -0.060902786
0002d0 40 77 e3 3e af c7 87 bd f0 7f 57 3e 65 ab 3d 3e
       0.44426918 -0.066298835 0.21044898 0.18522413
0002e0 28 14 77 3d 58 a6 26 3e 5b 11 10 3d b7 92 22 be
       0.060321957 0.16274393 0.0351728 -0.1587628
0002f0 38 de c8 3d 23 03 e3 bd 94 26 9b be 71 e9 47 be
       0.0980801 -0.11084583 -0.3030287 -0.19522645
000300 48 11 a0 be 29 d3 81 3e 15 0b a6 3d c7 60 5e 3b
       -0.31263185 0.25356415 0.081075825 0.0033932196
000310 42 37 02 bf dd bc 9d 3e 12 44 d6 3d 6e e7 c8 3e
       -0.50865567 0.30808154 0.10462202 0.39239067
000320 de 88 18 3e 81 d2 71 b8 fb be 08 be a8 b5 19 3e
       0.1489596 -5.7654925e-05 -0.13354103 0.15010703
000330 af 46 ae bd a4 e9 c9 3e 89 b3 16 3e 6b 5a be bd
       -0.085095756 0.39436066 0.14716925 -0.092945896
000340 d7 83 0d be 81 e7 c1 3d a4 ef b9 bd be d4 15 3e
       -0.13819824 0.09467984 -0.09078911 0.14631936
000350 d0 20 b9 3d 91 04 9b bc bc 80 cc be 8c 7f 3e 3e
       0.090394616 -0.018923076 -0.39941967 0.18603343
000360 a3 5b ca 3d f8 5b b6 3e 0f 9f 91 bd 6c 58 2d be
       0.098807596 0.35617042 -0.07110416 -0.16928262
000370 4f 3b cc 3e 27 1b 4b bd 29 f6 95 be 9f a3 dd 3d
       0.39889 -0.04958644 -0.29289368 0.10822224
000380 bb 71 e8 bc 0d 0e 6f be 59 fe bd bd 68 d7 0e 3e
       -0.028374543 -0.23345204 -0.092770286 0.13949358
000390 d1 84 61 3d 17 6a be 3d 21 4f 21 bf a7 32 7b 3d
       0.055058304 0.09297579 -0.63011366 0.061327603
0003a0 65 78 dd be cb 79 90 3e 21 49 b5 3d 4f 26 bb 3d
       -0.43255916 0.2821792 0.08851839 0.09138166
0003b0 c2 6f 33 3e fe 05 1d be 0c ad d3 3d fe 37 d3 3c
       0.17523101 -0.15334317 0.103357404 0.025783535
0003c0 0e 1d b7 be 8d 70 5c 3e 2e 96 66 be b2 48 da bd
       -0.35764354 0.2152731 -0.22518227 -0.10658397
0003d0 ef 3c 0d bd a5 dd 5b 3e 7a 1d 0c 3f b1 51 db bd
       -0.03448194 0.2147127 0.5473248 -0.10708941
0003e0 ed a9 6e 3d bf 3f 97 3d f4 54 01 3f fa 1f f1 3d
       0.058267523 0.073852055 0.50520253 0.11773677
0003f0 2a 25 d6 be a0 5a ee bb db 0d 99 be 10 b6 60 3c
       -0.4182523 -0.007273987 -0.29893383 0.013715282

conv3.pointwise.weight_fake_quant.scale f4 [120]
000000 d8 7b 7e 3b 60 ae 48 3b dc c2 52 3b 79 ee 3b 3b
       0.003883114 0.0030621514 0.0032159602 0.0028676076
000010 4a c5 7a 3b bc ef a1 3b ef c6 70 3b ff 2b 69 3b
       0.0038264566 0.0049419086 0.0036739667 0.0035579202
000020 1e c3 58 3b 25 98 51 3b de 8e 8e 3b 16 3f 65 3b
       0.0033075283 0.0031981554 0.004350527 0.003498023
000030 e9 36 82 3b e6 d7 4d 3b 5a 4d a1 3b 55 37 8d 3b
       0.003973831 0.0031409203 0.004922551 0.0043095746
000040 1c b6 5b 3b e2 10 2b 3b 0c 4d 59 3b 9c 00 40 3b
       0.0033525294 0.0026102592 0.0033157496 0.0029297238
000050 1d 5c 8c 3b fa 60 49 3b dd 97 5c 3b d5 6b a1 3b
       0.0042834417 0.0030727969 0.0033659854 0.0049261847
000060 b6 4a 80 3b 9d c7 85 3b 28 9b 67 3b 25 1b 5c 3b
       0.0039151562 0.0040826336 0.0035340283 0.0033585515
000070 d9 1b 98 3b 4e 53 74 3b 3a 75 82 3b a7 a5 a4 3b
       0.0046419916 0.0037281099 0.0039812597 0.00502463
000080 7b c6 a1 3b cd 96 52 3b 15 f0 43 3b d6 03 71 3b
       0.004936991 0.0032133341 0.0029897739 0.0036775968
000090 eb a2 89 3b a3 0c 31 3b 22 3c 6a 3b c6 65 7d 3b
       0.0042003295 0.0027015589 0.0035741408 0.0038665398
0000a0 98 c4 3b 3b 4a c5 68 3b f2 74 5a 3b 8c 68 81 3b
       0.0028651115 0.0035517984 0.0033333865 0.0039492305
0000b0 45 b1 31 3b 2b 73 6c 3b b9 b4 8f 3b 8b d8 4c 3b
       0.0027113718 0.0036079388 0.0043855575 0.0031257
0000c0 45 c7 71 3b 63 f8 38 3b 2a 60 b3 3b 15 ec 7b 3b
       0.0036892456 0.0028224222 0.00547411 0.0038440276
0000d0 d7 d7 90 3b 66 64 7c 3b e5 cd 82 3b 69 13 8f 3b
       0.0044202614 0.003851199 0.0039918297 0.0043663275
0000e0 56 7a 72 3b 66 f7 48 3b 14 c0 80 3b 44 a5 83 3b
       0.0036999187 0.003066504 0.0039291475 0.004017504
0000f0 29 0e 3e 3b 53 00 6f 3b b2 21 79 3b 91 bf 44 3b
       0.002900014 0.00364687 0.0038014469 0.003002141
000100 04 5d 60 3b 45 7c 8e 3b d4 29 26 3b 64 1a 6e 3b
       0.003423513 0.00434831 0.0025354521 0.0036331648
000110 f2 f6 68 3b 12 31 53 3b 81 dc 97 3b 5f ad 5c 3b
       0.0035547582 0.0032225293 0.0046344404 0.0033672673
000120 dd 93 71 3b 8c 43 9d 3b 5e 5c 5f 3b 59 0d b0 3b
       0.0036861815 0.004799312 0.0034082155 0.005372685
000130 9d 6c 79 3b 00 f9 86 3b c9 05 73 3b fe 75 91 3b
       0.0038059123 0.0041190386 0.0037082306 0.0044391146
000140 22 e6 67 3b 63 86 6c 3b cb 7b 44 3b eb 76 65 3b
       0.0035384973 0.0036090843 0.0029981013 0.0035013508
000150 24 23 6e 3b da 9c 75 3b 48 c8 33 3b 61 28 43 3b
       0.0036336863 0.0037477524 0.002743261 0.0029778706
000160 c7 c8 a9 3b 47 a2 68 3b 81 cb 51 3b 61 9f 15 3b
       0.005181405 0.0035497115 0.0032012167 0.0022830593
000170 13 e4 86 3b 6b 7d 53 3b 47 64 99 3b ae d7 63 3b
       0.004116544 0.00322708 0.0046811434 0.0034766006
000180 41 ec 42 3b 6b fa 95 3b 70 a8 8a 3b 3e ed a0 3b
       0.002974287 0.0045769713 0.004231505 0.004911094
000190 b5 e0 6e 3b 8d 89 79 3b 96 b8 57 3b 07 1b 62 3b
       0.0036449854 0.0038076371 0.0032916418 0.0034500973
0001a0 b7 d0 8e 3b d5 dd 50 3b bf 1b 6b 3b 22 7d 5a 3b
       0.004358377 0.0031870503 0.0035874692 0.0033338745
0001b0 2e 46 98 3b 27 c7 74 3b 15 c3 7e 3b 34 0f a9 3b
       0.004647038 0.003735015 0.0038873602 0.005159283
0001c0 4a 97 a7 3b 5c 11 3b 3b fe 8d 78 3b 67 ff 7f 3b
       0.0051144706 0.0028544283 0.003792643 0.0039062144
0001d0 af fc 71 3b 23 a6 75 3b 10 ed 59 3b 8b 83 48 3b
       0.0036924293 0.0037483058 0.0033252873 0.0030595984

conv3.pointwise.weight_fake_quant.activation_post_process.min_val f4 [120]
000000 53 71 f1 be 60 ae c8 be dc c2 d2 be a0 e2 b7 be
       -0.47156772 -0.39195538 -0.4116429 -0.3591509
000010 4a c5 fa be bc ef 21 bf ef c6 f0 be 21 d3 ab be
       -0.48978645 -0.6325643 -0.47026774 -0.33559516
000020 55 a1 83 be 25 98 d1 be de 8e 0e bf 5c 76 a3 be
       -0.25709024 -0.4093639 -0.5568675 -0.3192624
000030 e9 36 02 bf ee 80 cc be 5a 4d 21 bf f8 24 d6 be
       -0.50865036 -0.39942116 -0.63008654 -0.4182508
000040 1c b6 db be d6 8b 77 be e7 b2 91 be 9c 00 c0 be
       -0.42912376 -0.24174437 -0.28456804 -0.37500465
000050 a1 f7 08 bf fa 60 c9 be 56 3a a0 be d5 6b 21 bf
       -0.5350285 -0.393318 -0.31294507 -0.63055164
000060 b6 4a 00 bf 9d c7 05 bf 5f fc 94 be 1d 64 94 be
       -0.50114 -0.5225771 -0.29098794 -0.2898263
000070 d9 1b 18 bf 0c 82 98 be 11 ea bd be 18 a0 f7 be
       -0.5941749 -0.29786718 -0.3709264 -0.4836433
000080 7b c6 21 bf da 15 91 be 15 f0 c3 be 39 57 d2 be
       -0.6319348 -0.28336984 -0.38269106 -0.4108217
000090 eb a2 09 bf a3 0c b1 be 60 33 83 be c6 65 fd be
       -0.5376422 -0.34579954 -0.25625134 -0.4949171
0000a0 98 c4 bb be c6 42 9e be f2 74 da be d7 3f e7 be
       -0.36673427 -0.3091032 -0.42667347 -0.45165893
0000b0 42 e5 9c be 9e 32 99 be 4e bb 9d be 72 89 b7 be
       -0.3064366 -0.2992143 -0.30806965 -0.3584705
0000c0 8a b2 a1 be b2 87 83 be b6 37 95 be 15 ec fb be
       -0.31581527 -0.25689465 -0.29144067 -0.49203554
0000d0 84 48 d0 be da ab b5 be 8a 48 97 be 30 e1 aa be
       -0.40680325 -0.35482675 -0.2954753 -0.3337493
0000e0 03 d7 f0 be 20 4b c3 be 9e c7 f9 be 44 a5 03 bf
       -0.4703904 -0.38143253 -0.48785108 -0.5142405
0000f0 29 0e be be 53 00 ef be b2 21 f9 be ab d6 a9 be
       -0.37120178 -0.46679935 -0.4865852 -0.3317159
000100 04 5d e0 be 9f 8e e7 be 5f f0 90 be 64 1a ee be
       -0.43820965 -0.45226 -0.2830839 -0.4650451
000110 f2 f6 e8 be 8a 99 85 be 81 dc 17 bf a7 b5 69 be
       -0.45500904 -0.26093704 -0.5932084 -0.22823201
000120 dd 93 f1 be 8c 43 1d bf 5e 5c df be d3 c1 a9 be
       -0.47183123 -0.61431193 -0.43625158 -0.3315569
000130 7a 96 a6 be 00 f9 06 bf c9 05 f3 be 86 69 bf be
       -0.3253668 -0.52723694 -0.4746535 -0.37385195
000140 45 ea d4 be 79 83 b2 be 1c 29 b5 be eb 76 e5 be
       -0.41584983 -0.3486593 -0.35382926 -0.4481729
000150 37 32 e1 be 7c c9 e8 be 48 c8 b3 be ff fa b0 be
       -0.43983623 -0.4546622 -0.3511374 -0.34566495
000160 ad 9e 10 bf 75 23 d9 be 4e 3e 85 be 5a 29 8c be
       -0.5649212 -0.42409864 -0.26024097 -0.273753
000170 13 e4 06 bf 6b 7d d3 be 47 64 19 bf 0e d9 7e be
       -0.52691764 -0.41306624 -0.59918636 -0.24887487
000180 de f0 ba be 54 3c f8 be 70 a8 0a bf 3e ed 20 bf
       -0.36511892 -0.48483527 -0.54163265 -0.62862
000190 f4 22 b1 be 0a 5f 89 be 8c cc 7f be 07 1b e2 be
       -0.3459698 -0.26830322 -0.24980372 -0.44161245
0001a0 98 bb f0 be 97 08 3a be f4 f4 96 be 80 f7 5f be
       -0.47018123 -0.1816734 -0.2948376 -0.21871758
0001b0 2e 46 18 bf 27 c7 f4 be 80 97 86 be 72 1b 8f be
       -0.59482086 -0.4780819 -0.2628746 -0.27950627
0001c0 a0 51 9f be fc 1d 85 be fe 8d f8 be f0 07 87 be
       -0.31116962 -0.2599944 -0.4854583 -0.26373243
0001d0 56 de cf be e4 95 c6 be 65 1d d2 be 8b 83 c8 be
       -0.40599316 -0.38786232 -0.4103805 -0.3916286

conv3.pointwise.weight_fake_quant.activation_post_process.max_val f4 [120]
000000 e0 7e fc 3e 38 c6 ab 3e 70 9f a1 3e 9c 76 ba 3e
       0.49315548 0.33549666 0.31566954 0.36418617
000010 06 74 f5 3e 0c 9e a6 3e f4 8d 94 3e a7 59 e7 3e
       0.4794008 0.32542455 0.29014552 0.45185587
000020 98 11 d7 3e eb 1b 9f 3e 98 62 0b 3f 98 74 e3 3e
       0.4200561 0.31075987 0.5444732 0.4442489
000030 b2 e8 c9 3e 36 3c cc 3e e0 7a 90 3e e6 1c 0c 3f
       0.39435345 0.39889687 0.28218746 0.54731596
000040 a3 61 a3 3e c0 ba a9 3e 72 9a d7 3e e1 34 bc 3e
       0.31910428 0.3315029 0.4211002 0.36759093
000050 65 43 0b 3f 84 b7 b3 3e ad de da 3e 10 b2 08 3f
       0.5439971 0.3510095 0.42748013 0.533967
000060 5a 95 d2 3e e2 6c 94 3e f2 cb e5 3e ef 62 da 3e
       0.4112957 0.2898932 0.4488216 0.42653605
000070 10 47 d2 3e a7 6a f2 3e 50 70 01 3f 5c 5c 23 3f
       0.4106984 0.47346994 0.50562 0.63812804
000080 c0 a2 dc 3e 9f f1 d0 3e f3 c6 bd 3e ce 21 ef 3e
       0.43092918 0.40809342 0.3706585 0.46705478
000090 89 7e 9b 3e cc f9 8a 3e aa 67 e8 3e 0d 74 83 3e
       0.30369976 0.27143705 0.4539159 0.25674477
0000a0 14 df a4 3e bf f3 e6 3e 4a d1 66 3e bb 65 00 3f
       0.32201445 0.4510784 0.22540775 0.5015523
0000b0 e2 4d b0 3e 45 9a ea 3e 50 95 0e 3f da 3e cb 3e
       0.3443442 0.45820823 0.5569658 0.3969639
0000c0 b6 e3 ef 3e 72 86 b7 3e 6a f9 31 3f b2 a6 e5 3e
       0.46853417 0.3584476 0.695212 0.4485374
0000d0 27 b6 0f 3f 9d 6b fa 3e 49 c8 01 3f 42 f5 0d 3f
       0.5613732 0.48910227 0.50696236 0.5545236
0000e0 61 95 f0 3e 77 65 c7 3e 28 7d ff 3e ca 63 a0 3e
       0.46988967 0.389446 0.49900174 0.31326133
0000f0 43 73 bb 3e 2d 1c a0 3e dc 87 ec 3e 12 36 c3 3e
       0.36611375 0.31271496 0.46197402 0.3812719
000100 9b 12 9e 3e 4c 5f 0d 3f 80 dd a4 3e b9 d5 d6 3e
       0.3087357 0.55223536 0.3220024 0.41959932
000110 9a 8e 86 3e b0 8a d1 3e 8e a1 bb 3e 04 f4 da 3e
       0.2628067 0.40926123 0.36646694 0.42764294
000120 91 49 da 3e 1d d7 a3 3e 27 7b 99 3e 3e ad 2e 3f
       0.42634252 0.32000056 0.2997677 0.68233097
000130 c4 79 f7 3e b3 59 b2 3e 8e f9 a2 3e 12 53 10 3f
       0.48335087 0.3483406 0.3183102 0.56376755
000140 56 16 e6 3e 56 ad ea 3e d3 f2 c2 3e 5d 25 a3 3e
       0.44938916 0.4583537 0.38075885 0.31864443
000150 de 46 ec 3e a0 b1 f3 3e c2 37 b2 3e 10 a2 c1 3e
       0.46147817 0.47596455 0.34808165 0.37818956
000160 35 75 28 3f 02 d1 e6 3e ea 27 d0 3e 22 74 94 3e
       0.65803844 0.45081335 0.40655452 0.28994852
000170 a0 76 90 3e bc e8 8a 3e ce f1 e6 3e ff 0f e2 3e
       0.28215504 0.27130687 0.45106357 0.4415283
000180 68 66 c1 3e 76 ce 14 3f 2d 73 d5 3e 23 88 2d 3e
       0.37773442 0.58127534 0.41689435 0.16946463
000190 f4 02 ed 3e 7a 96 f7 3e 25 09 d6 3e 36 ae d5 3e
       0.46291316 0.48356992 0.41803852 0.41734475
0001a0 16 b3 0d 3f 19 3c cf 3e 88 45 e9 3e 28 c8 d8 3e
       0.5535139 0.40475538 0.4556086 0.42340207
0001b0 e1 11 ab 3e 4c c8 b0 3e 8f c5 fc 3e 16 bd 27 3f
       0.33412078 0.34527814 0.49369475 0.655229
0001c0 1b 48 26 3f 39 9b b9 3e 86 54 c0 3e 68 ff fd 3e
       0.64953774 0.36251238 0.37564486 0.49608922
0001d0 b6 18 f0 3e d7 ba f3 3e 36 39 d8 3e 39 ce 97 3e
       0.46893853 0.47603485 0.42231148 0.29649523

fc1.weight f4 [84, 120]
000000 4e 0e b3 bc 82 8e 8a 3d 5e 24 01 be 7b 86 05 3e
       -0.021857407 0.067654625 -0.12611529 0.13039581
000010 30 25 3c 3e 9b d4 9c 3d cf 0a 06 3e 39 71 2b 3e
       0.18373561 0.07657739 0.1309006 0.1674241
000020 90 f2 07 3e 64 14 32 be 85 db 2c 3d ae 5a 66 3e
       0.13276124 -0.17390591 0.042201538 0.22495529
000030 7b c7 7f 3e 4b f0 e9 3d 97 55 59 bd 05 9d 86 bd
       0.2497844 0.11422785 -0.05306014 -0.06572918
000040 8d bc 0e 3e f3 0b a1 3d f6 99 74 be 45 1b da 3d
       0.13939114 0.07863607 -0.23886856 0.106497325
000050 8a 10 f9 be f8 24 0e bd a2 5b ec b9 1a 68 ed 3c
       -0.4864543 -0.034703225 -0.000450817 0.028980304
000060 3b 60 d1 bc 38 0d 22 bd fb b5 6e 3c 66 9e 68 3d
       -0.025558582 -0.039563388 0.014569755 0.056791686
000070 5d 2a 79 3d a8 d0 f1 3d f1 61 34 be da 10 50 be
       0.060831416 0.11807376 -0.17615487 -0.20318928
000080 9d f3 ac be fd 7f 46 3d 50 bd be 3c 60 d2 38 be
       -0.33779612 0.048461903 0.02328363 -0.18049002
000090 94 e6 ea 3d 93 08 5c be 8e 97 66 be 8f 4e 10 3e
       0.114697605 -0.21487646 -0.22518751 0.14092468
0000a0 06 48 15 be d7 0d 74 be 50 52 7b 3d 3d 75 09 be
       -0.14578256 -0.23833404 0.061357796 -0.13423629
0000b0 44 89 85 bd 6d b8 87 be b9 08 79 be 47 4a af bd
       -0.06520322 -0.26507893 -0.24319734 -0.08559089
0000c0 d8 1f b1 bd 6f ef a6 3d ed b8 d0 bc 69 67 bb 3c
       -0.08648652 0.08151137 -0.025478804 0.022876458
0000d0 5a 06 3b bd 96 56 eb 3d 93 d0 d2 3c b0 b4 8b bd
       -0.045660354 0.11491124 0.025734222 -0.06821573
0000e0 c0 7b b8 bb 5d 1a c6 3d ea 18 9b 3c 3a 64 af 3d
       -0.0056299865 0.09672997 0.018932778 0.085640386
0000f0 e0 0d 49 be de 51 83 be b8 d2 e5 bd 83 39 e4 bd
       -0.19634199 -0.25648397 -0.11221832 -0.11143782
000100 46 5e 85 3d c3 82 09 3d 2f e5 e3 bd 18 2c 89 bc
       0.06512122 0.03357197 -0.11127698 -0.016744658
000110 6c 56 10 bd 24 9c dd bb be 1c 60 3d 06 8a 96 be
       -0.03523867 -0.006762998 0.05471491 -0.2940218
000120 93 b8 7c 3e a9 2c 44 be fb e0 1e 3e 4e 40 13 be
       0.24679784 -0.19157661 0.1551551 -0.14379999
000130 c8 36 c6 3d be 42 9c 3d b4 56 45 bd b2 cf 42 3e
       0.096784174 0.076299176 -0.04817839 0.19024542
000140 44 4e 7d be 05 a3 e2 3c f0 0b 94 3d 21 af 9c bd
       -0.24736887 0.027665624 0.072288394 -0.07650591
000150 a6 e5 31 be 72 a7 ca 3c e7 49 9d bc b5 b8 5e be
       -0.1737276 0.024738047 -0.019200278 -0.21750148
000160 f5 ef 99 be 2a ae 96 be ce 4b 99 bd 0e 7a d4 ba
       -0.30065885 -0.29429752 -0.07485162 -0.0016210692
000170 e1 f6 2f 3e a6 1b 7a be 7b 21 96 bd ea 4c 8e 3d
       0.1718402 -0.2442461 -0.07330605 0.06948264
000180 bf f8 c1 be d2 6a 3a be 15 6f 99 be f7 36 e8 3c
       -0.3788509 -0.18204811 -0.2996756 0.028346522
000190 00 c8 30 be 3d 62 94 bd c9 25 8c 3d 12 ea 36 3e
       -0.17263794 -0.072453 0.068431444 0.17862728
0001a0 dc 73 4d be 12 82 41 3d 59 59 9c bd 02 b1 70 be
       -0.20063728 0.047243185 -0.07634229 -0.23505023
0001b0 59 17 03 bd 97 45 21 3e 5c ed ca 3e 92 36 8d bc
       -0.032004688 0.15749203 0.39634216 -0.017237935
0001c0 4f ea a8 3e f9 78 07 3e 0a a9 f6 3c 84 84 0a 3e
       0.32991263 0.13229741 0.030109901 0.13527113
0001d0 d6 0e 3a be b1 ee 75 be 03 f4 f1 bd 5a ea a9 3d
       -0.18169722 -0.24016835 -0.1181412 0.08296652
0001e0 c6 79 ab bd 18 76 e0 bc 2c 02 ad 3c 20 c8 a1 bd
       -0.08372836 -0.027400061 0.0211192 -0.07899499
0001f0 29 00 1a bd 09 50 0c bc ac 96 fa 3c 07 73 e5 bc
       -0.03759781 -0.008564004 0.030589424 -0.02800895
000200 38 6a 2c bc fa f1 03 3d e0 fc b2 bd 61 b2 f3 bc
       -0.010523371 0.03221319 -0.08739638 -0.029748144
000210 8e 4e 88 3d 26 4c 35 bb b9 4e 11 bc 8a 2c aa 3c
       0.06655608 -0.0027663796 -0.008868867 0.020773191
000220 15 7e af 3c 3d a6 8d bc 3c be 63 3d 10 a7 4a 3d
       0.021422425 -0.017291183 0.055601344 0.04947573
000230 04 c5 df bd 1a bd e6 bd 6a db 36 bd 68 69 92 3d
       -0.109262496 -0.11266537 -0.044642843 0.07149011
000240 1a db 08 3d 88 91 43 bc 9c 07 9f 3c 69 ed 50 bd
       0.033412077 -0.011936553 0.019412808 -0.051007662
000250 95 33 12 be bd 90 14 bd 9a 85 d3 3c e5 ee 4b 3d
       -0.1427749 -0.036270846 0.025820542 0.049788374
000260 d0 18 36 ba 14 57 63 3b df ee 80 3c 76 43 8d bd
       -0.00069464464 0.0034689354 0.015738903 -0.06897633
000270 55 e6 52 3d 5c ac 37 3c e1 f7 a0 3d e9 c2 68 bd
       0.051489193 0.011210527 0.07859779 -0.056826506
000280 95 de 89 bd d1 7b 85 bd 19 53 2f 3d 10 9a 2c 3d
       -0.06731907 -0.06517757 0.042803857 0.042139113
000290 f0 99 aa bd 1d 4c 00 be 3c e3 84 bd 51 ab 08 bd
       -0.083301425 -0.12529035 -0.06488654 -0.033366505
0002a0 d7 26 53 bd 25 2c 99 3d 4c 3c a1 3c cd e5 3d 3d
       -0.051550712 0.07479123 0.019682072 0.046361733
0002b0 50 5e 31 3d 7c e9 06 3c 60 06 73 bd 6d d8 05 ba
       0.043302834 0.008234378 -0.05933225 -0.00051057973
0002c0 2e cc 63 3b 4a c6 b8 bd 67 10 aa bd f1 c1 3f 3d
       0.0034759152 -0.09022196 -0.0830391 0.046815816
0002d0 ab 1a 89 bd 4c dc 67 3d 5a 0d 40 bd b7 41 ed bd
       -0.0669454 0.056606576 -0.046887733 -0.115848
0002e0 ff 75 07 bd fc 70 83 bd 90 6f 43 3d 36 a6 32 bd
       -0.033071514 -0.064180344 0.047713816 -0.043615542
0002f0 26 56 23 bd 40 48 19 bb 0a a6 86 3b de 6f 89 3d
       -0.03987708 -0.0023389012 0.004109149 0.0671079
000300 8b 44 8b bc 7a f5 78 bd f1 c7 aa bc 32 9c aa bc
       -0.017000457 -0.06078098 -0.020847293 -0.020826433
000310 10 72 e8 bb 73 1e c3 bd 44 b5 84 bd 6c 73 8f bc
       -0.0070936754 -0.09527292 -0.06479886 -0.017511092
000320 38 bd 6e bd f2 06 71 bd 51 f8 91 bd 53 3d b2 3b
       -0.05828592 -0.058844514 -0.07127441 0.0054394393
000330 59 35 78 bc 41 17 a0 bd 6b 08 45 bb df 7a 82 3d
       -0.015149438 -0.07816935 -0.0030064832 0.06371092
000340 48 0a 14 bc 18 5f 9e bd f0 49 57 bd f3 14 f8 bc
       -0.009035654 -0.077329814 -0.052560747 -0.030283427
000350 24 e7 0f be 85 c8 e2 bd 22 ad b8 bd c5 17 50 bc
       -0.14053017 -0.11073402 -0.090173975 -0.01270098
000360 2e 31 37 bd 78 65 7d 3d 82 8f c7 bd c3 cc 5d bc
       -0.044724636 0.061864346 -0.09744169 -0.0135375885
000370 30 1a 68 bc 43 f6 a6 3d 49 75 cd bd fd ec 28 3b
       -0.0141664 0.081524394 -0.10032136 0.0025776022
000380 3e b8 aa 3c d8 4d 5c bc 04 77 1d bc fc d9 f0 bd
       0.020839807 -0.013446294 -0.009610895 -0.11760327
000390 17 8b b2 bd 7a 33 55 3d d9 31 55 3c 46 ee 38 bd
       -0.087179355 0.052051045 0.013012373 -0.04514911
0003a0 a6 47 4b bd 92 c0 2b 3d bb 6e 47 bd 5f 65 ad bd
       -0.049628876 0.041931696 -0.048689585 -0.084666006
0003b0 4b 08 02 bd a6 75 a4 bd 5b 7f 4f bd a0 6e 25 bd
       -0.03174619 -0.08030252 -0.050658565 -0.040388703
0003c0 72 6e d8 3c b6 78 f2 bc 41 d6 1b be 80 04 26 3e
       0.026419852 -0.029598575 -0.1521845 0.16212654
0003d0 d2 df 2d 3e ef 54 d0 3d 49 d2 06 bd f5 2b bd 3d
       0.16979912 0.1017245 -0.032915387 0.092369
0003e0 5d f2 52 3e c6 6d 9d bd 6c 4d ee 3d f1 e4 9b 3d
       0.20600267 -0.07686953 0.11635861 0.076120265
0003f0 79 9e 8b 3e 6f de 5b 3d f8 b6 1f 3e 12 69 30 bd
       0.27269343 0.053678926 0.15597141 -0.043068953

fc1.weight_fake_quant.scale f4 [84]
000000 e6 0d 79 3b 64 33 92 3a 21 ec 47 3b 85 4b 7a 3b
       0.003800267 0.0011154232 0.0030505734 0.0038191986
000010 c8 00 55 3b c6 36 7e 3b 56 07 73 3b 24 70 73 3b
       0.0032501686 0.0038789972 0.003708323 0.0037145698
000020 22 00 6a 3b e7 ac 62 3b e0 70 70 3b 02 50 86 3b
       0.0035705646 0.003458792 0.0036688372 0.004098893
000030 9e d0 6c 3b 86 f8 5c 3b 43 b9 74 3b cb 48 47 3b
       0.0036135088 0.0033717467 0.003734187 0.0030408378
000040 59 4b 96 3b bd c3 89 3b 94 15 6c 3a 46 a4 48 3b
       0.004586619 0.004204242 0.0009005901 0.0030615493
000050 96 69 4d 3b c8 4a 86 3b 86 44 76 3a 5c 6a 87 3a
       0.0031343452 0.00409827 0.0009394366 0.001033138
000060 38 87 5f 3b 54 28 77 3b 5e fa 6c 3b 90 db 7d 3b
       0.0034107696 0.0037713246 0.0036159973 0.0038735606
000070 02 f8 75 3b 3c 3a 60 3b 25 cb 5b 3b 6c 60 89 3b
       0.0037531857 0.0034214398 0.0033537832 0.0041924026
000080 55 ec 61 3b 6c 0e 6f 3b 08 00 5a 3b f0 ee 59 3b
       0.003447314 0.0036477102 0.0033264179 0.003325399
000090 e2 c3 59 3b b6 b8 7e 3b 91 55 71 3b e0 dc 73 3b
       0.0033228328 0.003886742 0.0036824683 0.003721051
0000a0 d0 68 82 3b 92 a9 9b 3a ba 6b 8e 3b 5d 5f 32 3b
       0.00397978 0.0011876097 0.004346338 0.0027217485
0000b0 60 1f 78 3b 06 13 74 3b 07 86 70 3b d0 0e 6f 3a
       0.0037860498 0.0037242784 0.003670098 0.00091193337
0000c0 52 13 55 3b fe 3f 5a 3b 1d 61 81 3b 7f 52 85 3b
       0.0032512737 0.0033302302 0.0039483444 0.004068672
0000d0 f7 ef 7a 3b 59 c6 4c 3b 78 05 60 3b 3f bc 5f 3b
       0.0038290003 0.0031246154 0.0034182947 0.0034139303
0000e0 b0 e8 50 3a 58 a7 6b 3b e6 61 85 3b b5 45 77 3b
       0.00079692435 0.00359579 0.0040705083 0.0037730758
0000f0 3a 83 6d 3b a6 54 6b 3b 26 1f 81 3a 7a 22 68 3b
       0.0036241547 0.0035908609 0.0009851202 0.003542094
000100 3d a7 71 3b aa f4 82 3b 17 57 82 3b 1a 74 4d 3b
       0.0036873363 0.0039964514 0.003977667 0.003134972
000110 42 83 8f 3b ee 0b 83 3b c4 f3 62 3b 06 8e ab 3a
       0.004379661 0.003999225 0.003463016 0.0013088591
000120 fa 98 6f 3b de 04 78 3b 60 fe 2d 3b fc 60 63 3b
       0.0036559687 0.0037844698 0.0026549324 0.0034695258
000130 ec 03 89 3b f7 00 6f 3b 9b b7 66 3b 95 4b 62 3b
       0.0041813757 0.003646908 0.0035204652 0.0034529914
000140 46 51 61 3b a5 79 56 3b 3f 37 66 3b d1 19 85 3b
       0.0034380718 0.0032726314 0.0035128144 0.0040619154

fc1.weight_fake_quant.activation_post_process.min_val f4 [84]
000000 e6 0d f9 be 64 33 12 be 21 ec c7 be 83 83 ed be
       -0.48643416 -0.14277416 -0.3904734 -0.46389398
000010 61 85 9b be 4a 05 ac be 56 07 f3 be 24 70 f3 be
       -0.30375198 -0.33597785 -0.47466534 -0.47546494
000020 22 00 ea be e7 ac e2 be 20 35 be be 10 88 82 be
       -0.45703226 -0.4427254 -0.37149906 -0.25494432
000030 9e d0 ec be 87 57 8b be 8c 25 b7 be cb 48 c7 be
       -0.46252912 -0.27215216 -0.35770833 -0.38922724
000040 3e c7 e0 be 0c 7c 09 bf 94 15 ec bd 46 a4 c8 be
       -0.4390201 -0.53704906 -0.11527553 -0.3918783
000050 96 69 cd be c8 4a 06 bf 86 44 f6 bd 5c 6a 07 be
       -0.40119618 -0.5245786 -0.120247886 -0.13224167
000060 ad ae a2 be d2 ed 7e be 02 25 bc be aa d3 99 be
       -0.31773892 -0.24895409 -0.36746985 -0.300443
000070 d4 94 69 be 3c 3a e0 be 76 6a 96 be a4 ef 8a be
       -0.2281068 -0.4379443 -0.29378098 -0.27135956
000080 b4 57 b0 be 65 09 c1 be 08 00 da be f0 ee d9 be
       -0.34441912 -0.3770248 -0.4257815 -0.42565107
000090 ad a9 8c be 6e 37 b4 be c9 24 86 be c2 5b 97 be
       -0.27473202 -0.3519854 -0.2619994 -0.29562193
0000a0 b5 78 9c be 92 a9 1b be ba 6b 0e bf 8c 6a b1 be
       -0.30560842 -0.15201405 -0.5563313 -0.346516
0000b0 70 e6 92 be d0 82 52 be 07 86 f0 be d0 0e ef bd
       -0.28691435 -0.20557714 -0.46977255 -0.11672747
0000c0 1c 42 a2 be fe 3f da be 1d 61 01 bf 74 5b 8c be
       -0.31691062 -0.42626947 -0.5053881 -0.27413523
0000d0 e1 62 e5 be 59 c6 cc be da 2a 85 be b7 86 d7 be
       -0.44802 -0.39995077 -0.26009256 -0.42094967
0000e0 b0 e8 d0 bd 56 ab 4a be f1 bd a4 be 22 a2 3b be
       -0.102006316 -0.19791922 -0.32176164 -0.18323568
0000f0 28 f5 9b be a6 54 eb be 26 1f 01 be 6c fe d3 be
       -0.30460477 -0.4596302 -0.12609538 -0.41405046
000100 fd a1 eb be ac e9 c8 be 17 57 02 bf 1a 74 cd be
       -0.46022025 -0.39240777 -0.5091414 -0.4012764
000110 e8 ee 99 be 74 84 a5 be 1a f1 94 be 06 8e 2b be
       -0.30065084 -0.32327616 -0.29090196 -0.16753396
000120 fa 98 ef be 8b 19 5c be 94 78 75 be fc 60 e3 be
       -0.467964 -0.21494119 -0.23971778 -0.4440993
000130 ec 03 09 bf 7b 30 97 be 5f 98 95 be f4 7a de be
       -0.5352161 -0.29529175 -0.29217812 -0.4345318
000140 46 51 e1 be 29 c1 78 be 8e de a8 be d1 19 05 bf
       -0.4400732 -0.24292435 -0.32982296 -0.5199252

fc1.weight_fake_quant.activation_post_process.max_val f4 [84]
000000 1a ec ca 3e 74 f6 a6 3d 9e 9c 8b 3e ee 56 f8 3e
       0.39633256 0.08152476 0.27267927 0.48503822
000010 c6 56 d3 3e 58 3a fc 3e 01 6a a4 3e 2a 10 bb 3e
       0.4127714 0.49263263 0.32112125 0.3653577
000020 08 ec ba 3e 52 50 b9 3e fe 8f ee 3e 62 43 05 3f
       0.36508203 0.36194092 0.46594232 0.52055943
000030 1d 3e 9f 3e 95 3e db 3e d0 cf f2 3e c4 fa b6 3e
       0.31102076 0.42821184 0.47424173 0.35738194
000040 c2 1e 15 3f 36 b0 08 3f 0a 21 9d 3d 03 18 ac 3e
       0.5825006 0.53393877 0.07672317 0.3361207
000050 8e 1e bb 3e d9 8a ce 3e dc a2 a4 3d 10 e9 94 3d
       0.3654675 0.40340307 0.080388755 0.07271016
000060 2a c8 dd 3e 03 3a f5 3e 69 20 eb 3e d9 df fb 3e
       0.43316776 0.47895822 0.45923164 0.4919422
000070 12 0c f4 3e c4 47 b4 3e 8f 13 da 3e ab 4d 08 3f
       0.4766546 0.35211003 0.42593047 0.5324351
000080 7c 28 e0 3e 4f 30 ed 3e 89 ba 8c 3e 55 23 93 3e
       0.43780887 0.4632592 0.27486065 0.28737894
000090 5a 10 d8 3e 45 bb fc 3e e6 72 ef 3e 26 f5 f1 3e
       0.42199975 0.49361625 0.46767348 0.47257346
0000a0 fe 63 01 3f a3 1c c7 3d c6 63 97 3e 9e fa b0 3e
       0.505432 0.09722259 0.2956831 0.34566206
0000b0 21 2f f6 3e e0 2a f2 3e 89 72 ea 3e 2c 55 98 3d
       0.48082832 0.47298336 0.45790508 0.0743812
0000c0 2b 69 d3 3e 8d bc a1 3e 42 b8 cc 3e da 47 04 3f
       0.41291174 0.31589165 0.39984328 0.51672137
0000d0 17 fa f8 3e 21 42 9c 3e 6d 45 de 3e c7 fc dd 3e
       0.48628303 0.30519202 0.43412343 0.43356916
0000e0 1a c7 ab 3d 09 d0 e9 3e 22 57 04 3f 2a 57 f5 3e
       0.08387585 0.4566653 0.51695454 0.47918063
0000f0 34 a8 eb 3e 80 6f ac 3e 96 75 fe 3d 35 52 e6 3e
       0.46026766 0.33678818 0.124247715 0.44984594
000100 ef c3 ef 3e c1 ee 01 3f 0a 0d b7 3e ef cb a1 3e
       0.46829173 0.50754935 0.35752136 0.316009
000110 3b 64 0e 3f d6 05 02 3f dc 2d e1 3e 62 dd 8d 3d
       0.5562169 0.50790155 0.439803 0.06926991
000120 52 a9 97 3e d4 14 f6 3e 63 a2 ac 3e 30 dc 83 3e
       0.2962137 0.48062766 0.3371764 0.25753927
000130 78 11 07 3f f5 22 ed 3e 2c ea e4 3e fe 86 e0 3e
       0.5276103 0.46315733 0.4470991 0.4385299
000140 5d 59 a9 3e b2 cc d4 3e d1 6a e4 3e 1a 20 d0 3e
       0.3307599 0.4156242 0.44612744 0.40649492
